my-submission/checkpoints/model_732160.pt (torch, 352797 bytes, 23 tensors)

local_map_cnn.0.weight f4 [32, 24, 3, 3]
00000000: e082 90bd 912d 463d d377 413e a9ba 94ba
00000010: b70f 45bd ac3b d53d a0fa a7bd dc69 72bd
00000020: f427 223e 6765 b43c f79e aebc 537f 12be
00000030: 96df 933d 87ee 08bc cf80 203e a3a9 0cbd
00000040: dec4 6ebc 5327 44be 4e76 dabc dca3 f33b
00000050: 48be e83d bdac 663b 4532 c5bd 464f e0be
00000060: c718 1ebc 7e0a 79bd 681f 663d 1d0d 9abc
00000070: acc1 04bd 7c1b 403d f770 5abd 5caa c5bd
00000080: 4c8c cdbe e96a e4bd f3b4 13be 0f7b 553c
00000090: 45ab 6c3a 4842 c6bc da26 df3d b077 e6bb
000000a0: 9f47 353d 4c27 e43c 0776 c2bd c305 d3bd
000000b0: 0eb5 cb3d 36c5 3d3d 9f1c 303d 8380 3fbe
000000c0: 70c4 183d 7096 85bb f7f9 103e 6ffe a83c
000000d0: 7da9 563d 4230 c0be fc4c 73bd df6c e4bd
000000e0: 6bae fbbd fd40 36bd 87df d6bd af23 84be
000000f0: fc0a 36bd 6c7e 96bd d9e0 1b3d b1ec 31bc
00000100: 57a4 24bd d5b1 923d 3959 523c c7ae 3cbe
00000110: 4055 2cbe f33a 61bd 9900 ac39 6a56 df3c
00000120: b616 48bd 563b 1b3d 9290 9f3d 15cd cabd
00000130: 9d64 83be 876f 07be e799 d3bd a670 24bd
00000140: 0d1f f53c 164d b1bc d179 ba3c 415e f1bc
00000150: 5799 143d 2480 fabc 63b9 6ebe f8e5 773d
00000160: 9832 78bd bb10 563d 9bdd 06be d46a f53d
00000170: f1c6 44bd 18e8 b8bd c83b c1bd 3583 afbe
00000180: 05de 44bd 0977 61bd 97c7 543d 9e77 98bd
00000190: 7d6d 55bd 169f 1c3c 2094 30be f723 2dbe
000001a0: de60 13be f1fc 6bbd c263 98bd b72c 5abd
000001b0: 154b cdbd fba0 88bd f365 c93d 66dd 26be
000001c0: 593d ebbd 6b3e a4be 674e 0dbe 7e0e d0bd
000001d0: 8967 77bc cba6 1fbb d15a 29bd 751e a33d
000001e0: 8398 46bd 0f31 183d 4072 8abe 0aa6 41be
000001f0: 30ff 58bd 94ef 4b3d 6259 693a 8cd3 12bb
00000200: 7c73 24be 2319 083d e216 2e3c 54c4 043e
00000210: 5b92 c0bd a2a5 69bd ce59 4ebe ec25 4ebd
00000220: f04f 5e3c 2934 373e 1d38 ba3d 21ca 34bd
00000230: 9870 b7bd 62ca 743b 830e c73d 38e9 803e
00000240: 28d8 ac3d 479c ae3d bd4b 0e3e 2745 d83c
00000250: 56b0 3ebd a266 19bf c62d 1b3d 299b 8ebd
00000260: 0b3e 513e c190 55bd ee82 8ebd 07aa babd
00000270: 59a2 2fbd b487 5dbd 394a cebc 9372 f23c
00000280: d118 33bd 26f1 44be 993a 2d3e f624 d9bd
00000290: 4d8f a53e 508e 40bd 8fe4 0bbd 8d32 f03e
000002a0: c18c 693e 0ca0 c33c b658 c73e e69b 8e3c
000002b0: 4f4d 533d 8130 ab3c 898c b5bc 3916 fbbd
000002c0: 403f 2e3e 44c5 22bd 86bf 663d 7c45 61bd
000002d0: 2e10 39be e3a5 f4bd a48a b6bd 45f8 383d
000002e0: 5fae 2dbe 10f2 11be f652 99bd 3e60 d9bd
000002f0: 83c0 a03d ed4c ad3e c9b4 013f 9c68 9e3e
00000300: 93de 2c3f b0fc 103f 5096 cb3e d9b2 82bd
00000310: 9a38 513e 7508 f63d 1939 fc3e 5005 f03e
00000320: 1ca1 453b 568a 2b3f 3c1a 3f3f d8e1 ea3d
00000330: c611 0c3e 1bc9 c83e ed0d ba3e 716a 293e
00000340: 4d7a a43d f821 cc3d 9e56 c03d 35d5 4339
00000350: 231d b0bd 69d8 b03d 1bd7 e4bc 6846 11bd
00000360: bed4 3c3d 3da8 a3bb f849 8d3d 0be2 30bd
00000370: e286 6c3d 541a 4d3d c813 50bd 52b8 9f3d
00000380: 3bd6 53bd e7da 2c3c c9db 623d 6074 02bc
00000390: 78a7 553d cc2f ee3c 53f8 d83c 296e 453d
000003a0: 0220 cc3d 8344 133d 0b8b 38bc 4696 98b9
000003b0: 644e 183d 7c7e c6bc 5503 81bd 5165 a13c
000003c0: 455e 37bb 83a4 13bc e1f7 883b edfe 033d
000003d0: e021 e63b aa27 303d f034 0d3d 6ce1 4d3d
000003e0: 094a 973d 1eda 1f3d 3b61 293d 9713 803d
000003f0: c9c9 883d 7d81 e13c 24b2 933d bb1b 67bc
-0.070562124 0.0483833 0.18893366 -0.0011347133 -0.04811069 0.10411772 -0.082021 -0.059182987
0.15835553 0.022021009 -0.021316035 -0.14306383 0.0722038 -0.008357651 0.15674137 -0.034341466
-0.014573304 -0.19155626 -0.02666774 0.007435305 0.11364418 0.0035198175 -0.09628729 -0.4381048
-0.009649462 -0.06080102 0.056182295 -0.018805081 -0.032411262 0.04690121 -0.053330388 -0.09651634
-0.401461 -0.11153204 -0.14424495 0.013029828 0.00090282067 -0.024201527 0.10896082 -0.007033311
0.044257756 0.02785077 -0.09495168 -0.10303833 0.09946643 0.046330653 0.042996045 -0.18701367
0.037296712 -0.0040767714 0.14157854 0.020629136 0.05240773 -0.37536818 -0.05939959 -0.11153578
-0.12289127 -0.04449557 -0.10491853 -0.25808474 -0.04444407 -0.07348332 0.03805623 -0.010859654
-0.04019579 0.07162825 0.012838655 -0.18426047 -0.16829395 -0.05498786 0.00032806842 0.027262885
-0.048849784 0.037898384 0.077912465 -0.099023975 -0.256627 -0.13226138 -0.10332089 -0.040146492
0.029922033 -0.021643203 0.022763165 -0.02946389 0.03627905 -0.03057868 -0.23312907 0.06052205
-0.060595125 0.05226205 -0.13170473 0.119832665 -0.048041288 -0.09028643 -0.094352305 -0.3427979
-0.048063297 -0.05504516 0.051948156 -0.0744469 -0.05210637 0.009559413 -0.17244005 -0.16908251
-0.1439242 -0.05761427 -0.07440902 -0.0532653 -0.100240864 -0.066713296 0.098338984 -0.16295394
-0.114863105 -0.3207887 -0.1379944 -0.10159014 -0.015100368 -0.002436089 -0.041346375 0.079647936
-0.04848529 0.03715616 -0.2704029 -0.18910995 -0.05297774 0.049789026 0.00089015637 -0.0022403924
-0.16059679 0.033227097 0.010625573 0.12965518 -0.09402915 -0.057042725 -0.20151445 -0.050329134
0.013568863 0.17890991 0.09092734 -0.044138078 -0.089570224 0.0037352075 0.09719565 0.25177932
0.08439666 0.08525901 0.1389608 0.026400162 -0.046554886 -0.5992223 0.03788545 -0.06963188
0.20433824 -0.05214 -0.069585666 -0.091144614 -0.042879436 -0.054084495 -0.025181876 0.029595649
-0.04372484 -0.19232616 0.16916884 -0.10602753 0.32335892 -0.04701072 -0.034153517 0.46913567
0.228076 0.023880027 0.3893487 0.017408323 0.0515874 0.020897152 -0.022161739 -0.12260098
0.17016315 -0.03973891 0.056334995 -0.054997906 -0.18072578 -0.11945703 -0.08913162 0.045158643
-0.16961049 -0.14252496 -0.07486527 -0.1061406 0.07849219 0.33847752 0.5066648 0.30939186
0.6752712 0.5663557 0.39763117 -0.06381769 0.20431748 0.12013332 0.49262312 0.46879053
0.0030155843 0.6700796 0.74649405 0.114688575 0.13678655 0.3921593 0.3633875 0.1654451
0.080311395 0.099674165 0.09391521 0.00018676075 -0.085993074 0.08635027 -0.027934602 -0.035467535
0.046101324 -0.004994421 0.06898874 -0.04318432 0.05774582 0.050073937 -0.050800115 0.07798828
-0.051717978 0.010550237 0.055385385 -0.007962316 0.052161664 0.029075526 0.026485598 0.04820076
0.099670425 0.03595401 -0.011263619 -0.00029103662 0.037184134 -0.024230234 -0.06299464 0.019701632
-0.0027979773 -0.009011391 0.00417994 0.032225538 0.007023081 0.043006577 0.034474313 0.050263807
0.07387168 0.039026372 0.04135249 0.062537365 0.066791125 0.027527565 0.07211712 -0.014105733

local_map_cnn.0.bias f4 [32]
00000000: 75c8 b9bb 142f 26bd 360f a3bc c035 aabd
00000010: b9a0 1b3d 319d 673c 12fa bf3c 6324 54bd
00000020: ae4e 9b3b 24ee c2bd 682e ca3b 8d21 cbbc
00000030: 65a3 cfbc 86be 13bd a5fc 0cbd eacc 0cbe
00000040: f297 18bd 84ae 3e3d ce74 073d 1953 543d
00000050: 95e4 a6bd 6c86 af3d ef56 d63b 7805 78bd
00000060: b3f4 9bbd 8475 87bd ca9c 4ebd 1d3d 0dbc
00000070: b765 5a3d afcb 4b3d de59 ab3d f342 853c
-0.0056696483 -0.04057224 -0.019904714 -0.08311033 0.037995074 0.014136598 0.023434673 -0.051792514
0.004739604 -0.09518078 0.006170083 -0.024796272 -0.025346467 -0.03607037 -0.034420628 -0.13750044
-0.03725428 0.04655315 0.033070378 0.05183706 -0.08149067 0.08570561 0.006541125 -0.06055209
-0.07615032 -0.06614211 -0.050442494 -0.008620528 0.05331966 0.049754795 0.0836675 0.016267275

local_map_cnn.2.weight f4 [32, 32, 3, 3]
00000000: 0a9d 283e 151f 20bd 8ef4 00be df91 ddbd
00000010: 80aa 32be 13a5 c23c f2c5 b1be 1c07 c2bc
00000020: 0260 91bd a314 c6bc 04ac 86bd ec62 2fbd
00000030: b19d 61bd 6ef6 9ebd 14cf 92bd b526 1a3c
00000040: 65f3 88bd 3af0 debd b7af a83d 8404 03be
00000050: fefa d7bb d34e 343e d3fa 0c3e 0f6a 1c3e
00000060: c1d3 63bd 7ac5 f8bd 7528 553b e7ea 9f3b
00000070: 84bd 5c3e 51ee 093e bd46 6a3d 5018 833e
00000080: 6429 4e3e fb17 1abe 9c17 e8bc c5b4 d73d
00000090: 78eb 073d 9c1c 3bbd 9bbd 723d 0aa9 463d
000000a0: 154a 86be 7307 bebd 94d4 5cba 0f64 10be
000000b0: ec07 28bd ac75 6bbd 9fe1 d1bd b2ac b73c
000000c0: 214a b8bc 744e 64be aaa9 c8bd 8bff 833c
000000d0: 7f58 bcbc 6806 6a3d a193 7abc ad77 0abd
000000e0: e71f 9bbd 5304 debc 7734 e2bc e6ff aebd
000000f0: 7a56 a0bc b6b5 e7bd 78a7 bcbc ce64 fa3d
00000100: ba20 da3d 18c1 043e 922d b03d f853 da3d
00000110: bfba 083e f913 673d 146a d03d cd0c ee3d
00000120: 5304 073e 5ae6 533e 7ffa d4bd 4026 e03d
00000130: 3f74 ccbd e867 ffbc b3bb 1a3e 7cc7 65bd
00000140: 88c4 f4bc ee0e 263d 2e38 c13d 3761 0b3d
00000150: 828b 6a3d 44e3 a13d 5a3d 693d 28cc 11bd
00000160: 9ead cc3c bf0f d83c d911 7c3b 1531 52bd
00000170: 690a 003d 018a 923d 5052 ddbd cb0e 21bd
00000180: 8eba 38bd 2cf8 15be 2cb0 5d3d 864e 8c3e
00000190: 9fc4 9e3c b21e 413e 0f3e 1f3d 983d 583d
000001a0: 1a56 a43d ed8d 4f3d ac38 59bd 2844 883d
000001b0: 1651 6dbd a2d7 e93c bfa1 81bc 5508 1a3e
000001c0: a54f 593d 8cd5 29be 283d 113d 6b25 32bd
000001d0: e104 7ebc f64b 533d 3469 f83d aa31 173d
000001e0: 8c95 963d eb83 a6bc dad2 a43c 1289 d13c
000001f0: 9fd0 923d 103e 273d eca9 74bd a30b 47bd
00000200: 1fad 20bd 7a64 01be 8dfc 4dbd 5ef6 9ebc
00000210: 7c0f 0bbe 40f4 0ebe a730 323a f004 583c
00000220: 1db7 ac3d fa04 80bd 990f 63bd 1e2a 9f3d
00000230: ce28 0c3d e8d2 74be 5a78 6cbc b580 36bd
00000240: a8a2 563d e110 1a3e 3c6c 263d c34d 1f3e
00000250: dbea 763e 7ed5 473d 0444 2b3d b7c0 c53d
00000260: 80d0 1f3e 27dc 943d 5653 6f3d 9ec8 1a3d
00000270: eeeb 543d 4fcb ec3d 4036 2f3d 0541 cebc
00000280: 7261 ce3d 177d cfbb 0119 123d b1f0 5bbd
00000290: 3560 433d 2fd5 803c 4fb4 643d 26a4 293e
000002a0: ec56 1d3c 9db9 32bd fcab 913d 12d2 3e3d
000002b0: a83e c5bd a97b 863c ed5a eb3d 0e2f 2c3e
000002c0: db15 da3d 75fd 253d cff3 4e3d 809b 2a3e
000002d0: 1ee4 3bb9 6d7e cc3d 4d14 d3bb 557e f23d
000002e0: c593 ee3c 80e4 873d c180 07be 6c60 07bd
000002f0: ce55 e53c 4381 cd3c 6e52 143e 3f4a 51bc
00000300: a6ec 043d 0a9f 8fbc 6b10 f73b 7f71 333d
00000310: 6987 c1bd c5a0 afbd f3b3 e43c e1c7 703d
00000320: 98b0 38bb e386 043d 62c0 953d ffd1 ae3d
00000330: 0b6f d83c 969f 44bd 0b2b 92bc 00d9 413d
00000340: 1cb2 a8bd 8e50 34ba 473f 6b3b 3da3 0cbd
00000350: 0e76 9b3c e629 9f3d eabd f9bc 606b 9b3d
00000360: b60d eabd f0db e53d ecaf 49bd d642 1dbd
00000370: e338 263e 634c 9c3b 88b3 41be ffe3 9fbc
00000380: 89bf b73d 259d 093e 0016 c43d 29e4 e43d
00000390: 60fe 863d f50c 243e 423e 023e f7d2 af3d
000003a0: 0ac7 593d 3e01 113e a45a 613c b9e1 a5bd
000003b0: 7645 6fbc abbd 66be 7ca1 613d d6b6 d6be
000003c0: 1868 5cbd 6f45 3ebd 2e23 2dbb dce5 d93c
000003d0: e459 4bbe f14f ca3b 429c 3bbe a3d9 d0be
000003e0: 61fa 70bd 43af cdbd 632c 05bd 72ad ab3b
000003f0: bec5 823d f913 913d 6c84 cd3d dd4d 103d
0.16466156 -0.039092142 -0.1259329 -0.10818838 -0.17447853 0.023760354 -0.34721333 -0.02368503
-0.0709839 -0.024179762 -0.06575778 -0.04281895 -0.055082027 -0.077618465 -0.07168403 0.009408643
-0.06687049 -0.10885663 0.0823664 -0.12794691 -0.0065912 0.17608194 0.13767557 0.15274833
-0.055621866 -0.12147041 0.0032525335 0.0048802975 0.2155667 0.13469817 0.057196368 0.25604486
0.20132977 -0.1504821 -0.02833157 0.10532526 0.033183545 -0.04568158 0.059262853 0.048501052
-0.26228395 -0.092787646 -0.00084240106 -0.1410067 -0.04102318 -0.057485268 -0.10248112 0.022421215
-0.022496285 -0.22295552 -0.09797986 0.016113063 -0.022991417 0.057135016 -0.015293987 -0.033805538
-0.07574444 -0.027101671 -0.027612908 -0.085449025 -0.019572485 -0.113139555 -0.023029074 0.12226258
0.10650773 0.12964284 0.08602442 0.10660547 0.13352488 0.05641553 0.10176483 0.11623535
0.13185243 0.20693341 -0.10399341 0.109447956 -0.0998311 -0.031177476 0.15110664 -0.056098446
-0.02987887 0.04054158 0.094345436 0.03402826 0.05726195 0.079046756 0.056943275 -0.03559509
0.02498513 0.026374696 0.0038462786 -0.05131634 0.031259928 0.071552284 -0.108067155 -0.03932075
-0.045099787 -0.14645451 0.05412309 0.2740366 0.019380866 0.18859366 0.038877543 0.052793115
0.08024235 0.05067246 -0.053032562 0.06653625 -0.057938658 0.028545205 -0.015824197 0.15042241
0.05305447 -0.16585368 0.035458714 -0.043492716 -0.015504093 0.051586114 0.12129441 0.036912598
0.073527426 -0.020326575 0.020120073 0.025578056 0.071686976 0.04083067 -0.059732363 -0.048595082
-0.0392276 -0.12635985 -0.05028968 -0.019404586 -0.13580126 -0.13960361 0.0006797411 0.013184771
0.084333636 -0.06250949 -0.055434797 0.07771705 0.034218602 -0.2390858 -0.014432991 -0.04455634
0.052401215 0.15045501 0.040630564 0.15557007 0.24113028 0.048787586 0.04181291 0.09655898
0.1560688 0.07268553 0.058429085 0.03778898 0.051982813 0.115622155 0.042776346 -0.025177488
0.1007718 -0.0063320505 0.035668377 -0.053696338 0.047699172 0.015726654 0.05583602 0.16566524
0.009603243 -0.043634046 0.071128815 0.046587057 -0.09631091 0.016416388 0.11491952 0.16814825
0.106487 0.04052492 0.050525483 0.16660881 -0.0001791869 0.09985051 -0.006441629 0.11840502
0.029123196 0.0663538 -0.1323271 -0.03305094 0.027995016 0.02508605 0.1448457 -0.012774049
0.032452248 -0.01753189 0.007539799 0.04380941 -0.094496556 -0.08575586 0.027917838 0.05878437
-0.002818143 0.0323552 0.07312085 0.08536147 0.026420137 -0.048003756 -0.01784279 0.047326088
-0.08237097 -0.00068784587 0.003589587 -0.034335364 0.018977191 0.07771663 -0.030486066 0.075888395
-0.114283964 0.112235904 -0.049240038 -0.038393818 0.16232638 0.004769848 -0.18916142 -0.019517897
0.08972079 0.13438852 0.09574509 0.111763306 0.06591487 0.16020568 0.12719062 0.0858516
0.053168334 0.1416063 0.013754521 -0.08099694 -0.014603963 -0.2253329 0.055085644 -0.41936368
-0.05381021 -0.046452936 -0.0026418674 0.026598863 -0.1985851 0.0061740805 -0.18321326 -0.40791044
-0.05883253 -0.10043194 -0.032513034 0.005239182 0.063853726 0.070838876 0.10035023 0.035230506

local_map_cnn.2.bias f4 [32]
00000000: 2578 acbc 8599 f83b 5315 7438 06b2 36bc
00000010: b81d 89bd a0ca 48be f0f9 30bd 70dc 1f3d
00000020: 3ce8 83bd f8c2 a2bd 289f 0bbe 5903 b1bd
00000030: b591 40be 5270 3b3d 89bf 303d 4ae8 c33d
00000040: b71c 75be d828 1bbb 83b9 86bd 9578 82bd
00000050: 6f4b 86bd 740b 25bd 88ce 92bb 75bb c7bd
00000060: 9ad8 dc3c 2a12 c03d b56b 0bbe 3020 24be
00000070: e98d dd3c 4b6b 00be a781 03be 9929 6ebe
-0.021053383 0.0075866603 5.8193993e-05 -0.0111508425 -0.066951215 -0.19608545 -0.04320711 0.039028585
-0.064407796 -0.079473436 -0.13634932 -0.08643217 -0.18805583 0.045761414 0.043151412 0.0956579
-0.23936735 -0.0023675468 -0.06578352 -0.063706554 -0.065573566 -0.040294126 -0.004480187 -0.097525515
0.026958752 0.093784645 -0.13615306 -0.16027904 0.027045207 -0.12540929 -0.12842427 -0.23258056

local_map_cnn.4.weight f4 [32, 32, 3, 3]
00000000: 2872 d33c 7ef6 0fbe c19f ac3b f589 ef3d
00000010: bff5 233d 4183 cebc 9858 21be dc5d 75be
00000020: af73 1dbe 132c 4e3e 89b6 8dbd f576 30bd
00000030: 1d59 953d 13ef e2be 68d7 42be e27d b1bd
00000040: 2344 9b3e 7237 b93c 10bd 2bbe eccf 39be
00000050: f5cd 033d 0671 32bd 92d0 b4bd 6505 c3bd
00000060: edbb 7a3d a9f0 c9be 3021 46bc db45 c6bd
00000070: d30b bcbd 7acb 6a3d 1142 06bd ac20 dbbe
00000080: 7cd1 523d 8aba 6cbd 2dd9 ebbd 9e81 403c
00000090: 150b 0f3d d07c 903c c071 5c3d 39ea b33c
000000a0: 3758 40bd 3c51 0fbd 52ef a93d ca27 bebd
000000b0: cd57 ce3d 8a3b 2bbd 414d 0c3e b30d 0d3d
000000c0: 8a11 0ebe 8a6a ddbd 5b9e 8ebd 4559 cebb
000000d0: 97a1 c1ba 0172 dabd d88a 4a3d d4cc aa3d
000000e0: 00f8 70ba 0093 373d a4ab 86be 5076 d13c
000000f0: dce6 d23d cb91 ce3d 4d3a 113e 22ef c0bc
00000100: 8f64 e3bb ee63 09bd 7c25 89bd 7ff5 2f3d
00000110: 0401 103e 6872 b4bd b3be 1dbe 8237 8fbe
00000120: 6c35 8bbd 2af3 1e3e 810c a0bd 9417 d53d
00000130: 0066 b73e 5c47 9dbd cbc1 353d fe0b d6be
00000140: a3b3 013d b866 abbe eb22 423e daae b3bd
00000150: e71a d23b 3421 bf3b 22b6 6cbe a0f9 363d
00000160: 7ec9 05be 459e 7c3d 82cd b03d 7f69 003e
00000170: e567 433e f877 063d 3c99 e9bc ff45 f43b
00000180: 4f05 243e ba1b bebb 0196 3f3e 43d9 6b3e
00000190: f9f1 c0bc 5343 e93c 9da1 87bc dcc8 dbbd
000001a0: 029b 6fbc cc2a b6bd 25fd 913c e8d1 22bc
000001b0: 7bf1 bf3c f4a3 63bc 9271 553d 1175 1f3e
000001c0: c83d 19be e2c2 293b 6c30 89bd 4c7d 12be
000001d0: bcc5 423e 8c04 343e 4960 d73d 1537 db3d
000001e0: 4067 d93d ed10 22be 37f5 d9bc a4b5 073c
000001f0: f8bf 3fbd 99ca 00be 3522 903c 94b4 a9bd
00000200: a72d 23bd 120a 023e 2618 0ebd 5dd4 e6bd
00000210: ae10 853b c92b 98be 6e3e 2ebe 793c d53d
00000220: 3fa5 20be cc85 ad3d 41cf a6bc 5b7c acbe
00000230: 6cdb 04be c22c 78bd 861c d7be 046e 80be
00000240: 7551 75bd 534e a73c 3f83 213e 713d 2ebd
00000250: 8221 13be 3aa0 ed3c c2b7 c1bb a244 8d3d
00000260: fd7d 683d cfb1 e63d 195d 9cbc 0f11 ccbd
00000270: ae29 10bc 5e2e 18be b9ce a4bd ac41 aebd
00000280: 81c8 f93d be7d 3d3d 2745 9c3d bea1 c5bd
00000290: 7d0e a8bd 7fca a5bd 8de7 afbd b2fc 51be
000002a0: 80ad c23c 9b2e 743d 5cab e3bb 90a2 2fbc
000002b0: 6333 ec3d 8796 843e 9a63 413d 6902 b8be
000002c0: 3bff 3fbd 5d4d c1bc 6cba de3d 408c d33d
000002d0: 8ec6 46be 76fd bf3d 5b5b c23c 2de8 acbd
000002e0: a587 3a3d 7893 1abd c291 e23c 688f 8abd
000002f0: 0eef 233e 6796 143c 4c4f 13bd 7f60 da3d
00000300: b51e 803d a0ad 97be e148 2dbd 2bd4 f73d
00000310: e606 b3bd 5a3e 2a3e 1044 57bd 7651 8fbd
00000320: c836 adbd 0780 9cbc 3b6e 483e 0d80 eebb
00000330: 08fd 043e 7fc6 cb3d 4a51 0bbe 97e0 103e
00000340: 4987 ffbc 2231 2c3e 6186 41bd f97d dfbe
00000350: 9389 20bd ac6e ffbc b018 eebd cb29 0dbe
00000360: 9242 b1bd 93dc 413e c9a8 46be 7bea 4ebd
00000370: dba2 9bbd 648f e53d 215f cd3d 2c0b c33d
00000380: 5ed7 323d bde3 00bd 2cda 36bc 254b 97bd
00000390: 2535 023e e76d 083e 7e20 133d 0538 d73d
000003a0: b371 193e 08aa 143e 7764 c4bc a18a a1bb
000003b0: c4b8 bfbb 2482 8bbd fe90 e4bd 9681 c83c
000003c0: b5e2 863d 7268 29be ce59 453e 4fa6 e03d
000003d0: f47f 2f3d d908 173d 9346 aabc abb0 2fbd
000003e0: eead 81bc 842c 603d 59af 62bd d516 4a3d
000003f0: d456 d0b9 739f 2e3c f0a8 6d3d c9bb afbb
0.02581127 -0.14058873 0.0052680676 0.11696235 0.040029284 -0.025209071 -0.15756452 -0.23961586
-0.15376161 0.20134 -0.069195814 -0.043082196 0.07292388 -0.44323024 -0.19027483 -0.08666588
0.30325422 0.022609446 -0.1677134 -0.18145722 0.032178838 -0.04356482 -0.08828844 -0.09522513
0.061214376 -0.39441422 -0.012092873 -0.096812926 -0.09181943 0.057322957 -0.03277785 -0.42798364
0.05146931 -0.057795085 -0.11516032 0.011749653 0.034922678 0.01763764 0.053819418 0.021962272
-0.04695913 -0.03498958 0.082976 -0.09284933 0.100753404 -0.041804828 0.13701345 0.034436893
-0.13873878 -0.10811336 -0.06963798 -0.006297263 -0.0014772889 -0.10666276 0.049448818 0.08339849
-0.00091922283 0.044817924 -0.26302826 0.025569111 0.10297939 0.100864016 0.14182396 -0.023551527
-0.0069394778 -0.033542566 -0.06696603 0.042958733 0.14062887 -0.08810884 -0.15404777 -0.27972037
-0.06797299 0.15522447 -0.07814885 0.10404888 0.35820007 -0.07679626 0.04437427 -0.41806024
0.031665456 -0.33476806 0.18958633 -0.08773585 0.0064118984 0.0058328155 -0.23116353 0.044671655
-0.13065144 0.061674375 0.086329475 0.12540244 0.19082601 0.032829255 -0.02851545 0.0074546332
0.1601765 -0.005801645 0.18709566 0.23032098 -0.023552882 0.028474486 -0.016556555 -0.1073167
-0.014624359 -0.088948816 0.017820904 -0.009937741 0.023430577 -0.01389407 0.052110262 0.15572001
-0.14964974 0.0025903513 -0.06698689 -0.1430561 0.19020742 0.1757986 0.10516412 0.107038654
0.106153965 -0.15826769 -0.026606185 0.008283053 -0.046813935 -0.12577285 0.017594436 -0.08286396
-0.03983846 0.12699154 -0.034691 -0.11270974 0.0040608263 -0.29720905 -0.17016003 0.10411925
-0.15688036 0.08472785 -0.020362498 -0.33688626 -0.12974328 -0.06058956 -0.4201395 -0.25083935
-0.059892137 0.02042309 0.15772723 -0.042539064 -0.14368251 0.029007066 -0.005911798 0.06897856
0.056760777 0.11264383 -0.019087361 -0.09964191 -0.008799 -0.14861438 -0.08047242 -0.0850862
0.12196446 0.046262495 0.07630377 -0.096499905 -0.082058884 -0.08095264 -0.08589087 -0.20506552
0.023764372 0.05961476 -0.006947918 -0.01071991 0.11533239 0.25896093 0.047214128 -0.3593934
-0.046874266 -0.02359646 0.10875401 0.10329485 -0.1941168 0.09374516 0.023725202 -0.084427215
0.045539517 -0.037738293 0.027657393 -0.06765634 0.16009161 0.009069062 -0.035964295 0.106629364
0.06255857 -0.29624653 -0.04230583 0.12101015 -0.0874155 0.16625348 -0.052555144 -0.06997959
-0.08457714 -0.019104017 0.195733 -0.0072784484 0.12987149 0.099499695 -0.13605228 0.14148174
-0.031192439 0.16815618 -0.047247294 -0.43650797 -0.0391937 -0.031180702 -0.116258025 -0.13785474
-0.086552754 0.18931799 -0.19400324 -0.050516587 -0.075994216 0.1120899 0.1002791 0.09523615
0.04366242 -0.03146719 -0.011160415 -0.073873796 0.12715586 0.13323174 0.03591966 0.10508732
0.14984779 0.14517987 -0.023973687 -0.004929856 -0.005850883 -0.06811932 -0.111604676 0.024475854
0.0658621 -0.16543749 0.19272539 0.10969221 0.042846635 0.036873672 -0.020785606 -0.042893093
-0.015830006 0.054729953 -0.055343006 0.04933818 -0.00039737544 0.010658133 0.05802244 -0.005362962

local_map_cnn.4.bias f4 [32]
00000000: 7ef6 293d d82b 81bc 7712 1bbe 68c0 b7be
00000010: 2f47 d43b 9e4b 41bd 3e1e 6a3c abfd 05be
00000020: 8415 353e e11f 193d 3243 c43d ee1c e0bd
00000030: d482 0a3e c733 153e 3867 10be fcc2 5d3e
00000040: 4748 5fbe 10a8 a63d 1dc8 043e 9b20 0ebe
00000050: f430 10be a6db 48bd 2d23 d63c 261e b6bd
00000060: a904 acbd 6c66 033e 6f64 0bbe 1c66 9b3a
00000070: 8e1e fb3c 5a5d 8e3d eada 273b ffd8 8ebc
0.04149484 -0.015767977 -0.15143763 -0.35888982 0.0064782123 -0.047191255 0.014289437 -0.13085048
0.17683989 0.037383918 0.09583129 -0.10943018 0.1352647 0.14570533 -0.14101875 0.21656412
-0.21804915 0.08137524 0.12966962 -0.13879625 -0.14081174 -0.049037598 0.02613982 -0.08892469
-0.08399326 0.1283204 -0.13612531 0.0011855992 0.030654218 0.06951399 0.002561266 -0.017437456

local_map_fc.weight f4 [64, 512]
00000000: 945c d4bd dc9c f8bd 399a 72be c45d 13be
00000010: ee9a 433c ec42 28be 6f38 17be a68c 883c
00000020: 0803 98bd 4bfd d6bd ce06 bdbd f0a7 9e3d
00000030: b9fd d43d d2e9 07be 1318 483d ef3f 26be
00000040: 3d00 bfbd 9cdd c2bd 0d4b 8fbd f6ed 923c
00000050: c5bd 94bd ed11 dabd 6345 a6bd 27b6 78bd
00000060: 3c2f 0bbc c9df 8a3d 59ab 82bb d9d6 1c3c
00000070: 2807 32bd 52c5 163e 857c 863d b859 cf3d
00000080: 5701 1fbe ae89 88bd 80d2 853d b4d5 85bd
00000090: efc5 bfbe 36c2 0ebe eb5f c23d bc9d 80be
000000a0: 4f03 40bd 2086 59be c388 7fbc 9d54 bcbd
000000b0: 7877 163e e198 ac3d 13b7 7a3d 6eb9 013e
000000c0: 3e09 133c 3113 0cbe 4a17 f23c 2943 3b3d
000000d0: 5cff 31bd 0323 cabd c8e5 833c e72e e4bd
000000e0: 9ad0 9bbd dd3d d73c c126 61bd b2c5 3a3d
000000f0: 4e8b 0d3c 7f9d 56bc 7c6d b3bd bc0a e9bc
00000100: 9794 01be 7665 2bbe 3a42 983d fa7a 28be
00000110: e975 c6bd 095c f0bd 77c1 883d 6dfc 90bd
00000120: 6a75 ee3d 1079 7a3d ccaf 53bc 2124 84be
00000130: 093b f1bc d883 f03d 1503 92bd d049 8d3d
00000140: c596 56bb ba07 b9bc 8b79 47be 5417 bcbd
00000150: 9313 a1bd 401a 43be 347a a9bc e0cc 303e
00000160: db86 98bd 8d1b 473e 584c 19be eb84 903d
00000170: 5739 8ebd 005b a2bd e0db c9bc 980c 963d
00000180: 3a3b fcbd 2842 373d f9bb 2fbc 0d5f d0bd
00000190: b141 17be 2b84 ab3c 6e14 153d d263 0b3a
000001a0: 5735 393d 5229 753e 2887 f6bc 30d9 17be
000001b0: a36d 10bd 49df d4bd 50d0 39bd 3694 d1bb
000001c0: fb4b 183d bdba 28bd 95d6 8c3b 5a69 42bd
000001d0: afcf 38be 40ce 56be a606 963d 1f86 093e
000001e0: 8409 b2bd 0a62 fcbd 2df0 35be 710c 843c
000001f0: 2a4a c5bc c519 76bc 420a 44bd 598c 463d
00000200: 47f0 d8bd 5a27 51be 9e35 11be 529d 2dbe
00000210: 9671 dabd 3868 b3bd dc82 1cbe 1a8b b13d
00000220: e88a 85bd 4c98 12bd 2c27 63be c4d3 c8bd
00000230: ec65 b53d 7f1e 223d 793e b8bb 16eb 39bc
00000240: 3d86 4cbe b407 4c3d def0 51be 9a62 82be
00000250: 8f0b 3dbd ce1b 33bd 2024 37be d945 0ebe
00000260: a703 90bd a947 01be 3dc9 b5bd e5c9 44be
00000270: 3ec3 5ebe 40e2 1bbe aa84 533d f747 a7bd
00000280: 5bc1 313d 7db1 1dbe c6e4 e63d e39f 153b
00000290: 6c4d 08be 6f11 58bd db2b 073d b91b e5bd
000002a0: 31a3 b8bb 4cb0 90bd 08ce 8c3d 7d49 77bc
000002b0: f39d 0abe b2ce 3fbe 3363 ba3d b426 ac3c
000002c0: 55e2 62bd 4cd8 f1bd 6799 1dbe 9192 59bd
000002d0: 1f24 c3bd 4c95 d8bd 9dd5 8cbd d629 9bbd
000002e0: 207f 9fbc ea8a 5bbe cf33 c5bd d740 a2bc
000002f0: 5069 8a3d 7179 c53d 46f4 8c3d e147 cf3d
00000300: 9793 a6bd dc2f f0bd dd26 04be 30e7 57be
00000310: 736b d5bd b953 d1bd 2460 b5bd 4201 e1bd
00000320: 7b81 b43c 518a b43c 4c35 aa3d 8ae6 debd
00000330: 6364 073e 72df ce3d 6b55 83bd d459 463c
00000340: 78e5 29bd d15b 0bbe 76b0 62bc 9eb4 e53d
00000350: 378a 4b3d 09f0 f0bd cf58 a43d 273d 973c
00000360: e9dd 42bd c533 b2bc 3e18 053d 1df3 083d
00000370: b31a 17bd 61a9 15be d479 8fbc 7434 2d3d
00000380: 578e 95bd 99ec f2bb 6492 a5bd 2504 f33d
00000390: c18a b43d 6b89 89bd 1e45 ce3c fdc4 8d3d
000003a0: 1d88 8f3d b705 77bd d502 ea3d 1a8b fdbd
000003b0: 1053 83bd 92c0 07be 0ba8 873d a79f 12bd
000003c0: fc14 b5bd e5d2 65bc 4e74 8fbd 90a6 c93c
000003d0: be20 0fbe d0e7 86bd 397c 48be 6f78 403d
000003e0: d11a 03be 45e4 edbd 6b2a 00bd 3d64 6dbc
000003f0: 0a57 0a3d a6b6 25bd bc9d c9bc 9c4c 8ebd
-0.103692204 -0.121392936 -0.23691644 -0.14391237 0.011938794 -0.16431779 -0.14767621 0.016668629
-0.07422453 -0.104975305 -0.092298135 0.07746875 0.10399956 -0.13272789 0.048851084 -0.16235326
-0.09326217 -0.09514925 -0.06996737 0.017935734 -0.07262758 -0.1064795 -0.08118703 -0.06072059
-0.008495148 0.06780965 -0.0039877114 0.009572708 -0.043463856 0.14723709 0.06566719 0.10124534
-0.15527855 -0.06666885 0.0653429 -0.06534901 -0.374557 -0.13941273 0.09490951 -0.25120342
-0.046878155 -0.21242571 -0.015596571 -0.09195826 0.14694011 0.08427597 0.06120975 0.12668392
0.0089743715 -0.13679196 0.02955212 0.045718346 -0.04345642 -0.09869959 0.01610078 -0.111417584
-0.07608147 0.026274616 -0.0549686 0.045598693 0.00863917 -0.013099073 -0.08761117 -0.028447501
-0.12654339 -0.16737923 0.07434507 -0.16453162 -0.09690458 -0.11736304 0.066775255 -0.070793964
0.11643489 0.06115061 -0.012920331 -0.25808814 -0.029447095 0.11743897 -0.07129494 0.06898844
-0.0032743674 -0.022586692 -0.19479959 -0.09184137 -0.078650616 -0.19052982 -0.020688154 0.17265654
-0.07447597 0.19444104 -0.14970529 0.07056602 -0.069445305 -0.07927513 -0.024640977 0.07326621
-0.12315984 0.044740826 -0.0107259685 -0.101743795 -0.14771153 0.020937046 0.036396436 0.00053173036
0.045216884 0.23941544 -0.030093744 -0.14828944 -0.035260808 -0.10394151 -0.045364678 -0.006395842
0.037181836 -0.041193713 0.004298041 -0.047463752 -0.18047975 -0.20977116 0.07325487 0.1343007
-0.08693221 -0.12323387 -0.17767401 0.016119214 -0.024083216 -0.015020792 -0.047861345 0.04847369
-0.10592704 -0.20425168 -0.1418061 -0.16954544 -0.10666196 -0.087601125 -0.15284294 0.0866911
-0.06520635 -0.035789773 -0.22182912 -0.09806016 0.08857331 0.039579865 -0.0056226817 -0.011347553
-0.19973083 0.049812034 -0.2050204 -0.25465852 -0.0461536 -0.04372769 -0.17884874 -0.13893832
-0.07031947 -0.12624992 -0.08876274 -0.19217642 -0.21754166 -0.15223026 0.05164019 -0.08168023
0.04339729 -0.15399738 0.11274104 0.0022830896 -0.13310784 -0.052751 0.03300081 -0.11186928
-0.0056346883 -0.07064876 0.06875235 -0.015093205 -0.13536815 -0.18731192 0.09100952 0.021014549
-0.05539163 -0.118088335 -0.1539055 -0.053118292 -0.09528374 -0.10575351 -0.06876681 -0.07576339
-0.019469798 -0.2143971 -0.09629022 -0.019806309 0.06758368 0.09642304 0.06882529 0.10121132
-0.08133619 -0.117278785 -0.1290545 -0.21084285 -0.10420885 -0.10221047 -0.08856228 -0.10986568
0.022034397 0.02203861 0.08310947 -0.108838156 0.13221888 0.101012126 -0.064127766 0.012106378
-0.041478604 -0.13609244 -0.013836017 0.112160906 0.04969236 -0.11764533 0.080247514 0.018461777
-0.04757491 -0.021753201 0.032493822 0.033434976 -0.036890697 -0.14615394 -0.017514147 0.04228635
-0.0730254 -0.0074134585 -0.080845624 0.11866025 0.08815528 -0.067156635 0.025179442 0.06922338
0.070083834 -0.060308184 0.114263214 -0.12380047 -0.06412327 -0.13257053 0.066238485 -0.035796788
-0.08841893 -0.014027332 -0.07004605 0.024615556 -0.13977334 -0.065871835 -0.19578637 0.046989854
-0.12803198 -0.116158046 -0.031290453 -0.014489231 0.033774413 -0.04045739 -0.024611346 -0.06948206

local_map_fc.bias f4 [64]
00000000: feb9 bdbd 39d0 eebd a34e 01bc 7f1f 8bbd
00000010: 288e 75bd bc0a d1bd 9a25 b8bd 5261 d63d
00000020: 605b aabc e0f4 35bd 9957 4fbd 3a57 58bd
00000030: 127e 203e 7150 f2bc db3b 08bd 55e3 b63d
00000040: fdb8 423d 816e b3bc 4778 c7bd 3a1e 043c
00000050: ea54 c6bd f1f3 febd 35f0 4f3d 5840 993d
00000060: a85a 43bd 0567 7abd fd2a 663d ff9f 8abd
00000070: a223 943d 7e23 453d 764d afbc 183c 08be
00000080: d4eb 873d 71c5 163b 3419 f2bc 0c7f e4bc
00000090: 4be0 70bd 4548 d43d 2372 1b3e 5f45 7d3b
000000a0: 3a63 8dbd 1b5b bdbd cd1b d73c a1f2 d43d
000000b0: 56f3 d63d d16e f23d fa37 80bd 179a 61bc
000000c0: c39f 7abd 07c2 0cbd bbbb f3bd 92cc c0bd
000000d0: 899c 803d da56 1dbe 69ec 63bd 9166 c53d
000000e0: a611 8cbc bb4a 80be cb34 b7ba 1848 6ebd
000000f0: 141d 7ebd 5021 8f3d f997 833d dc3d c43d
-0.09263991 -0.11660809 -0.007892284 -0.06793117 -0.059950024 -0.102071255 -0.08991547 0.10467781
-0.020795524 -0.044422984 -0.05062065 -0.05281756 0.15673092 -0.029579373 -0.033260208 0.08930079
0.0475397 -0.021903278 -0.09739738 0.008063847 -0.09684165 -0.12448872 0.05076619 0.07482976
-0.04769388 -0.061133403 0.05619334 -0.06768798 0.07233359 0.04812955 -0.021399241 -0.13304174
0.066367775 0.0023005868 -0.029553033 -0.027892612 -0.058807652 0.10365347 0.15180258 0.0038646085
-0.069036916 -0.092458926 0.026258374 0.1039784 0.104956314 0.11837543 -0.06260677 -0.013769648
-0.061187517 -0.034364726 -0.11901041 -0.09414019 0.06279857 -0.15365162 -0.05564538 0.096387036
-0.01709826 -0.25057015 -0.0013977526 -0.058174223 -0.06203945 0.06988776 0.06425471 0.09582111

self_entity_fc1.weight f4 [32, 26]
00000000: c039 8e3e 3adf 303c fb78 733b ea86 513c
00000010: 254a c5bc 4dfa 0e3e 0c8e 22bb b41c 9cbe
00000020: d9f7 efbc bc6f a9bd 9a86 20be 4646 0dbf
00000030: 583e 253e 9a62 35be c7ed 5b3e cd9a 1a3e
00000040: 221f 5cbe a813 dcbd b40e 973d fd18 f43b
00000050: fdde 5fbd 065c a53e a66e 0dbe a919 3d3e
00000060: 1ac9 25bb 0172 563d 7f60 b7be d12e d6bd
00000070: dd30 143c f84a 383e e931 2d3e d946 07be
00000080: 254a b93d 916d a9be a539 dabd 352a 85bd
00000090: 0cb7 08be 8e09 5b3c 28cd 9e3c ad17 4d3d
000000a0: e8ad 533e 0d67 083e c585 e03d d5c5 fb3b
000000b0: df45 61bd 3003 c4bb e021 89bd 3a39 b33d
000000c0: 8bb8 3bbd a72b 85bc 732b b43d 1e22 413e
000000d0: c65f 62bb b0bf b0bd cf89 9e3d bca2 16be
000000e0: 0e4e f13d 5212 0dbf a2a9 99be e596 ea3d
000000f0: 8ac6 e43d 44a9 98bd 55cc d0be fb8a 46bd
00000100: 33be 80bd 907e 5f3d 949d 983d ec43 6b3e
00000110: 88e8 283d 9274 c03d 2359 083b b21e 2e3e
00000120: 017b 9a3d dcd3 ef3d 9c1d 383e 0a61 ddbd
00000130: bdc6 23bd b0bf 08be 0371 c6bd fb77 e4bc
00000140: 0f61 003e 67dc acbd 4056 c2bd dffc 053e
00000150: 6232 f73d 3b64 2bbd 5339 493f 86af 993e
00000160: 4d68 c43d 797c 9abd 620e ff3c c78a 883e
00000170: 8624 87bc c03f 25be 42e5 4b3e c571 693e
00000180: 1b07 eabd 5d0c 1bbd 852c 8f3e 024b 8dbd
00000190: 3900 1dbe ac78 1c3d 3550 e1bd 25e6 083e
000001a0: 2730 2fbe 877f 0f3d 3a50 bebc 4c5e 28be
000001b0: 8bbb 043e c230 463d 3656 1c3d 9c2f 6abe
000001c0: 7997 843d c6cd 0f3e ef2d e13e d0a7 6a3e
000001d0: 4f1d 1c3e b698 da3d 539f 47be 43d9 313d
000001e0: 7fef 533e 3ac1 c13e bd35 efbd eb32 38bd
000001f0: 0d4c 113d a955 c8bd 8862 72bd 24b3 bebc
00000200: 539f e8bd 887a d3bd 8a2d 923d 36dd ee3d
00000210: 661b 463e 25ad 553d 9d41 113d a86d aabd
00000220: 7d95 233e f71d dabe 4220 663e 58a9 9f3a
00000230: f1d9 2d3d cf24 a63e 887b 213e 932c 003e
00000240: bf5e a43a 0969 6bbe 97d8 8e3d e4ff b8bc
00000250: 152b 31be 5f11 56be 295f 3abe c3f8 2cbe
00000260: 9ec2 01be bcb7 3abe 9f0a 7b3d 5ef8 c53d
00000270: d116 06bd 0c45 fdbd ed18 29bb 3033 293e
00000280: a339 0f3e 9dc1 dbbd 5533 71bd 774e 91be
00000290: 5eee 603d 11ab 153c f814 bebe 59d5 8b3d
000002a0: 6855 5fbf d31d c73d e998 0e3e d366 c83d
000002b0: e991 6abe 4454 0ebe ff07 323d 586e 043d
000002c0: b9be 44bc 3b9c 793e 484e 033e 495e bcbd
000002d0: 5795 f53b ceaf 00be 75e9 393e 9b3d e33a
000002e0: 957b d5bb 8c96 4c3d e685 eabc a3d5 19be
000002f0: c37d 933d d769 9fbc 00f5 18bf 0b8b 0f3e
00000300: 31c9 1abe 9a46 7b3e 5010 c03d 1eac dc3d
00000310: d5eb d43d 5204 833e ba5d ea3d 39b3 573e
00000320: 540e 0fbd 54ac d73d 303b 1c3d 8585 493e
00000330: 61df d43b 6f21 94bd be05 ba3d 00a6 0fbe
00000340: e048 87bc f544 d6bd 937c 233c 9456 c23d
00000350: a9b3 d0bc 5863 ccbd ddc0 373d 9523 0b3f
00000360: 1b4e 2c3c d020 0f3d 5c01 49bf 74d0 babd
00000370: 8aca debd 8384 be3d 1213 333e 362b 093e
00000380: 436e 2d3e c7a6 93bd a9f6 15bd 563e 49bd
00000390: 2a20 40bd 1d17 233e 679a c53d 39ce 6dbd
000003a0: f0ed 0abe 58d0 08be a0df 3dbe a42d 56be
000003b0: 17a5 26bd 866f bf3d 98bd 73bd b2e7 d3be
000003c0: ad22 e1be 4401 133e f0f9 27be 349c d4bc
000003d0: 7f9a 083e 4755 2a3e 6f1e 913d 74be a8bd
000003e0: 32bc c13d 4a32 ff3d 8dd1 75bd 470c edbd
000003f0: c60c 7c3d 21da 79bd 8f63 633c 0bb6 903e
0.27778435 0.010795409 0.0037150967 0.012788514 -0.024083206 0.1396267 -0.0024803905 -0.3049065
-0.029292988 -0.08273265 -0.15676346 -0.55185354 0.16137064 -0.17713395 0.21477424 0.15098114
-0.21496251 -0.10745937 0.07375851 0.007449268 -0.054656018 0.3229677 -0.1381174 0.1846682
-0.0025296868 0.052354816 -0.35815808 -0.10458148 0.009044853 0.17997348 0.1691357 -0.1321062
0.09047345 -0.33091405 -0.10655526 -0.06502191 -0.13351077 0.013368977 0.019384935 0.050071407
0.20671809 0.13320561 0.109630145 0.0076834955 -0.054998275 -0.0059818253 -0.06695914 0.087511495
-0.04583029 -0.016256167 0.0879735 0.18860671 -0.0034541949 -0.086303115 0.07741129 -0.14710516
0.11782466 -0.5510608 -0.30012232 0.11454562 0.11170681 -0.0745416 -0.40780893 -0.048472386
-0.062862776 0.05456406 0.07451931 0.22975129 0.041237384 0.09397234 0.0020805083 0.17003897
0.075429924 0.11710331 0.17980045 -0.10809524 -0.039984453 -0.13354373 -0.09689524 -0.027889242
0.12537025 -0.08440476 -0.09489107 0.13084744 0.12070157 -0.041843634 0.78603095 0.30016726
0.09590206 -0.075432725 0.031134788 0.2666838 -0.016496908 -0.161376 0.19911674 0.22797306
-0.114271365 -0.037853587 0.27963653 -0.06899072 -0.15332116 0.03820102 -0.110016264 0.13369043
-0.17108212 0.03503373 -0.023231614 -0.16442221 0.12962167 0.048386343 0.038168155 -0.22869724
0.064742036 0.1404334 0.43980357 0.22915578 0.15245555 0.106736585 -0.19494371 0.043420088
0.2069683 0.37842733 -0.11680172 -0.044970434 0.03547292 -0.097819634 -0.059175998 -0.02327878
-0.11358514 -0.10326105 0.07137592 0.116632864 0.19346389 0.052167077 0.035462964 -0.083216965
0.15974994 -0.42600986 0.22473243 0.0012181206 0.042444173 0.32449958 0.1576978 0.12517004
0.0012540444 -0.22989286 0.06974905 -0.022582956 -0.1730159 -0.20905064 -0.18200363 -0.1689177
-0.12671897 -0.18234152 0.061289426 0.09666513 -0.032736603 -0.12366685 -0.002580221 0.16523433
0.1398683 -0.10730288 -0.058886845 -0.28380176 0.054914825 0.009135024 -0.37125373 0.06827802
-0.87239695 0.097224854 0.13925518 0.09785237 -0.22907223 -0.13899332 0.043464657 0.032331795
-0.012008362 0.24376003 0.1282283 -0.09197671 0.0074946093 -0.12567064 0.18155463 0.0017337085
-0.0065149763 0.04994826 -0.0286283 -0.15022902 0.072017215 -0.019459648 -0.5974884 0.14017884
-0.15115811 0.24538651 0.09378111 0.10775016 0.10396544 0.25589234 0.11443658 0.21064462
-0.034925774 0.10530916 0.038142383 0.1967984 0.0064963554 -0.072329395 0.090831265 -0.14028168
-0.016514242 -0.10462371 0.009978431 0.0948917 -0.025476294 -0.09979886 0.044861663 0.5435117
0.010516669 0.0349434 -0.785177 -0.091217905 -0.10878475 0.09302618 0.17487743 0.1339539
0.16936593 -0.07209545 -0.036612187 -0.049131714 -0.046905674 0.15926786 0.096485905 -0.058057997
-0.13567328 -0.13360727 -0.18542337 -0.20915848 -0.040684786 0.09347443 -0.059506983 -0.41387707
-0.43971768 0.14355952 -0.16403937 -0.02595339 0.13340186 0.16634093 0.07085883 -0.08239451
0.094597235 0.12460764 -0.060014296 -0.11574607 0.06153562 -0.06099904 0.013878717 0.28263888

self_entity_fc1.bias f4 [32]
00000000: adce 2ebc 3efd 8a3e 14c2 363d b5f2 6fbe
00000010: c693 9fbd 9c91 08be 8759 8c3e 4965 083e
00000020: 801c 5d3e bc8d 203e 128c b23d e003 663e
00000030: e3d0 493c be0a 73bc 6d79 f4bd e939 39bd
00000040: a923 263e 9ceb 213e fda0 753e af5b 9d3d
00000050: b75f 733e 5d7e 003e 7a34 813e fc49 77bd
00000060: f942 813e 0739 f73d 75db 67be eeb6 523d
00000070: 9941 cc3e 9da3 0e3f fb24 27bd 92dd fb3c
-0.0106693925 0.27146333 0.04461868 -0.23432429 -0.077918574 -0.13336796 0.27412054 0.13319887
0.21592903 0.15679067 0.087181225 0.22462416 0.012317869 -0.014834104 -0.11937223 -0.045221243
0.16224541 0.15812534 0.23987193 0.07683503 0.23766981 0.12548204 0.2523535 -0.06037329
0.2524641 0.12071424 -0.2264231 0.051443987 0.39893797 0.55718404 -0.04080675 0.030745301

self_entity_fc2.weight f4 [32, 32]
00000000: 1b4e dabd b7af 403e 771c d53e 67f3 d3be
00000010: 4648 653e 1a2a c63d f544 6cbd 6753 6e3e
00000020: 0e49 72be ece4 47bd 1657 ce3d 481f 38be
00000030: 7244 6abc 73c6 193e 360c a9be 92bd 063e
00000040: a34b 103d 5305 773d b17c ea3d fd88 c0bd
00000050: 4e21 903c ea0d 133d 195c 70bd 4702 773e
00000060: 419a cb3c a5be f03d 070b b3be 52a9 6d3e
00000070: 5e7c 103f 65f8 143f fec3 613e b92e 9bbc
00000080: 8ad6 993e e09a f03d 0825 84bd f7c3 ca3d
00000090: f936 10bf 93c4 1ebe 0dc9 603f b30d d9bd
000000a0: 4edf 1e3f a65a 77bd af6c 9c3e 6ab7 183f
000000b0: 990a 6a3d 3de3 17bf 32f3 003e a5ee 1a3e
000000c0: 72a1 4b3e b43f 0f3d 75fa cb3c 4afe 52be
000000d0: 7df9 933d dd52 083e a5ac 11be 2f84 21be
000000e0: fdc6 86be e043 aa3d 8d07 33be e67b 08be
000000f0: 4a87 15bf 479a 22bf 0bef 12be 4d24 d3bd
00000100: a5c3 1abd 2139 b5bd 95c2 e8be 2e49 57be
00000110: db69 6c3e 1972 40be 9ce1 f83d 057f 063e
00000120: 46ff 35bf eaca a3bd b96c c83d 619c 0dbe
00000130: fd20 2fbd 5fad 4cbf dc93 8cbe 735a ac3d
00000140: ac2c e03c 7fe8 463e 2bf0 833e f045 88be
00000150: 300c 913c 70da cd3a 8ae3 c03d 5aa5 4b3e
00000160: 38ca ed3d b10c 223e fcd3 eabe 4894 96bd
00000170: 3bc5 c8b8 e5dc edbd 54e9 76bd 81b9 8fbd
00000180: be09 5d3d 00fd e2bd dac5 86be 07d0 0d3e
00000190: 4ff0 103e e991 553e 1147 5c39 905e dcbe
000001a0: 70e7 a4be a3d0 5cbe f481 18bf e405 ae3c
000001b0: a9d2 933e 1952 02bf b7b2 a33e 89dc 223e
000001c0: 3d56 843d 98d4 023e caf4 d5be 1040 1fbd
000001d0: c0b6 1ebe cd91 c6bc 254d 16be 02eb bcbc
000001e0: 0b38 4fbc e27d 5dbd 886f 733e 68d7 fcbe
000001f0: ce9f 253e f29a de3d cf37 17be 87a0 453e
00000200: 5e95 e53e 034d 573e ba3b 41bd 778c 03bd
00000210: 2f7c cebe 1abe 0abe ac8d 333e a703 1bbe
00000220: 8ae7 193f 277e d6bc fdcc 7f3e 94b9 173f
00000230: 58cd 113e 2e6f 5ebf 848c c0bc 3128 6b3e
00000240: ecf8 803e f190 bb3d 98f1 b5bd bb1c f73d
00000250: 346a a43e 4ae6 233e 4c34 96bc b894 1e3e
00000260: 58bb cdbe 52e3 b63d 1ab9 443c cb69 5b3d
00000270: f02a e0be 6075 0fbf 65de fb3d b6e6 87bc
00000280: da15 3d3e add6 973e 9033 683e d08a c5bd
00000290: db73 173e 624e e3bc 54dd 963c 38d0 9a3d
000002a0: 8457 493f 9fb1 5dbe 0378 a53e 0a7d 813e
000002b0: 8a50 81be b8fd 6b3e c75e 393e 230e ff3d
000002c0: a95f 503e 48a7 823d bc86 98bc 178c 313e
000002d0: 3263 e53d 2c91 b4bd be4b ca3d 7eec 90bd
000002e0: 7506 803e fafc 33be dd12 70be 4980 b73d
000002f0: e9c7 a3be b586 02bf e049 04be 2444 39be
00000300: f1e3 2dbd 062a 3a3e 3635 df3d 3164 a9be
00000310: 6b31 e73d 9eb0 593d 8917 9bbe c4ca 433d
00000320: a482 84bf f4c5 6abb 5fd1 763e f16b 4abd
00000330: d49b 42be 9782 86bf df61 1fbc 4f64 88bd
00000340: 3345 aa3d 9f1e 553e a041 033e 058c 9aba
00000350: bc78 2f3e 3dc5 22be 55b5 6b3e 4d27 f43d
00000360: 0eb0 fd3d 0ca3 0f3d c8de eebe 6ac6 8f3e
00000370: 11e9 d4bd 980e c9bd 5578 0bbe 0ac2 a63c
00000380: dfe9 0d3f 9405 323d d81f e03d f623 95bd
00000390: 9ac0 b7bd 3f33 49be eae3 07bf c4fe bf3c
000003a0: 9f14 ca3e 63ec 113d 361a dd3d b00b 0f3f
000003b0: 9ee7 72bd 1324 7dbf bd13 553c b506 5a3d
000003c0: ee48 893d 46fd 883c cb03 273d 91d6 d73d
000003d0: 17ff 513e 14ca c5bd 469c 5cbd a85b 9a3e
000003e0: 328a a1be 4b60 c63d fbd5 a7bd 8fb2 12bd
000003f0: 5ef8 d8be a77d d1be 2b72 fd3d a596 443d
-0.10659429 0.1881703 0.4162328 -0.4139664 0.22390851 0.09675999 -0.05768295 0.23274003
-0.2366068 -0.0488023 0.10075204 -0.17980683 -0.014298545 0.15017109 -0.3301713 0.13158253
0.035228383 0.060307812 0.11449564 -0.094011284 0.017594006 0.03590194 -0.05868158 0.24121962
0.024853827 0.117551126 -0.3496935 0.23209122 0.5643977 0.5819152 0.22047421 -0.018943178
0.30046493 0.1174829 -0.06452376 0.099006586 -0.5633388 -0.15504675 0.8780678 -0.10598316
0.62059486 -0.060389183 0.3055167 0.5965487 0.057139013 -0.59331113 0.12592772 0.15130098
0.19885805 0.03497286 0.0248997 -0.20604816 0.072253205 0.1331286 -0.14226015 -0.1577308
-0.2632369 0.083137274 -0.17483349 -0.13328514 -0.5840956 -0.6351666 -0.14349 -0.10309658
-0.037784237 -0.08848787 -0.45460954 -0.2102401 0.23087256 -0.18793525 0.121524066 0.13134392
-0.7109264 -0.07997687 0.09786362 -0.13829185 -0.04275607 -0.79952043 -0.27456558 0.08415689
0.027365051 0.19424628 0.2576917 -0.26615858 0.017706007 0.0015705358 0.094184 0.19887295
0.11610836 0.15825154 -0.45864856 -0.07352501 -9.57348e-05 -0.11614398 -0.060281113 -0.07017804
0.05396437 -0.11083412 -0.26322824 0.13848887 0.1415417 0.20856442 0.00021007309 -0.43040895
-0.32207823 -0.21563964 -0.5957329 0.021243043 0.28871658 -0.5090652 0.31972286 0.1590444
0.06461761 0.1277641 -0.41788322 -0.038879454 -0.15499401 -0.024239445 -0.14677866 -0.02306128
-0.012647639 -0.05407513 0.23773015 -0.49383092 0.16174242 0.10869397 -0.14767383 0.19299518
0.4484052 0.21025471 -0.0471761 -0.03211638 -0.4032912 -0.1354908 0.17534512 -0.15138112
0.60118926 -0.026183201 0.2498054 0.59267545 0.14238489 -0.86888397 -0.023504503 0.2296455
0.25189912 0.09158505 -0.08883971 0.12066027 0.32112277 0.16005817 -0.018335484 0.15486419
-0.40181994 0.08930077 0.012007022 0.05356769 -0.4378276 -0.56038475 0.12298278 -0.016589504
0.18465367 0.29655972 0.2267592 -0.09645617 0.14790289 -0.027747337 0.018416084 0.07559246
0.78649163 -0.21649788 0.32318124 0.2529071 -0.2525676 0.23046005 0.18102561 0.12453868
0.20348991 0.063795626 -0.018618934 0.17338596 0.11200561 -0.08816752 0.09877728 -0.07076357
0.25004926 -0.17576972 -0.23444696 0.08960015 -0.31988457 -0.50986797 -0.12918806 -0.180924
-0.04245371 0.18180093 0.10898821 -0.33084252 0.112887226 0.05314695 -0.30291393 0.047800794
-1.0352368 -0.0035823556 0.24103306 -0.049419347 -0.19004756 -1.0508603 -0.009727924 -0.06659757
0.0831398 0.20812462 0.12818003 -0.0011790997 0.171359 -0.15895553 0.23018391 0.119215585
0.123870954 0.035067603 -0.46654344 0.28081065 -0.103960164 -0.09817237 -0.13620122 0.020356197
0.55434984 0.04346235 0.10943574 -0.0728225 -0.08972283 -0.19648455 -0.53082144 0.023436911
0.39468858 0.035625827 0.10796015 0.5587721 -0.05930292 -0.9888317 0.013005194 0.053229053
0.06703363 0.016722333 0.0407751 0.10538972 0.20507465 -0.09657684 -0.05385997 0.30148053
-0.31550747 0.09686335 -0.081951104 -0.035814818 -0.4237699 -0.40916178 0.123752914 0.04799523

self_entity_fc2.bias f4 [32]
00000000: 1ae9 f93d a834 af3d 670f 85bb aa45 9abd
00000010: 7184 5a3e 7efd fcbc 6651 cfbc 0bfd 8d3e
00000020: 2da1 65bd feb2 00be bbf0 113e 1ba1 dcbb
00000030: d08d 25be d6f7 193e 0a12 05bd 0a1a f2bd
00000040: 0cf8 c3bd 4238 0bbe 4b39 53bd 9a9b cbbd
00000050: 50ed 2e3e faa2 103e b0fe 443d c5ed 42be
00000060: 70c4 b73d d531 19bd ada9 7ebd 1f54 1dbe
00000070: c9e9 f93d bc32 8bbd aef8 c83d 747f 413e
0.12202664 0.08554965 -0.004060674 -0.075328186 0.21339585 -0.030882593 -0.025307368 0.2773212
-0.056061912 -0.1256828 0.14251988 -0.0067330725 -0.16167378 0.15035948 -0.032487907 -0.11821373
-0.095687956 -0.1359568 -0.05156831 -0.09941788 0.17082715 0.1412467 0.04809445 -0.19036014
0.08973014 -0.03740104 -0.062173534 -0.15364121 0.12202794 -0.06796786 0.09813057 0.18896276

other_entity_fc1.weight f4 [32, 26]
00000000: c7cb e23d 325f 39be 511b e23d 9541 fbbc
00000010: 83a0 aebe 2002 1dbe e6e2 bfbe 38de fbbe
00000020: ecb7 043e 94cc 63be 7a43 233e 62bc 993c
00000030: c209 07be fcc0 98bd 90d9 b03c ddf3 923d
00000040: 3cda aabd a34d 6bbd e6dd d2bd 528f c83d
00000050: f7b5 bc3d c425 983d c36d 27be 799e bdbd
00000060: c9ee 0abe 6330 223f 723b 9e3d ce91 573e
00000070: 73a1 40bd 5529 aabd 672f 26be c483 ff3d
00000080: 1bdf 19be 09ea a6bf c875 183c a7bb 3f3e
00000090: c632 0e3e 81b1 733e 6796 2d3e dd0a 213d
000000a0: 0abc d8bd 23a2 ecbd e698 173e 035a f4bc
000000b0: 678c 643d c152 163e 3ca7 acbd 54cc cc3d
000000c0: 96ac 9dbe 0e3d bfbd b35a 0ebe 11d9 d0be
000000d0: e66a 143e a2dd 963c 68e0 143d 97f0 43be
000000e0: 597c aebd aacc a6be 165a 23bc 4e59 c93d
000000f0: af60 b23d 07bd 703d 86ad 7dbe f5c4 b4be
00000100: 29e9 063d d221 fabc 7e46 443d 1432 71bd
00000110: 413e 2d3d 9af0 16be 7a85 e1bc e930 2dbe
00000120: 611e 64be 0429 133e beed 623e e306 2d3e
00000130: c875 c5bd 21c4 5dbd dbbd 333c 2de9 60bd
00000140: 9603 1fbe 4681 113e 2a8c 23bd 2c75 a2bc
00000150: 5756 a6be 5a7a 873f 2fba 6c3e 8525 1abe
00000160: 0a44 16be 6a8d dbbd 9053 353e 1333 cdbd
00000170: d423 63be 164b 833d 7f76 be3d eeaa 463c
00000180: 1b9c 09bd 1745 c5bb 583a 193d 591e ed3d
00000190: a4ad 10bf 7abe 603e 0cf9 113d ce6b 6dbe
000001a0: 0ac0 6c3d 561a a3bd 63b6 34bd 6283 1dbf
000001b0: bdc6 4bbe 88af 9cbe f625 94bc 1ba2 1b3e
000001c0: a7fd 1fbf e824 eabe 7a09 c73c c60e 0ebd
000001d0: c730 593d ea47 5d3d 200a 753c 79f7 7c3e
000001e0: d227 afbc cbdf 0b3e 52a0 073e 3c1b 853e
000001f0: 6ae7 cebd 121d 0d3e 89b1 6e3e cc72 7cbe
00000200: 8a94 473e 89c0 e4bd 0716 c0bc f817 1a3e
00000210: 2c83 923d 4da5 c0bd c2a6 1c3d 0a67 c33e
00000220: 0600 22be 2689 29bf f31e bc3e b73c 723e
00000230: 60e0 ccbd 014d 3dbe 60bc 71be a08a cc3d
00000240: b366 c1bd 6661 3bbc 2a46 1a3e bd12 c53a
00000250: 02be 07bd 2aa2 f3bd 9553 32be 6c3b 6bbe
00000260: a2a9 403e ac42 893c cced 443e 88dc 6e3e
00000270: bb1d b6be bc21 efbc adff 353e 1906 2bbd
00000280: dcf9 d03d 8380 383e 98a8 40be d97a 073f
00000290: a07f 8b3e 3d10 9c3d 06cc 41bf a94e 70bd
000002a0: 28ce 063d 46da fc3d 60b1 e13d bdb1 ad3d
000002b0: f4c6 443d 85d4 9d3c 02d8 88bd cbe7 b43d
000002c0: 2a91 333d 9955 803e 5ded 6b3e b6e4 d5bd
000002d0: bb2b c4bd c329 dcbe f8c7 123e cf44 2ebe
000002e0: 4024 cfbc c420 18bc 9e2d cd3d 9db4 943d
000002f0: 8ba5 b03d d920 b13c 5c10 c8be 891d ebbe
00000300: 3eb5 f23c 7fbd bebd 4ec7 343d 8a85 94be
00000310: baea c3bd cdfb 053e 9ca1 cdbd b2f6 22bd
00000320: 6a88 883d 686e e8bd d5b7 103d d9cc 66be
00000330: 84aa 8fbe 69e5 f63d 2fd1 b7be 8c46 953e
00000340: c90c 1ebe fc41 173d ffe7 27bd 5f90 2ebd
00000350: 4e61 a4ba b4a2 803d 688c dbbe c455 babe
00000360: 08c0 9bbe 6d43 1fbe 6411 003e e7e0 4cbd
00000370: e2cf e23d bcf3 3bbe b166 b3bc db1c c73d
00000380: dc88 11be f7a3 d33d f6c3 4fbd 7439 b2bb
00000390: 8958 abbd 51fa c1bc 0201 9abe 539e 3bbe
000003a0: e532 d53e 3fc2 b83d 7420 babe e7c0 87bd
000003b0: 2ec5 243e fbb7 4a3d 02b4 d3bd 911b edbc
000003c0: d765 3a3d 3a0d f3be 62d3 83be 0534 583d
000003d0: f57c c9bd 8444 aa3c f1a5 d6bd 56ce 4d3d
000003e0: 0d95 813c 105f 053e 7745 9b3c c50a 0d3d
000003f0: 0d75 a03d d833 f2bb 5837 123c 0609 8c3d
0.11074024 -0.1810272 0.110403664 -0.03067092 -0.34106836 -0.15332842 -0.37477797 -0.49192977
0.12960786 -0.22246009 0.15943709 0.018766586 -0.13187316 -0.07458684 0.021588117 0.071754195
-0.08342406 -0.057447087 -0.1029623 0.09792961 0.092143945 0.07429078 -0.16350465 -0.09258742
-0.13567652 0.6335508 0.07726182 0.21051714 -0.04702897 -0.08308665 -0.1622902 0.12476304
-0.15026514 -1.3040172 0.009305425 0.18723927 0.13886556 0.23798181 0.16951905 0.039317
-0.105827406 -0.115543626 0.1480442 -0.029828077 0.05579796 0.14680006 -0.08430335 0.0999991
-0.30795735 -0.09337817 -0.13901787 -0.4079061 0.14493904 0.01841623 0.036346823 -0.19134746
-0.08519811 -0.3257802 -0.009970209 0.09831487 0.08709847 0.05877402 -0.24773225 -0.35306516
0.032937203 -0.030533705 0.04791879 -0.05888565 0.042295698 -0.1474022 -0.027529467 -0.16913189
-0.22277214 0.14371115 0.22161004 0.16897158 -0.096416056 -0.05414212 0.010970558 -0.054909874
-0.15528712 0.1420947 -0.039928593 -0.019831263 -0.32487747 1.0584214 0.23117898 -0.15053375
-0.14674392 -0.10720332 0.17707658 -0.10019507 -0.22181636 0.06410806 0.09299945 0.012125714
-0.03359614 -0.006020199 0.037409157 0.11578054 -0.56514955 0.21947661 0.0356379 -0.23185655
0.05780033 -0.079640076 -0.04411925 -0.615286 -0.19900031 -0.3060267 -0.018084507 0.15198557
-0.6249642 -0.45731282 0.024296511 -0.034682058 0.053025033 0.05402366 0.014956027 0.24703778
-0.021381292 0.13659589 0.13244751 0.2599734 -0.101027325 0.1378062 0.23309912 -0.24653167
0.19490257 -0.11169536 -0.023448003 0.15048206 0.07153925 -0.094065286 0.03824497 0.3816455
-0.15820321 -0.66224897 0.36742362 0.23655973 -0.10003734 -0.18486406 -0.23607016 0.09987378
-0.094434164 -0.011436796 0.15065828 0.0015035492 -0.03314019 -0.11896165 -0.17414697 -0.22971886
0.1881471 0.016755424 0.19231337 0.23326313 -0.35569558 -0.02919089 0.17773314 -0.041753862
0.10203907 0.18017773 -0.18814313 0.52921826 0.27245808 0.07620285 -0.7570194 -0.058668766
0.03291145 0.1234632 0.1102016 0.084811665 0.0480413 0.019266376 -0.06681825 0.088332735
0.04383961 0.25065306 0.23039766 -0.10444014 -0.095786534 -0.43000612 0.14334095 -0.17018436
-0.02528584 -0.009285156 0.100184664 0.07261012 0.08625325 0.021622108 -0.3907498 -0.4592097
0.029627439 -0.09313487 0.044135384 -0.29008132 -0.09566255 0.13084336 -0.1004059 -0.03978605
0.06666644 -0.11349183 0.035331566 -0.2253908 -0.2805978 0.12055475 -0.35901782 0.29155385
-0.15434565 0.036928162 -0.040992733 -0.04261815 -0.0012541206 0.06281033 -0.4288056 -0.3639356
-0.30419946 -0.15553065 0.12506634 -0.05001917 0.11074807 -0.18354696 -0.021899553 0.097223006
-0.14212364 0.10334008 -0.050723992 -0.005438978 -0.08366496 -0.02367893 -0.30078894 -0.18322115
0.41640392 0.090214245 -0.36352885 -0.0662859 0.16090843 0.049491864 -0.10337068 -0.028943809
0.04550728 -0.4747103 -0.2574721 0.052783985 -0.09838287 0.020784624 -0.104808696 0.050245605
0.015818143 0.13024545 0.018954022 0.0344341 0.07834826 -0.007391434 0.008924328 0.068376586

other_entity_fc1.bias f4 [32]
00000000: 2e72 c3bd adb9 2cbe 56b9 acbd 342e 2bba
00000010: 0031 e8bb 7348 93be 4964 59bd d0bb 80bd
00000020: 031c 9fbc 7ab2 6cbc a70a 5fbd 1259 86ba
00000030: 89cf d3bc 1fad 25be 152b abbb 1594 32be
00000040: cdad f3bc 575b 9fba 3824 86bc a89d 43be
00000050: e112 0ebd 74c2 e9bd 9a7a e3bc 9c95 a9bc
00000060: 4200 eabb 7b1d 483d 9df9 edbc 2a59 97bd
00000070: 45d2 65bb 9433 b7bc 5dfc 1e3d ee2f 8cbc
-0.095432624 -0.16867705 -0.084337875 -0.0006530017 -0.0070859194 -0.28766212 -0.053074155 -0.062858224
-0.019422537 -0.014446849 -0.05445352 -0.0010249934 -0.025855796 -0.16179322 -0.0052236416 -0.17439301
-0.02974596 -0.0012157959 -0.016374692 -0.1910311 -0.034685973 -0.11414042 -0.027768422 -0.020701222
-0.007141144 0.04885624 -0.029049689 -0.073900536 -0.0035067957 -0.022363462 0.03881489 -0.017112698
