my-submission/checkpoints/model_74240.pt (torch, 352797 bytes, 23 tensors)

local_map_cnn.0.weight f4 [32, 24, 3, 3]
-0.016770842 0.06658925 0.13787667 0.05927043 -0.011611205 0.09232396 -0.07428457 -0.094604895
0.0510147 0.06443807 -0.020192748 -0.0630329 0.07950008 0.01685709 0.120823435 0.02533356
-0.018377945 -0.21519077 -0.009039832 0.03273551 0.075363845 0.024253076 -0.118473 -0.22242722
-0.04143008 -0.028382977 0.027423577 0.0063356077 0.025907144 0.1110006 0.008666368 -0.006451424
-0.21675973 -0.061066184 -0.03762685 0.06597929 0.012504973 0.0010186106 0.048715487 0.032822367
0.019224407 0.024213554 -0.031802688 -0.0012169228 0.082843736 0.06843658 0.08485351 -0.09058557
0.016866831 0.03153101 0.12431334 0.034503244 0.020004814 -0.12926657 -0.05353558 0.020029223
-0.014400612 -0.026913973 -0.050193034 -0.064561285 -0.15734744 -0.072140306 0.100714214 -0.022274626
-0.053763527 0.0062404363 0.019793198 -0.18541321 0.07840774 -0.10145879 -0.0030465529 -0.06443521
-0.0026287378 -0.049428172 0.100042045 -0.035081316 -0.112112604 -0.07493174 -0.03743864 -0.05719394
-0.0015201825 -0.04298429 -0.05074106 -0.0034809243 0.02843588 -0.084739625 -0.11048834 0.031557154
-0.09038644 0.011573734 -0.13893518 0.05281251 0.02331492 -0.01932434 -0.03553609 -0.09099251
-0.07893454 -0.074042454 0.015916383 -0.04077647 -0.032597788 0.04304301 -0.054713003 -0.07771792
-0.05788165 0.05859262 -0.017199272 -0.05069353 -0.05898724 -0.033995274 0.05289621 -0.026486043
-0.013577843 -0.19064769 -0.040615283 -0.061223328 0.026539812 0.013144746 0.01651291 -0.06334301
-0.0022339069 -0.0092607 -0.1094863 0.010887105 -0.014641734 0.06645206 0.029805394 -0.06771762
0.0012459124 0.022764359 0.0074630226 0.09547689 -0.040240686 -0.068790674 -0.12320227 -0.07615795
-0.03525539 0.01205244 0.006801445 -0.042089637 -0.03206125 -0.0067082252 0.07826316 0.20705229
0.035350163 0.065087564 0.057835143 0.06292431 -0.045164973 -0.2988552 -0.015382509 -0.049864534
0.1391772 -0.06774603 -0.09974858 -0.065185785 -0.050718468 -0.06672244 -0.014628144 0.027279
-0.059337214 -0.08435555 0.045123063 -0.06803676 0.19932725 -0.036159147 0.038056094 0.13221563
0.06651841 -0.07368489 0.26083532 0.12207023 -0.012091834 0.101998396 0.09420879 -0.008558062
-0.025674807 0.16794702 0.24739918 0.040277977 -0.2858008 -0.1452531 -0.18020418 -0.051169105
-0.28771824 -0.17797515 -0.048752125 -0.12803814 -0.047854513 0.5256381 0.6721149 0.40321577
0.6736468 0.7158041 0.4401985 0.08661786 0.39142355 0.16718486 0.44306788 0.602325
0.20816915 0.70002884 0.78200316 0.018438583 0.053984694 0.43891427 0.28178978 0.1306664
0.078116335 0.10096654 0.09813865 0.03743195 -0.04803304 0.11360339 0.024538819 0.014102844
0.025552027 -0.0494371 0.038187858 -0.033172462 0.038023584 0.042939357 -0.05923804 0.04807144
-0.06012176 -0.014050245 0.056224942 -0.002626046 0.035773564 0.010576427 0.008387157 0.032688137
0.08544158 0.015834648 -0.011298603 0.00029091496 0.018903168 -0.036279444 -0.060897198 0.023640344
-0.028373053 -0.012299169 0.008349971 0.012876689 0.009214031 0.055646636 0.029917447 0.05389161
0.08179695 0.035160698 0.05804471 0.038179204 0.01629559 -0.048615754 0.0109952735 -0.015132891
00000000: 0163 89bc f25f 883d 8b2f 0d3e 8dc5 723d
00000010: ec3c 3ebc 5814 bd3d 8222 98bd 36c0 c1bd
00000020: caf4 503d 1bf8 833d 436b a5bc 6517 81bd
00000030: f0d0 a23d e117 8a3c 4772 f73d 5388 cf3c
00000040: 588d 96bc f85a 5cbe ce1b 14bc ac15 063d
00000050: 5c58 9a3d 63ae c63c f9a1 f2bd f6c3 63be
00000060: 96b2 29bd 6b83 e8bc 69a7 e03c ee9a cf3b
00000070: 383b d43c 4854 e33d 62fd 0d3c 7866 d3bb
00000080: 43f6 5dbe 8920 7abd 9d1e 1abd 2620 873d
00000090: a9e1 4c3c e682 853a e489 473d bf70 063d
000000a0: 817c 9d3c 815b c63c 8943 02bd 2781 9fba
000000b0: faa9 a93d 7a28 8c3d adc7 ad3d ed84 b9bd
000000c0: 4f2c 8a3c a926 013d fe97 fe3d 4653 0d3d
000000d0: 23e1 a33c 755e 04be 2048 5bbd 5314 a43c
000000e0: 8bf0 6bbc b17a dcbc 3697 4dbd b538 84bd
000000f0: b01f 21be 4cbe 93bd 4143 ce3d 4779 b6bc
00000100: 2537 5cbd 937c cc3b 5825 a23c f6dc 3dbe
00000110: 3d94 a03d a0c9 cfbd ada8 47bb 9bf6 83bd
00000120: e746 2cbb 3275 4abd d8e2 cc3d 6db1 0fbd
00000130: 4b9b e5bd d075 99bd 4259 19bd 3144 6abd
00000140: dc40 c7ba 4b10 30bd dcd5 4fbd 3820 64bb
00000150: 5df2 e83c f88b adbd b647 e2bd 1342 013d
00000160: 871c b9bd c29f 3d3c 0645 0ebe ee51 583d
00000170: eefe be3c 144e 9ebc 4b8e 11bd 485a babd
00000180: 6fa8 a1bd 92a3 97bd 1363 823c 3a05 27bd
00000190: 4285 05bd de4d 303d be1a 60bd 932a 9fbd
000001a0: 4f15 6dbd d1fe 6f3d 7de5 8cbc 05a4 4fbd
000001b0: 9b9c 71bd a13e 0bbd b2a9 583d 42f9 d8bc
000001c0: 9a75 5ebc 2639 43be 365c 26bd 50c5 7abd
000001d0: 056a d93c 105d 573c 1546 873c fbb9 81bd
000001e0: bd66 12bb 31ba 17bc 5a3a e0bd d45f 323c
000001f0: e2e3 6fbc 0518 883d 712a f43c 89af 8abd
00000200: e24d a33a 527c ba3c 5f8c f43b 6389 c33d
00000210: 6bd3 24bd 20e2 8cbd 7951 fcbd b3f8 9bbd
00000220: f567 10bd 9977 453c a8de de3b 2f66 2cbd
00000230: a852 03bd acd0 dbbb 7048 a03d 8405 543e
00000240: 55cb 103d a14c 853d 8be4 6c3d 76de 803d
00000250: e8fe 38bd 8c03 99be eb06 7cbc c13e 4cbd
00000260: 7884 0e3e 6ebe 8abd fc48 ccbd 2080 85bd
00000270: 2bbe 4fbd c6a5 88bd e2aa 6fbc 3678 df3c
00000280: 940b 73bd 9ac2 acbd f6d2 383d db56 8bbd
00000290: 711c 4c3e 9d1b 14bd b5e0 1b3d 8963 073e
000002a0: ce3a 883d 1be8 96bd 358c 853e f5ff f93d
000002b0: d41c 46bc 89e4 d03d 8af0 c03d 1d37 0cbc
000002c0: f953 d2bc 4efa 2b3e 3656 7d3e 85fa 243d
000002d0: 7c54 92be 3bbd 14be 7287 38be b296 51bd
000002e0: ce4f 93be 1e3f 36be 4fb0 47bd 6e1c 03be
000002f0: 1803 44bd 3890 063f b90f 2c3f 4c72 ce3e
00000300: 1e74 2c3f f03e 373f b361 e13e b464 b13d
00000310: ab68 c83e 8232 2b3e cbd9 e23e f931 1a3f
00000320: 4b2a 553e 1735 333f 5c31 483f 830c 973c
00000330: 0e1f 5d3d 5fb9 e03e c046 903e 6acd 053e
00000340: 75fb 9f3d 8cc7 ce3d ebfc c83d 3f52 193d
00000350: 4bbe 44bd e5a8 e83d a205 c93c 9d0f 673c
00000360: 7c52 d13c 8e7e 4abd df6a 1c3d d9df 07bd
00000370: 9ebe 1b3d 2ee1 2f3d 96a3 72bd 8fe6 443d
00000380: 3c42 76bd 0033 66bc 204c 663d be19 2cbb
00000390: 4d87 123d c048 2d3c 496a 093c ffe3 053d
000003a0: fffb ae3d aab7 813c c71d 39bc f285 9839
000003b0: d1da 9a3c c199 14bd 576f 79bd 65a9 c13c
000003c0: 9b6e e8bc 7482 49bc 51ce 083c c0f8 523c
000003d0: 72f6 163c baed 633d 6f15 f53c 73bd 5c3d
000003e0: 2985 a73d aa04 103d 4ac0 6d3d cc61 1c3d
000003f0: 547e 853c 5021 47bd 8525 343c f2ef 77bc

local_map_cnn.0.bias f4 [32]
-0.00973743 -0.037486687 -0.016286293 -0.045323674 0.04481079 0.00022691814 0.031792697 -0.03475048
0.018217497 -0.08725474 0.012024685 0.008966107 -0.019826518 -0.034502648 -0.028910747 -0.09042217
-0.030837651 0.040084723 0.0441354 0.039075512 -0.06985682 0.051237334 0.0019456802 -0.03152376
-0.042838905 -0.06345426 -0.052480835 -0.01394644 0.070084825 0.042429317 0.07473445 0.017996816
00000000: be89 1fbc a48b 19bd d56a 85bc 51a5 39bd
00000010: 858b 373d e0f0 6d39 0f39 023d 8556 0ebd
00000020: dc3c 953c 9db2 b2bd 2f03 453c 94e6 123c
00000030: 396b a2bc a652 0dbd 3bd6 ecbc 422f b9bd
00000040: 3e9f fcbc e12f 243d 52c7 343d a50d 203d
00000050: 1811 8fbd 3dde 513d 3206 ff3a 0f1f 01bd
00000060: d977 2fbd 4ff4 81bd 25f6 56bd 9c7f 64bc
00000070: a288 8f3d 5dca 2d3d 600e 993d 0f6e 933c

local_map_cnn.2.weight f4 [32, 32, 3, 3]
0.016981462 -0.021605182 -0.08335714 -0.178423 -0.14560458 -0.0392331 -0.34498605 -0.018639944
0.008742696 -0.030739637 -0.027585035 -0.046973426 -0.0372706 -0.055919755 -0.07962655 -0.004234047
-0.067017026 -0.1320004 0.13841167 -0.048942134 0.031813655 0.14366965 0.165237 0.20090091
-0.0041135857 -0.105940185 0.002479907 0.021165853 0.1774275 0.15353633 0.1177338 0.26523116
0.17168213 -0.05458903 0.005036432 0.049314383 0.00993925 -0.048427902 0.09794183 0.03011964
-0.19474916 -0.08806719 0.0069527496 -0.08364706 0.022062302 -0.057300113 -0.07905491 0.007974002
-0.10597452 -0.20182882 -0.11691242 -0.06290498 -0.038119838 -0.018126227 -0.029733865 -0.010718558
-0.084568866 -0.032434043 -0.0417276 -0.10738264 -0.00035219977 -0.1386175 -0.041773643 0.08561995
0.08771595 0.11231109 0.08452796 0.081856064 0.13706593 0.04551542 0.11522888 0.086001426
0.09212102 0.17584458 -0.045653176 0.070385985 -0.040348753 -0.03179264 0.04550051 -0.0015950538
-0.070590645 0.05117805 0.12258243 0.07620461 0.05983863 0.13221493 0.092070185 0.03784564
0.06871081 0.06040897 -0.0051366054 -0.059549093 0.03456366 0.051243905 -0.09542099 -0.020911401
0.0458432 -0.11825002 0.053363543 0.14809264 0.0795461 0.12113501 -0.043064956 0.09261506
0.11852377 0.0670463 -0.040414214 0.10368385 -0.0459867 -0.0067093386 -0.07898559 0.04566038
-0.052495632 -0.15602493 0.034673512 -0.08299349 -0.030591354 0.04693637 0.123557836 0.058479577
0.07648139 -0.009811903 0.04414633 0.055816915 0.06509181 0.01130406 -0.062799916 -0.009068072
-0.026891336 -0.026223982 0.06357938 0.030262526 -0.04131578 -0.07042314 0.015189504 0.022948105
0.12619269 0.03641992 0.017916387 0.15962401 0.0940051 -0.093270026 0.06664523 -0.00030010074
0.080286525 0.14010851 0.059310533 0.19160134 0.2208465 0.031238712 0.104229584 0.08611929
0.087914705 0.09867756 0.060106434 0.05668103 0.0016161194 0.08203659 0.027152969 -0.016455265
0.08497853 -0.023225328 0.09992179 0.026919777 0.100897074 0.08223746 0.16282314 0.21998696
0.060639963 0.008089371 0.090319484 0.045342997 -0.026679445 0.031720735 0.17380609 0.15762378
0.14489001 0.051272336 0.09916405 0.14840408 0.031670436 0.10677632 -0.013421265 0.07236843
0.0085522765 0.068570085 -0.06721907 0.0014722694 0.026551642 0.052512795 0.14884931 0.061134387
0.07708161 0.044966698 0.120656565 0.08923301 -0.05832932 -0.039142285 0.020308958 0.040163137
0.00013607064 0.00966613 0.053776685 0.04415099 0.043778136 -0.061370615 -0.042226173 0.030636018
-0.009221879 0.061680924 0.05092573 0.021520326 0.020375429 0.07936755 -0.033703044 0.105243094
-0.064643785 0.123190574 0.014187021 0.020838447 0.19000065 0.118736334 -0.0869599 0.08590993
0.09013847 0.10005711 0.109374344 0.096147574 0.08069613 0.14955005 0.1216936 0.13110934
0.08237262 0.101297855 0.030122215 0.020536767 0.036750678 -0.3002135 0.018336456 -0.39230266
-0.049050983 0.054907523 -0.0510671 0.043242816 -0.13787504 0.09927954 -0.043335177 -0.3723499
-0.097256824 -0.122022495 -0.12596259 0.055918366 0.06497642 0.10006759 0.09829199 0.047142
00000000: b51c 8b3c 5afd b0bc 26b7 aabd 85b4 36be
00000010: 5e19 15be e3b2 20bd 03a2 b0be ccb2 98bc
00000020: 863d 0f3c b1d1 fbbc 03fa e1bc 3567 40bd
00000030: 0fa9 18bd 1d0c 65bd 3f13 a3bd c3bd 8abb
00000040: 3940 89bd 1d2b 07be cabb 0d3e 8c77 48bd
00000050: 094f 023d 231e 133e e333 293e f8b8 4d3e
00000060: 42cb 86bb 2bf7 d8bd ef85 223b 0364 ad3c
00000070: 8eaf 353e a138 1d3e 6b1e f13d 61cc 873e
00000080: 71cd 2f3e bf98 5fbd a708 a53b e1fd 493d
00000090: 3cd8 223c 565c 46bd ba95 c83d 77bd f63c
000000a0: 536c 47be 925c b4bd e4d3 e33b 264f abbd
000000b0: 00bc b43c 86b3 6abd 8ae7 a1bd 63a5 023c
000000c0: 2b09 d9bd 37ac 4ebe c76f efbd 53d4 80bd
000000d0: 8c23 1cbd 747d 94bc 6f94 f3bc e49c 2fbc
000000e0: 7132 adbd 8fd9 04bd 8fea 2abd 6eeb dbbd
000000f0: 74a7 b8b9 bff1 0dbe d71a 2bbd 8359 af3d
00000100: 6ca4 b33d 5b03 e63d ff1c ad3d 27a4 a73d
00000110: 035b 0c3e 616e 3a3d 1efd eb3d 8421 b03d
00000120: f2a9 bc3d 9a10 343e d3fe 3abd 8726 903d
00000130: bc44 25bd 0039 02bd be5e 3a3d 2011 d1ba
00000140: d491 90bd 13a0 513d 7f0c fb3d 2a11 9c3d
00000150: 5a19 753d 5a63 073e 4b8f bc3d 0804 1b3d
00000160: 41b8 8c3d 656f 773d f850 a8bb c0e9 73bd
00000170: a092 0d3d 21e5 513d 146c c3bd 634e abbc
00000180: 14c6 3b3d 112d f2bd bb93 5a3d 99a5 173e
00000190: 11e9 a23d a215 f83d e164 30bd f7ac bd3d
000001a0: 97bc f23d 924f 893d 6089 25bd 3358 d43d
000001b0: 8d5c 3cbd 03da dbbb 32c3 a1bd 6106 3b3d
000001c0: a905 57bd 00c5 1fbe d005 0e3d 7ef8 a9bd
000001d0: b89a fabc 5a40 403d e40b fd3d 4888 6f3d
000001e0: 46a2 9c3d 1bc2 20bc c8d2 343d 47a0 643d
000001f0: db4e 853d aa34 393c 3e9d 80bd 4092 14bc
00000200: 384b dcbc add3 d6bc e835 823d 1ee9 f73c
00000210: bc3a 29bd 023a 90bd 66dd 783c aafd bb3c
00000220: a838 013e 0e2d 153d 63c5 923c 7a74 233e
00000230: bf85 c03d 5b04 bfbd 4b7d 883d d756 9db9
00000240: 436d a43d 9b78 0f3e 9aef 723d 2433 443e
00000250: 9625 623e 54e8 ff3c 5276 d53d 4f5f b03d
00000260: a00c b43d 7617 ca3d 2a32 763d 5e2a 683d
00000270: f8d3 d33a cd02 a83d e76f de3c 31cd 86bc
00000280: 3909 ae3d 0b43 bebc cca3 cc3d dd86 dc3c
00000290: 20a3 ce3d 1d6c a83d 1cbb 263e 4344 613e
000002a0: 9c61 783d 4889 043c 6cf9 b83d 94b9 393d
000002b0: da8e dabc 9aed 013d 39fa 313e 2168 213e
000002c0: 0c5e 143e f102 523d 8516 cb3d 3df7 173e
000002d0: dcb8 013d 8bad da3d dee4 5bbc e635 943d
000002e0: d91e 0c3c 796e 8c3d 27aa 89bd 2af9 c03a
000002f0: d482 d93c a817 573d f46b 183e 0d68 7a3d
00000300: f7dc 9d3d 002f 383d ca1a f73d ccbf b63d
00000310: baea 6ebd a953 20bd f95e a63c 1a82 243d
00000320: 2fae 0e39 b05e 1e3c f144 5c3d abd7 343d
00000330: b450 333d c15f 7bbd 5af5 2cbd 63f8 fa3c
00000340: 5d17 17bc 23a5 7c3d 8097 503d 654b b03c
00000350: 5fea a63c 748b a23d 340c 0abd b189 d73d
00000360: f663 84bd 574b fc3d ae70 683c 64b5 aa3c
00000370: 888f 423e 092c f33d 0818 b2bd 8cf1 af3d
00000380: 859a b83d beea cc3d a8ff df3d 05e9 c43d
00000390: 0344 a53d a623 193e 7f3a f93d 8741 063e
000003a0: fab2 a83d 4075 cf3d ddc2 f63c b93c a83c
000003b0: e187 163d 95b5 99be 5636 963c e5db c8be
000003c0: afe9 48bd b6e6 603d bc2b 51bd 611f 313d
000003d0: 1d2f 0dbe 1253 cb3d 3a80 31bd a5a4 bebe
000003e0: 962e c7bd eee6 f9bd 56fc 00be a80a 653d
000003f0: 5b12 853d 3df0 cc3d 504d c93d f817 413d

local_map_cnn.2.bias f4 [32]
-0.01459672 0.032581232 -0.006569925 0.004866633 -0.05422295 -0.1299325 0.0052456865 0.051387195
-0.03485078 -0.06888196 -0.08834105 -0.06685951 -0.12824441 0.030248303 0.042233173 0.032852978
-0.12318201 0.055934906 -0.009950965 -0.013491811 -0.07667816 -1.2720305e-06 -0.003743506 -0.043930706
0.06430218 0.08861066 -0.0697079 -0.08047667 0.021136029 -0.08523882 -0.09214058 -0.15579627
00000000: 1527 6fbc e673 053d 8748 d7bb 4778 9f3b
00000010: e218 5ebd 060d 05be 02e4 ab3b 617b 523d
00000020: b1bf 0ebd fc11 8dbd 27ec b4bd a4ed 88bd
00000030: 8152 03be 4acb f73c b1fc 2c3d d890 063d
00000040: da46 fcbd 001c 653d 5f09 23bc c20c 5dbc
00000050: 7009 9dbd a3ba aab5 9c55 75bb aff0 33bd
00000060: ddb0 833d 8179 b53d 04c3 8ebd f4d0 a4bd
00000070: 7725 ad3c b191 aebd 33b4 bcbd 0f89 1fbe

local_map_cnn.4.weight f4 [32, 32, 3, 3]
-0.021936223 -0.12889126 0.061089825 0.088381946 0.0044422923 0.013442969 -0.11434364 -0.17712621
-0.09620205 0.1961751 -0.087916486 0.056292366 0.0011538601 -0.30398566 -0.18027465 -0.06384929
0.23296069 0.06007249 -0.0071971766 -0.06731496 0.063079804 0.017980883 -0.12808727 -0.06424844
0.052805264 -0.1770712 -0.053164028 -0.011736479 -0.033950128 0.070266 -0.025235051 -0.2610626
0.066797554 -0.046322577 -0.095924735 0.027421677 -0.009776187 0.024409525 0.045145925 0.06630375
-0.05369269 -0.043445148 0.0743762 -0.062083002 0.10415409 -0.0326924 0.034098394 0.07432765
-0.1190536 -0.09449474 0.019462744 -0.024258059 -0.14736377 -0.13718086 0.030545974 0.12441397
-0.015441968 0.04714992 -0.20545861 0.0093162395 0.09545392 0.066995576 0.13966767 -0.10555133
0.021444531 -0.04766443 -0.07953436 -0.060256887 0.16242382 -0.037024178 -0.1949761 -0.2326571
-0.13245961 0.21375446 -0.011423 0.00081402 0.23995511 0.06042862 0.08642182 -0.33835542
-0.07263332 -0.2336311 0.14088917 0.041944187 -0.04685914 -0.14192875 -0.112774156 0.058974065
-0.21482022 0.019404652 0.013099566 -0.044457395 0.09945276 -0.0506479 -0.12180408 0.017280295
0.123389624 -0.06320427 0.024714274 0.075635865 -0.10059671 0.10551464 -0.010740878 -0.20197436
-0.013057885 -0.084448166 -0.04262347 -0.036599617 -0.016023258 -0.025021529 0.052369945 0.12666796
-0.13705528 -0.014341235 -0.07353297 -0.16634288 0.18383254 0.055390008 0.10818272 0.067210674
0.003481352 -0.10429095 0.041714806 0.044178847 -0.046835646 -0.11366773 -0.06039889 -0.09619701
0.047994584 0.040351406 -0.04467993 -0.03100708 -0.012716097 -0.26376972 -0.12504804 0.07221798
-0.15702473 0.0874395 0.023595298 -0.24141085 -0.02785863 -0.021793678 -0.2502695 -0.032918442
0.0013014039 0.023191882 0.108168244 0.0003355516 -0.15276325 0.03420435 0.054202035 0.04349658
0.04420701 0.12386752 -0.047933068 -0.047660865 -0.005669297 -0.1097446 -0.04742477 -0.043524213
0.16546908 0.11829046 0.115127996 -0.05398546 0.06336333 0.0057355044 -0.0850423 -0.14541847
0.065184884 0.07376154 0.072766274 -0.01286015 0.0798454 0.20415127 -0.021003969 -0.24158213
0.03904709 -0.054458775 -0.032105245 0.057299655 -0.16974197 0.11014396 0.05109701 -0.04612847
0.10638885 -0.079964675 0.05580574 -0.2005594 0.09494309 0.04636263 -0.01685125 0.1343389
0.099737406 -0.1415462 0.05023969 0.1262419 -0.06522701 0.1335542 -0.05631642 0.006363972
-0.0693394 0.0045334715 0.13801953 -0.0019301347 0.102012746 0.07226655 -0.17970411 0.14751714
-0.012151437 0.11882964 -0.007276684 -0.33409634 0.010653249 0.05836244 0.0352586 -0.03235961
-0.10225568 0.12992272 -0.118485354 0.011737034 -0.06424088 0.12851675 0.1276234 0.07017817
0.055741925 -0.04757778 -0.0158261 -0.084358394 0.12455876 0.1126597 0.026403219 0.06966535
0.14835782 0.15335916 -0.028280549 0.02521913 0.044488683 -0.013517922 -0.12081651 0.04851405
-0.043068163 -0.16789928 0.07231247 0.06435559 0.05321148 0.07131074 -0.027522158 -0.1353809
0.021292804 0.017618246 -0.055254675 0.082185894 -0.06934297 0.0016822602 0.037733056 -0.0034187022
00000000: 98b3 b3bc 12fc 03be 5339 7a3d 9801 b53d
00000010: a690 913b e63f 5c3c 002d eabd 9360 35be
00000020: 9505 c5bd 20e2 483e 8f0d b4bd d392 663d
00000030: 1f3d 973a 02a4 9bbe eb99 38be 6bc3 82bd
00000040: 3f8d 6e3e 920e 763d 4bd6 ebbb 6ddc 89bd
00000050: fc2f 813d a54c 933c 4f29 03be b094 83bd
00000060: 554a 583d 2752 35be 86c2 59bd 5c4a 40bc
00000070: 4a0f 0bbd 9fe7 8f3d bdb9 cebc ffa9 85be
00000080: 28cd 883d bebc 3dbd 3074 c4bd 6da3 e03c
00000090: 4d2c 20bc 7cf6 c73c efea 383d 43ca 873d
000000a0: deec 5bbd 8af3 31bd 8d52 983d bf4a 7ebd
000000b0: bd4e d53d 77e8 05bd c2aa 0b3d 1839 983d
000000c0: 60d2 f3bd 7586 c1bd 5570 9f3c d6b8 c6bc
000000d0: 87e6 16be 2479 0cbe 8d3b fa3c c0cc fe3d
000000e0: 4f00 7dbc 4620 413d be63 52be 24a3 183c
000000f0: 587d c33d fa34 893d 0b05 0f3e 4c2b d8bd
00000100: 71ac af3c c73b 43bd e9e2 a2bd edcf 76bd
00000110: 6e52 263e aaa6 17bd d1a7 47be aa3d 6ebe
00000120: 7ea3 07be 73e2 5a3e 8927 3bbc f563 553a
00000130: cbb6 753e 0084 773d ecfd b03d ec3c adbe
00000140: c7c0 94bd fe3c 6fbe 4045 103e abcd 2b3d
00000150: 5fef 3fbd c555 11be 23f6 e6bd ca8e 713d
00000160: d5f9 5bbe 81f6 9e3c 909f 563c f518 36bd
00000170: e3ad cb3d 2c74 4fbd 6b74 f9bd 688f 8d3c
00000180: b3b3 fc3d 3e71 81bd 9775 ca3c fae6 9a3d
00000190: a605 cebd 0f18 d83d 82fa 2fbc 5ed2 4ebe
000001a0: bdf0 55bc 29f3 acbd f395 2ebd 7be9 15bd
000001b0: 3543 83bc f3f9 ccbc de81 563d 3fb5 013e
000001c0: 3858 0cbe 80f7 6abc 7498 96bd ca55 2abe
000001d0: 993e 3c3e a2e0 623d e78e dd3d c0a5 893d
000001e0: 6527 643b 7e96 d5bd 25dd 2a3d e1f4 343d
000001f0: bcd6 3fbd a0ca e8bd d464 77bd f002 c5bd
00000200: f895 443d 8447 253d 4d02 37bd 8f02 febc
00000210: 2d57 50bc d30c 87be 980c 00be 05e7 933d
00000220: 17cb 20be 7b13 b33d ed4a c13c 6834 77be
00000230: c837 e4bc a888 b2bc 5323 80be 7dd5 06bd
00000240: de93 aa3a e7fc bd3c 5087 dd3d f9ec af39
00000250: f86d 1cbe dc19 0c3d f402 5e3d 7829 323d
00000260: 6912 353d 41ae fd3d 7755 44bd 0a38 43bd
00000270: 83c5 b9bb c7c1 e0bd 7a40 42bd 7246 32bd
00000280: ba70 293e 4542 f23d 3ac8 eb3d dc1f 5dbd
00000290: a2c4 813d e6f0 bb3b a82a aebd 94e8 14be
000002a0: a77f 853d 4a10 973d 7c06 953d 61b3 52bc
000002b0: fc85 a33d 080d 513e 8410 acbc 4e61 77be
000002c0: d7ef 1f3d 2a10 5fbd ca80 03bd 0bb3 6a3d
000002d0: d7d0 2dbe 2893 e13d 194b 513d 35f1 3cbd
000002e0: 66e2 d93d 85c4 a3bd 8f94 643d 715f 4dbe
000002f0: 8671 c23d bee6 3d3d a20b 8abc 2390 093e
00000300: 2043 cc3d 7df1 10be 22c8 4d3d 8e45 013e
00000310: bd95 85bd 6fc2 083e 0cac 66bd de88 d03b
00000320: d101 8ebd 848d 943b fe54 0d3e 93fc fcba
00000330: 0fec d03d 7c00 943d 5b04 38be bc0e 173e
00000340: d216 47bc f45c f33d 4071 eebb ad0e abbe
00000350: f78a 2e3c 740d 6f3d 526b 103d 838b 04bd
00000360: 6d6b d1bd 760a 053e 73a8 f2bd b04c 403c
00000370: b990 83bd e599 033e b5af 023e 93b9 8f3d
00000380: a551 643d ebe0 42bd bda5 81bc 18c4 acbd
00000390: aa18 ff3d 21ba e63d 904b d83c b5ac 8e3d
000003a0: 1deb 173e 2f0a 1d3e 9cac e7bc 5998 ce3c
000003b0: c439 363d 467a 5dbc a56e f7bd abb6 463d
000003c0: 3e68 30bd caed 2bbe 8f18 943d ddcc 833d
000003d0: 48f4 593d 5e0b 923d 2676 e1bc 4aa1 0abe
000003e0: 3f6e ae3c 2454 903c ba52 62bd 1451 a83d
000003f0: b003 8ebd 497f dc3a fa8d 1a3d 4e0c 60bb

local_map_cnn.4.bias f4 [32]
0.059892677 -0.016157605 -0.11800699 -0.20716667 0.0009275584 -0.017075228 0.0030815287 -0.08192535
0.08612479 0.052679516 0.088968895 -0.07411539 0.09849043 0.14005475 -0.11137737 0.1845852
-0.11429058 0.06745919 0.085059695 -0.08775502 -0.08310788 0.0038945195 0.0261192 -0.02539615
-0.012494006 0.08249983 -0.08716802 0.011349995 0.02674898 0.0799679 0.028271642 0.030111551
00000000: 0652 753d f45c 84bc a6ad f1bd 8023 54be
00000010: 6427 733a 59e1 8bbc 79f3 493b 7ac8 a7bd
00000020: 3262 b03d 7ac6 573d 5335 b63d cfc9 97bd
00000030: 5ab5 c93d 836a 0f3e d219 e4bd e703 3d3e
00000040: 2e11 eabd 0b28 8a3d c733 ae3d e7b8 b3bd
00000050: 7734 aabd 323b 7f3b eff7 d53c 960b d0bc
00000060: a9b3 4cbc acf5 a83d 2685 b2bd 54f5 393c
00000070: ad20 db3c 36c6 a33d ee99 e73c 80ac f63c

local_map_fc.weight f4 [64, 512]
-0.10508415 -0.12119238 -0.19798467 -0.17757913 -0.02240014 -0.0933716 -0.08120799 -0.025521625
-0.005588861 -0.018304374 -0.058286864 0.027865421 0.09465078 0.011114589 0.027600298 -0.14392309
-0.037402727 -0.023064805 -0.022192273 -0.0010814444 -0.057271395 -0.058754403 -0.046724234 -0.046752248
-0.017324202 0.011523036 0.0012531775 -0.04282145 -0.03519635 0.045162186 0.044383954 0.016365191
-0.12079904 0.055920295 -0.020019725 0.024849657 -0.30546874 -0.074493684 0.02167796 -0.118202664
0.038377184 -0.22648725 0.005233636 -0.08056558 0.13400258 0.016329782 0.024424817 0.054512493
0.03709721 -0.032504734 0.0011546772 0.041887727 0.025589729 0.041743252 0.07451705 -0.06704992
0.010710995 0.11075923 0.0065888255 0.035297334 0.07246477 -0.06537122 -0.038903728 0.00521176
-0.114516824 -0.1792107 -0.000588481 -0.11551445 -0.09194283 -0.06822013 0.003790648 0.021933733
0.0890534 -0.04406613 -0.019648204 -0.21141893 0.020667156 0.02759801 -0.06865044 0.07317293
-0.007441978 -0.0040587983 -0.15729757 -0.13005763 -0.042146605 -0.07533889 -0.03066281 0.13973594
-0.042713333 0.19924413 -0.088458546 0.08828406 -0.030644134 -0.027495248 -0.046879865 0.03410367
-0.10617899 0.07135479 -0.027642244 -0.054526333 -0.1152168 0.027336527 -0.059239976 0.017306322
0.002038251 0.1366288 -0.07684957 -0.073252805 0.06365904 0.023029469 0.03453599 0.009092221
-0.023784177 -0.00077922933 0.010103845 -0.041686844 -0.09426689 -0.095103174 -0.06030851 0.031539995
0.0058117565 -0.20408529 -0.15279138 -0.06396878 -0.0034421256 -0.0026888708 0.011591641 0.031574387
-0.086574644 -0.12803705 -0.08646355 -0.12612534 -0.16539678 -0.07846653 -0.19478872 0.036443863
-0.076238304 0.009805152 -0.20593175 -0.017172758 0.074650794 -0.03051842 0.027112326 -0.06988782
-0.1726141 0.01803823 -0.22054598 -0.25576574 0.03753468 -0.023869064 -0.14479654 -0.17568557
0.03311165 -0.008188879 -0.002440868 -0.13502559 -0.15277654 -0.13820484 0.038193095 -0.051302698
-0.10062394 -0.13967629 0.052253515 -0.009892677 -0.17592612 -0.041741163 -0.061799202 -0.07340546
-0.027746867 -0.11336421 0.011972408 -0.05473449 -0.11293377 -0.17281887 -0.021054475 0.017310025
0.015868206 -0.018296978 -0.057548374 0.03289891 -0.028482506 -0.08489833 -0.035465192 -0.002259072
-0.11381807 -0.15894051 -0.08114198 0.008363676 0.048537422 0.038864546 0.028552515 0.07429133
-0.097246096 -0.12563471 -0.22756481 -0.26521823 -0.057194404 -0.06895958 -0.043360867 -0.19858
0.023340957 0.038043194 0.033942208 -0.07136139 0.10491693 0.1120417 -0.033447057 0.017114365
-0.07284173 -0.17999457 -0.029470818 0.014979407 -0.04225713 -0.17566459 -0.017030075 -0.032193452
0.039077993 -0.03786873 -0.020910554 0.05841467 -0.016852707 -0.079467684 0.025094869 -0.030978037
-0.031991303 0.014833751 -0.018772548 0.07208318 0.1133182 -0.015567849 0.07402332 0.043449555
0.0016373404 -0.080880806 0.057419065 0.015160214 0.02014535 -0.063237056 0.049561467 -0.07214799
-0.13095646 -0.031069921 -0.161213 0.008740311 -0.12086952 -0.060447484 -0.19608219 -0.05302841
-0.11982564 -0.1591425 -0.0674262 -0.0066547203 -0.038974874 -0.093176916 -0.023002429 -0.13968806
00000000: 5c36 d7bd b633 f8bd 7ebc 4abe 4ed7 35be
00000010: 8080 b7bc 9c39 bfbd 6050 a6bd ba12 d1bc
00000020: c422 b7bb 0ef3 95bc 35be 6ebd 0646 e43c
00000030: 45d8 c13d f719 363c 051a e23c 9360 13be
00000040: 9a33 19bd 67f2 bcbc 92cc b5bc 41bf 8dba
00000050: 6995 6abd 75a8 70bd e961 3fbd 497f 3fbd
00000060: 7ceb 8dbc 1ecb 3c3c a941 a43a 8b65 2fbd
00000070: 0c2a 10bd fcfb 383d f3cb 353d 4b10 863c
00000080: 7d65 f7bd ae0c 653d 6800 a4bc 8291 cb3c
00000090: 6666 9cbe 2590 98bd fa95 b13c 3d14 f2bd
000000a0: 6531 1d3d 46ec 67be ec7e ab3b 91ff a4bd
000000b0: f937 093e 09c6 853c 8e16 c83c 7e48 5f3d
000000c0: 3ef3 173d af23 05bd 8a58 973a 7792 2b3d
000000d0: 8da1 d13c f9fa 2a3d 659c 983d 7851 89bd
000000e0: 2b7d 2f3c bcd5 e23d 13e7 d73b f093 103d
000000f0: 6968 943d 59e1 85bd 8459 1fbd 69c7 aa3b
00000100: cc87 eabd 0283 37be 4b44 1aba d792 ecbd
00000110: 864c bcbd ffb6 8bbd 856c 783b 5fae b33c
00000120: a161 b63d b07e 34bd 45f5 a0bc 347e 58be
00000130: 2b4e a93c 3915 e23c 9a98 8cbd b0db 953d
00000140: d6db f3bb abff 84bb 9d12 21be d42d 05be
00000150: eba1 2cbd 474b 9abd 9330 fbbc f016 0f3e
00000160: 2df4 2ebd a706 4c3e c129 b5bd 46ce b43d
00000170: 6809 fbbc b73d e1bc 1a05 40bd 4ab0 0b3d
00000180: 5f74 d9bd 7622 923d fd71 e2bc 0157 5fbd
00000190: c9f6 ebbd daf0 df3c 9ea5 72bd fdc5 8d3c
000001a0: 2d94 053b 6ce8 0b3e 4f63 9dbd 9105 96bd
000001b0: ac5f 823d 4ca8 bc3c 9c75 0d3d 8af7 143c
000001c0: 09d7 c2bc 3245 4cba 998a 253c d3bf 2abd
000001d0: 000f c1bd 74c5 c2bd 0e06 77bd 1530 013d
000001e0: 8c70 be3b bcfb 50be 5875 1cbe 1002 83bd
000001f0: 4995 61bb c437 30bb deea 3d3c 2554 013d
00000200: 0c4e b1bd 251c 03be cd13 b1bd 0027 01be
00000210: c65d 29be 0fb3 a0bd b276 47be 2946 153d
00000220: d422 9cbd caa5 203c c6df 52be e2ad 8cbc
00000230: 84e2 983d c401 fabc ab1a de3c 5821 8fbd
00000240: c0c1 30be e9c4 933c ced6 61be baf3 82be
00000250: f7bd 193d 0e89 c3bc 8b45 14be ebe6 33be
00000260: 15a0 073d a62a 06bc f8f6 1fbb 2644 0abe
00000270: 7471 1cbe 9285 0dbe 5d70 1c3d c722 52bd
00000280: ed13 cebd 4d07 0fbe c807 563d e514 22bc
00000290: fa25 34be c8f8 2abd 2921 7dbd 9a55 96bd
000002a0: 664d e3bc 7f2b e8bd eb27 443c 4631 60bd
000002b0: d249 e7bd 6ef7 30be 6f7a acbc c1cd 8d3c
000002c0: 0afe 813c 8be3 95bc d8b7 6bbd 02c1 063d
000002d0: 2554 e9bc 2ddf adbd f343 11bd f00c 14bb
000002e0: 7319 e9bd 4dc1 22be c42d a6bd cd07 093c
000002f0: 2dcf 463d 6e30 1f3d f7e6 e93c 0e26 983d
00000300: f628 c7bd 63a6 00be c006 69be afca 87be
00000310: ae44 6abd ae3a 8dbd 2a9b 31bd 8e58 4bbe
00000320: 8935 bf3c 2ed3 1b3d fc06 0b3d ec25 92bd
00000330: b0de d63d 1e76 e53d c8ff 08bd 6d33 8c3c
00000340: 0c2e 95bd 7f50 38be c96c f1bc 306c 753c
00000350: d015 2dbd 6be1 33be a882 8bbc 48dd 03bd
00000360: 3f10 203d 3e1c 1bbd 9c4c abbc 3944 6f3d
00000370: b00e 8abc f4bf a2bd c193 cd3c a7c5 fdbc
00000380: 5009 03bd 4309 733c e3c8 99bc 59a0 933d
00000390: 5f13 e83d 4b10 7fbc 8a99 973d 29f8 313d
000003a0: 079c d63a d6a4 a5bd 4130 6b3d 8c62 783c
000003b0: dc07 a53c 6e82 81bd f700 4b3d 53c2 93bd
000003c0: 7319 06be 5986 febc 0515 25be 8533 0f3c
000003d0: 708a f7bd c897 77bd c5c9 48be 5134 59bd
000003e0: 2567 f5bd 40f6 22be bf16 8abd d70f dabb
000003f0: 1ea4 1fbd 8ad3 bebd 976f bcbc 630a 0fbe

local_map_fc.bias f4 [64]
-0.061511897 -0.105160564 0.026118975 -0.06347914 -0.059950024 -0.06448859 -0.051935837 0.09133028
-0.019030692 -0.057631813 -0.05062065 -0.032740287 0.10676418 -0.018451663 -0.031801783 0.095399275
0.02406833 0.0057348744 -0.08351537 0.013142029 -0.07615793 -0.12076341 0.040634844 0.06179076
-0.04018005 -0.05802516 0.021045612 -0.014259086 0.03677662 0.069518715 -0.017097563 -0.09684428
0.03663463 0.006435119 -0.024258507 -0.028304875 -0.05151649 0.11517649 0.12951177 0.018440513
-0.06449574 0.0009903499 0.020755403 0.11655635 0.064062536 0.06050011 -0.053443924 0.015343299
-0.04390914 -0.01945487 -0.023124326 -0.047721975 -0.014542028 -0.045492988 -0.051274464 0.060632937
0.0030577655 -0.14815193 -0.0035153804 -0.052620888 -0.033345565 0.08134087 0.0726252 0.08382529
00000000: e6f3 7bbd 6c5e d7bd 76f7 d53c 5a01 82bd
00000010: 288e 75bd 9812 84bd acba 54bd 5f0b bb3d
00000020: 41e6 9bbc 560f 6cbd 9957 4fbd ae1a 06bd
00000030: 2ea7 da3d f127 97bc 9642 02bd b260 c33d
00000040: f22a c53c 9deb bb3b 1b0a abbd aa51 573c
00000050: b0f8 9bbd cf52 f7bd b970 263d 4f18 7d3d
00000060: d693 24bd caab 6dbd d967 ac3c f19e 69bc
00000070: 15a3 163d d45f 8e3d 3010 8cbc 4b56 c6bd
00000080: 320e 163d b1dd d23b c7b9 c6bc a0df e7bc
00000090: f402 53bd a7e1 eb3d bc9e 043e 8f10 973c
000000a0: 5816 84bd a1ce 813a 3c07 aa3c 18b5 ee3d
000000b0: 3833 833d f7ce 773d 04e8 5abd 7662 7b3c
000000c0: 12da 33bd d25f 9fbc 3a6f bdbc 1e78 43bd
000000d0: b041 6ebc db56 3abd 2c05 52bd 3e5a 783d
000000e0: cb64 483b 24b5 17be 4c62 66bb 0089 57bd
000000f0: 5c95 08bd 0b96 a63d 85bc 943d 98ac ab3d

self_entity_fc1.weight f4 [32, 26]
0.22430545 0.03597035 -0.021936756 0.021509327 -0.056821257 0.2187448 -0.020392668 -0.53438723
-0.021517606 -0.10211073 -0.13301069 -0.4334672 0.14934076 -0.1705871 0.17966783 0.11587505
-0.24689822 -0.043171555 0.06516098 0.025791762 -0.10124096 0.28786153 -0.1381174 0.1846682
-0.0025296868 0.052354816 -0.34197244 -0.09021328 0.021864146 0.16899446 0.15912855 -0.14517571
0.09030053 -0.2821106 -0.054049026 -0.049872767 -0.11928714 0.02531185 0.038727693 0.06987763
0.19356585 0.12005388 0.12709458 0.0053391 -0.06625809 0.00036449387 -0.06730623 0.07436169
-0.04583029 -0.016256167 0.0879735 0.18860671 -0.016696852 -0.061000407 0.05602368 -0.12702172
0.11299793 -0.43528783 -0.25818092 0.09271289 0.13542776 -0.024801506 -0.43303576 -0.047388434
-0.08001068 0.08953361 0.056374677 0.21160649 0.010998282 0.093252204 0.022090325 0.14189199
0.06779515 0.098958775 0.17980045 -0.10809524 -0.039984453 -0.13354373 -0.12237331 -0.04779831
0.12195592 -0.07134359 -0.088801086 0.08467274 0.07095485 -0.052356243 0.7252608 0.29390132
0.08517529 -0.082474045 0.027547063 0.24284957 -0.0038234019 -0.14870365 0.19272146 0.23251905
-0.12198319 -0.04328945 0.2722926 -0.056315944 -0.15332116 0.03820102 -0.110016264 0.13369043
-0.17612566 0.031693403 -0.001116519 -0.13614674 0.13688293 0.05390075 -0.007838169 -0.29468673
0.039739735 0.15374519 0.41129574 0.21907857 0.14997709 0.10539863 -0.16574645 0.072617196
0.23352866 0.33545142 -0.11518076 -0.04668019 0.054218408 -0.06862442 -0.059175998 -0.02327878
-0.11358514 -0.10326105 0.06681111 0.1166127 0.21025309 0.07649568 0.05891721 -0.06416113
0.14114136 -0.5270097 0.1865734 -0.009262901 0.042953763 0.31999314 0.15537423 0.121602125
0.028291576 -0.20285565 0.065662675 -0.019577337 -0.16505937 -0.20494531 -0.17790022 -0.14188147
-0.12671897 -0.18234152 0.061289426 0.09666513 -0.03395247 -0.1353893 0.0064030155 0.123995684
0.101163134 -0.08145399 -0.046163518 -0.24146035 0.0911755 -0.03851042 -0.23333935 0.038459495
-0.71820563 0.0670214 0.089176185 0.04777398 -0.32742774 -0.081837475 0.0503771 0.03204867
-0.043875135 0.19368148 0.1282283 -0.09197671 0.0074946093 -0.12567064 0.20099293 0.010582204
-0.003135288 0.03130641 -0.043912232 -0.12709232 0.105976954 0.04884756 -0.54292864 0.15273239
-0.14978 0.24400613 0.09887268 0.123535536 0.08470423 0.23663299 0.11351708 0.20348993
-0.04653526 0.111161 0.044744108 0.17754048 0.0064963554 -0.072329395 0.090831265 -0.14028168
-0.0010426687 -0.11335503 -0.0067785275 0.10148103 -0.025296254 -0.06906219 0.042152587 0.45955554
0.08418066 0.06895542 -0.5911763 -0.10860298 -0.13476948 0.10918748 0.17651084 0.13558818
0.12409938 -0.16526286 -0.081064336 -0.081062004 -0.08867025 0.16090146 0.096485905 -0.058057997
-0.13567328 -0.13360727 -0.18442374 -0.20198362 -0.04868255 0.07479416 -0.07946429 -0.35617027
-0.39794493 0.16307959 -0.12513651 -0.06317097 0.1460814 0.17221706 0.07579877 -0.06857038
0.0687004 0.098710895 -0.04359314 -0.110422336 0.059834406 -0.077213995 -0.00786884 0.25674242
00000000: 54b0 653e a555 133d b6b4 b3bc 5434 b03c
00000010: 68bd 68bd a3fe 5f3e 860e a7bc 9acd 08bf
00000020: b145 b0bc 6e1f d1bd f433 08be 6aef ddbe
00000030: c9ec 183e 62ae 2ebe d8fa 373e e64f ed3d
00000040: e3d2 7cbe a8d4 30bd 1f73 853d 3f49 d33c
00000050: 6c57 cfbd 9662 933e a66e 0dbe a919 3d3e
00000060: 1ac9 25bb 0172 563d 0317 afbe bdc1 b8bd
00000070: 701c b33c e20c 2d3e 98f2 223e f1a8 14be
00000080: 7cef b83d cd70 90be 8362 5dbd 6347 4cbd
00000090: d14c f4bd cc5a cf3c eea0 1e3d 011c 8f3d
000000a0: 2036 463e cfde f53d 1525 023e 9ef3 ae3b
000000b0: 52b2 87bd 8a19 bf39 d9d7 89bd f14a 983d
000000c0: 8bb8 3bbd a72b 85bc 732b b43d 1e22 413e
000000d0: d6c7 88bc 90db 79bd 1679 653d fb11 02be
000000e0: 756b e73d 0cde debe 4a30 84be 41e0 bd3d
000000f0: 93ad 0a3e 872c cbbc ddb6 ddbe 601a 42bd
00000100: a4dc a3bd 665d b73d 22e9 663d 5faf 583e
00000110: 2332 343c 03fb be3d c5f6 b43c 224c 113e
00000120: 2fd8 8a3d e6aa ca3d 9c1d 383e 0a61 ddbd
00000130: bdc6 23bd b0bf 08be dc9e fabd 29c8 43bd
00000140: 06c4 f93d 971c 92bd 58dd b5bd e768 ad3d
00000150: c750 913d 8073 56bd b1aa 393f 3c7a 963e
00000160: 6270 ae3d 27e8 a8bd 61aa e13c 8fad 783e
00000170: 0a92 7abb c545 18be c658 453e 7919 6e3e
00000180: 53d2 f9bd 4750 31bd f069 8b3e 8cab 66bd
00000190: 3900 1dbe ac78 1c3d 3550 e1bd 25e6 083e
000001a0: 495a 34be f1d0 013d 2958 92ba 0d6a 0bbe
000001b0: 0a2b 0c3e 08c7 5c3d aa6b 00bc 2ee1 96be
000001c0: 22c6 223d 616f 1d3e 5b95 d23e 2256 603e
000001d0: 9893 193e 3ddb d73d 70b9 29be 53b8 943d
000001e0: 2322 6f3e 4ac0 ab3e e4e3 ebbd ba33 3fbd
000001f0: 1f14 5e3d f68a 8cbd 8862 72bd 24b3 bebc
00000200: 539f e8bd 887a d3bd 43d4 883d a4d2 ee3d
00000210: 964c 573e c4a9 9c3d 2c53 713d e966 83bd
00000220: 5c87 103e 1cea 06bf 190d 3f3e 6cc3 17bc
00000230: 49f0 2f3d 24d6 a33e 6c1a 1f3e 890a f93d
00000240: bcc3 e73c 64b9 4fbe 277a 863d a760 a0bc
00000250: 5305 29be 2fdd 51be 7a2b 36be 6049 11be
00000260: 9ec2 01be bcb7 3abe 9f0a 7b3d 5ef8 c53d
00000270: bf11 0bbd 7ea3 0abe 63d0 d13b 73f1 fd3d
00000280: 9e2e cf3d 59d1 a6bd f515 3dbd 6241 77be
00000290: 38ba ba3d 1abd 1dbd 83f0 6ebe b487 1d3d
000002a0: 53dc 37bf 8442 893d 01a2 b63d a6ae 433d
000002b0: 9ca4 a7be 689a a7bd 3858 4e3d 7745 033d
000002c0: 6ab6 33bd 7054 463e 484e 033e 495e bcbd
000002d0: 5795 f53b ceaf 00be 17d1 4d3e fb60 2d3c
000002e0: 6779 4dbb 263b 003d 50dd 33bd 7d24 02be
000002f0: 720a d93d 6114 483d 5ffd 0abf e165 1c3e
00000300: ee5f 19be bedc 793e c27d ca3d 3300 fd3d
00000310: 6979 ad3d eb4f 723e a57b e83d aa5f 503e
00000320: c29b 3ebd 61a8 e33d 9945 373d 2ccd 353e
00000330: 61df d43b 6f21 94bd be05 ba3d 00a6 0fbe
00000340: 28aa 88ba af26 e8bd 691e debb 49d5 cf3d
00000350: 173a cfbc 7a70 8dbd 31a8 2c3d dd4a eb3e
00000360: e966 ac3d 8038 8d3d 5457 17bf 3d6b debd
00000370: 0301 0abe af9d df3d 42bf 343e a1d7 0a3e
00000380: d127 fe3d ab3a 29be 0f05 a6bd d603 a6bd
00000390: bf98 b5bd 5ac3 243e 679a c53d 39ce 6dbd
000003a0: f0ed 0abe 58d0 08be 94d9 3cbe cbd4 4ebe
000003b0: 5b67 47bd ae2d 993d 2cbe a2bd f35b b6be
000003c0: 70bf cbbe 56fe 263e c923 00be c85f 81bd
000003d0: 5d96 153e ab59 303e 633c 9b3d a16e 8cbd
000003e0: ccb2 8c3d f028 ca3d b88e 32bd 1b25 e2bd
000003f0: ec14 753d 5f22 9ebd 4fec 00bc be73 833e

self_entity_fc1.bias f4 [32]
-0.045779683 0.2585356 0.026668599 -0.22165084 -0.048725523 -0.10633085 0.22733724 0.11397342
0.22043589 0.13090497 0.06412861 0.2120528 0.03597048 -0.06735691 -0.10364718 -0.024674682
0.13849613 0.15698202 0.21047574 0.05155007 0.21082124 0.10902231 0.22631392 -0.081578046
0.22763848 0.09932733 -0.20961669 0.02766294 0.318894 0.43638825 -0.07064876 0.063190214
00000000: 7a83 3bbd c75e 843e 1b78 da3c 70f8 62be
00000010: 6a94 47bd fdc3 d9bd 18cb 683e e56a e93d
00000020: f2b9 613e f40b 063e dc55 833d 5f24 593e
00000030: c855 133d 6bf2 89bd f944 d4bd 8f22 cabc
00000040: eed1 0d3e e5bf 203e f486 573e 2b26 533d
00000050: 86e1 573e 1747 df3d d6be 673e 6412 a7bd
00000060: 101a 693e 216c cb3d c2a5 56be 649d e23c
00000070: 1346 a33e 486e df3e 4cb0 90bd df69 813d

self_entity_fc2.weight f4 [32, 32]
-0.094795324 0.124973066 0.4358383 -0.39091492 0.18571822 0.09167102 -0.17416894 0.19155933
-0.4747713 -0.04804792 0.06475295 -0.15973134 -0.10818661 0.22015533 -0.34242076 0.04983129
0.03971852 0.16555557 0.07432403 0.063326366 -0.012409649 -0.0033444879 -0.0853437 0.22906832
-0.005577432 0.10555819 -0.38403884 0.21660908 0.4539562 0.45338273 0.21616758 -0.03677914
0.2573164 0.07972042 -0.0635207 0.021930741 -0.5170411 -0.10022127 0.623361 -0.083574705
0.4223311 0.033577345 0.29321438 0.47880778 -0.022659536 -0.37766623 0.11983051 0.1433592
0.21625674 -0.052263066 0.02500201 -0.12274901 0.0603511 0.11955616 -0.12241845 -0.13498907
-0.21111044 0.071429566 -0.07852416 -0.067285396 -0.43954843 -0.4966652 0.04332406 -0.1134167
-0.09313503 -0.031499177 -0.4614998 -0.2528525 0.22303282 -0.13475786 -0.10992679 0.13061394
-1.1668966 0.016765522 0.09177754 0.017371638 -0.06478537 -0.51182646 -0.32024294 0.10624733
0.04744543 0.1333771 0.27113113 -0.20727965 0.05729798 0.077802695 0.08623558 0.2116735
0.090529874 0.21830612 -0.3745386 -0.037162162 0.10314018 -0.05123976 0.03676382 -0.00025605227
0.035189282 -0.14311512 -0.49031326 0.09090947 0.1542973 0.20862329 -0.042521928 -0.39443156
-0.4954153 -0.24822468 -0.5433163 0.004884762 0.27779636 -0.6553766 0.29783624 0.11641179
0.051826447 0.24441643 -0.4263288 -0.006416969 -0.14443675 -0.24435396 -0.09095923 -0.08473966
0.022672424 -0.09218436 0.21281 -0.45988217 0.14106627 0.10869397 -0.17015976 0.16634245
0.35145894 0.092562154 -0.12752247 -0.021593614 -0.3491544 -0.103340015 0.19313207 -0.14834115
0.3342116 -0.054092146 0.21872133 0.5279631 0.15885185 -0.47325915 -0.042344064 0.21479172
0.19913137 -0.019456195 -0.01568115 -0.056552663 0.27211773 0.017376533 -0.02932395 0.14110811
-0.35242537 0.083234824 0.0725022 0.03387092 -0.31752488 -0.40014276 0.057483986 0.009608703
0.13290274 0.30324936 0.43834507 -0.06471562 0.16133796 -0.03570968 0.15093356 0.08369558
0.84912765 -0.1719436 0.30321354 0.20958422 -0.21967383 0.5439677 0.18257456 0.19101927
0.21549243 -0.017208813 0.042274624 0.121648364 0.083142325 -0.09645874 0.08967391 0.001392725
0.24826527 -0.14739412 -0.21481878 0.07344501 -0.1886751 -0.37318587 0.0060250596 -0.17256197
-0.06530915 0.19089527 0.11570824 -0.32208192 0.09659166 0.06518384 -0.40168718 0.02222719
-1.1370113 0.019676903 0.2198913 -0.15624303 -0.20448203 -0.42788452 -0.031271756 -0.10175226
0.107920356 0.22742388 0.11840221 0.07987683 0.17162424 -0.10731305 0.21774885 0.118570656
0.10644014 0.047735646 -0.45769274 0.2816628 0.030285327 -0.06323885 -0.04224655 0.025988886
0.39701024 -0.008096022 0.073991686 -0.04489587 -0.051306218 -0.1691571 -0.24033083 0.028796498
0.25267926 0.034025345 0.07668285 0.5009121 0.023545487 -0.48459634 0.030462516 0.08917039
0.028268818 -0.105150886 0.07632454 0.023296444 0.123972915 -0.111971736 -0.03869008 0.24813172
-0.27847245 0.04399236 -0.021878537 -0.0457375 -0.35608348 -0.2945439 0.07563429 0.067934945
00000000: 0d24 c2bd e1f1 ff3d 3326 df3e 0026 c8be
00000010: eb2c 3e3e 04be bb3d 5859 32be 2128 443e
00000020: 3915 f3be e5cd 44bd 329d 843d 9d90 23be
00000030: f190 ddbd 6670 613e c651 afbe e51b 4c3d
00000040: e3af 223d 6687 293e 3237 983d 41b1 813d
00000050: d751 4bbc 322f 5bbb aec8 aebd e390 6a3e
00000060: e4c2 b6bb e42e d83d bda0 c4be c5ce 5d3e
00000070: f26c e83e c821 e83e 095b 5d3e b9a5 16bd
00000080: fabe 833e 7644 a33d 2417 82bd 19a8 b33c
00000090: ce5c 04bf cf40 cdbd 9694 1f3f 3729 abbd
000000a0: c83b d83e 6688 093d 3220 963e 4b26 f53e
000000b0: 7ea0 b9bc 785d c1be b369 f53d c1cc 123e
000000c0: 6872 5d3e cc11 56bd 04d1 cc3c d563 fbbd
000000d0: b732 773d dcd9 f43d 86b6 fabd 933a 0abe
000000e0: 562d 58be aa49 923d 46d1 a0bd edcc 89bd
000000f0: 7e0c e1be e74a febe 9274 313d 0447 e8bd
00000100: 94bd bebd 4805 01bd b449 ecbe e275 81be
00000110: b762 643e f7fd 09be 4c21 e1bd a9bf 053e
00000120: de5c 95bf d957 893c ddf5 bb3d f74e 8e3c
00000130: 31ae 84bd 0f07 03bf e2f6 a3be 3398 d93d
00000140: 2456 423d 0294 083e b3d1 8a3e 1e41 54be
00000150: 49b1 6a3d 0557 9f3d 489c b03d f0c0 583e
00000160: ba67 b93d a48b 5f3e 86c3 bfbe 5a37 18bd
00000170: 293b d33d c8e0 51bd a995 163d c13e 86b9
00000180: a322 103d c58c 12be 570a fbbe bf2e ba3d
00000190: 1d00 1e3e 58a1 553e 792b 2ebd eff2 c9be
000001a0: 13a7 fdbe 9c2e 7ebe c716 0bbf 5b10 a03b
000001b0: 533b 8e3e c3c6 27bf fe7d 983e 4e69 ee3d
000001c0: f847 543d 4d48 7a3e c547 dabe 7045 d2bb
000001d0: 3ae7 13be ed37 7abe d548 babd fd8b adbd
000001e0: 85bb b93c 27cb bcbd ddea 593e ad75 ebbe
000001f0: ad73 103e f29a de3d 5c3e 2ebe ad55 2a3e
00000200: 6df2 b33e 3a91 bd3d 4095 02be 17e5 b0bc
00000210: 5ec4 b2be eea3 d3bd 6ac4 453e bee6 17be
00000220: c81d ab3e ba8f 5dbd 7cf8 5f3e 9728 073f
00000230: 0faa 223e 064f f2be f870 2dbd 5cf2 5b3e
00000240: 18e9 4b3e 9962 9fbc c175 80bc c4a3 67bd
00000250: 0453 8b3e 3b59 8e3c c838 f0bc a57e 103e
00000260: 1971 b4be 0577 aa3d 097c 943d 3cbc 0a3d
00000270: 9f92 a2be 83df ccbe 5474 6b3d d26d 1d3c
00000280: a817 083e 8043 9b3e c46e e03e 9f89 84bd
00000290: c735 253e 5044 12bd 548e 1a3e 9768 ab3d
000002a0: 6e60 593f fc11 30be ce3e 9b3e 3f9d 563e
000002b0: 2df2 60be 7841 0b3f d3f4 3a3e 8e9a 433e
000002c0: 0caa 5c3e 7ff9 8cbc 2828 2d3d c722 f93d
000002d0: 8646 aa3d 298c c5bd f4a6 b73d 198c b63a
000002e0: 4039 7e3e 7cee 16be 74f9 5bbe 566a 963d
000002f0: 0c34 41be 3812 bfbe dd6d c53b 16b4 30be
00000300: cec0 85bd 0d7a 433e 71f8 ec3d ece7 a4be
00000310: d9d1 c53d 1b7f 853d f1a9 cdbe cc15 b63c
00000320: 9689 91bf 7531 a13c 2f2b 613e 2cfe 1fbe
00000330: bd63 51be ae13 dbbe d016 00bd 7d63 d0bd
00000340: 5905 dd3d cee1 683e dc7c f23d 7796 a33d
00000350: 44be 2f3e f2c6 dbbd 8ef9 5e3e 2cd5 f23d
00000360: 4afd d93d 7486 433d b456 eabe 1b36 903e
00000370: ef18 f83c 5f83 81bd b80a 2dbd a5e6 d43c
00000380: ed44 cb3e 2da5 04bc f488 973d bbe4 37bd
00000390: 7826 52bd 8537 2dbe 4919 76be a2e6 eb3c
000003a0: 2d5f 813e 295e 0b3d e60b 9d3d c63b 003f
000003b0: 77e2 c03c 031d f8be 878c f93c f79e b63d
000003c0: 0294 e73c 5959 d7bd 0a50 9c3d 2fd8 be3c
000003d0: 83e5 fd3d 7051 e5bd 7d79 1ebd 3e16 7e3e
000003e0: f193 8ebe 5531 343d 9e3a b3bc 3f57 3bbd
000003f0: 9350 b6be 75ce 96be 27e6 9a3d 7a21 8b3d

self_entity_fc2.bias f4 [32]
0.10045988 0.08453602 0.045964174 -0.07147983 0.16387722 -0.042496108 -0.026470268 0.25398776
-0.05752677 -0.12100134 0.19202827 0.009799492 -0.13657393 0.17484559 -0.022356095 -0.11821373
-0.10283204 -0.13640422 -0.05156831 -0.11244164 0.15577644 0.1450862 0.019363496 -0.17441882
0.10185286 -0.05091386 -0.07576682 -0.08027129 0.095163636 -0.05429258 0.103721425 0.16079302
00000000: e9bd cd3d 3921 ad3d ee44 3c3d 0464 92bd
00000010: 6ecf 273e 6610 2ebd 2dd8 d8bc af0a 823e
00000020: 31a1 6bbd 8dcf f7bd 0fa3 443e 0c8e 203c
00000030: 09da 0bbe b90a 333e 2124 b7bc 0a1a f2bd
00000040: 9b99 d2bd 8cad 0bbe 4b39 53bd cd47 e6bd
00000050: dc83 1f3e 7a91 143e 32a0 9e3c d99a 32be
00000060: 3b98 d03d 0d8b 50bd a22b 9bbd 4665 a4bd
00000070: 27e5 c23d e561 5ebd e66b d43d eda6 243e

other_entity_fc1.weight f4 [32, 26]
0.07257641 -0.24223134 0.036162816 -0.09162339 -0.3559737 -0.15902284 -0.3145062 -0.53004813
0.011649659 -0.26303655 0.15141575 -0.0046744663 -0.16601971 -0.047716442 0.005173748 -0.049170475
-0.17329292 -0.13917886 -0.17419624 0.10980326 0.058745436 0.1006268 -0.05807001 -0.14105505
-0.0046827947 0.54660213 0.09314228 0.2083744 -0.05679402 -0.055020284 -0.15656437 0.17643552
-0.14426021 -0.8440899 -0.068343855 0.22246498 0.09381805 0.2054484 0.1449071 0.0070540216
-0.082350194 -0.06611511 0.09321146 -0.06084905 0.021153035 0.17974399 -0.11067606 0.046876844
-0.28922102 0.0025406205 -0.13952652 -0.34954536 0.12715429 0.035522714 0.040007062 -0.16794388
-0.07006767 -0.23098 0.12928098 0.04918598 0.090318345 0.19138798 -0.14485757 -0.2351603
0.029892955 -0.032340713 0.07540232 0.0004851357 0.0823099 -0.13627763 -0.05367944 -0.20012575
-0.21506453 0.069648474 0.21126686 0.18541275 -0.08881662 -0.04386746 -0.03600842 -0.03674918
-0.15839863 0.14932524 -0.023781687 0.058612376 -0.20202531 0.79487205 0.20629053 -0.08781128
-0.11210765 -0.064071745 0.16910897 -0.109037116 -0.21857457 0.11596393 0.09160787 0.044428825
-0.062256433 0.024800949 0.045690972 0.10775358 -0.44727418 0.18341027 -0.026397191 -0.23270331
0.049582466 -0.20395032 -0.17489669 -0.58278066 -0.13654768 -0.25866714 0.16594614 0.025112525
-0.69005543 -0.3932795 0.0029190402 -0.023675397 0.013073559 -0.078835264 -0.0030370108 0.19965917
-0.07100284 0.103010006 0.10912992 0.21228243 -0.14837433 0.08564594 0.1908263 -0.23133348
0.24372914 -0.069254585 -0.023754843 0.151251 0.09873362 -0.0889074 0.051890537 0.2765805
-0.15423225 -0.4263807 0.30581987 0.17088339 -0.11423485 -0.21162143 -0.2647597 0.12787966
-0.15980761 0.016363323 0.14430082 0.0056950124 -0.028166836 -0.13547014 -0.15495242 -0.15454897
0.20393927 0.013691392 0.085931964 0.28974175 -0.3679641 -0.018484915 0.20562549 -0.116191745
0.070411175 0.12547053 -0.14824876 0.17106476 0.14132127 0.05582166 -0.7574349 0.065612234
0.05320227 0.092447326 0.13014685 0.059283625 0.041025486 -0.06034747 -0.024052195 0.036638234
0.0018923747 0.13120648 0.07600866 -0.08614053 -0.1367684 -0.21891977 0.11034176 -0.1594732
0.014360719 -0.06414073 0.12091988 -0.000817998 0.12529092 0.3062691 -0.43159387 -0.4135295
0.035270777 -0.09707361 0.034035236 -0.271027 -0.10973738 0.08911183 -0.071571246 -0.02520238
0.1447825 -0.04681342 0.08088912 -0.09469224 -0.19536604 0.029060058 -0.34324512 0.292478
-0.11219772 0.07271159 -0.018697336 0.016423268 -0.022146026 0.14907132 -0.46606913 -0.2492925
-0.16680399 -0.130119 0.13376167 -0.04980879 0.12114833 -0.13067298 0.00573187 0.11554526
-0.12562194 0.14316384 0.0016828974 0.0027103673 -0.029519852 0.02003274 -0.094560385 -0.12632382
0.3521899 0.19283932 -0.34040216 -0.062932305 0.16010027 0.050603557 -0.12369743 -0.043164976
-0.0045663826 -0.37190855 -0.12556186 0.08412475 -0.07123497 0.018498003 -0.113299966 0.05225099
0.07077305 0.084431425 0.014910504 0.0022439132 0.041126717 -0.042283446 -0.0053615635 -0.06754871
00000000: f1a2 943d 7e0b 78be 761f 143d 0ba5 bbbd
00000010: 2f42 b6be e2d6 22be f506 a1be 3cb1 07bf
00000020: 36de 3e3c baac 86be bb0c 1b3e 442c 99bb
00000030: 1201 2abe 5172 43bd 8b88 a93b fb66 49bd
00000040: b373 31be e784 0ebe 8060 32be 88e0 e03d
00000050: 0e9f 703d 6c15 ce3d d2da 6dbd bc70 10be
00000060: 2172 99bb 1eee 0b3f 61c1 be3d 1960 553e
00000070: d9a0 68bd f35c 61bd 6952 20be 83ab 343e
00000080: f3b8 13be 4716 58bf ddf7 8bbd dccd 633e
00000090: ae23 c03d 1161 523e 8762 143e 6c25 e73b
000000a0: 38a7 a8bd 5c67 87bd a6e5 be3d da3c 79bd
000000b0: 2149 ad3c cf0e 383e 21aa e2bd ef01 403d
000000c0: c714 94be 8a80 263b 0ae0 0ebe 9cf7 b2be
000000d0: bc34 023e 4480 113d 72de 233d 7bf9 2bbe
000000e0: a37f 8fbd 0586 6cbe 3c62 043e 3d77 493d
000000f0: d3f8 b83d 36fb 433e 8b55 14be ddcd 70be
00000100: 12e2 f43c b277 04bd 886c 9a3d d059 fe39
00000110: 1892 a83d 5d8c 0bbe f9de 5bbd c4ed 4cbe
00000120: e039 5cbe dca3 8e3d 5756 583e d7dc 3d3e
00000130: 7de5 b5bd 5eae 33bd 917d 13bd 4f86 16bd
00000140: 4033 22be b7e8 183e d0d1 c2bc 8813 703d
00000150: b9df 4ebe bc7c 4b3f d33d 533e 66d6 b3bd
00000160: b298 e5bd 0c38 83bd e72a 2d3e da4e dfbd
00000170: 03d2 5fbe 7f7e ed3d e89c bb3d 00fb 353d
00000180: 9a00 7fbd 5c2b cb3c 7526 3b3d e9ad dc3d
00000190: 1f01 e5be e7cf 3b3e ec3e d8bc c749 6ebe
000001a0: fc16 4b3d 5ad8 50be 1e18 33be 1d31 15bf
000001b0: 28d3 0bbe 0570 84be c9ed 293e c8b8 cd3c
000001c0: 79a7 30bf ee5b c9be 5e4d 3f3b e8f2 c1bc
000001d0: 7b32 563c 6274 a1bd 9608 47bb 7473 4c3e
000001e0: f069 91bd e9f6 d23d 827f df3d 9160 593e
000001f0: 71ef 17be 2367 af3d f867 433e afe2 6cbe
00000200: 2294 793e 59d5 8dbd 8499 c2bc 8be1 1a3e
00000210: da34 ca3d 1515 b6bd 2c8b 543d f69b 8d3e
00000220: 0fef 1dbe 924e dabe 6c94 9c3e 0efc 2e3e
00000230: f6f3 e9bd 4ab3 58be 958e 87be e3f2 023e
00000240: 9ba4 23be 600c 863c 98c3 133e 3a9d ba3b
00000250: 23be e6bc afb8 0abe d9ab 1ebe 1642 1ebe
00000260: 75d5 503e dc51 603c 19fd af3d 0859 943e
00000270: ca65 bcbe ad6d 97bc 7d8f 523e f0f5 edbd
00000280: bc33 903d 597b 003e 86ce 17be 9a2b 2f3e
00000290: 86b6 103e 41a5 643d 41e7 41bf b55f 863d
000002a0: a0ea 593d 0655 bd3d 3745 053e 63d3 723d
000002b0: 570a 283d e92e 77bd 1c09 c5bc f911 163d
000002c0: 8f09 f83a fe5a 063e 6eaa 9b3d 726a b0bd
000002d0: 040d 0cbe 812c 60be dcfa e13d f14c 23be
000002e0: 3949 6b3c 375c 83bd d8a4 f73d eb6e 56ba
000002f0: 434c 003e 4ecf 9c3e dff9 dcbe 23ba d3be
00000300: 1778 103d 87ce c6bd 8868 0b3d 0dc4 8abe
00000310: febd e0bd 4380 b63d f293 92bd 3975 cebc
00000320: dd41 143e 6ebf 3fbd 32a9 a53d 01ee c1bd
00000330: 090e 48be 5c0f ee3c d3bd afbe adbf 953e
00000340: ebc7 e5bd d0e9 943d 282b 99bc 178a 863c
00000350: 956b b5bc 27a6 183e 9da0 eebe 8846 7fbe
00000360: aace 2abe ea3d 05be d2f8 083e 4d04 4cbd
00000370: 9e1c f83d 23cf 05be 69d2 bb3b fea2 ec3d
00000380: 0aa3 00be 8b99 123e ab94 dc3a 6ba0 313b
00000390: 9ed3 f1bc b31b a43c e0a8 c1bd 085b 01be
000003a0: 3c52 b43e ac77 453e 3149 aebe a7e2 80bd
000003b0: 53f1 233e ad45 4f3d 1455 fdbd c2cd 30bd
000003c0: 98a1 95bb cc6a bebe 4a93 00be 9949 ac3d
000003d0: a4e3 91bd 2089 973c d009 e8bd 2205 563d
000003e0: 76f1 903d 62ea ac3d 304b 743c 9e0e 133b
000003f0: 7d74 283d 6831 2dbd 0eb0 afbb fa56 8abd

other_entity_fc1.bias f4 [32]
-0.13355124 -0.16737096 -0.10597631 -0.008252217 -0.044453003 -0.2738932 -0.10082632 -0.06911126
-0.011333872 0.023473503 0.030155495 0.044167083 -0.021724837 -0.11755632 0.012459661 -0.18207869
-0.029099578 0.096034095 -0.05117794 -0.1910311 0.0060628555 -0.107996024 -0.032587584 0.006541211
0.058719255 0.09719176 -0.047724083 -0.083192036 0.0050717164 -0.04016085 0.06815974 -0.053330984
00000000: a8c1 08be 4b63 2bbe 1c0a d9bd 4f34 07bc
00000010: 5a14 36bd bb3b 8cbe 087e cebd 348a 8dbd
00000020: b4b1 39bc 814b c03c a808 f73c 8be8 343d
00000030: 49f8 b1bc 5ec1 f0bd 9b23 4c3c d672 3abe
00000040: 3d62 eebc 86ad c43d f69f 51bd a89d 43be
00000050: ebaa c63b 052d ddbd 8f7a 05bd a857 d63b
00000060: 9a83 703d 790c c73d 547a 43bd 9660 aabd
00000070: a430 a63b b47f 24bd 5597 8b3d 9771 5abd
