my-submission/checkpoints/model_1308160.pt (torch, 352797 bytes, 23 tensors)

local_map_cnn.0.weight f4 [32, 24, 3, 3]
000000 7f 15 07 be fd c9 86 3d c9 2a 7b 3d 0a 1b e5 bd
       -0.13191794 0.06581495 0.0613201 -0.11186798
000010 a2 df 94 bd 20 08 41 bd 8c 18 e9 3b 69 e4 9a bd
       -0.07269217 -0.04712689 0.007113522 -0.07563097
000020 b7 08 b3 bd e8 1e e0 3c 12 ab 6f 3d 77 7b 39 be
       -0.087418966 0.027358487 0.058512755 -0.18113504
000030 4c 51 e1 3d 27 f9 da bd b9 d8 03 3e 00 6c 69 3d
       0.11001834 -0.10692053 0.12875642 0.056987762
000040 32 a9 3a bc 2a 16 24 be 99 88 fa bb 7f 30 58 bc
       -0.011392878 -0.1602408 -0.0076456782 -0.013195156
000050 3d e6 77 3c 73 32 30 bd 54 5d 99 bd 78 53 42 bf
       0.015130577 -0.043016862 -0.07488504 -0.75908613
000060 4c 89 16 3c b8 5b 5f 3d 68 52 f7 3d 1b af 09 bc
       0.009188008 0.05453083 0.120762646 -0.008403565
000070 87 af 01 3c 1d 44 0d 3e 34 2a 06 be f5 d5 aa bd
       0.007915384 0.13795514 -0.13102037 -0.0834159
000080 60 24 42 bf 9b d7 51 be 49 e5 83 be 41 f8 12 bd
       -0.75836754 -0.20492403 -0.25760868 -0.035881285
000090 58 89 1f be f1 f8 9c bd 9c 7e 15 3e e7 6d 01 3e
       -0.15579736 -0.07664669 0.14599079 0.1263958
0000a0 71 89 f9 3c 1c 34 27 be 12 fe d9 bd 23 e1 88 bd
       0.030461045 -0.16328472 -0.10644163 -0.066835664
0000b0 0e e8 cf 3d 40 fe b2 3d 88 3f 90 bd e6 89 26 be
       0.10151683 0.087399006 -0.070433676 -0.16263542
0000c0 84 ec 10 3e 7b 45 22 3d 4b 92 80 3e 38 e8 c2 3d
       0.14152724 0.039617043 0.25111613 0.095169485
0000d0 a9 1f ad 3d ab 06 ec be 61 e0 5f be a1 17 d8 3d
       0.08453304 -0.46098837 -0.21862938 0.10551382
0000e0 ae b8 51 3e af 6d 93 3c a0 7f 3f be 8f 07 65 bd
       0.20480606 0.017996637 -0.18701029 -0.05591541
0000f0 89 85 6c bd d4 57 fd bd bd cf b1 3d 49 34 31 3e
       -0.057744537 -0.123702675 0.08682201 0.17305101
000100 8c 3b 8b 3c 44 f7 e6 3d b6 58 40 be 91 c6 93 bd
       0.016996168 0.11277631 -0.1878384 -0.07215608
000110 02 4e ef bd 70 5e d4 bd 03 82 64 bd 6f b6 52 3d
       -0.11684801 -0.10369575 -0.05578805 0.051443513
000120 2f 7b 6b 3d fa f0 5d 3d 64 d1 af be d6 79 87 be
       0.057490524 0.05418489 -0.3433944 -0.2646014
000130 e2 8a 64 be fb fd f2 3c 7e ff 5c be dc 8d 89 bd
       -0.22318605 0.029662123 -0.21581838 -0.06716511
000140 64 c0 0d be 44 3d 02 be c8 7a 94 bd 77 08 3f be
       -0.13842922 -0.12718683 -0.07249981 -0.18655573
000150 bd 8a d3 be 71 4f a9 be b5 01 1e be c6 ba 77 be
       -0.41316786 -0.3306842 -0.15430339 -0.24192342
000160 6b a5 a7 be 68 b6 3d 3d 2b 58 d7 3d dd 77 7e 3e
       -0.3274339 0.046316534 0.105148636 0.24850412
000170 b8 6d 02 3e c3 c2 27 3d 1f bd a3 bd b7 10 f3 be
       0.12737167 0.040957224 -0.07995056 -0.4747369
000180 1b ed 44 be 9f d0 f7 bd a4 15 15 3e e6 08 57 be
       -0.19231074 -0.12100338 0.14559036 -0.20999488
000190 71 a8 fe 3d f7 8a 9a bd e6 1f 7d be b2 e2 ce bd
       0.124344714 -0.07546037 -0.247192 -0.101018324
0001a0 08 68 c7 be a3 9a 08 3d ef c8 9d be 0e 9f 35 bc
       -0.38946557 0.033350598 -0.30817363 -0.011085285
0001b0 b2 9e d2 bd 43 ca 70 3c 7c 07 b7 3e 07 42 2e bd
       -0.10284175 0.01469666 0.35747898 -0.042543437
0001c0 f7 6d 4d bd fc d9 32 bf 36 ec dc bd 12 0c 1a be
       -0.0501537 -0.6986387 -0.10787241 -0.15043667
0001d0 e8 6a a6 3e 85 fd aa be 12 b1 05 bd 9d ca e7 3d
       0.32503438 -0.33396545 -0.03263957 0.11317942
0001e0 e2 76 38 bd 23 1b a9 bd ea b0 ed be 5d c5 0b be
       -0.04503525 -0.08257129 -0.46424037 -0.13649507
0001f0 5a b7 98 3c db 46 0d be d8 72 2d 3e 44 c3 dc 3a
       0.018642116 -0.1379656 0.1693834 0.0016842862
000200 e6 83 bd be 5e 4c f9 bd fe d7 c1 3d 8a c7 a5 3e
       -0.37014693 -0.12172769 0.09465025 0.323788
000210 73 21 2a be c0 32 c2 3d cf 84 a8 be 7f 7c a3 3d
       -0.16614322 0.09482336 -0.32913825 0.0798273
000220 11 f6 5c be e8 0b 8b 3e 59 c2 0c be b8 cc 8c bb
       -0.21578242 0.2715752 -0.13746013 -0.0042968653
000230 e8 57 27 be 5f 6c 12 3e 05 22 f8 3d 61 ab 93 3e
       -0.16342127 0.14299153 0.12115864 0.2884169
000240 28 fb cb 3d f7 2a fe 3d 0e 2a 1c 3e 57 15 00 bd
       0.09960014 0.12410539 0.15250418 -0.03127035
000250 e6 22 15 bd 20 ec 6f bf de 45 ae 3b e5 8d ea bb
       -0.036410235 -0.93719673 0.0053183874 -0.0071580284
000260 c5 7d ad 3e e4 bd 8d bd ac 40 d6 bd 5c 62 1a be
       0.33885017 -0.069209844 -0.10461554 -0.15076584
000270 19 ff 8c bd ca ed 4a bd 2b 52 76 bd dc b8 95 3d
       -0.068845935 -0.04954318 -0.060136955 0.0731065
000280 84 8b 69 3c 8b 8b 76 be 00 08 9b 3e 4c 45 71 3e
       0.0142544545 -0.24076669 0.3027954 0.23561591
000290 03 d7 f1 3e ec a1 09 bc 0e 39 29 be c0 f6 b3 3e
       0.47234353 -0.008400422 -0.16525671 0.35149193
0002a0 cb 24 88 3e 4f e3 2a 3e 89 72 29 3f 67 e0 5d 3e
       0.2659057 0.16688274 0.6619039 0.21667634
0002b0 77 b1 06 3e 4b 0d cd bc e8 ad 7e 3d 67 de 86 be
       0.13153635 -0.025030753 0.06217757 -0.26341555
0002c0 16 52 b3 3e 43 57 0e 3e ad 3c 72 3e 6f db b4 be
       0.35023564 0.13900475 0.23655958 -0.35323665
0002d0 74 fe f0 be 15 b3 09 be 5a af 38 be 7f 91 1f be
       -0.47069132 -0.1344722 -0.18035641 -0.15582846
0002e0 2c 14 95 be af 30 5d 3e a3 17 22 be 47 d7 54 be
       -0.29116952 0.21600603 -0.15829329 -0.20785247
0002f0 92 54 a7 be bd ae 4f be 02 7a ea 3e 6c c4 32 3e
       -0.3268171 -0.20281501 0.4579621 0.17457741
000300 c3 62 48 3e 8a 55 04 3e 74 42 27 3f 21 18 22 bd
       0.19568925 0.12923256 0.65335774 -0.039573792
000310 3e 98 1e 3d 83 21 3e 3e 16 83 14 3f c5 e3 0a 3f
       0.03871941 0.18567471 0.5801252 0.542538
000320 5f e7 b0 bd cf c7 69 3f ec 89 38 3f 00 97 49 3e
       -0.086378805 0.9132051 0.7208545 0.19686508
000330 1c ee 2c bd 6b 75 aa 3e 81 08 97 3d 89 78 ab 3e
       -0.042219266 0.33292708 0.07374669 0.334904
000340 f7 8b 49 3e dc 39 ea 3d 54 82 2b 3e 69 94 8e 3c
       0.19682299 0.11436817 0.16748935 0.017404752
000350 6b 11 36 be 03 71 38 3e 33 7b 06 3d 18 ca b4 bd
       -0.17780082 0.1801186 0.032832336 -0.08827609
000360 79 3d ee 3c 9f 58 0f bd d4 fa 11 3e a0 20 b3 bd
       0.029082047 -0.034996625 0.1425584 -0.08746457
000370 97 9e 38 bc 09 92 c9 3d 19 79 40 be a1 09 aa bd
       -0.0112682795 0.09842307 -0.18796195 -0.08302618
000380 4d eb b6 bd b6 2a 3e 3d d1 46 d1 3d 1e 6e 21 3d
       -0.08931599 0.04642745 0.10218585 0.039411657
000390 98 0a ca 3d 46 f9 c6 3d 5b c6 97 3d be c0 8f 3d
       0.09865302 0.09715514 0.0741088 0.070191845
0003a0 b1 77 10 3e 7c 12 6f 3d d5 62 96 3c b0 dc 9d bc
       0.14108159 0.058367237 0.018357674 -0.019270271
0003b0 1d 55 2b 3d b2 6e 67 bc 16 16 62 bd 1d 96 cf 3c
       0.041829217 -0.014125513 -0.055196844 0.025340134
0003c0 52 f8 d8 3c 28 2a 22 3b ab bf e3 3c 08 e4 86 3d
       0.026485596 0.0024744365 0.027801355 0.06586462
0003d0 34 d1 a8 3c 81 2a 2d bd 46 46 78 3d b9 7e be 3b
       0.020607568 -0.042276863 0.060613893 0.0058134464
0003e0 5b c9 47 3c b3 db ab 3c 4a 54 35 3d 2d 1d 06 3c
       0.012194003 0.020978784 0.044269837 0.008185667
0003f0 4a 05 4d 3d 00 0a 9d 3d 8b c9 c0 3c a3 a6 10 bc
       0.050053872 0.07667923 0.023533603 -0.008828792

local_map_cnn.0.bias f4 [32]
000000 c1 86 d7 bc a6 ac 31 bd 0e ae 4e bd 4a aa 0d be
       -0.026309373 -0.04337754 -0.05045896 -0.13834491
000010 9b c0 c4 3b ea e1 0e 3d e6 6a 38 bb fa 34 81 bd
       0.0060044057 0.034883417 -0.0028139888 -0.063089326
000020 50 33 fb bc 53 ca 1c be c2 23 52 bc 50 a0 88 bc
       -0.030664116 -0.15311556 -0.012825908 -0.016678005
000030 ca 3d 53 bc e7 ef 66 bd e9 69 aa bd 3c 9b 3d be
       -0.01289315 -0.056381132 -0.08320982 -0.18516248
000040 27 10 6b bd 1f 33 d7 bc e4 83 d1 ba c6 bf 39 3d
       -0.05738845 -0.026269494 -0.0015984741 0.045348905
000050 22 53 0e be ea ba d2 3d aa 2c 55 bc 5d bd cb bd
       -0.138989 0.10289557 -0.013011137 -0.099482276
000060 8f 08 04 be d5 b3 bc bd 1e 11 6d bd cc 08 58 bd
       -0.1289389 -0.09213988 -0.057877652 -0.052742764
000070 a9 c0 22 3d 5f 61 97 3c a1 33 86 3d 90 43 b1 bc
       0.039734516 0.018479047 0.06552816 -0.021638662

local_map_cnn.2.weight f4 [32, 32, 3, 3]
000000 34 25 c4 3e 93 45 23 3e c7 de af 3b 53 57 0f 3d
       0.38309634 0.15944509 0.0053671333 0.03499539
000010 66 bd a5 3d 1e 0f 0f 3e 0b 54 cc be 5c 37 99 bd
       0.080927655 0.1397061 -0.3990787 -0.07481262
000020 10 f6 71 bd 43 80 b6 3c ad d5 f4 bd cf d1 6c bd
       -0.059072554 0.022277957 -0.11954818 -0.057817277
000030 32 91 31 bd f0 84 b4 bd 43 e5 71 bd bf e6 6d 3d
       -0.04335136 -0.08814418 -0.05905653 0.058081385
000040 c5 40 58 bd da 09 2a 3d fe ba 8b 3d 8f 68 9f be
       -0.052796144 0.0415133 0.06822775 -0.3113446
000050 a8 61 19 3e 40 d5 1b 3e a2 dd 36 3e 61 e8 6c 3d
       0.14978659 0.15218067 0.17857984 0.0578388
000060 e3 f2 2e 3e 6e 74 88 bd 05 af d5 3d cf d1 37 be
       0.17084841 -0.06662832 0.10433773 -0.1795113
000070 70 95 5f 3e 97 d3 36 3d 13 2c b7 bc fb b1 8b 3e
       0.2183435 0.04463538 -0.022359883 0.27284226
000080 bc d7 9d 3e 72 34 15 bf b0 2b 57 be 49 80 75 3e
       0.30828655 -0.5828315 -0.21012759 0.23974718
000090 2f 17 0f bd 60 b8 9d bc 59 32 f2 bd f3 0a b7 3d
       -0.03493422 -0.019252956 -0.11826009 0.08937635
0000a0 a3 73 f4 be 63 07 fb bc 44 29 4a 3e 8d 76 46 3c
       -0.47744474 -0.03064317 0.19742304 0.012113226
0000b0 51 8b 26 3d 39 07 53 bd 6f d3 49 bc 00 42 3a 3e
       0.040660206 -0.05152056 -0.012318476 0.1818924
0000c0 49 bc 35 bd 55 90 67 be e8 64 4c bd 83 0e c9 bb
       -0.044369016 -0.22613652 -0.04990092 -0.006135763
0000d0 63 13 60 bd 4a 08 eb 3d c0 f0 50 3e 52 df f1 be
       -0.05470599 0.114761904 0.20404339 -0.47240692
0000e0 0c 51 9b bd 31 62 e5 bc 70 b8 6b 3d 6b 0d 82 be
       -0.07583818 -0.028000923 0.05754894 -0.25400862
0000f0 24 2d ad bd 5d 2f 3b be 8e 8c 97 3b 03 b9 71 3e
       -0.084558755 -0.18279786 0.0046249097 0.23605733
000100 66 7e 07 3e 58 e6 7b 3d 80 c3 5e 3d 5e da f7 3d
       0.13231811 0.06149897 0.054385662 0.12102197
000110 01 e6 27 3e b2 72 cc bc b5 0a b4 3d d8 bb 96 3d
       0.16396333 -0.024957035 0.08791105 0.07360047
000120 e0 9e 4e 3e 01 7c 01 3d c4 0a ef bc 8b 59 01 3e
       0.20177794 0.0316124 -0.029179938 0.12631814
000130 11 a4 b4 3e ff 57 44 be 43 1f 90 3e 67 2e 90 bd
       0.35281423 -0.19174193 0.2814885 -0.070401005
000140 e8 9b 29 be 52 0e 96 3c f1 32 ac 3d 11 94 81 3d
       -0.1656338 0.018317375 0.08408154 0.063270696
000150 16 38 e9 bb 0a da 8d 3d 35 db 29 3d c3 f8 fc 3d
       -0.0071172817 0.06926353 0.041468818 0.12352135
000160 8a 8c c6 bc 1d 6a 3f be 1c 91 93 3d fc 7d 24 be
       -0.024236936 -0.18692823 0.07205412 -0.16063684
000170 ca ee 95 3e a1 81 d8 3d d0 2e 99 bd 65 0b cf bd
       0.29283744 0.105716 -0.07479632 -0.10109595
000180 cf 05 51 bd 17 64 6c bd 51 58 e3 3b b3 fe 0c 3f
       -0.05103093 -0.05771264 0.0069380184 0.5507614
000190 b4 14 6e b9 1e 68 eb 3d 2b 72 02 be b8 70 3a 3c
       -0.00022705161 0.11494468 -0.12738864 0.011379413
0001a0 33 0b 5a bd 23 2d 1a 3e 59 f1 5e be b1 75 35 3d
       -0.053233337 0.15056281 -0.21771754 0.044301692
0001b0 ed 61 db 3c 5c 70 66 be a5 c4 13 3d a0 05 97 3e
       0.026780093 -0.22503799 0.036076207 0.2949648
0001c0 30 32 6d 3e 30 fc d2 bd fe 92 85 3d 5e 3b f2 bd
       0.23163676 -0.10302007 0.06522177 -0.1182773
0001d0 99 0c 94 bd e7 f1 17 3e bb 02 b1 3d e8 e5 e3 3c
       -0.07228965 0.14838372 0.08643099 0.027819589
0001e0 83 1e 9e 3d c9 f5 79 be 44 d1 af bd a6 d4 03 3e
       0.077206634 -0.24410166 -0.08584836 0.12874088
0001f0 40 4d 0d 3e f9 1a 9b 3c e3 ac d5 bd 61 ec a5 bc
       0.13799 0.01893376 -0.10433366 -0.020254316
000200 2d 10 b9 bd ed 6e 52 bd 05 26 25 bc 06 98 11 3d
       -0.090362884 -0.05137532 -0.010079865 0.03554537
000210 eb 05 eb bd 14 27 da bd 7d 6b 18 bd 50 c1 ef bd
       -0.11475738 -0.10651985 -0.037211884 -0.11706793
000220 46 a4 f2 bc 81 2c 88 bd fb a8 00 be fb 52 8b bd
       -0.029619347 -0.066491134 -0.12564461 -0.06802937
000230 99 e4 1a bd db 79 16 bf 58 26 e7 bd b9 b6 ee 3b
       -0.037815664 -0.58779687 -0.1128661 0.007284966
000240 44 59 12 bc 46 8d af 3d da df 99 3c a9 28 e2 3c
       -0.008932415 0.08571868 0.018783499 0.027607279
000250 32 2a 64 3e 63 11 d4 3d 2f bc 8e bd 01 d0 b4 3d
       0.22281721 0.10354879 -0.06969487 0.08828736
000260 d3 a1 3f 3e be c0 b2 bd 55 b9 f3 bc ed 27 c7 3d
       0.18714075 -0.08728169 -0.02975146 0.09724412
000270 07 eb e8 bc 08 45 5b bd 12 f9 3e 3e e7 04 c5 bd
       -0.028432382 -0.05353263 0.186497 -0.09620076
000280 81 33 b0 3c a2 6e 3e 3d 18 95 44 3c b6 48 38 3e
       0.021508934 0.046492226 0.011998437 0.17996487
000290 ba 04 32 3e 15 26 d6 3c bb 39 08 bd 10 4d 9b 3d
       0.17384616 0.026141206 -0.03325818 0.07583058
0002a0 59 67 3a be 16 46 d0 3c 37 ba 24 3e aa ed 8a 3e
       -0.18203487 0.025424045 0.1608666 0.27134448
0002b0 22 52 c5 3d c2 26 1a 3e 6d 41 17 be 61 d8 24 be
       0.09634806 0.15053847 -0.14771052 -0.16098167
0002c0 8a 96 cc bc 58 cc 2f 3b bc dc 4b bc 78 b5 4a 3e
       -0.024974126 0.002682468 -0.012442764 0.19795787
0002d0 57 1f bc be 4d 2b b9 3d 3f 4b 9c bd 19 3b 97 3d
       -0.3674266 0.09041462 -0.076315396 0.07384319
0002e0 e5 91 04 be 59 45 07 3e 95 4a 43 bd ab 82 ca bd
       -0.1294628 0.13210048 -0.04767855 -0.09888204
0002f0 6f 70 0f 3e e2 20 92 3d 28 f0 29 3e d5 db 2a 3e
       0.14007734 0.07135178 0.16595519 0.16685422
000300 bd d4 bb bd a2 59 04 3d 49 bd 26 be e2 ce 04 be
       -0.09171436 0.032312043 -0.16283144 -0.12969545
000310 13 04 a2 be b3 ea 66 be 2a f9 03 bd df 07 18 bd
       -0.31643733 -0.22550468 -0.032220043 -0.03711688
000320 1d 05 18 3e 6c e9 14 be 8d ae 6b 3d 2b 31 a1 bd
       0.148457 -0.14542168 0.05753951 -0.07870706
000330 77 f6 8b bd b9 c7 e8 bd 0a ef a9 bd f7 6c a9 bd
       -0.06834119 -0.11366219 -0.08297546 -0.082727365
000340 dd 0e 81 be 5a fe d0 3c ec 3c f9 3d 15 ab 5e be
       -0.25206652 0.02551191 0.12169823 -0.2174495
000350 af b4 f8 3b 4b bb 9d 3e d5 e3 c0 bd 08 6b 0a bd
       0.0075898985 0.30806956 -0.094184555 -0.03379348
000360 da 96 98 be 33 67 b7 3d 70 53 9a bd 1c 65 71 bd
       -0.2980259 0.089552306 -0.07535446 -0.058934316
000370 51 2e bb 3e 8a a9 6b 3d ee 7b 85 ba 30 f4 c6 3d
       0.36558774 0.057534732 -0.0010184029 0.09714544
000380 34 44 2f bc dc 20 d2 3d 78 d4 ba 3b d0 5d d7 3d
       -0.010697413 0.10260174 0.005701598 0.1051594
000390 93 c0 de 3c 38 82 ec 3d d3 63 7f 3e 44 57 58 3d
       0.027191436 0.11548275 0.24940424 0.052817598
0003a0 3e 9c 47 be 41 a6 27 3d df b0 ba bd 6e e7 e8 bc
       -0.19493195 0.040930036 -0.09115767 -0.028430667
0003b0 b7 a3 1f 3e 8c d6 84 be 93 06 e7 bd f2 c9 e3 be
       0.15589796 -0.25944936 -0.11280551 -0.4449001
0003c0 01 55 4e 3e c2 89 b4 3d 59 89 57 be 81 f5 91 3d
       0.20149614 0.08815338 -0.21048488 0.07126904
0003d0 7b 08 91 be 5f f9 10 3e 3a 98 73 be 48 c8 0d bf
       -0.28326783 0.14157628 -0.23788539 -0.5538373
0003e0 79 43 53 be 3d d9 33 be 83 a0 99 3d 79 66 09 3e
       -0.20631208 -0.17563339 0.07501318 0.13417996
0003f0 b8 91 2b 3c 3b 07 3f 3d 53 a8 09 3d 31 d1 a6 3c
       0.010471754 0.046637755 0.033607792 0.020363422

local_map_cnn.2.bias f4 [32]
000000 ce 31 95 bd 32 44 1b bc 61 03 e0 bc fa 70 8c bc
       -0.0728489 -0.009476708 -0.027345361 -0.017143715
000010 6f 35 3e be 91 5e 6e be b9 f3 43 be 4f a0 25 bd
       -0.18575071 -0.23278262 -0.19135942 -0.040436085
000020 ac 51 3c be 21 ec ac bd 04 4c 4b be 55 08 4f be
       -0.1839053 -0.084434755 -0.19853216 -0.20218022
000030 b5 d7 be be 61 b8 f2 3c 2b 0e 89 bd 85 95 1c 3e
       -0.37273946 0.029628934 -0.066921555 0.15291412
000040 a9 f8 de be 1e 5c 58 bc fb c2 13 be e5 58 00 be
       -0.43549088 -0.013205556 -0.14429848 -0.1253391
000050 d8 78 b9 bd cd a3 2a be 96 57 c1 bd 33 86 3c be
       -0.09056252 -0.16664048 -0.09440534 -0.18410568
000060 43 e2 be 3c 3b 60 c1 3d 16 64 72 be e4 ad b1 be
       0.02330125 0.09442183 -0.23670992 -0.3470298
000070 7d 8c 7d 3d 2c 88 68 be a5 cc 9b be 7f 85 c7 be
       0.06190156 -0.22708195 -0.3042957 -0.38969037

local_map_cnn.4.weight f4 [32, 32, 3, 3]
000000 07 61 90 3d ff 12 94 be 90 2b eb 3d 73 86 05 3e
       0.070497565 -0.28920743 0.11482918 0.1303957
000010 ad 9e e8 bc ab 09 9f bd 38 50 54 be 8a bd 4c be
       -0.028395975 -0.07765516 -0.20733726 -0.19994178
000020 bf 7e 27 be bb 84 82 3e 94 68 92 be 74 c8 f0 3d
       -0.16356944 0.2549189 -0.28595412 0.117569834
000030 f7 0c 9f 3d 4c 2e d7 be f2 d7 82 be e1 3d b6 bd
       0.07766145 -0.4202751 -0.25555378 -0.08898521
000040 b5 55 ff 3e e0 1a 9a be cb da 4a be 29 7c 76 3b
       0.49870077 -0.3009863 -0.19810025 0.0037610626
000050 96 ad c4 bd f0 e3 0f be 67 dd ad 3d 56 f1 49 be
       -0.096034214 -0.14051795 0.08489495 -0.19720969
000060 08 ab bd 3c e1 c2 a4 be a0 d6 63 3d c6 78 7d bd
       0.023152843 -0.3217993 0.055624604 -0.061882757
000070 18 8c 21 be e6 39 17 bd 85 e0 8d bd 81 f7 17 bf
       -0.15776098 -0.03692045 -0.06927589 -0.59362036
000080 c4 e7 23 3e 02 14 60 bd ce bd 98 bd 67 da af bd
       0.1600638 -0.05470658 -0.07458077 -0.08586579
000090 46 7d 1d bd 5f 51 aa 3d e1 17 6e 3d 43 87 c6 bd
       -0.03844955 0.083163016 0.05812824 -0.09693768
0000a0 31 1a 3d be 85 61 12 be 43 1d 54 3d 97 f7 a4 bd
       -0.18467022 -0.14295013 0.05178572 -0.080550365
0000b0 ef 7a e4 3d 1a 41 0b 3e ee 7a 6c 3d a8 66 12 3d
       0.1115626 0.13599053 0.057734422 0.035742432
0000c0 44 2e 8c be 21 93 53 be 5c 89 5c be 20 3d 82 bd
       -0.27379048 -0.20661594 -0.21536773 -0.06359315
0000d0 cb be 1a bd a1 69 57 be 7f c2 39 bd fb 4b e6 3d
       -0.03777961 -0.21036388 -0.0453515 0.11244961
0000e0 9a 88 98 3d 77 3a c0 bd 6e 35 be be c5 47 00 bd
       0.0744793 -0.09386151 -0.3715014 -0.031318445
0000f0 cb de eb bc db 39 86 3d 2b b0 49 3e d5 59 9c bd
       -0.02879276 0.06554004 0.19696109 -0.076343216
000100 d4 8e 05 be 1d e8 1a 3e cf 18 14 be 70 05 2e 3d
       -0.13042766 0.15127607 -0.14462589 0.042485654
000110 40 1c ce 3e 83 dc b7 bd 26 68 5e be 2e 03 c5 be
       0.40255928 -0.08977606 -0.21719417 -0.38478988
000120 24 42 0a be 7c 55 74 bd 2b 2f 88 be 58 60 ea 3d
       -0.13501793 -0.059651837 -0.26598486 0.11444157
000130 41 55 e3 3e 16 cf aa bc 5a d3 27 3d f6 05 10 bf
       0.4440098 -0.0208507 0.040973045 -0.56259096
000140 5a 07 19 3e e0 42 46 bf 4d d1 37 be f1 78 44 3c
       0.1494421 -0.77445793 -0.17950936 0.011991725
000150 91 a2 1b be 1d 12 b9 3d dd fb 04 be 00 cc c7 3d
       -0.15198733 0.09036658 -0.12986703 0.09755707
000160 33 95 70 3d 2d e3 5a 3e c7 ba 3c 3d 82 87 b7 3d
       0.058736037 0.21375723 0.046076562 0.08961393
000170 68 0f 64 3e e6 ed 39 be 76 fc 44 bd 80 1c 61 3e
       0.22271502 -0.18157157 -0.048092328 0.21983528
000180 64 04 2e 3c f7 b5 03 be 66 a2 82 3d 93 58 8a 3e
       0.010621164 -0.12862383 0.06378631 0.27020702
000190 3c cf ce bd 7e b2 35 be cc e3 d9 bb 8f 5e 69 bd
       -0.100981206 -0.1774387 -0.00664947 -0.056974944
0001a0 e9 af c3 3c 83 f3 f1 bd d7 0c b2 3d ef 34 2e 3b
       0.023887591 -0.11814024 0.08693855 0.0026581844
0001b0 48 35 0a bd 79 93 3f bb 2b 7e 1f 3e 29 22 09 3e
       -0.03374222 -0.0029232188 0.15575473 0.13391937
0001c0 58 6c 47 be 9c d3 24 3e 11 89 84 bd 89 49 a6 bd
       -0.19474924 0.16096348 -0.06471456 -0.081194945
0001d0 c9 59 bc 3d bc ad 34 3e 5f a1 b7 3d ae 96 7a 3e
       0.09196813 0.176444 0.08966326 0.24471542
0001e0 40 d4 23 3d 06 04 66 be 5a e8 f4 3d dd 4c 05 bc
       0.03999734 -0.22462472 0.1195838 -0.008136001
0001f0 9a 58 33 bd 5d cf c4 bd 60 7b aa bc 25 1a 1b be
       -0.04378567 -0.09609864 -0.020810783 -0.15146692
000200 0c 18 83 3e e2 5c 1b 3e 62 36 83 3d 3a 55 b5 bd
       0.25604284 0.1517215 0.06406857 -0.08854146
000210 de 1c 9a bd 93 bf bd be 8e 5e a4 bd d4 bb 0e 3e
       -0.07525037 -0.37060222 -0.080258474 0.13938838
000220 d8 e7 68 be 6a 4e a3 3c 5d d9 f1 bd 10 18 a1 be
       -0.22744691 0.019934852 -0.11809037 -0.3146367
000230 e0 e5 0a be 1a 71 2c be a8 4d 83 be 57 88 07 be
       -0.13564253 -0.1684002 -0.25645185 -0.13235603
000240 a8 b0 d1 3a d8 10 8b 3e ba c0 13 3e cd 1f ba bd
       0.0015998082 0.27161288 0.14428988 -0.09088097
000250 c0 29 9a be 7c 86 da bb d9 cb 24 bd c8 68 f2 3d
       -0.30109978 -0.006668864 -0.040233467 0.11836392
000260 d7 d3 01 3e e0 a1 a6 3d ce 28 11 3b 88 68 26 3c
       0.12678467 0.08136344 0.0022149566 0.010156758
000270 7e 62 d8 3b 29 0c 1c be fa 5a 8b be 58 4b 8e bc
       0.006603538 -0.15239014 -0.27217847 -0.017369911
000280 27 3f 14 3e 46 05 2d bd 64 96 13 3d 7e 58 56 be
       0.14477216 -0.042241357 0.036032096 -0.20932195
000290 ef f3 c2 bd 12 21 c7 bd ce eb 02 3c 6a 43 37 be
       -0.09519183 -0.097231045 0.0079907905 -0.1789681
0002a0 a1 90 1a 3d 7b 45 02 3e e9 33 72 bd fc 65 99 bd
       0.037735585 0.12721817 -0.059131537 -0.07490155
0002b0 bd 14 4e 3e 1c ee fb 3e 65 d7 cb bc 6b bf 0c bf
       0.20125099 0.492051 -0.024882982 -0.5497958
0002c0 f7 5b a2 be 65 db 1e be 30 54 e2 bd f1 84 ee 3d
       -0.3171079 -0.1551338 -0.11051214 0.1164645
0002d0 da 26 da be 91 f8 ad 3c ac e1 7e 3d ff 83 02 bd
       -0.42607766 0.02123669 0.062226936 -0.031864163
0002e0 38 d6 27 3e 25 ab 55 bd dc ca 17 3b 6a 92 9b be
       0.16390312 -0.05216517 0.0023161685 -0.30385143
0002f0 c6 ed 89 3d c4 24 c5 3d a5 0c 93 bd cf 98 2e 3d
       0.06734805 0.09626153 -0.07180146 0.0426262
000300 f0 4e 31 3e 13 1b b7 be 66 52 c1 3c 15 d8 6e 3e
       0.17315269 -0.35762843 0.023598861 0.23324616
000310 8d c3 88 bd 6a 38 06 3e b7 44 21 be 5a af dc bd
       -0.06677923 0.13107458 -0.15748869 -0.10775633
000320 b3 dd 54 be ad ec d9 bc 13 16 21 3e c2 da d9 3c
       -0.20787697 -0.026602114 0.15731077 0.02659357
000330 0a f6 32 3e 2a ac 1e 3c 5f ce cf be 2e b6 13 3e
       0.17476669 0.009684602 -0.40587136 0.14424965
000340 f2 39 32 3e 55 1e 94 3e a0 c8 f0 bd dc fb 0c bf
       0.17404917 0.28929392 -0.11757016 -0.55071807
000350 70 0d 5b be 1d 97 5f bd 8c 7d 69 bd 7f a4 b3 3c
       -0.21391845 -0.054587472 -0.057004496 0.021929024
000360 a7 79 80 be f6 51 1c 3e 0e c0 3b be 48 c3 0f 3c
       -0.25092813 0.1526564 -0.18334982 0.008774586
000370 fa e4 9b bd d2 d3 29 3e ba 0d 0b 3e 27 80 03 3e
       -0.07612033 0.1658471 0.13579455 0.12841855
000380 6c 29 e8 bd 60 d4 4d bc 0f ba 16 3d 0a a7 0d be
       -0.113360256 -0.012562841 0.036798533 -0.13833252
000390 4c a5 21 3e 21 58 20 3e 18 3f f4 bd 27 c8 1c 3e
       0.15785712 0.15658619 -0.11926097 0.15310727
0003a0 a0 b5 42 3e fd d7 ad 3d 35 0e cd bd a0 29 89 be
       0.19014597 0.08488462 -0.100124754 -0.2678957
0003b0 53 77 b0 bc d9 b5 05 bd 57 b1 7e bb 60 6d 9a 3c
       -0.021541273 -0.032644127 -0.0038863027 0.018850982
0003c0 77 8f 0d bd f4 ba 2c be d3 aa ff 3d 47 1a 70 bc
       -0.034560647 -0.16868192 0.12483754 -0.0146547025
0003d0 bd d7 6f bd 40 ee 02 be be 5c f8 3c 46 c1 1a bd
       -0.058555353 -0.12786198 0.03031766 -0.037781976
0003e0 a0 dd c3 bd 65 a8 03 3e 95 c7 9e 3d aa cf 56 bd
       -0.09563756 0.12857206 0.07752911 -0.052444138
0003f0 86 5d 54 3c 05 9a a2 3b 4a f9 89 3d 44 92 3d bb
       0.012961751 0.004962208 0.06737001 -0.0028926292

local_map_cnn.4.bias f4 [32]
000000 42 63 55 bc f9 6c 21 3d f6 3a 86 be 9c 2f 0a bf
       -0.013024153 0.039410565 -0.2621686 -0.53978896
000010 b3 51 83 bd 87 0b 81 be 44 c2 25 bd 69 b3 6d be
       -0.06412067 -0.25204107 -0.04046847 -0.23212971
000020 b8 05 5c 3e ea 03 5a bd b3 2d 2f 3d e8 7c f2 bd
       0.21486557 -0.05322639 0.04276819 -0.1184023
000030 d2 df eb 3d cd ad 3f 3e 26 b9 f1 be 32 75 40 3e
       0.115173 0.18718643 -0.4721157 0.18794706
000040 c3 f8 b1 be 35 2e 02 bc 7a 35 84 bd 40 62 79 be
       -0.34760103 -0.007945587 -0.06455512 -0.24353886
000050 6b 39 59 be 17 68 22 be 59 0f 59 bd 08 d0 9e be
       -0.2121331 -0.1586002 -0.052993152 -0.3101809
000060 9a e0 7c be af fe 03 3e 36 a4 7d be b3 52 15 3d
       -0.24695054 0.12890123 -0.24769673 0.03645582
000070 ce ae 5d 3d 7c 65 ff bd 05 d5 5e bc 7a 1a 02 be
       0.054121785 -0.124705285 -0.0136005925 -0.12705413

local_map_fc.weight f4 [64, 512]
000000 6b fc 9a bd 3d cb a1 be 29 45 8c be 36 ca 1c be
       -0.07567676 -0.3160037 -0.27396515 -0.15311512
000010 7e 9c c0 3d 5d 15 94 be e7 95 70 be b0 8e da bd
       0.094048485 -0.2892255 -0.23494683 -0.10671747
000020 93 98 71 39 ea f7 2c be de 41 4b be 2b 26 e8 3d
       0.0002304039 -0.16891447 -0.19849345 0.11335405
000030 06 56 c8 bd 09 13 97 bd d3 00 97 3c 2f 2f 64 be
       -0.09782033 -0.073766775 0.01843301 -0.22283624
000040 6d 35 11 be 15 b0 7b bd 2e 85 df bd 91 1e 90 bc
       -0.14180537 -0.06144722 -0.10914074 -0.0175927
000050 23 5b f1 bd f1 86 1d bd de 21 f8 3c 9b 38 54 3d
       -0.11784961 -0.03845877 0.030289587 0.051811796
000060 fd 26 3d be 12 c9 8f 3d b6 ae 0e bd b9 ce 44 be
       -0.18471904 0.07020773 -0.034834586 -0.19219483
000070 6c 7a 6f bd ef a5 1a 3e 62 46 8c 3d e2 63 85 3d
       -0.05846636 0.15102361 0.06849362 0.06513192
000080 2d a3 50 bd 2e 42 4a 3c b6 86 ed bc c9 f8 17 be
       -0.050936867 0.01234488 -0.0289949 -0.14840998
000090 29 e1 a5 bd 3f 36 ed bb fd 34 f9 3c 6b b2 11 3d
       -0.080995865 -0.0072391327 0.030420775 0.035570543
0000a0 ac 82 84 be 3e 28 94 be c6 0b 08 bd 6b 10 75 bd
       -0.25880945 -0.28936952 -0.033214353 -0.05983011
0000b0 df ee 1a bd be a7 11 3e b3 49 9e bd 6a 57 2a 3e
       -0.03782546 0.14224145 -0.07728901 0.16634908
0000c0 96 95 fb 3d ce 77 83 be 88 17 24 bd f0 da b9 3d
       0.12284391 -0.2567734 -0.040061504 0.09074962
0000d0 74 86 b4 bd 42 f9 01 be 44 18 2f 3d 9c 4d de bd
       -0.088147074 -0.1269274 0.04274775 -0.108546466
0000e0 ff 5e 2f be e7 3d 19 3e 57 c4 05 be df c9 82 be
       -0.17126082 0.1496502 -0.13063179 -0.2554464
0000f0 6b 7a ba bc 39 f3 10 be d8 3f af bd 8c 18 a2 be
       -0.022763452 -0.14155282 -0.08557099 -0.31659353
000100 d2 d9 69 be 58 50 91 bd 0c 62 6d 3d d8 d5 43 be
       -0.22836998 -0.070954025 0.057954833 -0.19124544
000110 c7 9f ca be 2f a6 07 be ed a8 a4 be 80 82 b6 bd
       -0.39575025 -0.13246988 -0.3216013 -0.0891161
000120 94 c1 c9 3d 25 f1 02 3c 47 d5 2c be bc d9 b4 be
       0.09851375 0.007992064 -0.16878234 -0.35322368
000130 f5 88 e8 bc 82 56 bd 3d 04 f5 95 3d d9 f4 e3 3a
       -0.028385619 0.09245016 0.07322124 0.0017391696
000140 93 11 0e bd fa 01 17 be bf af 3e be 1b a3 14 be
       -0.03468473 -0.14746848 -0.1862173 -0.14515345
000150 4a 0d 82 be a3 31 75 be 11 0a 96 3d 15 e7 1e 3e
       -0.25400764 -0.23944716 0.07326139 0.15517838
000160 41 dc 07 be bf bb aa ba 9a c4 97 be 61 6e 26 3e
       -0.13267614 -0.0013025923 -0.29642183 0.16253044
000170 ac 03 9a bd ea c9 19 be 10 30 3b be f6 28 95 bd
       -0.075202316 -0.1501843 -0.18280053 -0.07283203
000180 e0 f3 0c be f6 f5 a5 3d 83 6a 6f 3d 7f e5 8d be
       -0.13764906 0.08103554 0.058451187 -0.27714154
000190 84 9a 76 bd b1 b8 c3 3d 86 ad 78 bd 64 5c e3 3d
       -0.06020595 0.095567115 -0.06071236 0.111016065
0001a0 9b 04 dd 3d a8 a4 20 3e 62 3d be bd 2b 6e 42 be
       0.10791894 0.15687811 -0.092890516 -0.18987338
0001b0 42 d6 fa bd ac 05 b6 bd 13 88 bd bb b1 73 91 bd
       -0.12247898 -0.088878006 -0.0057840436 -0.071021445
0001c0 11 5b 93 bd 70 32 b9 3d ad 50 12 bd 1b 75 9e be
       -0.07195104 0.09042823 -0.03572147 -0.3094872
0001d0 99 c1 53 be 34 aa 41 be 83 53 61 3e 24 07 a9 3e
       -0.2067932 -0.18912584 0.22004513 0.3301326
0001e0 72 77 ed bd ce 3f fc bd be 1b 46 be 75 03 02 3d
       -0.11595048 -0.12316857 -0.1934652 0.031741578
0001f0 fc 32 ea bd 9f 7c 2c be 56 65 ea bd 1e 5f 23 be
       -0.11435506 -0.16844414 -0.114451095 -0.15954253
000200 73 3c 3a bc a5 36 ef be b5 3b aa be 50 b6 a6 be
       -0.011366951 -0.46721378 -0.33248678 -0.32560968
000210 5a 35 17 be ae f9 93 be 92 9b 5b be 5f 7c d7 3d
       -0.14766446 -0.28901428 -0.21446064 0.10521769
000220 b9 68 12 be 61 d2 64 be ac ce b9 be 3e f8 74 be
       -0.14297761 -0.22345878 -0.3629049 -0.23922822
000230 41 9f a5 bd 87 0e 57 bd 75 10 eb 3b 0c c1 c1 be
       -0.08087016 -0.05250409 0.0071735927 -0.37842596
000240 b9 a4 24 be c0 85 02 be cc ad b1 be b2 a9 ba be
       -0.16078462 -0.12746334 -0.3470291 -0.36457592
000250 a9 67 4f bd c6 00 02 bd 32 02 d3 be 7a 91 c1 be
       -0.050635967 -0.03173902 -0.41212612 -0.37806302
000260 2d dd b5 bd cb 21 01 3e 89 f6 10 bc d6 c9 72 bd
       -0.088800766 0.12610547 -0.008847841 -0.059274517
000270 ec e4 60 be 97 a8 6f be f7 bb c7 3c 3c 34 eb bd
       -0.21962327 -0.23404156 0.02438162 -0.11484572
000280 59 d5 a1 3e 0e f8 19 bd d8 f7 66 3c 5a 85 c3 bd
       0.31608084 -0.03759008 0.0140971765 -0.09546919
000290 73 b1 83 be 76 1f fc bd 07 41 35 3d b6 7e 75 be
       -0.2572132 -0.12310688 0.044251468 -0.23974118
0002a0 10 c6 89 be 33 73 57 be fd 7a 3e 3e 1d 17 40 3e
       -0.26908922 -0.21040039 0.18601604 0.18758817
0002b0 60 ad cf be 96 19 78 be 06 35 1b 3e 29 c3 9d 3d
       -0.40561962 -0.2422851 0.15156946 0.077032395
0002c0 18 d7 a4 bd 46 d6 1e be db 81 67 be 08 6b 81 bd
       -0.080488384 -0.15511426 -0.2260813 -0.06319243
0002d0 e0 59 2b be 5c 81 9b be 94 59 23 be 0b b7 8e bd
       -0.16733503 -0.3037213 -0.1595214 -0.069685064
0002e0 da a6 0f be 46 1b 89 be b7 19 e8 bd cb c7 9e 3c
       -0.14028493 -0.2677862 -0.1133303 0.019382378
0002f0 2a cd b0 3d a7 b7 a0 3d d2 69 14 be 9b 88 53 3e
       0.08632882 0.07847529 -0.14493492 0.2065758
000300 bc f2 1d 3c 34 4d b2 bd 04 c9 73 be 67 5d 06 bf
       0.009640392 -0.087061316 -0.2380715 -0.5248627
000310 b3 b1 5a be b1 bb 1c 3c 05 44 bb 3d 41 07 de be
       -0.2135685 0.0095662335 0.09143833 -0.4336491
000320 11 7b d6 bd 82 10 e9 3d 3d fb 45 3d 99 88 77 be
       -0.10472692 0.11380102 0.048335303 -0.24173202
000330 0a f9 37 bd 8c 83 3e be 69 49 bc bd 6b d3 d8 3d
       -0.044915237 -0.18604869 -0.091936894 0.105872
000340 7f 76 d2 be 94 6f 1f be f8 5f 13 be ab 41 00 3e
       -0.4110603 -0.15569907 -0.14392078 0.1252505
000350 36 6c 0d be af 38 6a be 37 c9 b2 3c d3 61 ba 3d
       -0.1381081 -0.22873186 0.021824462 0.0910069
000360 70 d7 98 bd 95 14 d4 bd 2b ba af 3d 0f d9 41 3b
       -0.074629664 -0.10355488 0.085804306 0.002957884
000370 92 cb 77 bd c8 77 cb bd 05 9a 05 bb b8 54 51 be
       -0.060496874 -0.09934956 -0.0020385992 -0.20442474
000380 e0 f3 80 bd 0d b1 a5 bc 02 1b 2b ba ef 33 b3 3e
       -0.062965155 -0.020226026 -0.0006527157 0.3500056
000390 21 b5 71 3d cb 9c 1d bd c6 42 01 3d 72 f8 05 bc
       0.05901063 -0.038479608 0.03155782 -0.00817691
0003a0 8d 48 c4 bc c4 e7 8f be fd ef b0 3d 71 f5 8d be
       -0.023960376 -0.2810651 0.08639524 -0.2772632
0003b0 5b 2e 83 be a6 5e ec bd bb 49 4f bc 54 7c 26 bd
       -0.25621304 -0.1154149 -0.012651856 -0.040645912
0003c0 ed 9c 3f bd c2 18 8b 3c 79 de 3d be 7d 41 4a bd
       -0.046780515 0.016979579 -0.18541898 -0.04937886
0003d0 5a dc 42 be 0f c9 33 be 29 2b 70 be 44 09 49 bc
       -0.1902937 -0.17557167 -0.23453964 -0.0122702755
0003e0 c0 33 b2 be af 15 b4 be 8f 28 d2 be 21 10 18 be
       -0.34805107 -0.35172793 -0.4104657 -0.14849903
0003f0 00 44 e4 bd 02 68 fc 3a c4 78 f5 bd ec 4f 94 bd
       -0.111457825 0.0019257071 -0.11985925 -0.072418064

local_map_fc.bias f4 [64]
000000 10 49 69 be 83 41 4f be d6 7f a7 bc cc 5c 1f bd
       -0.22781777 -0.20239834 -0.0204467 -0.038906857
000010 0b 26 a9 bd 15 ca 63 be 19 e0 75 3b 26 11 6f 3d
       -0.08259209 -0.22245057 0.0037517606 0.058365963
000020 37 b4 60 bd ac c3 b8 bd 39 d4 8f bd 7b 99 c0 bd
       -0.054859366 -0.090216964 -0.070229 -0.09404274
000030 ea f1 25 3e b7 99 2c be 56 12 8d bc 7e 2a 38 3d
       0.16205564 -0.16855513 -0.017220657 0.0449624
000040 b4 d9 4e 3d d8 a5 59 3d 63 5d 06 be 6c ea f0 3b
       0.050500587 0.053136677 -0.13121562 0.007352164
000050 c2 e2 04 be 54 b2 28 be 73 b5 25 3e 4e d0 a3 3d
       -0.12977126 -0.16474277 0.16182499 0.07998715
000060 f8 3f aa bd 2a 21 9b be 99 11 31 3d 9e 13 eb bc
       -0.08312982 -0.3029874 0.043229673 -0.028695878
000070 87 40 c6 3d d7 66 a8 3d 9c 5e b0 bd fa dd a3 be
       0.09680276 0.0822274 -0.08611795 -0.32005292
000080 1b 3b 49 3e a5 7c 61 bc 23 f4 b8 3d fc c9 3d bd
       0.19651453 -0.013762628 0.090309404 -0.046335205
000090 af 11 b4 bd ab 70 bf 3d 18 d0 a7 3e 05 5a 16 bd
       -0.087924354 0.093476616 0.3277595 -0.036706943
0000a0 de b1 a4 3c d0 1f c6 bd f1 ff df 3c 69 b8 09 3e
       0.020104345 -0.096740365 0.027343722 0.13449253
0000b0 8f 3c 06 3e 6f 3c 58 3e 23 6a 03 be 1d 94 19 be
       0.13109039 0.21116804 -0.12833457 -0.14997907
0000c0 74 31 5c be 0e ff 40 be 46 e9 14 be 12 dc 57 be
       -0.2150324 -0.18847296 -0.14542112 -0.21080044
0000d0 06 5b 5d 3e a1 60 b0 be b9 87 8b bd 47 d3 ba 3d
       0.21616754 -0.34448722 -0.068129964 0.09122329
0000e0 95 93 4d 3b e8 f6 c1 be b3 f6 18 bc c4 40 9b bc
       0.0031368483 -0.37883687 -0.009336161 -0.018951781
0000f0 9d c2 c4 bd d3 c4 94 3d d8 29 68 bc d7 fe 19 3e
       -0.09607432 0.07264104 -0.014170133 0.1503862

self_entity_fc1.weight f4 [32, 26]
000000 c2 ce c3 3e 98 5e 62 bd 29 9d 2b 3d cf 70 5c bb
       0.3824368 -0.055265993 0.041897926 -0.0033636575
000010 f9 a8 4d 3c 91 b9 92 3c b7 01 2b 3d 8e c5 aa be
       0.012552493 0.01791075 0.041749682 -0.33353847
000020 70 42 89 bd 11 e5 ff bd 77 ef 52 be d5 93 4b bf
       -0.06702125 -0.12494863 -0.20599161 -0.7952245
000030 8c 76 4f 3e 14 61 4b be 2a 0f 74 3e 30 bc 32 3e
       0.20260066 -0.19861251 0.2383391 0.174546
000040 46 94 9b be 3e 5a 40 be 6a 77 57 3d ef 52 8c bd
       -0.3038656 -0.18784425 0.052604116 -0.06851756
000050 11 34 bc 3c 18 6c b1 3e a6 6e 0d be a9 19 3d 3e
       0.022974046 0.3465278 -0.1381174 0.1846682
000060 1a c9 25 bb 01 72 56 3d e2 64 f5 be 9a e7 e9 bd
       -0.0025296868 0.052354816 -0.4792853 -0.114211276
000070 ad e5 3c 3b d1 be 3a 3e b7 da 42 3e 2e 35 6d be
       0.002882342 0.18236853 0.19028746 -0.23164818
000080 29 1b 25 3e 1d 3e cb bd 45 b2 02 be 5d 25 18 3d
       0.16123642 -0.099239565 -0.12763317 0.037145007
000090 6f 2b 23 be aa 58 8b bc c7 dc cc bc 4a 38 85 3c
       -0.15934537 -0.017010052 -0.025007619 0.016262192
0000a0 05 3d 6f 3e 29 f6 23 3e 45 6b 09 3e 18 34 04 3d
       0.23363121 0.16011871 0.13419826 0.032276243
0000b0 1b ba 10 bd 0d 4b 16 3c b5 ba a8 bc 66 57 ea 3d
       -0.035333734 0.009173167 -0.020596841 0.11442451
0000c0 8b b8 3b bd a7 2b 85 bc 73 2b b4 3d 1e 22 41 3e
       -0.04583029 -0.016256167 0.0879735 0.18860671
0000d0 99 48 74 bd c9 25 c8 bd be 61 99 3d e2 23 36 be
       -0.059639547 -0.09772832 0.07489346 -0.17787126
0000e0 eb b5 fb 3d 06 f7 1e bf 7c 72 c1 be fe 4e 28 3e
       0.122905575 -0.6209568 -0.37782657 0.16436383
0000f0 bb 05 b4 3d 52 a9 4d bb 02 42 f9 be df 83 20 bd
       0.087901555 -0.003138144 -0.48683172 -0.039188262
000100 72 3d 9b bd a7 7e 33 3d 11 f6 a8 3d c1 70 73 3e
       -0.07580079 0.043821957 0.082500584 0.23773481
000110 ed 8e f3 3d e8 21 34 3d 82 5d 80 3b df 22 1d 3e
       0.11892495 0.043977648 0.003917397 0.15345334
000120 79 10 93 3d b9 16 00 3e 9c 1d 38 3e 0a 61 dd bd
       0.07180876 0.12508668 0.17980045 -0.10809524
000130 bd c6 23 bd b0 bf 08 be 9f 6a d9 bd 84 df 32 bd
       -0.039984453 -0.13354373 -0.106160395 -0.043670192
000140 84 94 c2 3d e7 c0 da bd bb 29 00 be db 2f 5e 3e
       0.09500983 -0.106813245 -0.12515919 0.21697943
000150 59 22 3d 3e 6b 5c 86 bd 80 68 58 3f bc 93 9b 3e
       0.18470134 -0.06560596 0.84534454 0.3038615
000160 d4 4b aa 3d 46 01 96 bd 29 29 97 3b 0e fc 7b 3e
       0.08315244 -0.07324462 0.004613061 0.2460787
000170 76 54 85 bd 3c 05 57 be cb 98 43 3e 0d 64 5c 3e
       -0.0651025 -0.2099809 0.19101255 0.21522541
000180 c6 40 26 be 2d 47 5d bd c3 19 84 3e ec cd f0 bd
       -0.16235647 -0.054022957 0.25800905 -0.117580265
000190 39 00 1d be ac 78 1c 3d 35 50 e1 bd 25 e6 08 3e
       -0.15332116 0.03820102 -0.110016264 0.13369043
0001a0 7e 99 11 be 40 9f 7e 3d 22 9a 38 bd 6f f9 4e be
       -0.14218709 0.06216359 -0.045068868 -0.20212339
0001b0 c0 97 eb 3d f8 5f 91 3d f1 a7 b6 3d 2c 3d ca be
       0.115035534 0.07098383 0.08918751 -0.39499795
0001c0 8f e3 97 3d 42 21 1a 3e f7 a7 f4 3e 71 d5 4b 3e
       0.0741645 0.1505175 0.47784397 0.1990564
0001d0 76 3d e6 3d 2d 68 e9 3d 96 de 6b be f7 68 03 3c
       0.112421915 0.11396823 -0.23034129 0.008020631
0001e0 ba 3d 58 3e 25 9a c1 3e 5d 73 ea bd 29 cc 4f bb
       0.21117297 0.37812915 -0.11447785 -0.0031707382
0001f0 2f 68 8d 3c 13 6a 08 be 88 62 72 bd 24 b3 be bc
       0.017261593 -0.13321714 -0.059175998 -0.02327878
000200 53 9f e8 bd 88 7a d3 bd 00 58 af 3d cb fc bb 3d
       -0.11358514 -0.10326105 0.085617065 0.09179076
000210 55 56 29 3e 5c 16 8e bb a8 7f bb bb 37 e6 6e bd
       0.1653684 -0.0043361615 -0.005722005 -0.05832502
000220 4d fb 23 3e 55 52 f4 be 3d 6e 8f 3e 22 90 a1 3b
       0.16013832 -0.47719064 0.28013793 0.004930512
000230 c6 2b fa 3c 71 c5 9d 3e 7e 4e e7 3d 5c a5 c7 3d
       0.03053845 0.30814698 0.11294268 0.09748337
000240 08 10 49 bd e8 7a 8f be 84 d0 83 3d bb 03 2f bd
       -0.049087554 -0.28023458 0.064362556 -0.042728167
000250 cb 7f 39 be cb 83 49 be 51 c4 55 be 25 85 60 be
       -0.18115155 -0.19679181 -0.2087567 -0.2192579
000260 9e c2 01 be bc b7 3a be 9f 0a 7b 3d 5e f8 c5 3d
       -0.12671897 -0.18234152 0.061289426 0.09666513
000270 f1 2c e2 bb 42 11 1e be 01 bb b5 bd d5 cc 68 3e
       -0.00690233 -0.15436271 -0.08873559 0.22734387
000280 53 d1 4a 3e 48 0d 71 be d7 83 32 be da d3 04 bf
       0.19806413 -0.23540223 -0.17433105 -0.5188576
000290 e2 cb 3f bd 5b 69 6c bd 49 d1 d0 be de 7e 1c 3e
       -0.046825297 -0.057717662 -0.40784672 0.15282771
0002a0 96 04 96 bf 53 d7 cc 3d 91 29 89 3e 7e ed 67 3e
       -1.172015 0.10002007 0.26789525 0.2264919
0002b0 50 7f 92 be e0 c5 82 be 79 98 4b 3d d6 7d 0c 3d
       -0.28612757 -0.25541592 0.049705956 0.034299694
0002c0 e9 5d 3a 3d 8e ab be 3e 48 4e 03 3e 49 5e bc bd
       0.045499716 0.3724026 0.1282283 -0.09197671
0002d0 57 95 f5 3b ce af 00 be 99 03 07 3e 54 48 3e 3b
       0.0074946093 -0.12567064 0.13184966 0.002903481
0002e0 52 bb 65 bc 4a c4 7b 3d df 1b 74 3b 86 ff 52 be
       -0.014021711 0.061466493 0.0037248058 -0.20605287
0002f0 f3 a9 bb 3d b2 12 cb 3c 18 47 2d bf c7 31 e5 3d
       0.091632746 0.024789188 -0.67686605 0.11191135
000300 4a 66 26 be ab 51 66 3e a5 95 b1 3d ee 6c e6 3d
       -0.16249958 0.22492091 0.086711206 0.112512454
000310 ea 26 08 3e 18 dd 91 3e bf fa 02 3e 82 85 52 3e
       0.13296095 0.28488994 0.12790965 0.20558742
000320 5b 12 60 bd 4f ff bc 3d 5a bb 02 3c 56 36 67 3e
       -0.054705005 0.09228384 0.007979238 0.22579321
000330 61 df d4 3b 6f 21 94 bd be 05 ba 3d 00 a6 0f be
       0.0064963554 -0.072329395 0.090831265 -0.14028168
000340 5d e7 14 bd 87 2e 83 bd 30 e4 f4 bb b9 f7 0f 3e
       -0.036353458 -0.06405359 -0.007473491 0.14059342
000350 32 ba bb 3c c3 89 22 be 21 9e 77 3d 53 b7 3d 3f
       0.022915933 -0.15872864 0.060453538 0.74107856
000360 af 35 72 bb b8 18 62 3d 03 97 90 bf 7e 0b 95 bd
       -0.0036958267 0.055199355 -1.1296085 -0.072775826
000370 52 cc b6 bd cd 1e c2 3d 0d f7 6c 3e 1c 0f 43 3e
       -0.0892569 0.09478531 0.23141117 0.19048733
000380 6a af 63 3e 1f cb 3b bd e6 67 11 bc 5e c5 cc bd
       0.22234884 -0.04584801 -0.008874869 -0.09998582
000390 c7 31 ca bc 05 fb 5c 3e 67 9a c5 3d 39 ce 6d bd
       -0.024681939 0.21580131 0.096485905 -0.058057997
0003a0 f0 ed 0a be 58 d0 08 be 73 b8 5e be 69 85 65 be
       -0.13567328 -0.13360727 -0.2175005 -0.22414173
0003b0 4c 08 10 bd 9a e6 ed 3d e4 f5 64 bd 38 95 e3 be
       -0.035164163 0.116162494 -0.055898562 -0.44449782
0003c0 9d 73 0b bf db 7e 9b 3e 4a 02 75 be cd eb 29 3d
       -0.54473287 0.3037022 -0.23926654 0.041484643
0003d0 a9 8c c3 3d 11 25 22 3e b2 fd 3b 3d d8 4a cd bd
       0.09548313 0.15834452 0.04589624 -0.10024041
0003e0 bb 5d f2 3d 0e ea 17 3e c4 5e b3 bd 9e 60 ed bd
       0.11834284 0.14835379 -0.087583095 -0.11590694
0003f0 19 7d 85 3d e3 92 4f bd 1d cd 61 bb 92 dd 9c 3e
       0.06518001 -0.05067719 -0.0034454532 0.30637795

self_entity_fc1.bias f4 [32]
000000 64 b6 3c 3c 13 4f 98 3e f2 6c 38 3d f8 d9 90 be
       0.011518095 0.2974783 0.045025773 -0.28291297
000010 d0 13 e8 bd 6d 1f 3c be a6 4d cc 3e d1 15 26 3e
       -0.11331904 -0.18371363 0.3990299 0.1621926
000020 b5 f6 89 3e 93 d4 38 3e 34 f2 e0 3d c4 6e 88 3e
       0.26946035 0.1804984 0.109836966 0.26647007
000030 5a 91 95 bc a1 62 b1 bd 1d 46 25 be 7f d6 9e bd
       -0.018257786 -0.0866139 -0.16140027 -0.07755756
000040 09 1c 35 3e b8 9d 35 3e 34 5c 88 3e b1 52 55 3d
       0.17686476 0.17735946 0.26632845 0.052080814
000050 bc 54 83 3e 5d 65 35 3e 2e f2 8e 3e fc d8 80 bd
       0.25650585 0.17714448 0.27919143 -0.062913865
000060 4c de 77 3e 71 2a ff 3d 2d a2 83 be 94 a6 9f 3d
       0.24205893 0.12459267 -0.25709668 0.07795444
000070 4a ee 14 3f 8e 77 19 3f 14 c8 8a bc 0b 87 d4 bc
       0.581761 0.5994805 -0.016941108 -0.0259433

self_entity_fc2.weight f4 [32, 32]
000000 a0 32 a0 bc 4f e2 17 3e 2a 52 90 3e 7e 89 01 bf
       -0.01955539 0.14832424 0.28187686 -0.5060042
000010 93 07 6f 3e db 2b e1 3c 43 6f 06 3e c6 08 6e 3e
       0.23342733 0.027486732 0.1312838 0.23245534
000020 2f fe 52 3e 92 5d 03 be 47 4d d0 3d cb 82 92 3d
       0.20604776 -0.12828663 0.101709895 0.07153853
000030 5e 45 48 be c8 9a 13 3e 64 c3 b3 be 83 1d e1 3d
       -0.19557711 0.14414513 -0.3511001 0.10991957
000040 a8 8e d3 bd c4 79 08 3d 1e 98 dd 3d 6d f4 0b be
       -0.10329944 0.03331925 0.1082003 -0.1366746
000050 f3 f7 33 bd 33 57 b1 3c e2 65 e0 bd 61 c0 9d 3e
       -0.043937635 0.021648025 -0.109569326 0.30810836
000060 5e 97 93 bc e4 62 0d 3e 83 91 c7 be 19 9f 1f 3e
       -0.018016513 0.13807255 -0.38978204 0.15588035
000070 0f 68 22 3f e9 1d 42 3f 07 6b b4 3d 39 b8 ca bd
       0.6344003 0.7582689 0.08809476 -0.09898419
000080 c7 45 05 3f d5 45 ac 3d 35 1d 5a bd 73 07 14 3e
       0.52059597 0.08411757 -0.05325051 0.14455967
000090 84 d0 35 bf f7 df 60 be 1e 6a 83 3f 03 fd 14 be
       -0.71021295 -0.21960436 1.0266759 -0.14549641
0000a0 de 6a 32 3f e4 ab 24 be 6e 67 a7 3e 82 91 14 3f
       0.69694316 -0.16081196 0.32696098 0.5803453
0000b0 28 3a 82 3d 00 6a a5 bf 97 ce 9a 3d 90 1e 26 3e
       0.06358749 -1.2922974 0.07558935 0.16222596
0000c0 d9 7e 8c 3d dd c2 41 3d 24 a4 15 bd 9a 9f 13 bf
       0.06860132 0.047304977 -0.03653349 -0.5766541
0000d0 f3 56 db 3d e9 a5 b9 3d 4d e6 00 be fa fd 08 be
       0.107099436 0.09064848 -0.12587853 -0.13378134
0000e0 f7 61 a8 be c3 84 aa 3d da bf 97 be de 15 69 be
       -0.3288724 0.083261035 -0.2963856 -0.22762248
0000f0 db eb 24 bf 07 8b 26 bf a6 9b 80 be 06 ff d7 bd
       -0.64422387 -0.6505589 -0.2511875 -0.10546689
000100 3e fe 16 be 8e b0 92 3c d2 f6 9d be c8 de d2 be
       -0.14745423 0.017906453 -0.3085237 -0.41185594
000110 ef d8 a9 3e 47 fa 81 be 6e 02 d4 3d 24 d5 12 3e
       0.3317332 -0.2538626 0.10352026 0.14339119
000120 4d e2 be be 08 8f 25 be 2a 28 ae 3d 0c a9 06 be
       -0.3728203 -0.16167843 0.085037544 -0.13150424
000130 7e 6b 55 bd f9 2c 87 bf 4e 32 25 be ce a5 15 bd
       -0.052104466 -1.05606 -0.16132471 -0.036535077
000140 bf 9a 96 be ea e8 55 3e 31 2b 52 3e c3 7e b0 be
       -0.29414937 0.20889631 0.20524289 -0.34471712
000150 83 61 a2 bd 16 49 3a bd 50 b8 c0 3d 90 c5 9f 3e
       -0.07928755 -0.045479856 0.09410155 0.31205416
000160 01 e4 c1 3d ee 34 15 3e 7c 69 ee be 1a c1 11 be
       0.094673164 0.14570972 -0.46564853 -0.14233819
000170 22 a0 fb 3b 9a e5 00 be 67 8e 04 be 6a 6b 42 be
       0.0076790014 -0.12587586 -0.12944947 -0.18986288
000180 2e 09 5d 3d 20 4c 98 bd 84 8a 74 be 63 16 56 3e
       0.053963833 -0.07436395 -0.23880965 0.20906977
000190 5d 31 e4 3d 97 b4 5f 3e 37 19 0b bd bc ed e1 be
       0.11142228 0.21846233 -0.033959594 -0.4412669
0001a0 18 e1 e0 bd fa 36 06 be 15 bf 24 bf 3e a6 c4 bc
       -0.10980433 -0.1310691 -0.6435407 -0.024005052
0001b0 ec 38 9b 3e 7a 46 e9 be 89 4a bc 3e 96 cc 37 3e
       0.30316865 -0.45561582 0.36775616 0.17949137
0001c0 e0 d1 41 3e 64 8a 14 3e bd db c7 be 5f a6 01 3d
       0.18927717 0.14505917 -0.39034835 0.031652804
0001d0 14 51 07 be 55 9c 9a bd 9a 1e dc bd b6 1c a3 bb
       -0.13214523 -0.07549349 -0.10748024 -0.004977788
0001e0 94 92 b1 3c 84 57 be 39 4a 7d 8c 3e da 2b fa be
       0.02167634 0.00036304828 0.27439338 -0.4886158
0001f0 3f 76 f8 3d f2 9a de 3d 58 21 4e be e3 cc 76 3e
       0.12131929 0.10869397 -0.20129907 0.24101596
000200 88 e2 01 3f fd a4 9d 3e 49 a7 ae 3b 73 82 f3 bc
       0.50736284 0.3078994 0.0053300005 -0.029725289
000210 6a 43 d7 be 8d a9 2a be 98 25 ac 3e 1a 0b 18 be
       -0.4204362 -0.16666241 0.33622432 -0.14847985
000220 b7 a9 29 3f 5e 06 18 3b 6b 6b 96 3e 2f 70 13 3f
       0.6627459 0.0023197155 0.29378828 0.57593054
000230 95 58 ff 3d 42 d7 52 bf c7 21 92 bc 7c ff 96 3e
       0.124680676 -0.8235971 -0.017838372 0.29491794
000240 51 da e2 3d 4d 11 63 3d 53 25 49 be 92 52 41 3e
       0.11076797 0.05543642 -0.19643144 0.18879154
000250 21 c0 da 3e c7 9b ba 3e 70 c9 b3 bc 2d 07 2a 3e
       0.42724708 0.36446974 -0.021946639 0.166043
000260 27 73 0e bf 99 19 1f 3e 89 fb 93 3d 15 78 35 3d
       -0.5564446 0.15537108 0.07225711 0.044303972
000270 9e f4 27 bf 5d 3d 47 bf 6b 09 1e 3e a5 78 69 3b
       -0.6560763 -0.7782801 0.1543328 0.0035624888
000280 e6 b4 0c 3e 61 2b ac 3e 09 90 1a 3e fa ee 9c bd
       0.13740882 0.33626845 0.15094008 -0.07662769
000290 43 9c 24 3e 42 7b c7 3c 21 ac 83 3c d9 bc b5 3c
       0.16075234 0.024350766 0.016073288 0.022184776
0002a0 d6 a3 25 3f b8 22 cd be 4d 29 a2 3e 4f 2c 55 3e
       0.6470312 -0.4006555 0.31672135 0.20817684
0002b0 68 5d 56 be 68 bd 28 3e 5f d0 5b 3e 4b 6e 29 3e
       -0.20934069 0.16478503 0.21466206 0.1654598
0002c0 1c b7 c2 3d 3f fa 76 3d 87 40 e3 bd 84 9e 62 3e
       0.095075816 0.060297247 -0.11096292 0.22130781
0002d0 2e 97 2f 3e 33 d8 c5 bd 1a be 91 3d e6 09 44 be
       0.17147514 -0.09660377 0.07116337 -0.19144401
0002e0 43 13 35 3e 1c 43 a4 be 85 fd 20 be e3 36 a7 3d
       0.17683129 -0.3208245 -0.1572171 0.08164766
0002f0 a8 23 dc be ad d4 1c bf e3 73 42 bc 48 6b fe bd
       -0.42995954 -0.6126202 -0.01186845 -0.12422806
000300 e1 52 cc bc 2d 14 19 3e ac 58 1e bd 4d 14 bf be
       -0.024941863 0.14949103 -0.038658783 -0.37320176
000310 d2 c6 45 3e 50 de 91 3d 5a 1e 59 be 35 76 8e 3d
       0.19314125 0.07122481 -0.21202984 0.0695614
000320 e0 e0 45 bf 47 4d 44 3c 1d 25 84 3e 4c 03 86 3d
       -0.77296257 0.011981315 0.25809565 0.065435976
000330 ed 85 4f be 51 d1 85 bf 8f 25 0d bd 9b f3 22 bd
       -0.20265932 -1.0454503 -0.034459647 -0.0397831
000340 87 61 67 3d 3b 24 53 3e 50 f7 59 3e 77 87 30 be
       0.056489494 0.2061929 0.21285748 -0.17239176
000350 d2 f8 1e 3e c0 b3 6f be ff 2a 51 3e f7 fc 39 3e
       0.15524605 -0.23408413 0.20426558 0.18162905
000360 cf 8c 23 3e 89 ba c4 3d 02 9a 02 bf 7f 2d 7f 3e
       0.15971683 0.09605891 -0.5101625 0.24919699
000370 37 4a 01 be 0c 43 e7 bd 20 dc 62 be f1 a3 26 3c
       -0.12625967 -0.11292085 -0.22154284 0.010170923
000380 bc e2 2c 3f c7 a1 22 3e a6 10 48 3d 0d b1 1e bd
       0.6753347 0.15882026 0.048844002 -0.038743068
000390 9c 12 61 bd 39 fc 56 be a9 0a 6d bf b2 82 19 bd
       -0.054949388 -0.20994653 -0.9259439 -0.037478156
0003a0 63 db 8d 3e ef ab d0 bc 06 e6 0e 3e 7e f8 09 3f
       0.2770644 -0.02547261 0.13954934 0.53894794
0003b0 4a 50 00 be 60 52 5f bf 58 42 a2 3d 66 cb b1 3d
       -0.12530628 -0.8723507 0.0792281 0.08681373
0003c0 a9 b8 c5 bd 97 be 7b bd 05 2a be bd c0 65 eb 3d
       -0.09654362 -0.061461058 -0.09285358 0.11494017
0003d0 24 8b b1 3e b5 11 ee 3c 16 d8 d3 bc 06 25 bb 3e
       0.34676468 0.029061178 -0.025859874 0.36551684
0003e0 29 d9 e1 be 81 2e 19 3e a1 ef ae 3c 2d be 59 bd
       -0.44110993 0.14959146 0.021354498 -0.05315988
0003f0 5c fb e0 be bf 5c d3 be fb 25 1b 3e 25 5e a9 3d
       -0.43941772 -0.41281697 0.15151207 0.0826991

self_entity_fc2.bias f4 [32]
000000 b1 f1 57 3d 6c d5 b1 3d 81 c2 86 bd c4 03 93 bd
       0.05272073 0.08683285 -0.065800674 -0.071784526
000010 a1 33 9d 3e 18 6c f7 3c 91 ba 4c bd 9f 3e bb 3e
       0.30703452 0.03020291 -0.04998261 0.36571214
000020 44 dc c9 bd 7d 86 e9 bd e4 a6 19 3d d6 ef f4 bc
       -0.098564655 -0.11402605 0.037512675 -0.029899519
000030 04 a6 3c be 22 47 db 3d 86 57 57 bd 0a 1a f2 bd
       -0.18422705 0.10706927 -0.052573703 -0.11821373
000040 8f 4a c7 bd 67 be 11 be 4b 39 53 bd f7 03 74 bd
       -0.09731018 -0.14232789 -0.05156831 -0.059574094
000050 f2 64 0c 3e 20 ee 8a 3d 5c 29 64 3d 45 19 41 be
       0.13710383 0.067837 0.055703506 -0.18857296
000060 8f 27 b7 3c 78 9b 3a 3d 27 51 c5 bc 53 e9 73 be
       0.02235773 0.045558423 -0.024086548 -0.23819475
000070 07 1b 40 3e ac 30 d4 bd 85 38 df 3d 57 86 81 3e
       0.1876031 -0.10360846 0.10899452 0.25297806
