my-submission/checkpoints/model_871680.pt (torch, 352797 bytes, 23 tensors)

local_map_cnn.0.weight f4 [32, 24, 3, 3]
00000000: 68c4 e9bc cc38 7c3d 97ca 1b3e 4f86 af3d
00000010: e061 693c c286 003e 8cf7 39bd 8793 a4bd
00000020: c94a c73d 1e83 383d 9c46 acbc 152a c3bd
00000030: 802e c03d d82d 1f3c c89e 363e cbcf e03b
00000040: 17a7 583b 0a52 59be 2c5e 11bb 1510 6b3d
00000050: f8f2 023e c913 063c 4c3a c9bd 2d3e c2be
00000060: 9ddc 87bd 5fed 90bc 20d0 903d 95c8 49bc
00000070: 3dfe 84bc a8fe fe3d 2a36 96bb c228 7cbd
00000080: 9efa 9fbe ac22 a8bd 2281 a6bd 011d 703d
00000090: 58d0 37bd ad25 8ebd 99cd 193d 7989 963c
000000a0: e0aa 883c f033 513c c9ac 9f3c 85f0 d6bd
000000b0: ed87 843d 020c b53d 4299 a13d e0f9 37be
000000c0: 8b19 af3c 650e c53c 4d19 f33d 0343 fe3c
000000d0: aad2 da3c 77fc 82be c210 c8bd 75f7 90bd
000000e0: af2f d4bd 24d8 babd 1a2d 1bbe d444 48be
000000f0: ed62 a1bd d9f5 f1bd 709e 243c ac31 e3bc
00000100: bafd 1fbd ac8a 34bb a4a5 013d 1f2c 18be
00000110: 20e2 84bd d3f4 a9bd 8227 7fbd b6cb 6bbd
00000120: 141b 773d 5f7a d8ba 5f79 f33d 5857 1bbe
00000130: 3390 71be 6065 53bd ef6c 113b 2fc0 aabc
00000140: 2c99 383d b93f 94bc 2d34 cd3c e880 3dbd
00000150: d48e 633d dc01 26bd 7563 6dbe 3d71 f9bb
00000160: 7570 0abe 0d38 353d eef6 36be e5d8 6f3d
00000170: 1c99 14bc 5256 21bd 1f94 efbd 27f6 82be
00000180: 3746 6fbd f51c afbd c7f9 943c 96ea cdbc
00000190: 2f19 4cbd 5ccd 0b3d 4070 1fbe 520e bdbd
000001a0: 3a0c 00be b839 f23c b583 56bd f423 88bd
000001b0: bdfd 86bd 4d4c b9bc c69c a73d ccfb b7bd
000001c0: 02d8 b0bd fb67 6cbe dc4a f9bd 6dc9 f5bd
000001d0: 7cf6 373d 0adf 2d3d 9bd4 eebc 762f 893d
000001e0: e566 c7bb ade2 0d3c b258 1dbe 5c54 99bd
000001f0: 014e 2dbd 3c06 1f3d 626f 8abd 61fe 66bd
00000200: 43b6 adbd 8003 c53c 85b6 4bbd 626a a73d
00000210: f469 86bd f436 b6bd b186 3bbe e14a e33c
00000220: 2433 993c 9bd7 f53d 111b bbbc 8ba2 20bd
00000230: bb35 dcbd 552c 083d 7ca2 b23d 8ddb 403e
00000240: d1d4 7b3d f628 a43d 5b21 f53d ed32 113d
00000250: 967b 5ebd 65c4 00bf c074 803b a60a 77bd
00000260: 86af 433e 566d 50bd 2377 b6bd c9e6 8ebd
00000270: a4cc 48bd dbbb 86bd a3ac 81bc 5aa9 c93c
00000280: 13ee 61bd 04f9 11be 8f1c e93d 91c9 a2bc
00000290: 5e97 853e 6ba5 d1bc 9368 463d e097 a73e
000002a0: 4d40 4f3e 9f4e 0d3d 110b b23e 712f 383d
000002b0: 2399 1a3d 75a4 533d 71d1 983c dd5a 743b
000002c0: 50a3 283c bbd5 a83d 8f19 193e 24d0 a0bb
000002d0: c152 60be 43f6 01be 22ec d3bd 15a4 253c
000002e0: f03d 4bbe 933c 5cbe 0095 00be 078d debd
000002f0: 05db 66bc 6f26 cb3e 9ac1 263f 77fc b53e
00000300: f969 2b3f d3b3 193f 1c30 db3e 4038 cabc
00000310: 7c35 9b3e 0dbe fb3d 9a12 e43e dc53 073f
00000320: db0b fd3c 4c05 403f 23e4 3d3f 5aa6 123d
00000330: ecaf 013e a735 d33e c9c5 7e3e 5eb9 0d3e
00000340: 1742 613d 8125 9a3d 2612 a53d 4574 4bbc
00000350: c696 ccbd ee02 c93d 82cf 9dbc 380f f0bc
00000360: bafd 273d 5118 75bc e908 913d 6e9c 1abd
00000370: abd1 6a3d 64a7 7c3d e88f 5ebd 173a 9b3d
00000380: 0ca4 20bd 447a 0dbc b013 853d 1e19 0ebc
00000390: e57c 353d e5a0 9a3c 9d50 a73b 48ed 1d3d
000003a0: dbb2 a73d a507 973c a795 5ebc 6314 d7bb
000003b0: 8691 c83c 986e 19bd ea29 92bd 4a43 c03c
000003c0: e34f 90bc b104 98bc 3f27 af3b 2f55 1e3c
000003d0: 2f66 d7bc ce53 1a3d 8d87 363d d7ae 413d
000003e0: ea38 ab3d 8853 093d 5bdc 8f3d 8c55 0b3d
000003f0: 0a21 653d ab3b eb3c f506 4f3d 811a 1abd
-0.028536037 0.061577603 0.15214 0.08570539 0.014244527 0.12551406 -0.045402095 -0.08035951
0.09731061 0.045046918 -0.021029763 -0.09529511 0.09383869 0.00971552 0.17834008 0.0068607084
0.0033058578 -0.21222702 -0.0022181375 0.057388384 0.12787998 0.008183428 -0.09825572 -0.3793806
-0.066338755 -0.017691312 0.07070947 -0.012315889 -0.016234512 0.124509156 -0.0045840936 -0.061562307
-0.31245893 -0.08209738 -0.08130099 0.05862141 -0.044876426 -0.0694078 0.03754959 0.018376099
0.016683042 0.0127687305 0.01949157 -0.10495094 0.06471238 0.08840181 0.0789056 -0.17966413
0.021374485 0.024054715 0.1187006 0.031037813 0.02671178 -0.2558324 -0.09768821 -0.07078449
-0.103606574 -0.09123257 -0.15153924 -0.19557506 -0.07880197 -0.1181447 0.01004754 -0.027733646
-0.039060332 -0.0027548475 0.031652108 -0.14860581 -0.064884424 -0.0829865 -0.062293537 -0.05756732
0.060328558 -0.0016515962 0.11888384 -0.15170038 -0.23590164 -0.05161035 0.0022190174 -0.020843593
0.04506795 -0.018096792 0.025049293 -0.046265513 0.055556133 -0.040529117 -0.23182471 -0.007612376
-0.13519461 0.044242907 -0.17867634 0.058556456 -0.009069707 -0.039388962 -0.11698174 -0.25578424
-0.05841657 -0.08550445 0.01818551 -0.025136273 -0.049828704 0.034131393 -0.15570164 -0.09231247
-0.12504664 0.029568538 -0.0523717 -0.066474825 -0.065913655 -0.02261939 0.08184199 -0.08983573
-0.0863495 -0.2308654 -0.121724814 -0.120013095 0.0449128 0.042449035 -0.029154113 0.066985056
-0.006085264 0.008660001 -0.15365866 -0.074867934 -0.04231072 0.038824305 -0.06759526 -0.05639494
-0.08482029 0.02404952 -0.04973461 0.08174588 -0.06563178 -0.088972 -0.183131 0.027745666
0.018701144 0.12004014 -0.022840055 -0.039217513 -0.10752436 0.033245403 0.08722398 0.18833752
0.061482254 0.08015625 0.11969253 0.035448957 -0.05431708 -0.50299674 0.0039201677 -0.06031289
0.19109926 -0.05088552 -0.08909442 -0.069776125 -0.049023286 -0.06578799 -0.01582939 0.024616886
-0.055158686 -0.14255148 0.113824 -0.019871505 0.26092046 -0.025591573 0.048439573 0.3273306
0.20239373 0.034498807 0.34774068 0.04496712 0.0377437 0.05167051 0.018654557 0.0037285604
0.010292843 0.08243891 0.14951156 -0.004907625 -0.21906568 -0.12691598 -0.10347773 0.010109921
-0.19847846 -0.21507482 -0.12556839 -0.108667426 -0.014090304 0.3967776 0.6513916 0.35544178
0.66958576 0.60040015 0.42810142 -0.024685025 0.30314243 0.12292109 0.44545442 0.52862334
0.030889442 0.7500808 0.74176234 0.035803176 0.12664765 0.4125187 0.24880137 0.13840243
0.05499467 0.075266846 0.08060102 -0.012417858 -0.09989695 0.09815012 -0.019263986 -0.029304132
0.041013457 -0.014959411 0.070817776 -0.03774684 0.05732886 0.061683074 -0.05433646 0.07579439
-0.039218947 -0.008635107 0.06497896 -0.008672981 0.04430856 0.018875549 0.0051060454 0.038556367
0.08188411 0.018436262 -0.013585485 -0.0065637096 0.024483453 -0.037458986 -0.07136901 0.023469586
-0.017616218 -0.018556925 0.0053452547 0.009663864 -0.026293842 0.03767758 0.044562865 0.04728588
0.08360465 0.033526927 0.07024451 0.03401713 0.05593971 0.028714975 0.050543744 -0.037622932

local_map_cnn.0.bias f4 [32]
00000000: e1fc 1bbc b6fa 2bbd 696d 63bc a6ac 96bd
00000010: 8616 373d 2950 0e3c e734 cf3c cfc2 30bd
00000020: 6285 0a3c 2bd2 bfbd 8b23 2c3c c927 86bc
00000030: 7603 99bc 20c7 08bd 63eb 00bd df14 02be
00000040: ed41 17bd fc07 453d 4c38 103d e481 0f3d
00000050: a469 a4bd 688a 8c3d 7c81 0d3b 5841 5ebd
00000060: f34e 7dbd 7e43 85bd ca27 61bd dbd8 70bc
00000070: c1c1 6a3d da7a 3b3d f55c a53d f959 653c
-0.00952074 -0.041987143 -0.013881066 -0.07357149 0.044699214 0.008686104 0.02529378 -0.043154534
0.0084546525 -0.09366258 0.010506521 -0.016376393 -0.018678408 -0.033393025 -0.031474482 -0.12703274
-0.036928106 0.048103318 0.03520994 0.035035983 -0.08027962 0.068623364 0.0021592071 -0.054261535
-0.06184287 -0.06507014 -0.054969586 -0.01470014 0.057313684 0.045771457 0.08074371 0.013998502

local_map_cnn.2.weight f4 [32, 32, 3, 3]
00000000: 479c b63d 3e84 69bd 6351 0fbe 7992 16be
00000010: d722 13be 1fe0 0f3d ba75 b7be 21f6 13bc
00000020: 0a7f fd3c b2ed 0fbd e7d3 3fbd a3d8 6bbd
00000030: 5fc1 e8bc 2b5f 8ebd 92c5 bbbd 48b1 c93c
00000040: 0972 69bd 9ecd 01be 9235 d03d 868f bcbd
00000050: f2b4 ab3a 279a 093e fab7 033e 2c31 5e3e
00000060: 61d9 52bd 3d55 cdbd c17a ec3b 8dad 513c
00000070: 0a33 483e 346e 153e 1e64 9c3d 56ea 813e
00000080: 9890 433e 39ed f8bd eb6f b1bb 6919 b73d
00000090: c6b1 033d e678 44bd 91d6 943d 1005 0a3d
000000a0: 1c7f 5fbe b553 96bd adab fb3b d38c d1bd
000000b0: fbef 06bb 492f 9dbd 1530 babd a712 243c
000000c0: c8e1 8dbd 42c7 3fbe 2216 a5bd e5fb efbc
000000d0: 270b 63bc d3c4 543d ef65 3dbd 5c96 18bd
000000e0: 8b36 79bd 5c53 e2bc 4988 1ebd 7e79 04be
000000f0: 568f 9ebb 8388 0dbe 145a 12bd 33e4 dc3d
00000100: bb72 a03d 9962 df3d c86e c33d 9ce4 d33d
00000110: d17a 253e 0ddc 463d 8063 ee3d e957 053e
00000120: 1685 e53d 7bbb 213e e402 80bd c7b2 a83d
00000130: 5279 d0bd 727f 1ebc ca15 a63d b957 76bd
00000140: b179 8dbd 915f 533d ac14 d43d 747c 053d
00000150: b012 5c3d 7db1 fb3d d42a 913d 068f 80bc
00000160: d589 893d 138a 1f3d 604e 413c 3aa3 90bd
00000170: 6011 9f3c db75 143d daef fabd 7dac 3dbd
00000180: 80cb e83b 5f77 fcbd 1d77 453d 38f1 643e
00000190: 2e3b 973b 102f 313e c48a 8b3c d75f 8a3d
000001a0: 67b5 df3d cc5c 013d 64d0 c3bc b1f6 853d
000001b0: c071 e43b 0cca 123d 12ce 4cbb 3140 eb3d
000001c0: 5d71 64bd ec9a 1fbe 040f 663c 9e04 37bd
000001d0: 9950 e53b 4a10 5f3d e7f4 013e f7bf 4a3d
000001e0: d216 b43d 0d3e c4bb 29d6 ea3c 3a92 623d
000001f0: a5a7 923d 9755 003d 7cc8 8abd 5f26 3abd
00000200: ecf7 39bd 96ab 04be 8d2a 25bc 3b86 6fbc
00000210: 931a 0dbe 0f9c 07be 5808 d63b 096d 8c3c
00000220: 1b29 c63d 7fe0 8ebc 468f 27bd 2d13 cc3d
00000230: 187c 153d 68a1 58be cba1 7b3c 2609 ffba
00000240: d9a5 8f3d 98fa 0c3e 87ee 3d3d a997 153e
00000250: 7445 633e dc9f ca3c cbe2 683d ffc6 923d
00000260: 3092 023e c6dd bf3d 19de 863d bdea 6c3d
00000270: 38b8 2c3c 908f cc3d be7e 503d 2844 f0bc
00000280: 6424 b83d 5d19 5dbc f3bb 723d 525c a5bc
00000290: 13ca 8c3d 9e6c 163d d97b cf3d 2a58 493e
000002a0: 6005 e93c 5cd2 1bbd 9f6a d23d 0db7 713c
000002b0: 42e6 6dbd f47b 3f3c f179 0c3e b778 353e
000002c0: d8e7 143e 8ec2 d13c 6fe3 e53d 69ad 223e
000002d0: 9d11 203c 8e58 bb3d 0934 ad3b 8221 903d
000002e0: 8214 40bb 1ef8 923d 7518 d6bd d0a3 153b
000002f0: 8281 f83c 93dd 413d 0a26 203e 9c83 32ba
00000300: fde5 973c 871f f43b c134 903d 993e c43c
00000310: e702 9cbd db4c acbd f423 143d 7de9 ad3d
00000320: 20cd ee3c 9471 133b be3f 3e3d 7b99 9a3d
00000330: d5e3 823c 09b7 5cbd 72b3 cbbc 13dc 093d
00000340: cff1 0cbd 0aa7 083d c163 553d f4cd c5bc
00000350: 62b2 79bb 65cc aa3d 989a 26bd a996 033d
00000360: 1b0d b4bd 1d73 ec3d cca8 31bd bff8 14bd
00000370: e163 253e 8d13 183d 0ced 20be 607f 4d3d
00000380: 66f0 ad3d 457d e03d c826 a03d 8eef c33d
00000390: 0a36 aa3d 26c8 1e3e 230b f13d b884 d53d
000003a0: c837 663d 6771 e13d 0a53 a03c aca2 a5bd
000003b0: 414a 17bd 3f97 8bbe 6bed 183d aa9d cbbe
000003c0: 66cc 38bd dfae 53bd 183f 83bd 361c ba3d
000003d0: ef6d 65be a0b0 353d 93ef efbd c5b7 d2be
000003e0: b3ce a7bd cfe7 cbbd fe62 b1bc 66a2 ddbb
000003f0: d11c 833d 5575 b23d aa07 c83d 352f 873d
0.08916526 -0.05701088 -0.1399589 -0.14704312 -0.14368759 0.035125848 -0.35832006 -0.00903085
0.030944366 -0.035138793 -0.046832945 -0.057579648 -0.028412519 -0.069517456 -0.09168543 0.024620667
-0.056993518 -0.12676093 0.10166468 -0.092070624 0.001310019 0.1343771 0.1286315 0.21698445
-0.05147684 -0.100260235 0.007216782 0.012797725 0.1955072 0.1459282 0.07636283 0.25374097
0.19098127 -0.12154622 -0.005414953 0.089403935 0.03215196 -0.04796686 0.07267488 0.033696234
-0.21825832 -0.073401846 0.0076803775 -0.10231938 -0.0020589817 -0.076750346 -0.09091202 0.010014213
-0.0692783 -0.18728355 -0.08060862 -0.029294917 -0.013857639 0.05194552 -0.04623979 -0.03725277
-0.06084303 -0.02762764 -0.03870419 -0.1293697 -0.0048388643 -0.13821606 -0.035730436 0.10785713
0.07834383 0.10907478 0.09542614 0.10346338 0.16160132 0.0485497 0.11640072 0.13021816
0.11207025 0.15794174 -0.06250551 0.08237224 -0.1017939 -0.00967394 0.08109625 -0.060142253
-0.069079764 0.05160481 0.10355505 0.03258939 0.05372876 0.122897126 0.07088247 -0.015693199
0.067157425 0.038950037 0.011798471 -0.07062383 0.019417465 0.03624521 -0.12252779 -0.046307076
0.007104337 -0.12327456 0.0482093 0.22357643 0.004615209 0.17303109 0.017033942 0.06756561
0.109232716 0.03158264 -0.02390308 0.06541193 0.006971568 0.03583722 -0.0031250757 0.11486853
-0.055772174 -0.15586442 0.014041666 -0.044682138 0.0069981334 0.054458894 0.12691079 0.04949948
0.08793415 -0.0059888423 0.028666573 0.055315234 0.07160882 0.031331625 -0.067765206 -0.04544675
-0.045402452 -0.1295608 -0.010080946 -0.014619405 -0.13779669 -0.13243125 0.0065317564 0.017141836
0.09675809 -0.017441032 -0.04090812 0.09964595 0.0364953 -0.21155322 0.015358399 -0.0019457683
0.07014055 0.13767469 0.046370056 0.14608635 0.22194463 0.02473443 0.05685691 0.07166862
0.12751079 0.09368472 0.065853305 0.05784105 0.010541968 0.0998832 0.05090212 -0.029329374
0.08991316 -0.013494817 0.059261274 -0.020185623 0.0687448 0.03672468 0.10131044 0.19662538
0.028444946 -0.03804241 0.102742426 0.014753115 -0.05808092 0.011687268 0.13718392 0.1772183
0.14541566 0.025605466 0.1122502 0.15886463 0.009769824 0.0914775 0.005285744 0.07037641
-0.0029309099 0.07176231 -0.104538836 0.0022833236 0.030335192 0.04733045 0.15639511 -0.00068097725
0.018542284 0.0074500474 0.07041312 0.02395563 -0.07617741 -0.084130965 0.0361671 0.084918
0.029150546 0.0022498118 0.046447508 0.07548805 0.01597778 -0.053885493 -0.02486584 0.033657145
-0.034410294 0.033362426 0.052097086 -0.024146058 -0.003810071 0.083397664 -0.040674776 0.032126103
-0.08791562 0.115453936 -0.043373868 -0.036370035 0.16151382 0.03712802 -0.15715426 0.050170302
0.08493118 0.10961393 0.07819897 0.09567176 0.083110884 0.15506038 0.11769702 0.10425705
0.05620554 0.11007958 0.019570846 -0.08087668 -0.03693605 -0.2726383 0.037335794 -0.39768726
-0.045116805 -0.051680442 -0.064085186 0.09087412 -0.22405218 0.044357896 -0.11715617 -0.4115583
-0.081937216 -0.09956323 -0.021653648 -0.006763744 0.06401981 0.087137856 0.09767087 0.06600801

local_map_cnn.2.bias f4 [32]
00000000: bfbc 38bc 6ce7 0f3d 70c1 acbc 060c c1bc
00000010: 3da7 7fbd d4e1 29be 0884 71bc dd77 273d
00000020: b8fd 44bd d63a a7bd 162f f6bd d1eb a5bd
00000030: 7652 34be bc64 143d ca18 e13c 26f9 9b3d
00000040: c931 48be 0343 5e3c 58b8 4fbd cdd4 fabc
00000050: 7536 79bd c99c 8abc 0451 b63b 3390 6fbd
00000060: ae1e 5c3d b21f b83d bf35 e8bd ae3f 05be
00000070: 801e ce3c 1345 f2bd 5672 e4bd de17 4dbe
-0.011275469 0.03513281 -0.021088332 -0.023565304 -0.06241535 -0.16590053 -0.014740951 0.040885795
-0.048093528 -0.08165519 -0.120207 -0.08101619 -0.17609581 0.03622888 0.02747764 0.07615881
-0.19550242 0.0135657815 -0.050712913 -0.03061905 -0.06084295 -0.016920464 0.005563857 -0.05848713
0.053740196 0.089904204 -0.11338376 -0.13012573 0.025161028 -0.11829581 -0.1115462 -0.20028636

local_map_cnn.4.weight f4 [32, 32, 3, 3]
00000000: 5424 e1bc f3e3 1ebe 2c9c f03c f689 aa3d
00000010: 0cc0 0e3d c082 c63c 445d 14be b269 61be
00000020: 3e67 04be e347 383e 5974 45bd 43e8 cd3c
00000030: 28a8 823d c89f d2be 460e 67be 21ae a8bd
00000040: 89f3 823e 3843 533d 9e0c b8bd ec44 20be
00000050: f014 f13c ec6a 17bc edbb 18be 9dff adbd
00000060: eb3d d13d c076 83be 0235 25bc 9e38 47bd
00000070: 4c05 e6bd b986 b33d d63a b5bd 1ea7 e0be
00000080: ae85 743c ea0e 65bd de08 04be 5984 f0bc
00000090: 53bc 463c b2df ea3c 7761 873d 0442 423d
000000a0: 040a e9bc 5b0a 6fbd b7b4 a63d 70eb aabd
000000b0: 1c1f c33d 62ef 56bd ec49 a23d 3131 903d
000000c0: cffa 0cbe d956 14be e1a5 b33b 1004 2cbd
000000d0: b0c6 07be 779d 30be 02cd 4b3d 06d3 023e
000000e0: 76d1 39bb 4bea 9c3d 83dc 8dbe b5a2 37ba
000000f0: 9843 0e3e 4e98 6b3d 4b95 043e 6e25 91bd
00000100: aad3 c43b 4761 f2bc 50f2 b2bd da40 d3bc
00000110: 626d 2b3e 35b8 32bd b511 1bbe 7302 90be
00000120: 1cc9 bfbd 8ba3 273e ffeb 93bd d8d7 4f3c
00000130: e25c 933e 86ff 67bc 1e70 d83c 2924 c2be
00000140: 9e13 983c 2a32 afbe 18a4 023e 18e9 263b
00000150: a01f 9fbc 45d5 b2bd ce67 6abe 8ef4 123d
00000160: 1ec3 4dbe f4e1 883d 3363 11bb 8633 383d
00000170: 125f 393e d34c a8bc c0a6 e9bd 25ed 503d
00000180: e205 023e 0405 78bd a48b 3f3d db3a bf3d
00000190: 284b 86bd effa b83d 3d62 46bd b29c 14be
000001a0: 6ce7 74bc 47e3 c8bd c48c e6bc 09d0 fbbc
000001b0: 44bb 1f3c d7ad ccbc f75a a23d b475 113e
000001c0: a946 0fbe 595f 24bd 0b16 62bd 58d3 2bbe
000001d0: ea16 3f3e 6970 0b3e 9a98 b93d dc9e 703d
000001e0: aa1f d23d 7914 01be 0ad7 c4bc 0842 613c
000001f0: 8d92 59bd 0a25 06be 7312 31bd cfcf dcbd
00000200: f4ef 163d 3cae 513d 61d6 78bd 250d 8ebd
00000210: 4eaf dcbc 82a5 9ebe 7e1b 06be 06b8 193d
00000220: 8062 20be 6099 8e3d 2a02 0c3d 30e1 9bbe
00000230: 19d9 c2bd 5e11 74bd 45c5 cfbe 7751 e5bd
00000240: e88b 43bd af9f 1ebc dad2 2b3e 17d3 0dbd
00000250: 312c 22be 8bfc 913c aab0 b53c 262a ab3c
00000260: 8cff b73c f629 053e d274 95bd b3ea a2bd
00000270: 83c5 ccbb 0ff1 0cbe b511 82bd 04f3 b5bd
00000280: 2c15 0f3e 6939 a63d aa64 ba3d 63f6 cabd
00000290: 7657 013c e1f5 95bd c63b a6bd b63f 30be
000002a0: b908 603d 2bc9 403d 7436 063d a165 eabc
000002b0: f92f 963d 6356 833e 16d3 fc3c 1ef2 9fbe
000002c0: d270 96bc 5413 2fbd 6fcc 903d bf78 d73d
000002d0: f43b 39be 4a04 b63d 1341 a13d a9f7 b5bd
000002e0: 45ff a13d acec e1bd f689 b53c 0aea 37be
000002f0: 61b1 da3d 257f ac3c 7743 e6bc cb03 043e
00000300: 88e4 8e3d 4056 75be 6bfb 3f3c ca37 f93d
00000310: 4dd3 9bbd 71be 183e 26a0 20bd a024 dcbc
00000320: ecb2 45bd 0d20 3abc d1b1 103e 1f0b 6fbb
00000330: cfc2 e23d 1ea1 b53d 6747 0abe 1b5b f43d
00000340: 2563 70bd 386b 193e 3e69 b63b 4a76 cebe
00000350: eac6 1bbd dd9e 823c 19c7 7b3c 4f3f 5fbd
00000360: 94b4 e7bd 66d1 0f3e f839 58be 7e85 ffbc
00000370: 7e00 b1bd 85b4 ec3d fe4f 023e 9ccc 963d
00000380: ed47 563d 31fc 0fbd abb0 a9bb e436 95bd
00000390: 63a5 033e 8467 033e 438f 1e3d 75bb c03d
000003a0: 98ed 113e 215d 163e 9ef8 21bd 07bf 953c
000003b0: 19dc 753d d117 dabb 0c16 23be c8c6 023d
000003c0: 6e1a c33c 965c 4ebe 25de b13d d2ec 843d
000003d0: 2393 aa3d db0f 8d3d 395e 04bd b9cf bdbd
000003e0: 5df2 143c 4fbf 3a3d f7cd 97bd 6c58 913d
000003f0: 8c01 c7bc 3132 85bc 0fbb a53c dd8e 9f3b
-0.027483143 -0.15516643 0.029371344 0.08327095 0.03485112 0.024232268 -0.14488703 -0.22012976
-0.12930009 0.17996173 -0.04820666 0.025135165 0.063797295 -0.41137528 -0.22564039 -0.082363375
0.25576428 0.051577777 -0.089867815 -0.15651292 0.02942893 -0.009241801 -0.14915438 -0.0849602
0.10216888 -0.25676537 -0.010083439 -0.04863798 -0.11231479 0.08765931 -0.08849113 -0.438775
0.01492445 -0.055922426 -0.12894008 -0.029359983 0.012129861 0.02867112 0.06610387 0.04742624
-0.028447159 -0.058359485 0.08139937 -0.083456874 0.09527418 -0.052474387 0.07924256 0.070406325
-0.13767551 -0.14486255 0.005482421 -0.04199606 -0.13259387 -0.17247568 0.049756058 0.12775812
-0.0028353608 0.07661875 -0.277073 -0.0007005141 0.13892972 0.057518296 0.12947576 -0.07087217
0.0060066776 -0.029587401 -0.08737624 -0.02578776 0.16740945 -0.043632705 -0.15143473 -0.2812687
-0.093645304 0.1637098 -0.07222747 0.0126857385 0.287818 -0.014160043 0.02642065 -0.37918213
0.018564042 -0.3421796 0.1275791 0.0025468525 -0.01942426 -0.08732084 -0.22891161 0.035877757
-0.20093963 0.06683722 -0.0022184371 0.04497101 0.18102673 -0.020544445 -0.11408758 0.05100741
0.12697557 -0.06055166 0.04676403 0.09337398 -0.06557304 0.09032237 -0.04843353 -0.145129
-0.014947753 -0.09808975 -0.028143294 -0.030738847 0.009749237 -0.024985237 0.079275064 0.14205056
-0.13991798 -0.040129993 -0.055196803 -0.1677984 0.18661085 0.136171 0.090623096 0.05874525
0.10259946 -0.12605466 -0.02402832 0.013748653 -0.053118277 -0.13100067 -0.043230485 -0.10781824
0.03684993 0.051191553 -0.060751323 -0.06936101 -0.02693906 -0.30985647 -0.13096425 0.037529014
-0.15662575 0.06962848 0.03418175 -0.30445242 -0.09514064 -0.059586875 -0.40580192 -0.11197179
-0.047740847 -0.009681626 0.16779652 -0.03462514 -0.1583717 0.017820617 0.022178967 0.020894121
0.022460721 0.13004288 -0.07297672 -0.079549216 -0.006249131 -0.13763832 -0.063510336 -0.08884242
0.1397292 0.08116419 0.091012314 -0.09910276 0.0078943875 -0.07322288 -0.0811687 -0.17211804
0.05469582 0.04706685 0.032766774 -0.028612914 0.07333369 0.25651845 0.030862372 -0.31239408
-0.018364344 -0.042743042 0.070702426 0.10521077 -0.18089277 0.08887537 0.0787374 -0.08885128
0.07910017 -0.1103147 0.022160511 -0.17960373 0.106783636 0.021056721 -0.028108342 0.12892072
0.069771826 -0.23958683 0.011717658 0.12168844 -0.07608662 0.14916398 -0.03921523 -0.026872933
-0.048266336 -0.011360181 0.14130332 -0.0036475135 0.11072313 0.08868621 -0.135038 0.119314395
-0.0586883 0.14982307 0.005566745 -0.40324622 -0.038031496 0.015944893 0.015367293 -0.054503735
-0.113137394 0.14044723 -0.21115863 -0.031191584 -0.08642672 0.11557869 0.12725827 0.07363245
0.052314688 -0.035152618 -0.005178531 -0.0728586 0.12856059 0.12832457 0.038710844 0.094107546
0.14250791 0.14683963 -0.03954374 0.018279565 0.060024355 -0.006655671 -0.15926379 0.031927854
0.023816314 -0.20152506 0.08684949 0.064904824 0.08328845 0.0688779 -0.03231642 -0.092681356
0.009090987 0.045592602 -0.074123316 0.07096943 -0.02429273 -0.016259285 0.020230798 0.0048693256

local_map_cnn.4.bias f4 [32]
00000000: 9f53 513d c23e 11bc d5b1 1ebe bd2a 9bbe
00000010: 5ce6 f63c 5438 e3bc a156 ba3c 9c44 dabd
00000020: b63a 033e 9d41 623d b762 c93d 6c1d bebd
00000030: a27b cf3d 5381 133e ded4 0bbe 9c82 473e
00000040: 8453 49be 46c7 9c3d 0cf3 ed3d bb9c d5bd
00000050: 2f11 04be 9ba4 a2bc f23e 583d 321e 43bd
00000060: 84c2 90bd 1466 e03d 01ce 04be b40b b53b
00000070: 96bd b63c 0332 ab3d f9e7 893c 10fa 7a3c
0.051105138 -0.00886506 -0.15497525 -0.30306044 0.03013914 -0.02773682 0.022746386 -0.106576174
0.12815365 0.055238355 0.098332815 -0.092829555 0.10131003 0.14404802 -0.13655421 0.19483417
-0.19660765 0.07655196 0.11618623 -0.104302846 -0.1289718 -0.01985388 0.052794404 -0.04763622
-0.07068351 0.1095697 -0.12969209 0.0055250768 0.022307198 0.08359148 0.016834246 0.015318409

local_map_fc.weight f4 [64, 512]
00000000: 3831 aebd 7286 92bd 5319 47be a1d8 0cbe
00000010: 29b4 a53c c8f6 b7bd 90e8 edbd 8a8b 0ebd
00000020: 7202 35bb 6be3 07bd 8d62 9bbd c1ed 163d
00000030: 1536 cc3d 17ab 79bc 26c6 8b3d a61a 02be
00000040: ff20 e8bc f739 5abc 426e 30bc f4ad c13c
00000050: 897e 39bd 0fe0 fbbc 3087 2ebd b847 50bc
00000060: d29c 2bbd dcf8 403d 2181 8e3c 7db5 c4bc
00000070: b366 48bd afc6 fd3d 2fe0 d23d 7462 723d
00000080: 44ce a8bd 0d00 443d 74c5 eb3c 63bf 703b
00000090: bf45 90be ca5a 7fbd 98c3 6b3d 08ca 15be
000000a0: 3ffc 8a3b cf5f 7bbe 18be b9bb 1c13 acbd
000000b0: 3d78 e73d 6c14 8f3d 7938 0c3d 4c20 dd3d
000000c0: 5017 293d f189 b9bd c4c4 343d 9678 0d3d
000000d0: 80c9 493b 2f1c b9bc 2d3f 593d 29e1 92bd
000000e0: 195e 6ebb e9fd d13d 5c11 fa3c dedd 813d
000000f0: ebaa 513d 0b43 da3b 50e3 24bc 3e0c 31bc
00000100: 206d 3dbd 73fa f8bd 6b14 403c e11f 41be
00000110: 13f4 a8bd ebdb 6cbd f8f6 25bb 2fa1 cc3c
00000120: 1c9d fe3d bbd4 37bc aae9 d03c ee75 60be
00000130: b515 4b3c 3d32 aa3d e236 9abd 7546 e83d
00000140: 0797 fb3b 063f 3d3d 3dcf 1abe 37e8 23be
00000150: 6d69 31bd 3b0e 04be 87dc 69bc e476 163e
00000160: 40db 1ebd b760 673e 2db8 e1bd 65ef 9c3d
00000170: 5244 aabd 6053 87bd 2061 54bd ae44 a83d
00000180: 63be a3bd 7c17 c63d f658 703b 2809 d0bd
00000190: 693d dcbd b098 0abc 1e6c b5bb 2af6 803b
000001a0: 6983 bf3c e797 353e d33b 67bd 6e5f fdbd
000001b0: 6c75 86bc e154 51bd 1ccc 9abb c4ee 743d
000001c0: 3416 8a3d 9220 273d 9cbe c43c 5cdb 66bd
000001d0: 47a4 bbbd 4788 95bd 0d76 97bc 581a 863d
000001e0: ba33 a8bb 23a8 59be 5350 10be b126 f2bc
000001f0: 5806 acba 399c d73c c15d 87bc 5825 9a3d
00000200: 6353 75bd 2d03 07be a6ca a7bd aa61 4abe
00000210: fb2f 0bbe a44a 2ebd 31e0 27be ebe3 953d
00000220: 15a3 2dbd 1a9d 673c 6098 49be eb25 65bd
00000230: c5db b63d 60ca 153d 601c 0c3d 9999 87bd
00000240: 19ba 32be dca7 8b3d 0f77 75be 191f 96be
00000250: 6c05 9b3c 37d9 053c df59 0fbe 4e5f 45be
00000260: ef7e e4bc 1d88 12bd b72d 30bd cbe1 26be
00000270: 185f 31be c47e 33be 6b13 063d 5645 85bd
00000280: eb2e 6dbd ad6d f7bd 19a4 7f3d 3ecc 1e3d
00000290: 737f 1abe d653 c6bc c9d9 c23c 9ef4 32bd
000002a0: c7d3 cabc 6260 b0bd b95f 943d 24af 7dbc
000002b0: 9839 c3bd 096f 56be fd51 683c 5471 d8bc
000002c0: 49f3 793c 9aae dbbc ebdf 82bd 9753 183d
000002d0: f061 88bd 59b3 aebd b0bf 02bd 5cb6 2e3c
000002e0: 5d6f eabd 1836 3fbe 4964 d5bd 18b8 163d
000002f0: d20f c43c 0ea7 853d a8c8 5b3d f554 ff3d
00000300: 5839 8cbd a6fa 1fbe 8986 3cbe d00e 7abe
00000310: 76a0 9fbd ed34 91bd 333b e3bc dfda 1cbe
00000320: 964c 83bb 35c5 343d 7744 373d 4cdc 45bd
00000330: d849 8b3d 45fd 8e3d e9ae 91bd 4b6a 533d
00000340: e892 42bd abb5 26be d733 4bbc c178 833d
00000350: f5ba 243d a0d1 25be 2088 c63c 2aa5 593c
00000360: 633d 4c3d f200 ebbb b4c2 513b 5f2e 813d
00000370: b81f 95bc 838e aabd 8faf 163d b36d 9b3d
00000380: 5009 03bd cbf0 9e3b 470e abbc a4b1 9b3d
00000390: 83cd 013e b69d 93bc 08cf 893d d58a 713d
000003a0: 36dc 1c3d 594a 5abd f247 833d cf17 1fbc
000003b0: c84b 60bc c628 8bbd c253 843d 5df8 98bd
000003c0: ec53 c9bd e88f 22bd 2cbc 2ebe e278 563d
000003d0: 2456 efbd 02f2 adbd b11e 37be bee9 e53c
000003e0: 71ab bdbd 29f6 55be a556 1cbc 1778 b5bc
000003f0: 10eb a63c c537 43bc 8a6c 38bc a3c7 cabd
-0.085054815 -0.0715455 -0.19443254 -0.13754512 0.020227509 -0.08982617 -0.116166234 -0.034801044
-0.0027619866 -0.033175867 -0.075871564 0.036847834 0.09971253 -0.015238545 0.06824903 -0.12705478
-0.028336046 -0.013319484 -0.010768475 0.023642518 -0.04528669 -0.030746488 -0.042609394 -0.012712412
-0.041897602 0.04711233 0.017395558 -0.024012322 -0.048926067 0.123914115 0.10296666 0.059175923
-0.08242467 0.04785161 0.028780676 0.003673517 -0.28178212 -0.062342443 0.05755958 -0.1462785
0.004241496 -0.24548267 -0.005668413 -0.08402082 0.113022305 0.06986317 0.034233544 0.10797176
0.041282 -0.09059513 0.044132963 0.034538828 0.003079027 -0.022596447 0.053038765 -0.07171852
-0.0036372005 0.10253508 0.030525856 0.06341146 0.05118839 0.006660824 -0.010063961 -0.010806141
-0.046246648 -0.121571444 0.011723618 -0.18859817 -0.082496785 -0.057826918 -0.0025324207 0.024979202
0.1243231 -0.0112201525 0.025502045 -0.21919987 0.012395312 0.083103634 -0.07529999 0.113415636
0.007677916 0.046202682 -0.15118118 -0.16006552 -0.043313432 -0.12896053 -0.014273769 0.1469379
-0.03878331 0.22595488 -0.11021457 0.076628484 -0.08313812 -0.066076994 -0.051850438 0.082162246
-0.07995298 0.09672448 0.0036674119 -0.101579964 -0.107539006 -0.008459255 -0.00553657 0.003935595
0.023378091 0.17733727 -0.056453537 -0.123717174 -0.016413413 -0.051106337 -0.0047240388 0.059798017
0.06742516 0.040802546 0.02401667 -0.05636154 -0.09162193 -0.073013835 -0.018488908 0.065479934
-0.0051331194 -0.21255545 -0.14093141 -0.029559465 -0.0013124449 0.02631961 -0.016524198 0.07526654
-0.059893977 -0.13184805 -0.08192949 -0.19763818 -0.13592522 -0.04255165 -0.16394116 0.073188625
-0.042391855 0.014136577 -0.19687033 -0.055944365 0.089286365 0.036569953 0.034206748 -0.06621093
-0.17453803 0.06819126 -0.23971198 -0.293206 0.018923484 0.008169464 -0.13999127 -0.19274637
-0.027892558 -0.03577434 -0.043012347 -0.1629707 -0.17321432 -0.17528826 0.032733362 -0.065073654
-0.057906073 -0.12081466 0.062412355 0.038769 -0.1508768 -0.024209898 0.023785489 -0.043690316
-0.024759186 -0.086121336 0.0724482 -0.015483651 -0.095324695 -0.20940794 0.014179704 -0.026421227
0.015255758 -0.026816655 -0.06390365 0.037189092 -0.06659305 -0.085303016 -0.03192109 0.010663595
-0.11447022 -0.18672979 -0.104195185 0.03679666 0.023933325 0.06526004 0.053658158 0.12467376
-0.06846875 -0.15622959 -0.18410696 -0.24419713 -0.07794277 -0.07090173 -0.02773819 -0.15317868
-0.0040069325 0.044133384 0.044743028 -0.048305795 0.06801194 0.06981901 -0.071134396 0.05161504
-0.047503382 -0.16280238 -0.012402496 0.06419516 0.04021736 -0.16193247 0.024234831 0.013284007
0.04986323 -0.0071717435 0.0032006921 0.06307673 -0.018203601 -0.08327963 0.03678852 0.07589283
-0.031991303 0.004850482 -0.020880831 0.07602242 0.12676053 -0.018019538 0.06728941 0.05897029
0.038295947 -0.05329356 0.06410207 -0.009710266 -0.013689943 -0.06794886 0.06461288 -0.074692465
-0.0983046 -0.03968802 -0.1706397 0.052361377 -0.11686352 -0.08493425 -0.17882802 0.028065559
-0.092612155 -0.20894684 -0.009542142 -0.02215199 0.020375758 -0.011915152 -0.0112563465 -0.09901359

local_map_fc.bias f4 [64]
00000000: 1190 57bd ae1e e0bd cafc c73c 7f1f 8bbd
00000010: 288e 75bd 6f5d c3bd 9a25 b8bd fd3b ca3d
00000020: 41e6 9bbc 0741 7dbd 9957 4fbd cc34 15bd
00000030: d28a 063e 05ad cabc db3b 08bd 8126 bb3d
00000040: 221b 283d d176 4d3b e3a2 2ebd aa51 573c
00000050: ea54 c6bd ffc8 f7bd 1c00 273d cfbb a13d
00000060: 2433 37bd 0567 7abd 4137 5b3d 17a6 83bd
00000070: 9d6f 693d 22d1 6e3d c4d4 bbbb e200 f9bd
00000080: 1ba3 3b3d b1dd d23b 6c87 d6bc 81b0 e7bc
00000090: f402 53bd 42fc f93d ab00 113e 7cc3 893b
000000a0: 4a8e a0bd da31 81bd 19fa ef3c 94a3 d43d
000000b0: 42ac c53d 7dc7 b73d ce4b 72bd 806c 1fbc
000000c0: 7f60 45bd d25f 9fbc b27d c5bd 37cd 74bd
000000d0: cb5d 033d a691 cabd 2c05 52bd 4497 b13d
000000e0: ce95 9fbc 4ebc 51be 35ec 91bb 1848 6ebd
000000f0: 1481 f2bc e9d2 b53d 9b16 853d bcb8 9b3d
-0.052627627 -0.10943352 0.024412531 -0.06793117 -0.059950024 -0.095393054 -0.08991547 0.09874723
-0.019030692 -0.061829593 -0.05062065 -0.036427304 0.13138893 -0.024740705 -0.033260208 0.091382034
0.0410415 0.0031351338 -0.04263581 0.013142029 -0.09684165 -0.12098884 0.04077159 0.0789715
-0.044726506 -0.061133403 0.05351949 -0.064281635 0.05699121 0.058304913 -0.0057321507 -0.121583715
0.045809846 0.006435119 -0.026187621 -0.028282406 -0.05151649 0.122063175 0.14160411 0.0042042118
-0.078396395 -0.063083366 0.02929406 0.103827626 0.09651996 0.08973596 -0.059154324 -0.009730458
-0.04818773 -0.01945487 -0.09643115 -0.05976602 0.03207187 -0.098910615 -0.051274464 0.0867143
-0.019480612 -0.20481989 -0.004453207 -0.058174223 -0.029602565 0.088781185 0.06498452 0.07603595

self_entity_fc1.weight f4 [32, 26]
00000000: f9b6 853e c2d5 dc3c 01ab b33b ce58 b23c
00000010: d25f 07bd 1da4 1d3e 0202 b7bc 94b6 d4be
00000020: acac 9dbc 4d8a f6bd 52f2 09be f52c 02bf
00000030: 71f3 2d3e 3172 2abe 224a 573e 28f7 153e
00000040: a421 52be eb2c a7bd cd01 963d d436 113c
00000050: 5ac4 9fbd f509 a33e a66e 0dbe a919 3d3e
00000060: 1ac9 25bb 0172 563d a2f0 b4be 0668 cabd
00000070: d9d4 5d3c e869 353e 6cd6 293e f9c8 1bbe
00000080: c85c b23d be6d a7be 3360 afbd 994d aebd
00000090: 4dd1 fbbd aaca a23c e90c ca3c d4f6 6e3d
000000a0: 35d4 4f3e 5a8d 043e 9138 f13d 574a b93b
000000b0: bf8f 81bd f98b 98bc 8957 90bd f386 ab3d
000000c0: 8bb8 3bbd a72b 85bc 732b b43d 1e22 413e
000000d0: 2279 adbb 281b 94bd 8a19 8f3d 96ab 08be
000000e0: aee3 fd3d 01e8 f6be 14a2 73be 1f30 b53d
000000f0: 6d40 fb3d f627 81bd f58b d2be 363e 49bd
00000100: 8949 90bd af31 973d da0d 8c3d 34fc 643e
00000110: 31d3 053d 7d21 bc3d 93c7 dc3b a151 0f3e
00000120: 49bc 7f3d 0244 e33d 9c1d 383e 0a61 ddbd
00000130: bdc6 23bd b0bf 08be fcb0 d1bd 2afd 04bd
00000140: 488e 003e c730 99bd 742d b6bd 3b61 f83d
00000150: 8d46 df3d 5092 fabc b489 433f bfa9 973e
00000160: dc2e bb3d 5780 9abd d082 ef3c 8d0c 853e
00000170: 76c2 42bc 6087 20be c26a 4c3e 78a0 6d3e
00000180: d67b dabd 913e eabc 80a0 8d3e 27da 83bd
00000190: 3900 1dbe ac78 1c3d 3550 e1bd 25e6 083e
000001a0: 89fc 2dbe 0560 123d 1319 69bc 711b 21be
000001b0: 5140 0a3e bdf3 583d 6a92 d23c c2f6 52be
000001c0: 41c4 5d3d 5395 133e ae6f d83e 0581 653e
000001d0: 17a2 1c3e a3f5 d93d 09e4 3abe 44c5 643d
000001e0: 165c 523e 7243 be3e 5f10 f5bd b6fe 1abd
000001f0: 4e9c 323d 0ee0 aebd 8862 72bd 24b3 bebc
00000200: 539f e8bd 887a d3bd 91da 9a3d 3b17 f83d
00000210: 0382 523e 755b 533d 7e8e 313d 6d96 b7bd
00000220: 4aee 143e 1aa7 e6be 8c89 5c3e 777d 453c
00000230: 6972 2a3d 98ef a53e e957 1f3e 6dab 023e
00000240: 2e13 663c 8f50 5ebe 83bf 8b3d 67b6 7ebc
00000250: 5a72 2abe 7b69 40be 924b 33be 6ae0 1fbe
00000260: 9ec2 01be bcb7 3abe 9f0a 7b3d 5ef8 c53d
00000270: 7045 43bd b298 07be 5291 9dbb c8ae 0d3e
00000280: 834a cf3d 8c77 a1bd 3e5e 90bd f727 a1be
00000290: 75a4 9e3d bc6a 87bc 869e acbe df91 883d
000002a0: f884 4ebf caef ab3d 2e7d cc3d b564 6f3d
000002b0: dac5 89be 0fbf 00be edec 873d 9478 943c
000002c0: b706 fe3b 0b42 513e 484e 033e 495e bcbd
000002d0: 5795 f53b ceaf 00be 960e 3e3e 4f01 283b
000002e0: de50 b5bb 2c14 1a3d 78ea 06bd a70a 16be
000002f0: f945 b53d 2a77 eaba 7ed6 13bf 3b7e 113e
00000300: ac54 18be 7eab 783e 60f5 be3d e34b e43d
00000310: 4dd1 ca3d 8f7d 803e 5a19 de3d cd9f 523e
00000320: 7921 39bd 05d6 c43d 0ec6 363d 5878 443e
00000330: 61df d43b 6f21 94bd be05 ba3d 00a6 0fbe
00000340: 179a c8bb e4ac e1bd 935a 293c 4cef 9d3d
00000350: 42e1 fdbc a9f9 eabd 342c 213d cd6b eb3e
00000360: 3a91 313d 368f 713d cd5c 34bf 4374 e8bd
00000370: 3409 fcbd 94ae ce3d b8e1 2c3e e3f9 023e
00000380: 0155 293e 78cb d4bd 190b 21bd 2df5 97bd
00000390: 7a65 35bd c1e5 1c3e 679a c53d 39ce 6dbd
000003a0: f0ed 0abe 58d0 08be 1b82 3bbe 2737 54be
000003b0: dc3c 2cbd fad2 be3d e200 7fbd 5a51 c6be
000003c0: 3309 d5be 1a04 0e3e af90 18be ebfe 14bd
000003d0: 4733 153e 796f 2c3e f1e2 953d fc07 9fbd
000003e0: 21ac b53d 4522 f33d a4bc 42bd c20d edbd
000003f0: d087 773d d45e a4bd 1829 f63b b6b1 8d3e
0.2611616 0.026957396 0.0054830317 0.021770861 -0.033050366 0.15394635 -0.022339825 -0.41545546
-0.019247375 -0.120380975 -0.13471344 -0.5084985 0.16987397 -0.16645123 0.21024373 0.14645064
-0.20520645 -0.08162864 0.07324562 0.00886317 -0.07801123 0.31843534 -0.1381174 0.1846682
-0.0025296868 0.052354816 -0.35339838 -0.09883122 0.013539516 0.17716181 0.16585702 -0.15213384
0.08709103 -0.32700914 -0.085632704 -0.08510894 -0.1229578 0.019872028 0.02466436 0.058340862
0.20295794 0.12944546 0.11778367 0.005654614 -0.063262455 -0.018621432 -0.07047946 0.08375349
-0.04583029 -0.016256167 0.0879735 0.18860671 -0.005293981 -0.07231742 0.06987293 -0.13346705
0.12396942 -0.4822388 -0.23792297 0.08847069 0.122681476 -0.0630645 -0.41122404 -0.049131595
-0.07045276 0.07382523 0.068385795 0.22361833 0.03267211 0.09186075 0.0067376583 0.13995983
0.062435422 0.11096956 0.17980045 -0.10809524 -0.039984453 -0.13354373 -0.10238835 -0.032468
0.12554276 -0.07480007 -0.08895388 0.1212792 0.10902128 -0.030587345 0.76381993 0.29621693
0.09139797 -0.0754401 0.029237181 0.25986138 -0.011887183 -0.15676641 0.199626 0.23205745
-0.10668151 -0.028594287 0.27661514 -0.06438094 -0.15332116 0.03820102 -0.110016264 0.13369043
-0.16990866 0.035736103 -0.01422717 -0.15733124 0.13501097 0.052966822 0.025704581 -0.20601943
0.05414224 0.14412431 0.42272705 0.22412498 0.15296207 0.106425546 -0.18251051 0.05585219
0.2054294 0.37160832 -0.11966013 -0.037840568 0.043606095 -0.08538829 -0.059175998 -0.02327878
-0.11358514 -0.10326105 0.075612195 0.12113806 0.20557408 0.051600892 0.04334878 -0.08964238
0.14544025 -0.45049363 0.21536845 0.012053839 0.041613016 0.32409358 0.15560879 0.12760706
0.014042659 -0.21710418 0.06823637 -0.015546418 -0.16645184 -0.18790238 -0.17509297 -0.15612951
-0.12671897 -0.18234152 0.061289426 0.09666513 -0.047673643 -0.13241842 -0.0048085833 0.13836205
0.10121634 -0.0788413 -0.07049225 -0.31475803 0.077462114 -0.016530387 -0.33714694 0.06668448
-0.80671644 0.083953455 0.09984814 0.05844565 -0.2690876 -0.12572883 0.06636987 0.018123902
0.0077522653 0.2043535 0.1282283 -0.09197671 0.0074946093 -0.12567064 0.18560252 0.0025635546
-0.0055333218 0.037616894 -0.03293845 -0.14652501 0.08851237 -0.0017888297 -0.57749164 0.1420831
-0.1487605 0.24284169 0.09324145 0.11147287 0.09903202 0.25095794 0.10844679 0.20568772
-0.045197938 0.096111335 0.044622473 0.19186532 0.0064963554 -0.072329395 0.090831265 -0.14028168
-0.0061218846 -0.110193044 0.010336536 0.07711658 -0.0309912 -0.114734 0.039348796 0.45980683
0.04335139 0.058974467 -0.704541 -0.113503 -0.12306443 0.10091892 0.1688298 0.12790637
0.16536333 -0.10390371 -0.039317224 -0.074198104 -0.04428623 0.15322019 0.096485905 -0.058057997
-0.13567328 -0.13360727 -0.1831135 -0.20724164 -0.042050228 0.09317584 -0.0622567 -0.3873394
-0.4160858 0.13868752 -0.14898942 -0.03637592 0.14570342 0.16839398 0.07318676 -0.07765195
0.088707216 0.11871771 -0.047543183 -0.1157489 0.060432255 -0.080258995 0.007512223 0.27674645

self_entity_fc1.bias f4 [32]
00000000: 760d 79bc 2223 893e 1b35 1e3d 963a 6bbe
00000010: 9e1d 86bd 86f2 f6bd 7e1e 733e c061 033e
00000020: f5f2 593e 5281 1a3e 221a a13d cb84 5e3e
00000030: f531 843c baef 95bb 1cba e7bd d8ce 32bd
00000040: 7887 1c3e f5b0 1c3e 585b 6d3e d341 883d
00000050: bd52 6b3e 1d81 e23d f9b8 7d3e 9dec 81bd
00000060: a9a5 7b3e a109 e23d 8271 62be 23f0 4a3d
00000070: e1a2 b83e e5eb 023f a4b3 3abd 4145 263d
-0.015200963 0.26784617 0.038624864 -0.22971568 -0.06548618 -0.120579764 0.237421 0.12830257
0.21284087 0.15088394 0.078663126 0.21730344 0.016137103 -0.004575697 -0.113147944 -0.043654293
0.15286052 0.15301879 0.23179376 0.0665318 0.22980781 0.11059783 0.24777593 -0.063439585
0.24574913 0.11036993 -0.22113612 0.04954542 0.36061767 0.51141196 -0.045581475 0.04059339

self_entity_fc2.weight f4 [32, 32]
00000000: de51 c9bd bac4 393e b45d d33e a482 d1be
00000010: 55e9 563e fdd6 bd3d c174 0fbe 61df 573e
00000020: 3515 b3be b210 63bd 0e56 b03d b6ad 11be
00000030: 347e 4bbd b0d1 253e 3170 adbe 8036 ba3d
00000040: 455f 4b3d a9c7 c73d f8ac be3d 5c01 94bc
00000050: 347d 383c c98c 0ebc 00f5 7dbd 7a6f 683e
00000060: bd01 aa3c 1cf8 c83d 061e babe 69f8 633e
00000070: 6c46 073f fcac 0a3f 17ff 563e 29c6 03bd
00000080: 8a24 823e cc78 d73d 1c35 cdbd bcf1 c23d
00000090: 4e60 04bf 2e70 f1bd 6412 463f 55fb e2bd
000000a0: 01eb ff3e cad1 e9bc 5f6c 933e 3b3f 0b3f
000000b0: fafa 703d e4a8 1fbf af57 053e 9067 223e
000000c0: db9c 4a3e 91d4 5e3a 5d59 1d3d a19d 8bbe
000000d0: 50f2 753d c0de fd3d 2a2e 13be d3c2 20be
000000e0: 6e07 79be 8843 a43d ad3c f8bd 20a5 04be
000000f0: eae5 09bf feb7 16bf 2e60 f6bd 069b b4bd
00000100: c46f 87bd d422 bebd e183 f8be 2621 85be
00000110: 3764 5e3e 9f1a 26be 1574 d9b8 22bc 063e
00000120: 7730 68bf ee77 6abd c784 be3d 6f00 79bd
00000130: 8e6c 94bd b720 2bbf d8b4 9bbe 83f1 b93d
00000140: f1f2 113d 603e 133e fb4b 833e 424d 82be
00000150: 2f49 d83c 49d7 853c 9547 b83d dd4c 3e3e
00000160: d49d e43d 6436 293e 6163 d8be e5f0 61bd
00000170: 3bc5 c8b8 08ad b5bd bbcf d4bd 5ac5 3fbd
00000180: 5c55 253d 55c9 13be ec9a a4be 37a8 023e
00000190: f73b 1b3e 4daf 593e a6f5 eebc e1d8 d2be
000001a0: 4fa7 d0be 7dd0 6abe 1cda 13bf 209a 44bc
000001b0: c9ec 953e 5fcd fbbe 3df3 a03e b2fc 1b3e
000001c0: c584 823d a829 313e 5b21 d2be 1de4 fcbc
000001d0: 453e 1dbe c31d 29be 9646 0abe 90df d2bc
000001e0: dd6a f6bb b34c 65bd f7ba 6e3e 172d f9be
000001f0: ce9f 253e f29a de3d e6fe 98bd 1f60 413e
00000200: 6775 cc3e 6a6e 2c3e df7f c3bd b33f f2bc
00000210: 8ef1 bcbe 8b1c e9bd e436 1b3e 31ac 1cbe
00000220: db55 f53e db60 12bd 409f 683e a103 123f
00000230: ca51 183e c108 4dbf 93a8 d6bc fa6b 573e
00000240: 837a 613e 81de 673d 7c4c 87bd 6552 2f3d
00000250: d0f1 953e 51cc e93d 9d79 59bc 5e4e 1a3e
00000260: 31b9 c0be 9127 ad3d 7472 373d a20b 3b3d
00000270: 2b94 c6be c950 00bf 6108 943d 534e 23bc
00000280: bbc6 293e 74e5 993e dcb4 a03e 7c51 afbd
00000290: ee37 263e 8854 e4bc fee1 8f3d 16af b83d
000002a0: c270 473f bf8d 3ebe c832 a43e 9521 693e
000002b0: e4db 77be 1bf1 823e fd7c 3b3e 6925 183e
000002c0: aa56 523e 9dd7 0b3d 9052 4f3c 0428 263e
000002d0: e22c d63d f2c1 90bd b219 cc3d 6e37 b3bc
000002e0: 2fe9 813e 0de5 12be ba39 64be 082b b93d
000002f0: 4d19 90be 3ff7 edbe dfc4 a0bd b780 33be
00000300: 851f 50bd 9f60 3b3e cd74 e43d 785d afbe
00000310: afb0 bd3d 283b 543d fb5d b4be 5590 f13c
00000320: 97fd 85bf be53 3ebb 2947 6a3e d182 bfbd
00000330: 3fe2 43be 68c7 39bf fc1c dabc 9270 bdbd
00000340: e121 c63d 056d 733e 7947 f13d e56c 063d
00000350: 43d9 2e3e 7009 23be 7267 633e 4ef4 bc3d
00000360: bc7d ed3d e724 af3c 4852 f5be 90d9 8d3e
00000370: 11e9 d4bd 2258 bebd f6d5 03be b18c 653c
00000380: eb44 f13e ddc6 943b 4c5d c23d ad1a 91bd
00000390: a923 91bd cce0 38be 0f44 dbbe 8c43 043d
000003a0: 301e a43e 4f6a 0c3d b397 b13d 9731 073f
000003b0: 6dd4 bdbc 245f 64bf 5fee 9e3c ebaf 853d
000003c0: 5e1d 323d b01a 0abd f5b9 5a3d 7dce 9c3d
000003d0: 0a91 203e cbaa bcbd 8aa0 49bd 3474 903e
000003e0: 2b9d 99be 1f12 983d 6a33 70bd dde7 1cbd
000003f0: 3c22 d2be 1aa6 cabe bed2 a13d 84a8 553d
-0.09830068 0.18141451 0.41282427 -0.40919983 0.20987447 0.092695214 -0.14009382 0.21081306
-0.34977117 -0.055435844 0.08610164 -0.14226422 -0.049680904 0.1619327 -0.33874658 0.09092426
0.049651403 0.09754879 0.09310335 -0.018067054 0.0112603195 -0.008700558 -0.06200123 0.22698775
0.020752782 0.09812948 -0.3635103 0.2226273 0.5284183 0.54170203 0.20995747 -0.032171402
0.25418502 0.10521087 -0.100198954 0.095187634 -0.5170945 -0.11788975 0.7737181 -0.11083094
0.4998398 -0.028542418 0.28793618 0.5439336 0.0588331 -0.6236708 0.1302173 0.15859818
0.19786398 0.0008500303 0.0384153 -0.272687 0.06004554 0.12396002 -0.14373079 -0.1569932
-0.2431924 0.08020693 -0.12120948 -0.12953615 -0.53866446 -0.588745 -0.120300636 -0.08818631
-0.066131145 -0.09283987 -0.48538116 -0.26001853 0.21717916 -0.16221093 -0.00010368988 0.13157704
-0.9069895 -0.05724328 0.09302669 -0.06079143 -0.07247268 -0.66846794 -0.3041141 0.09079268
0.035632078 0.14379263 0.25643906 -0.25449568 0.026402084 0.016338008 0.08998028 0.18584009
0.11162916 0.16524655 -0.4226332 -0.055161376 -9.57348e-05 -0.08870894 -0.10391184 -0.04681907
0.04036461 -0.14432271 -0.32149446 0.12759481 0.15159594 0.21258278 -0.029169869 -0.4118109
-0.40752646 -0.22931094 -0.57754683 -0.011999637 0.29282215 -0.49180123 0.31435576 0.15233114
0.0637298 0.17301047 -0.41041073 -0.030870492 -0.15355785 -0.1651526 -0.13503489 -0.025741369
-0.0075200633 -0.05598135 0.23313509 -0.48667213 0.16174242 0.10869397 -0.07470493 0.18884324
0.3993332 0.16838995 -0.09545874 -0.02957139 -0.36903042 -0.11382397 0.15157658 -0.15300061
0.47917065 -0.0357369 0.22716999 0.5703679 0.1487495 -0.8009148 -0.02620343 0.21037284
0.22019391 0.05660868 -0.06606385 0.042803187 0.2928605 0.114159234 -0.013273624 0.15068957
-0.3764129 0.08454812 0.044786885 0.04566539 -0.38784918 -0.5012327 0.07228161 -0.009967404
0.16579716 0.3005787 0.31387985 -0.08560464 0.16232273 -0.027872339 0.070255265 0.0901777
0.7790643 -0.1860876 0.32069993 0.22766717 -0.24204975 0.25574574 0.18309398 0.14858021
0.20540872 0.03414117 0.012653962 0.16226202 0.104577795 -0.07068242 0.099658385 -0.021877017
0.25373217 -0.14345188 -0.22287646 0.09041411 -0.28144303 -0.46477696 -0.0785005 -0.1752957
-0.05081131 0.18298577 0.111550905 -0.34250998 0.09262215 0.05181423 -0.3522795 0.029487768
-1.0468014 -0.0029041613 0.22878708 -0.09351123 -0.19129275 -0.72569895 -0.026625149 -0.09249987
0.09674431 0.23772056 0.117812105 0.032818694 0.17075066 -0.15921569 0.2220743 0.09226285
0.115962476 0.021379901 -0.47914338 0.2770505 -0.103960164 -0.09294154 -0.12874588 0.014010594
0.47122893 0.004540308 0.09490451 -0.07085166 -0.0708688 -0.18054503 -0.42825362 0.03229098
0.3205428 0.03428107 0.086715125 0.52810043 -0.023172582 -0.89207673 0.019400774 0.06527694
0.043485038 -0.033716857 0.0534 0.07656572 0.15680328 -0.09212264 -0.049225368 0.28213656
-0.30002722 0.07425331 -0.058642782 -0.03830706 -0.41041744 -0.3957985 0.07901524 0.052162662

self_entity_fc2.bias f4 [32]
00000000: ed07 e23d f3b8 ac3d f022 e83b 02ec 95bd
00000010: 48cf 443e ba86 ffbc f5f8 00bd b661 863e
00000020: 8466 5fbd 337f 09be a49b 223e 1e94 9c3a
00000030: 8b53 20be 241f 2d3e 2fe5 00bd 0a1a f2bd
00000040: ae88 aabd 2aa7 10be 4b39 53bd cda8 e6bd
00000050: 35d6 243e b30d 153e 1c07 0a3d 2b01 3fbe
00000060: d66e b83d ac10 37bd 3a2b 90bd 7d42 10be
00000070: de68 e03d a013 70bd 9a98 e53d 52dc 333e
0.11036668 0.08433714 0.007084243 -0.073204055 0.19219697 -0.031192172 -0.031487424 0.26246423
-0.054541126 -0.13427429 0.15879685 0.0011945998 -0.15656869 0.1690641 -0.031468567 -0.11821373
-0.08326851 -0.14126268 -0.05156831 -0.11262665 0.16097338 0.14556007 0.033698186 -0.1865279
0.09005515 -0.044693634 -0.07039495 -0.14087863 0.10957502 -0.058612466 0.11210747 0.17564514

other_entity_fc1.weight f4 [32, 26]
00000000: 4953 d43d e6ac 3cbe 2012 d53d 51b1 02bd
00000010: c1cc a4be 89c4 0bbe 251b a1be 992a 05bf
00000020: 40cb 513d 8b94 72be 0df8 1d3e 48b0 953c
00000030: 15d3 06be 780c 4bbd 82fd 293d 579f ec3c
00000040: 621e 19be 2eed eabd 6abf 33be f021 853d
00000050: 3d4c 163d fcd0 993d 14ce e0bd 5e8b 4bbe
00000060: b822 b2bd 5e8d 203f 4742 923d 09b2 493e
00000070: 97c6 89bd 8c3f a1bd ef9e 35be ab24 233e
00000080: c503 36be 7e64 84bf 5ac5 4cbc 5c2e 423e
00000090: 6761 e63d 4650 623e 9698 1a3e 4b54 c03c
000000a0: d38c dabd 34a6 dbbd 6eed 013e 38fa 35bd
000000b0: 1045 403d 4cb2 153e ce42 abbd 7800 e83d
000000c0: 18a5 a9be 5671 8cbd 563e 4cbe 5d51 bcbe
000000d0: 9b7a 033e 9a7b 923c 4b58 f23c be92 45be
000000e0: 535e 92bd e009 92be a063 b53d f602 ae3d
000000f0: 504e ad3d 6745 833d e42a 59be 4be1 94be
00000100: 4981 c23c 1c64 12bd 3b39 123d 5b28 05bd
00000110: a637 973d 0096 1ebe 1aa7 47bd 574d 37be
00000120: c650 76be 6027 b83d b826 563e fe97 723e
00000130: 0b6f a8bd 88cb 82bd b8f0 f3ba 13b5 75bd
00000140: eeb7 24be 9dd3 0e3e 1ee4 0bbd aefe 0c3c
00000150: d6ea 86be 9173 593f 5bc4 4a3e 83b7 12be
00000160: 7bf3 04be 28ba bbbd 10f7 343e 5689 03be
00000170: b945 59be 342a b53d 48c5 c73d 3106 333d
00000180: 6bce b6bc b93f 913c eb32 213c b3da c43d
00000190: 2ee6 f5be db35 633e 1352 85bd ce6b 6dbe
000001a0: c40c 893d 0b06 0bbe 9ec9 f2bd e03f 1cbf
000001b0: 9165 2dbe c2b7 97be 3276 823d dd8a a93d
000001c0: 45c4 3abf 20c9 e6be 8746 c03c b0f6 03bd
000001d0: 29c8 283d b5b2 a8bc cd89 c93c e2ca 703e
000001e0: 3640 52bd 05e0 c23d c32e 063e dbf3 6c3e
000001f0: fd8c febd 5e8c e13d 0ebe 583e 462f 93be
00000200: a48a 8c3e 97dc d0bd 2493 e1bb 0129 263e
00000210: 240d c03d 698b c0bd 69d2 493d dd19 843e
00000220: 681e 35be a0dd 0ebf 1c80 ba3e e3c4 493e
00000230: 41ad c4bd c24f 31be 025d 78be 59ed ea3d
00000240: 0831 b4bd 91fc 233c 7783 213e 0477 fb3b
00000250: bceb 94bc f0ef f4bd b13e 2bbe ecb3 03be
00000260: 83e6 4b3e fe70 bf3c d771 293e 831d 693e
00000270: 0849 adbe 8adc 8fbc c0f3 3e3e 4928 95bd
00000280: 1d47 ba3d 3e25 0b3e 6da9 3cbe 48dd c83e
00000290: f9e2 6f3e 1f45 703d 2018 42bf 411f 32bc
000002a0: f4c2 5b3d 084f e73d 7687 223e 8807 9a3d
000002b0: d833 a83d a2b0 84bb 9eb1 4dbd c3bd 9b3d
000002c0: 599d 363d e95d 7b3e 621b 343e 03c9 edbd
000002d0: dbb0 ccbd b55b acbe 551a 093e 565c 10be
000002e0: 2e0c 813c ebb1 86bd 08bd bd3d 930f 9cbc
000002f0: 9b2b 703d 6d7e 053e 1487 c0be 5204 d7be
00000300: 8f98 c83c c73e babd d278 343d 31ee 86be
00000310: 631d 9ebd 131b d73d 089f 02be 7f0c b1bd
00000320: 088b 6e3d e725 f7bd 13cd 943c 3ab6 58be
00000330: 3ed1 70be 8622 a33d 2fd1 b7be 044a a23e
00000340: 14e9 24be 6c79 ce3c 5893 72bd ac6b 2bbd
00000350: 54bb 42bd 2718 f33d 53d3 ebbe cffb a5be
00000360: 7915 93be c6d6 29be a587 c93d a18d b4bd
00000370: 1c79 aa3d 66ca 5ebe 89ae 4dbd 7bd1 e53d
00000380: 239e f7bd f051 123e 6955 ffbc b78e fabb
00000390: fc36 76bd 19b4 33bb 0a34 3ebe 098e d6bd
000003a0: fd16 b13e 9ded 0f3e 9aa2 b1be b258 70bd
000003b0: bf18 293e b047 413d be36 b7bd ef79 94bd
000003c0: 85c5 cd3d 9cbb d3be b6fd 4bbe 5f6a 923d
000003d0: 2e46 bdbd 8035 d33c 6d09 cdbd d7dc 883d
000003e0: d236 da3c 6ac0 fa3d a165 6b3c ce04 343c
000003f0: 4ad2 033d 2abd 0fbd 1f29 c4bb 5924 533d
0.10367448 -0.1842533 0.10403848 -0.031907383 -0.32187465 -0.13649191 -0.31466022 -0.52018124
0.051219225 -0.23689477 0.15426655 0.018272534 -0.13166459 -0.049572438 0.04150153 0.028884573
-0.14952996 -0.1147102 -0.17553487 0.06500614 0.0366938 0.07510564 -0.10976806 -0.19877383
-0.08698028 0.6271571 0.07141548 0.19696821 -0.06727331 -0.07873449 -0.1773641 0.15931956
-0.17774875 -1.0343168 -0.012498224 0.18962997 0.11249047 0.22100934 0.1509727 0.023477694
-0.10671391 -0.1072506 0.12688228 -0.04442808 0.046940863 0.14618796 -0.08362351 0.113282144
-0.3313377 -0.068575546 -0.19945654 -0.36780825 0.12839739 0.017881203 0.029583117 -0.19294259
-0.07146897 -0.2852316 0.088568926 0.084966585 0.084622025 0.06409722 -0.21207768 -0.29078135
0.023743289 -0.035740003 0.03569911 -0.03250919 0.07383661 -0.15486908 -0.048743345 -0.17900597
-0.2405425 0.08991885 0.20913208 0.23690793 -0.08224305 -0.06386477 -0.0018611168 -0.05998714
-0.16085789 0.13947912 -0.034153096 0.008605642 -0.2635104 0.84941965 0.19801466 -0.14327817
-0.12983505 -0.09166366 0.17672372 -0.12845358 -0.21218003 0.0884594 0.09754425 0.043707076
-0.022315225 0.01773058 0.0098388 0.09612026 -0.48027176 0.22188513 -0.06509795 -0.23185655
0.06691888 -0.13576524 -0.11854862 -0.61034966 -0.16933276 -0.29632384 0.063702 0.08278439
-0.72955734 -0.4507532 0.02347113 -0.03221768 0.041206513 -0.020593027 0.024601841 0.23514894
-0.051330768 0.095153846 0.13103776 0.23139898 -0.12429235 0.11013101 0.2116625 -0.28747004
0.27449524 -0.10198324 -0.0068839956 0.16226579 0.093775064 -0.094015904 0.04927293 0.25800982
-0.1768738 -0.5580692 0.36425865 0.19704013 -0.09603358 -0.17315581 -0.2425423 0.11471052
-0.087984145 0.010008947 0.15772806 0.0076741 -0.018178813 -0.11959827 -0.16723134 -0.12861603
0.19912152 0.023369309 0.16547333 0.22765164 -0.3384478 -0.017561216 0.18647671 -0.072830744
0.09095595 0.13588426 -0.18424006 0.39231324 0.23426427 0.05865967 -0.7581806 -0.010871709
0.05365272 0.11294371 0.15871987 0.07520968 0.082130134 -0.0040493766 -0.050218217 0.076045536
0.044583652 0.24547543 0.1758857 -0.116106056 -0.0999467 -0.33663717 0.13388951 -0.14097723
0.015752878 -0.06576904 0.092645705 -0.019050395 0.058635335 0.13036509 -0.37603056 -0.41995484
0.024486808 -0.09094005 0.044060536 -0.263536 -0.07720449 0.10503211 -0.12755978 -0.086449616
0.05823806 -0.12067776 0.018164193 -0.21163264 -0.2351732 0.07965569 -0.35901782 0.31697094
-0.16104537 0.025204383 -0.05922255 -0.04185073 -0.04754193 0.11869841 -0.46059665 -0.32418677
-0.2872732 -0.16585836 0.09840325 -0.08816076 0.08323881 -0.21756896 -0.050215278 0.11221596
-0.12090709 0.14289069 -0.031168656 -0.0076464075 -0.06011103 -0.002742058 -0.18574539 -0.1047631
0.3458785 0.14055486 -0.34694368 -0.058678336 0.16513346 0.047187507 -0.08945988 -0.072498195
0.100474395 -0.41354072 -0.19921002 0.07149195 -0.09241901 0.025782347 -0.100115635 0.06682747
0.026637468 0.12243731 0.014367492 0.010987474 0.03218297 -0.03509251 -0.0059863473 0.051548336

other_entity_fc1.bias f4 [32]
00000000: 1de8 d3bd 7390 33be 43ab d2bd 0cfc 26ba
00000010: de2b 253c a8c5 89be 7812 8dbd b7d4 80bd
00000020: ab49 41bd 79a6 a2bb c84b abbc 7cac b4bb
00000030: cf85 ffbc 1ac5 0bbe d693 89ba 21d4 33be
00000040: c993 26bd 1a4c 383d 4714 16bd a89d 43be
00000050: 7674 debc 347a fabd 0f26 c7bc 0400 84bc
00000060: db7a 4b3c 1194 823d b7e2 71bd 7a71 8fbd
00000070: b30e 90bc 110f f0bc aee4 1c3d ab41 d8bc
-0.103470065 -0.17535572 -0.10286572 -0.00063699554 0.0100812595 -0.26908612 -0.06888288 -0.06290572
-0.047189396 -0.0049636927 -0.020910159 -0.005513726 -0.031191735 -0.13649407 -0.0010496329 -0.1756139
-0.040668283 0.04499445 -0.03664043 -0.1910311 -0.027155142 -0.1223034 -0.02431014 -0.016113289
0.012419428 0.06375898 -0.059054103 -0.07004066 -0.017585134 -0.02930406 0.038304023 -0.0263985
