my-submission/checkpoints/model_47104.pt (torch, 352797 bytes, 23 tensors)

local_map_cnn.0.weight f4 [32, 24, 3, 3]
000000 86 79 85 bd 1d 2a 18 3d 7b 84 88 3d 4c 2c ac ba
       -0.065173194 0.037149537 0.06665894 -0.001313576
000010 61 12 69 bd 2e 78 e1 3c 15 89 c0 bd b4 8d 8c bd
       -0.056902293 0.027523126 -0.09401146 -0.06862965
000020 76 d7 8c 3d 6f a2 8d 3d 95 56 51 bd 1a ab 98 bd
       0.068770334 0.069157474 -0.05110796 -0.0745451
000030 73 58 b6 3d 32 49 31 3d af 2f f9 3d 1f 0f f6 3c
       0.08903589 0.043282695 0.12167298 0.030036507
000040 cb f5 ee bb de 59 5b be eb 60 bb bc 2b a4 83 3d
       -0.0072924844 -0.21421 -0.022873363 0.06427797
000050 ba 68 93 3d 0c a9 37 3d c9 f9 d8 bd 8a a4 82 be
       0.071977094 0.04483895 -0.10594518 -0.25516158
000060 9d d9 17 bd 0e b9 e9 bb af 26 41 3d ba 0d 30 3d
       -0.037072767 -0.007132656 0.047156032 0.04298184
000070 fe f1 83 bc 79 08 a2 3d 13 b1 d9 bc 34 e6 18 bd
       -0.016106602 0.07911772 -0.026573693 -0.037328914
000080 46 c8 1f be 31 ed 28 bd a8 aa 5e bd de 4b 57 3d
       -0.15603742 -0.04124183 -0.05436197 0.052562587
000090 b3 76 31 bc 07 91 3d bd 5e 31 03 3d e5 27 fc 3c
       -0.010831523 -0.046280887 0.032029502 0.030780742
0000a0 56 a1 7a bc fb 83 38 bd a3 3f c9 bc 00 8c 9e 3c
       -0.015297255 -0.04504774 -0.024566477 0.019353867
0000b0 38 6d 8c 3d a7 3a 09 3d 76 e4 a6 3d 48 cf e0 bd
       0.06856769 0.0335032 0.08149044 -0.10977036
0000c0 55 30 b9 3b 22 ed a8 3c 51 fd fa 3d c6 09 ad bc
       0.0056515136 0.020620886 0.122553475 -0.021122824
0000d0 4e 3f 9c 3b 19 cb 01 be 75 93 80 bd 22 ec fd 3d
       0.0047682887 -0.12675132 -0.06278125 0.123985544
0000e0 5b 4b 72 3d 8c c4 0d bd ce 66 e3 bc d8 75 e3 bd
       0.059153896 -0.03461127 -0.027758982 -0.11106461
0000f0 10 d7 36 be 7f b0 87 bd 84 79 c4 3d 61 72 74 3d
       -0.17855477 -0.06625461 0.0959349 0.059679393
000100 55 ca ac bb ef 56 bf 3d 41 3e 12 3b 36 99 53 be
       -0.0052731433 0.09342753 0.0022314938 -0.20663914
000110 d9 18 90 3d 9d 59 19 bd cc a8 5e bd 4e 63 20 bd
       0.07035989 -0.037438978 -0.054360196 -0.039157204
000120 83 72 e7 bc 5e 95 1f be 09 15 34 3d 04 83 98 bd
       -0.028252846 -0.15584323 0.043965373 -0.07446864
000130 45 b2 fe bd ea c8 e7 bd 99 9b 51 bd 94 f4 f0 bd
       -0.12436346 -0.11317618 -0.05117378 -0.117653996
000140 90 2c a8 bd 45 df 2f bd a0 6c cb bb 73 e2 ef 3c
       -0.082116246 -0.042937536 -0.0062080175 0.029282784
000150 89 ca d3 3c 35 7b 91 bd 7e c5 54 be 31 c5 81 3d
       0.025853412 -0.07103578 -0.20778462 0.063364394
000160 c9 a1 d7 bd 70 5c c7 3b 75 d9 92 bd 67 4c ac 3d
       -0.10528905 0.0060840175 -0.07170383 0.0841301
000170 b2 80 02 3d 01 b4 bd bc 5d d0 1e 3b 38 1b 1b be
       0.031861015 -0.023157122 0.002423308 -0.15147102
000180 98 58 d3 bd 8c d2 85 bd 18 f4 dc 3c af 8d ae bc
       -0.10319632 -0.06534299 0.026971862 -0.021307794
000190 fb c5 16 bd 51 13 a3 3c 62 ae 29 3b b3 f5 aa bb
       -0.036809903 0.019906672 0.0025891294 -0.005217278
0001a0 27 0f 28 bd 69 40 93 3d 4a 49 0d bd bc a8 ff bc
       -0.041030075 0.0719002 -0.034493722 -0.031208389
0001b0 98 24 7b bc 9f 32 14 bb cd 48 0c 3e 13 a3 3d bd
       -0.015328549 -0.002261318 0.13699646 -0.046298098
0001c0 a5 4e 77 bb 75 8e 52 be 76 88 52 bd 13 cb 04 bd
       -0.0037736085 -0.20562156 -0.05139967 -0.03242023
0001d0 d7 49 fc bc 6c 7b 14 3d c0 9b d4 3c c3 1c 8c bd
       -0.030796928 0.036250517 0.025953174 -0.06841423
0001e0 b8 6b 92 bd 94 34 c3 3b 03 5e 2d bc ce e7 57 3d
       -0.07149452 0.0059571955 -0.010581496 0.0527113
0001f0 33 18 a3 3c e4 90 91 3d fb 30 86 bc 91 e5 a5 bd
       0.019909 0.07107714 -0.016380778 -0.08100427
000200 dc e3 d0 3c 31 80 a0 bc a1 49 1a bc af e4 03 3e
       0.025499277 -0.019592376 -0.009416969 0.12880205
000210 c2 1c 86 3b db 9b 68 bc e5 eb bc bd 44 86 8b bd
       0.0040927837 -0.014197315 -0.09224681 -0.068127185
000220 07 16 29 bd 25 e7 e6 3c 8c 63 24 3d ad 2f 20 bc
       -0.041280773 0.02818639 0.040133998 -0.009776992
000230 d3 4b bd 3c 63 cc 83 3c 00 44 98 bc 65 64 44 3e
       0.023107445 0.01608867 -0.018587112 0.19178922
000240 11 2c 63 3d 19 1c b5 3d 5b 6b 6c 3d 22 10 7f 3d
       0.055461947 0.0884325 0.05771957 0.062271245
000250 20 54 3a bd 47 c2 ae be a9 f2 01 3c a2 1f 18 bd
       -0.045490384 -0.34132597 0.00793139 -0.037139542
000260 bd c2 15 3e 05 b3 85 bd 7a e6 c4 bd 8c c9 52 bd
       0.14625068 -0.06528286 -0.096142724 -0.05146174
000270 33 0d 58 bd db ad 80 bd e9 0c 43 bc f8 69 f0 3c
       -0.052746963 -0.0628316 -0.0119049335 0.029347405
000280 89 31 5d bd 00 16 9a bd 84 64 47 3d 8b f8 8b bd
       -0.05400232 -0.075237274 0.048679844 -0.06834515
000290 26 e1 47 3e e0 8e 20 bd b8 96 a1 bc 33 a0 0c 3e
       0.19519481 -0.039198756 -0.019725189 0.13732986
0002a0 54 fd 99 3c b6 ca 1b be 28 46 78 3e 5f d7 17 3e
       0.018797554 -0.15214047 0.24245512 0.14828251
0002b0 a4 25 c8 3c c6 85 cd 3d 1e d6 5b 3e c7 8a c9 3c
       0.024432011 0.10035281 0.21468398 0.024602307
0002c0 47 15 a5 bd 21 e2 64 3e f5 89 74 3e ae a5 20 3e
       -0.08060699 0.22351886 0.23880751 0.15688202
0002d0 c8 64 8d be dc 7b 0c be f0 79 5b be 0d 31 ed bd
       -0.27615952 -0.13719124 -0.21433234 -0.11581621
0002e0 cd 1b 91 be fe 9e 6e be 8a b7 ef 39 e6 70 ce bd
       -0.28341523 -0.23302838 0.0004572238 -0.100801274
0002f0 54 e2 8a bd 9e f9 01 3f 18 63 1e 3f 7d 0b b8 3e
       -0.0678145 0.5077151 0.61869955 0.35946265
000300 b5 c3 3d 3f 4c 71 38 3f ee 77 dc 3e 80 77 91 3d
       0.7412675 0.7204788 0.4306025 0.07102871
000310 f9 ac 9c 3e 32 a5 c1 3d c5 a3 03 3f 8c d0 10 3f
       0.30600718 0.09455337 0.5142177 0.5656822
000320 e9 01 6e 3e b6 af 3c 3f 45 aa 49 3f 0a c6 10 3d
       0.23242916 0.73705614 0.78775436 0.035345115
000330 bf 36 26 3c e4 7b ee 3e 77 66 9b 3e cc 80 06 3e
       0.010144888 0.46578896 0.30351612 0.1313507
000340 ab 01 91 3d cc 44 ac 3d 79 79 b8 3d a0 36 ca 3c
       0.07080396 0.084115595 0.09007544 0.02468425
000350 b2 93 8e bd 08 fa dc 3d 33 25 15 3c a6 b3 28 bc
       -0.069617644 0.10789877 0.009103107 -0.010296738
000360 8f 9f da 3c 08 4c 4c bd 1d e1 ba 3c 4f e2 01 bd
       0.026687412 -0.049877197 0.02281242 -0.031709965
000370 8e 0b 26 3d c5 af ea 3c 7b a2 8f bd be 5a 0f 3d
       0.040538363 0.028648267 -0.070134126 0.034998648
000380 73 36 b1 bd be d9 5f 3a a8 09 65 3d 0d 68 90 38
       -0.086529635 0.0008539221 0.055917412 6.885836e-05
000390 3b 6a 27 3d 90 72 5e 3c 5e 1f 75 bb d3 57 06 3d
       0.040872794 0.0135771185 -0.003740273 0.0327986
0003a0 0e 64 c1 3d 32 25 83 3c de d7 bc bb 07 4a f2 3b
       0.09442912 0.016008947 -0.005763038 0.0073940787
0003b0 a9 36 e6 3c c0 f8 0d bd 38 8e 86 bd 34 37 16 3d
       0.028102236 -0.034661055 -0.06570095 0.03667374
0003c0 76 cc d8 bc ed ce a7 bc b6 9f 82 3c cf 88 bf 3b
       -0.026464682 -0.020484412 0.015945297 0.0058451663
0003d0 29 2f 64 ba 64 3c de 3c 85 35 8b 3c fe c0 5f 3d
       -0.0008704537 0.027128406 0.016993294 0.05462741
0003e0 42 2d 99 3d 21 88 0c 3d 86 14 83 3d 1d cc 1a 3d
       0.07479335 0.03430951 0.06400399 0.037792314
0003f0 f9 9d 5c 3c 6a ac 3d bd 21 b2 85 3c f9 5e 12 bd
       0.013465398 -0.046307005 0.01632029 -0.035735104

local_map_cnn.0.bias f4 [32]
000000 7c 63 ec bb a0 26 20 bd 2d e4 66 bc 3e 1b 5b bd
       -0.007214008 -0.039099336 -0.014092487 -0.053492777
000010 6a e7 3d 3d ad 9f 34 3b cf 32 d5 3c 60 a8 27 bd
       0.04636327 0.0027560994 0.026025204 -0.04093206
000020 d6 b6 80 3c d4 d7 ac bd b2 cd 84 3c 12 9b 0b bc
       0.015712183 -0.084396034 0.016211364 -0.008520858
000030 41 00 bf bc 4e a0 1d bd 0f 5a f8 bc 62 46 c8 bd
       -0.02331555 -0.038482957 -0.03031638 -0.097790495
000040 1d f7 e9 bc fe a6 ef 3c ab e8 33 3d 1b 63 6e 3c
       -0.028560216 0.029254433 0.04392306 0.014549996
000050 86 df 9c bd 14 b2 50 3d 1c 60 75 b8 28 84 0e bd
       -0.07659821 0.05095108 -5.850206e-05 -0.034794003
000060 16 64 3c bd 6f ba 7b bd a5 50 58 bd e4 d7 24 bc
       -0.045993887 -0.061457094 -0.052811284 -0.010061238
000070 62 29 8b 3d a7 d6 2d 3d ca d6 84 3d 90 06 4b 3c
       0.067950025 0.042441037 0.0648628 0.012391701

local_map_cnn.2.weight f4 [32, 32, 3, 3]
000000 39 61 32 3d b5 70 06 3d fb 83 42 bd 2b 4b 19 be
       0.04354975 0.03282233 -0.047489148 -0.1497008
000010 ef a0 d0 bd 88 4e a8 bc 2f 42 b1 be 08 da c1 39
       -0.10186946 -0.02054526 -0.34620807 0.00036974275
000020 6b 70 04 bc 65 92 51 bd 46 24 15 bd 4f 16 42 bd
       -0.008083443 -0.051165003 -0.036411546 -0.047384556
000030 2f 22 42 bd ed 15 86 bd 00 58 a5 bd 15 12 48 bc
       -0.04739588 -0.06547151 -0.08073425 -0.012211342
000040 67 39 9a bd 17 86 1c be 6c 0b c3 3d 68 30 07 bd
       -0.0753048 -0.15285526 0.09523663 -0.03300515
000050 b7 bf 8b 3c 5e e5 11 3e 1a 19 41 3e fd ad 39 3e
       0.01705919 0.14247653 0.18857232 0.18132778
000060 18 91 59 bc 40 70 d8 bd 47 12 0d bb 7f ab bd bb
       -0.013279222 -0.10568285 -0.0021525787 -0.005788266
000070 f1 3b 4c 3e 2a b2 4c 3e dc 5a ab 3d b9 2c 8c 3e
       0.19944741 0.19989839 0.083669394 0.2737787
000080 4a 15 39 3e 4d e3 5c bd e7 b6 71 3c 4a 78 e2 3d
       0.18074527 -0.05392771 0.01475308 0.110580996
000090 b3 8d 3e 3c aa be 14 bd 33 5f d2 3d f5 27 79 3c
       0.011630463 -0.036314644 0.10272064 0.01520728
0000a0 a2 46 49 be 4a b1 ce bd ca d0 fc b9 52 04 c0 bd
       -0.1965585 -0.10092409 -0.00048220746 -0.09375824
0000b0 e8 93 30 3c 9f 27 95 bd 1b de b6 bd c1 60 8d bc
       0.010777451 -0.07282948 -0.08929082 -0.01725805
0000c0 c1 b1 d5 bd 18 cd 50 be 46 83 dc bd 1c 04 58 bd
       -0.104342945 -0.20390737 -0.10767226 -0.052738294
0000d0 86 87 5d bd c4 81 bc bc 7b dd db bc 5d 58 1e bc
       -0.054084323 -0.023011096 -0.026839009 -0.009664622
0000e0 40 75 e7 bd 22 54 4a bd b4 25 94 bd 34 4c f8 bd
       -0.113016605 -0.04939664 -0.07233754 -0.121239096
0000f0 a8 ae 6c 3b 5e fb 2a be f4 09 6a bd 8a 60 b9 3d
       0.0036114845 -0.16697451 -0.0571384 0.090516165
000100 01 59 bf 3d fa 5e ce 3d ca 0e ae 3d 42 67 85 3d
       0.09343148 0.10076709 0.084989145 0.065138355
000110 0f d2 03 3e c3 82 e2 3c 3d f6 f4 3d 29 7e ac 3d
       0.128731 0.027650243 0.11961029 0.08422501
000120 15 e0 8f 3d f2 01 15 3e 6a 17 08 bd 87 04 0d 3e
       0.07025162 0.14551523 -0.033225454 0.13771258
000130 91 ad 94 bd 7b 25 22 bd b4 a7 7a bb fd 52 93 3c
       -0.07259668 -0.039586525 -0.0038246932 0.017983908
000140 85 98 b4 bc 13 48 39 3d a5 10 00 3e 09 41 9f 3d
       -0.022045383 0.04523475 0.1250635 0.07776076
000150 db 6d 2f 3d 43 71 04 3e 7b 95 c6 3d 87 82 56 3c
       0.042829376 0.12933831 0.0969648 0.013092644
000160 68 9d 7e 3d 9c 15 47 3d 8b 72 ae bb 53 47 86 bd
       0.062161833 0.048604593 -0.005323713 -0.06556573
000170 27 d5 24 bc 84 07 70 3d 21 95 cb bd 55 b9 99 bd
       -0.010060585 0.058600917 -0.099405535 -0.075060524
000180 3b 12 2a 3d 61 37 e5 bd 70 f0 c8 3c a2 c9 0c 3e
       0.041521292 -0.11192203 0.024528712 0.13748792
000190 43 00 5c 3b ce 72 fc 3d 4b a8 8c 3b 8c 8d b4 3d
       0.0033569492 0.12326585 0.004292523 0.088160604
0001a0 e9 78 02 3e 10 b9 bd 3d 0b 53 88 bd 79 25 d7 3d
       0.12741436 0.092638135 -0.06656464 0.10505194
0001b0 19 5e 23 bc 0c 41 08 3d 69 ec a7 bd b4 f2 5d 3d
       -0.009971165 0.03326516 -0.081993885 0.054186538
0001c0 a0 bf 9c bd 90 f1 1c be 3c 38 a3 3d 02 b8 bb bd
       -0.07653737 -0.15326524 0.0796971 -0.09165956
0001d0 44 59 1e bd b6 61 18 3d ca e4 e2 3d ec 8e 4c 3d
       -0.03865935 0.03720256 0.11078794 0.04994099
0001e0 fe 69 9b 3d dc 40 85 bc a7 0f 1c 3d 9e 87 5e 3d
       0.07588576 -0.016266279 0.038100865 0.054328553
0001f0 1b e0 57 3d 4a 21 5d 3a da 6e 26 bd e5 68 f9 3b
       0.052703958 0.00084354414 -0.04063306 0.0076113814
000200 22 1e b1 bc 14 d5 2a bd bd 63 ac 3d f8 0b 6e 3d
       -0.021620814 -0.041707113 0.08417461 0.058116883
000210 4b fa 24 bd f8 ab 57 bd e8 7c 01 3c 28 3c 9f 3b
       -0.04027776 -0.052654237 0.007903315 0.004859466
000220 bf 0a 06 3e fd d7 89 3d 47 e4 b9 b8 fe 93 1f 3e
       0.13090037 0.067306496 -8.8640074e-05 0.15583798
000230 1c 90 c7 3d 1c 59 f7 bd 81 b7 a2 3d 4d 65 05 3d
       0.097442836 -0.12077543 0.07945157 0.03256731
000240 ab 86 8b 3d 73 2f d3 3d 63 9a 82 3d 5a bd 23 3e
       0.06812795 0.103117846 0.06377103 0.159902
000250 83 39 5c 3e 85 ee c9 3c 48 43 a6 3d 92 86 80 3d
       0.21506314 0.024649868 0.08118302 0.06275667
000260 32 70 c7 3d 64 11 ca 3d f7 9a 6c 3d dc 86 20 3d
       0.097381964 0.09866598 0.057764973 0.039191112
000270 8a 46 34 3c 59 74 bd 3d 84 39 f8 3c 6b e1 16 bc
       0.011003146 0.09250707 0.030300863 -0.009209017
000280 d4 50 c4 3d ef 16 e1 bc f4 db 00 3e 25 c3 81 3d
       0.09585729 -0.027476756 0.12583905 0.06336049
000290 c6 7c f8 3d c7 85 8a 3d 2e 01 19 3e b1 4a 5e 3e
       0.12133174 0.06763797 0.14941856 0.2170818
0002a0 f9 b9 90 3d 50 3c 0f 3d ad 8d 01 3e 1c ae 72 3b
       0.070667215 0.034969628 0.12651701 0.0037030047
0002b0 64 2b 59 bb f1 76 28 3c 79 4c 2c 3e d1 73 22 3e
       -0.0033137435 0.010282264 0.16826047 0.15864493
0002c0 14 c8 06 3e 9e 09 cf 39 b1 67 d7 3d ed e4 de 3d
       0.13162261 0.00039489282 0.105178244 0.10883508
0002d0 ed cc cb 3c 11 46 c9 3d a5 3a b3 bc 15 a1 58 3d
       0.02487799 0.09827817 -0.02187855 0.052887995
0002e0 f1 04 3d 3c 94 9b 76 3d 60 1b 80 bd 8e 0b 1f bc
       0.011536823 0.060206965 -0.06255221 -0.009707345
0002f0 fe 6b 9c 3c 77 93 33 3d 64 b7 09 3e 76 90 48 3d
       0.019094463 0.043841805 0.13448864 0.048965894
000300 01 b7 88 3d 2d 2b 52 3d f6 c1 de 3d 5c b4 3f 3d
       0.0667553 0.051310707 0.10876839 0.046802863
000310 62 00 de bd de 1d 05 bd ca 10 80 3c d2 d0 b3 3c
       -0.10839917 -0.032499187 0.015633006 0.02195016
000320 89 76 8c 3c a5 e9 ea 3c 3f 1c 37 3d 06 b1 e5 3c
       0.017146366 0.028675864 0.044704672 0.028038513
000330 cf 70 9c 3c a2 e2 85 bd 48 93 09 bd 70 25 7a 3c
       0.01909676 -0.065373674 -0.033587724 0.015267715
000340 e6 6e f0 bb 47 e5 2c 3d 68 23 1e 3d b0 87 98 3c
       -0.007337439 0.042210843 0.038607985 0.018619388
000350 6a 6b 86 3c e9 72 92 3d bc 27 8c bc 81 2b d0 3d
       0.01640864 0.071508236 -0.01710879 0.10164548
000360 e8 21 d2 bd b2 bb 10 3e 58 2e 14 3c ef df f2 bc
       -0.10260373 0.141341 0.009044252 -0.029647795
000370 57 78 58 3e 33 57 02 3e 86 bf f3 bd ef 62 00 3e
       0.21139656 0.12728576 -0.119017646 0.1253774
000380 b2 70 1d 3e e4 00 f9 3d 38 c8 e3 3d c1 6f c7 3d
       0.15375021 0.12158373 0.11122173 0.09738112
000390 a0 33 ae 3d cb 54 0d 3e 1d 21 eb 3d 9a 08 0c 3e
       0.085059404 0.13801877 0.11480925 0.13675156
0003a0 2e 60 bb 3d d1 b0 d6 3d b6 2a 93 bb 6c b0 b4 3c
       0.09149204 0.10482944 -0.0044911755 0.02205678
0003b0 be 73 25 3d 2c a8 86 be 18 50 30 bb f7 78 ce be
       0.040393583 -0.2630018 -0.0026903208 -0.40326664
0003c0 26 8c 07 bc af d9 c8 3c 3d db 75 bc 29 72 14 3d
       -0.00827316 0.024517862 -0.015005884 0.036241684
0003d0 4b 6d 43 be 37 77 c8 3d e2 37 f8 bd 42 14 b7 be
       -0.1908466 0.097883634 -0.12120034 -0.35757643
0003e0 b3 60 f0 bd c3 49 11 be a9 d9 09 be 94 aa 82 3c
       -0.11737194 -0.14188294 -0.13461937 0.015950479
0003f0 62 65 9d 3d 1f c7 d2 3d 33 27 b6 3d 4f 65 48 3d
       0.07685353 0.102918856 0.088941954 0.04892474

local_map_cnn.2.bias f4 [32]
000000 0a 7a 8e bc 60 b3 0c 3d ef 53 4d bc 13 f0 1f bb
       -0.017392177 0.034350753 -0.012532218 -0.002440457
000010 2e 26 68 bd 38 5a 00 be d6 fb b0 bc fa cc 56 3d
       -0.056677036 -0.12534416 -0.02160446 0.052441575
000020 0b f0 f7 bc 43 9c a0 bd 72 bf 95 bd 50 e4 7f bd
       -0.030265829 -0.078423046 -0.07311906 -0.062473595
000030 9e 7a 19 be f6 b7 29 3d 58 d3 ec 3c bf 9d 31 3d
       -0.14988181 0.041435204 0.02890937 0.04336333
000040 bc 05 04 be ad ac c5 3c f6 1f f8 bc 47 e8 69 bc
       -0.12892812 0.02413019 -0.030288678 -0.014276571
000050 f3 39 a0 bd ac 00 d7 bc 4f dc b2 bc 66 bb 25 bd
       -0.07823553 -0.026245438 -0.021833567 -0.04046192
000060 fb 2f 48 3d a3 aa 9d 3d be 3f 94 bd 5f 23 b1 bd
       0.048873883 0.07698562 -0.0723872 -0.086493246
000070 70 69 c9 3c 38 66 9b bd 12 ae ee bd 8d 38 23 be
       0.02458641 -0.07587856 -0.11654295 -0.15939541

local_map_cnn.4.weight f4 [32, 32, 3, 3]
000000 ea d4 77 bc 01 34 eb bd de c4 bc 3c e3 60 b3 3d
       -0.015126446 -0.11484528 0.023043092 0.08758714
000010 10 5f b0 3c 2c 67 07 3c a5 0d 30 be 0e d3 51 be
       0.021529704 0.008264344 -0.17192705 -0.20490667
000020 41 74 e5 bd 46 ab 3e 3e 62 9c 87 bd 62 e7 5d 3d
       -0.11203814 0.18620023 -0.066216245 0.054175742
000030 6b c9 19 bd 43 77 9b be 39 be 33 be c0 43 90 bd
       -0.037545603 -0.30364427 -0.17553033 -0.07044172
000040 fd 4a 7c 3e b2 c1 aa 3d 79 07 b6 3c bb b6 a3 bc
       0.24637981 0.08337726 0.02222036 -0.019984594
000050 94 ca 35 3c 04 a6 b6 bc 51 25 bd bd 82 93 ac bd
       0.011095662 -0.02229596 -0.09235633 -0.084265724
000060 36 21 b7 3c 9e 94 44 be 04 b0 77 bd a5 f9 be bc
       0.022354703 -0.19197318 -0.060470596 -0.0233124
000070 d4 38 e0 bc b1 c8 8a 3d fc 98 13 bd e6 85 90 be
       -0.027370848 0.0677656 -0.03603457 -0.28227156
000080 45 4f 36 3d 2f 87 97 bd 89 50 c2 bd 56 1f 2c bb
       0.04450919 -0.07398831 -0.09488017 -0.0026263795
000090 78 9f 95 bc ef 73 a2 3d db 30 82 3d 99 88 5b 3d
       -0.018264517 0.07932269 0.06356975 0.053597067
0000a0 3e 88 79 bd 8d c2 94 bd ae 29 c8 3d 35 94 37 bd
       -0.060920946 -0.0726367 0.09773575 -0.044819076
0000b0 4d 47 c7 3d 71 ea 2a 3b 36 bb 23 3b 44 51 a9 3d
       0.097303964 0.002607968 0.0024983413 0.08267453
0000c0 fe 06 00 be ee 92 12 be 1a 1c d4 3c ce b7 fe bb
       -0.12502667 -0.14313862 0.025892306 -0.007773376
0000d0 a0 9d 2f be 2c 45 3e be 71 22 1d 3d e7 42 15 3e
       -0.17149973 -0.18581074 0.038362924 0.14576302
0000e0 60 06 6b 3b 33 a6 54 3d 11 96 74 be b7 a3 a8 bc
       0.0035861954 0.051916312 -0.23885371 -0.020585878
0000f0 a7 7a d2 3d f0 5d 91 3d 51 80 17 3e b4 5b a5 bd
       0.102773 0.07097995 0.14795043 -0.080741316
000100 6f 17 d3 3c 77 f4 47 bd d6 d3 b0 bd 9a d5 84 bd
       0.02576801 -0.048817124 -0.086341545 -0.06486054
000110 af 58 da 3d 22 b0 01 bd 3b c0 29 be b9 86 8a be
       0.10661446 -0.031662114 -0.16577236 -0.2705591
000120 08 ec a5 bd 52 51 4b 3e 5c 6b b0 bc 34 a8 5d 3d
       -0.0810166 0.1985524 -0.021535568 0.05411549
000130 34 6c 42 3e 23 24 06 3d 52 58 c5 3d 5b 9f 98 be
       0.18986589 0.032749306 0.096359864 -0.2980908
000140 d4 6f f2 bc 6e e3 3b be dd af 32 3e 85 02 9e 3c
       -0.02959434 -0.18348476 0.17449899 0.01928831
000150 38 56 44 bd 2e 13 f5 bd 55 6b 19 be e3 6e 40 3d
       -0.047933787 -0.11966549 -0.1498235 0.04698075
000160 08 e2 41 be 14 7a 98 3d 54 b6 e0 3c 15 81 82 bd
       -0.1893388 0.074451596 0.02743069 -0.06372277
000170 9f 86 82 3d 6f eb f9 bd 0f b1 0a be b7 3c 2a 3d
       0.06373333 -0.122031085 -0.13544105 0.04156181
000180 04 88 1d 3e 8b 58 bf bd 80 96 9d bc 41 bf af 3d
       0.15383917 -0.0934306 -0.019236803 0.08581401
000190 da 7f c0 bd a0 ea 98 3d 36 f3 99 bc 4f 0c 49 be
       -0.09399386 0.07466626 -0.01879273 -0.19633602
0001a0 b5 fb c1 bc 9e 64 d1 bd f0 46 76 bd 55 fb 3e bd
       -0.023679594 -0.10224269 -0.060126245 -0.046626408
0001b0 59 b6 36 bd 1e 73 b7 bc 0b b2 6a 3d e1 01 cb 3d
       -0.044607494 -0.02239376 0.0572987 0.09912468
0001c0 e4 6d 15 be 93 80 17 bd af 56 6b bd 13 f1 27 be
       -0.14592701 -0.036987852 -0.057455715 -0.16400556
0001d0 fd 6f 4f 3e ab 6a a1 3d a2 10 02 3e f6 51 64 3d
       0.20257564 0.078816734 0.12701657 0.055742227
0001e0 16 58 3f bc 8f df dc bd 1c ae 87 3c 48 3b 08 3d
       -0.011678716 -0.10784828 0.016562514 0.03325966
0001f0 1e 63 ec bc 0f e5 ea bd 04 53 d9 3b 97 0e b7 bd
       -0.028855857 -0.11469471 0.0066322107 -0.0893833
000200 87 34 08 3d cf de f0 3c 5f c2 23 bd 6b 25 d6 bc
       0.03325322 0.029403118 -0.03998029 -0.02614089
000210 b7 a2 d6 bc 7b 29 93 be f6 51 f4 bd 9b ab 55 3d
       -0.026200635 -0.28742585 -0.11929695 0.05216561
000220 5c b7 0c be b9 ba ac 3d 4e 2f c5 3c e7 f8 9f be
       -0.13741821 0.08434052 0.024070408 -0.31244585
000230 13 fa cc 3b b0 79 c1 bc 20 9b ac be 84 89 11 3c
       0.006255397 -0.023617595 -0.337121 0.008882884
000240 e9 9f 42 3c cf cb 0d 3d 1b 5f e4 3d 93 9e 01 3d
       0.011878946 0.034618195 0.111509524 0.03164537
000250 09 3a 41 be 18 f8 ab bc 64 74 a7 3d 5f cb 51 3d
       -0.18869795 -0.020992324 0.081764966 0.05121934
000260 f9 4f 23 3d 07 0d 0d 3e 99 74 1c bd 87 ae 7e bd
       0.03987119 0.13774501 -0.038197134 -0.06217816
000270 af 7d b2 ba a1 40 c4 bd 0c 52 10 bd 39 67 5c bd
       -0.0013617779 -0.095826395 -0.035234496 -0.05380938
000280 d6 46 26 3e ef 32 fc 3d a3 10 fe 3d d3 f5 f7 bc
       0.1623796 0.12314402 0.12405517 -0.030268585
000290 64 27 7e 3d 81 38 80 3c 66 8b f2 bd 07 30 1a be
       0.062049285 0.015651943 -0.118429944 -0.15057383
0002a0 74 67 97 3d 78 b3 85 3d 97 3a 8d 3d c5 64 40 b9
       0.07392779 0.065283716 0.06895941 -0.00018348086
0002b0 6a 82 15 3d ae 61 6f 3e 9e 6a f4 3b 6c ea 99 be
       0.036501326 0.23377106 0.007458999 -0.30061662
0002c0 1c be 58 3a 71 c7 c8 bd 98 55 65 bd 32 5a a9 3b
       0.00082680746 -0.098036654 -0.05598983 0.005168223
0002d0 78 da 65 be f6 66 30 3e 78 c3 a1 3d ce b6 31 bd
       -0.2244662 0.17226776 0.07898611 -0.043387227
0002e0 79 04 4c 3d 41 e1 f8 bd fb 64 90 3c 51 b7 33 be
       0.049808953 -0.12152339 0.017626276 -0.17550398
0002f0 bd 34 be 3d ab 29 f1 3c 06 b5 a2 bc 0a 17 d1 3d
       0.09287403 0.029438814 -0.01986171 0.102094725
000300 14 d3 b4 3d db a4 19 be 97 d4 da 3c be 68 d1 3d
       0.088293225 -0.15004294 0.026712699 0.10225056
000310 61 e5 4e bd 30 21 c9 3d 12 be 78 bd 2f 56 a0 bc
       -0.05051172 0.09820783 -0.06072814 -0.019572346
000320 e8 17 ad bd 97 75 92 3c 92 2a 14 3e 6b 3d 6d 3c
       -0.084518254 0.017878337 0.14469364 0.014479975
000330 da 1a e3 3d 9e fd e5 3d 1a 4e 2a be d4 63 2f 3e
       0.11089106 0.11230014 -0.16631356 0.17127925
000340 4e 5b 67 3c 35 c4 ba 3d 2b da b5 bd 0e 1c 9e be
       0.01412089 0.09119455 -0.08879503 -0.3088078
000350 5f 97 c5 3b 0b bd 82 3d 62 a6 16 3d 6a da 47 bd
       0.0060300077 0.06383713 0.03677977 -0.04879228
000360 e7 44 c0 bd e5 2d 09 3e 86 55 b9 bd af a0 80 3c
       -0.09388142 0.13396414 -0.090495154 0.01570162
000370 79 8f 98 bd ee d1 ea 3d 8e ad 1a 3e 7f 28 a4 3d
       -0.0744924 0.11465822 0.15105268 0.080155365
000380 a4 a0 89 3d ed 3d be bc e3 8e 26 ba 0b 09 8d bd
       0.06720093 -0.023222888 -0.0006353689 -0.068864904
000390 8c b3 f8 3d 86 06 e9 3d ff 14 1e 3d 9b 5b 85 3d
       0.12143621 0.11378197 0.038594242 0.06511613
0003a0 b0 fd 1a 3e 5e 92 1a 3e f6 ad 1e bc bb 2b 10 3d
       0.15135837 0.15094897 -0.00968503 0.035197955
0003b0 04 e4 5b bc 3c 2d 1f bd 4b 00 15 be d9 d0 a7 3c
       -0.013421062 -0.0388615 -0.14550893 0.020485329
0003c0 01 73 4d bd e7 2f 3c be d2 63 7e 3d d1 e9 47 3d
       -0.050158504 -0.18377648 0.062106915 0.04880697
0003d0 9a 95 9a 3d 97 5b 9f 3d 7e 39 74 bd a8 3d 1d be
       0.075480655 0.07781141 -0.05962514 -0.15355551
0003e0 84 ba d1 3b 59 39 98 3c 48 12 6b bd ab bb 93 3d
       0.006400408 0.018582033 -0.05739048 0.07213529
0003f0 06 2c 9f bd 71 8e d0 bb 50 f7 1f 3b 7a 27 84 3c
       -0.07772069 -0.0063646366 0.0024408884 0.016132105

local_map_cnn.4.bias f4 [32]
000000 c3 c8 76 3d 44 d0 1c bc af fe d5 bd 3b 79 75 be
       0.060250055 -0.009571139 -0.10448968 -0.23972027
000010 aa bb 28 3c c8 b8 0c bc 1c 61 15 3c f1 0c 8e bd
       0.010298649 -0.008588977 0.009117391 -0.06936062
000020 56 6a ac 3d 14 8a 83 3d bb d8 a2 3d 25 a4 9c bd
       0.084187195 0.06422821 0.07951494 -0.076484956
000030 fd 45 9a 3d fb b2 ea 3d 9e 7d eb bd e6 93 2a 3e
       0.075328805 0.11459919 -0.11498569 0.16657981
000040 16 c4 04 be e7 e3 9f 3d 89 78 99 3d cb 63 00 be
       -0.12965426 0.07807141 0.074936934 -0.12538068
000050 d2 0b cc bd 03 b0 49 3c 29 e3 73 3c bb a4 eb 3b
       -0.09963192 0.012310031 0.014885702 0.0071912683
000060 81 ef f6 bc e9 bc ab 3d cf e0 b9 bd 48 8f b6 3c
       -0.030143501 0.08385641 -0.09076082 0.022285119
000070 17 34 8e 3c bc b8 95 3d 62 1b 9d 3c 92 4a 91 bc
       0.017358823 0.07310626 0.019178096 -0.017735753

local_map_fc.weight f4 [64, 512]
000000 de ed c6 bd 9b 95 27 be b9 4d 59 be 00 0b 84 be
       -0.09713338 -0.16365664 -0.21221055 -0.25789642
000010 cb 13 09 bd a1 8d 2a be ea 85 1f bd c0 49 74 bd
       -0.03346614 -0.1665559 -0.03894607 -0.059640646
000020 7e 43 9b bd 55 de 94 bc 58 b4 3a bd af 8b 83 bd
       -0.075812325 -0.018172422 -0.045582145 -0.06423127
000030 89 16 86 3d 7f c2 90 3c 88 56 bc 3d 4a a8 2d be
       0.06547267 0.017670868 0.09196192 -0.16958728
000040 e9 b0 11 bc aa bc 17 3c 1e cf bd 3c 4e c3 32 3d
       -0.008892276 0.00926129 0.02317005 0.04364329
000050 24 84 ce bc 5f 78 cc bc 87 e8 bb 3b 8a 94 12 bd
       -0.025209494 -0.024959741 0.0057345065 -0.03578619
000060 78 31 91 3c 68 e9 52 3d fb e5 7a 3c 3c 28 28 bd
       0.017723784 0.051492125 0.015313621 -0.041053995
000070 ec 92 06 3b 7e 8e cb 3d 81 8d 9c 3d e1 a2 92 3d
       0.002053435 0.099392876 0.07644177 0.07159973
000080 b5 a2 e8 bd 69 81 22 3d ff 3b 25 3d e3 85 4c 3d
       -0.11359159 0.039674196 0.04034042 0.04993237
000090 5f 35 9a be 41 3f 94 bd 1b 2e b0 3d 45 46 0f be
       -0.30118844 -0.07238627 0.08602544 -0.1399165
0000a0 2c b3 a8 3d be 0e 66 be c8 4d 2d 3d 02 30 23 be
       0.08237299 -0.22466561 0.042310506 -0.15936282
0000b0 46 44 0d 3e a1 8e 47 3d 7e 10 00 3d 6a 51 df 3d
       0.13795575 0.048720006 0.03126573 0.109042004
0000c0 cc a9 65 3d 6c 6f 24 bc af 9e 44 b9 23 86 c6 3c
       0.056070134 -0.010036331 -0.00018751131 0.024233883
0000d0 0c 3a 52 3d 43 fa 82 3c 0d 6d ab 3d bb 84 79 bd
       0.05132489 0.015988475 0.08370409 -0.060917597
0000e0 db 2b 81 3d 8f e5 26 3e 5a 63 81 3d 37 68 91 3d
       0.06307193 0.16298507 0.06317778 0.070999555
0000f0 c8 29 2f 3e b4 15 93 bd 2e 17 00 3b b0 f7 f3 bb
       0.17105782 -0.07181874 0.0019545066 -0.007445298
000100 b2 4f 63 bd 4a 12 27 be ad 4f 36 3d 34 c6 cf bd
       -0.055495925 -0.1631557 0.04450958 -0.10145226
000110 d5 4c 74 bd 8d 03 0c be 74 b7 95 bd d2 c1 04 bc
       -0.059643585 -0.1367323 -0.073103815 -0.008102851
000120 c0 85 d8 3d 1b ad bc bc 64 be 66 bd 31 5e 80 be
       0.10572386 -0.023031762 -0.056333914 -0.25071862
000130 7f f9 3f bd fc 4a a2 3d ae ba da bd 41 d9 d3 3d
       -0.046868797 0.079244584 -0.106801376 0.10344172
000140 fa ff 13 bd d2 55 cc bd 29 d0 28 be 3e b8 ef bd
       -0.03613279 -0.099773064 -0.16485657 -0.11705063
000150 fb 2c ce bd 8d d3 0a be 14 7d bd bb 8a 30 5a 3e
       -0.10067173 -0.13557263 -0.0057827327 0.21307579
000160 be 0d a7 bc be 8f 6d 3e aa 14 60 bd 5c 5c c7 3d
       -0.020392295 0.23199365 -0.054707207 0.09734413
000170 88 99 88 bd 76 b1 5b bd ba 1e 09 bd 98 f8 eb 3c
       -0.06669909 -0.053636037 -0.03347657 0.028805062
000180 b9 e7 b5 bd 6b 69 eb 3d cf cc dc 3c 89 85 d2 bc
       -0.08882088 0.11494716 0.02695313 -0.02569844
000190 bd 92 9e bd c8 48 17 bc bd b9 0d bd 3c 87 5e 3d
       -0.07742832 -0.009233661 -0.034600962 0.05432819
0001a0 3e eb e7 3c 20 d7 4f 3e a6 15 00 bd 64 a2 87 bd
       0.028310414 0.20296907 -0.031270646 -0.066227704
0001b0 7b 98 86 3d 00 4d 09 bb 86 68 fa 3c b3 7d 91 3c
       0.06572052 -0.0020950437 0.030567419 0.017760133
0001c0 2f 48 10 bd 0d da 4a 3c 45 1f a3 3c 45 87 70 bd
       -0.03522509 0.012381089 0.019912371 -0.058722753
0001d0 5b 07 08 be ce bd 0c be 6b 1b a2 bd 11 55 08 3c
       -0.13284056 -0.1374428 -0.07915386 0.008321063
0001e0 2d 5e a0 3c 55 57 3f be a7 89 03 be 2d 89 ca bd
       0.019576157 -0.18685658 -0.12845479 -0.098894455
0001f0 e6 4f ca 3c 0c c5 23 3c 76 0d 3a 3c 48 b4 c2 3c
       0.024696302 0.00999571 0.011355748 0.023767605
000200 bb ba e4 bd 64 03 f9 bd 17 bd 00 be 45 81 f9 bd
       -0.111684285 -0.1215885 -0.12572132 -0.12182859
000210 80 49 27 be b0 e5 9a bd 6a 17 65 be d3 74 ff 3c
       -0.16336632 -0.07563341 -0.22372213 0.031183636
000220 9e 76 ae bd 75 b8 68 bc 13 11 0b be 16 e5 1d bd
       -0.08518718 -0.014204134 -0.13580732 -0.03854855
000230 88 a1 91 3d 89 8f 50 bd 34 7c b2 ba b7 a7 22 bd
       0.07110888 -0.050918136 -0.0013617338 -0.039710727
000240 d7 38 32 be c0 62 a8 3c 29 7c 41 be 7e d2 8e be
       -0.17404495 0.0205549 -0.1889502 -0.27894968
000250 2d 17 23 3d c5 fd 81 bd 08 66 32 be 4b df ca bd
       0.039817024 -0.06347231 -0.17421734 -0.09905871
000260 a2 51 82 bc 35 ce b8 bd 83 44 8b bd e3 10 0c be
       -0.015908066 -0.09023706 -0.06800177 -0.13678317
000270 eb 88 35 be eb 21 01 be 02 ea d1 3c ae 72 1d bd
       -0.17728011 -0.12610595 0.025624279 -0.038439445
000280 74 12 7f bd 2e be 41 be dd 18 ed 3d 43 cc 82 bd
       -0.062273458 -0.18920204 0.11577008 -0.06386616
000290 da 75 59 be 2b 59 3e bd 8f 68 20 bd e3 1a a7 bd
       -0.21236363 -0.046471756 -0.039162215 -0.08159425
0002a0 da de ae bb b3 4d de bd 6b d7 d7 3b 6f 0b 74 bd
       -0.0053366246 -0.10854664 0.006586959 -0.059581216
0002b0 58 d1 59 be 88 bb 37 be f7 0c 3f bd 26 b0 ed 3c
       -0.21271265 -0.17942631 -0.046643224 0.029014658
0002c0 94 f9 e0 3c d0 d2 53 bb 3d 24 0a bd c2 89 83 3d
       0.027462758 -0.00323217 -0.033725966 0.064227596
0002d0 a7 33 42 3d 5e c2 39 bd 23 97 8f 3b e4 ee 1b 3d
       0.04741254 -0.04535138 0.0043820306 0.03806962
0002e0 4b be 9b bd e7 25 f5 bd 62 0f 11 bd 9d b2 40 3d
       -0.07604655 -0.1197012 -0.03541506 0.04704534
0002f0 69 fd ca 3d b1 42 c3 3d f6 be 45 3d 39 63 a7 3d
       0.099116154 0.09534205 0.048277818 0.08173222
000300 26 71 c3 bd e1 8c 45 be ed 93 8b be b8 e2 73 be
       -0.09543066 -0.19292022 -0.27261296 -0.23816955
000310 b8 f5 4c bd 1e dd 0d be 59 bb 7a bd e9 5a 1c be
       -0.050039023 -0.13853881 -0.061213825 -0.15269054
000320 e2 08 b5 3c ac 46 dc bb 64 27 89 bc ea f3 66 bd
       0.022098962 -0.006722292 -0.016742416 -0.05638496
000330 e3 e4 18 3e 1d 73 17 3e 14 0b 7e bd e4 27 32 3d
       0.14931063 0.14790006 -0.062022284 0.043495074
000340 14 72 e6 bd 1b 3e 41 be d6 b2 71 bd 14 9f 41 3d
       -0.112522274 -0.18871348 -0.059008442 0.04727085
000350 68 4a cf bd bf 40 0f be 1c fd 0d bd 53 b3 79 bc
       -0.10121614 -0.13989542 -0.034665212 -0.015240508
000360 63 0f 8c 3a df 5e d1 3b e1 6a e4 3c 70 e2 d8 3d
       0.0010685738 0.0063894833 0.027882995 0.105900645
000370 f3 16 1f ba b9 8b 7f bd 85 43 91 3d a6 eb 89 bb
       -0.00060687884 -0.06238911 0.070929565 -0.0042089997
000380 50 09 03 bd 43 09 73 3c e3 c8 99 bc c2 74 8e 3d
       -0.031991303 0.014833751 -0.018772548 0.069558635
000390 2e 83 b6 3d ed 9e 9e bc 06 d1 21 3e 6e d9 be 3d
       0.08911739 -0.019362891 0.15802392 0.09318815
0003a0 db a1 92 bc d9 c2 a3 bc 47 dc 00 3d 1d 20 f5 3b
       -0.017899444 -0.019990372 0.031460073 0.007480635
0003b0 ed d6 e1 3c 7c 83 01 bd f0 d1 36 3d 17 fe 06 be
       0.027568305 -0.031619534 0.044633806 -0.13182865
0003c0 fc 71 e7 bd d1 21 ea 3c f1 dc 40 be 36 f9 ed bc
       -0.11301038 0.028580578 -0.18834282 -0.029049497
0003d0 25 48 33 be 70 70 c4 bd 5b 6d 86 be 4d 12 14 be
       -0.1750799 -0.09591758 -0.26255307 -0.14460106
0003e0 cd 2b 4b be bf 09 57 be 95 33 b0 bd f5 63 26 bd
       -0.19840927 -0.20999812 -0.086035885 -0.04062267
0003f0 64 e0 15 be 80 82 32 be 7b 78 a1 bd bc 81 39 be
       -0.1463638 -0.17432594 -0.07884308 -0.18115896

local_map_fc.bias f4 [64]
000000 42 05 e4 bc 83 e5 f4 bd 1e ed 90 3c 5a 01 82 bd
       -0.027834538 -0.119578384 0.017691191 -0.06347914
000010 28 8e 75 bd 76 7a bb bd a5 8a 97 bd db a3 a0 3d
       -0.059950024 -0.09154217 -0.07399491 0.07843753
000020 41 e6 9b bc 56 0f 6c bd 99 57 4f bd ae 1a 06 bd
       -0.019030692 -0.057631813 -0.05062065 -0.032740287
000030 01 a0 d3 3d f1 27 97 bc 96 42 02 bd ef d4 c2 3d
       0.10333253 -0.018451663 -0.031801783 0.0951327
000040 7f 5f 07 3d 29 20 f1 bc 1b 0a ab bd aa 51 57 3c
       0.033050057 -0.02943428 -0.08351537 0.013142029
000050 5b 73 e4 bd cf 52 f7 bd e9 ab 26 3d 9f 57 49 3d
       -0.11154815 -0.12076341 0.04069129 0.049155828
000060 d6 93 24 bd ca ab 6d bd f7 a9 38 3c 82 a6 62 bc
       -0.04018005 -0.05802516 0.0112709915 -0.013833644
000070 ee 7c 2f 3d be 3e 95 3d b9 c8 a1 3b 4b 56 c6 bd
       0.04284375 0.07287358 0.004937258 -0.09684428
000080 4b 00 51 3d b1 dd d2 3b f4 be 1f bd 04 21 7a bc
       0.05102567 0.006435119 -0.039000466 -0.015266661
000090 f4 02 53 bd f0 ca dc 3d 14 61 03 3e 4b dd 4a 3d
       -0.05151649 0.10780895 0.12830001 0.049527448
0000a0 34 b8 6d bd 59 0d 71 bc dd bb 0d 3d 0f 7b d6 3d
       -0.058036998 -0.014712655 0.03460299 0.1047269
0000b0 04 40 8a 3d 3f 32 9d 3d 04 e8 5a bd fb 47 1f 3c
       0.06750491 0.07675599 -0.053443924 0.009721751
0000c0 5f e7 51 bd d2 5f 9f bc 3e fd 39 bd 8f a9 7d bd
       -0.051246043 -0.01945487 -0.045407526 -0.06192928
0000d0 64 a3 12 3a fc 0c 63 bd 2c 05 52 bd 3f f7 6a 3d
       0.0005593805 -0.055432305 -0.051274464 0.0573647
0000e0 03 8b 92 3c 7b e0 21 be db 11 6b bc 00 89 57 bd
       0.017888552 -0.15808289 -0.014347519 -0.052620888
0000f0 5c 95 08 bd 5e ef 81 3d 4a 46 4a 3d 9c c7 bf 3d
       -0.033345565 0.06344484 0.04938344 0.09364244

self_entity_fc1.weight f4 [32, 26]
000000 22 e8 75 3e 00 db 0f 3d 21 a0 bb bc 47 4b 99 3c
       0.24014333 0.035120964 -0.022903504 0.018712653
000010 7f fd 81 bd 36 31 57 3e d8 74 28 bd 92 7a 0f bf
       -0.06347179 0.21014866 -0.041127056 -0.560464
000020 22 a1 86 bc 2e 09 14 be 07 30 0d be 97 0a d2 be
       -0.016434256 -0.14456627 -0.13787852 -0.41023704
000030 fd e8 0c 3e ea ba 29 be e2 c1 3d 3e 37 de f8 3d
       0.13760753 -0.16575208 0.18530992 0.12151759
000040 93 0c 88 be dd 44 69 bd fe 3e 34 3d 3f af fc 3c
       -0.26572093 -0.05695044 0.044005387 0.030845283
000050 3b 39 bf bd 2e 46 96 3e a6 6e 0d be a9 19 3d 3e
       -0.09337088 0.29350418 -0.1381174 0.1846682
000060 1a c9 25 bb 01 72 56 3d 61 4f b3 be 9e 2c 9d bd
       -0.0025296868 0.052354816 -0.350215 -0.07674526
000070 82 2d df 3c 46 76 29 3e 41 7a 32 3e 6b e7 38 be
       0.02724338 0.16549024 0.17429449 -0.18057029
000080 1b c8 ca 3d 87 1d 9a be da 4a 59 bd 8b 92 36 bd
       0.09901448 -0.30100653 -0.0530499 -0.044573348
000090 2f d0 ec bd c5 92 20 3d 6c 32 21 3d 72 11 ab 3d
       -0.11563145 0.03920247 0.039354727 0.08352937
0000a0 6a 79 50 3e ae 32 05 3e db b3 cc 3d 63 a7 6b bc
       0.20358816 0.13007614 0.09995242 -0.01438317
0000b0 7b 7d 69 bd 91 45 e7 3c d8 f0 6f bd 70 d1 ac 3d
       -0.057004433 0.028231414 -0.058579296 0.084383845
0000c0 8b b8 3b bd a7 2b 85 bc 73 2b b4 3d 1e 22 41 3e
       -0.04583029 -0.016256167 0.0879735 0.18860671
0000d0 d6 bd b3 bd 20 8d 82 bd 74 dc ae 3c f2 29 19 be
       -0.08776443 -0.06374574 0.021345355 -0.14957407
0000e0 6c b8 08 3e 9e db ee be 2c 61 56 be 7a 7f ad 3d
       0.13351601 -0.4665193 -0.20935506 0.0847158
0000f0 0f 19 07 3e bc c3 11 bc d2 43 e2 be 2a fc 94 bd
       0.13193153 -0.008896764 -0.44192368 -0.07274659
000100 93 c0 ab bd 55 ab b1 3d 1d 2f 5b 3d d4 c0 55 3e
       -0.0838634 0.08675257 0.053511728 0.2087434
000110 23 81 28 3b f9 a7 d7 3d ec 43 91 3c 1b b4 11 3e
       0.0025711737 0.10530085 0.017732583 0.14228861
000120 8b 0c 44 3d 03 ce c4 3d 9c 1d 38 3e 0a 61 dd bd
       0.047863524 0.09609606 0.17980045 -0.10809524
000130 bd c6 23 bd b0 bf 08 be 03 75 de bd 85 d6 2b bd
       -0.039984453 -0.13354373 -0.10862162 -0.04195263
000140 c9 1f 05 3e 64 55 a0 bd d1 f3 86 bd cf dd ca 3d
       0.13000406 -0.07828787 -0.06589473 0.09905588
000150 b7 e0 d0 3d 3e 79 84 bd 7e 5a 3e 3f 63 62 99 3e
       0.10199111 -0.064684376 0.7435683 0.29957876
000160 4e de e7 3d 0b 2c 96 bd ba 61 32 3d 83 4e 81 3e
       0.11321698 -0.07332619 0.04355023 0.25255212
000170 01 5b ed 3b b3 f0 0c be bc 1d 44 3e 85 13 58 3e
       0.0072435145 -0.13763694 0.19151968 0.21101196
000180 8f 07 de bd 8a 46 25 bd 03 e1 8c 3e b2 4d 39 bd
       -0.108412854 -0.040350474 0.2751542 -0.04524011
000190 39 00 1d be ac 78 1c 3d 35 50 e1 bd 25 e6 08 3e
       -0.15332116 0.03820102 -0.110016264 0.13369043
0001a0 9f 47 3e be a1 b4 a4 3c 3f c9 90 bb df 97 15 be
       -0.18582009 0.020105662 -0.0044185217 -0.14608715
0001b0 07 00 10 3e 74 f9 38 3d bc 83 dd 3c 88 58 97 be
       0.1406251 0.045159772 0.027040355 -0.2955973
0001c0 35 93 d4 3c af 2b 1f 3e 17 b6 ce 3e 8c 41 4a 3e
       0.0259491 0.15544008 0.403733 0.19751567
0001d0 13 07 16 3e 98 92 b7 3d 7e 69 33 be ea 57 81 3d
       0.14651136 0.089635074 -0.17520711 0.063155964
0001e0 60 67 7b 3e 74 39 b2 3e 2f ef 0c be 9b 48 95 bd
       0.24551153 0.34809458 -0.13763116 -0.07289239
0001f0 20 46 29 3d 60 eb 9f bd 88 62 72 bd 24 b3 be bc
       0.041326642 -0.07808566 -0.059175998 -0.02327878
000200 53 9f e8 bd 88 7a d3 bd 3a fc 8b 3d 6a c7 cb 3d
       -0.11358514 -0.10326105 0.06835218 0.099501446
000210 6b 26 48 3e c0 c4 ad 3d 8c b1 4e 3d fe ad 25 bd
       0.19545905 0.08484793 0.05046229 -0.040449135
000220 18 af 21 3e 05 18 fe be 5b 36 37 3e 57 04 60 bc
       0.15789449 -0.496277 0.17891829 -0.01367291
000230 6a ec 1d 3d c2 09 9c 3e fa ed 1d 3e f8 0b cf 3d
       0.03855554 0.30476195 0.15422812 0.10109705
000240 d6 79 80 3c 7b a2 5c be 9c 08 c2 3d 99 68 22 bc
       0.015683096 -0.21546356 0.09474298 -0.009912633
000250 83 4c 42 be 27 08 68 be ee 60 3d be 76 32 1e be
       -0.189745 -0.2265936 -0.18494007 -0.15448937
000260 9e c2 01 be bc b7 3a be 9f 0a 7b 3d 5e f8 c5 3d
       -0.12671897 -0.18234152 0.061289426 0.09666513
000270 35 c0 47 bd f1 d1 05 be dd 04 61 bb 45 cc dd 3d
       -0.048767287 -0.13068368 -0.0034335174 0.10829977
000280 a1 e1 9a 3d 90 d4 a2 bd e8 ee c4 bd 6c 87 56 be
       0.075625665 -0.07950699 -0.0961588 -0.20950097
000290 c0 c1 db 3d 79 a8 1e bd cb 00 84 be f0 55 1b 3d
       0.10730314 -0.038734887 -0.25781855 0.037923753
0002a0 09 82 35 bf b9 b6 97 3d 27 c8 a7 3d f0 fa 25 3d
       -0.7090154 0.074078985 0.08192473 0.040522516
0002b0 36 9b ae be dc 16 b4 bd 39 99 62 3d 8b 3d 3d 3d
       -0.34102792 -0.087934226 0.055321906 0.04620127
0002c0 b8 82 8d bd 99 e7 3e 3e 48 4e 03 3e 49 5e bc bd
       -0.06909698 0.18643035 0.1282283 -0.09197671
0002d0 57 95 f5 3b ce af 00 be 14 03 4b 3e ad 55 9c 3c
       0.0074946093 -0.12567064 0.19825393 0.019083822
0002e0 d6 7a 45 bc d6 40 5a 3d 97 5a 03 bd cf 14 0e be
       -0.012053212 0.05328449 -0.032068815 -0.13875125
0002f0 5b a3 e9 3d 7c d8 5d 3d cc 16 0b bf 93 c0 4b 3e
       0.11408111 0.054161534 -0.5433166 0.1989768
000300 24 ad 18 be 8f 75 76 3e 0e 39 d5 3d 65 ad 04 3e
       -0.14909798 0.24068283 0.10411273 0.1295677
000310 b2 40 bd 3d b9 33 7a 3e e2 b7 ee 3d cf 38 5e 3e
       0.09240855 0.24433793 0.116561666 0.21701358
000320 3a 69 31 bd 8c 85 00 3e ba 37 33 3d fa b0 3d 3e
       -0.043313242 0.12550944 0.043754317 0.18524542
000330 61 df d4 3b 6f 21 94 bd be 05 ba 3d 00 a6 0f be
       0.0064963554 -0.072329395 0.090831265 -0.14028168
000340 e9 0c 06 bd b1 b5 f0 bd 6f 57 d1 3a 4c 88 96 3d
       -0.032727156 -0.11753405 0.0015971492 0.07350215
000350 e4 7a d7 bc cf 9b f3 bd 5d 82 57 3d aa 25 e9 3e
       -0.026303716 -0.118949525 0.05261456 0.45536548
000360 12 92 ca 3d f1 83 d2 3d 64 2c 1e bf 23 2f d9 bd
       0.09891142 0.10279072 -0.61786485 -0.10604694
000370 a3 9f 1d be cd 2b db 3d c8 8b 2f 3e 0e a4 05 3e
       -0.15392928 0.10701714 0.17143166 0.13050863
000380 e7 76 09 3e e9 ee 21 be c9 ab ab bd 40 08 03 bd
       0.13424264 -0.15813793 -0.08382375 -0.03199029
000390 27 b4 ba bd dc 8f 1f 3e 67 9a c5 3d 39 ce 6d bd
       -0.091163926 0.15582222 0.096485905 -0.058057997
0003a0 f0 ed 0a be 58 d0 08 be bd 9d 3b be 78 5b 3f be
       -0.13567328 -0.13360727 -0.18321891 -0.18687236
0003b0 d7 92 63 bd ec 6e 8f 3d e5 b0 80 bd 78 8b c5 be
       -0.05555996 0.070035785 -0.0628374 -0.3858297
0003c0 8f b9 d0 be 0a 16 18 3e 5d bd d8 bd 00 f8 43 bd
       -0.4076657 0.14852157 -0.10582993 -0.047843933
0003d0 72 a0 1f 3e 7f 64 3b 3e 4d ce a7 3d 98 db 57 bd
       0.15588549 0.18300055 0.081936456 -0.052699655
0003e0 a9 dc b4 3d cd 52 f2 3d 3b d5 62 bd 6c bb fc bd
       0.0883115 0.11832199 -0.055379134 -0.123404354
0003f0 c4 22 af 3d ac 30 3d bd 68 96 db 3b 30 7e 8d 3e
       0.08551553 -0.046188995 0.0067012794 0.27635336

self_entity_fc1.bias f4 [32]
000000 bb 68 24 bd 7c 80 89 3e b9 03 c3 3c 58 a1 57 be
       -0.04013894 0.26855838 0.023805486 -0.21057642
000010 d0 57 6e bd aa 95 f3 bd 39 5e 61 3e be 31 f9 3d
       -0.058189213 -0.118937805 0.220086 0.12167691
000020 68 86 5c 3e e6 20 1a 3e 02 af 9b 3d bb bf 55 3e
       0.21535647 0.15051612 0.076017395 0.2087392
000030 3e f3 f7 3c 59 42 76 bd 12 12 e9 bd f0 46 de bc
       0.030267354 -0.060121868 -0.113804 -0.027133435
000040 3b 87 10 3e 37 f5 24 3e 6d ab 5d 3e 92 f5 3b 3d
       0.14114086 0.16109167 0.21647425 0.04588849
000050 d3 f3 64 3e 55 8b 08 3e 49 0e 72 3e 17 1b 81 bd
       0.22358637 0.13334401 0.23638262 -0.06303995
000060 0f a5 6c 3e eb 12 c8 3d 02 a7 5f be 46 a0 34 3d
       0.2310984 0.09769233 -0.21841052 0.04409816
000070 c9 4d 9c 3e 70 9a da 3e 74 4a c5 bd bb 29 63 3d
       0.30528095 0.4269595 -0.096333414 0.05545972

self_entity_fc2.weight f4 [32, 32]
000000 25 dc e3 bd fd 64 1a 3e ea e0 f9 3e ac 13 c4 be
       -0.111259736 0.15077586 0.48804408 -0.38296258
000010 f2 05 3c 3e a7 fc b4 3d 0e 96 42 be fd 13 3f 3e
       0.18361643 0.08837252 -0.19002554 0.18659969
000020 ee 63 bc be 8a fe 45 bd 3b 28 69 3d 86 fc 10 be
       -0.3679499 -0.04833845 0.056923132 -0.1415883
000030 8d a7 e4 bd 44 a1 9d 3d 5a 2e b4 be da 08 21 3d
       -0.1116477 0.076967746 -0.35191613 0.039315082
000040 75 6c 40 3d 3a 44 17 3e d3 bf 95 3d bc 83 47 3d
       0.046978433 0.1477212 0.07311978 0.048709616
000050 3e 62 a1 bc 70 63 bb bb 00 47 b9 bd 2e a2 6f 3e
       -0.019700166 -0.005718641 -0.09046745 0.2340171
000060 cf a4 81 bc b9 43 c6 3d e9 57 bf be 4f 5d 58 3e
       -0.015825657 0.09680886 -0.37371758 0.21129344
000070 95 82 e4 3e 0b 13 e7 3e ec 60 73 3e da 18 5c bd
       0.44630876 0.45131716 0.23767442 -0.053734638
000080 fb 00 8a 3e 26 8f 19 3d b8 cb dd bd 20 48 2b 3d
       0.26953873 0.037490033 -0.10829872 0.04181683
000090 91 f2 08 bf 4a 19 d7 bd d0 ef 1a 3f 2c 65 af bd
       -0.53495127 -0.105028704 0.60522175 -0.08564219
0000a0 df cb b6 3e 15 bd 37 3d d9 9b 91 3e b7 82 f1 3e
       0.35702416 0.044858057 0.28439215 0.4717004
0000b0 ce 66 6e bc 9b ed 75 be 87 f2 07 3e 16 ae 20 3e
       -0.014550878 -0.2401642 0.1327611 0.15691409
0000c0 f8 98 59 3e 50 5c 88 bd f5 95 bf 3c 14 49 ea bd
       0.21249759 -0.06658232 0.023386935 -0.1143972
0000d0 97 0f 61 3d fe 44 d1 3d 8d 01 29 be 31 23 18 be
       0.05494651 0.10218237 -0.16504498 -0.14857174
0000e0 c3 a7 72 be 82 6b b3 3d 3a 7c 94 bd 64 10 a4 bd
       -0.23696809 0.0876074 -0.07250257 -0.08010939
0000f0 b5 64 dc be a3 00 fc be 49 7b 19 3d c6 67 ca bd
       -0.43045583 -0.49219236 0.03747109 -0.098830745
000100 68 5f d8 bd 35 09 ca 3b 58 e1 c5 be 45 5b 7c be
       -0.10565072 0.0061656483 -0.38648486 -0.24644192
000110 80 0c 67 3e 75 99 0c be 74 5c ea bd 56 9d 02 3e
       0.22563362 -0.13730414 -0.11443415 0.12755331
000120 af 6b 82 bf 77 8d 4a 3c 7c e0 b8 3d 83 7a ec 3c
       -1.0189112 0.012362829 0.09027192 0.028867012
000130 62 d1 83 bd f3 c7 14 bf 44 df aa be 4c ec c4 3d
       -0.06436421 -0.581176 -0.33373463 0.096153826
000140 61 3e 73 3d ed 7d 04 3e bf 4e 8a 3e 0a b7 35 be
       0.05938566 0.12938662 0.27013204 -0.17745605
000150 f1 1c 6a 3d 97 f1 a4 3d 7a 06 ba 3d 7e 14 67 3e
       0.057156507 0.08053892 0.090832666 0.22566411
000160 0d 1e b9 3d 88 b8 56 3e 9c 7b b6 be e4 83 1c bd
       0.09038935 0.2096883 -0.3564118 -0.03821172
000170 29 3b d3 3d 6d bd 60 bd 5e 9c 52 3d 25 ff bc bc
       0.10314018 -0.05486815 0.051418655 -0.023070881
000180 da a1 3e 3d 5a ab 2c be 69 9b 06 bf 87 c6 c0 3d
       0.046541072 -0.1686224 -0.5258089 0.09412866
000190 99 99 22 3e 19 b8 5e 3e 89 5a f0 3b 63 4c c4 be
       0.15878905 0.21749915 0.0073350114 -0.38339528
0001a0 66 9b 0e bf 77 84 6b be 92 47 08 bf b4 f8 18 bc
       -0.5570587 -0.2299975 -0.5323421 -0.009336639
0001b0 51 ba 90 3e 23 0e 30 bf 63 03 9e 3e 70 74 0c 3e
       0.28267148 -0.6877157 0.3086196 0.13716292
0001c0 d3 ad cc 3c 18 26 73 3e ba 2c c9 be b0 02 e6 bc
       0.02498523 0.23745 -0.39291936 -0.028077453
0001d0 73 49 0d be f5 a6 95 be 35 3a ba bd f5 8b b2 bd
       -0.1379755 -0.2922894 -0.09093133 -0.08718101
0001e0 89 4c f3 3c a1 fa 88 bd 82 12 65 3e 5a 48 e2 be
       0.02969958 -0.06688429 0.22370341 -0.44195825
0001f0 ad 73 10 3e f2 9a de 3d 74 8f 00 be 73 b3 38 3e
       0.14106627 0.10869397 -0.12554723 0.18037204
000200 9d 0f b7 3e ff d5 c2 3d 23 79 43 be d3 5e 91 bc
       0.357541 0.09513473 -0.19089179 -0.017745411
000210 0e 2c aa be 3a b8 a4 bd 1b 3b 35 3e 54 03 04 be
       -0.33236736 -0.08042951 0.17698328 -0.12891895
000220 d8 8c a2 3e 4f eb 13 bd 44 60 6e 3e 7c 31 02 3f
       0.3174808 -0.03611308 0.2327891 0.5085676
000230 89 25 36 3e 00 ff b7 be 55 61 9a bc 45 69 6f 3e
       0.17787756 -0.35936737 -0.01884524 0.23380001
000240 53 9d 51 3e d0 bc 29 3d 9e 3c 94 bc 8b 74 20 bd
       0.2047017 0.04143983 -0.01809531 -0.039173644
000250 fc fe 8b 3e 63 c1 f2 3c 45 13 42 bc 2e 1e 10 3e
       0.27342975 0.02963323 -0.0118454145 0.14074013
000260 bf 71 a8 be e7 73 ae 3d d6 d3 c4 3d c3 8c 4f 3d
       -0.3289928 0.085182 0.09610717 0.05067135
000270 57 cd 9e be bf 9c cb be 9f 48 2c 3d 04 e0 11 3d
       -0.31016037 -0.39768025 0.042061444 0.03561403
000280 0b 45 13 3e 8f bd 9a 3e a4 4c c9 3e 1e a6 6e bd
       0.14381807 0.30222747 0.39316285 -0.05826389
000290 01 4d 28 3e f0 bc 0a bd 77 e8 fe 3d c9 db b1 3d
       0.16435625 -0.03387159 0.12446683 0.08684499
0002a0 a5 dd 4f 3f 57 36 32 be d1 ab 9b 3e 53 ec 59 3e
       0.8119758 -0.17403542 0.30404523 0.21281557
0002b0 b1 ae 61 be 94 b6 2b 3f a3 65 42 3e 42 03 46 3e
       -0.22039296 0.6707547 0.18984084 0.1933718
0002c0 5b fb 65 3e 53 3a d7 3c 98 f5 ea 3c da 56 11 3e
       0.22459166 0.026272928 0.028681561 0.14193287
0002d0 30 be a8 3d 64 f1 b1 bd f7 53 c5 3d ba b0 56 3c
       0.082394004 -0.0868862 0.09635156 0.013103658
0002e0 97 0e 7d 3e d0 39 1a be 6f f0 57 be 8e 66 96 3d
       0.24712597 -0.15061116 -0.21087812 0.073437795
0002f0 97 cc 39 be d8 eb bd be 37 97 e1 3b ca 2f 29 be
       -0.18144451 -0.37093997 0.0068844813 -0.16522136
000300 c5 46 8d bd d1 c6 50 3e 08 d0 46 3e be ab a3 be
       -0.06898264 0.20388342 0.19415295 -0.31966966
000310 a0 d9 c5 3d 2d ba 8b 3d 94 22 c5 be 26 47 96 3c
       0.09660649 0.068226196 -0.38502944 0.018344473
000320 14 e8 82 bf d9 0c d1 3c ad c2 5c 3e 85 63 1e be
       -1.0227075 0.025518822 0.21558638 -0.15467651
000330 75 3e 42 be 0e 31 07 bf ae fe 16 bd 8f 4e ba bd
       -0.18969138 -0.52809227 -0.036863975 -0.09097015
000340 76 17 e1 3d 14 c3 29 3e 81 45 06 3e bf 7b 51 3d
       0.10990803 0.16578323 0.13112451 0.051143404
000350 00 3f 35 3e f0 32 e1 bd bc 23 53 3e 57 02 ec 3d
       0.17699814 -0.10996044 0.206191 0.11523884
000360 00 cc cc 3d 65 76 64 3d 1f 09 e4 be 29 a6 8f 3e
       0.099998474 0.055776972 -0.4453821 0.28056458
000370 cf d8 b0 3c f2 37 89 bd 71 d0 c7 bc e1 3c cd 3c
       0.021587757 -0.06700124 -0.024391385 0.025053443
000380 4a 15 cb 3e bf c1 38 bb e8 b3 23 3b a8 f0 31 bd
       0.3966468 -0.0028191654 0.0024979059 -0.0434424
000390 99 1d 4f bd a0 99 2c be 1c ca 80 be 15 3b ec 3c
       -0.050565336 -0.16855478 -0.25154197 0.028836766
0003a0 14 cb 6c 3e cd dd 40 3d 48 ae 98 3d bc 2e f1 3e
       0.23124343 0.047086526 0.074551165 0.47105968
0003b0 15 9c 01 3d f9 a1 c8 be 1e ac 0c 3d 2f d9 ba 3d
       0.031642992 -0.39186075 0.03434383 0.09123456
0003c0 7b ea 01 3d c1 c8 8c bd 12 c3 71 3d 89 fb af 3c
       0.03171776 -0.06874228 0.059023924 0.021482246
0003d0 54 c8 ee 3d 4c 7d cf bd 83 45 fc bc 61 d4 76 3e
       0.11659303 -0.1013132 -0.030794865 0.24104454
0003e0 bf f8 8c be 61 7c 16 3d 17 98 1c bc 04 e5 31 bd
       -0.27533528 0.03673971 -0.009557745 -0.043431297
0003f0 23 2b b2 be 45 80 96 be 90 11 6c 3d 7e 75 98 3d
       -0.34798536 -0.29394737 0.057633936 0.07444285

self_entity_fc2.bias f4 [32]
000000 f8 fe bd 3d d2 ba ad 3d b2 f7 1f 3d c9 09 89 bd
       0.09277147 0.08482899 0.03905458 -0.066913195
000010 4d fd 3b 3e 51 67 18 bd 22 c5 e3 bc 94 63 84 3e
       0.18358345 -0.037207905 -0.027803961 0.25857222
000020 ce e1 90 bd 51 1c fe bd 68 cd 12 3e 02 e6 5f 3c
       -0.07074319 -0.12407745 0.14336169 0.013665678
000030 ab 8c 19 be e0 d5 28 3e 15 60 2f bc 0a 1a f2 bd
       -0.14995067 0.16487837 -0.01070406 -0.11821373
000040 85 71 f1 bd 09 8a 0b be 4b 39 53 bd 93 b1 ea bd
       -0.1178923 -0.13626875 -0.05156831 -0.11459651
000050 9d ca 16 3e 6f d1 04 3e 84 f0 9a 3c 36 28 43 be
       0.14725728 0.12970518 0.018913515 -0.19058308
000060 d1 27 df 3d fe 37 32 bd 5a b5 8a bd 2e 7c e1 bd
       0.10896266 -0.04351043 -0.06772871 -0.110100135
000070 7a 93 b8 3d 2e 3c 82 bd b2 6a bc 3d 51 a7 28 3e
       0.09012504 -0.063591346 0.09200038 0.16470076
