my-submission/checkpoints/model_927232.pt (torch, 352797 bytes, 23 tensors)

local_map_cnn.0.weight f4 [32, 24, 3, 3]
0	0xbd1b90ef	-0.037980016
1	0x3d06030c	0.03271775
2	0x3de559c3	0.11198761
3	0x3da1778f	0.07884132
4	0xbc26ba66	-0.010176277
5	0x3dc154eb	0.09440025
6	0xbd8cd91e	-0.06877349
7	0xbdde0ad5	-0.1084191
8	0x3d1a84d4	0.03772433
9	0x3d0f4e34	0.03498669
10	0xbaa026b7	-0.0012218569
11	0xbda0b92e	-0.0784782
12	0x3db3ebff	0.08785247
13	0x3ceee4b7	0.029161794
14	0x3e1b7efe	0.15185162
15	0x3c9ffb0b	0.019528886
16	0xbcb1d6f1	-0.021708937
17	0xbe6c0f1f	-0.23052643
18	0x3c70271c	0.014657762
19	0x3ca4fc33	0.02013979
20	0x3dd7c8f4	0.10536376
21	0x3c44720f	0.011990084
22	0xbe0124eb	-0.1261174
23	0xbe8bd84f	-0.27313468
24	0xbd2ea847	-0.04264095
25	0xbc861324	-0.016366549
26	0x3d907c4e	0.07054959
27	0xbbe91f56	-0.0071143312
28	0x3cad6390	0.02116564
29	0x3df73d41	0.1207223
30	0x3d409d5e	0.047025077
31	0xbd8627de	-0.06550573
32	0xbe878a69	-0.26472786
33	0xbd2ec383	-0.042666923
34	0xbd713fa2	-0.058898576
35	0x3d1b0c84	0.037853733
36	0xbba0dd99	-0.004909229
37	0xbc56d6ad	-0.013112706
38	0x3d74db24	0.0597793
39	0xbd0b5ca1	-0.034023885
40	0x3ca59ee5	0.020217368
41	0xbd23a178	-0.03994891
42	0xbce13162	-0.027489368
43	0xbcb5f840	-0.022213101
44	0x3dca9a2b	0.098926865
45	0x3dd26987	0.10274034
46	0x3d982390	0.07428658
47	0xbe1e017c	-0.15430254
48	0x3d35ac09	0.04435352
49	0x3d5c6984	0.053811565
50	0x3e026a85	0.12735946
51	0x3d6333e7	0.05546942
52	0x3cf9afc9	0.030479329
53	0xbe3b2b1a	-0.1827816
54	0xbd97cbb2	-0.07411899
55	0xbc9687fe	-0.018375393
56	0xbcc2cec8	-0.023780242
57	0xbda9ffab	-0.08300718
58	0xbe1dfdd4	-0.15428859
59	0xbe388a13	-0.18021421
60	0xbe219fb8	-0.15783584
61	0xbd9789ff	-0.073993675
62	0x3d885ed5	0.06658713
63	0xbcd7dd1b	-0.026350548
64	0xbd028aca	-0.03187064
65	0x39fccba2	0.00048216904
66	0xbc5804b4	-0.013184715
67	0xbe48f06f	-0.19622968
68	0xbd143a53	-0.036188435
69	0xbdb7d25b	-0.08975669
70	0xbd18d1e2	-0.037309535
71	0xbd76dd98	-0.060269922
72	0x3ce649db	0.028111389
73	0xbd0a3b60	-0.03374803
74	0x3dbd209b	0.092347346
75	0xbda19917	-0.07890528
76	0xbe3766f7	-0.17910372
77	0xbdca46e8	-0.098768055
78	0xbcecf973	-0.02892754
79	0xbd482d95	-0.048871595
80	0x3ae44968	0.0017416896
81	0xbd0049b2	-0.03132028
82	0x3c33373b	0.010938461
83	0x3be90a49	0.007111822
84	0xbd42de3d	-0.047575224
85	0xbbc88d98	-0.006120395
86	0xbdadbbef	-0.08483111
87	0xbc8fe339	-0.017564403
88	0xbdcc39c2	-0.09971954
89	0x3d169dca	0.036771573
90	0xbdf0dc71	-0.11760796
91	0x3d34e0ce	0.044159703
92	0xbcabc701	-0.020968916
93	0xbc92188e	-0.017833974
94	0xbdcac3b6	-0.0990061
95	0xbdff53c4	-0.12467149
96	0xbd974640	-0.07386446
97	0xbdc5cf82	-0.096587196
98	0x3c91b1f8	0.017785057
99	0xbd7a516c	-0.061112806
100	0xbc83134f	-0.016000418
101	0x3c00af11	0.007854239
102	0xbd9740a7	-0.07385378
103	0xbd9b9c7f	-0.07598209
104	0xbd8024d2	-0.06257023
105	0x3d443acd	0.04790764
106	0xbd358fdd	-0.04432665
107	0xbd67e823	-0.056617867
108	0xbdab71cb	-0.08371314
109	0x3c0e1b16	0.00867345
110	0x3db83a8d	0.08995543
111	0x3c9f2bb6	0.019430023
112	0xbd8ab137	-0.06772082
113	0xbe6da8d2	-0.23208931
114	0xbd9b2768	-0.075758755
115	0xbdbc1010	-0.09182751
116	0x3c939d40	0.018019319
117	0xbc39c865	-0.011339282
118	0x3c9543cd	0.018220806
119	0xbc20909b	-0.009800102
120	0x3cd1bd77	0.02560304
121	0xbd172918	-0.036904424
122	0xbdf1c63a	-0.11805387
123	0xbd7e69ca	-0.062112607
124	0xbcd719f8	-0.0262575
125	0x3d9500ed	0.07275567
126	0xbd943524	-0.07236698
127	0xbd6f5444	-0.05842997
128	0xbd377a85	-0.044794578
129	0x3c872705	0.016498098
130	0xbd530ecf	-0.051527794
131	0x3dcb5948	0.099291384
132	0xbd25f7d8	-0.040519565
133	0xbd853cc7	-0.06505733
134	0xbe213b1e	-0.15745208
135	0xbce2c618	-0.02768235
136	0x3c839b1b	0.016065171
137	0x3d9e8603	0.077404045
138	0x3d00c309	0.031436
139	0x3b879630	0.004137777
140	0xbd22bc32	-0.03973026
141	0xbd7d1013	-0.061782908
142	0x3d47e895	0.048805792
143	0x3e4b26a7	0.19838963
144	0x3d5588b0	0.05213231
145	0x3d8efac9	0.06981427
146	0x3dc4c1d7	0.096072845
147	0x3d1fcd0d	0.03901391
148	0xbd9b2ab5	-0.07576505
149	0xbed9b941	-0.4252415
150	0x39d5203f	0.0004065055
151	0xbd423ddc	-0.047422275
152	0x3e2643e1	0.16236831
153	0xbd64926e	-0.05580371
154	0xbdb814ac	-0.08988318
155	0xbd958c71	-0.07302178
156	0xbd1c93c1	-0.038226847
157	0xbd554f24	-0.052077428
158	0xbbdfd64a	-0.006830965
159	0x3cfe50cb	0.031044384
160	0xbd6a4fe3	-0.057205092
161	0xbdc5413f	-0.09631585
162	0x3da36dc8	0.079799235
163	0xbd969241	-0.073521145
164	0x3e703bd0	0.23460317
165	0xbc3e5f77	-0.01161944
166	0x3cf41001	0.029792788
167	0x3e67d609	0.22640242
168	0x3deca11c	0.11554167
169	0x3ce17101	0.027519705
170	0x3e939551	0.28824857
171	0x3d651e1c	0.055936918
172	0x3ce1d4bd	0.027567262
173	0x3dff8fec	0.12478623
174	0x3c668697	0.014070175
175	0xbd85accc	-0.06527099
176	0xbc4ce108	-0.0125048235
177	0x3e123902	0.14279559
178	0x3e61f194	0.22064811
179	0x3ce19a6e	0.027539458
180	0xbe7ffb2c	-0.24998158
181	0xbe26b293	-0.16279058
182	0xbe08d636	-0.13362965
183	0xbd03b7b4	-0.032157615
184	0xbe8637e7	-0.26214525
185	0xbe84e6b5	-0.25957265
186	0xbd9b6ec2	-0.07589485
187	0xbdec9169	-0.11551172
188	0xbb31ce73	-0.002713111
189	0x3f0489ca	0.5177275
190	0x3f2df5ca	0.6795317
191	0x3ec8bfef	0.39208934
192	0x3f22ac0d	0.6354378
193	0x3f1dc268	0.61624765
194	0x3ebe9c85	0.3722879
195	0x3cfcddca	0.030867476
196	0x3e9d44a3	0.30716428
197	0x3e15cc69	0.14628758
198	0x3ef68468	0.48147893
199	0x3f116fed	0.5681141
200	0x3dfcc7f0	0.123428226
201	0x3f3df55e	0.74202526
202	0x3f39b733	0.72545165
203	0x3bfcb965	0.0077125304
204	0x3dba4700	0.090955734
205	0x3ee34c24	0.44394028
206	0x3e46277b	0.19350998
207	0x3e0f2b01	0.13981248
208	0x3d9c4f07	0.07632261
209	0x3dbec735	0.093153395
210	0x3dd955e8	0.106120884
211	0x3d09bc9d	0.03362714
212	0xbd71a680	-0.058996677
213	0x3e0517bc	0.12997335
214	0x3cf2d21a	0.0296412
215	0x3c446e34	0.011989165
216	0x3d165b0a	0.036707915
217	0xbccdfd58	-0.025145218
218	0x3d53df6b	0.05172674
219	0xbd226578	-0.03964755
220	0x3d498942	0.049203165
221	0x3d33ed8a	0.043927707
222	0xbd341f1f	-0.043974992
223	0x3da0785b	0.07835456
224	0xbd407266	-0.0469841
225	0xbc339a73	-0.0109621165
226	0x3d6a310a	0.057175674
227	0xbbbe03f8	-0.005798813
228	0x3d27081b	0.040779214
229	0x3c86aeb0	0.01644072
230	0x3c432b25	0.011912142
231	0x3d140057	0.036133137
232	0x3db18d24	0.086694986
233	0x3c549beb	0.012976627
234	0xbc6e30cb	-0.014538
235	0x3ad16d10	0.0015977938
236	0x3cafd06c	0.021461688
237	0xbd1b2723	-0.03787912
238	0xbd8a5a2e	-0.06755482
239	0x3cb8fa45	0.022580275
240	0xbc9fbd22	-0.019499365
241	0xbc7c499b	-0.015398408
242	0x3ba66a57	0.0050785947
243	0x3ce62852	0.028095398
244	0xbc1dfc63	-0.009642693
245	0x3d4a066c	0.04932253
246	0x3d4708e2	0.048592456
247	0x3daabb76	0.083365366
248	0x3db5752f	0.088602416
249	0x3d45dca4	0.048306122
250	0x3d8a26b8	0.06745666
251	0x3d50a1f1	0.05093569
252	0x3d40edc9	0.04710177
253	0xb94acc0b	-0.00019340233
254	0x3d3a6668	0.04550782
255	0xbceaba39	-0.028653251

local_map_cnn.0.bias f4 [32]
0	0xb9ec92d8	-0.00045122835
1	0xbd1a29bd	-0.03763746
2	0xbc9fd9ab	-0.019512972
3	0xbd864b9d	-0.06557391
4	0x3d238521	0.039921883
5	0x3bc73a31	0.006079935
6	0x3cf7d202	0.030251507
7	0xbd24a835	-0.040199477
8	0x3c592675	0.013253798
9	0xbdba10a3	-0.090852045
10	0x3c2764ac	0.010216873
11	0xbb542701	-0.003237188
12	0xbce9424c	-0.028473996
13	0xbd0cebe7	-0.03440466
14	0xbd0c6fdf	-0.034286376
15	0xbde59dec	-0.11211762
16	0xbd06b3ff	-0.0328865
17	0x3d4d5186	0.050126575
18	0x3d3a45ff	0.04547691
19	0x3d2d74f3	0.04234786
20	0xbd9cf47f	-0.076638214
21	0x3d813c0f	0.063102834
22	0x3bcc224c	0.0062296744
23	0xbd2522c9	-0.040316377
24	0xbd590eef	-0.052992757
25	0xbd853e44	-0.06506017
26	0xbd60aa47	-0.05484989
27	0xbc5a160e	-0.013310922
28	0x3d793d44	0.060849443
29	0x3d254b1b	0.04035483
30	0x3d99ce99	0.075101085
31	0x3c6928cd	0.014230919

local_map_cnn.2.weight f4 [32, 32, 3, 3]
0	0x3d3cd735	0.046103675
1	0xbd4f4f21	-0.050612573
2	0xbe12e3cf	-0.14344715
3	0xbe2a78e6	-0.16647682
4	0xbe28ac56	-0.16471991
5	0xbd30b5db	-0.04314218
6	0xbe9f8734	-0.3115784
7	0xbd840880	-0.06446934
8	0xbca24311	-0.01980737
9	0xbd3ccaae	-0.046091728
10	0xbd1ec4bd	-0.038761843
11	0xbd6cbf86	-0.05779984
12	0xbcfa1087	-0.030525459
13	0xbd788497	-0.060673323
14	0xbdbad2f4	-0.09122267
15	0x3c180c3d	0.009280262
16	0xbd87d6f0	-0.06632793
17	0xbe0743cc	-0.13209456
18	0x3ddb1a28	0.10698348
19	0xbdb4b04f	-0.08822691
20	0x3c9023dd	0.017595226
21	0x3e2df19e	0.16986701
22	0x3e269772	0.1626871
23	0x3e6ae46d	0.229387
24	0xbd185365	-0.037188906
25	0xbddebd76	-0.108759806
26	0x3a898a48	0.0010493482
27	0x3cfe58c3	0.031048184
28	0x3e3deb72	0.18546847
29	0x3e1f652e	0.1556594
30	0x3df0220d	0.11725245
31	0x3e8f57ca	0.27996665
32	0x3e2c3ac8	0.16819298
33	0xbdc991c5	-0.098422565
34	0xbca8a3eb	-0.020585975
35	0x3d55f6eb	0.052237432
36	0x3cff0b00	0.031133175
37	0xbd8f278d	-0.069899656
38	0x3da6e8a1	0.08149839
39	0x3d111dba	0.03542874
40	0xbe6feb45	-0.23429592
41	0xbdc1f1ef	-0.09469973
42	0x3c791be5	0.0152044045
43	0xbdc5e043	-0.09661915
44	0x3c7565e1	0.014977903
45	0xbd9f3ece	-0.07775651
46	0xbdc23c4e	-0.094841585
47	0x3babf98e	0.005248255
48	0xbdcccfa8	-0.10000545
49	0xbe66b214	-0.22528869
50	0xbdd457fd	-0.10368345
51	0xbd4fce38	-0.050733775
52	0xbcd9a336	-0.026567083
53	0x3ceb6cea	0.028738458
54	0xbd3d9eee	-0.046294145
55	0xbcde9152	-0.027168903
56	0xbdab937b	-0.08377739
57	0xbd58a968	-0.052895933
58	0xbd359368	-0.04433003
59	0xbdec5498	-0.115395725
60	0xba61a1c9	-0.0008607177
61	0xbdf7fbb6	-0.12108557
62	0xbd102b7e	-0.035197727
63	0x3dd557c1	0.10417128
64	0x3da68161	0.08130146
65	0x3df8220d	0.1211587
66	0x3dc10808	0.0942536
67	0x3d9fd8ce	0.07805024
68	0x3e15a73d	0.14614578
69	0x3d19d684	0.037558094
70	0x3dc48925	0.09596471
71	0x3dd3d89c	0.10344049
72	0x3dbbbbae	0.091666564
73	0x3e556636	0.20839772
74	0xbd881dcc	-0.06646308
75	0x3dd2c1c4	0.10290864
76	0xbde556b5	-0.11198179
77	0xbd3fe726	-0.0468513
78	0x3dacc13d	0.08435295
79	0xbcf9e1c8	-0.030503169
80	0xbdc8c1d3	-0.09802594
81	0x3d2a9789	0.04164842
82	0x3de39472	0.11112298
83	0x3d8a20e3	0.06744554
84	0x3d56a7d7	0.05240616
85	0x3de78f81	0.11306668
86	0x3da18444	0.07886556
87	0xbc9c42b2	-0.019074772
88	0x3d5aed68	0.053449064
89	0x3d33075e	0.043708198
90	0xbc62130e	-0.013798488
91	0xbdc38334	-0.095465094
92	0x3c614708	0.013749845
93	0xb9eb6ffb	-0.00044906125
94	0xbe03fc68	-0.12889254
95	0xbd89d45e	-0.06729959
96	0x3b801102	0.0039082775
97	0xbdec5abc	-0.11540744
98	0x3d213e74	0.0393662
99	0x3e430dc0	0.19048214
100	0x3ca2d002	0.019874576
101	0x3e08a332	0.13343504
102	0xbda369aa	-0.07979138
103	0x3b5450e2	0.0032396843
104	0x3dcafd15	0.09911553
105	0x3d5ec57d	0.05438756
106	0xbcb1e167	-0.021713926
107	0x3da3507c	0.079743356
108	0xbd07506c	-0.03303568
109	0x3c3d83cc	0.011567067
110	0xbd8e7ed3	-0.069577836
111	0x3d2dea96	0.042460047
112	0xbd3f6ac3	-0.046732675
113	0xbe157550	-0.14595532
114	0xbcb07ba9	-0.02154334
115	0xbdee5cad	-0.1163877
116	0xbd403baa	-0.0469319
117	0x3d3c8b0f	0.046031054
118	0x3df3c901	0.11903573
119	0x3d4ebdc2	0.050473936
120	0x3dab100c	0.0835267
121	0xbc0d9e80	-0.008643746
122	0x3cef070f	0.02917817
123	0x3d3ac424	0.04559721
124	0x3d99465f	0.07484125
125	0x3cae09c4	0.021244891
126	0xbd5d7475	-0.05406614
127	0xbc4cc5dc	-0.012498345
128	0xbc91a731	-0.017779918
129	0xbd9f0224	-0.0776408
130	0x3cf1e71e	0.02952915
131	0x3bb0c555	0.0053946176
132	0xbdc67a4a	-0.096912935
133	0xbde3c3a4	-0.111213
134	0x3bd584c7	0.0065160724
135	0x3c818291	0.01580933
136	0x3dec768a	0.11546047
137	0xba71bec6	-0.0009221848
138	0x3c4c5bec	0.012473088
139	0x3e1b2774	0.15151769
140	0x3d84fb4d	0.06493244
141	0xbe21b208	-0.1579057
142	0x3ce01719	0.027354764
143	0xbcdc7ea9	-0.026915865
144	0x3d91d620	0.07120919
145	0x3e239239	0.15973748
146	0x3d692deb	0.056928556
147	0x3e3c3c31	0.18382336
148	0x3e759b6c	0.2398507
149	0x3d173e58	0.03692469
150	0x3d8fbaec	0.070180744
151	0x3dac57bf	0.08415174
152	0x3dc7b6ac	0.09751639
153	0x3dcd674b	0.10029467
154	0x3d9451fa	0.07242198
155	0x3d8220e0	0.06353927
156	0x3c3c6919	0.011499667
157	0x3dc62e36	0.09676783
158	0x3d09473b	0.033515196
159	0xbd11d165	-0.035600085
160	0x3dae5c0b	0.085136496
161	0xbc96ce23	-0.01840884
162	0x3dce4be0	0.10073066
163	0xba900cb4	-0.0010990114
164	0x3d77b00b	0.060470622
165	0x3d909798	0.07060164
166	0x3e0c1c37	0.13682638
167	0x3e434f19	0.19073142
168	0x3db5eea0	0.08883405
169	0xbd1747fb	-0.03693388
170	0x3db9f57e	0.09080027
171	0x3d2e69f4	0.042581514
172	0xbd162ee6	-0.03666582
173	0x3ce7d6d4	0.02830068
174	0x3e47a855	0.19497807
175	0x3e2ccea2	0.16875699
176	0x3e2f2fd2	0.17108086
177	0x3da47a28	0.08031112
178	0x3de66bb0	0.112510085
179	0x3e4d62d3	0.2005723
180	0x3d2d7eb0	0.042357147
181	0x3dcffb7f	0.10155391
182	0xbc1a7f89	-0.009429821
183	0x3da79c18	0.081840694
184	0x3c4caa55	0.012491782
185	0x3d79fadf	0.061030265
186	0xbd9b30b8	-0.07577652
187	0xbb844c09	-0.0040373844
188	0x3cb4a40b	0.022050878
189	0x3d4ff07e	0.05076646
190	0x3e3e4869	0.1858231
191	0x3d4e9146	0.050431512
192	0x3cbe5307	0.02323295
193	0x3c8e4fed	0.017372096
194	0x3df72c91	0.12069047
195	0x3d1398c3	0.036034357
196	0xbda27f92	-0.07934488
197	0xbdc127b5	-0.09431402
198	0x3d2d8f8f	0.042373236
199	0x3dc16f05	0.094450034
200	0x3d0c2de7	0.034223463
201	0x3cacbad3	0.021085178
202	0x3d5ac230	0.053407848
203	0x3d80eb42	0.06294872
204	0x3d05debc	0.03268312
205	0xbd6f7342	-0.058459528
206	0xbcdca375	-0.026933411
207	0x39741ba8	0.00023279956
208	0xbc85a0f7	-0.016312106
209	0x3d455e05	0.048185367
210	0x3d3f8634	0.046758845
211	0x3c976a15	0.018483201
212	0x3abb30b1	0.0014281479
213	0x3d77cbd0	0.060497105
214	0xbd5f6962	-0.05454386
215	0x3da15bdf	0.07878851
216	0xbd8367d3	-0.06416287
217	0x3dffa144	0.12481931
218	0xbc19b094	-0.009380478
219	0x3cbbd67b	0.02292942
220	0x3e4fb0ce	0.2028229
221	0x3da9f84f	0.08299314
222	0xbe02b666	-0.12764892
223	0x3d59e8b2	0.05320043
224	0x3d892fb2	0.0669855
225	0x3de3b01b	0.11117574
226	0x3de7af7b	0.11312767
227	0x3dd370e4	0.103242666
228	0x3dc74919	0.09730739
229	0x3e36238e	0.17787
230	0x3e0dffed	0.13867159
231	0x3e010585	0.12599762
232	0x3dc0684f	0.09394895
233	0x3df223f8	0.11823267
234	0x3de489be	0.11159085
235	0xbd2a4d7e	-0.04157781
236	0x3b6f0cd3	0.003647615
237	0xbe9468ef	-0.28986308
238	0x3d2d1a76	0.042261563
239	0xbed53eb5	-0.41649404
240	0xbd894717	-0.067030124
241	0x3b9e046c	0.0048223045
242	0xbd51298e	-0.05106502
243	0x3c995f6e	0.018722262
244	0xbdeeb127	-0.11654883
245	0x3d59adc1	0.05314422
246	0xbd9dff1c	-0.07714674
247	0xbedb0336	-0.42775887
248	0xbcd5f457	-0.026117487
249	0xbdc6db0b	-0.09709748
250	0xbdd61abf	-0.1045432
251	0x3d9a2382	0.07526304
252	0x3d84709a	0.064667895
253	0x3dcb52a4	0.09927872
254	0x3dd2df18	0.10296458
255	0x3d416416	0.04721459

local_map_cnn.2.bias f4 [32]
0	0xbcae7865	-0.021297643
1	0x3cd8e8c5	0.02647818
2	0xbb8ed3e8	-0.0043587573
3	0xbc9defa4	-0.019279309
4	0xbd6eddde	-0.058317058
5	0xbe1e4279	-0.15455045
6	0xbc172c25	-0.0092268335
7	0x3d4b7ea0	0.049681306
8	0xbd425ffb	-0.047454815
9	0xbd82d0d9	-0.06387491
10	0xbdc3076f	-0.09522902
11	0xbd9d8c4e	-0.076927766
12	0xbe1fb7d6	-0.15597472
13	0x3d262d20	0.04057038
14	0x3d0cdad4	0.03438838
15	0x3d51b336	0.0511963
16	0xbe2942b7	-0.16529356
17	0x3ce26bbb	0.02763926
18	0xbd3b35d0	-0.045705616
19	0xbd1ccb8e	-0.038280062
20	0xbd8cfb52	-0.06883873
21	0xbc8262a8	-0.015916184
22	0x3c08cd6b	0.008349757
23	0xbd4317a8	-0.047629982
24	0x3d741dcf	0.05959874
25	0x3dbc20ca	0.091859415
26	0xbdc7f3d2	-0.09763302
27	0xbdd2ae40	-0.10287142
28	0x3cf54964	0.029942222
29	0xbdd723e0	-0.105048895
30	0xbddb4de2	-0.10708214
31	0xbe3b1be1	-0.18272354

local_map_cnn.4.weight f4 [32, 32, 3, 3]
0	0xbcf29de4	-0.029616304
1	0xbe0e6af0	-0.13907981
2	0x3d89b1e5	0.06723384
3	0x3dc4d78f	0.09611427
4	0x3cdefc60	0.027219951
5	0x3c6ade1b	0.014335181
6	0xbddc9908	-0.10771376
7	0xbe375c4e	-0.17906305
8	0xbdec0b47	-0.115255885
9	0x3e51d9cc	0.20493239
10	0xbd06cb13	-0.03290851
11	0x3d84b338	0.06479496
12	0x3d085770	0.033286512
13	0xbebc7cd6	-0.36813992
14	0xbe2d8149	-0.1694385
15	0xbdc0c02c	-0.09411654
16	0x3e8e4a41	0.27791026
17	0x3da51be2	0.08061959
18	0xbd914e80	-0.07095051
19	0xbdb78b71	-0.08962143
20	0x3d86fb01	0.06590844
21	0xbca1b9af	-0.019741861
22	0xbdff7ebf	-0.12475347
23	0xbd91e8c0	-0.07124472
24	0x3dc1297b	0.0943174
25	0xbe574906	-0.2102395
26	0xbc475497	-0.012166164
27	0xbd3a3c9b	-0.045467954
28	0xbd4224c7	-0.047398355
29	0x3da278b4	0.079331785
30	0xbd3a0122	-0.045411237
31	0xbea8476a	-0.32866985
32	0x3d28a47d	0.041172493
33	0xbd5e31bb	-0.054246645
34	0xbdd85fd5	-0.105651535
35	0x3cd1d280	0.02561307
36	0x3c825f45	0.015914569
37	0x3ce2a529	0.027666645
38	0x3db2674a	0.08711107
39	0x3d67aa6f	0.056559023
40	0xbd625922	-0.055260785
41	0xbd0ad68e	-0.03389602
42	0x3d874b43	0.06606152
43	0xbdb6afd6	-0.08920257
44	0x3dcb1131	0.099153884
45	0xbd51c234	-0.051210597
46	0x3d871ea4	0.06597641
47	0x3da1dbe4	0.07903269
48	0xbdea588a	-0.11442669
49	0xbdc6a8f9	-0.09700198
50	0xbcd4e05a	-0.025985885
51	0xbd25a617	-0.0404416
52	0xbe57eef2	-0.21087244
53	0xbe27aaf9	-0.16373815
54	0x3d7262cd	0.059176255
55	0x3e09e34b	0.13465612
56	0xbc2a6100	-0.010399103
57	0x3d8d835e	0.06909822
58	0xbe8883e3	-0.26663122
59	0x3ca4ffae	0.020141449
60	0x3e0bdbdc	0.13658088
61	0x3d865bc7	0.06560474
62	0x3e0f0555	0.13966878
63	0xbdd74968	-0.10512048
64	0xb9fa77f1	-0.0004777308
65	0xbc91b64c	-0.017787121
66	0xbdb4adcd	-0.08822212
67	0xbd2f222b	-0.042757194
68	0x3e1edd0d	0.15514012
69	0xbd191e8d	-0.03738265
70	0xbe3dae75	-0.18523581
71	0xbe86641b	-0.2624825
72	0xbdbaf227	-0.09128218
73	0x3e3e4316	0.18580279
74	0xbca761f4	-0.02043245
75	0xbc6a9956	-0.014318785
76	0x3e67f686	0.22652635
77	0xbc50d477	-0.012745968
78	0x3dcdba66	0.10045318
79	0xbec02a27	-0.3753216
80	0xbcc718e1	-0.024303855
81	0xbe940d36	-0.2891633
82	0x3dcde095	0.10052601
83	0x3cbc3f2a	0.022979338
84	0xbd41a8da	-0.04728017
85	0xbe0ea841	-0.13931371
86	0xbe143770	-0.14474273
87	0x3cdb7559	0.026789354
88	0xbe742c05	-0.23844917
89	0xbc4e45ce	-0.012589885
90	0xbb886503	-0.004162432
91	0x3cc7a8a7	0.024372412
92	0x3e00bc6c	0.12571877
93	0xbd7f4498	-0.062321275
94	0xbe1a6078	-0.15075862
95	0x3d6d9dd6	0.058011852
96	0x3e1727a6	0.14761218
97	0xbda7e6c8	-0.08198315
98	0x3d8794c6	0.06620173
99	0x3dd7c926	0.10536413
100	0xbd8362d4	-0.06415334
101	0x3df0c1f4	0.117557436
102	0xbcccfa5d	-0.025021726
103	0xbe220b5e	-0.15824649
104	0xbc1010fe	-0.008793114
105	0xbdbb0040	-0.09130907
106	0xbcb18ec3	-0.02167452
107	0xbcbc163c	-0.02295982
108	0x3c61ff53	0.013793784
109	0xbce32b2b	-0.027730545
110	0x3daa8f30	0.08328092
111	0x3e141422	0.14460805
112	0xbe23a767	-0.15981828
113	0xbba19938	-0.004931595
114	0xbda5a7a0	-0.080886126
115	0xbe324555	-0.1740926
116	0x3e368165	0.17822798
117	0x3dfd3e1b	0.12365361
118	0x3daafcda	0.08349009
119	0x3d688d23	0.056775223
120	0x3dde0f8a	0.108428076
121	0xbe0d12e1	-0.13776733
122	0x3c926e24	0.017874785
123	0x3d16d6f2	0.03682608
124	0xbd50fbc0	-0.051021338
125	0xbe102c21	-0.14079334
126	0xbd8e72ef	-0.069555156
127	0xbdff8fa7	-0.124785714
128	0x3d5db571	0.054128114
129	0x3d2e9e97	0.04263171
130	0xbd1d7d9d	-0.038449872
131	0xbd623d75	-0.05523439
132	0xbc2a3e12	-0.010390775
133	0xbe893c99	-0.26804045
134	0xbe07a8ef	-0.13248037
135	0x3d6220a3	0.055206906
136	0xbe12ee5a	-0.14348736
137	0x3dc94981	0.09828473
138	0x3cf611d4	0.030037798
139	0xbe895134	-0.26819766
140	0xbd75efb7	-0.060043063
141	0xbd37512c	-0.044755146
142	0xbea038e2	-0.31293398
143	0xbdf6f653	-0.12058701
144	0xbb88ec7e	-0.0041785827
145	0xbb8abc98	-0.004233908
146	0x3e034a10	0.12821221
147	0xbc937a49	-0.018002646
148	0xbe3c31bd	-0.18378349
149	0x3d07c6a4	0.033148423
150	0x3ccf1ae1	0.025281372
151	0x3cd424f1	0.025896521
152	0x3d1c1e8a	0.03811506
153	0x3e0e7fd8	0.13915956
154	0xbd6e55a1	-0.05818713
155	0xbd54db73	-0.051967096
156	0x3c4f5557	0.012654624
157	0xbe18e5a0	-0.14931345
158	0xbd458da8	-0.048230797
159	0xbd981232	-0.074253455
160	0x3e116e6b	0.14202277
161	0x3dd0047e	0.10157107
162	0x3df35940	0.118822575
163	0xbd514a60	-0.05109632
164	0x3d3b2bbd	0.04569601
165	0xbd0bc449	-0.03412274
166	0xbdad6826	-0.0846713
167	0xbe219eac	-0.15783185
168	0x3d6f08e0	0.058358073
169	0x3d78ab0a	0.06070999
170	0x3d89a6c8	0.06721264
171	0xbb3c593c	-0.0028739711
172	0x3da4c419	0.08045215
173	0x3e642f1a	0.22283593
174	0x3a4a7f7d	0.0007724686
175	0xbe88fa20	-0.2675333
176	0x3cac164f	0.021006731
177	0xbd7c949b	-0.06166516
178	0x3da2d386	0.07950501
179	0x3db28705	0.08717159
180	0xbe20a505	-0.1568795
181	0x3dc21e2e	0.094784126
182	0x3d7870bd	0.06065439
183	0xbdc139b6	-0.094348356
184	0x3dd4144d	0.103554346
185	0xbdd27cc9	-0.10277707
186	0x3d8203da	0.06348391
187	0xbe29b5c9	-0.16573252
188	0x3dd35840	0.10319567
189	0x3d06c007	0.032897975
190	0xbd39f67c	-0.04540108
191	0x3dedf33a	0.116186574
192	0x3dc12f6f	0.09432875
193	0xbe2b4627	-0.1672598
194	0x3cc2b068	0.023765758
195	0x3e0795e1	0.13240768
196	0xbcddc6df	-0.027072368
197	0x3e26f9c7	0.1630622
198	0xbd5ee155	-0.054414112
199	0x3bb58abd	0.0055402205
200	0xbd840c1c	-0.06447622
201	0x3c1995e8	0.009374119
202	0x3e3355c8	0.17513192
203	0x3c633c2c	0.013869327
204	0x3dc6fc06	0.097160384
205	0x3d9d77d6	0.076888725
206	0xbe24c05d	-0.16089006
207	0x3e0bf3c1	0.13667203
208	0xbd5b3b01	-0.053523067
209	0x3e191f2d	0.14953299
210	0x3d3a76cb	0.045523446
211	0xbebde2df	-0.3708715
212	0x3cb5da11	0.022198709
213	0x3cee0305	0.029054174
214	0x3da2a827	0.07942229
215	0xbd433a99	-0.047663305
216	0xbdbbb53c	-0.09165427
217	0x3e10d77e	0.14144704
218	0xbe44d2a9	-0.19220985
219	0xbc378842	-0.01120192
220	0xbd557056	-0.052109085
221	0x3deb178e	0.11479102
222	0x3e01c307	0.12672053
223	0x3da712fa	0.08157916
224	0x3d6784b0	0.056523025
225	0xbcfc5843	-0.030803805
226	0x3c0a43bb	0.008439
227	0xbd99bf9f	-0.07507252
228	0x3e01954e	0.12654611
229	0x3df09666	0.11747436
230	0x3d243bbf	0.04009604
231	0x3d8c7586	0.06858353
232	0x3e038b23	0.12846045
233	0x3e0fac87	0.14030658
234	0xbd0b5b58	-0.03402266
235	0x3cc7e2f4	0.024400212
236	0x3d9453eb	0.072425686
237	0xbcd24db1	-0.025671812
238	0xbe07a07a	-0.1324481
239	0x3d4c09c5	0.049814004
240	0xbd04ddd2	-0.032438107
241	0xbe3e4fa5	-0.1858507
242	0x3d979666	0.07401733
243	0x3d9ee4e7	0.077585034
244	0x3d7da8a9	0.061928425
245	0x3dc29428	0.09500915
246	0xbd04987a	-0.032371975
247	0xbdf6bd52	-0.12047829
248	0x3bca60a7	0.0061760726
249	0x3cb01916	0.021496337
250	0xbd99ecbd	-0.07515857
251	0x3d91328c	0.07089719
252	0xbd2c301f	-0.04203808
253	0x3a915c15	0.0011090065
254	0x3d6d6f74	0.057967618
255	0xbc31c3cb	-0.010849903

local_map_cnn.4.bias f4 [32]
0	0x3d84a385	0.064765014
1	0xbc3f4f9d	-0.011676696
2	0xbe09f6c8	-0.13473046
3	0xbe85bfee	-0.26122993
4	0x3c94a7ac	0.018146358
5	0xbcb73442	-0.022363786
6	0x3c557d56	0.013030371
7	0xbddf8058	-0.109131515
8	0x3dd9adaa	0.10628827
9	0x3d5f61be	0.054536574
10	0x3da0bfa0	0.078490496
11	0xbdb42561	-0.08796192
12	0x3dc10f21	0.09426714
13	0x3e18eac2	0.14933303
14	0xbdfea446	-0.124336764
15	0x3e403c2c	0.18772954
16	0xbe160bcd	-0.14652939
17	0x3db7887d	0.0896158
18	0x3dd42340	0.10358286
19	0xbddbb184	-0.10727218
20	0xbdd9ae17	-0.10628908
21	0xbc49ae98	-0.012309693
22	0x3d4317a0	0.047629952
23	0xbd52da16	-0.051477514
24	0xbd21f570	-0.039540708
25	0x3dca2dab	0.09871992
26	0xbdd415e0	-0.10355735
27	0x3c913960	0.017727554
28	0x3d00a054	0.0314029
29	0x3db901aa	0.090335205
30	0x3c6e9da9	0.014563956
31	0x3ca41792	0.02003077

local_map_fc.weight f4 [64, 512]
0	0xbde698c1	-0.11259604
1	0xbe04a937	-0.12955175
2	0xbe4f36b2	-0.20235708
3	0xbe35d74e	-0.17757913
4	0xbcf6d2e9	-0.030129867
5	0xbde2f0ed	-0.11081109
6	0xbdb5a911	-0.088701375
7	0xbd2169b0	-0.039407432
8	0xbc772cb7	-0.015086344
9	0xbca52a1c	-0.02016168
10	0xbd6ebe35	-0.058286864
11	0x3cbf67dc	0.023364954
12	0x3da34566	0.07972221
13	0xbab4223b	-0.0013743112
14	0x3ce21a05	0.027600298
15	0xbe136093	-0.14392309
16	0xbd4d3902	-0.050103195
17	0xbd107187	-0.035264518
18	0xbd0ce1c1	-0.034394983
19	0xbbc0e0e3	-0.0058861836
20	0xbd84a42c	-0.06476626
21	0xbd887e30	-0.06664693
22	0xbd6dc2d0	-0.058047116
23	0xbd40d81c	-0.047081098
24	0xbcbdf15e	-0.023186382
25	0x37502833	1.2407126e-05
26	0xbc36242b	-0.011117022
27	0xbd2218d9	-0.039574478
28	0xbd22ec43	-0.039776098
29	0x3d21230c	0.039340064
30	0x3d1b8909	0.037972484
31	0x3c86104b	0.016365191
32	0xbdf85140	-0.12124872
33	0x3d529886	0.05141499
34	0xbca40068	-0.020019725
35	0x3ca682cb	0.020326039
36	0xbe9c6666	-0.30546874
37	0xbd989025	-0.074493684
38	0x3cb195fa	0.02167796
39	0xbdf2143d	-0.118202664
40	0x3d0a8f79	0.033828232
41	0xbe68be34	-0.22728807
42	0x3b32bd25	0.0027273383
43	0xbdab0fb4	-0.083526045
44	0x3e0486cd	0.12942047
45	0x3c57902a	0.01315693
46	0x3c7a2d18	0.01526954
47	0x3d42df5b	0.04757629
48	0x3d17f33e	0.03709721
49	0xbd227669	-0.039663706
50	0xbaf2712d	-0.0018496864
51	0x3d2b9277	0.041887727
52	0x3cd1a18d	0.025589729
53	0x3d141d0e	0.03616052
54	0x3d92783f	0.07151841
55	0xbd895178	-0.06704992
56	0x3c2f7d2b	0.010710995
57	0x3ddbdf03	0.107358955
58	0x3b66ff22	0.0035247286
59	0x3cdaf6ec	0.02672907
60	0x3d8b297b	0.06795021
61	0xbd85e159	-0.06537122
62	0xbd3da395	-0.046298582
63	0x3b0bba6f	0.002132084
64	0xbe02554e	-0.12727854
65	0xbe3c0c47	-0.18364058
66	0xbba1166f	-0.0049160044
67	0xbdec92d7	-0.11551445
68	0xbdc86ef0	-0.09786785
69	0xbda58b24	-0.080831796
70	0xbad4b9dd	-0.0016229708
71	0x3c53908e	0.0129128825
72	0x3dae8e7a	0.08523269
73	0xbd625834	-0.0552599
74	0xbce429ee	-0.027852025
75	0xbe587e34	-0.21141893
76	0x3c604fe8	0.013690926
77	0x3cbef912	0.023312125
78	0xbd8c989a	-0.06865044
79	0x3d7dd48b	0.061970275
80	0xbc849b37	-0.016187293
81	0xbc1cd535	-0.009572317
82	0xbe21129d	-0.15729757
83	0xbe052dd4	-0.13005763
84	0xbd3e94a3	-0.04652847
85	0xbda470a2	-0.080292955
86	0xbd20554a	-0.039143838
87	0x3e0b9fdd	0.13635202
88	0xbd4918dd	-0.049095977
89	0x3e4d5241	0.20050909
90	0xbdb529c1	-0.088458546
91	0x3dab8080	0.08374119
92	0xbd19d7e8	-0.03755942
93	0xbd16b0de	-0.036789767
94	0xbd5772e9	-0.05259982
95	0x3cb4c21d	0.022065217
96	0xbde248b2	-0.11049022
97	0x3d922276	0.07135479
98	0xbd039968	-0.03212872
99	0xbd89a3e4	-0.06720713
100	0xbdebf6c9	-0.1152168
101	0x3c9fe4a0	0.019518197
102	0xbd7ecbb7	-0.062205996
103	0x3c7aa1f2	0.0152974
104	0xbb8cf119	-0.004301202
105	0x3e0a6bd7	0.135177
106	0xbd9250f0	-0.07144344
107	0xbdaf8437	-0.0857014
108	0x3d537a8d	0.051630545
109	0x3c666aae	0.01406352
110	0x3cdd60b7	0.027023656
111	0x3be26a05	0.006909611
112	0xbcc2d709	-0.023784177
113	0xba4c4532	-0.00077922933
114	0x3c24b86e	0.010053737
115	0xbd484d0e	-0.04890161
116	0xbdc10f00	-0.09426689
117	0xbdc2c574	-0.095103174
118	0xbd77060e	-0.06030851
119	0x3cfd4faa	0.030921776
120	0x3bbe708c	0.0058117565
121	0xbe55e910	-0.20889688
122	0xbe1c7558	-0.15279138
123	0xbd948238	-0.072514
124	0xbb619549	-0.0034421256
125	0xbc866219	-0.016404198
126	0x3be5d130	0.0070134625
127	0x3cdbfa85	0.026852855
128	0xbdcf5873	-0.10124292
129	0xbe00ca5a	-0.12577191
130	0xbda303bf	-0.07959699
131	0xbe12ae54	-0.14324313
132	0xbe2d6479	-0.16932859
133	0xbdb4cf6b	-0.08828624
134	0xbe4776b2	-0.19478872
135	0x3cded525	0.027201245
136	0xbdaf6518	-0.08564204
137	0x3c84420e	0.016144779
138	0xbe52dfc6	-0.20593175
139	0xbcb2227d	-0.02174496
140	0x3d947c1d	0.07250235
141	0xbd07ffde	-0.033203
142	0x3c942516	0.01808409
143	0xbd9744e5	-0.073861875
144	0xbe3f24cd	-0.18666382
145	0x3c092c24	0.00837234
146	0xbe660759	-0.2246374
147	0xbe84a429	-0.25906494
148	0x3cda0fec	0.02661892
149	0xbd2357f2	-0.039878793
150	0xbe194f92	-0.1497176
151	0xbe3f0977	-0.18655954
152	0x3cd14824	0.025547095
153	0xbcb2bbc7	-0.021818055
154	0xbc04ce5e	-0.008105842
155	0xbe0a4426	-0.13502559
156	0xbe20af37	-0.15691839
157	0xbe14e9f9	-0.14542378
158	0x3d1c705d	0.038193095
159	0xbd5e0ad1	-0.054209534
160	0xbde09df4	-0.10967627
161	0xbe0f074d	-0.13967629
162	0x3d5607c8	0.052253515
163	0xbc2214e5	-0.009892677
164	0xbe3425fa	-0.17592612
165	0xbd2af8c8	-0.041741163
166	0xbd7d2129	-0.061799202
167	0xbd96559a	-0.07340546
168	0xbd04699c	-0.03232728
169	0xbdef9682	-0.11698629
170	0x3afc5000	0.0019249916
171	0xbd603146	-0.05473449
172	0xbdf6f721	-0.12058855
173	0xbe30f76e	-0.17281887
174	0xbcac7a6f	-0.021054475
175	0x3bf67dca	0.0075223194
176	0x3c3d048f	0.011536731
177	0xbcfccdfc	-0.03085994
178	0xbd8f414a	-0.06994875
179	0x3ca92074	0.020645358
180	0xbd00c5eb	-0.03143875
181	0xbdbcb78a	-0.09214695
182	0xbd34d13d	-0.044144858
183	0xbc7c92e1	-0.015415878
184	0xbdee010b	-0.11621293
185	0xbe27092f	-0.16312097
186	0xbdb8afd2	-0.0901791
187	0xbbacc07d	-0.00527197
188	0x3d340fe3	0.043960463
189	0x3d15bc32	0.03655643
190	0x3cb41f20	0.021987498
191	0x3d8c89f9	0.06862254
192	0xbdc728f6	-0.097246096
193	0xbe00a663	-0.12563471
194	0xbe6f887d	-0.2339191
195	0xbe8649f8	-0.2622831
196	0xbd6a44ae	-0.057194404
197	0xbd8d3aae	-0.06895958
198	0xbd7375f4	-0.05943866
199	0xbe500147	-0.20312987
200	0x3cbf3589	0.023340957
201	0x3d1bd32e	0.038043194
202	0x3d1c79dc	0.03820215
203	0xbd96cc0a	-0.07363136
204	0x3dd6deb0	0.10491693
205	0x3de5761e	0.1120417
206	0xbd159f7f	-0.03652906
207	0x3ca5c9de	0.02023786
208	0xbda1955a	-0.07889815
209	0xbe38507f	-0.17999457
210	0xbd0ea535	-0.034825522
211	0x3bbd88d8	0.0057841353
212	0xbd605c98	-0.054775804
213	0xbe33e16b	-0.17566459
214	0xbcd72ddd	-0.026266987
215	0xbd0ec285	-0.034853477
216	0x3cf2feef	0.029662577
217	0xbd1b1c3e	-0.03786873
218	0xbcd0c220	-0.025483191
219	0x3d47e5ae	0.048803024
220	0xbcc9944f	-0.024606852
221	0xbdb78fc9	-0.08962972
222	0x3c93b2b1	0.018029543
223	0xbcf77e8c	-0.03021171
224	0xbd030950	-0.031991303
225	0x3c730943	0.014833751
226	0xbc99c8e3	-0.018772548
227	0x3d93a059	0.07208318
228	0x3de8135f	0.1133182
229	0xbc7f104b	-0.015567849
230	0x3d97998a	0.07402332
231	0x3d31f829	0.043449555
232	0x3ad69c07	0.0016373404
233	0xbda5a4d6	-0.080880806
234	0x3d588d28	0.052868992
235	0x3c78628c	0.015160214
236	0x3c7f8ecc	0.01559801
237	0xbd81826e	-0.063237056
238	0x3d4b00f7	0.049561467
239	0xbd93c253	-0.07214799
240	0xbe0a6e3d	-0.13518615
241	0xbd273ea0	-0.04083121
242	0xbe251505	-0.161213
243	0xba34b262	-0.0006893036
244	0xbe0657b8	-0.131194
245	0xbd84f728	-0.06492454
246	0xbe48c9c5	-0.19608219
247	0xbd8065f1	-0.06269444
248	0xbe0287f4	-0.12747175
249	0xbe22f640	-0.1591425
250	0xbd93332d	-0.071874954
251	0xbc29fc82	-0.010375144
252	0xbd2a339d	-0.04155313
253	0xbdbed38a	-0.093176916
254	0xbcbc6f97	-0.023002429
255	0xbe13b463	-0.14424281

local_map_fc.bias f4 [64]
0	0xbd99bd5b	-0.0750682
1	0xbda514a4	-0.080605775
2	0x3cfdc9cc	0.030980013
3	0xbd82015a	-0.06347914
4	0xbd758e28	-0.059950024
5	0xbd9e430f	-0.07727634
6	0xbda1d280	-0.07901478
7	0x3db40649	0.08790261
8	0xbc9be641	-0.019030692
9	0xbd6c0f56	-0.057631813
10	0xbd4f5799	-0.05062065
11	0xbd061aae	-0.032740287
12	0x3ddec77d	0.10877893
13	0xbcb11a75	-0.021619061
14	0xbd024296	-0.031801783
15	0x3db59d5b	0.08867904
16	0x3cf8bfdc	0.030364923
17	0x3b397ae2	0.0028302004
18	0xbdab0a1b	-0.08351537
19	0x3c5751aa	0.013142029
20	0xbdbabd99	-0.09118194
21	0xbdf752cf	-0.12076341
22	0x3d0f25ec	0.034948274
23	0x3d8a2267	0.06744843
24	0xbd2493d6	-0.04018005
25	0xbd6dabca	-0.05802516
26	0x3d1370e7	0.035996344
27	0xbd780515	-0.06055172
28	0x3d19156c	0.037373945
29	0x3d5ba758	0.05362639
30	0xbb5c04b0	-0.003357213
31	0xbdb84229	-0.08996994
32	0x3cd0f584	0.025507696
33	0x3bd2ddb1	0.006435119
34	0xbd03115a	-0.03199897
35	0xbd357363	-0.044299494
36	0xbd5302f4	-0.05151649
37	0x3de6c412	0.11267866
38	0x3e0e0065	0.13867338
39	0x3b8aa4c8	0.0042310692
40	0xbd879c4c	-0.06621608
41	0xbcbf422f	-0.023346988
42	0x3ce53a5c	0.02798193
43	0x3de0fc28	0.10985595
44	0x3dacbdc1	0.0843463
45	0x3db13516	0.086527035
46	0xbd5ae804	-0.053443924
47	0x3b36cb6d	0.0027892247
48	0xbd436c55	-0.047710735
49	0xbc9f5fd2	-0.01945487
50	0xbd55d017	-0.052200403
51	0xbd16823a	-0.036745287
52	0x3c81466e	0.015780654
53	0xbd5d80a5	-0.054077763
54	0xbd52052c	-0.051274464
55	0x3d88eae7	0.06685429
56	0xbce957db	-0.028484276
57	0xbe4e3cbc	-0.20140356
58	0xbbf3d8c8	-0.007441614
59	0xbd578900	-0.052620888
60	0xbd08955c	-0.033345565
61	0x3d9a7dd2	0.075435296
62	0x3d823646	0.06358008
63	0x3da686a4	0.081311494

self_entity_fc1.weight f4 [32, 26]
0	0x3e7dd9de	0.24790141
1	0x3cdc660e	0.026904132
2	0xbb10987c	-0.0022063544
3	0x3cf6770f	0.030086068
4	0xbd15495c	-0.036446914
5	0x3e3c0ae1	0.18363525
6	0xbcba2dd9	-0.02272694
7	0xbeeceeed	-0.46276036
8	0xbcb9c686	-0.022677671
9	0xbde0d195	-0.109774746
10	0xbe1cb9ee	-0.15305302
11	0xbef532be	-0.47890276
12	0x3e244b6c	0.16044396
13	0xbe305b33	-0.1722229
14	0x3e53c013	0.20678739
15	0x3e126d19	0.1429943
16	0xbe700e77	-0.23443018
17	0xbdb0e106	-0.0863667
18	0x3dab7c32	0.08373298
19	0x3cfffc9f	0.031248389
20	0xbd8a6000	-0.06756592
21	0x3ea144f1	0.3149791
22	0xbe0d6ea6	-0.1381174
23	0x3e3d19a9	0.1846682
24	0xbb25c91a	-0.0025296868
25	0x3d567201	0.052354816
26	0xbeb4c874	-0.35309184
27	0xbdc7e88c	-0.09761152
28	0x3c58dbba	0.013235981
29	0x3e304767	0.17214738
30	0x3e24f6d4	0.16109782
31	0xbe1310fc	-0.14361948
32	0x3db574bf	0.08860158
33	0xbea7bfd0	-0.3276353
34	0xbd9d1c4a	-0.07671411
35	0xbd87b43b	-0.06626173
36	0xbe00642c	-0.12538213
37	0x3cb29605	0.02180005
38	0x3cf4b844	0.029873021
39	0x3d7edded	0.062223364
40	0x3e49c961	0.19705726
41	0x3dfd0541	0.12354518
42	0x3df96e3e	0.1217923
43	0x3a71d718	0.0009225472
44	0xbd7c8b21	-0.06165612
45	0xbb9a84be	-0.004715531
46	0xbd8fb5c1	-0.07017089
47	0x3d9f7130	0.07785261
48	0xbd3bb88b	-0.04583029
49	0xbc852ba7	-0.016256167
50	0x3db42b73	0.0879735
51	0x3e41221e	0.18860671
52	0xbd05ac85	-0.03263523
53	0xbd8c33da	-0.068458274
54	0x3d605a08	0.05477336
55	0xbe05a822	-0.13052419
56	0x3de5c900	0.11219978
57	0xbee2b4cb	-0.4427856
58	0xbe84549d	-0.25845805
59	0x3dc41d54	0.095759064
60	0x3dfbb8c3	0.122911
61	0xbd2570b2	-0.040390678
62	0xbede30fa	-0.4339674
63	0xbd819c95	-0.06328694
64	0xbd9d4c1f	-0.076805346
65	0x3da62886	0.08113198
66	0x3d67c67d	0.056585778
67	0x3e58e6c3	0.21181779
68	0x3c68d6c2	0.0142113585
69	0x3da5a778	0.08088583
70	0xb806c605	-3.213251e-05
71	0x3e10bf2b	0.14135425
72	0x3d94ef41	0.072721966
73	0x3dcb1954	0.0991694
74	0x3e381d9c	0.17980045
75	0xbddd610a	-0.10809524
76	0xbd23c6bd	-0.039984453
77	0xbe08bfb0	-0.13354373
78	0xbde788b6	-0.113053724
79	0xbd21313c	-0.039353594
80	0x3e01729d	0.12641378
81	0xbd9b4b0d	-0.07582674
82	0xbdb5bef9	-0.08874316
83	0x3dc0fdec	0.09423432
84	0x3dc7fb3b	0.09764715
85	0xbcaf5651	-0.021403464
86	0x3f3f4a25	0.7472251
87	0x3e95df84	0.2927209
88	0x3db48320	0.088140726
89	0xbda1b9e2	-0.078967825
90	0x3cfe34d9	0.03103106
91	0x3e80cfb8	0.25158477
92	0xbc1c9052	-0.009555893
93	0xbe1e244b	-0.15443532
94	0x3e4b60f7	0.19861208
95	0x3e702fec	0.2345578
96	0xbdf2d411	-0.11856855
97	0xbd180b49	-0.037120137
98	0x3e8be8dc	0.27326095
99	0xbd7e26a3	-0.062048566
100	0xbe1d0039	-0.15332116
101	0x3d1c78ac	0.03820102
102	0xbde15035	-0.110016264
103	0x3e08e625	0.13369043
104	0xbe302d0e	-0.17204687
105	0x3d17d8b8	0.037071913
106	0x3acb6925	0.0015519006
107	0xbe1b9597	-0.15193783
108	0x3e0715a4	0.13191849
109	0x3d478ea7	0.04872003
110	0x3b31b61c	0.0027116602
111	0xbe6f61c0	-0.23377132
112	0x3d3956ab	0.04524867
113	0x3e0f2a46	0.1398097
114	0x3edbed19	0.4295433
115	0x3e660e69	0.22466435
116	0x3e2256f6	0.15853485
117	0x3dd8b7e7	0.105819516
118	0xbe3590f5	-0.17731078
119	0x3d7a1262	0.061052687
120	0x3e61b56b	0.22041862
121	0x3ec4d130	0.38440847
122	0xbe04555e	-0.1292319
123	0xbd34f14d	-0.044175435
124	0x3d05813b	0.032593947
125	0xbda43995	-0.080187954
126	0xbd726288	-0.059175998
127	0xbcbeb324	-0.02327878
128	0xbde89f53	-0.11358514
129	0xbdd37a88	-0.10326105
130	0x3d91a5eb	0.071117245
131	0x3df39a6c	0.11894688
132	0x3e57a35e	0.21058413
133	0x3d81039c	0.062995166
134	0x3d477f61	0.048705462
135	0xbd921474	-0.071328074
136	0x3e0dd753	0.13851671
137	0xbef61235	-0.48060766
138	0x3e4e2c39	0.20134057
139	0xbc065aad	-0.00820033
140	0x3d30390d	0.043023158
141	0x3ea40fcc	0.32043302
142	0x3e1d69cb	0.15372388
143	0x3dfde022	0.123962656
144	0x3c8afa28	0.016964987
145	0xbe5b528f	-0.21418212
146	0x3d84df9e	0.06487964
147	0xbc821d75	-0.015883187
148	0xbe2fb40f	-0.1715853
149	0xbe509cd4	-0.20372325
150	0xbe3d1e10	-0.18468499
151	0xbe1ce276	-0.15320763
152	0xbe01c29e	-0.12671897
153	0xbe3ab7bc	-0.18234152
154	0x3d7b0a9f	0.061289426
155	0x3dc5f85e	0.09666513
156	0xbd536bb9	-0.051616404
157	0xbe0e6be2	-0.13908342
158	0xbc16c482	-0.009202125
159	0x3e17d65c	0.14827865
160	0x3dd4bcdb	0.10387584
161	0xbd3000c4	-0.04296948
162	0xbd4e07bc	-0.050300345
163	0xbea2271a	-0.31670457
164	0x3db43e64	0.088009626
165	0xbd04a773	-0.032386255
166	0xbe9b7912	-0.30365807
167	0x3d7a0fbc	0.06105016
168	0xbf47634f	-0.7788591
169	0x3d97e872	0.07417382
170	0x3dc17638	0.094463766
171	0x3d59570f	0.05306154
172	0xbe9e7f00	-0.30956268
173	0xbe057168	-0.13031542
174	0x3d562b4d	0.05228739
175	0x3ce64d3c	0.028113
176	0xbccc3473	-0.024927353
177	0x3e4bbeb2	0.19896963
178	0x3e034e48	0.1282283
179	0xbdbc5e49	-0.09197671
180	0x3bf59557	0.0074946093
181	0xbe00afce	-0.12567064
182	0x3e439356	0.19099173
183	0x3be6c606	0.007042649
184	0xbbec590a	-0.0072127627
185	0x3d1cb916	0.03826245
186	0xbd1e27df	-0.038612243
187	0xbe0c95a5	-0.1372896
188	0x3dc5b9c4	0.096545726
189	0x3c30e957	0.01079782
190	0xbf0fbc2e	-0.56146514
191	0x3e1d4709	0.15359129
192	0xbe18b2bd	-0.14911933
193	0x3e7ae877	0.24502741
194	0x3dc62dbf	0.09676694
195	0x3df4129b	0.11917611
196	0x3dbecde7	0.093166165
197	0x3e7af9c1	0.24509336
198	0x3de689d0	0.112567544
199	0x3e5135d6	0.20430693
200	0xbd30fccf	-0.043209847
201	0x3dda1c4e	0.1064993
202	0x3d40b348	0.047045976
203	0x3e3e7709	0.18600096
204	0x3bd4df61	0.0064963554
205	0xbd94216f	-0.072329395
206	0x3dba05be	0.090831265
207	0xbe0fa600	-0.14028168
208	0x3c634407	0.013871199
209	0xbdee4950	-0.11635077
210	0xbb4c5c10	-0.0031182803
211	0x3dbbce90	0.09170258
212	0xbd0b9121	-0.034073953
213	0xbda67336	-0.081274435
214	0x3d02a3f4	0.03189464
215	0x3ef108d8	0.4707706
216	0x3d6a86ae	0.057257347
217	0x3d664974	0.056222394
218	0xbf31abbf	-0.6940269
219	0xbdeef6da	-0.11668177
220	0xbe0a03ed	-0.1347806
221	0x3dd02cd1	0.10164798
222	0x3e2d8b46	0.1694766
223	0x3e03a3a3	0.12855391
224	0x3e0b0693	0.13576727
225	0xbe196860	-0.14981222
226	0xbd827546	-0.063700244
227	0xbda85721	-0.082197435
228	0xbd773877	-0.060356583
229	0x3e1d8f58	0.15386713
230	0x3dc59a67	0.096485905
231	0xbd6dce39	-0.058057997
232	0xbe0aedf0	-0.13567328
233	0xbe08d058	-0.13360727
234	0xbe3c017e	-0.18359944
235	0xbe4f055b	-0.20216887
236	0xbd4fb017	-0.05070504
237	0x3db22b94	0.08699718
238	0xbd90532b	-0.07047113
239	0xbebbb7ba	-0.3666361
240	0xbed370a2	-0.4129687
241	0x3e0f2983	0.13980679
242	0xbe0d9867	-0.13827668
243	0xbd1f1d8f	-0.03884655
244	0x3e179ea8	0.14806616
245	0x3e3198af	0.173434
246	0x3d9c10fc	0.07620427
247	0xbd8dc73e	-0.06922768
248	0x3da7d511	0.08194936
249	0x3de54b35	0.11195985
250	0xbd364b11	-0.044505183
251	0xbdeb1ffb	-0.11480709
252	0x3d82277c	0.06355187
253	0xbd98693e	-0.07441948
254	0xbad16daf	-0.0015978123
255	0x3e8a3c0c	0.26998937

self_entity_fc1.bias f4 [32]
0	0xbc98d884	-0.01865793
1	0x3e8615f9	0.2618864
2	0x3cdb6dc1	0.026785733
3	0xbe68d70c	-0.22738284
4	0xbd76f045	-0.060287733
5	0xbdf0f65f	-0.117657416
6	0x3e6bbe95	0.2302192
7	0x3dfab270	0.122410655
8	0x3e581dce	0.2110512
9	0x3e139a3b	0.14414303
10	0x3d97eb5d	0.07417939
11	0x3e5bbde1	0.21459152
12	0x3cd6fa9b	0.026242545
13	0xbcd7cb04	-0.026341923
14	0xbde3e57b	-0.11127754
15	0xbd038f03	-0.03211881
16	0x3e136af1	0.14396264
17	0x3e171938	0.14755714
18	0x3e62697b	0.2211055
19	0x3d1be3a5	0.038058896
20	0x3e64507f	0.22296332
21	0x3de87258	0.11349934
22	0x3e72f688	0.23726857
23	0xbd8b0b4c	-0.06789264
24	0x3e71cdc1	0.23613645
25	0x3dd94dee	0.10610567
26	0xbe5cce24	-0.21563011
27	0x3d3060f3	0.043061208
28	0x3ec9a768	0.39385533
29	0x3f044488	0.5166707
30	0xbd727110	-0.059189856
31	0x3d53280d	0.051551867

self_entity_fc2.weight f4 [32, 32]
0	0xbd868a5b	-0.06569358
1	0x3e31e6be	0.17373177
2	0x3ef8c322	0.48586375
3	0xbed04c97	-0.40683433
4	0x3e4af224	0.19818932
5	0x3dd3dd91	0.10344995
6	0xbe3c4488	-0.18385518
7	0x3e4d4547	0.20045958
8	0xbefde84b	-0.49591288
9	0xbd54e32e	-0.051974468
10	0x3d86ed4d	0.0658823
11	0xbdf664dd	-0.12030957
12	0xbd9490c5	-0.07254175
13	0x3dc6dbbc	0.0970988
14	0xbeb57a9c	-0.35445106
15	0x3d98b70d	0.07456789
16	0x3dc12c6d	0.09432302
17	0x3d9c7e36	0.0764126
18	0x3dc5fac3	0.096669696
19	0x3d053064	0.032516852
20	0x3c0c13fc	0.0085496865
21	0x3bbc8ac4	0.005753847
22	0xbda57db2	-0.08080615
23	0x3e7d9c7d	0.24766727
24	0x3b651ad8	0.0034958627
25	0x3ddb0d7f	0.106959336
26	0xbebfd2f8	-0.37465644
27	0x3e5daba9	0.21647514
28	0x3f09a5ea	0.5376879
29	0x3f09d221	0.53836256
30	0x3e7fefb7	0.24993788
31	0xbd12e743	-0.03586508
32	0x3e89d774	0.2692219
33	0x3df2bd5e	0.11852525
34	0xbd4bd20d	-0.049760867
35	0x3d8de725	0.06928853
36	0xbf0ced09	-0.55049187
37	0xbdd2e95b	-0.10298415
38	0x3f3b29d3	0.73110694
39	0xbdd7b82a	-0.105331734
40	0x3f0c85b5	0.5489152
41	0x3a50332a	0.00079421944
42	0x3e927a57	0.28608963
43	0x3f10a353	0.56499213
44	0x3cc61f68	0.024184898
45	0xbf0ba95a	-0.54555285
46	0x3e02a27b	0.12757294
47	0x3e33876d	0.1753213
48	0x3e83bd2d	0.25730267
49	0xbd66581e	-0.05623638
50	0x3ced4ecc	0.028968237
51	0xbdf94ad4	-0.121724755
52	0x3d6f5eba	0.058439948
53	0x3dd94058	0.10607976
54	0xbe113f4e	-0.14184305
55	0xbe035ecd	-0.12829132
56	0xbe7fb899	-0.24972762
57	0x3d61be39	0.05511305
58	0xbde84584	-0.11341384
59	0xbde2addd	-0.11068318
60	0xbf08abdc	-0.53387237
61	0xbf170499	-0.5899139
62	0xbe0b4f85	-0.13604553
63	0xbdd2af41	-0.10287333
64	0xbd91f1b1	-0.07126177
65	0xbd6301a1	-0.055421475
66	0xbeedbae3	-0.46431646
67	0xbe9b7754	-0.30364478
68	0x3e5f3431	0.21797253
69	0xbe0ff27d	-0.14057346
70	0xbd949386	-0.072547
71	0x3e08e8c3	0.13370042
72	0xbf86df89	-1.0536968
73	0xbc984219	-0.018586205
74	0x3db182f6	0.08667557
75	0xbb2d67e2	-0.0026459624
76	0xbd7d360a	-0.061819114
77	0xbf1be6a7	-0.6089882
78	0xbeafd856	-0.3434474
79	0x3ddbaaaa	0.10725911
80	0x3d8bf992	0.06834711
81	0x3d451f3f	0.0481255
82	0x3e8e3368	0.27773595
83	0xbe8230fe	-0.25428003
84	0x3d2a8832	0.041633792
85	0x3d97c96b	0.07411464
86	0x3da89ddd	0.08233235
87	0x3e564d8c	0.2092802
88	0x3dca7a48	0.098866045
89	0x3e4978e2	0.1967502
90	0xbeccb281	-0.39979938
91	0xbd3b1f28	-0.04568401
92	0x3ccc141e	0.024911936
93	0xbd9c97d8	-0.076461494
94	0xbace0bd3	-0.0015720077
95	0xbcd7b97b	-0.026333561
96	0x3cf9d356	0.03049628
97	0xbe1f68f8	-0.15567386
98	0xbed872d8	-0.4227512
99	0x3de72600	0.11286545
100	0x3e1f7c08	0.15574658
101	0x3e5a9d72	0.21349123
102	0xbd764b63	-0.060130488
103	0xbecfef39	-0.406122
104	0xbee31f86	-0.44359988
105	0xbe7d4985	-0.24735077
106	0xbf112996	-0.5670408
107	0xbcc8ccf5	-0.024511794
108	0x3e95a34e	0.29226154
109	0xbf1057ce	-0.5638398
110	0x3e9e9e45	0.30980125
111	0x3e08a880	0.13345528
112	0x3d5c3835	0.05376454
113	0x3e57ba47	0.21067153
114	0xbed6e35d	-0.4197034
115	0xbc1447d7	-0.009050331
116	0xbe1acfd8	-0.15118349
117	0xbe74591d	-0.23862119
118	0xbdf773a7	-0.12082606
119	0xbd95ec90	-0.07320511
120	0x3bc3d77e	0.0059766164
121	0xbda6e217	-0.08148592
122	0x3e696fc9	0.22796549
123	0xbef376ce	-0.47551578
124	0x3e26ba1b	0.16281931
125	0x3dde9af2	0.10869397
126	0xbddfcb35	-0.109274305
127	0x3e380a2a	0.17972627
128	0x3ec858cb	0.39130244
129	0x3e206ecd	0.15667267
130	0xbdc99fbb	-0.09844919
131	0xbd168436	-0.03674718
132	0xbebe39b8	-0.3715341
133	0xbdf22351	-0.11823142
134	0x3e531e5c	0.2061705
135	0xbe09cd1f	-0.13457154
136	0x3f037ad4	0.51359296
137	0xbcdb24b6	-0.026750904
138	0x3e7da663	0.24770503
139	0x3f1584e1	0.5840588
140	0x3e0a8280	0.13526344
141	0xbf36d32c	-0.7141597
142	0xbd16c6a3	-0.03681053
143	0x3e533fe5	0.20629843
144	0x3e64551f	0.22298096
145	0x3c849f38	0.016189203
146	0xbd2ffcea	-0.042965807
147	0x3b8ec5e3	0.004357086
148	0x3e98d210	0.29847765
149	0x3dacc807	0.0843659
150	0x3c5e10ed	0.01355384
151	0x3e175afa	0.14780799
152	0xbeb2b614	-0.3490454
153	0x3da9c291	0.08289064
154	0x3d3407a0	0.043952584
155	0x3d8412d3	0.06448903
156	0xbed4445d	-0.41458407
157	0xbefb7c0b	-0.49118075
158	0x3cad9de6	0.021193456
159	0xbc15fea8	-0.009154953
160	0x3e014087	0.12622271
161	0x3e9c5505	0.30533615
162	0x3ebd2ac7	0.369467
163	0xbda01924	-0.07817295
164	0x3e20c2f7	0.15699373
165	0xbd31ff7c	-0.04345654
166	0x3e0efa61	0.139627
167	0x3dbf7222	0.09347941
168	0x3f6ecb70	0.9327917
169	0xbe2cda88	-0.16880238
170	0x3ea3284c	0.31866682
171	0x3e6924e3	0.22767977
172	0xbe7afc67	-0.24510346
173	0x3ed2e5be	0.41190904
174	0x3e354da5	0.177054
175	0x3e275eac	0.16344708
176	0x3e4fd936	0.20297703
177	0x3cc8004a	0.0244142
178	0x3cba72ea	0.022759873
179	0x3e0f88ed	0.14017077
180	0x3dbb9445	0.091591395
181	0xbdc19ed4	-0.09454122
182	0x3dd83a48	0.10557991
183	0xbc10adaf	-0.008830472
184	0x3e82ed98	0.25571895
185	0xbe128849	-0.14309801
186	0xbe67681c	-0.22598308
187	0x3db04f38	0.0860886
188	0xbe9162c6	-0.2839567
189	0xbeec12ce	-0.46108097
190	0xbd810f80	-0.063017845
191	0xbe38be20	-0.18041277
192	0xbce840bb	-0.028351178
193	0x3e423d18	0.18968618
194	0x3e3ba81e	0.1832585
195	0xbea8e2d2	-0.3298555
196	0x3dc1a776	0.09455769
197	0x3d96f0d9	0.07370157
198	0xbec5c1dc	-0.38624465
199	0x3cf8ec1d	0.030386025
200	0xbf8e6ba1	-1.1126596
201	0x3b6ade1a	0.003583795
202	0x3e6288b0	0.22122455
203	0xbe020a99	-0.12699355
204	0xbe3cf18b	-0.18451516
205	0xbf17e282	-0.5933
206	0xbcc547ff	-0.024082182
207	0xbdb4a0bc	-0.0881972
208	0x3e14fe0c	0.14550036
209	0x3e6621db	0.22473852
210	0x3e04410a	0.12915435
211	0x3dbbdf3d	0.09173439
212	0x3e355c5f	0.17711018
213	0xbdf2d922	-0.11857821
214	0x3e59ba7c	0.21262544
215	0x3deb9e9a	0.1150486
216	0x3de25088	0.11050516
217	0x3d085357	0.033282604
218	0xbef4beec	-0.47801912
219	0x3e8f1a56	0.2794978
220	0xbd56cf52	-0.05244381
221	0xbdaafce5	-0.08349017
222	0xbcf831f2	-0.030297253
223	0x3cbe7bcd	0.023252392
224	0x3ee579ee	0.44819587
225	0x3b3c0cc5	0.0028694135
226	0x3dd10a37	0.102070265
227	0xbd8aa6c7	-0.067700915
228	0xbd9cd603	-0.07658007
229	0xbe422cec	-0.18962449
230	0xbe99b764	-0.30022728
231	0x3d3336e2	0.043753512
232	0x3ed18c95	0.40927568
233	0x3d3513df	0.044208404
234	0x3dca79a2	0.09886481
235	0x3f0ccd93	0.5500118
236	0xbc8cfe85	-0.017211208
237	0xbf45491b	-0.77064675
238	0x3cba0877	0.022709114
239	0x3daa45ef	0.0831412
240	0x3cfdebf1	0.030996295
241	0xbd95f5a2	-0.07322241
242	0x3d648d01	0.055798534
243	0x3d1745be	0.036931746
244	0x3e15649e	0.14589164
245	0xbdbbe9f5	-0.09175483
246	0xbd1112e9	-0.035418425
247	0x3e865ac5	0.26241127
248	0xbe942959	-0.28937796
249	0x3d7c5644	0.061605707
250	0xbd6e7820	-0.05822003
251	0xbcf23032	-0.029563997
252	0xbee8ca5d	-0.4546689
253	0xbec70629	-0.38871887
254	0x3d22f6d2	0.039786167
255	0x3d632cd6	0.05546268

self_entity_fc2.bias f4 [32]
0	0x3dd13fde	0.1021726
1	0x3dad9bda	0.08476992
2	0x3ca9d383	0.02073074
3	0xbd96cf49	-0.07363755
4	0x3e436576	0.19081673
5	0xbd195cb0	-0.03744191
6	0xbcdc6afe	-0.026906487
7	0x3e886a23	0.26643476
8	0xbd739170	-0.059464872
9	0xbdfa63eb	-0.12226089
10	0x3e32d846	0.17465314
11	0x3c12f62a	0.008969823
12	0xbe16b369	-0.14716877
13	0x3e300642	0.17189887
14	0xbcf001de	-0.029297765
15	0xbdf21a0a	-0.11821373
16	0xbdbcc45f	-0.09217142
17	0xbe0fc94b	-0.14041631
18	0xbd53394b	-0.05156831
19	0xbde4f971	-0.1118039
20	0x3e2de710	0.16982675
21	0x3e160ea6	0.14654025
22	0x3cbf0121	0.023315968
23	0xbe3d98e2	-0.18515351
24	0x3da3d7e3	0.080001615
25	0xbd390cf3	-0.045178365
26	0xbd946183	-0.072451614
27	0xbdfe08ca	-0.1240402
28	0x3dcf7983	0.101305984
29	0xbd65989a	-0.056053735
30	0x3dd7afb6	0.10531561
31	0x3e2cf4af	0.16890214
