my-submission/checkpoints/model_164096.pt (torch, 352797 bytes, 23 tensors)

local_map_cnn.0.weight f4 [32, 24, 3, 3]
-0.010549355 0.06917732 0.13984236 0.060635395 -0.01401486 0.08863061 -0.06025799 -0.0998464
0.04621988 0.06260439 -0.016674222 -0.06892849 0.08902344 0.018435987 0.1277878 0.02771437
-0.023254689 -0.21670921 -0.003069412 0.032407217 0.085333966 0.02269698 -0.110196814 -0.225277
-0.040817566 -0.023462627 0.032495648 0.018955518 0.029232927 0.11313262 0.012026493 -0.013820248
-0.22180593 -0.04573417 -0.015429148 0.07469006 0.0026892826 0.008105602 0.038436215 0.02806327
0.039058167 0.030081362 -0.026378939 -0.003540214 0.07810058 0.0743442 0.084543824 -0.08264843
0.012119684 0.02172215 0.12540007 0.028784404 0.014486192 -0.1212561 -0.05221822 0.020761942
-0.021106672 -0.035342287 -0.06652737 -0.08480649 -0.14351699 -0.077707924 0.10904153 -0.01790296
-0.05191053 0.0017323326 0.047222286 -0.16999908 0.07726704 -0.10029339 -0.0026516148 -0.07218386
-0.028363133 -0.048419945 0.10443171 -0.043938458 -0.11922594 -0.050383497 -0.038337007 -0.069505624
-0.014445945 -0.01869782 -0.03206048 0.0052946582 0.028607778 -0.07772262 -0.09966493 0.041150283
-0.07347685 0.046376176 -0.13869448 0.069334365 0.025198117 -0.03882616 -0.044242315 -0.110532306
-0.086120516 -0.048388813 0.0376567 -0.035110474 -0.031995494 0.025247946 -0.04310268 -0.07305812
-0.06557493 0.07884764 -0.00679568 -0.039963372 -0.048595376 -0.03579517 0.07661071 0.0059977914
-0.0049416837 -0.19700216 -0.030109432 -0.044862855 0.031664245 -0.012129005 0.011620954 -0.049106546
0.0028716533 0.017690301 -0.11392753 0.009419626 -0.013230978 0.041292675 0.019408511 -0.080942065
-0.011315361 0.028275132 0.0136621175 0.09289436 -0.031207124 -0.0689853 -0.15969871 -0.073473684
-0.022653116 0.028772205 -0.006927459 -0.042557985 -0.049083605 -0.027438965 0.086091176 0.19446073
0.045774784 0.07297912 0.06459585 0.064575054 -0.031427715 -0.29870823 -0.0039003696 -0.03344373
0.1483876 -0.061013963 -0.09316071 -0.065320484 -0.04589298 -0.062987566 -0.009928722 0.033895593
-0.053124208 -0.08205643 0.038177364 -0.07614249 0.21114482 -0.0241578 0.023563907 0.1360061
0.07128185 -0.05884502 0.27108318 0.12098089 -0.017431818 0.1112543 0.09844396 0.010002768
-0.026563229 0.14387213 0.24380837 0.05571596 -0.3091213 -0.16802898 -0.18889715 -0.087150864
-0.2774036 -0.16431408 -0.056192674 -0.13184291 -0.0446864 0.5440092 0.6678493 0.41728923
0.6783085 0.728834 0.43448386 0.105897844 0.3769461 0.1770527 0.44350788 0.61213
0.21201134 0.69440776 0.79054016 0.012699652 0.069017075 0.4469414 0.27371907 0.12849289
0.07248013 0.091484174 0.09798752 0.033921227 -0.0549332 0.117892504 0.026233302 0.012842661
0.01618891 -0.05440497 0.033687543 -0.046505798 0.030731153 0.037731607 -0.064993136 0.049368795
-0.05712306 -0.01715833 0.06125726 -0.0003449886 0.038782507 0.01739005 0.016717631 0.031032175
0.09142171 0.025183732 -0.0076460927 0.0034300284 0.023159206 -0.032019798 -0.05498908 0.02703023
-0.020191835 -0.011494245 0.009710576 0.01556784 0.011281804 0.057695646 0.02682958 0.050756447
0.0841218 0.031066054 0.06327288 0.040146705 0.028842887 -0.039035007 0.019562878 -0.016874954
00000000: 34d7 2cbc d7ac 8d3d d632 0f3e d25c 783d
00000010: 959e 65bc f783 b53d 15d1 76bd 457c ccbd
00000020: 0f51 3d3d bb36 803d 6198 88bc 612a 8dbd
00000030: ec51 b63d 1107 973c ceda 023e 3f09 e33c
00000040: 9e80 bebc 05e9 5dbe 3028 49bb 6ebd 043d
00000050: 93c3 ae3d 04ef b93c deae e1bd 04af 66be
00000060: 5230 27bd b234 c0bc 281a 053d 9a48 9b3c
00000070: e479 ef3c 13b2 e73d c50a 453c 526e 62bc
00000080: 1821 63be c153 3bbd 8aca 7cbc 1af7 983d
00000090: ad3e 303b 5ccd 043c 4b6f 1d3d f1e4 e53c
000000a0: 75fb 1f3d 306d f63c a518 d8bc ef02 68bb
000000b0: 32f3 9f3d c641 983d 5025 ad3d 9443 a9bd
000000c0: a491 463c a6f2 b13c e068 003e 45cd eb3c
000000d0: 7e57 6d3c 1e55 f8bd c6e2 55bd f314 aa3c
000000e0: e6e7 acbc 13c3 10bd 803f 88bd 06af adbd
000000f0: 1ef6 12be 5525 9fbd 2a51 df3d 3aa9 92bc
00000100: 23a0 54bd 700f e33a 286c 413d 3d14 2ebe
00000110: 2f3e 9e3d 9f66 cdbd b7c6 2dbb 22d5 93bd
00000120: cd59 e8bc fe53 46bd 4be0 d53d d0f8 33bd
00000130: bb2c f4bd ed5e 4ebd 4407 1dbd f758 8ebd
00000140: afae 6cbc 2c2c 99bc da51 03bd d07e ad3b
00000150: dc5a ea3c 092d 9fbd 201d ccbd 338d 283d
00000160: 087b 96bd f2f4 3d3d ed05 0ebe 2dff 8d3d
00000170: 486c ce3c 2e08 1fbd 6e37 35bd c35e e2bd
00000180: f45f b0bd 5933 46bd e93d 1a3d 00d0 0fbd
00000190: b50d 03bd c8d4 ce3c 708c 30bd 7f9f 95bd
000001a0: 264c 86bd df7a a13d 4cae debb a2b0 23bd
000001b0: f20b 47bd f59d 12bd 13e6 9c3d 1f89 c43b
000001c0: d9ed a1bb efba 49be 0ea8 f6bc 1dc2 37bd
000001d0: 5eb2 013d bcb8 46bc d065 3e3c f223 49bd
000001e0: 5932 3c3b 40eb 903c d652 e9bd c654 1a3c
000001f0: bec6 58bc 8222 293d 99fe 9e3c f4c4 a5bd
00000200: 1064 39bc 40a1 e73c 13d7 5f3c 663f be3d
00000210: 15a6 ffbc 2a48 8dbd 0f88 23be 5f79 96bd
00000220: 0793 b9bc b0b3 eb3c bdff e2bb 4851 2ebd
00000230: e40b 49bd aec7 e0bc 9250 b03d b720 473e
00000240: 577e 3b3d 1476 953d d44a 843d ed3f 843d
00000250: 59ba 00bd 49f0 98be 589d 7fbb 4bfc 08bd
00000260: ebf2 173e c7e9 79bd 0bcb bebd bfc6 85bd
00000270: 47fa 3bbd a0ff 80bd 14ac 22bc 1bd6 0a3d
00000280: c598 59bd 340d a8bd de5f 1c3d 98f0 9bbd
00000290: 5936 583e 94e6 c5bc 1809 c13c 2f45 0b3e
000002a0: 38fc 913d 7a07 71bd 6acb 8a3e d4c4 f73d
000002b0: 2ccd 8ebc 4bd9 e33d fd9c c93d a6e2 233c
000002c0: 219b d9bc 3753 133e e7a8 793e 6b36 643d
000002d0: 2645 9ebe ca0f 2cbe 416e 41be 277c b2bd
000002e0: d807 8ebe f341 28be 4a2a 66bd d401 07be
000002f0: 1609 37bd 3044 0b3f 2cf8 2a3f efa6 d53e
00000300: a0a5 2d3f dd94 3a3f ab74 de3e f8e0 d83d
00000310: 14ff c03e 4e4d 353e 7713 e33e 8db4 1c3f
00000320: 8019 593e b5c4 313f d760 4a3f 3412 503c
00000330: d358 8d3d 81d5 e43e e824 8c3e a493 033e
00000340: 7670 943d 0e5c bb3d aead c83d fcf0 0a3d
00000350: a301 61bd a071 f13d 39e7 d63c 066a 523c
00000360: 9b9e 843c bfd7 5ebd f3fb 093d dd7c 3ebd
00000370: e6bf fb3c 758c 1a3d 1f1b 85bd ef36 4a3d
00000380: dff9 69bd a08f 8cbc e5e8 7a3d 96df b4b9
00000390: 68da 1e3d 9475 8e3c 6af3 883c 3037 fe3c
000003a0: 4e3b bb3d 1d4e ce3c 138c fabb 54ca 603b
000003b0: 60b8 bd3c 3127 03bd 3b3c 61bd 806e dd3c
000003c0: 5969 a5bc 5c52 3cbc 1c19 1f3c 4110 7f3c
000003d0: 51d7 383c 4552 6c3d b5c9 db3c fee5 4f3d
000003e0: 0d48 ac3d 3d7e fe3c 3695 813d df70 243d
000003f0: eb47 ec3c 2ce3 1fbd 5442 a03c 583d 8abc

local_map_cnn.0.bias f4 [32]
-0.00511159 -0.034462813 -0.013521861 -0.04774518 0.044250324 0.00044594044 0.030619975 -0.03742312
0.012255621 -0.08948351 0.015489075 0.0064458405 -0.021649541 -0.03644504 -0.031349283 -0.09530414
-0.028639806 0.043174364 0.045681387 0.030654117 -0.071110696 0.05626836 0.003624507 -0.033415407
-0.046399638 -0.06135993 -0.047652956 -0.010853025 0.069414146 0.04272962 0.06967098 0.018556846
00000000: 207f a7bb e128 0dbd cc8a 5dbc 7390 43bd
00000010: d43f 353d 1dcd e939 bed6 fa3c fc48 19bd
00000020: cdcb 483c 2143 b7bd e4c5 7d3c a137 d33b
00000030: 615a b1bc 6547 15bd 1b68 00bd d12e c3bd
00000040: 079e eabc 9ad7 303d 681c 3b3d 581e fb3c
00000050: 7ca2 91bd a779 663d 2389 6d3b 98de 08bd
00000060: 8c0d 3ebd 8d54 7bbd bf2f 43bd e3d0 31bc
00000070: 0129 8e3d 4105 2f3d a9af 8e3d 8704 983c

local_map_cnn.2.weight f4 [32, 32, 3, 3]
0.025282891 -0.023186218 -0.07693883 -0.17671284 -0.15666851 -0.03069778 -0.33778337 -0.025600864
0.022740483 -0.03333595 -0.028262552 -0.05455986 -0.03555833 -0.05908088 -0.084098965 -0.00086349394
-0.06449744 -0.13512355 0.13891503 -0.05223778 0.03122686 0.15907094 0.16399528 0.20959003
-0.009286537 -0.10990124 -0.00018216558 0.024427881 0.18316075 0.14841543 0.11833983 0.2777411
0.18300156 -0.05913973 0.0010285395 0.04736814 0.008748463 -0.05269149 0.09065531 0.026239427
-0.2066355 -0.09191926 0.008684168 -0.09508831 0.025223712 -0.06125166 -0.07974965 0.009937946
-0.10118804 -0.19858557 -0.12117259 -0.052309666 -0.041383747 -0.013252995 -0.03274416 -0.014425324
-0.08894816 -0.037208002 -0.046697646 -0.10831981 -0.00417274 -0.13674085 -0.04226562 0.08776122
0.09362086 0.120065965 0.08637242 0.086640306 0.14577554 0.047546092 0.11544603 0.09451476
0.09208834 0.1658141 -0.03682083 0.059255645 -0.05257365 -0.03138532 0.046608325 -0.011735224
-0.06183729 0.048428033 0.121895835 0.07545002 0.060813017 0.14173648 0.09381417 0.037406243
0.07287086 0.067060575 -0.010999156 -0.059000142 0.033890508 0.03721523 -0.08848669 -0.024269277
0.04570199 -0.11827859 0.057056963 0.13631223 0.07913012 0.1461551 -0.04811611 0.05338294
0.12902309 0.04971983 -0.05154705 0.10728542 -0.040478144 -0.0030205362 -0.080883145 0.052036863
-0.052979708 -0.15026556 0.03910617 -0.07937867 -0.032471467 0.042469397 0.11764076 0.050846055
0.075235136 -0.0060602645 0.043521542 0.053535927 0.063183926 0.013475527 -0.067490056 -0.004518498
-0.021448938 -0.032683067 0.06123302 0.03354534 -0.043954533 -0.0672363 0.02002997 0.016275834
0.13381018 0.02937814 0.02057304 0.16824377 0.10758394 -0.10047012 0.06309601 0.00050865294
0.08272722 0.14440481 0.05575274 0.1936796 0.2250615 0.03712486 0.10057906 0.086943
0.08688087 0.10165178 0.06610252 0.058636528 0.0054433225 0.08422046 0.027760932 -0.017123146
0.08733161 -0.020829046 0.107468314 0.02929476 0.105016135 0.08256697 0.16988122 0.23075724
0.061041433 0.0064478684 0.09412096 0.051447317 -0.017707124 0.03559006 0.17690508 0.15738942
0.14656414 0.065030985 0.110586666 0.15452364 0.034046598 0.10352051 -0.01944905 0.072047874
-0.00042974707 0.061717264 -0.06915902 -0.0036479672 0.021847742 0.050504234 0.15478882 0.057760045
0.085757814 0.05475175 0.13398746 0.063943595 -0.063108824 -0.054291837 0.020745493 0.041165434
-0.0064462526 0.011315709 0.056518614 0.04550555 0.049647234 -0.063568324 -0.042652015 0.020155665
0.00026537132 0.05118965 0.034663487 0.03194789 0.013355383 0.078935094 -0.024235731 0.09857384
-0.06747322 0.13040428 0.005141291 0.02602944 0.20568332 0.12518337 -0.09251835 0.07756949
0.091296345 0.09972421 0.114451066 0.09716478 0.08542971 0.1556002 0.12782589 0.1214234
0.08531592 0.10240233 0.039688386 0.0133300815 0.03160832 -0.3071475 0.0063003534 -0.3942202
-0.061963532 0.040224396 -0.049440615 0.038544636 -0.12010106 0.096166395 -0.06355624 -0.38654828
-0.09957415 -0.10996542 -0.13992928 0.056603994 0.05896461 0.10377146 0.09804105 0.047269896
00000000: 111e cf3c 06f1 bdbc 1b92 9dbd 36f4 34be
00000010: b66d 20be e979 fbbc f1f1 acbe e7b8 d1bc
00000020: 404a ba3c 478b 08bd de86 e7bc 297a 5fbd
00000030: 9da5 11bd cbfe 71bd 143c acbd 195c 62ba
00000040: 3c17 84bd d45d 0abe be3f 0e3e 48f7 55bd
00000050: 79cf ff3c 7ee3 223e 61ee 273e c59e 563e
00000060: 8f26 18bc e713 e1bd b303 3fb9 fb1c c83c
00000070: 7e8e 3b3e 37fa 173e 275c f23d 1534 8e3e
00000080: c364 3b3e 803c 72bd 0fd0 863a 1805 423d
00000090: b755 0f3c 08d3 57bd 7ea9 b93d 11f4 d63c
000000a0: 4298 53be 2a40 bcbd 0a48 0e3c a9bd c2bd
000000b0: f5a1 ce3c 05e3 7abd c953 a3bd c4d2 223c
000000c0: ad3b cfbd 045a 4bbe 5629 f8bd a942 56bd
000000d0: 0182 29bd 1723 59bc be1e 06bd 3258 6cbc
000000e0: 742a b6bd 6b67 18bd 0846 3fbd c7d6 ddbd
000000f0: 7bbb 88bb cb05 0cbe b71e 2dbd 28bc b33d
00000100: 4bbc bf3d 25e5 f53d 06e4 b03d 7970 b13d
00000110: 2f46 153e b1bf 423d f86e ec3d f490 c13d
00000120: d098 bc3d 2ccb 293e 70d1 16bd 0cb6 723d
00000130: 7857 57bd e58d 00bd 5fe8 3e3d 1945 40bc
00000140: 1949 7dbd 795c 463d 86a4 f93d 8a85 9a3d
00000150: 1217 793d 5e23 113e a521 c03d 4a37 193d
00000160: 513d 953d 0e57 893d ce35 34bc 22aa 71bd
00000170: c6d0 0a3d ff6e 183d 8238 b5bd 5dd0 c6bc
00000180: 0332 3b3d 0c3c f2bd 90b4 693d 6f95 0b3e
00000190: f90e a23d afa9 153e 6615 45bd 12a8 5a3d
000001a0: a11e 043e 05a7 4b3d 0023 53bd 75b8 db3d
000001b0: 69cc 25bd 30f4 45bb 10a6 a5bd 9b24 553d
000001c0: 4001 59bd 37df 19be cb2d 203d 4991 a2bd
000001d0: cd00 05bd 64f4 2d3d a4ed f03d f443 503d
000001e0: e114 9a3d 2f95 c6bb a543 323d 7d48 5b3d
000001f0: 9366 813d 75c8 5c3c 3a38 8abd e90f 94bb
00000200: afb5 afbc aede 05bd 7acf 7a3d d766 093d
00000210: ab09 34bd 2fb3 89bd e415 a43c e654 853c
00000220: 8905 093e 6daa f03c cb88 a83c 1848 2c3e
00000230: f854 dc3d 47c3 cdbd 7b38 813d 1f57 053a
00000240: e46c a93d dbde 133e fc5c 643d f253 463e
00000250: 8676 663e 3d10 183d 65fc cd3d 2c0f b23d
00000260: 99ee b13d cf2e d03d c260 873d db2c 703d
00000270: e65d b23b c77b ac3d e56a e33c d745 8cbc
00000280: eada b23d ada1 aabc 5918 dc3d 91fb ef3c
00000290: b312 d73d df18 a93d 58f5 2d3e a04b 6c3e
000002a0: 9506 7a3d a448 d33b 7dc2 c03d 6cba 523d
000002b0: 880e 91bc e2c6 113d 9b26 353e b12a 213e
000002c0: e914 163e f72e 853d 437b e23d 723b 1e3e
000002d0: 7274 0b3d 9002 d43d 9d53 9fbc d68d 933d
000002e0: ad4f e1b9 3ecb 7c3d 3fa3 8dbd bc12 6fbb
000002f0: 09fa b23c 87dd 4e3d f680 1e3e cc95 6c3d
00000300: cba1 af3d 5f43 603d 0234 093e dcf4 823d
00000310: 333f 81bd 1e61 5ebd 74f2 a93c 169d 283d
00000320: 163b d3bb 8665 393c 1080 673d 0764 3a3d
00000330: e65a 4b3d 1c30 82bd e1b3 2ebd 7e1d a53c
00000340: 8921 8b39 3dac 513d 4dfb 0d3d cadb 023d
00000350: 89d0 5a3c b9a8 a13d 038a c6bc 15e1 c93d
00000360: 662f 8abd b388 053e 4678 a83b b13b d53c
00000370: a69e 523e 1230 003e 437a bdbd c1dc 9e3d
00000380: 94f9 ba3d 353c cc3d 5265 ea3d 54fe c63d
00000390: c6f5 ae3d a955 1f3e cae4 023e d5ac f83d
000003a0: 1dba ae3d 50b8 d13d 4a90 223d 6a66 5a3c
000003b0: ba77 013d 7042 9dbe 3273 ce3b 3bd7 c9be
000003c0: 79cd 7dbd 56c2 243d 3e82 4abd fbe0 1d3d
000003d0: 8bf7 f5bd e3f2 c43d c629 82bd a8e9 c5be
000003e0: 88ed cbbd 8d35 e1bd 9f49 0fbe 97d9 673d
000003f0: e084 713d 2286 d43d bfc9 c83d 149e 413d

local_map_cnn.2.bias f4 [32]
-0.015687937 0.028819464 -0.009494433 0.0005674943 -0.055258863 -0.13876584 0.0041947905 0.046377216
-0.02563555 -0.070129775 -0.09016994 -0.07069633 -0.12165165 0.03423705 0.042135585 0.037695225
-0.12770955 0.056754813 -0.02080343 -0.015123146 -0.06887513 -0.0036737607 0.0014020646 -0.04203848
0.059512228 0.091203585 -0.06735051 -0.074170984 0.02546905 -0.08983469 -0.103307016 -0.15660419
00000000: fd83 80bc cc16 ec3c 8a8e 1bbc e6c3 143a
00000010: 1e57 62bd a218 0ebe 7474 893b 09f6 3d3d
00000020: a501 d2bc 33a0 8fbd 04ab b8bd 3dc9 90bd
00000030: 8024 f9bd 263c 0c3d 5d96 2c3d 4f66 1a3d
00000040: 4bc6 02be bc77 683d f46b aabc 12c7 77bc
00000050: 670e 8dbd 7ac3 70bb 7bc5 b73a 8b30 2cbd
00000060: 18c3 733d f2c8 ba3d 10ef 89bd f5e6 97bd
00000070: 78a4 d03c 40fb b7bd a192 d3bd d95c 20be

local_map_cnn.4.weight f4 [32, 32, 3, 3]
-0.029268231 -0.1370492 0.058129683 0.08707387 0.003179025 0.012193041 -0.11133002 -0.17175268
-0.09418593 0.1963739 -0.08900003 0.0615878 0.013235127 -0.31552312 -0.15238647 -0.046195105
0.2423904 0.057175286 -0.008444092 -0.07335829 0.062629804 0.009329895 -0.121027656 -0.045143723
0.055359874 -0.1883571 -0.064804256 -0.024782721 -0.040738236 0.07009874 -0.048908345 -0.27202392
0.07114512 -0.04241885 -0.101183794 0.025397297 -0.01560038 0.02207255 0.06324016 0.07042208
-0.038694568 -0.030441998 0.06741289 -0.058481086 0.09719575 -0.045848507 0.036968525 0.0673215
-0.13611451 -0.091327436 0.01333435 -0.029230794 -0.1556361 -0.14638709 0.052750744 0.12190419
-0.016789665 0.058239732 -0.20863841 0.01785805 0.1198619 0.0710157 0.119353995 -0.10676494
0.012610858 -0.054471485 -0.079215504 -0.057481922 0.16541165 -0.033258673 -0.18090063 -0.23913342
-0.14365783 0.21437323 -0.023080448 -0.0070563606 0.24824955 0.06323266 0.08842488 -0.32882375
-0.06295064 -0.23644774 0.12899591 0.031850144 -0.039318446 -0.12017331 -0.10351144 0.057530962
-0.20401558 -0.005887046 0.0025838183 -0.04339644 0.11495178 -0.05748152 -0.1239805 0.04809099
0.12356416 -0.055442717 0.02372313 0.07975545 -0.10808727 0.10068578 -0.007783084 -0.18578206
-0.008128534 -0.08413269 -0.033325948 -0.0368183 -0.021104362 -0.03283472 0.059731234 0.13302794
-0.12407044 0.0019672299 -0.08180895 -0.16056135 0.17862235 0.071021825 0.11230782 0.066513374
0.021592055 -0.10462468 0.046468534 0.0507891 -0.04101368 -0.13174245 -0.054011956 -0.10268751
0.04231219 0.039807998 -0.036864597 -0.0376717 -0.011994057 -0.24858394 -0.12992391 0.066045515
-0.16016914 0.09212078 0.026477266 -0.22972229 -0.021651652 -0.019233163 -0.2691708 -0.0542782
0.00035070532 0.010293091 0.109966785 -0.0026776467 -0.14740184 0.036032483 0.057056174 0.045801595
0.03500124 0.12428279 -0.04622881 -0.046672292 -0.011183962 -0.1127829 -0.040263716 -0.045243252
0.16229554 0.11738267 0.11571063 -0.054042615 0.065192826 0.0027048197 -0.07018288 -0.13960615
0.063339934 0.07386376 0.06960765 -0.013549413 0.07122436 0.2003273 -0.0025765658 -0.24373779
0.038105834 -0.043856446 -0.016269058 0.04197074 -0.16809124 0.11554981 0.060172763 -0.039717842
0.10118259 -0.076645814 0.0688462 -0.2028979 0.08795547 0.05490413 -0.021259082 0.12494217
0.1031637 -0.13777497 0.048344065 0.14429957 -0.06389986 0.12701143 -0.062294513 0.00019473393
-0.061599698 0.009046868 0.1322211 0.0038049303 0.10517723 0.07551867 -0.17194238 0.1397061
-0.021145089 0.12422148 -0.011153833 -0.34485823 0.02359098 0.052697804 0.04058601 -0.061356083
-0.1097373 0.13551757 -0.12334032 0.009033232 -0.06175712 0.13229883 0.13478774 0.06775067
0.05142287 -0.048469875 -0.011323385 -0.073427565 0.12672746 0.112346664 0.028693711 0.070651315
0.14868145 0.15572074 -0.027411109 0.022538094 0.05240691 -0.01366658 -0.10924862 0.054091584
-0.049022377 -0.16344912 0.065741114 0.064654104 0.047793854 0.0810272 -0.026284428 -0.124004796
0.023198662 0.018237932 -0.04475754 0.08334361 -0.059167437 0.0086430665 0.039552722 -0.00094849506
00000000: eec3 efbc a056 0cbe 6419 6e3d c953 b23d
00000010: 3057 503b 52c5 473c fe00 e4bd efdf 2fbe
00000020: 8ee4 c0bd 3d16 493e a645 b6bd 7d43 7c3d
00000030: 25d8 583c 3f8c a1be 330b 1cbe 1437 3dbd
00000040: 3035 783e a230 6a3d 1759 0abc df3c 96bd
00000050: 0e44 803d 6adc 183c 59dd f7bd a0e8 38bd
00000060: 09c1 623d afe0 40be 18b8 84bd 2205 cbbc
00000070: 23dd 26bd ee8f 8f3d 1e54 48bd b846 8bbe
00000080: 88b4 913d 63bf 2dbd 7339 cfbd fe0d d03c
00000090: bc98 7fbc 7ed1 b43c 0f84 813d 7439 903d
000000a0: 327e 1ebd 7f61 f9bc c50f 8a3d dd89 6fbd
000000b0: 910e c73d a5cb 3bbd 4f6c 173d dbdf 893d
000000c0: 9a61 0bbe e109 bbbd 5178 5a3c 6b75 efbc
000000d0: 125f 1fbe 7fe6 15be 2a11 583d e7a8 f93d
000000e0: 7b8a 89bc c98c 6e3d 4fa5 55be 0c4b 923c
000000f0: 287a f53d ae70 913d de6f f43d 94a7 dabd
00000100: c69d 4e3c 7e1d 5fbd bd3b a2bd 2a72 6bbd
00000110: ac61 293e 3f3a 08bd 043e 39be 64df 74be
00000120: 0a1b 13be a884 5b3e 3513 bdbc 0b39 e7bb
00000130: 2135 7e3e 2080 813d 1a18 b53d 965b a8be
00000140: 44ec 80bd 5b1f 72be 8117 043e 4c75 023d
00000150: 610c 21bd 6d1d f6bd cefd d3bd 96a5 6b3d
00000160: 76e9 50be 1fe8 c0bb 4755 293b 77c0 31bd
00000170: d76b eb3d be71 6bbd 7de9 fdbd 0ffb 443d
00000180: 350f fd3d e717 63bd 0257 c23c d356 a33d
00000190: dc5c ddbd 5934 ce3d 3e09 ffbb a73d 3ebe
000001a0: 8b2d 05bc c34d acbd ca80 08bd c9ce 16bd
000001b0: 0ee3 acbc b37d 06bd bda8 743d 7a38 083e
000001c0: a518 febd a4ec 003b 738b a7bd 326a 24be
000001d0: c7e8 363e e473 913d a401 e63d 2a38 883d
000001e0: d2e1 b03c 7745 d6bd ca55 3e3d 3b08 503d
000001f0: f6fd 27bd 7ee7 06be a43b 5dbd d44d d2bd
00000200: 8c4f 2d3d b60d 233d 55ff 16bd a44d 1abd
00000210: b982 44bc ca8c 7ebe c60a 05be df42 873d
00000220: 6103 24be d2a9 bc3d dae6 d83c 523c 6bbe
00000230: ce5e b1bc de8e 9dbc c1d0 89be d152 5ebd
00000240: dfde b739 5aa4 283c 4436 e13d 757b 2fbb
00000250: 82f0 16be cc96 133d bcb3 693d 749a 3b3d
00000260: 765d 0f3d fa87 fe3d 6c5a 3dbd 722b 3fbd
00000270: f03c 37bc b9fa e6bd 91eb 24bd fd50 39bd
00000280: cd30 263e 5366 f03d b2f9 ec3d ca5b 5dbd
00000290: d183 853d 5843 313b 0bbc 8fbd eaf4 0ebe
000002a0: 5eb8 813d e245 973d 758e 8e3d 5bfe 5dbc
000002b0: 14de 913d 9a22 4d3e 9adb 28bb 6696 79be
000002c0: dd14 1c3d d1a2 33bd b046 85bc 83e9 2b3d
000002d0: 1c20 2cbe 61a5 ec3d b777 763d 2daf 22bd
000002e0: d138 cf3d 7bf8 9cbd 3dff 8c3d 78c4 4fbe
000002f0: ff21 b43d 27e3 603d 8727 aebc aee1 ff3d
00000300: 7d47 d33d e214 0dbe 6d04 463d 44c3 133e
00000310: eedd 82bd 490f 023e 8828 7fbd 7e31 4c39
00000320: f74f 7cbd 5139 143c f864 073e 235c 793b
00000330: 2967 d73d 88a9 9a3d aa11 30be 1e0f 0f3e
00000340: 7738 adbc d567 fe3d 91be 36bc 4291 b0be
00000350: df41 c13c a7d9 573d 843d 263d 8450 7bbd
00000360: f3bd e0bd 1ec5 0a3e da99 fcbd 1f00 143c
00000370: 09f5 7cbd 5879 073e cc05 0a3e ddc0 8a3d
00000380: caa0 523d 5988 46bd b885 39bc 3161 96bd
00000390: d8c4 013e 0216 e63d 130f eb3c a3b1 903d
000003a0: f33f 183e 4275 1f3e 438d e0bc cfa1 b83c
000003b0: a1a8 563d cbe9 5fbc bebd dfbd 238f 5d3d
000003c0: b0cb 48bd 355f 27be 47a3 863d 5f69 843d
000003d0: 7dc3 433d 97f1 a53d 7152 d7bc 3af6 fdbd
000003e0: 1f0b be3c b767 953c af53 37bd 0eb0 aa3d
000003f0: 8e59 72bd a69b 0d3c 0902 223d 6da4 78ba

local_map_cnn.4.bias f4 [32]
0.06833784 -0.015638703 -0.114038415 -0.21351564 0.003705673 -0.017538393 0.006301668 -0.08387689
0.08435273 0.05618792 0.0921466 -0.07301515 0.09634959 0.14650771 -0.098820895 0.18110532
-0.11874784 0.079072505 0.08960378 -0.0928838 -0.09650124 0.0002898597 0.03213349 -0.03369653
-0.020697262 0.077882215 -0.09630977 0.005503173 0.029362423 0.08550247 0.026926551 0.017354952
00000000: b6f4 8b3d bd1c 80bc f98c e9bd d8a3 5abe
00000010: e0da 723b adac 8fbc 397e ce3b a6c7 abbd
00000020: 20c1 ac3d 4e25 663d 5bb7 bc3d f888 95bd
00000030: ef52 c53d 1e06 163e 9c62 cabd ac73 393e
00000040: 1132 f3bd c4f0 a13d 3082 b73d dd39 bebd
00000050: 71a2 c5bd 4ff8 9739 689e 033d 5f05 0abd
00000060: 4e8d a9bc b680 9f3d 0f3e c5bd f653 b43b
00000070: 7789 f03c eb1b af3d 1295 dc3c f92b 8e3c

local_map_fc.weight f4 [64, 512]
-0.10508415 -0.12119238 -0.19798467 -0.17757913 -0.02240014 -0.0933716 -0.08120799 -0.025521625
-0.005588861 -0.018304374 -0.058286864 0.027865421 0.09465078 0.011114589 0.027600298 -0.14392309
-0.037402727 -0.023064805 -0.022192273 -0.0010814444 -0.057271395 -0.058754403 -0.046724234 -0.046752248
-0.017324202 0.011523036 0.0012531775 -0.04282145 -0.03519635 0.045162186 0.044383954 0.016365191
-0.12079904 0.055920295 -0.020019725 0.024849657 -0.30546874 -0.074493684 0.02167796 -0.118202664
0.038377184 -0.22648725 0.005233636 -0.08056558 0.13400258 0.016329782 0.024424817 0.054512493
0.03709721 -0.032504734 0.0011546772 0.041887727 0.025589729 0.041743252 0.07451705 -0.06704992
0.010710995 0.11075923 0.0065888255 0.035297334 0.07246477 -0.06537122 -0.038903728 0.00521176
-0.114516824 -0.1792107 -0.000588481 -0.11551445 -0.09194283 -0.06822013 0.003790648 0.021933733
0.0890534 -0.04406613 -0.019648204 -0.21141893 0.020667156 0.02759801 -0.06865044 0.07317293
-0.007441978 -0.0040587983 -0.15729757 -0.13005763 -0.042146605 -0.07533889 -0.03066281 0.13973594
-0.042713333 0.19924413 -0.088458546 0.08828406 -0.030644134 -0.027495248 -0.046879865 0.03410367
-0.10617899 0.07135479 -0.027642244 -0.054526333 -0.1152168 0.027336527 -0.059239976 0.017306322
0.002038251 0.1366288 -0.07684957 -0.073252805 0.06365904 0.023029469 0.03453599 0.009092221
-0.023784177 -0.00077922933 0.010103845 -0.041686844 -0.09426689 -0.095103174 -0.06030851 0.031539995
0.0058117565 -0.20408529 -0.15279138 -0.06396878 -0.0034421256 -0.0026888708 0.011591641 0.031574387
-0.086574644 -0.12803705 -0.08646355 -0.12612534 -0.16539678 -0.07846653 -0.19478872 0.036443863
-0.076238304 0.009805152 -0.20593175 -0.017172758 0.074650794 -0.03051842 0.027112326 -0.06988782
-0.1726141 0.01803823 -0.22054598 -0.25576574 0.03753468 -0.023869064 -0.14479654 -0.17568557
0.03311165 -0.008188879 -0.002440868 -0.13502559 -0.15277654 -0.13820484 0.038193095 -0.051302698
-0.10062394 -0.13967629 0.052253515 -0.009892677 -0.17592612 -0.041741163 -0.061799202 -0.07340546
-0.027746867 -0.11336421 0.011972408 -0.05473449 -0.11293377 -0.17281887 -0.021054475 0.017310025
0.015868206 -0.018296978 -0.057548374 0.03289891 -0.028482506 -0.08489833 -0.035465192 -0.002259072
-0.11381807 -0.15894051 -0.08114198 0.008363676 0.048537422 0.038864546 0.028552515 0.07429133
-0.097246096 -0.12563471 -0.22756481 -0.26521823 -0.057194404 -0.06895958 -0.043360867 -0.19858
0.023340957 0.038043194 0.033942208 -0.07136139 0.10491693 0.1120417 -0.033447057 0.017114365
-0.07284173 -0.17999457 -0.029470818 0.014979407 -0.04225713 -0.17566459 -0.017030075 -0.032193452
0.039077993 -0.03786873 -0.020910554 0.05841467 -0.016852707 -0.079467684 0.025094869 -0.030978037
-0.031991303 0.014833751 -0.018772548 0.07208318 0.1133182 -0.015567849 0.07402332 0.043449555
0.0016373404 -0.080880806 0.057419065 0.015160214 0.02014535 -0.063237056 0.049561467 -0.07214799
-0.13095646 -0.031069921 -0.161213 0.008740311 -0.12086952 -0.060447484 -0.19608219 -0.05302841
-0.11982564 -0.1591425 -0.0674262 -0.0066547203 -0.038974874 -0.093176916 -0.023002429 -0.13968806
00000000: 5c36 d7bd b633 f8bd 7ebc 4abe 4ed7 35be
00000010: 8080 b7bc 9c39 bfbd 6050 a6bd ba12 d1bc
00000020: c422 b7bb 0ef3 95bc 35be 6ebd 0646 e43c
00000030: 45d8 c13d f719 363c 051a e23c 9360 13be
00000040: 9a33 19bd 67f2 bcbc 92cc b5bc 41bf 8dba
00000050: 6995 6abd 75a8 70bd e961 3fbd 497f 3fbd
00000060: 7ceb 8dbc 1ecb 3c3c a941 a43a 8b65 2fbd
00000070: 0c2a 10bd fcfb 383d f3cb 353d 4b10 863c
00000080: 7d65 f7bd ae0c 653d 6800 a4bc 8291 cb3c
00000090: 6666 9cbe 2590 98bd fa95 b13c 3d14 f2bd
000000a0: 6531 1d3d 46ec 67be ec7e ab3b 91ff a4bd
000000b0: f937 093e 09c6 853c 8e16 c83c 7e48 5f3d
000000c0: 3ef3 173d af23 05bd 8a58 973a 7792 2b3d
000000d0: 8da1 d13c f9fa 2a3d 659c 983d 7851 89bd
000000e0: 2b7d 2f3c bcd5 e23d 13e7 d73b f093 103d
000000f0: 6968 943d 59e1 85bd 8459 1fbd 69c7 aa3b
00000100: cc87 eabd 0283 37be 4b44 1aba d792 ecbd
00000110: 864c bcbd ffb6 8bbd 856c 783b 5fae b33c
00000120: a161 b63d b07e 34bd 45f5 a0bc 347e 58be
00000130: 2b4e a93c 3915 e23c 9a98 8cbd b0db 953d
00000140: d6db f3bb abff 84bb 9d12 21be d42d 05be
00000150: eba1 2cbd 474b 9abd 9330 fbbc f016 0f3e
00000160: 2df4 2ebd a706 4c3e c129 b5bd 46ce b43d
00000170: 6809 fbbc b73d e1bc 1a05 40bd 4ab0 0b3d
00000180: 5f74 d9bd 7622 923d fd71 e2bc 0157 5fbd
00000190: c9f6 ebbd daf0 df3c 9ea5 72bd fdc5 8d3c
000001a0: 2d94 053b 6ce8 0b3e 4f63 9dbd 9105 96bd
000001b0: ac5f 823d 4ca8 bc3c 9c75 0d3d 8af7 143c
000001c0: 09d7 c2bc 3245 4cba 998a 253c d3bf 2abd
000001d0: 000f c1bd 74c5 c2bd 0e06 77bd 1530 013d
000001e0: 8c70 be3b bcfb 50be 5875 1cbe 1002 83bd
000001f0: 4995 61bb c437 30bb deea 3d3c 2554 013d
00000200: 0c4e b1bd 251c 03be cd13 b1bd 0027 01be
00000210: c65d 29be 0fb3 a0bd b276 47be 2946 153d
00000220: d422 9cbd caa5 203c c6df 52be e2ad 8cbc
00000230: 84e2 983d c401 fabc ab1a de3c 5821 8fbd
00000240: c0c1 30be e9c4 933c ced6 61be baf3 82be
00000250: f7bd 193d 0e89 c3bc 8b45 14be ebe6 33be
00000260: 15a0 073d a62a 06bc f8f6 1fbb 2644 0abe
00000270: 7471 1cbe 9285 0dbe 5d70 1c3d c722 52bd
00000280: ed13 cebd 4d07 0fbe c807 563d e514 22bc
00000290: fa25 34be c8f8 2abd 2921 7dbd 9a55 96bd
000002a0: 664d e3bc 7f2b e8bd eb27 443c 4631 60bd
000002b0: d249 e7bd 6ef7 30be 6f7a acbc c1cd 8d3c
000002c0: 0afe 813c 8be3 95bc d8b7 6bbd 02c1 063d
000002d0: 2554 e9bc 2ddf adbd f343 11bd f00c 14bb
000002e0: 7319 e9bd 4dc1 22be c42d a6bd cd07 093c
000002f0: 2dcf 463d 6e30 1f3d f7e6 e93c 0e26 983d
00000300: f628 c7bd 63a6 00be c006 69be afca 87be
00000310: ae44 6abd ae3a 8dbd 2a9b 31bd 8e58 4bbe
00000320: 8935 bf3c 2ed3 1b3d fc06 0b3d ec25 92bd
00000330: b0de d63d 1e76 e53d c8ff 08bd 6d33 8c3c
00000340: 0c2e 95bd 7f50 38be c96c f1bc 306c 753c
00000350: d015 2dbd 6be1 33be a882 8bbc 48dd 03bd
00000360: 3f10 203d 3e1c 1bbd 9c4c abbc 3944 6f3d
00000370: b00e 8abc f4bf a2bd c193 cd3c a7c5 fdbc
00000380: 5009 03bd 4309 733c e3c8 99bc 59a0 933d
00000390: 5f13 e83d 4b10 7fbc 8a99 973d 29f8 313d
000003a0: 079c d63a d6a4 a5bd 4130 6b3d 8c62 783c
000003b0: dc07 a53c 6e82 81bd f700 4b3d 53c2 93bd
000003c0: 7319 06be 5986 febc 0515 25be 8533 0f3c
000003d0: 708a f7bd c897 77bd c5c9 48be 5134 59bd
000003e0: 2567 f5bd 40f6 22be bf16 8abd d70f dabb
000003f0: 1ea4 1fbd 8ad3 bebd 976f bcbc 630a 0fbe

local_map_fc.bias f4 [64]
-0.061511897 -0.1052267 0.053064305 -0.06347914 -0.059950024 -0.0617695 -0.066922285 0.09018399
-0.019030692 -0.057631813 -0.05062065 -0.032740287 0.10516984 -0.018451663 -0.031801783 0.094298325
0.026719596 0.0035397958 -0.08351537 0.013142029 -0.07685963 -0.12076341 0.03394164 0.062230855
-0.04018005 -0.05802516 0.024365552 -0.020157656 0.03496667 0.06549897 -0.013551116 -0.09684428
0.032796487 0.006435119 -0.02373315 -0.034112047 -0.05151649 0.115494594 0.1310135 0.019078031
-0.065045506 -0.004330619 0.021262195 0.11378731 0.07312539 0.0654287 -0.053443924 0.014525858
-0.04486038 -0.01945487 -0.034552865 -0.055652484 -0.00086772465 -0.04704117 -0.051274464 0.064513735
0.0020452905 -0.16480817 -0.009353632 -0.052620888 -0.033345565 0.080695644 0.06988926 0.09072728
00000000: e6f3 7bbd 1981 d7bd f559 593d 5a01 82bd
00000010: 288e 75bd 0402 7dbd 8d0e 89bd 62b2 b83d
00000020: 41e6 9bbc 560f 6cbd 9957 4fbd ae1a 06bd
00000030: 4963 d73d f127 97bc 9642 02bd 7b1f c13d
00000040: 0ee3 da3c ebfb 673b 1b0a abbd aa51 573c
00000050: 9568 9dbd cf52 f7bd 6406 0b3d c8e5 7e3d
00000060: d693 24bd caab 6dbd 449a c73c ab21 a5bc
00000070: 3639 0f3d 5324 863d 8005 5ebc 4b56 c6bd
00000080: 9c55 063d b1dd d23b 066c c2bc 13b9 0bbd
00000090: f402 53bd 6e88 ec3d 6728 063e 8849 9c3c
000000a0: 9436 85bd dde7 8dbb 0e2e ae3c 5209 e93d
000000b0: c4c2 953d 7bff 853d 04e8 5abd ddfd 6d3c
000000c0: 85bf 37bd d25f 9fbc 4e87 0dbd dcf3 63bd
000000d0: 0478 63ba 3eae 40bd 2c05 52bd c71f 843d
000000e0: 480a 063b 79c3 28be fa3f 19bc 0089 57bd
000000f0: 5c95 08bd c243 a53d 1a22 8f3d 39cf b93d

self_entity_fc1.weight f4 [32, 26]
0.23174378 0.03618233 -0.020732347 0.023951506 -0.05655666 0.21173906 -0.030367553 -0.53708
-0.020065358 -0.10928481 -0.13590734 -0.42840245 0.15363356 -0.16889198 0.1855855 0.1217922
-0.2465431 -0.047701195 0.061882973 0.031057397 -0.09981982 0.29377842 -0.1381174 0.1846682
-0.0025296868 0.052354816 -0.34440026 -0.091823 0.017137947 0.16845782 0.1589055 -0.14703204
0.089521416 -0.29015464 -0.058022354 -0.05568802 -0.11969845 0.024134964 0.037585977 0.068719566
0.19359148 0.12007956 0.12645613 0.0040626978 -0.06731899 -0.0016661884 -0.06581856 0.074387364
-0.04583029 -0.016256167 0.0879735 0.18860671 -0.024371697 -0.064426765 0.05293342 -0.13165832
0.108789876 -0.4308499 -0.25736853 0.09512775 0.13017522 -0.03257792 -0.4374684 -0.058686975
-0.08268286 0.08644244 0.05179813 0.20703003 0.010382655 0.089796744 0.01896778 0.13645142
0.07080522 0.094382204 0.17980045 -0.10809524 -0.039984453 -0.13354373 -0.11967472 -0.045423668
0.12541556 -0.06993284 -0.08576153 0.090083115 0.08495292 -0.04558785 0.729892 0.30025172
0.08560984 -0.08104246 0.028789071 0.2447995 -0.0035834035 -0.14846343 0.19448476 0.23368508
-0.11947707 -0.04206844 0.2715302 -0.056075957 -0.15332116 0.03820102 -0.110016264 0.13369043
-0.17358339 0.032454148 0.0035683336 -0.13813755 0.13555537 0.052063048 -0.008863837 -0.28966433
0.03983531 0.15901859 0.41477865 0.2238803 0.15163322 0.10460399 -0.16687764 0.07148612
0.23270859 0.34207582 -0.11677905 -0.048229456 0.05286378 -0.069755405 -0.059175998 -0.02327878
-0.11358514 -0.10326105 0.06900774 0.1172056 0.21371832 0.07569945 0.059244942 -0.06419892
0.14573213 -0.52021134 0.18920563 -0.0026064783 0.04306259 0.32158452 0.1555354 0.121656604
0.027425457 -0.20372199 0.06572884 -0.01931137 -0.16500571 -0.20493671 -0.17977034 -0.14274777
-0.12671897 -0.18234152 0.061289426 0.09666513 -0.041522514 -0.14069399 -0.00092027005 0.12788133
0.105395764 -0.07037396 -0.033514153 -0.24241053 0.08898184 -0.05160199 -0.24630581 0.033892374
-0.73137504 0.06360444 0.087616235 0.046214044 -0.33323187 -0.08935983 0.055207606 0.032907315
-0.045413412 0.19212131 0.1282283 -0.09197671 0.0074946093 -0.12567064 0.1985523 0.008697221
-0.0073469537 0.030112619 -0.045596328 -0.13219635 0.09775577 0.04121237 -0.5471824 0.1471109
-0.14968938 0.24309306 0.097700156 0.12201663 0.08471314 0.23664163 0.11224722 0.20257798
-0.048095748 0.11014826 0.045977235 0.17754908 0.0064963554 -0.072329395 0.090831265 -0.14028168
-0.002274072 -0.118700944 -0.012047868 0.09579629 -0.021396972 -0.08003791 0.056994162 0.46794024
0.073872246 0.058352046 -0.6228524 -0.11400184 -0.13421543 0.10358602 0.17484786 0.1339252
0.11955416 -0.1738715 -0.0816321 -0.08355357 -0.087478735 0.15923847 0.096485905 -0.058057997
-0.13567328 -0.13360727 -0.18396598 -0.20023257 -0.049652718 0.07672415 -0.07730155 -0.3616341
-0.40164018 0.15665475 -0.12586883 -0.06170595 0.14924686 0.17203963 0.07748218 -0.06634172
0.071818255 0.10182875 -0.042450853 -0.10883444 0.061522406 -0.0732587 -0.004803874 0.25985956
00000000: 3e4e 6d3e ec33 143d e2d6 a9bc f335 c43c
00000010: f5a7 67bd 20d2 583e 60c5 f8bc 137e 09bf
00000020: 1b60 a4bc b7d0 dfbd 4b2b 0bbe 9157 dbbe
00000030: 1e52 1d3e 05f2 2cbe 200a 3e3e 306e f93d
00000040: cb75 7cbe 5462 43bd 0079 7d3d 156c fe3c
00000050: 556e ccbd 206a 963e a66e 0dbe a919 3d3e
00000060: 1ac9 25bb 0172 563d 3b55 b0be b20d bcbd
00000070: e164 8c3c 3580 2c3e 20b8 223e 918f 16be
00000080: 0157 b73d 268f 94be d9a8 6dbd 1f19 64bd
00000090: 7624 f5bd b0b6 c53c c1f3 193d d8bc 8c3d
000000a0: d83c 463e 46ec f53d b77d 013e 6120 853b
000000b0: 8ade 89bd 0164 daba e2cb 86bd 6758 983d
000000c0: 8bb8 3bbd a72b 85bc 732b b43d 1e22 413e
000000d0: 27a7 c7bc 2ef2 83bd b7d0 583d 70d1 06be
000000e0: 3acd de3d 5c98 dcbe cfc5 83be 56d2 c23d
000000f0: a74c 053e 6d70 05bd dcfb dfbe c161 70bd
00000100: a255 a9bd bc08 b13d 472a 543d aeff 533e
00000110: 031c 2a3c 5be7 b73d 5162 9b3c ecb9 0b3e
00000120: 5402 913d 754b c13d 9c1d 383e 0a61 ddbd
00000130: bdc6 23bd b0bf 08be 0518 f5bd 2b0e 3abd
00000140: f06c 003e f338 8fbd bea3 afbd 7f7d b83d
00000150: ccfb ad3d 53ba 3abd 34da 3a3f 98ba 993e
00000160: 3654 af3d 97f9 a5bd 0fd7 eb3c b8ac 7a3e
00000170: 89d7 6abb cc06 18be 0327 473e 244b 6f3e
00000180: 65b0 f4bd f54f 2cbd 0206 8b3e e7af 65bd
00000190: 3900 1dbe ac78 1c3d 3550 e1bd 25e6 083e
000001a0: d8bf 31be a4ee 043d b4da 693b ee73 0dbe
000001b0: 07cf 0a3e 1040 553d a139 11bc e24e 94be
000001c0: 5a2a 233d c5d5 223e de5d d43e e140 653e
000001d0: bd45 1b3e 9e3a d63d f9e1 2abe 5167 923d
000001e0: 294b 6e3e 9024 af3e db29 efbd 408c 45bd
000001f0: b187 583d ecdb 8ebd 8862 72bd 24b3 bebc
00000200: 539f e8bd 887a d3bd ee53 8d3d 7d09 f03d
00000210: fad8 5a3e 5008 9b3d d3aa 723d b97a 83bd
00000220: ce3a 153e 922c 05bf 1fbf 413e 73d1 2abb
00000230: 6662 303d baa6 a43e ac44 1f3e 1927 f93d
00000240: 5aab e03c 7f9c 50be d89c 863d e132 9ebc
00000250: 42f7 28be eeda 51be b715 38be 792c 12be
00000260: 9ec2 01be bcb7 3abe 9f0a 7b3d 5ef8 c53d
00000270: 8313 2abd 1612 10be 473e 71ba 53f3 023e
00000280: bcd9 d73d 3920 90bd 2346 09bd 773a 78be
00000290: 1c3c b63d 9c5c 53bd 9737 7cbe bbd2 0a3d
000002a0: 653b 3bbf 0b43 823d 2470 b33d f04a 3d3d
000002b0: 5e9d aabe 4902 b7bd 5f21 623d d2c9 063d
000002c0: 6a03 3abd 73bb 443e 484e 033e 495e bcbd
000002d0: 5795 f53b ceaf 00be 4b51 4b3e ca7e 0e3c
000002e0: b7be f0bb bdae f63c 37c3 3abd 7b5e 07be
000002f0: 2d34 c83d 4dce 283d 2514 0cbf 3da4 163e
00000300: 2c48 19be 63ed 783e 0517 c83d dbe3 f93d
00000310: 157e ad3d 2f52 723e dfe1 e53d 9a70 4f3e
00000320: 0c00 45bd 6995 e13d a052 3c3d 6dcf 353e
00000330: 61df d43b 6f21 94bd be05 ba3d 00a6 0fbe
00000340: 9908 15bb 7b19 f3bd 6c64 45bc d830 c43d
00000350: b448 afbc eaea a3bd b672 693d dd95 ef3e
00000360: 554a 973d 8e02 6f3d 4173 1fbf cc79 e9bd
00000370: c56f 09be e824 d43d 510b 333e b023 093e
00000380: d0d8 f43d 5f0b 32be bb2e a7bd 221e abbd
00000390: 0d28 b3bd 690f 233e 679a c53d 39ce 6dbd
000003a0: f0ed 0abe 58d0 08be 9461 3cbe c409 4dbe
000003b0: a660 4bbd 8d21 9d3d 4650 9ebd 1b28 b9be
000003c0: c8a3 cdbe 1a6a 203e c2e3 00be 61bf 7cbd
000003d0: 2bd4 183e 282b 303e faae 9e3d 2bde 87bd
000003e0: 7315 933d 978b d03d f2e0 2dbd 97e4 debd
000003f0: ebfe 7b3d a808 96bd d169 9dbb 500c 853e

self_entity_fc1.bias f4 [32]
-0.039862275 0.25856078 0.022091966 -0.22141047 -0.049856246 -0.10719687 0.22577803 0.113982394
0.21877317 0.13402274 0.0644385 0.21298529 0.03501461 -0.06840378 -0.103378445 -0.02406194
0.13762054 0.14781617 0.21153235 0.047604058 0.21374989 0.10522423 0.22704603 -0.08118658
0.22936328 0.10072458 -0.20948708 0.02958419 0.318894 0.43638825 -0.06971997 0.06233797
00000000: a046 23bd 1462 843e 36fa b43c 6db9 62be
00000010: 1036 4cbd 088a dbbd 5b32 673e 9a6f e93d
00000020: 1306 603e 423d 093e 55f8 833d d118 5a3e
00000030: 7b6b 0f3d 4817 8cbd 14b8 d3bd 8c1d c5bc
00000040: 66ec 0c3e 1f5d 173e f09b 583e 79fc 423d
00000050: 40e1 5a3e cd7f d73d c17e 683e 2645 a6bd
00000060: 35de 6a3e b048 ce3d c883 56be 8b5a f23c
00000070: 1346 a33e 486e df3e 58c9 8ebd 1956 7f3d

self_entity_fc2.weight f4 [32, 32]
-0.09291286 0.12407928 0.43687063 -0.40689787 0.18472596 0.09207293 -0.17370744 0.19543372
-0.5474872 -0.04149943 0.065076835 -0.15691987 -0.10326948 0.21547888 -0.3519321 0.04888712
0.05217412 0.15347096 0.08327754 0.0693703 -0.005595342 -0.0058750464 -0.08441347 0.22627828
-0.0012596784 0.10908155 -0.3909433 0.21905304 0.4539562 0.45338273 0.24100986 -0.037462115
0.26202506 0.09000349 -0.044955485 0.03464393 -0.5198899 -0.096463434 0.64618564 -0.08202814
0.4994015 0.03676949 0.29454586 0.491926 -0.010272758 -0.37358594 0.12730749 0.15263861
0.22819233 -0.058331005 0.025763497 -0.11674997 0.06330997 0.11917543 -0.124503195 -0.13210934
-0.21443394 0.07176828 -0.075164795 -0.07054443 -0.43954843 -0.4966652 0.04227935 -0.10777639
-0.09531879 -0.02517784 -0.45270765 -0.2669905 0.22418217 -0.1316995 -0.1020211 0.13669768
-1.1850582 0.023448996 0.09234032 0.016633788 -0.05374416 -0.5154431 -0.331074 0.10642388
0.065005966 0.12130194 0.2812028 -0.20050216 0.062230878 0.07721346 0.0899906 0.21179052
0.09655102 0.21999763 -0.3791514 -0.033130657 0.10314018 -0.05123976 0.06616412 -0.0011176879
0.029889846 -0.14166908 -0.47797558 0.09756867 0.15691666 0.21332666 -0.042544767 -0.3922826
-0.49188632 -0.24950922 -0.5435793 0.009693007 0.28208473 -0.6555753 0.30416247 0.12325106
0.057287984 0.24283321 -0.42348632 0.004333671 -0.1480414 -0.23897922 -0.09089193 -0.072011255
0.020686595 -0.09366991 0.21585515 -0.46057236 0.14106627 0.10869397 -0.15979025 0.16951013
0.35886896 0.108561024 -0.119101666 -0.020266602 -0.35109445 -0.105117016 0.20370738 -0.14779553
0.40589947 -0.055298436 0.22466624 0.5335803 0.15933841 -0.47293612 -0.039560966 0.2086608
0.20613588 -0.014350732 -0.023908501 -0.047164656 0.28360817 0.028764253 -0.019764744 0.13924508
-0.3520176 0.080285855 0.074191086 0.035912327 -0.31752488 -0.40014276 0.05696548 0.009233377
0.13092086 0.31137028 0.43371165 -0.06294829 0.16262205 -0.03771431 0.15380828 0.0823998
0.91230047 -0.17433006 0.3050949 0.20516624 -0.22013879 0.54689085 0.18270433 0.18712409
0.21105362 -0.010111626 0.036326356 0.1124615 0.08515612 -0.09290266 0.0929579 -0.001977445
0.24939649 -0.14911473 -0.21294947 0.07339691 -0.1886751 -0.37318587 -0.018104073 -0.17359397
-0.059666596 0.18512344 0.12760024 -0.33643407 0.09047126 0.06319897 -0.39710677 0.024371495
-1.1798875 0.020793844 0.21923862 -0.15036717 -0.20944251 -0.42987993 -0.037684027 -0.10549911
0.11473261 0.22391184 0.12170568 0.09169547 0.17247592 -0.10805633 0.21520858 0.11562362
0.106312856 0.046666592 -0.47083992 0.2832732 0.030285327 -0.06323885 -0.018612836 0.020680374
0.4063586 0.0041292626 0.08212387 -0.041828766 -0.052671574 -0.1719383 -0.24296878 0.026313815
0.31893373 0.02959834 0.07854934 0.50619096 0.02454262 -0.48450252 0.031177357 0.08497644
0.03206843 -0.099867135 0.0667293 0.019961173 0.1355139 -0.11137683 -0.03799051 0.24551381
-0.282369 0.04261602 -0.018991742 -0.04894526 -0.35608348 -0.2945439 0.07601875 0.06939352
00000000: 1949 bebd 471d fe3d 82ad df3e eb54 d0be
00000010: cd28 3d3e bb90 bc3d 5de0 31be c71f 483e
00000020: 1f28 0cbf 4efb 29bd 0147 853d 9aaf 20be
00000030: f37e d3bd 7fa6 5c3e 7230 b4be dc3d 483d
00000040: 88b4 553d 7e27 1d3e 6a8d aa3d 0412 8e3d
00000050: 2159 b7bb 7683 c0bb f8e0 acbd 7eb5 673e
00000060: cb1b a5ba 2666 df3d b829 c8be 714f 603e
00000070: f26c e83e c821 e83e 4acb 763e e071 19bd
00000080: 2628 863e c053 b83d 3e23 38bd cbe6 0d3d
00000090: 8117 05bf 9f8e c5bd 6c6c 253f 5ffe a7bd
000000a0: 8eb1 ff3e 9b9b 163d b7ce 963e badd fb3e
000000b0: 124f 28bc a846 bfbe e55c 023e 4c4d 1c3e
000000c0: 40ab 693e 7eec 6ebd f80d d33c 9c1a efbd
000000d0: a8a8 813d 3f12 f43d 88fb febd ac47 07be
000000e0: 9294 5bbe 3ffb 923d 00f0 99bd 9979 90bd
000000f0: 7e0c e1be e74a febe 1d2d 2d3d deb9 dcbd
00000100: 7f36 c3bd c241 cebc 4cc9 e7be fbb2 88be
00000110: 0390 653e 3cdc 06be 70f0 d0bd 7afa 0b3e
00000120: fdaf 97bf 1c18 c03c ec1c bd3d 9543 883c
00000130: d622 5cbd 14f4 03bf 8882 a9be c3f4 d93d
00000140: d921 853d 276d f83d d0f9 8f3e 7050 4dbe
00000150: cee5 7e3d 1722 9e3d fe4c b83d 9ddf 583e
00000160: 8bbc c53d 0f47 613e 2220 c2be 03b4 07bd
00000170: 293b d33d c8e0 51bd 0e81 873d 627f 92ba
00000180: 8ddb f43c b311 11be 37b9 f4be 15d2 c73d
00000190: c3ae 203e 4e72 5a3e 6c43 2ebd 44d9 c8be
000001a0: 86d8 fbbe 587f 7fbe 0328 0bbf 6bcf 1e3c
000001b0: 696d 903e c8d3 27bf 2fbb 9b3e 0d6b fc3d
000001c0: cea6 6a3d 45a9 783e 33d3 d8be 7801 8e3b
000001d0: 2a98 17be f8b6 74be 8c25 babd a37a 93bd
000001e0: ef76 a93c 03d6 bfbd 2209 5d3e 24d0 ebbe
000001f0: ad73 103e f29a de3d 0ea0 23be 1094 2d3e
00000200: acbd b73e 3e55 de3d 93eb f3bd 2506 a6bc
00000210: a7c2 b3be 9747 d7bd ab98 503e b657 17be
00000220: 0ed2 cf3e 9d80 62bd e80e 663e b898 083f
00000230: 9c29 233e af24 f2be ae0a 22bd 2dab 553e
00000240: 4915 533e 551f 6bbc c3db c3bc ba2f 41bd
00000250: 1735 913e 03a3 eb3c ace9 a1bc 4396 0e3e
00000260: a73b b4be e96c a43d 7ff1 973d ce18 133d
00000270: 9f92 a2be 83df ccbe a354 693d 9747 173c
00000280: 1e10 063e ed6b 9f3e 740f de3e 08eb 80bd
00000290: 6586 263e 527a 1abd eb7f 1d3e 3ac1 a83d
000002a0: 868c 693f 9483 32be 6635 9c3e 1917 523e
000002b0: 106c 61be 0a01 0c3f d816 3b3e 759d 3f3e
000002c0: 711e 583e 3cab 25bc f2ca 143d 3752 e63d
000002d0: 5566 ae3d c043 bebd b660 be3d 0698 01bb
000002e0: cb61 7f3e 88b1 18be 6d0f 5abe 1f51 963d
000002f0: 0c34 41be 3812 bfbe fe4e 94bc 9ec2 31be
00000300: f664 74bd 0091 3d3e a3a9 023e 1641 acbe
00000310: ff48 b93d 766e 813d 9451 cbbe bba6 c73c
00000320: 8e06 97bf da57 aa3c 1780 603e daf9 19be
00000330: 1978 56be 3919 dcbe 915a 1abd eb0f d8bd
00000340: eef8 ea3d 2549 653e d440 f93d d6ca bb3d
00000350: 879d 303e a34c ddbd a35f 5c3e 14cc ec3d
00000360: 8eba d93d 7825 3f3d ee11 f1be 2f09 913e
00000370: ef18 f83c 5f83 81bd f279 98bc e369 a93c
00000380: 3c0e d03e c44e 873b 8f30 a83d a454 2bbd
00000390: 26be 57bd 9810 30be cfcc 78be 1290 d73c
000003a0: 484b a33e 3878 f23c 7ade a03d bb95 013f
000003b0: 9b0d c93c b710 f8be a867 ff3c 2108 ae3d
000003c0: 305a 033d 2487 ccbd 5fa9 883d 9d85 a33c
000003d0: 28c4 0a3e 8919 e4bd f09b 1bbd f967 7b3e
000003e0: ab92 90be 238e 2e3d 9294 9bbc d37a 48bd
000003f0: 9350 b6be 75ce 96be b8af 9b3d 311e 8e3d

self_entity_fc2.bias f4 [32]
0.099901065 0.09010477 0.04606409 -0.06923414 0.16914533 -0.04146448 -0.028996773 0.2570017
-0.060099933 -0.12326603 0.19345172 0.010202442 -0.13674617 0.17540236 -0.014613138 -0.11821373
-0.10095909 -0.14070404 -0.05156831 -0.11460488 0.16483383 0.14661427 0.020596482 -0.17618257
0.09870881 -0.04991792 -0.07568459 -0.083298385 0.098019466 -0.05357825 0.10330323 0.1612783
00000000: ee98 cc3d da88 b83d b3ad 3c3d a1ca 8dbd
00000010: 6f34 2d3e a9d6 29bd a48a edbc ba95 833e
00000020: 592b 76bd e672 fcbd 3518 463e 2528 273c
00000030: 3007 0cbe ad9c 333e f16b 6fbc 0a1a f2bd
00000040: a4c3 cebd b814 10be 4b39 53bd f7b5 eabd
00000050: 33ca 283e 0d22 163e f4b9 a83c 3469 34be
00000060: d827 ca3d bc76 4cbd 8600 9bbd 5898 aabd
00000070: 6ebe c83d de74 5bbd a590 d33d 2426 253e

other_entity_fc1.weight f4 [32, 26]
0.078344606 -0.24088287 0.03548971 -0.08895364 -0.35242984 -0.16424586 -0.32001492 -0.52920556
-0.009283394 -0.261771 0.1563107 5.6997353e-05 -0.16060905 -0.040441155 0.011922461 -0.059417307
-0.1750156 -0.13870323 -0.1735422 0.102379866 0.057936095 0.10567698 -0.0536393 -0.14544287
0.0077332146 0.547799 0.089738406 0.21644688 -0.04870523 -0.05213453 -0.16214061 0.17999563
-0.15862404 -0.8498092 -0.059213348 0.2240785 0.09497917 0.20212427 0.14562394 0.01651066
-0.078404196 -0.070775084 0.11080608 -0.047664423 0.036514513 0.18986511 -0.10412805 0.055767506
-0.29965296 -0.0049970928 -0.14111003 -0.34906405 0.12829348 0.041630726 0.052742694 -0.16777612
-0.065439686 -0.23665607 0.13334365 0.06742475 0.09937026 0.20453925 -0.14643121 -0.22406572
0.032182712 -0.0269225 0.078449465 -0.0013572362 0.080071844 -0.13759099 -0.043207016 -0.19291762
-0.21716085 0.07996907 0.20721304 0.19202481 -0.10031157 -0.051623046 -0.038097706 -0.05227426
-0.17823164 0.14851391 -0.019497262 0.06317412 -0.18874624 0.78283316 0.18789215 -0.11121683
-0.11711491 -0.0673752 0.16639519 -0.12564586 -0.22325669 0.11294598 0.08279696 0.03418276
-0.069719 0.012028092 0.039251044 0.09938632 -0.41907927 0.18901713 -0.013674927 -0.23270331
0.05914672 -0.18731114 -0.1555535 -0.5824599 -0.13076861 -0.2686637 0.16403566 0.009348243
-0.6782582 -0.37403864 0.011288203 -0.017204968 0.018348362 -0.060993772 0.0057836585 0.20920336
-0.06127038 0.112203985 0.11810389 0.22130986 -0.1391443 0.094205044 0.19814026 -0.23133348
0.22576213 -0.069254585 -0.027931886 0.14814241 0.09861235 -0.096477136 0.045512762 0.2634591
-0.16364583 -0.41526133 0.30454057 0.1685506 -0.117026426 -0.21015158 -0.2692477 0.12033857
-0.16386896 0.022494083 0.14087515 0.0012407426 -0.02823198 -0.13367878 -0.15651116 -0.14116737
0.19802788 0.013691392 0.07843569 0.2969476 -0.34552613 -0.010364394 0.21330713 -0.11295391
0.067039095 0.11104258 -0.18437028 0.19966076 0.14424655 0.059287906 -0.7607122 0.06764083
0.059711445 0.10399279 0.13764109 0.05541451 0.057685632 -0.04838647 -0.01170132 0.057147417
0.015612152 0.17070599 0.066716254 -0.103320315 -0.1354637 -0.212017 0.1077135 -0.16709799
0.0071618804 -0.06769127 0.116521485 0.007338436 0.12605445 0.2816524 -0.45812374 -0.42156345
0.027543599 -0.10864424 0.026315346 -0.27787444 -0.114405274 0.08210846 -0.06896167 -0.023705376
0.14737122 -0.049741745 0.081109226 -0.09411473 -0.19382495 0.024761347 -0.34324512 0.2850411
-0.11367671 0.072257906 -0.018416077 0.014771529 -0.024545591 0.15049148 -0.46643263 -0.26900977
-0.16560414 -0.1258865 0.13369864 -0.052039415 0.11978217 -0.13702448 0.011407369 0.11490331
-0.12936538 0.13613605 0.0027435147 -0.008646428 -0.03431475 0.02137436 -0.10179074 -0.14507751
0.3560919 0.18888415 -0.3403219 -0.06304463 0.16147 0.048515167 -0.1315823 -0.045732886
-0.030069375 -0.3901187 -0.1336314 0.08119954 -0.07132361 0.018692128 -0.11315197 0.04771075
0.076449126 0.08266162 0.009954788 -0.003560736 0.044565305 -0.05699509 -0.009351194 -0.06927696
00000000: 2373 a03d 00aa 76be a85d 113d 532d b6bd
00000010: af71 b4be 1130 28be ffd8 a3be 047a 07bf
00000020: 6019 18bc d906 86be ea0f 203e 7110 6f38
00000030: b376 24be a0a5 25bd 6d56 433c 905f 73bd
00000040: 4a37 33be 3808 0ebe 0cb5 31be 89ac d13d
00000050: 664e 6d3d 2c6d d83d e2b4 5bbd faee 14be
00000060: e866 fd3b 8e3c 0c3f c5c8 b73d 40a4 5d3e
00000070: 237f 47bd 048b 55bd 3008 26be c650 383e
00000080: 576e 22be 198d 59bf b289 72bd d674 653e
00000090: 7084 c23d aaf9 4e3e 711e 153e 5d41 873c
000000a0: 6192 a0bd 87f2 90bd 4cee e23d c53b 43bd
000000b0: 3e90 153d 006c 423e 1641 d5bd 786c 643d
000000c0: 1d6c 99be a7be a3bb 267f 10be 86b8 b2be
000000d0: 5e5f 033e fb84 2a3d b908 583d 81cd 2bbe
000000e0: 3e05 86bd f855 72be 3d8b 083e fd15 8a3d
000000f0: a382 cb3d bd72 513e 10f2 15be 7c71 65be
00000100: 05d2 033d 938c dcbc 1daa a03d 4ae5 b1ba
00000110: b5fc a33d a7e4 0cbe d7f9 30bd 328c 45be
00000120: 6a5f 5ebe d3c6 a33d a82f 543e 27a2 443e
00000130: 2770 cdbd b072 53bd 570c 1cbd 891d 56bd
00000140: 5b82 36be 0814 183e b9b8 9fbc 6f61 813d
00000150: b246 41be c167 483f cd66 403e a6c5 e3bd
00000160: f1d9 efbd 02fc 89bd 8063 2a3e 4fa9 00be
00000170: 679d 64be 3950 e73d 7491 a93d 3903 0c3d
00000180: d6c8 8ebd 7911 453c b4c5 203d 0e8b cb3d
00000190: 8f91 d6be b58d 413e cd0c 60bc c749 6ebe
000001a0: d543 723d 7ece 3fbe 6b49 1fbe 181c 15bf
000001b0: 35e8 05be 4a8e 89be f7f8 273e 5f29 193c
000001c0: 54a2 2dbf fe81 bfbe 28f2 383c 6ff1 8cbc
000001d0: 4e4f 963c 9bd4 79bd d884 bd3b 6839 563e
000001e0: a6f6 7abd 34cb e53d 74e0 f13d 0d9f 623e
000001f0: d87b 0ebe 93ee c03d 48e5 4a3e afe2 6cbe
00000200: 302e 673e 59d5 8dbd 69d1 e4bc a5b2 173e
00000210: 46f5 c93d ce95 c5bd 976b 3a3d 1ce4 863e
00000220: c692 27be 229d d4be beec 9b3e 8798 2c3e
00000230: 8dab efbd fa31 57be d6da 89be 1174 f63d
00000240: 44cd 27be 8345 b83c 9341 103e 6aa0 a23a
00000250: c146 e7bc 17e3 08be 7644 20be 2e8e 10be
00000260: d2c7 4a3e dc51 603c e4a2 a03d 8409 983e
00000270: cde8 b0be 6bcf 29bc 2f6d 5a3e 6154 e7bd
00000280: cb4b 893d 4b6a e33d 90cb 3cbe df73 4c3e
00000290: 5eb5 133e e0d7 723d 09be 42bf 4787 8a3d
000002a0: fd93 743d 2cfa d43d c9f1 0c3e 53fa 623d
000002b0: c547 6c3d e430 46bd e5b6 3fbc 6913 6a3d
000002c0: 1dca 7f3c 8dcd 2e3e 88a2 883d 9a99 d3bd
000002d0: ffb6 0abe fc1a 59be e598 dc3d bc1b 2bbe
000002e0: 35ae ea3b b8a1 8abd d1a2 ee3d 4377 f03b
000002f0: 6b14 013e be34 903e 328f eabe 2ad7 d7be
00000300: 1da3 e13c df80 debd 4893 d73c 8f45 8ebe
00000310: 504d eabd 7b28 a83d c73b 8dbd c731 c2bc
00000320: 7be8 163e 00be 4bbd 981c a63d 39bf c0bd
00000330: 0c7a 46be 4fd8 ca3c d3bd afbe e8f0 913e
00000340: 56cf e8bd f4fb 933d 50dd 96bc 4804 723c
00000350: d613 c9bc 701a 1a3e 42d0 eebe a6bb 89be
00000360: 2294 29be 64e8 00be 4ce8 083e 4827 55bd
00000370: 5b50 f53d 2550 0cbe f9e5 3a3c 6d52 eb3d
00000380: 5c78 04be 4067 0b3e 8acc 333b bfa9 0dbc
00000390: a08d 0cbd 4819 af3c aa77 d0bd 338f 14be
000003a0: ad51 b63e d96a 413e ac3e aebe 8b1d 81bd
000003b0: 6458 253e d7b7 463d 83bd 06be 6852 3bbd
000003c0: 0d54 f6bc a3bd c7be abd6 08be f24b a63d
000003d0: 1d12 92bd 3c20 993c 38bc e7bd 596c 433d
000003e0: 5c91 9c3d 7f4a a93d 6819 233c 3d5b 69bb
000003f0: 1c8a 363d af73 69bd c035 19bc 14e1 8dbd

other_entity_fc1.bias f4 [32]
-0.12805784 -0.16684286 -0.10261886 -0.011799923 -0.035485566 -0.27852964 -0.0931948 -0.07595413
-0.012965489 0.019186668 0.029084323 0.04502997 -0.020438988 -0.11849042 0.00921169 -0.18104672
-0.015559215 0.096714534 -0.057384327 -0.1910311 0.0038963414 -0.10859317 -0.028689858 0.003621266
0.0581579 0.09797328 -0.049486868 -0.07991497 0.0045339097 -0.032119088 0.06657709 -0.054812893
00000000: 9821 03be dbd8 2abe d629 d2bd 7754 41bc
00000010: 5059 11bd 709b 8ebe eadc bebd d78d 9bbd
00000020: 346d 54bc 5c2d 9d3c 3f42 ee3c 5971 383d
00000030: aa6f a7bc 1bab f2bd a1ec 163c 5064 39be
00000040: 14ec 7ebc 4512 c63d d40b 6bbd a89d 43be
00000050: c359 7f3b 1966 debd fe06 ebbc c352 6d3b
00000060: fa36 6e3d 37a6 c83d beb2 4abd 76aa a3bd
00000070: 3191 943b 4e8f 03bd 9259 883d 7c83 60bd
