my-submission/checkpoints/model_140288.pt (torch, 352797 bytes, 23 tensors)

local_map_cnn.0.weight f4 [32, 24, 3, 3]
-0.064425394 0.020104827 0.13141401 0.05947428 -0.016254118 0.1138363 -0.074766986 -0.14707954
0.088066176 0.04602278 -0.10555744 -0.16670577 0.091069706 0.025809783 0.16939268 -0.032186285
0.0026362927 -0.22242106 -0.0025186366 0.06585454 0.1341604 0.0048256638 -0.16999426 -0.40651795
-0.016878998 -0.025730168 0.038906284 0.03016173 -0.07297622 0.056919705 -0.09096289 -0.025022732
-0.27281824 -0.19650078 -0.2190463 0.048418436 -0.04560453 -0.0108460905 0.12190058 0.026346574
0.10433929 -0.0018141074 -0.0110529605 -0.14816435 0.17182083 0.08716923 0.02586921 -0.34804583
0.02574434 -0.04699972 0.13041247 0.054817922 0.08137472 -0.35137782 -0.084117025 -0.065259516
-0.1694568 -0.1436365 -0.26293105 -0.16772518 -0.06736716 -0.09396886 0.11669388 -0.09868524
-0.13782139 -0.061584506 -0.0027503183 -0.21864228 -0.15835387 -0.08972522 -0.18823203 -0.09154723
-0.04364735 -0.024989208 0.025688177 -0.09355694 -0.25638595 -0.12619555 -0.19925176 -0.084318586
-0.037376285 -0.056540985 0.1358834 0.030053983 -0.045098353 -0.0036854434 -0.26741925 0.13928062
-0.049533524 0.07493895 -0.0587277 0.14142205 -0.036063083 -0.10728272 -0.19846402 -0.43487686
-0.040508255 -0.10985523 0.009630682 -0.23485522 -0.009018669 0.030678324 -0.15668951 -0.16214566
-0.27506378 0.04734969 -0.08071411 -0.07045315 -0.0102447625 -0.014368642 0.11428252 -0.18945026
-0.1944215 -0.2276118 -0.19568008 -0.15679853 0.08028465 -0.10115267 -0.11546233 0.16471933
-0.054329064 -0.016939847 -0.12997957 -0.28997707 -0.034065615 0.030234149 -0.123800404 0.006983387
-0.045929484 -0.01004179 -0.0032054584 0.097797506 -0.038843352 -0.03442113 -0.15513334 -0.07125759
0.050711494 0.27047038 0.059561532 -0.05502881 -0.16686861 -0.14030322 0.0021927215 0.17314877
0.044437405 0.1060966 0.15523641 -0.024759311 -0.06742535 -0.5283248 0.023795292 -0.08126751
0.22254127 -0.06430587 -0.089493684 -0.091161676 -0.044127952 -0.06392062 -0.041080594 0.048202965
-0.034183405 -0.1841194 0.20922546 0.0024096377 0.29095435 -0.037228517 0.06559869 0.4753768
0.16007535 0.019257002 0.41680682 -0.05738212 -0.040650424 -0.0050127334 0.07414458 -0.07142659
0.14585769 0.009810741 0.02191343 -0.076585695 -0.13237806 -0.18170239 -0.05647577 -0.086371504
-0.20010546 -0.14378403 -0.11680137 -0.17011914 -0.07791868 0.38818327 0.638089 0.22581275
0.529355 0.51310474 0.3676433 0.008048287 0.24727559 -0.009065603 0.35268405 0.45938885
0.05470369 0.8318201 0.7286597 -0.016406858 0.09770857 0.500669 0.32055783 0.15072991
0.07203079 0.08960189 0.105428 0.014834299 -0.07968259 0.10900338 0.0035192494 -0.004566739
0.061547767 -0.016871141 0.059418045 -0.023385504 0.044898614 0.04248062 -0.034324862 0.0612133
-0.057955816 0.011687577 0.07313267 0.0076062367 0.06647364 0.037856683 0.0030109943 0.055190552
0.0928597 0.028875798 -0.01871045 -0.020009423 0.033309348 -0.030397177 -0.05238895 0.040474325
-0.005976363 -0.0005509564 0.018489935 0.0077212397 -0.007039452 0.030195046 0.047608454 0.026236871
0.06854438 0.002290339 0.0369023 0.039574523 0.06478822 0.06283933 0.050263215 -0.04182049
00000000: 76f1 83bd e1b2 a43c 6591 063e 4d9b 733d
00000010: 5b27 85bc 0223 e93d 6f1f 99bd 059c 16be
00000020: 0a5c b43d 6282 3c3d 802e d8bd ebb4 2abe
00000030: c182 ba3d 0a6f d33c 4675 2d3e c4d5 03bd
00000040: a7c5 2c3b 59c2 63be b60f 25bb bfde 863d
00000050: 5861 093e 9a20 9e3b fa12 2ebe 1f23 d0be
00000060: d345 8abc 13c8 d2bc 325c 1f3d bb15 f73c
00000070: 8e74 95bd a324 693d c04a babd 79fc ccbc
00000080: d5ae 8bbe 8037 49be ac4d 60be 6952 463d
00000090: d1cb 3abd cdb3 31bc 03a7 f93d c5d4 d73c
000000a0: d6af d53d 58c7 edba 7a17 35bc 65b8 17be
000000b0: cdf1 2f3e c885 b23d aaeb d33c 1033 b2be
000000c0: cbe5 d23c c782 40bd d98a 053e c288 603d
000000d0: caa7 a63d cbe7 b3be 8c45 acbd c8a6 85bd
000000e0: 1586 2dbe 7215 13be e69e 86be 26c0 2bbe
000000f0: cbf7 89bd bf72 c0bd 33fd ee3d 7d1b cabd
00000100: 0d21 0dbe 0940 7cbd af3e 34bb c3e3 5fbe
00000110: 8427 22be dbc1 b7bd e6bf 40be 1d7d bbbd
00000120: 90c7 32bd 2bb6 ccbc 0370 d23c c89a bfbd
00000130: 0545 83be 6839 01be a708 4cbe 39af acbd
00000140: e017 19bd 8597 67bd 0525 0b3e c533 f63c
00000150: 0db9 38bd 7b87 71bb 2deb 88be 949f 0e3e
00000160: aae3 4abd 9879 993d 758c 70bd f1d0 103e
00000170: e2b6 13bd 0bb7 dbbd 273a 4bbe 2ea8 debe
00000180: fceb 25bd c7fb e0bd 02ca 1d3c e37d 70be
00000190: 0ac3 13bc 1c51 fb3c 3773 20be 8309 26be
000001a0: 29d5 8cbe c0f1 413d 704d a5bd be49 90bd
000001b0: a6d9 27bc 746a 6bbc f40c ea3d 40ff 41be
000001c0: 6e16 47be 1113 69be 5c60 48be cb8f 20be
000001d0: 476c a43d 2229 cfbd 8477 ecbd 2fac 283e
000001e0: 2788 5ebd 6fc5 8abc 5d19 05be e077 94be
000001f0: 6388 0bbd 9bad f73c 118b fdbd e5d4 e43b
00000200: 8e20 3cbd 5286 24bc ab12 52bb 0f4a c83d
00000210: 351a 1fbd 2cfd 0cbd 46db 1ebe 80ef 91bd
00000220: dbb6 4f3d 187b 8a3e cbf6 733d e465 61bd
00000230: 9bdf 2abe a6ab 0fbe c3b3 0f3b e94d 313e
00000240: ff03 363d 2d49 d93d 4bf6 1e3e 0ad4 cabc
00000250: 4d16 8abd 4b40 07bf 58ee c23c 956f a6bd
00000260: dce1 633e ccb2 83bd 7748 b7bd f9b2 babd
00000270: 83bf 34bd d0e8 82bd 2044 28bd 7970 453d
00000280: e603 0cbd cc89 3cbe 333f 563e 03eb 1d3b
00000290: f8f7 943e ee7c 18bd 9b58 863d 9764 f33e
000002a0: cbea 233e dcc0 9d3c b467 d53e 8409 6bbd
000002b0: 0f81 26bd db41 a4bb 1dd9 973d 1b48 92bd
000002c0: b85b 153e 3bbd 203c cb83 b33c f6d8 9cbd
000002d0: 1d8e 07be 3110 3abe 2353 67bd 8be3 b0bd
000002e0: 72e8 4cbe 1f3c 13be 8f35 efbd b633 2ebe
000002f0: d493 9fbd f5bf c63e cd59 233f 753b 673e
00000300: cf83 073f d55a 033f be3b bc3e f6dc 033c
00000310: d035 7d3e e587 14bc 0193 b43e 0435 eb3e
00000320: fa10 603d 29f2 543f 7189 3a3f ad67 86bc
00000330: 6e1b c83d d82b 003f 2820 a43e f158 1a3e
00000340: e184 933d 3281 b73d a3ea d73d 8f0b 733c
00000350: a030 a3bd 2a3d df3d 35a3 663b 95a4 95bb
00000360: 8319 7c3d 5935 8abc 5660 733d f592 bfbc
00000370: 9ce7 373d 2900 2e3d 3a98 0cbd ccba 7a3d
00000380: 1463 6dbd 407d 3f3c 95c6 953d bd3d f93b
00000390: 5523 883d 9c0f 1b3d 1a54 453b 7d0f 623d
000003a0: 3a2d be3d f08c ec3c a846 99bc cdea a3bc
000003b0: 626f 083d 8003 f9bc cc95 56bd 68c8 253d
000003c0: 5ed5 c3bb 0f6e 10ba 3478 973c 7402 fd3b
000003d0: 34ab e6bb 9a5b f73c 1501 433d b5ee d63c
000003e0: ff60 8c3d 8319 163b de26 173d e518 223d
000003f0: b0af 843d e8b1 803d cde0 4d3d f64b 2bbd

local_map_cnn.0.bias f4 [32]
-0.0138927335 -0.03974603 -0.019087365 -0.10360633 0.029254278 0.013238348 0.0070846877 -0.054165136
-0.003652997 -0.099875174 0.005277618 -0.031812176 -0.02540923 -0.042811453 -0.04368782 -0.15079835
-0.036402617 0.025378961 0.03091096 0.025055887 -0.07840925 0.08705578 -0.014481316 -0.05873161
-0.08437423 -0.06900585 -0.055950534 -0.009237833 0.05117948 0.05248383 0.08080848 0.009103871
00000000: 599e 63bc bccc 22bd 1b5d 9cbc 8e2f d4bd
00000010: aba6 ef3c a8e5 583c ab26 e83b 43dc 5dbd
00000020: 1f67 6fbb 5b8b ccbd deef ac3b 7c4d 02bd
00000030: 0427 d0bc 105b 2fbd 00f2 32bd e26a 1abe
00000040: e91a 15bd 8ae7 cf3c fb38 fd3c 0142 cd3c
00000050: 0795 a0bd 4d4a b23d 0b43 6dbc 8f90 70bd
00000060: 65cc acbd f052 8dbd 632c 65bd 485a 17bc
00000070: 93a1 513d 49f9 563d eb7e a53d 6728 153c

local_map_cnn.2.weight f4 [32, 32, 3, 3]
0.23115139 -0.01002785 -0.12409272 -0.019767642 -0.29423025 0.0228147 -0.31002107 0.0012974241
0.029601585 -0.02031029 -0.06185116 -0.021390444 -0.02682602 -0.043132268 -0.0851214 0.035022605
-0.0067370604 -0.0902366 0.09012611 -0.11887392 0.015869088 0.18856403 0.13212427 0.23214751
-0.06347362 -0.10198412 -0.029752685 -0.073142335 0.16366757 0.1601207 0.061260782 0.22678088
0.2570826 -0.10137898 0.0044444115 0.16786943 0.001974246 -0.086686306 0.12664084 0.0027898746
-0.32933077 -0.055476323 0.001338636 -0.12720478 -0.018454235 -0.06726287 -0.07694775 -0.008841568
-0.017585052 -0.2121243 -0.09817363 0.053540826 -0.045835607 0.04948783 -0.07343491 -0.106568635
-0.08375146 -0.12015381 -0.03951496 -0.11719327 -0.04349189 -0.122003086 -0.08903377 0.14047861
0.13874388 0.13238704 0.09478791 0.11820489 0.14865687 0.10899913 0.12766749 0.110257685
0.17139305 0.33151305 -0.096476704 0.14139198 -0.07524314 -0.05989277 0.13466689 -0.014186757
-0.10410703 0.045815222 0.08277089 0.0468712 0.09341218 0.105441645 0.08349438 0.0075349538
0.06538867 0.01806287 -0.005206691 -0.013901673 0.11620474 -0.050082207 -0.15853615 -0.033530235
-0.0037110453 -0.22589134 0.06931657 0.32645744 0.014745187 0.26788545 0.15676393 0.0891267
0.060134437 0.10730499 -0.11045948 0.07773675 -0.12350123 0.07089128 -0.00720534 0.14305925
0.02111262 -0.13497476 -0.009219145 0.011162924 0.07253447 0.067990795 0.13097288 0.058363892
0.06791653 -0.046308473 0.027830431 0.036916025 0.035621226 0.02928797 -0.07535852 -0.0799225
-0.04455944 -0.14900532 -0.035449844 -0.035859168 -0.09197066 -0.10246099 0.056742124 -0.007895099
0.04376804 -0.057178788 -0.02877347 0.0710514 0.028260168 -0.1928244 -0.021069448 -0.015143519
0.08028878 0.13045724 0.004795282 0.12694648 0.2698127 -0.015559813 0.0061591165 0.01460369
0.1481757 0.0761613 0.04712309 0.0048407377 0.05527081 0.05581188 0.020097598 -0.03469673
0.035949487 -0.030011162 0.10829347 -0.025491854 0.09882665 -0.0098281745 0.074851416 0.20746762
-0.07800104 0.034863528 0.11266903 0.064178705 -0.078822315 -0.050713085 0.102172084 0.20754345
0.09059858 0.02252753 0.08025619 0.18702145 0.032415513 0.064659834 0.0020849262 0.14177467
0.0020358153 0.093309216 -0.08492769 0.01775777 0.07904786 0.045521263 0.16487785 0.010406611
-0.012795993 0.008688781 0.057844874 0.072102666 -0.016888162 -0.095932215 0.03089839 -0.016261952
0.007691493 0.026459584 -0.010396287 0.095255636 0.027638614 -0.08304036 0.010368314 2.5915368e-05
-0.064818874 0.011543059 0.0002992018 -0.04250397 0.0016725834 0.07004198 0.038135912 0.060937926
-0.109426506 0.06644406 -0.053007275 -0.028969845 0.16698031 0.0013837856 -0.15918456 0.08023915
0.1193027 0.111430354 0.08680495 0.12004308 0.05095265 0.14628327 0.07541349 0.085763305
0.025603725 0.10310054 0.035201106 -0.03694905 -0.028612455 -0.2942034 0.14913751 -0.36309886
0.051350117 -0.07725173 0.035793476 0.038389474 -0.35002255 0.07104305 -0.2703772 -0.44812205
-0.006069639 -0.20409447 0.039510038 0.0023004415 0.03301294 0.085425094 0.09421255 0.00051731314
00000000: f3b2 6c3e da4b 24bc 5324 febd c0ef a1bc
00000010: 59a5 96be e5e5 ba3c 15bb 9ebe 540e aa3a
00000020: 067f f23c c461 a6bc a457 7dbd 033b afbc
00000030: 3ec2 dbbc 76ab 30bd 2154 aebd dd73 0f3d
00000040: 8fc2 dcbb f7cd b8bd 0a94 b83d 2b74 f3bd
00000050: e4ff 813c ee16 413e 964b 073e 14b8 6d3e
00000060: 75fe 81bd 0ddd d0bd e7bb f3bc a6cb 95bd
00000070: 7998 273e aef6 233e 96ec 7a3d 3f39 683e
00000080: 55a0 833e c89f cfbd 6da2 913b f7e5 2b3e
00000090: 5a62 013b 9788 b1bd 23ae 013e 54d6 363b
000000a0: 0b9e a8be 243b 63bd 2c75 af3a f841 02be
000000b0: 562d 97bc 1ec1 89bd c896 9dbd 39dc 10bc
000000c0: 870e 90bc 1d37 59be 420f c9bd a04d 5b3d
000000d0: 1ebe 3bbd c0b3 4a3d 0b65 96bd a840 dabd
000000e0: e385 abbd 3313 f6bd 70da 21bd 0603 f0bd
000000f0: 8d24 32bd c1dc f9bd 5657 b6bd a0d9 0f3e
00000100: e012 0e3e 7890 073e 2a20 c23d 6815 f23d
00000110: 8239 183e f03a df3d 44bb 023e c8ce e13d
00000120: a981 2f3e 14bc a93e 9495 c5bd 0fc9 103e
00000130: 1319 9abd 1f52 75bd 1ee6 093e 926f 68bc
00000140: 1136 d5bd bea8 3b3d c983 a93d 04fc 3f3d
00000150: e34e bf3d caf1 d73d 1aff aa3d c6e7 f63b
00000160: 7fea 853d 95f8 933c e49c aabb d8c3 63bc
00000170: c0fc ed3d 0023 4dbd 4d57 22be 0057 09bd
00000180: 0235 73bb 0f50 67be d9f5 8d3d 6e25 a73e
00000190: cc95 713c 4828 893e b986 203e 0f88 b63d
000001a0: 874f 763d b8c2 db3d 9438 e2bd 7234 9f3d
000001b0: 36ee fcbd 732f 913d c61a ecbb 207e 123e
000001c0: 60f4 ac3c d336 0abe e60b 17bc b2e4 363c
000001d0: f48c 943d c23e 8b3d c11d 063e fa0e 6f3d
000001e0: d217 8b3d f4ad 3dbd a5fc e33c 4235 173d
000001f0: 90e7 113d 53ed ef3c 9155 9abd 68ae a3bd
00000200: f683 36bd da94 18be db33 11bd 10e1 12bd
00000210: 1d5b bcbd 11d7 d1bd 6e6a 683d 725a 01bc
00000220: 1e46 333d 4e34 6abd 57b6 ebbc 6583 913d
00000230: de81 e73c c273 45be d699 acbc 861c 78bc
00000240: 726e a43d 9596 053e be21 9d3b 42fe 013e
00000250: e424 8a3e 96ee 7ebc 6ad2 c93b 5144 6f3c
00000260: 5fbb 173e 75fa 9b3d 2404 413d 0d9f 9e3b
00000270: a563 623d ff9a 643d b8a3 a43c 291e 0ebd
00000280: c53f 133d f8d9 f5bc f8c8 dd3d 4bd4 d0bc
00000290: a065 ca3d 5a06 21bc b34b 993d 6472 543e
000002a0: 02bf 9fbd 0fcd 0e3d 05bf e63d 2070 833d
000002b0: 986d a1bd 86b8 4fbd 993f d13d 4586 543e
000002c0: c08b b93d a88b b83c 5b5d a43d 8d82 3f3e
000002d0: 21c6 043d 606c 843d 42a3 083b 612d 113e
000002e0: 506b 053b e718 bf3d 92ee adbd be78 913c
000002f0: d8e3 a13d 8174 3a3d bdd5 283e 7d80 2a3c
00000300: 49a6 51bc 645b 0e3c bfee 6c3d 90aa 933d
00000310: 0b59 8abc 1c78 c4bd 9f1e fd3c c937 85bc
00000320: eb08 fc3b c5c1 d83c 3055 2abc 6315 c33d
00000330: 606a e23c 1011 aabd dcdf 293c d464 d937
00000340: c2bf 84bd 191f 3d3c 30de 9c39 a518 2ebd
00000350: 963a db3a 2b72 8f3d 6734 1c3d 0c9a 793d
00000360: 011b e0bd d313 883d 281e 59bd 2b52 edbc
00000370: e3fc 2a3e 2460 b53a 4701 23be 6c54 a43d
00000380: f954 f43d 9935 e43d cbc6 b13d 25d9 f53d
00000390: bab3 503d 48cb 153e 6372 9a3d aca4 af3d
000003a0: e7be d13c 6026 d33d 092f 103d e357 17bd
000003b0: ab64 eabc d4a1 96be 81b7 183e 18e8 b9be
000003c0: 8054 523d 2836 9ebd 2e9c 123d 483e 1d3d
000003d0: 2836 b3be 057f 913d e16e 8abe 4170 e5be
000003e0: d3e3 c6bb 24fe 50be 47d5 213d 01c3 163b
000003f0: 9438 073d 5af3 ae3d 82f2 c03d 4c9c 073a

local_map_cnn.2.bias f4 [32]
-0.007133034 -0.006598474 -0.0010546772 -0.008945309 -0.0622746 -0.18840316 -0.055836156 0.02839054
-0.064994365 -0.087341376 -0.13548969 -0.08258084 -0.23103872 0.041121133 0.028005138 0.10623965
-0.24768953 0.010378044 -0.058500305 -0.059375543 -0.06412241 -0.04463162 -0.027529793 -0.08316378
-0.008197739 0.084900334 -0.1739474 -0.18635984 0.03618754 -0.13294904 -0.13602455 -0.2591745
00000000: 3abc e9bb 0338 d8bb 183d 8aba 588f 12bc
00000010: a713 7fbd c2ec 40be 74b4 64bd 4793 e83c
00000020: c41b 85bd 09e0 b2bd cfbd 0abe 2520 a9bd
00000030: 6a95 6cbe a26e 283d 086b e53c 2c94 d93d
00000040: 53a2 7dbe ac08 2a3c 049e 6fbd c533 73bd
00000050: 9c52 83bd a5cf 36bd 2986 e1bc c651 aabd
00000060: cf4f 06bc 3ae0 ad3d 441f 32be 1dd5 3ebe
00000070: 6339 143d cb23 08be 054a 0bbe 85b2 84be

local_map_cnn.4.weight f4 [32, 32, 3, 3]
-0.024496978 -0.22350848 0.017725574 0.07976727 0.019406393 -0.0010773123 -0.17232384 -0.2604412
-0.14937161 0.16798408 0.01028847 0.0010327642 0.023316517 -0.37714368 -0.17479175 -0.16050267
0.2939852 -0.040414292 -0.097543664 -0.14635515 0.049148563 0.015281808 -0.13146596 -0.119186334
0.09484308 -0.36320952 -0.02323073 -0.16988243 -0.12057181 0.053793844 -0.043226574 -0.37684324
0.0736292 -0.08345271 -0.17547402 -0.031234615 0.047262903 0.06597445 0.08958625 0.020626117
-0.07857312 -0.038440272 0.07743637 -0.094984435 0.06682978 -0.09014663 0.1591786 0.06132772
-0.063425116 -0.06446815 -0.01648112 -0.010633629 0.014597176 -0.17838536 0.027064368 0.16735832
-0.004760982 0.042993553 -0.2135628 -0.004820201 0.067150444 0.10863217 0.11044849 -0.098213114
-0.10725938 0.072644494 -0.019701984 0.066538975 0.082818665 0.07737449 -0.013045337 -0.27353522
-0.012593356 0.122585684 -0.08409546 0.029027296 0.29944345 -0.16790332 0.012735811 -0.44088903
0.042048473 -0.37784684 0.100679204 -0.048587743 -0.061716355 -0.06091531 -0.21951692 0.012773202
-0.13256311 0.037044875 0.058778208 0.045180824 0.2510668 -0.18573873 -0.24894081 -0.019002292
0.008194978 -0.05043801 0.10028292 0.13518053 -0.0798466 0.045782723 -0.07201965 -0.101802304
-0.0285442 -0.112142615 -0.018741615 -0.040582836 -0.009292909 0.026136404 0.09989731 0.1620644
-0.1404585 -0.012201728 -0.064007014 -0.13675798 0.1251578 0.12650827 0.056055203 0.06835645
0.0721233 -0.15741567 -0.07011853 -0.04959115 -0.02203658 -0.10237054 -0.057797484 -0.21228804
-0.0018760402 0.16112192 -0.036009647 -0.18165487 0.040114332 -0.20610204 -0.12846543 0.07322013
-0.12118422 0.085866675 -0.024464697 -0.33057165 -0.09294932 -0.06323444 -0.47720554 -0.2295865
-0.032848842 0.080840826 0.11743836 -0.017656019 -0.108025715 0.05402871 -0.043448094 0.08093234
0.04785463 0.094325535 -0.06803051 -0.1341085 -0.020388426 -0.13884056 -0.11151674 -0.11502394
0.14363661 0.055028778 0.09908173 -0.07584553 -0.000508801 -0.096235044 -0.04606762 -0.16690288
-0.004858642 0.064086206 -0.017640078 -0.03555135 0.12471242 0.2777465 -0.020794967 -0.33602777
-0.08640799 -0.08285618 0.059655726 0.083363995 -0.24445611 0.09550721 0.012257695 -0.0978561
0.052343033 -0.042872425 -0.008783053 -0.0635397 0.113168344 0.005544298 -0.027767444 0.11578739
0.118756264 -0.21082842 -0.04111126 0.12835914 -0.048613142 0.10472847 -0.04422466 -0.077823035
-0.126634 -0.06346042 0.14548098 -0.04214984 0.12637499 0.0901834 -0.16178651 0.102745555
-0.12610605 0.1643551 -0.036026042 -0.48005295 -0.105117545 -0.039077826 0.038696937 -0.08573704
-0.16101241 0.17985746 -0.20058966 -0.08348969 -0.15845762 0.117126085 0.121381804 0.1444628
0.007738016 -0.04529873 -0.015671741 -0.116632625 0.117755264 0.13051113 0.014370457 0.100839816
0.15396214 0.14157102 -0.054723237 -0.0039768326 0.07447459 -0.013116159 -0.045620088 0.02584334
0.058750197 -0.17493665 0.1713255 0.036407985 0.061534114 0.05480737 -0.016826475 -0.020919014
-0.035004213 0.07156543 -0.058431968 0.039388116 -0.10805209 -0.021985557 0.095707424 -0.0121442545
00000000: e3ad c8bc 68df 64be 3935 913c 065d a33d
00000010: 28fa 9e3c 9a34 8dba a975 30be 8d58 85be
00000020: dff4 18be 0504 2c3e f990 283c d15d 873a
00000030: 4802 bf3c fa18 c1be 9cfc 32be d05a 24be
00000040: 3a85 963e 7589 25bd f9c4 c7bd 20de 15be
00000050: 0150 493d 8c60 7a3c 039f 06be f717 f4bd
00000060: 173d c23d 99f6 b9be 5f4e bebc a9f5 2dbe
00000070: 5aee f6bd ef56 5c3d 590e 31bd 99f1 c0be
00000080: e8ca 963d 41e9 aabd 76af 33be bcdf ffbc
00000090: bf96 413d 9d1d 873d ff78 b73d 1af8 a83c
000000a0: f2ea a0bd 8c73 1dbd f696 9e3d 3387 c2bd
000000b0: 0dde 883d cc9e b8bd b7ff 223e c632 7b3d
000000c0: 07e5 81bd e107 84bd 6a03 87bc ac38 2ebc
000000d0: fe28 6f3c a7aa 36be 18b6 dd3c fb5f 2b3e
000000e0: 0302 9cbb 021a 303d 35b0 5abe c7f2 9dbb
000000f0: 2c86 893d 8b7a de3d d132 e23d f523 c9bd
00000100: ceaa dbbd a3c6 943d 0e66 a1bc 9645 883d
00000110: d59c a93d 8476 9e3d 1cbc 55bc cf0c 8cbe
00000120: 5d54 4ebc 340e fb3d 3e3a acbd a7ca ed3c
00000130: a750 993e d9ee 2bbe dda9 503c 35bc e1be
00000140: 053b 2c3d 2475 c1be e630 ce3d f103 47bd
00000150: 4aca 7cbd 5582 79bd 0bc9 60be b146 513c
00000160: a0be 07be 5ebc 173d 6bc1 703d 870f 393d
00000170: d48b 803e 4b32 3ebe 57ea 7ebe b2aa 9bbc
00000180: 3b44 063c 1698 4ebd 2261 cd3d c46c 0a3e
00000190: 9d86 a3bd aa86 3b3d 0a7f 93bd ba7d d0bd
000001a0: 87d5 e9bc 07ab e5bd 0488 99bc 303a 26bd
000001b0: 4941 18bc 031c d63c f696 cc3d 36f4 253e
000001c0: 5ad4 0fbe c2e9 47bc 1c16 83bd 490a 0cbe
000001d0: 5e29 003e 628b 013e 249a 653d 77fe 8b3d
000001e0: 61b5 933d 9331 21be 4e9a 8fbd 1720 4bbd
000001f0: 0f86 b4bc a5a7 d1bd 0ebd 6cbd 0962 59be
00000200: 77e5 f5ba 25fd 243e da7e 13bd bc03 3abe
00000210: ed4e 243d 6a0c 53be 718c 03be 6ff4 953d
00000220: 6f2f f8bd deda af3d 306a c8bc b040 a9be
00000230: 375c bebd 0f81 81bd 4954 f4be b918 6bbe
00000240: 828c 06bd e08f a53d 8683 f03d 5ba3 90bc
00000250: 963c ddbd 354d 5d3d a1f6 31bd dbbf a53d
00000260: 3703 443d bf2d c13d 9453 8bbd bd53 09be
00000270: a105 a7bc 382c 0ebe e362 e4bd ac91 ebbd
00000280: 7a15 133e db65 613d 5deb ca3d e754 9bbd
00000290: 0f61 05ba e116 c5bd 67b1 3cbd 97e8 2abe
000002a0: 3e35 9fbb a13f 833d ed81 90bc 4b9e 11bd
000002b0: 3a69 ff3d ca34 8e3e 355a aabc d50b acbe
000002c0: acf6 b0bd 80b0 a9bd 9059 743d beba aa3d
000002d0: b452 7abe 4999 c33d 80d4 483c c768 c8bd
000002e0: a665 563d ff9a 2fbd cbe6 0fbc 1a21 82bd
000002f0: cec4 e73d f1ac b53b 8d78 e3bc f021 ed3d
00000300: 7c36 f33d 68e3 57be 4864 28bd 9470 033e
00000310: 931e 47bd e17b d63d eb24 35bd af61 9fbd
00000320: 58ac 01be 89f7 81bd f7f8 143e 50a5 2cbd
00000330: 7268 013e 13b2 b83d 5dab 25be 436c d23d
00000340: f221 01be b44c 283e 0b90 13bd 80c9 f5be
00000350: de47 d7bd 1210 20bd ae80 1e3d e796 afbd
00000360: 70e0 24be 8e2c 383e 6067 4dbe a5fc aabd
00000370: b742 22be cddf ef3d 0697 f83d 0eee 133e
00000380: 2f8f fd3b 298b 39bd 0662 80bc 16dd eebd
00000390: ac29 f13d b6a4 053e 1172 6b3c 1b85 ce3d
000003a0: 40a8 1d3e fef7 103e 7925 60bd 1750 82bb
000003b0: 2286 983d 28e5 56bc 21dc 3abd 6ab5 d33c
000003c0: 0ca4 703d 9822 33be f46f 2f3e 8a20 153d
000003d0: 320b 7c3d b17d 603d add7 89bc 5a5e abbc
000003e0: 9460 0fbd e590 923d 5c56 6fbd 6f55 213d
000003f0: 6a4a ddbd 0e1b b4bc 4102 c43d b2f8 46bc

local_map_cnn.4.bias f4 [32]
0.020468367 -0.006707894 -0.1967271 -0.3825751 -0.010948339 -0.05769159 -0.001403099 -0.1441641
0.11039283 0.018090593 0.10688691 -0.105727114 0.12532358 0.1267368 -0.18942751 0.1968744
-0.26568848 0.054986928 0.12838034 -0.14235762 -0.1807512 -0.022666015 0.021607624 -0.08590521
-0.073093176 0.119762234 -0.15519942 -0.0072744405 -0.0056075985 0.06672921 0.005119191 -0.036286514
00000000: 47ad a73c e5cd dbbb d472 49be e2e0 c3be
00000010: a960 33bc 044e 6cbd 31e8 b7ba c19f 13be
00000020: a315 e23d b932 943c 86e7 da3d 7587 d8bd
00000030: d354 003e 4bc7 013e 49f9 41be 7199 493e
00000040: 5208 88be f939 613d 2376 033e 32c6 11be
00000050: d816 39be 14ae b9bc 7902 b13c 12ef afbd
00000060: e0b1 95bd e745 f53d 99ec 1ebe 6e5e eebb
00000070: f2bf b7bb 53a9 883d e3be a73b 2ba1 14bd

local_map_fc.weight f4 [64, 512]
-0.010198769 -0.055956643 -0.1951025 -0.11019288 0.024552941 -0.102780595 -0.22511241 0.051738936
-0.1708924 -0.054355953 -0.13172849 0.09386607 0.003079914 -0.09868618 0.09793467 -0.3041607
-0.13016284 -0.14491618 -0.07325186 -0.0063945614 -0.0614746 0.012702569 -0.03472495 0.035564844
-0.0011237271 0.032516267 0.06885125 -0.1198511 -0.039078604 0.11302713 0.095985584 0.0015355895
-0.0797229 -0.0767875 0.13908476 -0.04101385 -0.3922774 -0.03467313 0.09813971 -0.18433307
-0.02771723 -0.13483353 0.07040236 -0.05211484 0.15900388 0.05061537 -0.011881106 0.07462481
0.005683708 -0.16772896 0.0533796 0.029347483 0.008560881 -0.02677305 0.008793555 -0.006259747
0.0019452061 0.1548981 0.08063965 0.1259632 -0.013487596 -0.03189169 -0.119698696 0.034903564
-0.04362142 -0.1253106 0.107307315 -0.17074583 0.00043038776 -0.14600809 0.08646779 -0.026621174
0.14776906 -0.043926176 -0.067390755 -0.4218424 -0.09461451 0.023860265 -0.092343554 0.08124956
0.12914109 0.09074771 -0.19614679 -0.18193516 -0.08326644 -0.16056429 0.07080057 0.26034495
-0.019435737 0.2213688 -0.024530673 0.02387828 -0.010914465 -0.08075693 -0.1500378 0.13155587
0.050363623 0.08354576 -0.08588309 -0.037771206 0.022253038 0.057297528 0.1271723 0.094849765
0.124364905 0.27086323 -0.08285171 -0.13772172 -0.0051375064 -0.10366826 -0.0721137 0.042310394
0.11487234 -0.014611122 0.042141322 -0.23268354 -0.14668682 -0.14342357 0.06956454 0.06504985
-0.10987595 -0.11978643 -0.14579868 -0.020673253 -0.030142194 -0.0058725127 -0.031185897 -0.055951197
-0.08702396 -0.18346085 -0.31791663 -0.11406714 -0.18273573 -0.11896067 -0.24368107 0.23780343
-0.15075842 -0.040785637 -0.2577112 0.040497635 0.13936217 0.049017426 0.017986866 -0.111335725
-0.109903 0.0946663 -0.16455041 -0.26422858 -0.039986532 -0.035443667 -0.20800813 -0.19399858
-0.065053955 -0.042432208 -0.1128692 -0.18593967 -0.25909236 -0.12815897 0.119793154 -0.051657464
0.102750644 -0.14225277 0.17307572 -0.02042746 -0.009689725 0.007817884 0.16344981 -0.20705982
-0.036274705 -0.09062842 0.025137562 -0.004963128 -0.19943485 -0.2817892 0.118317544 -0.018307025
-0.04873079 -0.093951814 -0.2796344 -0.1880501 -0.0037296372 -0.037141092 0.015597975 -0.01208908
-0.06556113 -0.18703766 -0.12119292 -0.03531007 0.055450577 -0.007573735 0.0252962 0.03741055
-0.06882408 0.00012336948 -0.09481185 -0.3645225 -0.07428815 0.018037997 -0.052324064 -0.16044253
0.049542304 -0.01881895 -0.03105938 -0.07018707 0.25746855 0.07232902 -0.029065637 0.12617798
0.000176327 -0.152957 0.049180567 0.16284792 0.0415086 -0.23778927 0.16374652 -0.045978155
-0.11096242 0.04229191 0.0863711 0.0018131688 -0.046047933 -0.030053653 0.083756134 -0.06997214
-0.029856252 -0.02659182 -0.06703391 0.07077185 0.21270625 -0.11552768 0.08420695 0.027486047
0.020066684 -0.054730296 0.11499756 -0.10649837 -0.16622092 -0.15475218 0.07286292 -0.1743487
0.0029840602 -0.04553319 -0.04863318 0.16887574 -0.13192426 0.06878102 -0.28863335 0.12830693
-0.118524276 -0.105387986 -0.08153043 -0.04149235 -0.019011974 -0.133293 0.019170286 -0.04781451
00000000: bd18 27bc cb32 65bd f3c8 47be ceac e1bd
00000010: 4023 c93c a27e d2bd de83 66be 35ec 533d
00000020: 6bfe 2ebe 59a4 5ebd d5e3 06be db3c c03d
00000030: 62d8 493b fb1b cabd f991 c83d f4ba 9bbe
00000040: 6849 05be e864 14be 1205 96bd 7889 d1bb
00000050: cacc 7bbd 701e 503c c03b 0ebd 71ac 113d
00000060: 064a 93ba c72f 053d e201 8d3d 7e74 f5bd
00000070: e310 20bd c57a e73d 1794 c43d d545 c93a
00000080: c345 a3bd c442 9dbd 3c6c 0e3e 24fe 27bd
00000090: 95d8 c8be 6905 0ebd 79fd c83d cfc1 3cbe
000000a0: 3f0f e3bc cd11 0abe 1d2f 903d 5f76 55bd
000000b0: ead1 223e 1052 4f3d f8a8 42bc e4d4 983d
000000c0: 663e ba3b 24c1 2bbe 91a4 5a3d 226a f03c
000000d0: f042 0c3c 2853 dbbc d812 103c 901e cdbb
000000e0: 49f6 fe3a 9c9d 1e3e 6726 a53d 7ffc 003e
000000f0: 14fb 5cbc dca0 02bd 9724 f5bd 0af7 0e3d
00000100: 60ac 32bd 6c51 00be f0c3 db3d ffd7 2ebe
00000110: aba5 e139 2583 15be 0616 b13d a614 dabc
00000120: c650 173e efeb 33bd 2a04 8abd bafb d7be
00000130: 41c5 c1bd 9a76 c33c 9e1e bdbd 2b66 a63d
00000140: 903d 043e efd9 b93d b4da 48be 364d 3abe
00000150: 9887 aabd f76a 24be e4ff 903d ef4b 853e
00000160: b237 9fbc 81ae 623e 8df4 c8bc 629c c33c
00000170: 96d2 32bc e463 a5bd 82a3 19be 95b6 063e
00000180: 164a 4e3d 0a1a ab3d 79e3 afbd fbb5 1abd
00000190: 014c b63c d0b0 6a3d 7539 023e 9840 c23d
000001a0: 07b3 fe3d 96ae 8a3e 28ae a9bd ec06 0dbe
000001b0: 8758 a8bb 0650 d4bd 59b0 93bd aa4d 2d3d
000001c0: 3042 eb3d 7d63 6fbc 619c 2c3d 9844 6ebe
000001d0: 1235 16be a1dd 12be db77 8e3d db38 853d
000001e0: a406 e1bd 9652 f5bd 404c 15be f45a a9bc
000001f0: c3ec f6bc 356e c0bb 9179 ffbc 152d 65bd
00000200: 9e39 b2bd 29dd 3bbe f8c5 a2be 089c e9bd
00000210: 131f 3bbe a7a1 f3bd 8887 79be be82 733e
00000220: 6a60 1abe d70e 27bd b9f2 83be d9e0 253d
00000230: f5b4 0e3e 7fc6 483d 3159 933c fc03 e4bd
00000240: d314 e1bd 68e0 c13d e77f 28be f848 87be
00000250: ebc8 23bd 612d 11bd 1500 55be 90a7 46be
00000260: 023b 85bd 65cd 2dbd f827 e7bd f866 3ebe
00000270: c1a7 84be 1b3c 03be 1d56 f53d c796 53bd
00000280: ee6e d23d b6aa 11be c33a 313e 7d57 a7bc
00000290: a7c1 1ebc 9516 003c 635f 273e 7d07 54be
000002a0: c994 14bd 659b b9bd 4aed cd3c bca1 a2bb
000002b0: a638 4cbe ad46 90be 7850 f23d 9df8 95bc
000002c0: f099 47bd cf69 c0bd 3d2c 8fbe 3590 40be
000002d0: ee6c 74bb 4221 18bd a68e 7f3c 4711 46bc
000002e0: ea44 86bd cd86 3fbe fe33 f8bd 4ba1 10bd
000002f0: 2520 633d 182d f8bb fa39 cf3c ce3b 193d
00000300: a4f3 8cbd be5c 0139 b72c c2bd b1a2 babe
00000310: 6324 98bd 6cc4 933c c251 56bd 0c4b 24be
00000320: dfec 4a3d 332a 9abc 3e70 febc 3dbe 8fbd
00000330: ebd2 833e 3d21 943d 0f1b eebc cd34 013e
00000340: 6be4 3839 c3a0 1cbe 9071 493d 9bc1 263e
00000350: ec04 2a3d 087f 73be 2bad 273e 9753 3cbd
00000360: 4440 e3bd 483a 2d3d 55e3 b03d d9a7 ed3a
00000370: c29c 3cbd 1433 f6bc 5688 ab3d 8e4d 8fbd
00000380: 1995 f4bc 17d7 d9bc 1349 89bd d5f0 903d
00000390: abcf 593e c799 ecbd b274 ac3d 6b2a e13c
000003a0: e362 a43c e02c 60bd d783 eb3d d11b dabd
000003b0: d135 2abe 5b77 1ebe 2839 953d 7788 32be
000003c0: 3990 433b 0381 3abd 9633 47bd c3ed 2c3e
000003d0: 2717 07be 10dd 8c3d c0c7 93be e462 033e
000003e0: dbbc f2bd a8d5 d7bd 6df9 a6bd e2f3 29bd
000003f0: 00bf 9bbc f67d 08be 010b 9d3c 26d9 43bd

local_map_fc.bias f4 [64]
-0.089312 -0.110988244 -0.007892284 -0.06793117 -0.058496546 -0.108633734 -0.08991547 0.07153777
-0.02410893 -0.073024 -0.05062065 -0.040515702 0.16874565 -0.030415997 -0.035080682 0.06591661
0.03939225 -0.02317354 -0.089226544 -0.0034533353 -0.09684165 -0.13864952 0.048139647 0.07326515
-0.06250149 -0.09799357 0.042331375 -0.09051065 0.05370899 0.061296053 -0.016300032 -0.1495623
0.088501066 -0.0031179388 -0.017982028 -0.1460999 -0.06182872 0.10553546 0.16575424 -0.010641663
-0.06780315 -0.081506856 0.021904277 0.08837012 0.09029972 0.104970455 -0.07888856 -0.010921174
-0.048687294 -0.01945487 -0.11615035 -0.12211992 0.09514632 -0.19446756 -0.058347505 0.118604645
-0.035506234 -0.21639131 -0.031152777 -0.058174223 -0.061739933 0.07370088 0.016108042 0.0882513
00000000: 36e9 b6bd ce4d e3bd a34e 01bc 7f1f 8bbd
00000010: 139a 6fbd 5d7b debd 9a25 b8bd 6582 923d
00000020: 1780 c5bc 9b8d 95bd 9957 4fbd cbf3 25bd
00000030: a9cb 2c3e f82a f9bc c3b0 0fbd 4aff 863d
00000040: c559 213d 70d6 bdbc 68bc b6bd 5a51 62bb
00000050: ea54 c6bd 24fa 0dbe 142e 453d 0a0c 963d
00000060: c800 80bd dab0 c8bd aa63 2d3d a65d b9bd
00000070: f5fd 5b3d 9211 7b3d a587 85bc dc26 19be
00000080: 0c40 b53d 5556 4cbb 0c4f 93bc 369b 15be
00000090: 1d40 7dbd fa22 d83d 7bbb 293e 5f5a 2ebc
000000a0: 61dc 8abd 11ed a6bd 9970 b33c 65fb b43d
000000b0: 0fef b83d c0fa d63d 5390 a1bd b9ee 32bc
000000c0: 546c 47bd d25f 9fbc 3ce0 edbd 021a fabd
000000d0: 13dc c23d 8122 47be cbfd 6ebd fee6 f23d
000000e0: fc6e 11bd af95 5dbe 1c34 ffbc 1848 6ebd
000000f0: 03e3 7cbd 7df0 963d 03f5 833c 19bd b43d

self_entity_fc1.weight f4 [32, 26]
0.27509522 -0.0113448305 -0.006744302 -0.01410177 -0.025055313 0.07123862 0.006033677 -0.33530408
-0.026957719 -0.06485139 -0.185585 -0.54960394 0.15419568 -0.19572046 0.21157122 0.14777812
-0.2406608 -0.11495197 0.06986608 -0.020773012 -0.045040246 0.31976303 -0.1381174 0.1846682
-0.0025296868 0.052354816 -0.3982697 -0.11482246 0.007005038 0.18797341 0.16462015 -0.08373827
0.110930346 -0.26350644 -0.107411146 -0.09317073 -0.14515305 0.0023166982 0.0116898585 0.03347174
0.19526084 0.12174827 0.095293246 -0.00851041 -0.034443524 -0.044832572 -0.078269765 0.07605583
-0.04583029 -0.016256167 0.0879735 0.18860671 -0.022085302 -0.103106394 0.054413147 -0.14164683
0.105406396 -0.49020657 -0.25035107 0.071783125 0.08998976 -0.12689868 -0.44279203 -0.09848803
-0.08140949 0.04394656 0.05100887 0.20624173 0.01645905 0.058852725 -0.011115465 0.12974067
0.01572698 0.093592495 0.17980045 -0.10809524 -0.039984453 -0.13354373 -0.099624515 -0.027419582
0.12601449 -0.07701364 -0.09616745 0.1530936 0.12281844 -0.058313537 0.7717264 0.2971081
0.0977475 -0.067107305 0.024069952 0.2619394 -0.024917724 -0.16979617 0.20070085 0.230469
-0.11171484 -0.053873546 0.2597366 -0.07742169 -0.15332116 0.03820102 -0.110016264 0.13369043
-0.16465299 0.03133435 -0.02080036 -0.17075656 0.118156604 0.052491978 -0.013622557 -0.21070081
0.055463724 0.15256064 0.4408631 0.21802709 0.14770041 0.10297914 -0.19707018 0.041293167
0.20784311 0.38396093 -0.11560709 -0.018365094 0.036709752 -0.09994677 -0.059175998 -0.02327878
-0.11358514 -0.10326105 0.085885875 0.10804186 0.20377186 0.040401682 0.041271914 -0.10118202
0.14243153 -0.43151248 0.22512479 0.023712356 0.050401587 0.3276865 0.14942245 0.110921115
0.0042984 -0.22684816 0.059303407 -0.009123809 -0.16123085 -0.15840554 -0.16812618 -0.16587299
-0.12671897 -0.18234152 0.061289426 0.09666513 -0.03632061 -0.09804923 0.0036335522 0.17898794
0.1475733 -0.11565322 -0.06504682 -0.2819204 0.07013539 -0.054102954 -0.3803044 0.086797364
-0.87801147 0.1228351 0.15409324 0.11269085 -0.22653815 -0.1454433 0.0056949514 -0.0005226722
0.05922033 0.25859904 0.1282283 -0.09197671 0.0074946093 -0.12567064 0.16646208 0.0045883004
-0.0101558035 0.027629388 -0.034278132 -0.15579821 0.08441824 -0.0124063585 -0.6036758 0.11970221
-0.16785453 0.24054214 0.088926725 0.11487361 0.09904415 0.2509704 0.11408378 0.20274548
-0.04680202 0.09075827 0.037045542 0.1918771 0.0064963554 -0.072329395 0.090831265 -0.14028168
0.014170954 -0.098094 0.007167447 0.107293464 -0.018206187 -0.084320165 0.034038957 0.52061397
0.024403296 0.030444795 -0.7822311 -0.10638868 -0.12111424 0.10304439 0.18254519 0.1416217
0.16446953 -0.10428533 -0.021199891 -0.103770845 -0.0316754 0.16693552 0.096485905 -0.058057997
-0.13567328 -0.13360727 -0.19333817 -0.21463108 -0.045406576 0.0903886 -0.07838529 -0.40526992
-0.43976164 0.1151081 -0.17135635 -0.08392235 0.12520882 0.16609573 0.063559905 -0.08617375
0.08638086 0.11639152 -0.06188006 -0.13569328 0.053471815 -0.0914914 -0.015359382 0.274418
00000000: 48d9 8c3e abdf 39bc 4eff dcbb 1c0b 67bc
00000010: cd40 cdbc 8ee5 913d 27b6 c53b faac abbe
00000020: 6fd6 dcbc ced0 84bd ff09 3ebe d8b2 0cbf
00000030: 79e5 1d3e f26a 48be 20a6 583e 2653 173e
00000040: c96f 76be f06b ebbd f315 8f3d 2a2c aabc
00000050: 1f7c 38bd fbb7 a33e a66e 0dbe a919 3d3e
00000060: 1ac9 25bb 0172 563d 02ea cbbe 0a28 ebbd
00000070: 858a e53b 1a7c 403e 2f92 283e f87e abbd
00000080: 732f e33d 51ea 86be 60fa dbbd 4cd0 bebd
00000090: 00a3 14be bfd3 173b d286 3f3c aa19 093d
000000a0: 75f2 473e 2857 f93d 1b29 c33d 3f6f 0bbc
000000b0: a714 0dbd 5ca2 37bd e64b a0bd 29c3 9b3d
000000c0: 8bb8 3bbd a72b 85bc 732b b43d 1e22 413e
000000d0: 3cec b4bc 7229 d3bd 52e0 5e3d de0b 11be
000000e0: 4fdf d73d 5bfc fabe 042e 80be 0803 933d
000000f0: 8d4c b83d baf1 01be a3b5 e2be 18b4 c9bd
00000100: 05ba a6bd 4f01 343d adee 503d 0831 533e
00000110: 21d5 863c 8e0f 713d a41d 36bc bdda 043e
00000120: ded5 803c 6cad bf3d 9c1d 383e 0a61 ddbd
00000130: bdc6 23bd b0bf 08be f007 ccbd 089f e0bc
00000140: f109 013e 54b9 9dbd 71f3 c4bd 92c4 1c3e
00000150: 3c88 fb3d 2dda 6ebd dd8f 453f 8e1e 983e
00000160: d72f c83d 8e6f 89bd 592e c53c ec1c 863e
00000170: 4120 ccbc 0cdf 2dbe 8684 4d3e 1100 6c3e
00000180: c0ca e4bd 82aa 5cbd 32fc 843e 438f 9ebd
00000190: 3900 1dbe ac78 1c3d 3550 e1bd 25e6 083e
000001a0: cb9a 28be 7358 003d 8465 aabc cfda 2ebe
000001b0: 17fc f13d d401 573d 2531 5fbc f4c1 57be
000001c0: ee2d 633d db38 1c3e cfb8 e13e 7e42 5f3e
000001d0: c73e 173e bae6 d23d c4cc 49be 0623 293d
000001e0: d3d4 543e 8796 c43e 69c3 ecbd 6572 96bc
000001f0: f75c 163d e4b0 ccbd 8862 72bd 24b3 bebc
00000200: 539f e8bd 887a d3bd efe4 af3d 0d45 dd3d
00000210: 92a9 503e 3c7c 253d bd0c 293d 8538 cfbd
00000220: 92d9 113e 34ef dcbe 1d87 663e 6a40 c23c
00000230: e571 4e3d 86c6 a73e 3302 193e 9c2a e33d
00000240: 98d9 8c3b e24a 68be 21e8 723d 077c 15bc
00000250: b319 25be 1035 22be 4529 2cbe 9cda 29be
00000260: 9ec2 01be bcb7 3abe 9f0a 7b3d 5ef8 c53d
00000270: ecc4 14bd 09ce c8bd e420 6e3b 9d48 373e
00000280: 751d 173e 98db ecbd 4437 85bd df57 90be
00000290: 25a3 8f3d 0f9b 5dbd 42b7 c2be d1c2 b13d
000002a0: 5cc5 60bf f890 fb3d 9eca 1d3e 76ca e63d
000002b0: 9ef9 67be 17ef 14be b79c ba3b f003 09ba
000002c0: 0491 723d 1867 843e 484e 033e 495e bcbd
000002d0: 5795 f53b ceaf 00be 0975 2a3e 7459 963b
000002e0: 8764 26bc 0757 e23c 3a67 0cbd 9189 1fbe
000002f0: 78e3 ac3d 0a44 4bbc 7f8a 1abf 6f26 f53d
00000300: 0fe2 2bbe ae50 763e 371f b63d db42 eb3d
00000310: a9d7 ca3d 317f 803e c2a4 e93d 839c 4f3e
00000320: 7ab3 3fbd 79df b93d 11bd 173d 6e7b 443e
00000330: 61df d43b 6f21 94bd be05 ba3d 00a6 0fbe
00000340: 4a2d 683c 82e5 c8bd e7dc ea3b adbc db3d
00000350: 2425 95bc 0db0 acbd 6f6c 0b3d f546 053f
00000360: 6ce9 c73c 5d67 f93c 4c40 48bf 4fe2 d9bd
00000370: be0a f8bd f008 d33d 20ed 3a3e 4705 113e
00000380: b36a 283e 8c93 d5bd 65ab adbc cf85 d4bd
00000390: 10be 01bd 25f1 2a3e 679a c53d 39ce 6dbd
000003a0: f0ed 0abe 58d0 08be 71fa 45be 40c8 5bbe
000003b0: 3ffc 39bd a91d b93d 7888 a0bd 8a7f cfbe
000003c0: 7028 e1be ccbd eb3d 0a78 2fbe 7bdf abbd
000003d0: be36 003e 0015 2a3e b22b 823d dd7b b0bd
000003e0: 73e8 b03d ad5e ee3d f275 7dbd 2ef3 0abe
000003f0: 4305 5b3d d85f bbbd eba5 7bbc 8480 8c3e

self_entity_fc1.bias f4 [32]
-0.013871698 0.26010653 0.021196416 -0.24275509 -0.080049165 -0.1303235 0.29015514 0.12829946
0.22497565 0.14856923 0.081937484 0.23709637 0.020301463 -0.03758807 -0.11738723 -0.04360561
0.15537985 0.1573061 0.23901485 0.044992533 0.23525225 0.14722008 0.24250759 -0.060365297
0.23669855 0.12381513 -0.22409898 0.047863077 0.38791937 0.5312473 -0.08465646 0.042511668
00000000: 1e46 63bc af2c 853e 1ba4 ad3c ca94 78be
00000010: d1f0 a3bd 8673 05be 378f 943e ef60 033e
00000020: 0460 663e 8822 183e d7ce a73d 64c9 723e
00000030: 414f a63c f3f5 19bd b768 f0bd cc9b 32bd
00000040: e51b 1f3e da14 213e 4fc0 743e 174a 383d
00000050: f7e5 703e dcc0 163e e953 783e 9a41 77bd
00000060: 1b61 723e c992 fd3d 347a 65be 130c 443d
00000070: 5e9d c63e d3ff 073f 5e60 adbd b720 2e3d

self_entity_fc2.weight f4 [32, 32]
-0.07167101 0.1596818 0.37386012 -0.449007 0.20791757 0.06397798 0.077282764 0.23415707
-0.18739776 -0.021308674 0.10571599 -0.12605113 -0.020009428 0.07723268 -0.35193515 0.12746653
0.005649807 0.107199185 0.112676986 -0.11131127 0.012977565 -0.003927586 -0.06970823 0.22173059
0.028977389 0.13498771 -0.4009753 0.22838427 0.5506425 0.60076386 0.1566658 -0.03443266
0.28999424 0.15503104 -0.08791663 0.108484305 -0.5414232 -0.15283595 0.87613493 -0.11105437
0.52027965 -0.056597166 0.29988945 0.5755589 0.019257905 -0.55182374 0.15380023 0.17223483
0.18634419 0.1009912 -0.001744567 -0.21724214 0.06394357 0.13963993 -0.14705825 -0.15956469
-0.27190983 0.075657375 -0.17247683 -0.14992045 -0.553984 -0.6354228 -0.09242392 -0.096039936
-0.039971728 -0.09687686 -0.48134002 -0.31641728 0.23319615 -0.21091257 0.1327113 0.15411709
-0.7524654 -0.05765669 0.11448552 -0.102279425 -0.13417844 -0.90328443 -0.2796733 0.005677035
-0.04194236 0.27538007 0.2501745 -0.29278666 0.005947966 -0.015356785 0.113155715 0.20582934
0.13365468 0.17292832 -0.5425833 -0.05322415 -9.57348e-05 -0.0966512 -0.08391482 -0.11444529
0.07226212 -0.12487786 -0.23492114 0.15220192 0.15102881 0.22164051 -0.0053807693 -0.41388953
-0.25763395 -0.18434575 -0.5688597 0.017579801 0.29512486 -0.42814794 0.33571038 0.17982733
0.08273195 0.08465466 -0.39019397 -0.0148447305 -0.12750831 -0.046586774 -0.1367334 0.0061018826
0.0051602186 -0.014310489 0.2516267 -0.47036827 0.16174242 0.10869397 -0.07122039 0.21049814
0.44241655 0.2478324 -0.08635593 -0.074025646 -0.4011886 -0.13369246 0.16296203 -0.15692808
0.49980375 -0.034171224 0.24557064 0.58953935 0.10288882 -0.6988802 -0.018567193 0.22555344
0.24041554 0.016060045 -0.10153216 0.13049959 0.31148282 0.21547726 0.0014927331 0.17921257
-0.41974875 0.078261934 0.016300568 0.054499224 -0.42639998 -0.57676286 0.06949159 -0.02651644
0.19096808 0.3141155 0.22220333 -0.060099207 0.16783556 0.0016828112 -0.013865437 0.070811406
0.70723283 -0.24824032 0.32389602 0.2656799 -0.23235355 0.36663824 0.21143487 0.13925055
0.23233397 0.007945738 -0.012985612 0.1895141 0.122828245 -0.06893807 0.09865469 -0.05353281
0.24414843 -0.19078082 -0.21070151 0.08664845 -0.30612168 -0.5262229 -0.11789009 -0.16450411
-0.052816454 0.13273954 0.09915729 -0.37757534 0.087098144 0.022587612 -0.3021471 0.04476713
-0.9832719 0.01951107 0.2316993 -0.0522256 -0.20843534 -1.014478 -0.048585832 -0.09414902
0.06411772 0.25960994 0.12462269 0.019142939 0.15778136 -0.20105666 0.21191686 0.10808516
0.1135508 0.04777117 -0.5064985 0.2742316 -0.103960164 -0.10635877 -0.15058762 -0.0020078775
0.53596824 0.05504726 0.07783439 -0.08257434 -0.09202031 -0.20075184 -0.552388 -0.0095227
0.2904894 0.02517181 0.07405541 0.54175234 -0.06564511 -0.7887854 0.0013799359 0.048690934
0.038905017 -0.07303924 0.023021117 0.09951634 0.18463415 -0.0786183 -0.070067845 0.3044904
-0.34983218 0.08490156 -0.06934939 -0.058532078 -0.41313958 -0.4380147 0.09341687 0.037971493
00000000: 40c8 92bd a083 233e 986a bf3e 3fe4 e5be
00000010: 58e8 543e e306 833d 6d46 9e3d dfc6 6f3e
00000020: 33e5 3fbe 878f aebc a081 d83d 8c13 01be
00000030: d0ea a3bc 2b2c 9e3d d830 b4be 9686 023e
00000040: 0422 b93b 3f8b db3d 31c3 e63d 2af7 e3bd
00000050: da9f 543c fbb2 80bb 30c3 8ebd 580d 633e
00000060: fd61 ed3c 383a 0a3e a24c cdbe 91dd 693e
00000070: e8f6 0c3f a9cb 193f 006d 203e 4309 0dbd
00000080: 207a 943e 75c0 1e3e a20d b4bd 052d de3d
00000090: b69a 0abf 0781 1cbe 614a 603f 7970 e3bd
000000a0: 0c31 053f 6ed2 67bd 1c8b 993e d457 133f
000000b0: c1c2 9d3c 5244 0dbf cf7d 1d3e 545e 303e
000000c0: 03d1 3e3e 79d4 ce3d f4a9 e4ba b974 5ebe
000000d0: d9f4 823d c5fd 0e3e 7096 16be ed64 23be
000000e0: c437 8bbe 41f2 9a3d c49d 30be bf84 19be
000000f0: e5d1 0dbf 12ab 22bf c148 bdbd 96b0 c4bd
00000100: 65b9 23bd 6067 c6bd 3372 f6be 7201 a2be
00000110: f9ca 6e3e 77f9 57be 79e5 073e dfd0 1d3e
00000120: 93a1 40bf 6c29 6cbd 6277 ea3d e077 d1bd
00000130: 1366 09be a63d 67bf 5731 8fbe 6c06 ba3b
00000140: c1cb 2bbd 9efe 8c3e df16 803e 22e8 95be
00000150: 28e7 c23b 069b 7bbc 2fbe e73d edc4 523e
00000160: c6dc 083e 1f14 313e bde6 0abf 9101 5abd
00000170: 3bc5 c8b8 10f1 c5bd 88db abbd 4b62 eabd
00000180: 2afe 933d f7bf ffbd 2b8f 70be d2da 1b3e
00000190: 4ca7 1a3e bbf5 623e 2a51 b0bb 54e9 d3be
000001a0: 99e8 83be 22c5 3cbe caa0 11bf 8403 903c
000001b0: 9b1a 973e 3536 dbbe 3be2 ab3e a824 383e
000001c0: 5e6f a93d 6c5f ad3d 81c7 c7be 5037 73bc
000001d0: 8a91 02be c6d1 3ebd d703 0cbe 4df2 c73b
000001e0: 0d17 a93b 8b76 6abc 37d5 803e 1cd4 f0be
000001f0: ce9f 253e f29a de3d ffdb 91bd d38c 573e
00000200: 6c84 e23e c7c7 7d3e 61db b0bd c29a 97bd
00000210: 9868 cdbe ade6 08be 85df 263e c1b1 20be
00000220: 47e6 ff3e 20f7 0bbd df76 7b3e 0dec 163f
00000230: 60b7 d23d d0e9 32bf 3a1a 98bc 7bf7 663e
00000240: 7e2f 763e 5b90 833c 18f0 cfbd afa1 053e
00000250: ad7a 9f3e 12a6 5c3e d0a7 c33a 8083 373e
00000260: 4fe9 d6be cb47 a03d c588 853c 943a 5f3d
00000270: 1951 dabe bba6 13bf 9b51 8e3d 0139 d9bc
00000280: 238d 433e bfd3 a03e 4589 633e 962a 76bd
00000290: 16dd 2b3e c691 dc3a dc2b 63bc 9205 913d
000002a0: 360d 353f b632 7ebe b3d5 a53e 3207 883e
000002b0: 17ee 6dbe 02b8 bb3e 6282 583e b297 0e3e
000002c0: f5e8 6d3e d72e 023c 9bc1 54bc fc0f 423e
000002d0: 608d fb3d 672f 8dbd 780b ca3d 3845 5bbd
000002e0: 0c02 7a3e 0c5c 43be 23c2 57be be74 b13d
000002f0: fbbb 9cbe 8bb6 06bf 5c70 f1bd c473 28be
00000300: 1156 58bd e0ec 073e fa12 cb3d 8e51 c1be
00000310: 8360 b23d a809 b93c 06b3 9abe bd5d 373d
00000320: b5b7 7bbf aed5 9f3c 9542 6d3e 83ea 55bd
00000330: 1370 55be 6ada 81bf f001 47bd 34d1 c0bd
00000340: 2750 833d 98eb 843e 2e3a ff3d a7d1 9c3c
00000350: 7091 213e cce1 4dbe bc00 593e c15b dd3d
00000360: 528d e83d b4ab 433d e3a9 01bf 1668 8c3e
00000370: 11e9 d4bd a0d2 d9bd a433 1abe 9896 03bb
00000380: 3735 093f 3c79 613d a367 9f3d bc1c a9bd
00000390: 2575 bcbd e491 4dbe 4d69 0dbf 1905 1cbc
000003a0: 07bb 943e 1d35 ce3c 5daa 973d 48b0 0a3f
000003b0: f270 86bd d7ed 49bf f7de b43a 2570 473d
000003c0: de5a 1f3d 9995 95bd c896 bc3c 39cf cb3d
000003d0: bc10 3d3e a202 a1bd bb7f 8fbd 2ae6 9b3e
000003e0: 341d b3be dee0 ad3d 0e07 8ebd 55bf 6fbd
000003f0: 0887 d3be 7643 e0be 5851 bf3d ff87 1b3d

self_entity_fc2.bias f4 [32]
0.118648686 0.10104417 -0.001460223 -0.05955656 0.21570583 -0.018160619 -0.043778233 0.26209703
-0.0656987 -0.1376632 0.1042983 0.0016302222 -0.1600098 0.10119704 -0.03459486 -0.11821373
-0.10710135 -0.12688969 -0.05156831 -0.087585226 0.113102056 0.13171944 0.044478346 -0.17967835
0.06370351 -0.040696528 -0.07028022 -0.154569 0.09196587 -0.08785574 0.077438064 0.18127471
00000000: 15fe f23d 3ff0 ce3d f464 bfba 94f1 73bd
00000010: fde1 5c3e 94c5 94bc ce50 33bd 9531 863e
00000020: 0a8d 86bd 95f7 0cbe 599a d53d 2ead d53a
00000030: 9cd9 23be 6540 cf3d 57b3 0dbd 0a1a f2bd
00000040: f457 dbbd 5fef 01be 4b39 53bd e25f b3bd
00000050: 0da2 e73d 76e1 063e ed2e 363d 9afd 37be
00000060: fc76 823d 67b1 26bd 13ef 8fbd 5647 1ebe
00000070: 9a58 bc3d b6ed b3bd d997 9e3d 14a0 393e

other_entity_fc1.weight f4 [32, 26]
0.09099496 -0.19035403 0.09199335 -0.05591671 -0.3407941 -0.13791245 -0.31121868 -0.5474647
0.14273933 -0.26743397 0.15619741 0.0015313178 -0.1485222 -0.06845951 0.038200755 0.025398627
-0.10706665 -0.05460711 -0.13556284 0.089779995 0.04848836 0.069561444 -0.1983516 -0.21737048
-0.09745892 0.6120986 0.08752821 0.214744 -0.03841766 -0.08438569 -0.18901435 0.11048177
-0.24481553 -1.2206355 0.022611575 0.21482307 0.14548513 0.24339156 0.16533437 0.035790216
-0.10468602 -0.10083083 0.17124556 0.008836746 0.058517613 0.14484026 -0.05460733 0.109656416
-0.29654336 -0.14785856 -0.11615754 -0.38289404 0.12508799 0.010945424 0.031103807 -0.17394859
-0.08293559 -0.33114025 -0.048404742 0.19414254 0.07983069 0.031851023 -0.2546916 -0.39111668
0.04121175 -0.033294003 0.045728292 -0.054822396 0.06203179 -0.14589693 -0.06362395 -0.16851348
-0.23398422 0.10734354 0.26161474 0.13201289 -0.11471506 -0.11163622 -0.0075612133 -0.059985694
-0.16111633 0.22885832 -0.015271436 0.11898081 -0.27133545 1.1969132 0.26111287 -0.17136857
-0.17080286 -0.0983449 0.19110467 -0.08898797 -0.25953808 0.0614635 0.06711462 0.0041997638
-0.028394368 -0.024145229 0.029058766 0.1150033 -0.46034452 0.24723832 0.011514612 -0.23185655
0.08153553 -0.08242923 -0.07585508 -0.56680113 -0.17411533 -0.31868684 -0.004335164 0.18173365
-0.58373314 -0.43817672 0.047287382 -0.0028091993 0.062012065 0.06422959 0.024850622 0.23397262
0.017115073 0.15598121 0.15675709 0.29277045 -0.06765708 0.16285263 0.24335395 -0.37292275
0.09520902 -0.21693179 0.0072792815 0.150359 0.041766208 -0.10772254 0.04044282 0.2668183
-0.13912436 -0.65330267 0.37858772 0.21685451 -0.1025959 -0.16922025 -0.27662128 0.119886525
-0.09201577 -0.022032332 0.17535655 0.032867137 -0.03523226 -0.14837858 -0.1613219 -0.06054054
0.20526384 0.047830462 0.16232933 0.17841387 -0.34004417 -0.0020595547 0.23699012 -0.056242306
0.10716625 0.16154721 -0.17462096 0.4077589 0.1906869 -0.05423353 -0.817581 -0.04976595
0.035693314 0.12100759 0.15889168 0.17030506 0.004778939 -0.044555377 -0.008859395 0.082880534
-0.040655967 0.2074022 0.13292879 -0.026147401 -0.17625396 -0.31391662 0.16079414 -0.15394345
-0.020677097 -0.07080542 0.11321607 -0.055957768 0.10902066 -0.03116245 -0.451959 -0.4675113
0.06345637 -0.07760374 0.04710577 -0.24444309 -0.04404332 0.1079073 -0.22349986 -0.19835976
-0.008878647 -0.20076208 -0.08911716 -0.20319286 -0.2932242 0.1780666 -0.35901782 0.25888854
-0.17832294 0.0047014286 -0.079671435 -0.11824784 -0.067702636 -0.0039837835 -0.509326 -0.31309372
-0.32896698 -0.20187154 0.10284078 -0.07389509 0.09276869 -0.2681616 -0.030318415 0.109756194
-0.07245454 0.15661019 -0.04679093 -0.0036159388 -0.018033171 -0.019618815 -0.348344 -0.22683099
0.3981266 0.12079008 -0.39367357 -0.08165284 0.15228416 0.052086003 -0.11617508 0.012557495
0.05661499 -0.4932128 -0.367052 0.026175996 -0.0858355 -0.003418133 -0.118845545 -0.03798609
0.07481039 0.09300846 0.07884468 0.12669943 0.12345243 0.07368921 0.14283219 0.06630602
00000000: 915b ba3d 2bec 42be 0267 bc3d ec08 65bd
00000010: 907c aebe ec38 0dbe 0e58 9fbe a626 0cbf
00000020: 422a 123e 1bed 88be 37f2 1f3e 80b6 c83a
00000030: 3416 18be 8034 8cbd 6578 1c3d c810 d03c
00000040: c345 dbbd b4ab 5fbd fcd0 0abe 93de b73d
00000050: bb9b 463d 3b76 8e3d af1c 4bbe 5e96 5ebe
00000060: 8b98 c7bd 7eb2 1c3f fd41 b33d dae5 5b3e
00000070: d65b 1dbd 68d2 acbd fa8c 41be 4444 e23d
00000080: ecb0 7abe c93d 9cbf e93b b93c 94fa 5b3e
00000090: 0efa 143e a33b 793e 6a4d 293e c398 123d
000000a0: a065 d6bd 6580 cebd ff5a 2f3e 00c8 103c
000000b0: 2ab0 6f3d 0151 143e f0ab 5fbd 8b93 e03d
000000c0: 88d4 97be 3c68 17be 01e4 edbd b00a c4be
000000d0: 1117 003e 7054 333c 69cd fe3c 941f 32be
000000e0: 22da a9bd 378b a9be 0d44 46bd 4dcd 463e
000000f0: 467e a33d 3876 023d f066 82be 7240 c8be
00000100: a7cd 283d 4b5f 08bd 974d 3b3d 738d 60bd
00000110: 0c15 7e3d 0166 15be 464d 82bd cc8e 2cbe
00000120: 8f99 6fbe eed6 db3d 5ef2 853e 632e 073e
00000130: bbef eabd 88a1 e4bd 0ec4 f7bb 8fb3 75bd
00000140: aefb 24be d659 6a3e 0c35 7abc 36ac f33d
00000150: 7bec 8abe 7434 993f 96b0 853e 3e7b 2fbe
00000160: f2e6 2ebe 0d69 c9bd f1b0 433e 533f b6bd
00000170: 2de2 84be 27c1 7b3d 6473 893d 2c9e 893b
00000180: 4e9b e8bc 37cc c5bc a60c ee3c da86 eb3d
00000190: 47b2 ebbe 0b2c 7d3e c8a7 3c3c ce6b 6dbe
000001a0: 1afc a63d a8d0 a8bd e859 9bbd e119 11bf
000001b0: 4a4b 32be ec2a a3be fe0d 8ebb 6318 3a3e
000001c0: 896f 15bf b358 e0be 6ab0 413d 8b1a 38bb
000001d0: 5d00 7e3d ce8a 833d 8893 cb3c 8596 6f3e
000001e0: e934 8c3c 8ab9 1f3e ee84 203e 02e6 953e
000001f0: cc8f 8abd d7c2 263e c731 793e bbef bebe
00000200: f2fc c23d 5e23 5ebe 0a87 ee3b b6f7 193e
00000210: 0b13 2b3d a39d dcbd 5fa7 253d 699c 883e
00000220: 9e76 0ebe d83e 27bf 40d6 c13e 1c0f 5e3e
00000230: cd1d d2bd 1348 2dbe 4ea1 8dbe 1187 f53d
00000240: c472 bcbd 267d b4bc ab90 333e b19f 063d
00000250: b44f 10bd 8ef0 17be 9131 25be 5bf9 77bd
00000260: af30 523e e0e9 433d a939 263e 20b2 363e
00000270: 451a aebe 98f9 06bb 8aad 723e 555e 66bd
00000280: fb79 db3d a26c 253e d6cf 32be c6c5 d03e
00000290: 6d43 433e fa23 5ebd fd4c 51bf 61d7 4bbd
000002a0: 2733 123d d4d2 f73d 80b4 223e 7364 2e3e
000002b0: a598 9c3b b37f 36bd ff26 11bc 45bd a93d
000002c0: df86 26bd 3e61 543e 7c1e 083e 1333 d6bc
000002d0: eb7b 34be aeb9 a0be 38a7 243e 5aa3 1dbe
000002e0: 0463 a9bc 6f02 91bd d4dd e73d f933 65bd
000002f0: 3946 df3d 6548 ffbc 2c67 e7be a45d efbe
00000300: 6af5 813d b6ee 9ebd fbf1 403d 4a4f 7abe
00000310: c566 34bd 81fe dc3d 26dd 64be d21e 4bbe
00000320: bf77 11bc 9394 4dbe 0f83 b6bd ca11 50be
00000330: 7b21 96be 1757 363e 2fd1 b7be 0a8d 843e
00000340: 4a9a 36be 710e 9a3b c72a a3bd ec2b f2bd
00000350: aea7 8abd 668a 82bb 3063 02bf d24d a0be
00000360: 5c6e a8be 6ab7 4ebe 309e d23d 4f56 97bd
00000370: 83fd bd3d 7a4c 89be 535e f8bc dbc7 e03d
00000380: 0c63 94bd 6c5e 203e d9a7 3fbd 63f9 6cbb
00000390: 4dba 93bc a3b7 a0bc 255a b2be 6246 68be
000003a0: 40d7 cb3e ca60 f73d 958f c9be 9b39 a7bd
000003b0: 61f0 1b3e 2258 553d 33ed edbd f4bd 4d3c
000003c0: 1fe5 673d 6386 fcbe 3dee bbbe 0b6f d63c
000003d0: 86ca afbd c102 60bb 4b65 f3bd 4d97 1bbd
000003e0: 3136 993d 387b be3d 5279 a13d 7fbd 013e
000003f0: a1d4 fc3d 5eea 963d 9a42 123e 73cb 873d

other_entity_fc1.bias f4 [32]
-0.1167077 -0.16624485 -0.08788173 -0.011332892 -0.0031667291 -0.27933097 -0.05385407 -0.06079455
-0.04011069 -0.033085167 -0.020899856 -0.021801246 -0.03349606 -0.1800581 -0.021736545 -0.18726413
-0.028330272 -0.03184423 -0.037726115 -0.1910311 -0.014755477 -0.12577982 -0.016174383 -0.00086769986
-0.025750456 0.029722892 -0.021380862 -0.06751188 -0.004639139 -0.018652244 0.005353908 -0.05242664
00000000: 7204 efbd 173c 2abe 56fb b3bd 98ad 39bc
00000010: e688 4fbb 7804 8fbe 1696 5cbd b503 79bd
00000020: 1b4b 24bd 5084 07bd 2d36 abbc 8798 b2bc
00000030: 2a33 09bd 2761 38be d710 b2bc 2bc2 3fbe
00000040: e314 e8bc 186f 02bd b386 1abd a89d 43be
00000050: f5c0 71bc 6dcc 00be 2480 84bc 5a76 63ba
00000060: 9ff2 d2bc 6c7d f33c eb26 afbc ab43 8abd
00000070: eb03 98bb 97cc 98bc d66f af3b 51bd 56bd
