my-submission/checkpoints/model_651776.pt (torch, 352797 bytes, 23 tensors)

local_map_cnn.0.weight f4 [32, 24, 3, 3]
000000 58 2a a9 bd 25 6e 12 3d 7f 96 2b 3e 39 3f e5 b9
       -0.082600296 0.035749573 0.16756628 -0.00043725388
000010 e6 95 50 bd 79 f7 c0 3d 3a c5 ac bd 54 f3 87 bd
       -0.050924204 0.09422202 -0.084360555 -0.06638208
000020 05 55 11 3e 25 dc 8f 3c 2f fb e7 bc 4d 79 0c be
       0.14192589 0.017561028 -0.028318016 -0.13718148
000030 d0 1b 89 3d 33 2e f7 bb 85 5e 1a 3e 65 45 9a bc
       0.06694758 -0.007543349 0.15075119 -0.018831918
000040 28 89 6e ba 46 7c 47 be 1d ab a5 bc 94 f6 99 3b
       -0.00090994174 -0.19481 -0.020223195 0.004698584
000050 a3 40 d4 3d 4f 0c 73 3c 15 75 d4 bd f5 78 dd be
       0.10363891 0.014834478 -0.10373894 -0.43256345
000060 d3 00 c8 bc fe e4 80 bd 15 95 5e 3d 79 75 6c bb
       -0.024414456 -0.06293677 0.054341394 -0.0036080761
000070 7d 8a b7 bc ee 7a 6e 3d 56 f2 90 bd 0d 2c b4 bd
       -0.022404904 0.058222704 -0.07077472 -0.087974645
000080 ee 77 c7 be 8c 67 da bd 5d d2 0e be 9a eb 13 3c
       -0.38958687 -0.10664281 -0.13947435 0.00902834
000090 ad 06 52 3b 13 57 80 bc 2b 95 de 3d 4d 80 d4 bb
       0.0032047436 -0.01566652 0.10868295 -0.006485021
0000a0 f1 c1 2a 3d 5b 46 89 3c e3 94 b3 bd 20 cc cc bd
       0.041688863 0.01675718 -0.08768632 -0.09999871
0000b0 ac 91 d7 3d 42 67 0c 3d 42 97 24 3d 52 6e 40 be
       0.105258316 0.03427816 0.040183313 -0.18792084
0000c0 15 1b e1 3c 38 72 49 bc 12 d6 0e 3e 82 7c be 3c
       0.027478734 -0.012295298 0.13948849 0.02325273
0000d0 fb 02 37 3d 9d 5d bf be 77 cd 73 bd 04 b0 af bd
       0.044680577 -0.3737611 -0.05952212 -0.08578494
0000e0 4d a1 06 be 3a 22 2f bd 91 e5 0b be d9 eb 7f be
       -0.13147469 -0.04275725 -0.13661791 -0.24992312
0000f0 6d ed 67 bd fa b7 96 bd 46 1b 10 3d 73 39 94 bc
       -0.05662291 -0.073593095 0.03518226 -0.0180938
000100 0c a4 4c bd c9 de 5d 3d 20 d9 b5 3c 83 7a 43 be
       -0.049961135 0.054167543 0.02219826 -0.19089703
000110 e6 b9 29 be 54 7e a1 bd 1c 1f 0d bc a9 e5 a9 3c
       -0.16574821 -0.07885423 -0.008613374 0.020739393
000120 96 98 83 bd a2 5e 1a 3d 22 da a1 3d 4a fe e0 bd
       -0.06425588 0.037687905 0.07902934 -0.10986002
000130 07 4b 84 be 97 a1 f9 bd 65 b0 dd bd 68 56 55 bd
       -0.2583849 -0.12189024 -0.1082466 -0.052084357
000140 0b 9d 29 3d 74 27 c6 bc 35 97 22 3c fa 4b e8 bc
       0.041409533 -0.024188735 0.009923746 -0.028356541
000150 e8 b8 e9 3c 2a e7 eb bc 43 03 84 be d0 4d 5b 3d
       0.028530553 -0.028796751 -0.25783738 0.053541005
000160 32 fa 91 bd 12 10 4c 3d aa 80 f0 bd e2 52 f4 3d
       -0.07127799 0.049820013 -0.11743291 0.11929871
000170 a2 cf 49 bd 45 be cd bd 0a 5f 00 be 7f cf b4 be
       -0.04927028 -0.10046057 -0.12536255 -0.35314557
000180 2d 59 f3 bc 15 17 38 bd fe 8b 4a 3d 79 ad b2 bd
       -0.029705608 -0.044943888 0.049449913 -0.087244935
000190 46 a5 79 bd aa da b7 bb e5 c6 31 be 48 a5 32 be
       -0.060948633 -0.0056107836 -0.17361028 -0.17445862
0001a0 9e 73 03 be 24 6d 8c bd b6 fb 90 bd a9 f9 72 bd
       -0.12837073 -0.068567544 -0.0707926 -0.059320126
0001b0 a1 22 a8 bd 67 09 5d bd b2 38 d2 3d 24 dc 0f be
       -0.0820973 -0.053964045 0.1026472 -0.1404882
0001c0 0a da c4 bd c2 db 9f be 61 3d 01 be 51 fd f4 bd
       -0.096119 -0.3122235 -0.1262107 -0.11962379
0001d0 10 a2 49 3c af e8 6c bb ab 7c 3a bd ea f6 c0 3d
       0.012306705 -0.0036149432 -0.04552905 0.09422095
0001e0 59 06 86 bd 92 33 6e 3d d9 cb 81 be dc d8 2d be
       -0.065441795 0.05815465 -0.25350836 -0.16977257
0001f0 12 4f 5b bd 7e 1e 29 3d 62 09 46 bc 4c 45 ae 3b
       -0.053542204 0.041288845 -0.012087198 0.0053183194
000200 f8 84 2a be ae 60 49 3d 27 17 59 3c d5 26 11 3e
       -0.16652286 0.049164467 0.013250149 0.1417497
000210 38 20 db bd 0a c5 4e bd e8 d2 40 be 8b 8a 4b bd
       -0.106995046 -0.05048088 -0.18830454 -0.04969267
000220 ef 09 03 3c ca 89 2b 3e a5 f9 a5 3d 74 b3 37 bd
       0.007997974 0.16751781 0.081042565 -0.044848874
000230 18 ed e0 bd 3c a3 e6 3b 79 d6 9f 3d 79 41 70 3e
       -0.10982722 0.007038502 0.07804579 0.23462476
000240 a0 f0 b4 3d 61 64 ab 3d 7d 6f 08 3e 82 77 be 3c
       0.08834958 0.08368755 0.1332378 0.023250345
000250 1d c7 54 bd b8 72 18 bf b5 b2 bc 3c 6a e0 a5 bd
       -0.0519477 -0.59550047 0.023034433 -0.08099444
000260 d4 af 4b 3e 69 36 7f bd 14 9e 9b bd 34 ed ba bd
       0.19891292 -0.06230775 -0.075985104 -0.09127274
000270 ea 8b 51 bd ef 05 73 bd e1 3e f4 bc 27 4f da 3c
       -0.051158823 -0.05933183 -0.02981514 0.02664907
000280 cb 36 44 bd 43 ee 45 be 58 b1 45 3e 62 cc b8 bd
       -0.047903817 -0.19329171 0.19305933 -0.09023358
000290 a8 98 a0 3e f0 d0 a6 bc 6c 9a 32 bc fd 91 e5 3e
       0.31366467 -0.020363301 -0.010901075 0.44837943
0002a0 ac 8f 61 3e 04 18 fa 3c 22 1c c5 3e 97 04 01 3d
       0.22027463 0.03052903 0.38498026 0.031498518
0002b0 8c 21 4f 3d 59 62 1d 3c 93 31 83 bc c9 cf f5 bd
       0.050569102 0.009605967 -0.01601485 -0.120025225
0002c0 d1 b0 22 3e 0f 75 df bc ff e6 5f 3d 86 0c 0a bd
       0.15887763 -0.027277498 0.054663654 -0.03370335
0002d0 64 0b 2f be e8 68 e1 bd 7c 15 9d bd 4b 13 0b 3d
       -0.17094189 -0.110063374 -0.076701134 0.033953946
0002e0 c4 24 40 be 90 b2 0c be e7 61 ab bd ee 37 c2 bd
       -0.18764025 -0.13739991 -0.08368283 -0.09483324
0002f0 45 84 83 3d 21 58 b6 3e dc c1 01 3f 65 b9 9e 3e
       0.06421713 0.35614112 0.5068643 0.3100082
000300 a0 78 32 3f 45 18 0d 3f 41 f0 db 3e 27 3f 82 bd
       0.6971531 0.5511516 0.42956737 -0.063597016
000310 0a 75 48 3e 16 07 c5 3d c4 c9 f8 3e b7 3c f4 3e
       0.19575897 0.09620492 0.48591435 0.47702572
000320 c9 8e f2 3b 37 37 32 3f 57 2e 3b 3f 20 9c e9 3d
       0.007402275 0.696155 0.73117584 0.114067316
000330 a8 33 0d 3e 6f 65 c2 3e 43 20 b6 3e d4 95 19 3e
       0.13789237 0.37968013 0.3557149 0.14998561
000340 d1 17 85 3d fc 8d ac 3d de b2 9d 3d 08 04 8a bc
       0.06498683 0.08425519 0.07700132 -0.016847625
000350 52 b9 d2 bd f1 dd 94 3d 6d d5 2b bd 0c 14 4b bd
       -0.10289253 0.072688945 -0.041951586 -0.049579665
000360 c7 78 1b 3d e8 40 36 bc 65 56 82 3d af 16 3f bd
       0.03795698 -0.011123873 0.06364135 -0.046652492
000370 a5 75 68 3d b3 b6 49 3d a0 d8 5d bd d2 2c a1 3d
       0.05675282 0.0492465 -0.054161668 0.07869877
000380 43 b0 4c bd 5f ed 33 3c 61 b0 5d 3d ee ea 96 bb
       -0.049972784 0.010981887 0.054123286 -0.0046056425
000390 3f 67 65 3d 64 0e e4 3c 8b 0c d5 3c 0c af 61 3d
       0.056006666 0.027838893 0.026006958 0.05509858
0003a0 5a 1c cf 3d a9 c9 11 3d 64 a7 6e bc 6d fc 8c bb
       0.101128295 0.03559271 -0.014566276 -0.0043025524
0003b0 df 73 04 3d 2b c4 dc bc 96 1b 8c bd 46 7d 84 3c
       0.032337066 -0.026949009 -0.06841199 0.016173016
0003c0 da 34 07 bc c3 e5 69 bc ab 4a ef 39 8b 32 e9 3c
       -0.008252347 -0.014275971 0.00045641264 0.028466484
0003d0 36 f3 9e 3b 3c 33 1e 3d 90 f4 01 3d 72 6c 61 3d
       0.0048507703 0.03862308 0.031727374 0.055035062
0003e0 71 ed 9a 3d dd 11 0b 3d b2 f0 2d 3d fc ac 6d 3d
       0.075648196 0.033952583 0.042465873 0.0580263
0003f0 de 02 92 3d ef be 25 3d 9b 1f 90 3d 08 b3 8e bc
       0.07129453 0.04046529 0.07037278 -0.017419353

local_map_cnn.0.bias f4 [32]
000000 61 d3 3b bc 22 e6 2c bd ed bb ab bc f8 c7 a4 bd
       -0.011463971 -0.04221166 -0.020963633 -0.080459535
000010 02 3f 1e 3d 2c 59 3b 3c af ec 9a 3c 29 f8 4d bd
       0.038634308 0.011434834 0.018911688 -0.050285492
000020 73 d7 12 3c 65 1e c1 bd bd 61 2f 3c 14 81 a3 bc
       0.0089625 -0.094296254 0.010704455 -0.01995901
000030 97 c4 b1 bc dd ce 11 bd 43 93 0b bd 03 a9 0b be
       -0.021700187 -0.03559767 -0.034075987 -0.13638692
000040 cb f6 08 bd 92 10 4e 3d a3 20 f8 3c 1f 89 34 3d
       -0.033438485 0.05030877 0.030289 0.04407608
000050 f0 d1 a0 bd 43 0a a7 3d 1b e8 eb 3b 0d 73 68 bd
       -0.078525424 0.08156254 0.0071993 -0.056750346
000060 a7 cb 99 bd 08 df 87 bd 75 30 5c bd 9e 7c 1d bc
       -0.07509547 -0.06634337 -0.05375715 -0.009612231
000070 0b 2e 5e 3d 33 f0 40 3d 58 de ac 3d 99 f4 35 3c
       0.05424313 0.04710407 0.08440846 0.01110568

local_map_cnn.2.weight f4 [32, 32, 3, 3]
000000 2c 05 15 3e 59 3c 39 bd 31 80 14 be b9 ee d4 bd
       0.14552754 -0.045223568 -0.14502026 -0.10397095
000010 01 fc 2b be 1d 60 1e 3c 52 b0 b0 be ff 9c 24 bd
       -0.1679535 0.00966647 -0.34509522 -0.040188786
000020 0b 1a 56 bd 15 e0 f9 bc 47 14 7e bd 9e 01 27 bd
       -0.05227093 -0.030502358 -0.062031057 -0.040773027
000030 6a 42 7c bd 75 95 9e bd 3e bc 88 bd c3 1d 0f 3c
       -0.061586775 -0.077433504 -0.06676529 0.008735123
000040 5a 30 69 bd cd 1f cd bd 07 e5 ba 3d b5 e6 f5 bd
       -0.056930877 -0.10015831 0.09125715 -0.120068945
000050 4d c7 65 3c 49 0d 3a 3e e9 51 15 3e 32 02 21 3e
       0.014024568 0.1816913 0.14582027 0.15723494
000060 86 df 86 bd 92 57 f1 bd de e7 8e bb 30 25 21 3c
       -0.065856025 -0.11784281 -0.004361137 0.009835526
000070 9f 28 61 3e d9 7f 16 3e 8f 0f 84 3d d3 38 84 3e
       0.21988152 0.14697208 0.0644828 0.25824603
000080 8f 08 4d 3e 09 45 23 be 2d b0 07 bd 83 34 ed 3d
       0.20022796 -0.15944304 -0.033127 0.115822814
000090 17 18 0c 3d 27 e4 67 bd d7 f9 7b 3d 96 03 06 3d
       0.03420266 -0.056614067 0.061517563 0.032718264
0000a0 da 4a 8b be e4 19 ad bd 5f 25 0d 3c 7e 7f 07 be
       -0.27205545 -0.08452204 0.008614867 -0.13232228
0000b0 68 06 59 bd c7 73 92 bd dd 39 d6 bd 4d d9 c4 3c
       -0.052984625 -0.07150989 -0.10460255 0.024029398
0000c0 9a 8a 40 bd 43 d6 6d be 30 6f da bd fb 7f 2f 3c
       -0.04700718 -0.23226266 -0.106657386 0.010711665
0000d0 6a 8e 9f bc c9 f7 70 3d b8 15 bc bc 0e d0 fa bc
       -0.019477088 0.058830056 -0.022959575 -0.030616786
0000e0 9f 06 99 bd e6 57 04 bd 05 80 ee bc 64 e9 9f bd
       -0.07471966 -0.03231039 -0.029113779 -0.078081876
0000f0 e2 01 5e bc e6 c1 e2 bd 51 86 04 bd aa 7d fd 3d
       -0.013550254 -0.110721394 -0.032354657 0.12377484
000100 6d d1 c3 3d 0b e5 0c 3e e2 93 b6 3d c5 ee db 3d
       0.09561429 0.13759248 0.08914925 0.10738901
000110 30 a1 17 3e b0 f1 5d 3d 1b 8a cd 3d 6c 6d 02 3e
       0.14807582 0.05418557 0.10036107 0.12737054
000120 2a 40 0e 3e c9 8f 56 3e 09 a2 ea bd c8 87 ee 3d
       0.13891664 0.20953287 -0.11456687 0.11646992
000130 fd 5e c1 bd 4a 6e 06 bd 32 fd 12 3e 05 40 4b bd
       -0.09441946 -0.032820024 0.14354399 -0.0496216
000140 c0 1d f3 bc c7 bf 2f 3d 8f bf c4 3d 5b 7f f8 3c
       -0.029677272 0.042907503 0.096068494 0.030334165
000150 b4 d8 68 3d d2 5d b4 3d c0 7f 63 3d 5d b2 1e bd
       0.05684729 0.08806957 0.055541754 -0.03874432
000160 72 bd f6 3c fe 0c cf 3c 88 1a df 3b 9a 5d 52 bd
       0.030119631 0.02527475 0.0068085827 -0.051358797
000170 9f 0f 0b 3d 7c bd 79 3d 7d 68 d4 bd 26 59 1c bd
       0.033950444 0.060971722 -0.10371492 -0.038170956
000180 b1 6d 12 bd fe ef 0e be 16 45 4c 3d 77 8d 8d 3e
       -0.03574914 -0.13958737 0.049870573 0.27646992
000190 e0 71 c7 3c f8 3c 44 3e 4c 1d 48 3d 31 d6 47 3d
       0.024346292 0.19163883 0.048856065 0.048788253
0001a0 2b a9 c3 3d 6d 87 46 3d e4 66 73 bd 1b 59 9d 3d
       0.095537506 0.048468996 -0.059424296 0.07683011
0001b0 c5 7d 65 bd a3 39 ca 3c 61 5d 9d bc aa 69 15 3e
       -0.056028146 0.024685686 -0.019209566 0.14591089
0001c0 d6 05 4d 3d 22 01 2d be e3 a0 c4 3c 6e 83 1a bd
       0.050054394 -0.16894963 0.024002498 -0.037722997
0001d0 d4 fc b9 bc e5 32 66 3d 4d a6 f8 3d 20 32 04 3d
       -0.022703566 0.05620088 0.12141094 0.032274365
0001e0 d8 4f 92 3d 64 2a 94 bc fa fb c7 3c ef 24 03 3d
       0.07144135 -0.01808662 0.024412144 0.032017644
0001f0 d3 33 9d 3d ec ce 29 3d e1 41 89 bd 7a d8 67 bd
       0.076759 0.0414571 -0.067020185 -0.056602933
000200 68 46 11 bd 2b 1e 01 be d7 b1 5d bd de d7 81 bc
       -0.035467535 -0.12609164 -0.05412468 -0.015850004
000210 46 52 17 be fc 86 13 be 43 61 0a bb 18 72 af 3c
       -0.14777479 -0.14406961 -0.0021115101 0.021416709
000220 93 e5 aa 3d 75 10 58 bd 58 01 52 bd 0c e1 a5 3d
       0.08344569 -0.05275007 -0.051270813 0.08099565
000230 d0 8e 13 3d dd 53 84 be cd 56 b8 bc 08 e4 03 bd
       0.03602487 -0.25845233 -0.022502327 -0.03219989
000240 60 ac 69 3d fe 66 1b 3e ee 53 18 3d 1f 40 25 3e
       0.057049155 0.15176007 0.037189417 0.16137742
000250 65 f7 72 3e 60 29 2d 3d 7e df 3c 3d 9c d9 b7 3d
       0.23727186 0.042275786 0.046111576 0.089770526
000260 d2 d3 1e 3e 5d c0 a1 3d ea f0 86 3d a1 5a 1e 3d
       0.1551049 0.078980185 0.065889195 0.03866065
000270 ad 6c 62 3d bf 34 f3 3d 07 23 3d 3d 52 c7 a6 bc
       0.055279423 0.11875295 0.046175983 -0.020358715
000280 50 f6 d2 3d 96 20 01 bc 92 d1 0e 3d 67 0e 67 bd
       0.10300887 -0.007881304 0.03486783 -0.05641022
000290 48 96 59 3d 8c 8e 1d 3c f2 eb 70 3d d6 55 1b 3e
       0.053121835 0.009616505 0.058818765 0.15169463
0002a0 aa 53 a5 3a d2 f6 86 bd 34 78 86 3d d8 1b 3c 3d
       0.0012613435 -0.06590046 0.06565896 0.04592499
0002b0 fc a0 aa bd 10 02 c6 3c a2 82 de 3d ba 93 2b 3e
       -0.083314866 0.024170905 0.1086476 0.16755572
0002c0 c7 1a e9 3d bc 28 da 3c cd 59 4d 3d 7d 2c 31 3e
       0.113820605 0.026630752 0.05013447 0.17302127
0002d0 8e 82 0d 3c 58 c3 ca 3d e3 c9 c7 ba 56 94 fb 3d
       0.008637084 0.0990054 -0.0015242662 0.12284152
0002e0 a0 fb ab 3c 3c 1e 95 3d 2d 05 08 be 72 bc 0b bd
       0.020994008 0.072811574 -0.13283224 -0.034115262
0002f0 9e c5 e9 3c 54 ba 42 3d c4 84 22 3e 56 9c f1 bb
       0.028536614 0.047540978 0.15870959 -0.007373373
000300 e0 ad 2c 3d 8f 54 1f 3b 43 b0 5d 3b 65 3a 3d 3c
       0.042158008 0.0024311875 0.0033826984 0.011549567
000310 2f e2 be bd 05 1a cf bd ef 82 07 3d 65 9f 7c 3d
       -0.09320485 -0.10112385 0.033083852 0.061675448
000320 31 af 1c 3c bf 04 08 3d ed 7a 8d 3d e7 6f b5 3d
       0.009563253 0.03320765 0.06908212 0.08859234
000330 ca db ce 3c 2b c7 61 bd 0c b2 8f bc 28 16 12 3d
       0.025251288 -0.055121582 -0.017540954 0.03566566
000340 b1 e6 7b bd e1 fc 5f 3c 5a af 1f 3c 97 92 0c bd
       -0.0614993 0.013671131 0.009746397 -0.034319486
000350 03 10 de 3c 5b af b3 3d 1d 4f c3 bc 6a c6 b0 3d
       0.027107244 0.08773681 -0.023841435 0.086315945
000360 16 9f e6 bd 95 69 00 3e 4f 54 0d bd a1 d9 cc bc
       -0.11260812 0.12540276 -0.03450423 -0.025006117
000370 15 3a 34 3e 51 f4 95 bb 21 cf 5e be 8e 74 a5 bc
       0.17600282 -0.004576244 -0.21758701 -0.02019718
000380 c4 2a b7 3d 98 3e 09 3e 0a 81 c4 3d 44 e2 e4 3d
       0.08943704 0.13402784 0.09594925 0.11175969
000390 1c 55 8f 3d 9b cd 27 3e e5 3f 03 3e 56 2b a3 3d
       0.06998655 0.16387026 0.12817343 0.0796725
0003a0 79 b9 48 3d 08 d2 0e 3e d8 92 36 bc 49 75 99 bd
       0.049005006 0.13947308 -0.011143409 -0.074930735
0003b0 cf b0 d5 bc 35 a1 77 be 7d 46 6f 3d 3a e2 d0 be
       -0.026085285 -0.2418259 0.058416832 -0.40797597
0003c0 7b e0 31 bd 57 ac 4a bd 3e f3 3b bc 4f 61 00 3d
       -0.043426972 -0.049480762 -0.011471568 0.0313428
0003d0 50 84 59 be fd 44 fb 3b 43 22 48 be 43 89 d5 be
       -0.2124188 0.007668136 -0.1954432 -0.41706285
0003e0 1b f5 66 bd 79 c8 b5 bd b6 85 bb bc 37 7e 58 3b
       -0.056386095 -0.08876128 -0.022890907 0.0033034214
0003f0 91 4c 66 3d a4 fc 9e 3d eb 27 e0 3d f3 c8 f0 3c
       0.056225363 0.07763031 0.10945114 0.029392695

local_map_cnn.2.bias f4 [32]
000000 c9 9f 8a bc ae 2a 8f 3c f0 05 b4 3b 2b 6b 2e bc
       -0.016921895 0.017476406 0.005493872 -0.010645668
000010 d8 cc a1 bd 28 1b 44 be 5d e0 14 bd a1 00 17 3d
       -0.07900399 -0.19150984 -0.036346782 0.036865834
000020 83 de 77 bd 42 e5 ae bd 0d 0c 06 be 7d 48 a7 bd
       -0.060514938 -0.08539821 -0.13090535 -0.08168123
000030 cf 53 41 be 15 ba 43 3d ab 01 5f 3d 54 93 c6 3d
       -0.18879627 0.047784884 0.05444495 0.09696069
000040 70 30 76 be 18 29 ad 3a 14 38 88 bd 82 e2 61 bd
       -0.24041915 0.00132111 -0.06651321 -0.055147655
000050 fd 3b 87 bd 0e dc 07 bd 2a e2 87 bb 6f 0d be bd
       -0.06603239 -0.033168845 -0.004146834 -0.09279906
000060 44 60 06 3d df 72 bf 3d 44 8f 0a be a8 9b 2b be
       0.03280665 0.09348082 -0.13531214 -0.16758597
000070 cb 01 f0 3c 5f 1f fc bd 9a 05 f8 bd 16 ab 66 be
       0.02929773 -0.12310671 -0.121104434 -0.22526202

local_map_cnn.4.weight f4 [32, 32, 3, 3]
000000 d2 6a b3 3c fd ba 08 be c7 f3 8b 3b 2f c3 e7 3d
       0.021901522 -0.1335258 0.004271004 0.11316525
000010 a2 a9 43 3d 80 28 0a bd bb 6a 21 be fa fe 75 be
       0.047769196 -0.03373003 -0.1576337 -0.24023047
000020 5f eb 2d be bb 00 48 3e 95 2c 76 bd c5 b1 6b bd
       -0.16984318 0.19531529 -0.06010111 -0.05754258
000030 4b 94 a0 3d d6 cf dd be 9f c5 4b be cf d0 b4 bd
       0.07840785 -0.4332263 -0.19899605 -0.088288896
000040 2a a6 99 3e 14 06 03 3d b0 04 24 be 83 21 33 be
       0.30009586 0.03198822 -0.16017413 -0.17493252
000050 5e 6f 01 3d 72 34 3a bd 5e 07 c8 bd 4e 28 d9 bd
       0.03160035 -0.045460172 -0.0976703 -0.10603391
000060 90 a5 5f 3d 8f 86 ca be e4 e5 10 bc 02 e4 c1 bd
       0.054601252 -0.39555785 -0.008843873 -0.09467317
000070 c0 26 c3 bd 2f 36 3c 3d 53 e2 1d bd 2c 67 d6 be
       -0.09528875 0.04595011 -0.038545918 -0.4187559
000080 36 d5 50 3d 55 4b 7c bd 47 3f de bd bd 7e 3d 3b
       0.050984584 -0.06159528 -0.10851913 0.0028914653
000090 53 d0 18 3d da 7c 9d 3b 8a 32 49 3d 65 69 a6 3c
       0.03730805 0.004806143 0.049120463 0.020313928
0000a0 21 29 57 bd cf 94 19 bd 7d 81 a6 3d 75 b5 b8 bd
       -0.052529458 -0.03749543 0.08130167 -0.09018985
0000b0 67 41 bb 3d 00 3e 3e bd f1 31 14 3e 90 86 00 3d
       0.09143334 -0.046445847 0.14472176 0.03137833
0000c0 be ed 09 be fe 0f e2 bd ea 5c 97 bd 99 50 9b bc
       -0.13469598 -0.110382065 -0.07390769 -0.01895933
0000d0 7a e1 63 bc 54 a2 d5 bd 26 39 4f 3d 3d cc b9 3d
       -0.013908738 -0.10431352 0.05059161 0.090721585
0000e0 9f d7 ce bb 3d 83 53 3d 7b 0d 87 be bd 93 05 3d
       -0.006312325 0.05163883 -0.26377472 0.032611597
0000f0 d2 11 d7 3d 8c c0 bd 3d 8c 03 0d 3e 78 4c 12 bd
       0.10501446 0.09265241 0.13770884 -0.035717458
000100 0e b6 0f bc c1 54 19 bd 5c b0 88 bd e4 12 22 3d
       -0.008771433 -0.037434343 -0.06674263 0.039568797
000110 74 1f 06 3e 8e c8 c9 bd b9 84 28 be ab 51 89 be
       0.13097936 -0.09852706 -0.1645688 -0.2682012
000120 a7 c0 6f bd d1 cf 19 3e ee 09 ab bd 42 5f 92 3d
       -0.058533337 0.15020682 -0.08351503 0.07147075
000130 ef ed ad 3e 40 b9 b8 bd fe 32 0e 3d 02 81 d5 be
       0.3397059 -0.09019709 0.0347166 -0.41699988
000140 1d e3 22 3d cb 23 a4 be 15 47 3b 3e 9d 3b b9 bd
       0.039767373 -0.32058558 0.18288834 -0.090445735
000150 66 7c 9a 38 5e 90 a2 bc 56 18 76 be 23 64 17 3d
       7.366463e-05 -0.01984423 -0.24032721 0.036960732
000160 cd b7 1c be fc 39 90 3d 9e b2 7d 3d 6b 50 ee 3d
       -0.1530449 0.0704231 0.06193792 0.11636432
000170 42 15 4c 3e 15 50 da 3c af ca 11 bd c0 48 10 3c
       0.19929984 0.026649514 -0.035593685 0.008806407
000180 ee 5f 2b 3e ea 98 97 3a 72 b5 33 3e ee 6a 62 3e
       0.16735813 0.0011565958 0.17549685 0.22111103
000190 be fd 9f bc 28 cf bf 3c 59 94 be bc b1 94 cf bd
       -0.019530173 0.02341421 -0.023264097 -0.101357825
0001a0 e5 cc 4c bc e5 24 bb bd a1 e0 5e 3c c7 58 b2 bc
       -0.012500023 -0.091378964 0.01360336 -0.021770848
0001b0 51 68 df 3c 94 4a 8e bc 8d b9 56 3d 4b d1 1e 3e
       0.027271422 -0.017369546 0.05242305 0.15509526
0001c0 d7 c3 15 be 5d 23 a8 3a aa 61 91 bd 6a 72 14 be
       -0.14625488 0.0012827922 -0.07098706 -0.1449677
0001d0 7a 2e 3d 3e de a3 37 3e 32 c4 d6 3d ea 84 dd 3d
       0.1847476 0.17933604 0.1048664 0.10816367
0001e0 52 09 e3 3d 4a a8 23 be 6b 72 de bc 5a 8c a0 3b
       0.11085762 -0.15982166 -0.027154168 0.0048995437
0001f0 68 1e 63 bd 58 cd fd bd e2 54 c0 3b 69 5c a2 bd
       -0.05544892 -0.12392682 0.005869494 -0.07927782
000200 75 48 3f bd 2f 20 ed 3d ec a2 2e bd c8 26 01 be
       -0.04669996 0.11578404 -0.042635843 -0.1261245
000210 0c 5d 7b bc c8 f3 9a be cb 2f 3d be 3c 21 c1 3d
       -0.015342008 -0.30264115 -0.18475263 0.09430167
000220 a5 78 2d be 47 e5 8e 3d bf 63 eb bc 88 0a ad be
       -0.16940553 0.06977325 -0.028734086 -0.33797097
000230 a3 cb 07 be c7 f3 73 bd 09 3f ce be c7 59 79 be
       -0.13261275 -0.059558656 -0.40282467 -0.24350654
000240 82 61 64 bd d2 37 74 3c 88 eb 23 3e 5a f5 e2 bc
       -0.055757053 0.014905887 0.16007817 -0.027704883
000250 f9 2a 19 be 73 00 2d 3d c0 a5 20 bb 52 aa 88 3d
       -0.14957799 0.042236757 -0.0024512857 0.06673111
000260 a7 ec 60 3d 62 5c ee 3d 48 02 08 bd 0f e4 c1 bd
       0.05491319 0.116387144 -0.0332053 -0.09467327
000270 3d aa fd bb 82 66 1b be fa fa 9d bd 92 de b2 bd
       -0.0077412413 -0.15175822 -0.077138856 -0.08733858
000280 d9 86 f8 3d 21 61 24 3d b8 9c 95 3d f7 1d d6 bd
       0.12135095 0.04013169 0.07305282 -0.10454934
000290 23 93 ae bd f8 b1 98 bd f1 f7 af bd 1a 36 43 be
       -0.08524158 -0.0745582 -0.08592213 -0.19063607
0002a0 aa 1b c0 3c b8 a5 5f 3d b3 ba 8b bc dc 2e 43 bc
       0.023450691 0.0546014 -0.017056799 -0.011913028
0002b0 5c 08 d8 3d 63 66 8d 3e 94 4c 50 3d 73 ba b8 be
       0.105484694 0.27617177 0.05085428 -0.3607975
0002c0 06 e3 46 bd 26 c7 c4 bc 39 6f db 3d 43 93 be 3d
       -0.04855635 -0.024020743 0.107145734 0.09305432
0002d0 96 d9 4b be 4e 29 c5 3d 59 f4 f4 3c 9c 34 bf bd
       -0.19907221 0.09627019 0.02990167 -0.09336206
0002e0 c6 bb 38 3d 7d 15 10 bd e9 a1 ac 3c e3 45 96 bd
       0.04510095 -0.035176743 0.021073299 -0.073375486
0002f0 42 61 20 3e 53 70 8e 3c a1 26 f1 bc ff 82 d0 3d
       0.15662101 0.017387545 -0.029437365 0.101812355
000300 93 65 9b 3d 11 42 91 be 7f 45 26 bd f7 f3 f0 3d
       0.07587733 -0.28370717 -0.04059362 0.117652826
000310 46 a4 97 bd 30 9c 26 3e ea 14 67 bd 00 b5 89 bd
       -0.074043795 0.16270518 -0.05641643 -0.06723976
000320 c7 bb c6 bd 94 bc c5 bc 49 99 3a 3e 7d 58 0d bc
       -0.097037844 -0.024137773 0.18222536 -0.008627054
000330 ab 1b 0a 3e fc a9 c0 3d c7 4b 04 be 86 ab 08 3e
       0.13487117 0.09407422 -0.12919532 0.13346681
000340 1e 78 0a bd 09 93 2c 3e c4 8a 54 bd 6c 21 e3 be
       -0.03380596 0.16852964 -0.05189015 -0.44361436
000350 23 70 4c bd 25 a9 ff bc 01 07 d0 bd a9 67 1a be
       -0.04991163 -0.031208584 -0.10157586 -0.15078606
000360 5b af bb bd 02 ac 46 3e db a7 4d be b7 2b 38 bd
       -0.09164306 0.19401553 -0.20083563 -0.044963565
000370 40 09 a3 bd bc 45 e0 3d f4 95 ca 3d 80 33 ba 3d
       -0.07960749 0.10950801 0.098918825 0.09091854
000380 67 64 37 3d 84 76 f1 bc 72 6d 34 bc 14 ab c2 bd
       0.044773486 -0.029475458 -0.011012422 -0.09505287
000390 23 4f 01 3e 92 fc 05 3e f7 83 e1 3c a1 1d d8 3d
       0.12627845 0.13084629 0.027528746 0.10552526
0003a0 4e c8 14 3e 43 77 0d 3e 86 04 df bc ab 90 3c bc
       0.14529535 0.13815026 -0.027223837 -0.011509101
0003b0 90 82 f7 bb e7 0c 91 bd 14 d3 f2 bd a7 5d 38 3c
       -0.007553406 -0.07082539 -0.11856666 0.011252797
0003c0 46 ae 80 3d ab 80 24 be ab 7f 3f 3e 39 d6 e0 3d
       0.0628324 -0.16064708 0.18701045 0.1097836
0003d0 c3 43 32 3d 03 d2 ee 3c 37 59 93 bc 64 67 df bc
       0.043521654 0.029152876 -0.017986877 -0.02727098
0003e0 5d 98 9f bc 7b 33 4a 3d 99 e4 60 bd 75 d9 4c 3d
       -0.019481832 0.0493655 -0.054905508 0.05001207
0003f0 51 cd 63 bb 66 10 fa 3b 85 aa 4a 3d 48 64 aa bb
       -0.003475983 0.0076313494 0.049479026 -0.0051999427

local_map_cnn.4.bias f4 [32]
000000 6c a2 11 3d bc 28 8e bc a0 0d 22 be b8 9b b3 be
       0.03555529 -0.017353408 -0.1582551 -0.3507974
000010 3b 88 ee 3b e6 73 43 bd 94 58 63 3c a8 0b ff bd
       0.0072794235 -0.04771795 0.013876099 -0.12453395
000020 13 e7 25 3e 23 ed 04 3d a9 40 c8 3d 55 18 d9 bd
       0.16201429 0.032452714 0.09777958 -0.10600344
000030 82 6a 07 3e 0a ff 14 3e 43 46 13 be cc 64 5e 3e
       0.13224223 0.14550415 -0.14382271 0.21718138
000040 f7 23 67 be 6a 7f 99 3d 2d 6f 0a 3e c6 d0 05 be
       -0.22572313 0.074950054 0.13518973 -0.13067922
000050 8e b2 0e be 6f 23 48 bd 24 54 cd 3c 61 74 a0 bd
       -0.139353 -0.048861917 0.025064535 -0.078346975
000060 b5 0a af bd 7e b5 fe 3d 1b 69 0c be 85 99 fa ba
       -0.08546964 0.12436961 -0.1371197 -0.0019119239
000070 54 a1 12 3d d0 d3 84 3d 8f 08 78 3c 1c ec 72 bc
       0.035798386 0.064857125 0.015138759 -0.014826801

local_map_fc.weight f4 [64, 512]
000000 28 ef a2 bd ea 0b d1 bd f6 35 6f be ff 28 10 be
       -0.07955772 -0.102073506 -0.23360428 -0.14078139
000010 7e 37 21 3c f3 95 10 be 70 88 09 be 9d 4f df 3c
       0.0098398905 -0.14119701 -0.13430953 0.027259642
000020 20 b0 76 bd 8f b5 c7 bd 5d ef da bd c0 06 a7 3d
       -0.06022656 -0.097514264 -0.10690186 0.08155584
000030 0f d4 ec 3d fd 1a 03 be 5e 8c 82 3d 60 0d 29 be
       0.115638845 -0.12803264 0.06374429 -0.16509008
000040 b2 0b bd bd 70 10 b6 bd 41 82 94 bd 0b eb c1 3c
       -0.09230746 -0.08889854 -0.072514065 0.023671648
000050 93 3a 92 bd f1 ac c4 bd fd a9 98 bd 3e 1a 4b bd
       -0.071400784 -0.096032985 -0.07454298 -0.049585573
000060 e5 4f 2a bc 03 da 92 3d 04 76 eb 3b 72 9a 82 3b
       -0.010395025 0.07170489 0.0071856994 0.0039856965
000070 8c 69 20 bd eb 33 15 3e 19 2b 99 3d 0e bc b7 3d
       -0.039163157 0.14570586 0.07478923 0.089714155
000080 9c 2c 1a be da 49 6b bd ad 2f 83 3d bc c3 7f bd
       -0.1505608 -0.057443477 0.06405578 -0.062442526
000090 e3 b1 ba be 8d 94 07 be 4c 3e cb 3d 26 a8 78 be
       -0.36463842 -0.13240261 0.099239916 -0.24282894
0000a0 b0 41 71 bd 6a 93 50 be 2a 58 f2 bb 1d 4a ae bd
       -0.058900535 -0.20368734 -0.007395764 -0.0851023
0000b0 c1 80 1a 3e 71 d4 b6 3d c9 9d 80 3d 67 31 06 3e
       0.15088178 0.08927239 0.06280095 0.13104783
0000c0 a8 9f 88 3c eb 45 09 be 07 c1 f3 3c 58 75 5d 3d
       0.016677693 -0.13405578 0.029755129 0.054066986
0000d0 c7 45 33 bd e8 b4 c5 bd c2 12 84 3c e7 2e e4 bd
       -0.043767717 -0.09653646 0.016122226 -0.111417584
0000e0 bc 8e 94 bd 45 93 a9 3c a1 22 61 bd 25 1c 3c 3d
       -0.07253787 0.020700106 -0.054964665 0.04592528
0000f0 ab 98 66 3c f9 58 81 bc b8 89 ad bd 68 26 ee bc
       0.014074485 -0.015789496 -0.084735334 -0.029071048
000100 e4 18 dc bd 82 35 1d be 26 92 8f 3d 57 fc 23 be
       -0.10746935 -0.15352443 0.070102975 -0.16014229
000110 7a 80 bf bd e2 e6 c8 bd 19 63 9d 3d 8e 9e 6c bd
       -0.09350677 -0.098096624 0.07684917 -0.057768397
000120 bb 2b ee 3d b9 9e 8b 3d 48 11 17 bc 09 89 84 be
       0.11629435 0.06817383 -0.009220429 -0.258858
000130 b5 df c0 bc 62 c3 03 3e 2e df ad bd 56 d3 96 3d
       -0.023544172 0.12867501 -0.08489834 0.07364528
000140 f4 e3 b8 3a fd f5 1e bc 83 36 37 be 5e 58 b7 bd
       0.0014106021 -0.009702203 -0.17891888 -0.089524016
000150 d1 4a 96 bd d9 8a 32 be 25 28 fe bc 25 09 3a 3e
       -0.07338489 -0.17435779 -0.031025002 0.18167551
000160 13 d3 9b bd f7 90 53 3e ae ca 10 be 9e 1d 8b 3d
       -0.076086186 0.20660768 -0.14139816 0.067927584
000170 48 f6 8d bd e6 d8 b9 bd 1b 56 72 bc 05 91 b4 3d
       -0.0693174 -0.09074573 -0.014791037 0.08816723
000180 a8 bd e8 bd d5 bb 50 3d 72 7d 3f bc 70 b7 b9 bd
       -0.11364299 0.05096038 -0.011687623 -0.09068191
000190 11 d9 13 be 3c 56 09 3d 89 0d f4 3c 6d 63 d8 3b
       -0.14438273 0.033529505 0.02979161 0.0066036494
0001a0 26 34 64 3d 40 05 82 3e b8 18 59 bd 78 7f 15 be
       0.055713795 0.2539463 -0.05300209 -0.14599407
0001b0 64 88 b2 bc 28 45 ed bd 41 6c 3e bd 48 ce 11 3a
       -0.021793552 -0.11585456 -0.046489958 0.00055620493
0001c0 cc bd 41 3d 66 f8 fb bc f3 c2 ea 3b 7e ed 4a bd
       0.047300145 -0.030758094 0.007164353 -0.049542896
0001d0 e3 a3 35 be d0 bf 56 be d4 b6 9c 3d a7 1f 0e 3e
       -0.17738299 -0.20971608 0.07652059 0.13879262
0001e0 14 50 cc bd 4a 71 f1 bd b6 f1 2f be ab bd b9 3c
       -0.09976211 -0.11789186 -0.17182049 0.022673449
0001f0 47 e2 f3 bc 7c 38 22 bb aa 48 31 bd 69 0e 5a 3d
       -0.029770983 -0.0024752906 -0.04328219 0.0532364
000200 ad 2d b4 bd f1 a9 50 be a2 b2 0e be 0a 23 25 be
       -0.087977745 -0.20377328 -0.1393533 -0.16126648
000210 3d ae c7 bd a1 c8 ad bd a5 2d 19 be 12 9d cb 3d
       -0.0975003 -0.084855326 -0.14958818 0.09942068
000220 27 d5 59 bd 15 72 fc bc 7e a5 5c be 4a f4 c1 bd
       -0.053181794 -0.030816117 -0.21547505 -0.094704226
000230 61 5a c0 3d c9 11 44 3d 7a f8 3a b9 40 10 e6 bc
       0.093922384 0.047868524 -0.00017830907 -0.02808392
000240 0f 45 4a be ed 6d 7f 3d c2 e6 4c be 52 d3 75 be
       -0.19752906 0.062360693 -0.20009902 -0.24006394
000250 60 1c 0d bd 09 dc 15 bd b2 c0 2c be 05 17 22 be
       -0.03445089 -0.036586795 -0.16870382 -0.15829094
000260 37 f6 78 bd 22 e2 f5 bd d0 01 ab bd ea 66 52 be
       -0.060781684 -0.12006022 -0.08349955 -0.20547071
000270 94 12 4f be 40 71 09 be 95 f9 97 3d 7c 15 9a bd
       -0.2022193 -0.13422108 0.07420651 -0.07523629
000280 ed cf 3d 3d 7f ab 14 be ae 63 e9 3d ba dd 48 bb
       0.04634087 -0.14518546 0.113959655 -0.0030649737
000290 35 21 06 be 78 89 5f bd e3 26 34 3d 40 be d6 bd
       -0.13098605 -0.05457446 0.043982398 -0.10485506
0002a0 8d c6 9a bb 01 08 8a bd 57 7c a0 3d 9a f4 85 3a
       -0.004723376 -0.06739808 0.07836216 0.0010219992
0002b0 8f 3b ef bd cf 88 48 be 51 5e cd 3d 4d d8 b9 3c
       -0.11681282 -0.19583438 0.10027755 0.022686148
0002c0 87 41 43 bd 89 c7 e4 bd 2c ef 1e be 2b 24 5f bd
       -0.047669914 -0.11170871 -0.15520924 -0.05447785
0002d0 3e 81 c9 bd bd 5b c8 bd e0 01 9e bd 55 92 86 bd
       -0.09839104 -0.09783123 -0.077152014 -0.06570879
0002e0 b8 15 a8 bc 95 c3 5a be 8c 9f c9 bd 0a e4 eb bb
       -0.020518169 -0.21363671 -0.09844884 -0.0071988152
0002f0 57 0b 88 3d b2 e6 c0 3d 2f 6d 87 3d e1 67 e0 3d
       0.06642788 0.09419002 0.06612622 0.10957313
000300 5f 89 a7 bd e1 d1 d5 bd 0d 6f 03 be e4 39 58 be
       -0.08180498 -0.10440422 -0.12835331 -0.21115834
000310 73 6b d5 bd b9 53 d1 bd 8b f9 c6 bd bc c4 f5 bd
       -0.10420885 -0.10221047 -0.09715565 -0.12000415
000320 6b 59 4b 3c 51 8a b4 3c c3 89 80 3d 3d ec ed bd
       0.012411456 0.02203861 0.06276276 -0.116173245
000330 01 1e e9 3d 72 df ce 3d e5 6c 80 bd fa cf c2 3c
       0.11382676 0.101012126 -0.0627077 0.023780812
000340 10 9d 19 bd c6 87 0f be 12 e6 9f bb ad 18 d5 3d
       -0.037503302 -0.14016637 -0.0048797214 0.10405097
000350 c6 e3 63 3d 21 0d fa bd 7b 69 81 3d 02 21 3b 3d
       0.055637144 -0.122095354 0.06318947 0.045685776
000360 9f f5 12 bd 59 ae c1 bb ad 74 ea 3c 23 51 4c 3d
       -0.035878774 -0.0059106764 0.028620088 0.049882066
000370 42 5f 08 bd 38 76 1a be 8d a0 5d bb da 9a 18 3d
       -0.03329397 -0.1508416 -0.003381762 0.037257053
000380 57 8e 95 bd 99 ec f2 bb 64 92 a5 bd df 8b fa 3d
       -0.0730254 -0.0074134585 -0.080845624 0.122337095
000390 c1 8a b4 3d 6b 89 89 bd cc 08 fa 3c d4 b1 91 3d
       0.08815528 -0.067156635 0.030521773 0.07113996
0003a0 86 28 81 3d 54 0e 6e bd 70 3f d3 3d 43 02 0c be
       0.06306557 -0.058119133 0.10314834 -0.13672738
0003b0 c4 23 85 bd 0f 28 04 be f2 22 92 3d cf 69 02 bd
       -0.065009624 -0.12905906 0.071355715 -0.03183919
0003c0 ec 52 9c bd fe 89 01 3b dc 3b 88 bd 9b 25 00 3d
       -0.076330036 0.0019766088 -0.06652042 0.031285863
0003d0 e5 7d 09 be 86 6d 60 bd 29 33 43 be aa bf 59 3d
       -0.13426931 -0.05479195 -0.19062485 0.0531613
0003e0 fe 30 dc bd 3f 1f d8 bd ed 47 8f bc dc b2 17 bc
       -0.10751532 -0.10552835 -0.017490352 -0.009258952
0003f0 80 68 3c 3d b5 7e e4 bc 60 de b8 bc fb 4f 6f bd
       0.045998096 -0.02789245 -0.022566974 -0.058425885

local_map_fc.bias f4 [64]
000000 35 dc a8 bd f3 e7 db bd a3 4e 01 bc 7f 1f 8b bd
       -0.08245126 -0.107376 -0.007892284 -0.06793117
000010 28 8e 75 bd e9 87 e6 bd 9a 25 b8 bd a5 a1 cf 3d
       -0.059950024 -0.112563916 -0.08991547 0.10138253
000020 2e a2 cd bc c5 ca 30 bd 99 57 4f bd 2f be 58 bd
       -0.025101747 -0.043162126 -0.05062065 -0.05291575
000030 5b 99 1f 3e 78 0d 9b bc db 3b 08 bd 5b 4c d2 3d
       0.15585844 -0.01892732 -0.033260208 0.1026847
000040 fe d0 31 3d f1 b4 85 bc 2d 03 c6 bd 3a 1e 04 3c
       0.0434122 -0.016321631 -0.096685745 0.008063847
000050 ea 54 c6 bd f1 f3 fe bd 94 34 31 3d 4e 58 8a 3d
       -0.09684165 -0.12448872 0.043263033 0.06755124
000060 a8 5a 43 bd 05 67 7a bd 60 28 61 3d d8 87 94 bd
       -0.04769388 -0.061133403 0.054970145 -0.07252473
000070 5b cc 97 3d c4 cf 59 3d 61 9f 75 bc ca e6 f8 bd
       0.074120246 0.053176656 -0.014991612 -0.121533945
000080 e2 8a 86 3d 71 c5 16 3b 6c e2 cd bc f0 f8 e6 bc
       0.065694585 0.0023005868 -0.02513238 -0.028194875
000090 cd e9 6c bd 5b 38 d9 3d 38 17 1b 3e 10 74 b0 3c
       -0.057840157 0.10606452 0.15145576 0.021539718
0000a0 23 5f 86 bd ef df a6 bd 67 5a a5 3c 9b ed dd 3d
       -0.06561115 -0.08148181 0.020184709 0.10836335
0000b0 08 ba dd 3d c0 ff ef 3d fa 37 80 bd 99 ea 13 bc
       0.10826498 0.11718702 -0.06260677 -0.0090281
0000c0 18 b5 64 bd 07 c2 0c bd 21 36 cf bd 09 1c d5 bd
       -0.055836767 -0.034364726 -0.10117746 -0.10405738
0000d0 db 1f 73 3d be 3d 1d be 69 ec 63 bd e7 96 c1 3d
       0.05935655 -0.15355584 -0.05564538 0.094526105
0000e0 98 c0 76 bc 55 b7 7d be f2 bc 1a bc 18 48 6e bd
       -0.015060566 -0.24776967 -0.009444462 -0.058174223
0000f0 14 1d 7e bd e2 15 8e 3d 68 91 84 3d 1c 43 c3 3d
       -0.06203945 0.069377676 0.064730465 0.095342845

self_entity_fc1.weight f4 [32, 26]
000000 cc 25 8f 3e 1e 53 85 3c 7f 7c 36 3c cd e8 b6 3c
       0.27958524 0.016274985 0.011138081 0.022327805
000010 d1 44 79 bc 04 41 1e 3e d6 df 6b 3c c8 de a3 be
       -0.015214161 0.15454489 0.014396628 -0.32005906
000020 6c a2 c3 bc 2c 93 b4 bd 61 30 1c be 0c d1 0c bf
       -0.02388116 -0.08817133 -0.1525283 -0.5500648
000030 b0 33 29 3e d2 fa 30 be 62 a3 5f 3e 68 50 1e 3e
       0.16523623 -0.1728318 0.2183967 0.1546036
000040 be b6 58 be 2d 45 cc bd 0b f5 96 3d 21 94 d7 3b
       -0.2116346 -0.09974132 0.07370957 0.0065789376
000050 18 27 46 bd ac 36 a7 3e a6 6e 0d be a9 19 3d 3e
       -0.048377126 0.326589 -0.1381174 0.1846682
000060 1a c9 25 bb 01 72 56 3d fe 8d b5 be 0a 8b ce bd
       -0.0025296868 0.052354816 -0.35459894 -0.10085113
000070 2a c0 30 3c 4e 3b 3b 3e c0 ef 31 3e d5 d3 07 be
       0.010788003 0.18284342 0.17376614 -0.13264401
000080 71 0c d2 3d 38 dc a8 be fc d6 d1 bd 30 b5 81 bd
       0.10256279 -0.32980514 -0.10246083 -0.06333387
000090 68 d9 04 be 7b 65 84 3c d6 68 bf 3c 58 92 5d 3d
       -0.12973559 0.01616167 0.02336542 0.054094642
0000a0 17 98 56 3e 3c 51 0b 3e b9 a9 de 3d 2e 61 33 3c
       0.20956455 0.13605207 0.10872216 0.010948462
0000b0 7b 8c 61 bd a6 d0 99 bb 69 6a 74 bd e8 0d b9 3d
       -0.055065613 -0.0046940623 -0.059671793 0.090358555
0000c0 8b b8 3b bd a7 2b 85 bc 73 2b b4 3d 1e 22 41 3e
       -0.04583029 -0.016256167 0.0879735 0.18860671
0000d0 f5 46 9a bb 36 ad ae bd 91 08 9f 3d 96 3e 17 be
       -0.004708166 -0.08529131 0.07765306 -0.14769968
0000e0 52 06 ef 3d b2 f8 0b bf 2d 67 98 be b6 0b e5 3d
       0.116711274 -0.54676354 -0.29766217 0.11183874
0000f0 4d d3 e3 3d ee c9 9c bd 86 f7 d0 be 89 0b 54 bd
       0.11124287 -0.076557025 -0.40813845 -0.051768813
000100 e0 26 84 bd 2e 76 64 3d 65 4f 95 3d d5 9c 69 3e
       -0.06452727 0.055776767 0.07290534 0.22813733
000110 c4 3d 26 3d a2 42 b6 3d f6 43 08 bc 6f 16 2d 3e
       0.040586248 0.08899428 -0.008316984 0.16903089
000120 22 a6 8e 3d ab 85 ec 3d 9c 1d 38 3e 0a 61 dd bd
       0.06965281 0.11548933 0.17980045 -0.10809524
000130 bd c6 23 bd b0 bf 08 be e7 9f c6 bd 25 9a e7 bc
       -0.039984453 -0.13354373 -0.09698468 -0.028271744
000140 27 12 00 3e bc 84 aa bd 58 d0 c2 bd c0 8e 08 3e
       0.12506925 -0.08326098 -0.09512395 0.13335705
000150 1a 9c e9 3d 9c 43 27 bd a2 06 49 3f 69 9b 9a 3e
       0.11406727 -0.04083596 0.78525746 0.30196694
000160 89 d2 c4 3d 19 cf 98 bd 2a 75 fa 3c fa 1d 88 3e
       0.09610469 -0.07461376 0.030573446 0.2658537
000170 34 bc 80 bc b1 72 24 be 08 d5 4e 3e a8 cd 69 3e
       -0.015714742 -0.16059376 0.20198452 0.22832358
000180 c5 25 e2 bd 79 fd 13 bd c8 79 8e 3e f3 b0 8b bd
       -0.1104236 -0.036130402 0.27827287 -0.0682086
000190 39 00 1d be ac 78 1c 3d 35 50 e1 bd 25 e6 08 3e
       -0.15332116 0.03820102 -0.110016264 0.13369043
0001a0 7b 0a 2c be 34 58 0a 3d 30 89 c0 bc 3b 92 27 be
       -0.16800873 0.033775523 -0.023502916 -0.16364376
0001b0 ca 66 01 3e 7c 38 2b 3d 96 f9 ab 3c 62 2a 6b be
       0.12636867 0.041801915 0.020993035 -0.22965387
0001c0 69 09 85 3d d3 f8 18 3e 89 d1 e1 3e e7 ea 6c 3e
       0.064959355 0.14938669 0.44105175 0.23136483
0001d0 93 b3 1d 3e 48 23 d6 3d e2 7a 44 be 8d 6b 3e 3d
       0.15400533 0.10455948 -0.19187501 0.046489287
0001e0 3e 1d 58 3e 8b 7c c2 3e b0 93 db bd 9d e7 26 bd
       0.21104905 0.37985644 -0.107215285 -0.040748227
0001f0 c9 2f 0c 3d 6a 0c c2 bd 88 62 72 bd 24 b3 be bc
       0.03422526 -0.09475024 -0.059175998 -0.02327878
000200 53 9f e8 bd 88 7a d3 bd bb c4 92 3d b7 3c ef 3d
       -0.11358514 -0.10326105 0.071664296 0.11681502
000210 c1 b7 46 3e 60 be 5b 3d 39 ad 0c 3d b1 2f a6 bd
       0.19406034 0.053648353 0.034344885 -0.08114565
000220 46 03 16 3e ee 8c d9 be 97 11 66 3e eb 6a 87 3b
       0.14649686 -0.42490333 0.22467647 0.0041326187
000230 e8 cc 2f 3d 05 f9 a6 3e 78 06 21 3e ff bc ff 3d
       0.042920023 0.32611862 0.15725124 0.1248722
000240 7d c9 1c 3b 91 3e 6a be 57 29 96 3d 49 d1 b2 bc
       0.0023923807 -0.2287543 0.07332104 -0.02182831
000250 a7 26 2c be 4f b7 53 be 96 26 3c be 4e ce 2b be
       -0.1681162 -0.20675395 -0.18374094 -0.16777918
000260 9e c2 01 be bc b7 3a be 9f 0a 7b 3d 5e f8 c5 3d
       -0.12671897 -0.18234152 0.061289426 0.09666513
000270 41 bb 26 bd a0 20 02 be a3 da 95 bb c7 33 22 3e
       -0.040705923 -0.12707758 -0.0045731827 0.15840064
000280 56 d5 09 3e 7e b9 cf bd 8a f2 50 bd 49 8d 97 be
       0.13460287 -0.10142802 -0.051012553 -0.2959998
000290 f3 86 4d 3d 17 ca 8e bc 35 52 c3 be c9 a7 77 3d
       0.050177526 -0.017430348 -0.38148656 0.060462747
0002a0 81 b5 5d bf 5d ed c0 3d 68 2d 04 3e c2 8f b3 3d
       -0.8660508 0.094202735 0.12907946 0.08767654
0002b0 e2 c4 74 be 98 7d 15 be f5 07 0d 3d ab c9 a5 3c
       -0.2390323 -0.14598691 0.034431417 0.020237764
0002c0 23 e6 c7 bc be 30 6f 3e 48 4e 03 3e 49 5e bc bd
       -0.02440173 0.23358437 0.1282283 -0.09197671
0002d0 57 95 f5 3b ce af 00 be b9 09 3a 3e 3b dc ec 3a
       0.0074946093 -0.12567064 0.18167771 0.0018071005
0002e0 1c d6 d6 bb 7b b6 47 3d 0a ab e6 bc 93 cc 1c be
       -0.0065562855 0.04875801 -0.02815773 -0.15312414
0002f0 1f 26 a4 3d 81 ce a3 bc 43 d5 18 bf 19 92 0d 3e
       0.080150835 -0.01999593 -0.5970041 0.13825263
000300 96 05 1b be 23 36 7a 3e eb 70 c1 3d 98 d3 dd 3d
       -0.1513885 0.24434714 0.094453655 0.10831374
000310 a5 4e d3 3d 1d 9d 82 3e 46 f8 e3 3d f7 1c 57 3e
       0.10317735 0.25510493 0.11131339 0.21007143
000320 8e 57 1f bd a8 28 d4 3d 4b 42 22 3d d9 b6 48 3e
       -0.038901858 0.10359317 0.039614003 0.19601001
000330 61 df d4 3b 6f 21 94 bd be 05 ba 3d 00 a6 0f be
       0.0064963554 -0.072329395 0.090831265 -0.14028168
000340 f4 02 9c bc 66 78 d8 bd 39 db fc 3b 38 b0 cb 3d
       -0.019044377 -0.10569839 0.007716563 0.099457204
000350 f2 48 99 bc 1c ca b3 bd 3b 2b 84 3d e2 ca 0c 3f
       -0.01871154 -0.08778784 0.06453558 0.54997075
000360 3a ff 06 3c 06 31 f0 3c 5a 0e 48 bf 30 bc b7 bd
       0.008239562 0.029320251 -0.781469 -0.08971441
000370 af f2 da bd 12 ff be 3d 67 79 33 3e 8b 91 09 3e
       -0.106908195 0.093259946 0.1752678 0.13434426
000380 31 e6 29 3e f3 ce a1 bd c6 0b 35 bd 5c fc 4a bd
       0.16591717 -0.079008006 -0.04420068 -0.049557075
000390 4f 26 65 bd 73 7d 23 3e 67 9a c5 3d 39 ce 6d bd
       -0.055944737 0.15965824 0.096485905 -0.058057997
0003a0 f0 ed 0a be 58 d0 08 be d7 8c 3d be 2b 49 55 be
       -0.13567328 -0.13360727 -0.18510757 -0.20828693
0003b0 00 6a 23 bd 9a 92 bc 3d ff dc 71 bd 72 5e d6 be
       -0.03989601 0.092076495 -0.05904865 -0.4186893
0003c0 43 ad dd be b3 7c 12 3e d7 06 27 be b5 1a d9 bc
       -0.4329625 0.14305381 -0.16311203 -0.026501993
0003d0 7c 5f 09 3e 2d 67 29 3e 7b 50 92 3d d3 4e a5 bd
       0.1341533 0.16543265 0.07144257 -0.08071675
0003e0 6b 90 c0 3d 95 06 fe 3d 33 0e 7d bd 67 79 ee bd
       0.094025455 0.12403599 -0.06178112 -0.116442494
0003f0 e8 1f 6b 3d 19 83 7d bd 6b 22 84 3c 05 6b 90 3e
       0.057403475 -0.061892603 0.016129693 0.2820665

self_entity_fc1.bias f4 [32]
000000 00 ea e6 bb 06 72 8c 3e c9 1c 30 3d a5 25 6f be
       -0.007046938 0.27430743 0.0429962 -0.23354204
000010 a4 4a 99 bd 30 67 07 be 29 1a 87 3e 75 96 07 3e
       -0.0748494 -0.13222957 0.26387146 0.13240989
000020 a3 71 5d 3e 9e f8 1f 3e 97 52 b2 3d 05 4b 68 3e
       0.2162538 0.15622184 0.08707159 0.22684868
000030 de 37 51 3c 7c e2 77 bc c4 1d f3 bd c9 97 37 bd
       0.012769667 -0.015129682 -0.11870912 -0.044822488
000040 00 1c 26 3e 4b b0 15 3e a3 c3 74 3e 02 94 a0 3d
       0.16221619 0.14618032 0.23902754 0.0784073
000050 c5 2a 73 3e f2 16 fd 3d f4 0b 81 3e 9d 93 72 bd
       0.23746784 0.12357892 0.25204432 -0.059222806
000060 f1 57 81 3e 5a ff f2 3d 88 ac 67 be e3 5b 54 3d
       0.25262406 0.11865111 -0.22624409 0.051845443
000070 4a 86 cf 3e 2f 47 10 3f 17 e1 2c bd 32 e2 01 3d
       0.40532142 0.5635862 -0.04220685 0.031709857

self_entity_fc2.weight f4 [32, 32]
000000 20 b3 d1 bd 8b 37 3a 3e 5a 10 d8 3e b0 f7 d2 be
       -0.102392435 0.1818525 0.42199975 -0.41204596
000010 c4 05 63 3e dc c2 c3 3d 73 53 63 bd 7d 77 6d 3e
       0.22170168 0.09558651 -0.055499505 0.23190112
000020 8b 27 83 be ed 73 32 bd 7d 4b cb 3d 7e 29 3d be
       -0.25616106 -0.043567587 0.099265076 -0.1847286
000030 ce d0 79 bc b7 e2 f2 3d d7 56 a9 be 85 9a 05 3e
       -0.015247537 0.11859649 -0.33074066 0.13047226
000040 68 b2 17 3d 3e 20 6a 3d 7c 3c eb 3d cf 34 b6 bd
       0.037035376 0.057159655 0.11486146 -0.08896791
000050 c0 cc 8e 3c 3e e7 ea 3c ac 3f 78 bd a6 0c 75 3e
       0.017431617 0.028674718 -0.060607597 0.23930606
000060 1b 00 d0 3c c2 1f f4 3d ea 04 b5 be 79 2c 6d 3e
       0.025390675 0.1192012 -0.35355312 0.23161496
000070 43 d7 11 3f 34 52 16 3f 5b 1d 5a 3e 75 da 9d bc
       0.5696909 0.5871918 0.2130026 -0.019269207
000080 95 eb 99 3e 4d 5f 06 3e b8 9f a2 bd 7e 6e c3 3d
       0.30062547 0.13122292 -0.0794062 0.09542559
000090 fe 48 10 bf 48 59 1b be f6 fc 5d 3f 73 4c e4 bd
       -0.5636138 -0.15170777 0.8671411 -0.11147394
0000a0 3b fd 1c 3f 86 63 9e bd ec 0b 9c 3e 84 4d 1a 3f
       0.613239 -0.07733826 0.30477846 0.6027453
0000b0 8d 08 4d 3d 4d f8 14 bf 47 10 00 3e 73 1f 17 3e
       0.050056983 -0.58191377 0.1250621 0.1475809
0000c0 17 aa 50 3e ef 0b f2 3c 7f 9b 90 3c 61 ca 58 be
       0.20377384 0.029546706 0.017652271 -0.21170951
0000d0 24 94 93 3d cf b2 06 3e e3 77 0a be d9 e3 21 be
       0.0720599 0.13154148 -0.13522296 -0.15809573
0000e0 bd a6 84 be 3e e8 93 3d f5 8d 2d be 8a 26 08 be
       -0.2590846 0.07222031 -0.16948684 -0.13295951
0000f0 28 d9 15 bf fb eb 22 bf b1 fc 05 be 37 4b dc bd
       -0.5853448 -0.6364133 -0.13084675 -0.107565336
000100 e9 74 13 bd 1a b4 b2 bd c5 97 e6 be 17 94 51 be
       -0.036000166 -0.08725758 -0.45037666 -0.20466648
000110 b0 dd 6d 3e 98 0b 40 be 5c cd 01 3e aa da 0a 3e
       0.23229098 -0.18754423 0.12675995 0.13559976
000120 37 c4 38 bf 42 c0 96 bd 68 5c cf 3d 52 0a 06 be
       -0.721744 -0.07360889 0.10125047 -0.13089874
000130 5f b3 46 bd 93 bc 49 bf 41 c2 8a be 53 d7 a0 3d
       -0.048510905 -0.78803366 -0.2710133 0.0785357
000140 71 ee 0c 3d 65 57 43 3e fc 73 85 3e cf e7 86 be
       0.034407083 0.19076307 0.26065052 -0.2634873
000150 44 19 9a 3c 30 0e 48 3a d7 30 ca 3d b1 17 4e 3e
       0.018810876 0.00076315086 0.09872597 0.20126225
000160 3c fa f9 3d da ce 23 3e f2 27 f2 be c7 72 8e bd
       0.122059315 0.15996876 -0.472961 -0.06955486
000170 3b c5 c8 b8 e5 dc ed bd 39 fa 6f bd 55 ac 96 bd
       -9.57348e-05 -0.11614398 -0.05858824 -0.073570885
000180 d8 40 59 3d a2 d2 ea bd fa d1 84 be f1 23 0c 3e
       0.053040355 -0.11465956 -0.2594145 0.13685586
000190 40 ca 0f 3e 87 b9 54 3e aa b7 aa 3b 1b bd dc be
       0.14041996 0.20773898 0.0052098827 -0.43113026
0001a0 54 30 a4 be fc ff 5b be 08 fb 18 bf 1c a6 84 3c
       -0.3206812 -0.21484369 -0.59758043 0.016192488
0001b0 3f c0 93 3e 16 6a 04 bf 5f c8 a2 3e 06 1d 22 3e
       0.2885761 -0.51724374 0.31793496 0.15831384
0001c0 80 7d 82 3d 6e 42 0d 3e 6f f3 d4 be 69 5f 5d bd
       0.063715935 0.13794872 -0.41591975 -0.05404607
0001d0 f1 f1 1e be 88 2f 08 bd 43 5f 18 be 55 db c4 bc
       -0.15521981 -0.033248454 -0.1488009 -0.024030367
0001e0 ea 63 72 bc 84 b6 59 bd 6a e5 71 3e a5 7a fe be
       -0.014794329 -0.053152576 0.23622671 -0.49702945
0001f0 ce 9f 25 3e f2 9a de 3d 00 e7 0f be 58 81 45 3e
       0.16174242 0.10869397 -0.14052963 0.19287622
000200 0b c9 e6 3e 0a 26 5f 3e ef 5f 65 bd 61 45 f0 bc
       0.4507526 0.21791855 -0.055999693 -0.029329957
000210 d1 b6 ca be 14 4a 03 be 83 c8 2a 3e e8 e3 19 be
       -0.39592603 -0.12821227 0.16678052 -0.15028346
000220 03 56 18 3f 0d c4 06 bd 93 0e 82 3e 58 67 1a 3f
       0.59506243 -0.032901812 0.25401744 0.6031394
000230 d9 fb 13 3e d0 f1 5b bf bd 78 a7 bc 94 7a 6e 3e
       0.14451541 -0.8591585 -0.020443315 0.23288947
000240 55 56 82 3e dd ca a7 3d f7 a7 ac bd d7 71 ee 3d
       0.2545649 0.0819299 -0.08430474 0.11642807
000250 fe 60 a6 3e 7f a4 2b 3e af f2 51 bc a5 be 25 3e
       0.32495874 0.16761969 -0.012814208 0.16186006
000260 dc bc cb be 3d 9e b6 3d b7 25 9e 3c fe 66 6a 3d
       -0.39792526 0.089169 0.019305093 0.057227127
000270 78 26 e3 be 8d f2 10 bf 62 94 04 3e 1b ee 59 bc
       -0.44365287 -0.56620103 0.12947229 -0.013301398
000280 f6 65 40 3e cd 17 9d 3e ad ec 63 3e dd c8 bf bd
       0.18788895 0.3068222 0.22258253 -0.093644835
000290 c4 b9 1c 3e 6b a4 c2 bc 4a e0 46 3c 6f 4a 9f 3d
       0.15305239 -0.023760041 0.012138436 0.07777869
0002a0 e7 49 4b 3f d1 c2 5f be 01 0a a7 3e f0 79 86 3e
       0.7940964 -0.2185166 0.3262482 0.26264906
0002b0 c6 e1 80 be d7 90 81 3e 3d 3d 3c 3e 59 5c 03 3e
       -0.2517225 0.25305817 0.18382736 0.12828197
0002c0 25 c0 52 3e 3a c0 85 3d 5e 4a 8e bc d7 19 36 3e
       0.2058111 0.06530805 -0.017369445 0.17783295
0002d0 69 6a ee 3d c9 33 a7 bd 26 58 cf 3d 44 76 82 bd
       0.1164139 -0.08164174 0.10124235 -0.06370214
0002e0 26 d6 80 3e 4d 2d 31 be 14 3e 68 be c1 e8 bc 3d
       0.25163382 -0.17302437 -0.22679931 0.09224082
0002f0 ad ec a6 be 6d 18 04 bf a7 fa e4 bd 0c 0a 36 be
       -0.32602444 -0.5159977 -0.11180621 -0.1777727
000300 1a dc 32 bd 4e 2b 32 3e 54 da e8 3d b5 2b ab be
       -0.043666936 0.17399332 0.11369768 -0.33431783
000310 1e c7 de 3d 8c 72 4a 3d 0a c5 98 be 26 9f 3c 3d
       0.10877822 0.049425647 -0.2983783 0.046050213
000320 b6 9f 86 bf 15 09 90 3b 05 3e 74 3e ec 22 7a bd
       -1.051749 0.004395614 0.23851784 -0.06106846
000330 63 74 43 be 2b 65 87 bf 3a e9 6e bc 88 1a 94 bd
       -0.19087367 -1.0577749 -0.014581973 -0.07231623
000340 da 23 a5 3d d0 14 53 3e a4 75 03 3e 31 4f 49 3a
       0.08063479 0.20613408 0.12837845 0.0007679342
000350 29 f5 2e 3e 61 e3 28 be 17 75 69 3e 8e 18 e6 3d
       0.17085709 -0.16492988 0.22798572 0.11235152
000360 62 8c fc 3d d2 b8 1a 3d ca 80 f1 be 6e 5a 8f 3e
       0.123314634 0.037773915 -0.4716857 0.2799868
000370 11 e9 d4 bd 98 0e c9 bd 58 f4 10 be 1c 9c 97 3c
       -0.103960164 -0.09817237 -0.1415571 0.018507056
000380 81 83 0e 3f 7d 6a 4b 3d 01 f6 cf 3d ae d7 89 bd
       0.5566941 0.049662102 0.101543434 -0.06730591
000390 6d cd aa bd 30 12 43 be 8d 06 06 bf d1 87 cf 3c
       -0.08339963 -0.19049907 -0.52353746 0.025333317
0003a0 65 6c c8 3e a2 f9 e2 3c 32 57 e7 3d 02 98 12 3f
       0.39145198 0.027706925 0.11295928 0.57263196
0003b0 bf 6e 5a bd e3 f7 7a bf 1f a3 9e 3c d2 66 78 3d
       -0.053328272 -0.98034495 0.019364892 0.060644932
0003c0 fd d0 8f 3d 27 33 40 3c 03 2f 2f 3d a2 59 d1 3d
       0.07022283 0.011730946 0.042769443 0.10222174
0003d0 9b 49 54 3e 64 6d ac bd 0d a9 4e bd c7 8c 9c 3e
       0.20731203 -0.08419302 -0.05045419 0.30576155
0003e0 ef bb 9f be ac f2 c1 3d b1 1b 9b bd b1 5e 08 bd
       -0.3119807 0.09470114 -0.07573641 -0.03329343
0003f0 5e f8 d8 be a7 7d d1 be 4d 3b 03 3e c4 32 56 3d
       -0.4237699 -0.40916178 0.1281559 0.052294508

self_entity_fc2.bias f4 [32]
000000 11 74 f9 3d 5d e5 aa 3d 30 0c b9 ba 3e fb 9b bd
       0.12180341 0.08344529 -0.0014118012 -0.0761628
000010 7e 5f 5d 3e 01 d6 e2 bc eb 8d dc bc 68 00 90 3e
       0.21618459 -0.027689936 -0.02692314 0.2812531
000020 b6 2c 6f bd b9 11 00 be fa 95 17 3e 21 f6 14 bc
       -0.05839225 -0.1250676 0.14803305 -0.009091885
000030 92 d2 22 be 9a e8 1c 3e fc f1 08 bd 0a 1a f2 bd
       -0.15900639 0.15323105 -0.0334339 -0.11821373
000040 36 14 bc bd eb c5 09 be 4b 39 53 bd 31 94 da bd
       -0.091835424 -0.13454406 -0.05156831 -0.106727965
000050 ec a7 33 3e 75 4a 10 3e 29 37 55 3d bb e6 42 be
       0.17544526 0.14090903 0.052054558 -0.19033329
000060 bd 0e b2 3d 6a 1d 11 bd f3 2c 77 bd 89 8d 1e be
       0.08694217 -0.035428442 -0.0603456 -0.15483679
000070 3a 5f ff 3d f6 1a 8e bd 47 fb cf 3d 1d 78 44 3e
       0.12469335 -0.06938736 0.10155349 0.19186445
