my-submission/checkpoints/model_1213696.pt (torch, 352797 bytes, 23 tensors)

local_map_cnn.0.weight f4 [32, 24, 3, 3]
0	0xbe1911da	-0.14948216
1	0x3d35776c	0.044303343
2	0x3d357a2c	0.044305965
3	0xbe09e725	-0.13467081
4	0xbdca959f	-0.09891819
5	0xbd8bd347	-0.06827407
6	0xbd8dacfd	-0.069177605
7	0xbe2587d7	-0.161651
8	0xbde2b770	-0.11070144
9	0x3dbb2a04	0.09138873
10	0x3d11612b	0.035493057
11	0xbe4579c2	-0.19284728
12	0x3e2a2ebe	0.16619393
13	0xbd5fdc9a	-0.05465374
14	0x3e143683	0.1447392
15	0x3df161a1	0.11786199
16	0x3d367993	0.044549536
17	0xbe03a811	-0.12857081
18	0x3c97fd98	0.01855354
19	0x3c1e2176	0.009651532
20	0x3d628f1d	0.055312265
21	0xbcf9d21f	-0.030495701
22	0xbe2f3ada	-0.17112294
23	0xbf31579f	-0.69274324
24	0xbbf040e6	-0.0073319552
25	0x3d9dbb11	0.07701696
26	0x3db7d5b2	0.08976306
27	0x3bd9c275	0.0066454955
28	0x3d6bf28d	0.05760436
29	0x3df0306d	0.117279865
30	0xbd92061a	-0.0713007
31	0xbd6815f1	-0.05666155
32	0xbf524daf	-0.82149786
33	0xbe43e5cc	-0.1913063
34	0xbe80c779	-0.25152186
35	0xbd5fddc0	-0.054654837
36	0xbe0acb0a	-0.13554016
37	0xbdbcadc0	-0.09212828
38	0x3dd02e7f	0.101651184
39	0x3d8457e6	0.06462078
40	0x3d9585a3	0.0730088
41	0xbd9a0a72	-0.075215235
42	0xbe00d544	-0.12581354
43	0xbe41c157	-0.1892141
44	0x3cd4e4fc	0.025988095
45	0x3c98115d	0.018562967
46	0xbce54aa7	-0.027989699
47	0xbdefc443	-0.11707356
48	0x3dd67eec	0.10473427
49	0x3beb9bcc	0.0071902033
50	0x3e588fca	0.21148601
51	0x3d69f30a	0.057116546
52	0x3df2c31d	0.11853621
53	0xbec8ce7c	-0.39220035
54	0xbe632880	-0.22183418
55	0x3e071535	0.13191684
56	0x3e54b5fb	0.20772545
57	0xbd6693f0	-0.056293428
58	0xbe190dae	-0.14946625
59	0xbb746614	-0.0037292289
60	0xbdf583b2	-0.119880095
61	0xbe626df6	-0.2211226
62	0xb97fabe5	-0.00024382731
63	0x3e197774	0.14986974
64	0x3b9aff19	0.004730117
65	0x3da05f74	0.07830706
66	0xbe52186b	-0.20517127
67	0xbdb47c57	-0.088127784
68	0xbe0cde63	-0.13756709
69	0xbe254ce9	-0.1614262
70	0x3c308fe7	0.0107764965
71	0x3d99d2bb	0.07510897
72	0xbac5136a	-0.0015035693
73	0x3db2c32f	0.087286346
74	0xbea3e93c	-0.3201388
75	0xbe3e64c3	-0.18593125
76	0xbe90537f	-0.28188702
77	0xbc125c98	-0.008933209
78	0xbe477c01	-0.19480897
79	0xbd9fee0b	-0.07809075
80	0xbdb4d86d	-0.088303424
81	0xbe037d2d	-0.1284072
82	0xbe1e6d97	-0.15471493
83	0xbe1768d3	-0.14786081
84	0xbecb75a0	-0.39738178
85	0xbea8af0a	-0.32946044
86	0xbe57e737	-0.21084295
87	0xbe46228e	-0.19349119
88	0xbea89f69	-0.3293412
89	0x3e0c4ec0	0.13701916
90	0x3e0ed58c	0.13948649
91	0x3e863e13	0.26219234
92	0x3da5030e	0.08057223
93	0x3d883f4b	0.06652697
94	0xbd933b61	-0.0718906
95	0xbedfc263	-0.43702993
96	0xbd9c08ed	-0.0761889
97	0xbbf03dbc	-0.007331578
98	0x3e2309a2	0.15921643
99	0xbe7d9787	-0.24764834
100	0xbbbaaad1	-0.0056966324
101	0xbd4c02ea	-0.049807467
102	0xbe926a65	-0.28596798
103	0xbd2edb88	-0.04268983
104	0xbe8ca825	-0.27472034
105	0x3da0b7cd	0.07847557
106	0xbe840acf	-0.25789496
107	0xbd8ccfec	-0.068755955
108	0xbda20810	-0.07911694
109	0xbcb4cdf8	-0.02207087
110	0x3ea71bb5	0.32638326
111	0xbdce700d	-0.10079966
112	0x3b564659	0.003269574
113	0xbf38008e	-0.71875846
114	0xbd36a988	-0.04459527
115	0xbe409fd5	-0.18810971
116	0x3eb7e0a3	0.35913572
117	0xbeb9a25a	-0.36256677
118	0xbe0b8b1e	-0.13627288
119	0x3d8c8d26	0.068628594
120	0xbdd365f8	-0.10322183
121	0xbe1221c6	-0.14270696
122	0xbeed45b0	-0.4634223
123	0xbdca0d83	-0.098658584
124	0xbe1ef0a1	-0.1552148
125	0xbe1006dd	-0.14065118
126	0x3e2127b3	0.157378
127	0x3cf55e86	0.029952299
128	0xbe96279c	-0.29327095
129	0xbe3be32c	-0.18348378
130	0x3e05f931	0.1308334
131	0x3e896d2c	0.26841104
132	0xbe2b6b25	-0.16740091
133	0xbd437bd8	-0.04772553
134	0xbe6250fb	-0.22101204
135	0x3d557411	0.052112643
136	0xbe74e6c4	-0.23916155
137	0x3e71558a	0.23567787
138	0xbe01dc6a	-0.12681738
139	0x3da02503	0.078195594
140	0xbe3aa381	-0.18226434
141	0x3dbcb72b	0.09214624
142	0x3e2cd7b1	0.16879155
143	0x3ebeee37	0.37291119
144	0x3ded5978	0.115893304
145	0x3e007909	0.12546171
146	0x3e0b30dd	0.13592859
147	0xbd71ff65	-0.059081454
148	0xbd9a5c34	-0.075371176
149	0xbf587d58	-0.8456626
150	0xbb78f412	-0.0037987274
151	0xbd3a623e	-0.045503847
152	0x3e8b8848	0.27252412
153	0xbd31868b	-0.0433412
154	0xbdb0710a	-0.086153105
155	0xbe1f0b62	-0.15531686
156	0xbd659383	-0.05604888
157	0xbd34df55	-0.0441583
158	0xbd9512e3	-0.07278993
159	0x3d88ce04	0.06679919
160	0x3c678765	0.014131402
161	0xbe78bb55	-0.24290211
162	0x3e9639bd	0.29340926
163	0x3e560363	0.2089973
164	0x3ef9f061	0.48816207
165	0xba13901b	-0.00056290784
166	0xbe296b67	-0.16544877
167	0x3eed5932	0.46357113
168	0x3eb38bf1	0.35067704
169	0x3e866794	0.262509
170	0x3f25717b	0.6462628
171	0x3e325ac8	0.17417443
172	0x3e06532c	0.13117665
173	0xbdeb0826	-0.114761636
174	0x3d60805e	0.05480992
175	0xbe9afee1	-0.30272582
176	0x3ed416e0	0.41423702
177	0x3e1495ec	0.14510316
178	0x3e6dfcbc	0.23240942
179	0xbe80542d	-0.2506422
180	0xbee10ef9	-0.43956736
181	0xbe0f353e	-0.13985154
182	0xbe3ed966	-0.18637618
183	0xbe1e068b	-0.15432183
184	0xbe68a2ee	-0.22718403
185	0x3e25b648	0.16182816
186	0xbe48a60f	-0.19594596
187	0xbe1931bb	-0.14960377
188	0xbe889068	-0.26672673
189	0xbe8ea3c2	-0.27859312
190	0x3ee0147c	0.43765628
191	0x3e54fa15	0.20798524
192	0x3e4bcdbd	0.19902702
193	0x3dfe37fa	0.124130204
194	0x3f266dfe	0.65011585
195	0x3d3b9b0a	0.045802154
196	0x3d06f515	0.032948572
197	0x3e3f313f	0.1867113
198	0x3f0cbd0d	0.5497597
199	0x3f2356cc	0.63804317
200	0xbdb7b4e3	-0.08970048
201	0x3f6cf6f4	0.9256432
202	0x3f4273b6	0.7595781
203	0x3e047cda	0.12938252
204	0x3cb37b21	0.021909298
205	0x3ea0b352	0.3138681
206	0x3d8f5f08	0.07000548
207	0x3eacd23b	0.33754143
208	0x3e43107c	0.19049257
209	0x3db850db	0.08999797
210	0x3e29b376	0.16572365
211	0x3b496c3f	0.0030734686
212	0xbe5828ed	-0.21109362
213	0x3e36add1	0.17839743
214	0x3c97a9ff	0.018513678
215	0xbdf62964	-0.120196134
216	0x3d2ec7f0	0.042671144
217	0xbce59a16	-0.028027575
218	0x3e058915	0.13040574
219	0xbdf3b10d	-0.11899004
220	0xbd3309a9	-0.043710385
221	0x3d6663a9	0.056247387
222	0xbe53a251	-0.20667388
223	0xbddafd68	-0.10692865
224	0xbe01bbc0	-0.12669277
225	0x3cbe3225	0.02321727
226	0x3da53e25	0.08068494
227	0x3cf52aba	0.0299276
228	0x3d8cc6a7	0.068738274
229	0x3d950522	0.0727637
230	0x3d5ddb37	0.054164138
231	0x3d80d5e1	0.06290794
232	0x3e06adb0	0.13152194
233	0x3d8e5e0d	0.069515325
234	0x3bf82972	0.0075733
235	0xbcb489c3	-0.022038346
236	0x3d16b4f6	0.03679367
237	0xbc77ce08	-0.015124805
238	0xbd65160c	-0.05592923
239	0x3d10995d	0.03530251
240	0x3c9e8a11	0.019352945
241	0x39f6a7ae	0.00047045707
242	0x3c86ab48	0.016439095
243	0x3d672c0a	0.056438483
244	0xbbe37a92	-0.0069421018
245	0xbc40aae6	-0.011759495
246	0x3d25408f	0.04034477
247	0xbb7db3c3	-0.0038711883
248	0x3cf61edd	0.030044014
249	0x3d225988	0.039636165
250	0x3c9fab1f	0.019490777
251	0x3d037dc9	0.03210238
252	0x3d6357ef	0.055503782
253	0x3ddd56d9	0.108075805
254	0x3d20d3b5	0.0392644
255	0xbc3fb4fd	-0.011700866

local_map_cnn.0.bias f4 [32]
0	0xbca20c04	-0.01978112
1	0xbd4b9990	-0.049706995
2	0xbd8cb99d	-0.068713404
3	0xbe0a2df9	-0.134941
4	0x3c007196	0.007839581
5	0x3d1d2376	0.038363896
6	0xbb98d388	-0.0046638884
7	0xbd8865e3	-0.06660058
8	0xbce79fc0	-0.028274417
9	0xbe2cede0	-0.16887617
10	0xbbfe1347	-0.007753763
11	0xbcb016e1	-0.021495285
12	0xbcc9d7fc	-0.024639122
13	0xbd502043	-0.050812017
14	0xbd907c7f	-0.07054996
15	0xbe40eab1	-0.18839528
16	0xbd527678	-0.05138251
17	0xbbe18734	-0.0068825725
18	0x3bde32e4	0.006780969
19	0x3d94e84d	0.0727087
20	0xbe037a02	-0.12839511
21	0x3dc974b6	0.09836714
22	0xbc414a47	-0.011797494
23	0xbdb05592	-0.08610071
24	0xbdfbbb92	-0.122916356
25	0xbdb8af5f	-0.090178244
26	0xbd5fcfc4	-0.0546415
27	0xbd2f0be9	-0.042735968
28	0x3d2bf2ef	0.041979726
29	0x3c2fa3db	0.0107202185
30	0x3d94625b	0.07245322
31	0xbb8fb0b9	-0.0043850807

local_map_cnn.2.weight f4 [32, 32, 3, 3]
0	0x3eccbb96	0.39986867
1	0x3d9b7893	0.07591357
2	0x3cacead0	0.021108061
3	0x3d835bc0	0.06413984
4	0x3dcc6523	0.09980228
5	0x3e2a074a	0.16604343
6	0xbe9fced8	-0.31212497
7	0xbd8b091d	-0.067888476
8	0x3c84de00	0.01621914
9	0x3c2b00cb	0.010437201
10	0xbdc6f00c	-0.09713754
11	0xbd406837	-0.046974387
12	0xbd4b0c2b	-0.04957215
13	0xbdb042b0	-0.0860647
14	0xbd7d020d	-0.061769534
15	0x3d65ce2b	0.05610482
16	0xbd06c736	-0.032904826
17	0x3d37bc1b	0.044857126
18	0x3db9cd44	0.090723544
19	0xbe78ca77	-0.24295984
20	0x3df2a502	0.11847879
21	0x3e090698	0.13381422
22	0x3e2d3855	0.1691602
23	0xbce157e0	-0.027507722
24	0x3dde2a2d	0.10847888
25	0xbdba69b1	-0.0910219
26	0x3d809a27	0.06279402
27	0xbdb2be61	-0.08727718
28	0x3e7685e2	0.2407451
29	0x3d92ef85	0.07174591
30	0x3d059800	0.03261566
31	0x3e856033	0.26049957
32	0x3e83156e	0.25602287
33	0xbf1efe8d	-0.62107164
34	0xbe31357f	-0.17305563
35	0x3e6a25a8	0.22865927
36	0xbd1ab0db	-0.03776632
37	0xbd593b58	-0.05303511
38	0xbddc0e8c	-0.10744962
39	0x3d98193a	0.074266866
40	0xbef602de	-0.48049062
41	0xbcfc5f87	-0.03080727
42	0x3e4126d6	0.18862471
43	0x3c2439b7	0.010023526
44	0x3db43319	0.087988086
45	0xbd98723a	-0.07443662
46	0xbd56e2c2	-0.052462347
47	0x3e114e76	0.14190087
48	0xbc9d691b	-0.019215157
49	0xbe488613	-0.19582395
50	0xbc820338	-0.015870675
51	0x3cfb102e	0.030647364
52	0xbd59cf18	-0.053176016
53	0x3deafac5	0.11473612
54	0x3e41a4bf	0.18910502
55	0xbed5ed0a	-0.4178241
56	0x3ca13a32	0.01968107
57	0xbda4dd69	-0.08050043
58	0xbceb8ae4	-0.028752752
59	0xbe0c23a2	-0.13685468
60	0xbd918e68	-0.0710724
61	0xbe44c805	-0.19216926
62	0x3d494f9e	0.049148194
63	0x3e882282	0.26588827
64	0x3dd53367	0.10410195
65	0x3d0ada77	0.03389975
66	0x3db11eb5	0.08648435
67	0x3dfff2b9	0.124974675
68	0x3e343443	0.17598061
69	0xbcf56e1b	-0.029959729
70	0x3d81a78d	0.06330786
71	0x3dd2ed67	0.10299187
72	0x3e82af4d	0.2552437
73	0x3c6d4f71	0.014484272
74	0xbcaf8976	-0.021427851
75	0x3de18c5e	0.11013101
76	0x3e837650	0.25676203
77	0xbe3fc5e2	-0.1872783
78	0x3ea14ad8	0.31502414
79	0xbe078643	-0.1323481
80	0xbe017dcd	-0.12645645
81	0xba247684	-0.0006273764
82	0x3e0268ff	0.12735365
83	0x3d616ede	0.05503737
84	0xbbdea862	-0.006794975
85	0x3d2f1221	0.0427419
86	0x3e33180b	0.1748964
87	0x3dfcce08	0.12343985
88	0xbc9d3751	-0.019191416
89	0xbdb0b9d5	-0.08629195
90	0x3cab8b5f	0.02094048
91	0xbddccc95	-0.107812084
92	0x3e850e29	0.25987366
93	0x3e16a2d6	0.14710554
94	0xbd064a68	-0.032785803
95	0xbd94e732	-0.072706595
96	0xbac8c36c	-0.0015317029
97	0x3b9fcbd7	0.0048765945
98	0x3c0101e1	0.007873983
99	0x3f0b4af4	0.54411244
100	0x3cba6ce0	0.022756994
101	0x3da4720a	0.08029564
102	0xbdf57019	-0.119842716
103	0x3c7e4037	0.01551824
104	0xbde8dcd9	-0.11370248
105	0x3e509ac7	0.20371543
106	0xbe89a8f0	-0.26886702
107	0x3d26d180	0.04072714
108	0x3cfa7a4e	0.030575898
109	0xbe488ba0	-0.19584513
110	0x3d69e556	0.057103477
111	0x3e655989	0.22397436
112	0x3e46bbed	0.19407625
113	0xbe489453	-0.19587831
114	0xbc710bc6	-0.01471228
115	0xbe528c0c	-0.20561236
116	0xbc95e164	-0.018295951
117	0x3dad2a72	0.084553614
118	0x3d95ad3d	0.07308433
119	0x3cd6a669	0.026202397
120	0x3d69c705	0.057074565
121	0xbe425cd0	-0.18980718
122	0xbd39a664	-0.045324698
123	0x3e155924	0.14584786
124	0x3e0d8fde	0.13824412
125	0x3d3dda56	0.0463508
126	0xbcedf5fc	-0.029047959
127	0xbd59e4d1	-0.053196732
128	0xbd9e4019	-0.077270694
129	0xbd8fefb7	-0.07028144
130	0xbd24b0cd	-0.040207673
131	0x3aea5a95	0.0017879779
132	0xbda8be19	-0.08239383
133	0xbd4514f9	-0.048115704
134	0x3d10de27	0.03536811
135	0xbcc3d9d0	-0.023907572
136	0xbcedae75	-0.029013852
137	0xbd24e732	-0.040259548
138	0xbe02371d	-0.12716337
139	0xbdce6405	-0.10077671
140	0xbd74cb00	-0.05976391
141	0xbf16a87a	-0.58850825
142	0xbe003e5f	-0.12523793
143	0x3c80ff41	0.015746715
144	0x3d9b2a1f	0.07576393
145	0x3e1387c9	0.14407267
146	0x3cfe94ee	0.031076875
147	0x3dd20b09	0.10256011
148	0x3e9836de	0.2972936
149	0x3d92f615	0.07175843
150	0xbd69e0c3	-0.057099115
151	0x3ddf0d06	0.10891156
152	0x3e275261	0.16340019
153	0xbbde2eb5	-0.0067804703
154	0xb97befc6	-0.00024026548
155	0x3e00739f	0.12544106
156	0x3c816d65	0.015799234
157	0xbdea2bb9	-0.11434121
158	0x3e2df97e	0.16989705
159	0xbdd41479	-0.10355467
160	0x3daf0552	0.08545937
161	0x3d5134c5	0.051075716
162	0xbc4d3518	-0.012524866
163	0x3e55cfac	0.20880002
164	0x3e108f69	0.14117207
165	0x3da161d1	0.07879985
166	0xbd035e18	-0.032072157
167	0x3cf56dd1	0.029959591
168	0xbe214d06	-0.15752038
169	0xbb147aea	-0.002265627
170	0x3e1e3e45	0.15453441
171	0x3e7b64ea	0.24550214
172	0x3cc340c1	0.023834588
173	0x3e24d9ce	0.16098711
174	0xbdd785e1	-0.10523582
175	0xbe2ae47b	-0.16688721
176	0x3d0f3c9a	0.034969904
177	0x3d2688eb	0.04065792
178	0xbce3096c	-0.027714454
179	0x3e6133c8	0.21992409
180	0xbeb07fed	-0.344726
181	0x3e056eb0	0.13030505
182	0xbde660f4	-0.11248961
183	0x3b2dd7fa	0.0026526437
184	0xbd9606a2	-0.07325484
185	0x3d9a9d70	0.0754956
186	0xbb47d0eb	-0.0030489515
187	0xbddb3c23	-0.107048295
188	0x3e0339cb	0.12815015
189	0x3df575af	0.11985337
190	0x3d8efddd	0.06982014
191	0x3dbe3a27	0.092884354
192	0xbd472a52	-0.048624344
193	0xbcd627b1	-0.026141973
194	0xbdff2012	-0.12457289
195	0xbe1433d2	-0.14472893
196	0xbe83fc52	-0.25778443
197	0xbe41ecfa	-0.18938056
198	0x3d71b242	0.05900789
199	0xbbc68e92	-0.006059476
200	0x3e0f767b	0.1401004
201	0xbd44ebfb	-0.04807661
202	0x3d0e8219	0.03479204
203	0xbd9eb3db	-0.077491485
204	0xbcd62fa7	-0.02614577
205	0xbdcbc721	-0.0995009
206	0xbdc04efd	-0.09390066
207	0xbd3eec94	-0.046612337
208	0xbe614489	-0.219988
209	0xbc5b5678	-0.013387315
210	0x3ddd4fba	0.10806222
211	0xbe7ffd25	-0.2499891
212	0x3d26bb95	0.040706236
213	0x3e8e3656	0.2777583
214	0xbdd9ccc2	-0.106347576
215	0xbbcb4b5f	-0.0062040533
216	0xbe593562	-0.2121177
217	0x3cd4774f	0.025935797
218	0xbd8c3ec7	-0.06847911
219	0x3c490d58	0.012271248
220	0x3ec46af9	0.38362864
221	0x3cefc442	0.029268388
222	0xbd569977	-0.05239245
223	0x3e039530	0.1284988
224	0x3d25656c	0.040379927
225	0x3db70bf2	0.08937825
226	0xbd1c3ace	-0.038142018
227	0x3da9f26a	0.0829819
228	0x3d72d593	0.05928571
229	0x3d5dbd7c	0.054135785
230	0x3e35459a	0.17702332
231	0x3d84b072	0.06478967
232	0xbe22059e	-0.15822455
233	0x3db1df46	0.08685164
234	0xbde833c3	-0.11337998
235	0xbc802a8e	-0.015645292
236	0x3e460679	0.19338407
237	0xbe94a87b	-0.2903479
238	0xbdbbac24	-0.091636926
239	0xbec2c9e4	-0.38044655
240	0x3e76e61f	0.24111222
241	0x3d776cc4	0.06040646
242	0xbd1e0fb5	-0.0385892
243	0x3d8c57b9	0.06852669
244	0xbea1b3f1	-0.31582597
245	0x3db9504b	0.09048518
246	0xbe6af1cd	-0.22943802
247	0xbf021197	-0.5080809
248	0xbe702511	-0.2345164
249	0xbe4a0b0b	-0.19730775
250	0x3dd0c4a8	0.10193759
251	0x3e33daec	0.17563981
252	0x3d4a90a2	0.04945434
253	0x3d9e2c7d	0.07723329
254	0x3d14616b	0.036225718
255	0x3d7e3501	0.062062267

local_map_cnn.2.bias f4 [32]
0	0xbd9f2813	-0.077713154
1	0x3bdf2f29	0.006811042
2	0xbc2acaa9	-0.0104242945
3	0xbc607cff	-0.013701676
4	0xbe4b58df	-0.1985812
5	0xbe7f3e27	-0.24926053
6	0xbe38cc0c	-0.18046588
7	0xbcd62920	-0.026142657
8	0xbe2cdf76	-0.16882119
9	0xbdbbb5af	-0.09165513
10	0xbe282d41	-0.16423513
11	0xbe3f6fce	-0.18694994
12	0xbeb320bf	-0.3498592
13	0x3d01b957	0.031670894
14	0xbd816dcc	-0.0631977
15	0x3e18e212	0.14929989
16	0xbed7cd9c	-0.42149055
17	0xbd0a5e30	-0.03378123
18	0xbe05ddfd	-0.13072963
19	0xbdb11169	-0.08645899
20	0xbddd7ff6	-0.10815422
21	0xbe1695ca	-0.14705577
22	0xbe02c3bf	-0.12769984
23	0xbe2c1716	-0.16805682
24	0x3b380eb6	0.002808494
25	0x3dbefb9f	0.09325337
26	0xbe6d499e	-0.23172614
27	0xbea8ddfb	-0.32981858
28	0x3d344cf5	0.044018704
29	0xbe670c8d	-0.22563381
30	0xbe937bed	-0.28805485
31	0xbec43dea	-0.38328487

local_map_cnn.4.weight f4 [32, 32, 3, 3]
0	0x3db036b9	0.086041875
1	0xbe832e84	-0.25621426
2	0x3da7ae88	0.08187586
3	0x3e19f1cc	0.15033644
4	0x3c1bc3c1	0.009507121
5	0xbdc033d9	-0.09384889
6	0xbe4f7b80	-0.20261955
7	0xbe4bc7e6	-0.19900474
8	0xbe310756	-0.17287955
9	0x3e8c4c56	0.2740199
10	0xbe9e8f8b	-0.3096889
11	0x3e10ed38	0.14152992
12	0x3d597f48	0.0530999
13	0xbf0a19a1	-0.53945357
14	0xbe980e40	-0.29698372
15	0xbe2c08f2	-0.16800287
16	0x3ef6e111	0.48218587
17	0xbe921cbc	-0.28537548
18	0xbe46fdfa	-0.19432822
19	0x3d292de9	0.04130355
20	0xbd5b532a	-0.05354611
21	0xbe06bb01	-0.13157274
22	0x3dc2d9ba	0.09514184
23	0xbe24a0f4	-0.16077024
24	0x3c2b5741	0.010457815
25	0xbeb1c595	-0.34721056
26	0x3d05bfb3	0.03265352
27	0xbc4971c0	-0.0122951865
28	0xbca10f0c	-0.019660495
29	0x3c06bf8c	0.008224379
30	0xbdd1cfc5	-0.10244707
31	0xbf1c079f	-0.6094913
32	0x3e226a8e	0.1586096
33	0xbd553308	-0.05205062
34	0xbdca1866	-0.09867935
35	0xbdca4006	-0.09875493
36	0x3c2dfeb9	0.010619813
37	0x3d552b9d	0.052043546
38	0x3d431f13	0.047637057
39	0xbd996778	-0.07490438
40	0xbe581bbf	-0.21104334
41	0xbdfcdaaa	-0.12346394
42	0x3cfb0371	0.03064129
43	0xbdd68172	-0.104739085
44	0x3dcb73d7	0.09934204
45	0x3e46bb8f	0.19407485
46	0x3d9ebcba	0.077508405
47	0x3daded58	0.08492535
48	0xbe828951	-0.2549539
49	0xbe2f2c90	-0.17106843
50	0xbe49a318	-0.19691122
51	0xbda74bb2	-0.081687346
52	0xbc48bad4	-0.012251575
53	0xbe1bce20	-0.15215349
54	0xbcc3f366	-0.023919772
55	0x3d380abe	0.04493212
56	0x3d8c90eb	0.068635784
57	0xbd69037b	-0.056888085
58	0xbeb213c1	-0.34780696
59	0xbc994ca3	-0.018713301
60	0x3cdb7cd1	0.026792916
61	0x3dc3ccaf	0.09560525
62	0x3e69b6a9	0.22823586
63	0xbd1df297	-0.03856143
64	0xbc11a4bd	-0.008889374
65	0x3dfd2751	0.12361015
66	0xbdcea4c7	-0.100900225
67	0x3d6a4b74	0.057200864
68	0x3ebdc179	0.3706167
69	0xbddb5064	-0.10708693
70	0xbe817dbf	-0.2529125
71	0xbeabd809	-0.3356326
72	0xbd909563	-0.07059743
73	0xbd7b0098	-0.061279863
74	0xbe97155f	-0.29508492
75	0x3e06a70a	0.13149658
76	0x3ef15a42	0.47139174
77	0x3c751a7f	0.01495993
78	0x3d37e8ba	0.04489968
79	0xbf04b76a	-0.5184237
80	0x3de7d04a	0.11319025
81	0xbf1550c5	-0.5832637
82	0xbe54efda	-0.20794621
83	0x3c22418c	0.009903323
84	0xbdf36ee5	-0.11886386
85	0x3e1383e7	0.14405786
86	0xbe026507	-0.12733851
87	0x3d1bb049	0.038009916
88	0x3d502bc8	0.050823003
89	0x3e4d93cf	0.20075916
90	0x3dd3f03d	0.10348556
91	0x3d85a708	0.06525999
92	0x3e5ac887	0.21365558
93	0xbe5e003c	-0.21679777
94	0xbd0824ba	-0.03323815
95	0x3e180f6d	0.14849634
96	0xbb0e9627	-0.0021756978
97	0xbe4ecfe2	-0.20196488
98	0x3c9d6430	0.019212812
99	0x3e8e0fef	0.2774653
100	0xbdb28371	-0.08716477
101	0xbddfea83	-0.109334014
102	0x3cca18b1	0.024669977
103	0xbd612039	-0.05496237
104	0x3bf9878a	0.0076150345
105	0xbe2ec75d	-0.17068239
106	0x3dac43cd	0.084113695
107	0x3c671b67	0.014105654
108	0x3ca8eb86	0.020620119
109	0x3ce3a6b1	0.027789446
110	0x3e158f17	0.14605366
111	0x3e0d5ff7	0.13806139
112	0xbe64997a	-0.22324172
113	0x3e1e2be0	0.15446424
114	0xbda46011	-0.08026136
115	0xbdab1d45	-0.08355192
116	0x3dfb95bb	0.12284418
117	0x3e2ff8bf	0.17184733
118	0x3d94fd03	0.07274821
119	0x3ea20766	0.3164627
120	0x3cd828b2	0.026386593
121	0xbe87977d	-0.26482764
122	0x3db269ec	0.08711609
123	0xbcea9b31	-0.028638454
124	0xbdc6a9a5	-0.09700326
125	0xbe1e7838	-0.15475547
126	0x3d451524	0.048115864
127	0xbe04f8d5	-0.12985547
128	0x3e845b30	0.2585082
129	0x3e5c604e	0.21521112
130	0x3d0e5ae5	0.034754653
131	0xbd90f045	-0.07077078
132	0xbdd8327b	-0.105565034
133	0xbebfac12	-0.37435967
134	0xbda981b2	-0.082766905
135	0x3e317d79	0.1733302
136	0xbe82d2dc	-0.25551498
137	0x3ce9c7ec	0.028537713
138	0xbdcbfdbb	-0.099605046
139	0xbeb8ddd2	-0.36106735
140	0xbe42a54c	-0.19008368
141	0xbe69fc69	-0.22850193
142	0xbe867c27	-0.26266596
143	0xbde74958	-0.11293286
144	0x3d9dc6d9	0.07703943
145	0x3e7eda58	0.24887979
146	0x3deb4c01	0.11489106
147	0xbda139bb	-0.07872339
148	0xbea1c3c5	-0.31594673
149	0xbd008d00	-0.031384468
150	0xbd95f41d	-0.073219515
151	0x3de222fa	0.110418275
152	0x3dfc097a	0.12306495
153	0x3dbdd873	0.092698
154	0xbcff5dd8	-0.031172678
155	0xbca7a756	-0.020465534
156	0x3c539ee5	0.012916301
157	0xbe166e8d	-0.1469061
158	0xbe904c4d	-0.28183213
159	0xbd5a49e9	-0.053293142
160	0x3e0881c7	0.13330756
161	0xbd0a1e49	-0.03372029
162	0x3e166866	0.14688262
163	0xbe6cf880	-0.2314167
164	0xbdb9cd64	-0.09072378
165	0xbd75c471	-0.060001794
166	0xbb2d2cc5	-0.002642439
167	0xbe562972	-0.20914248
168	0xbc9f6d5c	-0.019461326
169	0x3e257db8	0.16161239
170	0xbdb6967b	-0.089154206
171	0xbd7a4e5e	-0.061109893
172	0x3e462537	0.19350134
173	0x3ef49b45	0.4777471
174	0xbcf6ffdc	-0.0301513
175	0xbefb8c66	-0.49130553
176	0xbe9c58ed	-0.30536595
177	0xbe1e7012	-0.15472439
178	0xbdb3bb4b	-0.08775958
179	0x3e04e8c0	0.12979412
180	0xbed6d447	-0.4195883
181	0xbbe6eeac	-0.007047495
182	0x3d854856	0.065079376
183	0xbd8b8540	-0.06812525
184	0x3dd8d1ea	0.10586913
185	0xbd88fd77	-0.066889696
186	0x3d26e623	0.04074682
187	0xbe8cf616	-0.275315
188	0x3d1d397d	0.038384903
189	0x3d7d5e0d	0.061857272
190	0xbcb06ca4	-0.021536179
191	0x3d86ad16	0.06575982
192	0x3e0ba65c	0.1363768
193	0xbe9bcc9c	-0.30429542
194	0x3d36f1f6	0.044664346
195	0x3e7c8de3	0.246635
196	0xbd24a5d2	-0.0401972
197	0x3df4e30d	0.11957369
198	0xbdfcda02	-0.12346269
199	0xbdf52ab8	-0.119710386
200	0xbe087d23	-0.13328986
201	0xbc7bb51d	-0.015363005
202	0x3e253c50	0.16136289
203	0x3a913e40	0.0011081174
204	0x3e07e0d7	0.13269363
205	0xbc736712	-0.014856117
206	0xbead9153	-0.33899936
207	0x3e2e7531	0.17036892
208	0x3e738de5	0.23784597
209	0x3e8a05e2	0.26957613
210	0xbe35f316	-0.17768511
211	0xbf0d19f1	-0.5511771
212	0xbe6427e1	-0.22280838
213	0xbdfcc18c	-0.12341604
214	0xbe210cac	-0.1572749
215	0xbc3b0962	-0.011415811
216	0xbe5ed49d	-0.21760793
217	0x3e3449b6	0.17606243
218	0xbe2a0ec8	-0.16607201
219	0xbcb84ae8	-0.022496656
220	0xbdd7a971	-0.10530365
221	0x3e3a6f19	0.18206443
222	0x3dff3692	0.1246158
223	0x3e0d3798	0.13790739
224	0xbdd40913	-0.10353293
225	0xbce48e72	-0.027899954
226	0x3caff37b	0.021478405
227	0xbdf0acb3	-0.1175169
228	0x3e0d7b48	0.1381656
229	0x3e11a859	0.14224376
230	0xbdd70664	-0.10499266
231	0x3e09a87c	0.13443178
232	0x3e441e8e	0.1915228
233	0x3dc06500	0.09394264
234	0xbdc88455	-0.09790865
235	0xbe5c7635	-0.21529467
236	0xbc91fa81	-0.017819645
237	0xbd3edcfd	-0.04659747
238	0xbd55cdb8	-0.05219814
239	0xbc981a45	-0.018567214
240	0xbd3b1100	-0.04567051
241	0xbe00a765	-0.12563856
242	0x3dd6f824	0.10496548
243	0x3c1168df	0.008875101
244	0xbcc232ff	-0.023705957
245	0xbdc19615	-0.09452454
246	0x3d3d35c1	0.04619384
247	0xbd6aaa66	-0.05729141
248	0xbda6c2dd	-0.08142636
249	0x3e0b8a30	0.13626933
250	0x3d9e965d	0.07743523
251	0xbd7da380	-0.061923504
252	0x3bdc5d23	0.00672497
253	0x3d8f0f7d	0.06985376
254	0x3dc9195e	0.098192915
255	0x3c167d83	0.009185198

local_map_cnn.4.bias f4 [32]
0	0xbc3b672d	-0.011438173
1	0x3cce9813	0.025218999
2	0xbe69afa9	-0.22820915
3	0xbf0ea0a8	-0.5571389
4	0xbda29ca3	-0.07940032
5	0xbe51e1ae	-0.20496246
6	0xbd8b5f29	-0.0680526
7	0xbe634ea3	-0.22197966
8	0x3e43daff	0.19126509
9	0x3ba78e37	0.005113389
10	0x3d12788b	0.03575949
11	0xbe00d132	-0.12579802
12	0x3dda6a44	0.106648
13	0x3e5d57f4	0.21615583
14	0xbec4805e	-0.38379186
15	0x3e3d10dd	0.18463464
16	0xbeb17719	-0.34661177
17	0x3c51c90b	0.01280428
18	0xbd9810dd	-0.074250914
19	0xbe85c59c	-0.26127326
20	0xbe60cefc	-0.21953958
21	0xbe006c07	-0.12541209
22	0xbd9375b8	-0.072001874
23	0xbe8c1134	-0.27356875
24	0xbe64607b	-0.2230243
25	0x3e1815a7	0.1485201
26	0xbe64ed17	-0.22356068
27	0x3c650d63	0.013980242
28	0x3cf833ea	0.030298192
29	0xbddeb293	-0.10873904
30	0xbc5b8915	-0.013399382
31	0xbe0c6877	-0.13711725

local_map_fc.weight f4 [64, 512]
0	0xbd9afc6b	-0.07567676
1	0xbea1cb3d	-0.3160037
2	0xbe8c4529	-0.27396515
3	0xbe1cca36	-0.15311512
4	0x3dc09c7e	0.094048485
5	0xbe94155d	-0.2892255
6	0xbe7095e7	-0.23494683
7	0xbdda8eb0	-0.10671747
8	0x39719893	0.0002304039
9	0xbe2cf7ea	-0.16891447
10	0xbe4b41de	-0.19849345
11	0x3de8262b	0.11335405
12	0xbdc85606	-0.09782033
13	0xbd971309	-0.073766775
14	0x3c9700d3	0.01843301
15	0xbe642f2f	-0.22283624
16	0xbe11356d	-0.14180537
17	0xbd7bb015	-0.06144722
18	0xbddf852e	-0.10914074
19	0xbc901e91	-0.0175927
20	0xbdf15b23	-0.11784961
21	0xbd1d86f1	-0.03845877
22	0x3cf821de	0.030289587
23	0x3d54389b	0.051811796
24	0xbe3d26fd	-0.18471904
25	0x3d8fc912	0.07020773
26	0xbd0eaeb6	-0.034834586
27	0xbe44ceb9	-0.19219483
28	0xbd6f7a6c	-0.05846636
29	0x3e1aa5ef	0.15102361
30	0x3d8c4662	0.06849362
31	0x3d8563e2	0.06513192
32	0xbd50a32d	-0.050936867
33	0x3c4a422e	0.01234488
34	0xbced86b6	-0.0289949
35	0xbe17f8c9	-0.14840998
36	0xbda5e129	-0.080995865
37	0xbbed363f	-0.0072391327
38	0x3cf934fd	0.030420775
39	0x3d11b26b	0.035570543
40	0xbe8482ac	-0.25880945
41	0xbe94283e	-0.28936952
42	0xbd080bc6	-0.033214353
43	0xbd75106b	-0.05983011
44	0xbd1aeedf	-0.03782546
45	0x3e11a7be	0.14224145
46	0xbd9e49b3	-0.07728901
47	0x3e2a576a	0.16634908
48	0x3dfb9596	0.12284391
49	0xbe8377ce	-0.2567734
50	0xbd241788	-0.040061504
51	0x3db9daf0	0.09074962
52	0xbdb48674	-0.088147074
53	0xbe01f942	-0.1269274
54	0x3d2f1844	0.04274775
55	0xbdde4d9c	-0.108546466
56	0xbe2f5eff	-0.17126082
57	0x3e193de7	0.1496502
58	0xbe05c457	-0.13063179
59	0xbe82c9df	-0.2554464
60	0xbcba7a6b	-0.022763452
61	0xbe10f339	-0.14155282
62	0xbdaf3fd8	-0.08557099
63	0xbea2188c	-0.31659353
64	0xbe69d9d2	-0.22836998
65	0xbd915058	-0.070954025
66	0x3d6d620c	0.057954833
67	0xbe43d5d8	-0.19124544
68	0xbeca9fc7	-0.39575025
69	0xbe07a62f	-0.13246988
70	0xbea4a8ed	-0.3216013
71	0xbdb68280	-0.0891161
72	0x3dc9c194	0.09851375
73	0x3c02f125	0.007992064
74	0xbe2cd547	-0.16878234
75	0xbeb4d9bc	-0.35322368
76	0xbce888f5	-0.028385619
77	0x3dbd5682	0.09245016
78	0x3d95f504	0.07322124
79	0x3ae3f4d9	0.0017391696
80	0xbd0e1193	-0.03468473
81	0xbe1701fa	-0.14746848
82	0xbe3eafbf	-0.1862173
83	0xbe14a31b	-0.14515345
84	0xbe820d4a	-0.25400764
85	0xbe7531a3	-0.23944716
86	0x3d960a11	0.07326139
87	0x3e1ee715	0.15517838
88	0xbe07dc41	-0.13267614
89	0xbaaabbbf	-0.0013025923
90	0xbe97c49a	-0.29642183
91	0x3e266e61	0.16253044
92	0xbd9a03ac	-0.075202316
93	0xbe19c9ea	-0.1501843
94	0xbe3b3010	-0.18280053
95	0xbd9528f6	-0.07283203
96	0xbe0cf3e0	-0.13764906
97	0x3da5f5f6	0.08103554
98	0x3d6f6a83	0.058451187
99	0xbe8de57f	-0.27714154
100	0xbd769a84	-0.06020595
101	0x3dc3b8b1	0.095567115
102	0xbd78ad86	-0.06071236
103	0x3de35c64	0.111016065
104	0x3ddd049b	0.10791894
105	0x3e20a4a8	0.15687811
106	0xbdbe3d62	-0.092890516
107	0xbe426e2b	-0.18987338
108	0xbdfad642	-0.12247898
109	0xbdb605ac	-0.088878006
110	0xbbbd8813	-0.0057840436
111	0xbd9173b1	-0.071021445
112	0xbd935b11	-0.07195104
113	0x3db93270	0.09042823
114	0xbd1250ad	-0.03572147
115	0xbe9e751b	-0.3094872
116	0xbe53c199	-0.2067932
117	0xbe41aa34	-0.18912584
118	0x3e615383	0.22004513
119	0x3ea90724	0.3301326
120	0xbded7772	-0.11595048
121	0xbdfc3fce	-0.12316857
122	0xbe461bbe	-0.1934652
123	0x3d020375	0.031741578
124	0xbdea32fc	-0.11435506
125	0xbe2c7c9f	-0.16844414
126	0xbdea6556	-0.114451095
127	0xbe235f1e	-0.15954253
128	0xbc3a3c73	-0.011366951
129	0xbeef36a5	-0.46721378
130	0xbeaa3bb5	-0.33248678
131	0xbea6b650	-0.32560968
132	0xbe17355a	-0.14766446
133	0xbe93f9ae	-0.28901428
134	0xbe5b9b92	-0.21446064
135	0x3dd77c5f	0.10521769
136	0xbe1268b9	-0.14297761
137	0xbe64d261	-0.22345878
138	0xbeb9ceac	-0.3629049
139	0xbe74f83e	-0.23922822
140	0xbda59f41	-0.08087016
141	0xbd570e87	-0.05250409
142	0x3beb1075	0.0071735927
143	0xbec1c10c	-0.37842596
144	0xbe24a4b9	-0.16078462
145	0xbe0285c0	-0.12746334
146	0xbeb1adcc	-0.3470291
147	0xbebaa9b2	-0.36457592
148	0xbd4f67a9	-0.050635967
149	0xbd0200c6	-0.03173902
150	0xbed30232	-0.41212612
151	0xbec1917a	-0.37806302
152	0xbdb5dd2d	-0.088800766
153	0x3e0121cb	0.12610547
154	0xbc10f689	-0.008847841
155	0xbd72c9d6	-0.059274517
156	0xbe60e4ec	-0.21962327
157	0xbe6fa897	-0.23404156
158	0x3cc7bbf7	0.02438162
159	0xbdeb343c	-0.11484572
160	0x3ea1d559	0.31608084
161	0xbd19f80e	-0.03759008
162	0x3c66f7d8	0.0140971765
163	0xbdc3855a	-0.09546919
164	0xbe83b173	-0.2572132
165	0xbdfc1f76	-0.12310688
166	0x3d354107	0.044251468
167	0xbe757eb6	-0.23974118
168	0xbe89c610	-0.26908922
169	0xbe577333	-0.21040039
170	0x3e3e7afd	0.18601604
171	0x3e40171d	0.18758817
172	0xbecfad60	-0.40561962
173	0xbe781996	-0.2422851
174	0x3e1b3506	0.15156946
175	0x3d9dc329	0.077032395
176	0xbda4d718	-0.080488384
177	0xbe1ed646	-0.15511426
178	0xbe6781db	-0.2260813
179	0xbd816b08	-0.06319243
180	0xbe2b59e0	-0.16733503
181	0xbe9b815c	-0.3037213
182	0xbe235994	-0.1595214
183	0xbd8eb70b	-0.069685064
184	0xbe0fa6da	-0.14028493
185	0xbe891b46	-0.2677862
186	0xbde819b7	-0.1133303
187	0x3c9ec7cb	0.019382378
188	0x3db0cd2a	0.08632882
189	0x3da0b7a7	0.07847529
190	0xbe1469d2	-0.14493492
191	0x3e53889b	0.2065758
192	0x3c1df2bc	0.009640392
193	0xbdb24d34	-0.087061316
194	0xbe73c904	-0.2380715
195	0xbf065d67	-0.5248627
196	0xbe5ab1b3	-0.2135685
197	0x3c1cbbb1	0.0095662335
198	0x3dbb4405	0.09143833
199	0xbede0741	-0.4336491
200	0xbdd67b11	-0.10472692
201	0x3de91082	0.11380102
202	0x3d45fb3d	0.048335303
203	0xbe778899	-0.24173202
204	0xbd37f90a	-0.044915237
205	0xbe3e838c	-0.18604869
206	0xbdbc4969	-0.091936894
207	0x3dd8d36b	0.105872
208	0xbed2767f	-0.4110603
209	0xbe1f6f94	-0.15569907
210	0xbe135ff8	-0.14392078
211	0x3e0041ab	0.1252505
212	0xbe0d6c36	-0.1381081
213	0xbe6a38af	-0.22873186
214	0x3cb2c937	0.021824462
215	0x3dba61d3	0.0910069
216	0xbd98d770	-0.074629664
217	0xbdd41495	-0.10355488
218	0x3dafba2b	0.085804306
219	0x3b41d90f	0.002957884
220	0xbd77cb92	-0.060496874
221	0xbdcb77c8	-0.09934956
222	0xbb059a05	-0.0020385992
223	0xbe5154b8	-0.20442474
224	0xbd80f3e0	-0.062965155
225	0xbca5b10d	-0.020226026
226	0xba2b1b02	-0.0006527157
227	0x3eb333ef	0.3500056
228	0x3d71b521	0.05901063
229	0xbd1d9ccb	-0.038479608
230	0x3d0142c6	0.03155782
231	0xbc05f872	-0.00817691
232	0xbcc4488d	-0.023960376
233	0xbe8fe7c4	-0.2810651
234	0x3db0effd	0.08639524
235	0xbe8df571	-0.2772632
236	0xbe832e5b	-0.25621304
237	0xbdec5ea6	-0.1154149
238	0xbc4f49bb	-0.012651856
239	0xbd267c54	-0.040645912
240	0xbd3f9ced	-0.046780515
241	0x3c8b18c2	0.016979579
242	0xbe3dde79	-0.18541898
243	0xbd4a417d	-0.04937886
244	0xbe42dc5a	-0.1902937
245	0xbe33c90f	-0.17557167
246	0xbe702b29	-0.23453964
247	0xbc490944	-0.0122702755
248	0xbeb233c0	-0.34805107
249	0xbeb415af	-0.35172793
250	0xbed2288f	-0.4104657
251	0xbe181021	-0.14849903
252	0xbde44400	-0.111457825
253	0x3afc6802	0.0019257071
254	0xbdf578c4	-0.11985925
255	0xbd944fec	-0.072418064

local_map_fc.bias f4 [64]
0	0xbe694910	-0.22781777
1	0xbe54cf6c	-0.2078225
2	0xbca77fd6	-0.0204467
3	0xbd1f5ccc	-0.038906857
4	0xbe1d00d7	-0.15332352
5	0xbe7827bb	-0.24233906
6	0xbd461ee4	-0.048369303
7	0x3d165071	0.03669781
8	0xbd4d2e97	-0.05009326
9	0xbdb8c3ac	-0.090216964
10	0xbd8fd439	-0.070229
11	0xbdc0997b	-0.09404274
12	0x3dfc243d	0.123115994
13	0xbe1f150e	-0.15535375
14	0xbcc0b7f2	-0.023525212
15	0x3d507e61	0.050901774
16	0x3d318d47	0.043347623
17	0x3d316198	0.043305963
18	0xbdeb24c7	-0.11481624
19	0x3c6dcad1	0.014513687
20	0xbe04e2c2	-0.12977126
21	0xbe28b254	-0.16474277
22	0x3e199430	0.14997935
23	0x3d18ba85	0.037287254
24	0xbd918a6e	-0.071064815
25	0xbe8422e2	-0.25807863
26	0x3cb92e8c	0.022605203
27	0x37cb728d	2.4252828e-05
28	0x3dc7ff30	0.0976547
29	0x3d0b1f55	0.033965427
30	0xbd7bfabc	-0.061518416
31	0xbea1afce	-0.3157944
32	0x3e48a5ab	0.19594447
33	0xbdb7669b	-0.08955117
34	0x3d9ebe38	0.07751125
35	0xbc853d47	-0.01626457
36	0xbd9a5bdc	-0.07537052
37	0x3daa7a70	0.08324134
38	0x3ea4e1bf	0.3220348
39	0xbd42129e	-0.047381036
40	0xbd2097c4	-0.039207235
41	0xbded97d2	-0.11601223
42	0x3c8cf95f	0.017208753
43	0x3e0c4501	0.13698198
44	0x3de9b419	0.11411304
45	0x3e64acf7	0.22331606
46	0xbe036a23	-0.12833457
47	0xbe245edc	-0.16051811
48	0xbe35fa74	-0.17771322
49	0xbe40ff0e	-0.18847296
50	0xbe50e814	-0.20401031
51	0xbe26f8bd	-0.16305824
52	0x3e4f3ef8	0.20238864
53	0xbebe0f45	-0.37121025
54	0xbd8b87b9	-0.068129964
55	0x3dc785ea	0.09742339
56	0xbcc0c708	-0.023532405
57	0xbeb050d6	-0.34436673
58	0x39e5fb1e	0.0004386538
59	0xbdd22569	-0.10261042
60	0xbdf014e5	-0.11722735
61	0x3dc6b8fa	0.0970325
62	0xbacc3d2b	-0.0015582194
63	0x3e01a478	0.12660396

self_entity_fc1.weight f4 [32, 26]
0	0x3ec3e642	0.3826161
1	0xbd88c0be	-0.06677388
2	0x3cf196d6	0.02949087
3	0xbc9cf0a3	-0.019157713
4	0x3ca7304b	0.02040877
5	0x3b15da5f	0.0022865755
6	0x3d9db295	0.077000774
7	0xbe9f6d13	-0.31137905
8	0xbd8bb932	-0.068224326
9	0xbde1227e	-0.10992907
10	0xbe51bc66	-0.20482025
11	0xbf50fa2b	-0.81631726
12	0x3e375631	0.17903973
13	0xbe590535	-0.21193393
14	0x3e6d6931	0.23184659
15	0x3e2c1637	0.1680535
16	0xbe9c7cdb	-0.30564007
17	0xbe52e194	-0.20593864
18	0x3cd6c2f8	0.026216015
19	0xbd7504ae	-0.059818916
20	0xbcddbbab	-0.027067026
21	0x3eae191c	0.34003532
22	0xbe0d6ea6	-0.1381174
23	0x3e3d19a9	0.1846682
24	0xbb25c91a	-0.0025296868
25	0x3d567201	0.052354816
26	0xbef1f1d9	-0.47254828
27	0xbde138fa	-0.109971955
28	0x3aa79eee	0.0012788454
29	0x3e452235	0.1925133
30	0x3e4254a7	0.18977605
31	0xbe2721d4	-0.16321498
32	0x3e39f9c3	0.18161683
33	0xbdf409dd	-0.11915944
34	0xbe070c7c	-0.13188356
35	0x3cb804bc	0.022463195
36	0xbe2563bf	-0.16151331
37	0xbc292aae	-0.010325117
38	0xbcef47c2	-0.029209021
39	0x3d083167	0.03325024
40	0x3e66eca2	0.22551206
41	0x3e1ba5c6	0.15199956
42	0x3dfc08f1	0.12306393
43	0x3ca95505	0.020670423
44	0xbce937fc	-0.028469078
45	0x3cbcef05	0.023063192
46	0xbc664c57	-0.014056287
47	0x3dd9b69a	0.106305316
48	0xbd3bb88b	-0.04583029
49	0xbc852ba7	-0.016256167
50	0x3db42b73	0.0879735
51	0x3e41221e	0.18860671
52	0xbd16fc87	-0.036861923
53	0xbdefa3a9	-0.117011376
54	0x3d989bf5	0.074516214
55	0xbe41a22e	-0.18909523
56	0x3da1790c	0.07884416
57	0xbf1d9237	-0.6155123
58	0xbef3cf9e	-0.47619337
59	0x3e077f94	0.13232261
60	0x3da3e0b0	0.0800184
61	0xbd804785	-0.06263641
62	0xbef477c1	-0.47747615
63	0xbd51f17c	-0.051255688
64	0xbd9a7e4e	-0.07543622
65	0x3cc16f46	0.02361263
66	0x3d93c581	0.07215405
67	0x3e68d875	0.22738822
68	0x3de998b5	0.1140608
69	0x3d14cc8d	0.036327887
70	0x3c8c759f	0.01714593
71	0x3de4df67	0.11175423
72	0x3d871f81	0.06597806
73	0x3deafcd8	0.11474007
74	0x3e381d9c	0.17980045
75	0xbddd610a	-0.10809524
76	0xbd23c6bd	-0.039984453
77	0xbe08bfb0	-0.13354373
78	0xbde2b408	-0.110694945
79	0xbd3a287c	-0.045448765
80	0x3dc246aa	0.09486134
81	0xbdd87d7c	-0.10570809
82	0xbdf7a9df	-0.12092947
83	0x3e565964	0.20932537
84	0x3e4cef39	0.20013131
85	0xbd8adee6	-0.06780796
86	0x3f56753b	0.8377263
87	0x3e983b15	0.29732576
88	0x3da623eb	0.081123196
89	0xbd99495d	-0.07484696
90	0x3b89544c	0.004190957
91	0x3e7878a5	0.24264772
92	0xbd80699e	-0.06270145
93	0xbe548fc1	-0.20757963
94	0x3e407464	0.187944
95	0x3e5bafe3	0.21453814
96	0xbe2c6350	-0.1683476
97	0xbd78583d	-0.060631026
98	0x3e82ac09	0.25521877
99	0xbdebe318	-0.11517924
100	0xbe1d0039	-0.15332116
101	0x3d1c78ac	0.03820102
102	0xbde15035	-0.110016264
103	0x3e08e625	0.13369043
104	0xbe21d14f	-0.15802501
105	0x3d4e697d	0.05039357
106	0xbd526e9f	-0.051375028
107	0xbe572ae6	-0.21012458
108	0x3dec907a	0.11550994
109	0x3d6d1e6d	0.057890344
110	0x3dc18e03	0.09450915
111	0xbec8fb23	-0.39254102
112	0x3d86d773	0.065840624
113	0x3e1788ed	0.14798327
114	0x3eef60aa	0.46753436
115	0x3e538ae5	0.20658453
116	0x3dd9de5a	0.10638113
117	0x3dcfa67e	0.10139178
118	0xbe6e5ea9	-0.23278297
119	0x3bb6cf3a	0.0055789026
120	0x3e574a4d	0.21024437
121	0x3ec402b8	0.38283324
122	0xbddf0a02	-0.10890581
123	0xbca33ea0	-0.019927323
124	0x3ca51270	0.020150393
125	0xbe0aea32	-0.13565901
126	0xbd726288	-0.059175998
127	0xbcbeb324	-0.02327878
128	0xbde89f53	-0.11358514
129	0xbdd37a88	-0.10326105
130	0x3da279e8	0.07933408
131	0x3db83ab4	0.08995572
132	0x3e294754	0.16531116
133	0xbb992eda	-0.0046747746
134	0xbb4394b4	-0.0029843273
135	0xbd822815	-0.06355301
136	0x3e337813	0.17526273
137	0xbef58b82	-0.47958
138	0x3e8b8879	0.27252558
139	0xbb081d74	-0.0020769509
140	0x3cd633b6	0.026147705
141	0x3e9cff57	0.3066356
142	0x3de4b6d0	0.11167681
143	0x3dbf588d	0.093430616
144	0xbd466dec	-0.048444673
145	0xbe8f2698	-0.27959132
146	0x3d8134f0	0.06308925
147	0xbd24dea1	-0.040251378
148	0xbe3ca673	-0.1842287
149	0xbe56079c	-0.2090134
150	0xbe597888	-0.21237385
151	0xbe5fdc9d	-0.21861501
152	0xbe01c29e	-0.12671897
153	0xbe3ab7bc	-0.18234152
154	0x3d7b0a9f	0.061289426
155	0x3dc5f85e	0.09666513
156	0xbb1a603b	-0.0023555893
157	0xbe1a8e64	-0.1509338
158	0xbda1677a	-0.07881065
159	0x3e823755	0.2543284
160	0x3e54ec20	0.207932
161	0xbe420377	-0.18946634
162	0xbe1663bf	-0.14686488
163	0xbeed3a15	-0.46333376
164	0xbd2e86c1	-0.04260898
165	0xbd129bab	-0.035792988
166	0xbec8f7c8	-0.39251542
167	0x3e03da36	0.1287621
168	0xbf939178	-1.1528769
169	0x3dc832c5	0.097753085
170	0x3e883fce	0.2661118
171	0x3e661a23	0.22470908
172	0xbe91ce10	-0.28477526
173	0xbe876cd2	-0.2645021
174	0x3d85bba6	0.06529932
175	0x3d427c09	0.04748157
176	0x3d89be21	0.06725717
177	0x3ebdc1cc	0.37061918
178	0x3e034e48	0.1282283
179	0xbdbc5e49	-0.09197671
180	0x3bf59557	0.0074946093
181	0xbe00afce	-0.12567064
182	0x3e0d1e7d	0.13781162
183	0x3b936c61	0.0044990038
184	0xbc57ef4a	-0.01317961
185	0x3d7e7052	0.062118836
186	0x3adc3e5f	0.0016803256
187	0xbe4a4101	-0.1975136
188	0x3da6d5a3	0.08146217
189	0x3d026282	0.031832226
190	0xbf2b0a93	-0.6681301
191	0x3dfd7416	0.12375657
192	0xbe238495	-0.15968545
193	0x3e684c89	0.22685446
194	0x3db85293	0.09000125
195	0x3dea1922	0.11430575
196	0x3e07421f	0.13208817
197	0x3e916ab1	0.28401712
198	0x3e0739c1	0.13205625
199	0x3e558f86	0.20855531
200	0xbd3c131a	-0.045916654
201	0x3dce4980	0.10072613
202	0x3c719838	0.014745764
203	0x3e665190	0.22492051
204	0x3bd4df61	0.0064963554
205	0xbd94216f	-0.072329395
206	0x3dba05be	0.090831265
207	0xbe0fa600	-0.14028168
208	0xbd55fea4	-0.052244797
209	0xbda3ce94	-0.07998386
210	0xbaff67ce	-0.0019485892
211	0x3e0779c9	0.13230051
212	0xbc01dbfe	-0.007925985
213	0xbe206041	-0.15661718
214	0xbc1edf92	-0.009696858
215	0x3f3b5bb1	0.73186785
216	0x3b547b7a	0.003242223
217	0x3d40ae0d	0.047040988
218	0xbf8e0b6c	-1.1097236
219	0xbd935466	-0.07193832
220	0xbda9c5fc	-0.08289716
221	0x3dba0dcb	0.09084662
222	0x3e647427	0.22309934
223	0x3e3a8c36	0.18217549
224	0x3e5f9264	0.21833187
225	0xbd04310a	-0.03227333
226	0xbb7b8b97	-0.0038382763
227	0xbdc5fd18	-0.096674144
228	0xbd1f97eb	-0.03896324
229	0x3e547821	0.2074895
230	0x3dc59a67	0.096485905
231	0xbd6dce39	-0.058057997
232	0xbe0aedf0	-0.13567328
233	0xbe08d058	-0.13360727
234	0xbe5d8634	-0.21633226
235	0xbe65d540	-0.2244463
236	0xbd0c7afd	-0.03429698
237	0x3de26081	0.11053563
238	0xbd80461b	-0.062633716
239	0xbedcfd44	-0.43161976
240	0xbf0b9d21	-0.54536635
241	0x3e9647e5	0.29351726
242	0xbe71bc8c	-0.23607081
243	0x3d23e2fd	0.040011395
244	0x3dc32a28	0.09529525
245	0x3e22f487	0.15913592
246	0x3d3341c5	0.043763895
247	0xbdc8013c	-0.097658604
248	0x3de50585	0.111826934
249	0x3e113dff	0.14183806
250	0xbdbd6f5e	-0.09249757
251	0xbdf5663a	-0.11982389
252	0x3d93a958	0.07210034
253	0xbd4eb162	-0.050462134
254	0x3c10bfb6	0.00883477
255	0x3e99879a	0.29986268

self_entity_fc1.bias f4 [32]
0	0x3ba631f2	0.005071872
1	0x3e943e1b	0.28953633
2	0x3d0e5e03	0.034757625
3	0xbe8f9f61	-0.28051284
4	0xbded1431	-0.11576117
5	0xbe3b76e2	-0.18307069
6	0x3ecb9ed3	0.3976961
7	0x3e2531be	0.16132256
8	0x3e85df94	0.2614714
9	0x3e3230a7	0.17401372
10	0x3ddc445e	0.107552275
11	0x3e892124	0.26783097
12	0xbc859160	-0.016304672
13	0xbd9da453	-0.07697358
14	0xbe24b1d0	-0.16083455
15	0xbd9b8674	-0.07594004
16	0x3e26eea7	0.16301976
17	0x3e292b18	0.16520345
18	0x3e85cd6b	0.26133284
19	0x3d722acc	0.059122846
20	0x3e82fe70	0.25584745
21	0x3e2440af	0.160403
22	0x3e8b5c5e	0.27218908
23	0xbd3ccc4a	-0.046093263
24	0x3e7bf918	0.2460674
25	0x3df4e229	0.11957199
26	0xbe82df2d	-0.25560895
27	0x3d9b03cf	0.07569086
28	0x3f0c6500	0.54841614
29	0x3f1f134c	0.6213882
30	0xbcdd6ba6	-0.02702887
31	0xbcc6e39e	-0.024278458

self_entity_fc2.weight f4 [32, 32]
0	0xbd0aef94	-0.033919886
1	0x3e01355e	0.12618014
2	0x3e8fb5cb	0.28068385
3	0xbeea1fa1	-0.45727256
4	0x3e7e85ef	0.24855779
5	0x3db64e2d	0.089016296
6	0x3e0ee38c	0.1395399
7	0x3e79791a	0.24362603
8	0x3e176c04	0.14787298
9	0xbde88a6e	-0.11354528
10	0x3ddfe990	0.109332204
11	0x3d957b31	0.072988875
12	0xbe048a6b	-0.12943427
13	0x3dee7641	0.11643649
14	0xbea9cd1a	-0.33164293
15	0x3e30a4fb	0.17250435
16	0xbd857d7d	-0.065180756
17	0x3c80cc72	0.015722487
18	0x3e0addcb	0.1356117
19	0xbe36253e	-0.17787644
20	0xbce724b6	-0.028215747
21	0xbbcc0f41	-0.0062274043
22	0xbdda216f	-0.10650908
23	0x3ea26d92	0.3172422
24	0xbb030f18	-0.001999801
25	0x3e130342	0.14356712
26	0xbeb18e53	-0.34678897
27	0x3e2da706	0.16958246
28	0x3f288e24	0.6584189
29	0x3f44ad42	0.7682687
30	0x3da6db52	0.08147301
31	0xbcc97af4	-0.024594761
32	0x3f070c4e	0.5275315
33	0x3da6b61b	0.081402026
34	0xbd8974a9	-0.06711704
35	0x3e075857	0.13217293
36	0xbf3436f0	-0.7039633
37	0xbe6486b3	-0.22317009
38	0x3f834d1d	1.0257908
39	0xbe245d14	-0.16051131
40	0x3f2b3845	0.66882735
41	0xbe347cc9	-0.17625727
42	0x3ea97148	0.3309424
43	0x3f13302c	0.5749538
44	0x3d041b02	0.03225232
45	0xbf9e4f4f	-1.2367953
46	0x3da67a6f	0.08128821
47	0x3e1cc4b9	0.15309419
48	0x3d8bea8f	0.06831848
49	0x3d6487e5	0.05579366
50	0xbce47343	-0.027886992
51	0xbf0d2e2b	-0.5514857
52	0x3de76615	0.112987675
53	0x3db8d329	0.090246506
54	0xbdedaf70	-0.11605728
55	0xbe13172a	-0.14364305
56	0xbeabe9be	-0.3357677
57	0x3da2c1f9	0.079471536
58	0xbe8c0625	-0.27348438
59	0xbe67cdba	-0.22637072
60	0xbf2e437f	-0.6807174
61	0xbf2c2d52	-0.67256653
62	0xbe80411c	-0.25049675
63	0xbdc8384f	-0.09776365
64	0xbe18fac9	-0.14939417
65	0xb9e93775	-0.00044482542
66	0xbeaddbd6	-0.33956784
67	0xbee9547b	-0.45572266
68	0x3e9b1726	0.30291098
69	0xbe7512cb	-0.2393295
70	0x3dcdb87d	0.10044954
71	0x3e04ac61	0.12956382
72	0xbebe974d	-0.37224808
73	0xbe2e4dd7	-0.17021881
74	0x3d98546f	0.074379794
75	0xbe09c39a	-0.13453522
76	0xbdbf1f37	-0.09332126
77	0xbf84f935	-1.0388552
78	0xbe4274c7	-0.1898986
79	0x3aa9b748	0.0012948299
80	0xbea193eb	-0.31558165
81	0x3dfe4ba9	0.12416775
82	0x3e490d38	0.19633949
83	0xbe81e258	-0.25368
84	0xbdbf1408	-0.093299925
85	0xbd54132c	-0.051776096
86	0x3dad3b55	0.08458582
87	0x3e95ec31	0.29281762
88	0x3daf0f7d	0.08547876
89	0x3e04f810	0.12985253
90	0xbee35071	-0.4439731
91	0xbe1671af	-0.14691804
92	0x3d56e9ac	0.05246894
93	0xbe00e59a	-0.12587586
94	0xbd9cde4c	-0.07659587
95	0xbe46d004	-0.19415289
96	0x3d1fe688	0.03903821
97	0xbd7ddcb7	-0.06197807
98	0xbe82d3f8	-0.25552344
99	0x3e4e27c0	0.20132351
100	0x3de84dea	0.11342986
101	0x3e5e0c0c	0.21684283
102	0xbd2e40c1	-0.042542223
103	0xbee2496e	-0.44196647
104	0xbe1ad18b	-0.15118997
105	0xbe0c7cbe	-0.1371946
106	0xbf223cb1	-0.6337386
107	0xbce001dd	-0.027344638
108	0x3e9811cb	0.29701075
109	0xbefdf0d9	-0.49597815
110	0x3eb8bd0a	0.36081725
111	0x3e328fc7	0.17437659
112	0x3e455e83	0.19274335
113	0x3e1c19ab	0.15244167
114	0xbecaf9e0	-0.39643764
115	0xbcf68fec	-0.030097924
116	0xbe05e744	-0.13076502
117	0xbdd41af3	-0.10356703
118	0xbddfeee9	-0.1093424
119	0x3b751434	0.0037396075
120	0x3c9baf28	0.01900442
121	0xbbb3fbf0	-0.00549268
122	0x3e8a8df7	0.27061436
123	0xbefa77fa	-0.4891966
124	0x3e23e86c	0.1600663
125	0x3dde9af2	0.10869397
126	0xbe4715e0	-0.19441938
127	0x3e6e1a96	0.23252329
128	0x3f0657d2	0.52477753
129	0x3e9ed3d6	0.31020993
130	0xbc116b3e	-0.008875666
131	0xbd19fcd3	-0.037594628
132	0xbedcc25b	-0.4311703
133	0xbe3dfb46	-0.18552884
134	0x3eb3e906	0.3513872
135	0xbe298cb8	-0.16557586
136	0x3f1fc4e2	0.62409794
137	0xbc99ad99	-0.018759536
138	0x3e903c83	0.28171167
139	0x3f12ca85	0.5734027
140	0x3de4fa5d	0.111805655
141	0xbf50c4bf	-0.8155021
142	0xbc90d8f3	-0.017681574
143	0x3e8d76c2	0.27629668
144	0x3dcb06a8	0.09913379
145	0x3db16772	0.08662309
146	0xbe54fd57	-0.20799766
147	0x3e1936c7	0.14962302
148	0x3ed3e603	0.41386423
149	0x3eb5c108	0.35498834
150	0xbc8bb798	-0.017055318
151	0x3e161fde	0.14660594
152	0xbf0f2029	-0.5590845
153	0x3e0fbb51	0.140363
154	0x3d86649a	0.06562157
155	0x3d0facc7	0.035076883
156	0xbf2502ce	-0.64457405
157	0xbf4e43d2	-0.80572236
158	0x3de77cd3	0.11303105
159	0xbb288e16	-0.0025719455
160	0x3e316fc7	0.17327796
161	0x3eb97296	0.36220235
162	0x3e36b35a	0.17841855
163	0xbd8a810d	-0.06762896
164	0x3e2e39bf	0.17014216
165	0x3c6aaa55	0.014322837
166	0x3c6a0f48	0.01428587
167	0x3ce199e9	0.02753921
168	0x3f20eb69	0.6285921
169	0xbebd644f	-0.36990592
170	0x3ea48cfc	0.32138813
171	0x3e5e1ec0	0.21691418
172	0xbe597088	-0.21234334
173	0x3e3d9cd8	0.18516862
174	0x3e5e784c	0.21725577
175	0x3e15d876	0.14633355
176	0x3dc6d889	0.097092696
177	0x3d7eb857	0.06218752
178	0xbddad865	-0.10685805
179	0x3e2d30ff	0.16913222
180	0x3e3a40e4	0.18188816
181	0xbda9f98f	-0.08299553
182	0x3dbf31b4	0.09335652
183	0xbe3e611f	-0.18591736
184	0x3e421ccf	0.18956302
185	0xbe93422d	-0.28761426
186	0xbe1f62ef	-0.15565084
187	0x3dab1c16	0.08354966
188	0xbeda16a0	-0.42595387
189	0xbf1ef2a7	-0.6208901
190	0xbda8c355	-0.08240382
191	0xbe042aa2	-0.12906888
192	0xbd2e579c	-0.04256402
193	0x3dee248b	0.11628064
194	0xbd68f287	-0.056871917
195	0xbece610e	-0.40308422
196	0x3e297818	0.16549718
197	0x3d7f2c23	0.06229795
198	0xbe63052d	-0.22169943
199	0x3d74ef83	0.05979873
200	0xbf43fd6f	-0.76558584
201	0x3c58c312	0.013230102
202	0x3e805d63	0.25071248
203	0x3d19ae33	0.037519645
204	0xbe5a8147	-0.21338378
205	0xbf907607	-1.1286019
206	0xbd8dc26f	-0.06921851
207	0xbd07edaa	-0.03318564
208	0x3d3a9119	0.045548532
209	0x3e3814d4	0.17976695
210	0x3e5b649e	0.21425101
211	0xbe4e5546	-0.20149717
212	0x3e1a9095	0.15094216
213	0xbe7a8938	-0.24466407
214	0x3e41a89d	0.18911977
215	0x3e35d4d8	0.17756975
216	0x3e18dcb7	0.14927946
217	0x3dc8ac45	0.09798483
218	0xbf0843dc	-0.53228545
219	0x3e7aa41d	0.24476667
220	0xbe0dcab9	-0.13846864
221	0xbde91f9e	-0.113829836
222	0xbe42e339	-0.19031991
223	0x3c9b2f50	0.018943459
224	0x3f31fd64	0.6952727
225	0x3e249f4a	0.16076389
226	0x3d329260	0.043596625
227	0xbd14f4d0	-0.036366284
228	0xbd639e4f	-0.055570897
229	0xbe61775d	-0.2201819
230	0xbf590ac5	-0.8478206
231	0xbd1cc4c2	-0.03827358
232	0x3e7d0655	0.24709447
233	0xbcf042a0	-0.029328644
234	0x3e07e628	0.13271391
235	0x3f0a021e	0.5390948
236	0xbdfeec03	-0.124473594
237	0xbf5fc0f4	-0.874038
238	0x3da87957	0.08226269
239	0x3d92e786	0.07173066
240	0xbdfa9eaa	-0.12237294
241	0xbcebd6da	-0.028788973
242	0xbdc46bc1	-0.09590865
243	0x3db72cc5	0.08944086
244	0x3eab9b84	0.33517087
245	0x3d049495	0.03236826
246	0xbca607c7	-0.02026738
247	0x3eb42978	0.35187888
248	0xbee03d7b	-0.43796906
249	0x3e195162	0.14972451
250	0x3c83c2d4	0.016084112
251	0xbd6c03b0	-0.057620704
252	0xbec9f269	-0.39442757
253	0xbede9055	-0.43469492
254	0x3deef825	0.116684236
255	0x3da2f46a	0.079567745

self_entity_fc2.bias f4 [32]
0	0x3d96f741	0.07371379
1	0x3db8a244	0.09015325
2	0xbda1f069	-0.07907183
3	0xbd940103	-0.072267555
4	0x3e96016d	0.29297963
5	0x3d015c57	0.031582203
6	0xbd83b0b2	-0.06430186
7	0x3eb7732a	0.3583005
8	0xbdd24eb3	-0.10268917
9	0xbde59d58	-0.112116516
10	0x3c997495	0.018732348
11	0xbcc05def	-0.023482291
12	0xbe3d916c	-0.18512505
13	0x3dd785de	0.1052358
14	0xbd41e7a5	-0.047340054
15	0xbdf21a0a	-0.11821373
16	0xbdda6a84	-0.106648475
17	0xbe0faf7e	-0.14031789
18	0xbd53394b	-0.05156831
19	0xbd2fdabe	-0.04293322
20	0x3e09da78	0.13462245
21	0x3d7205f3	0.059087705
22	0x3d760ca6	0.060070656
23	0xbe4446e6	-0.1916767
24	0x3d15d9c0	0.036584616
25	0x3d266296	0.040621363
26	0xbc92366e	-0.01784822
27	0xbe6be129	-0.2303511
28	0x3e2cbf4c	0.16869849
29	0xbddee2a1	-0.1088307
30	0x3df0750e	0.117410764
31	0x3e7b5428	0.24543822
