my-submission/checkpoints/model_55040.pt (torch, 352797 bytes, 23 tensors)

local_map_cnn.0.weight f4 [32, 24, 3, 3]
00000000: 80a0 c5bc 63a0 713d 1f56 1c3e 3c9e 353c
00000010: 6e6f 86bd d179 843d a3a9 3cbd 0ad2 e9bd
00000020: 39c0 b13d ab59 683d 20e7 e9bd 8984 2bbe
00000030: 4f77 d13d a5d1 79ba c753 483e f7d5 eebc
00000040: 79da 893d dbd0 9fbe e4eb 1ebb fb69 473d
00000050: 96ba 283e f42c 85bd ee69 15be 3f21 e4be
00000060: 54f1 673b 711e e1bd 1a0c 093d 488a 303d
00000070: 3e5f e8bd 4831 873d 7ba6 07be 3892 55bd
00000080: 0fff 9bbe 3293 c0bd ccc9 fabc 6c63 533d
00000090: d276 e9bc 9914 e1bc fc45 a23d a6a9 a73d
000000a0: 58e8 213e d570 57bd 2f79 a7bc 6a7f 2bbe
000000b0: ac40 8c3e a61b a03d ece2 503d 504e b2be
000000c0: 47d8 483d 32e7 00bc f6d2 373e e892 1e3d
000000d0: 549f b53d cce4 a1be eee5 9abd 6bf0 8ebb
000000e0: c1a7 41be 2197 cdbd 5812 85be c49b 86be
000000f0: b4fa c9bd 5d5f 80be c3cc d83d 62b9 15be
00000100: 76a8 59bd 85dc ab39 6d32 78bd 5938 66be
00000110: 8cc7 46be 05e4 c1bd b490 03be ea23 01bd
00000120: d37c 73bd ec3c 35bc 34dd 31bc 52a0 e3bd
00000130: 92c9 98be e85b e3bd 945e 9abe 20b6 e2bd
00000140: 9d1f 523d 7ef5 0dbe 21d2 153e ea30 243d
00000150: a35f 5a3c 15c8 13bd 7dcd b2be 11f0 903d
00000160: 941d 16bd 5e24 153d 69f9 04be 3c12 3e3d
00000170: f276 a3bd b8e8 4abe eb75 5bbe dda1 d9be
00000180: c256 fdbd fb48 87be 052f 2dbe 818d c5be
00000190: 96b9 29be f611 93bc dc82 a3be daa7 a0be
000001a0: 0e03 91be b0ee 2dbc 9973 d6bd da02 c1bd
000001b0: 88f4 563c 7bf0 f93c 81b6 4f3e 624b 66bd
000001c0: 8264 96be 68bb abbe 8d67 7abe 625c 4fbd
000001d0: 1184 4d3e 3467 91be 9bba 7abd f82c 353e
000001e0: e79c 6abd 8626 bebc 01ae 82be 6e2e 76be
000001f0: 9d8d b9bc c2ed 11bd 5dbe 90bd 384d c63d
00000200: 3b84 d8bc 7b06 993c 24b7 5fbd b955 8f3c
00000210: b651 2dbe f7e1 20be a71c 3cbd 3bb4 81bd
00000220: eb1f 1b3c f6fb 443e 5a9e 67bd 9c11 15bd
00000230: 02e2 56be a6cd 2bbe d2f7 81bd 23e3 433e
00000240: b1b3 0a3d b630 be3d 1700 453e bf35 23bd
00000250: a00d 97bd 88b4 22bf 241d 8d3d e3dc 98bd
00000260: cbb5 863e 1f54 61bd 5cb2 aabd 524a d7bd
00000270: 17cf 0abd ff90 78bd 7e56 f7bc d529 7b3d
00000280: 251f 9cbc 828b 4dbe 07b9 2b3e 97e5 4c3c
00000290: 7b64 b43e c9ff f8bd 2aa0 d13d 445f b93e
000002a0: 215d e63d 538e f93d d738 f03e 4a8e b4bd
000002b0: 357b 05bc 5d51 893d 940e 473c 3728 19be
000002c0: b129 5a3e 35a3 153d ca7b f8bd 341e fabd
000002d0: c2e2 a0bd 072a 41be 16e2 96bd 5b70 39bd
000002e0: 9824 f4bd 8d8c debd 1473 00bd e0f7 b4be
000002f0: 57c4 52be 0f94 c33e a89c 133f 984a 9c3e
00000300: a085 fa3e aa7b e83e d2f0 f73e f28f 953d
00000310: e239 a13e b044 233c dc39 c03e f6fb a93e
00000320: 0a89 333d e161 4a3f 9b4c 463f b330 c8bd
00000330: 442a 4f3e 8ebc fa3e 526c bb3e 87fd 093e
00000340: 3f49 2c3d 0abc 2d3d 1a6e ad3d b225 8dbc
00000350: 6bfc ffbd 7ac6 a13d 7d90 1cbd b965 64bd
00000360: ff8c a63d 1243 1c3d da59 be3d 33ae 07bd
00000370: 877c 973d e2d8 4c3d f7d4 58bd 46ba a93d
00000380: b8e0 66bd 7bcd ea39 964d 603d 98e0 0e3c
00000390: 76da 823d 1e69 273d c4ba ae3c 0f89 1e3d
000003a0: 41ef ad3d f6eb 1a3d bcaa 1ebc d7dc 2fbc
000003b0: 448c 023d f1bd c3bc f6d0 5abd be80 d03c
000003c0: d512 eabb 1a71 193b ac28 cc3c b1d2 dc3b
000003d0: 734f 133b e3a7 863c 3532 343d a8f3 e93c
000003e0: 9fae b33d 557a ff3c 78d6 fd3c 7818 543c
000003f0: 2d16 ae3d e457 323d 6139 5d3d 5b20 40bd
-0.024124384 0.058990847 0.15267228 0.011085089 -0.06564222 0.06468547 -0.046060216 -0.11417015
0.08679242 0.05672614 -0.11421037 -0.16749777 0.102278344 -0.00095298357 0.19563209 -0.02915476
0.067311235 -0.31214032 -0.0024249488 0.048685055 0.16477427 -0.06502715 -0.1459119 -0.44556615
0.0035391646 -0.10992134 0.033458807 0.043100625 -0.11346291 0.066011965 -0.13247101 -0.0521414
-0.30468032 -0.09403075 -0.030613802 0.051608488 -0.02849904 -0.027475642 0.07923505 0.08186655
0.15811288 -0.05259784 -0.020443527 -0.16747823 0.2739309 0.078177735 0.05099766 -0.34825373
0.049034383 -0.007867621 0.17951569 0.03871432 0.0886828 -0.3161987 -0.07563387 -0.004362156
-0.1891165 -0.10038591 -0.25990558 -0.26290715 -0.09862271 -0.25072756 0.1058593 -0.14621499
-0.053139172 0.00032779961 -0.060594965 -0.22482432 -0.19412059 -0.094673194 -0.12848169 -0.03152839
-0.059445214 -0.011061888 -0.010855962 -0.11114563 -0.29841286 -0.11101514 -0.30150282 -0.11069894
0.05129968 -0.13863179 0.14630939 0.04008571 0.013328466 -0.036079485 -0.349224 0.07077039
-0.0366493 0.036411636 -0.12985767 0.04640411 -0.079816714 -0.19815338 -0.21431701 -0.42506304
-0.12370063 -0.26422867 -0.16912468 -0.3858452 -0.16574702 -0.0179529 -0.31935775 -0.3137806
-0.28322643 -0.01061599 -0.10471267 -0.09424372 0.013119824 0.030510178 0.20284463 -0.056224234
-0.29373556 -0.33541417 -0.24453564 -0.050625212 0.2006991 -0.2839905 -0.061213117 0.17692935
-0.05727854 -0.023211729 -0.2552338 -0.24041149 -0.022650534 -0.035627134 -0.07067559 0.09682697
-0.02643024 0.018679848 -0.054618016 0.01749693 -0.16925701 -0.15711199 -0.045925763 -0.06333204
0.009468059 0.1923674 -0.0565475 -0.036393747 -0.20984653 -0.16777667 -0.06346096 0.19129615
0.033862773 0.092866346 0.19238316 -0.03984618 -0.07375646 -0.6355672 0.06890324 -0.07464006
0.26310572 -0.055011865 -0.083348006 -0.10512222 -0.033888903 -0.060685154 -0.03019261 0.06131919
-0.01905782 -0.2007275 0.16769801 0.01250591 0.3523291 -0.12158162 0.10235627 0.36205494
0.11248232 0.12185349 0.46918365 -0.08816202 -0.008147051 0.06704972 0.012149472 -0.14956747
0.21304967 0.0365326 -0.12132986 -0.12212792 -0.078557506 -0.18863688 -0.07367341 -0.045273166
-0.11921042 -0.10866652 -0.031359747 -0.35345364 -0.2058271 0.38198897 0.57660913 0.3052566
0.48930073 0.45406848 0.4842592 0.07302846 0.31489474 0.009965107 0.37544143 0.33200043
0.043831863 0.790556 0.7746064 -0.09774914 0.20230967 0.4897198 0.3660608 0.1347562
0.04206204 0.042415656 0.08468266 -0.017229889 -0.12499317 0.078991845 -0.038223732 -0.055761073
0.081323616 0.0381499 0.092944816 -0.033125114 0.073967986 0.050011523 -0.052937474 0.08287482
-0.056366652 0.00044785053 0.05476149 0.0087205395 0.06389324 0.040871732 0.021329291 0.038704928
0.084929 0.037822686 -0.009684261 -0.010733805 0.03187205 -0.023894282 -0.053421937 0.025452014
-0.0071433582 0.002341336 0.024921738 0.0067389836 0.0022477775 0.016437477 0.043993194 0.028558567
0.08773541 0.031186262 0.030986056 0.012945287 0.085003234 0.04354085 0.0540098 -0.046905857

local_map_cnn.0.bias f4 [32]
00000000: 98be 18bc 77e0 12bd c4aa 87bc 2ab7 e7bd
00000010: 59de 073d 500c c23c 6b05 dc3b c577 4fbd
00000020: 9faa 5bbb e0a2 d2bd 9f38 97ba a1a5 44bd
00000030: 48cf b4bc b3b4 3bbd 58da 5abd 5d1a 1dbe
00000040: 12e1 25bd 941c ef3c 5d94 2b3d 8eb7 ba3c
00000050: d6f4 b0bd 139b c03d 6603 84bc 59d9 62bd
00000060: e61e c3bd f0d8 a2bd 493a 5bbd 20d6 7dbc
00000070: 4fe0 543d 97ed 1c3d 33a6 b13d 0348 0fbc
-0.009322785 -0.035858598 -0.01656092 -0.11314233 0.03317103 0.023687512 0.006714513 -0.05065133
-0.0033518446 -0.10284972 -0.001153726 -0.04800952 -0.022071496 -0.045826625 -0.053430885 -0.15342088
-0.040497847 0.029188432 0.041889537 0.022792604 -0.08640449 0.09404578 -0.016114902 -0.05538306
-0.09527378 -0.07951534 -0.053522382 -0.015492946 0.05197173 0.03831252 0.08674278 -0.008745196

local_map_cnn.2.weight f4 [32, 32, 3, 3]
00000000: b913 aa3e 9854 783c 51c2 56be b27c dcbd
00000010: dcd5 6dbe 9893 03be f1f7 9fbe 5f44 28be
00000020: 6f6f b4bd fcae 19bd 2e38 61bd 0b2f dbbc
00000030: 240d 07bd 2a82 91bd 3a2e d7bd ed0c e73c
00000040: 28af dfbc 3dc4 bcbd fae4 bf3c 05d5 02be
00000050: 04bc 06ba 560d e63d d789 683e 846d 883e
00000060: 0e2a 8bbd 9c27 40bd 66d5 d339 e6ee 8abd
00000070: fabc 093e 8801 f43d 374b 7e3d 87bc 3e3e
00000080: 07c8 593e 90fe e6bd a2a8 a339 6b4a b03d
00000090: 5abd 2bbd 6416 d0bd 4371 a13d 01e2 693d
000000a0: 2b18 c0be a232 7abd fdeb 84bd 0344 febd
000000b0: 6b6b 82bd c75e 58bd a9e3 9fbd a6a3 233b
000000c0: 9a8b 84bd 1457 64be fbc9 e6bd b39b 9fbc
000000d0: b604 1bbd 5079 423d 4cde 77bd 5a9e 86bd
000000e0: 6ff4 a9bd e6ae 93bd c0e8 a6bd cebe 99bd
000000f0: 14ad 593c ac4c f1bd e2d8 28be 7e1b 043e
00000100: 953f ac3d 7d7a 1d3e 9fee b03d f4fe c83d
00000110: a46e 273e 4a5a 6e3d 0cdf 863d 4ad5 ce3d
00000120: 93c5 2b3e 4b58 693e 2672 d7bd 9eb7 ff3d
00000130: 8fb8 b5bc 8bdb 13be d72d 1f3e c664 4d3c
00000140: 4bf8 b0bd 2d4c 363d 3a8c 803a bca5 7a3d
00000150: 7863 b83d 2972 873d 0c55 b73d 3da8 0dbd
00000160: 0dc2 723d c6ed 3d3d 0fd0 ed3d a30e c7bc
00000170: 4d6e 0d3e b0cb 3f3d 3c50 fdbd 09ae 903c
00000180: 892b 72bd 422c 62be 7076 a53d aa73 a03e
00000190: 895f a4bd c9aa 333e e110 9a3d 9612 8c3c
000001a0: 422c 883d aa85 df3d c4bd e0bc c671 5c3d
000001b0: ffba 0dbe bfbb 003e 347c 81bd 33c3 543e
000001c0: dfd4 75bd c70a 62bd 5e22 2bba cfad cc3d
000001d0: 7718 cb3d 6316 853d e5ab a33d a80e 893d
000001e0: f129 823d 11df 6ebd 1f17 743c 8e54 853c
000001f0: 651c 4e3d d46f 2c3d a0c2 08bd a55a 23be
00000200: e553 f6bd bfac 1ebe 23e7 f9bd 2abe 04bd
00000210: 250e d2bd bcfc e5bd d68f c73b db00 2a3d
00000220: 452e eabb e7c6 58bd 6840 9cbd 8230 933d
00000230: 664e 903b e95c 46be e927 d7bc e321 4fbd
00000240: e9a3 163d 2fa9 eb3d 39f2 4ebc 34ac 9b3d
00000250: 6b6c 833e 8949 033d 0c44 b8bb 401f a3bc
00000260: 5a73 103e 03c4 c23d 491e 2b3e 738d 213d
00000270: 48fc a43d f995 ff3d 7764 413d 5071 8bbd
00000280: 7a5c 26bb ee89 bebb 33af 153e 5855 10be
00000290: 63d4 4c3d 79c1 66bc 0702 2c3b df9f 353e
000002a0: 5a4b 00be 9461 f9bc 37c4 e53d 7023 d83d
000002b0: 33bf afbd d546 04bd 9966 ec3b e2d8 7d3e
000002c0: 360c ab3d fe4a ce3c 8842 9c3d 4281 893e
000002d0: 4aa5 cfba cd0c 8d3d a9f5 63bd aa9e 023e
000002e0: d7fa 223b d193 c83d 7c72 f0bd 0ed6 a83c
000002f0: 9968 093c 183b 1b3d 3ced f93d 5804 1abd
00000300: 2248 e1bc b055 38bb a542 2a3d 6bef 423d
00000310: f3c9 88bd 7dd4 afbd f524 94bd b77e 17bd
00000320: 0150 87bd 6ea0 98bd fce6 71bc 1a03 a13d
00000330: 3748 9abd 70aa c2bd e6e2 bdbd e0fa 273d
00000340: 6dc9 61bd 9e8b 863d 2d6a fc3c ef27 e5bd
00000350: a776 963c 90f6 ad3d 146f 82bd 4a0b 013e
00000360: 365d 1bbe a3f9 423c e2b1 ccbd f7da 8cbd
00000370: 8d0e 383e 67cf 1abc 1f30 75bd e458 9e3d
00000380: d392 dc3d ed3f 033e 1bd2 983d 94c1 073e
00000390: a6e7 2fba dcc6 e33d 8acc 983d 6622 0e3d
000003a0: bcb1 3bbd adb5 b43d f6f0 a2bb 58f2 92bd
000003b0: aa41 8c3b 78b7 77be e135 473e 588c b4be
000003c0: 18d2 ad3d 0397 b6bd 2856 d83d c188 cabd
000003d0: 8061 b9be eaa6 133d c155 a5be 82a2 eabe
000003e0: d7dd 473d ba6a 35be cc42 b73d 9e80 0fbd
000003f0: f800 783d 6b2b f83d b030 953d 4a6d f2bb
0.33218172 0.0151568875 -0.20972563 -0.10765971 -0.23226112 -0.12849271 -0.31243852 -0.16432332
-0.08810317 -0.037520394 -0.054985218 -0.02675583 -0.032971516 -0.07104905 -0.10506864 0.028204406
-0.0273052 -0.09217117 0.023424614 -0.12776573 -0.0005139711 0.112330124 0.22708832 0.26646054
-0.06795131 -0.046912774 0.0004040405 -0.067838475 0.13450995 0.119143546 0.06208345 0.18626605
0.2126771 -0.11279023 0.00031215424 0.08607944 -0.041928627 -0.10160521 0.07882931 0.0571003
-0.3751844 -0.061083443 -0.06490324 -0.12415316 -0.063681446 -0.05282476 -0.078070946 0.0024969368
-0.064719394 -0.22298843 -0.112689935 -0.019483423 -0.03784629 0.047478974 -0.060514733 -0.06573172
-0.08298575 -0.072110936 -0.08149862 -0.07507096 0.013285894 -0.11782202 -0.16488984 0.12901112
0.08410565 0.15378757 0.08639263 0.098142534 0.163508 0.058191575 0.065855116 0.100992754
0.16774587 0.22787587 -0.10519819 0.12486194 -0.022182731 -0.14439218 0.1554483 0.012536233
-0.08641108 0.04450624 0.0009807416 0.061193213 0.09003347 0.06613571 0.08951768 -0.034584273
0.059267092 0.046369337 0.1161195 -0.024298972 0.13811608 0.04682511 -0.12368819 0.017661111
-0.05912355 -0.22087196 0.08079231 0.31338245 -0.080260344 0.17545618 0.07522751 0.017098706
0.066490665 0.10914166 -0.027434237 0.05381944 -0.13840865 0.1257162 -0.06322518 0.20777588
-0.060017463 -0.05518606 -0.00065282534 0.09994089 0.09916776 0.064984106 0.07991771 0.066922486
0.06355656 -0.0583182 0.014898091 0.01627567 0.050320048 0.042098835 -0.033388734 -0.15952547
-0.1202772 -0.15495585 -0.12202289 -0.032407917 -0.10256604 -0.11229846 0.0060901446 0.041504722
-0.007146629 -0.052924063 -0.07629472 0.071869865 0.004403877 -0.1937138 -0.026264148 -0.050569426
0.03677741 0.115068786 -0.012630993 0.076012045 0.25668654 0.03205255 -0.005623346 -0.019912362
0.14106503 0.095100425 0.16710772 0.039441537 0.08055931 0.12479777 0.04721495 -0.06808722
-0.002538471 -0.0058147823 0.14617614 -0.14095056 0.050007235 -0.014084213 0.0026246326 0.17736767
-0.12528744 -0.030442037 0.11219066 0.10553634 -0.0858139 -0.032294113 0.007214379 0.24789765
0.083519384 0.025182243 0.07629877 0.26856428 -0.0015842107 0.06887207 -0.0556542 0.12755838
0.002486875 0.09793819 -0.11740586 0.020609882 0.008386754 0.037898153 0.12203452 -0.0376018
-0.027500216 -0.0028127246 0.041567463 0.047591608 -0.06679144 -0.08585451 -0.072336115 -0.03698608
-0.066070564 -0.074524745 -0.014764544 0.0786192 -0.07533305 -0.095051646 -0.09271793 0.041010737
-0.055123735 0.065695986 0.030812347 -0.11189257 0.018367125 0.08494294 -0.06368843 0.12601963
-0.15172276 0.011900338 -0.09994866 -0.06877702 0.179743 -0.009448863 -0.059860345 0.07731798
0.10770192 0.12817355 0.074619494 0.13257438 -0.00067102385 0.11121914 0.07460888 0.034700774
-0.045823798 0.088237144 -0.0049725724 -0.0717513 0.0042802887 -0.24191082 0.19454147 -0.35263324
0.08487338 -0.08915522 0.10563308 -0.09889365 -0.362072 0.036047854 -0.32291988 -0.4582711
0.048795547 -0.17716494 0.08948287 -0.03503477 0.0605478 0.12117656 0.07284677 -0.007398282

local_map_cnn.2.bias f4 [32]
00000000: 40b5 bfbc 7779 123d cf51 c6bb 8c15 3d3c
00000010: 5ada c3bd 7558 5ebe c098 2fbd 68e8 e93c
00000020: 803a e6bd 60bf c7bd 7e26 13be 2731 a1bd
00000030: 0c26 84be 5f0f 343d 9ac2 333c 3187 ef3d
00000040: 29f3 80be adfd 9cbc a9c8 babd c7b0 8dbd
00000050: 9a16 57bd 0755 57bd 8263 a1bd 157d c9bd
00000060: 435e c6bc 956c a83d 40e4 49be 8ce8 5abe
00000070: 8eaa 503d 32e1 25be 4f57 36be 1f42 94be
-0.023401856 0.03576037 -0.006052233 0.011540782 -0.09563132 -0.21713431 -0.042870283 0.028553203
-0.11241627 -0.09753299 -0.14370152 -0.07870703 -0.25810277 0.04395997 0.01097169 0.116957076
-0.25185516 -0.01916393 -0.09120304 -0.06918483 -0.05251179 -0.052571323 -0.07880308 -0.09838311
-0.02421487 0.082238354 -0.19715977 -0.21377772 0.050943904 -0.16199186 -0.17806743 -0.28956696

local_map_cnn.4.weight f4 [32, 32, 3, 3]
00000000: 65e2 883c 784a 69be fca3 743c d782 d73d
00000010: 6e08 4ebc bb2a 4c3c a887 38be 2af3 7bbe
00000020: 5841 0dbe 82fb 4d3e 50e0 383c e704 87bd
00000030: ce02 923d 255f 96be 5e46 4ebe a570 0abe
00000040: 6d02 b23e 51ea a2bd dcb9 42bd 411f b8bd
00000050: 69e5 0c3a 0fde 3b3b 082c 07be c4b7 07be
00000060: a17b d63d adad b4be 5f03 24bd 4075 6cbe
00000070: bcd2 f3bd d9a1 9c3d a65c 9b3c fe31 e7be
00000080: c3ad 1abd cb35 34bd 75ec 0cbe 7839 53bc
00000090: 9aaf 8d3c 96ca 9cbc dd56 963d 8ca4 b83c
000000a0: 5ede ddbd 2db2 5ebd cac2 eb3d 68d8 70bd
000000b0: 3fb4 a23d 5d4d 17bd 2d65 1b3e 2674 803d
000000c0: 809f 0fbe 98da b6bd 4ba2 9ebd f567 d6bd
000000d0: 8324 11bd c600 70be 5987 2f3d 1020 6d3e
000000e0: 0b2b e6bc 3416 2c3d 6851 5ebe 9a5a 9a3c
000000f0: cb6b 193c dcb6 fb3d 2ed2 be3d b23f e6bd
00000100: 4557 01be 75a6 e93d 1cb5 15bc 7fe2 1c3d
00000110: 1281 c33d 2f35 653d 3c08 01bd 8c3d 80be
00000120: 6317 583d c119 573e 908b d4bd 8a3f 243d
00000130: 4fb0 ea3e 3470 19be 37fc 953d a541 f5be
00000140: ac84 ca3d c4f8 ccbe 311e cd3c d95a d5bd
00000150: ab27 33bd 44fb 7fbc 8351 4fbe 66a1 ee3c
00000160: c6e7 f9bd 56fe 0bbc 90dc b23d ea2c 193e
00000170: e87a 3e3e 3ab2 66be ed01 4bbe 43ba b3bd
00000180: 0551 0ebe bfbd fbbc 241b 4c3e 7eb6 263e
00000190: ccfa 90bd 07c8 053c fb83 6fbd 66b4 62bd
000001a0: dbaf 10bd 46cc f9bd 2044 6c3c 16f0 c43c
000001b0: eb50 10bd 7351 1ebc 1d24 e43d 22ea 403e
000001c0: 5e42 2dbe 353e 97bc d9b2 48bd 9a6c bebd
000001d0: ddb4 e93d 7411 333e ecd4 053e 6ac9 103e
000001e0: 3a2d 5d3d 3536 56be f6cb 1fbd 041d 89bc
000001f0: e074 ebbc 40be abbd 561a e0bc 42fb 79be
00000200: 8961 a0bd 69c7 ee3d 1d72 96bd 9bb4 55be
00000210: cbe9 3cbc c3b0 44be d75f 3abe f8b0 d93c
00000220: 2ba1 e2bd e334 fc3d 19d4 4bbc 25bf a5be
00000230: 920e 673c d71a a5bc cf9a c4be fe9f 95be
00000240: 1373 34bd e683 103d 7a6d 113e 6f8e 20bd
00000250: 52b5 1bbe d858 ec3c 8ec2 04bd cc5d c23d
00000260: 79d5 743d dc13 d93d baa0 d4bd b033 04be
00000270: dc8a 413c 560d 11be 0cfb 03be 6107 b4bd
00000280: f27a 203e e330 383c 2e43 043e 38d7 d5bd
00000290: 2768 01bd bbc9 adbd aca5 a83b 74aa 11be
000002a0: 424c 873c cbeb 573d f704 16bd 8190 3dbb
000002b0: e408 0c3e d0e4 b73e 3058 043c a722 bfbe
000002c0: 60ca 01be 6341 debd 80eb 013b ecc8 e93d
000002d0: cee9 89be 8bcb 003e ab6c 7dbc 7b3c e6bd
000002e0: 9815 453d 730d 283d a937 33bd 437f a7bd
000002f0: 97fc 933d 4246 fdbb 01c3 7ebc 28f3 2d3e
00000300: 3464 fc3d 8271 7bbe dd91 6cbd b3ad 313e
00000310: 2e7e bdbd 0a10 993d fdd4 33bd 3cb6 b2bc
00000320: ec29 1bbe a56f 78bd 50ae 413e 6ea5 6cbd
00000330: 0280 f53d f896 543d 2863 5abe e177 1b3e
00000340: a7b9 8dbd e8c6 023e bb99 39bd 8b7c efbe
00000350: 3317 88bd 85c5 5dbd 286a a43d 2e1d 63bd
00000360: 4a13 1dbe 9ed1 313e a141 6fbe 9983 e8bd
00000370: 84dc 3fbe c8f8 0e3e a822 003e 749b 333e
00000380: a351 0fbc 34cd babc 3cc3 54bc be7e 11be
00000390: d9b1 123e d258 133e 6479 43bc 5d00 e63d
000003a0: 85cc 263e 1b22 e63d 5234 883b 6423 18bd
000003b0: 0b6d 9a3d e90e 91bc 7550 7dbc e967 08bc
000003c0: 53a6 c13d f9b0 89be 4f74 1c3e 9dba 3b3d
000003d0: d626 5ebd 7ef5 8b3d a478 183b 7476 d43d
000003e0: ce9e 35bd 01d6 e63d 6cdf 85bd 77a1 423d
000003f0: a758 92bd 0e73 cb3c 4273 183e 1baf 223d
0.016709516 -0.22782314 0.014931675 0.105230026 -0.012575252 0.01246136 -0.18020499 -0.24604478
-0.13794458 0.20115474 0.011283949 -0.06592732 0.07129441 -0.29369465 -0.2014403 -0.13519533
0.34767476 -0.079548486 -0.04754053 -0.08990336 0.0005374761 0.0028666293 -0.1320039 -0.13253695
0.10472799 -0.35288754 -0.040042277 -0.23091602 -0.11905429 0.076480575 0.018965077 -0.4515533
-0.03776337 -0.043996613 -0.13762076 -0.01289212 0.017295647 -0.01913957 0.073407866 0.0225394
-0.10833429 -0.05436914 0.115117624 -0.05880013 0.079445355 -0.036939014 0.15175314 0.062721536
-0.14025688 -0.08928412 -0.07745799 -0.10469047 -0.03543521 -0.23437795 0.042853687 0.23156762
-0.028096696 0.042013362 -0.21710742 0.01884203 0.009364079 0.12290737 0.09317432 -0.11242618
-0.12630947 0.11408702 -0.009137418 0.03830194 0.095461026 0.055958923 -0.031501994 -0.25046957
0.05275668 0.21005918 -0.10378182 0.040099658 0.45837638 -0.14984208 0.07323497 -0.47901645
0.098885864 -0.40033543 0.02503881 -0.104177184 -0.043739002 -0.015623871 -0.20245938 0.029129695
-0.122024104 -0.008544525 0.08733475 0.1495854 0.18601573 -0.22528926 -0.19824953 -0.08775761
-0.13898094 -0.030730126 0.19932228 0.16280553 -0.07079086 0.008165366 -0.058475476 -0.055347823
-0.03532396 -0.12197165 0.014420539 0.024040263 -0.03523342 -0.009662974 0.111397006 0.18839315
-0.16919848 -0.01846228 -0.048998687 -0.09298058 0.1141145 0.17487127 0.13069504 0.14139333
0.05399821 -0.20919116 -0.03901287 -0.016737469 -0.028742254 -0.08385897 -0.027356308 -0.24412253
-0.07831103 0.11659128 -0.07345984 -0.20869677 -0.01153035 -0.19208054 -0.18200622 0.026573643
-0.110658966 0.12314775 -0.012440705 -0.32372394 0.014102595 -0.0201544 -0.3839936 -0.29223627
-0.044055056 0.03528204 0.14201918 -0.039198335 -0.15205887 0.028850958 -0.032412104 0.094905466
0.059773896 0.10599491 -0.10382219 -0.12910342 0.011812892 -0.14165244 -0.12888736 -0.0879047
0.156719 0.011242124 0.12916252 -0.1044144 -0.031593468 -0.08485743 0.0051467028 -0.14225179
0.016515855 0.052715104 -0.03662583 -0.0028925242 0.13675267 0.35916758 0.008077666 -0.37331125
-0.12674856 -0.10852315 0.0019824207 0.11415276 -0.2693619 0.12577645 -0.015467803 -0.112420045
0.048116297 0.04102845 -0.043754254 -0.0817857 0.07225912 -0.0077293226 -0.015549422 0.16987288
0.123238 -0.24555019 -0.057756294 0.17351417 -0.092525825 0.07473762 -0.043904293 -0.021815412
-0.1515271 -0.060653348 0.18914151 -0.057774954 0.11987306 0.051901788 -0.21326888 0.15182449
-0.06920176 0.12771189 -0.045312624 -0.46774706 -0.0664505 -0.054143447 0.0802806 -0.05544775
-0.1533939 0.17365119 -0.23364879 -0.11353225 -0.18736464 0.1396209 0.1251322 0.1753977
-0.008747491 -0.022802927 -0.012986001 -0.14208505 0.14325656 0.14389351 -0.011930797 0.11230538
0.16288956 0.11236974 0.0041566277 -0.037143126 0.075403295 -0.017707305 -0.015461077 -0.008325555
0.09455552 -0.26892832 0.15278743 0.045832265 -0.054236256 0.06833933 0.0023265267 0.10374156
-0.0443409 0.11271287 -0.06536755 0.047517266 -0.07145815 0.024835136 0.14887717 0.039717775

local_map_cnn.4.bias f4 [32]
00000000: b3fc 2b3c 73fb 3fbc d6f4 57be 44f0 afbe
00000010: 521e a13b c033 bfbd 1441 823c 9db4 1dbe
00000020: 5d19 c23d b93b 57bc 3adf d83d 0b21 12be
00000030: 4bb7 123e f3d8 073e 68df 41be f2da 3b3e
00000040: b6a8 9bbe 2d6b 613d bbf2 0f3e 02d5 31be
00000050: 5162 30be d716 243c e04a a73c 29b5 debd
00000060: e6e3 9ebd bf81 2a3e 09a9 51be 9713 103d
00000070: a30f c53c 860e 7a3d d15a 87bc f318 82bd
0.01049726 -0.011717665 -0.21089491 -0.34362996 0.0049169445 -0.093360424 0.015900172 -0.1540093
0.09477494 -0.013136798 0.10589452 -0.14270417 0.14327733 0.13266353 -0.18932879 0.1834524
-0.30402154 0.05503385 0.14057438 -0.17366412 -0.17225005 0.010015211 0.020421445 -0.10874397
-0.07758312 0.16651057 -0.20474638 0.035174932 0.024055308 0.061049007 -0.016522797 -0.06352415

local_map_fc.weight f4 [64, 512]
00000000: 6420 e73c 30d5 27bc 971a 12be 95c4 cb3c
00000010: ece8 083d 447f 56bd 5985 91be 1ec9 aa3d
00000020: 7aaa 10be 9ebe 39bd 313d 12be 6bec b93d
00000030: 3399 323c f1d9 b3bc 3362 293d c657 b6be
00000040: 622d 64be 8dad 0dbe 7587 dabd 0e97 a3bd
00000050: 562a 8cbd cbad d83c 8b34 90bb a32a bfbd
00000060: f8a8 abba b1a1 153d 61d4 cb3d dfda debd
00000070: a1a2 27be 870d 5c3d 15b7 2c3d b99d 4c3d
00000080: 2a2a 4cbd c9aa 30bd 32ac 003e c1ec cb3c
00000090: a7b1 eebe 1584 313c 45f2 1f3e 9207 22be
000000a0: 128d 933c 2bb8 74bd f0e6 4f3d 7680 46bd
000000b0: ca72 263e 9e2b c53c 77f1 113b e4b1 f13b
000000c0: 788f 103d 8603 4dbe c784 17bd 2424 963d
000000d0: 1fa7 ad3b d6c8 98bd 7b87 86bc a0af b63d
000000e0: c646 0a3e 331a 643e a7e1 b03d 2889 513e
000000f0: ae13 94bc 00f8 f53d 3ff0 c53c a5f9 f53d
00000100: e3b1 a3bd d452 cf3b 0eb3 963e 39d7 cebd
00000110: 3644 ce3d ab05 d8bd 8060 273e 3b31 39bd
00000120: a388 d33d 16df fbbd fb4e 0fbe c883 ecbe
00000130: ea42 9dbd 076c 9c3c e18d b3bd 4e16 123e
00000140: 4503 033e 11d7 983d d26c 62be efb1 5ebe
00000150: f398 f7bd 342e 05be 8b54 9d3d 6866 683e
00000160: 1389 fb3b fa41 753e cddc edbc cba9 933d
00000170: d840 92bc 21e3 fabd 046d edbd 0146 283e
00000180: b553 583d 3d49 23bd b006 1bbe 7cd4 06bd
00000190: 56fc 8dbc 7458 0a3c a76e 883d 88d5 423d
000001a0: 4391 353e 7394 7f3e 15c2 35be f0f5 2fbe
000001b0: 6d14 253b b334 3bbe dfd1 cfbd d804 ab3d
000001c0: 7909 263e 5cb4 1d3c a6f6 bfbd bacb 82be
000001d0: 1581 89be cc92 83be 6b1c 6e3d 1981 f53d
000001e0: 3cd7 eebd 131f 5bbc 8abf e0bc 5c7c 3b3d
000001f0: c13a 8b3c 7815 33bd bb41 353d bf7c 00be
00000200: e97d 18be b3fc 34be ae81 a4be 9bbe 18be
00000210: 0a4c 40be ba6a 46be 1ec8 9cbe adb9 2f3e
00000220: 5143 46be aa25 0fbc 5d26 84be 730d 10bc
00000230: 50e4 2a3e 06cd 8b3d eae9 87bd e4aa 29be
00000240: 6782 3dbd 268d 203e 0b3a 03be ab5b 4ebe
00000250: 57b3 c7bd 7d74 15bd 6767 62be 9a3e c7bd
00000260: 5fb4 ebbd 56fd babc 8be3 98bd adfd fcbd
00000270: cb40 8fbe d1b9 5bbe 5b7b d33d e0da 48bd
00000280: af71 f13c 3920 d0bd 5269 543e 0f54 9dbd
00000290: 19dc 993d 2a6b 033d bae3 233e 17e4 2bbe
000002a0: 8934 adbd 287b 26be e8af 953d a384 18bc
000002b0: e72b 25be 3379 3fbe dd5d 6f3d 0dd1 fabc
000002c0: 171b 09bd 5dd5 24be a4f0 b5be a64d 3fbe
000002d0: 47a7 06bd e8f1 6abd b1ee 49ba ab87 aa3b
000002e0: 865b 85bd c5e4 e0bd 9a27 debd 8308 37bd
000002f0: ff47 983d f68b a13b 7493 773d cf30 6c3d
00000300: 2d9c 0abd ddb9 b9bd f58b adbc 2dac ddbe
00000310: 2194 a2bd 306b 6f3c 383a 01be 9dd6 71be
00000320: 4fc7 ed3c 3d75 79bd e249 8abd 23bf 04be
00000330: 14e1 9b3e e63d 0e3c 9f05 01be 72c3 293e
00000340: ea07 023d 6e20 38be 6141 a83d 7ecb 093e
00000350: 5da7 cc3c 810c 5dbe b3ee 453e 71b6 c1bd
00000360: d7d4 64bd 6d71 963d d0c2 c33c 8e43 aabd
00000370: 0199 00be 3321 98bd eee2 993d bec3 26be
00000380: 1995 f4bc 17d7 d9bc 1349 89bd 300e 403d
00000390: 33c3 813e d596 49be a576 f53d 3984 263b
000003a0: b1d6 753d 6d08 c0bd c99a 5e3d cf1b a3bc
000003b0: f79e 74be 91da 2cbe 60a9 9c3d dad8 b5bd
000003c0: 6eaf 203d a428 c9bc f3c9 01be f4f6 2e3e
000003d0: aeb1 9fbd b5a5 233d e82b 89be 0ba9 423e
000003e0: 3667 eabd 0b1d 0cbe 5bf1 02be 04c3 f4bd
000003f0: d3a1 71bd 44d2 7abe b941 3a3d a033 62bd
0.028213687 -0.010243699 -0.14267956 0.024874011 0.033425257 -0.052367464 -0.2842205 0.08339141
-0.14127532 -0.045347802 -0.14281155 0.09078296 0.010900783 -0.021954508 0.041353416 -0.3561384
-0.22282937 -0.13835736 -0.10670368 -0.07987796 -0.068440124 0.026450058 -0.004400795 -0.09334304
-0.0013096621 0.036531154 0.099526174 -0.1088159 -0.16370632 0.05372384 0.042166788 0.049955104
-0.0498449 -0.043131623 0.12565687 0.024893166 -0.46619913 0.0108347135 0.15619762 -0.158232
0.018011604 -0.05974595 0.05075735 -0.048462354 0.16254726 0.02406865 0.0022269168 0.0073759425
0.035293072 -0.20020875 -0.03699186 0.07331112 0.0052994634 -0.074601814 -0.016422024 0.089202166
0.1350356 0.22275619 0.0863679 0.20462477 -0.01807579 0.12010193 0.02416241 0.120105065
-0.079929136 0.0063270126 0.29433483 -0.10099644 0.10071604 -0.10547956 0.16345406 -0.045212965
0.10328796 -0.1229841 -0.13994972 -0.4619429 -0.076787785 0.01909448 -0.08767296 0.14266321
0.12794216 0.07462896 -0.22111824 -0.21747564 -0.120897196 -0.13005906 0.07682141 0.22695315
0.0076762526 0.2395095 -0.02903595 0.0721012 -0.017853186 -0.12250353 -0.11593059 0.16432954
0.052814204 -0.039864767 -0.1513927 -0.032917485 -0.017332237 0.00844394 0.0666173 0.04756692
0.17731194 0.24958973 -0.17749818 -0.17183661 0.0025189177 -0.18281822 -0.101474516 0.08350533
0.16214551 0.009625521 -0.09373216 -0.25546056 -0.26856294 -0.25697935 0.05813257 0.11987514
-0.116621464 -0.013374108 -0.027435083 0.045772895 0.01699579 -0.043721646 0.04425214 -0.12547587
-0.14891781 -0.17674522 -0.32130188 -0.1491646 -0.18779007 -0.1937665 -0.30621427 0.17160673
-0.19361617 -0.008737007 -0.2581052 -0.008792269 0.16688657 0.068262145 -0.066364124 -0.16569096
-0.04626694 0.15678844 -0.1281511 -0.20152156 -0.09751003 -0.036488045 -0.22109757 -0.09728737
-0.115090124 -0.022825878 -0.074652754 -0.12353072 -0.2797912 -0.21457602 0.103262626 -0.04903686
0.029473154 -0.10162396 0.20743302 -0.076820485 0.075126834 0.03208462 0.1600484 -0.16786228
-0.08457286 -0.16257918 0.07308942 -0.009308967 -0.16130029 -0.18698578 0.058439124 -0.030617261
-0.0334731 -0.16097017 -0.35535157 -0.18681964 -0.03287437 -0.057359606 -0.00077031093 0.005204161
-0.06511597 -0.10981134 -0.10847397 -0.04468585 0.07435607 0.0049300147 0.060443357 0.057663735
-0.033840347 -0.09068654 -0.0211849 -0.43295422 -0.079384096 0.014612958 -0.12619865 -0.23617025
0.029025702 -0.060902823 -0.06752373 -0.12963538 0.30445158 0.00868175 -0.125998 0.16578463
0.03174583 -0.17981121 0.08215595 0.13456532 0.024982149 -0.21586801 0.19329338 -0.09458626
-0.055867042 0.07345853 0.023896605 -0.08313666 -0.12558366 -0.07428207 0.075139865 -0.16285607
-0.029856252 -0.02659182 -0.06703391 0.04688853 0.25344238 -0.19686444 0.1198552 0.00254084
0.0600192 -0.09376607 0.054346833 -0.019910721 -0.23888765 -0.16880251 0.07649493 -0.08879252
0.039229803 -0.024555512 -0.12674694 0.17086393 -0.077975616 0.039952952 -0.2679131 0.19009797
-0.11445467 -0.13682954 -0.12787382 -0.11951259 -0.05899222 -0.24494272 0.045472834 -0.055225015

local_map_fc.bias f4 [64]
00000000: d54f 09be fa6c 18be a34e 01bc 6d59 77bd
00000010: d393 94bd 55d0 33be 0b30 a7bd 78aa b03d
00000020: 4624 ccbd 9b8d 95bd 9957 4fbd 3c34 abbd
00000030: 3de4 083e 8352 70bd d679 903c 6115 973d
00000040: 0de4 853d 72e5 bdbc f84d 4fbd 5a51 62bb
00000050: ea54 c6bd 24fa 0dbe 307e 583d 6635 8f3d
00000060: c800 80bd 346d 1ebe 26d2 de3c 2e9b b9bd
00000070: 13a1 a43d bef8 1a3d 8eb9 06bc ef34 29be
00000080: 0f69 0e3e 5556 4cbb 3cb6 38bc 70fb 74be
00000090: 1d40 7dbd e87b ad3d 8284 603e 5f5a 2ebc
000000a0: fd00 9cbd b9e0 ffbd 85a6 f73c 3d8f 813d
000000b0: 60b4 b23d d7e2 043e 5390 a1bd bc64 b638
000000c0: 83ed 6ebd 01d8 dbbd 899d b5bd 03d6 cbbd
000000d0: f077 d53d 8a50 83be cbfd 6ebd ed87 023e
000000e0: b3d9 aabc a6e4 92be 161d 4ebd 1848 6ebd
000000f0: e330 2fbd 385a 913d 975c 183d 2f5f 003e
-0.1340936 -0.14885321 -0.007892284 -0.060388017 -0.07254758 -0.17559941 -0.0816346 0.08626264
-0.09967856 -0.073024 -0.05062065 -0.08359572 0.13368316 -0.05867244 0.01763622 0.073771246
0.06537638 -0.023180697 -0.050611466 -0.0034533353 -0.09684165 -0.13864952 0.052854717 0.06992607
-0.06250149 -0.15471345 0.027199816 -0.09062801 0.08038535 0.037834875 -0.008222951 -0.16524099
0.13907264 -0.0031179388 -0.011273917 -0.23924041 -0.06182872 0.08470899 0.21925548 -0.010641663
-0.07617376 -0.12494034 0.03023077 0.06326149 0.0872581 0.12977158 -0.07888856 8.6971995e-05
-0.058331978 -0.10734559 -0.08867938 -0.09952929 0.10423267 -0.25647384 -0.058347505 0.12747164
-0.02085576 -0.2869007 -0.050320707 -0.058174223 -0.04277123 0.07097286 0.037197676 0.1253631

self_entity_fc1.weight f4 [32, 26]
00000000: 74d5 953e 8e87 21ba 99d0 823c 816e 963c
00000010: 5e99 2dbd 9cbf 203e 47ca 04bd c5df 84be
00000020: 56b8 c7bc 4f9b bcbd 5b5f 3dbe 70af 24bf
00000030: bcbe 243e 7dd4 35be 641a 543e 6ac7 123e
00000040: bb97 85be d698 06be bb3d f33c 0a04 f1bc
00000050: 4a4c a2bd 2a72 a13e a66e 0dbe a919 3d3e
00000060: 1ac9 25bb 0172 563d 10fe dcbe bee8 cebd
00000070: 69e3 df3c 9c66 283e 6775 0f3e 4893 18be
00000080: 910c 733d 8e0b 9cbe efbd cbbd 530b 40bd
00000090: bc12 ffbd aa6a 36bc 12ab 953c 7e78 4e3d
000000a0: f008 453e 3384 f33d 19ce be3d 4ff7 a4bc
000000b0: 17d8 e5bc 54e7 bbb9 6baf ffbd 2ef0 953d
000000c0: 8bb8 3bbd a72b 85bc 732b b43d 1e22 413e
000000d0: c4ba 39bd ce78 04be f4e6 153d 0b10 3cbe
000000e0: 6ad6 973d 3f0a 07bf 49a9 91be 5298 b53d
000000f0: bb40 913d df03 1ebe 509d ecbe c7d3 b5bd
00000100: b67c 93bd 8771 843c 547c 103d 6d14 433e
00000110: f4ab 87bc 7cce 8e3c 4d66 62bd 0dba 113e
00000120: 2308 5f3c 3b74 9f3d 9c1d 383e 0a61 ddbd
00000130: bdc6 23bd b0bf 08be 6fb2 cabd 4168 87bc
00000140: 7921 e93d 0a99 91bd 5a90 c1bd feaa 1e3e
00000150: f8d6 243e 6f22 debd b0aa 473f 6bda a53e
00000160: 5eee bb3d 15f7 79bd 9caf ba3c 218a 8b3e
00000170: a429 fbbc 28c0 33be eda6 463e 6c42 723e
00000180: 2234 ecbd a51b 9dbd 9e69 8a3e 664e aabd
00000190: 3900 1dbe ac78 1c3d 3550 e1bd 25e6 083e
000001a0: 9a87 29be 0d6d 883c 00c5 05bd 4971 43be
000001b0: ca62 f23d 903d 1c3d b0e0 4c3c 9101 84be
000001c0: d92f 753d b54c 143e 58f8 e33e 2a7c 583e
000001d0: 8df5 fb3d 87e9 af3d 5b63 52be 2bc8 063d
000001e0: 7869 633e f8de d03e 0cb6 b1bd e099 2fbd
000001f0: 3c4b 373d 1bde ddbd 8862 72bd 24b3 bebc
00000200: 539f e8bd 887a d3bd 1a17 a93d 03e8 d23d
00000210: 4b78 563e b1cd 233d 896e 073d 5d5d bfbd
00000220: 459d 123e 7eb5 e2be 94ee 723e 670d e3bc
00000230: 9315 343d d412 a53e 7f83 0b3e ba84 d93d
00000240: 7d5d 9ebb 83a4 71be 33c5 533d 0435 30bc
00000250: 1bf0 1bbe 5e4d 3bbe e04b 24be 3934 33be
00000260: 9ec2 01be bcb7 3abe 9f0a 7b3d 5ef8 c53d
00000270: 69db d2bc 1ae9 bfbd b309 2ebc a943 4c3e
00000280: 8702 0e3e 6a0a 10be ab0e 09be bbff 82be
00000290: 185d 5c3d 7c60 bfbd 9c11 c7be 2029 163e
000002a0: b50a 5cbf c392 043e 281a 3c3e d7b4 113e
000002b0: 5725 58be 58af 23be 66e5 773b 1156 07bc
000002c0: e043 1b3d a38e 933e 484e 033e 495e bcbd
000002d0: 5795 f53b ceaf 00be 2b36 2f3e 838c 3e3a
000002e0: 6e8c a1bc cb23 953c c3d9 e6bc 0831 2cbe
000002f0: b4f9 9e3d e158 4cba 08fa 1cbf 5e40 fb3d
00000300: ef85 21be 69c4 803e c80d b53d 9434 df3d
00000310: 994d de3d 935c 853e d55a 033e 2d90 543e
00000320: 25ea 08bd f0cf eb3d 9a68 d83c 5636 4e3e
00000330: 61df d43b 6f21 94bd be05 ba3d 00a6 0fbe
00000340: 33d0 373c 51c8 dcbd 2527 6ebc c0c4 dc3d
00000350: 2573 09bc 15db f5bd 1738 623d 8f9b 153f
00000360: e0ed e13c 407e 35bc 4206 5abf da64 e8bd
00000370: 1399 dabd 88b8 b63d e0b0 413e 07c9 173e
00000380: 8627 233e 19be 08be 64f9 b5bc e23f d5bd
00000390: 0644 49bd eab4 313e 679a c53d 39ce 6dbd
000003a0: f0ed 0abe 58d0 08be 3e51 3dbe 7397 4dbe
000003b0: 7fd8 6cbc c99d da3d 84d1 a7bd 2bab d1be
000003c0: 1038 f6be 6fc5 c53d 4c22 33be 987f fdbd
000003d0: bce9 033e 32b8 2a3e 32ac 743d 8931 90bd
000003e0: 73ad c03d a723 fe3d b221 51bd 90d3 03be
000003f0: 0bc9 773d 9e32 93bd 9ca9 f1bc b071 903e
0.29264414 -0.0006161862 0.015968608 0.01836324 -0.04238259 0.15698093 -0.03241947 -0.25951973
-0.02437989 -0.0920931 -0.18493406 -0.64330196 0.16088384 -0.17756839 0.20713192 0.14333883
-0.26092324 -0.1314424 0.029692521 -0.029420871 -0.07924707 0.31532413 -0.1381174 0.1846682
-0.0025296868 0.052354816 -0.43162584 -0.10102986 0.027330117 0.16445392 0.14009629 -0.14899933
0.059338156 -0.30477566 -0.09948336 -0.0468858 -0.12454745 -0.011133829 0.01827005 0.05040788
0.1924169 0.118904494 0.09316654 -0.020137457 -0.028057141 -0.00035839772 -0.1248463 0.07321201
-0.04583029 -0.016256167 0.0879735 0.18860671 -0.04534413 -0.12936708 0.036597207 -0.18365495
0.07413943 -0.5275001 -0.28449467 0.088669434 0.070924245 -0.15431164 -0.4621377 -0.08878284
-0.07201521 0.016167415 0.03527482 0.1905076 -0.016561486 0.017432444 -0.055273343 0.14231129
0.01361278 0.07785841 0.17980045 -0.10809524 -0.039984453 -0.13354373 -0.09897315 -0.016529204
0.113833375 -0.07109268 -0.09451361 0.15494916 0.16097629 -0.108464114 0.77994823 0.32393202
0.09176324 -0.06102665 0.022788815 0.27253821 -0.030659504 -0.1755377 0.19399615 0.2365815
-0.11533381 -0.076712884 0.27033705 -0.083157346 -0.15332116 0.03820102 -0.110016264 0.13369043
-0.16555634 0.016653562 -0.032658577 -0.19086184 0.11835249 0.038144648 0.012504742 -0.25782445
0.059860084 0.14482386 0.4452541 0.21141115 0.123026945 0.08589464 -0.20545714 0.03290574
0.22208202 0.40795112 -0.08677301 -0.042871356 0.044749483 -0.10833379 -0.059175998 -0.02327878
-0.11358514 -0.10326105 0.082563594 0.10298159 0.20944326 0.039991084 0.0330644 -0.093439795
0.14317806 -0.44279093 0.23723823 -0.027716352 0.043965887 0.32240927 0.1362438 0.10621019
-0.004832922 -0.23597912 0.051701736 -0.010754827 -0.15228312 -0.18291232 -0.16044569 -0.1750039
-0.12671897 -0.18234152 0.061289426 0.09666513 -0.025739389 -0.093706325 -0.01062243 0.19947685
0.13868152 -0.14066473 -0.13384502 -0.25585732 0.05379972 -0.09344575 -0.38880622 0.14664125
-0.8595384 0.1294661 0.18369353 0.14229141 -0.21107994 -0.15984857 0.003782594 -0.008260266
0.037906528 0.2881976 0.1282283 -0.09197671 0.0074946093 -0.12567064 0.17110507 0.00072688627
-0.019720282 0.018205544 -0.028180009 -0.16815579 0.07762471 -0.00077952264 -0.6131902 0.122681364
-0.15773748 0.2514985 0.08840519 0.108987 0.10854644 0.2604719 0.12827618 0.20758124
-0.033426423 0.1151427 0.026417065 0.20137915 0.0064963554 -0.072329395 0.090831265 -0.14028168
0.011219072 -0.10780395 -0.0145357 0.107797146 -0.008389269 -0.12004677 0.055229273 0.5844049
0.027579248 -0.011077464 -0.851658 -0.11347361 -0.10673728 0.08921915 0.18915129 0.1482278
0.15933046 -0.13353767 -0.022213645 -0.10412575 -0.049137138 0.1735417 0.096485905 -0.058057997
-0.13567328 -0.13360727 -0.18488023 -0.20077305 -0.014455914 0.106746264 -0.08194259 -0.40950903
-0.48089647 0.09656798 -0.17493552 -0.12377852 0.12882131 0.16671827 0.05973453 -0.07040698
0.09408083 0.12409144 -0.051057525 -0.12873673 0.060494464 -0.07187389 -0.029499821 0.28211737

self_entity_fc1.bias f4 [32]
00000000: ca04 96bc 97b7 833e 0dfd b23b 5374 7ebe
00000010: b01f b5bd 11cd 0ebe eeb6 a33e a41b 0d3e
00000020: e723 6d3e c504 203e ed32 b43d 1339 813e
00000030: 7316 653c cc9c c2bc dc2c 05be be84 60bd
00000040: 61d9 233e d13d 373e 5777 7c3e 8fcf 823d
00000050: b4e1 773e 88f3 0e3e 66e7 7a3e ee18 5fbd
00000060: b419 7b3e 8c97 063e 27a7 71be b555 843d
00000070: 5e9d c63e d3ff 073f 8ee1 92bd 87ad ce3c
-0.01831283 0.25726005 0.005462295 -0.24849062 -0.088439345 -0.13945414 0.31975502 0.13780075
0.23158227 0.1562682 0.08798776 0.25238857 0.013982403 -0.023756407 -0.13005394 -0.054814093
0.16000892 0.17894675 0.246549 0.06387245 0.24207193 0.13960087 0.24502334 -0.054467134
0.24521524 0.13143748 -0.2359892 0.0646166 0.38791937 0.5312473 -0.071719274 0.025229229

self_entity_fc2.weight f4 [32, 32]
00000000: 9ceb 83bd d48a bb3d fdb3 8b3e 3f75 f0be
00000010: b4e6 423e 743e 473d 19a5 393e 51c3 643e
00000020: 0090 13be 53b3 23bd af6b c73d 89fc 2cbe
00000030: 5502 7bbd 3717 fb3c 9d08 bdbe 00f7 053e
00000040: b31f 9fbc 5a0a 773d 9045 df3d ec92 16be
00000050: 5dae 67bc 5f82 0dbd 34a3 c6bd 9b67 5c3e
00000060: 7da7 913c 87cb 003e 43c0 d7be 04b0 543e
00000070: e8f6 0c3f a9cb 193f 5316 163e 8a20 42bd
00000080: 3769 b63e f86c 1e3e 3902 3fbd ebd7 c23d
00000090: 7858 1bbf 2139 4bbe 083c 5e3f 22f1 ecbd
000000a0: 9bd6 0b3f e3b9 87bd f14a 9c3e aa4f 163f
000000b0: 19f1 f4bb 11e6 16bf e64e 113e 0aee 063e
000000c0: 88d8 2a3e b912 153e bd34 82bc bd53 3cbe
000000d0: 2a7a a33d 8acc 023e 4b4d 09be 94d3 0ebe
000000e0: 5fea 9bbe 9d69 b23d 3dd7 40be 224d 0bbe
000000f0: e5d1 0dbf 12ab 22bf 09c8 31be e9d7 e9bd
00000100: e829 80bd 2e4b 03be a5c3 06bf d8bd aabe
00000110: 327a 813e b530 59be fa9f 0b3e 8a49 293e
00000120: fc1c 29bf eb0b 91bd 038a f43d 2b40 dabd
00000130: ee45 49be c42c 66bf 6a35 8ebe 7c9b 74bd
00000140: 53db 01be 10d9 763e e9fa 7b3e f36c b6be
00000150: 5c72 adbc 4d14 82bc b9e7 db3d c292 7b3e
00000160: 8729 fe3d a5c1 393e 8157 0abf f3a9 81bd
00000170: 3bc5 c8b8 10f1 c5bd d894 5dbc 069b 07be
00000180: fb69 b33d 0c30 ccbd 4ec0 85be dece 1c3e
00000190: 3cdc 063e 66b3 5d3e ce8e 8eba 1cf4 debe
000001a0: e615 96be 56cc 3ebe f750 15bf fe0e f23c
000001b0: 5416 8c3e 09d2 c8be caa5 ad3e 4442 2c3e
000001c0: a62d c43d 3f16 683c 01f8 d3be 5f43 423c
000001d0: b9e9 0fbe 951f 2fbd debd 0dbe 2a33 ffb9
000001e0: 1648 78ba 8545 3abd fb6d 7d3e aa71 f3be
000001f0: ce9f 253e f29a de3d a5d7 5ebd 4fd2 483e
00000200: 10b7 ed3e 23c9 7a3e 09f7 0dbd b765 acbd
00000210: c285 d6be 1655 07be 9f84 253e decc 1ebe
00000220: be04 053f 148b 95bc b110 783e db19 183f
00000230: 9f99 ff3d 0c53 2dbf 2c52 6eb9 6e91 653e
00000240: 9946 743e 007f 0dbd 219d e4bd 396d 243e
00000250: 7977 b43e d149 793e b139 9ebc 77d0 3f3e
00000260: 0a9a eebe 6b36 de3d 7c18 5b3d ebcb 9d3d
00000270: 1951 dabe bba6 13bf 439a 073e b313 9abb
00000280: fdfa 693e e39e 933e 5fe7 7b3e c577 61bd
00000290: 4732 263e e61a deba 1690 adbd 60d3 683d
000002a0: da6e 2e3f 852b 9cbe 0635 ab3e 56c3 8a3e
000002b0: 9fbf 8fbe 1344 ba3e f50c 763e b73f bb3d
000002c0: 3367 4e3e 96a2 b33c ea4a 43bd 187e 693e
000002d0: 5536 003e 4fb8 4fbd 2e74 d83d 124e 8abd
000002e0: 4fe9 6e3e 7a25 5ebe c49d 6cbe 520c af3d
000002f0: fbbb 9cbe 8bb6 06bf 0203 19be 647c 3abe
00000300: c9cb 94bd d0c9 0c3e 324d a2bc 2fd7 b2be
00000310: e5a8 e03d 1b88 553d 64ff 86be 92c6 5f3d
00000320: e1ac 65bf 758f 373c dcf4 743e f0b1 90bd
00000330: 2499 4bbe fe9c 82bf 441a 1dbd 6556 79bd
00000340: c3b5 ee3d e0ba 793e 93a6 193e 1947 cdbc
00000350: f279 1e3e 871e 6bbe 7823 603e e98c 083e
00000360: 936a 0d3e b3cc 2e3d 20ad fcbe a59c 8c3e
00000370: 11e9 d4bd a0d2 d9bd a2a9 f3bd 104a 213c
00000380: 4aad 113f 75ee 3c3d 97a5 d73d bae5 96bd
00000390: f977 aebd 96ad 43be 8fca 18bf 03c3 bf3a
000003a0: 6d47 933e 9c4b e43c 72af d23d 3d4e 0e3f
000003b0: 1cdc 37bd a68a 3fbf e455 353d b404 253d
000003c0: 7cc7 223d 74f0 93bd 8dd2 3f3c 35f3 003e
000003d0: 63d8 823e eebd 23bd 4393 75bd 53ea a03e
000003e0: 2341 b4be bf49 023e 0b23 ecbc efd8 b0bc
000003f0: 0887 d3be 7643 e0be 89d6 283e 6079 913d
-0.06441423 0.09157339 0.27285758 -0.46964452 0.19033319 0.048643544 0.18129386 0.22340132
-0.144104 -0.03996594 0.09737336 -0.1689321 -0.06128152 0.030650718 -0.36920634 0.13082504
-0.019424295 0.060312606 0.1090194 -0.14704484 -0.014140693 -0.03454816 -0.09699097 0.21523897
0.01778006 0.1257764 -0.42138872 0.2077027 0.5506425 0.60076386 0.14656954 -0.047394313
0.35627148 0.15471256 -0.04663298 0.09513839 -0.6068187 -0.19846012 0.8681035 -0.1156943
0.54624337 -0.06627252 0.30525926 0.5871531 -0.00747503 -0.58944803 0.14190254 0.13176742
0.16684163 0.14557923 -0.015894288 -0.18391319 0.07982285 0.12773338 -0.13408391 -0.13947898
-0.30452248 0.087115504 -0.18832107 -0.13603643 -0.553984 -0.6354228 -0.17361464 -0.11418135
-0.06257993 -0.12821648 -0.5264228 -0.33347964 0.2528854 -0.21209987 0.13635245 0.16531959
-0.6605985 -0.07082351 0.11940386 -0.1065677 -0.19655582 -0.89912057 -0.27775127 -0.059718594
-0.12681322 0.2410624 0.24607433 -0.35629997 -0.021172695 -0.01587882 0.10737557 0.24567702
0.124102645 0.18140276 -0.5403977 -0.06331243 -9.57348e-05 -0.0966512 -0.013524257 -0.1324273
0.087604485 -0.09970102 -0.2612328 0.15313289 0.1316995 0.21650466 -0.0010876299 -0.43545616
-0.29313582 -0.18632635 -0.5832667 0.029548164 0.27360785 -0.39222744 0.3391555 0.16822153
0.09579019 0.01416546 -0.4140015 0.011856883 -0.14054002 -0.04275473 -0.1384196 -0.0004867551
-0.0009471191 -0.045476455 0.24748985 -0.47547656 0.16174242 0.10869397 -0.054404873 0.19611476
0.46428728 0.2449079 -0.03465942 -0.08417838 -0.41898924 -0.13216051 0.16163872 -0.15507838
0.5196036 -0.018254794 0.24225117 0.5941445 0.12480473 -0.67704844 -0.0002272806 0.22418758
0.23855056 -0.034544945 -0.111627825 0.1605729 0.352474 0.24344565 -0.019314619 0.18731867
-0.46601897 0.10850223 0.053490147 0.0770491 -0.42639998 -0.57676286 0.1324244 -0.0047020554
0.2284965 0.28832158 0.2459998 -0.05504586 0.16230117 -0.0016945272 -0.08474748 0.056842208
0.68137896 -0.30501953 0.3343889 0.27102154 -0.28075883 0.36380062 0.2402838 0.09143012
0.20156555 0.021928113 -0.047678865 0.22802007 0.12520726 -0.05071288 0.105690345 -0.06753172
0.23331188 -0.21693984 -0.23107058 0.08547272 -0.30612168 -0.5262229 -0.14942554 -0.18211514
-0.072654314 0.1374886 -0.0198122 -0.34929797 0.10969714 0.052131753 -0.26366723 0.05463273
-0.8971692 0.011203636 0.23921531 -0.07065189 -0.19882637 -1.020416 -0.038355127 -0.060873408
0.11655762 0.24387693 0.1500495 -0.025058316 0.15476206 -0.22960864 0.2188853 0.13335003
0.13810186 0.042675685 -0.49350834 0.2746326 -0.103960164 -0.10635877 -0.11897589 0.009844318
0.56905043 0.046125848 0.10529631 -0.073680356 -0.08518977 -0.19109187 -0.5968408 0.0014630262
0.2876543 0.027868085 0.1028737 0.5558813 -0.044887647 -0.74820936 0.044271365 0.04028769
0.039741024 -0.07223597 0.011707914 0.12592776 0.25555715 -0.039976053 -0.059954893 0.31428775
-0.35205945 0.12723444 -0.028825304 -0.021587817 -0.41313958 -0.4380147 0.16488089 0.071032286

self_entity_fc2.bias f4 [32]
00000000: e56e c13d 120d c13d 0883 12bc b418 94bd
00000010: 334b 743e 07f6 78bc 82f5 2bbd 04f5 993e
00000020: d737 98bd b010 0ebe b00b 893d a10d ddbb
00000030: 4899 22be cb32 d03d 0f49 013b 0a1a f2bd
00000040: f923 cfbd 2a17 1dbe 4b39 53bd 8fae 51bd
00000050: 3c24 cf3d 5ef3 f33d 9424 563d a5ce 36be
00000060: 9ba3 833d 6eca 9ebc b124 41bd b942 27be
00000070: 4709 d73d 3bd3 cdbd 388c c83d 4ba8 453e
0.094449796 0.09426321 -0.008942373 -0.07231274 0.23856811 -0.015195376 -0.04198218 0.30069745
-0.074325256 -0.13873553 0.06691682 -0.0067460095 -0.15878785 0.10165938 0.0019727384 -0.11821373
-0.10114283 -0.15340868 -0.05156831 -0.051191863 0.10114333 0.11911653 0.052280977 -0.17852266
0.0642769 -0.019383635 -0.047154132 -0.16334046 0.104998164 -0.10050055 0.097923696 0.1930248

other_entity_fc1.weight f4 [32, 26]
00000000: 6527 c13d 001a 48be 029f bc3d 34c5 3fbd
00000010: e5d6 b8be 20c5 a0bd 5940 9ebe f37f 37bf
00000020: ba93 023e fef1 82be c534 0d3e f990 01bc
00000030: 4d91 26be 9fc8 e1bd 55bb abbb 0d06 853d
00000040: 2928 23be e589 dbbd 6e59 2bbe 10b8 8b3d
00000050: d300 ad3c 6500 da3c fac8 58be a89e 35be
00000060: a645 5fbd f421 1e3f 6fc1 9a3d 001c 443e
00000070: 62f7 87bd 2cd4 d4bd bbf1 42be 1bc3 cd3d
00000080: c72d 50be 3ad6 b5bf 018a 0c3d af54 403e
00000090: 9f9a 133e 164d 6d3e e989 133e a641 b43c
000000a0: 2f37 f0bd 3d4a 21be a68a 3a3e 5389 92bb
000000b0: 3226 883d 7703 113e 88c7 76bd e2e0 d83d
000000c0: fb90 9fbe 9411 3dbe 9482 c9bd f120 d8be
000000d0: 7863 d03d 4a61 6d3c 4180 003c b0c5 30be
000000e0: 201d acbd 7597 b5be 2616 8ebd e0c4 9d3e
000000f0: 0b4d b03d af2a e1bc 4923 9bbe ba16 cdbe
00000100: 98ef 5e3d 28d8 0ebd 916d 5d3d 7c56 38bd
00000110: f16f 7c3d f9cd 2cbe 7a79 f5bc f688 2ebe
00000120: 8c28 74be 8ee5 7c3d 167f 943e 86eb 353e
00000130: 4fc3 00be 034b b7bd 3a8c 663a 8936 bfbd
00000140: ec00 34be 32b6 623e 83f1 fdbc a272 bc3d
00000150: 4c27 a9be cb7f a83f 68a5 8f3e cd78 643a
00000160: fba4 3abe c503 e4bd b272 433e 7c40 d0bd
00000170: a16f 92be fd71 043d a545 823d a362 563c
00000180: b242 c2bb d9cc 303d b900 963d 9a47 0d3e
00000190: c8b6 f8be 161d 653e 4178 3cbd ce6b 6dbe
000001a0: 214c 433d 6b50 c2bd c6aa 6ebd 5f0b 18bf
000001b0: 938f 63be 998b 94be 50e7 53bd 098f c63d
000001c0: 0987 10bf 36c3 07bf 5fbf 963c 61be c8bc
000001d0: 2e13 263d 95ec 243d 73d6 d53b a719 653e
000001e0: f1db 0fbc 812a ea3d 1b1a fa3d e91d 823e
000001f0: bca6 b6bd fbd7 163e be33 4f3e e352 bcbe
00000200: 4d1b 063e 3804 67be 8ccf 5ebd 98b6 de3d
00000210: 037d d93c 76cf 05be 6578 ec3b adc6 a93e
00000220: 1afd fbbd 362c 23bf df0b b53e 1d49 5a3e
00000230: d4d9 0fbe a5b7 46be c036 96be 004a 673d
00000240: 9496 d7bd 0766 20bd aa10 d53d 736e 13bd
00000250: 047a 64bd f1e3 29be 23a2 3bbe 5461 afbd
00000260: 0010 1a3e edfc d73c 8548 923e 1a90 af3d
00000270: 89c2 8abe 649e 763c 9b6c 7e3e 4320 1cbd
00000280: b3bc f53d e67a 463e 864a 12be cbcd d83e
00000290: 937a 783e 9a08 88bd 00b5 53bf 35a8 8dbd
000002a0: 1eb2 053d 77a8 133e 70e7 3d3e 6f1a 363e
000002b0: afad 0e3d 2fc6 e1bc fee0 e23c 9300 3b3d
000002c0: e306 2cbc 7bf3 853e 1a8f f33d 93f9 493b
000002d0: ef7f afbd 63f9 c3be 9662 2a3e 83c3 f2bd
000002e0: e5a2 fc3b 8fda a2bd ef76 ad3d 5342 25bd
000002f0: 79cd 9d3d 3108 39be e378 02bf 9db3 e3be
00000300: 3e47 613d 30fa bfbd 01de e83c b64c 6ebe
00000310: ba36 76bc 479f 0c3e c6ea 59be d8a5 77be
00000320: bb66 11bd 15ce 32be 6b3a c8bd e0f9 a5be
00000330: 7914 40be 2d58 123e 317c 64be 0894 a23e
00000340: 0975 7bbe febe d1bc 243e e9bd add4 18be
00000350: 6459 c6bd b8c2 e63b e4d1 fcbe a3c1 8ebe
00000360: 875b afbe 5c73 70be fef0 a63d c371 bdbd
00000370: 5998 8a3d a157 95be 201e a8bd 9b7a ee3d
00000380: 80ab edbd 777e cf3d 7b68 b3bd 9c0e 05bd
00000390: 3266 8bbd 5da3 21bd b6ca b2be c943 70be
000003a0: 10fe b93e 651d 293e e71f c8be 5225 8abd
000003b0: e0bc 2b3e f95f 573d 6b88 f3bd 77c3 08bd
000003c0: 166d c0bc e057 08bf 8aef ccbe 71fb a13b
000003d0: c20c 6ebd 4dcc 8c3c f190 cdbd e089 8cbc
000003e0: 5b4c 013e 42c8 b43d 02a1 8b3d 5402 ec3d
000003f0: 5d04 f63d c777 ae3d 447a f43d 6366 703c
0.09431342 -0.19541168 0.09210016 -0.046818927 -0.36101452 -0.078500986 -0.30908468 -0.7167961
0.12751666 -0.2557525 0.13789661 -0.007908099 -0.16266365 -0.110245936 -0.0052408376 0.06495295
-0.15933289 -0.10719661 -0.16733333 0.068222165 0.021118557 0.026611516 -0.21170416 -0.17736304
-0.05450978 0.6177056 0.07556426 0.19151306 -0.066389814 -0.10392031 -0.19037525 0.10046979
-0.20329963 -1.4206002 0.0343113 0.18782304 0.14414452 0.23173937 0.14408077 0.02200396
-0.117292754 -0.15750976 0.18216953 -0.0044719367 0.0664791 0.14161478 -0.06024888 0.10589768
-0.311653 -0.18463737 -0.09839359 -0.42212632 0.10175222 0.014488528 0.007843078 -0.17262912
-0.08403993 -0.35467115 -0.06937818 0.30814266 0.08608445 -0.027486173 -0.30300358 -0.40056401
0.054427713 -0.03487411 0.05405957 -0.045004353 0.061630193 -0.16875447 -0.029965151 -0.17044434
-0.23843592 0.061742358 0.2900321 0.17765626 -0.12574504 -0.08949854 0.0008794699 -0.09336574
-0.17578477 0.22139814 -0.03099895 0.09201552 -0.33037794 1.3163999 0.28055882 0.00087155105
-0.18226998 -0.111335315 0.19086722 -0.101685494 -0.2860079 0.03233527 0.0636094 0.01308504
-0.005928361 0.043164108 0.073243566 0.13796845 -0.4857695 0.22374377 -0.04601312 -0.23185655
0.047680024 -0.09487995 -0.05826833 -0.5939235 -0.22222738 -0.29012755 -0.05173427 0.096952505
-0.5645605 -0.53032243 0.0184018 -0.024504842 0.040545635 0.040264685 0.0065258085 0.22373067
-0.008780465 0.11433888 0.122120105 0.25413445 -0.08918521 0.14730828 0.20234582 -0.36781988
0.13096352 -0.22560203 -0.05439715 0.10874671 0.026548868 -0.13067421 0.0072165006 0.3315939
-0.12304135 -0.63739336 0.3536062 0.21316953 -0.14047939 -0.19405992 -0.29338646 0.056467056
-0.105267674 -0.0391598 0.10403569 -0.035994004 -0.055780426 -0.16590859 -0.18323569 -0.08563486
0.15045166 0.026365722 0.28570953 0.08572407 -0.27101544 0.015052412 0.24846117 -0.038116705
0.11998882 0.1938282 -0.14286241 0.42344508 0.24265508 -0.066422656 -0.8269806 -0.069168486
0.03264057 0.14419733 0.18545318 0.17783521 0.034833606 -0.027560322 0.027695175 0.045654844
-0.010499689 0.26162323 0.11892529 0.0030818924 -0.08569323 -0.38276204 0.1663917 -0.11853697
0.007709848 -0.07951843 0.084699504 -0.040346455 0.077052064 -0.18069531 -0.5096571 -0.44472972
0.054999582 -0.09373891 0.028426172 -0.2327145 -0.015027696 0.13732634 -0.21280965 -0.24184358
-0.035498362 -0.17461427 -0.09776767 -0.32417202 -0.1875781 0.14291449 -0.22313 0.31753564
-0.24556364 -0.025603767 -0.113888055 -0.1492488 -0.09685019 0.0070422553 -0.49378884 -0.27882108
-0.34249517 -0.23481506 0.08151434 -0.09250214 0.06767339 -0.29168418 -0.08208871 0.11644479
-0.11604977 0.10131543 -0.087601624 -0.032484636 -0.068066016 -0.039462436 -0.3492028 -0.23463358
0.36326647 0.1651512 -0.3908684 -0.067453995 0.16771269 0.05258176 -0.11891254 -0.033389535
-0.023489516 -0.53259087 -0.40026504 0.004943304 -0.058117636 0.017187262 -0.10037411 -0.017155588
0.12626784 0.08827259 0.06817819 0.115238816 0.12012551 0.085189395 0.11937383 0.014672848

other_entity_fc1.bias f4 [32]
00000000: b1a1 06be ccf2 3dbe 75dc 9cbd beb6 55ba
00000010: 851b febc 3c22 a4be c8e2 51bd 8e30 a6bd
00000020: 8eaf 80bd dd55 10bd 9614 83bd 3a2d 7bbc
00000030: 0e2d 4dbd 1794 62be bb9e b1bc 4c4e 4abe
00000040: 090d bebc 32d7 8dbd 5381 d1bc a89d 43be
00000050: a7d5 7bbc 0f6e edbd be7f 18bd f31f 96bc
00000060: ae1a 08bd 60f2 ca3c 8752 cabb ba2a 87bd
00000070: 09d7 c7bc 916d 00bd 4a90 5abc 7784 1dbd
-0.13147618 -0.18549651 -0.07659236 -0.0008152536 -0.031018982 -0.3205737 -0.051241666 -0.0811473
-0.062834844 -0.035238136 -0.06400411 -0.015330607 -0.050091796 -0.22126804 -0.021682134 -0.1975643
-0.023199575 -0.06925811 -0.025574362 -0.1910311 -0.015370763 -0.11593258 -0.0372312 -0.018325781
-0.03322857 0.024773777 -0.006174389 -0.06599946 -0.024394529 -0.03135449 -0.013340065 -0.038456406
