my-submission/checkpoints/model_89088.pt (torch, 352797 bytes, 23 tensors)

local_map_cnn.0.weight f4 [32, 24, 3, 3]
0	0xbc97baee	-0.018521752
1	0x3d88adfa	0.066738084
2	0x3e0d8045	0.13818462
3	0x3d6b4b4f	0.057444867
4	0xbc3f5799	-0.0116786
5	0x3dbca482	0.09211065
6	0xbd988433	-0.0744709
7	0xbdc1d297	-0.09463995
8	0x3d50cb7a	0.0509753
9	0x3d8d8d1d	0.06911681
10	0xbc8987dc	-0.016788416
11	0xbd883bbb	-0.06652018
12	0x3daeea4e	0.08540784
13	0x3c8c2b0a	0.017110366
14	0x3dfe53ae	0.124183044
15	0x3cfeb041	0.031089904
16	0xbc7c034d	-0.015381646
17	0xbe5ea092	-0.2174094
18	0xbc079483	-0.008275154
19	0x3ceff1c4	0.029290088
20	0x3da0162e	0.078167304
21	0x3ca60505	0.020266065
22	0xbde6b613	-0.11265197
23	0xbe600370	-0.21876311
24	0xbd38b1c5	-0.04509141
25	0xbcf83da4	-0.03030283
26	0x3cdf2dcb	0.027243515
27	0x3b54d728	0.0032476876
28	0x3cccc6e2	0.024997178
29	0x3de6225f	0.112370245
30	0xb90156fb	-0.00012334801
31	0xbc2d310d	-0.010570777
32	0xbe5ab6a0	-0.21358728
33	0xbd845d6c	-0.06463131
34	0xbd22a440	-0.039707422
35	0x3d9077b6	0.07054083
36	0x3c478342	0.01217729
37	0xbac4dfc1	-0.0015020297
38	0x3d27acca	0.04093627
39	0x3d0e6426	0.034763478
40	0x3cbd34ee	0.023096528
41	0x3cea0522	0.0285669
42	0xbcce18d2	-0.02515832
43	0xbbcf3c46	-0.006324324
44	0x3da8f2e9	0.082494564
45	0x3d8bef44	0.06832746
46	0x3db63bce	0.088981256
47	0xbdaed1af	-0.08536088
48	0x3c9c625d	0.019089872
49	0x3cfb1bf8	0.030652985
50	0x3dfd098b	0.12355336
51	0x3d0afb59	0.03393111
52	0x3cd07bde	0.02544969
53	0xbdfcd123	-0.12344577
54	0xbd56c54f	-0.052434262
55	0x3c7c0c8e	0.015383853
56	0xbc8e8985	-0.017399559
57	0xbcefe3b6	-0.029283386
58	0xbd51b7e2	-0.051200755
59	0xbd887af9	-0.0666408
60	0xbe212e13	-0.15740232
61	0xbd9e819f	-0.07739567
62	0x3dcaf94d	0.099108316
63	0xbc8fd94e	-0.017559674
64	0xbd596ff7	-0.053085294
65	0x3bfd92e2	0.007738457
66	0x3c9f8d92	0.019476686
67	0xbe3d4375	-0.18482764
68	0x3d9c5dc1	0.0763507
69	0xbdd933ad	-0.106055595
70	0xbb45c68c	-0.0030178158
71	0xbd83ad17	-0.06429499
72	0xbc03731c	-0.00802305
73	0xbd46fbeb	-0.04858009
74	0x3dd6581a	0.10466023
75	0xbd09fec1	-0.033690218
76	0xbde0cdfd	-0.10976789
77	0xbd9c3916	-0.07628076
78	0xbd3fde64	-0.046842948
79	0xbd80f16f	-0.0629605
80	0xbc6126c8	-0.013742156
81	0xbd0c090a	-0.034188308
82	0xbd3bebef	-0.0458793
83	0xbb0009ea	-0.001953716
84	0x3cef0178	0.029175505
85	0xbda6467c	-0.081189126
86	0xbddedd88	-0.108820975
87	0x3d1453ca	0.03621272
88	0xbdac9051	-0.08425964
89	0x3c84dacf	0.016217617
90	0xbe09ad1a	-0.1344494
91	0x3d809eb8	0.06280273
92	0x3ccc1799	0.024913596
93	0xbcc1daa2	-0.023663823
94	0xbd1a1f98	-0.037627786
95	0xbdbcb2cc	-0.0921379
96	0xbda6b43f	-0.08139848
97	0xbd9e5c49	-0.07732446
98	0x3cb09505	0.021555433
99	0xbd1cd21d	-0.038286317
100	0xbcc3ab5a	-0.023885418
101	0x3d2ef6ba	0.042715766
102	0xbd47420f	-0.048646983
103	0xbd9bc181	-0.07605267
104	0xbd6864f1	-0.05673689
105	0x3d80e582	0.06293775
106	0xbc8cf50e	-0.017206695
107	0xbd5377aa	-0.051627792
108	0xbd85f31b	-0.06540509
109	0xbccb7ec9	-0.02484073
110	0x3d838554	0.06421915
111	0xbbfa921b	-0.0076468117
112	0xbc51918a	-0.012791047
113	0xbe43509b	-0.19073717
114	0xbd3e2dde	-0.04643046
115	0xbd696750	-0.056983292
116	0x3cd8347b	0.026392212
117	0x3c495e9e	0.012290625
118	0x3c911fee	0.01771542
119	0xbd87fadf	-0.06639647
120	0x3947ccab	0.00019054364
121	0xbc20e57b	-0.009820337
122	0xbddb38eb	-0.107042156
123	0x3c689444	0.0141955055
124	0xbc378e77	-0.0112034
125	0x3d6b4d96	0.05744704
126	0x3cc919bc	0.024548404
127	0xbd8372a5	-0.06418351
128	0x3b9cc20e	0.0047838753
129	0x3c9471ca	0.018120665
130	0x3c1305a7	0.008973516
131	0x3db6b9b5	0.089221396
132	0xbd221d58	-0.039578766
133	0xbd7d7110	-0.061875403
134	0xbe012464	-0.12611538
135	0xbd99f959	-0.075182624
136	0xbcec275f	-0.028827367
137	0x3c928757	0.0178868
138	0x3c36017a	0.0111087505
139	0xbd321d96	-0.043485247
140	0xbd157223	-0.036485802
141	0xbaf0c9b4	-0.0018370659
142	0x3d9b0f40	0.07571268
143	0x3e54bcdd	0.2077517
144	0x3d0fbccb	0.035092156
145	0x3d81869d	0.063245036
146	0x3d6f8443	0.058475744
147	0x3d716eac	0.058943436
148	0xbd34a12e	-0.044099025
149	0xbe967c8a	-0.2939189
150	0xbc97cafc	-0.018529408
151	0xbd604a95	-0.054758627
152	0x3e0ec3cc	0.13941878
153	0xbd86ca0f	-0.06581508
154	0xbdc92ecf	-0.09823381
155	0xbd84b7fc	-0.06480405
156	0xbd4a3ec2	-0.049376257
157	0xbd857550	-0.06516516
158	0xbc5ba16a	-0.013405183
159	0x3cef6bcf	0.029226212
160	0xbd6ad6d3	-0.05733378
161	0xbda9e4a5	-0.082955636
162	0x3d356fae	0.04429596
163	0xbd8bdfc2	-0.06829788
164	0x3e4eeeb9	0.20208253
165	0xbd113816	-0.03545388
166	0x3d19dad0	0.03756219
167	0x3e1390f5	0.14410765
168	0x3d83acdb	0.06429454
169	0xbda08660	-0.0783813
170	0x3e860bb1	0.26180795
171	0x3dfbfe56	0.1230437
172	0xbc77cbf6	-0.015124312
173	0x3dc9e1f4	0.0985755
174	0x3dcaa45d	0.09894631
175	0xbc1ba7d1	-0.00950046
176	0xbccde57f	-0.025133846
177	0x3e2ad23c	0.1668176
178	0x3e79f821	0.2441106
179	0x3d44fb03	0.048090946
180	0xbe934ac5	-0.28767982
181	0xbe141982	-0.14462855
182	0xbe370a33	-0.17874984
183	0xbd70f082	-0.058823116
184	0xbe92b670	-0.28654814
185	0xbe31bc1e	-0.17356917
186	0xbd31b1d4	-0.04338248
187	0xbe030258	-0.12793863
188	0xbd3d7f31	-0.046263877
189	0x3f07edfa	0.530975
190	0x3f2d7653	0.67758673
191	0x3ece06e4	0.40239632
192	0x3f2ecab2	0.6827804
193	0x3f38a02b	0.72119397
194	0x3ee02107	0.43775198
195	0x3da96feb	0.082733
196	0x3ec89c22	0.3918162
197	0x3e20f522	0.15718511
198	0x3ee1ea89	0.4412425
199	0x3f1bbe87	0.60837597
200	0x3e57899e	0.2104859
201	0x3f328f9f	0.697504
202	0x3f46babe	0.77628696
203	0x3c92a0d4	0.017898954
204	0x3d5cb11c	0.053879842
205	0x3ee2628f	0.4421582
206	0x3e8ddbbb	0.27706704
207	0x3e069720	0.13143587
208	0x3da1ba1d	0.078968264
209	0x3dcff74c	0.1015459
210	0x3dcb8296	0.09937017
211	0x3d1e885b	0.038704257
212	0xbd407252	-0.046984024
213	0x3debe9e5	0.11519221
214	0x3cd69d1d	0.026197964
215	0x3c801d38	0.015638933
216	0x3cb57d2a	0.02215441
217	0xbd493c9e	-0.049130075
218	0x3d1d9169	0.038468752
219	0xbd21634c	-0.039401338
220	0x3d14b940	0.03630948
221	0x3d2b2a8c	0.041788623
222	0xbd80cafc	-0.06288716
223	0x3d4a6c9a	0.049419977
224	0xbd7163c1	-0.058933023
225	0xbc43e77e	-0.0119570475
226	0x3d72b876	0.059257947
227	0xbaa5050e	-0.0012590007
228	0x3d23e06c	0.040008947
229	0x3c77f863	0.015134904
230	0x3c3fe68b	0.011712681
231	0x3d190cbe	0.037365668
232	0x3db96054	0.09051576
233	0x3c9bd80e	0.019023921
234	0xbc1efe3a	-0.009704167
235	0x3a6b9466	0.00089866517
236	0x3cb03d6b	0.021513661
237	0xbd10fd4a	-0.035397805
238	0xbd78f9e8	-0.060785204
239	0x3cd086dc	0.025454931
240	0xbce361ea	-0.02775665
241	0xbc5e4782	-0.0135668535
242	0x3c0fe6b6	0.008783033
243	0x3c485fa3	0.012229833
244	0x3c070755	0.008241494
245	0x3d5bd125	0.053666253
246	0x3cda0c9f	0.026617346
247	0x3d598607	0.053106334
248	0x3d9c53b1	0.0763315
249	0x3d090db4	0.033460334
250	0x3d778857	0.06043276
251	0x3d15d097	0.03657588
252	0x3c86d1b7	0.016457422
253	0xbd2c603b	-0.04208396
254	0x3c32d355	0.010914643
255	0xbcadfb8c	-0.021238111

local_map_cnn.0.bias f4 [32]
0	0xbc04111e	-0.008060722
1	0xbd16aa25	-0.036783356
2	0xbc81ae03	-0.015830046
3	0xbd366f99	-0.04454002
4	0x3d364a5d	0.044504512
5	0xba8353bf	-0.0010019465
6	0x3cf4f52c	0.029902063
7	0xbd109f27	-0.03530803
8	0x3c9d0a96	0.019170087
9	0xbdb51d54	-0.088434845
10	0x3c33a1dd	0.010963884
11	0x3be7750a	0.0070635127
12	0xbca2aa76	-0.019856673
13	0xbd0f558c	-0.034993693
14	0xbcf58521	-0.029970707
15	0xbdbb72cc	-0.09152755
16	0xbcfa6f6e	-0.030570712
17	0x3d24f0cf	0.040268715
18	0x3d373cdf	0.044735786
19	0x3d03c82a	0.032173313
20	0xbd8ebf11	-0.06970037
21	0x3d45a50e	0.04825311
22	0x3b7d464e	0.0038646641
23	0xbd05257a	-0.032506444
24	0xbd316a8b	-0.043314498
25	0xbd7d7897	-0.06188258
26	0xbd56b5ea	-0.05241958
27	0xbc597694	-0.0132729
28	0x3d8e6fa2	0.06954886
29	0x3d2d99ad	0.042382885
30	0x3d8f3abe	0.06993626
31	0x3c578322	0.013153823

local_map_cnn.2.weight f4 [32, 32, 3, 3]
0	0x3c968aba	0.018376697
1	0xbca93a44	-0.020657666
2	0xbda87a9c	-0.08226511
3	0xbe37885d	-0.17923112
4	0xbe197ebe	-0.14989755
5	0xbd1f1c8c	-0.038845584
6	0xbeaf98ae	-0.34296173
7	0xbc64ba13	-0.013960379
8	0x3c1cbf11	0.009567038
9	0xbd09ffeb	-0.033691328
10	0xbcf00881	-0.02930093
11	0xbd48b0a8	-0.048996598
12	0xbd1adafc	-0.037806496
13	0xbd6bf6a5	-0.057608265
14	0xbda2cad2	-0.07948841
15	0xbbdeb6a4	-0.006796675
16	0xbd898410	-0.06714642
17	0xbe089caa	-0.13341013
18	0x3e0cb98a	0.13742653
19	0xbd4ca23a	-0.0499594
20	0x3d0155d8	0.031576008
21	0x3e155520	0.14583254
22	0x3e29f667	0.16597901
23	0x3e4e17e9	0.20126309
24	0xbb12bbf9	-0.0022389872
25	0xbdd9cce2	-0.106347814
26	0x3ba6f43c	0.005095033
27	0x3c879134	0.01654873
28	0x3e379bc4	0.17930514
29	0x3e192c2d	0.14958258
30	0x3df24b5f	0.11830782
31	0x3e8905fb	0.26762375
32	0x3e330f18	0.17486227
33	0xbd3da712	-0.04630191
34	0x3c243208	0.010021694
35	0x3d5f4588	0.05450967
36	0x3c00420d	0.007828248
37	0xbd469b47	-0.048487928
38	0x3dc4e9ff	0.09614944
39	0x3ceb16a6	0.028697323
40	0xbe4c0feb	-0.19927947
41	0xbdbd1e39	-0.0923428
42	0x3bb6de80	0.0055807233
43	0xbdb02cf2	-0.08602323
44	0x3cd0a4ff	0.025469301
45	0xbd718b3c	-0.058970675
46	0xbda225bc	-0.079173535
47	0x3c152d4a	0.009105036
48	0xbdd59299	-0.10428352
49	0xbe4e3f0d	-0.2014124
50	0xbdeca191	-0.11554254
51	0xbd8313c5	-0.06400255
52	0xbd217c55	-0.039425213
53	0xbc854b99	-0.0162714
54	0xbce646bf	-0.028109906
55	0xbc4231a4	-0.011852656
56	0xbdb15a10	-0.08659756
57	0xbd00b900	-0.03142643
58	0xbd2c7c44	-0.042110696
59	0xbdde87b5	-0.10865728
60	0x3a677fb8	0.0008830982
61	0xbe0af8f1	-0.13571526
62	0xbd27fc1d	-0.04101192
63	0x3db28595	0.08716885
64	0x3db9897f	0.090594284
65	0x3decefc8	0.11569172
66	0x3dafb033	0.08578529
67	0x3dadc74e	0.0848528
68	0x3e136cff	0.14397047
69	0x3d44b89e	0.048027627
70	0x3df015d8	0.11722916
71	0x3dbc63d6	0.0919873
72	0x3dbbdaf6	0.09172623
73	0x3e30fd93	0.17284231
74	0xbd4181f7	-0.047243085
75	0x3d90fda9	0.07079632
76	0xbd30d643	-0.043173086
77	0xbd1460ed	-0.036225248
78	0x3d57fe1a	0.052732565
79	0xb92a7d8f	-0.00016259238
80	0xbd9416ec	-0.072309345
81	0x3d539415	0.051654894
82	0x3dfd80c8	0.12378079
83	0x3d9bf8eb	0.07615837
84	0x3d740d06	0.059582733
85	0x3e087e9b	0.13329546
86	0x3dbcd756	0.092207596
87	0x3d252f51	0.040328328
88	0x3d8f9ecc	0.0701271
89	0x3d83d708	0.06437498
90	0xbbc8b35d	-0.0061248974
91	0xbd6e8dc0	-0.058240652
92	0x3cfeaa0c	0.031086944
93	0x3d451a39	0.04812071
94	0xbdc41f92	-0.09576334
95	0xbcad8a7d	-0.0211842
96	0x3d416fe5	0.04722585
97	0xbdf340f4	-0.11877623
98	0x3d572c80	0.052532673
99	0x3e155803	0.14584355
100	0x3da9939d	0.08280108
101	0x3dfddffc	0.12396237
102	0xbd4a46b7	-0.049383845
103	0x3db12c3f	0.086510174
104	0x3df3ca5c	0.11903831
105	0x3d88e1bc	0.066836804
106	0xbd371fe2	-0.04470814
107	0x3dd7bb40	0.10533762
108	0xbd395d68	-0.045255095
109	0xbba1dcef	-0.0049396674
110	0xbda2d221	-0.07950235
111	0x3d3cbbb9	0.046077464
112	0xbd56f97b	-0.052484017
113	0xbe2125ae	-0.1573703
114	0x3d1234ee	0.03569501
115	0xbda6221b	-0.08111974
116	0xbd0d3bdc	-0.034480914
117	0x3d42527f	0.047441956
118	0x3dff1065	0.12454299
119	0x3d6a808e	0.057251506
120	0x3d9b3fa2	0.07580496
121	0xbc187e1c	-0.009307411
122	0x3d2ffdec	0.04296677
123	0x3d6af5ee	0.057363443
124	0x3d8aaa82	0.06770803
125	0x3c750321	0.014954359
126	0xbd85161b	-0.06498357
127	0xbbcd7db9	-0.006271091
128	0xbcdf42ef	-0.027253596
129	0xbcc9d0a6	-0.024635624
130	0x3d80c22e	0.06287037
131	0x3d02d90f	0.031945284
132	0xbd1105ee	-0.035406046
133	0xbd8f286e	-0.06990133
134	0x3c956229	0.018235283
135	0x3c8b29fb	0.016987791
136	0x3e06cf6c	0.13165063
137	0x3d058a60	0.032602668
138	0x3c84dcec	0.016218625
139	0x3e24d6d1	0.16097571
140	0x3dc8af26	0.09799032
141	0xbdb28099	-0.08715934
142	0x3d95424c	0.07288036
143	0x3bc35fa8	0.005962331
144	0x3da2f605	0.07957081
145	0x3e12088b	0.14261071
146	0x3d6ef686	0.05834057
147	0x3e45e440	0.19325352
148	0x3e62a52d	0.22133322
149	0x3d01b2c4	0.031664625
150	0x3dda5b97	0.106620006
151	0x3db71e17	0.08941286
152	0x3db64ade	0.089009985
153	0x3dcc58f9	0.09977908
154	0x3d7fc123	0.06244005
155	0x3d65ac5b	0.056072574
156	0x3b2c2ae7	0.002627069
157	0x3daa4cf1	0.08315457
158	0x3cdc9590	0.026926786
159	0xbc6ea400	-0.014565468
160	0x3db2d369	0.087317295
161	0xbcbca0d6	-0.023025911
162	0x3dd1a9c6	0.1023746
163	0x3d008b74	0.031382993
164	0x3dca18d9	0.098680206
165	0x3daa6451	0.08319915
166	0x3e275f01	0.16344835
167	0x3e66367e	0.22481725
168	0x3d865c99	0.0656063
169	0x3c793f05	0.015212779
170	0x3db7fc82	0.08983709
171	0x3d409afd	0.04702281
172	0xbcd8ec69	-0.026479917
173	0x3d06281c	0.032753095
174	0x3e3207c7	0.1738578
175	0x3e1fda6b	0.15610664
176	0x3e121576	0.14265999
177	0x3d5b99bd	0.053613413
178	0x3dc9a366	0.09845619
179	0x3e14b893	0.14523534
180	0x3d0266d9	0.031836364
181	0x3dd9846b	0.1062096
182	0xbc646b55	-0.013941606
183	0x3d948efa	0.07253833
184	0x3c015d58	0.00789579
185	0x3d855ce8	0.06511861
186	0xbd868044	-0.065674335
187	0x3a662c2e	0.0008780387
188	0x3ccf30c6	0.025291812
189	0x3d5899b4	0.052880958
190	0x3e19d7e0	0.15023756
191	0x3d82f102	0.06393625
192	0x3dabc53a	0.08387227
193	0x3d53ae11	0.051679675
194	0x3e01f8e0	0.12692595
195	0x3dbae260	0.09125209
196	0xbd64b0af	-0.05583256
197	0xbd1b5699	-0.037924383
198	0x3c9dc4ff	0.019258974
199	0x3d2d02a7	0.042238858
200	0xba31f1a2	-0.000678802
201	0x3c284f59	0.010272824
202	0x3d5ea6c6	0.054358266
203	0x3d2f60a9	0.04281679
204	0x3d3c7946	0.046014093
205	0xbd7af1a8	-0.061265618
206	0xbd307f55	-0.043090183
207	0x3ce9f536	0.028559308
208	0xbbe24f15	-0.0069064
209	0x3d752345	0.05984809
210	0x3d464962	0.048409827
211	0x3cd6ff73	0.026244855
212	0x3cb5471c	0.022128634
213	0x3d9b7b0a	0.07591827
214	0xbcef6442	-0.029222611
215	0x3dd3bf92	0.103392735
216	0xbd8c04d3	-0.06836858
217	0x3dff7d5f	0.124750845
218	0x3c3c6685	0.011499052
219	0x3cbd772f	0.02312812
220	0x3e43433d	0.19068618
221	0x3e01ced0	0.12676549
222	0xbdaef418	-0.08542651
223	0x3db247b6	0.08705084
224	0x3dc0f9e8	0.09422666
225	0x3dcc1b1a	0.09966107
226	0x3de3c424	0.11121395
227	0x3dcc6dfe	0.09981917
228	0x3daa553b	0.08317038
229	0x3e1b76b4	0.15182
230	0x3e00a57f	0.12563132
231	0x3e060d29	0.13090958
232	0x3dafe78c	0.08589086
233	0x3dd86447	0.105660014
234	0x3cf92366	0.030412387
235	0x3cabfdbe	0.020995017
236	0x3d01002d	0.03149431
237	0xbe9ade42	-0.30247694
238	0x3c9ebc42	0.019376878
239	0xbecaa5d9	-0.39579657
240	0xbd4d01ad	-0.050050426
241	0x3d78c746	0.060736917
242	0xbd4e36e6	-0.050345324
243	0x3d394db0	0.045240104
244	0xbe0cce98	-0.13750684
245	0x3dcf7db2	0.10131396
246	0xbd3ffd97	-0.0468727
247	0xbec10ac8	-0.37703538
248	0xbdb654b6	-0.08902876
249	0xbdf6bcfd	-0.120477654
250	0xbe037f93	-0.12841634
251	0x3d792b95	0.06083258
252	0x3d85c814	0.065323025
253	0x3dcf212b	0.10113748
254	0x3dcb9043	0.09939625
255	0x3d4e8992	0.050424166

local_map_cnn.2.bias f4 [32]
0	0xbc703331	-0.0146606425
1	0x3d125e78	0.035734624
2	0xbc11a7db	-0.0088901175
3	0x3ae32d3c	0.0017332206
4	0xbd58889a	-0.05286465
5	0xbe033e1d	-0.12816663
6	0x3b0efa14	0.0021816539
7	0x3d490352	0.049075432
8	0xbcffa564	-0.031206794
9	0xbd8bac1c	-0.06819937
10	0xbdb37fb0	-0.08764589
11	0xbd8abc9d	-0.067742564
12	0xbe01a695	-0.12661202
13	0x3cf88309	0.03033592
14	0x3d2a63b9	0.04159901
15	0x3d16cd76	0.036817037
16	0xbdfcf904	-0.123521835
17	0x3d7bafb2	0.061446853
18	0xbc5e9d59	-0.013587319
19	0xbc7c1842	-0.015386643
20	0xbd97bba5	-0.07408837
21	0xba76992e	-0.0009406981
22	0x3a622819	0.0008627191
23	0xbd2a8b8b	-0.041636985
24	0x3d79ee4b	0.06101827
25	0x3db906ee	0.09034525
26	0xbd89b3c3	-0.0672374
27	0xbda55f77	-0.08074849
28	0x3cb1afba	0.021690238
29	0xbdab9644	-0.0837827
30	0xbdc4c4e0	-0.096078634
31	0xbe1d4810	-0.15359521

local_map_cnn.4.weight f4 [32, 32, 3, 3]
0	0xbc9f200e	-0.019424465
1	0xbe00c4e3	-0.12575106
2	0x3d7edd62	0.062222846
3	0x3dafb860	0.085800886
4	0x3b5e4285	0.003391416
5	0x3c4621f3	0.012093055
6	0xbde8e2cb	-0.11371382
7	0xbe2f7deb	-0.17137878
8	0xbdbfe597	-0.09369963
9	0x3e4adde0	0.19811201
10	0xbdb5cf43	-0.08877423
11	0x3d5f4026	0.054504536
12	0x3b8ff7ed	0.0043935687
13	0xbe9e7355	-0.30947366
14	0xbe3828df	-0.17984341
15	0xbd82f1db	-0.063937865
16	0x3e7454c7	0.23860465
17	0x3d834e51	0.06411422
18	0xbc155cf9	-0.009116405
19	0xbd8c3eeb	-0.06847938
20	0x3d854d60	0.06508899
21	0x3ca95f1a	0.02067523
22	0xbe00bdb0	-0.1257236
23	0xbd6be092	-0.057587214
24	0x3d414eb3	0.047194194
25	0xbe3d3dfb	-0.18480675
26	0xbd5f3ab5	-0.054499347
27	0xbc45c2ef	-0.012070402
28	0xbd1ecc6a	-0.038769163
29	0x3d95a870	0.073075175
30	0xbcfe1e7c	-0.031020395
31	0xbe87546a	-0.2643159
32	0x3d836e3e	0.064175114
33	0xbd26e13e	-0.04074215
34	0xbdbafad0	-0.0912987
35	0x3cf35083	0.029701477
36	0xbc1869e2	-0.009302588
37	0x3cb0f606	0.021601688
38	0x3d433d3f	0.04766583
39	0x3d8ffa6e	0.070301875
40	0xbd422162	-0.047395118
41	0xbd101dbc	-0.035184607
42	0x3d9e5dd2	0.077327386
43	0xbd7d6fbb	-0.061874133
44	0x3ddcbf95	0.10778729
45	0xbcf8a926	-0.030354094
46	0x3d1742d2	0.03692896
47	0x3da9f7dd	0.08299229
48	0xbdf1fc33	-0.11815681
49	0xbdd04769	-0.101698704
50	0x3c9da1e7	0.01924224
51	0xbcc85bec	-0.024457894
52	0xbe1343f7	-0.14381395
53	0xbe0eb048	-0.13934433
54	0x3d067900	0.03283024
55	0x3df9a6e5	0.12190036
56	0xbc56b396	-0.01310434
57	0x3d3b9f55	0.045806248
58	0xbe57cc8f	-0.21074127
59	0x3c103be0	0.008803338
60	0x3dd0a59b	0.10187837
61	0x3d865f4e	0.06561147
62	0x3e0cfc54	0.1376813
63	0xbdd2182d	-0.102585174
64	0x3cb251c5	0.021767506
65	0xbd417d13	-0.04723842
66	0xbdac55f8	-0.08414835
67	0xbd5ff1aa	-0.05467383
68	0x3e25c7ce	0.161895
69	0xbd1f0bad	-0.038829494
70	0xbe4a87d5	-0.19778378
71	0xbe72a944	-0.23697382
72	0xbe056b17	-0.13029133
73	0x3e5d942d	0.21638556
74	0xbc1a590b	-0.009420644
75	0x3b0a700a	0.002112391
76	0x3e801ae1	0.25020507
77	0x3d865e35	0.06560937
78	0x3d9cca0a	0.076557234
79	0xbeaf4297	-0.34230492
80	0xbda17c90	-0.078850865
81	0xbe743e46	-0.2385188
82	0x3e100357	0.14063774
83	0x3d1ab61b	0.037771326
84	0xbd4a3ccd	-0.04937439
85	0xbe126bb4	-0.14298898
86	0xbddfbcf4	-0.10924712
87	0x3d641d65	0.055692095
88	0xbe5cc6f2	-0.21560267
89	0x3c762fe4	0.015026066
90	0x3c1ccb72	0.0095699895
91	0xbd1e4b3b	-0.038645964
92	0x3de9b5a6	0.114116
93	0xbd39d1a8	-0.04536596
94	0xbde45d7e	-0.11150645
95	0x3ce0cfad	0.027442778
96	0x3dfc8f05	0.12331966
97	0xbd7a1fe3	-0.061065566
98	0x3cf22b9e	0.029561814
99	0x3d9ea51e	0.07746337
100	0xbdcbd4f1	-0.09952725
101	0x3dd36328	0.10321647
102	0xbbd35fe3	-0.0064506396
103	0xbe43c6bd	-0.19118781
104	0xbbeebc0d	-0.007285601
105	0xbdaf6904	-0.08564952
106	0xbd27a1c7	-0.040925767
107	0xbd08cabe	-0.033396475
108	0xbc827c72	-0.01592848
109	0xbcc515a5	-0.024058172
110	0x3d5e423b	0.05426238
111	0x3e00a0d9	0.12561359
112	0xbe07c24a	-0.13257709
113	0xbc1c044b	-0.009522508
114	0xbd94f41d	-0.072731234
115	0xbe293081	-0.16522409
116	0x3e40eca0	0.18840265
117	0x3d5bbfa7	0.05364957
118	0x3ddb065f	0.106945746
119	0x3d89f114	0.06735435
120	0x3b1313ea	0.002244229
121	0xbde660ed	-0.11248956
122	0x3d205afc	0.03914927
123	0x3d47d3af	0.04878586
124	0xbd40c128	-0.04705921
125	0xbdee466f	-0.11634528
126	0xbd6c1fe2	-0.057647593
127	0xbdc1beb1	-0.094601996
128	0x3d45ae0a	0.04826168
129	0x3d1d89c3	0.038461458
130	0xbd24a68d	-0.040197898
131	0xbcf9fdef	-0.030516593
132	0xbc6e207b	-0.014534111
133	0xbe83cf8b	-0.2574428
134	0xbdf726d0	-0.1206795
135	0x3d8c04ce	0.06836854
136	0xbe1ca738	-0.15298164
137	0x3dae579f	0.08512806
138	0x3cfe8633	0.03106985
139	0xbe7275eb	-0.23677795
140	0xbc8c313d	-0.017113322
141	0xbcb2f6f8	-0.02184628
142	0xbe82a200	-0.2551422
143	0xbd0f1369	-0.03493062
144	0x3b5191ee	0.003197785
145	0x3cb4b856	0.022060554
146	0x3ddbb787	0.107283644
147	0x3b31238c	0.0027029244
148	0xbe1b37be	-0.15157983
149	0x3d0ec0f2	0.034851976
150	0x3d65d2d5	0.05610927
151	0x3d343743	0.043998014
152	0x3d2ef176	0.042710744
153	0x3dffc9bf	0.12489652
154	0xbd47289c	-0.048622712
155	0xbd4960e6	-0.049164675
156	0xbb889301	-0.004167915
157	0xbde7c159	-0.11316175
158	0xbd3f192d	-0.04665487
159	0xbd2e8dbc	-0.042615637
160	0x3e2b7383	0.16743283
161	0x3def08f0	0.116716266
162	0x3de7ba18	0.113147914
163	0xbd6c1e32	-0.057645984
164	0x3d7b40a5	0.061340947
165	0x3bef386e	0.007300428
166	0xbda52aef	-0.080648296
167	0xbe0fdfb5	-0.14050181
168	0x3d832f9f	0.064055674
169	0x3d9485ea	0.072521046
170	0x3d978b0f	0.0739957
171	0xbc02f2dc	-0.0079924725
172	0x3da71a76	0.08159344
173	0x3e52cbf2	0.20585611
174	0xbc963505	-0.018335829
175	0xbe7bfd1a	-0.2460827
176	0x3d11835f	0.035525676
177	0xbd403aee	-0.0469312
178	0xbcefc902	-0.029270653
179	0x3d5a7403	0.053333294
180	0xbe29823a	-0.16553584
181	0x3de3e9a9	0.111285515
182	0x3d49693c	0.049172625
183	0xbd32b1da	-0.043626644
184	0x3dde2057	0.10846012
185	0xbda63837	-0.08116191
186	0x3d3f10da	0.04664693
187	0xbe5007a1	-0.2031541
188	0x3dc04870	0.09388816
189	0x3d47b56d	0.048757005
190	0xbc7942ac	-0.01521365
191	0x3e0ad2f8	0.1355704
192	0x3dd0048e	0.10157119
193	0xbe142081	-0.14465524
194	0x3d45958b	0.04823832
195	0x3e02a274	0.12757283
196	0xbd8a60a9	-0.06756718
197	0x3e047c5f	0.12938069
198	0xbd739faa	-0.05947844
199	0x3bd900bd	0.0066224025
200	0xbd8d64f9	-0.06904025
201	0x3b76206f	0.0037555953
202	0x3e0f6d1b	0.14006464
203	0xb9ffe83c	-0.00048810418
204	0x3dd261cd	0.1027256
205	0x3d923b76	0.071402475
206	0xbe390a8d	-0.18070431
207	0x3e1350c5	0.1438628
208	0xbc47ceb9	-0.012195283
209	0x3df8a6aa	0.12141164
210	0xbbd63b49	-0.006537829
211	0xbeb08991	-0.34479955
212	0x3c384ae8	0.011248328
213	0x3d819b12	0.063284054
214	0x3d24a730	0.040198505
215	0xbd039df6	-0.032133065
216	0xbdd1e27a	-0.10248275
217	0x3e03e7cc	0.12881392
218	0xbdf0049e	-0.11719631
219	0x3c2058d6	0.009786805
220	0xbd85e2da	-0.06537409
221	0x3dffea1b	0.12495824
222	0x3e027d4f	0.12743114
223	0x3d8c7026	0.06857328
224	0x3d64b878	0.055839986
225	0xbd49f72a	-0.04930798
226	0xbc8b821b	-0.017029813
227	0xbda9758a	-0.08274372
228	0x3e0088e7	0.12552224
229	0x3dec4697	0.115369014
230	0x3cf0918c	0.029366277
231	0x3d8efaba	0.06981416
232	0x3e191e09	0.14952864
233	0x3e1f37ad	0.15548582
234	0xbcd53036	-0.026023965
235	0x3cd16fb8	0.025565967
236	0x3d35f6d5	0.04442485
237	0xbc4794f2	-0.012181507
238	0xbde4b516	-0.11167352
239	0x3d56e9f8	0.052469224
240	0xbd394192	-0.04522855
241	0xbe2beac1	-0.1678877
242	0x3d997920	0.07493806
243	0x3d84d936	0.06486742
244	0x3d5f4a0b	0.054513972
245	0x3d936c2a	0.07198365
246	0xbcd2633c	-0.025682084
247	0xbe030375	-0.12794288
248	0x3ccf6d79	0.025320755
249	0x3c85f375	0.01635144
250	0xbd63ba91	-0.055597845
251	0x3daa0078	0.08300871
252	0xbd8dde89	-0.06927211
253	0x3ae87b73	0.0017736986
254	0x3d272937	0.04081079
255	0xbb9e61c4	-0.004833432

local_map_cnn.4.bias f4 [32]
0	0x3d788c58	0.060680717
1	0xbc7b5d12	-0.015342014
2	0xbde851ab	-0.11343702
3	0xbe559ebc	-0.20861334
4	0x3a9d71b6	0.0012012038
5	0xbca9aca4	-0.020712204
6	0x3b136482	0.0022490327
7	0xbda6f188	-0.08151537
8	0x3dac9585	0.08426956
9	0x3d69fe1c	0.057127103
10	0x3db8af96	0.09017865
11	0xbd980802	-0.07423402
12	0x3dc243be	0.09485577
13	0x3e102bca	0.14079204
14	0xbdf21275	-0.11819927
15	0x3e3e64c9	0.18593134
16	0xbde6f144	-0.112764865
17	0x3d86c747	0.06580978
18	0x3dac78a4	0.08421448
19	0xbdb7d341	-0.0897584
20	0xbdaf6dba	-0.085658506
21	0x3a3d9254	0.00072315824
22	0x3cd67d99	0.026182937
23	0xbcf04b27	-0.02933271
24	0xbc348c76	-0.011019817
25	0x3da4dc14	0.08049789
26	0xbdba6fd4	-0.09103361
27	0x3c47602f	0.012168928
28	0x3cd8a283	0.02644468
29	0x3da10ec9	0.07864148
30	0x3cd503ec	0.026002847
31	0x3cf10319	0.029420422

local_map_fc.weight f4 [64, 512]
0	0xbdd7365c	-0.10508415
1	0xbdf833b6	-0.12119238
2	0xbe4abc7e	-0.19798467
3	0xbe35d74e	-0.17757913
4	0xbcb78080	-0.02240014
5	0xbdbf399c	-0.0933716
6	0xbda65060	-0.08120799
7	0xbcd112ba	-0.025521625
8	0xbbb722c4	-0.005588861
9	0xbc95f30e	-0.018304374
10	0xbd6ebe35	-0.058286864
11	0x3ce44606	0.027865421
12	0x3dc1d845	0.09465078
13	0x3c3619f7	0.011114589
14	0x3ce21a05	0.027600298
15	0xbe136093	-0.14392309
16	0xbd19339a	-0.037402727
17	0xbcbcf267	-0.023064805
18	0xbcb5cc92	-0.022192273
19	0xba8dbf41	-0.0010814444
20	0xbd6a9569	-0.057271395
21	0xbd70a875	-0.058754403
22	0xbd3f61e9	-0.046724234
23	0xbd3f7f49	-0.046752248
24	0xbc8deb7c	-0.017324202
25	0x3c3ccb1e	0.011523036
26	0x3aa441a9	0.0012531775
27	0xbd2f658b	-0.04282145
28	0xbd102a0c	-0.03519635
29	0x3d38fbfc	0.045162186
30	0x3d35cbf3	0.044383954
31	0x3c86104b	0.016365191
32	0xbdf7657d	-0.12079904
33	0x3d650cae	0.055920295
34	0xbca40068	-0.020019725
35	0x3ccb9182	0.024849657
36	0xbe9c6666	-0.30546874
37	0xbd989025	-0.074493684
38	0x3cb195fa	0.02167796
39	0xbdf2143d	-0.118202664
40	0x3d1d3165	0.038377184
41	0xbe67ec46	-0.22648725
42	0x3bab7eec	0.005233636
43	0xbda4ff91	-0.08056558
44	0x3e0937f9	0.13400258
45	0x3c85c609	0.016329782
46	0x3cc8168e	0.024424817
47	0x3d5f487e	0.054512493
48	0x3d17f33e	0.03709721
49	0xbd0523af	-0.032504734
50	0x3a97588a	0.0011546772
51	0x3d2b9277	0.041887727
52	0x3cd1a18d	0.025589729
53	0x3d2afaf9	0.041743252
54	0x3d989c65	0.07451705
55	0xbd895178	-0.06704992
56	0x3c2f7d2b	0.010710995
57	0x3de2d5bc	0.11075923
58	0x3bd7e713	0.0065888255
59	0x3d1093f0	0.035297334
60	0x3d946869	0.07246477
61	0xbd85e159	-0.06537122
62	0xbd1f5984	-0.038903728
63	0x3baac769	0.00521176
64	0xbdea87cc	-0.114516824
65	0xbe378302	-0.1792107
66	0xba1a444b	-0.000588481
67	0xbdec92d7	-0.11551445
68	0xbdbc4c86	-0.09194283
69	0xbd8bb6ff	-0.06822013
70	0x3b786c85	0.003790648
71	0x3cb3ae5f	0.021933733
72	0x3db661a1	0.0890534
73	0xbd347eb0	-0.04406613
74	0xbca0f545	-0.019648204
75	0xbe587e34	-0.21141893
76	0x3ca94e2b	0.020667156
77	0x3ce21539	0.02759801
78	0xbd8c989a	-0.06865044
79	0x3d95dbb0	0.07317293
80	0xbbf3dbd6	-0.007441978
81	0xbb84ffab	-0.0040587983
82	0xbe21129d	-0.15729757
83	0xbe052dd4	-0.13005763
84	0xbd2ca1eb	-0.042146605
85	0xbd9a4b47	-0.07533889
86	0xbcfb3093	-0.03066281
87	0x3e0f16f0	0.13973594
88	0xbd2ef42d	-0.042713333
89	0x3e4c06a7	0.19924413
90	0xbdb529c1	-0.088458546
91	0x3db4ce46	0.08828406
92	0xbcfb0968	-0.030644134
93	0xbce13db7	-0.027495248
94	0xbd40051a	-0.046879865
95	0x3d0bb04a	0.03410367
96	0xbdd9745f	-0.10617899
97	0x3d922276	0.07135479
98	0xbce271fd	-0.027642244
99	0xbd5f5701	-0.054526333
100	0xbdebf6c9	-0.1152168
101	0x3cdff0da	0.027336527
102	0xbd72a59e	-0.059239976
103	0x3c8dc5fd	0.017306322
104	0x3b05942d	0.002038251
105	0x3e0be86c	0.1366288
106	0xbd9d634f	-0.07684957
107	0xbd960591	-0.073252805
108	0x3d825fac	0.06365904
109	0x3cbca84c	0.023029469
110	0x3d0d759c	0.03453599
111	0x3c14f78a	0.009092221
112	0xbcc2d709	-0.023784177
113	0xba4c4532	-0.00077922933
114	0x3c258a99	0.010103845
115	0xbd2abfd3	-0.041686844
116	0xbdc10f00	-0.09426689
117	0xbdc2c574	-0.095103174
118	0xbd77060e	-0.06030851
119	0x3d013015	0.031539995
120	0x3bbe708c	0.0058117565
121	0xbe50fbbc	-0.20408529
122	0xbe1c7558	-0.15279138
123	0xbd830210	-0.06396878
124	0xbb619549	-0.0034421256
125	0xbb3037c4	-0.0026888708
126	0x3c3deade	0.011591641
127	0x3d015425	0.031574387
128	0xbdb14e0c	-0.086574644
129	0xbe031c25	-0.12803705
130	0xbdb113cd	-0.08646355
131	0xbe012700	-0.12612534
132	0xbe295dc6	-0.16539678
133	0xbda0b30f	-0.07846653
134	0xbe4776b2	-0.19478872
135	0x3d154629	0.036443863
136	0xbd9c22d4	-0.076238304
137	0x3c20a5ca	0.009805152
138	0xbe52dfc6	-0.20593175
139	0xbc8cade2	-0.017172758
140	0x3d98e284	0.074650794
141	0xbcfa01c4	-0.03051842
142	0x3cde1aab	0.027112326
143	0xbd8f2158	-0.06988782
144	0xbe30c1c0	-0.1726141
145	0x3c93c4e9	0.01803823
146	0xbe61d6ce	-0.22054598
147	0xbe82f3ba	-0.25576574
148	0x3d19bdf7	0.03753468
149	0xbcc3890e	-0.023869064
150	0xbe14458b	-0.14479654
151	0xbe33e6eb	-0.17568557
152	0x3d07a015	0.03311165
153	0xbc062aa6	-0.008188879
154	0xbb1ff6f8	-0.002440868
155	0xbe0a4426	-0.13502559
156	0xbe1c7174	-0.15277654
157	0xbe0d8592	-0.13820484
158	0x3d1c705d	0.038193095
159	0xbd5222c7	-0.051302698
160	0xbdce13ed	-0.10062394
161	0xbe0f074d	-0.13967629
162	0x3d5607c8	0.052253515
163	0xbc2214e5	-0.009892677
164	0xbe3425fa	-0.17592612
165	0xbd2af8c8	-0.041741163
166	0xbd7d2129	-0.061799202
167	0xbd96559a	-0.07340546
168	0xbce34d66	-0.027746867
169	0xbde82b7f	-0.11336421
170	0x3c4427eb	0.011972408
171	0xbd603146	-0.05473449
172	0xbde749d2	-0.11293377
173	0xbe30f76e	-0.17281887
174	0xbcac7a6f	-0.021054475
175	0x3c8dcdc1	0.017310025
176	0x3c81fe0a	0.015868206
177	0xbc95e38b	-0.018296978
178	0xbd6bb7d8	-0.057548374
179	0x3d06c102	0.03289891
180	0xbce95425	-0.028482506
181	0xbdaddf2d	-0.08489833
182	0xbd1143f3	-0.035465192
183	0xbb140cf0	-0.002259072
184	0xbde91973	-0.11381807
185	0xbe22c14d	-0.15894051
186	0xbda62dc4	-0.08114198
187	0x3c0907cd	0.008363676
188	0x3d46cf2d	0.048537422
189	0x3d1f306e	0.038864546
190	0x3ce9e6f7	0.028552515
191	0x3d98260e	0.07429133
192	0xbdc728f6	-0.097246096
193	0xbe00a663	-0.12563471
194	0xbe6906c0	-0.22756481
195	0xbe87caaf	-0.26521823
196	0xbd6a44ae	-0.057194404
197	0xbd8d3aae	-0.06895958
198	0xbd319b2a	-0.043360867
199	0xbe4b588e	-0.19858
200	0x3cbf3589	0.023340957
201	0x3d1bd32e	0.038043194
202	0x3d0b06fc	0.033942208
203	0xbd9225ec	-0.07136139
204	0x3dd6deb0	0.10491693
205	0x3de5761e	0.1120417
206	0xbd08ffc8	-0.033447057
207	0x3c8c336d	0.017114365
208	0xbd952e0c	-0.07284173
209	0xbe38507f	-0.17999457
210	0xbcf16cc9	-0.029470818
211	0x3c756c30	0.014979407
212	0xbd2d15d0	-0.04225713
213	0xbe33e16b	-0.17566459
214	0xbc8b82a8	-0.017030075
215	0xbd03dd48	-0.032193452
216	0x3d20103f	0.039077993
217	0xbd1b1c3e	-0.03786873
218	0xbcab4c9c	-0.020910554
219	0x3d6f4439	0.05841467
220	0xbc8a0eb0	-0.016852707
221	0xbda2bff4	-0.079467684
222	0x3ccd93c1	0.025094869
223	0xbcfdc5a7	-0.030978037
224	0xbd030950	-0.031991303
225	0x3c730943	0.014833751
226	0xbc99c8e3	-0.018772548
227	0x3d93a059	0.07208318
228	0x3de8135f	0.1133182
229	0xbc7f104b	-0.015567849
230	0x3d97998a	0.07402332
231	0x3d31f829	0.043449555
232	0x3ad69c07	0.0016373404
233	0xbda5a4d6	-0.080880806
234	0x3d6b3041	0.057419065
235	0x3c78628c	0.015160214
236	0x3ca507dc	0.02014535
237	0xbd81826e	-0.063237056
238	0x3d4b00f7	0.049561467
239	0xbd93c253	-0.07214799
240	0xbe061973	-0.13095646
241	0xbcfe8659	-0.031069921
242	0xbe251505	-0.161213
243	0x3c0f3385	0.008740311
244	0xbdf78a70	-0.12086952
245	0xbd7797c8	-0.060447484
246	0xbe48c9c5	-0.19608219
247	0xbd593451	-0.05302841
248	0xbdf56725	-0.11982564
249	0xbe22f640	-0.1591425
250	0xbd8a16bf	-0.0674262
251	0xbbda0fd7	-0.0066547203
252	0xbd1fa41e	-0.038974874
253	0xbdbed38a	-0.093176916
254	0xbcbc6f97	-0.023002429
255	0xbe0f0a63	-0.13968806

local_map_fc.bias f4 [64]
0	0xbd7bf3e6	-0.061511897
1	0xbdd75e6c	-0.105160564
2	0x3cd66d99	0.026175307
3	0xbd82015a	-0.06347914
4	0xbd758e28	-0.059950024
5	0xbd85dc03	-0.065361045
6	0xbd63c0ea	-0.0556039
7	0x3dbabb94	0.09117809
8	0xbc9be641	-0.019030692
9	0xbd6c0f56	-0.057631813
10	0xbd4f5799	-0.05062065
11	0xbd061aae	-0.032740287
12	0x3ddb0f75	0.106963076
13	0xbc9727f1	-0.018451663
14	0xbd024296	-0.031801783
15	0x3dc4cd26	0.096094415
16	0x3cc759d3	0.024334824
17	0x3bcacad2	0.006188729
18	0xbdab0a1b	-0.08351537
19	0x3c5751aa	0.013142029
20	0xbd9b8060	-0.07592845
21	0xbdf752cf	-0.12076341
22	0x3d244520	0.040104985
23	0x3d7aa84e	0.061195664
24	0xbd2493d6	-0.04018005
25	0xbd6dabca	-0.05802516
26	0x3cabfdbf	0.020995019
27	0xbc302b97	-0.01075258
28	0x3d11aabb	0.035563212
29	0x3d8b1d30	0.067926764
30	0xbc7b8d14	-0.01535346
31	0xbdc6564b	-0.09684428
32	0x3d09019d	0.033448804
33	0x3bd2ddb1	0.006435119
34	0xbcde2887	-0.027118934
35	0xbcf6a916	-0.030109923
36	0xbd5302f4	-0.05151649
37	0x3de967dd	0.113967635
38	0x3e0489bd	0.12943168
39	0x3c976e4f	0.018485216
40	0xbd85b9ca	-0.06529577
41	0x3ad0b06d	0.001592172
42	0x3cacc4c1	0.021089913
43	0x3df2b1b2	0.11850299
44	0x3d841f3d	0.06451271
45	0x3d71b4e5	0.059010405
46	0xbd5ae804	-0.053443924
47	0x3c683512	0.014172809
48	0xbd3a5768	-0.045493513
49	0xbc9f5fd2	-0.01945487
50	0xbcd08bb5	-0.025457243
51	0xbd3f379d	-0.046683896
52	0xbc883a6a	-0.016629416
53	0xbd3b3950	-0.045708954
54	0xbd52052c	-0.051274464
55	0x3d7913f2	0.060810037
56	0x3b2ccb9a	0.0026366473
57	0xbe1e8863	-0.15481715
58	0xbb9ff12b	-0.0048810444
59	0xbd578900	-0.052620888
60	0xbd08955c	-0.033345565
61	0x3da59b1f	0.080862276
62	0x3d953220	0.07284951
63	0x3daeef4f	0.08541738

self_entity_fc1.weight f4 [32, 26]
0	0x3e655c0e	0.22398397
1	0x3d00336b	0.031299036
2	0xbcdc8a1a	-0.02692132
3	0x3caff4ba	0.021479
4	0xbd74a654	-0.059728935
5	0x3e61a900	0.22037125
6	0xbcd0c9f4	-0.025486924
7	0xbf0aec4c	-0.5426681
8	0xbcd34625	-0.025790283
9	0xbdddf041	-0.108368404
10	0xbe09c65c	-0.13454574
11	0xbedd0d54	-0.4317423
12	0x3e17d086	0.14825639
13	0xbe334ce6	-0.17509803
14	0x3e36ef88	0.17864811
15	0x3deb3933	0.11485519
16	0xbe803aec	-0.25044954
17	0xbd4c6d75	-0.049909074
18	0x3d841362	0.064490095
19	0x3cd01024	0.025398321
20	0xbdce285e	-0.10066293
21	0x3e92dcef	0.28684184
22	0xbe0d6ea6	-0.1381174
23	0x3e3d19a9	0.1846682
24	0xbb25c91a	-0.0025296868
25	0x3d567201	0.052354816
26	0xbeb05ebc	-0.34447277
27	0xbdba2e04	-0.09090808
28	0x3cabf3af	0.02099022
29	0x3e2bebb4	0.16789132
30	0x3e223345	0.1583987
31	0xbe18d33e	-0.14924332
32	0x3db2b6ac	0.08726248
33	0xbe8fa6ee	-0.28057045
34	0xbd60daad	-0.054896045
35	0xbd4c6d81	-0.04990912
36	0xbdf2da9c	-0.11858103
37	0x3ce147a1	0.027499976
38	0x3d213a06	0.039361976
39	0x3d8dadb2	0.069178954
40	0x3e46301c	0.1935429
41	0x3df5d2dc	0.12003109
42	0x3e01e06a	0.12683263
43	0x3b60bedb	0.0034293446
44	0xbd89abfe	-0.06722258
45	0x3a543410	0.0008094916
46	0xbd8940d2	-0.067018166
47	0x3d983efd	0.07433889
48	0xbd3bb88b	-0.04583029
49	0xbc852ba7	-0.016256167
50	0x3db42b73	0.0879735
51	0x3e41221e	0.18860671
52	0xbcbbcd77	-0.022925122
53	0xbd7cb967	-0.06170025
54	0x3d6479f2	0.05578036
55	0xbe041191	-0.12897326
56	0x3de0d9e9	0.10979063
57	0xbedf6990	-0.43635225
58	0xbe8701f5	-0.2636868
59	0x3dc05b8b	0.093924604
60	0x3e092d64	0.13396221
61	0xbc9c29a3	-0.019062823
62	0xbedd4f49	-0.43224552
63	0xbd3dc8c6	-0.04633405
64	0xbda37e3f	-0.07983064
65	0x3db64ce8	0.089013875
66	0x3d628063	0.05529822
67	0x3e57953d	0.21053024
68	0x3c368812	0.01114084
69	0x3db85011	0.089996465
70	0x3c925377	0.017862065
71	0x3e1452c8	0.14484704
72	0x3d8ae54f	0.067820184
73	0x3dc87687	0.09788232
74	0x3e381d9c	0.17980045
75	0xbddd610a	-0.10809524
76	0xbd23c6bd	-0.039984453
77	0xbe08bfb0	-0.13354373
78	0xbdf445ef	-0.11927401
79	0xbd3ef141	-0.046616796
80	0x3dfcbaeb	0.12340339
81	0xbd8fc56c	-0.07020077
82	0xbdb4467d	-0.08802507
83	0x3db24dee	0.0870627
84	0x3d93df66	0.07220344
85	0xbd5fbf01	-0.054625515
86	0x3f3a0093	0.72657126
87	0x3e961b3e	0.2931766
88	0x3dae1464	0.08499983
89	0xbdab65fa	-0.0836906
90	0x3cdf8d17	0.027288957
91	0x3e79f2d8	0.24409044
92	0xbb5811b6	-0.003296954
93	0xbe17bbbf	-0.14817713
94	0x3e465f0f	0.193722
95	0x3e705799	0.23470916
96	0xbdf75fe1	-0.12078834
97	0xbd31d18c	-0.04341273
98	0x3e8bb78a	0.27288467
99	0xbd648386	-0.055789493
100	0xbe1d0039	-0.15332116
101	0x3d1c78ac	0.03820102
102	0xbde15035	-0.110016264
103	0x3e08e625	0.13369043
104	0xbe30b8f0	-0.17258048
105	0x3d09755c	0.03355919
106	0xba812311	-0.000985237
107	0xbe0cc6c1	-0.13747694
108	0x3e116459	0.14198436
109	0x3d4bf863	0.049797427
110	0x3ad145dd	0.0015966255
111	0xbe960f72	-0.2930866
112	0x3d264a1a	0.040598013
113	0x3e20f3f4	0.1571806
114	0x3ed2e417	0.41189644
115	0x3e5ea71a	0.21743432
116	0x3e1ae3e7	0.15126
117	0x3ddb076e	0.106947765
118	0xbe28cb61	-0.16483833
119	0x3d969471	0.07352532
120	0x3e6f529c	0.23371357
121	0x3eadfd99	0.33982542
122	0xbde908a7	-0.113786034
123	0xbd490a27	-0.049081948
124	0x3d579fd7	0.05264267
125	0xbd8aaed5	-0.06771628
126	0xbd726288	-0.059175998
127	0xbcbeb324	-0.02327878
128	0xbde89f53	-0.11358514
129	0xbdd37a88	-0.10326105
130	0x3d9071ee	0.0705298
131	0x3df0a055	0.11749331
132	0x3e582b1a	0.21110192
133	0x3d9f91cd	0.07791481
134	0x3d7842a9	0.060610447
135	0xbd7ab9a4	-0.061212197
136	0x3e157bcc	0.14598006
137	0xbf07547c	-0.5286329
138	0x3e3ff9fa	0.18747702
139	0xbc11bf32	-0.008895682
140	0x3d2f3992	0.042779513
141	0x3ea31390	0.31850863
142	0x3e1f187d	0.15536685
143	0x3dfad814	0.12248245
144	0x3cec825c	0.028870754
145	0xbe4f2197	-0.20227657
146	0x3d87f2c9	0.066381045
147	0xbc8e2120	-0.01734978
148	0xbe27e821	-0.16397144
149	0xbe52850d	-0.20558567
150	0xbe366aa1	-0.17814113
151	0xbe10b193	-0.14130239
152	0xbe01c29e	-0.12671897
153	0xbe3ab7bc	-0.18234152
154	0x3d7b0a9f	0.061289426
155	0x3dc5f85e	0.09666513
156	0xbd144c8b	-0.03620581
157	0xbe0e7241	-0.13910772
158	0x3b89487a	0.004189548
159	0x3e011ae0	0.12607908
160	0x3dc9ed9e	0.09859775
161	0xbd98f348	-0.07468277
162	0xbd478871	-0.048714105
163	0xbe79d1d8	-0.24396455
164	0x3daf3c42	0.08556415
165	0xbd35f9c6	-0.044427656
166	0xbe744768	-0.23855364
167	0x3d1b5b7b	0.03792904
168	0xbf3ac8e5	-0.7296279
169	0x3d82d4ca	0.063882425
170	0x3db28daf	0.0871843
171	0x3d3b8614	0.045782164
172	0xbea9c3c1	-0.3315716
173	0xbdb135e9	-0.08652861
174	0x3d39c0f1	0.04535002
175	0x3cf4e644	0.029894955
176	0xbd4960c1	-0.049164537
177	0x3e444a48	0.19168961
178	0x3e034e48	0.1282283
179	0xbdbc5e49	-0.09197671
180	0x3bf59557	0.0074946093
181	0xbe00afce	-0.12567064
182	0x3e4ad3da	0.19807377
183	0x3c20995d	0.00980219
184	0xbb8e55c2	-0.004343719
185	0x3cf577ac	0.02996429
186	0xbd372896	-0.04471644
187	0xbe073284	-0.13202864
188	0x3dd2895b	0.10280105
189	0x3d508c46	0.050915025
190	0xbf0b429a	-0.543985
191	0x3e1cd59d	0.15315862
192	0xbe18bbd3	-0.14915399
193	0x3e7ba995	0.24576409
194	0x3dcb4184	0.099246055
195	0x3dfb4c04	0.12270358
196	0x3dad39f9	0.08458323
197	0x3e723031	0.23651196
198	0x3de732a6	0.11288957
199	0x3e4e7783	0.20162778
200	0xbd42d09f	-0.047562238
201	0x3de43965	0.1114376
202	0x3d36e4fc	0.04465197
203	0x3e35ad72	0.17741945
204	0x3bd4df61	0.0064963554
205	0xbd94216f	-0.072329395
206	0x3dba05be	0.090831265
207	0xbe0fa600	-0.14028168
208	0xbb8d339a	-0.00430913
209	0xbdf0d468	-0.11759263
210	0xbc484df8	-0.01222562
211	0x3dce05b7	0.10059684
212	0xbcce9af0	-0.025220364
213	0xbd8b7b21	-0.06810594
214	0x3d391ea9	0.045195255
215	0x3eec3acd	0.4613861
216	0x3da09106	0.07840161
217	0x3d83dca0	0.06438565
218	0xbf19669f	-0.5992221
219	0xbddddc63	-0.10833051
220	0xbe0a7b14	-0.13523513
221	0x3dd72211	0.105045445
222	0x3e335372	0.175123
223	0x3e096bd1	0.13420035
224	0x3df4f795	0.11961285
225	0xbe2fcc1e	-0.17167708
226	0xbdac9ce7	-0.08428364
227	0xbdafff55	-0.085936226
228	0xbdbd542e	-0.092445716
229	0x3e23578b	0.15951364
230	0x3dc59a67	0.096485905
231	0xbd6dce39	-0.058057997
232	0xbe0aedf0	-0.13567328
233	0xbe08d058	-0.13360727
234	0xbe3d8c7b	-0.1851062
235	0xbe4d48fb	-0.20047371
236	0xbd40970b	-0.047019046
237	0x3d9bdaba	0.07610078
238	0xbda0b97a	-0.07847877
239	0xbeb76394	-0.3581816
240	0xbecd75c9	-0.40128925
241	0x3e29949c	0.16560596
242	0xbdfd3ca3	-0.12365081
243	0xbd706d42	-0.058697946
244	0x3e17e96a	0.14835134
245	0x3e32f3ea	0.17475858
246	0x3d9f8d9c	0.07790682
247	0xbd8968ba	-0.06709428
248	0x3d907a84	0.07054618
249	0x3dcdf0a8	0.10055667
250	0xbd2b36d5	-0.04180034
251	0xbde16833	-0.110062025
252	0x3d7d0498	0.06177196
253	0xbd9672a1	-0.073460825
254	0xbbb15193	-0.0054113357
255	0x3e84659f	0.2585878

self_entity_fc1.bias f4 [32]
0	0xbd3fb0bd	-0.04679941
1	0x3e845bc2	0.25851256
2	0x3cd1a6c0	0.025592208
3	0xbe626e6a	-0.22112432
4	0xbd43dc6a	-0.047817625
5	0xbdd89453	-0.105751656
6	0x3e66c0f6	0.22534546
7	0x3de92b6a	0.11385234
8	0x3e604e23	0.21904807
9	0x3e07efd1	0.13275076
10	0x3d827de7	0.0637167
11	0x3e56e4b9	0.20985688
12	0x3d13720f	0.035997447
13	0xbd8dc857	-0.069229774
14	0xbdd3571e	-0.10319351
15	0xbccbce73	-0.024878716
16	0x3e0d0631	0.13771893
17	0x3e224b3a	0.15849009
18	0x3e56d0f4	0.20978147
19	0x3d55908c	0.052139804
20	0x3e57b3a3	0.2106462
21	0x3dcc1a6a	0.099659756
22	0x3e690304	0.22755057
23	0xbda6c48d	-0.08142958
24	0x3e6ad869	0.22934116
25	0x3dcb1563	0.099161886
26	0xbe568d58	-0.20952356
27	0x3ce21c5f	0.027601419
28	0x3ea34613	0.318894
29	0x3edf6e48	0.43638825
30	0xbd7d390c	-0.061821982
31	0x3d81ccb4	0.06337872

self_entity_fc2.weight f4 [32, 32]
0	0xbdc9941d	-0.098427035
1	0x3e04c4ca	0.12965694
2	0x3edc5fe1	0.430419
3	0xbec91475	-0.3927342
4	0x3e4009bf	0.18753718
5	0x3dbcf706	0.092268035
6	0xbe38f66a	-0.1806275
7	0x3e46237f	0.19349478
8	0xbefe1d22	-0.49631602
9	0xbd463565	-0.048390765
10	0x3d8b4b47	0.068014674
11	0xbe2000f0	-0.15625358
12	0xbde7788a	-0.11302288
13	0x3e60da37	0.21958242
14	0xbeae2911	-0.34015706
15	0x3d40c507	0.0470629
16	0x3d28d5a2	0.04121936
17	0x3e2e5c81	0.17027475
18	0x3d994522	0.07483889
19	0x3d98359d	0.07432101
20	0xbc3a6443	-0.011376443
21	0x3ad9e679	0.0016624472
22	0xbda4d984	-0.080493
23	0x3e700353	0.23438768
24	0xbb59d915	-0.0033240963
25	0x3dd68ee8	0.10476476
26	0xbec607ba	-0.3867777
27	0x3e5fb153	0.21844988
28	0x3ee86cf2	0.4539562
29	0x3ee821c8	0.45338273
30	0x3e64323b	0.22284786
31	0xbd1d38f7	-0.038384404
32	0x3e858ba0	0.26083088
33	0x3da46daf	0.08028733
34	0xbd6f4e0d	-0.058424044
35	0x3c937732	0.018001173
36	0xbf053cb3	-0.52045745
37	0xbdd1727c	-0.10226914
38	0x3f214c9e	0.63007534
39	0xbda7f0ac	-0.082002014
40	0x3edf4fa9	0.43615463
41	0x3d1f2d31	0.038861457
42	0x3e967004	0.29382336
43	0x3ef5936b	0.47964033
44	0xbcc9360b	-0.024561903
45	0xbec103ea	-0.376983
46	0x3df5fcd5	0.120111145
47	0x3e0e5016	0.13897738
48	0x3e5f1681	0.21785928
49	0xbd43b409	-0.047779117
50	0x3ccb8a3f	0.024846194
51	0xbdf20bc5	-0.11818651
52	0x3d7bfc93	0.06152017
53	0x3debd54f	0.11515295
54	0xbdf480a4	-0.11938599
55	0xbe11812b	-0.1420943
56	0xbe529dd5	-0.2056802
57	0x3d92aeea	0.071622685
58	0xbda50cf4	-0.08059111
59	0xbd836aac	-0.064168304
60	0xbee10c7e	-0.43954843
61	0xbefe4ae7	-0.4966652
62	0x3d2a5db6	0.041593276
63	0xbdece490	-0.11567032
64	0xbdc8db11	-0.098074086
65	0xbcdaf80c	-0.026729606
66	0xbeef2ca7	-0.46713755
67	0xbe851e41	-0.25999644
68	0x3e636a92	0.22208622
69	0xbe0cd28d	-0.13752194
70	0xbde67d60	-0.11254382
71	0x3e05b38a	0.1305677
72	0xbf971816	-1.1804225
73	0x3c83e69e	0.016101178
74	0x3dbe2fce	0.09286462
75	0x3ca193bd	0.019723767
76	0xbd8f9ca1	-0.070122965
77	0xbf032739	-0.51231724
78	0xbea5981e	-0.3234262
79	0x3dcef649	0.10105569
80	0x3d37e5a6	0.044896744
81	0x3e09faad	0.13474531
82	0x3e8a59a5	0.27021518
83	0xbe51e7dd	-0.20498605
84	0x3d66d9a1	0.05635989
85	0x3dab3673	0.08359995
86	0x3db67341	0.08908702
87	0x3e5b9896	0.21444926
88	0x3db8cba2	0.09023215
89	0x3e5dc415	0.2165683
90	0xbec244a5	-0.37942997
91	0xbd175081	-0.03694201
92	0x3dd33b29	0.10314018
93	0xbd51e0c8	-0.05123976
94	0x3d3c903a	0.046035983
95	0xbba297f7	-0.0049619633
96	0x3d15b2b0	0.036547363
97	0xbe147b8c	-0.14500254
98	0xbef8ed32	-0.48618466
99	0x3dba3415	0.09091965
100	0x3e1ca234	0.1529625
101	0x3e555f9b	0.20837252
102	0xbd0fbc15	-0.03509148
103	0xbeca2f5a	-0.3948925
104	0xbefe4aae	-0.4966635
105	0xbe8254dc	-0.25455368
106	0xbf0acafe	-0.5421599
107	0x3bd1d2ff	0.0064033265
108	0x3e8dcbe0	0.27694607
109	0xbf27c6c3	-0.6553766
110	0x3e992f9d	0.2991914
111	0x3defe064	0.11712721
112	0x3d55707f	0.052109238
113	0x3e7758da	0.24154988
114	0xbedbe31d	-0.4294671
115	0xbb896519	-0.00419296
116	0xbe13b4d4	-0.14424449
117	0xbe6f88b9	-0.23392
118	0xbdc08547	-0.09400421
119	0xbdb468b8	-0.08809036
120	0x3cb0156d	0.021494592
121	0xbdc32ef1	-0.09530438
122	0x3e58d197	0.21173702
123	0xbeebcb77	-0.4605367
124	0x3e1073ad	0.14106627
125	0x3dde9af2	0.10869397
126	0xbe317122	-0.17328313
127	0x3e2a3822	0.16622975
128	0x3eb577e4	0.35443032
129	0x3dc46a03	0.09590533
130	0xbdfece44	-0.12441686
131	0xbc9ad580	-0.018900633
132	0xbeb27ca8	-0.3486073
133	0xbdd1f9c4	-0.10252717
134	0x3e4a8662	0.19777825
135	0xbe1a1dfa	-0.15050498
136	0x3eb1f4c6	0.3475706
137	0xbd5538c3	-0.052056085
138	0x3e5d9012	0.2163699
139	0x3f074bb6	0.528499
140	0x3e26567d	0.1624393
141	0xbef20b9c	-0.47274482
142	0xbd2a70a9	-0.041611347
143	0x3e5b26e8	0.2140156
144	0x3e517664	0.20455319
145	0xbc9468e8	-0.01811643
146	0xbc8378e9	-0.016048865
147	0xbd4b1cce	-0.049588017
148	0x3e8cdb46	0.27511042
149	0x3c22c4b4	0.009934593
150	0xbce0482f	-0.02737817
151	0x3e0c2d30	0.13689113
152	0xbeb2b8e7	-0.34906694
153	0x3da753cc	0.0817028
154	0x3d9a4b68	0.07533914
155	0x3d0568a5	0.0325705
156	0xbea2929f	-0.31752488
157	0xbeccdf83	-0.40014276
158	0x3d821cca	0.06353147
159	0x3c31d4c4	0.01085395
160	0x3e09cf0b	0.13457887
161	0x3e9bc0e2	0.30420595
162	0x3ee124f6	0.4397351
163	0xbd823cb7	-0.06359237
164	0x3e25b748	0.16183197
165	0xbd12ab72	-0.035808034
166	0x3e1c1855	0.15243657
167	0x3da8257f	0.08210277
168	0x3f5c8c50	0.861516
169	0xbe2b930a	-0.1675531
170	0x3e9954f6	0.29947633
171	0x3e548c9c	0.20756763
172	0xbe5d0cd2	-0.21586922
173	0x3f0b62c9	0.5444761
174	0x3e388948	0.18021119
175	0x3e43e7a0	0.19131327
176	0x3e5c0094	0.21484596
177	0xbc8e7e84	-0.017394312
178	0x3d2e1d4c	0.04250841
179	0x3df117b1	0.11772097
180	0x3da90288	0.08252436
181	0xbdd0c374	-0.1019353
182	0x3db36d67	0.08761101
183	0xba366385	-0.00069575786
184	0x3e7d72b8	0.24750793
185	0xbe150e35	-0.14556201
186	0xbe585685	-0.21126755
187	0x3d93ef8a	0.07223423
188	0xbe41340c	-0.1886751
189	0xbebf1238	-0.37318587
190	0x3c02f513	0.007993001
191	0xbe2ffba9	-0.17185844
192	0xbd883d8c	-0.06652364
193	0x3e463fe6	0.19360313
194	0x3de987f4	0.11402884
195	0xbea5d002	-0.3238526
196	0x3dc7e2f9	0.097600885
197	0x3d877af3	0.066152476
198	0xbed07a89	-0.40718487
199	0x3cc9820a	0.02459814
200	0xbf9332ac	-1.1499839
201	0x3c94d68c	0.01816871
202	0x3e65120a	0.22370163
203	0xbe1bbe2d	-0.15209265
204	0xbe56b085	-0.20965774
205	0xbedb3c41	-0.42819408
206	0xbce940a8	-0.028473213
207	0xbdd31029	-0.10305817
208	0x3ddf028e	0.10889159
209	0x3e6b0282	0.22950175
210	0x3df3009c	0.118653506
211	0x3db187ff	0.08668517
212	0x3e312009	0.17297377
213	0xbdd0ac8a	-0.10189159
214	0x3e6286f7	0.22121798
215	0x3dfcc2c5	0.12341837
216	0x3ddccdf5	0.10781471
217	0x3d4237fe	0.04741668
218	0xbeeba9a9	-0.46027878
219	0x3e915bb2	0.2839027
220	0x3cf818ef	0.030285327
221	0xbd81835f	-0.06323885
222	0xbd113644	-0.035452142
223	0x3ccd1070	0.025032252
224	0x3eccb3c1	0.3998089
225	0xbb9c0736	-0.004761602
226	0x3d9f9bf6	0.07793419
227	0xbd2c0026	-0.04199233
228	0xbd4e6cc5	-0.0503967
229	0xbe2d03d4	-0.16895992
230	0xbe735b97	-0.23765408
231	0x3cd94671	0.026522847
232	0x3e87ac8f	0.2649884
233	0x3d1c361f	0.03813755
234	0x3d956299	0.07294197
235	0x3f006b5a	0.50163805
236	0x3cecf237	0.02892409
237	0xbef7d040	-0.4840107
238	0x3ceb8d4e	0.028753903
239	0x3db7d27a	0.08975692
240	0x3cfc05e2	0.030764524
241	0xbdd62ce3	-0.1045778
242	0x3d9d06ed	0.076673366
243	0x3cc29a29	0.02375515
244	0x3e0176b4	0.12642938
245	0xbdf0ff44	-0.11767438
246	0xbd248928	-0.040169865
247	0x3e7c2dcd	0.24626847
248	0xbe8f185b	-0.2794827
249	0x3d39f989	0.04540399
250	0xbc8e859b	-0.017397692
251	0xbd44b713	-0.048026156
252	0xbeb65093	-0.35608348
253	0xbe96ce75	-0.2945439
254	0x3daa42c9	0.083135195
255	0x3d8ed5fb	0.06974407

self_entity_fc2.bias f4 [32]
0	0x3dd034f3	0.10166349
1	0x3daf1567	0.08549004
2	0x3d36e594	0.044652537
3	0xbd93046c	-0.07178578
4	0x3e28c86c	0.16482705
5	0xbd3045fc	-0.043035492
6	0xbccbba6a	-0.024869163
7	0x3e8248d6	0.25446194
8	0xbd6878ee	-0.056755953
9	0xbe0199fd	-0.12656398
10	0x3e464252	0.19361237
11	0x3c2cf698	0.010556839
12	0xbe0a95de	-0.13533732
13	0x3e3541c6	0.17700872
14	0xbc974361	-0.018464746
15	0xbdf21a0a	-0.11821373
16	0xbdd64a9b	-0.104634486
17	0xbe0bf709	-0.13668455
18	0xbd53394b	-0.05156831
19	0xbde77f73	-0.11303606
20	0x3e220aa2	0.15824369
21	0x3e1691af	0.14704011
22	0x3c853aed	0.01626345
23	0xbe33b38f	-0.17548965
24	0x3dd18ff3	0.10232534
25	0xbd51eeb3	-0.051253032
26	0xbd9cecd4	-0.07662359
27	0xbda46317	-0.080267124
28	0x3dc66885	0.09687904
29	0xbd576611	-0.052587572
30	0x3de2d055	0.110748924
31	0x3e25376f	0.16134427
