my-submission/checkpoints/model_518144.pt (torch, 352797 bytes, 23 tensors)

local_map_cnn.0.weight f4 [32, 24, 3, 3]
000000 f7 20 9d bd e1 a2 ad 3c 77 71 1a 3e a0 85 a6 3c
       -0.07672303 0.02119583 0.15082346 0.02032739
000010 7c 67 5e bd 59 b8 b5 3d 37 4a a9 bd 4f b3 cd bd
       -0.05429791 0.08873052 -0.082661085 -0.10043966
000020 6c 19 e6 3d 72 6d ea 3c 17 fb f1 bc 06 7f 02 be
       0.112353176 0.02861664 -0.029538674 -0.12743768
000030 cd e3 a0 3d 9f 27 4f 3b 84 0b 1a 3e 20 e1 4b bc
       0.078559496 0.003160931 0.15043455 -0.012443811
000040 c5 b4 f0 38 59 a9 31 be 41 1e d8 bc c0 97 84 3b
       0.00011477763 -0.17349757 -0.026381614 0.0040464103
000050 5b a4 dc 3d 5d 43 68 3c aa 5b c6 bd 00 cf d8 be
       0.10773536 0.014176217 -0.09685452 -0.42345428
000060 96 19 14 bd 82 35 45 bd 03 ca 57 3d dd 44 71 3b
       -0.036157213 -0.048146732 0.052682888 0.0036814727
000070 7d 00 97 b8 bd f5 d5 3d f6 5a e6 bc 52 01 9e bd
       -7.200332e-05 0.104472615 -0.028119545 -0.077150956
000080 7a 58 bb be 85 7c d3 bd 45 c1 07 be d7 3a ad 3b
       -0.3659094 -0.103264846 -0.1325732 0.0052865553
000090 e1 c6 33 3c 14 40 3e 3b 15 50 ac 3d ae 27 7c ba
       0.010972709 0.0029029893 0.08413712 -0.000961895
0000a0 84 71 26 3d c6 b7 85 3c d7 f8 83 bd 5b ce b5 bd
       0.0406356 0.016322982 -0.06443947 -0.0887725
0000b0 73 88 02 3e 2c 4c 60 3d 44 06 40 3d 88 f5 3b be
       0.12747364 0.054760143 0.046880975 -0.18355381
0000c0 5f bc a1 3c 49 87 f0 bb f4 68 1d 3e d4 f1 3b 3d
       0.019743143 -0.007340346 0.15372068 0.045884922
0000d0 6b 28 5c 3d 1b bd b0 be dc c6 35 bd 40 13 91 bd
       0.053749483 -0.34519276 -0.0443791 -0.0708375
0000e0 3a 2f 06 be c9 d7 2b bd 00 87 01 be 3e 64 61 be
       -0.13103953 -0.041953836 -0.12649155 -0.22010896
0000f0 9f 88 82 bd 65 ef af bd 64 fd f0 3c 9f f7 4f bc
       -0.06373715 -0.08590583 0.029417701 -0.012693315
000100 99 4e ef bc 86 c3 44 3d 4e c3 71 3c 66 9a 3e be
       -0.029212283 0.04803803 0.014756037 -0.18613586
000110 c7 38 28 be 9f cf 9a bd 93 8c 9b bc 22 35 2b 3a
       -0.16427909 -0.07559132 -0.01898793 0.000653105
000120 bd b3 4b bd ee f1 96 3d ca 8c e4 3d 90 27 08 be
       -0.04973196 0.07370363 0.11159666 -0.13296342
000130 85 9f 8d be 09 ee c3 bd 07 2c ef bd 59 07 f8 bc
       -0.27660766 -0.09566886 -0.116783194 -0.030276941
000140 56 2b 69 3d c5 07 8d bc f7 75 5e 3b bb 9f 34 bd
       0.056926094 -0.017215619 0.0033944824 -0.044097643
000150 c0 f3 86 3c f2 68 17 bd 06 4e 75 be ed c1 91 3d
       0.016473651 -0.036965318 -0.23955545 0.071170665
000160 1f ad a2 bd c8 40 66 3d f3 a4 c7 bd 06 7a 00 3e
       -0.079431765 0.056214124 -0.097482584 0.12546548
000170 18 1a ef bc f1 f0 9a bd 9f 82 04 be 91 f8 bb be
       -0.029187247 -0.07565487 -0.12940453 -0.3671308
000180 61 85 4d bd 72 d6 a0 bd 47 f2 19 3c 9e 49 e3 bd
       -0.05017603 -0.07853402 0.009396142 -0.11098026
000190 20 0c aa bd a3 af d4 bc 4f 86 3f be 80 5c 2f be
       -0.08303094 -0.025962656 -0.18703578 -0.1712513
0001a0 86 75 14 be a9 28 1e bd f5 13 b5 bd 2a 8e b4 bd
       -0.14497957 -0.038612995 -0.08841697 -0.08816178
0001b0 e7 61 9e bd 50 e2 8a bd 28 5c d2 3d c7 90 0c be
       -0.07733517 -0.06781447 0.10271484 -0.13727103
0001c0 a6 b5 71 bd 09 ba 9f be 63 a9 ec bd 8f b4 13 be
       -0.059011124 -0.3119662 -0.115557455 -0.14424346
0001d0 5d e4 1d 3c c0 8b 1d bc 61 21 84 bd a1 c1 cd 3d
       0.009636966 -0.0096158385 -0.06451679 0.100466974
0001e0 17 fd 33 bd c6 78 3d 3d 7c de 75 be 01 05 39 be
       -0.043942537 0.046257757 -0.24010652 -0.18068315
0001f0 5c 1b 3f bd 98 1c 83 3d 3f 7f e4 bc 20 00 ce 3b
       -0.04665695 0.06401938 -0.027892707 0.006286636
000200 2e 6b 25 be 63 c1 15 3d f1 c2 82 bc 6c 2f 08 3e
       -0.16154167 0.03656138 -0.015962096 0.1329934
000210 22 55 c0 bd 08 0c bb bc 65 9d 2d be dc 73 fe bc
       -0.09391238 -0.022832885 -0.16954572 -0.031061105
000220 a7 12 83 3c 9b c0 11 3e f9 b0 8e 3d 61 98 15 bd
       0.016000105 0.1423363 0.069673486 -0.036522273
000230 0a 10 fe bd d2 4e 8f bc ac 79 58 3d e2 44 60 3e
       -0.12405403 -0.01749364 0.05285041 0.21901277
000240 e4 d8 a6 3d 0c a5 b6 3d 5f 70 0c 3e c7 43 05 3d
       0.08146837 0.08918199 0.13714741 0.03253534
000250 9b 9e 35 bd 87 d3 15 bf d2 fe 98 3c 21 00 98 bd
       -0.04434071 -0.5852589 0.018676195 -0.074218996
000260 cf d4 46 3e 21 d6 57 bd 20 fa 8c bd f1 3d b7 bd
       0.19417118 -0.052694444 -0.06883645 -0.08947361
000270 69 e6 2c bd 6b 01 50 bd 35 1c be bc 20 f1 f6 3c
       -0.042211924 -0.050782602 -0.02320681 0.030144274
000280 3a 95 38 bd 94 65 2f be d1 ba 3f 3e 1e 9a a4 bd
       -0.04506419 -0.17128593 0.18723609 -0.08037208
000290 d9 07 a6 3e a8 53 10 bd 0f de 09 bc 76 ee e8 3e
       0.32427862 -0.03523603 -0.008414759 0.4549443
0002a0 c6 e4 75 3e 49 d3 4a 3d ae 08 c1 3e fe f7 13 3a
       0.24013051 0.049517903 0.37701935 0.00056445587
0002b0 99 64 3c 3d ec 31 8f 3c c5 e7 01 3c 4a 7b f0 bd
       0.045994375 0.01747986 0.007928793 -0.117422655
0002c0 07 70 12 3e 2c ae 5d 3c 1e 10 bf 3d f1 2b a2 bc
       0.14300548 0.013530295 0.09329246 -0.019796344
0002d0 31 7f 36 be 5c cb 0e be 6f 68 97 bd df cb 01 3d
       -0.17821957 -0.13944763 -0.07392966 0.031688567
0002e0 c2 d8 3f be 0d 14 1e be 42 42 de bd ea 85 ad bd
       -0.1873503 -0.15437336 -0.108524814 -0.08472808
0002f0 ef 41 59 3d 7e b1 ca 3e 56 82 0c 3f a3 de 9c 3e
       0.053041395 0.3958854 0.54886377 0.30638608
000300 97 1c 31 3f 4c 46 11 3f 5e 3f d9 3e f6 27 98 bd
       0.6918425 0.5674789 0.42431158 -0.07429497
000310 7e 29 69 3e 43 bd bc 3d 00 78 f8 3e 6c 88 f8 3e
       0.22769734 0.09215786 0.48529053 0.48541582
000320 80 e7 e2 3c 0c 25 31 3f 9f f8 36 3f 14 ff c9 3d
       0.027698278 0.69197154 0.71473116 0.098631054
000330 6c dd 16 3e d9 06 cd 3e a0 fb ba 3e 0a ae 20 3e
       0.14732903 0.40044287 0.365201 0.1569139
000340 bd ca 93 3d 07 62 b2 3d b2 cc b1 3d c9 63 e6 bb
       0.07216404 0.087101035 0.08681621 -0.0070309383
000350 9a 44 c9 bd 99 c4 a7 3d ff c5 02 bd 7a 5d 37 bd
       -0.09827538 0.08191795 -0.031927105 -0.04476688
000360 b9 7f 3b 3d 74 9c 37 bb 5f cc 97 3d b8 9d 17 bd
       0.045776103 -0.0028016837 0.074120276 -0.037015647
000370 b7 22 87 3d 78 2a 79 3d ef 74 4d bd b7 ad a5 3d
       0.06598418 0.060831517 -0.050160345 0.08089774
000380 de 0c 37 bd 49 69 0a 3c ce 98 65 3d 2e af 90 bb
       -0.044690005 0.0084479535 0.05605393 -0.0044154143
000390 93 86 45 3d 39 98 cc 3c a1 77 c0 3c 8b 7d 4e 3d
       0.048224043 0.02497493 0.023494544 0.050412696
0003a0 e2 b4 bc 3d a0 bc c0 3c 04 b5 2d bc 9e 33 b6 bb
       0.09214188 0.023527443 -0.0106022395 -0.0055603525
0003b0 dc c1 04 3d 20 04 ca bc 64 cd 90 bd 5e b1 9e 3c
       0.03241144 -0.02466017 -0.07070425 0.019371685
0003c0 89 4a e6 bb bf 10 88 bc 75 ae ae 3b 4b b0 f0 3c
       -0.0070279283 -0.016609548 0.0053308555 0.029380938
0003d0 63 21 c1 ba f1 7f 09 3d fd cf 21 3d 7a 54 80 3d
       -0.0014734681 0.03356928 0.039504994 0.062661126
0003e0 99 5c aa 3d da 90 f8 3c 4d b5 3d 3d 8c 4a 7f 3d
       0.08318443 0.030342508 0.04631548 0.062326953
0003f0 5f 1f 8c 3d f2 54 39 3d e4 13 9a 3d 96 f0 eb bc
       0.06841921 0.045247026 0.07523325 -0.028801244

local_map_cnn.0.bias f4 [32]
000000 7b e4 2e bb 7f 19 2a bd 3b a3 a7 bc 3e 73 b8 bd
       -0.0026686478 -0.04152822 -0.020463577 -0.09006356
000010 ae 07 12 3d ce 3e 67 3c 1d 95 ae 3c 1f d6 46 bd
       0.035651855 0.014114095 0.021311337 -0.048544046
000020 00 3f 6d 3c 50 48 c2 bd f8 45 1b 3c eb be a2 bc
       0.014480352 -0.09486449 0.009477131 -0.019866427
000030 55 07 b5 bc 19 94 0e bd 29 2d 0f bd 90 7c 0b be
       -0.022098223 -0.034809206 -0.034955177 -0.13621736
000040 a0 e4 f8 bc 67 35 41 3d e4 d4 ec 3c 46 84 29 3d
       -0.030382454 0.04717007 0.028910108 0.04138591
000050 34 6d a3 bd 60 39 ad 3d c6 5e ef 3b 84 c3 69 bd
       -0.07979813 0.08458209 0.007304999 -0.057071224
000060 8d 38 9e bd cd 2e 86 bd ca 0b 48 bd 3e af 11 bc
       -0.0772563 -0.06551895 -0.048839368 -0.008891879
000070 8d d2 66 3d f4 77 53 3d 03 b7 ae 3d 28 64 2a 3c
       0.05635314 0.051628068 0.085310005 0.010399856

local_map_cnn.2.weight f4 [32, 32, 3, 3]
000000 20 ec 14 3e 11 2d 2e bd ec 78 0e be 27 92 cf bd
       0.145432 -0.042523447 -0.13913316 -0.10135298
000010 98 51 1e be 06 97 56 3d 45 43 a5 be 32 8f 31 bc
       -0.15460813 0.05239012 -0.32277885 -0.010837363
000020 82 c3 1c bd fa 03 0d bd 87 34 86 bd 4e e9 32 bd
       -0.03827239 -0.03442762 -0.065529875 -0.043679528
000030 bc 65 74 bd 37 59 93 bd da 9e 82 bd 95 64 37 3c
       -0.059667334 -0.07194751 -0.06377955 0.011193414
000040 bd 0f 57 bd 03 44 c6 bd 34 ad b6 3d c1 74 01 be
       -0.052505244 -0.09680941 0.089197546 -0.12642194
000050 bd 4e e3 3c f6 6a 44 3e 35 40 27 3e d4 4c 28 3e
       0.027747506 0.19181427 0.16333087 0.16435558
000060 93 79 3b bd 79 59 e5 bd 7c 2f 24 3c 5a c6 88 bb
       -0.04577024 -0.11198706 0.010021087 -0.004174036
000070 f0 9a 4a 3e fa 18 19 3e 7a 8c 93 3d 1f 7b 84 3e
       0.19785666 0.14950934 0.07204528 0.25875184
000080 40 9e 3d 3e f3 fc 0f be ff a9 df bc 67 c2 da 3d
       0.18517399 -0.14061336 -0.02730274 0.106816106
000090 45 49 87 3c 78 e2 63 bd da 76 7c 3d ae 4e 15 3d
       0.01651443 -0.0556359 0.061636783 0.036451988
0000a0 3c 6d 83 be 63 e0 a3 bd ed 26 9b 3c f4 a9 02 be
       -0.25669277 -0.08001783 0.01893946 -0.12760144
0000b0 cb 0b 31 bd 47 4c 86 bd 0f 0b c8 bd ae d0 c2 3c
       -0.043224137 -0.065575175 -0.09767734 0.023781147
0000c0 2e bc 14 bd 77 7d 5f be 81 c0 d2 bd 84 61 3e bb
       -0.036312275 -0.21825205 -0.102906235 -0.0029049823
0000d0 91 3d e0 bc 52 58 51 3d 75 04 db bc d4 ef 2a bd
       -0.027373107 0.05110962 -0.026735524 -0.041732624
0000e0 ac 1f 6f bd c1 8b c0 bc ac 1a e0 bc 44 d7 a1 bd
       -0.058379814 -0.02350414 -0.027356468 -0.07902387
0000f0 33 01 68 bb 4a 3e 01 be cd bf 08 bd b5 d4 e6 3d
       -0.0035401105 -0.12621418 -0.03338604 0.112710394
000100 c4 bb b7 3d e0 c7 07 3e 76 d1 ba 3d 32 ba f0 3d
       0.0897136 0.1325984 0.09121983 0.11754264
000110 29 a0 1c 3e f2 23 34 3d e5 eb cf 3d 6b 6e fc 3d
       0.15295471 0.043979593 0.10152415 0.12325748
000120 40 60 06 3e 8c dc 5a 3e d7 ea cd bd e0 7f 08 3e
       0.13122654 0.21373194 -0.10054558 0.1333003
000130 9b 98 db bd 5c 6c 30 bd d6 fa 00 3e 1e df 33 bd
       -0.107224666 -0.04307209 0.12595686 -0.043913953
000140 e4 8c 79 bd 98 e0 1c 3d 0e a5 c4 3d b9 05 0b 3d
       -0.06092538 0.038300127 0.09601794 0.033941004
000150 50 b3 69 3d e4 52 ba 3d b6 7a 6f 3d 24 ef 0e bd
       0.05705577 0.090978414 0.058466636 -0.03489603
000160 45 86 0c 3d 8b 74 ef 3c d0 4f a9 3b 37 d8 50 bd
       0.034307737 0.029230377 0.005166985 -0.05098745
000170 33 4b 20 3d 2f 47 9a 3d b0 27 bd bd 5f e5 1a bd
       0.039134216 0.075331084 -0.092360854 -0.0378164
000180 86 80 d7 bc e2 30 12 be 7e fb 1f 3d 75 12 87 3e
       -0.026306402 -0.1427646 0.0390582 0.2638127
000190 c5 1e cc 3c 7b 45 40 3e 15 d2 23 3d f2 3a 9b 3d
       0.024917016 0.18776505 0.03999527 0.07579602
0001a0 df 07 cd 3d cb ec 3e 3d 5d 1f 74 bd 04 d6 9d 3d
       0.10011267 0.046612542 -0.059600223 0.07706836
0001b0 53 3f b4 bd d8 51 00 3d ce 74 63 bc b1 01 df 3d
       -0.08801141 0.031328052 -0.013882829 0.108889945
0001c0 79 c9 43 3d 87 4e 2d be b3 db 44 3c 3e e5 4f bd
       0.04779956 -0.16924487 0.012015271 -0.05075573
0001d0 51 57 ca bc 3f d0 66 3d 06 a3 01 3e b8 b0 36 3d
       -0.024699839 0.056350943 0.12659845 0.044602126
0001e0 12 cb 9d 3d c6 76 39 bc 68 6f d1 3c 65 58 32 3d
       0.07704748 -0.011319822 0.025565818 0.04354133
0001f0 a2 8e a7 3d 76 d4 02 3d d2 9b a7 bd e3 8d 5e bd
       0.08181502 0.0319409 -0.08184017 -0.054334532
000200 39 41 2c bd 05 28 0b be 5d 02 26 bd 96 d4 42 bc
       -0.04205439 -0.13589485 -0.040529598 -0.011891505
000210 ca b4 19 be ee a7 01 be ed e6 84 3b 21 54 86 3c
       -0.15010372 -0.12661716 0.004055849 0.016397538
000220 16 de 9a 3d 60 c1 3b bd 4a d6 3c bd c7 dd a5 3d
       0.07561891 -0.045838714 -0.0461028 0.08098941
000230 ce 2a c7 3c 26 d0 71 be b1 15 0f bb 48 b8 1c bd
       0.024312403 -0.23614559 -0.0021832997 -0.03826168
000240 c2 3d 6f 3d a0 13 17 3e b2 44 3c 3d 89 32 25 3e
       0.058408506 0.1475358 0.04596395 0.16132559
000250 98 2e 79 3e 16 05 18 3d b1 c9 20 3d 9d 66 b7 3d
       0.2433418 0.037114225 0.039254848 0.08955119
000260 f9 b1 22 3e e8 d0 9b 3d 22 33 79 3d a1 13 0e 3d
       0.15888204 0.07608205 0.06083978 0.03468669
000270 83 5d 5c 3d 13 d8 ff 3d e7 b5 34 3d 8f ba 85 bc
       0.053800117 0.12492385 0.044118788 -0.01632431
000280 b1 c6 db 3d cc ee 35 bb c2 24 d1 3c 3d d8 50 bd
       0.10731257 -0.0027760742 0.025530223 -0.05098747
000290 5d 94 9b 3d 9d 4f b2 3c 09 78 8e 3d 33 8c 25 3e
       0.075966574 0.021766478 0.06956489 0.16166763
0002a0 1e b7 82 bb a9 d7 5c bd e0 54 9d 3d ea 82 38 3d
       -0.0039891144 -0.053916607 0.07682204 0.045046724
0002b0 1a 27 ab bd b8 6a 14 3d 27 db ef 3d 0a f8 28 3e
       -0.083570674 0.036234587 0.11711722 0.1650087
0002c0 0b d7 f5 3d a8 8b fc 3c 66 78 80 3d 23 8b 3d 3e
       0.12003907 0.030828312 0.06272964 0.18510108
0002d0 fc 74 d6 3a 90 6c bc 3d 30 4a c3 bb 28 63 f6 3d
       0.0016361768 0.09200394 -0.0059597716 0.12030631
0002e0 ac fa b6 3c 97 4c a7 3d 3a 41 0a be 36 1c c8 bc
       0.022336327 0.08168905 -0.13501444 -0.024427515
0002f0 90 8c 06 3d d8 06 41 3d 18 e8 26 3e 04 4d d8 39
       0.032848895 0.047125667 0.16299474 0.00041256112
000300 71 5e 4c 3d 74 58 ae 3c f4 23 d2 3c 60 e2 b0 3c
       0.049894754 0.021282412 0.02565191 0.021592319
000310 2e 87 cb bd fc a1 d7 bd 62 f8 f5 3c 7f 78 6b 3d
       -0.09937893 -0.10528943 0.030025665 0.05748796
000320 c9 6a 2b 3c 93 65 20 3d a3 c6 8e 3d 94 61 a8 3d
       0.010462471 0.03915937 0.06971481 0.082217366
000330 79 cc 0b 3d 60 ff 4b bd 7d 3a c3 bc 4f f3 af 3c
       0.034130547 -0.04980409 -0.0238316 0.021478323
000340 85 27 72 bd 81 f0 85 3c aa 77 a9 3c 95 4c 0f bd
       -0.05911972 0.016350033 0.020686943 -0.034985144
000350 b0 c7 30 3d 76 b5 cb 3d d6 c0 05 bc 8c e9 98 3d
       0.043159187 0.0994672 -0.008163651 0.074664205
000360 e4 26 fc bd 7b 88 fb 3d 4d 8c 05 bd 11 45 ff bc
       -0.12312105 0.12281891 -0.032604504 -0.031160863
000370 d4 95 36 3e e0 c9 d5 bb 63 d7 45 be 0d ce 00 bb
       0.17830592 -0.0065243095 -0.19320445 -0.0019654066
000380 6c 8e ac 3d ec 4a 06 3e 2d 20 ca 3d f0 7c f3 3d
       0.08425602 0.13114518 0.09869418 0.11889064
000390 05 a0 9d 3d 5b 37 2d 3e 79 a8 fe 3d f6 b6 98 3d
       0.07696537 0.16915648 0.12434477 0.07456772
0003a0 e2 86 51 3d 41 fc 0e 3e 3f dd 8c bc af 55 a0 bd
       0.051154025 0.13963415 -0.017195342 -0.07828843
0003b0 29 77 8a bc 76 48 7f be 6d 30 91 3d a4 a6 d0 be
       -0.016902523 -0.24929985 0.070893146 -0.40752137
0003c0 ac 71 8c bc 5c d4 4d bd a4 4d 4d bc 4f 97 1b 3d
       -0.017144047 -0.05025135 -0.012530718 0.037986096
0003d0 76 9c 4b be 2d fb 28 3c 38 c8 4b be f1 ac d8 be
       -0.19883904 0.010313791 -0.19900596 -0.42319444
0003e0 bd 18 4c bd 84 ca c2 bd f5 05 0d bc ce 4a 3f 3c
       -0.04982828 -0.09511283 -0.008607377 0.01167555
0003f0 b5 b6 54 3d 84 7e a1 3d 40 f6 dc 3d b2 c2 0c 3d
       0.051932056 0.07885459 0.10789156 0.034365363

local_map_cnn.2.bias f4 [32]
000000 59 21 92 bc a3 f1 7e 3c b7 9f 1c 3b 61 b7 89 bc
       -0.017838167 0.01556054 0.0023898908 -0.016811075
000010 32 a8 97 bd 50 a0 3a be 80 75 22 bd 80 65 11 3d
       -0.074051276 -0.18225217 -0.039662838 0.03549719
000020 3b 58 82 bd 39 a3 aa bd c0 88 03 be 7d 5e ad bd
       -0.06364485 -0.083319135 -0.12845135 -0.08465288
000030 a2 70 46 be 1a 6b 3f 3d d3 e8 3d 3d e7 53 ba 3d
       -0.19378904 0.046733 0.046364617 0.09098034
000040 05 12 6e be 9c b8 ee 3b 52 2c 85 bd 61 b5 7a bd
       -0.23249061 0.0072851907 -0.06502594 -0.061208133
000050 59 fd 5c bd f3 bd 0c bd a2 b0 02 bc 7a 65 bb bd
       -0.05395255 -0.034360837 -0.007976683 -0.091502145
000060 e8 f6 0d 3d 43 3b c5 3d 6f 57 10 be 96 e6 1f be
       0.034659296 0.09630444 -0.14095853 -0.15615305
000070 4a 85 06 3d 43 e8 f6 bd 4d 7f 03 be 65 62 66 be
       0.032841958 -0.12056019 -0.1284153 -0.22498472

local_map_cnn.4.weight f4 [32, 32, 3, 3]
000000 b7 22 ef 3b 41 ea 09 be 0a d0 8f bb a5 46 e5 3d
       0.0072978395 -0.13468267 -0.004388814 0.11195115
000010 54 f2 3e 3d 3b 0b ca bc b7 3a 1b be 60 dc 69 be
       0.04661782 -0.024663558 -0.15159117 -0.22837973
000020 b8 5d 2a be fe 0b 3b 3e fb 96 69 bd b9 16 48 bd
       -0.16637313 0.18266293 -0.05702875 -0.048849795
000030 fc 55 65 3d 8f 61 d9 be b1 88 4f be 9c 93 c4 bd
       0.055990204 -0.42457244 -0.20266987 -0.09598467
000040 6c 45 9e 3e b1 3c 2a 3d 13 e4 0a be 77 95 1e be
       0.3091234 0.041561786 -0.13563566 -0.15486704
000050 6a b9 24 3d 38 51 1c bd 56 ef e0 bd be ff cb bd
       0.040215887 -0.038163394 -0.1098315 -0.09960888
000060 5a 6e 3f 3d 2d 9e c9 be d5 ff 83 ba 0d fc c6 bd
       0.0467361 -0.3937849 -0.0010070751 -0.097160436
000070 da 09 eb bd 73 47 17 3d dd 4f 00 bd af cf ce be
       -0.114764884 0.036933374 -0.031326164 -0.40392825
000080 57 31 41 3d 82 df 59 bd 8f 0f d6 bd 45 05 ac 3b
       0.047166195 -0.05319167 -0.10452186 0.0052496516
000090 29 0d 4a 3d 6b c1 98 3c d5 c2 5a 3d 8d d8 23 3d
       0.049328957 0.018646916 0.053408463 0.04000144
0000a0 b3 8e 1a bd 1c 84 17 bd a1 4c b8 3d ee a9 aa bd
       -0.037733745 -0.036991224 0.08998991 -0.08333193
0000b0 41 44 d2 3d 9c a7 89 bd f3 7f 1e 3e b0 e0 0f 3d
       0.10266925 -0.06721422 0.15478496 0.035126388
0000c0 d3 5a 07 be 0a 04 00 be ca 5b 7c bd e5 11 07 bd
       -0.1321824 -0.12501541 -0.061610974 -0.03297605
0000d0 2b 28 0b bd 7b 97 0c be 9a eb 2e 3d 5a 38 b9 3d
       -0.033973854 -0.1372966 0.042705156 0.09043951
0000e0 08 31 0e bc 4d 6c 5a 3d 5c d9 7d be 6e d1 12 3d
       -0.008678682 0.05332594 -0.24789947 0.03584426
0000f0 bb 35 dd 3d 7f 40 eb 3d ce 79 16 3e b5 20 70 bd
       0.10801264 0.11486911 0.14694902 -0.05862494
000100 e7 f1 a8 bc f6 2a 49 bd 9d 31 8f bd 1c 9a 3c 3d
       -0.02062316 -0.049113236 -0.06991885 0.046045408
000110 82 26 1c 3e ce 3f c7 bd 06 02 19 be 48 99 85 be
       0.15249065 -0.09728967 -0.14942178 -0.26093507
000120 b0 cb 6d bd fa 57 23 3e 9a 5e 98 bd 8b 1c 84 3d
       -0.05805558 0.15951529 -0.07439919 0.06450757
000130 b7 a8 b0 3e fa 3b 94 bd 9e 92 23 3c 4a ce d4 be
       0.3450372 -0.07238002 0.009983687 -0.41563636
000140 40 ee 65 3d 79 4d 9c be c8 b0 3d 3e a9 43 ad bd
       0.056135416 -0.30527857 0.18524468 -0.08460171
000150 9d f9 94 bb 67 f8 ea bc 94 54 62 be 5f f4 5b 3b
       -0.004546358 -0.0286829 -0.22102576 0.0033562405
000160 68 05 28 be 56 ef 87 3d f7 87 86 3d 7a b7 d3 3d
       -0.16408312 0.066374466 0.06568902 0.1033773
000170 d5 8b 42 3e cc ba bf 3c 8c df cd bc 3a 83 ac bb
       0.18998654 0.023404501 -0.02513101 -0.005264667
000180 ca 1d 23 3e ea 87 63 bc a8 f8 22 3e eb 56 57 3e
       0.15929332 -0.013887385 0.15915167 0.2102925
000190 b1 44 b5 bc 82 58 80 3c ca 64 a9 bc 5c 69 d6 bd
       -0.022127481 0.015667204 -0.020677943 -0.104693145
0001a0 38 a5 2a bc 2a 5d be bd 1c ae 84 3c c2 a7 68 bc
       -0.010415368 -0.092951134 0.016196303 -0.014200153
0001b0 2e bf f5 3c 54 89 ee bc d5 6d 77 3d 70 07 25 3e
       0.029998388 -0.029118218 0.06040748 0.16116118
0001c0 81 61 04 be dd 75 13 3b 2e 73 83 bd dd e4 11 be
       -0.1292782 0.0022500672 -0.06418453 -0.1424746
0001d0 23 62 3e 3e 2c 2c 18 3e 34 27 a2 3d 50 b3 9e 3d
       0.18592124 0.148606 0.07917634 0.07749045
0001e0 29 4e ce 3d f4 08 2c be 4b 11 dc bc 64 4a 38 3b
       0.100735016 -0.1680029 -0.026863715 0.0028120512
0001f0 16 b3 62 bd 8b c3 04 be 02 5b d4 bc 27 19 da bd
       -0.05534657 -0.12965219 -0.025922302 -0.10649329
000200 ba 05 4c bd 85 ba ec 3d 0e 4a 0c bd 4f 26 e6 bd
       -0.04981015 0.11559013 -0.03425031 -0.112377755
000210 7f 79 80 bc 21 d8 97 be c4 39 2f be 43 a6 b8 3d
       -0.015682934 -0.2965708 -0.1711188 0.09016087
000220 02 bb 23 be ce d8 ad 3d fe 0b 07 bd 31 5c ad be
       -0.15989307 0.08488618 -0.03297042 -0.338594
000230 dd 86 0d be 52 25 4d bd ce 9c cd be 70 17 64 be
       -0.13820978 -0.05008442 -0.40158695 -0.22274566
000240 ea 13 67 bd d9 87 d2 3c 1d ec 2f 3e 84 48 bb bc
       -0.056415476 0.025699543 0.17179914 -0.022861727
000250 bd 62 23 be 47 6e 62 3d c9 96 e1 3b 9d 6a 93 3d
       -0.15955634 0.05528095 0.00688443 0.07198069
000260 76 23 45 3d a4 57 f8 3d fe 0f a8 bc c6 45 c0 bd
       0.04812952 0.12126091 -0.020515438 -0.09388308
000270 4c 73 e8 bb 8e f0 16 be c9 c0 9e bd 25 a2 ba bd
       -0.0070938226 -0.14740202 -0.077516146 -0.09112958
000280 1f 15 05 3e 44 14 48 3d d2 b8 9d 3d b4 ad ad bd
       0.12996338 0.04884745 0.07701267 -0.08480397
000290 35 81 8a bd 25 73 9b bd c6 88 af bd ab ed 32 be
       -0.067629255 -0.075903215 -0.08571009 -0.17473476
0002a0 8f 6d a6 3c bb d9 5c 3d ad 2f 24 3b fb aa 87 39
       0.020315913 0.05391858 0.002505283 0.00025876597
0002b0 00 34 e7 3d 05 4f 8d 3e e8 c7 50 3d dc 2c af be
       0.11289215 0.2759935 0.050971895 -0.34213912
0002c0 d5 dd 82 bd 42 0e 6b bc bc 57 ec 3d 6e 4a ae 3d
       -0.06389967 -0.014346661 0.115401715 0.0851029
0002d0 0b 7d 67 be 09 17 d6 3d 45 8a 15 3d 1f 73 da bd
       -0.22606294 0.10453612 0.036508817 -0.10666489
0002e0 21 fa db 3c 34 af 32 bd 9f 9c 93 3c a0 06 92 bd
       0.02685267 -0.043624118 0.018019019 -0.0713017
0002f0 a6 50 29 3e 82 a1 c5 3c 58 44 ee bc 35 33 d8 3d
       0.16534671 0.024124864 -0.029085323 0.10556642
000300 dd 80 b7 3d bc 1a 87 be 47 5b dd bc 21 3e 08 3e
       0.089601256 -0.26387584 -0.027021063 0.1330495
000310 21 dd 62 bd e8 b1 3a 3e b4 1f 84 bd b7 69 8b bd
       -0.055386666 0.18231928 -0.064513594 -0.06807273
000320 f7 9e d2 bd cf d3 fe bc 40 4b 33 3e 78 cf 08 bc
       -0.102842264 -0.031106858 0.17509174 -0.008350246
000330 0d 93 02 3e 55 d1 c3 3d b4 11 fb bd cd 91 06 3e
       0.12751408 0.09561411 -0.12259236 0.13141556
000340 04 00 32 bd bc 14 26 3e 20 57 11 bd 02 ac e1 be
       -0.043457046 0.16218847 -0.03548348 -0.44076544
000350 07 dd 81 bd 51 ca 08 bd b2 5d a0 bd b1 c9 10 be
       -0.06340986 -0.03339607 -0.07830371 -0.14139439
000360 03 f3 be bd 33 ad 39 3e bd 18 48 be 79 ef 55 bd
       -0.093236946 0.18132477 -0.19540687 -0.052230332
000370 e4 20 aa bd d6 fb ec 3d 41 32 db 3d a8 14 cb 3d
       -0.08307055 0.115714714 0.107029445 0.09916049
000380 14 2d 8e 3d df 15 0b bd 7a 14 5e bc a5 1a bf bd
       0.06942192 -0.033956405 -0.013554687 -0.09331254
000390 d9 92 00 3e 60 a3 07 3e 87 5d 1e 3d 55 60 d5 3d
       0.12556018 0.13245916 0.038663413 0.104187645
0003a0 ca 28 17 3e 9a a0 12 3e 7d d7 c3 bc fe 07 5d bc
       0.14761654 0.14319077 -0.023906464 -0.013490675
0003b0 a1 05 af bb 91 ee 3b bd 06 d9 e0 bd e8 1b bc 3c
       -0.005341247 -0.04588181 -0.10978894 0.022962525
0003c0 d5 7e 90 3d d0 83 22 be 5a 2f 3c 3e c2 f8 df 3d
       0.07055441 -0.15870595 0.18377438 0.10936119
0003d0 17 c0 21 3d 55 4a 2a 3d dd 4d 54 bc 22 c3 fa bc
       0.03948983 0.041574795 -0.012958017 -0.030610625
0003e0 73 73 2b bc 13 b4 5b 3d 22 4c 52 bd 2f 7a 98 3d
       -0.010464537 0.05363853 -0.051342137 0.0744518
0003f0 39 7c 84 3a d2 92 3f 3b 18 c7 25 3d 3b 43 8a bb
       0.0010107822 0.0029231799 0.040473074 -0.0042194403

local_map_cnn.4.bias f4 [32]
000000 fe f0 29 3d f8 1c 9b bc 8a 0d 27 be e9 6f ac be
       0.041489594 -0.018934712 -0.16313758 -0.3367913
000010 9e 2b 66 3c 55 f0 56 bd 4e f9 ce 3b c8 76 fc bd
       0.014048485 -0.052475292 0.0063163405 -0.12327343
000020 4a d1 22 3e a7 bb fd 3c 20 45 c5 3d 8e 1e d8 bd
       0.1590015 0.030973269 0.09632325 -0.10552703
000030 90 33 fb 3d ba 08 21 3e 4f de 13 be d6 6c 5a 3e
       0.12265694 0.15725985 -0.14440273 0.2133058
000040 b0 07 61 be 1b 20 a4 3d b6 0f 05 3e 87 89 11 be
       -0.21975589 0.08013936 0.12994274 -0.14212619
000050 ac c7 13 be a6 cb 47 bd a8 a8 27 3d 0b 79 98 bd
       -0.14431638 -0.0487782 0.040932328 -0.07444962
000060 ea 24 a7 bd 0c d6 fe 3d 16 bf 11 be 8d 1c 71 3b
       -0.08161338 0.1244317 -0.1423305 0.00367907
000070 98 e5 08 3d db 33 a0 3d 65 21 0d 3c 56 87 68 bb
       0.033422083 0.07822391 0.008613919 -0.0035481057

local_map_fc.weight f4 [64, 512]
000000 2c bb 99 bd 97 69 b1 bd c6 d6 5e be 58 01 0a be
       -0.07506403 -0.08662718 -0.21761617 -0.13477075
000010 93 6d b2 3c 77 af fd bd d0 4e f1 bd fa 7e 66 3d
       0.021780765 -0.12386983 -0.117826104 0.056273438
000020 79 f9 54 bd fa 13 ad bd 0f 06 e9 bd ea b0 da 3d
       -0.05199573 -0.08451076 -0.11378109 0.10678275
000030 50 58 e4 3d f3 e1 d0 bd 99 82 c3 3d 16 17 1c be
       0.11149657 -0.101993464 0.09546394 -0.15243182
000040 75 bd 94 bd cd 83 80 bd 9c 03 67 bd 41 1f 61 3d
       -0.072626986 -0.06275139 -0.056399927 0.054961447
000050 4e 8f 3a bd d9 a9 80 bd b5 87 6f bd b1 2e e9 bc
       -0.045546822 -0.06282396 -0.05847903 -0.028464647
000060 f1 e3 09 bc 2e 37 a3 3d 0a 04 0f 3d 27 b5 d5 3b
       -0.008416162 0.07969509 0.03491596 0.006521839
000070 f1 5d 44 bd 84 78 25 3e 96 08 ae 3d 93 16 d7 3d
       -0.047941152 0.16159254 0.084977314 0.105023526
000080 aa a9 1a be ee 94 67 bd 17 87 87 3d da 3f 7d bd
       -0.15103784 -0.056538515 0.06617563 -0.06182847
000090 6d df bc be 6e c0 fa bd fc d4 d4 3d c6 6e 60 be
       -0.3688921 -0.12243734 0.10392186 -0.21917257
0000a0 9e f8 6a bd 9b 45 53 be f3 1e 3e bb 30 e8 bf bd
       -0.057366006 -0.20632021 -0.0029010146 -0.09370458
0000b0 4d 05 13 3e b3 ea d9 3d cc 63 62 3d 50 9f 10 3e
       0.14357491 0.106404684 0.055270955 0.14123273
0000c0 bd 03 39 3c 5d 5d 07 be d2 8c 29 3d 01 d2 80 3d
       0.011292395 -0.13219209 0.041394062 0.06290055
0000d0 92 bf 1e bd e2 db a7 bd 0c 54 0a 3d af f1 c6 bd
       -0.038756914 -0.08196236 0.03377156 -0.09714066
0000e0 0c 63 61 bd 3a a8 c5 3c d8 34 11 bd 9c 9e 8b 3d
       -0.0550261 0.024128068 -0.035450786 0.06817362
0000f0 ed 68 c9 3c 2d 40 2e bc 5c 1a 5b bd 3f b5 94 bc
       0.024586165 -0.010635418 -0.053491935 -0.018152831
000100 8a 7c ca bd 59 05 03 be eb 52 8e 3d 44 28 21 be
       -0.09887035 -0.12795009 0.06949409 -0.15738016
000110 74 fd c8 bd 93 f8 c4 bd a3 0b 92 3d 95 d6 ff bc
       -0.09813967 -0.09617724 0.07131126 -0.03123025
000120 b2 e4 cf 3d 0a f8 7f 3d ce 96 75 3b 19 ff 86 be
       0.10151042 0.062492408 0.003747392 -0.263665
000130 42 cf 09 bc 37 3a 12 3e 8d 76 a9 bd bd a9 91 3d
       -0.0084112305 0.1428002 -0.08274565 0.07112453
000140 8d 3d 1e bb e2 01 3d 3c 1d 8b 39 be 7d 1f c9 bd
       -0.0024145574 0.011536093 -0.18119474 -0.09820459
000150 11 4b 9a bd 1a 70 25 be 0f 22 cd bc d6 41 57 3e
       -0.07533849 -0.16156045 -0.025040654 0.21021208
000160 b9 4a 5a bd d4 ad 6a 3e e1 f4 02 be 94 a1 bd 3d
       -0.053293917 0.22917873 -0.12788726 0.09259334
000170 cf 5c 4a bd c3 da ba bd fe 25 05 bc 61 21 c8 3d
       -0.049404915 -0.09123757 -0.008126734 0.097719915
000180 54 d5 d3 bd 36 0d 54 3d c5 3c e9 3a fd 3c 8b bd
       -0.103434235 0.05177041 0.00177946 -0.06798742
000190 27 68 0b be b3 f1 62 3d a0 57 3c 3d de 5f 17 3d
       -0.1361395 0.055406284 0.045982003 0.03695666
0001a0 f7 c1 aa 3d 85 42 8e 3e bd b6 6d bd 61 c5 07 be
       0.08337777 0.27785125 -0.0580356 -0.13258888
0001b0 07 0c 0d bc 36 e8 f3 bd 8d 87 3e bd 2f 43 0d 3d
       -0.008608825 -0.11909525 -0.04651599 0.0344879
0001c0 8f b4 3b 3d 28 21 e5 bc 74 7b d1 3b 52 f0 43 bd
       0.04582649 -0.027969912 0.0063928906 -0.04783661
0001d0 a5 f3 2d be 6b 31 55 be 0e 43 aa 3d c0 14 15 3e
       -0.16987474 -0.20819633 0.08313571 0.14558697
0001e0 62 7e ca bd f9 32 fe bd 1c 1c 2f be 90 dd eb 3c
       -0.09887387 -0.12412066 -0.17100567 0.028792173
0001f0 f3 3d 13 bd a7 54 d8 3c a1 f7 2f bd a9 0f 7f 3d
       -0.03594775 0.026407553 -0.042960767 0.062270794
000200 38 c7 6d bd e4 56 3e be 26 2b 04 be 0c c8 07 be
       -0.058051318 -0.18587834 -0.12907085 -0.13259906
000210 99 9c ac bd 58 6d 9b bd 82 20 11 be 69 60 0b 3e
       -0.08428306 -0.07589215 -0.14172557 0.13610996
000220 e1 c0 d2 bc 24 bc 87 bc 61 7f 43 be 8c 98 a0 bd
       -0.025726737 -0.016569205 -0.1909156 -0.07841596
000230 85 ca c7 3d 4c 16 2b 3d 30 78 b7 3a a2 42 b7 bc
       0.097554244 0.04176931 0.0013997611 -0.02237064
000240 7d 5a 38 be 89 7b 89 3d 78 61 2a be ab 67 68 be
       -0.18003269 0.067130156 -0.16638744 -0.22695796
000250 69 0a ff bb 64 a6 e2 bc 62 53 13 be 13 d1 28 be
       -0.0077832234 -0.027667232 -0.14387277 -0.16486005
000260 9d ba 58 bd 88 9d e4 bd 59 70 8f bd 25 fd 4e be
       -0.052912343 -0.11162859 -0.070038505 -0.20213754
000270 80 0d 3b be c5 d7 e2 bd 81 d8 c1 3d dd ff 99 bd
       -0.18266869 -0.11076311 0.09465123 -0.07519505
000280 4d 49 4f 3d 83 05 06 be 3f a7 e8 3d 98 d4 87 3c
       0.050607014 -0.1308804 0.11360025 0.016580865
000290 27 7d 01 be c5 e1 61 bd 90 26 4b 3d 89 75 f5 bd
       -0.12645398 -0.05514695 0.049597323 -0.11985309
0002a0 59 7f 84 bc 87 bb 6b bd f2 b8 aa 3d 7e 3e d2 3b
       -0.016174005 -0.057551887 0.08336057 0.006416141
0002b0 84 3d c9 bd 31 99 40 be 63 0b ec 3d be f3 b3 3c
       -0.09826186 -0.18808438 0.11525609 0.021966811
0002c0 2a 9c 27 bd 15 6e cf bd 11 83 11 be 71 30 09 bd
       -0.040920414 -0.10128418 -0.14210154 -0.033493463
0002d0 f5 4d c2 bd 53 30 ab bd ac f3 51 bd c5 54 14 bd
       -0.094875254 -0.083588265 -0.051257774 -0.036213655
0002e0 8c e8 b6 bc ac ac 4f be 48 6e bc bd ef ed 62 3c
       -0.022327684 -0.20280713 -0.09200722 0.013850673
0002f0 1c 3b 85 3d 73 b7 a9 3d cf bb 8a 3d 87 d5 06 3e
       0.06505415 0.08286943 0.06774103 0.13167392
000300 0b 44 ae bd af c4 c5 bd 6c ee de bd d0 0d 54 be
       -0.08509072 -0.09656655 -0.10885319 -0.20708394
000310 73 6b d5 bd b9 53 d1 bd db ae 90 bd fb fa eb bd
       -0.10420885 -0.10221047 -0.07064601 -0.1152248
000320 95 a0 73 3b 4f 11 b5 3c 36 77 87 3d 4d 55 cb bd
       0.0037174572 0.02210298 0.066145346 -0.09928379
000330 4f 88 de 3d 3c e8 cf 3d 1a 3e 57 bd 48 35 4c 3d
       0.108658426 0.10151717 -0.05254946 0.0498555
000340 a2 05 c8 bc 6a 41 02 be 4f 22 2e bb 2f 06 01 3e
       -0.024416748 -0.12720266 -0.0026570742 0.12600015
000350 b4 e7 49 3d 29 fc 07 be a6 74 9f 3d fe fc 2b 3d
       0.049293235 -0.13279785 0.07785921 0.04198932
000360 65 4d 86 bc b3 cb dd 3c 1f 84 1c 3d ba fc 54 3d
       -0.016394326 0.02707467 0.038211938 0.05199883
000370 b8 4d 22 bc 8f 90 01 be ea c1 d3 3b e2 4a 1a 3d
       -0.009906225 -0.12652801 0.0064623253 0.03766907
000380 57 8e 95 bd 99 ec f2 bb 62 95 a9 bd 96 fe fc 3d
       -0.0730254 -0.0074134585 -0.08280446 0.12353246
000390 57 79 b2 3d 6b 89 89 bd 35 72 1e 3d aa 05 98 3d
       0.0871455 -0.067156635 0.038683135 0.07422955
0003a0 cc 4f 25 3d 25 50 97 bd e2 60 e9 3d 56 25 eb bd
       0.040359303 -0.07388333 0.11395432 -0.11481731
0003b0 43 aa 98 bd 9b 3f d8 bd ab 26 c1 3d 43 27 db bc
       -0.0745435 -0.10559007 0.094312035 -0.02675212
0003c0 2c 2f 6f bd 0e 5a 8d 3c b5 7c 0a bd 09 7c 81 3d
       -0.058394596 0.017254855 -0.033810336 0.06322486
0003d0 7a 5a ef bd c3 6f bc bc 19 58 38 be 9e 88 a6 3d
       -0.11687179 -0.02300251 -0.18002357 0.081315264
0003e0 6b 4a ba bd da 89 ad bd 71 7b 0f bc dd 8b 01 bb
       -0.09096225 -0.08473559 -0.008757458 -0.0019767203
0003f0 97 aa 28 3d 81 3f db bc 53 72 b5 bc 87 5d 04 bd
       0.041178312 -0.02676368 -0.02214924 -0.032315757

local_map_fc.bias f4 [64]
000000 b1 f8 5a bd ec 37 ca bd a3 4e 01 bc 7f 1f 8b bd
       -0.053459827 -0.098739475 -0.007892284 -0.06793117
000010 28 8e 75 bd 3f 32 d0 bd 9a 25 b8 bd c1 c8 d1 3d
       -0.059950024 -0.10165834 -0.08991547 0.10243369
000020 ee 6d f1 bc ea 76 4c bd 99 57 4f bd 9c 66 5e bd
       -0.029471364 -0.049918093 -0.05062065 -0.054297075
000030 5a 00 17 3e 9c 78 c0 bc db 3b 08 bd 91 6d bc 3d
       0.14746228 -0.023495011 -0.033260208 0.09200586
000040 86 a0 17 3d 49 ed 89 bc 84 b6 cf bd 3a 1e 04 3c
       0.03701832 -0.01683678 -0.10142234 0.008063847
000050 ea 54 c6 bd f1 f3 fe bd 51 39 3f 3d f1 e5 84 3d
       -0.09684165 -0.12448872 0.04668552 0.0648917
000060 a8 5a 43 bd 05 67 7a bd 86 c8 55 3d 36 bf 87 bd
       -0.04769388 -0.061133403 0.052193187 -0.066282675
000070 fb 15 74 3d 13 54 4e 3d 55 a4 79 bc ce 43 da bd
       0.059591275 0.05037315 -0.015236934 -0.10657464
000080 8a b2 81 3d 71 c5 16 3b 12 e9 ce bc b0 e7 0b bd
       0.06332882 0.0023005868 -0.025257621 -0.0341565
000090 1b 03 65 bd a2 f7 dd 3d 94 10 1b 3e 8a f3 59 3c
       -0.055911165 0.10838248 0.15143043 0.013302693
0000a0 93 bd 5d bd e1 71 9c bd a7 cd b0 3c 30 91 e3 3d
       -0.05413587 -0.07638908 0.021582438 0.11111677
0000b0 b3 0f d7 3d e4 42 f0 3d fa 37 80 bd 4a bb 1c bc
       0.10501041 0.117315084 -0.06260677 -0.009566138
0000c0 d5 d9 79 bd ef 20 04 bd 92 db b6 bd b5 27 e0 bd
       -0.060998756 -0.03225797 -0.089285985 -0.109450735
0000d0 3c c0 5b 3d 39 fe 05 be 69 ec 63 bd 11 23 c8 3d
       0.053650126 -0.1308526 -0.05564538 0.097723134
0000e0 2c d9 39 bc 18 8f 75 be fa ae fb ba 18 48 6e bd
       -0.011343282 -0.23980367 -0.0019201927 -0.058174223
0000f0 5c 6c 63 bd 83 27 90 3d 32 f7 8c 3d f1 94 98 3d
       -0.05552326 0.07038786 0.06883086 0.07450283

self_entity_fc1.weight f4 [32, 26]
000000 33 ac 8f 3e 00 7d b0 3c a7 ac f0 3b 1a 8b a5 3c
       0.28061065 0.02154398 0.0073448005 0.02020793
000010 ea 61 80 bc 65 29 1a 3e 09 ae 71 3c 8b 77 ad be
       -0.015671689 0.15054853 0.014750966 -0.33880267
000020 52 8f c8 bc 05 73 b5 bd 61 46 1f be 93 d8 0b bf
       -0.024482403 -0.08859829 -0.15554191 -0.5462734
000030 d8 78 25 3e c6 36 2b be ba c6 5e 3e c0 73 1d 3e
       0.1615938 -0.16720113 0.21755496 0.15376186
000040 45 c6 5b be b9 81 cc bd bd 2d 87 3d fb b6 69 3b
       -0.21462353 -0.0998568 0.06600521 0.0035662043
000050 01 d2 4f bd 74 c8 a6 3e a6 6e 0d be a9 19 3d 3e
       -0.050737385 0.3257481 -0.1381174 0.1846682
000060 1a c9 25 bb 01 72 56 3d 5e 81 b5 be 47 9a c9 bd
       -0.0025296868 0.052354816 -0.35450262 -0.09843879
000070 d1 80 16 3c 88 8e 3c 3e 9b 01 32 3e bc c2 01 be
       0.009185986 0.18413746 0.17383425 -0.12671942
000080 fe d6 d3 3d 7a e2 ab be 6f 7a cc bd 77 52 7e bd
       0.10343741 -0.33571225 -0.0998429 -0.062090363
000090 05 58 01 be 80 17 94 3c 42 b3 b6 3c 94 b8 6c 3d
       -0.12631233 0.018077612 0.022302274 0.057793215
0000a0 f2 7f 56 3e 17 39 0b 3e 39 7b e1 3d ec ff 39 3c
       0.20947245 0.13595997 0.11009831 0.01135252
0000b0 32 ec 72 bd 1a 7f b7 bb 42 b0 73 bd 7c dd b8 3d
       -0.059307285 -0.0055998685 -0.059494264 0.0902662
0000c0 8b b8 3b bd a7 2b 85 bc 73 2b b4 3d 1e 22 41 3e
       -0.04583029 -0.016256167 0.0879735 0.18860671
0000d0 30 a4 d3 3a 5b d8 a1 bd e6 d0 a2 3d 4c 56 0e be
       0.0016146954 -0.07902595 0.079500005 -0.13900107
0000e0 09 70 f3 3d 86 c2 08 bf 52 48 9d be 09 62 e9 3d
       0.118866034 -0.5342182 -0.3071924 0.11395652
0000f0 98 9d f0 3d 33 29 94 bd 31 15 ce be 81 b2 3e bd
       0.117488086 -0.072344206 -0.40250543 -0.046556953
000100 3a 38 81 bd b9 21 82 3d af 97 9d 3d f3 c0 6d 3e
       -0.063095525 0.06354088 0.07694947 0.23218136
000110 ec 9f 34 3d b8 be c1 3d 79 70 a3 3a 16 9d 2c 3e
       0.044097826 0.09460205 0.0012469433 0.16856799
000120 d7 94 97 3d f2 cd f4 3d 9c 1d 38 3e 0a 61 dd bd
       0.07401436 0.119533435 0.17980045 -0.10809524
000130 bd c6 23 bd b0 bf 08 be 6e 77 c5 bd b9 c1 ed bc
       -0.039984453 -0.13354373 -0.0964192 -0.029023038
000140 01 2e 01 3e 1a 32 ad bd 32 2f bf bd 05 32 f6 3d
       0.12615205 -0.08456822 -0.09335174 0.12021259
000150 dc 11 f4 3d 91 32 2d bd 23 7a 48 3f b3 5e 9b 3e
       0.11917469 -0.042284552 0.78311366 0.30345687
000160 13 6d c2 3d c9 e2 98 bd c5 18 05 3d 76 08 87 3e
       0.094934605 -0.07465131 0.032494325 0.26373643
000170 93 4f 6f bc 13 50 23 be f3 a1 4e 3e 3c cb 6a 3e
       -0.014606374 -0.15948515 0.20178966 0.2292909
000180 5e 03 df bd b3 f4 0d bd cc a5 8e 3e d1 6b 89 bd
       -0.10889314 -0.03465719 0.27860868 -0.067100175
000190 39 00 1d be ac 78 1c 3d 35 50 e1 bd 25 e6 08 3e
       -0.15332116 0.03820102 -0.110016264 0.13369043
0001a0 c2 5d 2e be e1 d8 f9 3c d4 70 9e bc a7 a2 23 be
       -0.17027953 0.030498924 -0.01934091 -0.15980016
0001b0 ef 3a 01 3e 06 6d 54 3d c6 df 97 3c 5e e3 6b be
       0.12620138 0.051861785 0.01853932 -0.23035952
0001c0 ff 67 80 3d fb f3 17 3e 01 a5 e0 3e 90 c9 6e 3e
       0.06269836 0.14839165 0.43875888 0.23319077
0001d0 d6 f6 1d 3e fa 59 ce 3d 79 6a 44 be e5 ac 3e 3d
       0.15426192 0.100757554 -0.19181241 0.046551604
0001e0 4d 4e 5b 3e 4a 37 c0 3e 4d 9c d2 bd cc a2 19 bd
       0.21416588 0.37542182 -0.10283718 -0.03750877
0001f0 59 bd 15 3d 96 eb c1 bd 88 62 72 bd 24 b3 be bc
       0.03655753 -0.094687626 -0.059175998 -0.02327878
000200 53 9f e8 bd 88 7a d3 bd 2d a8 92 3d 9a 4a ed 3d
       -0.11358514 -0.10326105 0.07160983 0.11586495
000210 ce e0 48 3e 2d 28 5a 3d 90 44 10 3d 25 1e b0 bd
       0.19617006 0.05326097 0.035221636 -0.085994996
000220 08 62 18 3e 85 86 db be 32 e1 63 3e 7a 2a a7 3b
       0.14881146 -0.42876068 0.22253874 0.005101499
000230 13 5b 2a 3d 1c c7 a6 3e 6e 15 22 3e 36 4a fb 3d
       0.04159076 0.32573783 0.15828487 0.12270014
000240 a2 3a 46 3b d9 98 69 be 6c 12 97 3d 11 ea b1 bc
       0.003024735 -0.22812213 0.073765606 -0.021718057
000250 6d 25 2a be 94 a8 51 be cc ff 3b be 98 28 2b be
       -0.1661584 -0.20474464 -0.18359298 -0.16714704
000260 9e c2 01 be bc b7 3a be 9f 0a 7b 3d 5e f8 c5 3d
       -0.12671897 -0.18234152 0.061289426 0.09666513
000270 31 82 17 bd 08 c3 fa bd 8a fc 65 3b ed 68 19 3e
       -0.036989395 -0.122442305 0.0035093152 0.14981432
000280 2d ee 05 3e e1 87 f4 bd 81 16 77 bd 51 7f 92 be
       0.13079138 -0.11939979 -0.060324196 -0.2861276
000290 13 c0 66 3d 49 62 01 bd 19 e3 bf be 60 2f 66 3d
       0.05633552 -0.031587873 -0.3747795 0.056197524
0002a0 49 42 5e bf 21 82 c8 3d c0 2b 04 3e 77 8c b3 3d
       -0.86819893 0.09790445 0.12907314 0.08767026
0002b0 74 1e 78 be aa 43 0a be 0a f4 f9 3c 68 74 53 3c
       -0.24230367 -0.13502374 0.030511875 0.012906171
0002c0 e2 2d be bc 16 2f 6f 3e 48 4e 03 3e 49 5e bc bd
       -0.023215238 0.23357806 0.1282283 -0.09197671
0002d0 57 95 f5 3b ce af 00 be 6b a7 3a 3e 2d 4c 69 3b
       0.0074946093 -0.12567064 0.18227927 0.0035598383
0002e0 a3 a0 dd bb 75 2c 50 3d 59 ef e8 bc 07 c5 12 be
       -0.006763534 0.050823648 -0.028434442 -0.14332972
0002f0 38 8b 9c 3d 45 d8 80 bc cf 0b 18 bf a1 b7 0c 3e
       0.07643741 -0.015728125 -0.5939302 0.13741924
000300 63 a7 18 be 50 06 7b 3e 3b 21 c0 3d 0b 3d e4 3d
       -0.14907603 0.24514127 0.09381338 0.111444555
000310 c7 b6 d3 3d 0d b7 82 3e 2d 03 e6 3d c3 51 57 3e
       0.103375964 0.25530282 0.112310745 0.21027283
000320 1b 2f 21 bd 20 a9 d2 3d c1 8b 25 3d ef ea 48 3e
       -0.039351564 0.10286164 0.040416483 0.1962087
000330 61 df d4 3b 6f 21 94 bd be 05 ba 3d 00 a6 0f be
       0.0064963554 -0.072329395 0.090831265 -0.14028168
000340 73 07 4d bc ad 53 c3 bd 2c f8 5b 3c 1e 7e ca 3d
       -0.012513983 -0.09537444 0.013425868 0.09887336
000350 88 32 b8 bc e4 cd b5 bd f8 f8 4c 3d a9 99 0d 3f
       -0.022485033 -0.08877161 0.050042123 0.5531259
000360 00 85 79 3c 6f 62 1f 3d 99 40 44 bf 39 8f ce bd
       0.015229464 0.038912233 -0.7666107 -0.10085911
000370 fd 3b e4 bd 8d 30 d6 3d d8 1b 35 3e fc 33 0b 3e
       -0.11144254 0.10458479 0.17686403 0.13594049
000380 6a 21 2e 3e 5a 63 9c bd 95 3c 34 bd 2a 15 65 bd
       0.17004934 -0.07636137 -0.044003088 -0.055928387
000390 a3 5a 43 bd e5 1f 25 3e 67 9a c5 3d 39 ce 6d bd
       -0.04769386 0.16125448 0.096485905 -0.058057997
0003a0 f0 ed 0a be 58 d0 08 be 22 c4 3d be d5 0f 55 be
       -0.13567328 -0.13360727 -0.1853185 -0.2080682
0003b0 9b 4c 2b bd 9a 95 bd 3d ac 1e 75 bd b2 2c d3 be
       -0.041821104 0.0925705 -0.059843704 -0.41245037
0003c0 73 03 de be bc 15 13 3e 31 1e 25 be fa 19 fa bc
       -0.43362007 0.1436376 -0.16124798 -0.030529965
0003d0 62 21 0c 3e 1d c8 29 3e aa a7 90 3d 76 0a a2 bd
       0.1368461 0.16580243 0.070632294 -0.079121515
0003e0 93 06 bf 3d ab 7c fc 3d 74 6e 7f bd 22 34 f0 bd
       0.09327426 0.12328466 -0.062361196 -0.117286935
0003f0 13 67 63 3d 3f 28 82 bd 41 34 7a 3c 80 08 90 3e
       0.05551822 -0.063553326 0.015271247 0.28131485

self_entity_fc1.bias f4 [32]
000000 17 41 01 bc 76 6c 8c 3e e8 ec 40 3d 0f 03 6e be
       -0.007889054 0.274265 0.04710093 -0.23243354
000010 1f 2a 99 bd 78 c1 06 be 8a 88 87 3e d9 ce 07 3e
       -0.07478737 -0.1315974 0.2647136 0.132625
000020 20 18 60 3e 74 31 1f 3e 80 ac b1 3d 52 09 67 3e
       0.21884203 0.15546209 0.0867548 0.22562149
000030 ed db 69 3c 3c 21 99 bc 76 20 f0 bd e3 4f 37 bd
       0.014273626 -0.018692605 -0.117249414 -0.04475392
000040 37 4d 24 3e ef e6 18 3e 7e e5 73 3e e1 de 9b 3d
       0.1604508 0.14931844 0.23818013 0.0761087
000050 15 ea 72 3e 48 b0 ea 3d 10 77 7f 3e 22 ca 85 bd
       0.23722108 0.11459404 0.24947762 -0.065326944
000060 e8 43 80 3e 56 72 f3 3d b3 e4 66 be 0f 8e 53 3d
       0.25051808 0.11887042 -0.2254818 0.05164915
000070 a0 73 c8 3e d3 26 0d 3f 44 f6 06 bd 2e c9 06 3d
       0.39150715 0.55137366 -0.0329497 0.032906704

self_entity_fc2.weight f4 [32, 32]
000000 ef 91 d0 bd b7 7c 35 3e 3e 9a d9 3e 24 40 cf be
       -0.101840846 0.17723356 0.4250049 -0.40478623
000010 d8 14 65 3e 08 56 cf 3d 0c fb 86 bd 47 d8 6f 3e
       0.22371233 0.10123831 -0.06590852 0.23422347
000020 57 59 86 be 56 39 1e bd 4e 49 cc 3d 68 bd 34 be
       -0.26240036 -0.0386289 0.09974919 -0.17650378
000030 26 55 66 bc b5 df c0 3d 0f 07 a5 be a4 d6 02 3e
       -0.014058387 0.09417669 -0.32231948 0.12777191
000040 1d d7 4e 3d c7 8e 55 3d 51 21 f1 3d 30 29 8c bd
       0.050498117 0.052138116 0.11773933 -0.068437934
000050 2b 52 98 3c 6d 0c 0b 3c de 11 68 bd 20 47 6e 3e
       0.018593868 0.008486849 -0.056657664 0.2326932
000060 67 33 05 3d d3 6a ee 3d 99 ce b5 be 8b 6e 71 3e
       0.032519724 0.11641469 -0.35509184 0.23577325
000070 24 97 0d 3f 36 1f 12 3f e4 a5 57 3e 39 98 76 bc
       0.5530875 0.57078874 0.21059376 -0.015050941
000080 a3 08 9b 3e 9b 31 ef 3d cb f6 85 bd 87 72 ca 3d
       0.30280027 0.11679383 -0.06541213 0.098851256
000090 37 72 0f bf dd 2d 17 be 59 71 5b 3f bc 3b de bd
       -0.56033653 -0.14763589 0.8571983 -0.10851237
0000a0 9a 0d 1b 3f 72 d9 93 bd 7d 86 9c 3e a7 e1 18 3f
       0.6056763 -0.07219209 0.30571356 0.5971932
0000b0 84 20 6c 3d 5d 58 11 bf 23 20 fd 3d fb 5e 20 3e
       0.057648197 -0.56775457 0.12359645 0.15661232
0000c0 a7 06 52 3e b8 25 55 3d f8 c0 cf 3c 2d fe 64 be
       0.2051035 0.052037925 0.02536057 -0.22362585
0000d0 37 9c 9b 3d 9c d2 02 3e 9a ba 14 be 2d 6c 1c be
       0.07598155 0.12775654 -0.14524308 -0.15275641
0000e0 ef 07 87 be 7e 6f a7 3d 6e 97 2a be bd 0c 0b be
       -0.2637324 0.08175562 -0.16659328 -0.13579078
0000f0 17 1c 17 bf a6 ad 24 bf 35 3e 17 be ef c4 ca bd
       -0.59027237 -0.64327466 -0.14769824 -0.09900843
000100 b5 39 56 bd 3e 2d db bd 9d 27 f0 be 20 5f 76 be
       -0.052301127 -0.10701989 -0.46905223 -0.24059725
000110 03 84 60 3e 20 4f 47 be bf 0f f9 3d 60 fb 05 3e
       0.21925358 -0.19463778 0.121612065 0.13084173
000120 ad e5 3b bf ac fb 9a bd 21 ab bd 3d 6e 02 07 be
       -0.7339733 -0.07567534 0.09261156 -0.1318452
000130 a1 b9 a9 bd 5e 07 43 bf b9 14 91 be 89 05 61 3d
       -0.08287359 -0.76183116 -0.28336123 0.05493692
000140 91 13 e7 3c 10 44 36 3e 97 34 82 3e a0 3a 84 be
       0.028207572 0.17799401 0.25430748 -0.25825977
000150 53 8c d3 3b cf 33 44 bc 85 53 bc 3d 43 87 41 3e
       0.006455937 -0.011975243 0.091956176 0.18899255
000160 87 b7 ef 3d 43 5b 1d 3e 3e 8e ff be 53 65 95 bd
       0.11704927 0.15366845 -0.4991321 -0.07294717
000170 3b c5 c8 b8 25 50 dc bd ed 67 c6 bd 22 51 b0 bd
       -9.57348e-05 -0.10757474 -0.09687791 -0.08609225
000180 04 5b 61 3d 6a 96 e9 bd f4 c7 82 be ed 7f 0c 3e
       0.05501844 -0.11405642 -0.25543177 0.13720675
000190 19 7c 11 3e 63 63 57 3e 83 c7 7e 3a 82 4a da be
       0.14207496 0.21034007 0.00097190606 -0.4263497
0001a0 23 aa a5 be 37 d5 5b be 33 f4 17 bf 59 b5 3a 3c
       -0.32356367 -0.21468054 -0.59356993 0.011395776
0001b0 34 a2 95 3e 12 0e 00 bf db 0d a3 3e 17 e2 25 3e
       0.29225314 -0.5002147 0.31846508 0.16199528
0001c0 7f a1 8d 3d 2c f0 08 3e 3c db d1 be d0 ff 73 bd
       0.069155686 0.13372868 -0.40987575 -0.059570134
0001d0 5c 67 1a be 64 c0 63 bd d8 50 18 be d8 9e 91 bc
       -0.15078491 -0.0556034 -0.1487459 -0.017775938
0001e0 59 e1 5e bc 68 7b 4c bd 8f 41 72 3e 0b 66 fd be
       -0.013603532 -0.049922377 0.23657821 -0.49491915
0001f0 ce 9f 25 3e f2 9a de 3d 34 69 0a be 19 bb 47 3e
       0.16174242 0.10869397 -0.13516694 0.19504966
000200 ac ef e2 3e ac 52 5e 3e e4 29 70 bd 5a 42 0b bd
       0.4432348 0.21711224 -0.0586337 -0.033998825
000210 3d 5b c8 be f7 32 03 be 7d 52 24 3e 29 07 14 be
       -0.3913211 -0.1281241 0.16047092 -0.14455856
000220 ff b3 16 3f e7 4e c9 bc ba 17 82 3e 75 92 18 3f
       0.588684 -0.024573756 0.25408727 0.59598476
000230 e7 1c 16 3e fe 6f 55 bf 00 9d d9 bc 8d d3 6c 3e
       0.14659463 -0.8337401 -0.026564121 0.23127575
000240 e5 fd 77 3e f2 c3 bf 3d 50 ef a4 bd 55 74 e3 3d
       0.24217947 0.093635455 -0.08053458 0.11106173
000250 98 7c a5 3e bc cc 33 3e 32 11 48 bc 58 98 2c 3e
       0.3232162 0.17558569 -0.012211131 0.1685499
000260 1c ea cc be 91 19 c9 3d 84 a8 bc 3c c1 d2 74 3d
       -0.4002236 0.098193295 0.023029573 0.059771303
000270 9c 00 de be a0 6e 0e bf 40 aa 05 3e 1d fe 55 bc
       -0.4335984 -0.5563755 0.13053226 -0.013061074
000280 c1 3b 3c 3e 48 06 a1 3e eb 26 66 3e f4 e2 c3 bd
       0.1838217 0.31450105 0.22475784 -0.09564772
000290 c9 4f 1e 3e 3e 20 de bc 1c c2 4f 3c e2 92 9c 3d
       0.15460123 -0.027114984 0.012680557 0.07645203
0002a0 51 30 4b 3f 6f 5f 5f be 92 e5 a6 3e 6d 7d 82 3e
       0.793706 -0.21813749 0.32597023 0.25486317
0002b0 5a 66 81 be 8d d2 8f 3e 1b 9b 37 3e d7 27 04 3e
       -0.252734 0.28090325 0.17930262 0.12905823
0002c0 b8 bf 49 3e 2f 6f 9f 3d a6 d0 90 bc 95 3c 34 3e
       0.19702041 0.077848785 -0.017677616 0.17601235
0002d0 8c 76 eb 3d 93 9b 89 bd d5 99 ce 3d 57 8e 64 bd
       0.114972204 -0.067191266 0.10087935 -0.05579981
0002e0 84 c3 7d 3e 90 d1 2c be 47 de 65 be f3 9d b6 3d
       0.24781615 -0.16876817 -0.22448073 0.08916845
0002f0 a7 ce 9e be 8d 15 00 bf b6 b6 ba bd 3a 43 39 be
       -0.31017038 -0.50032884 -0.091168806 -0.18092051
000300 d7 c7 35 bd 90 0c 2b 3e 2f 5e d9 3d e6 dc ac be
       -0.044380035 0.16704011 0.10613667 -0.33762282
000310 82 8d cf 3d 08 3d 3f 3d 2b 89 97 be fd 4d 2c 3d
       0.10134412 0.046689063 -0.29596838 0.042066563
000320 8c 65 86 bf 6b 42 8b 3a 7d 3f 70 3e dc 91 61 bd
       -1.049974 0.0010624652 0.23461719 -0.055070743
000330 3e da 4a be 79 c5 85 bf 3f 6c 79 bc ee 15 ac bd
       -0.19809815 -1.0450889 -0.015223562 -0.0840262
000340 73 f9 b7 3d 56 35 45 3e 25 48 01 3e c1 1b 3e 3c
       0.089831255 0.19258627 0.12625177 0.011603297
000350 a0 34 2b 3e 1e 0b 37 be 6e 8d 69 3e eb 22 d1 3d
       0.16719294 -0.17875335 0.22807857 0.10211738
000360 c8 64 ff 3d 60 a1 e4 3c cf 03 f8 be 4f 12 8f 3e
       0.124703944 0.02790898 -0.48440406 0.27943656
000370 11 e9 d4 bd 38 b2 af bd fa ca 1c be 15 c7 52 3c
       -0.103960164 -0.085789144 -0.15311804 0.012864848
000380 8c 85 0b 3f 67 9f 5c 3d 57 3b d2 3d e2 be 98 bd
       0.5450065 0.053862955 0.102652244 -0.07458283
000390 22 f5 aa bd 16 96 46 be bb cd 02 bf 6f be e0 3c
       -0.083475366 -0.1939319 -0.5109517 0.027434556
0003a0 e9 82 c7 3e 46 87 09 3d 9d ab e2 3d af 3a 11 3f
       0.38967064 0.033576272 0.11067889 0.5673017
0003b0 1c cc 52 bd 4f a2 73 bf d2 c8 40 3c fa 2c 72 3d
       -0.051464185 -0.9516954 0.011766629 0.059124924
0003c0 8d a5 66 3d 35 23 c5 3c a7 bc 2a 3d df a0 cf 3d
       0.056310225 0.02406464 0.04168382 0.101381056
0003d0 20 6f 4e 3e 30 92 8c bd 06 20 54 bd 9e 4d 9e 3e
       0.20159578 -0.068638206 -0.051788352 0.30918592
0003e0 3f d2 a2 be 50 91 ca 3d 7c e2 98 bd dc 32 0a bd
       -0.3180103 0.098909974 -0.074650735 -0.03373991
0003f0 5e f8 d8 be 6f 60 d5 be d7 7f 09 3e a3 ec 47 3d
       -0.4237699 -0.41675135 0.13427673 0.04880966

self_entity_fc2.bias f4 [32]
000000 5e 9d 00 3e ad 0c ae 3d e5 9c 30 bc c1 dc 96 bd
       0.12560031 0.084985115 -0.010779594 -0.07366324
000010 f7 49 5c 3e 81 81 f6 bc b7 53 fb bc 3a 64 8e 3e
       0.2151259 -0.03009105 -0.030679567 0.27810842
000020 6e 54 70 bd a7 29 02 be 69 a3 15 3e 05 2b fe bb
       -0.05867427 -0.12711202 0.14613117 -0.007756593
000030 9d f4 25 be 50 dd 18 3e 90 41 16 bd 0a 1a f2 bd
       -0.16206594 0.14928174 -0.03668362 -0.11821373
000040 d7 97 bd bd a4 e6 02 be 4b 39 53 bd 5d 8a d6 bd
       -0.09257477 -0.12783295 -0.05156831 -0.104756095
000050 88 f1 36 3e a0 e2 0e 3e 18 ca 51 3d f5 66 40 be
       0.17865574 0.13953638 0.051218122 -0.18789275
000060 79 d8 b6 3d de 07 16 bd 5c a7 79 bd 86 d8 18 be
       0.08928008 -0.036628596 -0.060950622 -0.14926347
000070 b4 77 f1 3d 60 79 8d bd cc 00 e3 3d fc 99 41 3e
       0.1179041 -0.06907916 0.11084136 0.18906397
