my-submission/checkpoints/model_215552.pt (torch, 352733 bytes, 23 tensors)

local_map_cnn.0.weight f4 [32, 24, 3, 3]
00000000: 1457 66bd 94bc 3c3d ccde 723d 694e f4bc
00000010: bdcb 5b3c 6bdc 3ebc 5f21 e1bc 9f3d 98bc
00000020: ce61 273d d095 6d3c 3cb1 843d 776c 0c3c
00000030: 3fee 083d febf 453d 6d17 913d 7e22 ebbc
00000040: 62b4 dc3c bea3 1c3c 58d7 24bb 2e83 0abd
00000050: b459 45bd d680 863d 4245 003d ba89 65bd
00000060: f5ea a5bc 4921 45bd 31c0 0f3d 41da bfbb
00000070: 47ab 1ebd 44a3 82bc 3e71 d93c 65b4 a0bd
00000080: e704 a7bc f17a 03bd fd15 97bd ed80 8e3d
00000090: b409 c83c 0359 363c 1bca d5bd 37b4 063d
000000a0: 2462 373d 418b 43bb 5ce2 223d cae0 21bd
000000b0: 3605 d4bb 9db1 923c 1f64 d63c c6fa 563d
000000c0: b8dc 5e3b ed5f 053b 8e83 ba3b fa9e b33d
000000d0: d3db fdbb 6bfa 0cbd 9498 c0bc 913b a4bd
000000e0: 41ed c8bb a546 e5bb 93fa 34bd 4336 bcbc
000000f0: d27b 46bd 2cb7 16bd ff23 35bc 9e61 17bc
00000100: e1c7 a9ba e7d0 78bd b125 033d ddf9 43bd
00000110: 6d82 6bbd 5630 4bbd f62e 4cbd 5870 6c3c
00000120: f26d 86bc 0e25 883c 6ee4 a53d 9aa0 ff3c
00000130: 52a2 8c3d 774c d53c 47bd 5f3d 38a0 9c3d
00000140: 8153 933d c47d 153d 5d8f 08bd 5fde 82bd
00000150: 7d9c 4f3c 81d2 1cbd fe8d bc3b f517 a63d
00000160: 1aba 7a3d 631b 6f3d 82df a4bc 8451 b3bc
00000170: 702c 56bc da31 803c 9237 99bd 0b3d a23d
00000180: 2cbc 4ebd 9719 38bd c6f2 643d f929 31bd
00000190: 4976 79bc 8747 a43d 5c55 2dbd e9f7 87bd
000001a0: d0f9 19bd 9dc2 9fbc 9a7d 1e3b 4fe0 18bd
000001b0: da7c c83c 55ee f1bc defb 3abd 09aa b8bd
000001c0: 7400 5fbd f92c 91bd 6914 6fbd 4cab e3bc
000001d0: 214a aebd 791d bbbc da5a 7c3d d4e0 bdbb
000001e0: 2a7f 2abc 8568 eebc 2b6c 193c c134 d23c
000001f0: 8bd2 5e3d 8d64 b1bc 9fc7 59bc 9e06 90bd
00000200: 7e3a 103d 25d8 57bd 9cae 1fbd a284 acbd
00000210: a45c c13a 4f92 dcbc eedb 5f3d 3362 dfbc
00000220: 5edf 6a3c 8d70 8b3c bd84 863d 0fa7 983d
00000230: 4bdd 06bc e69b c23c 5b6d 303c ba07 15bd
00000240: bea8 6b3d 852a 733d b6d0 fbbc 18b2 fbbc
00000250: 4047 4b3d e3ed a3bd 50d0 873d ad10 1dbb
00000260: 8e5a 7ebc 37fb 84bc 2fdd 2bbb 16a3 a7bc
00000270: 5fdf 833c 24bb 6abc 81ad 28bd 1f0a cf3c
00000280: 953d dbbc 07cd 4eb9 69b0 37bd 9b5b f43c
00000290: 2d9d 0e3c b051 da3c ce2c 9c3d d7da 23bd
000002a0: 5851 73bd 01c9 613d 4b49 a1bd 9d9f c8bc
000002b0: 2bce 0bbb d301 12bd b55a c5bc e2b6 983d
000002c0: 63d7 23bd ea95 2dbd d8dc 943d e0d2 883b
000002d0: 8a01 5c3d e158 433d be7b aebc c9d4 513d
000002e0: d61e 943d 373c c13c fdfe 043d 4992 4bbc
000002f0: f5c7 bdbc 09da a33c d732 353d d5fb 423c
00000300: cfed 2cb9 ed92 03bd 4fd3 bebc 273f 7c3c
00000310: ce4e 303d dbce 373d 10d2 303e 7b40 1f3e
00000320: 3f09 0b3e ec76 283e 3b9c 223e b3c2 8f3e
00000330: 54e9 5f3e 9840 413e 034f 573e d975 653d
00000340: 3f6b d33d f564 cd3d c5b1 b13c 9a45 1e3d
00000350: 4765 a83d dd62 9a3d 519c 3a3d 057b b23c
00000360: 3606 153b dbdc 253d 2b52 0bbd 5e5f 8bbd
00000370: 0c63 55bc e050 fbbc 60d9 5abd 43ed cd3c
00000380: 07dd 20bd 10c1 b93c 89f0 2d3d d831 d8bc
00000390: 8dec c4bc 7bfe 2f3d ffde 853d 71a2 e6bc
000003a0: bc0d ab3a 91f9 a03c 3bc2 e2bb 527f 8fbc
000003b0: 3a91 913c 8a19 f2bc dbc2 3c3d d5ae 023d
000003c0: 3927 1c3d ed04 dbbc db77 6b3c d798 a1bc
000003d0: 3cf2 213d 99b0 df3c 8cfb 54bd 1901 8fbd
000003e0: 30fd 66bd 4496 ca3c 5e4d 473d fb55 d5bc
000003f0: e4a6 52bd a993 403d 7243 52bd b4b2 923c
-0.056235388 0.04607828 0.059294507 -0.029822545 0.013415274 -0.011649231 -0.027481733 -0.01858407
0.04086476 0.01450105 0.06479117 0.008570782 0.033430334 0.0482788 0.07084546 -0.02870297
0.026941482 0.009560524 -0.002515277 -0.03381651 -0.04818125 0.06567542 0.03131605 -0.05603955
-0.020253638 -0.048127446 0.035095397 -0.0058548753 -0.03873756 -0.015946992 0.026543256 -0.078469075
-0.02038808 -0.032099668 -0.07377241 0.069581844 0.02441869 0.0111296205 -0.10438939 0.03288671
0.04477133 -0.002983764 0.039766654 -0.039521016 -0.0064703478 0.017906958 0.026170788 0.05248525
0.003400607 0.0020351366 0.005691952 0.08770557 -0.0077471524 -0.034418505 -0.023510255 -0.08019174
-0.0061317985 -0.006996947 -0.04418428 -0.022975093 -0.048457928 -0.03679578 -0.011055945 -0.009239582
-0.0012953245 -0.0607461 0.032018367 -0.04784571 -0.05749743 -0.049606644 -0.049849473 0.014431082
-0.016409848 0.016619232 0.0810021 0.03120451 0.06866898 0.026037438 0.05462387 0.07647747
0.071936615 0.036496893 -0.033339847 -0.0639007 0.012671587 -0.03828669 0.0057542315 0.08110038
0.061212637 0.058375727 -0.020126108 -0.021889456 -0.013072118 0.015648771 -0.07481302 0.07921799
-0.050472423 -0.04494628 0.05589559 -0.04325292 -0.015225955 0.08021455 -0.042317733 -0.06639082
-0.037591755 -0.019501979 0.002418375 -0.037323292 0.024473596 -0.02953259 -0.045650356 -0.09016807
-0.05444379 -0.07088656 -0.058369074 -0.027791642 -0.08510233 -0.022841202 0.06161008 -0.005794624
-0.010406295 -0.029102573 0.009364168 0.02565992 0.05440001 -0.021654392 -0.013292222 -0.07032512
0.035212032 -0.052696366 -0.03898488 -0.08423735 0.001475234 -0.026925234 0.0546531 -0.027268505
0.014335481 0.017021442 0.065682866 0.07453739 -0.008231471 0.023755979 0.01076826 -0.03638432
0.057533972 0.05936672 -0.03073917 -0.03072457 0.049628496 -0.08004358 0.06631529 -0.0023966238
-0.01552452 -0.01623307 -0.0026224365 -0.020463508 0.016097723 -0.014326844 -0.04118109 0.02527338
-0.026762763 -0.0001972207 -0.044845972 0.029828837 0.008704466 0.02665028 0.07625733 -0.040003624
-0.059403747 0.055123333 -0.07875308 -0.024490172 -0.0021332602 -0.03564627 -0.024091104 0.07456757
-0.04000033 -0.042379297 0.07268685 0.004175529 0.053712405 0.047692183 -0.02129924 0.05122832
0.07232444 0.023588283 0.03246974 -0.012425014 -0.023166636 0.020001428 0.044237938 0.011900862
-0.00016491789 -0.03212254 -0.02329412 0.015395916 0.043043904 0.044875007 0.17267632 0.15551941
0.13577746 0.16451615 0.1587991 0.2807823 0.21866351 0.18872297 0.21026234 0.05602059
0.1032319 0.10029022 0.021691212 0.038640596 0.08222442 0.07538388 0.04555923 0.021787176
0.0022739298 0.040493827 -0.03401391 -0.06805299 -0.013024103 -0.030678213 -0.05342996 0.02513755
-0.039273288 0.022675067 0.04246572 -0.026390955 -0.024038577 0.0429673 0.06536674 -0.02815363
0.0013050358 0.019650253 -0.0069201267 -0.017516766 0.017769445 -0.029553194 0.046084266 0.031905014
0.038123343 -0.026735747 0.0143718375 -0.0197262 0.039537653 0.027305888 -0.051997706 -0.06982631
-0.056393802 0.024729855 0.048657767 -0.026041975 -0.05142869 0.04701582 -0.051333852 0.017907478

local_map_cnn.0.bias f4 [32]
00000000: 6c21 7b3c f14e 5cbc 4fd1 153d 3af7 8e3c
00000010: aaa6 f0bc f9dc a93d 7c8b 61bd 8c0b 953c
00000020: 9515 c1bc aea5 d7bc 573f 283c ef83 1bbd
00000030: 772c 503a a0ef 923d 5635 203d f2e6 563d
00000040: 0fe6 3dbc 9832 883d 2cdb 573d 41fb d93c
00000050: a97e 89bc b640 8f3d 9bfc 48bd add4 983a
00000060: 121b 693d fd43 57bd 332a 7d3d a9f2 c73c
00000070: 010f 9c3d 315e cdbc e6a5 e03c daf0 4fbd
0.015327793 -0.0134465555 0.036576565 0.017451871 -0.029376347 0.082941 -0.055064663 0.018193983
-0.023569861 -0.02632412 0.010269008 -0.03796762 0.0007941196 0.07174611 0.039113365 0.05246634
-0.011590495 0.06650275 0.052699253 0.026609065 -0.01678403 0.069947645 -0.04906903 0.0011660062
0.056910582 -0.052555073 0.061807822 0.024407702 0.07620049 -0.025069328 0.027422857 -0.050766803

local_map_cnn.2.weight f4 [32, 32, 3, 3]
00000000: 22de 0ebd 4902 3dbd 7476 0e3d 09c1 90bc
00000010: 8265 25bd e54e 16bd 08fd 33bd 7f28 433d
00000020: d9f6 3cbd 5580 7b3d a013 aebc 0c17 3abd
00000030: 1c2d 133b 4ebf 52bc f813 10bd 4791 1ebd
00000040: c78b 86bb 4b86 563d c2e9 403d a982 b8bc
00000050: f554 783d d2c7 3b3d cd81 f43c 8e06 223d
00000060: 31c4 44bc 5447 9bbc 454f 193d ce3d cc3b
00000070: 5e09 a53c 174b d03b 8390 3dbd 1619 833d
00000080: b5cd 1dbc 0b96 eb3c e52e 0e3d 984a 4bbd
00000090: cd7e 503d 1749 c03c bb29 983d 5f9d d83c
000000a0: 3906 ec3b 6970 61bd a1ef 30bd 75fb df3c
000000b0: 1b2b ff3b 1fea 433c a9e8 f83c f183 f93b
000000c0: 7908 1f3c 56df cc3c 3033 7e3d fc2b 2c3a
000000d0: 7247 003d a7b2 3d3d 508a 7a3d 9894 8dbc
000000e0: 6895 e23d 340d ce3d 6f9c eabc 5cd3 b63d
000000f0: 2c4f d0bb 7e16 9d3d 9cf2 9c3d eb9c 03bd
00000100: 9854 ec3c c67b 893c af69 b1bc 458e 80bb
00000110: 890a 5e3c e162 923c 6226 133d a09e 603d
00000120: e52e 803b 26e6 ebbc d4e2 2bbd e161 debc
00000130: 4367 9c3d a22b cabc d601 43bd 78c1 11bc
00000140: 9230 4c3d 9782 553b 0106 153d 5389 113a
00000150: 4656 a33c a957 023d 0f13 413d ea2a 01bd
00000160: f9d3 033b 9e94 e0ba e31e 21bd eb33 813d
00000170: 6059 c6bc b88b d6bc ce33 caba d7a7 543d
00000180: a822 833c b45e e43c 9f83 adbc 40b9 2e3a
00000190: edb4 d2ba 9ac2 3cbb c28e 163c 0988 223d
000001a0: 75ea 1bbd e039 83bd e866 d1bc 05dd 743d
000001b0: 0acc d93c 3f77 d7bc f183 7b3d 9166 323d
000001c0: a464 253d 2945 b33c e203 d93c a572 973c
000001d0: 88bc 38bc 41c3 463d f992 aa3c e1c2 6f3d
000001e0: ffb2 25bd debc 903c 795d 9fbc 2432 86bc
000001f0: 3bcf bd3b 4ce9 9c3d 5fa2 4b3d 69a5 a0bc
00000200: 630c 523d 9fc6 dbbc 4975 2e3c dc59 7c3d
00000210: eefb 773d 806a 483d 2504 943d 50d5 4cbd
00000220: 5cf7 2f3c f73f 743d 2f71 243c 8508 4abd
00000230: 6b60 febb ca28 043d f3b3 883c ed17 e4bc
00000240: fea1 5cbc 9b75 7b3c 9ed9 143c 7519 043d
00000250: 0046 efbc 554c 913d 6778 76bd a168 b8ba
00000260: ebba 44bd ec7c c93b 2f7a 5b3d 49db 9abb
00000270: c949 383d e36b 95bc 6fb2 953d f775 36bc
00000280: c78c c1bc 5aa7 333d dc3b 2abd 4f93 8e3c
00000290: 0ce7 893c c350 fc3b b7cf fdbb 9291 8abc
000002a0: 6a7d cfb6 6477 83bc 7c15 183d 88b2 fdbc
000002b0: 8246 893c 8df7 25bd ad44 1a3d 14fb 20bd
000002c0: f15c b43c 0f2b fd3c 56c2 063d 1b49 403d
000002d0: 4312 ffbc b5e2 1abd 0f4f 3d3c b415 2fbc
000002e0: 0fa3 fe3c 5fe6 ccbc a01f 3a3d a14e 89bb
000002f0: 711c 15bd b66b 6e3c 6953 0dbd 3a4d 593d
00000300: 76b6 d6bc f16b efbc 2d89 f33b 1a19 403d
00000310: 92c6 7fbc bac8 0f3d 8806 0bbd ceea 74bd
00000320: c05d 613d d51c cbbc 755d 993d b734 b63d
00000330: c1cb cebc 673f 243d 512a 8e3d aa35 cabb
00000340: a6c2 973b 97b9 793c c9d6 e73d 296c fb3b
00000350: 8914 d93d 94a3 803d 710a 243c 1705 2d3d
00000360: 1178 86bc a94d 163d e5c2 9e3b a2be c03c
00000370: f130 4cbd fa97 8e3d 5a01 b5bc 350d 5ebd
00000380: 7bed 323d 786f 1fbd c886 353d 23ab 6a3d
00000390: fddd 4c3c d712 0d3d cfea f73c 4f5a b73c
000003a0: 0c29 353d 3627 2a3d 9c77 583d 0bff 433c
000003b0: 4506 9f3c b2d3 b73c 6d01 863d 644a 1fbd
000003c0: e94d 233d f20d 173c 63ab 82b7 4996 c03c
000003d0: 8394 123c cf17 27bc bac3 693d 03f1 833d
000003e0: 4d2c 00bd e64e 34bd 60b6 15bc 712d 7f3d
000003f0: 2a25 773d 2c67 f0bb 916c 793d 5357 803d
-0.03487981 -0.046144757 0.034780934 -0.017670171 -0.04038001 -0.036696333 -0.04394248 0.047646042
-0.04613385 0.061401684 -0.021249592 -0.045432135 0.0022457307 -0.012862993 -0.035175294 -0.038712766
-0.004106018 0.052374166 0.04709793 -0.022523241 0.060627896 0.04584486 0.02984705 0.039557032
-0.012009666 -0.01895491 0.037429113 0.0062329536 0.020146068 0.0063566077 -0.046280395 0.06401269
-0.009631564 0.02875807 0.03471269 -0.049631685 0.050902177 0.023472352 0.074298345 0.026442228
0.0072028902 -0.055038843 -0.043197278 0.027341584 0.007787121 0.011957674 0.030384379 0.0076146056
0.00970661 0.025008839 0.062060535 0.00065678335 0.031318136 0.046312954 0.06116706 -0.01728277
0.11063653 0.10061112 -0.028639046 0.08927032 -0.0063570943 0.07670306 0.076634616 -0.03213207
0.028848931 0.016782653 -0.02165684 -0.00392321 0.013552316 0.017869415 0.035925277 0.054838777
0.0039118403 -0.028796267 -0.041964367 -0.027146282 0.07636883 -0.024679009 -0.047609173 -0.008896224
0.049851008 0.0032579058 0.03638268 0.0005551774 0.0199386 0.03182188 0.047137316 -0.031535067
0.002011536 -0.0017134135 -0.039336096 0.06308731 -0.02421254 -0.02618967 -0.0015426816 0.051917877
0.016007736 0.02787719 -0.021180926 0.00066651776 -0.0016075649 -0.0028802515 0.00918931 0.039680514
-0.038065393 -0.06407523 -0.025561765 0.059781093 0.026586551 -0.026301978 0.061405126 0.043554846
0.04037918 0.021883564 0.02649111 0.018487284 -0.011275418 0.048526052 0.020822035 0.05853546
-0.040453907 0.017668184 -0.01945375 -0.01638133 0.005792526 0.07661685 0.049715396 -0.019610124
0.051281344 -0.026828108 0.01064808 0.061609134 0.060542993 0.04892969 0.07227353 -0.05000812
0.010740127 0.059631314 0.010036751 -0.04932453 -0.0077629588 0.032265462 0.016687369 -0.02784344
-0.013466356 0.015347864 0.009085087 0.03225084 -0.029208183 0.07094637 -0.06017342 -0.0014069268
-0.04802982 0.006148925 0.05358332 -0.004725848 0.044992242 -0.018239921 0.07309424 -0.011136523
-0.023626698 0.04386077 -0.041560993 0.017404227 0.016833805 0.0077000572 -0.007745709 -0.016915116
-6.183681e-06 -0.01604814 0.037129864 -0.03096892 0.016757254 -0.040519286 0.03766315 -0.039301947
0.022016974 0.030904321 0.032900177 0.04694472 -0.031136638 -0.03781386 0.011554494 -0.010686327
0.031083612 -0.025012193 0.045440316 -0.0041902815 -0.036404077 0.0145520475 -0.034503374 0.053052165
-0.026210051 -0.029226275 0.007432124 0.04689894 -0.015611308 0.035103537 -0.033941776 -0.05979424
0.055021048 -0.024794022 0.07488529 0.08896773 -0.025243642 0.040099528 0.06941665 -0.006170948
0.004631358 0.015242002 0.11320264 0.007672806 0.1059962 0.062812 0.010012255 0.042241182
-0.016414674 0.036695156 0.0048450106 0.0235284 -0.04985136 0.06962581 -0.022095371 -0.054211814
0.04368351 -0.038924664 0.04431799 0.057292115 0.012504098 0.034441795 0.030263333 0.02238193
0.0442286 0.0415413 0.052848443 0.011962662 0.01941217 0.022439811 0.06543241 -0.038889304
0.039869223 0.009219633 -1.5577016e-05 0.023509162 0.008946541 -0.0101985475 0.057071425 0.06442454
-0.03129225 -0.044020556 -0.00913772 0.062299196 0.060338177 -0.007336518 0.060894553 0.06266656

local_map_cnn.2.bias f4 [32]
00000000: 49f8 7c3c 556c 063d ab66 bebc 9295 8f3d
00000010: 6679 21bd cb82 a63c 9eea 443d 8c27 58bd
00000020: 5637 5e3d 9f24 0ebc afa8 42bc b0dc 42bd
00000030: 683e 353c e770 1fbd b669 163d fc23 8fb9
00000040: 27fc 1c3d 0670 cb3c a9f0 2a3d 1a5c 8a3d
00000050: a0ee 593c d40e 7e3d 6e53 c7bc 0b33 7b3d
00000060: 3b2f eb3c 0837 233d 044a 2abd 25e2 e2bc
00000070: 58c0 bcbb f166 643d 1c14 3fbc 6fab 5ab9
0.015440055 0.032818157 -0.023242315 0.0701095 -0.039422415 0.020326039 0.04807531 -0.05277209
0.05425199 -0.008675723 -0.011881038 -0.047573745 0.011062242 -0.03892603 0.036721908 -0.00027301896
0.03832641 0.02483369 0.041733418 0.06755848 0.013301522 0.06202586 -0.024331775 0.061327975
0.028709045 0.039847404 -0.041574493 -0.027695725 -0.005760234 0.055762235 -0.011662509 -0.00020853964

local_map_cnn.4.weight f4 [32, 32, 3, 3]
00000000: 71cc 603c fc6b 8dbc 03eb f1bc 281c 89bc
00000010: ef5f 803d 5acd 5b3d 414d 7cbc 41be 3cbb
00000020: 3993 2f3d 01a5 6f3c b43f 45bd d102 8f3c
00000030: e919 06bc f0c9 233d c5ba a53c 1a14 093d
00000040: be2f 52bd 69ff 08bd 1b28 11bd dec4 2f3b
00000050: a981 823d 4917 febc 8719 3c39 e866 04bd
00000060: 8aff 083d 7863 3abd b9fe 343d 839d 1f3a
00000070: 3b69 823c 932a 0abd 69c8 623c 2454 3d3d
00000080: 5db9 833d 0686 863d 381d a93c 430b c1bc
00000090: 8a0d 413d bfaf fe3c 056b 2dbc 7614 7a3b
000000a0: de77 513d 8095 3fbd e52c 813d c474 473d
000000b0: 301a 173b c564 6f3d 5a89 563d 431d 4abc
000000c0: 4891 13bd 77bc a33c f96b bcbc 3fc4 713d
000000d0: ecb8 93b9 1e51 943c 8a0b 5f3d 0554 623d
000000e0: 572c c03c 61b8 983c 2570 963c f74b 3f3d
000000f0: c510 3abd 5851 14bd b375 573d 1bc1 203b
00000100: dd27 383d a41f 42bc 8cf9 213d e257 82bc
00000110: 8140 833d cb81 063d b91a 11bd ecc2 863d
00000120: 2bf6 81bc 3d97 3f3d aa19 10bc 5cbf 533c
00000130: 85b3 243c 5468 2ebd 6906 613d 5bb6 123b
00000140: e952 ff3b 9fa9 0f3d 568e 253d 7874 02bd
00000150: 3386 22bc 3d5e f9bc 1680 8a3b 8c8b 11bb
00000160: f95f e1bb 05a9 cdbc da31 343d 6b4f 943c
00000170: 6fb6 c33c 552b 873d 072a 6f3d 4846 6d3d
00000180: 3d04 913d 5bb0 683d 6900 1b3d ab6d cdbc
00000190: 7f2c 173d 86d6 46bd 0fdd b2bc e689 02bd
000001a0: 104d 1d3d f5e1 023d 2c78 90ba 1d3b 26bc
000001b0: d4ad e23c cd1e 5d3d c1b6 083d 1070 963d
000001c0: ce20 5a3d 39ed 60bc 41c5 4e3c 9a35 7e3d
000001d0: b11f 41bd c75f 9bbc 6f29 72bd 40af 33bd
000001e0: 2222 e63c 7c67 203d 7714 14bc a09d e7bc
000001f0: 4f04 2b3d f4bf 09bc ba83 82bc 939a b33c
00000200: e9cc 823c 0938 0d3b 823c 3fbd 9740 5a3d
00000210: e581 debc d5b8 b9bc 5deb 42bc 307d 593d
00000220: 8e9f 883c 8372 553d 6110 a4bc b97c 6e3d
00000230: 685b e3bc daa3 873c d577 54bc 5526 2e3d
00000240: d15a fbbc fb8d b0bb 6ba4 5abd c33d 29bd
00000250: 9c74 063d 1f6f cc3c 831c 003d 302a 3abd
00000260: 38a4 083d 8ffe 373b 8d26 4b3c aba8 933d
00000270: 61a7 063d e974 09bc 6a28 d5bb 4e5f 713c
00000280: c808 863d ae69 3f3d 96af 11bc 72c9 8b3d
00000290: 86b3 ff3c aab1 b13c da71 833d df59 613d
000002a0: 10bf 68bc ec8e 853d b79c 823d cbdb 99bc
000002b0: 3b82 ffbc 8327 923d cbfb 8c3b f488 04bd
000002c0: a8b2 66bc dfe6 553d fd16 35bd 2831 5d3d
000002d0: bee9 a63c 0d30 01bd 2ef2 f73c e71f e43c
000002e0: 6a38 ea3c d310 1b3d b684 473b 1b2f 403d
000002f0: ec35 673d 03d3 783d 5ce1 883c 517f 703d
00000300: 4ab6 593d d71b 313d 7832 8b3d 93b2 8739
00000310: 4cee aa3c 47be 0ebd 081b 77bc e1fc 1f3d
00000320: cccd 10bd 7af2 e23c 1197 71bc 9779 01bd
00000330: a11f 40bd 0180 003d a197 ce3c 4b1c 03bd
00000340: ad8c c13c b6be cfbc d993 96bc 9493 5d3c
00000350: 38b1 ca3c 0521 9f3c 8936 3dbd 3213 413d
00000360: 2f8e 7c3d 8b02 20bd 3ec9 103d 0aa6 35bd
00000370: 245c 3f3c be79 733d d663 41bd 2fad 2bbd
00000380: d6bd 353d 17ee 8b3d 97ae dabb f488 0ebd
00000390: 6b0f 053a 1a8d 06bd c9c5 18bd d7a1 2a3d
000003a0: d856 053d ef2b 563c 6b44 41bd cecf 243d
000003b0: 87e7 903c 5f18 853d 558f 493d 69c5 4dbd
000003c0: 31e5 05bd c094 45bd c5cf 2e3d fcb1 95bc
000003d0: 2ad6 94bd a5de e9bb c540 70bb 626d 4dbd
000003e0: 27f6 0cbd 2ff5 7bbd 82ff f7bc 3391 073d
000003f0: 807f 6c3d 15e5 11ba 0cc5 1b3d 1e20 913d
0.013720618 -0.017263405 -0.029531008 -0.016737059 0.06268298 0.053662635 -0.015399278 -0.0028799924
0.04286501 0.014626742 -0.048156455 0.017457398 -0.008184888 0.039987504 0.02023066 0.033466436
-0.05131506 -0.033446703 -0.03543864 0.0026820223 0.06372387 -0.031016963 0.00017938587 -0.0323247
0.033446826 -0.045505017 0.044188235 0.000608884 0.015919318 -0.03373201 0.013841727 0.04622282
0.064318396 0.06568532 0.020643815 -0.02356494 0.047132052 0.031089662 -0.0105845975 0.0038159168
0.051139705 -0.046773434 0.06307391 0.04869534 0.002305638 0.05844571 0.052377082 -0.012336078
-0.036027223 0.019987328 -0.023000704 0.059025045 -0.00028175802 0.018105086 0.054454364 0.05525591
0.023458643 0.018642606 0.018364022 0.046703305 -0.04542615 -0.036210388 0.05260248 0.0024529162
0.04495989 -0.011848364 0.039544627 -0.015911046 0.064087875 0.032838624 -0.035425875 0.06580147
-0.015864452 0.04677509 -0.008795181 0.012924042 0.010052566 -0.042579964 0.054937754 0.0022386524
0.007791866 0.035073873 0.040418945 -0.031849355 -0.009919691 -0.030440444 0.004226695 -0.002220842
-0.006877896 -0.025105009 0.043992855 0.018104276 0.023890702 0.06600062 0.05838969 0.057928354
0.070808865 0.05680881 0.037842188 -0.025076708 0.03690767 -0.04854443 -0.021833925 -0.03186979
0.03840357 0.03195377 -0.0011022142 -0.01014593 0.027670778 0.053984452 0.033377413 0.07345593
0.05325394 -0.013728433 0.012620271 0.062062837 -0.047149364 -0.018966569 -0.059121545 -0.043868303
0.028092448 0.03916119 -0.009038082 -0.028273404 0.041752156 -0.008407582 -0.015931953 0.021924293
0.01596685 0.0021548292 -0.046688564 0.053284254 -0.027161548 -0.022671143 -0.011896935 0.053097904
0.016677644 0.05211116 -0.020027341 0.058224414 -0.027753547 0.016557623 -0.012968023 0.042517025
-0.030682953 -0.005388019 -0.053379457 -0.041318666 0.03282605 0.02495533 0.03127719 -0.04545039
0.033359736 0.0028075313 0.012399328 0.07209905 0.03287447 -0.00838969 -0.006505062 0.014732195
0.06544644 0.046731643 -0.008891961 0.06825532 0.031213533 0.021691162 0.064182 0.05501735
-0.014205709 0.06521401 0.06377547 -0.018781563 -0.031190028 0.071364425 0.004302477 -0.03235717
-0.014080681 0.05222213 -0.044211376 0.054001957 0.020375129 -0.031539965 0.030266847 0.027847243
0.028591353 0.03785784 0.0030444092 0.046919923 0.05644791 0.06074811 0.016709022 0.05871517
0.05315236 0.04323944 0.067967355 0.00025882255 0.020865582 -0.03484943 -0.015082128 0.039059523
-0.035352513 0.027703512 -0.01474549 -0.031610098 -0.046905164 0.031372074 0.025218787 -0.032009404
0.02362665 -0.025359493 -0.018381046 0.013523955 0.024742708 0.019424925 -0.046194587 0.047137447
0.061659034 -0.039064925 0.03534817 -0.0443478 0.011679683 0.059442274 -0.04721435 -0.041913208
0.044370495 0.068325214 -0.0066736448 -0.034798577 0.0005075845 -0.03284941 -0.037297998 0.04165825
0.032553524 0.013071998 -0.04718439 0.04023724 0.017688526 0.06498789 0.049208958 -0.050237093
-0.032689277 -0.048237562 0.042678613 -0.018273346 -0.07267411 -0.007137137 -0.00366597 -0.050153144
-0.034414437 -0.061513122 -0.030273203 0.033097457 0.05773878 -0.0005565447 0.038029715 0.07086204

local_map_cnn.4.bias f4 [32]
00000000: 708f 5c3d d843 17bc acce c73c 7f07 dbbc
00000010: a60b 4d3d 5dba 5cbd 2147 793c 63f9 70bd
00000020: f719 813d 1732 4abc ea47 debc caca 193d
00000030: 0328 afbb 733f a8bc 9d81 39bd 1ae2 6bbd
00000040: 302c 51bd 48c8 17bd d004 1dba 4475 783c
00000050: 0a40 893d d498 5d3c f41e 4ebd a978 fcbc
00000060: 6eed 093d 19c1 723d e7a1 753b 36b8 023b
00000070: c8b1 a2bc f7b3 f23b 4c93 babc c0e7 3bbd
0.05384773 -0.009232484 0.024390541 -0.026736973 0.050059937 -0.053888667 0.015214712 -0.058831584
0.063037805 -0.012341044 -0.0271339 0.03754691 -0.005345346 -0.020538067 -0.045289624 -0.057588674
-0.05106753 -0.037056237 -0.0005989792 0.015164677 0.067016676 0.013525207 -0.050322488 -0.030819254
0.033673696 0.059266184 0.0037480535 0.0019946224 -0.019860163 0.0074067074 -0.022775315 -0.04587531

local_map_fc.weight f4 [64, 512]
00000000: d9e7 a53c 4da6 62bc fee6 00bd 9d0a 143d
00000010: c6b3 113d 4aa0 04bc 5463 d3bb de70 053d
00000020: f122 163d 6719 0bbd 5f2f adbc 35ae 4d3c
00000030: b1f6 023c 3ee1 88bc 94d7 0bbd 1714 7ebb
00000040: 724c a23b 1c67 e93c 7217 783c 532d 2e3d
00000050: 5e80 c53c 348f d03c cd6b 26bc 588b 39bc
00000060: e1e6 5bbc 9895 9abc 81a4 3b3c 1407 a3bb
00000070: 0b8c 063c 9c8b 193d 4a06 a23b a09b 1fbd
00000080: 8599 d9bc 8b4e e8bc 1fb8 c5bc 55e9 ecbc
00000090: c829 173c 2295 af3c 94d4 06bd 4857 0e3c
000000a0: 3451 0e3d 8ac5 fe3c d3d7 1b3d 1dba 76bc
000000b0: a694 ae3c 64ed 083d b976 7dbc defd 12bd
000000c0: c763 0dbd dac7 6dbc 9662 133d 4d9a 54bb
000000d0: 7f88 a83b 01a2 11bd 318e 1ebc 85e9 e439
000000e0: f014 be3c 7c42 983c 2bb8 fdbc 7dca 043d
000000f0: 9861 683c 035f 423c 8f3f bcbc 3f6e 7e3c
00000100: d3c9 e8bc 3341 32bd 3258 143d 0f09 aa3c
00000110: fc3f 37bd 5685 443c b284 353b 8d39 c03c
00000120: abfc b43c 2837 85bc 858a 2bbd fe8c f03c
00000130: dc81 7d3b 840a 053d dd3f 29bd 8904 0a3d
00000140: 22f5 18bd 61c5 003d 3de9 f3bc 386c 283d
00000150: a070 abbc d2d6 c0bc f95f 16bd 8046 aebc
00000160: 3d94 b13b 6b6d 73bc 616b f8bb 8448 683c
00000170: 0c80 25bd 43b4 923c 8983 2ebd bbbd 19bd
00000180: 7076 42bb 79c5 973c c418 29bc dd53 dabc
00000190: 81bc 22bd 6a02 11bd 9217 363b 1dee 123d
000001a0: e3c0 ebbc 26e6 d53c d319 edbc 10dc 31bd
000001b0: 63ff f43c 3623 c43c dc3c 8e3b 1b0d e7bc
000001c0: d4c0 193b 08bd a6bc 87bb 59bb 0cc9 633c
000001d0: 3002 b5b9 bb53 203d 794e 323d 4b13 223d
000001e0: c41f 36bd c65f b23b 655a ffbc f796 013d
000001f0: 4621 0c3d 6314 aabc 6ff8 c5ba a45a 983b
00000200: a1cf 3dbc 88a9 003c e924 123d c16f d8bc
00000210: f686 dfba 8553 15bd 16ec d5bc 3721 12bd
00000220: cf99 d4bc f770 4239 8719 7e3c 83ea 673c
00000230: 169f d9bc 4636 1f3d 04b9 0d3c b2e7 c5bc
00000240: 2cb3 d43c 2b10 f2bb 3b97 0fbb 1576 febc
00000250: b83f df3b 4871 d8bc 8607 38bd 5bab 653c
00000260: 6afa bcbc 5e70 993c 70e2 913c d3e0 84bc
00000270: 5324 e0bc 9a43 0c3c 613f ddbc d453 3c3c
00000280: 9be5 273d e040 813c 37db 88bc e363 953b
00000290: 853a d13c c331 213d 59a6 e93c 8354 0dbd
000002a0: e263 293d 183b 21bd 7a98 b4bc 92b7 32bd
000002b0: 47f6 4dbc 5c73 563c 2751 b2bc 0013 a93c
000002c0: 6e5b 163d d6bf 1c3d 5042 c43c 653f f3bc
000002d0: 4f92 b33c 2a11 c63c c24f 36bd eff3 bebc
000002e0: 7fce abbb d7d3 0abc d93b 00bc 74f4 ba3c
000002f0: 77b8 143d bd00 65bc 10c1 423c 9f25 473c
00000300: 3b2e d73c c850 35bc 7fd0 1f3d 72d9 6abc
00000310: b822 6bbc f23d fbbb 6ebb d0bc cf63 b5bc
00000320: 37aa 50bc 561d 35bd 5233 1dbd ba4c 383d
00000330: be83 10bd af54 0d3d 9b69 15bd 3d04 0fbd
00000340: a03e 29bd 7cf9 09bd e2d4 c9bc f3f1 2e3d
00000350: 3174 b8bc f388 da3b 41fd 4a3c d446 52bc
00000360: f27c 12bd 70ab ea3c 8a83 d33c dd88 973c
00000370: dcc5 9e3c ec47 bb3b 7665 093d b52f ae3c
00000380: 107b 0c3d 6ebb bbbc 58d3 f5bc f800 f5bc
00000390: 68bd 273b 4078 d5bc c198 2d3d e9d0 babc
000003a0: 05a0 26bd a850 2d3d bc48 82bb ba4f 0fbd
000003b0: 7c4e 8ebc 71d5 6ebc b395 12bd 31cf 883b
000003c0: 2cbd db39 b558 20bd 4043 05bb 10bb 323d
000003d0: 4e13 bdbc ee74 973c 6e30 5c3c 1446 013c
000003e0: 6d3c 05bd cb02 9cbc d82f 31bd eb2c a33c
000003f0: 39de 9d3c 1ede 2dbd 460c 333c 5ecb 2bbd
0.020252155 -0.0138335945 -0.03147029 0.036142934 0.035571836 -0.0080948565 -0.00645105 0.03257834
0.036654416 -0.033959772 -0.021140752 0.012553741 0.007993386 -0.016708966 -0.03414114 -0.0038769299
0.0049529606 0.02849155 0.015142309 0.042523693 0.024109062 0.02545891 -0.010157538 -0.011324726
-0.013421745 -0.01887016 0.011452795 -0.004975209 0.0082121 0.037486658 0.0049445974 -0.038966775
-0.026562462 -0.028357765 -0.024135647 -0.028919855 0.00922627 0.021433417 -0.032917574 0.008687802
0.03474541 0.031100053 0.038047623 -0.015059021 0.021311115 0.03342952 -0.0154702 -0.035886638
-0.034518983 -0.01451298 0.03598269 -0.0032440603 0.0051432247 -0.03555489 -0.009677456 0.00043661534
0.023203343 0.01858639 -0.030971607 0.03241967 0.014183424 0.011863473 -0.022979526 0.015529214
-0.02841655 -0.04351921 0.036216922 0.020756273 -0.044738755 0.01199468 0.00276975 0.023464942
0.022093138 -0.016261652 -0.04188015 0.029364105 0.0038682139 0.03248073 -0.04132067 0.03369573
-0.037343152 0.031438235 -0.029774303 0.04111883 -0.020927727 -0.023539934 -0.03671262 -0.021273851
0.0054192827 -0.01485763 -0.00758116 0.014177445 -0.04040532 0.017908221 -0.04260591 -0.037534457
-0.0029672645 0.01852678 -0.010320846 -0.026651317 -0.039730553 -0.035402693 0.0027785045 0.035871614
-0.028778499 0.02611072 -0.028942978 -0.04342276 0.029906934 0.023942571 0.004340751 -0.028204491
0.0023460882 -0.020353809 -0.0033223347 0.013902914 -0.0003452464 0.03914235 0.04353187 0.03956918
-0.044463888 0.005443546 -0.031171033 0.031638112 0.03421142 -0.020761674 -0.0015103946 0.004649477
-0.011585147 0.007852919 0.03567973 -0.026420476 -0.0017053771 -0.036456604 -0.026113551 -0.035676207
-0.025952248 0.00018543364 0.015509016 0.014155033 -0.026565116 0.03887012 0.008650068 -0.024158332
0.025964342 -0.0073871813 -0.0021910209 -0.031062165 0.006813016 -0.026421204 -0.04492905 0.014017905
-0.023068625 0.018730339 0.01780817 -0.016220486 -0.02736107 0.008561039 -0.02700776 0.011494596
0.040990453 0.015778005 -0.016706092 0.0045590266 0.0255406 0.039354097 0.028521704 -0.034504425
0.04135502 -0.039362997 -0.022045363 -0.043632098 -0.012570924 0.013089027 -0.021767212 0.020638943
0.036708288 0.038268887 0.023957402 -0.029693315 0.021920351 0.024178106 -0.044509657 -0.023309676
-0.005243122 -0.008473358 -0.007826769 0.022821642 0.036308732 -0.013977227 0.01188685 0.012154966
0.026267162 -0.011066623 0.039017197 -0.01433407 -0.014351539 -0.0076672966 -0.025479998 -0.022142319
-0.012735895 -0.04421743 -0.03837902 0.044995047 -0.03528189 0.03450459 -0.036477666 -0.03491615
-0.04131949 -0.033685192 -0.024637643 0.04271121 -0.022516342 0.0066691577 0.012389482 -0.01283427
-0.03576369 0.0286462 0.025819559 0.018497879 0.019381456 0.005715361 0.033544026 0.021262983
0.03429705 -0.022916522 -0.030008003 -0.029907688 0.0025595073 -0.026058316 0.042382006 -0.022804694
-0.04067995 0.042313248 -0.003975956 -0.034988143 -0.017371409 -0.014577256 -0.035787296 0.0041750898
0.0004191188 -0.039147098 -0.0020334274 0.043635428 -0.023080494 0.018488374 0.013439281 0.007890243
-0.03252833 -0.0190443 -0.043258518 0.01991888 0.019271003 -0.042448156 0.010928219 -0.041941993

local_map_fc.bias f4 [64]
00000000: 04b2 d6bc b47e 55ba e5e1 d93c e4e2 173d
00000010: 0020 e23c b619 bdbc cc29 29bd 4095 cbbb
00000020: 7a72 1abd 0d4a 88bc 5439 59bc 5c1b 2fbd
00000030: 0e21 a83c 8c26 ecbc 400d f83c c0d2 843d
00000040: ec85 cfbc d50f e3bc c2c9 263d 483c dc3c
00000050: fb11 4e3d 69c3 1bbd d2ec d03c fc1b 963c
00000060: c5df 223c abb7 cf3b ee54 6bbc 3276 83bc
00000070: d638 1dbd 9ec0 cebc 5e16 c83c dc29 043d
00000080: 1b03 10bd e059 273c aa80 2f3d 4d85 61bc
00000090: db45 0bbc f6af 9a3c 500f 77bc 4418 ca3c
000000a0: 25c6 2c3d 065a 86bc 05e5 a5bb 8fc6 023d
000000b0: 3fc4 ea3c 4f6d 293d fb7d 21bd 97b5 91bb
000000c0: ce0a 143b 3271 2ebd f325 f0bc 458a 30bd
000000d0: 04e9 8f3c f6f5 21bd 2836 45bc 534f cc3c
000000e0: 79e4 b83c cedf 5abc 2f14 9abc 8629 f73c
000000f0: 485a 143d 6405 553d 3418 b53c f57a c4bc
-0.026207931 -0.00081441854 0.026596973 0.037081614 0.02760315 -0.023083549 -0.041299626 -0.0062128603
-0.03770683 -0.016636873 -0.013258297 -0.0427507 0.020523574 -0.028826974 0.030279756 0.0648551
-0.025332414 -0.02771751 0.040719755 0.026884213 0.050310116 -0.038028155 0.02550355 0.01832389
0.009941046 0.0063390336 -0.0143635105 -0.01604757 -0.03838428 -0.025238331 0.024424728 0.032266483
-0.03515921 0.010214299 0.042847313 -0.013764692 -0.008500542 0.018882733 -0.015079334 0.024669774
0.042181153 -0.016400348 -0.0050627016 0.03192764 0.02865803 0.04136401 -0.039426785 -0.004446696
0.0022589448 -0.04258842 -0.02931497 -0.043100614 0.017567165 -0.039541207 -0.012036838 0.024940168
0.022569882 -0.013359023 -0.018808452 0.030171167 0.03621891 0.052007094 0.022106268 -0.023984412

self_entity_fc1.weight f4 [32, 26]
00000000: 8433 f3bd 041f ce3d 212f 883e e387 b0bc
00000010: 67c7 333e 377b 57be 9fc0 51be 4773 793e
00000020: 2853 663d ccf2 ebbd ecaa eabc 13fa 13be
00000030: be15 ddbc 3ff2 d03d d818 1c3d 3bb6 543e
00000040: d5d8 593c eeba 1e3e 7b72 5e3e 49cc 843d
00000050: a73c 973d 2926 203e 2214 fb3d a647 273d
00000060: ad21 05be db5f debc 6ed7 1fbe cdd5 54bd
00000070: 5f3f 0e3d 17b1 0c3e 0be9 833d 3f24 b7bc
00000080: c28c 513c c4f4 793d 05ae fa3e 86b2 683e
00000090: 8bf3 efbe 955c 8ebe be30 27be 84ae 8bbd
000000a0: bf77 b5bd 7707 bebd 33b2 383e 1acb f63c
000000b0: 0670 c5bd 34e5 cb3c 3627 6f3d 4419 533e
000000c0: 4500 083e b1ad 04be dbe3 ea3c bb4e cf3d
000000d0: 25ef 4f3e 53e2 073e 9880 a73c 3bc0 983d
000000e0: 01c0 103e 3621 82be abba f53c 6f06 ac3e
000000f0: 416f 983e 4fec 2c3e 0f2a 8bbe 533d efbb
00000100: dd4e 5d3d fe60 673e 34f8 f83d 4beb d13c
00000110: e7b1 8fbc 163a 4ebd 97ef 6d3e 0806 cabd
00000120: f8de 193e aa4b ecbb d364 da3d a38e 97bb
00000130: 0912 333e 5697 d5bb 63e5 17be b00c 56b9
00000140: 59ae 023e 7c5d 55bd 4a99 f7bc 7b97 183e
00000150: 0f28 3cbe 2e1f 0b3e 0b46 203e 3b27 e1bd
00000160: 96cb b2bd d16a 373e 878b 1ebe 7c7e 3dbc
00000170: 047f 9b3d a0e0 a13d 121c 86bd 9746 003d
00000180: 6c09 d5bd 5ab5 143d 6857 80bd 8f0b 43be
00000190: 5fd4 f13b 97f9 313e 15c5 48be 7875 b33d
000001a0: 93d9 623e e04d 47be 9597 ad3d 7624 e4bc
000001b0: 8c9a 76bd 75ff fbbc 8b6c a9bd 0ea4 743e
000001c0: c726 db3d dfd1 86bd 7eea 93bc 94d7 53be
000001d0: cdbd 403d 253d e7bd a45a 753e b174 cc3b
000001e0: 9aaf a13d dba7 25be 60a7 3cbd 9d38 993d
000001f0: ba1b e5bd 3732 ee3d b45b 04be e8b7 183e
00000200: cee5 28be d154 b1bd b79c 903d 8dda 543e
00000210: 9dcc 573e a380 51be bea7 f2bd 2cc3 67be
00000220: b90a 123e f495 413e 51ce 373e b3a7 79bd
00000230: e77c 9c3d d648 f73d 73a2 50bd 8137 9c3e
00000240: 68a4 6c3d 1f60 9b3d 99de f6bd fd94 28bd
00000250: ed59 273e 3880 8f3e feb4 1cbd fc48 0f3e
00000260: 926d 053e 8825 163e 3a12 3d3e 1060 ffbd
00000270: 253a 8c3e be9f 333e 294a d03d 0d93 37bd
00000280: 2c98 e93d 1407 82be 3bd8 493d a652 813e
00000290: fc76 0d3e bffd 0dbe 2c00 c73d dab6 20be
000002a0: 2bd5 393e eebf b53b 26de cc3d ddef 0d3d
000002b0: 8662 a4bb 6014 063d 3032 f23d 132e a6bd
000002c0: 5e1e 06bd 3c54 d13d 7dd6 f53d 3d81 3fbe
000002d0: 26a0 363d 994d 8bbd 4210 a13d 63f7 bfbd
000002e0: 9d15 633e f92d f8bd 6101 e6bd 52f5 b13d
000002f0: ee2b 18be 0ef3 203e 962a ad3d 33ee acbd
00000300: 5d63 94be 3f6f fb3d bb3b 5b3e 919b 8b3e
00000310: 90fd e83d e5b6 703e 23c6 07be 756d 233e
00000320: 07c9 393e 8f4c 84bd 783f 563e 28f9 8a3c
00000330: c7b4 023e 76bb 0abe d39f f83d ba2d 44be
00000340: 1fd1 20bd 9142 a2bc 25bb b83d 47d3 3e3e
00000350: fcf6 763e a1b4 983e 1fd2 903c dc22 99be
00000360: aa89 bebd ed11 eb3d 43bb 563d 38fb 643c
00000370: 88d5 293e 1654 55bd 8d97 013d 5cb9 fabc
00000380: 671e 5e3e 6273 c3bd 29b6 523d b2c6 f13d
00000390: 52b7 febd 1a29 553d b77e 8b3d b23e e93d
000003a0: 640a eb3b f594 f23c 41a4 c43d 3ad2 62be
000003b0: 6b17 1e3e c4a9 243d ea91 0cbd eec8 4cbe
000003c0: 8c4c 1b3e a753 1a3e 2225 4c3e 36f9 233d
000003d0: 0566 2abd 27d0 4e3e 29ef 7c3e 009c 93bd
000003e0: c69b b33c 2ceb be3d 47ec 9abd bf00 933d
000003f0: 5790 453e b8f5 3a3e 426d 0f3e 2222 803e
-0.1187506 0.100645095 0.26598457 -0.02154917 0.17556535 -0.21043096 -0.20483635 0.24360381
0.056231648 -0.11520919 -0.028645955 -0.14450864 -0.026987907 0.10202455 0.03810963 0.2077264
0.013296326 0.15500996 0.21723358 0.06484277 0.073846154 0.15639557 0.122596994 0.040839814
-0.13001128 -0.027145317 -0.15609524 -0.05196171 0.034728404 0.1373943 0.06440934 -0.02235615
0.012789907 0.061024442 0.4896089 0.22724351 -0.46865496 -0.2780501 -0.16327187 -0.068203956
-0.088607304 -0.092787676 0.18036728 0.030126143 -0.096405074 0.024889566 0.058387004 0.20615107
0.13281353 -0.12956883 0.028673103 0.101224385 0.2030607 0.1326993 0.02044706 0.0745854
0.14135744 -0.25415963 0.029996237 0.33598658 0.2977238 0.1688702 -0.27180526 -0.0073010116
0.054030288 0.22595593 0.12156716 0.025624892 -0.017540885 -0.050348364 0.23235928 -0.098644316
0.15026462 -0.0072111683 0.10663762 -0.004625158 0.17487349 -0.006518285 -0.14833598 -0.00020413357
0.12761821 -0.052091107 -0.030224461 0.14901535 -0.18374656 0.13586113 0.1565172 -0.10993811
-0.08730237 0.17911841 -0.15482913 -0.011565801 0.07592586 0.07904172 -0.06548323 0.03131732
-0.10402188 0.036305763 -0.062666714 -0.19047378 0.007380053 0.17380367 -0.19606431 0.0876264
0.2215331 -0.194633 0.084761776 -0.027849417 -0.06020598 -0.03076146 -0.08272656 0.23890707
0.107007556 -0.065829985 -0.01805615 -0.20687705 0.047056008 -0.11290959 0.23960358 0.0062394966
0.078948215 -0.16177313 -0.04605806 0.07481501 -0.11186929 0.116306715 -0.12925607 0.14913905
-0.16493914 -0.086587556 0.07061141 0.20786496 0.21074148 -0.20459227 -0.118484005 -0.22633046
0.14261903 0.18904859 0.17949797 -0.060950946 0.07641011 0.12074439 -0.050936174 0.30511096
0.057773978 0.07586693 -0.12054176 -0.04115771 0.16342898 0.2802751 -0.038258545 0.13992685
0.13030079 0.14662755 0.18463984 -0.12469494 0.2738811 0.17541406 0.10170395 -0.044817973
0.114059776 -0.25396025 0.04927848 0.25258368 0.1381492 -0.13866328 0.0971683 -0.15694752
0.18147723 0.0055465614 0.10003309 0.03465258 -0.0050166277 0.032734275 0.11825979 -0.08114257
-0.032743804 0.102211446 0.12003801 -0.18701644 0.044586323 -0.0680191 0.07864429 -0.09373357
0.22176214 -0.121181436 -0.11230732 0.08689369 -0.14860508 0.15717718 0.08455388 -0.084438704
-0.28982058 0.12277078 0.21409504 0.27267125 0.11376488 0.23507269 -0.13259177 0.15959723
0.18143092 -0.06459915 0.20922649 0.01696451 0.12764274 -0.13548073 0.12139859 -0.19158068
-0.039261933 -0.019807132 0.0902007 0.18635283 0.24117655 0.2982531 0.017678319 -0.29909408
-0.09303601 0.114780284 0.05242468 0.013975911 0.16585362 -0.052082144 0.03163867 -0.030605964
0.21691285 -0.09543492 0.051443253 0.11805476 -0.12437309 0.05204115 0.06811278 0.11388911
0.0071728695 0.029612044 0.096016414 -0.22150508 0.15438621 0.040200964 -0.034318842 -0.19998524
0.15165919 0.15070973 0.1993604 0.040032588 -0.0416012 0.20196591 0.24700607 -0.07207489
0.021924865 0.09322199 -0.075645976 0.07177877 0.19293343 0.18257797 0.14006522 0.2502604

self_entity_fc1.bias f4 [32]
00000000: d7fa ce3d 8df7 563e 3409 603e 59e5 edbd
00000010: 1875 03bc bd98 e23d acb6 c23d cd84 433e
00000020: 5fd6 fdbc 2e2b a83c 69bc 333c 1ff7 eabd
00000030: 8770 293d 45b5 02be 94fa 593d f6b0 2e3e
00000040: daea 863d 4915 223e d097 473e 431f 9b3e
00000050: e35e 493d fa51 21be 62fb aabd 40b6 323d
00000060: 12ba 883e 005f ee3d 2e98 a33b 2894 e83d
00000070: 982e 5dbc 0dbf 863e bb93 893d 1d83 963e
0.10106438 0.2099287 0.2187851 -0.1161601 -0.008023523 0.11064289 0.09507498 0.19093628
-0.03098601 0.020528402 0.010970213 -0.11472916 0.04136708 -0.12764461 0.053217486 0.17059693
0.06587763 0.15828432 0.19491506 0.30297288 0.049162757 -0.15753928 -0.08348729 0.04363084
0.2670446 0.116392136 0.0049925065 0.113563836 -0.013499878 0.26317635 0.067176305 0.29396906

self_entity_fc2.weight f4 [32, 32]
00000000: 1948 efbd e51a 19be 0076 74bd ec79 e53d
00000010: e446 7c3b 7c3c e23d 30c2 df3c c342 f13d
00000020: 40cc 23bd 9663 4bbd 48cd 89bd 72c7 1cbe
00000030: fe82 d23d 99dc f6bd 4ba4 f23d 1c34 0d3e
00000040: a96b 45bc 6903 23bd 70a6 6f3d 678c 70bd
00000050: a92c 9bbd 3b67 9d3c a2b8 113e eb4f 6dbd
00000060: b840 a5bd db49 f739 8f2c 333d 5c68 473d
00000070: 2088 0ebc 5010 8cbd a8b2 0dbe d2aa b3bc
00000080: e15f fbbc 257e f83e 3b83 99bd b38c a2bc
00000090: f755 483e c316 33bc db38 1abe 0898 0a3e
000000a0: e709 9dbd c821 0c3e c925 d13d 21f5 663d
000000b0: 2dce 353d a3ce 023e 60f3 353e f712 883d
000000c0: ee2e ab3e 8daf 9d3e fe23 243e 2d5c 6a3e
000000d0: 23bc 8c3c 1880 14be 08c6 76be 12cf 6cbe
000000e0: 7e6e cebc ff00 5d3c 51f0 f4bd 58f4 c73c
000000f0: f71a aebd 53ba 0a3d 9f8b b33d d4fe 063e
00000100: a096 91bd cf1a bdbe 4cd1 3a3d b324 263e
00000110: 8531 7e3d f0ee 1a3c 5667 1d3e 7a4d 773d
00000120: 6f0b 8d3c bbd4 b7bd e000 b4bd 951f ef3d
00000130: 1c3f 4f3e e779 5c3e 4e31 3bbd fef7 22be
00000140: d2f6 c6be 5e45 96be 5cb1 3cbe 9e05 7dbe
00000150: e7cb 9fbd 7e57 613d 6312 743e a927 883e
00000160: 020f 16bc 643a 6b3b 6485 893d c540 d63c
00000170: b760 7c3e a934 253e f506 2c3d 9fea 2dbd
00000180: 9137 513e ec31 ec3e ca84 753e dc0d 353d
00000190: 9a41 1abd 3615 133e 6502 32bd ed35 123c
000001a0: eb96 923c b246 813e c29c c93d 8094 e03d
000001b0: 13ac 42be 3c06 313d e456 373e 3817 973d
000001c0: e968 ad3d 3cb2 c03d 6e3c b43d 4231 943e
000001d0: b095 863d 029c 2dbe e6bb 14be e102 56be
000001e0: b66a 68bd 6a5f 04be 1ab2 02be faba e3bc
000001f0: 5841 89bd c861 1e3e 3ce2 9c3b 29b4 983e
00000200: d6ec 4bbd e2a6 6b3e 7254 913d 76b9 2c3d
00000210: 3821 fcbd 2a32 3cbd c6d0 fabc 6fd0 d53d
00000220: e2b1 50be 4b2c 2b3d b6f1 623e 12af 0ebe
00000230: 75aa c43d 7d1e 733d 66d6 4a3b 6816 db3c
00000240: 3ef8 423d 7d31 943e cfa9 343e 4bcb 253e
00000250: aab9 fb3d 4ad4 88bd 0390 36bd 29fc 903d
00000260: c291 fc3c 2d3f cbbd b463 92bd ae96 653e
00000270: 7f56 ca3d 9793 cbbb 88ab 443d 0813 ca3d
00000280: 5143 a33d 6966 e43e 2def 283e f3e5 c6bd
00000290: c065 3f3e da06 7fbe cfa5 73bd 5949 463e
000002a0: 4e51 2a3d 3881 c03d 252a b73a bfbe 06be
000002b0: ef72 3dbd 5b04 88be 9c85 123e 72f5 623e
000002c0: e878 323e 8819 b23e e8c0 2c3e 4d0f 36bc
000002d0: c08b c0be 47c6 89bd 521d ccbe 713e a0be
000002e0: 5bc0 f7bd 3b5b 00be 271f 7ebd a936 8d3e
000002f0: 9dd8 513d 48c4 51bd 6211 bb3d ec5b fe3d
00000300: e115 7c3e f3b8 693e e618 d63d f636 e4bd
00000310: fc71 be3b 6af8 2b3e aa0c 4c3e 8e4f 5f3e
00000320: b35b 1c3e 3399 21bd 2595 a73e c9c4 e33d
00000330: 7baf 18be 8ee0 26be 4cd7 543d 1dba 063d
00000340: 6698 a93d 1506 753e ff83 993e c94f 273e
00000350: e986 9f3d 9d5e 473b 2537 66be 75c2 d0bd
00000360: 8aaf f33c 176f 24be 862f ee3d a905 0c3e
00000370: cc23 d1bd 28e5 163e b42a d5bc bb59 9a3e
00000380: cc75 833d 90fc e43e cee7 e63d f4cf 04be
00000390: 9b87 0f3e 8ae2 093e dfff 383e 1835 a83e
000003a0: 2597 83bd 0fb5 6bbd f7f7 b23d 6277 1e3e
000003b0: aefa 09be 1c6a d03c 2a30 153e 1e53 b53e
000003c0: 23ab 453d fc25 4b3e c08a 913e 0420 a13e
000003d0: a157 c83d 35bf 93bd 0fde 44be b813 11bd
000003e0: 31a2 5d3e 6cc5 553c 07e9 c1bd 863c 983e
000003f0: 7e2c c9bd ae07 bc3c d0c2 933e d5a2 2a3e
-0.116836734 -0.14951666 -0.059682846 0.112048954 0.0038494403 0.11046693 0.027314276 0.11780312
-0.03998971 -0.04965552 -0.067286074 -0.15310457 0.10278891 -0.120537944 0.11847743 0.1378941
-0.012049594 -0.039798174 0.058508337 -0.058727648 -0.075768776 0.019214263 0.14230588 -0.057937544
-0.08068985 0.00047166538 0.043743666 0.04868351 -0.008699447 -0.06839049 -0.13837683 -0.02193204
-0.030685367 0.4853374 -0.07495733 -0.019842481 0.19564043 -0.01093072 -0.15060751 0.13534558
-0.07667904 0.13684762 0.10212285 0.056386117 0.044386078 0.12774138 0.17768621 0.06644242
0.33434242 0.30797997 0.16029355 0.22886725 0.017179554 -0.14501989 -0.2409898 -0.23125866
-0.025199171 0.013489007 -0.11959899 0.024408504 -0.08501237 0.0338691 0.08766865 0.13183147
-0.071088076 -0.36934516 0.045609757 0.16224937 0.062058944 0.009456381 0.15371451 0.06037662
0.017217366 -0.08976122 -0.087892294 0.11675946 0.20238918 0.21530877 -0.045701317 -0.15914914
-0.38860184 -0.29349798 -0.18427032 -0.24709174 -0.07802563 0.05501508 0.23835139 0.26592758
-0.009158852 0.0035892958 0.06714895 0.026153931 0.24646269 0.1613337 0.041998822 -0.04246008
0.20431353 0.46131837 0.23976436 0.04420267 -0.03766022 0.1436356 -0.043459315 0.00892399
0.017894229 0.2524925 0.09844352 0.10965824 -0.19010954 0.043218836 0.1790424 0.073774755
0.08467276 0.094089955 0.088005885 0.2894383 0.065715194 -0.16954044 -0.14524803 -0.20899536
-0.056742392 -0.12927023 -0.12763253 -0.027799118 -0.067019165 0.15466988 0.0047877114 0.2982495
-0.04978641 0.2301288 0.07096185 0.042169057 -0.123110235 -0.045946278 -0.030617129 0.10440146
-0.20380357 0.041790288 0.22162518 -0.13933972 0.096028246 0.059355248 0.0030950545 0.026744083
0.047600023 0.28944007 0.17642902 0.16190831 0.12291272 -0.06681116 -0.044570934 0.07079346
0.030831221 -0.09924159 -0.07147923 0.22420761 0.09879779 -0.0062126624 0.048015147 0.09866911
0.07971824 0.44609383 0.16497488 -0.09711828 0.18691158 -0.24904957 -0.0594843 0.19363917
0.041581444 0.093996465 0.0013974352 -0.13158701 -0.046252187 -0.26565823 0.1430878 0.22163942
0.17428935 0.34785104 0.16870463 -0.011112046 -0.3760662 -0.067272715 -0.3986612 -0.3129764
-0.12097236 -0.12534802 -0.062041428 0.27580765 0.05123197 -0.05121258 0.09134175 0.124198765
0.24617721 0.22824459 0.10453968 -0.111432955 0.005811928 0.16793981 0.19926706 0.21807691
0.15269355 -0.039452743 0.32730976 0.11121518 -0.1491069 -0.16296598 0.051963136 0.032892335
0.08281021 0.23928101 0.29983518 0.1633903 0.07789404 0.0030421384 -0.22481973 -0.1019334
0.02974679 -0.16058002 0.11630158 0.13674034 -0.10211906 0.14735854 -0.026021339 0.30146584
0.06418952 0.4472394 0.11274682 -0.12969953 0.14016573 0.13465324 0.18066357 0.32853007
-0.06425313 -0.057545718 0.08738702 0.15475228 -0.13474533 0.025441222 0.14569154 0.35414976
0.04825891 0.19838709 0.2842617 0.31469738 0.09782339 -0.07214204 -0.19225334 -0.035419196
0.21643902 0.013047557 -0.094682746 0.29733676 -0.09822939 0.02295288 0.28859568 0.16663678

self_entity_fc2.bias f4 [32]
00000000: 2312 4bbd a67c b93c 7a24 8e3d a1ae 693d
00000010: 8ec7 963d 3c86 113e 38ea 85bd 8647 ca3b
00000020: bb20 273e 3b18 1a3d 4383 493e 4964 3d3e
00000030: e698 bcbd 4847 883d edb5 0bbd b3de fa3d
00000040: 719d 12be 73d8 8d3d 40dd fabc 460d 533d
00000050: cf23 d63d d073 0a3e 7b7f b93d cfde 6fbd
00000060: 0e2f 17be cd10 833d c961 1fbe 702d 26be
00000070: bd95 c13d 5193 9c3d 3185 0ebd 1209 26be
-0.049577843 0.022642445 0.06940551 0.057051305 0.07362281 0.14211363 -0.06538814 0.006173077
0.1632108 0.037620764 0.19678979 0.18495287 -0.092088506 0.06654221 -0.034109045 0.12249508
-0.14317872 0.0692605 -0.030623078 0.05152633 0.10456049 0.13520741 0.09057518 -0.058562096
-0.14764044 0.06399689 -0.15564646 -0.1622827 0.094523884 0.07645286 -0.03479499 -0.16214398

other_entity_fc1.weight f4 [32, 26]
00000000: 7202 8ebd 574d 81bd 7ddf 003e c09d ce3d
00000010: ad12 4b3d 43f6 e7bd e792 89bb 536e 643e
00000020: c1d2 463e 600a 1c3e c819 303e 8359 a6bd
00000030: aa53 a53d 849a 023c fdfa 483e 450d d1bd
00000040: e28f c1bd 209e 61bc 6a94 91bd 9785 2d3e
00000050: 27df 2a3e 3d7c 173d a668 503e 729b a83c
00000060: d3bb dbbd 1044 193c d392 ba3d a806 8e3d
00000070: a048 ce3d 50b2 7dbe df67 3cbd 004d f03d
00000080: 7190 f1bc 2058 8d3c b74b 8dbd a250 ecbb
00000090: 0471 183e 09ad 233d dc47 1c3e fc36 f4ba
000000a0: 24b5 46bb 81d1 adbd 039b f7bd 1593 7d3d
000000b0: 4d87 09be ceea fdbd 5b0f 39bc 32ba fa3d
000000c0: 8b6d 3fbd 5944 303e b7c9 0d3e f1aa 143e
000000d0: 834e 413e b8bb f8bc 2899 b23c 8a80 70bd
000000e0: 227b 60be 2eff ae3d 0b93 40be acde 893e
000000f0: c359 cf3d 375d 9abd 0cb1 a43d 9f4e fabd
00000100: 1fcf 553d 084e b0bc e2c5 a0bd 898d a53c
00000110: 79da adbd b508 3f3e 0c66 0b3e e49d a9bc
00000120: 12da f13d 9329 18bd 7df1 b63d 7e9e 06be
00000130: eac9 423d 321a 9c3e e28e 2abe a287 4a3d
00000140: 4cbc 4c3e b918 073e cbee a8bd a5d3 143c
00000150: 161e 11be c094 04bb 622e c8bc d233 1ebe
00000160: dc42 f7bd c7d1 593d f40e edbb 7f5d 17be
00000170: 8cda 2cbe 3c77 a8bd 43a7 0e3e 6396 423d
00000180: 50d6 113e bc33 123e c78b 2fbd 7eff b4bd
00000190: a5b7 1abe 7490 01be 5f40 8bbd 1e9a bc3e
000001a0: 5d1f 49bd fe13 41bd f7f6 8d3d e92f e83d
000001b0: 1fa6 54be 44e3 1f3e 8f4d 943b 41da 173d
000001c0: 5c95 4c3d d6ec d33d 37c5 94bc 96cb ccbd
000001d0: 6096 93bd 3126 423e 515c 23be 6c46 04bd
000001e0: 8c4a 083e 5f04 52be 578f f5bd e1b3 163e
000001f0: 06e7 353e 8ece 643d 2d2f ee3d 0cbd b83d
00000200: e318 563d 7f2d 81bd de12 2e3d 0ff7 8fbd
00000210: 0642 b93c a350 3fbe b911 f6bc 68c0 bebd
00000220: 5967 babc 10ae d43d 25b3 7a3e cf59 3c3e
00000230: e4cd 17bd ffca 4c3b ecca 1a3d 1edd 203e
00000240: 91f7 3bbc c81f dcbd 5e78 c73c 1d78 5f3e
00000250: f253 7a3e 815e 5c3e 2d10 763e 94f2 af3d
00000260: ab63 50bd 4b0a ef3d 1bcc 49be 198f 823e
00000270: c9ad 903d a210 eabb 3848 cc3d 4b7d 4abe
00000280: f22d 6b3d 9a10 f8bd f811 64be 7673 fa3d
00000290: 2337 873e 30a9 843e a240 d9bd c249 733d
000002a0: 3238 043e f3a5 593d 7f6c 7e3e a3e5 503e
000002b0: b77a e83d 18fc 24bd 6a4c 443c 5ef5 163d
000002c0: 5857 3e3e 6a12 b4bd 9887 06be 2996 c0bc
000002d0: 8694 a33d ce7e db3c 2228 3bbd abaf 7abd
000002e0: c903 80bd 2936 42be 3377 abbd 2b97 2ebe
000002f0: f099 9a3d 46b4 013d b236 bd3d 9539 5e3e
00000300: b810 933d 40dd cb3d e00a e73d 29a8 623e
00000310: ea70 b7bd 5a0d 81bd 7836 11bd 39c9 0cbe
00000320: 4a5c 1e3e 48d3 803e 9c3c 0c3d ebaf 323d
00000330: c434 cebd c9fe 8c3d 5a01 b83d 0329 4b3e
00000340: cd27 053d 7b86 2abe d9d3 4dbd 3362 7e3c
00000350: 52aa a03d 3353 363c d16b 9c3d b234 103e
00000360: d203 83bd ca24 7b3d 4467 f73d 9c07 ab3d
00000370: 0cd0 933d 1a8c 123e 7f7a 9bbd 2b8b 3f3d
00000380: 44a6 98bd 82ba f1bd f7f9 533d b9a0 c73c
00000390: 42a2 8d3d d34f 2b3d 0f68 20bd 52b1 773c
000003a0: 757d 34bc fa64 71be 9815 04be 28b2 bd3d
000003b0: 1a30 a33d 8f4f e839 2532 053e a1eb 23be
000003c0: eef8 26be 4810 bc3d 4a77 cc3c c034 6cbc
000003d0: dfa3 433d efcb 363e aedc 8a3d 0aa7 2dbe
000003e0: 6350 e03b fe53 0c3e 3c7a 823d 6abc dabd
000003f0: 73a8 68bc 35bb 913d b69a 32be f5da 9e3c
-0.0693406 -0.063135795 0.12585254 0.10088682 0.049578357 -0.113262676 -0.0041984203 0.2230771
0.19416334 0.15238333 0.17197335 -0.08122542 0.08072598 0.00797141 0.19626994 -0.10207609
-0.094512716 -0.01377061 -0.07108386 0.16945492 0.16686688 0.036983717 0.2035242 0.020581935
-0.10729184 0.009354606 0.09110036 0.06934863 0.10072446 -0.24775052 -0.045997497 0.117334366
-0.02948782 0.017253935 -0.06899207 -0.0072117606 0.14886862 0.03995994 0.15261787 -0.0018632109
-0.003032037 -0.08487225 -0.12090113 0.061907846 -0.1343052 -0.12398301 -0.011295165 0.12242545
-0.046735328 0.17213573 0.1384648 0.14518334 0.18877606 -0.030362949 0.021801546 -0.058716334
-0.21921971 0.085447654 -0.18806092 0.26927698 0.101245426 -0.075373106 0.080415815 -0.12222027
0.05219948 -0.021521583 -0.07850243 0.02020909 -0.08488936 0.18655665 0.13613147 -0.02070517
0.11809172 -0.037149023 0.08932779 -0.13146397 0.04755584 0.30488735 -0.16656068 0.049445756
0.19993705 0.13193025 -0.08248671 0.009083663 -0.14171633 -0.0020230263 -0.02443618 -0.15449455
-0.12073299 0.053178575 -0.0072344486 -0.1478176 -0.16880244 -0.08225867 0.13930993 0.0475067
0.1424191 0.14277548 -0.04285791 -0.08837794 -0.15109117 -0.1265276 -0.06799387 0.36836332
-0.049102176 -0.047138207 0.069318704 0.11337263 -0.20766495 0.15614039 0.0045258473 0.037073378
0.049947128 0.10347907 -0.018160446 -0.099997684 -0.07206416 0.18959881 -0.15953185 -0.032293722
0.13309687 -0.2050948 -0.119902305 0.14717056 0.1776391 0.05586105 0.11630092 0.09020433
0.052269828 -0.06307506 0.042498462 -0.070295446 0.02261449 -0.18683104 -0.030037748 -0.09314042
-0.022754358 0.10384762 0.244824 0.18393634 -0.037061587 0.0031248925 0.037791178 0.1570935
-0.011472599 -0.10748249 0.024349388 0.21823163 0.24446085 0.21520425 0.24029608 0.0859119
-0.0508763 0.11671885 -0.19706766 0.254998 0.07064397 -0.007143096 0.09974712 -0.19774358
0.057416864 -0.121125415 -0.2227248 0.12229054 0.26409253 0.2591033 -0.10608031 0.059396513
0.12912062 0.053136777 0.24846075 0.204001 0.11351531 -0.040279478 0.011981109 0.036855094
0.18588006 -0.08792575 -0.13137662 -0.023509102 0.07987313 0.026793864 -0.04569257 -0.061202686
-0.06250722 -0.18965973 -0.08372345 -0.17049854 0.075488925 0.031666063 0.09238948 0.21701653
0.07180923 0.099543095 0.11281371 0.2213446 -0.089570835 -0.06301375 -0.035452336 -0.13748635
0.15464893 0.25161195 0.03423749 0.0436248 -0.10068658 0.06884534 0.08984633 0.19839863
0.03250866 -0.16652863 -0.05025086 0.015526342 0.07844986 0.011128235 0.07637752 0.14082602
-0.06397213 0.06131438 0.12080243 0.08351061 0.07217416 0.14311257 -0.07591724 0.04676358
-0.07453588 -0.11803152 0.051752057 0.02436863 0.06915714 0.041824173 -0.039161738 0.01511796
-0.011016239 -0.23573676 -0.12898862 0.09262496 0.07968159 0.00044309764 0.1300741 -0.16007854
-0.16305897 0.09182793 0.024959225 -0.014416873 0.0477637 0.17851232 0.067803726 -0.16958252
0.0068455203 0.13703915 0.063709706 -0.106804684 -0.014200318 0.07115785 -0.1744183 0.019391516
