my-submission/checkpoints/model_39424.pt (torch, 352797 bytes, 23 tensors)

local_map_cnn.0.weight f4 [32, 24, 3, 3]
00000000: 12b4 fbbc 2f99 7b3d b093 263e cbe4 3a3d
00000010: 9834 bbbc 7614 d03d 9490 15bd fe57 e8bd
00000020: 61ac b73d 6b9b 743d 9edf 2fbd 699d 26be
00000030: bb70 913d 4e5b ddba 9496 223e bcd0 53bc
00000040: fe2c c43a 4adc 33be e7d6 42bd 1104 0b3d
00000050: 3cf7 013e 7f87 913c 395d f6bd 6a5b cebe
00000060: aa32 0ebd 503d 3dbd 3262 b93c 1da5 863d
00000070: 2d83 cfbc 024c 063e 84f5 9bbd a0e0 37bd
00000080: 8601 81be 8770 ffbd f4d7 15be 5962 d53d
00000090: 35d2 94bd b349 debd 960e ac3d fb6c e6bc
000000a0: 434b c03c 11b8 3c3d ae9e 20bc c934 bfbd
000000b0: fadd b83d 8efc f13d 054d a33d 15c0 85be
000000c0: 6422 863d 4073 9d3a 6ba3 033e f318 583c
000000d0: 3342 5b3d 634f a0be 59d0 f7bc c14a 7ebd
000000e0: e04c 64be 0797 9dbd 1e60 35be a756 1bbe
000000f0: f6b0 13be 3c7c eebd e9aa e43b eb09 0dbd
00000100: acc7 49bd 1437 bebb 8b1c 083d caef 19be
00000110: 35ee 2bbe 90b3 bcbd 8f17 0ebe c92e bcbc
00000120: 38d3 80bd a017 493c 12be 703d e58c b0bd
00000130: 3801 82be 6222 3bbe c84d 20be 6814 ccbd
00000140: fdac 3abd 9dee 0dbd c77c 803d a3fc 3b3d
00000150: 893e f9bd bef2 adbd 1215 9ebe dd81 0dbc
00000160: 7108 35be 2857 02bd 259b b2bd 7057 1a3e
00000170: 4ab7 c13c a205 a1bd 53a3 5abe dff0 a6be
00000180: 1a3f fbbc 87af 62bd db24 373d 41de 38be
00000190: 5307 8bbd 3605 903b 715e 19be 3e6b 40be
000001a0: db05 57be d7da 8a3d 66ec e4bc 396b 20b9
000001b0: d348 07bc a179 0f3c 30d8 cf3d 10e1 16be
000001c0: e7ad d9bd 6ce1 8abe cde3 11be fd5e 4cbe
000001d0: b261 b13c 851d 82bd 436c fcbd 30b5 b33d
000001e0: 8cd0 4bbd afbb a03c baa4 2dbe f674 3ebe
000001f0: 104b bdbd 5b02 683d 5fa9 f6bd d765 9cbc
00000200: 6e97 05be f3b8 eabb a1ee 2cbd 5dc2 df3d
00000210: 40d1 67bc d695 343d ad9a 44be 25ce 08bd
00000220: a26c 193b 6d98 233e c7c2 8c3d aa9e df3c
00000230: ebe4 17be 00ab c7bc 7f5f ab3c eef7 653e
00000240: 43f8 1c3d d8e6 983d 0163 293e fd2a d1bc
00000250: 3eea 80bd 3b63 ffbe f95e 043d 3bf0 9bbd
00000260: 0b13 563e ab86 62bd dd90 acbd f462 a7bd
00000270: 05af 36bd ed9d 67bd 73de 1abd 8353 2a3d
00000280: bc89 2cbd fb5e 36be 2405 1b3e 4f65 7bbd
00000290: 38dd 993e d655 68bd 3be2 973c a295 ed3e
000002a0: 1906 4a3e 3613 503d b359 d43e 0513 863c
000002b0: 43a8 833c 67fe 263c e68d 9d3d 6d58 8cbd
000002c0: f0b0 263e 27ea 563d 14c4 103e cabe 78bd
000002d0: d0e9 68be a102 43be c74a 07be e468 32bd
000002e0: 8aea 6fbe 7659 a3bd f4bf f7bd 69ad e9bd
000002f0: 8ddf 48bd dd19 dd3e 1141 263f f5af 893e
00000300: f199 1d3f 96ff 013f c3d1 cb3e 3aca 3cbd
00000310: ed07 883e e945 d63d c40b e03e b861 0c3f
00000320: 29b3 253c ba25 3f3f bb7f 223f bff8 d7bc
00000330: 488c 023e c02d ea3e 354c 9f3e d414 1b3e
00000340: 325e 9a3d fb46 d73d e3c1 d13d b2dd 633c
00000350: 62a1 87bd 107d f53d 6375 473c 7031 753c
00000360: d212 543d a056 11bc d779 823d 6106 21bd
00000370: d692 503d 4db8 2e3d 15b1 61bd a01d 823d
00000380: 8d34 85bd 4ea3 be3b ff2d 733d e7d3 333c
00000390: 0a45 3a3d ded0 8b3c d7fd 153c 3823 2b3d
000003a0: 4290 8a3d ad7a 993c aa5f 59bc 0822 84bb
000003b0: 5604 e83c 374b d6bc b7f8 74bd 8c5c f23c
000003c0: 8562 3cbb 4121 4b3b 666b 3d3c 512f 4b3c
000003d0: b5fe 1aba af2a ba3c bd81 ac3c f33c ec3c
000003e0: 8200 843d b43a d9ba 39b4 ff3c f4d8 2f3d
000003f0: 4040 383d 227a 023d 1e3c 803d 77d6 87bc
-0.030725513 0.061425384 0.16267276 0.04562835 -0.022852227 0.101601526 -0.036514834 -0.11344908
0.089684255 0.05971853 -0.042937867 -0.16270985 0.0710158 -0.0016888173 0.15877753 -0.012928184
0.0014967022 -0.17564502 -0.047568228 0.033939425 0.12691969 0.017764805 -0.120294996 -0.40304118
-0.034716286 -0.04620105 0.022629831 0.065744616 -0.025331104 0.13114932 -0.07615188 -0.044891953
-0.25196475 -0.12472635 -0.14633161 0.10419149 -0.07266656 -0.10853901 0.084012195 -0.028128138
0.023473388 0.046073977 -0.009803457 -0.0933624 0.09026714 0.11815749 0.07973675 -0.2612311
0.06549528 0.0012012497 0.12855308 0.013189542 0.05352993 -0.31310567 -0.030250715 -0.06208301
-0.2229495 -0.07694822 -0.17712447 -0.15169774 -0.14422974 -0.116447896 0.006978382 -0.034433287
-0.049262688 -0.0058049057 0.033230346 -0.15032879 -0.16790088 -0.09213936 -0.13876174 -0.022971528
-0.06290287 0.012273699 0.058775015 -0.086206235 -0.25391555 -0.18274835 -0.15654671 -0.0996483
-0.04557513 -0.034651387 0.062737994 0.04589523 -0.12170131 -0.08493565 -0.3087545 -0.008636919
-0.17679001 -0.0318214 -0.08720998 0.15072417 0.02364697 -0.078624025 -0.21351366 -0.32605645
-0.030669738 -0.055343177 0.044712882 -0.18053533 -0.06788506 0.0043951524 -0.14977433 -0.1879091
-0.20998327 0.06780022 -0.027944755 -0.00015298733 -0.008257109 0.008757026 0.10148656 -0.14734292
-0.10628872 -0.27125108 -0.14247055 -0.1995811 0.02165303 -0.06353287 -0.12325337 0.08774793
-0.049759433 0.019620745 -0.1695737 -0.18599305 -0.09242833 0.05664287 -0.12044024 -0.01909153
-0.13046047 -0.007163161 -0.04221976 0.10925744 -0.01414901 0.044088207 -0.19199629 -0.03339972
0.0023410697 0.15976115 0.06873088 0.027297337 -0.14833419 -0.024373531 0.02091956 0.22457859
0.0383227 0.07465905 0.16541673 -0.025533194 -0.06294678 -0.49880394 0.032317135 -0.0761418
0.20905702 -0.05530421 -0.08426068 -0.08173171 -0.044600505 -0.056547094 -0.0378098 0.04158355
-0.04212354 -0.1780967 0.1513868 -0.061375912 0.3005159 -0.056722485 0.018540492 0.46403223
0.19728889 0.05079957 0.41474685 0.016366491 0.016071444 0.01019249 0.076930806 -0.068528034
0.16278434 0.0524694 0.14137298 -0.060728826 -0.22745442 -0.19043972 -0.13212119 -0.043557063
-0.23429313 -0.07976048 -0.12097159 -0.114100285 -0.04904132 0.43183795 0.64943033 0.26892057
0.6156302 0.5078062 0.39808473 -0.046091296 0.26568547 0.10462553 0.43758976 0.54836607
0.010113516 0.7466694 0.6347615 -0.026363729 0.12748826 0.4573803 0.3111283 0.15144664
0.075374976 0.10511585 0.10242059 0.013907837 -0.06622578 0.119867444 0.012173983 0.0149654
0.05177576 -0.008870751 0.06370895 -0.039312724 0.050921284 0.04265623 -0.05510052 0.06353307
-0.06504164 0.0058178073 0.059370037 0.010975814 0.045475997 0.01706737 0.009154758 0.041781634
0.06765796 0.018735254 -0.013267437 -0.004032377 0.02832238 -0.026158912 -0.059807505 0.029585145
-0.0028745246 0.0030995163 0.01156125 0.012401418 -0.0005912588 0.022725431 0.021057958 0.028837657
0.06445409 -0.0016573281 0.031213867 0.042931512 0.04498315 0.031854756 0.062614664 -0.016581757

local_map_cnn.0.bias f4 [32]
00000000: d715 39bc f4fb 33bd f79c 00bc 0574 bdbd
00000010: 880c ef3c e953 7e3c f604 123c bc25 3bbd
00000020: 5e7f 0b3c f31a c1bd b70f a6ba 461f 06bd
00000030: b700 90bc 72bb 18bd 8f25 2cbd 5c4c 06be
00000040: 094b c6bc 6a1e 313d a320 233d 493b f33c
00000050: 1e9a 9fbd 6ad2 9d3d 7b2f dbba 633d 64bd
00000060: c17d a2bd 6548 86bd e507 5fbd 18d5 8ebc
00000070: 6dda 563d 1bc7 243d ae71 af3d 585f 7f3c
-0.011296711 -0.043941453 -0.007849923 -0.092506446 0.02918078 0.015522935 0.008912316 -0.045690283
0.008514253 -0.09428968 -0.0012669478 -0.03274467 -0.017578466 -0.037288137 -0.042028006 -0.13115066
-0.024205701 0.043241896 0.039826047 0.029691355 -0.077930674 0.07706149 -0.0016722524 -0.055722605
-0.07934142 -0.06556777 -0.05445089 -0.017435595 0.0524544 0.040228944 0.085666046 0.015586697

local_map_cnn.2.weight f4 [32, 32, 3, 3]
00000000: d6e7 743e cefc 60bd 0c09 e8bd 7469 8bbd
00000010: 1330 11be a22d 4e3d 7362 a2be 911d 2f3d
00000020: df60 003c 5a42 4cbc e216 a3bd 262f 84bd
00000030: d5b2 13bd f197 2bbd 5ce4 acbd 6302 363c
00000040: 9149 e4bc f365 cebd 5cb3 b53d cb73 dfbd
00000050: 4c69 353d 9ebc 323e 4589 113e ba39 733e
00000060: f1a5 55bd 11d2 c8bd 0a68 a53a 76f4 20bd
00000070: 9ed0 663e 08d0 1a3e d698 bf3d f6cb 783e
00000080: 6138 683e a89d eabd 1a70 f03a 5506 fd3d
00000090: 0730 fb3c 7742 81bd 4f60 ab3d 23f7 1c3d
000000a0: eebd 94be 9105 98bd dd98 2fbc 5f9b 06be
000000b0: c08f 18bd 40f5 95bd 3deb d0bd 52cb 38bc
000000c0: bdbe 10bd a06d 80be 273a aebd fcf5 c43c
000000d0: 3ade f6bc 0a99 a53d ca7a 52bc fed6 32bd
000000e0: 0311 99bd 652c 9ebd 5b2c 4abd 0b8f e7bd
000000f0: d2ac cfbc 551e 0bbe a357 15bd 3862 ac3d
00000100: d00b b93d 48ba dd3d e7ca a73d b207 0c3e
00000110: e225 313e 5e2a 303d c001 fc3d bc60 f33d
00000120: 95e2 0d3e 6f7c 513e a71a c7bd 3a45 293e
00000130: f60b 41bd 7ac6 e1bc b9d6 a03d c3cb 9abc
00000140: 1013 8dbd 672d 423d 43c1 ac3d f3f0 053d
00000150: bfb5 913d 5d02 073e d132 c13d d940 30bd
00000160: 8ed9 6c3d b5a5 a93c 5528 72bc 4352 92bd
00000170: 17a8 b43d a62d fa3b 8b7c 03be 1ef4 55bd
00000180: 970a 32bd cf24 51be 1590 853d ec1f 8b3e
00000190: 6e88 60bc 5e0e 673e 7fd6 a83c 6c8c fb3d
000001a0: 5617 d33d e4d8 a03d 2d3c a5bd 1df8 bf3d
000001b0: 8f79 94bc 9286 f33c 24ab 8dbd 82df 323e
000001c0: 5848 6dbd 8c0f 0bbe 3836 f6bb 2240 95bc
000001d0: 1b4d ac3c d0ce 923d 0f50 043e 6e75 2d3d
000001e0: 90fd 8e3d 1fc7 04bd 743a de3c 8924 dc3c
000001f0: 21a9 173d 3268 813c 8848 50bd a57b 53bd
00000200: 8048 a3bd ca1e 09be baab 2abd 259a f4bc
00000210: 6fcd c9bd 474c d6bd 297d 0c3d 9611 713c
00000220: e997 a73d 4ef3 8dbd 7765 0cbd 5b98 2f3d
00000230: 3cc8 8a3b d212 5fbe ac15 2bbb 6f33 35bd
00000240: 2679 9a3d 65d9 223e 0f48 253d aaff 283e
00000250: ad9e 923e 0a92 a73c 686a da3c f087 9b3d
00000260: c1eb 193e f8c6 a63d c35f 663d fc6c e63c
00000270: 76e4 6e3d 62a7 bf3d ea85 423d 58d5 18bd
00000280: 9948 853d 892e a4bc ad89 d53d d414 0ebd
00000290: 956e 933d 2e3e 943c c00d 9e3d e913 453e
000002a0: 15dd 5abd 9ae1 93bb e460 d03d 6822 10bb
000002b0: acac fbbd b68c 0cbd 69c9 d43d 4175 473e
000002c0: a05d dd3d e0f0 623d 5aaf 8a3d 5e13 403e
000002d0: 6655 a139 cc03 ad3d b8fd 1cbc 7bd3 eb3d
000002e0: 37c8 b23b e300 9a3d 4aca d3bd 757f c4bc
000002f0: bb01 753d 7310 843d 13d1 4d3e e1b2 79bc
00000300: d29f b3bc 3d48 873c 057e 1d3d 2172 6b3d
00000310: 1fdc 6ebd 0881 06be 8188 4a3d ab06 663c
00000320: 68a6 45b8 b51e 4fb9 4d6b 8f3c 80f8 4f3d
00000330: 8e5d 8d3c c627 6ebd 8b3c 52bb 2521 2dbc
00000340: ccdf 93bd 3245 f1ba 1b97 4b3c 3260 5cbd
00000350: 6fdf 8a3c e199 943d 9875 353d a5a8 b23d
00000360: cee7 8dbd 34d7 fd3d 4f7f ccbd a0d9 c7bc
00000370: 105c 523e 0745 c3bc 80d5 37be 7668 623c
00000380: cf8d 5b3d 5a43 ce3d f0e2 b73d 7aa9 d63d
00000390: 049e 263d 74af 1d3e 5838 ab3d 6b04 543d
000003a0: 8d23 3f3d d681 cd3d 5293 0f3c ac21 d8bd
000003b0: c891 e1bc eacb 88be 3c1f c73d 740e c9be
000003c0: 6b5c 183c 86a4 bdbb 3924 37bd 0803 a73a
000003d0: 06ff 89be 599c 763c efd8 6bbe b9c2 d8be
000003e0: 5030 75bd cd3a 15be 202b 713a 6611 353d
000003f0: 56f5 3d3d f43e a33d 9437 883d dfd7 a63c
0.23916563 -0.054928593 -0.113298506 -0.06807223 -0.14178495 0.050336488 -0.31715736 0.042752806
0.007835596 -0.012466991 -0.07963349 -0.06454305 -0.03605922 -0.04189295 -0.084419936 0.0111089675
-0.02786711 -0.10078039 0.08872101 -0.10910758 0.044289872 0.17454764 0.1421252 0.2375249
-0.052160207 -0.09805692 0.0012619507 -0.039295636 0.22540519 0.1511842 0.09355323 0.24296555
0.22677757 -0.11455852 0.0018343956 0.12354723 0.03066255 -0.06311505 0.08367979 0.038321625
-0.29051155 -0.07422937 -0.010717598 -0.13145207 -0.037246466 -0.07322168 -0.10201118 -0.011278944
-0.035338152 -0.25083637 -0.085071854 0.024043076 -0.030135263 0.080858305 -0.012846658 -0.043662064
-0.07473948 -0.07723311 -0.049358707 -0.1130658 -0.025350962 -0.1358579 -0.03646053 0.08417171
0.09035456 0.10826546 0.081929974 0.1367481 0.17299607 0.043009154 0.12305021 0.11883685
0.13855965 0.20457624 -0.097218804 0.16530314 -0.047130547 -0.027560461 0.07853455 -0.01889599
-0.068884015 0.04740658 0.08435299 0.03270049 0.071147434 0.13184495 0.094335206 -0.043030594
0.057824664 0.020708898 -0.014780124 -0.071445964 0.08821123 0.0076348362 -0.12840478 -0.05223476
-0.04346713 -0.20424198 0.06521622 0.27172792 -0.013704402 0.22564074 0.020610092 0.12282643
0.10307185 0.078538686 -0.08068118 0.09373496 -0.01812437 0.029727254 -0.06917408 0.17468074
-0.05793032 -0.1358015 -0.0075137876 -0.018219057 0.02103286 0.071683526 0.12921165 0.042348318
0.06981957 -0.03241646 0.027127482 0.02687289 0.03702653 0.015796755 -0.05085042 -0.05163159
-0.07972813 -0.13390651 -0.041667677 -0.029858658 -0.098536365 -0.104637675 0.03429905 0.0147136655
0.081832714 -0.06931172 -0.034276452 0.042869907 0.0042352956 -0.21784523 -0.0026105447 -0.044238504
0.075426385 0.15903242 0.040351924 0.16503778 0.28636685 0.020455379 0.026662067 0.075942874
0.15031339 0.08143419 0.05624367 0.02812814 0.058323346 0.093580976 0.04749099 -0.037312835
0.065079875 -0.020041721 0.1042665 -0.034687832 0.07198826 0.018096056 0.07717466 0.19245876
-0.053433497 -0.004512978 0.101747304 -0.0021993164 -0.12288794 -0.03431388 0.103899784 0.19478323
0.10808873 0.055405498 0.06771727 0.18757388 0.0003077194 0.0844799 -0.009581976 0.11514946
0.0054559964 0.075197004 -0.10341318 -0.023986557 0.059816103 0.0644845 0.20099287 -0.015240402
-0.021926794 0.016513938 0.03845026 0.05748189 -0.058315393 -0.13135159 0.049446587 0.014039676
-4.7123438e-05 -0.00019752498 0.01750722 0.050774097 0.017256524 -0.0581434 -0.0032079543 -0.010566984
-0.0722042 -0.0018407463 0.012426163 -0.053802676 0.016952245 0.072559126 0.0443016 0.08723573
-0.06928979 0.12394562 -0.0998522 -0.024395764 0.20542932 -0.023836626 -0.17952538 0.013818851
0.053602036 0.1007144 0.08978832 0.10481544 0.04067804 0.15398961 0.08360356 0.051762026
0.046664763 0.1003453 0.008763151 -0.105532974 -0.027535334 -0.26718074 0.09722754 -0.3926884
0.009299378 -0.005787435 -0.04471228 0.0012741992 -0.2695238 0.015051925 -0.23031972 -0.42336062
-0.059860528 -0.14573212 0.00091998465 0.044206046 0.04637655 0.07970992 0.06651226 0.020366607

local_map_cnn.2.bias f4 [32]
00000000: 4b7c 8abc dfff b53c 9dfe 8abb a9bd 8ebc
00000010: 2cb7 5bbd 78a7 31be f73c 49bd 5724 303d
00000020: d0fa 6bbd d286 99bd 3524 0cbe 4035 a9bd
00000030: a24c 4dbe 133b 1a3d d9fe 0c3d 579a b73d
00000040: e3cb 72be e325 a53c ef05 5fbd e9b2 74bd
00000050: 21d8 6dbd 289b 2fbd c787 d6bb 1c79 a5bd
00000060: 2d42 2b3c 9ea9 a23d 205c 13be fb6d 2dbe
00000070: 73bb a63c 529b 0ebe 05e0 21be a75d 6fbe
-0.01690497 0.022216735 -0.004241778 -0.017424421 -0.053641483 -0.1734904 -0.049130406 0.043003406
-0.05761224 -0.07496418 -0.13685687 -0.0826211 -0.20048764 0.037653994 0.03442273 0.08964985
-0.23710589 0.020159667 -0.054449018 -0.059740935 -0.058067445 -0.042872578 -0.0065469476 -0.080797404
0.010452789 0.07942508 -0.14390612 -0.16936485 0.020353055 -0.13926437 -0.15808113 -0.2337557

local_map_cnn.4.weight f4 [32, 32, 3, 3]
00000000: 58df e1bc 2257 62be 8b28 993c 6eba e73d
00000010: e23e 9f3b 2084 1e3a 32ac 19be aec6 80be
00000020: 0223 0bbe c451 0a3e 6c72 2ebc abb7 d03c
00000030: feaa bf3c c502 e7be 2714 78be 7b92 09be
00000040: ce8a 823e ea01 06ba 9b6c acbd d806 01be
00000050: cbce af3d a3ee 00bd 9421 19be 2ec9 47bd
00000060: ff67 a63d 4e76 a8be 0eab 2a3c 8519 2bbe
00000070: 9046 b2bd 9fc9 623d 3522 ebbc 1323 cbbe
00000080: 30c6 983d 4c97 b5bd b129 30be db40 abbb
00000090: 5583 2a3d 0879 733d 8417 bb3d 57fd f33c
000000a0: 06ce 68bd 8b66 bebc ec23 983d ffa1 cbbd
000000b0: fca3 8e3d e803 8abd c39b 1a3e 71d9 a63d
000000c0: 6898 b0bd d06f cebd 7fed 823c a90b 9c3c
000000d0: eb17 9e3c b091 1fbe c55b 653c f18e 033e
000000e0: 8f0a 6d3c 0b0f 793d 7502 7fbe a4c2 3c3c
000000f0: ab42 053e 393c 023e a625 083e b435 88bd
00000100: 4fd4 1abd f02e b63c d434 b6bd 8be9 b73c
00000110: ae4f 053e 5caf 92bc d4f6 bdbd f29a 41be
00000120: e4bf 6ebd a327 1b3e 32f2 91bd 1fe7 3c3d
00000130: 5e02 9e3e abfe d4bd 1c4a 0dbc ccf2 e4be
00000140: 8413 963c 7e40 b2be f1cd e53d 0566 0cbd
00000150: e8de a83a 6e06 4dbd a909 7fbe 8868 163c
00000160: 05ac 3ebe 19f3 073d 2baf ce3c 7f8f 913d
00000170: 0fd1 743e 788e 01be 7dba 47be bed0 56bb
00000180: 868f 823d c541 b6bc 63a8 3e3e dad0 233e
00000190: 82ae 82bd 4b00 6b3d 8de3 65bd fffc 14be
000001a0: 7ee8 05bd 37ac dcbd 21fc 35bd 775f 12bd
000001b0: 34ad 8f3b 7084 a53c b12e e23d 60c8 233e
000001c0: c9b9 11be 72f4 993a 404d 5fbd fe53 0bbe
000001d0: a665 153e 5a27 133e 63e7 803d efdb 5d3d
000001e0: beb0 ce3d 26f7 1ebe 604e 6cbd db3f b3bc
000001f0: b2fc 00bd 3ee7 adbd 9715 25bd 78c7 09be
00000200: 6740 c1bb 12f2 c03d 45ab 9dbd 37d1 21be
00000210: d824 313c 7075 77be c629 d2bd 518d 903d
00000220: e5af 2fbe 6a79 603d 74bc 88bc 2b1a c0be
00000230: 027f 06be ff94 35bd fa48 dfbe 190d 46be
00000240: 2179 c9bd 2c98 713d f658 3b3e ac5d d0bc
00000250: 80d6 03be 07d0 ad3d ffc9 59bc 48f3 7a3d
00000260: decd 343d 9d23 c73d 40b2 6cbd 15b5 a2bd
00000270: 8ee9 8fbb 3e5d 0abe e2f0 d6bd f3b7 babd
00000280: 01a1 0a3e 077f 6f3d bb10 a33d a8ce a6bd
00000290: 64e7 403c 32c6 e5bd 23a8 91bd 6bbf 3fbe
000002a0: 7097 bd3a 85a8 103d 640e 38bd 455a 09bd
000002b0: 33ed eb3d f8e3 aa3e d397 77bb 29b5 aabe
000002c0: 14af 60bd 0f71 5dbd 6a04 a83d e698 db3d
000002d0: 43aa 84be 05bf cd3d 7822 f73b 7477 abbd
000002e0: 20e4 9a3d c98a 9abd 042c a43c 7b94 a7bd
000002f0: 4bab bc3d 8e47 f53c 8709 d1ba e5ff 053e
00000300: cdd7 d43d 9892 6fbe 9cc2 81bb 6c45 263e
00000310: 7d2e 59bd b20b 103e f103 3fbd 9328 85bd
00000320: a0ca dbbd 36b2 1cbd 35e9 263e d688 8dbb
00000330: a85f 063e c33e b93d ecd5 fbbd f67c f63d
00000340: 301f d9bd 1123 1c3e 3015 993c b7e8 f2be
00000350: 0995 84bd 61c6 86bb a3d3 0abd fb51 4bbd
00000360: 01cb 03be 813a 483e 8243 5cbe b49b 8ebd
00000370: e084 c6bd 2329 cf3d 6ee9 093e 1a13 ed3d
00000380: 119f ec3c ba29 1ebd 0afd 3abc db07 ccbd
00000390: e7a4 033e d04d 083e 2a8c 0c3d 7a7e cb3d
000003a0: a736 0f3e ebc5 0f3e b8d7 9d3b 1b66 233d
000003b0: 26e7 6d3d 4a58 7fbd 358c c3bd a81d e23c
000003c0: 0d05 7b3d d8c2 3bbe 9b57 403e 8c47 cd3c
000003d0: 6e54 e43d c773 843d 3b09 37bd dfdb 82bc
000003e0: 490f f1bc f586 5f3d 960b afbd 313f 043d
000003f0: f920 50bd 9265 f3bc c774 553d 48cd 30bc
-0.027572319 -0.22103551 0.01869609 0.113148555 0.004859791 0.000604691 -0.15007094 -0.2515158
-0.13587573 0.13507754 -0.0106473975 0.025478205 0.023396965 -0.451193 -0.24226438 -0.13434784
0.25496525 -0.00051119796 -0.08419152 -0.12600267 0.085843645 -0.03147758 -0.14954215 -0.048775844
0.081253044 -0.3290276 0.010416759 -0.16708954 -0.08704865 0.055368062 -0.028702835 -0.39675197
0.07459676 -0.08866748 -0.17203404 -0.0052262372 0.041629154 0.059441596 0.091353446 0.029783888
-0.056837104 -0.023242256 0.074287266 -0.09943008 0.06964871 -0.06739026 0.15098481 0.081469424
-0.08622819 -0.1007992 0.015982388 0.019048529 0.019298514 -0.15582919 0.01399893 0.12847497
0.014467849 0.06080536 -0.24903281 0.011521015 0.13013713 0.12718286 0.13295612 -0.06650868
-0.03780013 0.022239178 -0.08896795 0.02245023 0.13018677 -0.017905883 -0.09275594 -0.18906763
-0.05828847 0.15151839 -0.07126273 0.04611885 0.3086118 -0.104001366 -0.008623626 -0.4471649
0.018319853 -0.3481483 0.11220921 -0.03427698 0.0012883814 -0.05005496 -0.24906029 0.009180196
-0.18620308 0.03319082 0.025230011 0.07107448 0.23907875 -0.12652004 -0.19504733 -0.0032778229
0.06375031 -0.022248158 0.18618922 0.1599764 -0.06380941 0.057373326 -0.056125212 -0.14549635
-0.032692425 -0.10775035 -0.044429902 -0.035735574 0.004384661 0.020204753 0.11044062 0.15994406
-0.14231028 0.0011745824 -0.05451703 -0.13606259 0.14589557 0.1437048 0.062941335 0.054164823
0.10092305 -0.15523967 -0.05769193 -0.021881035 -0.03149099 -0.084913716 -0.040303793 -0.13454998
-0.00589757 0.09421171 -0.07698683 -0.15802465 0.010812007 -0.24165893 -0.10261874 0.07058204
-0.17156942 0.05480329 -0.016691424 -0.37519965 -0.13134387 -0.044331547 -0.43610364 -0.19340934
-0.09837557 0.058983013 0.18295655 -0.025435291 -0.12874794 0.08486944 -0.0132927885 0.061267167
0.044141643 0.097235896 -0.05778718 -0.07944695 -0.0043918556 -0.13512132 -0.104951635 -0.09117117
0.1353798 0.058470752 0.079621755 -0.08144885 0.011773918 -0.112194434 -0.07112148 -0.18725364
0.0014464688 0.035316963 -0.0449356 -0.033533353 0.115198515 0.3337705 -0.0037779703 -0.3334134
-0.054854468 -0.0540629 0.08203967 0.107225224 -0.2591115 0.100462 0.007541951 -0.08372393
0.07563043 -0.075460024 0.02004052 -0.08182617 0.09212359 0.029941346 -0.0015948274 0.13085897
0.10392723 -0.23395765 -0.003959967 0.1623742 -0.05302285 0.14066961 -0.04663462 -0.065018795
-0.10732007 -0.038255893 0.16299899 -0.0043192906 0.13122427 0.09045174 -0.12296662 0.12035553
-0.10601652 0.15247752 0.01868686 -0.47443172 -0.06473739 -0.004113004 -0.03389324 -0.04963873
-0.12870409 0.19553567 -0.21510127 -0.06963292 -0.09693313 0.10115268 0.13467953 0.11575909
0.028884443 -0.038614012 -0.011412868 -0.09962436 0.12855874 0.13310933 0.03431336 0.09936233
0.13985692 0.14040343 0.0048169754 0.039892297 0.05808177 -0.06234006 -0.09548227 0.027602032
0.061284114 -0.18336046 0.18783419 0.02505853 0.11148916 0.06467395 -0.044686537 -0.015973983
-0.029426234 0.054572064 -0.08547132 0.032286827 -0.050812695 -0.029711518 0.05211332 -0.01079113

local_map_cnn.4.bias f4 [32]
00000000: 7363 dd3c 8bbf 87bc cbb8 3abe 729e aebe
00000010: 86ab 0cbc 63ba 15bd 8b4b b7ba 84f4 0dbe
00000020: d8c5 0d3e 23df 143d c53f a43d 2982 d8bd
00000030: a70f e53d 7336 013e 2696 20be ecc6 4e3e
00000040: b3e0 50be 8c69 943d e0eb f23d d024 f9bd
00000050: 9d73 1cbe 6cc3 13bd c9d1 073d 9b70 9cbd
00000060: 9717 8ebd c030 cc3d 1a13 19be 7d05 153b
00000070: a8d1 173c e122 8e3d 0cac a8bb af3d 17bd
0.02702496 -0.016570827 -0.18234555 -0.3410526 -0.008585816 -0.036554705 -0.0013984306 -0.13862807
0.13845003 0.036345612 0.080199756 -0.10571701 0.11184626 0.12618427 -0.15682277 0.2019307
-0.20398216 0.07246694 0.11861396 -0.121652246 -0.15278478 -0.03607504 0.03315905 -0.07638665
-0.06938093 0.09970236 -0.14948693 0.0022738867 0.009266295 0.069402464 -0.0051474627 -0.03692406

local_map_fc.weight f4 [64, 512]
00000000: 746f 8fbd da19 b0bd 8d4e 4dbe bb0e 12be
00000010: ecd2 0c3d 0d89 00be ebf0 08be caa2 50bb
00000020: 300a b7bd cea0 93bd f90b f0bd facf 3a3d
00000030: 0232 8e3d 6bf7 4ebd 3b1e 663d b6e5 50be
00000040: 26a8 bcbd 6b24 96bd 1d23 5dbd ab16 263c
00000050: da5f a4bd 8e1a 96bd 7f74 9dbd c6d3 d3bc
00000060: 3fa2 50bd a6ab 203d f72b 85bc 9b6c 42bd
00000070: 523a 33bd fb12 053e ef60 573d a282 c63d
00000080: ac56 eebd 0679 f0b9 0559 093d 709b 2bbc
00000090: 4ac9 adbe 8232 51bd 9e0e 703d d3f8 57be
000000a0: 701f f3bc 619e 4abe cf46 4bbc 2fd7 84bd
000000b0: 50e6 083e 9306 5e3d 8baf 473b b964 b73d
000000c0: b83b db3a 39de 07be 267b 2f3c 54e3 603d
000000d0: 280a d5bc 0e3f 8dbd f362 2b3d cdc4 99bd
000000e0: d007 fdbc a5e2 ba3d bb5e a23c 6295 f43c
000000f0: d6cb 053d 8ace 83bc 9a91 1fbd 8483 e83b
00000100: cef5 ffbd 625c 09be 7727 c43b b4c8 34be
00000110: 98a0 69bd 5249 e8bd 7d67 513b 5209 6fbd
00000120: 016b 133e 7678 55bc ec0c e4bc ef4b 84be
00000130: d2fc 833b bb90 b73d 67b7 c4bd b331 c13d
00000140: 58e2 b43c fe45 e43c 40c7 10be 15b7 01be
00000150: b221 6bbd a540 dabd e727 04bd ce81 2d3e
00000160: f4c6 4e3c a19f 693e 24bf d5bd 6c52 853d
00000170: be9f 0abd 7f79 24bd d791 9cbd 17d5 943d
00000180: 8651 c3bd 7855 463d 81d2 fdbc df23 dfbd
00000190: c81a a3bd 864e d03c 3a26 2bbb bb0b 4339
000001a0: e032 8e3d 119c 633e d1c4 d8bd 7b09 20be
000001b0: 2772 65bc 47f1 09bd 147b 48bd 2af4 dc3a
000001c0: e292 aa3d 0dd5 203c 12e8 98bc 4955 b7bd
000001d0: 1c5b dabd ea18 24be 48f8 5a3d 1d4f b53d
000001e0: a2ab ccbd fa32 33be ac2a 1abe 89a5 b33b
000001f0: 1980 21bd f70d 7ebc 6239 ddbc 47b6 d8bc
00000200: ab0b 03be 4bd9 63be ef1d 0fbe d5ab 32be
00000210: 22b1 1fbe bd8a d0bd b8f4 42be 1013 a63d
00000220: a8c6 a4bd ec02 91bd ebcc 55be 142d 91bd
00000230: de48 c63d 466a 773d 14f9 b43c 6bae 92bd
00000240: 171e 1ebe 53bd e23c 4773 54be bf27 92be
00000250: 4981 87bc 42d4 4bbd d9c6 5cbe 943a 84be
00000260: 39e0 67bd 8de1 5cbd 2bb7 99bd 0df7 44be
00000270: 20ba 71be b56c 1ebe 41d7 b23d 3217 90bd
00000280: 60b1 81bc d032 17be 6159 333d dded 97bb
00000290: 25b3 f4bd 713d 743c 1a61 9a3c 1eba efbd
000002a0: 2bce 41bd 4e83 ebbd ab89 343d 69ca 6ebd
000002b0: 33a1 15be 2e5d 80be 2b41 5d3d 6182 86bc
000002c0: 332b 0ebd c7b1 bbbd faef 1dbe 5426 1bbd
000002d0: 269e 7cbd e724 cbbd a245 a2bd 8f09 4dbd
000002e0: ee0b b3bd 1290 60be 94bc 09be cb0b 22bd
000002f0: a401 593d 48d9 983d f072 0d3d ecdf c03d
00000300: 4953 cabd dd0d f0bd 1cec 18be f1d3 70be
00000310: 4fbe 84bd 83cb f0bd 031a 8ebd a628 29be
00000320: b3fe c83c 366f 22ba 3a97 ac3c a365 d0bd
00000330: e48d b53d 2865 ca3d 6cf4 a4bd 28ff 293d
00000340: 7d66 8abd c196 1bbe ddbb 93bc 2e6a b23d
00000350: 8e63 823b e2fe 1ebe ad69 093d f382 3e3d
00000360: 1c80 95bc 09ef 8fbc 3d2d d23c 8a55 4a3d
00000370: 9ec2 2fbd e8cd fabd cb90 9d3c d12e 033d
00000380: 16d6 88bd 17d7 d9bc 1349 89bd 2b58 863d
00000390: 627c bd3d 466a 22bd 6c01 af3d 1147 b73d
000003a0: 2382 573d af1d 36bd 8179 463d 6705 01be
000003b0: cba9 c1bd 283a c5bd a8c0 823d 8de6 80bd
000003c0: 0d42 85bd 39d8 7dbc 9d05 1abe 213e 893c
000003d0: e1e2 febd f30a 5bbd 3985 85be 6547 a53a
000003e0: e551 10be fc6c 05be 5f25 1fbd 0e6e 1dbd
000003f0: a1e4 c3bc 0c54 f0bc cba5 a5bd d874 8ebd
-0.0700368 -0.08598681 -0.20049496 -0.14263432 0.03438084 -0.1255228 -0.13373153 -0.003183531
-0.0893749 -0.072084054 -0.117210336 0.0456085 0.06943132 -0.050528925 0.056181174 -0.20400128
-0.09211759 -0.07331165 -0.053988565 0.01013724 -0.08026095 -0.07329284 -0.076882355 -0.025857817
-0.05093598 0.039226197 -0.016256316 -0.047466855 -0.04375679 0.12995522 0.052582677 0.09692885
-0.11637625 -0.00045866537 0.03353216 -0.010474071 -0.33942634 -0.05107356 0.05860769 -0.21091013
-0.029678077 -0.1978698 -0.012407019 -0.064863555 0.13369107 0.05420549 0.0030469622 0.08954758
0.0016726172 -0.13268365 0.010710513 0.054904297 -0.02600582 -0.06896792 0.041842412 -0.0750824
-0.030887514 0.0912526 0.019820562 0.029856388 0.032665096 -0.016089696 -0.038957216 0.007095756
-0.124980554 -0.13414147 0.00598615 -0.17654687 -0.05703792 -0.1134211 0.0031952553 -0.058358498
0.14396288 -0.013029208 -0.027838193 -0.25839183 0.0040279413 0.08963152 -0.09605294 0.094333075
0.022080585 0.027865406 -0.14138508 -0.12667497 -0.05740518 -0.10656861 -0.032264616 0.16944048
0.012620676 0.228148 -0.10436848 0.06509861 -0.03384375 -0.04015493 -0.07645004 0.07267206
-0.09537034 0.048421353 -0.030984165 -0.10895514 -0.079640925 0.025428068 -0.0026115314 0.00018601019
0.069432974 0.22227503 -0.10584415 -0.15628617 -0.014004267 -0.033677366 -0.0489455 0.0016857435
0.08328797 0.00981642 -0.018665347 -0.08951814 -0.10661909 -0.16025129 0.053459436 0.0885298
-0.09993674 -0.17499915 -0.1505534 0.00548238 -0.039428804 -0.015506259 -0.027004901 -0.026454104
-0.1279742 -0.2225086 -0.13976263 -0.17448361 -0.15594915 -0.10182712 -0.19038665 0.08109105
-0.08045703 -0.070806354 -0.20878951 -0.07088676 0.09681867 0.060404085 0.022091426 -0.07162174
-0.15441166 0.027678167 -0.207471 -0.2854595 -0.01654114 -0.04976297 -0.2156023 -0.25825942
-0.05661032 -0.05392604 -0.0750564 -0.19234867 -0.23606157 -0.15471156 0.08732463 -0.07035674
-0.01583165 -0.14765477 0.04378641 -0.00463651 -0.119482316 0.014907227 0.01884513 -0.11705421
-0.047315758 -0.11499654 0.044076603 -0.058298502 -0.14612274 -0.2507109 0.054017227 -0.016419591
-0.034709167 -0.09164768 -0.15423575 -0.03787835 -0.06167426 -0.09919148 -0.07923438 -0.050057944
-0.0874251 -0.21929958 -0.13450843 -0.039562028 0.05298008 0.07463318 0.03453344 0.0941771
-0.09879167 -0.11721394 -0.14933819 -0.23518349 -0.06481611 -0.11757567 -0.06938555 -0.16519412
0.024535513 -0.00061963813 0.021068204 -0.10175636 0.08864954 0.09882575 -0.08054432 0.0415031
-0.06757829 -0.15194227 -0.018033916 0.087116584 0.003979153 -0.15526918 0.033548046 0.0465116
-0.018249564 -0.017570036 0.025656337 0.049397983 -0.04291021 -0.12246305 0.019234082 0.03202707
-0.06681459 -0.02659182 -0.06703391 0.065597855 0.0925224 -0.03965213 0.08545193 0.08949102
0.052614342 -0.044461902 0.04845572 -0.12599717 -0.094562136 -0.09630233 0.063844025 -0.06293974
-0.06506739 -0.015493446 -0.15041204 0.016753258 -0.124456175 -0.05347724 -0.26078203 0.0012609778
-0.1409374 -0.13029855 -0.038854 -0.038435034 -0.02391273 -0.029336952 -0.08088263 -0.0695588

local_map_fc.bias f4 [64]
00000000: 2865 c3bd 6064 ccbd a34e 01bc 7f1f 8bbd
00000010: 288e 75bd c6c9 e2bd 9a25 b8bd d73c d03d
00000020: 1b86 9c3b 848d 95bd 9957 4fbd 3a7a a2bd
00000030: 4129 113e a344 20bc db3b 08bd a983 883d
00000040: 7724 e43c b265 d5bc 0714 a8bd 3a1e 043c
00000050: ea54 c6bd 3613 f7bd 96b0 fb3c 9d6d 903d
00000060: a85a 43bd 0567 7abd 5b8b 663d 2a5d 76bd
00000070: 4490 793d 39f1 7d3d a6bf 2dbc 3e94 edbd
00000080: b3d3 903d 71c5 163b 78d4 bdbc cd66 b9bd
00000090: 0240 7dbd 24e7 ea3d d2eb 153e 1bcc dc3b
000000a0: 26e7 7ebd 5b20 29bd 4a19 dc3c 9308 c23d
000000b0: 9465 f13d 802d db3d fa37 80bd 62d3 e2bc
000000c0: dc78 81bd d25f 9fbc 3ce0 edbd 2e11 dcbd
000000d0: ce88 713d b73f 00be cbfd 6ebd 91b9 b43d
000000e0: 0769 5abc fb8f 3dbe 386a f8bc 1848 6ebd
000000f0: 03e3 7cbd b619 9b3d 36f5 113d 069f c23d
-0.095407784 -0.099800825 -0.007892284 -0.06793117 -0.059950024 -0.110736415 -0.08991547 0.10167854
0.004776729 -0.073023826 -0.05062065 -0.07933469 0.14175893 -0.009781989 -0.033260208 0.06665737
0.027849419 -0.026049469 -0.08206945 0.008063847 -0.09684165 -0.12064211 0.030723851 0.07052157
-0.04769388 -0.061133403 0.056285243 -0.060147442 0.060928598 0.061997626 -0.010604775 -0.116005406
0.070716284 0.0023005868 -0.023172602 -0.09052811 -0.06182862 0.11469868 0.1464074 0.0067381985
-0.06223216 -0.041290622 0.026867528 0.09474292 0.117869526 0.10702038 -0.06260677 -0.027688686
-0.0632188 -0.01945487 -0.11615035 -0.10745464 0.058968358 -0.12524305 -0.058347505 0.088244565
-0.0133307045 -0.18511955 -0.030324087 -0.058174223 -0.061739933 0.07573263 0.035634242 0.095029876

self_entity_fc1.weight f4 [32, 26]
00000000: b3d1 8c3e 7e39 c53a 2ce8 0d3a d4f8 e8ba
00000010: cb55 eebc 69e7 d53d 7094 d1bb 8c16 aebe
00000020: dfdd b2bc 878d 8dbd 9efe 26be f97f 06bf
00000030: 1f11 1b3e 25e4 3cbe c457 583e ca04 173e
00000040: b872 66be 0c13 e6bd 5b11 943d 3cb5 e6bb
00000050: d1bd 23bd b390 a33e a66e 0dbe a919 3d3e
00000060: 1ac9 25bb 0172 563d f37a c3be bd38 f8bd
00000070: 976e 353c 97cf 3a3e 98ea 1f3e 6ca8 dbbd
00000080: bc29 a83d 2849 97be 998b dbbd 5a7d c4bd
00000090: a0c3 0cbe 6e9d 493c 41de 863c f752 013d
000000a0: e2ca 453e 2b08 f53d a851 e73d 4831 19bc
000000b0: 79c7 89bd 9f4a 0abd 95bd b0bd 3e74 973d
000000c0: 8bb8 3bbd a72b 85bc 732b b43d 1e22 413e
000000d0: 2127 90bc 520f aabd 6f75 943d 3a60 0dbe
000000e0: 4df5 da3d f79d 09bf c392 9abe bd2b f73d
000000f0: bd28 db3d c913 dbbd b99d d9be 5ad6 8fbd
00000100: 87b2 6ebd b752 803d e782 863d c236 623e
00000110: a302 0c3d 794d b03d c147 0b3b b51a 103e
00000120: 8577 5c3d f7b8 dd3d 9c1d 383e 0a61 ddbd
00000130: bdc6 23bd b0bf 08be 6b96 d9bd 8645 dfbc
00000140: 87e5 003e d1e4 a2bd 7559 c7bd 2502 1b3e
00000150: 713c 063e ed3b 95bd 5c7d 433f d7f0 943e
00000160: 41f3 b73d 7f82 91bd fae6 973c e609 873e
00000170: 0561 e0bc 2367 30be 4613 413e 6381 6b3e
00000180: d0c9 f3bd 8489 8bbd b892 833e 849f a3bd
00000190: 3900 1dbe ac78 1c3d 3550 e1bd 25e6 083e
000001a0: 8d38 2ebe ffa7 053d 8bff c6bc 40d7 2dbe
000001b0: 7aef 013e 1ef4 403d f6a5 173c 706d 5cbe
000001c0: 8c9f 5d3d 4d49 153e b908 dc3e f1e7 613e
000001d0: 1066 113e a9ca d63d 59b9 46be 5f70 353d
000001e0: a35a 453e 1fc3 c43e 74e1 ddbd b030 e6bc
000001f0: 3993 cf3c 4d8a c6bd 8862 72bd 24b3 bebc
00000200: 539f e8bd 887a d3bd 11cf a33d 37dd e43d
00000210: 5884 503e 2410 263d 5780 393d c213 ccbd
00000220: 7f60 2c3e 23a3 e4be 5d75 5f3e 7277 cb3c
00000230: 42ac 353d c706 a63e 5864 153e 676e ed3d
00000240: d70d 873b 4f79 68be 8dc5 453d 4fb8 d1bb
00000250: 6bfc 29be 928c 2cbe c1f1 32be 0d09 2abe
00000260: 9ec2 01be bcb7 3abe 9f0a 7b3d 5ef8 c53d
00000270: 6279 12bd aa27 ecbd f032 433c e048 203e
00000280: dd03 113e 93a6 dcbd 459b f7bc 098c 96be
00000290: 1145 b33d e8a1 8dbc 66db b8be 5aec 523d
000002a0: 9678 5abf 527f d63d bbbd 073e a6b0 ba3d
000002b0: 1ccb 6bbe 1a09 0dbe caeb debb 8c43 86bb
000002c0: 974d 373d 34c1 723e 484e 033e 495e bcbd
000002d0: 5795 f53b ceaf 00be 7775 323e 6f36 053b
000002e0: d74b 1ebc 713c f53c e3d2 0dbd f6d8 1dbe
000002f0: 749b 8b3d eb66 9a3b 2040 18bf aaab fd3d
00000300: 714f 23be 55ce 7a3e 74a2 c33d d754 e33d
00000310: 098f cf3d 1bad 813e 20e6 003e 0bbb 4e3e
00000320: 128d 21bd 926f d23d 8e6b 2a3d 0dd7 463e
00000330: 61df d43b 6f21 94bd be05 ba3d 00a6 0fbe
00000340: be34 a439 a58d f4bd 516a 013c 2ace ba3d
00000350: 0fcb bfbc 86cf c1bd 737e 513d 8da2 083f
00000360: bfd9 aa3c 1d63 213d e4d2 3fbf 3bb2 bfbd
00000370: 11ce 05be 5e8f ad3d f985 2d3e 1d9e 033e
00000380: 5a59 223e 3532 e2bd 2c5a 14bd b07c a8bd
00000390: 2730 28bd 018a 1d3e 679a c53d 39ce 6dbd
000003a0: f0ed 0abe 58d0 08be d458 3bbe 7442 56be
000003b0: 4be6 20bd 4d8c c33d 8888 95bd d773 d3be
000003c0: 8c37 e6be 7b2a 063e 202f 22be 2820 b9bd
000003d0: 9fee 093e 592d 2d3e 1865 9c3d b882 a8bd
000003e0: 6a5d bf3d 8ed3 fc3d 187d 32bd 7957 09be
000003f0: 3dd7 713d a9b4 a8bd 69cc a5b6 e41d 903e
0.27503738 0.0015047041 0.00054133194 -0.0017774352 -0.029093644 0.104445286 -0.006395869 -0.34001577
-0.021834312 -0.0691176 -0.16308066 -0.5253902 0.1514325 -0.18446405 0.2112723 0.1474792
-0.22504699 -0.11234102 0.07229873 -0.007040648 -0.039975945 0.31946334 -0.1381174 0.1846682
-0.0025296868 0.052354816 -0.3817974 -0.12120197 0.01107373 0.18243252 0.15616834 -0.10725483
0.08211085 -0.29548 -0.107199855 -0.095942214 -0.137465 0.012305601 0.0164634 0.031573262
0.19315675 0.119644485 0.112948716 -0.0093501285 -0.067274995 -0.03376257 -0.0862991 0.07395218
-0.04583029 -0.016256167 0.0879735 0.18860671 -0.017596783 -0.08303703 0.07248961 -0.13806239
0.10691319 -0.5375666 -0.30190095 0.12068889 0.107011296 -0.10697133 -0.42503145 -0.07023306
-0.058275726 0.062657766 0.065679364 0.22091201 0.034182202 0.08608527 0.0021252485 0.14072688
0.05382492 0.10826295 0.17980045 -0.10809524 -0.039984453 -0.13354373 -0.10624393 -0.027254831
0.12587558 -0.079537995 -0.097338594 0.15137537 0.13108994 -0.072868206 0.7636316 0.29089996
0.08981944 -0.07104968 0.018542755 0.2637474 -0.027390013 -0.17226844 0.18855008 0.22998576
-0.11903727 -0.068133384 0.25697875 -0.079894096 -0.15332116 0.03820102 -0.110016264 0.13369043
-0.1701376 0.032630917 -0.024291774 -0.16976643 0.1268901 0.04710781 0.009255877 -0.21526122
0.054107234 0.14578743 0.42975405 0.22061135 0.1419909 0.10487873 -0.19406642 0.04429662
0.19272856 0.38430116 -0.108340174 -0.028099388 0.025338756 -0.096943475 -0.059175998 -0.02327878
-0.11358514 -0.10326105 0.07998479 0.11175006 0.20362985 0.040542737 0.04528841 -0.09964706
0.16833685 -0.44655713 0.21822114 0.02483723 0.04435373 0.32427046 0.1458906 0.11593323
0.004121523 -0.22702526 0.048284102 -0.006400145 -0.16600196 -0.16850498 -0.17475034 -0.16605015
-0.12671897 -0.18234152 0.061289426 0.09666513 -0.03576029 -0.11531003 0.011914 0.156528
0.1416163 -0.10773959 -0.030225405 -0.29403713 0.08753408 -0.017289117 -0.36104888 0.051494934
-0.8534025 0.10473503 0.1325597 0.09115724 -0.23026699 -0.13773003 -0.0068030106 -0.0040974077
0.04475173 0.23706514 0.1282283 -0.09197671 0.0074946093 -0.12567064 0.17427622 0.0020326634
-0.009661636 0.029936047 -0.034624945 -0.15414795 0.0681676 0.004711976 -0.59472847 0.12386258
-0.15948273 0.24492772 0.0955247 0.11100166 0.10134704 0.25327381 0.12587786 0.20188539
-0.039441176 0.102751866 0.04160648 0.19417973 0.0064963554 -0.072329395 0.090831265 -0.14028168
0.00031319814 -0.11941079 0.007898883 0.09121354 -0.023412256 -0.0946341 0.051145982 0.5337303
0.020855783 0.039401162 -0.7493117 -0.09360167 -0.1306689 0.08474611 0.16945638 0.12853284
0.15854397 -0.110447325 -0.036218807 -0.08226907 -0.041061547 0.15384676 0.096485905 -0.058057997
-0.13567328 -0.13360727 -0.18295604 -0.20923787 -0.039282124 0.095482446 -0.07301432 -0.41299316
-0.44964254 0.13102143 -0.1583829 -0.090393364 0.13469933 0.1691183 0.076364696 -0.082280576
0.09343989 0.12345038 -0.04357633 -0.13412274 0.059043158 -0.08237583 -4.9411797e-06 0.28147805

self_entity_fc1.bias f4 [32]
00000000: 1f2d 68bc 0119 843e eaea 123d e41c 7bbe
00000010: 4ac9 9dbd e3a1 05be cd88 893e 0cbd 053e
00000020: 7df9 583e e95c 1f3e ee74 a83d 49f8 6a3e
00000030: c537 873c 5ef5 adbc 6deb f6bd 8b52 39bd
00000040: f186 203e 5fa7 263e 9cb2 793e 04fc 4e3d
00000050: 0f57 743e 7890 e93d 978f 7b3e e5c3 56bd
00000060: 026e 7a3e 58b6 fb3d 05e1 66be 247f 503d
00000070: 5e9d c63e 6d71 093f 41f9 65bd 605e 323d
-0.014170914 0.25800326 0.035868563 -0.2452274 -0.077044085 -0.13050036 0.26862183 0.13060397
0.21188922 0.15562786 0.082254276 0.22946276 0.016506085 -0.021235164 -0.12056623 -0.045244735
0.15676476 0.16274785 0.2438454 0.05053331 0.23861335 0.11404508 0.24566494 -0.052432913
0.24456027 0.12290639 -0.22546776 0.0509025 0.38791937 0.536887 -0.05614591 0.043547034

self_entity_fc2.weight f4 [32, 32]
00000000: 1106 bbbd 6eb2 343e 789e d23e 472c e4be
00000010: 2a68 523e ce40 9a3d 8e36 223c a8a1 6a3e
00000020: 461c 47be 13f4 ffbc 8029 d23d e33c 1dbe
00000030: c23b 26bd d26c db3d 4489 b6be 3544 033e
00000040: 2b88 033d 5448 a53d 0352 e23d 7a74 cdbd
00000050: 8171 7a3c 6034 a6b9 f84b 80bd c1a5 6c3e
00000060: e3dd c43c 4644 f63d 73f5 c0be bfee 6b3e
00000070: e8f6 0c3f 577d 103f 2168 243e 99c4 10bd
00000080: 7c69 933e 095d f93d 5fde dfbd 253e cf3d
00000090: 694c 06bf 20c1 0cbe 97b6 533f b364 febd
000000a0: 7715 ee3e 1c5b b5bd 9c58 973e fa2c 0f3f
000000b0: dff3 ed3c 3e1d 0cbf fcc4 1a3e f346 313e
000000c0: b418 233e 0289 963d 761a 163c ae6a 6cbe
000000d0: e77e 3f3d 7619 2a3e 3059 0dbe 9ac5 21be
000000e0: eb22 85be 27c3 913d 00c0 28be 7a9c 11be
000000f0: e5d1 0dbf bb07 19bf 8584 e3bd a2bb cbbd
00000100: 8324 58bd 768b c0bd 8840 e3be ca30 82be
00000110: 2081 6c3e 7584 3abe a70b 0d3e f38f 183e
00000120: 74eb 46bf 27f3 3abd 6683 e53d a942 0cbe
00000130: e530 a1bd 3a47 4ebf a31b 8ebe 5c3a b93d
00000140: c271 af3c 3015 773e dc17 883e b52f 8dbe
00000150: ddc7 d13c 26a2 78bb 72be dd3d 2ef8 453e
00000160: 5fb1 073e b605 323e fb1a eebe 13b0 4abd
00000170: 3bc5 c8b8 b9e1 debd 8e06 afbd aac0 8bbd
00000180: 15f9 a03d 4a05 08be 40ec 9abe dd62 143e
00000190: 5f65 183e a013 5e3e e1e8 8d3c 89e6 d5be
000001a0: 7f40 9ebe e54f 63be d7fd 10bf df79 3e3d
000001b0: a0e1 923e 4a2d ddbe 93b6 aa3e f8a3 303e
000001c0: ad96 993d ce00 ff3d ec02 d0be f810 0dbd
000001d0: efb3 13be d6c3 c2bd 4c89 11be 0a9b b63b
000001e0: 9807 7ebb 4600 26bd 007a 763e cce4 f8be
000001f0: ce9f 253e f29a de3d ab03 07be 64a7 4b3e
00000200: 124b d93e 3acf 5d3e 1bb3 62bd 2754 6bbd
00000210: 24e9 c6be 81a4 ffbd 9eee 0d3e e646 24be
00000220: b627 023f db19 22bd 6c42 6b3e 2f6b 0f3f
00000230: ab9e 0c3e 2934 3ebf 2945 85bc 7f0f 643e
00000240: 4e01 7a3e 156b 5c3d 3292 b6bd 0a29 003e
00000250: 448c 9b3e ea02 2d3e 5d98 77bc 4cca 2a3e
00000260: 439c d0be d3be 9d3d b482 8d3c 3453 243d
00000270: 1951 dabe f232 0abf 5b8e 053e 5bb9 75bc
00000280: 53ec 3f3e ba39 993e bb80 713e 9855 8bbd
00000290: 8fac 243e 6166 3dbc ae64 0fbb 4ac1 8c3d
000002a0: 5055 353f ae83 75be fe06 a23e 6bec 6e3e
000002b0: 196e 77be d235 a63e fac1 523e 5f8c f23d
000002c0: 87e6 5c3e d9f7 9d3c 8891 87bc 0d3d 4a3e
000002d0: 2c3b e43d 2228 8fbd d01f cd3d 36ae 87bd
000002e0: db70 803e 89f9 3ebe d7f0 66be 4b69 ac3d
000002f0: fbbb 9cbe c4c0 fabe 9e87 e7bd 25a9 31be
00000300: 54ff 87bd 9dca 153e b35b fa3d 87af b9be
00000310: 1f84 b83d 7f44 1a3d 88be 99be 12c8 313d
00000320: ab51 7ebf c490 af3c 98e9 6c3e 2a04 a1bd
00000330: 1475 4dbe e3cb 75bf 5e1f 2dbd af71 60bd
00000340: bfed a73d 5f47 623e 3827 063e 65d3 973c
00000350: fc67 223e dab0 38be 4fd9 5d3e ec75 df3d
00000360: fd00 e73d 9297 283d 1585 f7be c1b3 8e3e
00000370: 11e9 d4bd e273 a4bd 859d 27be 6086 1b3c
00000380: d78e 023f 11f0 133d 97ae da3d 0fd4 90bd
00000390: 06ea aabd 6b18 42be 0bc0 07bf 90ce 023c
000003a0: 5d7a 9a3e 1ef6 ce3c f20c 9b3d 8691 043f
000003b0: 3000 0cbd d43f 59bf c8b4 133c b4c1 643d
000003c0: 95e6 763d be80 31bd 5349 1f3d 1df6 db3d
000003d0: 2f6d 383e 6dd1 a8bd 4c1f 86bd e29a 923e
000003e0: e3d8 a5be ca82 9e3d 5cb7 94bd efcf 5ebd
000003f0: 0887 d3be ae8f cdbe bcbd 083e 10d6 4d3d
-0.091320165 0.1764619 0.41136527 -0.4456503 0.20547548 0.07531892 0.009900702 0.2291323
-0.19444379 -0.031244313 0.10261822 -0.15355258 -0.040584333 0.10714115 -0.356516 0.12818988
0.03211228 0.08070436 0.11050799 -0.10031982 0.0152858505 -0.0003170101 -0.0626449 0.23110105
0.024031585 0.12024741 -0.37687263 0.23040293 0.5506425 0.56441253 0.16055347 -0.03534374
0.28791416 0.12175948 -0.10931086 0.10119275 -0.5246034 -0.13745546 0.82700485 -0.124215506
0.4650075 -0.08855268 0.2955979 0.55928004 0.02904695 -0.5473212 0.15114206 0.17312221
0.15927392 0.07350351 0.009161582 -0.2308757 0.046751883 0.16611275 -0.13803554 -0.15798035
-0.26003203 0.071173005 -0.16479492 -0.14219847 -0.553984 -0.5977742 -0.111092605 -0.099478975
-0.052769195 -0.094016 -0.4438517 -0.25427848 0.23096132 -0.18214591 0.13773976 0.14898662
-0.7770302 -0.045642044 0.11206703 -0.13697304 -0.07870654 -0.80577433 -0.2775546 0.09044334
0.021416549 0.24129176 0.26580703 -0.2757546 0.025607998 -0.0037938445 0.1082734 0.19332954
0.13251255 0.17384991 -0.4650496 -0.049484324 -9.57348e-05 -0.10882897 -0.08546172 -0.06823857
0.078600086 -0.13283268 -0.3025837 0.14490838 0.1488242 0.21687174 0.01732296 -0.41777447
-0.30908582 -0.22198446 -0.5663733 0.046502944 0.28687763 -0.43198615 0.33342418 0.17250049
0.07499442 0.12451325 -0.4062723 -0.03444001 -0.14424108 -0.09510009 -0.14212531 0.0055726813
-0.003876185 -0.040527605 0.24069977 -0.48612058 0.16174242 0.10869397 -0.13184993 0.19888073
0.42440087 0.21661082 -0.05534659 -0.0574533 -0.38849747 -0.124825485 0.13860556 -0.1604267
0.50841844 -0.03957544 0.22974557 0.56022924 0.13732402 -0.7429834 -0.01626833 0.22271536
0.2441456 0.05381306 -0.08914603 0.12515655 0.30380452 0.16895643 -0.01511201 0.16678733
-0.40744218 0.077024125 0.017274238 0.04011841 -0.42639998 -0.53983986 0.13042586 -0.0149978055
0.18742494 0.29926854 0.23584263 -0.06803435 0.16081451 -0.011560054 -0.0021880078 0.068728045
0.708333 -0.23976013 0.3164596 0.23332374 -0.24163093 0.32462937 0.20581809 0.1184318
0.21572314 0.019283222 -0.016548887 0.19749852 0.11144099 -0.069900766 0.100158334 -0.06625025
0.25086102 -0.18649878 -0.2255281 0.084185205 -0.30612168 -0.48975194 -0.11305164 -0.1734968
-0.06640497 0.14628072 0.122245215 -0.3626673 0.09009575 0.03766298 -0.30028176 0.043403693
-0.99343365 0.021431334 0.23135984 -0.07862122 -0.20064193 -0.9601423 -0.042266242 -0.054795917
0.08199643 0.22097538 0.13100898 0.018533418 0.1585998 -0.18036214 0.21664928 0.10911164
0.112794854 0.041160174 -0.4834372 0.27871516 -0.103960164 -0.080299154 -0.16368683 0.009492487
0.50999206 0.036117617 0.106778316 -0.07071697 -0.08345418 -0.18954627 -0.5302741 0.007983819
0.3017148 0.025263842 0.075708285 0.5178455 -0.034179866 -0.8486302 0.00901527 0.055848792
0.060278494 -0.04333567 0.038888287 0.10740302 0.180104 -0.0824307 -0.06548938 0.2863379
-0.32392034 0.0773979 -0.072615355 -0.05439752 -0.41313958 -0.4014868 0.13353628 0.050252974

self_entity_fc2.bias f4 [32]
00000000: 1796 ef3d a68c b13d babe 483c 8e31 89bd
00000010: 3560 533e 425d eebc fd30 11bd c80a 873e
00000020: 4f74 75bd 104a 06be 07bd 073e 99f5 aa3a
00000030: f4ea 22be 61de 0a3e 4b06 2dbd 0a1a f2bd
00000040: 7045 cdbd 8215 15be 4b39 53bd 6486 b0bd
00000050: 1e0b 1a3e ddbd 0e3e 62fd 363d 116d 3ebe
00000060: 2255 9b3d 352b 28bd c4d0 8abd 91c9 25be
00000070: 2117 d23d e86e a3bd a458 da3d 4bbc 373e
0.11698549 0.08669405 0.012252504 -0.06698905 0.20642169 -0.029097203 -0.03544711 0.26375413
-0.059925374 -0.1311419 0.13255702 0.0013043165 -0.1590994 0.13561393 -0.04224233 -0.11821373
-0.1002301 -0.14558986 -0.05156831 -0.08619383 0.15043303 0.13939615 0.04467524 -0.18596293
0.07584597 -0.04105683 -0.067781 -0.16190173 0.10258318 -0.07980138 0.10661438 0.17942922

other_entity_fc1.weight f4 [32, 26]
00000000: 625b b23d 4f15 3cbe 261f ca3d d32a 51bd
00000010: 1d8d acbe 95cb eabd 77f4 93be 8c74 03bf
00000020: c505 073e b9c7 7cbe f8ca 123e fb78 3a3b
00000030: b971 1bbe f8c7 60bd 7d1a fe3c 07a5 cb3c
00000040: e33c f1bd 698d a9bd 698d 28be 342b 7b3d
00000050: d275 4a3d 4407 2a3d f8b4 33be efe0 64be
00000060: 06a0 9fbd a081 193f 791f 8e3d cba7 433e
00000070: 2c29 7cbd 3c02 c0bd 6e05 48be b51e fe3d
00000080: d979 6abe 6285 99bf a8a8 473c bd98 213e
00000090: cf58 fe3d 0302 693e bd28 1e3e 7f3e b13c
000000a0: efcc 00be 01c0 efbd 8095 223e c241 9bbc
000000b0: 8ac1 7a3d 596e 173e a957 c2bd 9433 d63d
000000c0: 8513 aebe e084 d5bd 0693 18be c4fa 98be
000000d0: df6e 083e 2077 d23c cc82 473d 4600 2abe
000000e0: 2efc 65bd ce00 99be fc69 5d3d db16 413e
000000f0: 89ba c33d 9255 a23d 4bd0 7bbe 3a03 afbe
00000100: 80e1 f33c 1d96 65bc b8ee ea3c 8750 74bd
00000110: 448b 8f3d 8436 11be 721a 0bbd 0c1c 41be
00000120: 536f 68be 0e63 dd3d caba 7d3e e2ca 1a3e
00000130: a3b3 c1bd 33e2 e5bd 98ab 1abc f659 50bd
00000140: 785a 18be e817 383e b604 26bd 06ef 6f3d
00000150: 6835 93be eed3 8e3f 91d7 7e3e 5665 07be
00000160: 732d 26be d707 dabd 940e 313e 4c85 bcbd
00000170: 3c34 84be e9b4 8f3d b86c a33d 95a6 923c
00000180: a32b 2fbd 98fa d5bc cfd6 d23c 6217 b13d
00000190: f169 cfbe 2b4f 693e 993d 273d ce6b 6dbe
000001a0: abe3 a03d f46b bebd 6743 a6bd 1342 15bf
000001b0: 4057 3fbe 2ad0 9dbe 36ae b9bb 6de3 033e
000001c0: 6b3a 23bf 811e d7be 371c fb3c 193a c4bc
000001d0: 7f05 563d 0c17 2e3d 2e8f a53c 3c23 743e
000001e0: 3a58 d5bb 379d 0c3e 08f7 253e 4bd5 8d3e
000001f0: 02ca babd 5c70 213e 63eb 4d3e db65 9cbe
00000200: 4c4a 293e de44 3fbe cfec 263b a208 203e
00000210: c58f 633d fd91 e1bd 4459 273d 9523 803e
00000220: a0db 0ebe bc1e 24bf 2bcc be3e a015 423e
00000230: a7e4 d6bd 5f90 34be c4e4 8cbe 5748 ee3d
00000240: 05c3 b2bd ab99 4cbc 78d3 2a3e baab ce3c
00000250: 311a b6bc 47da 1bbe c2e1 48be 9c65 77bd
00000260: 654b 4b3e e0e9 433d b368 3d3e 0e04 7a3e
00000270: f707 b3be c9f5 acbc 818a 583e 5861 9bbd
00000280: a586 cf3d 4b56 0e3e 920b 26be 9114 e53e
00000290: 24cd 4d3e 5a0e 40bd 31ca 50bf cbe2 3cbd
000002a0: 838c fe3c 2536 f33d 88d9 ad3d 0c74 1d3e
000002b0: 75b6 9a3b 3bb6 5cbd 797f a8bd dbb8 153d
000002c0: 1782 d9bc 2eeb 2c3e fc62 1c3e f08c acbd
000002d0: 09f5 2cbd e718 c7be b01d 1f3e a9a4 36be
000002e0: 6a18 1fbd aff0 74bd 951a dc3d 5cb4 3abd
000002f0: d20b aa3d 3e2e e73c 97af d2be 796c f1be
00000300: 6d41 4a3d f6c7 a9bd a71d 5c3d 536f 92be
00000310: 9507 aebd be27 e23d 1567 36be 16c2 2cbe
00000320: 12cf cabc daa3 28be 22b2 8dbd 9cbc d3bd
00000330: e472 8fbe 971b 1e3e 2fd1 b7be 4cae 723e
00000340: 2593 27be 4e99 003d fccb 52bd 31d1 85bd
00000350: 4ca9 16bd f050 533d 048e f6be 9a8a 9abe
00000360: f65f 88be 0d0f 2dbe ad63 f33d 10e4 74bd
00000370: 7f32 dc3d 08f0 60be a138 4bbc 2896 cd3d
00000380: a74d b6bd 55bd 2a3e 638f 08bd 5cf5 cc3c
00000390: 6d98 2cbc b535 aebc 4394 a5be dc55 30be
000003a0: ca71 cc3e 710d f73d e9c3 c5be 32da a0bd
000003b0: 689d 1b3e e540 413d 0453 dfbd c3db 03bd
000003c0: b636 843d 7067 eabe 5e3d 93be 868b 5f3d
000003d0: d35b b3bd 0a2b e83a bcc7 e4bd 5a19 aeba
000003e0: bfa6 483d fa63 c83d 44ee d83c e150 223d
000003f0: 1a2d c73d 2d3c bbba 5844 793d 92a0 023e
0.08708836 -0.18367504 0.09869222 -0.05106623 -0.3370141 -0.114646114 -0.2889745 -0.5134971
0.13185795 -0.24685563 0.14335239 0.0028453458 -0.151801 -0.054878205 0.03101849 0.024858965
-0.11779191 -0.08278925 -0.16460194 0.0613205 0.04942877 0.041510835 -0.17549503 -0.2235143
-0.07794194 0.5996342 0.06939597 0.19106977 -0.061562702 -0.09375426 -0.19533321 0.12408201
-0.22898044 -1.199383 0.012186207 0.15780921 0.12419283 0.22754674 0.15445228 0.021636246
-0.12578176 -0.11706544 0.15877342 -0.018952254 0.06121973 0.14788188 -0.09489376 0.104590565
-0.33999267 -0.104257345 -0.14899835 -0.2987882 0.13323544 0.025691569 0.048708722 -0.16601667
-0.0561487 -0.29883426 0.054056153 0.18856375 0.09557063 0.079264775 -0.24591176 -0.3418215
0.029770613 -0.014012841 0.028678283 -0.05964711 0.07008985 -0.14180952 -0.033960767 -0.18858355
-0.22698717 0.10809909 0.24778286 0.15116456 -0.09458091 -0.11224785 -0.009440325 -0.050867043
-0.14878261 0.1797787 -0.040531836 0.05857756 -0.28751683 1.1158426 0.2488692 -0.1322225
-0.16228275 -0.106460266 0.17290717 -0.09205112 -0.25821102 0.07016928 0.07979721 0.017901698
-0.042766225 -0.026120469 0.025737194 0.08647038 -0.40510514 0.22784106 0.04083023 -0.23185655
0.07855924 -0.09297934 -0.08118325 -0.58303946 -0.18685627 -0.3082288 -0.0056665195 0.12879725
-0.63761014 -0.4201546 0.030653102 -0.023953484 0.052251335 0.042502448 0.020209875 0.23841566
-0.0065107616 0.13731848 0.16207516 0.27701792 -0.09120561 0.15765518 0.20109324 -0.3054646
0.16532248 -0.18678614 0.0025470739 0.15628293 0.05555703 -0.11014173 0.040856615 0.25027147
-0.13950968 -0.64109397 0.37265143 0.18953562 -0.10492831 -0.17633198 -0.27518284 0.116348915
-0.08728603 -0.012487809 0.16682231 0.02522837 -0.022229286 -0.15219985 -0.1961737 -0.060399637
0.1985298 0.047830462 0.18496971 0.24415609 -0.34967014 -0.021113293 0.21146585 -0.07586926
0.10133103 0.13900106 -0.16215351 0.44742253 0.20097786 -0.046888687 -0.8155852 -0.046114724
0.03107286 0.118755616 0.084887564 0.153763 0.0047214576 -0.053884726 -0.082274385 0.036553245
-0.02655129 0.16886589 0.15272135 -0.08425319 -0.04222587 -0.38886186 0.15538669 -0.1783625
-0.038841642 -0.059799846 0.107472576 -0.04558216 0.08303036 0.028220292 -0.4114959 -0.4715307
0.0493788 -0.08290093 0.053739216 -0.2860056 -0.0849754 0.110427365 -0.1781276 -0.16870913
-0.024756942 -0.16468754 -0.06918742 -0.10338709 -0.28017342 0.15440212 -0.35901782 0.23699301
-0.16364725 0.031396203 -0.051464066 -0.06534041 -0.036782548 0.05159086 -0.48155224 -0.3018387
-0.26635712 -0.16900273 0.11884246 -0.05978781 0.10751819 -0.21966565 -0.012403638 0.10038406
-0.0890153 0.16673787 -0.03333987 0.02501934 -0.010534388 -0.021265844 -0.32339677 -0.17220253
0.39930564 0.120631106 -0.3862603 -0.078541175 0.15196764 0.04718103 -0.10904506 -0.032192003
0.06455748 -0.45782042 -0.28757757 0.05457642 -0.087577485 0.0017713022 -0.11170909 -0.0013282702
0.048987146 0.09784694 0.026480801 0.039627913 0.09725399 -0.0014284902 0.060856193 0.12756565

other_entity_fc1.bias f4 [32]
00000000: ed4c f7bd f45f 37be 936d bfbd 30ba acbc
00000010: a498 38bb d186 8ebe 3762 87bd 2db9 5abd
00000020: ef8c cdbc 2ce6 bebc 08b1 20bd 265b 9ebb
00000030: a69d 0abd 3927 1cbe 1544 a7bc 22c8 3ebe
00000040: 48c2 1ebd 7df9 6abb fdab dfbc a89d 43be
00000050: a478 d0bc ab24 ffbd c845 f4bc 5595 a0bc
00000060: 682b dbbb 6319 353d 4e68 b6bc d4be 74bd
00000070: 6bc2 abbb 5018 01bd 241b c73c 2950 00bd
-0.12075219 -0.17907697 -0.093470715 -0.021084875 -0.0028167153 -0.27837232 -0.0661053 -0.053399254
-0.025091616 -0.023303114 -0.03923133 -0.004832643 -0.03384175 -0.15249337 -0.020418206 -0.18631032
-0.0387595 -0.0035854273 -0.02730369 -0.1910311 -0.025448151 -0.12458166 -0.02981843 -0.019602457
-0.006688524 0.044213664 -0.022266533 -0.0597523 -0.0052416823 -0.031517327 0.024304934 -0.031326447
