my-submission/checkpoints/model_308736.pt (torch, 352797 bytes, 23 tensors)

local_map_cnn.0.weight f4 [32, 24, 3, 3]
0	0xbd4782a0	-0.048708558
1	0x3ccfe90e	0.025379684
2	0x3dd8bb55	0.10582606
3	0x3d9c6ca7	0.07637911
4	0xbc224872	-0.009904968
5	0x3dc29511	0.095010884
6	0xbd7fc6ce	-0.062445454
7	0xbdd3e1ba	-0.10345788
8	0x3d4610bb	0.0483558
9	0x3d341dbe	0.043973677
10	0xbc83a199	-0.016068267
11	0xbddcca45	-0.10780767
12	0x3dca85d6	0.098888084
13	0x3d24d768	0.04024449
14	0x3e1e2e28	0.15447295
15	0x3cdb2522	0.026751105
16	0xbcc5d6ed	-0.024150336
17	0xbe512db5	-0.20427592
18	0xbac4ba3d	-0.0015009117
19	0x3d6cfd72	0.05785889
20	0x3de0fd7d	0.10985849
21	0x3c4000d3	0.0117189465
22	0xbdcfedc1	-0.1015277
23	0xbea7f84b	-0.3280662
24	0xbd44ca6e	-0.048044614
25	0xbbc169c4	-0.005902501
26	0x3d6b9465	0.057514567
27	0x3c43d9ad	0.011953753
28	0xbc1e69b3	-0.009668755
29	0x3e0e7ae4	0.13914067
30	0xbc471a89	-0.012152323
31	0xbd8c240f	-0.06842815
32	0xbe8bd744	-0.27312672
33	0xbd69fe71	-0.05712742
34	0xbd827d5c	-0.06371567
35	0x3d81e83a	0.06343122
36	0xbd0021fe	-0.031282417
37	0xbd0715ca	-0.032979764
38	0x3dacf2b5	0.0844473
39	0xbb802afe	-0.003911375
40	0x3c9309b0	0.017948955
41	0xbc4d8999	-0.012545013
42	0xbd04a9f3	-0.03238864
43	0xbd8e661d	-0.0695307
44	0x3d719730	0.058982074
45	0x3d99550f	0.07486927
46	0x3da62164	0.081118375
47	0xbe1533ba	-0.14570513
48	0x3cce7422	0.02520186
49	0x3c606307	0.013695485
50	0x3dfa58f1	0.122239955
51	0x3d0c3cec	0.034237787
52	0x3cba7c1b	0.022764256
53	0xbe5289b3	-0.2056034
54	0xbd89f5ad	-0.06736312
55	0xbd1bfc11	-0.038082186
56	0xbd837877	-0.06419461
57	0xbd9ee74b	-0.077589594
58	0xbe205b2f	-0.15659784
59	0xbe2b3487	-0.16719256
60	0xbdfd15e5	-0.12357692
61	0xbdc7a37f	-0.09747981
62	0x3d7fe551	0.062474553
63	0xbc462ad5	-0.012095173
64	0xbcceb2d1	-0.02523175
65	0x3c718708	0.014741667
66	0x3ccc7b42	0.024961118
67	0xbe269def	-0.16271184
68	0xbd0547b1	-0.032539073
69	0xbde4401e	-0.11145042
70	0xbd637b8c	-0.055537745
71	0xbd43e706	-0.047827743
72	0x3d4042df	0.046938773
73	0xbd68d7a9	-0.056846295
74	0x3db86a5d	0.09004662
75	0xbdce4cfd	-0.10073278
76	0xbe4acaaf	-0.1980388
77	0xbd9fe719	-0.0780775
78	0x3c89e099	0.01683073
79	0xbc88d40a	-0.01670267
80	0x3bb2dca6	0.0054584322
81	0xbbaf2d8b	-0.0053460053
82	0x3c83e834	0.016101934
83	0xbcfe9123	-0.031075066
84	0x3aab956b	0.0013090795
85	0x3c333793	0.010938543
86	0xbe064902	-0.13113788
87	0x3a27186b	0.0006374183
88	0xbdd46029	-0.103699036
89	0x3ce0ad0f	0.02742627
90	0xbdd67f63	-0.10473516
91	0x3d1fee71	0.039045755
92	0xb9d9a96c	-0.00041515694
93	0xbb8e2e3c	-0.0043390077
94	0xbd987661	-0.07444454
95	0xbe211cc5	-0.15733631
96	0xbda3a021	-0.079895265
97	0xbd9d782a	-0.07688935
98	0x3d168316	0.036746107
99	0xbc867f8b	-0.01641824
100	0x3c18f50f	0.00933577
101	0x3cf24954	0.029575981
102	0xbdef4145	-0.11682371
103	0xbd9ac2fb	-0.07556721
104	0xbdbf811c	-0.093507975
105	0x3ca586fc	0.020205967
106	0xbd975d7e	-0.07390879
107	0xbde4bb40	-0.111685276
108	0xbd94d347	-0.072668605
109	0xbcae23a1	-0.021257224
110	0x3d68e869	0.05686227
111	0xbd1d8235	-0.038454253
112	0xbd8ee399	-0.069770046
113	0xbe5fa12b	-0.21838824
114	0xbdeeb77d	-0.11656091
115	0xbdb07b6b	-0.0861729
116	0x3d18dfb5	0.03732272
117	0x3cfb4f95	0.030677596
118	0xbcd7e802	-0.026355747
119	0x3caa9a7c	0.020825617
120	0x3cfcaffe	0.030845638
121	0xbd7dadf8	-0.061933488
122	0xbe32b29b	-0.17450945
123	0xbde6c599	-0.112681575
124	0xbd518e48	-0.05116108
125	0x3d66f534	0.056386188
126	0xbdc01f6c	-0.09380993
127	0xbddfd10b	-0.10928544
128	0xbda002db	-0.07813045
129	0x3cb0e7a9	0.02159484
130	0xbdbf7902	-0.09349252
131	0x3dffa130	0.12481916
132	0xbd6b2d13	-0.057416033
133	0xbd82bbd8	-0.063834846
134	0xbe19338d	-0.14961071
135	0xbc96958e	-0.01838186
136	0xbc6f011b	-0.014587666
137	0x3d6d4f78	0.057937115
138	0x3c05e03b	0.0081711365
139	0xbcb030bf	-0.021507619
140	0xbd9468b3	-0.07246532
141	0xbc04c9c6	-0.008104747
142	0x3da70928	0.08156043
143	0x3e5d2681	0.2159672
144	0x3d7f5082	0.062332638
145	0x3db5ccc6	0.08876948
146	0x3df71adf	0.12065672
147	0x3d14224d	0.036165524
148	0xbd517ece	-0.05114632
149	0xbeebbbd1	-0.4604173
150	0xbb986e78	-0.004651841
151	0xbd47ec2c	-0.048809215
152	0x3e2a55ff	0.16634367
153	0xbd62de55	-0.055387814
154	0xbdae7d4e	-0.08519994
155	0xbd9ae5f2	-0.0756339
156	0xbd29ee65	-0.041487116
157	0xbd7a2a6d	-0.061075617
158	0xbc2b8995	-0.010469814
159	0x3ceebf19	0.029143857
160	0xbd647156	-0.055772148
161	0xbdebf235	-0.11520807
162	0x3de70264	0.11279753
163	0xbd7023a3	-0.058627736
164	0x3e81022d	0.25196972
165	0xbd761cb2	-0.06008596
166	0x3cd7ab72	0.026326869
167	0x3e77af4d	0.24187966
168	0x3e0bee2b	0.13665073
169	0x3d002977	0.031289544
170	0x3ea01077	0.31262562
171	0x3d73daf0	0.059534967
172	0x3c5f034e	0.013611628
173	0x3dd63ef5	0.10461227
174	0xb8be94f9	-9.087654e-05
175	0xbcd240a0	-0.025665581
176	0x3a9a9387	0.0011793234
177	0x3df5cacf	0.12001573
178	0x3e3fcf88	0.1873151
179	0x3d07a22c	0.033113644
180	0xbe77c3c9	-0.2419578
181	0xbe061402	-0.1309357
182	0xbdc09d49	-0.09405
183	0xbbafcdf0	-0.005365126
184	0xbe726655	-0.23671849
185	0xbe8b48da	-0.2720402
186	0xbdc641fa	-0.09680553
187	0xbe04ebdc	-0.12980598
188	0xbcefc329	-0.029267864
189	0x3eef3df1	0.46726945
190	0x3f26c8d7	0.6515021
191	0x3ebc7a48	0.36812043
192	0x3f2847c9	0.65734535
193	0x3f222670	0.633399
194	0x3ecfdae0	0.40596676
195	0x3cc01494	0.023447312
196	0x3e886491	0.26639226
197	0x3e2e7b4c	0.17039222
198	0x3eeeb8a2	0.4662524
199	0x3f0ec2b5	0.5576585
200	0x3dddfcbf	0.10839223
201	0x3f3952f9	0.7239223
202	0x3f428a3e	0.7599219
203	0x3bc90798	0.0061349384
204	0x3db8fbc9	0.09032399
205	0x3ec58c76	0.38583726
206	0x3e3d85f2	0.18508127
207	0x3e08182b	0.1329047
208	0x3d7375a6	0.05943837
209	0x3d9d13dc	0.076698035
210	0x3daa9e03	0.083309196
211	0x3a08c10e	0.00052167557
212	0xbdb75a4a	-0.08952768
213	0x3dce22db	0.10065242
214	0xbba4bea2	-0.005027608
215	0xbc6dbd34	-0.014510442
216	0x3d21d4ca	0.039509572
217	0xbccea179	-0.02522348
218	0x3d6b944b	0.05751447
219	0xbd10f17e	-0.035386555
220	0x3d4b2afd	0.049601544
221	0x3d4f3cfe	0.050595276
222	0xbd55f913	-0.05223949
223	0x3d8aeaf0	0.06783092
224	0xbd45e6cc	-0.04831581
225	0xbc4de4da	-0.0125667695
226	0x3d6738d0	0.056450665
227	0xbad9c062	-0.0016613121
228	0x3d13f600	0.036123276
229	0x3c76e440	0.0150690675
230	0x3c1c8f54	0.009555656
231	0x3d280af8	0.041026086
232	0x3dabfed3	0.08398213
233	0x3cc0fbb0	0.023557514
234	0xbc6bc556	-0.01439031
235	0xba98a478	-0.0011645695
236	0x3cc5cf06	0.024146568
237	0xbd059304	-0.03261091
238	0xbd8bc9d1	-0.06825603
239	0x3cbc66e6	0.022998285
240	0xbc8c600d	-0.017135644
241	0xbc9e4e80	-0.019324541
242	0x3bb388c4	0.00547895
243	0x3c4bd0fc	0.0124399625
244	0xbc999a99	-0.018750476
245	0x3d183250	0.037157357
246	0x3d39a3b1	0.045322124
247	0x3d64e6c5	0.05588414
248	0x3da96f97	0.08273237
249	0x3d02042a	0.031742252
250	0x3d3ddac6	0.046351217
251	0x3d0ed00d	0.03486638
252	0x3d4197a9	0.047263775
253	0x3c380f6f	0.011234148
254	0x3d26e520	0.040745854
255	0xbd407e0e	-0.046995215

local_map_cnn.0.bias f4 [32]
0	0xbbb8e0ad	-0.005642018
1	0xbd26ad19	-0.040692423
2	0xbc94ef31	-0.018180462
3	0xbd8dac9d	-0.06917689
4	0x3d32e4fe	0.043675415
5	0x3c1cd5f3	0.009572494
6	0x3cddfada	0.027097154
7	0xbd32fad9	-0.04369626
8	0x3c023d81	0.007949234
9	0xbdbdea53	-0.092732094
10	0x3c171ce9	0.009223201
11	0x3a6f4ffb	0.00091290445
12	0xbcf4601c	-0.029830985
13	0xbd01f08f	-0.031723555
14	0xbd06dd72	-0.03292603
15	0xbdebec6e	-0.11519705
16	0xbd03aa3b	-0.032144766
17	0x3d400fd3	0.04689009
18	0x3d4b6e08	0.04966548
19	0x3d11306e	0.035446577
20	0xbda0c34a	-0.078497484
21	0x3d90f203	0.0707741
22	0x3bfa2caf	0.007634721
23	0xbd37ea31	-0.044901077
24	0xbd69b9fe	-0.05706214
25	0xbd87bb81	-0.066275604
26	0xbd62768c	-0.055288836
27	0xbc83edb9	-0.016104566
28	0x3d763e4d	0.06011801
29	0x3d34ab48	0.04410866
30	0x3da7eab1	0.08199061
31	0x3c50a563	0.012734744

local_map_cnn.2.weight f4 [32, 32, 3, 3]
0	0x3d5c5117	0.05378827
1	0xbd6e043f	-0.05810952
2	0xbe0f1a69	-0.13974918
3	0xbe30238f	-0.17201065
4	0xbe1cd971	-0.15317322
5	0xbca94b58	-0.02066581
6	0xbeab05a2	-0.33402735
7	0xbd5d843c	-0.054081187
8	0xbc8c501a	-0.01712804
9	0xbd420a36	-0.04737302
10	0xbd19f38e	-0.037585787
11	0xbd7e1e40	-0.062040567
12	0xbcb06679	-0.021533238
13	0xbd725c33	-0.05916996
14	0xbdbc77a4	-0.09202507
15	0x3cb51123	0.022102898
16	0xbd5f8081	-0.05456591
17	0xbe05e064	-0.1307388
18	0x3dfafe4e	0.12255536
19	0xbd9d65ea	-0.07685454
20	0x3c959c8a	0.01826312
21	0x3e054e8c	0.13018245
22	0x3e1052ec	0.14094132
23	0x3e58cdf3	0.21172313
24	0xbd142e8f	-0.036177214
25	0xbdcfa75a	-0.10139342
26	0x3b2678f6	0.0025401688
27	0x3c827dd3	0.015929138
28	0x3e419ed0	0.18908238
29	0x3e248a12	0.16068295
30	0x3dc5fbfc	0.09667203
31	0x3e898480	0.26858902
32	0x3e3e1c9c	0.18565601
33	0xbdcd8100	-0.100343704
34	0xbc822825	-0.015888283
35	0x3d5dfc10	0.054195464
36	0x3d3c26e6	0.045935534
37	0xbd846e4a	-0.064663485
38	0x3d9255f4	0.071453005
39	0x3cf895e8	0.030344918
40	0xbe702bf9	-0.23454274
41	0xbd9bcae2	-0.07607056
42	0x3cbde877	0.023182137
43	0xbdb32b8a	-0.08748539
44	0x3bf3e3a2	0.0074429074
45	0xbdb25c7a	-0.08709045
46	0xbdba4ba9	-0.09096462
47	0x3c604c85	0.013690119
48	0xbda88d57	-0.082300834
49	0xbe4a4dc5	-0.19756229
50	0xbdbb7013	-0.09152236
51	0xbd259ef0	-0.040434778
52	0xbc8aeb0f	-0.016957788
53	0x3d3b4272	0.045717664
54	0xbd2b9ee3	-0.041899573
55	0xbcf1a8ff	-0.029499529
56	0xbd9a8add	-0.07546017
57	0xbd54b43e	-0.051929705
58	0xbd301b2c	-0.042994663
59	0xbdf93cf0	-0.12169826
60	0x3c397280	0.011318803
61	0xbdf7d355	-0.12100855
62	0xbd17b48d	-0.03703742
63	0x3dd7cacb	0.105367266
64	0x3d8b5549	0.06803376
65	0x3debce1b	0.11513921
66	0x3dba6e33	0.0910305
67	0x3da7b14a	0.08188112
68	0x3e1e99c7	0.15488349
69	0x3d484dcb	0.048902314
70	0x3de00fd3	0.10940518
71	0x3dd8a610	0.10578549
72	0x3dc836a1	0.09776045
73	0x3e2772a2	0.16352323
74	0xbdaa3322	-0.08310534
75	0x3dc3afce	0.095550165
76	0xbde1f3e9	-0.1103285
77	0xbd0f39e9	-0.034967337
78	0x3da621d8	0.08111924
79	0xbd365f2d	-0.04452436
80	0xbdb52b71	-0.088461764
81	0x3d58764e	0.0528472
82	0x3dce4949	0.10072572
83	0x3d5239ff	0.05132484
84	0x3d7479c3	0.059686434
85	0x3de4f454	0.111794144
86	0x3d9cfaff	0.07665061
87	0xbc9eccc5	-0.019384751
88	0x3d6a97c0	0.057273626
89	0x3cf092cf	0.029366879
90	0xbbfee877	-0.007779177
91	0xbdbdeeca	-0.09274061
92	0x3cac3ec0	0.021026015
93	0x3b76e5f5	0.0037673686
94	0xbe129c8b	-0.14317529
95	0xbd60621c	-0.054781064
96	0x3c7e661f	0.015527277
97	0xbdec307c	-0.11532685
98	0x3d025b74	0.031825498
99	0x3e41738f	0.18891738
100	0x3c947bd3	0.01812545
101	0x3e251173	0.16119938
102	0xbcd0a59b	-0.025469592
103	0x3c23336a	0.009960989
104	0x3dd340fc	0.10315129
105	0x3d787ba9	0.060664807
106	0x3c5bac2d	0.013407749
107	0x3dba6522	0.09101321
108	0xbcea3229	-0.028588371
109	0x3c6c2464	0.014412973
110	0xbd0a1dab	-0.0337197
111	0x3d273488	0.040821582
112	0xbd0d69c9	-0.034524713
113	0xbe28154a	-0.16414371
114	0xbb0aa8d2	-0.0021157754
115	0xbe093248	-0.13398087
116	0xbd380100	-0.04492283
117	0x3d7854ad	0.060627628
118	0x3e03b231	0.12860943
119	0x3d5a8cea	0.053357042
120	0x3da3cdef	0.07998263
121	0xbc14570d	-0.009053958
122	0x3cf039f3	0.029324507
123	0x3d556a9d	0.052103627
124	0x3d8bbc3f	0.068230145
125	0x3ca0cd47	0.019629134
126	0xbd5a9082	-0.05336047
127	0xbd27e7db	-0.0409926
128	0xbc820e51	-0.015875967
129	0xbdb8ed91	-0.09029687
130	0x3c07e59f	0.008294492
131	0xbc65b087	-0.014019138
132	0xbdf5bebf	-0.119992726
133	0xbe067bb8	-0.13133132
134	0xbc6ed3d9	-0.014576876
135	0x3bcf5ce9	0.0063282144
136	0x3dd3bef9	0.103391595
137	0xbc340fb8	-0.010990076
138	0xbc3434bb	-0.0109989
139	0x3e06433e	0.13111588
140	0x3d8f0f00	0.06985283
141	0xbe28a848	-0.16470444
142	0x3c691f11	0.014228598
143	0xbcf0dd17	-0.029402299
144	0x3d8f92d6	0.070104286
145	0x3e2d4bd8	0.16923463
146	0x3d7521af	0.059846576
147	0x3e332ba9	0.17497124
148	0x3e773eaf	0.24145006
149	0x3d181ebe	0.037138693
150	0x3d91a393	0.071112774
151	0x3db3e8b5	0.0878462
152	0x3de3b5ff	0.111186974
153	0x3ddba26b	0.10724338
154	0x3da2776b	0.079329334
155	0x3d833415	0.06406418
156	0x3cc8c74e	0.024509098
157	0x3dd44b8b	0.10365971
158	0x3d091e02	0.033475883
159	0xbcca4a9e	-0.024693783
160	0x3daf68ad	0.08564887
161	0xbc85e3ff	-0.016344069
162	0x3dc3067b	0.095227204
163	0xbcdbd7a9	-0.026836233
164	0x3d86ecdd	0.06588147
165	0x3d365fbf	0.044524904
166	0x3dc9b086	0.09848122
167	0x3e5347ba	0.2063283
168	0x3da7f755	0.08201472
169	0xbd1a96dd	-0.03774153
170	0x3dbe3962	0.09288289
171	0x3ccc95aa	0.02497371
172	0xbd646e53	-0.055769276
173	0x3c9cf7cd	0.01916113
174	0x3e1afe2e	0.15136024
175	0x3e1faaef	0.1559255
176	0x3e238a24	0.15970665
177	0x3d564bb3	0.052318286
178	0x3dbf65f4	0.09345618
179	0x3e477970	0.19479918
180	0x3d09864b	0.033575337
181	0x3de7590f	0.112962835
182	0x3b8cf92f	0.004302166
183	0x3da0d5b4	0.07853261
184	0x3ca02e5d	0.019553358
185	0x3d920819	0.07130451
186	0xbd8e32e3	-0.069432996
187	0x3bd5f2f2	0.0065292055
188	0x3d327bc9	0.043575082
189	0x3d5f0707	0.05445006
190	0x3e28d80b	0.16488664
191	0x3cbd9799	0.023143576
192	0x3c9baaea	0.019002397
193	0x3c61745d	0.013760653
194	0x3ddbcbe8	0.107322514
195	0x3c92e97b	0.017933598
196	0xbda973fa	-0.08274074
197	0xbe0497f7	-0.12948595
198	0x3d2bbefb	0.04193018
199	0x3dc81dee	0.09771334
200	0x3d21e478	0.039524525
201	0x3ca9c2a2	0.020722691
202	0x3d75d872	0.06002087
203	0x3d827ac6	0.063710734
204	0x3d0830b0	0.033249557
205	0xbd7d57cc	-0.061851308
206	0xbcf9b700	-0.030482769
207	0x3c1c8862	0.009554001
208	0xbcaddcd2	-0.02122346
209	0x3d5f3836	0.054496966
210	0x3d7617c2	0.06008125
211	0x3c277490	0.010220662
212	0xbc35be11	-0.011092679
213	0x3d8a1023	0.06741359
214	0xbd584c86	-0.052807353
215	0x3d86174d	0.06547413
216	0xbd98aec6	-0.074552104
217	0x3df0e9fb	0.11763378
218	0xbcca211c	-0.02467399
219	0xbc32c013	-0.010910052
220	0x3e393bec	0.18089265
221	0x3d92e25c	0.07172081
222	0xbe0b3eb8	-0.13598144
223	0x3d3957af	0.045249637
224	0x3d489f17	0.048979845
225	0x3df96224	0.12176922
226	0x3dc4da76	0.096119806
227	0x3dc46a0f	0.095905416
228	0x3db42628	0.0879634
229	0x3e26f2a5	0.16303499
230	0x3e0449ea	0.12918821
231	0x3e05c1cc	0.13062209
232	0x3da124e1	0.07868362
233	0x3dd28735	0.10279695
234	0x3d6d2387	0.05789521
235	0xbdbd1567	-0.09232598
236	0xbd3930fc	-0.04521273
237	0xbe9365a2	-0.28788477
238	0x3cb1469a	0.02164011
239	0xbecbdef6	-0.39818543
240	0xbd8e1ada	-0.06938715
241	0xbccaa6c7	-0.024737729
242	0xbd864814	-0.065567166
243	0x3c66288d	0.014047754
244	0xbe1e35ad	-0.15450163
245	0x3c638fcd	0.013889265
246	0xbdb16fdd	-0.08663914
247	0xbed27eab	-0.41112265
248	0xbd73d587	-0.059529807
249	0xbe00d69f	-0.12581871
250	0xbda17c10	-0.07884991
251	0x3cb48403	0.022035604
252	0x3d865e17	0.06560915
253	0x3dbbf0d4	0.09176794
254	0x3dd4cdef	0.10390841
255	0x3d806336	0.06268923

local_map_cnn.2.bias f4 [32]
0	0xbca57326	-0.020196509
1	0x3ceeb825	0.029140541
2	0xbbf37a9d	-0.007430388
3	0xbc9cf568	-0.019159988
4	0xbd7479c0	-0.059686422
5	0xbe2698af	-0.16269182
6	0xbc45a4a6	-0.012063181
7	0x3d4e7f89	0.050414596
8	0xbd445720	-0.04793465
9	0xbd986044	-0.07440236
10	0xbde04321	-0.10950304
11	0xbd9d19df	-0.0767095
12	0xbe2794c3	-0.16365342
13	0x3d1326a0	0.035925508
14	0x3d1295fe	0.035787575
15	0x3d89f266	0.06735687
16	0xbe377940	-0.17917347
17	0x3d1129d6	0.03544029
18	0xbd40f6bc	-0.047110304
19	0xbd1faed6	-0.038985096
20	0xbd6aa27b	-0.05728386
21	0xbc89f544	-0.016840585
22	0x3c647fd6	0.013946494
23	0xbd80ff68	-0.06298715
24	0x3d607840	0.05480218
25	0x3dabf387	0.083960585
26	0xbddd5afa	-0.10808368
27	0xbde1589e	-0.110032305
28	0x3cd7c1ae	0.02633747
29	0xbdda12db	-0.10648128
30	0xbde44cb2	-0.11147441
31	0xbe40c67a	-0.18825713

local_map_cnn.4.weight f4 [32, 32, 3, 3]
0	0xbc950b2b	-0.018193802
1	0xbe0847a6	-0.13308582
2	0x3d7dd53e	0.06197094
3	0x3dc2aa89	0.09505183
4	0x3d2e61fd	0.042573918
5	0x3cedbff7	0.0290222
6	0xbddea8d1	-0.10872043
7	0xbe371b38	-0.17881477
8	0xbdc47c60	-0.09594035
9	0x3e5b4f8d	0.21417065
10	0xbcab57c9	-0.020915883
11	0x3d16916c	0.03675978
12	0x3d9674b0	0.07346475
13	0xbeb70a5c	-0.3575009
14	0xbe4d49a9	-0.2004763
15	0xbd9127cb	-0.07087668
16	0x3e900b1e	0.28133482
17	0x3dd06c6a	0.10176928
18	0xbda5bdea	-0.08092864
19	0xbdef8d17	-0.116968326
20	0x3cdb98da	0.026806284
21	0xbca10d6a	-0.019659717
22	0xbdfbfcc7	-0.12304073
23	0xbdaa85ab	-0.083262764
24	0x3dda1609	0.10648734
25	0xbe5c8d0e	-0.21538183
26	0xbc344b4f	-0.011004283
27	0xbd719da3	-0.058988225
28	0xbd5ad5a3	-0.053426396
29	0x3dcd3fd5	0.100219406
30	0xbda7b347	-0.08188491
31	0xbebea4cd	-0.37235108
32	0x3cb7eaa7	0.022450758
33	0xbd283d85	-0.041074295
34	0xbdd8cd54	-0.10586038
35	0x3ca0914f	0.019600539
36	0x3cd4c3dd	0.025972301
37	0x3d04181c	0.032249555
38	0x3d9eb7d1	0.07749904
39	0x3d88dc9b	0.06682702
40	0xbd1f1701	-0.038840298
41	0xbd1b9ad0	-0.037989438
42	0x3daa5291	0.083165295
43	0xbdb4c32d	-0.08826289
44	0x3dc8c195	0.09802548
45	0xbd5ee467	-0.05441704
46	0x3db5ae65	0.08871154
47	0x3d9346d6	0.07191245
48	0xbe0f9221	-0.14020588
49	0xbde2ecf3	-0.11080351
50	0xbcf90e31	-0.030402275
51	0xbd01730d	-0.03160386
52	0xbe3522ed	-0.17689104
53	0xbe2135af	-0.15743135
54	0x3d6ef61a	0.05834017
55	0x3e06b1c1	0.13153745
56	0xbb0243ba	-0.0019876794
57	0x3d92c49a	0.07166405
58	0xbe845291	-0.25844243
59	0x3bf3c388	0.0074390806
60	0x3e04dbcd	0.12974472
61	0x3d78a12a	0.060700573
62	0x3e19c4f5	0.1501654
63	0xbdb5af4f	-0.08871328
64	0xb9a1fb51	-0.00030895558
65	0xbd1a7ab7	-0.037714686
66	0xbdc82e78	-0.09774488
67	0xbca4928f	-0.020089416
68	0x3e18cc13	0.14921598
69	0xbd7d6837	-0.061866965
70	0xbe3d6449	-0.18495287
71	0xbe80225d	-0.25026217
72	0xbd83b2f9	-0.06430621
73	0x3e45ae8c	0.19304866
74	0xbd8859e8	-0.06657773
75	0x3ba57cd2	0.00505028
76	0x3e878426	0.2646801
77	0xbd2b431f	-0.04181206
78	0x3dafc38d	0.0858222
79	0xbec22f28	-0.37926602
80	0xbcc496a2	-0.023997609
81	0xbe8597a1	-0.26092246
82	0x3e093f08	0.13402951
83	0xba62eec7	-0.00086567964
84	0xbd20109b	-0.039078336
85	0xbdbf7c7b	-0.09349915
86	0xbe300e23	-0.17192893
87	0x3cea8d8c	0.028631948
88	0xbe5fee72	-0.21868303
89	0x3d3e4d64	0.046460524
90	0x3cfd5d4d	0.030928278
91	0x3d6078be	0.05480265
92	0x3e097a11	0.13425471
93	0xbd1dd376	-0.038531743
94	0xbdfc6a94	-0.12325016
95	0x3db3d4ba	0.08780809
96	0x3e103940	0.14084339
97	0xbd56b3f5	-0.052417714
98	0x3d2eda18	0.04268846
99	0x3df8b9ae	0.121447906
100	0xbd675828	-0.056480557
101	0x3dd2fc59	0.10302038
102	0xbcc6a372	-0.024247859
103	0xbe104834	-0.14090043
104	0xbc983f44	-0.018584855
105	0xbddb4529	-0.10706551
106	0xbd0c7c1b	-0.034298044
107	0xbcbf61d6	-0.023362081
108	0x3cc49c23	0.024000233
109	0xbc0b7701	-0.008512259
110	0x3dc689b5	0.09694234
111	0x3e16f690	0.14742494
112	0xbe19f00a	-0.15032974
113	0xbc9afe99	-0.01892023
114	0xbd77ba5f	-0.06048047
115	0xbe26b4ac	-0.16279858
116	0x3e442bdf	0.1915736
117	0x3e028082	0.12744334
118	0x3db5e589	0.08881671
119	0x3d8b336e	0.06796919
120	0x3da039a9	0.07823498
121	0xbe0fdd36	-0.14049229
122	0xbc09dac0	-0.0084139705
123	0x3c11ff52	0.008910971
124	0xbd66ba6d	-0.056330133
125	0xbe168e10	-0.1470263
126	0xbd162a54	-0.03666146
127	0xbdab09f8	-0.08351511
128	0x3d530030	0.05151385
129	0x3d1be07e	0.03805589
130	0xbd8350cc	-0.06411895
131	0xbdb22fcf	-0.08700525
132	0xbcd9da57	-0.02659337
133	0xbe9414b6	-0.2892205
134	0xbe00b1fc	-0.12567896
135	0x3dab1cac	0.08355078
136	0xbe295d46	-0.16539487
137	0x3d76ca5d	0.060251582
138	0x3d174d07	0.036938693
139	0xbe89ccb0	-0.26913977
140	0xbd9e266c	-0.07722172
141	0xbd3d80c4	-0.04626538
142	0xbeae24f8	-0.3401258
143	0xbdc2b511	-0.09507192
144	0xbc4b5211	-0.012409703
145	0xbc6efc9a	-0.014586592
146	0x3e0b2c8d	0.13591214
147	0xbc4da5b5	-0.012551715
148	0xbe24d7ae	-0.160979
149	0x3cd5e172	0.026108477
150	0x3cb789b1	0.022404524
151	0x3c88f656	0.016719025
152	0x3d0f46fe	0.034979813
153	0x3e0cfdf0	0.13768744
154	0xbd831cbb	-0.06401964
155	0xbd57fe75	-0.052732904
156	0x3bc8a56c	0.0061232354
157	0xbe0d6d55	-0.13811238
158	0xbd82b148	-0.0638147
159	0xbd8df9af	-0.06932389
160	0x3e1ea0e6	0.15491065
161	0x3dc04094	0.09387317
162	0x3dfc739d	0.12326739
163	0xbda5af55	-0.080900826
164	0x3cf49d54	0.029860176
165	0xbd29903c	-0.04139732
166	0xbda3b579	-0.079935975
167	0xbe2d630c	-0.16932315
168	0x3d64a03c	0.055816874
169	0x3d2c6590	0.042089045
170	0x3d32243e	0.043491594
171	0xbcc0ef64	-0.02355165
172	0x3d863dc0	0.06554747
173	0x3e72f4ed	0.23726244
174	0x3c2f925b	0.010716046
175	0xbe9b37d1	-0.30316022
176	0x3c91eba9	0.017812567
177	0xbd4ff9d1	-0.050775353
178	0x3db599e1	0.08867241
179	0x3de6aef4	0.112638384
180	0xbe283e0e	-0.16429922
181	0x3dc86726	0.09785299
182	0x3da7d6b3	0.081952475
183	0xbdbb928e	-0.091588125
184	0x3dc791be	0.09744595
185	0xbdf4c45f	-0.11951517
186	0x3d7f6801	0.062355045
187	0xbe328cb1	-0.17436482
188	0x3dacdd8c	0.08440694
189	0x3cbbcd4f	0.022925047
190	0xbd490133	-0.04907341
191	0x3df1fe15	0.118160404
192	0x3dd63401	0.10459138
193	0xbe4918f5	-0.19638427
194	0x3ca5f5f6	0.020258885
195	0x3e080540	0.13283253
196	0xbce559e6	-0.027996968
197	0x3e24e59c	0.16103214
198	0xbcefaf71	-0.029258462
199	0x3b45e896	0.0030198446
200	0xbd76d979	-0.06026599
201	0x3b658b8d	0.0035025806
202	0x3e2bb821	0.16769458
203	0x3c80fae9	0.015744643
204	0x3dcca37b	0.09992119
205	0x3da31fb0	0.07965028
206	0xbe148435	-0.14503558
207	0x3e0e39bb	0.1388921
208	0xbd2aa06d	-0.0416569
209	0x3e124778	0.14285076
210	0x3c178072	0.009246932
211	0xbecfbaa4	-0.40572083
212	0xbb97cd76	-0.004632647
213	0x3cab5b65	0.020917604
214	0x3d32dfb4	0.04367037
215	0xbccb0d94	-0.024786748
216	0xbdc0a8b4	-0.094071776
217	0x3e0bf738	0.13668525
218	0xbe4499e1	-0.19199325
219	0xbc991b00	-0.018689632
220	0xbd65e6ca	-0.0561283
221	0x3e033d24	0.12816292
222	0x3debba4b	0.11510142
223	0x3da08495	0.07837788
224	0x3d42d55b	0.047566753
225	0xbc80a8af	-0.015705435
226	0x3c622384	0.013802413
227	0xbd8574a1	-0.06516386
228	0x3e0a3ddd	0.13500161
229	0x3e071653	0.1319211
230	0x3d270d00	0.040783882
231	0x3db68763	0.08912542
232	0x3e10f079	0.14154233
233	0x3e131063	0.1436172
234	0xbcc9883f	-0.0246011
235	0x3cc94f27	0.024573876
236	0x3d802291	0.06256593
237	0xb8004776	-3.058413e-05
238	0xbe0e5f6a	-0.13903585
239	0x3d5afd12	0.053464003
240	0xba3dfc1d	-0.00072473456
241	0xbe469e46	-0.19396314
242	0x3daa3258	0.083103836
243	0x3da1e24c	0.07904491
244	0x3da06ea8	0.07833606
245	0x3da99ccc	0.0828186
246	0xbca15bf2	-0.019697163
247	0xbdda9df1	-0.10674656
248	0x3b7aa21e	0.0038243602
249	0x3cfe8bc5	0.031072507
250	0xbd8d3342	-0.06894542
251	0x3d99c20a	0.07507713
252	0xbd27a6f3	-0.0409307
253	0x3b803424	0.0039124656
254	0x3d1a1508	0.037617713
255	0xbbf841ad	-0.0075761885

local_map_cnn.4.bias f4 [32]
0	0x3d83649b	0.06415673
1	0xbc61c207	-0.01377917
2	0xbe0b2a7a	-0.13590422
3	0xbe8fb52f	-0.2806792
4	0x3c06aea1	0.008220346
5	0xbd012bfa	-0.03153608
6	0xbbeff1d8	-0.007322531
7	0xbddaab8c	-0.10677251
8	0x3dedf3ff	0.11618804
9	0x3d563d22	0.052304395
10	0x3dc90244	0.09814885
11	0xbdbbb9b2	-0.09166278
12	0x3dd737fc	0.10508725
13	0x3e11dc06	0.14244089
14	0xbe10ab26	-0.14127788
15	0x3e3a1abc	0.18174261
16	0xbe2836d5	-0.16427167
17	0x3da342c8	0.07971722
18	0x3dcf9275	0.10135356
19	0xbdd5dc43	-0.10442402
20	0xbde2ec04	-0.11080173
21	0xbc204237	-0.009781412
22	0x3cfcd1fc	0.030861847
23	0xbd0667ab	-0.03281371
24	0xbd72c70d	-0.05927186
25	0x3dbfbab8	0.09361786
26	0xbde95d6f	-0.11394774
27	0x3bda971b	0.006670845
28	0x3cd4d399	0.025979804
29	0x3daa3bf6	0.08312218
30	0x3c3deb17	0.011591694
31	0x3ccaee11	0.024771722

local_map_fc.weight f4 [64, 512]
0	0xbde698c1	-0.11259604
1	0xbe04a937	-0.12955175
2	0xbe4f36b2	-0.20235708
3	0xbe35d74e	-0.17757913
4	0xbcf6d2e9	-0.030129867
5	0xbde2f0ed	-0.11081109
6	0xbdb5a911	-0.088701375
7	0xbd2169b0	-0.039407432
8	0xbc772cb7	-0.015086344
9	0xbca52a1c	-0.02016168
10	0xbd6ebe35	-0.058286864
11	0x3cbf67dc	0.023364954
12	0x3da34566	0.07972221
13	0xbab4223b	-0.0013743112
14	0x3ce21a05	0.027600298
15	0xbe136093	-0.14392309
16	0xbd4d3902	-0.050103195
17	0xbd107187	-0.035264518
18	0xbd0ce1c1	-0.034394983
19	0xbbc0e0e3	-0.0058861836
20	0xbd84a42c	-0.06476626
21	0xbd887e30	-0.06664693
22	0xbd6dc2d0	-0.058047116
23	0xbd40d81c	-0.047081098
24	0xbcbdf15e	-0.023186382
25	0x37502833	1.2407126e-05
26	0xbc36242b	-0.011117022
27	0xbd2218d9	-0.039574478
28	0xbd22ec43	-0.039776098
29	0x3d21230c	0.039340064
30	0x3d1b8909	0.037972484
31	0x3c86104b	0.016365191
32	0xbdf85140	-0.12124872
33	0x3d529886	0.05141499
34	0xbca40068	-0.020019725
35	0x3ca682cb	0.020326039
36	0xbe9c6666	-0.30546874
37	0xbd989025	-0.074493684
38	0x3cb195fa	0.02167796
39	0xbdf2143d	-0.118202664
40	0x3d0a8f79	0.033828232
41	0xbe68be34	-0.22728807
42	0x3b32bd25	0.0027273383
43	0xbdab0fb4	-0.083526045
44	0x3e0486cd	0.12942047
45	0x3c57902a	0.01315693
46	0x3c7a2d18	0.01526954
47	0x3d42df5b	0.04757629
48	0x3d17f33e	0.03709721
49	0xbd227669	-0.039663706
50	0xbaf2712d	-0.0018496864
51	0x3d2b9277	0.041887727
52	0x3cd1a18d	0.025589729
53	0x3d141d0e	0.03616052
54	0x3d92783f	0.07151841
55	0xbd895178	-0.06704992
56	0x3c2f7d2b	0.010710995
57	0x3ddbdf03	0.107358955
58	0x3b66ff22	0.0035247286
59	0x3cdaf6ec	0.02672907
60	0x3d8b297b	0.06795021
61	0xbd85e159	-0.06537122
62	0xbd3da395	-0.046298582
63	0x3b0bba6f	0.002132084
64	0xbe02554e	-0.12727854
65	0xbe3c0c47	-0.18364058
66	0xbba1166f	-0.0049160044
67	0xbdec92d7	-0.11551445
68	0xbdc86ef0	-0.09786785
69	0xbda58b24	-0.080831796
70	0xbad4b9dd	-0.0016229708
71	0x3c53908e	0.0129128825
72	0x3dae8e7a	0.08523269
73	0xbd625834	-0.0552599
74	0xbce429ee	-0.027852025
75	0xbe587e34	-0.21141893
76	0x3c604fe8	0.013690926
77	0x3cbef912	0.023312125
78	0xbd8c989a	-0.06865044
79	0x3d7dd48b	0.061970275
80	0xbc849b37	-0.016187293
81	0xbc1cd535	-0.009572317
82	0xbe21129d	-0.15729757
83	0xbe052dd4	-0.13005763
84	0xbd3e94a3	-0.04652847
85	0xbda470a2	-0.080292955
86	0xbd20554a	-0.039143838
87	0x3e0b9fdd	0.13635202
88	0xbd4918dd	-0.049095977
89	0x3e4d5241	0.20050909
90	0xbdb529c1	-0.088458546
91	0x3dab8080	0.08374119
92	0xbd19d7e8	-0.03755942
93	0xbd16b0de	-0.036789767
94	0xbd5772e9	-0.05259982
95	0x3cb4c21d	0.022065217
96	0xbde248b2	-0.11049022
97	0x3d922276	0.07135479
98	0xbd039968	-0.03212872
99	0xbd89a3e4	-0.06720713
100	0xbdebf6c9	-0.1152168
101	0x3c9fe4a0	0.019518197
102	0xbd7ecbb7	-0.062205996
103	0x3c7aa1f2	0.0152974
104	0xbb8cf119	-0.004301202
105	0x3e0a6bd7	0.135177
106	0xbd9250f0	-0.07144344
107	0xbdaf8437	-0.0857014
108	0x3d537a8d	0.051630545
109	0x3c666aae	0.01406352
110	0x3cdd60b7	0.027023656
111	0x3be26a05	0.006909611
112	0xbcc2d709	-0.023784177
113	0xba4c4532	-0.00077922933
114	0x3c24b86e	0.010053737
115	0xbd484d0e	-0.04890161
116	0xbdc10f00	-0.09426689
117	0xbdc2c574	-0.095103174
118	0xbd77060e	-0.06030851
119	0x3cfd4faa	0.030921776
120	0x3bbe708c	0.0058117565
121	0xbe55e910	-0.20889688
122	0xbe1c7558	-0.15279138
123	0xbd948238	-0.072514
124	0xbb619549	-0.0034421256
125	0xbc866219	-0.016404198
126	0x3be5d130	0.0070134625
127	0x3cdbfa85	0.026852855
128	0xbdcf5873	-0.10124292
129	0xbe00ca5a	-0.12577191
130	0xbda303bf	-0.07959699
131	0xbe12ae54	-0.14324313
132	0xbe2d6479	-0.16932859
133	0xbdb4cf6b	-0.08828624
134	0xbe4776b2	-0.19478872
135	0x3cded525	0.027201245
136	0xbdaf6518	-0.08564204
137	0x3c84420e	0.016144779
138	0xbe52dfc6	-0.20593175
139	0xbcb2227d	-0.02174496
140	0x3d947c1d	0.07250235
141	0xbd07ffde	-0.033203
142	0x3c942516	0.01808409
143	0xbd9744e5	-0.073861875
144	0xbe3f24cd	-0.18666382
145	0x3c092c24	0.00837234
146	0xbe660759	-0.2246374
147	0xbe84a429	-0.25906494
148	0x3cda0fec	0.02661892
149	0xbd2357f2	-0.039878793
150	0xbe194f92	-0.1497176
151	0xbe3f0977	-0.18655954
152	0x3cd14824	0.025547095
153	0xbcb2bbc7	-0.021818055
154	0xbc04ce5e	-0.008105842
155	0xbe0a4426	-0.13502559
156	0xbe20af37	-0.15691839
157	0xbe14e9f9	-0.14542378
158	0x3d1c705d	0.038193095
159	0xbd5e0ad1	-0.054209534
160	0xbde09df4	-0.10967627
161	0xbe0f074d	-0.13967629
162	0x3d5607c8	0.052253515
163	0xbc2214e5	-0.009892677
164	0xbe3425fa	-0.17592612
165	0xbd2af8c8	-0.041741163
166	0xbd7d2129	-0.061799202
167	0xbd96559a	-0.07340546
168	0xbd04699c	-0.03232728
169	0xbdef9682	-0.11698629
170	0x3afc5000	0.0019249916
171	0xbd603146	-0.05473449
172	0xbdf6f721	-0.12058855
173	0xbe30f76e	-0.17281887
174	0xbcac7a6f	-0.021054475
175	0x3bf67dca	0.0075223194
176	0x3c3d048f	0.011536731
177	0xbcfccdfc	-0.03085994
178	0xbd8f414a	-0.06994875
179	0x3ca92074	0.020645358
180	0xbd00c5eb	-0.03143875
181	0xbdbcb78a	-0.09214695
182	0xbd34d13d	-0.044144858
183	0xbc7c92e1	-0.015415878
184	0xbdee010b	-0.11621293
185	0xbe27092f	-0.16312097
186	0xbdb8afd2	-0.0901791
187	0xbbacc07d	-0.00527197
188	0x3d340fe3	0.043960463
189	0x3d15bc32	0.03655643
190	0x3cb41f20	0.021987498
191	0x3d8c89f9	0.06862254
192	0xbdc728f6	-0.097246096
193	0xbe00a663	-0.12563471
194	0xbe6f887d	-0.2339191
195	0xbe8649f8	-0.2622831
196	0xbd6a44ae	-0.057194404
197	0xbd8d3aae	-0.06895958
198	0xbd7375f4	-0.05943866
199	0xbe500147	-0.20312987
200	0x3cbf3589	0.023340957
201	0x3d1bd32e	0.038043194
202	0x3d1c79dc	0.03820215
203	0xbd96cc0a	-0.07363136
204	0x3dd6deb0	0.10491693
205	0x3de5761e	0.1120417
206	0xbd159f7f	-0.03652906
207	0x3ca5c9de	0.02023786
208	0xbda1955a	-0.07889815
209	0xbe38507f	-0.17999457
210	0xbd0ea535	-0.034825522
211	0x3bbd88d8	0.0057841353
212	0xbd605c98	-0.054775804
213	0xbe33e16b	-0.17566459
214	0xbcd72ddd	-0.026266987
215	0xbd0ec285	-0.034853477
216	0x3cf2feef	0.029662577
217	0xbd1b1c3e	-0.03786873
218	0xbcd0c220	-0.025483191
219	0x3d47e5ae	0.048803024
220	0xbcc9944f	-0.024606852
221	0xbdb78fc9	-0.08962972
222	0x3c93b2b1	0.018029543
223	0xbcf77e8c	-0.03021171
224	0xbd030950	-0.031991303
225	0x3c730943	0.014833751
226	0xbc99c8e3	-0.018772548
227	0x3d93a059	0.07208318
228	0x3de8135f	0.1133182
229	0xbc7f104b	-0.015567849
230	0x3d97998a	0.07402332
231	0x3d31f829	0.043449555
232	0x3ad69c07	0.0016373404
233	0xbda5a4d6	-0.080880806
234	0x3d588d28	0.052868992
235	0x3c78628c	0.015160214
236	0x3c7f8ecc	0.01559801
237	0xbd81826e	-0.063237056
238	0x3d4b00f7	0.049561467
239	0xbd93c253	-0.07214799
240	0xbe0a6e3d	-0.13518615
241	0xbd273ea0	-0.04083121
242	0xbe251505	-0.161213
243	0xba34b262	-0.0006893036
244	0xbe0657b8	-0.131194
245	0xbd84f728	-0.06492454
246	0xbe48c9c5	-0.19608219
247	0xbd8065f1	-0.06269444
248	0xbe0287f4	-0.12747175
249	0xbe22f640	-0.1591425
250	0xbd93332d	-0.071874954
251	0xbc29fc82	-0.010375144
252	0xbd2a339d	-0.04155313
253	0xbdbed38a	-0.093176916
254	0xbcbc6f97	-0.023002429
255	0xbe13b463	-0.14424281

local_map_fc.bias f4 [64]
0	0xbd99bd5b	-0.0750682
1	0xbdb41ca2	-0.08794524
2	0x3cc524a1	0.024065318
3	0xbd82015a	-0.06347914
4	0xbd758e28	-0.059950024
5	0xbdb453d9	-0.08805055
6	0xbdaaa296	-0.08331792
7	0x3daeb562	0.0853069
8	0xbc9be641	-0.019030692
9	0xbd6c0f56	-0.057631813
10	0xbd4f5799	-0.05062065
11	0xbd1534cc	-0.036427304
12	0x3def85a6	0.11695413
13	0xbcb11a75	-0.021619061
14	0xbd024296	-0.031801783
15	0x3db376fb	0.08762928
16	0x3d15172a	0.036399044
17	0xbad39baa	-0.0016144414
18	0xbd0e71cf	-0.034776505
19	0x3c5751aa	0.013142029
20	0xbdc654ea	-0.09684165
21	0xbdfdd243	-0.1239362
22	0x3d0f7c6d	0.03503077
23	0x3d8be2ab	0.06830343
24	0xbd2493d6	-0.04018005
25	0xbd6dabca	-0.05802516
26	0x3d43b5f2	0.04778094
27	0xbd49f55c	-0.04930626
28	0x3d493a88	0.049128085
29	0x3d6f15cb	0.058370393
30	0xbb502f86	-0.0031766607
31	0xbdd49125	-0.103792466
32	0x3ccd51af	0.025063364
33	0x3bd2ddb1	0.006435119
34	0xbd01668a	-0.03159193
35	0xbd17d5bc	-0.037069067
36	0xbd5302f4	-0.05151649
37	0x3dede706	0.1161633
38	0x3e1151e1	0.1419139
39	0x3b8aa4c8	0.0042310692
40	0xbd9c98f4	-0.07646361
41	0xbd5ccca4	-0.053906098
42	0x3c9f605b	0.019455126
43	0x3dce36fc	0.10069081
44	0x3db463e1	0.08808113
45	0x3dbfe45c	0.09369728
46	0xbd5ae804	-0.053443924
47	0xbbe4fa6c	-0.0069878604
48	0xbd5bac1a	-0.053630926
49	0xbc9f5fd2	-0.01945487
50	0xbd89d1f4	-0.067294985
51	0xbd71008e	-0.05883842
52	0x3d0f29bf	0.03495192
53	0xbd82425f	-0.063603155
54	0xbd52052c	-0.051274464
55	0x3d9043b0	0.0704416
56	0xbcbf30c9	-0.023338692
57	0xbe40110e	-0.18756506
58	0xbb3c215f	-0.0028706414
59	0xbd578900	-0.052620888
60	0xbd08955c	-0.033345565
61	0x3da5121e	0.08060096
62	0x3d881b3c	0.066458195
63	0x3d8e2a3f	0.069416516

self_entity_fc1.weight f4 [32, 26]
0	0x3e83cf2a	0.2574399
1	0x3ce4f38e	0.027948167
2	0x3b7e6967	0.003882015
3	0x3cdb990c	0.026806377
4	0xbd0bef22	-0.0341636
5	0x3e2bc894	0.16775733
6	0xbcb6a1ed	-0.02229401
7	0xbeec9ee8	-0.46214986
8	0xbcc90aea	-0.024541337
9	0xbddd1278	-0.10794538
10	0xbe054dc0	-0.1301794
11	0xbef998a1	-0.4874926
12	0x3e2da429	0.16957153
13	0xbe2bd0eb	-0.16778915
14	0x3e55f263	0.20893244
15	0x3e149f69	0.14513935
16	0xbe6b20b2	-0.22961691
17	0xbdab9986	-0.08378892
18	0x3d9fc5cf	0.07801401
19	0x3ccfd5ef	0.025370566
20	0xbd968aea	-0.073507145
21	0x3ea25e00	0.3171234
22	0xbe0d6ea6	-0.1381174
23	0x3e3d19a9	0.1846682
24	0xbb25c91a	-0.0025296868
25	0x3d567201	0.052354816
26	0xbeb332e7	-0.34999773
27	0xbdc30d74	-0.0952405
28	0x3c95b30e	0.018273856
29	0x3e37f4e9	0.1796452
30	0x3e2b2bfe	0.16716
31	0xbe0b09fe	-0.1357803
32	0x3dc4047d	0.095711686
33	0xbeaaf8a8	-0.33392835
34	0xbd9c467d	-0.07630632
35	0xbd8faba9	-0.070151635
36	0xbdf7426b	-0.12073215
37	0x3ccfc2c0	0.025361419
38	0x3cd5dd77	0.02610658
39	0x3d813376	0.063086435
40	0x3e4eb137	0.2018479
41	0x3e036a6f	0.1283357
42	0x3df2c983	0.118548416
43	0x3c0f92a3	0.008762988
44	0xbd695a73	-0.056971025
45	0xbb78980a	-0.003793242
46	0xbd8eb228	-0.06967574
47	0x3da94129	0.082643814
48	0xbd3bb88b	-0.04583029
49	0xbc852ba7	-0.016256167
50	0x3db42b73	0.0879735
51	0x3e41221e	0.18860671
52	0xbc85ac2a	-0.016317446
53	0xbd8222b7	-0.063542776
54	0x3d932e81	0.07186604
55	0xbe017630	-0.12642741
56	0x3def8c95	0.11696736
57	0xbee39cda	-0.44455606
58	0xbe8022fd	-0.25026694
59	0x3da4cf23	0.08047321
60	0x3e0102d9	0.12598743
61	0xbd37d225	-0.044878144
62	0xbed4bf9a	-0.4155243
63	0xbd45f237	-0.048326697
64	0xbda0c7e1	-0.07850624
65	0x3daa254b	0.08307894
66	0x3d83a183	0.0642729
67	0x3e60c5e7	0.21950494
68	0x3cb266bc	0.021777503
69	0x3dbb3b86	0.091422126
70	0x3ac3b318	0.0014930693
71	0x3e145cff	0.144886
72	0x3d926f8a	0.07150181
73	0x3ddad79e	0.10685657
74	0x3e381d9c	0.17980045
75	0xbddd610a	-0.10809524
76	0xbd23c6bd	-0.039984453
77	0xbe08bfb0	-0.13354373
78	0xbdd0df97	-0.101988964
79	0xbd0a7ed4	-0.03381236
80	0x3dfb776f	0.122786395
81	0xbd9559f7	-0.0729255
82	0xbdada6fc	-0.08479115
83	0x3dd72962	0.1050594
84	0x3dd11781	0.10209561
85	0xbcfdb5c4	-0.030970462
86	0x3f41e033	0.75732726
87	0x3e93a477	0.28836414
88	0x3dbe7e12	0.0930139
89	0xbd972d72	-0.07381715
90	0x3d042124	0.032258168
91	0x3e844117	0.2583091
92	0xbbdcff39	-0.006744292
93	0xbe1b4343	-0.15162377
94	0x3e4f7d34	0.20262605
95	0x3e6ac8b2	0.22928122
96	0xbddceecc	-0.107877344
97	0xbd268193	-0.040650915
98	0x3e8f3e81	0.27977374
99	0xbd72a3c8	-0.059238225
100	0xbe1d0039	-0.15332116
101	0x3d1c78ac	0.03820102
102	0xbde15035	-0.110016264
103	0x3e08e625	0.13369043
104	0xbe2f5b8b	-0.17124765
105	0x3d1a250b	0.037632983
106	0xbc46dacd	-0.012137127
107	0xbe1bc081	-0.15210153
108	0x3e0a7b72	0.13523653
109	0x3d5f2bbb	0.054485064
110	0x3c5db4ba	0.013531858
111	0xbe40a43f	-0.18812655
112	0x3d4ea676	0.05045172
113	0x3e1146a4	0.14187104
114	0x3ed7ca1e	0.4214639
115	0x3e67be78	0.22631252
116	0x3e2212bd	0.1582746
117	0x3dda9889	0.10673625
118	0xbe360b4e	-0.1777775
119	0x3d7828bc	0.060585722
120	0x3e632308	0.22181332
121	0x3ec0de6e	0.376697
122	0xbdf503b5	-0.11963598
123	0xbd2f2c6a	-0.042766966
124	0x3d0d9aa5	0.03457131
125	0xbda52e4e	-0.080654725
126	0xbd726288	-0.059175998
127	0xbcbeb324	-0.02327878
128	0xbde89f53	-0.11358514
129	0xbdd37a88	-0.10326105
130	0x3d9a4d50	0.075342774
131	0x3df94767	0.12171822
132	0x3e524608	0.20534527
133	0x3d6a1b6e	0.057155065
134	0x3d3f0024	0.046630993
135	0xbda9a5af	-0.08283555
136	0x3e0a0d9f	0.13481759
137	0xbee929dd	-0.45539752
138	0x3e56d12d	0.20978232
139	0x3b8098d2	0.0039244676
140	0x3d327af4	0.04357429
141	0x3ea67dc6	0.32517833
142	0x3e23653f	0.15956591
143	0x3e02c800	0.12771606
144	0x3c9ab750	0.018886238
145	0xbe595b0c	-0.21226138
146	0x3d957685	0.072979964
147	0xbc86a123	-0.016434258
148	0xbe2bbd6b	-0.16771476
149	0xbe4c6c37	-0.19963156
150	0xbe364867	-0.17801057
151	0xbe1aeaef	-0.15128683
152	0xbe01c29e	-0.12671897
153	0xbe3ab7bc	-0.18234152
154	0x3d7b0a9f	0.061289426
155	0x3dc5f85e	0.09666513
156	0xbd5cc88d	-0.053902198
157	0xbe0b90a5	-0.13629396
158	0xbc250f72	-0.010074483
159	0x3e192113	0.14954023
160	0x3dcd04ce	0.10010682
161	0xbd36b2e8	-0.044604212
162	0xbd835c05	-0.06414036
163	0xbeaf5604	-0.34245312
164	0x3db29571	0.0871991
165	0xbd1cf94b	-0.03832368
166	0xbe9dd52f	-0.3082671
167	0x3d87bf7b	0.06628319
168	0xbf4fa3f5	-0.81109554
169	0x3da5676d	0.080763675
170	0x3dc42e69	0.095791645
171	0x3d5ec7aa	0.054389633
172	0xbe95feaf	-0.2929587
173	0xbdf7e436	-0.12104075
174	0x3d7bd886	0.06148579
175	0x3cd08258	0.025452778
176	0xbc82f40b	-0.01598551
177	0x3e4d1ac0	0.20029736
178	0x3e034e48	0.1282283
179	0xbdbc5e49	-0.09197671
180	0x3bf59557	0.0074946093
181	0xbe00afce	-0.12567064
182	0x3e4012e9	0.18757214
183	0x3b8336dd	0.004004343
184	0xbb2278e5	-0.0024791297
185	0x3d128137	0.03576776
186	0xbd1190dc	-0.03553854
187	0xbe0d64cd	-0.13807984
188	0x3dc7d731	0.097578414
189	0x3b8473fd	0.004042147
190	0xbf11f0b9	-0.5700794
191	0x3e1a4185	0.15064056
192	0xbe191cdc	-0.14952415
193	0x3e78794f	0.24265026
194	0x3dbbbaae	0.09166466
195	0x3de81261	0.113316305
196	0x3dc303ee	0.09522234
197	0x3e7d14b2	0.24714926
198	0x3dda0eb5	0.106473364
199	0x3e55e5c4	0.2088843
200	0xbd35bf1b	-0.044371706
201	0x3ddf40f7	0.10901063
202	0x3d37c692	0.044867106
203	0x3e4091f8	0.18805683
204	0x3bd4df61	0.0064963554
205	0xbd94216f	-0.072329395
206	0x3dba05be	0.090831265
207	0xbe0fa600	-0.14028168
208	0x3ba0a0d1	0.0049019833
209	0xbde4e5d1	-0.111766465
210	0x3c88bde3	0.016692108
211	0x3da90fdd	0.08254979
212	0xbd132291	-0.035921637
213	0xbdc0c8d5	-0.09413306
214	0x3d07d52d	0.033162285
215	0x3ee0b45e	0.4388761
216	0x3d6392f8	0.055560082
217	0x3d76234d	0.06009226
218	0xbf316ff9	-0.6931148
219	0xbdd901b5	-0.10596029
220	0xbe0582aa	-0.13038126
221	0x3dd23a2a	0.10265
222	0x3e2aadd3	0.16667871
223	0x3e00c61b	0.12575571
224	0x3e113a68	0.14182436
225	0xbdfbf908	-0.12303358
226	0xbd2a5eaf	-0.041594204
227	0xbd97f51b	-0.07419797
228	0xbd89e2e2	-0.067327276
229	0x3e1ab1e0	0.15106916
230	0x3dc59a67	0.096485905
231	0xbd6dce39	-0.058057997
232	0xbe0aedf0	-0.13567328
233	0xbe08d058	-0.13360727
234	0xbe3fbfaf	-0.18725465
235	0xbe56b900	-0.2096901
236	0xbd3d3721	-0.046195153
237	0x3db50c15	0.08840195
238	0xbd91c949	-0.0711847
239	0xbebc2206	-0.36744708
240	0xbed71ad0	-0.42012644
241	0x3dfbc2b0	0.12292993
242	0xbe15d3da	-0.14631596
243	0xbd249c00	-0.040187836
244	0x3e135379	0.14387311
245	0x3e2a03bd	0.16602989
246	0x3d87775e	0.06614564
247	0xbda1a0ca	-0.07891996
248	0x3da47304	0.0802975
249	0x3de1e928	0.11030799
250	0xbd5da843	-0.054115545
251	0xbdef1939	-0.11674733
252	0x3d6f17fc	0.058372483
253	0xbd9d7097	-0.076874904
254	0x3a8f1455	0.0010916094
255	0x3e89638a	0.26833755

self_entity_fc1.bias f4 [32]
0	0xbc874748	-0.016513482
1	0x3e888a0e	0.26667827
2	0x3d0d34d9	0.034474228
3	0xbe65f653	-0.22457246
4	0xbd78d882	-0.060753353
5	0xbded0700	-0.11573601
6	0x3e6d1d41	0.2315569
7	0x3dfee892	0.12446703
8	0x3e55440d	0.2082674
9	0x3e11e954	0.14249164
10	0x3d99c218	0.075077236
11	0x3e5cf83f	0.21579073
12	0x3cadccaf	0.021215765
13	0xbc121cec	-0.008918028
14	0xbdde25f4	-0.10847083
15	0xbd1aba38	-0.03777525
16	0x3e13f479	0.14448728
17	0x3e165a4e	0.14682886
18	0x3e679f30	0.22619319
19	0x3d580705	0.05274107
20	0x3e675cc2	0.22593978
21	0x3dd66dac	0.10470137
22	0x3e77fb98	0.24217069
23	0xbd8c65f6	-0.06855385
24	0x3e792363	0.24329905
25	0x3dd683d2	0.104743615
26	0xbe5e3b26	-0.21702251
27	0x3d368fd1	0.044570748
28	0x3ebff7c5	0.3749372
29	0x3f0132b7	0.5046801
30	0xbd6b23d1	-0.057407204
31	0x3d3da976	0.04630419

self_entity_fc2.weight f4 [32, 32]
0	0xbda87e83	-0.08227255
1	0x3e307909	0.17233671
2	0x3ee8d1c1	0.4547253
3	0xbed41508	-0.41422296
4	0x3e4b6012	0.19860867
5	0x3dbb30e1	0.09140182
6	0xbe3071f5	-0.17230971
7	0x3e542785	0.207182
8	0xbed39e67	-0.4133179
9	0xbd719c25	-0.0589868
10	0x3d9e641c	0.07733938
11	0xbdedc3eb	-0.11609634
12	0xbd9cce71	-0.07656563
13	0x3e180b74	0.14848119
14	0xbeb465eb	-0.35234007
15	0x3d920760	0.07130313
16	0x3d833007	0.06405645
17	0x3ddaec21	0.10689569
18	0x3dba8b66	0.091086194
19	0xbc266b7a	-0.01015746
20	0x3be3b8bc	0.0069495123
21	0x3b02c5aa	0.0019954243
22	0xbd88e8ec	-0.06685051
23	0x3e8106f6	0.25200623
24	0x3c0b0461	0.008484931
25	0x3dd67f93	0.104735516
26	0xbec1005a	-0.3769558
27	0x3e6178ec	0.22018784
28	0x3f069926	0.52577436
29	0x3f07c358	0.53032446
30	0x3e57779d	0.21041723
31	0xbd32067e	-0.043463223
32	0x3e87b4e6	0.26505202
33	0x3dc97fd4	0.098388344
34	0xbdba7d03	-0.09105875
35	0x3da026db	0.07819911
36	0xbf06a4c7	-0.5259518
37	0xbde0d703	-0.1097851
38	0x3f3c7e07	0.736298
39	0xbde53f23	-0.11193683
40	0x3eee56ea	0.46550685
41	0xb6957b3b	-4.454892e-06
42	0x3e93f09c	0.28894508
43	0x3f0b124f	0.5432481
44	0x3c9cd399	0.019143866
45	0xbf209ff7	-0.62744087
46	0x3e010495	0.12599404
47	0x3e221562	0.1582847
48	0x3e5e4bc3	0.21708588
49	0xbd261d8b	-0.040555518
50	0x3d2401e1	0.040040854
51	0xbe2be109	-0.16785063
52	0x3d741bbe	0.05959677
53	0x3dd8435a	0.10559721
54	0xbe0dcfba	-0.13848773
55	0xbe11fd3e	-0.1425676
56	0xbe7428b0	-0.23843646
57	0x3d9d355c	0.07676193
58	0xbdd355b7	-0.10319083
59	0xbdec0bb4	-0.1152567
60	0xbf09c826	-0.5382103
61	0xbf1528a0	-0.58265114
62	0xbe1a0066	-0.15039214
63	0xbdc4b935	-0.09605638
64	0xbda98611	-0.08277524
65	0xbdaf642b	-0.085640274
66	0xbef8ae62	-0.48570544
67	0xbe9af721	-0.3026667
68	0x3e5d010c	0.2158243
69	0xbe1a5195	-0.15070184
70	0xbd8370bb	-0.06417986
71	0x3e0e0392	0.1386855
72	0xbf80a478	-1.0050192
73	0xbd144e9c	-0.03620778
74	0x3db7e3ea	0.08979018
75	0xbca04dc1	-0.019568326
76	0xbdbba612	-0.09162535
77	0xbf27e13d	-0.6557806
78	0xbeaac91f	-0.33356568
79	0x3da70284	0.08154777
80	0x3d3d7536	0.04625436
81	0x3da0729d	0.07834361
82	0x3e89209e	0.26782697
83	0xbe71de4e	-0.23619959
84	0x3cd00650	0.025393635
85	0x3d29c5f9	0.041448567
86	0x3db9c59b	0.090708934
87	0x3e563713	0.20919447
88	0x3dda34b3	0.10654583
89	0x3e3c7f72	0.18407992
90	0xbeda1ca3	-0.42599973
91	0xbd3d01fa	-0.046144463
92	0x3b84e681	0.0040557985
93	0xbdb5ad08	-0.08870894
94	0xbdc63d70	-0.09679687
95	0xbd38b2c5	-0.045092363
96	0x3d2a4be1	0.04157627
97	0xbe1e3467	-0.15449677
98	0xbebd153a	-0.36930257
99	0x3df2d55e	0.11857103
100	0x3e1d4b02	0.15360644
101	0x3e5b8543	0.21437554
102	0xbd57299b	-0.052529912
103	0xbed0fd93	-0.40818462
104	0xbede7666	-0.43449706
105	0xbe6f35dc	-0.2336039
106	0xbf11ed30	-0.57002544
107	0xbc1e701e	-0.0096702855
108	0x3e94b869	0.29046944
109	0xbf02bcf8	-0.51069593
110	0x3e9fa437	0.31179973
111	0x3e11e6ca	0.14248195
112	0x3d5b270b	0.05350403
113	0x3e48fbef	0.19627355
114	0xbed3b541	-0.41349223
115	0xbc8c5794	-0.017131604
116	0xbe17ca24	-0.14823204
117	0xbe5a3f84	-0.21313292
118	0xbe01df47	-0.1268283
119	0xbd615b44	-0.05501868
120	0xbacdeb0b	-0.0015710307
121	0xbd815162	-0.06314351
122	0x3e6e7619	0.23287238
123	0xbef47e76	-0.47752732
124	0x3e2969ac	0.16544217
125	0x3dde9af2	0.10869397
126	0xbda9b4ef	-0.082864635
127	0x3e3f395e	0.18674228
128	0x3eca5ee6	0.39525527
129	0x3e1c6e9e	0.15276572
130	0xbde440db	-0.11145183
131	0xbd138a97	-0.03602084
132	0xbebae09d	-0.3649949
133	0xbde81c20	-0.113334894
134	0x3e2d5003	0.16925053
135	0xbe1783f8	-0.14796436
136	0x3ee69a4d	0.45039597
137	0xbcf2821d	-0.029603058
138	0x3e70cd10	0.23515725
139	0x3f0fb857	0.56140655
140	0x3e0a7588	0.13521397
141	0xbf467ac2	-0.77531064
142	0xbd05ef94	-0.032699183
143	0x3e581cf1	0.2110479
144	0x3e626d95	0.22112115
145	0x3cdb03a5	0.026735136
146	0xbd430e84	-0.047621265
147	0x3d2c442e	0.04205721
148	0x3e92a16a	0.28638774
149	0x3dc5f268	0.09665376
150	0xbb765754	-0.0037588673
151	0x3e20ff2f	0.15722345
152	0xbeb6eb5e	-0.35726446
153	0x3da80009	0.08203132
154	0x3d34a12c	0.044099018
155	0x3d55980e	0.052146964
156	0xbebf57b9	-0.37371615
157	0xbef87aee	-0.48531288
158	0x3d2830ef	0.04106229
159	0xbc50f5db	-0.012753929
160	0x3e1c3c82	0.15257457
161	0x3e9cd50e	0.30631298
162	0x3eacf32c	0.33779275
163	0xbda5cd5b	-0.08095809
164	0x3e274fed	0.16339083
165	0xbd0a5ec7	-0.033781793
166	0x3de63669	0.11240847
167	0x3db53d3c	0.0884957
168	0x3f546707	0.8296971
169	0xbe3aa8a6	-0.18228397
170	0x3ea391ae	0.31947082
171	0x3e5a17be	0.2129812
172	0xbe73e51b	-0.23817866
173	0x3ea3a8c8	0.31964707
174	0x3e3d71f9	0.18500508
175	0x3e25f760	0.16207647
176	0x3e56c22a	0.20972505
177	0x3bfa3339	0.0076355007
178	0x3c902b18	0.017598674
179	0x3e2447b4	0.16042978
180	0x3dcbb4c5	0.099465884
181	0xbdaed56b	-0.085368
182	0x3dc716f8	0.09721178
183	0xbcb5c29a	-0.02218752
184	0x3e837026	0.256715
185	0xbe1640aa	-0.14673105
186	0xbe62d37a	-0.22150984
187	0x3dacfc78	0.08446592
188	0xbe8cd53d	-0.27506438
189	0xbee80a77	-0.45320484
190	0xbd59a479	-0.05313537
191	0xbe33b31e	-0.17548797
192	0xbd68c02f	-0.056823906
193	0x3e402165	0.18762739
194	0x3e1f1ed9	0.15539111
195	0xbeae0aac	-0.33992517
196	0x3daec88d	0.08534346
197	0x3d698530	0.057011783
198	0xbec11f39	-0.37719133
199	0x3cf6da71	0.030133458
200	0xbf86b3c4	-1.052361
201	0xbb61cee4	-0.0034455592
202	0x3e640a67	0.22269593
203	0xbdc71874	-0.09721461
204	0xbe4dfce0	-0.20115995
205	0xbf1e9a6e	-0.6195439
206	0xbd042230	-0.032259166
207	0xbdd2b3a6	-0.102881715
208	0x3df95b18	0.12175578
209	0x3e868c65	0.26278988
210	0x3df47da3	0.11938026
211	0x3d86262c	0.065502495
212	0x3e27fa88	0.16404164
213	0xbe0b59a9	-0.13608421
214	0x3e645e8a	0.22301689
215	0x3df12144	0.11773923
216	0x3ddf2098	0.10894889
217	0x3cb14eea	0.021644074
218	0xbefd078e	-0.49419826
219	0x3e8db34b	0.27675852
220	0xbdcb8e2c	-0.099392265
221	0xbdbe5822	-0.09294154
222	0xbdbecfbe	-0.093169674
223	0x3bcba09a	0.0062142136
224	0x3ee915a4	0.45524323
225	0xbb565885	-0.003270657
226	0x3dae17b3	0.08500614
227	0xbd89488b	-0.067032896
228	0xbd88bb9b	-0.06676408
229	0xbe38bc64	-0.18040615
230	0xbebeb3ec	-0.37246644
231	0x3d1b16b2	0.03786344
232	0x3ea59bdf	0.32345483
233	0x3d27a514	0.040928915
234	0x3dbb7437	0.091530256
235	0x3f04f646	0.51938283
236	0xbc9bdb78	-0.01902555
237	0xbf58cc35	-0.84686595
238	0x3cc599a0	0.024121106
239	0x3da69239	0.081333585
240	0x3d1a20bb	0.03762887
241	0xbda929e0	-0.0825994
242	0x3d7627d2	0.06009657
243	0x3d911395	0.07083813
244	0x3e125611	0.14290644
245	0xbdc1f19b	-0.09469911
246	0xbd3d369e	-0.046194665
247	0x3e8d451d	0.27591792
248	0xbe93a6f2	-0.28838307
249	0x3d8716c2	0.065961376
250	0xbd66216f	-0.05618423
251	0xbd0c0dba	-0.03419278
252	0xbed29400	-0.4112854
253	0xbec4abce	-0.38412327
254	0x3d794607	0.0608578
255	0x3d5c70b4	0.05381842

self_entity_fc2.bias f4 [32]
0	0x3dce75b6	0.10081045
1	0x3da8f76c	0.08250317
2	0x3c0909ed	0.008364183
3	0xbd91d80e	-0.07121287
4	0x3e3f2524	0.18666512
5	0xbd090ce5	-0.033459563
6	0xbd14192a	-0.03615681
7	0x3e86c5d4	0.26322806
8	0xbd75e701	-0.060034756
9	0xbe050de6	-0.12993583
10	0x3e266c2c	0.16252202
11	0x3ba11244	0.0049155075
12	0xbe1ce74b	-0.15322606
13	0x3e2c080c	0.16799945
14	0xbd4d9d2b	-0.050198715
15	0xbdf21a0a	-0.11821373
16	0xbdad0d80	-0.084498405
17	0xbe0abcde	-0.1354861
18	0xbd53394b	-0.05156831
19	0xbde490cc	-0.1116043
20	0x3e272b7e	0.16325185
21	0x3e124423	0.14283805
22	0x3cddb607	0.027064336
23	0xbe3be231	-0.18348004
24	0x3da8e931	0.08247603
25	0xbd33d8b7	-0.043907847
26	0xbd8ea0e7	-0.069642834
27	0xbe0954f8	-0.1341132
28	0x3dd00b34	0.10158387
29	0xbd6355d7	-0.055501785
30	0x3ddee31e	0.10883163
31	0x3e300cf3	0.1719244
