my-submission/checkpoints/model_941056.pt (torch, 352797 bytes, 23 tensors)

local_map_cnn.0.weight f4 [32, 24, 3, 3]
0	0xbd1d5c05	-0.038417835
1	0x3d00fbe1	0.03149021
2	0x3de3344f	0.110939614
3	0x3d9c83de	0.07642339
4	0xbc55bf67	-0.013046122
5	0x3dbb5d82	0.091486946
6	0xbd8c87af	-0.06861817
7	0xbdddbfd6	-0.108276054
8	0x3d1b1c9a	0.037869073
9	0x3d341c8e	0.043972544
10	0x3a04be89	0.00050637923
11	0xbda4a205	-0.08038715
12	0x3db5339f	0.088477366
13	0x3ce4f2ce	0.02794781
14	0x3e169e1b	0.1470875
15	0x3c6866e4	0.014184687
16	0xbccd0248	-0.025025502
17	0xbe6e7703	-0.23287587
18	0x3c3c2d66	0.011485433
19	0x3c960081	0.018310787
20	0x3dd7525e	0.10513757
21	0x3bb76838	0.0055971406
22	0xbe06991a	-0.13144341
23	0xbe8ff4f1	-0.28116563
24	0xbd1efc4f	-0.03881484
25	0xbc2fcaa3	-0.010729465
26	0x3d8817af	0.06645142
27	0xbc99258c	-0.018694662
28	0x3c9d03c5	0.019166837
29	0x3de988cc	0.11403045
30	0x3d3da257	0.046297397
31	0xbd85d031	-0.0653385
32	0xbe86114b	-0.26185068
33	0xbd3adc31	-0.045620147
34	0xbd660771	-0.05615944
35	0x3d3ff962	0.04686869
36	0x3a10611c	0.00055076345
37	0xbc6a2d0a	-0.014292965
38	0x3d958386	0.07300477
39	0xbcefb4c9	-0.02926101
40	0x3cbeafcd	0.023277188
41	0xbd32147e	-0.043476574
42	0xbd070f11	-0.032973353
43	0xbcdfedef	-0.027335135
44	0x3dcf2d06	0.101160094
45	0x3dd820e0	0.105531454
46	0x3da7e642	0.08198215
47	0xbe1c6bfd	-0.1527557
48	0x3d4b7985	0.049676437
49	0x3d6be22e	0.05758875
50	0x3e062d0d	0.13103123
51	0x3d7b0dbf	0.061292406
52	0x3cf850b7	0.030311925
53	0xbe3f5c3b	-0.18687527
54	0xbd9bd1fa	-0.07608409
55	0xbcd4dd71	-0.025984498
56	0xbcc4758f	-0.023981838
57	0xbdb3f990	-0.08787835
58	0xbe1bd4f7	-0.15217958
59	0xbe40ef30	-0.18841243
60	0xbe1b144f	-0.15144466
61	0xbd94c6c0	-0.07264471
62	0x3d6b44ce	0.057438664
63	0xbcec03ec	-0.028810464
64	0xbd049fed	-0.03237908
65	0x3aa99ad1	0.0012939816
66	0xbcc09062	-0.023506347
67	0xbe4b33ef	-0.1984403
68	0xbd191fae	-0.037383728
69	0xbdd0b830	-0.10191381
70	0xbd3afafd	-0.045649517
71	0xbd713396	-0.058887087
72	0x3cd832b6	0.026391368
73	0xbd2d00f9	-0.042237256
74	0x3db711fe	0.089389786
75	0xbdba39d6	-0.090930626
76	0xbe3be4df	-0.18349026
77	0xbdcef353	-0.10105004
78	0xbd1f8476	-0.038944684
79	0xbd58c9ca	-0.052926816
80	0x3bacc085	0.0052719736
81	0xbd18bca4	-0.037289277
82	0x3c3edacc	0.011648845
83	0x3b9f8227	0.0048678103
84	0xbd55a200	-0.05215645
85	0xbbe2cc05	-0.0069212937
86	0xbdbbbeb6	-0.091672346
87	0xbcb711dd	-0.022347385
88	0xbdd27de2	-0.102779165
89	0x3d23342e	0.039844684
90	0xbdf04cce	-0.11733399
91	0x3d358ff6	0.044326745
92	0xbcb5e990	-0.022206098
93	0xbb96e21a	-0.00460459
94	0xbdc94590	-0.09827721
95	0xbdffe4dc	-0.12494823
96	0xbd8d54d3	-0.069009446
97	0xbdc37074	-0.09542933
98	0x3c137954	0.009001095
99	0xbd7e3c8c	-0.06206946
100	0xbc4be77f	-0.01244533
101	0x3bcc9599	0.0062434194
102	0xbdabe129	-0.08392555
103	0xbd8af869	-0.06785662
104	0xbd65826c	-0.056032583
105	0x3d23973d	0.039939154
106	0xbd664982	-0.056222446
107	0xbd7ee52c	-0.062230274
108	0xbdae2509	-0.08503158
109	0x3be7e812	0.0070772255
110	0x3daf1419	0.08548755
111	0x3c92f2e1	0.01793808
112	0xbd894662	-0.067028776
113	0xbe62a000	-0.22131348
114	0xbd970dc9	-0.07375676
115	0xbdc159d5	-0.09440962
116	0x3c5e599e	0.013571171
117	0xbc093f01	-0.008376838
118	0x3c95ae6f	0.018271653
119	0xbc21c324	-0.009873185
120	0x3ce6bcad	0.02816614
121	0xbd48097b	-0.048837166
122	0xbdf74b7e	-0.12074946
123	0xbd72af26	-0.059249066
124	0xbcea9099	-0.028633403
125	0x3d9f38a8	0.07774478
126	0xbda1b46f	-0.07895743
127	0xbd83f48c	-0.06443128
128	0xbd3b2622	-0.045690663
129	0x3c92a38b	0.017900249
130	0xbd73dcd7	-0.05953678
131	0x3dd3b51f	0.103372805
132	0xbd33d064	-0.04389991
133	0xbd8b1ca4	-0.06792572
134	0xbe1ee0ae	-0.15515396
135	0xbcee2a7f	-0.029072998
136	0x3c640b51	0.013918714
137	0x3d9d55c7	0.07682376
138	0x3d0d8e0a	0.034559287
139	0x3c2e4456	0.01063641
140	0xbd04ea48	-0.03244999
141	0xbd57a4eb	-0.052647512
142	0x3d5980f8	0.05310151
143	0x3e4ef20d	0.20209523
144	0x3d433c00	0.047664642
145	0x3d891d36	0.06695025
146	0x3dc5c031	0.09655798
147	0x3d126317	0.03573903
148	0xbda1fbe5	-0.07909373
149	0xbedb4757	-0.42827865
150	0xbaefaac5	-0.0018285146
151	0xbd448c70	-0.047985494
152	0x3e277ff8	0.1635741
153	0xbd611a74	-0.05495687
154	0xbdb6c84d	-0.08924923
155	0xbd902ba1	-0.070395716
156	0xbd1f1e75	-0.038847405
157	0xbd5703ac	-0.052493736
158	0xbbffa0f6	-0.0078011705
159	0x3cf3735b	0.029718092
160	0xbd6b2421	-0.057407502
161	0xbdcfdb67	-0.101492696
162	0x3d9c4414	0.07630172
163	0xbda79601	-0.08182908
164	0x3e6d5c76	0.23179802
165	0xbc845f54	-0.016158737
166	0x3cae0d80	0.021246672
167	0x3e6870ea	0.22699323
168	0x3dfbe443	0.12299397
169	0x3ca58d0f	0.020208864
170	0x3e963539	0.2933748
171	0x3d5bf0a0	0.053696275
172	0x3cc90ddd	0.024542743
173	0x3df441dd	0.11926625
174	0x3c7de8f9	0.01549744
175	0xbd830c5c	-0.06398842
176	0xbb8b71bd	-0.004255502
177	0x3e14a862	0.14517358
178	0x3e63622c	0.22205418
179	0x3caf786c	0.021419726
180	0xbe79fa41	-0.2441187
181	0xbe1a48fc	-0.15066904
182	0xbe07b8cd	-0.1325409
183	0xbcf7e3da	-0.030260015
184	0xbe86655f	-0.26249215
185	0xbe87e816	-0.26544255
186	0xbdbdde5f	-0.092709295
187	0xbdebe404	-0.115181
188	0x3ae2a92a	0.0017292846
189	0x3f025722	0.50914204
190	0x3f2c2a25	0.6725181
191	0x3ec4d5cd	0.38444367
192	0x3f1f9685	0.6233905
193	0x3f1d0347	0.61333126
194	0x3ebec8af	0.37262484
195	0x3ce76663	0.028247064
196	0x3e98d1ff	0.29847714
197	0x3e1aea4c	0.1512844
198	0x3ef83e6f	0.48485133
199	0x3f103e4a	0.56345046
200	0x3e077d94	0.13231498
201	0x3f3fb9e2	0.7489301
202	0x3f3a163a	0.72690165
203	0x3bf9086d	0.0075998814
204	0x3dc3e07c	0.09564301
205	0x3ee2d459	0.44302633
206	0x3e44ef68	0.19231951
207	0x3e109e56	0.141229
208	0x3d9db1aa	0.07699902
209	0x3dbe3b36	0.09288637
210	0x3dd7f0f9	0.10544009
211	0x3d02da24	0.031946316
212	0xbd7b7bb1	-0.06139726
213	0x3e04f152	0.12982681
214	0x3cebfec2	0.028808001
215	0x3c2ed293	0.010670322
216	0x3d2118c0	0.039330244
217	0xbcb95914	-0.022625484
218	0x3d6446e8	0.055731684
219	0xbd1d370d	-0.03838258
220	0x3d4f1924	0.050561085
221	0x3d4065cc	0.04697208
222	0xbd314eec	-0.043288156
223	0x3da20e17	0.07912844
224	0xbd355080	-0.044266224
225	0xbc36922d	-0.011143249
226	0x3d6102c9	0.054934297
227	0xbbea0102	-0.0071412334
228	0x3d2f539d	0.04280435
229	0x3c8488ee	0.016178574
230	0x3c53843f	0.012909948
231	0x3d20a278	0.039217442
232	0x3db4d853	0.08830323
233	0x3c5d49d6	0.013506373
234	0xbc8a7691	-0.01690224
235	0xba2eb17f	-0.0006664022
236	0x3c9c8daf	0.019110529
237	0xbd275f1d	-0.04086219
238	0xbd925b4a	-0.07146318
239	0x3ca59dc4	0.02021683
240	0xbcb18ed9	-0.02167456
241	0xbc9c640d	-0.019090677
242	0x3b28e9cf	0.0025774126
243	0x3ce24194	0.02761916
244	0xbc57286a	-0.013132194
245	0x3d48d2d5	0.04902919
246	0x3d4c9bec	0.049953386
247	0x3da0f9b2	0.078601256
248	0x3db064e9	0.08612997
249	0x3d449725	0.047995705
250	0x3d889a24	0.06670025
251	0x3d52735d	0.05137955
252	0x3d32a12e	0.043610744
253	0xbaabaa64	-0.0013097045
254	0x3d36c681	0.0446229
255	0xbd032563	-0.032018077

local_map_cnn.0.bias f4 [32]
0	0xba989dbd	-0.0011643689
1	0xbd1f83fa	-0.038944222
2	0xbc844c36	-0.016149621
3	0xbd91156a	-0.070841625
4	0x3d282a18	0.04105577
5	0x3ba3440b	0.0049824766
6	0x3cfee3e9	0.031114535
7	0xbd27b09b	-0.04093991
8	0x3c82453e	0.015902158
9	0xbdb9f0c0	-0.090791225
10	0x3c6001a7	0.013672269
11	0x3ade08ae	0.0016939843
12	0xbcfa85b4	-0.030581333
13	0xbd06e530	-0.032933414
14	0xbd0bdfd5	-0.03414901
15	0xbded085e	-0.115738615
16	0xbd0aa410	-0.03384787
17	0x3d4f30e9	0.050583754
18	0x3d2fbcc3	0.042904627
19	0x3d1fba84	0.038996235
20	0xbd9d48c1	-0.07679892
21	0x3d80a297	0.062810116
22	0x3bbaaa9d	0.005696608
23	0xbd1cd0f0	-0.038285196
24	0xbd5724c5	-0.0525253
25	0xbd8215b3	-0.06351795
26	0xbd616b5e	-0.055034034
27	0xbc58d0b7	-0.013233355
28	0x3d76fc77	0.060299363
29	0x3d352529	0.04422489
30	0x3d9d8faa	0.07693417
31	0x3c67ece9	0.014155605

local_map_cnn.2.weight f4 [32, 32, 3, 3]
0	0x3d4ddcb8	0.050259322
1	0xbd56b50a	-0.052418746
2	0xbe136862	-0.14395288
3	0xbe26ff1b	-0.16308253
4	0xbe2bd001	-0.16778566
5	0xbd28e23b	-0.041231375
6	0xbe9e1751	-0.30877164
7	0xbd808a2c	-0.06276354
8	0xbcb36952	-0.021900807
9	0xbd3c0ae0	-0.04590881
10	0xbd1de682	-0.038549908
11	0xbd5d42cb	-0.054018777
12	0xbce950f0	-0.028480977
13	0xbd6a1093	-0.057144713
14	0xbdb2a29f	-0.08722424
15	0x3c27cd3a	0.010241801
16	0xbd844e44	-0.064602405
17	0xbe0113cf	-0.12605213
18	0x3de3deb1	0.111264594
19	0xbdb50f8d	-0.08840857
20	0x3c81cfbb	0.015846124
21	0x3e2dcc67	0.16972505
22	0x3e1fdb21	0.15610935
23	0x3e67c956	0.22635397
24	0xbd12fcf5	-0.03588577
25	0xbddb8cc0	-0.10720205
26	0x39752dea	0.00023382125
27	0x3cf35946	0.029705655
28	0x3e3942ff	0.18091963
29	0x3e1ea015	0.15490754
30	0x3de64de0	0.11245322
31	0x3e8a1f3f	0.26976964
32	0x3e2bf30a	0.16791931
33	0xbdcbda7c	-0.09953782
34	0xbc7d9ef6	-0.015479794
35	0x3d6673a6	0.056262635
36	0x3cdb505a	0.026771713
37	0xbd9766a0	-0.07392621
38	0x3d9eeaed	0.07759652
39	0x3d110036	0.03540059
40	0xbe716726	-0.23574504
41	0xbdbfa2ad	-0.093572
42	0x3cb2bd72	0.02181885
43	0xbdc1e905	-0.09468273
44	0x3c6404f8	0.0139172
45	0xbda06b61	-0.07832981
46	0xbdc19d7f	-0.09453868
47	0x3be347f4	0.0069360677
48	0xbdc5c6ca	-0.09657057
49	0xbe61330e	-0.21992132
50	0xbdc9d2aa	-0.09854634
51	0xbd45faef	-0.048335012
52	0xbcc99424	-0.024606772
53	0x3d05791e	0.03258621
54	0xbd4772fd	-0.048693646
55	0xbd029c72	-0.03188748
56	0xbda82f56	-0.082121536
57	0xbd508a0f	-0.050912913
58	0xbd2e0c88	-0.04249242
59	0xbde7cf54	-0.113188416
60	0x39ccf57f	0.0003909282
61	0xbdf3ded7	-0.11907738
62	0xbd06b015	-0.03288277
63	0x3ddc1fbd	0.10748241
64	0x3da70aa3	0.08156326
65	0x3df8d08e	0.12149154
66	0x3dc1a73b	0.09455725
67	0x3d9fb2af	0.07797753
68	0x3e188edb	0.14898245
69	0x3d29286b	0.04129831
70	0x3dcad23a	0.09903379
71	0x3ddabe47	0.10680824
72	0x3db7d019	0.08975238
73	0x3e5504c2	0.20802596
74	0xbd8dff29	-0.069334336
75	0x3de00035	0.109375395
76	0xbdda3054	-0.10653749
77	0xbd2921e5	-0.04129209
78	0x3da0b371	0.07846726
79	0xbce1e3d1	-0.027574452
80	0xbdc717ef	-0.09721362
81	0x3d334533	0.043767165
82	0x3ddf8401	0.109138496
83	0x3d84941a	0.06473561
84	0x3d4ef6ee	0.05052846
85	0x3de0a94f	0.10969793
86	0x3d9fda86	0.07805352
87	0xbc9b74b1	-0.018976541
88	0x3d5b9963	0.053613078
89	0x3d361cf0	0.04446119
90	0xbc6a06f0	-0.014283881
91	0xbdcb1cd5	-0.09917609
92	0x3c4cf8bc	0.012510475
93	0x3bb9ebd9	0.005673867
94	0xbe04e7ca	-0.12979046
95	0xbd84184a	-0.06449945
96	0x3bdd90d3	0.006761649
97	0xbdee1fb2	-0.11627139
98	0x3d156af1	0.03647894
99	0x3e44efe2	0.19232133
100	0x3c3717c9	0.011175104
101	0x3e0b3217	0.13593327
102	0xbd94fe51	-0.072750695
103	0x3ad97299	0.0016589939
104	0x3dca8adc	0.098897666
105	0x3d8369f4	0.06416693
106	0xbc99f757	-0.018794699
107	0x3d9ec4b3	0.07752361
108	0xbd15a2c5	-0.036532182
109	0x3c3aee6c	0.011409383
110	0xbd92c0ce	-0.07165681
111	0x3d10a3cc	0.03531246
112	0xbd4cd85b	-0.05001102
113	0xbe1a974a	-0.15096775
114	0xbc80424e	-0.015656617
115	0xbdf4131b	-0.119177066
116	0xbd413626	-0.04717078
117	0x3d3714c8	0.044697553
118	0x3defdbf1	0.11711872
119	0x3d4cc2b7	0.049990382
120	0x3daacb7e	0.08339594
121	0xbc011277	-0.0078779375
122	0x3cfaf511	0.030634435
123	0x3d4ccd9e	0.05000078
124	0x3d9f9652	0.07792343
125	0x3cc7f4df	0.024408756
126	0xbd4c4d6f	-0.049878534
127	0xbc65d4e3	-0.014027807
128	0xbc7b9354	-0.01535495
129	0xbd9fe8be	-0.07808064
130	0x3cf0cf31	0.029395672
131	0x3ba6bd8a	0.005088513
132	0xbdc11a61	-0.094288595
133	0xbdde3b8f	-0.10851204
134	0x3c0f1da3	0.008735093
135	0x3c76f225	0.01507238
136	0x3ddd7ce1	0.108148344
137	0xba07b599	-0.00051769015
138	0x3bd884b7	0.0066076177
139	0x3e11897e	0.14212605
140	0x3d823d39	0.063593335
141	0xbe242c24	-0.16032463
142	0x3d02f928	0.031975895
143	0xbcb92215	-0.02259926
144	0x3d93fa81	0.07225514
145	0x3e1f9690	0.15584779
146	0x3d5b28bf	0.053505655
147	0x3e3795d0	0.17928243
148	0x3e72bb1a	0.23704186
149	0x3d172266	0.03689804
150	0x3d8a4051	0.06750549
151	0x3dab4130	0.08362043
152	0x3dc761cf	0.097354524
153	0x3dd02119	0.10162563
154	0x3d94cf35	0.07266084
155	0x3d854dac	0.06508955
156	0x3c31da2a	0.010855237
157	0x3dc60617	0.0966913
158	0x3d06e8a1	0.032936696
159	0xbd0a53c1	-0.03377128
160	0x3db207bf	0.08692884
161	0xbc923a70	-0.01785013
162	0x3dcb50e2	0.099275365
163	0xbb9b38d8	-0.004737001
164	0x3d6ad426	0.057331227
165	0x3d8eebf6	0.069786
166	0x3e02b504	0.12764364
167	0x3e41ffc5	0.18945225
168	0x3dbaf8d6	0.09129493
169	0xbd12cc37	-0.035839286
170	0x3db72fee	0.08944689
171	0x3d1ad160	0.03779733
172	0xbd21182a	-0.039329685
173	0x3cf10fe1	0.029426517
174	0x3e4a3386	0.19746217
175	0x3e2c803d	0.16845794
176	0x3e305b40	0.17222309
177	0x3d9ad003	0.07559206
178	0x3de648c8	0.11244351
179	0x3e4afa2e	0.19821998
180	0x3d27a778	0.040931195
181	0x3dc72bd1	0.09725154
182	0xbc0868b2	-0.008325743
183	0x3da30fa5	0.07961968
184	0x3c3f49f3	0.011675346
185	0x3d83a911	0.06428731
186	0xbd9a10ce	-0.075227365
187	0xbb60a8e5	-0.0034280356
188	0x3cccfc28	0.025022581
189	0x3d571380	0.05250883
190	0x3e3daf1c	0.1852383
191	0x3d1e503a	0.03865073
192	0x3cbb80e6	0.022888612
193	0x3ca32b02	0.019917969
194	0x3dfac1dd	0.12244008
195	0x3d1db5e1	0.03850353
196	0xbd9c7bd1	-0.076408036
197	0xbdc92431	-0.09821356
198	0x3d3384ad	0.0438277
199	0x3dbbf1ef	0.091770045
200	0x3d039423	0.032123696
201	0x3c92aea2	0.017905537
202	0x3d5042af	0.050844844
203	0x3d809bc4	0.0627971
204	0x3d09a83e	0.033607714
205	0xbd7664fd	-0.060154904
206	0xbce0c883	-0.027439361
207	0x3b2f308d	0.002673182
208	0xbc882111	-0.01661733
209	0x3d486dc1	0.048932794
210	0x3d2eea9b	0.042704206
211	0x3cb06aa4	0.021535225
212	0x3ae3ffe9	0.0017394993
213	0x3d76fc9a	0.060299493
214	0xbd5e4ab2	-0.054270454
215	0x3d9cd737	0.076582365
216	0xbd82364f	-0.06358015
217	0x3df3f93b	0.11912771
218	0xbc3c4f08	-0.011493452
219	0x3c9b3974	0.018948294
220	0x3e44a9e1	0.19205429
221	0x3dac4ad2	0.08412708
222	0xbe00b9d6	-0.12570891
223	0x3d696ae3	0.0569867
224	0x3d91d21f	0.071201555
225	0x3de39e60	0.11114192
226	0x3de3177c	0.11088464
227	0x3dcda013	0.10040297
228	0x3dc565d9	0.096385665
229	0x3e343503	0.17598347
230	0x3e0e95ab	0.13924281
231	0x3e055dd2	0.13024071
232	0x3dc3e2d8	0.095647514
233	0x3df7104e	0.12063657
234	0x3dd30c1e	0.103050455
235	0xbd50ac4c	-0.050945565
236	0xbb965047	-0.0045872065
237	0xbe942bb9	-0.28939608
238	0x3d0773e0	0.03306949
239	0xbed5329f	-0.41640183
240	0xbd82206f	-0.063538425
241	0x3b8afd89	0.0042416495
242	0xbd4a66e3	-0.049414527
243	0x3ccb970e	0.024852302
244	0xbdfa6522	-0.12226321
245	0x3d4de0f9	0.05026338
246	0xbdaced66	-0.08443718
247	0xbedc71e7	-0.4305565
248	0xbd1b709e	-0.037949197
249	0xbdb8891c	-0.090105265
250	0xbdd28075	-0.102784075
251	0x3d95047a	0.072762445
252	0x3d85ae84	0.06527427
253	0x3dcdb41a	0.10044117
254	0x3ddaf547	0.10691314
255	0x3d467a81	0.048456673

local_map_cnn.2.bias f4 [32]
0	0xbc9db65f	-0.019252
1	0x3cf5702b	0.029960712
2	0xbb11471b	-0.0022167626
3	0xbc9e006b	-0.019287309
4	0xbd6c65d5	-0.057714302
5	0xbe1c5032	-0.15264967
6	0xbc16e1b2	-0.009209083
7	0x3d4e0eef	0.05030721
8	0xbd3d0d0f	-0.04615503
9	0xbd89bf0c	-0.067258924
10	0xbdc41cc0	-0.09575796
11	0xbd9da822	-0.076980844
12	0xbe1cc29d	-0.15308614
13	0x3d2b3b24	0.041804448
14	0x3d178203	0.036989223
15	0x3d68c1d2	0.056825466
16	0xbe26f641	-0.16304876
17	0x3ce7193b	0.028210273
18	0xbd3c53c6	-0.04597833
19	0xbd15ca7d	-0.03657006
20	0xbd8d288b	-0.068924986
21	0xbc3d3dff	-0.011550426
22	0x3b98cfbb	0.0046634353
23	0xbd5b4c2e	-0.053539447
24	0x3d7157c0	0.058921576
25	0x3dbbbb98	0.0916664
26	0xbdc8c809	-0.09803779
27	0xbdcc839d	-0.09986041
28	0x3cfe134c	0.03101506
29	0xbddcf13f	-0.107882015
30	0xbdd50c3c	-0.10402724
31	0xbe3b1e89	-0.18273367

local_map_cnn.4.weight f4 [32, 32, 3, 3]
0	0xbcc5823c	-0.024109952
1	0xbe099ac9	-0.13437952
2	0x3d8e2d2f	0.06942212
3	0x3dcd31b7	0.10019248
4	0x3d063c46	0.032772325
5	0x3ca14c0f	0.019689588
6	0xbde0f252	-0.10983719
7	0xbe360e6b	-0.17778938
8	0xbde70fbb	-0.11282297
9	0x3e55f8e1	0.20895721
10	0xbd073d0e	-0.03301721
11	0x3d778ebf	0.060438868
12	0x3d13520e	0.035966925
13	0xbebe2527	-0.3713772
14	0xbe30e05d	-0.17273088
15	0xbdc5ad7e	-0.09652232
16	0x3e902f75	0.28161207
17	0x3da0d6f7	0.07853501
18	0xbd911306	-0.070837066
19	0xbdbeb4a7	-0.093118005
20	0x3d81dbb8	0.06340736
21	0xbc8ff23d	-0.017571563
22	0xbdf58005	-0.119873084
23	0xbd92eeb6	-0.07174437
24	0x3dcb78ff	0.099351875
25	0xbe54f259	-0.20795573
26	0xbc1ef84c	-0.009702753
27	0xbd373b00	-0.044734
28	0xbd4eb899	-0.050469015
29	0x3d9e5eb7	0.07732909
30	0xbd2435c2	-0.04009033
31	0xbeaa8914	-0.33307707
32	0x3d296952	0.041360207
33	0xbd5b84f7	-0.053593602
34	0xbddb624d	-0.10712109
35	0x3d01d815	0.031700213
36	0x3caccf5f	0.021094976
37	0x3d034102	0.03204442
38	0x3db9b8c2	0.09068443
39	0x3d7c206c	0.061554357
40	0xbd56771c	-0.052359685
41	0xbd01bc30	-0.03167361
42	0x3d8f4c08	0.06996924
43	0xbdb42b82	-0.08797361
44	0x3dca0f88	0.098662436
45	0xbd5fb790	-0.05461842
46	0x3d88bcf6	0.066766664
47	0x3d9cdc8a	0.07659252
48	0xbde7b041	-0.11312915
49	0xbdcc49c3	-0.099750064
50	0xbcdfc66c	-0.027316295
51	0xbd253fe7	-0.040344145
52	0xbe551347	-0.20808135
53	0xbe2699db	-0.16269629
54	0x3d6ce56d	0.057835985
55	0x3e0b87f6	0.13626084
56	0xbbf9583c	-0.0076093953
57	0x3d884206	0.06653218
58	0xbe881d0d	-0.26584664
59	0x3ca8934c	0.02057805
60	0x3e0ce551	0.13759352
61	0x3d8a9573	0.067667864
62	0x3e0c7b9f	0.13719033
63	0xbde2ddb6	-0.11077444
64	0xbbc3258c	-0.0059554037
65	0xbca145b9	-0.019686567
66	0xbdb64709	-0.08900268
67	0xbd3d3e1b	-0.046201807
68	0x3e20ea16	0.15714297
69	0xbd2eb482	-0.042652614
70	0xbe3e0e78	-0.18560207
71	0xbe832489	-0.25613812
72	0xbdc830be	-0.09774922
73	0x3e39f441	0.18159582
74	0xbcb61da2	-0.022230927
75	0xbcb9d763	-0.022685712
76	0x3e66f961	0.22556068
77	0xbc5bf318	-0.013424657
78	0x3dc1e37c	0.09467217
79	0xbec192f8	-0.3780744
80	0xbcfe6645	-0.031054625
81	0xbe94a415	-0.29031435
82	0x3dcbf968	0.0995968
83	0x3c9ebb0e	0.019376304
84	0xbd4eb1aa	-0.050462402
85	0xbe103782	-0.14083675
86	0xbe14a8b8	-0.14517486
87	0x3cd9d927	0.026592804
88	0xbe6e055f	-0.23244236
89	0xbc85d5f1	-0.016337367
90	0x3c36e420	0.011162788
91	0x3ccff136	0.025383573
92	0x3df93177	0.12167638
93	0xbd622337	-0.055209365
94	0xbe1d3684	-0.15352827
95	0x3d6c875f	0.057746287
96	0x3e0e3b67	0.13889848
97	0xbda32204	-0.07965472
98	0x3d7dcb00	0.061961174
99	0x3dd6dda1	0.10491491
100	0xbd834a33	-0.06410637
101	0x3de832b7	0.11337798
102	0xbcc1a88c	-0.02363994
103	0xbe22d03b	-0.15899746
104	0xbbe03744	-0.0068425257
105	0xbdbb73a7	-0.09152918
106	0xbcb9a51a	-0.022661734
107	0xbcc43ea8	-0.023955658
108	0x3c9a1084	0.018806703
109	0xbcb9d7bf	-0.022685884
110	0x3daf6a67	0.085652165
111	0x3e18d436	0.14924702
112	0xbe24eec8	-0.16106713
113	0xbb8aadfc	-0.0042321663
114	0xbd9fd17e	-0.07803629
115	0xbe308f6c	-0.17242211
116	0x3e363e2e	0.17797157
117	0x3df873a0	0.12131429
118	0x3dac5fa8	0.084166825
119	0x3d6c8a19	0.057748888
120	0x3ddd3721	0.10801531
121	0xbe123ce8	-0.14281046
122	0x3c3fcb75	0.011706223
123	0x3d07990c	0.03310494
124	0xbd5371ee	-0.051622324
125	0xbe112954	-0.14175922
126	0xbd830574	-0.063975245
127	0xbe000651	-0.1250241
128	0x3d5d88e3	0.054085623
129	0x3d2c8717	0.04212102
130	0xbd2731a7	-0.040818837
131	0xbd5d273d	-0.0539925
132	0xbc906422	-0.017625872
133	0xbe8cc93d	-0.27497283
134	0xbe09f5ec	-0.13472718
135	0x3d5f4103	0.05450536
136	0xbe138ab9	-0.14408387
137	0x3dba0811	0.0908357
138	0x3ce5c4e3	0.028047984
139	0xbe8e424d	-0.27784958
140	0xbd8b4260	-0.067997694
141	0xbd4149d1	-0.047189537
142	0xbea47f95	-0.32128587
143	0xbdffdbe9	-0.124931164
144	0xbb87b392	-0.0041412795
145	0x3bd549ce	0.0065090423
146	0x3e0623da	0.13099614
147	0xbc80a3f9	-0.015703188
148	0xbe39e0c7	-0.18152152
149	0x3d12e2d3	0.035860848
150	0x3ccfe5ee	0.025378194
151	0x3cdec0a0	0.02719146
152	0x3d191704	0.037375465
153	0x3e0ae01f	0.13562058
154	0xbd6c011f	-0.057618257
155	0xbd61b808	-0.055107147
156	0x3c5a8e59	0.013339602
157	0xbe15b353	-0.14619188
158	0xbd493c5e	-0.049129836
159	0xbd949f0c	-0.07256898
160	0x3e1626fd	0.1466331
161	0x3dd425d1	0.103587754
162	0x3df43a60	0.11925197
163	0xbd39d698	-0.04537067
164	0x3d2cb2cc	0.0421627
165	0xbd03f82f	-0.03221911
166	0xbda67805	-0.08128361
167	0xbe1fec96	-0.15617594
168	0x3d7a60b5	0.061127383
169	0x3d7d839b	0.061893087
170	0x3d83d3b5	0.06436864
171	0x3b0082c6	0.0019609197
172	0x3dabd23d	0.08389709
173	0x3e65f6ea	0.22457471
174	0x3b227d87	0.0024794058
175	0xbe88e0f2	-0.2673412
176	0x3c97e04f	0.018539576
177	0xbd7ca65b	-0.061682086
178	0x3d9a4d28	0.07534248
179	0x3da8e1b9	0.08246178
180	0xbe294360	-0.16529608
181	0x3dbdc98a	0.09266956
182	0x3d6fa326	0.0585052
183	0xbdb8a59b	-0.09015962
184	0x3dd773c2	0.10520126
185	0xbdd41c03	-0.10356905
186	0x3d84edc8	0.06490666
187	0xbe282407	-0.16419993
188	0x3dd721e6	0.105045125
189	0x3d20db8a	0.03927187
190	0xbd1df43f	-0.03856301
191	0x3df41e8e	0.1191989
192	0x3dd24529	0.102670975
193	0xbe267874	-0.16256887
194	0x3ceb0d80	0.02869296
195	0x3e0c3a12	0.13694027
196	0xbcaacc1c	-0.02084928
197	0x3e287a07	0.164528
198	0xbd67ae36	-0.056562625
199	0x39dc4b71	0.00042017878
200	0xbd80ee1d	-0.062954165
201	0x3bb6d4e9	0.00557958
202	0x3e2fa21b	0.17151682
203	0x3c82d2d3	0.01596967
204	0x3dc662bf	0.09686803
205	0x3d9e69fc	0.07735059
206	0xbe236ee4	-0.1596027
207	0x3e124c93	0.14287023
208	0xbd5a4b5c	-0.053294525
209	0x3e1629f9	0.14664449
210	0x3d3aef66	0.045638464
211	0xbebf311f	-0.37342164
212	0x3c90694d	0.017628336
213	0x3cf38d98	0.029730603
214	0x3d9f9168	0.07791406
215	0xbd44064d	-0.04785757
216	0xbdbb3681	-0.09141255
217	0x3e0dabdc	0.1383509
218	0xbe45334a	-0.19257846
219	0xbc4c7c7e	-0.012480853
220	0xbd6826b2	-0.056677528
221	0x3de9ecfb	0.114221536
222	0x3e030fd5	0.12799008
223	0x3da5ee88	0.08102137
224	0x3d67a138	0.056550235
225	0xbd030191	-0.031983916
226	0x3c0e3c10	0.008681312
227	0xbd95faa3	-0.07323196
228	0x3e016867	0.12637483
229	0x3df318db	0.11869975
230	0x3d287c8f	0.041134413
231	0x3d933539	0.07187886
232	0x3e06eb98	0.1317581
233	0x3e11dd6b	0.1424462
234	0xbcef17af	-0.029186098
235	0x3cacd541	0.021097781
236	0x3d8f2a31	0.06990469
237	0xbca8a5c0	-0.020586848
238	0xbe061d43	-0.130971
239	0x3d5a49b5	0.05329295
240	0xbcf61ed0	-0.03004399
241	0xbe3b3102	-0.18280414
242	0x3d9500cf	0.07275545
243	0x3da54715	0.080701984
244	0x3d82c80f	0.063858144
245	0x3dc6b7e5	0.09703044
246	0xbce62301	-0.028092863
247	0xbdf2d17d	-0.11856363
248	0x3be86b66	0.007092881
249	0x3cc7e050	0.024398953
250	0xbd974765	-0.07386664
251	0x3d90e1b8	0.070743024
252	0xbd2acbcb	-0.04169826
253	0x3a50ade2	0.0007960481
254	0x3d6bf02f	0.057602104
255	0xbc08abab	-0.00834171

local_map_cnn.4.bias f4 [32]
0	0x3d868566	0.065684125
1	0xbc19fd3c	-0.009398755
2	0xbe0bfe32	-0.13671187
3	0xbe88255c	-0.26591003
4	0x3c69803a	0.014251763
5	0xbcb54d7f	-0.02213168
6	0x3c636a64	0.013880346
7	0xbde33711	-0.110944875
8	0x3dd5916a	0.10428126
9	0x3d5a7937	0.053338256
10	0x3dae867f	0.08521747
11	0xbdb1dcf3	-0.08684721
12	0x3dbf74e9	0.09348471
13	0x3e1ca131	0.15295865
14	0xbe0596d9	-0.13045825
15	0x3e4161f8	0.18885028
16	0xbe185187	-0.1487485
17	0x3db1cdd1	0.086818345
18	0x3dd2d2e8	0.102941334
19	0xbde2ca4b	-0.110737406
20	0xbde614cf	-0.11234438
21	0xbc1dc819	-0.0096302265
22	0x3d447540	0.04796338
23	0xbd47d65e	-0.04878842
24	0xbd2d108c	-0.04225211
25	0x3dc835d7	0.09775894
26	0xbdcd9929	-0.100389786
27	0x3c920f3d	0.017829532
28	0x3d077fc7	0.033080842
29	0x3dbb53cc	0.09146842
30	0x3c93406a	0.017975051
31	0x3cc598d4	0.024120726

local_map_fc.weight f4 [64, 512]
0	0xbde698c1	-0.11259604
1	0xbe04a937	-0.12955175
2	0xbe4f36b2	-0.20235708
3	0xbe35d74e	-0.17757913
4	0xbcf6d2e9	-0.030129867
5	0xbde2f0ed	-0.11081109
6	0xbdb5a911	-0.088701375
7	0xbd2169b0	-0.039407432
8	0xbc772cb7	-0.015086344
9	0xbca52a1c	-0.02016168
10	0xbd6ebe35	-0.058286864
11	0x3cbf67dc	0.023364954
12	0x3da34566	0.07972221
13	0xbab4223b	-0.0013743112
14	0x3ce21a05	0.027600298
15	0xbe136093	-0.14392309
16	0xbd4d3902	-0.050103195
17	0xbd107187	-0.035264518
18	0xbd0ce1c1	-0.034394983
19	0xbbc0e0e3	-0.0058861836
20	0xbd84a42c	-0.06476626
21	0xbd887e30	-0.06664693
22	0xbd6dc2d0	-0.058047116
23	0xbd40d81c	-0.047081098
24	0xbcbdf15e	-0.023186382
25	0x37502833	1.2407126e-05
26	0xbc36242b	-0.011117022
27	0xbd2218d9	-0.039574478
28	0xbd22ec43	-0.039776098
29	0x3d21230c	0.039340064
30	0x3d1b8909	0.037972484
31	0x3c86104b	0.016365191
32	0xbdf85140	-0.12124872
33	0x3d529886	0.05141499
34	0xbca40068	-0.020019725
35	0x3ca682cb	0.020326039
36	0xbe9c6666	-0.30546874
37	0xbd989025	-0.074493684
38	0x3cb195fa	0.02167796
39	0xbdf2143d	-0.118202664
40	0x3d0a8f79	0.033828232
41	0xbe68be34	-0.22728807
42	0x3b32bd25	0.0027273383
43	0xbdab0fb4	-0.083526045
44	0x3e0486cd	0.12942047
45	0x3c57902a	0.01315693
46	0x3c7a2d18	0.01526954
47	0x3d42df5b	0.04757629
48	0x3d17f33e	0.03709721
49	0xbd227669	-0.039663706
50	0xbaf2712d	-0.0018496864
51	0x3d2b9277	0.041887727
52	0x3cd1a18d	0.025589729
53	0x3d141d0e	0.03616052
54	0x3d92783f	0.07151841
55	0xbd895178	-0.06704992
56	0x3c2f7d2b	0.010710995
57	0x3ddbdf03	0.107358955
58	0x3b66ff22	0.0035247286
59	0x3cdaf6ec	0.02672907
60	0x3d8b297b	0.06795021
61	0xbd85e159	-0.06537122
62	0xbd3da395	-0.046298582
63	0x3b0bba6f	0.002132084
64	0xbe02554e	-0.12727854
65	0xbe3c0c47	-0.18364058
66	0xbba1166f	-0.0049160044
67	0xbdec92d7	-0.11551445
68	0xbdc86ef0	-0.09786785
69	0xbda58b24	-0.080831796
70	0xbad4b9dd	-0.0016229708
71	0x3c53908e	0.0129128825
72	0x3dae8e7a	0.08523269
73	0xbd625834	-0.0552599
74	0xbce429ee	-0.027852025
75	0xbe587e34	-0.21141893
76	0x3c604fe8	0.013690926
77	0x3cbef912	0.023312125
78	0xbd8c989a	-0.06865044
79	0x3d7dd48b	0.061970275
80	0xbc849b37	-0.016187293
81	0xbc1cd535	-0.009572317
82	0xbe21129d	-0.15729757
83	0xbe052dd4	-0.13005763
84	0xbd3e94a3	-0.04652847
85	0xbda470a2	-0.080292955
86	0xbd20554a	-0.039143838
87	0x3e0b9fdd	0.13635202
88	0xbd4918dd	-0.049095977
89	0x3e4d5241	0.20050909
90	0xbdb529c1	-0.088458546
91	0x3dab8080	0.08374119
92	0xbd19d7e8	-0.03755942
93	0xbd16b0de	-0.036789767
94	0xbd5772e9	-0.05259982
95	0x3cb4c21d	0.022065217
96	0xbde248b2	-0.11049022
97	0x3d922276	0.07135479
98	0xbd039968	-0.03212872
99	0xbd89a3e4	-0.06720713
100	0xbdebf6c9	-0.1152168
101	0x3c9fe4a0	0.019518197
102	0xbd7ecbb7	-0.062205996
103	0x3c7aa1f2	0.0152974
104	0xbb8cf119	-0.004301202
105	0x3e0a6bd7	0.135177
106	0xbd9250f0	-0.07144344
107	0xbdaf8437	-0.0857014
108	0x3d537a8d	0.051630545
109	0x3c666aae	0.01406352
110	0x3cdd60b7	0.027023656
111	0x3be26a05	0.006909611
112	0xbcc2d709	-0.023784177
113	0xba4c4532	-0.00077922933
114	0x3c24b86e	0.010053737
115	0xbd484d0e	-0.04890161
116	0xbdc10f00	-0.09426689
117	0xbdc2c574	-0.095103174
118	0xbd77060e	-0.06030851
119	0x3cfd4faa	0.030921776
120	0x3bbe708c	0.0058117565
121	0xbe55e910	-0.20889688
122	0xbe1c7558	-0.15279138
123	0xbd948238	-0.072514
124	0xbb619549	-0.0034421256
125	0xbc866219	-0.016404198
126	0x3be5d130	0.0070134625
127	0x3cdbfa85	0.026852855
128	0xbdcf5873	-0.10124292
129	0xbe00ca5a	-0.12577191
130	0xbda303bf	-0.07959699
131	0xbe12ae54	-0.14324313
132	0xbe2d6479	-0.16932859
133	0xbdb4cf6b	-0.08828624
134	0xbe4776b2	-0.19478872
135	0x3cded525	0.027201245
136	0xbdaf6518	-0.08564204
137	0x3c84420e	0.016144779
138	0xbe52dfc6	-0.20593175
139	0xbcb2227d	-0.02174496
140	0x3d947c1d	0.07250235
141	0xbd07ffde	-0.033203
142	0x3c942516	0.01808409
143	0xbd9744e5	-0.073861875
144	0xbe3f24cd	-0.18666382
145	0x3c092c24	0.00837234
146	0xbe660759	-0.2246374
147	0xbe84a429	-0.25906494
148	0x3cda0fec	0.02661892
149	0xbd2357f2	-0.039878793
150	0xbe194f92	-0.1497176
151	0xbe3f0977	-0.18655954
152	0x3cd14824	0.025547095
153	0xbcb2bbc7	-0.021818055
154	0xbc04ce5e	-0.008105842
155	0xbe0a4426	-0.13502559
156	0xbe20af37	-0.15691839
157	0xbe14e9f9	-0.14542378
158	0x3d1c705d	0.038193095
159	0xbd5e0ad1	-0.054209534
160	0xbde09df4	-0.10967627
161	0xbe0f074d	-0.13967629
162	0x3d5607c8	0.052253515
163	0xbc2214e5	-0.009892677
164	0xbe3425fa	-0.17592612
165	0xbd2af8c8	-0.041741163
166	0xbd7d2129	-0.061799202
167	0xbd96559a	-0.07340546
168	0xbd04699c	-0.03232728
169	0xbdef9682	-0.11698629
170	0x3afc5000	0.0019249916
171	0xbd603146	-0.05473449
172	0xbdf6f721	-0.12058855
173	0xbe30f76e	-0.17281887
174	0xbcac7a6f	-0.021054475
175	0x3bf67dca	0.0075223194
176	0x3c3d048f	0.011536731
177	0xbcfccdfc	-0.03085994
178	0xbd8f414a	-0.06994875
179	0x3ca92074	0.020645358
180	0xbd00c5eb	-0.03143875
181	0xbdbcb78a	-0.09214695
182	0xbd34d13d	-0.044144858
183	0xbc7c92e1	-0.015415878
184	0xbdee010b	-0.11621293
185	0xbe27092f	-0.16312097
186	0xbdb8afd2	-0.0901791
187	0xbbacc07d	-0.00527197
188	0x3d340fe3	0.043960463
189	0x3d15bc32	0.03655643
190	0x3cb41f20	0.021987498
191	0x3d8c89f9	0.06862254
192	0xbdc728f6	-0.097246096
193	0xbe00a663	-0.12563471
194	0xbe6f887d	-0.2339191
195	0xbe8649f8	-0.2622831
196	0xbd6a44ae	-0.057194404
197	0xbd8d3aae	-0.06895958
198	0xbd7375f4	-0.05943866
199	0xbe500147	-0.20312987
200	0x3cbf3589	0.023340957
201	0x3d1bd32e	0.038043194
202	0x3d1c79dc	0.03820215
203	0xbd96cc0a	-0.07363136
204	0x3dd6deb0	0.10491693
205	0x3de5761e	0.1120417
206	0xbd159f7f	-0.03652906
207	0x3ca5c9de	0.02023786
208	0xbda1955a	-0.07889815
209	0xbe38507f	-0.17999457
210	0xbd0ea535	-0.034825522
211	0x3bbd88d8	0.0057841353
212	0xbd605c98	-0.054775804
213	0xbe33e16b	-0.17566459
214	0xbcd72ddd	-0.026266987
215	0xbd0ec285	-0.034853477
216	0x3cf2feef	0.029662577
217	0xbd1b1c3e	-0.03786873
218	0xbcd0c220	-0.025483191
219	0x3d47e5ae	0.048803024
220	0xbcc9944f	-0.024606852
221	0xbdb78fc9	-0.08962972
222	0x3c93b2b1	0.018029543
223	0xbcf77e8c	-0.03021171
224	0xbd030950	-0.031991303
225	0x3c730943	0.014833751
226	0xbc99c8e3	-0.018772548
227	0x3d93a059	0.07208318
228	0x3de8135f	0.1133182
229	0xbc7f104b	-0.015567849
230	0x3d97998a	0.07402332
231	0x3d31f829	0.043449555
232	0x3ad69c07	0.0016373404
233	0xbda5a4d6	-0.080880806
234	0x3d588d28	0.052868992
235	0x3c78628c	0.015160214
236	0x3c7f8ecc	0.01559801
237	0xbd81826e	-0.063237056
238	0x3d4b00f7	0.049561467
239	0xbd93c253	-0.07214799
240	0xbe0a6e3d	-0.13518615
241	0xbd273ea0	-0.04083121
242	0xbe251505	-0.161213
243	0xba34b262	-0.0006893036
244	0xbe0657b8	-0.131194
245	0xbd84f728	-0.06492454
246	0xbe48c9c5	-0.19608219
247	0xbd8065f1	-0.06269444
248	0xbe0287f4	-0.12747175
249	0xbe22f640	-0.1591425
250	0xbd93332d	-0.071874954
251	0xbc29fc82	-0.010375144
252	0xbd2a339d	-0.04155313
253	0xbdbed38a	-0.093176916
254	0xbcbc6f97	-0.023002429
255	0xbe13b463	-0.14424281

local_map_fc.bias f4 [64]
0	0xbd99bd5b	-0.0750682
1	0xbdb15947	-0.086596064
2	0x3cf24b95	0.029577056
3	0xbd82015a	-0.06347914
4	0xbd758e28	-0.059950024
5	0xbdad002d	-0.08447299
6	0xbda1d280	-0.07901478
7	0x3db5bd55	0.08874003
8	0xbc9be641	-0.019030692
9	0xbd6c0f56	-0.057631813
10	0xbd4f5799	-0.05062065
11	0xbd061aae	-0.032740287
12	0x3ddea164	0.108706266
13	0xbcb11a75	-0.021619061
14	0xbd024296	-0.031801783
15	0x3db4df07	0.088316016
16	0x3d011b97	0.031520452
17	0x3b818179	0.003952202
18	0xbdab0a1b	-0.08351537
19	0x3c5751aa	0.013142029
20	0xbdbabd99	-0.09118194
21	0xbdf752cf	-0.12076341
22	0x3d0fe12d	0.035126854
23	0x3d8848c8	0.06654507
24	0xbd2493d6	-0.04018005
25	0xbd6dabca	-0.05802516
26	0x3d12f7b4	0.03588076
27	0xbd82ed4b	-0.06392916
28	0x3d1835de	0.037160747
29	0x3d63e954	0.05564244
30	0xbacecfb0	-0.0015778448
31	0xbdc1e660	-0.09467769
32	0x3cd60854	0.026127018
33	0x3bd2ddb1	0.006435119
34	0xbd0e28a9	-0.034706745
35	0xbd36ce95	-0.044630606
36	0xbd5302f4	-0.05151649
37	0x3de24bdf	0.110496275
38	0x3e0f5b8a	0.13999763
39	0x3b8aa4c8	0.0042310692
40	0xbd95ccb1	-0.073144324
41	0xbce6e20c	-0.02818396
42	0x3cdb9c9d	0.026808077
43	0x3ddcab90	0.107749104
44	0x3da02ea8	0.07821399
45	0x3daf3bf5	0.08556358
46	0xbd5ae804	-0.053443924
47	0x3b90b606	0.00441623
48	0xbd48effd	-0.049056996
49	0xbc9f5fd2	-0.01945487
50	0xbd597d85	-0.05309822
51	0xbd174b27	-0.036936905
52	0x3c48f94e	0.01226647
53	0xbd5f2b27	-0.054484513
54	0xbd52052c	-0.051274464
55	0x3d888074	0.066651255
56	0xbcf567cd	-0.029956723
57	0xbe4f92a0	-0.20270777
58	0xbb89875f	-0.0041970457
59	0xbd578900	-0.052620888
60	0xbd08955c	-0.033345565
61	0x3d9ba747	0.07600265
62	0x3d8377b7	0.06419318
63	0x3daa0b78	0.08302969

self_entity_fc1.weight f4 [32, 26]
0	0x3e808df6	0.25108308
1	0x3cf5854c	0.029970787
2	0x39a78521	0.0003195191
3	0x3d08fd59	0.033444736
4	0xbd15ec2f	-0.036602195
5	0x3e4026a2	0.18764737
6	0xbcdab1eb	-0.026696166
7	0xbeec8943	-0.46198472
8	0xbcae8077	-0.021301491
9	0xbdef9d1b	-0.11699887
10	0xbe1a9aed	-0.15098162
11	0xbef6c816	-0.48199528
12	0x3e25f06b	0.16204993
13	0xbe2d282f	-0.1690986
14	0x3e559b9c	0.20860142
15	0x3e1448a2	0.14480832
16	0xbe6b80f3	-0.22998409
17	0xbda9ceb1	-0.082913764
18	0x3db266c2	0.08711006
19	0x3cffd4b0	0.031229347
20	0xbd899f96	-0.06719892
21	0x3ea232ae	0.3167929
22	0xbe0d6ea6	-0.1381174
23	0x3e3d19a9	0.1846682
24	0xbb25c91a	-0.0025296868
25	0x3d567201	0.052354816
26	0xbeb5412f	-0.35401294
27	0xbdc8eac3	-0.09810402
28	0x3c588612	0.013215559
29	0x3e2f1936	0.17099461
30	0x3e23cc90	0.15996003
31	0xbe158ad6	-0.14603743
32	0x3dae1bec	0.085014194
33	0xbea79555	-0.3273112
34	0xbd9e660e	-0.07734309
35	0xbd8b65fb	-0.068065606
36	0xbe021136	-0.12701878
37	0x3caeee5b	0.021353891
38	0x3ce61743	0.028087264
39	0x3d7d3368	0.061816603
40	0x3e4934c2	0.19649032
41	0x3dfbdc00	0.12297821
42	0x3dfa1166	0.1221035
43	0x3a717a71	0.00092116656
44	0xbd7bc49e	-0.061466806
45	0xbba356fc	-0.0049847346
46	0xbd8e54ce	-0.06949769
47	0x3d9e47ef	0.07728564
48	0xbd3bb88b	-0.04583029
49	0xbc852ba7	-0.016256167
50	0x3db42b73	0.0879735
51	0x3e41221e	0.18860671
52	0xbcf72130	-0.030167192
53	0xbd85675a	-0.06513853
54	0x3d6296ea	0.055319704
55	0xbe00920a	-0.1255571
56	0x3dee30aa	0.11630376
57	0xbee28843	-0.44244584
58	0xbe82faf5	-0.2558209
59	0x3dc9d40b	0.09854897
60	0x3e019ec3	0.12658219
61	0xbd1d0e9c	-0.03834401
62	0xbedd9902	-0.43280798
63	0xbd706b95	-0.05869635
64	0xbd994ef6	-0.07485764
65	0x3dac87d4	0.08424345
66	0x3d76feae	0.060301475
67	0x3e5cb4d5	0.21553357
68	0x3c99c7db	0.018772056
69	0x3daea139	0.085268445
70	0x3abf66d4	0.0014602789
71	0x3e154eda	0.1458086
72	0x3d976c28	0.07393676
73	0x3dd2b569	0.102885075
74	0x3e381d9c	0.17980045
75	0xbddd610a	-0.10809524
76	0xbd23c6bd	-0.039984453
77	0xbe08bfb0	-0.13354373
78	0xbde9a991	-0.11409295
79	0xbd259c2c	-0.04043214
80	0x3dffee48	0.124966204
81	0xbd9d9661	-0.07694698
82	0xbdb66d3e	-0.08907555
83	0x3dc18d63	0.094507955
84	0x3dd0703d	0.10177658
85	0xbcb8da8b	-0.022565147
86	0x3f3f042a	0.7461573
87	0x3e958f18	0.29210734
88	0x3db3b557	0.08774822
89	0xbda45d7e	-0.08025645
90	0x3cfd76a2	0.030940358
91	0x3e8064d9	0.2507694
92	0xbc2fe952	-0.01073678
93	0xbe1f59db	-0.15561621
94	0x3e493e88	0.1965276
95	0x3e6e9709	0.23299803
96	0xbdf531a3	-0.11972358
97	0xbd1caba0	-0.03824961
98	0x3e8a905d	0.27063265
99	0xbd817e6b	-0.063229404
100	0xbe1d0039	-0.15332116
101	0x3d1c78ac	0.03820102
102	0xbde15035	-0.110016264
103	0x3e08e625	0.13369043
104	0xbe322c48	-0.17399704
105	0x3d0b86d5	0.034064133
106	0xbb1abb6f	-0.0023610254
107	0xbe1cf403	-0.15327458
108	0x3e075e91	0.13219668
109	0x3d517992	0.05114133
110	0x3c21e723	0.009881767
111	0xbe6d7540	-0.23189259
112	0x3d2c6294	0.0420862
113	0x3e0d75b8	0.13814437
114	0x3edb29df	0.42805383
115	0x3e65327c	0.2238254
116	0x3e20d04c	0.15704459
117	0x3dd2b792	0.102889195
118	0xbe383811	-0.17990138
119	0x3d6f75db	0.058462005
120	0x3e5af137	0.21381079
121	0x3ec29e0a	0.380112
122	0xbe08da9f	-0.13364647
123	0xbd4281a8	-0.04748693
124	0x3cdd12a5	0.02698643
125	0xbda987d6	-0.08277862
126	0xbd726288	-0.059175998
127	0xbcbeb324	-0.02327878
128	0xbde89f53	-0.11358514
129	0xbdd37a88	-0.10326105
130	0x3d8e1a0b	0.06938561
131	0x3df050bf	0.11734151
132	0x3e555a8f	0.20835327
133	0x3d7dc8d7	0.061959114
134	0x3d44e4d2	0.048069783
135	0xbd8c78ea	-0.06859
136	0x3e12d080	0.14337349
137	0xbef67604	-0.48136914
138	0x3e4c9424	0.19978386
139	0xbc1a4d20	-0.009417802
140	0x3d2cf5e0	0.042226672
141	0x3ea35d29	0.31907013
142	0x3e1cdc4a	0.15318409
143	0x3dfb11e7	0.12259274
144	0x3c79ed8e	0.015254391
145	0xbe5d12f8	-0.21589267
146	0x3d7cae52	0.061689682
147	0xbc94294f	-0.018086104
148	0xbe31e02b	-0.1737067
149	0xbe529f9c	-0.20568699
150	0xbe40966c	-0.18807381
151	0xbe1ea2df	-0.15491818
152	0xbe01c29e	-0.12671897
153	0xbe3ab7bc	-0.18234152
154	0x3d7b0a9f	0.061289426
155	0x3dc5f85e	0.09666513
156	0xbd5e8f5a	-0.05433593
157	0xbe0cf3ff	-0.13764952
158	0xbb95df4a	-0.0045737373
159	0x3e18e92a	0.14932695
160	0x3dd53eb3	0.104123496
161	0xbd34383e	-0.04399895
162	0xbd58160d	-0.052755404
163	0xbea0dbc3	-0.31417665
164	0x3dbbaa53	0.09163346
165	0xbcb8224a	-0.022477288
166	0xbe9c21a6	-0.30494422
167	0x3d79602e	0.06088274
168	0xbf44f33b	-0.7693364
169	0x3d9ac0c6	0.075563
170	0x3dc4b21c	0.09604284
171	0x3d5fcee2	0.05464066
172	0xbe9be3fb	-0.30447373
173	0xbe01cad9	-0.12675036
174	0x3d63b86e	0.055595808
175	0x3d02a131	0.031892005
176	0xbc82a7f8	-0.015949234
177	0x3e4d5c98	0.20054853
178	0x3e034e48	0.1282283
179	0xbdbc5e49	-0.09197671
180	0x3bf59557	0.0074946093
181	0xbe00afce	-0.12567064
182	0x3e4538ac	0.192599
183	0x3c09ee19	0.008418583
184	0xbbac687b	-0.0052614785
185	0x3d215ef0	0.03939718
186	0xbd1b2f0a	-0.037886657
187	0xbe0e92f3	-0.13923244
188	0x3dbd9ce0	0.09258437
189	0x3c4477d3	0.011991459
190	0xbf0f622f	-0.5600919
191	0x3e1e8579	0.15480603
192	0xbe17df33	-0.14831237
193	0x3e7c92f0	0.24665427
194	0x3dc6e891	0.09712327
195	0x3df6585b	0.12028571
196	0x3dc20ae8	0.094747365
197	0x3e7c9842	0.24667457
198	0x3debe692	0.11518587
199	0x3e532576	0.20619759
200	0xbd2a5c5d	-0.04159199
201	0x3dddb5d3	0.10825696
202	0x3d4d30d3	0.05009539
203	0x3e40158a	0.18758217
204	0x3bd4df61	0.0064963554
205	0xbd94216f	-0.072329395
206	0x3dba05be	0.090831265
207	0xbe0fa600	-0.14028168
208	0x3c4efedd	0.012634006
209	0xbde83aa1	-0.113393076
210	0xba837698	-0.001002985
211	0x3dc0b6cd	0.094098665
212	0xbd0b3dc7	-0.033994462
213	0xbda7a4f1	-0.08185757
214	0x3cd2a8ca	0.02571525
215	0x3ef16ef1	0.47154954
216	0x3d7c675e	0.061622016
217	0x3d706ac2	0.058695562
218	0xbf316582	-0.69295514
219	0xbdde3b84	-0.108511955
220	0xbe098ca3	-0.13432555
221	0x3dd60942	0.104509845
222	0x3e3081e1	0.17237045
223	0x3e069a3e	0.13144776
224	0x3e0f62e9	0.14002575
225	0xbe135604	-0.14388281
226	0xbd6daff9	-0.05802915
227	0xbd9ef77d	-0.077620484
228	0xbd64b826	-0.05583968
229	0x3e2085f2	0.15676096
230	0x3dc59a67	0.096485905
231	0xbd6dce39	-0.058057997
232	0xbe0aedf0	-0.13567328
233	0xbe08d058	-0.13360727
234	0xbe3aa2aa	-0.18226114
235	0xbe4d9d2e	-0.2007949
236	0xbd46264d	-0.04837637
237	0x3db3a4eb	0.0877169
238	0xbd8fb953	-0.0701777
239	0xbebd3647	-0.36955473
240	0xbed6529e	-0.41859907
241	0x3e0fde10	0.14049554
242	0xbe0c4c47	-0.13700972
243	0xbd1b96a2	-0.03798545
244	0x3e1847a4	0.14871079
245	0x3e33003d	0.1748056
246	0x3d9c8fd6	0.07644622
247	0xbd8b7710	-0.06809819
248	0x3daabfe8	0.083373845
249	0x3de8360c	0.113384336
250	0xbd2af96f	-0.041741785
251	0xbde71b49	-0.11284501
252	0x3d85acae	0.06527077
253	0xbd958aee	-0.07301889
254	0x3ad1fd90	0.0016021002
255	0x3e8af6bf	0.27141377

self_entity_fc1.bias f4 [32]
0	0xbc89fc48	-0.01684393
1	0x3e85cbbf	0.26132008
2	0x3cf9e1cf	0.030503182
3	0xbe6a0c9d	-0.22856374
4	0xbd80c65c	-0.06287834
5	0xbdf47746	-0.11936812
6	0x3e6d5f45	0.23180874
7	0x3dfdef97	0.12399214
8	0x3e5b17d9	0.21395816
9	0x3e150fa1	0.14556743
10	0x3d9b355b	0.07578536
11	0x3e5e4d54	0.21709186
12	0x3ccd5405	0.025064478
13	0xbcc9f785	-0.02465416
14	0xbde67746	-0.11253218
15	0xbd0a5634	-0.033773616
16	0x3e16ec74	0.14738637
17	0x3e155389	0.14582647
18	0x3e63585f	0.2220168
19	0x3d438353	0.047732662
20	0x3e660981	0.22464563
21	0x3de4c957	0.11171215
22	0x3e733adc	0.23752922
23	0xbd8e1044	-0.06936696
24	0x3e72d577	0.23714243
25	0x3dd9d579	0.1063642
26	0xbe5dedf1	-0.21672799
27	0x3d36553a	0.044514872
28	0x3ec82384	0.39089596
29	0x3f041dee	0.5160817
30	0xbd74eb43	-0.059794676
31	0x3d4d890e	0.050179534

self_entity_fc2.weight f4 [32, 32]
0	0xbd913f68	-0.07092172
1	0x3e348346	0.17628202
2	0x3ef77417	0.48330757
3	0xbed401c8	-0.4140761
4	0x3e476f49	0.19476046
5	0x3dcc2be8	0.09969312
6	0xbe37aab9	-0.1793622
7	0x3e4a49f9	0.19754781
8	0xbefc0eba	-0.49229985
9	0xbd62c617	-0.055364694
10	0x3d8400c0	0.064454556
11	0xbdfb0a84	-0.12257865
12	0xbd9ff110	-0.07809651
13	0x3dd99005	0.10623173
14	0xbeb62e44	-0.35582173
15	0x3d83170b	0.064008795
16	0x3dc17790	0.09446633
17	0x3db243b6	0.08704321
18	0x3db9a693	0.09064975
19	0x3d2f2aa5	0.04276528
20	0x3bbe9f37	0.0058173197
21	0x3b93038f	0.004486508
22	0xbda09aa0	-0.078419924
23	0x3e76fde4	0.24120289
24	0x3b8aa737	0.0042313593
25	0x3dcc9f3c	0.09991309
26	0xbec2362e	-0.3793196
27	0x3e5c65b0	0.21523166
28	0x3f0952d4	0.5364201
29	0x3f09a7f8	0.53771925
30	0x3e7be1d9	0.24597873
31	0xbd2f5f1a	-0.042815305
32	0x3e8bb118	0.2728355
33	0x3def65b4	0.1168932
34	0xbd39b077	-0.045334306
35	0x3d93cedf	0.07217192
36	0xbf0cc501	-0.54988104
37	0xbdd3dcb0	-0.10344827
38	0x3f3ad0f4	0.7297509
39	0xbdd94194	-0.10608211
40	0x3f0c832d	0.5488766
41	0x3b062ac1	0.002047226
42	0x3e9219d3	0.28535327
43	0x3f10035f	0.56255144
44	0x3cd709d1	0.026249798
45	0xbf0c9b66	-0.5492462
46	0x3e01c482	0.12672618
47	0x3e3614f8	0.17781436
48	0x3e838a85	0.2569162
49	0xbd6092bf	-0.054827448
50	0x3cf1ef47	0.029533042
51	0xbe00f1cc	-0.12592238
52	0x3d7be11c	0.061493978
53	0x3dd2bbfb	0.10289761
54	0xbe14b931	-0.1452377
55	0xbe05ec41	-0.13078405
56	0xbe80ab39	-0.25130633
57	0x3d746d58	0.05967459
58	0xbddee538	-0.10883564
59	0xbde5e6b9	-0.112256475
60	0xbf0824c4	-0.531811
61	0xbf170499	-0.5899139
62	0xbe05a102	-0.13049701
63	0xbdcab9d9	-0.09898729
64	0xbd96da35	-0.073658384
65	0xbd6830fd	-0.056687344
66	0xbeed2a7c	-0.46321476
67	0xbea004e3	-0.31253728
68	0x3e5be94b	0.21475713
69	0xbe1332a5	-0.14374788
70	0xbd89fe20	-0.067379236
71	0x3e0798b6	0.13241848
72	0xbf860f78	-1.0473471
73	0xbca89264	-0.020577617
74	0x3db0151d	0.08597777
75	0xbb440243	-0.0029908575
76	0xbd8995d2	-0.06718029
77	0xbf1a6ecc	-0.6032531
78	0xbeb0883f	-0.34478948
79	0x3dcdac0c	0.10042581
80	0x3d87909f	0.06619381
81	0x3d59ed3c	0.05320476
82	0x3e8c3f57	0.27392074
83	0xbe7f057d	-0.24904437
84	0x3d2354b6	0.03987571
85	0x3d970766	0.07374458
86	0x3da95aca	0.0826927
87	0x3e5114b1	0.2041805
88	0x3dca1f19	0.09869213
89	0x3e461a2f	0.19345926
90	0xbeceddda	-0.40403634
91	0xbd3c6cc0	-0.04600215
92	0x3cd2eeec	0.025748692
93	0xbd9c97d8	-0.076461494
94	0xbc20092c	-0.009767812
95	0xbcffb3d3	-0.031213677
96	0x3cd834c2	0.026392344
97	0xbe208a51	-0.15677764
98	0xbeda9170	-0.42689085
99	0x3de37316	0.11105935
100	0x3e1e2181	0.15442468
101	0x3e5951a3	0.21222548
102	0xbd6f8546	-0.05847671
103	0xbed1089a	-0.40826875
104	0xbee4df57	-0.44701645
105	0xbe7e61c2	-0.24841979
106	0xbf119273	-0.5686409
107	0xbcc6b632	-0.0242568
108	0x3e948e3f	0.29014775
109	0xbf101589	-0.5628286
110	0x3e9dbdb7	0.30808803
111	0x3e065070	0.13116622
112	0x3d546bb6	0.051860534
113	0x3e51e845	0.2049876
114	0xbed76a5b	-0.4207333
115	0xbbeea668	-0.0072830208
116	0xbe1c9349	-0.1529056
117	0xbe751efb	-0.239376
118	0xbdf8ba2d	-0.12144885
119	0xbd92a43e	-0.07160233
120	0x3b977a29	0.004622717
121	0xbda8d8df	-0.0824449
122	0x3e688aa4	0.22709137
123	0xbef4387d	-0.47699347
124	0x3e26adb2	0.16277197
125	0x3dde9af2	0.10869397
126	0xbddbba1b	-0.10728856
127	0x3e364250	0.17798734
128	0x3ec8dd24	0.39231217
129	0x3e22c8a5	0.15896852
130	0xbdbc1dd4	-0.09185377
131	0xbd0c9ff7	-0.034332242
132	0xbebd76c6	-0.3700468
133	0xbdef47f3	-0.11683645
134	0x3e5101ff	0.20410918
135	0xbe08982e	-0.13339302
136	0x3f043da3	0.5165655
137	0xbcc5896c	-0.02411338
138	0x3e7d3010	0.24725366
139	0x3f1500c1	0.58204275
140	0x3e0f6b76	0.14005837
141	0xbf379b4b	-0.71721333
142	0xbd1ceee7	-0.038313773
143	0x3e581411	0.21101405
144	0x3e66746e	0.22505352
145	0x3c96b46a	0.018396575
146	0xbd1e4000	-0.038635254
147	0xbac89f07	-0.0015306183
148	0x3e9a1122	0.30091196
149	0x3dad0977	0.08449071
150	0x3c34f33d	0.011044321
151	0x3e190668	0.1494385
152	0xbeb36540	-0.35038185
153	0x3db1dcc0	0.08684683
154	0x3d39e11f	0.045380708
155	0x3d827625	0.063701905
156	0xbed3c552	-0.4136148
157	0xbefb3748	-0.49065614
158	0x3ce23bf7	0.027616484
159	0xbbc2cf2d	-0.0059451074
160	0x3e015bb8	0.12632644
161	0x3e9b408f	0.30322692
162	0x3ebf6167	0.37379
163	0xbd9db1d1	-0.076999314
164	0x3e20e46f	0.1571214
165	0xbd31dbc1	-0.043422464
166	0x3e0ccae2	0.13749269
167	0x3dc0824c	0.09399852
168	0x3f6f33a6	0.93438184
169	0xbe2bdc83	-0.16783337
170	0x3ea2891e	0.31745237
171	0x3e65e1e1	0.22449447
172	0xbe77eb07	-0.2421075
173	0x3ed18189	0.4091914
174	0x3e334b60	0.17509222
175	0x3e2c00fa	0.16797248
176	0x3e4f56ac	0.20247906
177	0x3cbb8c8f	0.022894172
178	0x3cd805de	0.026369985
179	0x3e085b11	0.13315989
180	0x3dbc0e0a	0.09182365
181	0xbdc277ea	-0.09495528
182	0x3dcfe296	0.1015064
183	0xbbdeeebb	-0.0068033612
184	0x3e81a283	0.253193
185	0xbe0eadb0	-0.13933444
186	0xbe678c6b	-0.22612159
187	0x3dad3f10	0.08459294
188	0xbe90a0a7	-0.28247568
189	0xbeebc271	-0.46046785
190	0xbd658dbd	-0.056043375
191	0xbe3678b7	-0.17819487
192	0xbce1b2eb	-0.027551135
193	0x3e46d2de	0.19416377
194	0x3e397adb	0.18113272
195	0xbeaadd61	-0.33372024
196	0x3dbe9431	0.09305609
197	0x3d93b9ee	0.07213198
198	0xbec4292e	-0.38312668
199	0x3cebdf4c	0.028793
200	0xbf8e2abf	-1.1106795
201	0x3abd9ebf	0.0014466866
202	0x3e63410f	0.22192787
203	0xbdfd6d0f	-0.12374317
204	0xbe42b90a	-0.190159
205	0xbf16a6e3	-0.588484
206	0xbcbc266e	-0.022967543
207	0xbdc72f25	-0.09725789
208	0x3e166a88	0.14689076
209	0x3e6ce9ee	0.23136112
210	0x3dfe8148	0.12427002
211	0x3dce9c48	0.10088402
212	0x3e35b92a	0.17746416
213	0xbdf30e04	-0.11867908
214	0x3e5dce87	0.21660815
215	0x3de41211	0.111362584
216	0x3de65662	0.11246945
217	0x3ce716a4	0.028209038
218	0xbef58552	-0.47953278
219	0x3e8f6d72	0.28013188
220	0xbd4f15a9	-0.050557766
221	0xbdaafce5	-0.08349017
222	0xbd176b1d	-0.036967386
223	0x3c991118	0.018684909
224	0x3ee5de9c	0.448964
225	0x3b72693b	0.0036988992
226	0x3ddd13ef	0.10794818
227	0xbd885017	-0.06655901
228	0xbd9d1a0e	-0.07670985
229	0xbe42c53e	-0.19020554
230	0xbe9b15c8	-0.30290055
231	0x3d33a674	0.043859914
232	0x3ed2cdae	0.41172546
233	0x3d3a57fb	0.04549406
234	0x3dc817cd	0.09770165
235	0x3f0c4b14	0.5480206
236	0xbc6d6a50	-0.014490679
237	0xbf462b03	-0.7740938
238	0x3ca6deab	0.020369848
239	0x3db1ca87	0.08681207
240	0x3d01b9c9	0.03167132
241	0xbd96bf3b	-0.07360693
242	0x3d7053de	0.058673732
243	0x3cf6b907	0.030117525
244	0x3e168f9f	0.14703225
245	0xbdbca5b0	-0.0921129
246	0xbd1ef7cd	-0.03881054
247	0x3e872031	0.26391748
248	0xbe9576b3	-0.29192123
249	0x3d848eed	0.064725734
250	0xbd7013b8	-0.058612555
251	0xbd01436a	-0.03155843
252	0xbee8600e	-0.45385784
253	0xbec6bf85	-0.38817993
254	0x3d3cbf6b	0.046080988
255	0x3d69d1e8	0.057084948

self_entity_fc2.bias f4 [32]
0	0x3dca6dae	0.09884201
1	0x3dafe130	0.08587873
2	0x3c9874a1	0.0186103
3	0xbd9ab62d	-0.075542785
4	0x3e45187f	0.19247626
5	0xbd19040d	-0.03735738
6	0xbce41cf5	-0.027845839
7	0x3e888a6b	0.26668105
8	0xbd7516cd	-0.059836198
9	0xbdfb87e9	-0.12281782
10	0x3e2f1308	0.17097104
11	0x3bf27fd3	0.0074004917
12	0xbe192b2f	-0.1495788
13	0x3e2e2fca	0.17010418
14	0xbd08e418	-0.033420652
15	0xbdf21a0a	-0.11821373
16	0xbdc6a484	-0.096993476
17	0xbe0d8319	-0.13819541
18	0xbd53394b	-0.05156831
19	0xbdd6c7bb	-0.10487314
20	0x3e2e0b9b	0.16996615
21	0x3e1489f9	0.14505757
22	0x3cdcde83	0.02696157
23	0xbe3dc8b2	-0.1853359
24	0x3da592ae	0.080846176
25	0xbd35c0b9	-0.044373248
26	0xbd951975	-0.07280246
27	0xbdfe6537	-0.12421649
28	0x3dce7265	0.10080413
29	0xbd6ce9b6	-0.05784007
30	0x3dcf09d0	0.101092935
31	0x3e2dce47	0.1697322
