my-submission/checkpoints/model_1631232.pt (torch, 352797 bytes, 23 tensors)

local_map_cnn.0.weight f4 [32, 24, 3, 3]
00000000: a67c 88bd ee84 463d 2821 0d3e 8127 873c
00000010: 2e43 0dbd de23 9b3d c0b3 c7bd 65bc a0bd
00000020: 26bf c63d 67c2 583d 0545 39bd 342e 1dbe
00000030: 69e8 c03d 8dfa 03bc 4419 0d3e dc7e 2ebc
00000040: f4fa bc3b 9f0e 28be d7f6 c4bc aa1f 9e3c
00000050: 662e e33d a7aa c23c b0b9 99bd c3da b7be
00000060: 6f7c 20bd c74a 4bbd 18f0 773d 37e2 413c
00000070: baa4 2b3c cbe4 0d3e ff31 13bd 639a a6bd
00000080: 3bfe a9be a41a cabd 6d36 a3bd 5d18 313c
00000090: b6d1 edbc dda6 ecbc 17fd 883d 7dcf 86bc
000000a0: 10e7 183d 43b9 023d c6c3 46bc d160 8abd
000000b0: 59dd b53d c6b8 b63d 63a7 bf3d c804 17be
000000c0: 6316 073d c5d8 8a3c bf1e 263e 56f3 b33c
000000d0: 7790 f73c a293 8cbe 497a 9dbd bb33 5abd
000000e0: 7c53 0dbe 49aa debc 15ce 4bbe 2ef6 27be
000000f0: 0845 54bd 5be5 04be 4568 02bc dc7e 34bd
00000100: 1772 5bbd 2eb4 c13c 1bdd 65bc 5925 1fbe
00000110: 0747 d9bd 183b c2bd ebec b9bd 96bb 41bd
00000120: a407 8ebd 6151 9c3c 5773 aa3d 4130 e7bd
00000130: f90f 8fbe 87ff afbd 36a1 b5bd 7cab ffbc
00000140: be3d 123d b702 46bd 1492 03bc 1ed5 debc
00000150: c456 a73c ebbc 80bd 65cf 89be f59e 993d
00000160: 908b dfbd 583a 0c3d b1d6 d5bd 25b4 2a3e
00000170: e502 983c 0f20 c5bb cf04 e6bd 40a5 b0be
00000180: 823b 39bd f8d6 9cbd 2640 ea3c 7089 a2bd
00000190: bbd6 9dbd 6069 823c a987 17be 3175 e3bd
000001a0: 8702 14be 23ec 043d a4ac 4dbd fc2d 6ebd
000001b0: 71fa 5bbc b307 b8bb 2956 ae3d b5ec 28be
000001c0: 3e3f abbd d53e 9ebe 0265 bfbd 550d 25be
000001d0: 7dc8 013d b4d9 953d f953 86bd b45c c63d
000001e0: 87ab ddbc df75 243d 460c 16be 74e2 0ebe
000001f0: a4e8 12bd 4f8d b13c 9d2a 62bd 9cb3 92bc
00000200: 6a38 18be 0e06 bf3c 095e 51bd ee58 e83d
00000210: e37a bcbd 34ac c13c 5424 21be 0343 18bd
00000220: 98b8 69bc 5b15 163e e7e4 843d 0715 cd3b
00000230: c14f e3bd 7422 c3bc 8971 a53c f3c5 803e
00000240: 51a8 8b3d b299 b73d 2908 123e 557f 773c
00000250: b80c 31bd 8141 03bf 8048 fc3c 6dc4 83bd
00000260: 6560 3b3e 9e2f 53bd 0bbd a6bd 5c3e 9abd
00000270: be1d 4abd 597a 70bd e163 f1bc 3351 c53c
00000280: 3792 47bd 765f 1fbe db81 133e a02b 7fbd
00000290: 0ca4 943e 3c60 21bd eb9a 66ba 65cb f33e
000002a0: a443 7e3e f2eb c93c 0451 be3e a8fb 8abc
000002b0: 6838 613d 49fb 323d 182b ba3c 2368 68bd
000002c0: 79e9 203d 63c4 713d 60b2 d33d f6b8 08bd
000002d0: 1a78 3dbe 3ab0 f8bd 4a25 b9bd 01a6 983c
000002e0: 8167 5bbe 25f4 29be 6061 21be ddc2 afbd
000002f0: 9b49 6a3c 9ad9 e83e 477d 253f 9fcb a53e
00000300: 5f23 2c3f 95ec 143f 7a96 e63e a62b 6dbd
00000310: 9ddb 8d3e 1141 bd3d fb80 df3e 9a71 043f
00000320: e810 6d3d 7f5a 443f 8786 3c3f 3fd5 3b3d
00000330: 339d 183e 8b0d de3e 87b5 9d3e d083 0a3e
00000340: 28d3 5a3d 4005 a13d cae5 8e3d 0d29 a5bc
00000350: 15be cdbd 4a50 af3d fe7d e6bc 937e 06bd
00000360: 22a1 353d 6528 6abc 40bc 903d 757e 12bd
00000370: 68f0 663d 9186 793d 1240 6bbd 5982 853d
00000380: 71a5 4abd 7da0 4a3b 473a 863d 9c01 ef3a
00000390: df92 313d ee44 7b3c dad0 1e3c 9a6d 363d
000003a0: 56bc af3d 870b cc3c 1342 84bc 56f2 2abb
000003b0: d77b 103d 207c d4bc 5458 73bd a419 053d
000003c0: 0a27 86bc 1ab4 25bc 984a 943b 3246 f83c
000003d0: 81b4 4cbc 1393 c13c 8a38 093d de61 323d
000003e0: 373b 993d 5084 ce3c 9145 533d 41f0 623d
000003f0: 73ec 7a3d dd20 093d dcaf 3b3d b51f 05bd
-0.066644 0.048466615 0.1378218 0.01649833 -0.034487896 0.075752005 -0.097510815 -0.078484334
0.097044274 0.05291977 -0.045231838 -0.15349656 0.09419329 -0.008055341 0.1377917 -0.010650363
0.0057672206 -0.16411828 -0.024043484 0.019302208 0.11092834 0.023763014 -0.0750612 -0.3590909
-0.03918117 -0.04963186 0.060531706 0.011833719 0.010476286 0.13856809 -0.035936352 -0.08134916
-0.33201775 -0.098683625 -0.07969365 0.010809031 -0.029030662 -0.02888816 0.06688898 -0.01645636
0.037329733 0.03191496 -0.012131637 -0.067567475 0.08880109 0.089219615 0.09358098 -0.14747918
0.032980334 0.016949067 0.16222666 0.021966618 0.030220253 -0.27456385 -0.0768934 -0.05327199
-0.13801378 -0.027180808 -0.19902833 -0.16402504 -0.051823646 -0.12978117 -0.00795943 -0.044066295
-0.0535756 0.023645487 -0.014029766 -0.15541591 -0.106092505 -0.094839275 -0.09078392 -0.047298037
-0.06935051 0.019081773 0.083227806 -0.112885006 -0.27941874 -0.0859366 -0.08868639 -0.0312097
0.035703413 -0.048342433 -0.008030433 -0.027201232 0.020427115 -0.06286033 -0.26916042 0.07501022
-0.10915291 0.03423533 -0.1044134 0.16670282 0.018556068 -0.0060157846 -0.11231386 -0.34501076
-0.045222767 -0.076581895 0.028595041 -0.079363704 -0.07706972 0.015919387 -0.14797844 -0.11106337
-0.14454089 0.03245176 -0.05021347 -0.058149323 -0.013426409 -0.005616152 0.085125275 -0.16496547
-0.08361672 -0.30907312 -0.093454376 -0.16118367 0.03168534 0.07316914 -0.06558985 0.096856505
-0.02705933 0.040151473 -0.1465312 -0.13953573 -0.035866395 0.021673827 -0.05521642 -0.01790791
-0.1486527 0.023318317 -0.05111507 0.11345087 -0.09203126 0.023641683 -0.15736514 -0.037173282
-0.014265202 0.14656584 0.06488972 0.00625861 -0.11099196 -0.02382014 0.02019574 0.25151023
0.06819213 0.08964862 0.14260925 0.015106042 -0.04322502 -0.51271826 0.03079629 -0.064339496
0.1829849 -0.051559083 -0.08141526 -0.07531425 -0.04934477 -0.05871043 -0.029466571 0.02408657
-0.048723426 -0.15563759 0.14405005 -0.062297463 0.29031408 -0.039398417 -0.0008796888 0.47616115
0.2483049 0.02464864 0.37171185 -0.016965702 0.054985434 0.043696675 0.022725627 -0.056739938
0.039285157 0.05902518 0.10336757 -0.033379517 -0.18502846 -0.121429875 -0.090403154 0.018633844
-0.21426202 -0.1659704 -0.15759802 -0.08582089 0.0142997755 0.45478517 0.64644283 0.32381913
0.6724147 0.58173496 0.4503668 -0.057902955 0.27706614 0.09240926 0.43653092 0.5173584
0.05787745 0.76700586 0.7364277 0.045857664 0.14903717 0.43369707 0.30802557 0.13526845
0.05342403 0.078623295 0.069774225 -0.020161176 -0.10046021 0.08560236 -0.02813625 -0.032835554
0.04434312 -0.014291857 0.07067156 -0.03576513 0.056381613 0.06091935 -0.05743415 0.065190025
-0.049474183 0.0030918412 0.06554084 0.0018234733 0.043352958 0.015336258 0.009693349 0.044538118
0.08580844 0.02490784 -0.016144788 -0.0026084385 0.035274353 -0.025938094 -0.05941041 0.032495156
-0.016376037 -0.01011374 0.004525494 0.03030691 -0.012494207 0.0236297 0.033501185 0.043550365
0.074819975 0.025209576 0.051580016 0.055404905 0.06126065 0.033478606 0.04582201 -0.03250094

local_map_cnn.0.bias f4 [32]
00000000: 23f9 06bc 1c00 23bd a8c4 50bc aaf8 a6bd
00000010: d69b 303d 225b 353c 8de4 b03c a172 3bbd
00000020: ee4e bd3b 2c64 c6bd 738a ac3b 36ea 23bc
00000030: b6b2 d2bc 4edf 12bd b880 17bd 2eb0 09be
00000040: da33 22bd bfed 3c3d 5076 1c3d 4381 533d
00000050: bf34 a0bd c1e2 963d 4d77 f13b 335f 60bd
00000060: 803a 99bd efe6 8abd cca7 69bd 6ecd bdbc
00000070: e785 6a3d 4636 433d 4cb3 bb3d 44c0 7f3c
-0.00823811 -0.039795026 -0.012742199 -0.08152898 0.043117367 0.011069091 0.021593357 -0.045763616
0.0057772314 -0.09687075 0.005265528 -0.010004571 -0.025719982 -0.03585749 -0.03698799 -0.13446113
-0.03960023 0.04612517 0.03819877 0.051636945 -0.078225605 0.073674686 0.007368958 -0.05477829
-0.07481861 -0.06782328 -0.05704479 -0.023169246 0.057256605 0.04765918 0.091650575 0.015609805

local_map_cnn.2.weight f4 [32, 32, 3, 3]
00000000: 3572 103e 7c98 b5bc 8bb7 f2bd e041 ecbd
00000010: 07f8 e3bd a3f3 5e3d acd2 aebe 6143 dbbc
00000020: f863 5bbc ab4d f9bc c3ee abbd f3ee 3dbd
00000030: 65d0 2bbd f478 90bd 61e9 99bd 0582 953c
00000040: 5955 58bd 81d0 cebd 8bd7 b43d 4585 b1bd
00000050: dd31 d63c 8296 083e 3a0a 053e c4f6 373e
00000060: 8fee 8dbd 1739 02be 19f7 9139 5e53 04bc
00000070: 1f79 443e b123 223e 2f13 923d 8553 863e
00000080: 6ffe 473e cd5c dcbd 9860 8abc 6702 063e
00000090: d7a4 aaba 2aef 65bd b80c 643d 03a9 223d
000000a0: eb69 77be 95a2 9dbd b6d4 6cba ee85 24be
000000b0: 8af8 1cbd 5f23 bdbd 2052 d4bd e108 093c
000000c0: 7699 46bd e6cb 63be b58f b9bd 895c 84bb
000000d0: 6b78 2ebd ae9c 263d 6c42 31bc 5bc2 33bd
000000e0: 2b4d 74bd 24e0 eebc 0e86 12bd 0fd9 c0bd
000000f0: 12e7 abbc ac0b 12be 7865 1ebd 998f c73d
00000100: 76b4 b83d 2b96 ea3d 1722 9f3d aa6c eb3d
00000110: ad63 193e 6138 2c3d 29fb e63d 9825 0d3e
00000120: 1418 ef3d 2c63 7e3e d43a bfbd 2eb6 e43d
00000130: 381b aabd 68d7 1fbd 77b8 cf3d 4dd0 fabb
00000140: ac72 c2bd 8afc 3d3d ed01 ae3d 1b4b b53c
00000150: 9716 4c3d d5ee d73d 5d07 973d 4b3a ccbc
00000160: 0713 163d d334 213d ae61 c83b 4565 5abd
00000170: 7489 653d 3632 433d 8c0a febd ccc0 44bd
00000180: 76ee 25bd d4e8 34be d5da 2b3d 8231 7a3e
00000190: 6929 c43c dabe 513e 5418 853c 3ca7 913d
000001a0: cbf4 df3d 1750 003d 58b6 45bd 87a6 be3d
000001b0: 17e8 0dbd 57bd 293d 8b37 5abc 6c5e ef3d
000001c0: fee3 d3bc add7 27be 2461 2c3d 1535 f3bc
000001d0: 8f03 b53c 77e6 3e3d 3ce1 eb3d fe26 1a3d
000001e0: 8cfc 843d feba c6bc e5aa e43c 288d ee3c
000001f0: 8614 773d af97 c03c d48e 98bd 9541 53bd
00000200: c31a 5bbd db69 01be 355f 05bc d9d0 67bb
00000210: 6b86 edbd c148 d5bd a169 303d d3b3 603c
00000220: eeba 9f3d ae25 edbc 46f6 62bd 6783 c13d
00000230: 0695 123d 80c7 4abe d02f 4a3b d719 fbbb
00000240: 0e06 8c3d 88f0 1b3e d9ca 213d 4879 163e
00000250: bbba 693e 6ed6 323c 65a1 c53c f885 a23d
00000260: 2d1b 083e 92ba 9f3d de6c 883d 5a24 db3c
00000270: 8ff0 b93c 8028 cd3d 7d67 2c3d 526e 36bd
00000280: b1ab 993d 758c a5bc 1b26 863d f8b2 13bd
00000290: 81be 8c3d ef76 9839 758d 4c3d 43a7 1c3e
000002a0: f64b 85bc eabc 81bd fe84 c73d 8bf8 2d3d
000002b0: 6d89 95bd ce64 9b3c 1312 f63d 6886 353e
000002c0: 3d5e de3d 3eda 043d b583 4f3d b285 153e
000002d0: ced1 58bc 639e da3d d0cf 4fbc ac6c bc3d
000002e0: 7ada 773c 8a85 9f3d 5cf0 07be a10e 26bc
000002f0: e7ee 0f3d 1800 ac3d 05ab 273e 3175 4bbc
00000300: f379 89b9 8a80 0e3d a367 783d 69bb 113d
00000310: e847 a7bd f154 c9bd 1440 193d a640 513d
00000320: cfa5 d13b 8744 ab3b 1cc5 ed3c e4a0 8d3d
00000330: 7b10 c13c c251 56bd 26d8 a3bc 4ce8 a03c
00000340: 3fc0 85bd 967c 823c ce21 353d 671a 6fbd
00000350: 5fc5 423c 44f9 aa3d 0ebc 51bb f95e 8c3d
00000360: 19da d0bd 1bb8 f43d 5716 64bd be3c 25bd
00000370: 444c 313e 2d4c c039 280f 18be fcb6 063d
00000380: a0d0 c63d 7604 f73d 5146 9b3d 82de c33d
00000390: 31a1 5a3d 3a8f 1d3e e1fd d33d a1af 813d
000003a0: 9e78 1b3d 625b 023e 7c0f f8bb 1726 c7bd
000003b0: 482f 5cbd 0f54 81be 99f9 833d 91e7 ccbe
000003c0: 1527 90bc 6803 80bd db4b 8cbd 9c8a 063b
000003d0: 5f48 67be 069b 123d 3eac 37be 0165 ccbe
000003e0: c65d 95bd e734 09be 4029 b6bc 2101 5cbc
000003f0: ea5a 673d 7c85 843d 8a33 b93d c1bf 3b3d
0.14106067 -0.022167437 -0.11851414 -0.11536002 -0.11131292 0.05443157 -0.34145105 -0.026765527
-0.013390534 -0.030432543 -0.083951496 -0.046370458 -0.041946787 -0.0705432 -0.075152166 0.018250475
-0.05281577 -0.10098363 0.08830174 -0.08667997 0.026146824 0.13338664 0.12992182 0.17965227
-0.06930267 -0.1271709 0.00027840657 -0.008076517 0.19186829 0.15833928 0.07132565 0.26235595
0.19530652 -0.10759888 -0.016891763 0.13086854 -0.0013019097 -0.056136288 0.055676192 0.039711963
-0.24161498 -0.07697026 -0.0009034382 -0.16066715 -0.038322963 -0.09235262 -0.103672266 0.008363933
-0.048486196 -0.2224575 -0.09060613 -0.0040393514 -0.04259531 0.040676765 -0.010819059 -0.043886524
-0.059643906 -0.029159613 -0.035772376 -0.09416401 -0.020984206 -0.14262265 -0.038670987 0.09744186
0.09018795 0.114544235 0.07770174 0.114953354 0.1497943 0.042045955 0.11278374 0.13783872
0.116745144 0.24842519 -0.093373924 0.111675605 -0.08305973 -0.039023787 0.10142606 -0.007654226
-0.09494528 0.04638342 0.08496461 0.02213054 0.04982623 0.105436005 0.07374451 -0.02493014
0.03663924 0.039357018 0.00611516 -0.053319234 0.05603929 0.047655307 -0.124043554 -0.048035428
-0.040510617 -0.17666942 0.04195674 0.24432948 0.023945527 0.2048296 0.016246952 0.071119756
0.109353624 0.03132638 -0.0482696 0.09309106 -0.034645166 0.041440334 -0.013318907 0.116879314
-0.025865551 -0.16390868 0.042084828 -0.029688397 0.022096423 0.046606507 0.115175694 0.037634842
0.06493482 -0.024259087 0.02791352 0.029120043 0.060322307 0.023509828 -0.07449117 -0.051576216
-0.05349232 -0.12638037 -0.008140375 -0.0035372286 -0.11597904 -0.10414267 0.043069486 0.013714748
0.07799326 -0.028948631 -0.055410646 0.09448891 0.03578665 -0.19802666 0.0030851252 -0.0076629925
0.06837092 0.15228474 0.03950009 0.14694703 0.22825138 0.010915382 0.02412481 0.07935709
0.13291617 0.07799257 0.0666139 0.026750732 0.022697715 0.100174904 0.04209088 -0.044538803
0.07503451 -0.020208577 0.06550237 -0.03605935 0.06872273 0.00029080312 0.04993959 0.1529818
-0.016271573 -0.063348606 0.09742163 0.042473357 -0.073016025 0.018968966 0.12015166 0.17727053
0.10857818 0.032434694 0.050662715 0.14601782 -0.013233615 0.10674741 -0.012683824 0.09200415
0.015127772 0.077891424 -0.13275284 -0.010135324 0.035139944 0.083984554 0.16373833 -0.012418077
-0.00026221536 0.034790553 0.06064571 0.03557912 -0.08168012 -0.098306544 0.037414625 0.051087044
0.0063979398 0.005226675 0.029024653 0.06915453 0.023567429 -0.052324064 -0.020000529 0.019642018
-0.06530809 0.015928548 0.04422169 -0.05837479 0.011887877 0.08348325 -0.0032002958 0.06854052
-0.10197849 0.11949178 -0.055685367 -0.04034113 0.1731425 0.0003667785 -0.14849532 0.03288935
0.09707761 0.12061398 0.07581771 0.09563924 0.05337638 0.15386668 0.10351158 0.06332327
0.037956826 0.12730172 -0.0075702053 -0.09724062 -0.05375603 -0.25259444 0.06444091 -0.4002042
-0.01759676 -0.0625065 -0.06850406 0.0020529395 -0.22586201 0.035792373 -0.17936799 -0.3992081
-0.072932765 -0.13399087 -0.022236466 -0.0134280035 0.056483187 0.064707726 0.090430334 0.045837168

local_map_cnn.2.bias f4 [32]
00000000: 5fc2 b0bc 7fa2 f03c 10df 79bb b724 a2bc
00000010: d536 74bd 8cdf 2fbe e809 06bd cb62 0e3d
00000020: 1d9b 89bd e6c7 b3bd 9097 ffbd 7044 a5bd
00000030: 1d43 4abe 629d 1b3d 1716 e63c 2659 bb3d
00000040: 6d04 68be efdc a53c 9515 82bd 734f 59bd
00000050: 9cb3 71bd 2a41 0dbd 9645 3fbc f7db aebd
00000060: c96d 533c 0dac b63d 4f8a 0abe 62cc 1cbe
00000070: 6547 f23c 4910 f3bd 598d fabd 42d8 60be
-0.021577058 0.02937436 -0.003812734 -0.019792898 -0.059622604 -0.1717512 -0.03272429 0.034762185
-0.06719039 -0.08778362 -0.1248008 -0.08069694 -0.19752164 0.03799189 0.028086705 0.09147863
-0.22657938 0.02024695 -0.06351773 -0.053054284 -0.05900918 -0.034485973 -0.011674305 -0.08538049
0.012904593 0.08919535 -0.13529323 -0.15312341 0.02957506 -0.118683405 -0.12233991 -0.21957496

local_map_cnn.4.weight f4 [32, 32, 3, 3]
00000000: b783 9bbc cac2 38be 122b 913c b985 b33d
00000010: 8716 ffba 1992 76bb 9777 1abe 74f4 6bbe
00000020: 471d 09be 4202 233e 8ab7 b0bc a818 393c
00000030: 506c 903c 4b5a debe 1a28 7cbe 21c5 0cbe
00000040: e889 993e 1abe 173d 4edd e2bd ca9e d7bd
00000050: b570 613d 78d9 cebc d269 13be 5d44 80bd
00000060: 532f 893d ff71 b8be 7bfa 57bc 6b25 8bbd
00000070: 3334 a7bd 017b 833d 3101 13bd e04b c6be
00000080: a231 883d ccc3 9abd 1818 16be 5a14 2ebd
00000090: 8cff 153d 32b7 073d 4d39 633d dd5a 1b3d
000000a0: c126 17bd 47ba 3ebd fd94 b33d 0cee aebd
000000b0: 6a13 a73d d325 45bd af7b 003e 9053 9f3d
000000c0: 778c bdbd 587e 0bbe 51fe c23a de16 413b
000000d0: 8c40 82bd 61db 1abe c77c d33c a401 fc3d
000000e0: 5c42 003c e393 6b3d 4b28 70be f321 9b3c
000000f0: 03e3 ef3d fc57 fa3d 526a 033e 2d03 59bd
00000100: 7d30 ecbb dd4c 83bc ac10 cbbd e10a 373a
00000110: 1b45 383e a8cf 0cbd 0f8d 05be d04b 81be
00000120: bcbe 66bd 5238 293e 1ecc 8ebd a9e6 a43d
00000130: e614 a63e 4d19 65bd 926a a23c 7d06 d8be
00000140: a2e7 3d3c c4e9 babe 283e 0a3e 0eae 71bd
00000150: 5470 d23b 7187 89bd f3bc 4cbe 7818 c83c
00000160: bbcc 39be 4a22 933d e0c1 473d 06e4 a03d
00000170: b622 633e 4807 6cbd 3e7c 0fbe 4d95 af3b
00000180: 1fda 683d 7483 5bbc 59c8 753d 38f6 1d3e
00000190: e5ae 91bd b50f 643d 50af f2bc 8ba0 10be
000001a0: 05e5 98bc f6c6 c8bd 87ad bcbc 2704 e2bc
000001b0: 7682 fe3b 288d 73bb b692 a63d c525 0b3e
000001c0: 7e48 10be 95d2 07bc 0f81 8bbd 02e2 13be
000001d0: d99b 253e bba2 163e e37d b83d 4b6f b03d
000001e0: d10e c03d ebe8 19be d550 1abd 40d2 f2bb
000001f0: 7f8a 19bd c397 fcbd d06e b2bc 9a44 f8bd
00000200: 5335 f2bb 1bf3 d83d 13f6 5abd be66 d2bd
00000210: a2f9 7fba b02f 95be 4908 11be ff71 4c3d
00000220: 2711 14be 1e8f c83d 6ba4 27bd a461 adbe
00000230: 822e 0bbe 2517 babd 9c63 d1be 7185 13be
00000240: bd92 88bd 9635 f83b 646c 3d3e 1536 b3bc
00000250: f036 13be b957 383d 3b82 093c ffd1 a13d
00000260: 61c9 073d 3830 ec3d 1ae0 7abd a244 b4bd
00000270: e88d 9cbb e420 19be 56c8 c0bd 834b b5bd
00000280: fc45 173e c329 713d 6b31 cb3d 7876 e0bd
00000290: 3b7a d6bc 3639 7bbd 760b a1bd 59b2 48be
000002a0: 6f7c f13c ee8e 453d 393f dbbb 11c1 bdbc
000002b0: ab4b a53d 4623 933e 1fe6 293d 2103 a4be
000002c0: 2a80 32bd f04f 8dbc 4df5 dc3d 1202 d63d
000002d0: 1c36 5cbe a50d eb3d 6db4 523d d681 e9bd
000002e0: 92e1 873d cdd7 72bd 863a 853c 13a7 babd
000002f0: 8798 063e 27bd af3c 75f4 3abd 34e6 023e
00000300: 72b9 b23d 63bf 81be 65bd f3bb 22c7 213e
00000310: 4779 88bd adaa 343e 5b01 11bd 75b9 cebc
00000320: 4710 a4bd 0225 c6bc 038c 483e 3705 c63a
00000330: b4e7 043e 1f57 b43d 0eea 18be bd63 053e
00000340: 32d8 4fbd f27b 113e c041 513c 24dd efbe
00000350: c622 1abd 00f3 debc 9b8f e4bc 3206 97bd
00000360: dc2b e5bd 8c9e 423e d727 52be bf38 67bd
00000370: f00f 95bd 7947 013e 4db2 073e 1324 c73d
00000380: 8b3f 633d ed20 06bd 5834 17bc 1360 c9bd
00000390: ad51 073e c1c6 033e 3a74 103d 0f5f cd3d
000003a0: 355a 123e 6362 063e 215d 08bc a8e7 123d
000003b0: 75ff 403c 4c44 55bd 2bcd eabd fc15 c03c
000003c0: d9f6 443d 7dbc 35be 5bb6 2e3e 1a34 903d
000003d0: cf88 943d 5083 8e3d 2a80 b4bc b71e 26bd
000003e0: ea11 ac3b 8310 923d 0679 81bd af50 813d
000003f0: 0bcf 05bd fe8d b4bc c203 463d 6249 bcbb
-0.018983705 -0.18043056 0.017720733 0.0876574 -0.001946167 -0.0037623702 -0.15084682 -0.2304247
-0.13390075 0.1591883 -0.021571893 0.011297382 0.017629772 -0.43428263 -0.24624673 -0.13747074
0.29988027 0.03704653 -0.11077367 -0.105283335 0.055039126 -0.025250182 -0.14395836 -0.06263039
0.066984795 -0.36024472 -0.013182278 -0.06794246 -0.08164253 0.064199455 -0.035889808 -0.38729763
0.06650092 -0.075568765 -0.14657629 -0.042499878 0.03662066 0.033133693 0.05547457 0.03792845
-0.036902193 -0.046564367 0.08768652 -0.085414976 0.08158 -0.048131775 0.12547182 0.0777961
-0.09255307 -0.13622415 0.0014876818 0.0029463093 -0.063599676 -0.15122749 0.025816334 0.123050004
0.007828321 0.057514083 -0.2345287 0.018937087 0.11713221 0.12223813 0.12833527 -0.052981544
-0.0072079287 -0.016027862 -0.09915289 0.0006982517 0.17995112 -0.034377724 -0.13042091 -0.25253153
-0.056334242 0.1652539 -0.06972526 0.080518074 0.3243782 -0.05593233 0.019826207 -0.4219245
0.01159087 -0.36506474 0.13500273 -0.059003882 0.006422082 -0.067152865 -0.19993953 0.02442573
-0.18144505 0.071842745 0.048768878 0.07855992 0.2218121 -0.05762413 -0.14012238 0.005358374
0.05684864 -0.01339804 0.06000552 0.15425956 -0.071134366 0.055679042 -0.029624611 -0.14123742
-0.018663893 -0.09803574 -0.023031963 -0.02758987 0.007767017 -0.0037162993 0.08133452 0.13588627
-0.14090154 -0.008289953 -0.06811725 -0.14441684 0.16172732 0.14710514 0.09008386 0.086149774
0.09377826 -0.15030257 -0.037674744 -0.0074103177 -0.037485596 -0.12333634 -0.021781355 -0.1212246
-0.0073916106 0.10593244 -0.05345733 -0.10273503 -0.0009764676 -0.29137945 -0.14163317 0.049913403
-0.14459668 0.097929224 -0.040928286 -0.33863556 -0.1359196 -0.09086446 -0.40896308 -0.14406373
-0.06668613 0.0075747473 0.18498379 -0.021876374 -0.14376426 0.045005534 0.008392866 0.07901382
0.033151034 0.115326345 -0.061248876 -0.08802153 -0.0047776587 -0.14953953 -0.09413211 -0.08852293
0.1477279 0.058877718 0.09921535 -0.10960096 -0.02618133 -0.061333857 -0.07863514 -0.19599284
0.02947828 0.04823201 -0.0066908863 -0.02316335 0.08071073 0.2873785 0.041479226 -0.32033637
-0.043579258 -0.017250031 0.10788975 0.10449614 -0.21505016 0.11477212 0.0514416 -0.11401717
0.06634821 -0.059287835 0.016263258 -0.09113898 0.13144122 0.0214525 -0.04564329 0.12783128
0.08726777 -0.2534133 -0.007438349 0.1579862 -0.06663757 0.17643233 -0.035401683 -0.025234917
-0.08010917 -0.024187569 0.1958466 0.0015107755 0.12979013 0.088056795 -0.14933035 0.13026328
-0.05074329 0.14207438 0.012772024 -0.46848404 -0.03763082 -0.02721548 -0.027900508 -0.073742285
-0.11190006 0.19005793 -0.2052301 -0.0564506 -0.072784305 0.12624921 0.1325161 0.097236775
0.05548052 -0.032746244 -0.009228788 -0.09832778 0.1321475 0.12868787 0.035267092 0.100278966
0.14292224 0.13123469 -0.008322985 0.035865456 0.011779656 -0.052067086 -0.11464914 0.023447983
0.048086975 -0.17747684 0.1706175 0.070411876 0.07252657 0.069586396 -0.02203377 -0.040556636
0.005251159 0.071320556 -0.063219115 0.06314217 -0.032668155 -0.022040363 0.048343427 -0.0057460526

local_map_cnn.4.bias f4 [32]
00000000: f236 213d 8761 9bbc 9090 1fbe 53cc a4be
00000010: 7bd1 f3b8 3ae3 19bd 2354 8b3c 9b3f f6bd
00000020: e0a2 0b3e b95d 173d eda0 c73d 72cc cfbd
00000030: 9e6a cd3d 0b3b 123e 1219 1bbe 7f03 4b3e
00000040: f350 4fbe cb62 ae3d 308a ee3d 9cde 09be
00000050: 8a46 04be 748c 20bd 91d9 1c3d 98f5 90bd
00000060: da87 92bd 3b00 e33d aeb8 16be cf8a d43b
00000070: 0f9b b03c b998 5e3d 6fce 253c 8510 66bc
0.03935904 -0.018967403 -0.1558249 -0.32187137 -0.00011626162 -0.037570216 0.017007893 -0.120238505
0.1363635 0.036954615 0.09747491 -0.10146417 0.10030101 0.14280336 -0.15146282 0.19825552
-0.20245723 0.08514937 0.11647451 -0.13463825 -0.12917534 -0.039196447 0.038293425 -0.07078093
-0.07154818 0.11084028 -0.14718887 0.006486274 0.021558313 0.054344866 0.010120018 -0.0140420245

local_map_fc.weight f4 [64, 512]
00000000: 7e45 f2bc 32b7 4dbd 841d 33be 0d0b 0cbe
00000010: f3c0 7f3d b08f debd e486 04be acd2 543c
00000020: 4115 89bd 8e92 69bd 96d6 e8bd 27ab bb3d
00000030: 14f5 af3d f417 56bd a29e a73d 32fe 3bbe
00000040: a964 84bd 8b67 26bd 1b3e 17bd 2a91 253d
00000050: ca65 62bd 558e 49bd 5b43 45bd 3bd0 36bb
00000060: e5e6 36bd 8bdb 423d 6a90 36bb 7322 2fbd
00000070: 27a3 91bd bad2 0e3e 8c22 613d 636d d23d
00000080: 83bb d4bd 5307 debb 50c8 343d 980f 21bc
00000090: e8d2 a2be 9612 82bd 660a 813d 52d3 51be
000000a0: 5a7d 04bd 8264 62be 733d bcbb 34f5 a1bd
000000b0: 4156 c43d b072 b03d f0fe 2fbc ff6a ec3d
000000c0: da4f e23a 6c80 12be 49f4 2d3c 54e3 603d
000000d0: 8a45 14bd d0e2 93bd 37f2 f73c 4ff4 acbd
000000e0: ce31 fdbc 1210 893d 2598 cebb d22f 003d
000000f0: 8dbc ef3c 3311 bcbc 9a91 1fbd 257e 20bc
00000100: a72a e5bd 6bbe b5bd 9be4 d63c d8c6 20be
00000110: df3c 02bd a856 c1bd adc7 403c 6af1 08bd
00000120: b886 023e 5197 8d3b 069b 06bc bd78 80be
00000130: 6ebe 1d3c c4c0 003e 642d b1bd 18db eb3d
00000140: 3b80 f73c dbb5 463d f87e 15be e9e0 eabd
00000150: ce37 a0bd bc04 f6bd e55d e3bc 899b 4b3e
00000160: 1488 323b c266 873e a361 aebd 5370 ae3d
00000170: 06ba 46bd 46d7 85bd 5914 74bd ecf6 943d
00000180: 9745 b9bd 3418 4c3d b5ee c1bc d7ac b6bd
00000190: 8fec e6bd 03fc 923c f0ab 64bb f55f 1c3d
000001a0: 97cc 883d 86f1 763e 62cb bfbd 7e26 16be
000001b0: 2c17 d9bb 39c3 e4bc 93d3 35bd d9ef 323d
000001c0: 3d83 8d3d 0bf6 c13a fdab c63b 9f5c 90bd
000001d0: 3eb8 d7bd 7ecf 08be c3e1 003d d0e1 ae3d
000001e0: 9555 a1bd dd18 36be 6437 0ebe aeff 8c3a
000001f0: a646 7bbd cf18 e03c 09bb 3fbd 5725 553d
00000200: 6eb5 a5bd 664f 4fbe 7df5 1ebe 66f9 24be
00000210: d0d6 dabd e415 82bd 4f02 27be c340 f23d
00000220: bb93 0abd 7b39 d4bc 23f6 36be f809 5ebd
00000230: 9440 a73d 41c8 423d 3580 183d 690e 3cbd
00000240: 17da 17be 312c 4b3d 893b 2cbe f780 88be
00000250: d823 0d3c 1878 efbc cab7 33be ba92 5cbe
00000260: 9d3e 8ebd 721f 72bd 5dfc 4bbd 084f 3cbe
00000270: 1146 48be 76a7 efbd b60c b43d 209b 84bd
00000280: 63a9 8bbc dcb8 fabd 44f5 a53d a834 38ba
00000290: e2bc e2bd 3e46 9fbc 7d7e f83b 2a53 9ebd
000002a0: 661f 1abd 3afd a2bd a1ab 933d ce3f 59bc
000002b0: 663b d7bd f20a 67be 5164 a83d 3f07 49bc
000002c0: 6ec2 31bd cea7 a2bd 3bb6 eabd 86d5 e0bb
000002d0: ce87 8cbd 9ffc b8bd 20f3 46bd 774e 95bc
000002e0: 2437 babd fe93 52be 1673 f1bd 44f3 2c3a
000002f0: 5f31 3f3d 6e79 9a3d d755 933c 9b3d c93d
00000300: 7549 a1bd bce9 d1bd 96f8 00be 32c5 6bbe
00000310: db53 c5bd 2297 c1bd 6583 f7bc b1b2 0ebe
00000320: c169 be3c fa7c 523c b346 0a3d d6c8 93bd
00000330: 57a5 e53d 28fe af3d 158e 7bbd c294 513d
00000340: 4605 dbbc 78bf 12be 813b 90bc 750c bb3d
00000350: 27de 233d 2727 17be 4b1c 483d 35a9 733c
00000360: 2076 ff3b 36f1 a93c 24a4 193d c688 363d
00000370: 3159 c8bc a982 fdbd 3b03 ff3c 5d1e 133d
00000380: c2c7 93bd 17d7 d9bc de82 5dbd b785 c73d
00000390: b898 c93d 0555 48bd bf1e c53d 6356 ae3d
000003a0: adee 143d 44c6 5abd eaa9 ab3d 6e53 87bd
000003b0: 10cc 60bd 191d c8bd f0fe a53d fc7d 91bd
000003c0: 0de8 84bd 2a27 dbbb cb54 eebd 7634 293d
000003d0: e671 dbbd a999 1dbd 5985 53be 3c1b d03c
000003e0: 4db5 c8bd 6e60 debd dc82 40bd 8740 12bd
000003f0: 0241 bb3c 74b0 edbb 5ef2 18bd 461d 6dbd
-0.029574152 -0.050223537 -0.17491728 -0.1367609 0.06243987 -0.1086725 -0.12942082 0.012989681
-0.06693507 -0.05702453 -0.11369054 0.09163504 0.08591667 -0.052268937 0.08184554 -0.18358687
-0.06464512 -0.04062609 -0.036924463 0.040421642 -0.055272855 -0.049208004 -0.04815994 -0.002789511
-0.044653792 0.047572654 -0.0027857074 -0.042757463 -0.07111197 0.13947573 0.054964587 0.1027477
-0.103873275 -0.0067757755 0.044136345 -0.009830378 -0.31801534 -0.06351201 0.063008115 -0.20490769
-0.032346107 -0.22108653 -0.00574463 -0.07908097 0.09586764 0.08615625 -0.010741934 0.115438454
0.0017266229 -0.14306802 0.010617324 0.054904297 -0.03619913 -0.072209954 0.030266864 -0.08445036
-0.030907538 0.06692518 -0.006304758 0.031295605 0.029264713 -0.02295742 -0.038957216 -0.0097957
-0.11189776 -0.0887421 0.026232054 -0.15700853 -0.031796332 -0.094403565 0.011766356 -0.033433355
0.12746704 0.004321017 -0.008215671 -0.25092116 0.0096279215 0.12573534 -0.08651236 0.11516398
0.030212512 0.048513275 -0.14599216 -0.114686795 -0.07823144 -0.12012622 -0.027754733 0.1988355
0.0027241753 0.26445585 -0.085147165 0.08517518 -0.04851725 -0.06535201 -0.059589718 0.07273659
-0.09046476 0.04982777 -0.023673395 -0.08919685 -0.11275589 0.017942434 -0.0034892522 0.03817745
0.066796474 0.24115571 -0.09364964 -0.14663121 -0.0066250768 -0.02792512 -0.044391226 0.043685768
0.06909797 0.0014798058 0.006062983 -0.07048916 -0.10533188 -0.13360402 0.031465303 0.08539164
-0.078776516 -0.17782922 -0.13888317 0.0010757351 -0.061346672 0.02735558 -0.04680923 0.052037563
-0.080912456 -0.20245132 -0.15523334 -0.16110763 -0.106855035 -0.063518316 -0.16309474 0.118287586
-0.033832293 -0.025906315 -0.17867331 -0.054208726 0.08166614 0.04755426 0.037231643 -0.04591218
-0.14829288 0.04960269 -0.16819586 -0.26660892 0.008614503 -0.02923207 -0.17550579 -0.21540347
-0.06945536 -0.05911202 -0.04980122 -0.18389523 -0.19557978 -0.117018625 0.08791487 -0.064749
-0.017048543 -0.122422904 0.08103421 -0.00070268894 -0.11071183 -0.019442674 0.007583438 -0.07730706
-0.0376276 -0.079584554 0.0721047 -0.013259841 -0.10509376 -0.22562769 0.08222259 -0.012269794
-0.043398313 -0.079421625 -0.11460539 -0.0068613915 -0.0686184 -0.09032559 -0.048571706 -0.018225892
-0.090925485 -0.20564267 -0.11789529 0.00065975287 0.046677943 0.07542692 0.017985268 0.098262034
-0.07875339 -0.102496594 -0.12594828 -0.23024443 -0.09635135 -0.094526544 -0.030214021 -0.13935353
0.023243787 0.01284718 0.03375883 -0.07216041 0.11213177 0.08593398 -0.061414797 0.051167257
-0.026735913 -0.14330852 -0.017606499 0.09133235 0.040006783 -0.14761029 0.048855107 0.014871885
0.007796064 0.020744901 0.037510052 0.04456403 -0.024456592 -0.12378437 0.03112947 0.03591763
-0.07215835 -0.02659182 -0.054079883 0.09742301 0.09843582 -0.048909206 0.09625005 0.08512571
0.03636043 -0.053411737 0.08382018 -0.0660771 -0.05488211 -0.09771175 0.08105266 -0.07104108
-0.06489573 -0.0066880183 -0.11637267 0.041309796 -0.10715084 -0.03847662 -0.20656337 0.025403611
-0.098002054 -0.10858236 -0.046999797 -0.03570607 0.022858147 -0.007253701 -0.037340514 -0.057889245

local_map_fc.bias f4 [64]
00000000: 1906 83bd ae97 dcbd a34e 01bc 7f1f 8bbd
00000010: 288e 75bd 02d4 b1bd 9a25 b8bd be07 c33d
00000020: f4d9 bebb 9726 80bd 9957 4fbd ce05 23bd
00000030: 8b70 043e 36c0 173a db3b 08bd 776c a43d
00000040: 7a96 f83c 3b83 a3bc 4ef1 94bd 3a1e 043c
00000050: ea54 c6bd ffc8 f7bd f5db 273d 9cbf 873d
00000060: a85a 43bd 0567 7abd fe69 3e3d 8112 8fbd
00000070: f627 403d d9e8 4f3d 16a9 4fbc c0be edbd
00000080: 99a9 5b3d 71c5 163b cbf4 d5bc 0151 ddbc
00000090: f402 53bd 9572 d93d ed65 123e 3cc7 f13c
000000a0: f9bc 87bd 61da 88bd 59bb b33c e7d8 cb3d
000000b0: c662 db3d 32c1 db3d fa37 80bd ee68 7cbc
000000c0: 6bb1 4dbd d25f 9fbc 99ca c4bd 9b4d a9bd
000000d0: 5e94 453d 8e32 0ebe f4c7 5cbd ca98 b33d
000000e0: 3296 2dbc e1b3 4ebe 389a d2bb 1848 6ebd
000000f0: 1309 52bd be77 983d f980 5f3d 1bd4 ab3d
-0.063976474 -0.10771118 -0.007892284 -0.06793117 -0.059950024 -0.086830154 -0.08991547 0.09522961
-0.005824322 -0.062573604 -0.05062065 -0.039800458 0.12933557 0.00057888345 -0.033260208 0.080285005
0.03034519 -0.019960037 -0.07272588 0.008063847 -0.09684165 -0.12098884 0.04098125 0.066283435
-0.04769388 -0.061133403 0.0464878 -0.06985951 0.04691311 0.05075917 -0.012674591 -0.11608648
0.053628538 0.0023005868 -0.026117703 -0.027016165 -0.05151649 0.10617558 0.14296694 0.029513948
-0.066278405 -0.066822775 0.02193992 0.0995348 0.10712199 0.107302085 -0.06260677 -0.015405877
-0.050218027 -0.01945487 -0.09608955 -0.08266755 0.048237197 -0.13886473 -0.053901628 0.087693766
-0.010594891 -0.20185806 -0.0064270757 -0.058174223 -0.051278185 0.07444714 0.054566357 0.08390065

self_entity_fc1.weight f4 [32, 26]
00000000: 0dde 893e 6518 6b3c b4aa 71ba b478 8b3c
00000010: d28d dfbc 40d8 0d3e e51a c4bb 53c1 bcbe
00000020: 4273 d7bc 8a59 b6bd 7e1f 0fbe 2afb 03bf
00000030: 13a6 2e3e d31e 34be 9723 583e 9dd0 163e
00000040: b9aa 58be 9378 bebd 53c6 923d dac8 173a
00000050: 5c16 1cbd 8d76 a33e a66e 0dbe a919 3d3e
00000060: 1ac9 25bb 0172 563d 34b7 b5be 4ff2 cbbd
00000070: 1a75 623c 8fbf 3b3e f160 2d3e 3e50 07be
00000080: 7641 c83d 81d1 9ebe 28be c1bd 899a 8ebd
00000090: 1134 ffbd 911b af3c 7388 ca3c e298 683d
000000a0: b49a 523e d953 073e 49e0 ea3d 54ad 473c
000000b0: e933 79bd e279 d4bb 33b1 79bd ae13 b13d
000000c0: 8bb8 3bbd a72b 85bc 732b b43d 1e22 413e
000000d0: b320 15bc 82ec b0bd 8c98 863d a829 1bbe
000000e0: 10a7 e83d f5d9 07bf 5467 8ebe 767b e53d
000000f0: 5e66 e43d 0e26 95bd 4d60 d4be 6f87 3bbd
00000100: 8deb 94bd 8b0a 6a3d d6e7 853d 33e9 613e
00000110: 9ff0 093d 9ee0 a63d c63b ed3b 831d 193e
00000120: a89d 703d 071e dd3d 9c1d 383e 0a61 ddbd
00000130: bdc6 23bd b0bf 08be 39b9 d0bd aa93 04bd
00000140: 7e24 ff3d 8736 9bbd 230e bdbd 98f4 0d3e
00000150: 80b8 e03d 4e66 02bd a1fc 453f 4347 953e
00000160: 7422 be3d cee1 9abd ec34 f13c 1173 853e
00000170: 1186 81bc cb8b 24be fb64 4f3e ef8c 6c3e
00000180: b929 e0bd 9a7d 24bd bfcd 8b3e 94e3 8bbd
00000190: 3900 1dbe ac78 1c3d 3550 e1bd 25e6 083e
000001a0: d80d 2cbe 513c 0b3d 0dd8 acbc dbb7 26be
000001b0: 0e66 033e 61c1 4f3d d6fd 893c 98d2 61be
000001c0: b620 733d 7fad 153e 14e5 d93e 5ec2 613e
000001d0: 6109 173e c696 d63d 9bf1 3fbe 728f 503d
000001e0: e2b7 513e 9918 bd3e 363a e9bd 4ac4 28bd
000001f0: cb32 f23c b0fa b8bd 8862 72bd 24b3 bebc
00000200: 539f e8bd 887a d3bd de0a 9b3d 1a18 f53d
00000210: b654 4e3e c0b7 443d 6688 203d 9d5c b7bd
00000220: c92c 0f3e 7a85 e1be 4757 653e 125f 423c
00000230: 253b 2d3d 98b9 a53e 1bf8 1d3e 2707 023e
00000240: f232 273c 6e3e 62be f51a 8f3d f0a4 9bbc
00000250: 4d6f 2abe 10c3 47be 218c 37be 38ce 23be
00000260: 9ec2 01be bcb7 3abe 9f0a 7b3d 5ef8 c53d
00000270: a22b 22bd 5a0b f8bd 28c1 ca39 e4fd 123e
00000280: af6b ea3d 7ff0 f6bd 467f bdbd 62a3 84be
00000290: 962c 9b3d 1fff 4ebc 8ae5 b3be e5fb 953d
000002a0: 4366 4fbf c311 c63d 270f fb3d 4744 a63d
000002b0: 2d26 7dbe 33ec 00be fa90 093d 2ff7 d13b
000002c0: 71e4 5a3b 068b 683e 484e 033e 495e bcbd
000002d0: 5795 f53b ceaf 00be f05d 3b3e 4e45 d53a
000002e0: 676f b8bb eebe 1a3d 129e 04bd a1cf 1ebe
000002f0: 00f4 aa3d 1bad 15bc 6ab5 16bf 3cf4 113e
00000300: 986c 1bbe 401f 773e e2e4 b93d a080 e03d
00000310: d34b ce3d 405c 813e ded5 d63d 1ea2 533e
00000320: 2da0 37bd 1f55 d53d ad04 373d 5135 463e
00000330: 61df d43b 6f21 94bd be05 ba3d 00a6 0fbe
00000340: c319 a9bc 3b3c e3bd 74f9 faba 2bee b23d
00000350: 375b e2bc 0d9f c5bd a488 363d b66a ff3e
00000360: 5fc7 bc3c 2f54 613d 8fd2 3cbf 52df cebd
00000370: 5cd6 f0bd c5a7 c03d 3c09 2f3e 6021 053e
00000380: c46a 203e 5d57 a8bd 7d4a 53bd 895c 6ebd
00000390: 2f6a 02bd 440d 1f3e 679a c53d 39ce 6dbd
000003a0: f0ed 0abe 58d0 08be 703c 3dbe 451c 55be
000003b0: 5327 23bd dd4a bb3d 4e81 76bd 2ba4 d1be
000003c0: 54a8 d4be 1ef4 123e 4fa7 22be c8f3 fcbc
000003d0: b06b 0e3e 01c4 293e 3139 923d b6d8 a3bd
000003e0: 3990 ba3d 5d06 f83d ff3e 50bd d871 f0bd
000003f0: 4dc6 723d cfb3 84bd e3fd 273c 9aea 8e3e
0.26927224 0.014349078 -0.0009218857 0.01702533 -0.027289305 0.13852024 -0.0059846514 -0.36866245
-0.026300076 -0.08903797 -0.13976857 -0.5155512 0.1705554 -0.17589884 0.21107326 0.14728017
-0.21158876 -0.093003415 0.071667336 0.0005790122 -0.03810726 0.31926385 -0.1381174 0.1846682
-0.0025296868 0.052354816 -0.35491335 -0.09958326 0.0138218645 0.18334793 0.16931511 -0.13214204
0.09778111 -0.31019214 -0.094600976 -0.06963069 -0.12461103 0.02137545 0.024723267 0.056786425
0.20566827 0.13215579 0.1146856 0.012187321 -0.06084052 -0.006484256 -0.060960006 0.08646332
-0.04583029 -0.016256167 0.0879735 0.18860671 -0.009102034 -0.0863886 0.06572065 -0.1515261
0.1135999 -0.5306695 -0.27813208 0.11205189 0.111523375 -0.07282649 -0.41479722 -0.045783456
-0.0727149 0.05713896 0.0653836 0.22061615 0.03367674 0.08148311 0.0072397916 0.14952664
0.058744103 0.10796743 0.17980045 -0.10809524 -0.039984453 -0.13354373 -0.101915784 -0.032367386
0.12458132 -0.0757876 -0.09231212 0.13862836 0.109726906 -0.031835847 0.77338606 0.2915593
0.09283915 -0.075626 0.02944418 0.2606435 -0.015810998 -0.16068952 0.20253365 0.23100637
-0.10945458 -0.040158845 0.2730541 -0.068305165 -0.15332116 0.03820102 -0.110016264 0.13369043
-0.16802156 0.03399307 -0.021099115 -0.16281073 0.128319 0.05072153 0.016844671 -0.22052991
0.059357367 0.14616965 0.42557585 0.22046801 0.14749672 0.104779765 -0.18744509 0.05091805
0.20480302 0.3693283 -0.11388056 -0.04120282 0.029565236 -0.0903219 -0.059175998 -0.02327878
-0.11358514 -0.10326105 0.07570432 0.11967488 0.20149502 0.0480268 0.03919258 -0.089532115
0.13981928 -0.44047147 0.22396575 0.011863487 0.042292733 0.3236816 0.15426676 0.12698041
0.010205017 -0.22094128 0.069875635 -0.018999547 -0.1664402 -0.19508004 -0.17924549 -0.15996635
-0.12671897 -0.18234152 0.061289426 0.09666513 -0.039592393 -0.1211154 0.00038672355 0.14354664
0.1144632 -0.1205759 -0.09252791 -0.259059 0.075768635 -0.012634068 -0.35136062 0.07323436
-0.81015414 0.096713565 0.122587495 0.081184916 -0.24721594 -0.12590103 0.033585526 0.0064076404
0.0033400322 0.22709283 0.1282283 -0.09197671 0.0074946093 -0.12567064 0.18297553 0.0016271265
-0.0056285146 0.03777974 -0.03237731 -0.15508892 0.083473206 -0.00913551 -0.58870566 0.14253324
-0.15178144 0.24133015 0.09076859 0.10962033 0.10073056 0.25265694 0.10490011 0.20667312
-0.04483049 0.10416626 0.044682194 0.19356276 0.0064963554 -0.072329395 0.090831265 -0.14028168
-0.020642167 -0.110954724 -0.0019147829 0.08736833 -0.027631385 -0.09649477 0.044563904 0.498861
0.023044286 0.055011924 -0.73758787 -0.10101189 -0.11759636 0.094069995 0.17093366 0.13001013
0.15665728 -0.08219788 -0.05158471 -0.058193717 -0.031839546 0.15532404 0.096485905 -0.058057997
-0.13567328 -0.13360727 -0.18480086 -0.20811565 -0.039832424 0.091451384 -0.06018191 -0.40945563
-0.41534674 0.14350936 -0.15884136 -0.030877963 0.13908267 0.16578676 0.07139815 -0.08000319
0.091095395 0.12110589 -0.050841328 -0.11740464 0.059271146 -0.06479608 0.010253402 0.27913362

self_entity_fc1.bias f4 [32]
00000000: 0173 6bbc 7180 8a3e 2cbe 113d d93e 6fbe
00000010: dc38 90bd b1ce febd b27a 843e 6e1b 053e
00000020: 69ab 5a3e 3df6 1c3e 4f13 a33d 8705 603e
00000030: 62d4 573c 2454 12bc 4834 f1bd 0c54 45bd
00000040: 059e 1d3e baff 1c3e 1c1a 713e 36a3 753d
00000050: 0704 6f3e a201 e33d 95ad 7f3e 08ee 6cbd
00000060: e10d 813e 2938 e63d 492b 65be b06e 533d
00000070: 9fdc c33e 0bd9 073f 5d81 21bd e9b6 123d
-0.014370681 0.27051118 0.035581753 -0.23363818 -0.07042095 -0.12441767 0.2587486 0.12998745
0.2135445 0.15328307 0.07962667 0.21877109 0.013173195 -0.0089311935 -0.1177755 -0.048175856
0.15392311 0.15331927 0.23545116 0.059970103 0.2334138 0.11084296 0.2496856 -0.05784419
0.252059 0.112411804 -0.22379793 0.05161923 0.38254258 0.53065556 -0.03943001 0.035818968

self_entity_fc2.weight f4 [32, 32]
00000000: 94e5 b9bd c10c 363e b83a d03e d0ed d6be
00000010: 91f9 573e 1d28 b03d f2f5 acbd c084 633e
00000020: 2977 73be 8e95 41bd c898 c23d 632c 21be
00000030: be35 0dbd d49d 263e 379a adbe 1bc9 f03d
00000040: ee05 043d b922 963d ce4a cb3d aefb a2bd
00000050: e729 8e3c 4b43 48b9 749d 88bd ec21 693e
00000060: 44e8 963c 362d e93d 0ee0 b8be 034b 663e
00000070: 87b3 0b3f 9d36 0f3f da95 473e 46d3 cfbc
00000080: 3bb3 8a3e d98d e73d c88c c5bd 0e07 db3d
00000090: a38d 05bf 48c9 08be cc86 503f 3f3a e4bd
000000a0: a32d 093f e182 23bd 69cf 953e b718 0f3f
000000b0: 8141 883d 12c4 13bf 6b11 083e 38be 1d3e
000000c0: efec 3f3e 635c 013d 7c82 d63c 15a7 74be
000000d0: ca16 7a3d 37fd fe3d 9b67 0ebe 98c8 29be
000000e0: 4eb4 7bbe 225f aa3d 481f 0abe 715b 06be
000000f0: 91bd 11bf fa02 1dbf e466 ccbd be58 c1bd
00000100: 8b8d 44bd 34e7 afbd d0e4 f5be 25af 6fbe
00000110: 8933 643e ca71 35be df25 bb3d 3185 0b3e
00000120: be9a 43bf bf62 91bd 8d65 d33d 704e bdbd
00000130: 79fe bdbd 09d8 36bf f0e1 8abe 90b1 993d
00000140: d27a 3b3d 5586 533e 2f93 7f3e 8333 6abe
00000150: 734e d23c 9da3 55ba e3ca ce3d a634 433e
00000160: 7d94 fe3d 9350 1f3e 4803 e9be 17e0 70bd
00000170: 3bc5 c8b8 b9e1 debd 0923 b5bd 8d13 8cbd
00000180: eb06 363d ee7b 06be bdf2 95be 8b5b 073e
00000190: 9c94 133e 448f 543e 2117 2ebc 14fe d8be
000001a0: e720 bebe b866 62be 7c14 17bf 3032 863b
000001b0: 86bf 933e 6fe6 dabe 4617 a13e 7b69 1e3e
000001c0: 473f 783d 74c5 353e 11c1 d3be 1157 71bd
000001d0: d563 23be 3638 d1bd e079 15be 59b0 aebc
000001e0: 8c42 49bc c84c 5abd 907d 6c3e 95bb fdbe
000001f0: ce9f 253e f29a de3d 99a6 e3bd eecc 413e
00000200: 939f d43e d538 333e 9143 a9bd 99b8 cdbc
00000210: 289f c1be 5c82 f0bd 2048 113e b037 1ebe
00000220: bde7 033f a4c8 10bd 1a93 6a3e 344f 0e3f
00000230: 7299 183e b2ce 4dbf 31fa abbc 5ecd 643e
00000240: dc1c 6b3e 2592 f73c 9c1e a7bd 1947 c13d
00000250: a91a 963e cc5d 153e 4674 aabc 6a1c 213e
00000260: cb41 c8be 3569 a53d 0327 103d 8e59 4b3d
00000270: 5137 d7be c3a4 08bf 7bb3 c83d aeb9 74bc
00000280: f295 313e 37ac 973e 78a3 893e eefd b5bd
00000290: 4568 233e 613e b4bc 4e00 b73c 5f70 a43d
000002a0: 342f 3e3f 65c0 51be a112 a33e b7e2 643e
000002b0: 1d15 7bbe b2c0 7a3e 8fc3 3a3e b206 063e
000002c0: 2552 543e 102e e93c d740 9db9 53ba 383e
000002d0: 4a27 e03d f6e2 96bd b59a cb3d 1461 30bd
000002e0: 8587 803e 9fbf 24be 0fc6 62be 4862 b83d
000002f0: b6e0 99be 40e1 f7be 8c8b aebd 0ada 34be
00000300: 0e95 47bd f26c 2e3e d0cc b93d 329b acbe
00000310: 10bd ce3d 520a 443d 87de a4be d3e7 253d
00000320: 537e 84bf 03f2 c73b 9b83 713e 601e 9bbd
00000330: d7bd 3fbe 3203 5fbf 1e7b a5bc 3653 91bd
00000340: f9a3 a63d 04aa 653e d765 fa3d 4701 4f3c
00000350: 84c9 303e 4085 2ebe 3703 633e cc13 cf3d
00000360: 5876 f13d de5d 153d 1fa1 f1be 90f4 8e3e
00000370: 11e9 d4bd ce3a abbd e312 18be 50c1 b23c
00000380: 0767 003f 7095 653c e2bc b33d ad3d 99bd
00000390: 2bf3 9ebd 472f 3dbe ddfe fdbe 5692 a63c
000003a0: a1ec a63e cee2 e23c 8a32 ad3d cb5e 033f
000003b0: a547 27bd 5890 67bf 1a0e 4f3c 0b5e 623d
000003c0: 2006 4b3d 057d 4fbd 7216 2d3d aefd d23d
000003d0: 544f 2b3e 001c aebd a0e3 69bd 682d 953e
000003e0: b48e 9fbe b5fe 9a3d 8014 84bd 4611 29bd
000003f0: 0887 d3be b170 cabe a4b5 d43d da79 353d
-0.09076992 0.17778303 0.406698 -0.41978312 0.21091296 0.08601401 -0.08445348 0.22218609
-0.23775925 -0.047261767 0.09501797 -0.15739588 -0.03447508 0.16271144 -0.3390672 0.11757108
0.032232217 0.073308416 0.09926377 -0.0795816 0.017353965 -0.00019098555 -0.06670657 0.22766846
0.0184213 0.113855764 -0.3610844 0.22489552 0.5457081 0.5594271 0.19490758 -0.025369298
0.27089867 0.11306352 -0.096459925 0.10694705 -0.52169245 -0.13358033 0.81455684 -0.11143922
0.5358526 -0.039919738 0.29259804 0.55897087 0.06653119 -0.57721055 0.13287894 0.15404594
0.18742727 0.031582247 0.026185267 -0.23891862 0.06105689 0.12450641 -0.1390671 -0.16580427
-0.245805 0.083189264 -0.13488495 -0.1312082 -0.5692988 -0.61332667 -0.09980562 -0.09440754
-0.04798655 -0.0858902 -0.48026133 -0.23406656 0.22285284 -0.17719188 0.09138083 0.13625027
-0.7640799 -0.070989124 0.10322104 -0.092434764 -0.092770524 -0.71423393 -0.27125502 0.075045705
0.045771427 0.20656712 0.2495849 -0.22871213 0.025672173 -0.00081496855 0.10097291 0.19063053
0.12430666 0.1555808 -0.45510316 -0.05880746 -9.57348e-05 -0.10882897 -0.08844573 -0.068396665
0.04444019 -0.13133213 -0.29286757 0.13218515 0.14412159 0.20757776 -0.010625632 -0.42381346
-0.37134477 -0.22109497 -0.5901563 0.0040953383 0.28857058 -0.42753932 0.3146307 0.15469925
0.06060722 0.17751104 -0.41358235 -0.058920924 -0.15956052 -0.102157995 -0.14597273 -0.021324323
-0.012283932 -0.05329588 0.23094773 -0.49557176 0.16174242 0.10869397 -0.1111576 0.1892583
0.41527995 0.17502148 -0.082648404 -0.025112437 -0.3781674 -0.11743614 0.1418767 -0.1545093
0.5152548 -0.035347596 0.22907677 0.55589604 0.14902285 -0.80393517 -0.020993324 0.22343966
0.22960228 0.030221054 -0.08160135 0.09437389 0.29317215 0.14586562 -0.020807397 0.15733495
-0.39112696 0.08076707 0.035193454 0.049645953 -0.4203439 -0.53376406 0.09799858 -0.014936848
0.17342356 0.29623577 0.2688253 -0.08886324 0.15957744 -0.0220024 0.022339012 0.080292456
0.74290776 -0.20483549 0.3185015 0.2235211 -0.24519773 0.2448757 0.18238662 0.13088492
0.2073446 0.028464347 -0.00029993683 0.18039827 0.10944994 -0.07367508 0.099416174 -0.04306133
0.25103393 -0.16088723 -0.22145866 0.09003121 -0.30054253 -0.4841404 -0.0852271 -0.176613
-0.048726134 0.17033747 0.09072268 -0.33712155 0.100946546 0.047861405 -0.32201025 0.040504288
-1.0351051 0.006101848 0.2358536 -0.07574153 -0.18724762 -0.8711425 -0.020200308 -0.07095949
0.08136744 0.22428137 0.12226456 0.012634582 0.17264372 -0.17043018 0.22169195 0.10111198
0.117901504 0.03646647 -0.47193238 0.2792096 -0.103960164 -0.083608255 -0.14850955 0.021820694
0.5015721 0.014012679 0.08776261 -0.07482467 -0.07761224 -0.18475066 -0.49608508 0.02033345
0.3260241 0.02769604 0.08456905 0.5131652 -0.04083981 -0.90454626 0.012637639 0.055265468
0.049566388 -0.050656337 0.042257734 0.10302292 0.1672948 -0.08501434 -0.057101846 0.29136205
-0.3116356 0.07568113 -0.064492226 -0.04127624 -0.41313958 -0.39539102 0.10386208 0.04430566

self_entity_fc2.bias f4 [32]
00000000: d651 f03d 7a59 ab3d e9e0 c13b 4888 9dbd
00000010: fbca 4a3e d329 05bd f47a d2bc 33a4 853e
00000020: 7da7 5bbd efa4 0cbe 64e9 153e 7e8f a7ba
00000030: a1ec 1fbe 2326 1f3e 006a 3cbd 0a1a f2bd
00000040: 996d b8bd 1f15 0fbe 4b39 53bd 3979 ddbd
00000050: dd0c 1e3e 706f 153e 95f5 193d 12ca 41be
00000060: 21c6 b13d 9c86 35bd 95e2 8abd 6d35 15be
00000070: 9cd6 e83d 8625 83bd 5bad cc3d 7515 343e
0.11734359 0.08366676 0.005916704 -0.07692009 0.19803993 -0.03251059 -0.025693394 0.26101837
-0.053626526 -0.13734792 0.14639813 -0.0012783853 -0.1561761 0.15541892 -0.045999527 -0.11821373
-0.09005279 -0.13972901 -0.05156831 -0.10814137 0.15434594 0.14593291 0.03758772 -0.1892474
0.08680368 -0.044317827 -0.06781498 -0.14571162 0.113690585 -0.064036414 0.099940024 0.1758631

other_entity_fc1.weight f4 [32, 26]
00000000: eec4 c83d f98c 3abe 3028 de3d 2d39 16bd
00000010: a32d a7be 5656 fabd e196 99be edfc 0abf
00000020: 188b d03d e140 75be db59 163e 7009 573c
00000030: 7bd1 0fbe f02f 52bd 203c 013d 7bd2 df3c
00000040: 4157 11be 23ed cabd 69cf 1bbe e340 8d3d
00000050: 9af5 003d 0e87 643d 4c0d 44be 6258 4ebe
00000060: b9ad 8ebd 9302 213f 15e8 a33d 7d13 4c3e
00000070: 1881 7cbd 5cad 9ebd 42a1 2cbe f27d 123e
00000080: f84e 34be 5ce7 93bf 3107 b53b 4617 243e
00000090: 0f00 073e 6f73 793e 9da2 263e 7a21 f63c
000000a0: bf1c edbd b06c d9bd da06 103e 5e00 05bd
000000b0: 9d87 813d 298c 1a3e 9609 b3bd 2ee9 bd3d
000000c0: 11ab 9ebe 701c 8dbd 4e3a 26be ce8a cbbe
000000d0: 3833 1e3e c627 fc3c 3e62 613d 5ac4 35be
000000e0: b885 95bd c975 9fbe 7a80 ce3c abea cd3d
000000f0: 84d2 cd3d 244d 6a3d d8f1 5fbe be45 a1be
00000100: 11db 2a3d 1a91 a0bc 47ec 503d 134e 2cbd
00000110: 1bef 983d b147 0abe 2ca5 d2bc a6a5 32be
00000120: e662 6abe ec1e 013e e3d5 693e 3dc9 3b3e
00000130: 0b6f a8bd 52ca b3bd 5883 debb e036 79bd
00000140: 2886 1fbe 7e9c 063e 0d46 42bd f4a7 40bb
00000150: 10c3 97be e103 7b3f 876c 593e 1fe5 0fbe
00000160: 7789 1cbe e2cc dbbd 3a34 2f3e 88e9 e8bd
00000170: e7fd 69be 1f19 7c3d b556 c33d 2b22 9f3c
00000180: ed5d 16bd fcd6 c4bb e8d9 af3c 4e8a a73d
00000190: e997 fcbe 9608 743e 0d29 08bc ce6b 6dbe
000001a0: c6ce 9a3d 879c bfbd f059 8ebd 8e52 16bf
000001b0: a970 3dbe 9df3 9dbe 9e69 013b beae 173e
000001c0: cd00 2abf 46a8 d1be ce1e 073d f53f c5bc
000001d0: b98a 693d 3e8e fa3c 807b de3c 14e2 7d3e
000001e0: 24f1 3dbc 84f8 123e 91c1 1c3e 1413 893e
000001f0: d3d6 b0bd 4eb8 063e 9989 6f3e 954f 97be
00000200: 8dfb 733e 4b98 03be 982d 88bc 7881 1d3e
00000210: ab33 963d af9a c4bd 865a 263d b2e0 a23e
00000220: b6fe 2fbe cbe9 28bf 42f4 bb3e 357d 623e
00000230: 9e1d cdbd 9a94 2dbe 3d7f 7bbe 21cf d03d
00000240: 9046 c0bd ab48 16bb 4823 213e 4d8b afba
00000250: 9936 abbc b93e e4bd e8e3 31be f3cb 5ebe
00000260: 3a77 453e 99a1 313d 9687 213e 8810 693e
00000270: ec39 a3be 8649 2bbc 38b2 5d3e f7c9 65bd
00000280: 3190 c83d dfc3 1a3e 487a 4ebe 50c5 eb3e
00000290: 05ec 6d3e 7e8a 033d ee8d 45bf fa06 9dbc
000002a0: c11f 513d e04a d53d baef ff3d 6e15 103e
000002b0: ecae 7b3d cfad 67bc cdf0 38bd 8d86 8d3d
000002c0: 16e8 343d b8a2 733e 0c42 2e3e 05d6 f9bd
000002d0: fbff f3bc a01c b5be 4d64 fa3d 02bf 36be
000002e0: 09b1 04bd 1316 88bd 8d9b ac3d d33c d53a
000002f0: bca4 903d 3931 b53d 8e52 cbbe c8da edbe
00000300: 6764 813c 8979 dcbd 8df7 e73c 3804 a3be
00000310: d23b b7bd d1ee d73d 8363 19be 657d d7bd
00000320: 8898 b43c e39a 03be 06e0 06bb c0d6 48be
00000330: e472 8fbe c283 d53d 2fd1 b7be 5865 933e
00000340: 80d8 20be a8f4 ea3c 5acc 63bd 19fd 21bd
00000350: 7f08 eebc 1ef1 ac3d 7c27 ebbe 849d 9ebe
00000360: 5910 81be ccae 2abe 26c7 f03d d107 8abd
00000370: aacf cf3d dd58 68be f61c 4dbc 9157 ce3d
00000380: 7e94 0abe eb76 f53d dab5 15bd 675b 223a
00000390: 5745 4ebd 2909 15bc 69a7 91be 116b 18be
000003a0: 38c4 c43e 33a5 d83d f98a b6be b782 87bd
000003b0: 55f4 223e c9cd 363d 02d0 d5bd ecba 59bd
000003c0: 7eec 543d b25b e6be d54b 4ebe 8fbb 823d
000003d0: 2c80 babd 5b8c a73c 3bbe d9bd 3c2d 813d
000003e0: f073 0d3d 8d82 c93d ae47 223c 60c8 1e3c
000003f0: 614e 573d abf5 5bbc 4ba8 133c 3f5e 733d
0.09803186 -0.1821784 0.10847509 -0.03667562 -0.32652006 -0.122234985 -0.29997924 -0.54292184
0.1018278 -0.2395053 0.14682715 0.013124809 -0.14044754 -0.051315248 0.03155148 0.027322045
-0.14193441 -0.099085115 -0.1521584 0.06897142 0.031484224 0.05579286 -0.19145697 -0.20150903
-0.06966729 0.6289455 0.080032505 0.19929309 -0.06164655 -0.077479094 -0.1685839 0.14305857
-0.17608249 -1.155498 0.005524539 0.16024503 0.13183616 0.2436044 0.1627297 0.03004526
-0.115777485 -0.106164336 0.14065114 -0.032471053 0.06324694 0.1509253 -0.08742063 0.09272991
-0.30989888 -0.0689019 -0.16233179 -0.39754337 0.15449226 0.030780684 0.05502533 -0.17750683
-0.073008955 -0.3114455 0.025207747 0.10054525 0.10049918 0.057202473 -0.218696 -0.31498522
0.041712824 -0.01960044 0.05100658 -0.042066645 0.07467481 -0.1350391 -0.025713526 -0.17446002
-0.2288929 0.12609452 0.22835498 0.18338485 -0.08224305 -0.08778824 -0.0067905597 -0.06084335
-0.1557852 0.13145635 -0.047430087 -0.0029396983 -0.29641008 0.98052794 0.21232806 -0.14052247
-0.15286814 -0.10732438 0.17109767 -0.113726676 -0.22850762 0.061547395 0.095380224 0.019425472
-0.03671067 -0.0060070734 0.02146621 0.081806764 -0.49334648 0.238314 -0.0083105685 -0.23185655
0.0755897 -0.09356027 -0.06950748 -0.5871972 -0.18500008 -0.30849925 0.001974679 0.14812753
-0.6640747 -0.40948695 0.032988362 -0.024078349 0.05701706 0.030585404 0.027158499 0.24793273
-0.011593137 0.14352614 0.15308215 0.26772368 -0.086347245 0.13156244 0.23392333 -0.29552904
0.23826428 -0.12851064 -0.016623303 0.1538142 0.07334074 -0.09599816 0.040613674 0.31812054
-0.17187008 -0.6598174 0.3670979 0.22118075 -0.10015415 -0.16951218 -0.24560256 0.10195757
-0.09388459 -0.0022931497 0.15736115 -0.0013392955 -0.020900058 -0.11144776 -0.17372096 -0.21757488
0.19283763 0.043367002 0.15774378 0.22760212 -0.31880128 -0.010454541 0.21650016 -0.05610081
0.09793127 0.15113781 -0.20163834 0.46048975 0.23234566 0.0321145 -0.7716969 -0.019168366
0.051055674 0.10414672 0.12496896 0.14070675 0.061446115 -0.01414056 -0.04515152 0.06910429
0.044166647 0.23792541 0.17017382 -0.12199024 -0.029785147 -0.35373402 0.12226162 -0.17846301
-0.032395396 -0.06644835 0.084281065 0.0016268737 0.070626706 0.08847279 -0.39711422 -0.4645598
0.015794946 -0.107653685 0.028316284 -0.31839156 -0.08946957 0.105435975 -0.14979367 -0.10521964
0.022045389 -0.12852053 -0.0020580306 -0.1961317 -0.28017342 0.104255214 -0.35901782 0.28788257
-0.15707588 0.028681114 -0.055614807 -0.039548013 -0.029056786 0.08444427 -0.45928562 -0.3097955
-0.25207785 -0.16668242 0.117567345 -0.06739772 0.10147031 -0.22690149 -0.012519112 0.10075296
-0.13533208 0.119855724 -0.03655038 0.00061934296 -0.050359096 -0.009096422 -0.28448036 -0.14884593
0.38430953 0.10578384 -0.35652903 -0.06616729 0.15913518 0.044629846 -0.10440065 -0.05315678
0.05198335 -0.44991833 -0.20146115 0.0638343 -0.09106478 0.020452669 -0.10631987 0.06307456
0.034534395 0.09839354 0.009904785 0.009691328 0.052564982 -0.013425271 0.009012292 0.059416052

other_entity_fc1.bias f4 [32]
00000000: 9101 e3bd 8937 2bbe 2826 a3bd 0d02 95bc
00000010: a815 863b d085 8fbe 5338 68bd ed79 a1bd
00000020: 6137 f3bc cb71 27bc 7b83 31bc 4362 a5bb
00000030: 9a06 ddbc 206d 19be 672c 8abc e94d 37be
00000040: 1683 01bd af47 183c 2b65 eebc a89d 43be
00000050: 50de f6bc 4f5e efbd 5dfd 0cbc 2cc7 97bc
00000060: c5ef daba c4ca 3b3d c952 86bd 9960 87bd
00000070: 3140 8bbc 6861 cbbc 0fab 963c 2725 04bc
-0.11084283 -0.16720404 -0.07966262 -0.018189454 0.004091937 -0.28031778 -0.05669434 -0.078845836
-0.029689493 -0.010220001 -0.01083457 -0.005047114 -0.026980687 -0.14983034 -0.016866876 -0.17900814
-0.031619154 0.009294434 -0.029100975 -0.1910311 -0.030135304 -0.1168791 -0.008605328 -0.01852759
-0.0016703537 0.04584767 -0.06558759 -0.066102214 -0.016998382 -0.02482672 0.018392114 -0.008065498
