my-submission/checkpoints/model_268032.pt (torch, 352797 bytes, 23 tensors)

local_map_cnn.0.weight f4 [32, 24, 3, 3]
0	0xbd4aedff	-0.049543377
1	0x3d9c3f93	0.07629313
2	0x3e40532b	0.18781726
3	0x3cbd2aef	0.023091761
4	0xbc371b9b	-0.011176015
5	0x3df825dc	0.12116596
6	0xbd744686	-0.05963757
7	0xbe07b4f3	-0.1325262
8	0x3db49121	0.08816744
9	0x3d072fff	0.033004757
10	0x3c8fbf60	0.01754731
11	0xbddb3067	-0.107025914
12	0x3d5d5efb	0.05404566
13	0xb84b1529	-4.841868e-05
14	0x3e527150	0.20551038
15	0x3dc48d82	0.09597303
16	0x3ccc2ee9	0.024924712
17	0xbe33a0d9	-0.17541827
18	0xbd97edfc	-0.07418439
19	0xbcf2fc22	-0.029661242
20	0x3dd96138	0.10614246
21	0x3d2433b2	0.040088363
22	0xbd7d7db0	-0.061887443
23	0xbeec53db	-0.46157727
24	0xbd80b0c1	-0.06283713
25	0x3be0499a	0.0068447115
26	0x3d826393	0.063666485
27	0x3cd9539f	0.026529131
28	0x3cf27e21	0.029601159
29	0x3da295bc	0.07938716
30	0x3d3cf63d	0.04613327
31	0xbdd228c7	-0.10261684
32	0xbed1acbd	-0.409521
33	0xbcff024f	-0.03112903
34	0xbe16408c	-0.1467306
35	0xbca31023	-0.019905156
36	0x3c2e9c04	0.010657314
37	0xbc359ec0	-0.011085212
38	0x3d900de9	0.07033903
39	0xbd483c38	-0.048885554
40	0x3ddc509b	0.10757562
41	0xbcc8cfd6	-0.024513166
42	0xbe1dfcce	-0.15428469
43	0xbe1b8405	-0.1518708
44	0x3dae2e16	0.08504884
45	0x3e27ecf6	0.16398987
46	0x3d695ca6	0.056973122
47	0xbe6bf307	-0.23041926
48	0x3d045dab	0.03231589
49	0xbc29f200	-0.010372639
50	0x3ddf55ee	0.10905062
51	0xbbebe4ac	-0.0071988907
52	0x3d35795e	0.044305198
53	0xbeae5ad8	-0.34053683
54	0xbce7a1dc	-0.028275423
55	0x3c74534a	0.014912436
56	0x3e111407	0.14167796
57	0xbd689823	-0.056785714
58	0xbe4cf790	-0.20016313
59	0xbe2dabb6	-0.16960034
60	0xbe558730	-0.20852351
61	0xbe49a442	-0.19691566
62	0xbc6d1537	-0.01447039
63	0x3d6899e5	0.05678739
64	0x3c4a6b74	0.01235472
65	0x3d9c59c9	0.07634313
66	0xbdba3c00	-0.09093475
67	0xbe8a4df2	-0.27012593
68	0x3ac6b6f9	0.0015160731
69	0xbdc09d2e	-0.0940498
70	0xbd02d0f5	-0.03193756
71	0xbd93312f	-0.071871154
72	0x3ca2fc2a	0.019895632
73	0xbb6b0022	-0.0035858233
74	0x3d5d9dbf	0.054105517
75	0xbdf2dcd6	-0.11858527
76	0xbeade92d	-0.33966962
77	0xbdaa3006	-0.08309941
78	0xbd985eeb	-0.07439979
79	0xbdba9771	-0.091109164
80	0xbb9f6732	-0.0048645968
81	0xbdf937b8	-0.12168831
82	0x3d25e808	0.040504485
83	0xbdaab7b8	-0.08335823
84	0xbcc5b864	-0.024135776
85	0xbe2657b2	-0.1624439
86	0xbebecde5	-0.3726646
87	0xbce3220b	-0.027726194
88	0xbd6d0966	-0.05787029
89	0xbc4f82c3	-0.012665453
90	0x39995b78	0.00029250584
91	0x3e8ead31	0.2786651
92	0x3c677855	0.0141278105
93	0x3a8d1480	0.0010763556
94	0xbde38c02	-0.11110689
95	0xbe8627e6	-0.26202315
96	0xbe052a98	-0.1300453
97	0xbe2e8ff1	-0.17047097
98	0x3db2e4b4	0.08735028
99	0x3c66bb80	0.014082789
100	0xbd3a591e	-0.045495145
101	0x3c3c34fe	0.011487244
102	0xbdad8166	-0.084719464
103	0xbd6758fe	-0.056481354
104	0xbe1e2cb8	-0.15446746
105	0xbd00716f	-0.03135818
106	0xbe210462	-0.15724328
107	0xbca26190	-0.019821912
108	0x3d2cfd9b	0.042234045
109	0xbe5a62f0	-0.21326804
110	0x3e342d09	0.17595305
111	0xbe75bceb	-0.23997848
112	0xbd9202be	-0.07129429
113	0xbef5fc86	-0.48044223
114	0xbda79772	-0.08183183
115	0xbe99c394	-0.30032027
116	0x3dd227d1	0.102615006
117	0xbe5e136a	-0.21687093
118	0xbe0e589c	-0.1390099
119	0x3d9ffbd8	0.07811707
120	0x3dd0722b	0.10178026
121	0x3d67c2bb	0.056582194
122	0xbe2ce851	-0.16885497
123	0xbd8e488b	-0.0694743
124	0xbd8ed282	-0.06973745
125	0x3deeba8c	0.11656675
126	0xbdbab983	-0.09117415
127	0x3d2938ad	0.041313816
128	0xbe1926cc	-0.14956206
129	0xbc4c358c	-0.012463938
130	0xbe04e0cf	-0.12976383
131	0x3e042c55	0.12907536
132	0xbe35f2ba	-0.17768374
133	0x3d2436e4	0.04009141
134	0xbdc97add	-0.098378874
135	0x3c63c41c	0.013901737
136	0xbda7a142	-0.08185054
137	0x3df5e79e	0.12007068
138	0x3d9a0119	0.075197406
139	0x3d077a4e	0.033075623
140	0xbe071f6f	-0.13195585
141	0x3cfb7b28	0.030698374
142	0x3da9af3b	0.08285376
143	0x3e88e072	0.26733738
144	0x3d97f3b0	0.074195266
145	0x3d9d0caa	0.07668431
146	0x3e18e43d	0.14930816
147	0x3d487333	0.048937988
148	0xbd34ccfa	-0.044140793
149	0xbf27c162	-0.65529454
150	0xbc8ad3fa	-0.016946781
151	0xbdb2f627	-0.08738356
152	0x3e4020ee	0.18762562
153	0xbd4a3f59	-0.04937682
154	0xbda6ec0e	-0.081504926
155	0xbdb928f3	-0.090410136
156	0xbd6cfb80	-0.057857037
157	0xbd29cead	-0.041456867
158	0xbd01f9c7	-0.031732347
159	0x3cc2e7c5	0.023792157
160	0xbd375be4	-0.044765368
161	0xbe05f342	-0.13081077
162	0x3e31428b	0.1731054
163	0x3b4c3e94	0.003116523
164	0x3ea6487b	0.32477173
165	0x3dd59fdc	0.104308814
166	0xbe071437	-0.13191305
167	0x3f0f919f	0.56081575
168	0x3e876f5b	0.26452145
169	0x3e0bd68f	0.13656066
170	0x3ec2a794	0.38018477
171	0x3cd1b6d6	0.025599878
172	0x3e0284ea	0.12746015
173	0x3d5b16eb	0.053488653
174	0x3cd088f4	0.02545593
175	0xbdaae5fd	-0.08344648
176	0x3df697bb	0.12040659
177	0x3e923fc0	0.28564262
178	0x3e073a90	0.13205934
179	0x3c9ce2a5	0.019151041
180	0xbda920a1	-0.082581766
181	0xbdb2c6a5	-0.08729295
182	0xbe1d7f90	-0.15380692
183	0x3dd4a56e	0.10383116
184	0xbe9916d1	-0.2990022
185	0xbe8d32f1	-0.27577928
186	0xbe1ce7d7	-0.15322815
187	0xbcf2409d	-0.029571826
188	0xbd0f4372	-0.03497643
189	0x3ea98cd9	0.3311527
190	0x3f16c480	0.58893585
191	0x3e98c79f	0.298398
192	0x3f1133ae	0.5671948
193	0x3eede30b	0.46462283
194	0x3ee105dc	0.43949783
195	0xbdc16006	-0.09442143
196	0x3e99d9fb	0.30049118
197	0x3d97ac1b	0.074058734
198	0x3ef28ad9	0.47371557
199	0x3f242760	0.6412258
200	0x3de107c4	0.10987809
201	0x3f61036d	0.8789585
202	0x3f2155cd	0.63021547
203	0x3e7ec625	0.24880274
204	0x3cd97450	0.02654472
205	0x3ed2483a	0.4107073
206	0x3e9dbbf3	0.30807456
207	0x3dfb7c9e	0.12279628
208	0x3ce06bae	0.027395096
209	0x3d263ffa	0.040588357
210	0x3cadc8be	0.021213885
211	0xbdaf3f68	-0.08557016
212	0xbe288c87	-0.16459857
213	0x3c32a8c2	0.010904493
214	0xbdebe87f	-0.115189545
215	0xbde0b539	-0.109720655
216	0x3bb356de	0.005473002
217	0xbd02be2f	-0.031919654
218	0x3d8d6d14	0.069055706
219	0xbdc5fb3a	-0.09667058
220	0x3c5429a2	0.012949379
221	0x3cdd148f	0.026987342
222	0xbe1474f5	-0.1449774
223	0xbbba8892	-0.00569255
224	0xbde51438	-0.11185497
225	0x3b1a0929	0.0023503995
226	0x3dca500a	0.098785475
227	0x3cb4041c	0.021974616
228	0x3da69ba4	0.08135155
229	0x3d18aa6d	0.037271906
230	0x3d055657	0.032553043
231	0x3d91770d	0.07102785
232	0x3df174a1	0.11789823
233	0x3d35d181	0.04438925
234	0xbb726875	-0.003698853
235	0xbc590a7e	-0.01324713
236	0x3d313f8d	0.043273497
237	0xbca95dba	-0.020674575
238	0xbd933249	-0.071873255
239	0x3cc6fd9c	0.024290852
240	0xbc29f4b3	-0.010373282
241	0xbcd41ed2	-0.025893603
242	0x399b1b4f	0.0002958425
243	0x3c9b10e8	0.01892896
244	0x3a16cfdd	0.000575302
245	0xbb514c6d	-0.0031936422
246	0x3bfa3602	0.0076358328
247	0x3cb83dff	0.0224905
248	0x3d809753	0.06278863
249	0xbc8224ff	-0.015886782
250	0x3d0b1254	0.033953026
251	0x3cc448bf	0.02396047
252	0x3d467d76	0.048459493
253	0x3d3e3649	0.04643849
254	0x3d970fea	0.07376082
255	0xbd0802d0	-0.033205807

local_map_cnn.0.bias f4 [32]
0	0xbbb30fd8	-0.005464535
1	0xbd343698	-0.043997377
2	0xbcaaa85c	-0.020832233
3	0xbddc1153	-0.10745492
4	0x3cfc700b	0.030815145
5	0x3c9b8cf4	0.01898811
6	0x3c975fc3	0.01847828
7	0xbd50ac94	-0.050945833
8	0x3b9ba58a	0.0047499584
9	0xbde2935c	-0.11063263
10	0x3c5cc98f	0.01347579
11	0xbd098823	-0.033577096
12	0xbcd140e3	-0.025543636
13	0xbd31477a	-0.043281056
14	0xbd17dcd6	-0.03707584
15	0xbe25e6d2	-0.16201332
16	0xbd256a6c	-0.040384695
17	0x3d12e56d	0.03586333
18	0x3d0f812c	0.035035297
19	0x3d0c676a	0.03427831
20	0xbdcc0fa7	-0.09963923
21	0x3db9a74d	0.09065113
22	0x3a5e0ff0	0.0008471003
23	0xbd812f8d	-0.06307898
24	0xbdd922a1	-0.10602308
25	0xbd930c3c	-0.07180068
26	0xbd5cf13f	-0.053941008
27	0xbc1d87fd	-0.009614942
28	0x3d434dab	0.04768149
29	0x3cf19b7b	0.029493084
30	0x3d9d3b4a	0.07677324
31	0x3ab1c3d1	0.0013562386

local_map_cnn.2.weight f4 [32, 32, 3, 3]
0	0x3e472b9b	0.19450228
1	0x3d9299f5	0.07158271
2	0xbe86acda	-0.2630375
3	0xbe3889c6	-0.18021306
4	0xbe7c093d	-0.24612899
5	0x3cc44057	0.02395646
6	0xbea9cd46	-0.33164424
7	0xbd5a2676	-0.053259335
8	0x3cec15f0	0.028819054
9	0xbd2263dc	-0.039646015
10	0xbdba2f76	-0.09091084
11	0xbd6bb53d	-0.05754589
12	0xbd4b0140	-0.04956174
13	0xbd6ef684	-0.058340564
14	0xbda7ef40	-0.0819993
15	0x3d1f3755	0.038871128
16	0xbd963656	-0.073345825
17	0xbde28835	-0.11061136
18	0x3df6c7e1	0.120498426
19	0xbe211a70	-0.15732741
20	0x3db3c187	0.08777147
21	0x3e26d97c	0.16293901
22	0x3df5027c	0.119633645
23	0x3e035047	0.12823592
24	0xbd5b8332	-0.053591914
25	0xbdf67dd8	-0.120357215
26	0xbe0c4aa7	-0.13700353
27	0xbd4c6f50	-0.049910843
28	0x3e11f119	0.14252128
29	0x3de2b1e4	0.11069086
30	0x3c321cb9	0.010871106
31	0x3e631de3	0.2217937
32	0x3e3456ae	0.1761119
33	0xbe993aa0	-0.2992754
34	0xbdcc6971	-0.09981049
35	0x3e13b921	0.1442609
36	0x3d3ac674	0.045599416
37	0xbd63ebc0	-0.05564475
38	0x3d083014	0.033248976
39	0x3d3c20a2	0.04592956
40	0xbe860cb5	-0.2618157
41	0xbdc0dad6	-0.0941674
42	0x3d21c5e6	0.03949537
43	0xbde88145	-0.11352781
44	0xbd0c6bec	-0.03428261
45	0xbd69a566	-0.057042502
46	0xbd939692	-0.072064534
47	0x3d0dd755	0.034629185
48	0x3bcb0453	0.006195584
49	0xbe2615af	-0.16219209
50	0xbd316f6f	-0.043319162
51	0x3c8f3641	0.017481925
52	0xbd900bc8	-0.07033497
53	0xbba54e14	-0.005044708
54	0xbb258e8c	-0.0025261967
55	0xbde2f2af	-0.110814445
56	0xbd8db7bc	-0.0691981
57	0xbc804fa4	-0.015662976
58	0x3aaa5d24	0.0012997729
59	0xbe0657c0	-0.13119411
60	0xbd03531a	-0.032061674
61	0xbe046429	-0.12928833
62	0xbda6576f	-0.081221454
63	0x3e27abc0	0.16374111
64	0x3df301ff	0.11865615
65	0x3dc4e390	0.096137166
66	0x3d6ec3ce	0.058292203
67	0x3dc58dee	0.096462116
68	0x3e229e44	0.15880686
69	0x3d3ce2ea	0.04611484
70	0x3dbd0bf4	0.092307955
71	0x3db2c6ec	0.087293476
72	0x3e5b9a73	0.21445636
73	0x3e5c7a8b	0.21531121
74	0xbe063ffe	-0.13110349
75	0x3e3f82c6	0.1870223
76	0xbdb78089	-0.08960063
77	0xbdb36ced	-0.0876101
78	0x3ded2d2a	0.1158088
79	0xbbe0e0f4	-0.006862754
80	0xbd5407f6	-0.051765405
81	0x3d5ae280	0.053438663
82	0x3da46d10	0.080286145
83	0xbd3e9c89	-0.046536002
84	0x3d76dbdd	0.06026827
85	0x3e098e7e	0.13433263
86	0x3d78b868	0.06072274
87	0xbd73ab30	-0.05948943
88	0x3d21a8e5	0.03946771
89	0x398741c2	0.000257982
90	0x3cc7878e	0.02435663
91	0xbda5a428	-0.08087951
92	0x3d9213ec	0.07132706
93	0x3dc6b084	0.097016364
94	0xbdfd5946	-0.12370543
95	0xbd6e0d23	-0.058117997
96	0xbb744a92	-0.0037275893
97	0xbde290d2	-0.110627785
98	0xbd144ec4	-0.03620793
99	0x3e8f6f6a	0.2801469
100	0xbcadefa0	-0.021232426
101	0x3e55b5d8	0.20870149
102	0xbc8a6058	-0.016891643
103	0x3d64588b	0.055748504
104	0x3e06833b	0.13135998
105	0x3c623c1b	0.013808276
106	0xbdaf807e	-0.0856943
107	0x3cda8f35	0.026679615
108	0xbddbdc10	-0.10735333
109	0x3d3555ef	0.044271406
110	0xbd4305a6	-0.04761281
111	0x3e1abdde	0.15111491
112	0x3bf51930	0.007479809
113	0xbe5beda6	-0.21477374
114	0x3cdace1b	0.026709607
115	0xbe0bf34b	-0.13667028
116	0x3d1a8451	0.037723843
117	0x3d3815f9	0.04494283
118	0x3e16a5b9	0.14711656
119	0x3dab29d6	0.08357589
120	0x3d540e80	0.05177164
121	0xbd32f606	-0.043691657
122	0x3c89aef6	0.01680706
123	0x3d384753	0.044989895
124	0x3dd27f45	0.10278181
125	0x3cd328c8	0.025776282
126	0xbcf31504	-0.029673107
127	0xbdfe5b05	-0.12419704
128	0xbe046d9f	-0.12932442
129	0xbdd75992	-0.10515131
130	0xbd36f724	-0.044669285
131	0x3bd2fa7a	0.0064385505
132	0xbddc8f10	-0.107694745
133	0xbdeb1c7e	-0.11480044
134	0xbc8d0dab	-0.017218431
135	0xbc8dba12	-0.01730064
136	0xbaa3fcdd	-0.0012511272
137	0xbe13ec0a	-0.1444551
138	0xbd957d89	-0.072993346
139	0x3d73d8bf	0.059532877
140	0xbc933503	-0.017969614
141	0xbe6b5b4b	-0.22984044
142	0xbdd3cf9c	-0.10342333
143	0xbb8ce962	-0.0043002823
144	0x3d8240c5	0.0636001
145	0x3e24d599	0.16097106
146	0x3d5763c3	0.052585375
147	0x3dafd76a	0.08586009
148	0x3e9a37d5	0.3012072
149	0x3d0b2369	0.033969317
150	0x3d28adde	0.041181438
151	0x3dc269fc	0.09492871
152	0x3e1a6e61	0.15081169
153	0x3cc47cef	0.023985354
154	0x3d654699	0.05597553
155	0x3d2b06fb	0.041754704
156	0xbd0ecadf	-0.03486144
157	0x3d532249	0.05154637
158	0x3d50cddf	0.050977584
159	0xbde121d9	-0.10992784
160	0x3d07274c	0.03299646
161	0xbbde2084	-0.0067787785
162	0x3d1fb403	0.038990032
163	0xbd28623f	-0.04110932
164	0xba4437f4	-0.00074851443
165	0x3d3900c6	0.045166753
166	0x3e119467	0.14216767
167	0x3dd90be6	0.105979726
168	0x3d869980	0.065722466
169	0xbd2a29f0	-0.0415439
170	0x3e1f12bd	0.15534492
171	0x3d287b7d	0.041133393
172	0xbe0cc276	-0.13746056
173	0xbcedb880	-0.02901864
174	0x3de55107	0.11197095
175	0x3e103c6c	0.14085549
176	0x3dbac839	0.09120221
177	0x3b6d7b8e	0.0036236974
178	0xbcc3f5ae	-0.02392086
179	0x3e390052	0.18066528
180	0xbd94f03b	-0.07272383
181	0x3e31578b	0.17318551
182	0xbd361f92	-0.0444637
183	0x3dca2d30	0.098719
184	0x3cff8661	0.031192007
185	0x3d1e8640	0.03870225
186	0xbe102525	-0.1407667
187	0x3d25bbf8	0.040462464
188	0xbc0cd0bd	-0.008594689
189	0x3de0ecff	0.109827034
190	0x3d0583f3	0.03259654
191	0xbcefd9e7	-0.029278709
192	0x3cb82e97	0.022483153
193	0x3d8aad06	0.06771283
194	0x3d7b909d	0.06141721
195	0x3d442d2d	0.047894645
196	0xbe06362f	-0.13106607
197	0xbdc2a38d	-0.09503851
198	0x3b315c05	0.0027062905
199	0x3c429e57	0.0118785715
200	0xbcf6de35	-0.030135253
201	0xbd27e40a	-0.04098896
202	0xbc9b1c92	-0.018934522
203	0x3d0cbb9d	0.03435861
204	0xbd072a5c	-0.03299938
205	0xbdf23b17	-0.11827677
206	0xbd35a52a	-0.044346966
207	0xbce16f08	-0.027518764
208	0xbd603a63	-0.054743182
209	0x3d4bd23e	0.04976105
210	0x3d9d5947	0.07683044
211	0xbdd091a6	-0.1018403
212	0x3dd79689	0.10526759
213	0x3e02bb7f	0.12766837
214	0xbd6e71a9	-0.058213864
215	0xbca85284	-0.020547159
216	0xbda7c62a	-0.08192094
217	0x3bc80158	0.006103676
218	0xbe349677	-0.17635523
219	0xbda5c056	-0.08093326
220	0x3e21256c	0.15736932
221	0xbda7c54c	-0.08191928
222	0xbe061a14	-0.13095886
223	0xbc4eb679	-0.012616747
224	0x3db7a5d4	0.08967176
225	0x3e36998f	0.17832015
226	0x3d9a9e34	0.07549706
227	0x3df32fed	0.118743755
228	0x3dd5cc25	0.10439328
229	0x3e582037	0.21106039
230	0x3e09eb16	0.13468584
231	0x3dbc7b11	0.092031606
232	0x3d9c0827	0.076187424
233	0x3e043ef8	0.12914646
234	0xbdc4afef	-0.09603869
235	0xbd80d4d8	-0.06290597
236	0x3d50df0d	0.050993968
237	0xbe4cb361	-0.19990303
238	0x3d686751	0.056739155
239	0xbed4477c	-0.41460788
240	0x3d56d78e	0.052451663
241	0x3d94cdaa	0.0726579
242	0x3dcad1ca	0.09903295
243	0x3d97ee8c	0.07418546
244	0xbea7feea	-0.32811671
245	0x3dc7b397	0.09751051
246	0xbe0d5cd8	-0.13804948
247	0xbedb4935	-0.4282929
248	0xbdb3ab3c	-0.08772895
249	0xbe4a4460	-0.19752645
250	0xbb5f1044	-0.0034036795
251	0x3ccb6953	0.024830496
252	0x3d3f0f51	0.046645466
253	0x3cccebd4	0.025014795
254	0x3d94a086	0.0725718
255	0x3d523f2c	0.051329777

local_map_cnn.2.bias f4 [32]
0	0xbd31affd	-0.043380726
1	0x3cf7c958	0.030247375
2	0xbc3be419	-0.011467957
3	0xbcc25563	-0.023722356
4	0xbdd45d81	-0.10369397
5	0xbe4f52ae	-0.20246384
6	0xbd71d303	-0.059039127
7	0x3bf6095b	0.0075084395
8	0xbda22fe1	-0.079192884
9	0xbdbe4789	-0.09290988
10	0xbe091dfd	-0.13390346
11	0xbdd2c25a	-0.10290976
12	0xbe605c87	-0.21910296
13	0x3d5a7054	0.05332978
14	0x3c888460	0.016664684
15	0x3dc9d9f6	0.09856026
16	0xbe8dfd3b	-0.27732262
17	0xbc8cbf12	-0.017180953
18	0xbde28a8b	-0.11061581
19	0xbda4bc0f	-0.08043682
20	0xbd44c8ff	-0.048043247
21	0xbdae910a	-0.08523758
22	0xbc252887	-0.010080463
23	0xbdfe1acc	-0.12407455
24	0x3c0d323b	0.008617933
25	0x3db14a2e	0.08656727
26	0xbe28651b	-0.16444819
27	0xbe441117	-0.19147144
28	0x3d17be84	0.037046924
29	0xbe039d21	-0.12852909
30	0xbe25d11e	-0.16193053
31	0xbe8b2b33	-0.27181396

local_map_cnn.4.weight f4 [32, 32, 3, 3]
0	0x3c6c3c9a	0.014418745
1	0xbe1ee2e1	-0.15516235
2	0x3ccb594c	0.024822854
3	0x3dd16ed1	0.10226215
4	0x3dc11fbe	0.094298825
5	0x3bbdbc5c	0.0057902765
6	0xbe68fcbd	-0.22752662
7	0xbe73dbe9	-0.23814358
8	0xbe467aa6	-0.19382724
9	0x3e59f03d	0.2128305
10	0xbd6a90e2	-0.057267077
11	0x3bc5878e	0.0060281223
12	0x3d8994b7	0.06717818
13	0xbeaf07c3	-0.3418561
14	0xbe3f6bcc	-0.18693465
15	0xbd89834d	-0.06714497
16	0x3eb87119	0.36023787
17	0x3c940a59	0.01807134
18	0xbddf3c74	-0.109002024
19	0xbdb2a42f	-0.08722722
20	0xbd011fc0	-0.03152442
21	0xbd8b48c7	-0.068009906
22	0x3b32092d	0.0027166114
23	0xbd2610a5	-0.040543217
24	0x3d6c1cdb	0.057644706
25	0xbea95aaa	-0.33076984
26	0x3da73a5f	0.0816543
27	0xbd2ece27	-0.04267707
28	0xbd9ea791	-0.077468045
29	0xbcacf5d7	-0.02111332
30	0xbd5c0b59	-0.05372176
31	0xbec6ab78	-0.38802695
32	0x3cd07328	0.025445536
33	0xbde51552	-0.11185707
34	0xbe21ce86	-0.15801439
35	0x3d87b448	0.06626183
36	0x3db472a5	0.08810929
37	0x3d54e129	0.051972542
38	0x3ce56583	0.028002506
39	0xbbfa38fa	-0.0076361867
40	0xbdbf0282	-0.0932665
41	0xbdefb295	-0.11703984
42	0x3d7f025d	0.062258113
43	0xbde5ff2a	-0.11230309
44	0x3dc71a37	0.09721797
45	0xbb38f22a	-0.0028220513
46	0x3dbad8be	0.091233715
47	0x3dd7cc38	0.105369985
48	0xbe1efc08	-0.1552583
49	0xbdb5469a	-0.08851357
50	0xbc96f75d	-0.018428499
51	0x3dc5acaf	0.096520774
52	0xbc5084d4	-0.012726981
53	0xbe215cb8	-0.15758026
54	0x3d8d3588	0.06894976
55	0x3de7ccb1	0.11318339
56	0xbd4625e1	-0.048375968
57	0x3cc4b91b	0.024014046
58	0xbe9a3cc5	-0.30124488
59	0xbd2a4610	-0.041570723
60	0x3da3328b	0.07968625
61	0x3e0c3f8f	0.1369612
62	0x3e1b2d03	0.1515389
63	0xbd9326a9	-0.07185108
64	0x3cb457c3	0.022014504
65	0xbb463ac6	-0.0030247434
66	0xbd33b462	-0.0438732
67	0x3c9a6914	0.018848933
68	0x3e38694a	0.18008915
69	0xbd7f6f2f	-0.062361892
70	0xbd95785d	-0.07298348
71	0xbeac1804	-0.33612072
72	0xbdaed53f	-0.08536767
73	0x3d7a36e0	0.06108749
74	0xbe2e821f	-0.17041825
75	0x3dd93e26	0.10607557
76	0x3ea5143e	0.32242006
77	0xbe0d656d	-0.13808222
78	0x3ca71811	0.020397218
79	0xbef10871	-0.47076753
80	0x3da27203	0.07931902
81	0xbeff1b62	-0.4982558
82	0x3db37d07	0.087640814
83	0xbe48951e	-0.19588134
84	0xbcbde054	-0.023178257
85	0x3bd0d65e	0.006373211
86	0xbe5a1f35	-0.21300967
87	0x3d1513e7	0.036395933
88	0xbe2761df	-0.16345929
89	0x3e103567	0.14082871
90	0x3d84e72c	0.06489405
91	0x3df98209	0.12183005
92	0x3e8e7799	0.2782562
93	0x3d3a0e9a	0.04542408
94	0x3c983eb7	0.018584592
95	0x3dfb7126	0.12277441
96	0x3e34c310	0.17652535
97	0xbcbc7ef4	-0.023009755
98	0x3e392da2	0.18083814
99	0x3e3d9273	0.18512897
100	0xbd847298	-0.064671695
101	0xbc8d89f3	-0.017277693
102	0xbcd38b1e	-0.025823172
103	0xbd78bfb3	-0.060729694
104	0xb901ca6b	-0.00012377805
105	0xbdd1b929	-0.102403946
106	0x3bf933f5	0.0076050707
107	0xbc3af820	-0.011411697
108	0x3d81aba4	0.06331566
109	0xbc3dbff6	-0.011581412
110	0x3d3a6488	0.04550603
111	0x3e1753be	0.14778039
112	0xbdfb753b	-0.12278219
113	0x3d033247	0.03203037
114	0xbd007781	-0.031363968
115	0xbe1ad3ca	-0.15119854
116	0x3e382838	0.17984092
117	0x3e56f0a5	0.20990236
118	0x3dcc213a	0.09967275
119	0x3d8d7787	0.06907564
120	0x3d3fc0ba	0.046814658
121	0xbe80d468	-0.25162053
122	0xbcce49e3	-0.025181716
123	0xbba76fa5	-0.0051097446
124	0xbd949276	-0.07254498
125	0xbe1140a1	-0.1418481
126	0x3d32e2a4	0.043673173
127	0xbdc105c6	-0.09424929
128	0x3d7b65e3	0.061376464
129	0x3dcf5168	0.10122949
130	0x3c63a111	0.013893382
131	0xbdf45ef9	-0.11932177
132	0xbd26b07f	-0.040695664
133	0xbe9e7433	-0.30948028
134	0xbe295a8d	-0.16538449
135	0x3d8b2352	0.06793846
136	0xbdfed55b	-0.12443038
137	0x3ded32dc	0.11581966
138	0xbda32235	-0.07965509
139	0xbec6ad75	-0.38804212
140	0xbd8df35d	-0.069311835
141	0xba9be64f	-0.0011894199
142	0xbed0074e	-0.40630573
143	0xbd1a42ac	-0.03766124
144	0xbd56b243	-0.052416097
145	0x3d9b6fc8	0.0758968
146	0x3e668d47	0.2251483
147	0xbd685c35	-0.05672856
148	0xbe4fae10	-0.20281243
149	0x3d252fb1	0.040328685
150	0xbd10fd87	-0.035398033
151	0x3dc0b1ad	0.09408889
152	0x3d1cc939	0.03827784
153	0x3de27fae	0.11059509
154	0xbce5c8d3	-0.028049862
155	0xbdeff985	-0.11717514
156	0x3ca5f937	0.020260436
157	0xbdf8ae24	-0.1214259
158	0xbdf39c29	-0.118950196
159	0xbda3ea77	-0.08003705
160	0x3e2a05af	0.1660373
161	0x3d1d1593	0.038350653
162	0x3dde32c8	0.108495295
163	0xbdb2f733	-0.08738556
164	0xbd9a0de8	-0.07522184
165	0xbdb28378	-0.08716482
166	0xbd62c670	-0.055365026
167	0xbe851c43	-0.25998124
168	0x3cbc6327	0.022996498
169	0x3d9518cf	0.072801225
170	0x3d465408	0.048419982
171	0xbc8ac1d9	-0.016938137
172	0x3d982e40	0.074306965
173	0x3ea64ab9	0.32478884
174	0x3ce91528	0.02845247
175	0xbea6d723	-0.3258601
176	0xbdaef74f	-0.08543264
177	0xbd7644c5	-0.060124177
178	0x3d58b16a	0.05290357
179	0x3d4aabc2	0.049480207
180	0xbe8823f8	-0.26589942
181	0x3d9a24ec	0.075265735
182	0x3d18268a	0.03714613
183	0xbdaa7110	-0.08322346
184	0x3d9755ff	0.07389449
185	0x3b20924c	0.0024501262
186	0x3d203a0e	0.039117865
187	0xbdbf7484	-0.093483955
188	0x3e5c9bc8	0.21543801
189	0xbd7cc4c9	-0.061711106
190	0x3b9b5c5b	0.0047412342
191	0x3de38c24	0.11110714
192	0x3dfb7718	0.12278575
193	0xbe90b8a1	-0.2826586
194	0xbdcc92fd	-0.09988973
195	0x3e454814	0.19265777
196	0xbd962ebc	-0.073331326
197	0x3e22e2c7	0.15906821
198	0xbcabcbb7	-0.020971162
199	0xbd9bb1db	-0.076022826
200	0xbda963bc	-0.08270976
201	0xbc90037d	-0.017579788
202	0x3e14b019	0.14520301
203	0x3c345b35	0.011008074
204	0x3dff6ac7	0.12471538
205	0x3d7218d8	0.059105724
206	0xbe4c7eac	-0.19970196
207	0x3e783f52	0.24242905
208	0xbc1587c0	-0.009126604
209	0x3dc60827	0.09669524
210	0x3c82305c	0.0158922
211	0xbf0def17	-0.5544295
212	0xbde3b1a6	-0.11117868
213	0x3b4baecb	0.0031079527
214	0x3c86475f	0.016391454
215	0xbda097c7	-0.07841449
216	0xbe3b0cf9	-0.18266667
217	0x3e1685ac	0.1469943
218	0xbe97a8bf	-0.2962093
219	0xbd942221	-0.07233072
220	0xbe1c859c	-0.15285343
221	0x3dc19001	0.09451295
222	0x3de99337	0.11405032
223	0x3d223a3a	0.03960631
224	0x3c9c1655	0.019053617
225	0xbbd645db	-0.006539089
226	0xbbe1908b	-0.006883686
227	0xbdbe471a	-0.09290905
228	0x3e073eb6	0.13207516
229	0x3ddb6d98	0.10714263
230	0x3c87815f	0.016541181
231	0x3dbbe1eb	0.0917395
232	0x3e18eaa9	0.14933266
233	0x3e0658ff	0.13119887
234	0x3d0373be	0.032092802
235	0x3d217670	0.03941959
236	0x3cc2fdbf	0.023802636
237	0xbd49e792	-0.04929311
238	0xbd29fdd3	-0.04150183
239	0xbc267d76	-0.010161748
240	0x3c36fb50	0.011168316
241	0xbded969b	-0.11600991
242	0x3e325567	0.17415391
243	0x3da5600c	0.0807496
244	0xbcc8de28	-0.024519995
245	0x3dd65842	0.104660526
246	0xbc8772c9	-0.016534226
247	0x3d169a2a	0.036768116
248	0xbd27ff18	-0.04101476
249	0x3d81fa9c	0.06346628
250	0xbd21851d	-0.039433587
251	0x3d3eb34c	0.04655771
252	0x3bd87373	0.0066055595
253	0x3ccc61ea	0.024949033
254	0x3d46707c	0.048447117
255	0x3d09a0ae	0.0336005

local_map_cnn.4.bias f4 [32]
0	0x3ca70ae1	0.02039093
1	0xbc65074f	-0.013978793
2	0xbe1d095f	-0.15335606
3	0xbecabf74	-0.39599192
4	0xbd7bc098	-0.06146297
5	0xbd87f8f2	-0.066392794
6	0xbd33cb62	-0.043895133
7	0xbe2131ba	-0.15741625
8	0x3e14d7f0	0.14535499
9	0x3bfdf8c0	0.0077506006
10	0x3dc3d6b4	0.09562436
11	0xbdf584a9	-0.119881935
12	0x3de7b284	0.11313346
13	0x3e1ceffd	0.15325923
14	0xbe8ec379	-0.2788351
15	0x3e40a053	0.18811159
16	0xbe5ed266	-0.21759948
17	0x3d8823a7	0.06647425
18	0x3d8019f2	0.06254949
19	0xbe2ee70f	-0.1708033
20	0xbe1d471f	-0.15359162
21	0xbd2b61b3	-0.04184122
22	0x3c10e896	0.008844515
23	0xbdd92042	-0.10601856
24	0xbd8e5f9f	-0.06951832
25	0x3dfcefa5	0.12350396
26	0xbe46de42	-0.19420722
27	0x3c98c02f	0.018646328
28	0x3ce22ad6	0.027608316
29	0x3c640f2b	0.013919632
30	0x3c69c838	0.014268927
31	0xbd75b5fe	-0.059988014

local_map_fc.weight f4 [64, 512]
0	0xbdd50272	-0.10400857
1	0xbdc89462	-0.09793927
2	0xbe135f69	-0.14391865
3	0xbdb3cecb	-0.08779677
4	0xbc81e419	-0.015855836
5	0xbe56d95c	-0.20981354
6	0xbe4aad35	-0.19792636
7	0x3c87461c	0.016512923
8	0xbda8139f	-0.082068674
9	0xbe1dd3a2	-0.15412763
10	0xbd9b399a	-0.07579346
11	0x3e266da6	0.16252765
12	0x3dc044e2	0.09388138
13	0xbdae44a1	-0.08509184
14	0x3d4ccab8	0.049998015
15	0xbdda5a50	-0.10661757
16	0xbd676345	-0.056491155
17	0xbd9b7345	-0.07590345
18	0xbdac63d8	-0.08417481
19	0x3aca066e	0.0015413293
20	0xbd36a8f0	-0.044594705
21	0xbcfa2dd6	-0.030539434
22	0xbd1d82a7	-0.038454678
23	0x3d299a5f	0.041406985
24	0xbdae4700	-0.08509636
25	0xba516de5	-0.0007989093
26	0xb9a42678	-0.0003130918
27	0xbd6dea78	-0.058084935
28	0xbca34623	-0.019930905
29	0x3deee10d	0.11664019
30	0x3d1ae830	0.037819088
31	0x3d696765	0.05698337
32	0xbdc409a9	-0.09572155
33	0x3c8930d1	0.01674691
34	0x3cb0eadf	0.02159637
35	0xbc3e481c	-0.011613872
36	0xbea27a13	-0.3173376
37	0xbdbdc714	-0.09266487
38	0x3d055848	0.032554895
39	0xbde041ba	-0.10950036
40	0xbe12f9e4	-0.14353138
41	0xbe7e949b	-0.24861376
42	0xbbdbceea	-0.0067080157
43	0xbddb60a9	-0.10711796
44	0x3ddc9b58	0.10771817
45	0x3d6e0b8f	0.058116492
46	0x3d1b4f7a	0.03791759
47	0x3dbb1df1	0.0913657
48	0x3d876436	0.066109106
49	0xbde507e6	-0.11183147
50	0x3c4eb44e	0.01261623
51	0x3db9daf0	0.09074962
52	0xbd956d03	-0.07296183
53	0xbd789373	-0.060687494
54	0x3d9cd387	0.07657533
55	0xbdf0ec3e	-0.117638096
56	0xbd9b105c	-0.0757148
57	0x3d6324be	0.055454962
58	0xbcdcbd1e	-0.026945647
59	0xbd2bc01a	-0.04193125
60	0x3cc8f943	0.02453292
61	0xbd99b46e	-0.07505117
62	0xbdcc0823	-0.099624895
63	0xbd8a1a21	-0.06743265
64	0xbdffd14f	-0.12491094
65	0xbe1c9ab9	-0.15293397
66	0x3d8a6cc5	0.067590274
67	0xbd1dfd07	-0.038571384
68	0xbe5dc857	-0.21658455
69	0xbe510c59	-0.20414867
70	0x3c0893da	0.008336032
71	0xbd3732ee	-0.044726305
72	0x3e308419	0.17237891
73	0x3be7beef	0.0070723216
74	0xbd20880f	-0.039192256
75	0xbe71ae59	-0.23601665
76	0xbcb4da66	-0.022076797
77	0x3df0a406	0.11750035
78	0xbceed19b	-0.029152682
79	0x3dc07136	0.09396593
80	0xbd36cb7f	-0.044627663
81	0xbca56779	-0.020190941
82	0xbd9155dd	-0.07096455
83	0xbe0b5c0d	-0.13609333
84	0xbda7f23a	-0.08200498
85	0xbc4fa4a6	-0.012673533
86	0x3d65df40	0.05612111
87	0x3e5ba308	0.2144891
88	0xbd84b430	-0.064796805
89	0x3e641389	0.22273077
90	0xbe45e519	-0.19325675
91	0x3dd2a753	0.10285821
92	0xbdd5973a	-0.10429235
93	0xbdaf99fc	-0.08574292
94	0xbe39c65c	-0.18142074
95	0x3d3ade8b	0.04562239
96	0xbe03f1ca	-0.12885204
97	0x3dc85d6e	0.09783445
98	0x3d5038ae	0.050835304
99	0xbd8cfe12	-0.068843976
100	0xbd7015ef	-0.058614668
101	0x3d9be8c9	0.076127596
102	0xbd1fb9a4	-0.0389954
103	0x3d18e83c	0.03733085
104	0x3c59ee2e	0.013301415
105	0x3e724d8e	0.23662397
106	0xbdaf031c	-0.08545515
107	0xbe694401	-0.22779848
108	0xbcbfa04a	-0.023391861
109	0xbd0b7ec2	-0.034056433
110	0xbcfc8962	-0.030827228
111	0x3d630df3	0.055433225
112	0xbc0023ac	-0.007821005
113	0x3d23436b	0.039859217
114	0x3c6bc042	0.0143891
115	0xbe0f1a0c	-0.1397478
116	0xbe024555	-0.1272176
117	0xbe0cb272	-0.13739946
118	0x3d5198d9	0.051171158
119	0x3e02b853	0.12765627
120	0xbd817eb2	-0.06322993
121	0xbe5656b1	-0.20931508
122	0xbdda28aa	-0.10652287
123	0x3d4c6a7a	0.04990623
124	0xbc641be7	-0.013922668
125	0x3b07eb93	0.0020739778
126	0xbdc3157f	-0.095255844
127	0x3b4ba3b9	0.0031072928
128	0xbdfe0c87	-0.12404733
129	0xbe8ceaa7	-0.27522776
130	0xbe4c7a89	-0.19968618
131	0xbe0756d1	-0.13216712
132	0xbe3605f5	-0.1777571
133	0xbdc71476	-0.097206995
134	0xbe6bae02	-0.23015597
135	0x3e2da58c	0.16957682
136	0xbd7fca37	-0.062448706
137	0xbcf1dcea	-0.029524285
138	0xbe969c7f	-0.29416272
139	0xbd599b46	-0.053126596
140	0x3c8f129a	0.017464925
141	0xbc059f8c	-0.008155715
142	0x3d98f720	0.0746901
143	0xbe3b1db8	-0.18273056
144	0xbe576b46	-0.21037015
145	0x3cd3293f	0.025776504
146	0xbe52ae67	-0.20574342
147	0xbe5a7489	-0.21333517
148	0xbc8665c3	-0.016405946
149	0xbcbda2b1	-0.023148866
150	0xbe046728	-0.12929976
151	0xbe821234	-0.25404513
152	0xbd6c2ed9	-0.057661865
153	0xbc1f4d39	-0.009723001
154	0x3db4b205	0.08823017
155	0xbe96dea7	-0.29466745
156	0xbe22cee9	-0.15899242
157	0xbe58c733	-0.21169738
158	0x3db120b1	0.086488135
159	0xbd790869	-0.060799036
160	0x3cb9ade1	0.02266592
161	0xbdc2b04d	-0.09506283
162	0x3ccc2252	0.024918709
163	0xbe04959a	-0.12947693
164	0xbde2abc4	-0.11067918
165	0xbd5d1255	-0.05397256
166	0xbbb91e20	-0.005649343
167	0xbd956b1f	-0.07295822
168	0xbdef916f	-0.11697661
169	0xbdf3d147	-0.11905151
170	0x3dbb07c0	0.091323376
171	0x3c7be648	0.015374728
172	0xbe3f48ad	-0.18680067
173	0xbe61ffcf	-0.2207024
174	0x3e1c8e77	0.15288721
175	0x3be1d342	0.006891639
176	0x3cf371ba	0.029717315
177	0xbd7a570b	-0.061118167
178	0xbdc6ae7e	-0.097012505
179	0xbd0d5008	-0.034500152
180	0xbdb5a0ce	-0.08868562
181	0xbd8e9125	-0.06961278
182	0xbd5e208b	-0.054230254
183	0xbc98e954	-0.018665947
184	0xbdb41944	-0.087938815
185	0xbe722b60	-0.23649359
186	0xbdf3867a	-0.11890884
187	0xbd6df9fa	-0.058099724
188	0x3dc1cb5f	0.09462618
189	0x3caaa1d8	0.020829126
190	0xbc937e8b	-0.018004676
191	0x3d677b8b	0.056514304
192	0xbd89c748	-0.06727463
193	0xbd84be06	-0.064815566
194	0xbe4303d7	-0.19044434
195	0xbea09489	-0.31363323
196	0xbe36f417	-0.1786655
197	0xbd7a20ed	-0.061066557
198	0x3e01750a	0.12642303
199	0xbe321e35	-0.17394336
200	0x3d2d6e01	0.042341236
201	0x3d0643f7	0.03277966
202	0x3d63adeb	0.055585783
203	0xbe10ab2d	-0.14127798
204	0x3d8ca8cd	0.06868134
205	0xbd57982c	-0.052635357
206	0xbdc3095c	-0.095232695
207	0x3dab3b25	0.0836089
208	0xbe71a9d8	-0.23599946
209	0xbddcf591	-0.107890256
210	0xbd4dd91a	-0.050255872
211	0x3e27fd33	0.16405182
212	0x3c0755d9	0.008260214
213	0xbe4496de	-0.19198176
214	0x3d337637	0.04381391
215	0x3d22cfaa	0.039748825
216	0x3d6ad696	0.05733355
217	0xbd3e9416	-0.046527945
218	0x3dd3c037	0.103393964
219	0x3d2d05b3	0.042241763
220	0x3c8af729	0.016963558
221	0xbe28d8b1	-0.16488911
222	0x3cb4201d	0.021987969
223	0x3d99e0b7	0.07513564
224	0xbd5799e1	-0.052636985
225	0x3c8c0155	0.017090479
226	0xbd463b49	-0.048396382
227	0x3dffd84c	0.12492427
228	0x3dfd5251	0.12369216
229	0xbd721255	-0.059099514
230	0x3d06f9c9	0.032953057
231	0x3dcdc288	0.100468695
232	0x3cbc5eb8	0.022994384
233	0xbddd90d4	-0.108186394
234	0x3cdf1d5b	0.027235677
235	0xbcce14a2	-0.025156323
236	0xbd800e61	-0.062527426
237	0xbdec53e4	-0.11539438
238	0x3d9d82bb	0.076909505
239	0xbd65d480	-0.05611086
240	0xbdbedb04	-0.09319118
241	0x3da699e5	0.08134822
242	0xbda1467a	-0.078747705
243	0x3d2de44b	0.042454045
244	0xbe2a85b4	-0.16652566
245	0xbe0f381d	-0.1398625
246	0xbea3234b	-0.31862864
247	0x3c2a1801	0.0103817
248	0xbe3440a8	-0.1760279
249	0xbe599909	-0.21249785
250	0xbe5df3e0	-0.21675062
251	0xbd95bbff	-0.07311248
252	0xbcd2615e	-0.025681194
253	0x3d892346	0.06696181
254	0xbdc85615	-0.09782044
255	0xbc0f30be	-0.008739648

local_map_fc.bias f4 [64]
0	0xbd9bbaeb	-0.07604011
1	0xbdef71ee	-0.11691652
2	0xbc014ea3	-0.007892284
3	0xbd58e05c	-0.05294834
4	0xbd758e28	-0.059950024
5	0xbdb09193	-0.08621516
6	0xbdb8259a	-0.08991547
7	0x3d8ca926	0.068682
8	0xbcc66290	-0.02421692
9	0xbd887882	-0.0666361
10	0xbd792c9f	-0.06083357
11	0xbd9da458	-0.07697362
12	0x3e19e11c	0.15027279
13	0xbd8d4ca9	-0.068993874
14	0xbd3e250a	-0.046422042
15	0x3db8e4ba	0.09028001
16	0x3d60c4a5	0.054875035
17	0x3c23fb02	0.010008575
18	0xbd5f48e3	-0.05451287
19	0xba8b23e1	-0.0010615551
20	0xbdc654ea	-0.09684165
21	0xbe02243f	-0.1270914
22	0x3d7bd193	0.061479162
23	0x3db3549a	0.08756371
24	0xbd7612f6	-0.060076676
25	0xbd9160ba	-0.07098527
26	0x3d47e568	0.048802763
27	0xbdcaf8ea	-0.09910758
28	0x3d81532f	0.06314694
29	0x3d4f56a0	0.05061972
30	0xbcc4f66a	-0.02404328
31	0xbe0ed347	-0.13947783
32	0x3da3144d	0.079628564
33	0xbd389a85	-0.045069236
34	0xbc6c8ac4	-0.014437381
35	0xbcd4d062	-0.02597827
36	0xbd807e41	-0.06274081
37	0x3db6ab59	0.08919401
38	0x3e350bbe	0.1768026
39	0x3ce1c00d	0.027557397
40	0xbd822c8c	-0.06356153
41	0xbe00c18b	-0.12573831
42	0x3d105703	0.03523923
43	0x3df0d3d2	0.117591515
44	0x3df039f0	0.11729801
45	0x3e14ff43	0.145505
46	0xbdecfc59	-0.11571569
47	0xbda3b0cd	-0.079927064
48	0xbdd11273	-0.10208597
49	0xbce1ad74	-0.02754853
50	0xbe04e1f7	-0.12976824
51	0xbdd743c3	-0.105109714
52	0x3d205ee9	0.039153013
53	0xbe5683ce	-0.20948717
54	0xbd7ce2f4	-0.061739877
55	0x3dcc8756	0.09986751
56	0xbce35b98	-0.027753636
57	0xbe6004c4	-0.21876818
58	0xbb8c45a5	-0.004280763
59	0xbd6e4818	-0.058174223
60	0xbd82b2de	-0.063817725
61	0x3d383622	0.0449735
62	0x3d370f88	0.044692546
63	0x3de5b143	0.112154506

self_entity_fc1.weight f4 [32, 26]
0	0x3e925bf7	0.2858579
1	0x3c3a44f9	0.011368983
2	0x3c6bbe02	0.014388563
3	0x3ca48196	0.020081323
4	0xbcaee00c	-0.021347068
5	0x3e03f883	0.12887768
6	0x3ac1a1f6	0.0014773
7	0xbe7ab1c5	-0.24481876
8	0xbc9c6ea4	-0.019095726
9	0xbdbda580	-0.09260082
10	0xbe1ed826	-0.15512142
11	0xbf0afc06	-0.5429081
12	0x3e342f77	0.17596231
13	0xbe2b6136	-0.16736302
14	0x3e5be672	0.21474627
15	0x3e1a9378	0.15095317
16	0xbe651d51	-0.22374465
17	0xbe1e6125	-0.15466745
18	0x3d8f5abc	0.06999728
19	0x3c95ac4a	0.01827063
20	0xbd7185c4	-0.05896546
21	0x3ea557e4	0.32293618
22	0xbe0d6ea6	-0.1381174
23	0x3e3d19a9	0.1846682
24	0xbb25c91a	-0.0025296868
25	0x3d567201	0.052354816
26	0xbeb8f46a	-0.36123973
27	0xbdd1ed71	-0.102503665
28	0x3c09601a	0.008384729
29	0x3e41dbef	0.18931554
30	0x3e339d94	0.1754058
31	0xbdc35780	-0.09538174
32	0x3e1677df	0.14694165
33	0xbea124e8	-0.3147347
34	0xbdc3bacf	-0.09557115
35	0xbd96f7d8	-0.07371491
36	0xbe078902	-0.13235858
37	0x3bb9c49d	0.00566919
38	0x3c647f94	0.013946433
39	0x3d3bb36a	0.0458254
40	0x3e55effa	0.20892325
41	0x3e0aa920	0.13541079
42	0x3dec1d17	0.11528986
43	0x3cb75f73	0.02238438
44	0xbd8922f4	-0.0669612
45	0xbd6eaf5e	-0.058272712
46	0xbd369b8a	-0.044581927
47	0x3db7bdbe	0.08971737
48	0xbd3bb88b	-0.04583029
49	0xbc852ba7	-0.016256167
50	0x3db42b73	0.0879735
51	0x3e41221e	0.18860671
52	0xbd4ae73a	-0.04953692
53	0xbddf3e9f	-0.10900616
54	0x3d6c6d69	0.05772153
55	0xbe27fac0	-0.16404247
56	0x3dc056c4	0.09391549
57	0xbef27c5d	-0.47360507
58	0xbe85066f	-0.2598147
59	0x3dc6ddd2	0.097102776
60	0x3db09bf7	0.08623498
61	0xbd89e3d9	-0.067329116
62	0xbede44d4	-0.43411887
63	0xbd9ea3a0	-0.07746053
64	0xbdb1c4d2	-0.086801186
65	0x3cfbeb44	0.030751832
66	0x3d1b5793	0.037925314
67	0x3e45cb2e	0.19315788
68	0x3d44f1b6	0.048082076
69	0x3d5bef2f	0.0536949
70	0x3d0c8f8c	0.034316584
71	0x3dfc303e	0.12313889
72	0x3d4e0f8c	0.050307795
73	0x3da4e24b	0.080509745
74	0x3e381d9c	0.17980045
75	0xbddd610a	-0.10809524
76	0xbd23c6bd	-0.039984453
77	0xbe08bfb0	-0.13354373
78	0xbdf59197	-0.1199066
79	0xbd34e2a9	-0.044161472
80	0x3dc7c764	0.097548276
81	0xbda6c6ff	-0.08143424
82	0xbdd0586b	-0.101731144
83	0x3e1769ce	0.14786455
84	0x3df3d328	0.11905509
85	0xbcfa6636	-0.030566316
86	0x3f44cc38	0.76874113
87	0x3e9bf2c5	0.30458656
88	0x3db94333	0.0904602
89	0xbd8ff14c	-0.070284456
90	0x3c959ac4	0.018262275
91	0x3e7fef83	0.2499371
92	0xbcee6faa	-0.02910598
93	0xbe322909	-0.17398466
94	0x3e42bf65	0.19018324
95	0x3e6172a4	0.22016388
96	0xbe1ea3e9	-0.15492214
97	0xbd2a53f8	-0.041583985
98	0x3e84151a	0.2579735
99	0xbda71581	-0.081583984
100	0xbe1d0039	-0.15332116
101	0x3d1c78ac	0.03820102
102	0xbde15035	-0.110016264
103	0x3e08e625	0.13369043
104	0xbe2ebec8	-0.17064965
105	0x3d0119a7	0.031518605
106	0xbcf49236	-0.029854875
107	0xbe42b4f1	-0.19014336
108	0x3dff87e9	0.12477095
109	0x3cd7f63d	0.026362533
110	0x3d3f15b0	0.046651542
111	0xbe86a9c4	-0.26301396
112	0x3d423954	0.047417954
113	0x3e170590	0.14748216
114	0x3ee27ab0	0.44234228
115	0x3e57efec	0.21087617
116	0x3e0e1643	0.1387568
117	0x3dd0ad02	0.101892486
118	0xbe4f6f67	-0.2025734
119	0x3d1297c7	0.035789277
120	0x3e626b6a	0.22111288
121	0x3ec412a4	0.38295472
122	0xbdf9e7dc	-0.12202427
123	0xbcf82d24	-0.030294962
124	0x3ca53f18	0.020171687
125	0xbdd7f653	-0.105450295
126	0xbd726288	-0.059175998
127	0xbcbeb324	-0.02327878
128	0xbde89f53	-0.11358514
129	0xbdd37a88	-0.10326105
130	0x3da4047c	0.08008668
131	0x3dea5999	0.11442871
132	0x3e3f2b43	0.18668847
133	0x3d1d7ef9	0.03845117
134	0x3d1756f1	0.03694815
135	0xbdc66691	-0.09687532
136	0x3e14f944	0.14548212
137	0xbed761a6	-0.42066687
138	0x3e66716e	0.22504207
139	0x3c1b6341	0.009484113
140	0x3d397473	0.04527707
141	0x3ea297d8	0.31756473
142	0x3e17c9dc	0.14823097
143	0x3dff170c	0.12455568
144	0x3a6c6a7c	0.0009018553
145	0xbe6bc523	-0.2302442
146	0x3db99419	0.090614505
147	0xbc7c1371	-0.015385495
148	0xbe2671fc	-0.16254419
149	0xbe3bb380	-0.18330193
150	0xbe52857c	-0.20558733
151	0xbe2d54d5	-0.16926892
152	0xbe01c29e	-0.12671897
153	0xbe3ab7bc	-0.18234152
154	0x3d7b0a9f	0.061289426
155	0x3dc5f85e	0.09666513
156	0xbbdf5f25	-0.006816762
157	0xbddd8e5b	-0.10818168
158	0xbd1c06a2	-0.038092263
159	0x3e4070e1	0.1879306
160	0x3e16edf3	0.14739208
161	0xbe0705c5	-0.13185795
162	0xbdd272da	-0.102758124
163	0xbe9af840	-0.30267525
164	0x3d71515d	0.058915485
165	0x3d99b79b	0.07505723
166	0xbeb5ded7	-0.35521576
167	0x3dbac75b	0.09120055
168	0xbf60d0ac	-0.8781841
169	0x3deab0d7	0.11459511
170	0x3e30d49b	0.17268603
171	0x3e066f38	0.13128364
172	0xbe515b2d	-0.20444937
173	0xbddd269f	-0.10798382
174	0x3bd12de6	0.0063836453
175	0x3d0588ce	0.03260117
176	0x3c185be8	0.009299256
177	0x3e8dec0c	0.27719152
178	0x3e034e48	0.1282283
179	0xbdbc5e49	-0.09197671
180	0x3bf59557	0.0074946093
181	0xbe00afce	-0.12567064
182	0x3e2f7539	0.1713456
183	0xbb29ede0	-0.0025929138
184	0xbc8f7f65	-0.017516801
185	0x3d121139	0.035660956
186	0xbcc04c54	-0.023473896
187	0xbe2164d8	-0.15761125
188	0x3dee7afc	0.11644551
189	0xbc8c6a97	-0.01714067
190	0xbf1a85c9	-0.6036039
191	0x3e027eea	0.12743726
192	0xbe286bc8	-0.16447365
193	0x3e6bcce1	0.23027374
194	0x3da711fe	0.081577286
195	0x3dd0b0b5	0.10189954
196	0x3dcb56cc	0.099286646
197	0x3e809f12	0.2512136
198	0x3e0231b0	0.12714267
199	0x3e530cac	0.20610303
200	0xbd7fea62	-0.062479384
201	0x3dabd3eb	0.083900295
202	0x3c8f873d	0.017520541
203	0x3e44baab	0.19211833
204	0x3bd4df61	0.0064963554
205	0xbd94216f	-0.072329395
206	0x3dba05be	0.090831265
207	0xbe0fa600	-0.14028168
208	0xbd075c2b	-0.033046883
209	0xbdc374f9	-0.09543795
210	0x3b9c9b05	0.004779222
211	0x3de41166	0.11136131
212	0xbcb4f7da	-0.022090841
213	0xbdbe28a5	-0.09285096
214	0x3d1326e6	0.03592577
215	0x3f146650	0.57968616
216	0x3cb9bc34	0.02267275
217	0x3d6a3617	0.05718049
218	0xbf50ad8b	-0.81514806
219	0xbde2ab91	-0.1106788
220	0xbdfe3da9	-0.124141045
221	0x3ddc806f	0.10766684
222	0x3e3a86af	0.1821544
223	0x3e109ebe	0.14123055
224	0x3e2fd61a	0.17171517
225	0xbda0936e	-0.0784062
226	0xbd8aea3a	-0.067829564
227	0xbd87532d	-0.066076614
228	0xbd3f6f78	-0.046737164
229	0x3e2a8aab	0.1665446
230	0x3dc59a67	0.096485905
231	0xbd6dce39	-0.058057997
232	0xbe0aedf0	-0.13567328
233	0xbe08d058	-0.13360727
234	0xbe4d03f3	-0.20021038
235	0xbe5b08e9	-0.21390118
236	0xbd0dec4f	-0.03464919
237	0x3db81447	0.089882426
238	0xbd9c8e2d	-0.076443054
239	0xbeccdb6a	-0.4001115
240	0xbef31d6c	-0.47483385
241	0x3e126ec4	0.14300066
242	0xbe2fa45f	-0.17152546
243	0xbd2ceac0	-0.042216063
244	0x3dfe8f57	0.12429684
245	0x3e2e6d83	0.17033963
246	0x3d77caf1	0.060496274
247	0xbdbac332	-0.09119262
248	0x3db762b3	0.08954372
249	0x3df4d897	0.11955374
250	0xbda386a0	-0.07984662
251	0xbdfff489	-0.12497813
252	0x3d941583	0.072306655
253	0xbdb3ce7e	-0.0877962
254	0x3ca17c9f	0.019712744
255	0x3e8e1f1b	0.27758107

self_entity_fc1.bias f4 [32]
0	0xbc2f358b	-0.010693918
1	0x3e8c2b3d	0.27376738
2	0x3c052398	0.008126162
3	0xbe7cd7f9	-0.24691762
4	0xbdaf3369	-0.085547276
5	0xbe08ee7b	-0.13372223
6	0x3e9e2738	0.30889297
7	0x3e03a0e9	0.12854351
8	0x3e663333	0.22480468
9	0x3e1b5f02	0.15172961
10	0x3dafe55f	0.08588671
11	0x3e66f8c4	0.22555834
12	0x3c4ea8d2	0.012613492
13	0xbcf9d6ff	-0.030498026
14	0xbdf54ab8	-0.11977142
15	0xbd2f7f4d	-0.042846013
16	0x3e1a3f24	0.15063149
17	0x3e12f63b	0.14351742
18	0x3e729b4f	0.23692058
19	0x3d5d5d94	0.05404432
20	0x3e6f5f97	0.23376308
21	0x3defbe0f	0.11706173
22	0x3e7b2d60	0.24529028
23	0xbd8c14e2	-0.068399206
24	0x3e7305b2	0.23732641
25	0x3ddd60e5	0.10809497
26	0xbe65457a	-0.22389784
27	0x3d62a0f3	0.055329274
28	0x3eb94a9f	0.36189744
29	0x3f02b8e5	0.51063377
30	0xbd5104ae	-0.051029854
31	0x3ca28288	0.019837633

self_entity_fc2.weight f4 [32, 32]
0	0xbde0bb7f	-0.10973262
1	0x3e157e0d	0.14598866
2	0x3ec796de	0.3898229
3	0xbed28f2a	-0.4112485
4	0x3e5e8101	0.21728899
5	0x3dbd0192	0.09228815
6	0x3d8d5ab0	0.06902063
7	0x3e6ba083	0.23010449
8	0xbe5840e3	-0.21118502
9	0xbd307f7a	-0.04309032
10	0x3dbd523e	0.09244202
11	0xbe17e294	-0.14832526
12	0x3c21b610	0.009870067
13	0x3e4050c0	0.18780804
14	0xbeb8da9e	-0.36104292
15	0x3de3beae	0.11120354
16	0x3d795c84	0.060879245
17	0x3b606c27	0.0034244151
18	0x3e060785	0.13088806
19	0xbdfe474e	-0.12415944
20	0x3c7a95d5	0.015294512
21	0x3bacf3fe	0.0052781096
22	0xbd7dc730	-0.061957538
23	0x3e732bd9	0.23747195
24	0x3ca0e664	0.019641109
25	0x3e023e63	0.12719111
26	0xbeb80f8f	-0.3594937
27	0x3e5c4bed	0.21513338
28	0x3f07fc6b	0.53119534
29	0x3f0dd1f9	0.5539852
30	0x3e3a1a8f	0.18174194
31	0xbcea3325	-0.02858884
32	0x3e9778df	0.29584405
33	0x3ddd8d52	0.1081797
34	0xbd801c33	-0.062553786
35	0x3dc2a623	0.09504344
36	0xbf1583ba	-0.58404124
37	0xbe1b7bd7	-0.1518396
38	0x3f5f58a0	0.87244606
39	0xbe0286d5	-0.12746747
40	0x3f0e1769	0.5550447
41	0xbdbef78a	-0.09324558
42	0x3e91b581	0.2845879
43	0x3f0d9205	0.55300933
44	0x3d38d97f	0.045129295
45	0xbf21a523	-0.63142604
46	0x3e18ccfb	0.14921944
47	0x3e189af5	0.14902861
48	0x3e329fe8	0.17443812
49	0x3d81c1f8	0.06335825
50	0xbcb6a3c3	-0.022294885
51	0xbe78c852	-0.24295166
52	0x3d614cbd	0.055004824
53	0x3dfe5bdd	0.12419865
54	0xbe2a0d4a	-0.16606632
55	0xbe2d0f0d	-0.16900273
56	0xbe955cc1	-0.29172328
57	0x3d8880ad	0.06665168
58	0xbe24b923	-0.16086249
59	0xbe2d58ec	-0.16928452
60	0xbf11bd91	-0.5692988
61	0xbf1aa911	-0.60414225
62	0xbde408b3	-0.11134472
63	0xbdba09b1	-0.0908388
64	0xbd2ee965	-0.04270305
65	0xbdcbb65e	-0.09946893
66	0xbee0791f	-0.43842408
67	0xbe90cc10	-0.28280687
68	0x3e7be2bc	0.24598211
69	0xbe38cba2	-0.1804643
70	0x3e1639af	0.14670442
71	0x3e160e09	0.14653791
72	0xbf2a2a56	-0.6647085
73	0xbdb557df	-0.08854651
74	0x3dc6dd0c	0.0971013
75	0xbe47c794	-0.19509727
76	0xbd9389c1	-0.07204009
77	0xbf438dbf	-0.7638816
78	0xbe95024b	-0.29103312
79	0x3ce7c6f1	0.028293105
80	0xbd9b102e	-0.075714454
81	0x3dc61305	0.096715964
82	0x3e80aa41	0.25129893
83	0xbe908a96	-0.28230733
84	0xbcacad94	-0.021078862
85	0xbb9d1d89	-0.0047947806
86	0x3dd7b3f0	0.10532367
87	0x3e6e9cee	0.23302051
88	0x3dfa3d04	0.12218669
89	0x3e22d37f	0.15900992
90	0xbee7e1b7	-0.45289394
91	0xbd8cbd21	-0.06872011
92	0xb8c8c53b	-9.57348e-05
93	0xbddee1b9	-0.10882897
94	0xbe218774	-0.15774328
95	0xbdfcaad7	-0.123372726
96	0x3d904f28	0.07046348
97	0xbdf343fa	-0.118782
98	0xbe7748d2	-0.24148872
99	0x3e1cb521	0.1530347
100	0x3e1b62c2	0.15174392
101	0x3e65c1a5	0.22437151
102	0xbb82eb49	-0.0039953333
103	0xbecd39ad	-0.40083066
104	0xbe8630c4	-0.2620908
105	0xbe435079	-0.19073667
106	0xbf107721	-0.56431776
107	0x3cae5809	0.021282213
108	0x3e9787c9	0.29595783
109	0xbee802ac	-0.45314538
110	0x3eabce4f	0.33555838
111	0x3e358e4a	0.1773006
112	0x3db90645	0.09034399
113	0x3e482c17	0.19548069
114	0xbec2f08a	-0.38074142
115	0xbc8930b7	-0.016746862
116	0xbe07debb	-0.13268559
117	0xbd0f8e68	-0.03504792
118	0xbdbcffdc	-0.09228489
119	0x3c896982	0.016773943
120	0x390aa8e8	0.00013223628
121	0xbc3e3f41	-0.011611761
122	0x3e7f1c7e	0.24913213
123	0xbeee781e	-0.46576017
124	0x3e259fce	0.16174242
125	0x3dde9af2	0.10869397
126	0xbe157d7a	-0.14598647
127	0x3e58b6e4	0.21163517
128	0x3ee7e25e	0.45289892
129	0x3e87d981	0.2653313
130	0xbd82b877	-0.0638284
131	0xbd5e1092	-0.05421502
132	0xbecafd5c	-0.39646423
133	0xbe0b9df7	-0.13634478
134	0x3e5f7a44	0.21823984
135	0xbe30a034	-0.17248613
136	0x3f058c40	0.5216713
137	0xbbfd310b	-0.0077267936
138	0x3e728f08	0.23687375
139	0x3f1107b1	0.5665236
140	0x3dedf7b1	0.11619509
141	0xbf3be61e	-0.73398006
142	0xbbccf1b9	-0.0062544015
143	0x3e6fd9a9	0.23422875
144	0x3e4f89f8	0.20267475
145	0x3d424227	0.04742637
146	0xbe09f2e6	-0.13471565
147	0x3e04e527	0.1297804
148	0x3ea0856c	0.31351793
149	0x3e763230	0.24042583
150	0xbc78a006	-0.015174871
151	0x3e0e6c33	0.13908462
152	0xbed3c771	-0.413631
153	0x3db130be	0.08651875
154	0x3d18c16b	0.037293833
155	0x3d51ddde	0.05123698
156	0xbecb655d	-0.39725772
157	0xbf046b71	-0.5172644
158	0x3dc68318	0.09692973
159	0xbc4d7bb1	-0.012541697
160	0x3e46c85a	0.19412366
161	0x3eae56d5	0.34050623
162	0x3e80135a	0.25014764
163	0xbd9ca04d	-0.076477624
164	0x3e24b010	0.16082788
165	0xbc9c1e49	-0.01905741
166	0xbc446ec1	-0.011989296
167	0x3d690d51	0.056897465
168	0x3f3582e2	0.70902836
169	0xbe6b98f9	-0.23007573
170	0x3ea204d9	0.31644323
171	0x3e6aaca0	0.22917414
172	0xbe71f798	-0.23629606
173	0x3ea5a9eb	0.323562
174	0x3e4fe508	0.20302212
175	0x3e15f97b	0.1464595
176	0x3e3eeb45	0.18644436
177	0x3db8750d	0.09006701
178	0xbd483f78	-0.048888654
179	0x3e547037	0.20745932
180	0x3df6a52c	0.12043223
181	0xbd902270	-0.070378184
182	0x3da87de0	0.08227134
183	0xbdce01a7	-0.10058909
184	0x3e7a9ecb	0.24474637
185	0xbe4ea4df	-0.20180081
186	0xbe56477c	-0.20925707
187	0x3dab86ca	0.08375318
188	0xbe908d66	-0.28232878
189	0xbef278ed	-0.47357884
190	0xbd8afc8a	-0.06786449
191	0xbe1f8c3f	-0.15580843
192	0xbd83037f	-0.06397151
193	0x3df9f475	0.122048296
194	0x3d6e49c0	0.058175802
195	0xbe9f464e	-0.31108326
196	0x3df06a51	0.11739028
197	0x3d922ec8	0.07137829
198	0xbe6e83d4	-0.23292476
199	0x3d474794	0.048652247
200	0xbf85f3a2	-1.0464976
201	0x3c25f1dd	0.0101284655
202	0x3e6e1d60	0.23253393
203	0xbd95cb6b	-0.073141895
204	0xbe023f4d	-0.1271946
205	0xbf869da5	-1.0516859
206	0xbd0c2db2	-0.034223266
207	0xbd91aa6e	-0.07112585
208	0x3dfcabd4	0.12337461
209	0x3e051184	0.12994963
210	0x3e2f6cde	0.17131373
211	0xbd285da7	-0.04110494
212	0x3e2c04b8	0.16798675
213	0xbe512dc7	-0.20427619
214	0x3e60aba9	0.21940483
215	0x3dfcaf12	0.123380795
216	0x3e028b6e	0.127485
217	0x3d4d210c	0.050080344
218	0xbeef478d	-0.46734276
219	0x3e8d4009	0.27587917
220	0xbdd4e911	-0.103960164
221	0xbdab3ace	-0.083608255
222	0xbe375e11	-0.17906977
223	0x3cd2bd92	0.02572516
224	0x3f10d791	0.5657893
225	0x3dd693a7	0.10477381
226	0x3da46ff3	0.08029165
227	0xbdb86801	-0.09004212
228	0xbd9bbfab	-0.07604917
229	0xbe48f9bf	-0.1962652
230	0xbf15fa20	-0.58584785
231	0xbca18e15	-0.01972107
232	0x3e8f1275	0.2794377
233	0x3d1d77c5	0.0384443
234	0x3dae3c6e	0.0850762
235	0x3f07fb2f	0.5311765
236	0xbdbc7ae8	-0.0920313
237	0xbf59b6ee	-0.85044754
238	0x3cf6316b	0.030052861
239	0x3d3c2909	0.04593757
240	0x3c82e428	0.015977934
241	0x3b77b401	0.00377965
242	0xbc6e1037	-0.014530233
243	0x3de52d39	0.11190266
244	0x3e4b162e	0.1983268
245	0xbd8f0d19	-0.0698492
246	0xbd5d12f1	-0.053973142
247	0x3e941e19	0.28929213
248	0xbea79e3a	-0.32737905
249	0x3da67f78	0.081297815
250	0xbd51453f	-0.05109143
251	0xbd405b53	-0.046962094
252	0xbecc3ffa	-0.3989256
253	0xbec62c62	-0.38705736
254	0x3dcb09a3	0.099139474
255	0x3d4fcce5	0.050732512

self_entity_fc2.bias f4 [32]
0	0x3dd34de7	0.10317593
1	0x3da7d465	0.08194808
2	0xbcb757fb	-0.02238082
3	0xbd6a80a7	-0.0572516
4	0x3e6a48f8	0.22879398
5	0xbc581f27	-0.013191021
6	0xbd1eec81	-0.038799766
7	0x3e91604f	0.2839379
8	0xbd9c96b3	-0.07645931
9	0xbe06cbc7	-0.13163672
10	0x3d9983f7	0.074958734
11	0xbb68d5b5	-0.003552777
12	0xbe2954e5	-0.16536291
13	0x3db62daf	0.08895432
14	0xbd5ae84c	-0.05344419
15	0xbdf21a0a	-0.11821373
16	0xbde0a11b	-0.109682284
17	0xbe11f5b7	-0.14253889
18	0xbd53394b	-0.05156831
19	0xbdaa63cf	-0.08319818
20	0x3e0c69ba	0.13712206
21	0x3df0cfb3	0.117583655
22	0x3d57c8b7	0.05268165
23	0xbe3cdfe9	-0.1844479
24	0x3d3f0dfc	0.046644196
25	0xbc8eebbf	-0.017446397
26	0xbd4a878f	-0.049445685
27	0xbe1c0314	-0.15235549
28	0x3df43236	0.119236395
29	0xbdcb6359	-0.099310584
30	0x3dd0ff58	0.10204953
31	0x3e518c61	0.20463707
