my-submission/checkpoints/model_228096.pt (torch, 352797 bytes, 23 tensors)

local_map_cnn.0.weight f4 [32, 24, 3, 3]
0	0x3c284e09	0.010272511
1	0x3de86aac	0.11348471
2	0x3e4f3ac2	0.20237258
3	0x3dd78b93	0.105246685
4	0x3d664686	0.0562196
5	0x3e2f5967	0.17123948
6	0xbd1a356a	-0.037648596
7	0xbd74a03e	-0.05972313
8	0x3e09c68e	0.13454649
9	0x3d97930e	0.07401095
10	0xbde7c762	-0.11317326
11	0xbe1c23c9	-0.15248026
12	0x3da2a768	0.079420865
13	0xbd91c85a	-0.07118292
14	0x3e4ef173	0.20209293
15	0xbdbd37a6	-0.0923913
16	0xbd3d91ee	-0.046281748
17	0xbedcad40	-0.4310093
18	0xbd3108e3	-0.043221366
19	0x3d76febe	0.060301535
20	0x3e17fec9	0.14843287
21	0xbc7c22cc	-0.015389156
22	0xbde16079	-0.11004729
23	0xbf03073d	-0.5118292
24	0x3d208b65	0.039195437
25	0xbd6d2f7d	-0.057906616
26	0x3d461236	0.04835721
27	0xba28980d	-0.0006431349
28	0xbcf77d8d	-0.030211234
29	0x3d5ee7a2	0.05442012
30	0xbdd2cadc	-0.102925986
31	0xbc834dac	-0.016028248
32	0xbebbba43	-0.36665544
33	0xbd4fbe72	-0.050718732
34	0xbe6ae729	-0.22939743
35	0x3d6418f9	0.05568788
36	0xbddd2ef4	-0.10799971
37	0xbe2deed6	-0.1698564
38	0x3e23dd5b	0.16002409
39	0x3cfe50e9	0.03104444
40	0x3ce6c9af	0.028172342
41	0xbd6246cd	-0.055243302
42	0xbdc29b13	-0.09502234
43	0xbd789284	-0.060686603
44	0x3e7b0acf	0.24515842
45	0x3b7bffc5	0.003845201
46	0x3c3061ef	0.010765537
47	0xbeec2dfc	-0.46128833
48	0xbd409c38	-0.04702398
49	0xbcff4151	-0.031159075
50	0x3deddfa0	0.11614919
51	0x3c77b56a	0.015118936
52	0x3e31854e	0.17336008
53	0xbec037d1	-0.37542585
54	0xbd8ebbbb	-0.069694005
55	0xbe2e2f08	-0.17010128
56	0xbe66159e	-0.22469184
57	0xbe41b453	-0.18916444
58	0xbe870552	-0.26371247
59	0xbdf6ba96	-0.12047307
60	0xbe7749fb	-0.24149315
61	0xbe30c274	-0.17261678
62	0x3da9109d	0.08255122
63	0xbdf21b4d	-0.118216135
64	0xbe2a1c53	-0.16612367
65	0xbc8c117f	-0.017098187
66	0xbd5b1b7e	-0.053493015
67	0xbeed823d	-0.46388426
68	0xbe232d56	-0.15935263
69	0xbe11c23f	-0.14234255
70	0xbdda979e	-0.1067345
71	0xbc9cd658	-0.019145176
72	0xbd5d47b4	-0.05402346
73	0xbd9a9b10	-0.07549107
74	0xbdf5ff47	-0.12011581
75	0xbe278cea	-0.16362348
76	0xbe6c0600	-0.23049164
77	0xbeb91021	-0.36145118
78	0xbe605bcd	-0.21910019
79	0xbe4662b5	-0.19373591
80	0xbe21c269	-0.15796818
81	0x3d9a8ccc	0.07546386
82	0x3dfeb73d	0.12437294
83	0x3dd58728	0.1042617
84	0xbdc946e5	-0.09827975
85	0xbe11bc13	-0.14231901
86	0xbd91d0aa	-0.07119878
87	0xbd60d4f0	-0.054890573
88	0x3c7da696	0.015481612
89	0xbdda29be	-0.10652493
90	0xbe3ff5b0	-0.18746066
91	0x3dc3595c	0.09538528
92	0x3e01d904	0.12680441
93	0xbe705a1a	-0.23471871
94	0xbe3d68d5	-0.18497021
95	0xbeeca6ca	-0.46221
96	0xbe69def6	-0.22838959
97	0xbe3e5b65	-0.18589552
98	0xbe6133f8	-0.21992481
99	0xbec8747b	-0.39151368
100	0xbe4bf281	-0.19916727
101	0xbdc08b56	-0.09401576
102	0xbe3b8711	-0.18313242
103	0xbec96dd8	-0.39341617
104	0xbe8762c5	-0.26442543
105	0xbcd09f73	-0.025466656
106	0xbe3fd643	-0.18734078
107	0xbdcd83be	-0.100348935
108	0x3d95f9db	0.07323047
109	0x3b86a04d	0.004108465
110	0x3b33a572	0.0027411846
111	0xbcc89887	-0.024486793
112	0xbda62cac	-0.08113989
113	0xbeb6e907	-0.3572466
114	0xbe9be517	-0.3044822
115	0xbe395b61	-0.18101265
116	0xbcd0a671	-0.02546999
117	0xbe597768	-0.21236956
118	0xbd237d65	-0.039914507
119	0x3e15d14e	0.14630625
120	0xbd91eeb9	-0.07125611
121	0xbdd4a3d8	-0.10382813
122	0xbe96cc28	-0.29452634
123	0xbdf66d1f	-0.12032532
124	0xbc549e87	-0.012977249
125	0x3c988edd	0.01862281
126	0xbe433d5b	-0.19066374
127	0xbc795e8e	-0.0152202975
128	0xbe0a938b	-0.13532846
129	0xbe25fe0a	-0.1621019
130	0x3cfa4a8a	0.030553121
131	0x3d25bc48	0.040462762
132	0xbda11110	-0.078645825
133	0xbe8ecf15	-0.27892366
134	0xbe2f52ef	-0.1712148
135	0x3d12ee96	0.035872065
136	0xbd8c75fd	-0.06858442
137	0xbbb84165	-0.00562303
138	0x3d7540bf	0.0598762
139	0x3c86e6ca	0.01646747
140	0xbd096ca6	-0.03355088
141	0xbe1e5bad	-0.15464659
142	0xbcf77219	-0.030205773
143	0x3e65fd50	0.22459912
144	0x3b8755c2	0.004130096
145	0x3dd957b7	0.106124334
146	0x3e4638e6	0.19357643
147	0xbd15e00d	-0.036590625
148	0xbd8bed9a	-0.06832428
149	0xbf3268df	-0.6969127
150	0x3d35798f	0.04430538
151	0xbdbe15d9	-0.09281511
152	0x3e8fcaa0	0.28084278
153	0xbdc7977c	-0.0974569
154	0xbde68bb4	-0.11257115
155	0xbe21e9f4	-0.15811902
156	0xbd92d2ab	-0.07169088
157	0xbdbd07f3	-0.09230032
158	0xbd91dadd	-0.07121823
159	0x3cc2ec24	0.023794241
160	0xbd5c609e	-0.05380308
161	0xbe66db8a	-0.22544685
162	0x3e4be921	0.1991315
163	0xbdc8325f	-0.097752325
164	0x3eb818aa	0.35956317
165	0xbcc023e3	-0.023454612
166	0x3df9cadc	0.121968955
167	0x3ee4463d	0.44584838
168	0x3ddb262e	0.107006416
169	0x3a8a2300	0.0010538995
170	0x3ee658a3	0.449895
171	0xbe0056c7	-0.12533103
172	0xbda71577	-0.08158391
173	0xbbad4c58	-0.005288642
174	0x3d77fb3f	0.06054234
175	0xbe37014b	-0.17871587
176	0x3e448a1b	0.19193308
177	0xbc41e5e2	-0.0118345935
178	0xbdb22f7f	-0.087004654
179	0xbb62c692	-0.003460322
180	0xbdf90487	-0.12159067
181	0xbde18eee	-0.1101359
182	0xbc2b40f7	-0.010452501
183	0xbca84457	-0.0205404
184	0xbe8afaa6	-0.27144355
185	0xbe2b0878	-0.1670245
186	0xbcf888cf	-0.030338673
187	0xbea768b8	-0.32697082
188	0xbe89eb43	-0.26937303
189	0x3e9af258	0.3026302
190	0x3f10de5d	0.565893
191	0x3e310a5b	0.17289107
192	0x3eddf0ee	0.43347877
193	0x3ee51cb3	0.44748458
194	0x3f06dd01	0.52680975
195	0x3e28b185	0.16473968
196	0x3e9bbbc4	0.3041669
197	0xbe97cd80	-0.29648972
198	0x3f0364dd	0.5132578
199	0x3ec5880e	0.38580364
200	0xbc91fa47	-0.017819537
201	0x3f3b08c3	0.73060244
202	0x3f26d718	0.65171957
203	0xbca805a8	-0.02051051
204	0x3e59b419	0.21260108
205	0x3ede2adc	0.43392074
206	0x3e8b856b	0.27250227
207	0x3dae78b7	0.08519118
208	0xbcd9b106	-0.02657367
209	0xbc99c821	-0.018772187
210	0x3aefd1fe	0.0018296835
211	0xbdd9851b	-0.10621091
212	0xbe5fb745	-0.21847256
213	0xbd84c1a9	-0.0648225
214	0xbe39d509	-0.18147673
215	0xbe575646	-0.21029004
216	0x3d2286a5	0.03967919
217	0xbc0c1391	-0.008549587
218	0x3dbd1f69	0.09234507
219	0xbd830b7f	-0.06398677
220	0x3d1eace7	0.03873911
221	0x3d902b57	0.070395164
222	0xbdd2d6c9	-0.10294873
223	0x3d0f9fe3	0.03506459
224	0xbd4d3bf0	-0.05010599
225	0x3c33c0c0	0.010971248
226	0x3d7dac45	0.061931867
227	0x3bf9e4c5	0.0076261484
228	0x3dadbafe	0.084829316
229	0x3d2c38c4	0.042046323
230	0x3cfb4015	0.030670205
231	0x3d9e4258	0.07727498
232	0x3df486aa	0.11939748
233	0x3d20bafa	0.039240815
234	0x3c4ec73c	0.012620743
235	0x3b9ed93d	0.004847674
236	0x3d269c38	0.040676326
237	0xbb830cea	-0.003999342
238	0xbd519350	-0.05116588
239	0x3cd27df8	0.025694832
240	0x3be49327	0.0069755497
241	0x3ba6fc76	0.0050960137
242	0xbadbccfc	-0.0016769464
243	0xbc91977a	-0.017772425
244	0x3c0cc0b1	0.008590863
245	0x3d35a1ba	0.044343688
246	0x3d19da86	0.037561916
247	0x3d9fe877	0.07808011
248	0x3d8f17af	0.06986939
249	0x3d082623	0.033239495
250	0x3cc21823	0.02369315
251	0x3d72d9ce	0.059289746
252	0x3d444c1a	0.04792414
253	0x3d362984	0.044473186
254	0x3d81f985	0.0634642
255	0xbd0c59e5	-0.034265418

local_map_cnn.0.bias f4 [32]
0	0xbd42ebbe	-0.047588103
1	0xbd120dcf	-0.0356577
2	0xbd1815a4	-0.037130013
3	0xbdd86575	-0.105662264
4	0x3d07d0ee	0.033158235
5	0x3cfeebe4	0.03111834
6	0x3bdb15a9	0.0066859317
7	0xbd7867ca	-0.060645856
8	0xbb07c803	-0.0020718582
9	0xbdead5a7	-0.11466532
10	0xbc63b73f	-0.01389867
11	0xbd817a42	-0.06322147
12	0xbcf7ad83	-0.030234104
13	0xbd4efa45	-0.050531644
14	0xbd809797	-0.062789135
15	0xbe1c521f	-0.15265702
16	0xbd2cf033	-0.04222126
17	0x3c40e142	0.011772456
18	0x3d015a33	0.03158016
19	0x3bd25e8f	0.0064199637
20	0xbdc6418b	-0.0968047
21	0x3db01610	0.08597958
22	0xbc43e591	-0.011956588
23	0xbd9b6482	-0.0758753
24	0xbdd70e58	-0.10500783
25	0xbda632b5	-0.0811514
26	0xbd605870	-0.05477184
27	0xbbe09f47	-0.006854925
28	0x3d49f0c4	0.049301878
29	0x3c80db32	0.01572952
30	0x3db96afe	0.0905361
31	0x3b50e4f5	0.003187475

local_map_cnn.2.weight f4 [32, 32, 3, 3]
0	0x3e4d84d7	0.20070206
1	0xbdeeaf3f	-0.11654519
2	0xbe910a5f	-0.28328225
3	0xbe01da99	-0.12681045
4	0xbeb38211	-0.3506017
5	0xbd85bef8	-0.06530565
6	0xbea4e0a0	-0.32202625
7	0xbcfc50be	-0.03080022
8	0xbc1951a5	-0.0093578445
9	0x3b9a1a3c	0.0047028344
10	0xbdc10dee	-0.09426485
11	0xbc829ac2	-0.015942935
12	0xbd385295	-0.04500063
13	0xbd818e05	-0.06325916
14	0xbdb568a7	-0.088578515
15	0x3d8203e0	0.06348395
16	0xbd31eb76	-0.043437444
17	0xbd88afc7	-0.06674152
18	0x3b924e54	0.004464904
19	0xbe1a5325	-0.1507078
20	0xbdff57b1	-0.12467898
21	0x3e0904d0	0.13380742
22	0x3e8755c7	0.2643263
23	0x3e7ecb80	0.24882317
24	0xbd94a761	-0.072584875
25	0xbdacf866	-0.08445816
26	0xbc4bd676	-0.012441268
27	0xbe068044	-0.13134867
28	0x3e3cc6f4	0.1843527
29	0x3dce74d7	0.10080879
30	0x3d280348	0.041018754
31	0x3e710229	0.2353598
32	0x3e57c243	0.21070199
33	0xbe1d4399	-0.15357818
34	0x3d1015da	0.03517709
35	0x3db564d8	0.08857125
36	0xbdb8ea91	-0.09029115
37	0xbdb78735	-0.089613356
38	0x3dba2d90	0.090907216
39	0x3b858566	0.00407474
40	0xbebca555	-0.36844888
41	0x3d9f92d7	0.07791679
42	0xbd017c69	-0.031612787
43	0xbe24b0bb	-0.16083042
44	0x3d66119f	0.05616915
45	0xbdcda88a	-0.10041912
46	0xbd5cb649	-0.05388478
47	0x3da21d25	0.07915715
48	0xbc03cda4	-0.008044634
49	0xbe6e1379	-0.23249616
50	0xbdc4b804	-0.09605411
51	0x3d84db88	0.06487185
52	0x3bca5a07	0.006175283
53	0x3de59d7a	0.11211677
54	0xbd48c82d	-0.049019028
55	0xbdb96de0	-0.0905416
56	0xbd7c0eaf	-0.06153744
57	0xbd8df4f3	-0.06931486
58	0x3d20e474	0.03928037
59	0xbd25fd58	-0.04052481
60	0x3d2415d1	0.04005987
61	0xbde058aa	-0.10954411
62	0xbdc96a3f	-0.09834718
63	0x3de42811	0.111404546
64	0x3d973a49	0.07384164
65	0x3dfdbbd7	0.12389343
66	0x3df327ef	0.11872851
67	0x3e089c92	0.13340977
68	0x3e01672d	0.12637015
69	0x3d614ac2	0.055002935
70	0x3e0fd754	0.14046985
71	0x3e044d20	0.12920046
72	0x3cd5dc51	0.026106032
73	0x3e959046	0.29211634
74	0xbd2f8c4f	-0.042858418
75	0x3e83a74d	0.25713578
76	0x3d333be9	0.043758307
77	0xbe09e6bc	-0.13466924
78	0x3e8dc611	0.27690175
79	0xbc4c465f	-0.01246795
80	0xbc5fe5ff	-0.013665675
81	0x3d572eef	0.052534994
82	0x3d33019c	0.043702707
83	0x3d1d9537	0.03847238
84	0x3e03cce9	0.12871136
85	0x3d778b79	0.060435746
86	0x3d1546bb	0.036444407
87	0xbd4e3c17	-0.050350275
88	0x3d91f322	0.07126452
89	0xbd217fb0	-0.039428413
90	0x3e018c3a	0.12651148
91	0xbda20d12	-0.07912649
92	0x3ddfdfa7	0.1093133
93	0x3c9b1f7b	0.01893591
94	0xbe13bdb5	-0.14427836
95	0xbd1e7c5f	-0.03869283
96	0xbdaf616e	-0.08563505
97	0xbe2d54da	-0.169269
98	0x3de018ca	0.10942228
99	0x3ecbd171	0.3980823
100	0xbd42784a	-0.047477998
101	0x3e7b2955	0.24527486
102	0x3d189330	0.037249744
103	0x3bf696c4	0.007525297
104	0x3e3f037a	0.1865367
105	0x3e2df312	0.16987255
106	0xbe35fd35	-0.17772372
107	0x3cb4e046	0.022079598
108	0xbe0a4138	-0.13501441
109	0x3da33f68	0.07971078
110	0x3d984467	0.07434922
111	0x3ddd2645	0.10798315
112	0x3d577856	0.052604996
113	0xbdc849a8	-0.09779674
114	0x3b63b866	0.0034747361
115	0x391c500d	0.0001490714
116	0x3ddb953b	0.10721823
117	0x3d910218	0.070804775
118	0x3d8ec823	0.06971767
119	0x3be40d87	0.0069596204
120	0x3d817594	0.063212544
121	0xbdac9fb7	-0.08428901
122	0x3c9f3344	0.019433625
123	0x3c94cfd4	0.018165506
124	0x3d941843	0.0723119
125	0x3d977e6a	0.073971584
126	0xbdb32deb	-0.087489925
127	0xbd8e8c14	-0.069603115
128	0xbdc34cf4	-0.09536162
129	0xbe0aad3a	-0.13542643
130	0xbd9ab72e	-0.0755447
131	0xbd9c5898	-0.076340854
132	0xbe087e09	-0.13329329
133	0xbd485121	-0.048905496
134	0xbc4f3754	-0.012647469
135	0xbc632fe2	-0.013866397
136	0x3d255fd3	0.04037459
137	0xbd90019b	-0.07031556
138	0xbcbf20c5	-0.023331055
139	0x3da03a12	0.07823576
140	0xbd6bd88e	-0.05757957
141	0xbe0b5069	-0.13604893
142	0xbd1ec919	-0.038766
143	0xbd993f29	-0.0748275
144	0x3cca944f	0.024728922
145	0x3d99b381	0.07504941
146	0x3c1679e6	0.009184336
147	0x3d0e3f92	0.034728594
148	0x3e86e323	0.26345167
149	0x3d9f2197	0.07770079
150	0xbcee899b	-0.02911835
151	0x3c9080e0	0.017639577
152	0x3ddb0ba7	0.10695582
153	0x3d7530ee	0.059861116
154	0x3d0dd639	0.034628127
155	0xb9b76ded	-0.0003498638
156	0x3d1ef379	0.038806412
157	0x3e091376	0.1338633
158	0x3bf837a4	0.0075749923
159	0xbd39ca47	-0.045358922
160	0x3df6f7f0	0.12059009
161	0x3d766db9	0.060163233
162	0x3e5c9216	0.21540102
163	0xbd852e5e	-0.065029845
164	0xbcac97f1	-0.021068545
165	0xba9a2599	-0.0011760473
166	0x3b787534	0.0037911655
167	0x3b816f28	0.0039500184
168	0xbe19b38c	-0.15009898
169	0xbc9499e3	-0.018139785
170	0x3d1410e1	0.03614891
171	0xbdcd6635	-0.1002926
172	0x3cd395a4	0.02582819
173	0xbdadc644	-0.08485082
174	0x3da0cf8a	0.07852085
175	0x3e343cd0	0.17601323
176	0x3df36641	0.11884738
177	0xbdf66622	-0.12031199
178	0x3d082f2d	0.033248115
179	0xbc9e5c9e	-0.019331273
180	0xbdaa1382	-0.08304502
181	0x3e194bdc	0.14970344
182	0xbd66f487	-0.056385543
183	0x3da08c9b	0.07839318
184	0x3d602f7f	0.054732796
185	0x3e23aaf0	0.15983176
186	0xbdf08519	-0.11744136
187	0x3cbd8274	0.023133494
188	0x3d99bc2d	0.07506595
189	0x3e06d350	0.13166547
190	0x3e0b599f	0.13608406
191	0xbd1dfe88	-0.038572818
192	0xbc6d38ea	-0.014478901
193	0xbd9a05f1	-0.075206645
194	0x3d2e81b0	0.04260415
195	0x3d2c7162	0.042100318
196	0xbcb2e799	-0.02183895
197	0xbdfad9d6	-0.1224858
198	0xbc8fc89e	-0.017551716
199	0x3d09502e	0.03352373
200	0x3bc7420a	0.0060808705
201	0xbaacea28	-0.0013192343
202	0x3da18465	0.078865804
203	0x3d83487b	0.06410309
204	0x3d2f420b	0.042787593
205	0xbcda9e47	-0.0266868
206	0xbc9df49d	-0.01928168
207	0xbd35bda7	-0.04437032
208	0xbd8b92b9	-0.068150945
209	0x3db1128b	0.08646115
210	0x3dbc54f7	0.09195893
211	0xbdb524aa	-0.08844884
212	0x39737e8d	0.0002322143
213	0x3e2c28eb	0.16812484
214	0x3c502408	0.012703903
215	0x3e25f421	0.16206409
216	0xbe01129a	-0.12604752
217	0x3db8233e	0.08991097
218	0xbd7822bb	-0.060579997
219	0xbbe80814	-0.007081041
220	0x3e83570b	0.25652346
221	0xbd20278c	-0.039100215
222	0xbdc8f741	-0.09812785
223	0x3e14e4ec	0.14540452
224	0x3c228e8e	0.009921683
225	0x3e479e2a	0.19493929
226	0x3ce022a6	0.027360272
227	0x3e14fce6	0.14549598
228	0x3db6d57b	0.08927437
229	0x3e635b1c	0.22202724
230	0x3e441f6b	0.1915261
231	0x3d0ca9c0	0.034341574
232	0x3d1e4d4c	0.038647935
233	0x3e3841f2	0.17993906
234	0xbd0e1517	-0.03468808
235	0xbdf11d49	-0.11773164
236	0xbc81860f	-0.015810994
237	0xbe5860fd	-0.21130748
238	0x3e1ae373	0.15125827
239	0xbeb2ef0f	-0.34948012
240	0x3e036825	0.12832697
241	0x3d98cbcc	0.07460746
242	0x3d7ac36e	0.061221533
243	0xbc120701	-0.008912803
244	0xbe85b484	-0.26114285
245	0xbde706ef	-0.11280619
246	0xbe73fac5	-0.2382613
247	0xbf063502	-0.52424634
248	0xbaa6b933	-0.0012719989
249	0xbe2d95b8	-0.16951644
250	0x3dc9e706	0.09858517
251	0xbb15084a	-0.0022740536
252	0x3d5a9d50	0.05337268
253	0x3d6337ab	0.05547301
254	0x3de4f8bc	0.11180255
255	0xbcaebe29	-0.02133091

local_map_cnn.2.bias f4 [32]
0	0xbd0979a8	-0.033563286
1	0x3d6911ad	0.056901623
2	0x3ce6b41b	0.028162053
3	0x3c491436	0.012272885
4	0xbdda600d	-0.106628515
5	0xbe34bdc4	-0.17650515
6	0xbd495aec	-0.049158975
7	0x39ae1c2d	0.0003320886
8	0xbdb95967	-0.09050255
9	0xbda518ae	-0.08061348
10	0xbe07deba	-0.13268557
11	0xbde5328d	-0.111912824
12	0xbe96a255	-0.29420725
13	0x3d14385f	0.036186572
14	0xbac5c0c2	-0.0015087354
15	0x3df2e840	0.118607044
16	0xbea13839	-0.31488207
17	0xbcb542db	-0.022126606
18	0xbdfa5834	-0.12223855
19	0xbd40afc3	-0.04704262
20	0xbd5a9d93	-0.05337293
21	0xbd35cff8	-0.044387788
22	0xbce45e15	-0.027876893
23	0xbdd5575b	-0.10417052
24	0xbdb82ee1	-0.089933164
25	0x3da5a755	0.08088557
26	0xbe4a5fbd	-0.19763084
27	0xbe6d6794	-0.23184043
28	0x3cfc2122	0.030777518
29	0xbe245e27	-0.16051541
30	0xbe5af71f	-0.21383332
31	0xbea71a17	-0.32637092

local_map_cnn.4.weight f4 [32, 32, 3, 3]
0	0x3d8c82d4	0.06860891
1	0xbe16c362	-0.1472297
2	0xbca38abe	-0.019963618
3	0x3e0cf549	0.13765444
4	0x3d5bc7c2	0.0536573
5	0xbd13a31f	-0.036044236
6	0xbe5486f6	-0.20754609
7	0xbe7de182	-0.24793056
8	0xbe1dfd6b	-0.15428703
9	0x3e3bbf68	0.18334734
10	0x3d95998c	0.07304677
11	0xbdc947e7	-0.098281674
12	0xbbc06d21	-0.005872384
13	0xbea38d08	-0.31943536
14	0xbe579cb1	-0.21055867
15	0xbe3bf43f	-0.18354891
16	0x3eb76d6c	0.3582567
17	0xbd28acac	-0.041180298
18	0xbdde7779	-0.10862631
19	0xbdf2e7d9	-0.11860628
20	0xbd768a51	-0.060190503
21	0xbdfcea77	-0.12349408
22	0xbe429331	-0.19001462
23	0xbe542bb5	-0.20719798
24	0x3d3468b6	0.044045173
25	0xbece1ac4	-0.40254796
26	0xbd251aef	-0.04030889
27	0xbe802f4e	-0.2503609
28	0xbd8c270c	-0.06843385
29	0xbb9c4cef	-0.0047699134
30	0x3c6a5669	0.014302828
31	0xbec6de97	-0.38841698
32	0x3c96d589	0.018412368
33	0xbce8724d	-0.028374815
34	0xbd213ea2	-0.039366372
35	0x3d521e19	0.051298235
36	0x3d97aefa	0.07406421
37	0xbdadddbf	-0.0848956
38	0x3da1ea27	0.07905989
39	0x3d1313a4	0.035907403
40	0xbe0152b6	-0.12629208
41	0xbda4975c	-0.08036682
42	0x3db3e6c2	0.08784248
43	0xbd8899d9	-0.06669969
44	0x3d5aa250	0.05337745
45	0xbdb83773	-0.08994951
46	0x3e139831	0.14413525
47	0x3d0b0ad9	0.033945892
48	0xbe1a78bb	-0.15085118
49	0xbe28219a	-0.16419068
50	0xbe3faa88	-0.18717396
51	0xbd32c798	-0.04364738
52	0xbc012eea	-0.00788472
53	0xbe586334	-0.21131593
54	0xbd7640b3	-0.060120296
55	0x3e284075	0.16430838
56	0xbc3f5121	-0.0116770575
57	0xbd50f9ed	-0.051019598
58	0xbe89c46f	-0.2690768
59	0x3bb9f4cd	0.0056749345
60	0xbb8f333c	-0.0043701213
61	0x3dd417b1	0.10356081
62	0x3db32d60	0.08748889
63	0xbd33ec9d	-0.043926824
64	0xbe045a2d	-0.12925024
65	0x3d5bb8aa	0.053642906
66	0xbcd325cf	-0.025774864
67	0x3d6de6fd	0.058081616
68	0x3da82265	0.08209685
69	0xbb3a981f	-0.002847202
70	0xbd74236d	-0.059604097
71	0xbeacbe22	-0.3373881
72	0x3de81f6e	0.1133412
73	0x3e1c1e99	0.15246047
74	0xbe4a6644	-0.19765574
75	0xbda32222	-0.07965495
76	0x3ed88c77	0.42294666
77	0xbe80ec66	-0.25180358
78	0x3c9adf87	0.018905414
79	0xbf0c5e52	-0.5483142
80	0x3d8f98ef	0.07011592
81	0xbecf9d31	-0.40549615
82	0x3b20cf6f	0.0024537703
83	0xbdbbdd81	-0.09173108
84	0xbde10325	-0.10986928
85	0xbd218836	-0.03943654
86	0xbe90e344	-0.2829839
87	0x3d5facf3	0.054608297
88	0xbe1b3081	-0.15155222
89	0x3dbfaca7	0.09359103
90	0x3d8450b1	0.06460703
91	0x3d3776f6	0.044791184
92	0x3e5d4c25	0.21611078
93	0xbe669458	-0.22517526
94	0xbe37d011	-0.17950465
95	0x3db3f7af	0.08787476
96	0xba5e0df4	-0.0008470707
97	0x3e111114	0.14166671
98	0x3eab362b	0.33439764
99	0x3e16bbd1	0.14720084
100	0xbd330c21	-0.04371274
101	0x3d60e23b	0.05490325
102	0xbcfe28cb	-0.031025311
103	0xbd49882b	-0.049202126
104	0x3d1482b7	0.036257472
105	0xbe0ec7b8	-0.13943374
106	0x3c816c83	0.015798813
107	0x3dd6c213	0.104862355
108	0x3c8b7187	0.017021907
109	0xbe14d44c	-0.1453411
110	0x3d2bd4c2	0.04195095
111	0x3e4014ed	0.18757983
112	0xbe53f37b	-0.20698349
113	0x3d382a84	0.04496242
114	0xbd952486	-0.07282357
115	0xbcf8dd07	-0.030378832
116	0x3e01ce39	0.12676324
117	0x3e0070e7	0.12543069
118	0x3dafe7d6	0.08589141
119	0x3df41a31	0.11919058
120	0x3d18e540	0.037328005
121	0xbe453aed	-0.1926076
122	0xbceb7e39	-0.028746711
123	0x3b27162b	0.002549539
124	0xbd2d0ddd	-0.04224955
125	0xbcf9f7de	-0.0305137
126	0x3c44da51	0.012014941
127	0xbde22b79	-0.11043448
128	0xbd700d85	-0.058606643
129	0x3dcf6693	0.10126986
130	0xbb1e9fa6	-0.0024204045
131	0xbe6e7d40	-0.23289967
132	0xba71af51	-0.00092195446
133	0xbe0b9f54	-0.13634998
134	0xbe55ccb0	-0.20878863
135	0x3ba9bbb3	0.005179846
136	0xbe19884a	-0.14993396
137	0x3df144a4	0.1178067
138	0xbacb395c	-0.0015504765
139	0xbeee16ba	-0.46501714
140	0xbd106696	-0.035254084
141	0xbe168eb4	-0.14702874
142	0xbeef5663	-0.46745595
143	0xbe74248c	-0.23842067
144	0xbc9a6988	-0.01884915
145	0x3b97b04b	0.00462917
146	0x3e1597be	0.14608666
147	0xbd3a6fd2	-0.045516796
148	0xbe374b11	-0.1789973
149	0xbd848859	-0.06471319
150	0xbd951d65	-0.07280997
151	0x3d83cb89	0.064353056
152	0x3da021f9	0.0781898
153	0x3dd52ca0	0.10408902
154	0xbdf4e3ec	-0.11957535
155	0xbe3b1201	-0.18268587
156	0xba9bb799	-0.0011880278
157	0xbe0cb838	-0.13742149
158	0xbe1b52a7	-0.15168248
159	0xbda07b92	-0.07836069
160	0x3e0cd0f2	0.13751581
161	0x3d87d770	0.06632888
162	0x3ddf52ff	0.10904502
163	0xbce89f21	-0.028396191
164	0xbd8cdb16	-0.06877725
165	0xbda285ed	-0.079357006
166	0x3cfcd6fd	0.030864233
167	0xbe56208e	-0.20910856
168	0xbbb65ac7	-0.0055650207
169	0x3d7ec990	0.062203944
170	0xbc09ec3d	-0.00841814
171	0xbdbd1794	-0.09233013
172	0x3dbc4c59	0.0919425
173	0x3e9b86f9	0.30376413
174	0xbdc75dc3	-0.097346805
175	0xbeb5bad0	-0.3549409
176	0xbe061d1e	-0.13097045
177	0xbe1cedc3	-0.15325074
178	0xbd6928d3	-0.0569237
179	0x3e314bf5	0.17314132
180	0xbed022c4	-0.40651524
181	0x3db9db13	0.09074988
182	0xbdcf9b8e	-0.101370916
183	0xbdd0fa28	-0.102039635
184	0x3dbca6ff	0.092115395
185	0x3b6466a7	0.0034851225
186	0x3daf41ae	0.08557449
187	0xbdb2e52c	-0.08735117
188	0x3d106033	0.035247993
189	0xbd9bb6cc	-0.07603225
190	0xbcd92143	-0.026505118
191	0x3db0a68c	0.08625516
192	0x3dd0339b	0.10166093
193	0xbe7798f6	-0.24179444
194	0xbd8241d9	-0.06360216
195	0x3e236d37	0.15959631
196	0xbdab1e36	-0.08355372
197	0x3d86b48a	0.06577404
198	0xbb992221	-0.004673258
199	0xbd988349	-0.07446916
200	0xbe2c53dc	-0.16828865
201	0xbdc3f4e0	-0.095681906
202	0x3e58ea0a	0.21183029
203	0xbe03e6f8	-0.12881076
204	0x3e048b83	0.12943844
205	0x3d7c7a16	0.061639868
206	0xbe5009ea	-0.20316282
207	0x3e33924c	0.17536277
208	0xbe52d06d	-0.2058732
209	0x3df281dd	0.11841176
210	0xbae3bfd1	-0.0017375891
211	0xbf04309e	-0.51636684
212	0xbc8ef6df	-0.017451702
213	0xbd5df314	-0.054186895
214	0x3d7b790f	0.061394747
215	0x3d811116	0.06302087
216	0xbe501e3d	-0.20324035
217	0x3e40ae90	0.1881659
218	0xbe5cb3b2	-0.21552923
219	0xbd19aa53	-0.03751595
220	0xbe041b79	-0.12901105
221	0x3e5285f8	0.20558918
222	0x3e2c7e06	0.16844949
223	0x3e5dc862	0.21658471
224	0xbb9aec30	-0.004727863
225	0xbc95ef9b	-0.01830273
226	0xbc9e3cde	-0.019316133
227	0xbe364afe	-0.17802045
228	0x3df8bef6	0.12145798
229	0x3e123661	0.14278556
230	0xbc44781e	-0.011991529
231	0x3df41758	0.11918515
232	0x3e198e0e	0.14995596
233	0x3df9d3a2	0.12198569
234	0xbd5da5fe	-0.05411338
235	0xbc1aa580	-0.009438872
236	0x3d11f03f	0.035629507
237	0xbd67eae1	-0.056620482
238	0x3ba3863e	0.004990368
239	0x3d83d657	0.064373665
240	0x3d824ab7	0.06361907
241	0xbe994874	-0.2993809
242	0x3e44ccb7	0.19218718
243	0x3d09afbc	0.03361486
244	0xbd770f99	-0.06031761
245	0xbde00424	-0.1093829
246	0xbcc5f21e	-0.024163302
247	0x3d72da75	0.059290368
248	0xbd1c1e6d	-0.038114954
249	0x3dd3a77c	0.103346795
250	0xbd9842f6	-0.07434647
251	0x3c82b03e	0.01595318
252	0xbe06252d	-0.13100119
253	0x3beb0918	0.007172715
254	0x3e229f33	0.15881042
255	0xbd93673c	-0.07197425

local_map_cnn.4.bias f4 [32]
0	0xba9abe50	-0.0011805985
1	0x3cc3f2ba	0.023919452
2	0xbe5c44f1	-0.21510674
3	0xbea726ed	-0.32646886
4	0x3be5556a	0.0069987075
5	0xbdf74c41	-0.12075091
6	0xbbaa79a0	-0.005202487
7	0xbe4cf53e	-0.20015427
8	0x3dbd7ae9	0.09251959
9	0x3c1e0ec4	0.009647075
10	0x3dbe912e	0.093050346
11	0xbe2a2700	-0.1661644
12	0x3e28351e	0.16426513
13	0x3df6ae0e	0.12044917
14	0xbe71b321	-0.23603489
15	0x3e62f63e	0.22164246
16	0xbebbd746	-0.36687678
17	0x3da51fbb	0.08062693
18	0x3e12c2ff	0.14332198
19	0xbe44fc17	-0.1923679
20	0xbe4a97fd	-0.19784541
21	0xbcdd6b09	-0.027028577
22	0xbb3acb97	-0.0028502697
23	0xbe269473	-0.16267566
24	0xbde44b6c	-0.11147198
25	0x3e1e8fc8	0.15484536
26	0xbe511217	-0.20417057
27	0xbcce80d6	-0.025207918
28	0xbd07d4db	-0.03316198
29	0x3db4e25b	0.088322364
30	0xbc52d491	-0.012868063
31	0xbe4164e8	-0.18886149

local_map_fc.weight f4 [64, 512]
0	0x3d1b649e	0.037937753
1	0xbd858108	-0.065187514
2	0xbe211df7	-0.15734087
3	0xbd649da9	-0.05581442
4	0x3d3b0b2d	0.045664955
5	0x3d7a1b16	0.061060987
6	0xbea1de01	-0.31614688
7	0x3c8377a2	0.016048256
8	0xbe8e83d5	-0.27834955
9	0xbd67671a	-0.05649481
10	0xbe5d43d7	-0.2160791
11	0x3da0b909	0.07847793
12	0xbd2cdeef	-0.042204794
13	0xbdd4c9f7	-0.10390084
14	0x3e0b1075	0.13580497
15	0xbeabc610	-0.33549547
16	0xbe6cd505	-0.23128136
17	0xbe3b35b3	-0.18282203
18	0xbdfc80e7	-0.12329274
19	0xbd5a344c	-0.05327253
20	0xbe18a1da	-0.14905491
21	0x3c74c26f	0.014938935
22	0x3c8fa872	0.017536376
23	0xbd392d0d	-0.04520898
24	0x3c296ca4	0.010340843
25	0x3da34bec	0.07973465
26	0x3d58f03b	0.052963477
27	0xbddf5fe1	-0.10906959
28	0xbdb558e2	-0.08854844
29	0x3db3ac36	0.08773081
30	0x3d6c3b37	0.05767366
31	0xbe1aeb55	-0.15128835
32	0xbe1efbdd	-0.15525766
33	0xbc36024c	-0.011108946
34	0x3baa1985	0.0051910304
35	0xbd834613	-0.0640985
36	0xbebcd4ee	-0.36881202
37	0x3d43eb75	0.04783197
38	0x3df59b4c	0.11992511
39	0xbe5eb14a	-0.21747318
40	0xbd80b10c	-0.06283769
41	0xbdffdbe9	-0.124931164
42	0x3b7f8fef	0.0038995703
43	0xbe184d53	-0.14873247
44	0x3e3d9962	0.18515542
45	0x3e2c799f	0.1684327
46	0xbc61fb96	-0.013792893
47	0x3e0a3acf	0.13498996
48	0xbb9c8494	-0.0047765467
49	0xbdeae269	-0.114689656
50	0x3c8db1b8	0.017296657
51	0x3c9cfbb8	0.019162998
52	0xbcfce47f	-0.030870674
53	0xbd177600	-0.036977768
54	0xbdae9d88	-0.085261405
55	0xba8e7e35	-0.0010871353
56	0x3db4b7ec	0.08824143
57	0x3e28de77	0.16491114
58	0xbcf301b7	-0.029663904
59	0x3d89e204	0.06732562
60	0xbd7ca402	-0.061679848
61	0x3db074f1	0.08616055
62	0xbc032b7e	-0.008005975
63	0x3c92ca26	0.017918658
64	0xbd63b7ac	-0.055595085
65	0xbdd974d0	-0.10617983
66	0x3e3f26f1	0.18667199
67	0xbe3a4110	-0.18188882
68	0xbe43bdda	-0.19115391
69	0xbe2d2d9e	-0.16911933
70	0x3dacd01c	0.08438131
71	0xbd310ec2	-0.043226965
72	0x3d54261d	0.05179416
73	0xbd3e9053	-0.046524357
74	0xbd7112a4	-0.058855668
75	0xbecad510	-0.3961568
76	0xbdf1dbb8	-0.11809486
77	0x3d5724fc	0.052525505
78	0xbda59006	-0.08084111
79	0x3dbcc943	0.09218075
80	0x3dd2197f	0.10258769
81	0x3c25c1da	0.010117019
82	0xbe543ef0	-0.20727134
83	0xbe1a90c6	-0.15094289
84	0xbd6ed02e	-0.058304004
85	0xbe067d8c	-0.1313383
86	0x3dcc0af2	0.09963025
87	0x3e894c62	0.26816088
88	0x3c9b40d1	0.018951805
89	0x3e8a202c	0.2697767
90	0xbdcc9158	-0.099886596
91	0x3d190173	0.037354898
92	0xbd3607dd	-0.044441093
93	0xbe2f1bbe	-0.17100427
94	0xbea1de1f	-0.31614777
95	0x3e158dc9	0.14604868
96	0x3e2d1c94	0.16905433
97	0xbd16ecb6	-0.03684684
98	0xbe701a4d	-0.23447533
99	0xbd6dcd42	-0.058057077
100	0x3dcfebf0	0.101524234
101	0x3e0f3665	0.13985594
102	0x3be65241	0.0070288484
103	0x3d268c8e	0.040661387
104	0x3d9c7000	0.0763855
105	0x3e8dc315	0.27687898
106	0xbcd75d66	-0.026289653
107	0xbe4ed91c	-0.20200008
108	0xbc11da17	-0.008902094
109	0xbe411e07	-0.18859111
110	0xbe4db22d	-0.200875
111	0x3dacb2c4	0.08432534
112	0x3e854ac7	0.26033613
113	0xbd82fa41	-0.063953884
114	0xbdde41d7	-0.10852402
115	0xbdbc3be4	-0.09191111
116	0xbda94e80	-0.08266926
117	0xbe702228	-0.2345053
118	0xbcc27e7a	-0.02374195
119	0x3ca1093d	0.019657725
120	0xbe2436b5	-0.16036494
121	0xbdfc75ac	-0.12327132
122	0xbe0a1f93	-0.13488607
123	0xbcb8f380	-0.022577047
124	0xbd172935	-0.036904532
125	0xbda14407	-0.07874303
126	0xbd76f86d	-0.06029551
127	0xbddfc4bd	-0.10926197
128	0xbd5663ec	-0.052341387
129	0xbe54195a	-0.20712796
130	0xbe8802d6	-0.26564664
131	0xbdd3dcf2	-0.10344876
132	0xbe3cff2e	-0.18456718
133	0xbda8a611	-0.082348
134	0xbe98b072	-0.29822117
135	0x3e91e7a1	0.2849703
136	0xbe6572ea	-0.22407117
137	0xbd889e25	-0.06670789
138	0xbe629860	-0.22128439
139	0x3deed5bb	0.116618596
140	0x3e81cc10	0.25351
141	0x3d46333f	0.048388716
142	0xbe4a6e57	-0.19768654
143	0xbe3be4c8	-0.18348992
144	0xbdb25399	-0.08707351
145	0x3e2bf39e	0.16792151
146	0xbe655098	-0.22394025
147	0xbe5ff26d	-0.21869822
148	0xbe2eb209	-0.17060103
149	0xbd29b509	-0.041432414
150	0xbe54d2fb	-0.20783608
151	0xbd884f4f	-0.06655752
152	0xbd860785	-0.06544403
153	0x3b87686d	0.0041323216
154	0xbe43f138	-0.19134986
155	0xbe5ad498	-0.2137016
156	0xbdbfc898	-0.09364432
157	0xbdfd6d8f	-0.12374412
158	0x3d7109ef	0.058847364
159	0xbe1e8db7	-0.15483747
160	0x3d982ea9	0.07430775
161	0xbdc798a5	-0.097459115
162	0x3e3ea31d	0.1861691
163	0xbdf126e2	-0.117749944
164	0xbdcfd8d6	-0.1014878
165	0xbdbd8f75	-0.09255878
166	0x3de259ce	0.11052285
167	0xbe605277	-0.21906458
168	0xbc9ed180	-0.019387007
169	0xbe03caaa	-0.12870279
170	0xbc7d40b2	-0.015457319
171	0xbd85f4b5	-0.06540815
172	0xbe3a7a94	-0.18210822
173	0xbe4b95e8	-0.19881403
174	0x3df5b5bf	0.11997556
175	0xbe255f01	-0.16149522
176	0x3ccc4848	0.02493681
177	0xbe226813	-0.15860014
178	0xbecf7d88	-0.4052546
179	0xbe6d9b77	-0.23203836
180	0xbd38050f	-0.0449267
181	0xbd92fc4c	-0.07177028
182	0xbd780c8c	-0.06055884
183	0xbdaaf01e	-0.0834658
184	0xbd855b86	-0.06511597
185	0xbe2f3065	-0.17108305
186	0xbd1f079f	-0.038825627
187	0x3b6c0e0f	0.0036019122
188	0x3d9847ff	0.07435607
189	0x3ba18bf6	0.0049300147
190	0x3d1ceba6	0.03831067
191	0x3a92c71d	0.0011198256
192	0xbcb506b3	-0.022097921
193	0xbd8ec676	-0.06971447
194	0xbe0fbfe6	-0.14038047
195	0xbef1ba7b	-0.47212586
196	0xbe41c6a7	-0.18923436
197	0xbb597e9c	-0.0033187037
198	0xbdcec76d	-0.10096631
199	0xbe4ec84e	-0.20193598
200	0x3dfa37c2	0.12217666
201	0xbb8c0ae1	-0.004273758
202	0xbd280172	-0.041017003
203	0xbe599d6f	-0.21251462
204	0x3e78cff2	0.24298075
205	0x3c7104fd	0.014710662
206	0x3cb2b912	0.021816764
207	0x3de868b5	0.11348096
208	0x3cf6433b	0.030061355
209	0xbe79df05	-0.24401481
210	0x3c183f3f	0.009292423
211	0x3d6e12ec	0.058123514
212	0x3d620503	0.05518056
213	0xbe954aaa	-0.29158527
214	0x3df8811c	0.12134001
215	0xbe47d690	-0.19515443
216	0xbe4b443c	-0.19850248
217	0x3ba5dde0	0.00506185
218	0x3e13f5fb	0.14449303
219	0xbd6c60ed	-0.057709623
220	0xbe470860	-0.19436789
221	0xbe0f477e	-0.13992116
222	0x3dbf58e1	0.09343124
223	0xbe0fc0ac	-0.14038342
224	0x3b684f22	0.0035447557
225	0x3c39b4ad	0.01133458
226	0xbd894913	-0.06703391
227	0x3d831381	0.064002044
228	0x3e62c178	0.22144115
229	0xbdf47d42	-0.119379535
230	0x3e06f467	0.1317917
231	0x3b268439	0.00254084
232	0x3da19c1d	0.07891104
233	0xbda803a3	-0.08203819
234	0xbd24c250	-0.040224373
235	0xbdd9f265	-0.10641936
236	0xbe690ea4	-0.22759491
237	0xbe726521	-0.2367139
238	0x3db212eb	0.086950146
239	0xbe08e89b	-0.13369982
240	0xbde34473	-0.1109704
241	0xbe07fcbb	-0.13280003
242	0xbdf00f13	-0.11721625
243	0x3e289376	0.16462502
244	0xbc4e154d	-0.012578321
245	0x3e368aaf	0.17826341
246	0xbe9c212c	-0.30494058
247	0x3e20dbfe	0.1570892
248	0xbd929899	-0.07158012
249	0xbe3444f3	-0.17604427
250	0xbd131b71	-0.035914842
251	0xbdb6af30	-0.08920133
252	0x39b7d0e7	0.00035060124
253	0xbe54e0c5	-0.20788868
254	0x3cab1699	0.020884799
255	0xbd668035	-0.05627461

local_map_fc.bias f4 [64]
0	0xbe2b8ce7	-0.16752969
1	0xbe553454	-0.20820743
2	0xbc014ea3	-0.007892284
3	0x3c027895	0.007963319
4	0xbd9493d3	-0.07254758
5	0xbe76b814	-0.24093658
6	0xbdf49cab	-0.119439445
7	0x3d5c3371	0.053759996
8	0xbdd9b139	-0.10629506
9	0xbd958d9b	-0.073024
10	0xbd4f5799	-0.05062065
11	0xbd8bee76	-0.06832592
12	0x3e23f787	0.16012393
13	0xbd612ad4	-0.054972485
14	0xbce11ee0	-0.027480543
15	0x3d651a2c	0.055933163
16	0x3d38e1ef	0.045137342
17	0xbe0459f9	-0.12924947
18	0xbde88f88	-0.113555014
19	0xbb62515a	-0.0034533353
20	0xbdc654ea	-0.09684165
21	0xbe0dfa24	-0.13864952
22	0x3d1e5b7d	0.03866147
23	0x3dd77ead	0.10522208
24	0xbd607ba6	-0.05480542
25	0xbdfd6cc2	-0.123742595
26	0x3cbff5bd	0.023432607
27	0xbdb2c815	-0.08729569
28	0x3dc53eef	0.09631144
29	0x3d3c8f03	0.046034824
30	0xbb92f8c4	-0.0044852216
31	0xbe7691f5	-0.24079116
32	0x3e5c5557	0.2151693
33	0xbb4c5655	-0.0031179388
34	0xbc4b5b36	-0.012411883
35	0xbe8bab2c	-0.2727903
36	0xbd9e26ce	-0.07722245
37	0xbd008007	-0.031372096
38	0x3e8e0aeb	0.27742705
39	0xbd884bbe	-0.06655072
40	0xbd71bdb4	-0.059018806
41	0xbe335a71	-0.1751497
42	0x3d33d8c1	0.043907885
43	0x3da0ab6a	0.07845195
44	0x3dbd0e7c	0.09231278
45	0x3e1373d6	0.14399657
46	0xbda19053	-0.07888856
47	0xbc9b71b4	-0.018975116
48	0xbdef81c4	-0.11694673
49	0xbdb9f461	-0.09079815
50	0xbe08ef5d	-0.1337256
51	0xbe7042ae	-0.23462936
52	0x3e035314	0.1282466
53	0xbe7bc463	-0.24586634
54	0xbd911598	-0.07084197
55	0x3e00670a	0.12539306
56	0xbbabf7d2	-0.0052480483
57	0xbe907b71	-0.28219178
58	0xbd677865	-0.0565113
59	0xbcef54fc	-0.029215328
60	0xbe0e8608	-0.13918316
61	0x3d3d5f59	0.04623351
62	0x3c167dd6	0.009185275
63	0x3dfc2e80	0.12313557

self_entity_fc1.weight f4 [32, 26]
0	0x3ea8d235	0.32972875
1	0xbc7d7c4c	-0.015471529
2	0x3cdda60a	0.027056713
3	0xbc42872b	-0.011873047
4	0xbd14e27d	-0.03634881
5	0x3daa2f5f	0.083098166
6	0xbcd42b96	-0.02589969
7	0xbe402dca	-0.18767467
8	0xbcd66ab3	-0.026173925
9	0xba9f82b9	-0.0012169696
10	0xbe6ccddc	-0.23125404
11	0xbf21a2a0	-0.6313877
12	0x3e2c7b79	0.16843976
13	0xbe44f7a5	-0.19235094
14	0x3e5c6475	0.21522696
15	0x3e1b117b	0.15143387
16	0xbe985341	-0.29751018
17	0xbe1e257e	-0.1544399
18	0x3d5a0436	0.053226672
19	0x3ca4ef81	0.020133736
20	0xbd41fe07	-0.0473614
21	0x3ea59738	0.32341933
22	0xbe0d6ea6	-0.1381174
23	0x3e3d19a9	0.1846682
24	0xbb25c91a	-0.0025296868
25	0x3d567201	0.052354816
26	0xbed83f31	-0.4223571
27	0xbdce3847	-0.10069328
28	0x3c844bc6	0.016149413
29	0x3e37ed63	0.1796165
30	0x3e1ac5aa	0.15114465
31	0xbe1f3788	-0.15548527
32	0x3d853a05	0.06505207
33	0xbe83ab83	-0.2571679
34	0xbdc96990	-0.098345876
35	0xbdbb8b0c	-0.091573805
36	0xbdfbb365	-0.12290076
37	0xbc54b953	-0.012983638
38	0x3c436e81	0.011928202
39	0x3d3b2f6d	0.045699526
40	0x3e549de4	0.20763355
41	0x3e09571f	0.1341214
42	0x3db81bde	0.0898969
43	0xbc727374	-0.014798034
44	0xbb9951a1	-0.0046789204
45	0x3cb7210a	0.022354621
46	0xbd8c3c75	-0.06847469
47	0x3db51a07	0.08842855
48	0xbd3bb88b	-0.04583029
49	0xbc852ba7	-0.016256167
50	0x3db42b73	0.0879735
51	0x3e41221e	0.18860671
52	0xbd6c04bf	-0.057621714
53	0xbdf0422e	-0.11731373
54	0x3d508aef	0.050913747
55	0xbe3cd9d2	-0.18442467
56	0x3ce5d88d	0.028057361
57	0xbf057833	-0.52136534
58	0xbebe5de4	-0.37181008
59	0x3d801743	0.06254437
60	0x3d5ecb8e	0.054393344
61	0xbe084ed7	-0.13311325
62	0xbef0f123	-0.47058973
63	0xbe16ae1d	-0.14714856
64	0xbdb7b85d	-0.089707114
65	0x3cdb3cd4	0.026762404
66	0x3d027cfc	0.031857476
67	0x3e3f94b7	0.18709074
68	0xbc885324	-0.016641207
69	0x3d2078e8	0.039177805
70	0xbcc49c2d	-0.024000252
71	0x3e0f2e72	0.13982561
72	0x3d5bae79	0.053633187
73	0x3d987494	0.074441105
74	0x3e381d9c	0.17980045
75	0xbddd610a	-0.10809524
76	0xbd23c6bd	-0.039984453
77	0xbe08bfb0	-0.13354373
78	0xbdeaef2c	-0.114714
79	0xbd0d324c	-0.034471795
80	0x3db97a32	0.0905651
81	0xbd543929	-0.051812325
82	0xbdbe5839	-0.09294171
83	0x3e6d6730	0.23183894
84	0x3e269f4e	0.16271707
85	0xbde65b4f	-0.112478845
86	0x3f48b76f	0.784049
87	0x3e88d2d2	0.26723343
88	0x3da44de2	0.080226675
89	0xbd91415c	-0.070925444
90	0xb89b7587	-7.412867e-05
91	0x3e8555d5	0.26042047
92	0xbd338111	-0.04382426
93	0xbe413b36	-0.18870243
94	0x3e3594c7	0.17732535
95	0x3e56f351	0.20991255
96	0xbe1f7f0d	-0.1557581
97	0xbd9c731c	-0.07639143
98	0x3e82a51d	0.25516596
99	0xbdc544e9	-0.09632284
100	0xbe1d0039	-0.15332116
101	0x3d1c78ac	0.03820102
102	0xbde15035	-0.110016264
103	0x3e08e625	0.13369043
104	0xbe2d3f17	-0.16918598
105	0x3d286834	0.041115
106	0xbcf83462	-0.030298416
107	0xbe32c055	-0.17456181
108	0x3df28917	0.11842554
109	0x3dbe7cf4	0.09301177
110	0x3d0585c9	0.03259829
111	0xbea87a61	-0.32905868
112	0x3d744a8e	0.059641413
113	0x3e1d1b2d	0.15342398
114	0x3eeceed2	0.46275955
115	0x3e6cae21	0.231133
116	0x3e010429	0.12599243
117	0x3de32ed7	0.11092918
118	0xbe5a1830	-0.2129829
119	0x3ccfeb7f	0.025380848
120	0x3e51ff82	0.20507625
121	0x3ed402d7	0.41408417
122	0xbe032fcb	-0.128112
123	0xbd939844	-0.07206777
124	0x3c6dc3aa	0.014511982
125	0xbded46db	-0.1158578
126	0xbd726288	-0.059175998
127	0xbcbeb324	-0.02327878
128	0xbde89f53	-0.11358514
129	0xbdd37a88	-0.10326105
130	0x3da0ec33	0.078575514
131	0x3dc95ef2	0.098325625
132	0x3e5e388f	0.21701263
133	0x3cb66704	0.022265919
134	0x3cde1a18	0.027112052
135	0xbdb6d268	-0.089268506
136	0x3df35428	0.11881286
137	0xbedaf241	-0.4276295
138	0x3e7d86c5	0.24758442
139	0x3ce9af78	0.028526053
140	0x3d52527b	0.05134819
141	0x3ea65a70	0.32490873
142	0x3e0d2df8	0.13787067
143	0x3dd42cdf	0.10360121
144	0xbbde2d02	-0.0067802677
145	0xbe73a31c	-0.2379269
146	0x3d970fa1	0.07376028
147	0xbae43e50	-0.001741359
148	0xbe250deb	-0.1611859
149	0xbe3e3ed6	-0.18578658
150	0xbe3d36e1	-0.18477966
151	0xbe3532cd	-0.1769516
152	0xbe01c29e	-0.12671897
153	0xbe3ab7bc	-0.18234152
154	0x3d7b0a9f	0.061289426
155	0x3dc5f85e	0.09666513
156	0xbd067118	-0.0328227
157	0xbe0c5777	-0.1370524
158	0xbd55933c	-0.052142367
159	0x3e3d37ad	0.1847827
160	0x3e2dce5e	0.16973254
161	0xbe3a8a73	-0.18216877
162	0xbdd9e775	-0.1063985
163	0xbe8ca9b7	-0.27473232
164	0x3d0ae883	0.033913147
165	0xbcc4fa7f	-0.024045227
166	0xbed06da4	-0.4070865
167	0x3e04413c	0.1291551
168	0xbf7a2ffa	-0.97729456
169	0x3db55e68	0.08855897
170	0x3e4e215b	0.20129912
171	0x3e23bc0a	0.159897
172	0xbe1c81bf	-0.15283869
173	0xbe2efb87	-0.17088138
174	0x3d8eb295	0.069676556
175	0xbcb1b1f1	-0.021691294
176	0x3dd4e51a	0.1039526
177	0x3e9c926b	0.30580458
178	0x3e034e48	0.1282283
179	0xbdbc5e49	-0.09197671
180	0x3bf59557	0.0074946093
181	0xbe00afce	-0.12567064
182	0x3e24ece1	0.16105987
183	0x3b81ea26	0.0039646802
184	0x3c6d305b	0.014476861
185	0x3cec56ff	0.028850077
186	0xbcbc61ec	-0.022995912
187	0xbe2d665d	-0.1693358
188	0x3defd69b	0.117108546
189	0x3c4a97ef	0.012365325
190	0xbf213893	-0.6297695
191	0x3de4a058	0.11163396
192	0xbe24102f	-0.16021799
193	0x3e7c0a08	0.24613202
194	0x3dba4ff3	0.0909728
195	0x3de1f82e	0.11033665
196	0x3ddc1ce3	0.10747697
197	0x3e84d055	0.25940195
198	0x3dec2d44	0.11532071
199	0x3e4c802e	0.19970772
200	0xbce93405	-0.028467188
201	0x3ddf688c	0.109086126
202	0x3d162f86	0.036666416
203	0x3e4d1de7	0.20030938
204	0x3bd4df61	0.0064963554
205	0xbd94216f	-0.072329395
206	0x3dba05be	0.090831265
207	0xbe0fa600	-0.14028168
208	0x3cb9ad64	0.022665687
209	0xbdd6185d	-0.10453866
210	0xbb0ef875	-0.0021815572
211	0x3dc4d41a	0.09610768
212	0xbc1892dd	-0.009312359
213	0xbe1160e3	-0.14197116
214	0x3d0cdab3	0.034388255
215	0x3f1a1b0c	0.6019752
216	0x3c030fc4	0.007999364
217	0x3d809f02	0.06280328
218	0xbf704df6	-0.9386896
219	0xbdea3bc4	-0.11437181
220	0xbdddc731	-0.10829008
221	0x3dbc9549	0.092081614
222	0x3e46f043	0.1942759
223	0x3e1d086a	0.15335241
224	0x3e3f1503	0.18660359
225	0xbdade539	-0.084909864
226	0x3d22c1a2	0.039735444
227	0xbe1584e9	-0.14601482
228	0xbc00c01b	-0.0078583015
229	0x3e36f448	0.17866623
230	0x3dc59a67	0.096485905
231	0xbd6dce39	-0.058057997
232	0xbe0aedf0	-0.13567328
233	0xbe08d058	-0.13360727
234	0xbe53f049	-0.2069713
235	0xbe60de0d	-0.21959706
236	0xbd5c0994	-0.053720072
237	0x3dd7524e	0.10513745
238	0xbdb57210	-0.08859646
239	0xbee1f7cf	-0.44134375
240	0xbef8dc79	-0.48605707
241	0x3e310810	0.17288232
242	0xbe428cdd	-0.18999048
243	0xbdbd9b39	-0.09258122
244	0x3df830a5	0.12118653
245	0x3e140908	0.1445657
246	0x3d9128ea	0.07087882
247	0xbdc3264b	-0.09528788
248	0x3dc1b004	0.094574004
249	0x3dff2607	0.12458425
250	0xbd8c1e66	-0.068417355
251	0xbe1394a9	-0.14412178
252	0x3d129116	0.035782896
253	0xbd47b9e2	-0.048761256
254	0xbc01a5cd	-0.007913065
255	0x3e90b241	0.28260997

self_entity_fc1.bias f4 [32]
0	0xbc277588	-0.010220893
1	0x3e8b8267	0.27247927
2	0x3b066c03	0.0020511157
3	0xbe85f800	-0.2616577
4	0xbdc48730	-0.095960975
5	0xbe10cbde	-0.14140269
6	0x3eacbaab	0.33736166
7	0x3e0c03ab	0.13673274
8	0x3e7263a2	0.2367082
9	0x3e2085be	0.15676019
10	0x3dd01f7c	0.10162255
11	0x3e7e8329	0.24854721
12	0x3c86981f	0.016429959
13	0xbca416ac	-0.020030342
14	0xbe0349df	-0.12821148
15	0xbd473a25	-0.048639435
16	0x3e27c80f	0.1638491
17	0x3e230be1	0.159225
18	0x3e7987e4	0.24368244
19	0x3d5c1e1e	0.05373966
20	0x3e7b63cc	0.24549788
21	0x3e383ef3	0.17992763
22	0x3e7c9921	0.24667789
23	0xbd83955d	-0.06424973
24	0x3e78343e	0.24238679
25	0x3e001506	0.1250802
26	0xbe6cdc8f	-0.23131011
27	0x3d676756	0.056495033
28	0x3eb89bc6	0.36056346
29	0x3f06b4ca	0.5261961
30	0xbdce833b	-0.10083624
31	0x3d0cad61	0.034345035

self_entity_fc2.weight f4 [32, 32]
0	0xbd597695	-0.053091604
1	0x3dfb10cd	0.12259064
2	0x3ea3908a	0.31946212
3	0xbf058d91	-0.5216914
4	0x3e28d92b	0.16489093
5	0x3cea3cd4	0.028593458
6	0x3e995d46	0.29953974
7	0x3e496515	0.19667466
8	0xbe0f7cb6	-0.14012417
9	0xbdca163b	-0.098675214
10	0x3daeb884	0.08531287
11	0xbe09973b	-0.13436596
12	0xbd1c383d	-0.03813957
13	0xbe135494	-0.14387733
14	0xbed295c4	-0.41129887
15	0x3dadbe4d	0.084835626
16	0xbb12409b	-0.002231634
17	0x3b0a92fc	0.0021144738
18	0x3db042ed	0.08606515
19	0xbdde3731	-0.10850371
20	0xbc855a61	-0.016278448
21	0xbd57ad44	-0.052655473
22	0xbde4cf26	-0.11172323
23	0x3e397d32	0.18114164
24	0xbbbdc257	-0.0057909894
25	0x3dc526e0	0.096265554
26	0xbed0ba21	-0.40767005
27	0x3e3205fb	0.17385094
28	0x3f0aacf4	0.54170156
29	0x3f1ac8bf	0.60462564
30	0x3db6ff82	0.08935453
31	0xbd96de7d	-0.07366655
32	0x3eccf8fc	0.4003371
33	0x3e184bc4	0.14872652
34	0xbd8e88f7	-0.06959718
35	0x3e02d3af	0.12776063
36	0xbf2b8600	-0.6700134
37	0xbe3de1c1	-0.1854315
38	0x3f5c6f80	0.86107635
39	0xbe04cdf6	-0.12969193
40	0x3f26bf29	0.6513544
41	0xbdc8e2fe	-0.0980892
42	0x3e9906d8	0.29888034
43	0x3f1e75c9	0.61898476
44	0xbd2e3b99	-0.042537306
45	0xbf41e55a	-0.7574059
46	0x3e148bee	0.14506504
47	0x3e4639af	0.19357942
48	0x3e5bdd2f	0.21471094
49	0x3dbf0d22	0.09328677
50	0xbca746c7	-0.020419491
51	0xbe176356	-0.14783987
52	0x3d9e6ce0	0.0773561
53	0x3dac8541	0.08423854
54	0xbe405f37	-0.18786322
55	0xbdcd98c5	-0.10038904
56	0xbeb406a5	-0.3516132
57	0x3da861c3	0.082217716
58	0xbe7bb851	-0.2458203
59	0xbe3fa319	-0.1871456
60	0xbf0707da	-0.52746356
61	0xbf250685	-0.64463073
62	0xbe94e894	-0.29083693
63	0xbde1c654	-0.11024156
64	0xbdc4a933	-0.09602585
65	0xbddb7b68	-0.10716897
66	0xbee95571	-0.45573
67	0xbeb41d7e	-0.3517875
68	0x3e8f1949	0.2794898
69	0xbe1edb33	-0.15513305
70	0x3e2513c1	0.16120817
71	0x3e2f9ffb	0.17150871
72	0xbf12a039	-0.5727573
73	0xbdde42e5	-0.10852603
74	0x3de9c33d	0.11414192
75	0xbe445138	-0.19171607
76	0xbdb053b7	-0.08609717
77	0xbf88d4a1	-1.0689889
78	0xbe893b16	-0.26802891
79	0xbcf86f61	-0.030326547
80	0xbd549d22	-0.051907666
81	0x3e42c0e0	0.19018888
82	0x3e7ff30f	0.24995063
83	0xbe9a4b00	-0.30135345
84	0xbcf460fe	-0.029831406
85	0xbcfd5650	-0.030924946
86	0x3ddec101	0.10876656
87	0x3e7dfc75	0.24803336
88	0x3dfc8924	0.12330845
89	0x3e29b572	0.16573122
90	0xbed79b3d	-0.42110625
91	0xbd996da1	-0.07491613
92	0xb8c8c53b	-9.57348e-05
93	0xbdc335b1	-0.09531725
94	0x3cd42128	0.025894716
95	0xbdecb65e	-0.11558221
96	0x3de08f9c	0.10964891
97	0xbdc8063c	-0.09766814
98	0xbe4748ab	-0.19461314
99	0x3e257625	0.1615835
100	0x3e0158be	0.12631509
101	0x3e4df802	0.20114139
102	0xb96f031c	-0.00022793974
103	0xbee69c8c	-0.4504131
104	0xbe695470	-0.22786117
105	0xbe31314a	-0.17303959
106	0xbf179622	-0.5921346
107	0x3d882f34	0.06649628
108	0x3e8b9498	0.27261806
109	0xbea95661	-0.33073714
110	0x3eaa8548	0.3330481
111	0x3e24c41d	0.16090436
112	0x3dd7c582	0.105357185
113	0x3da1d964	0.07902792
114	0xbed6de7f	-0.41966626
115	0x3c497000	0.012294769
116	0xbe02e247	-0.1278163
117	0xbcc48d0e	-0.023993041
118	0xbe139412	-0.14411953
119	0x3c26fc4e	0.01019199
120	0xbaff6558	-0.0019485159
121	0xbd0aea97	-0.03391513
122	0x3e78427a	0.24244109
123	0xbefca2d2	-0.49342972
124	0x3e259fce	0.16174242
125	0x3d951f0b	0.072813116
126	0xbc192334	-0.009346772
127	0x3e4c38d9	0.1994356
128	0x3ef4052b	0.47660193
129	0x3e8fd6b8	0.28093505
130	0xbda43d09	-0.08019454
131	0xbd297eff	-0.04138088
132	0xbed10711	-0.40825704
133	0xbdd675be	-0.10471676
134	0x3e3e59e3	0.18588977
135	0xbe15096e	-0.14554378
136	0x3f21043d	0.6289709
137	0xbb8b23de	-0.004246219
138	0x3e82175d	0.2540845
139	0x3f17703a	0.5915562
140	0x3dd3b1b8	0.103366315
141	0xbf48b91f	-0.7840747
142	0x3d1c859d	0.03821336
143	0x3e9bdc17	0.30441353
144	0x3e93a323	0.288354
145	0xbcea2b98	-0.02858524
146	0xbdb874b4	-0.09006634
147	0x3e39de01	0.18151094
148	0x3eb311f6	0.3497464
149	0x3e8c7983	0.27436456
150	0xbc98f1d3	-0.018669998
151	0x3e7188ff	0.23587416
152	0xbef6b6e1	-0.481864
153	0x3def6d5f	0.11690783
154	0x3d8136c1	0.063092716
155	0x3d805632	0.062664405
156	0xbecc3aae	-0.3988852
157	0xbf166f40	-0.58763504
158	0x3c8a097d	0.016850227
159	0x3c8f9b4a	0.017530102
160	0x3e50b319	0.2038082
161	0x3e956c4e	0.29184192
162	0x3e466a77	0.1937655
163	0xbdb8ea15	-0.090290226
164	0x3e271cbc	0.16319555
165	0x3b9909ff	0.004670381
166	0xbe00f7e7	-0.12594567
167	0x3d82bfed	0.06384263
168	0x3f3cb956	0.737203
169	0xbe8e3eae	-0.27782196
170	0x3ea70136	0.3261811
171	0x3e83d5b7	0.2574899
172	0xbe854f12	-0.26036888
173	0x3e927e0c	0.2861179
174	0x3e6eb18f	0.2330992
175	0x3e0204a3	0.12697081
176	0x3e48a6eb	0.19594924
177	0xbba0e538	-0.0049101375
178	0xbd45683d	-0.048195112
179	0x3e651995	0.2237304
180	0x3df8625b	0.12128135
181	0xbd3651e2	-0.044511683
182	0x3ddbe0ff	0.10736274
183	0xbdabb218	-0.08383578
184	0x3e6961f2	0.2279127
185	0xbe5881e8	-0.21143305
186	0xbe57b19b	-0.21063845
187	0x3dc27cb9	0.09496445
188	0xbe8f5bb9	-0.27999666
189	0xbf0ade68	-0.54245615
190	0xbe435c3e	-0.19078156
191	0xbe27f75b	-0.16402952
192	0xbd9c088f	-0.0761882
193	0x3e004cb3	0.12529258
194	0x3d5e60f9	0.0542917
195	0xbea9820e	-0.33107036
196	0x3e002138	0.12512672
197	0x3d5e3e0a	0.054258384
198	0xbe7cd69b	-0.2469124
199	0x3d5ddb3d	0.05416416
200	0xbf672e03	-0.90304583
201	0xbcbb3f50	-0.022857338
202	0x3e79e8de	0.24405238
203	0xbd933628	-0.07188064
204	0xbe3858b1	-0.18002583
205	0xbf8e327f	-1.110916
206	0xbd104632	-0.035223193
207	0xbddb8cd3	-0.107202195
208	0x3e00f556	0.12593588
209	0x3e8c1027	0.27356073
210	0x3e108ed7	0.14116989
211	0xbb2b4509	-0.0026133677
212	0x3e222839	0.15835656
213	0xbe8d0d0b	-0.27549013
214	0x3e5b9311	0.2144282
215	0x3e06ac6a	0.13151708
216	0x3e0f26f4	0.13979703
217	0x3d2f26dc	0.04276167
218	0xbefd436b	-0.49465498
219	0x3e86af0f	0.26305434
220	0xbdd4e911	-0.103960164
221	0xbdf2b2c1	-0.11850501
222	0xbae2842d	-0.0017281823
223	0x3c5775e2	0.013150664
224	0x3f19d7d1	0.60094935
225	0x3d92f3ea	0.07175429
226	0x3d8620df	0.065492384
227	0xbd7256cc	-0.059164807
228	0xbdb37938	-0.08763355
229	0xbe3e523d	-0.18586059
230	0xbf3137a5	-0.6922553
231	0x3a2bdd98	0.00065561524
232	0x3ea8c223	0.32960615
233	0x3d121b3f	0.035670515
234	0x3dd72e04	0.10506824
235	0x3f132910	0.5748453
236	0xbdedc274	-0.116093546
237	0xbf630f44	-0.8869517
238	0x3d83ffff	0.06445312
239	0x3dc95899	0.09831352
240	0x3d220d8f	0.03956371
241	0xbdfb62b8	-0.122746885
242	0x3cccfee4	0.025023885
243	0x3e068a61	0.13138725
244	0x3e805986	0.250683
245	0xbc97e9dd	-0.018544132
246	0xbd93ee19	-0.07223148
247	0x3ebd9e4c	0.37034833
248	0xbec4fb1e	-0.38472837
249	0x3e136ed9	0.14397754
250	0xbc9928d4	-0.018696226
251	0xbd104dba	-0.035230376
252	0xbec578a8	-0.38568616
253	0xbee1e0b8	-0.4411676
254	0x3cda3476	0.026636343
255	0x3d9fd6d9	0.07804651

self_entity_fc2.bias f4 [32]
0	0x3d7601f9	0.060060475
1	0x3dc295f6	0.09501259
2	0xbca29d62	-0.019850437
3	0xbd9c7155	-0.07638804
4	0x3e8bbe1d	0.27293482
5	0x39c249a7	0.0003705744
6	0xbd595673	-0.05306096
7	0x3ea48e78	0.32139945
8	0xbd8bc638	-0.068249166
9	0xbdfc6510	-0.12323964
10	0x3db72c48	0.08943993
11	0xbc16042b	-0.009156267
12	0xbe25fac0	-0.16208935
13	0x3dbfc063	0.09362867
14	0xbd5ff522	-0.054677136
15	0xbdf21a0a	-0.11821373
16	0xbdc399c2	-0.09550811
17	0xbe0dc088	-0.13842976
18	0xbd53394b	-0.05156831
19	0xbd704f1f	-0.058669206
20	0x3dd55bb9	0.10417885
21	0x3de360cb	0.11102446
22	0x3dc18b7f	0.09450435
23	0xbe3eab80	-0.1862011
24	0x3d4bd128	0.049760014
25	0x3c0cc286	0.0085913
26	0xbd0e4c7b	-0.034740906
27	0xbe3c6dcb	-0.18401258
28	0x3e04622f	0.12928079
29	0xbd8c6414	-0.06855026
30	0x3deda21b	0.11603185
31	0x3e6937c9	0.22775187
