my-submission/checkpoints/model_126464.pt (torch, 352797 bytes, 23 tensors)

local_map_cnn.0.weight f4 [32, 24, 3, 3]
-0.06271238 0.074577786 0.1736932 0.022188472 -0.005302515 0.11317744 -0.0011287831 -0.06727375
0.11544448 0.0143388035 -0.00911714 -0.14305444 0.074509054 -0.036114153 0.11932194 0.09292395
0.010351923 -0.20276538 -0.0040757833 0.01636639 0.103922606 0.029653074 -0.060722195 -0.41957387
-0.02165929 0.04371654 0.06461603 0.04199779 0.011646339 0.13747332 0.0122599425 -0.14319482
-0.397705 -0.09559817 -0.12872174 -0.0017104996 0.0058864187 -0.01432634 0.067973815 0.012980306
0.04295498 0.020148072 -0.09146278 -0.17206678 0.112930775 0.028817853 0.07107984 -0.20838085
-0.0020539986 0.0669139 0.18382488 -0.066998295 -0.0391197 -0.30949423 -0.06432569 -0.01880838
0.06780061 -0.07591489 -0.16256179 -0.13325913 -0.25047186 -0.1678622 0.045100633 -0.06870756
-0.12232675 0.08903371 -0.045143846 -0.32792768 0.008865307 -0.16699502 -0.09425162 -0.06812527
0.06092462 0.06968964 0.047368705 -0.15838625 -0.24115363 -0.14179438 -0.083624475 -0.14873275
0.029128011 -0.066443466 0.01076745 -0.08784055 -0.014112378 -0.17399898 -0.31649634 0.043963764
-0.1054332 -0.003189647 -0.119843744 0.2126236 -0.021094328 -0.0065956563 -0.114572756 -0.39243817
-0.08146896 -0.17700475 0.024182767 -0.05276642 -0.12383159 -0.007694711 -0.13601446 -0.091853894
-0.10814092 -0.04190146 -0.104873456 -0.05188856 0.05289755 -0.09864917 0.10770869 -0.20698895
-0.14268135 -0.36894423 -0.123462066 -0.27091512 0.04962195 -0.064036086 -0.024557702 0.1316703
-0.051027168 0.0512001 -0.14804825 -0.032381687 -0.05777265 0.06055748 -0.03399773 -0.04603233
-0.084673725 0.06259121 -0.022544865 0.17613257 -0.2051053 0.021757187 -0.11001716 -0.050945215
-0.15310523 0.12595963 -0.00026123918 0.0128855165 -0.10476865 0.0069739553 0.108979926 0.22000779
0.11621409 0.10273613 0.17106755 0.032683276 -0.08594812 -0.5679002 -0.006035467 -0.05822208
0.19640309 -0.06043429 -0.08101483 -0.08161201 -0.058886375 -0.04972756 -0.035450283 0.024594367
-0.04825079 -0.14837465 0.16392311 -0.081726305 0.29748553 -0.028684944 -0.10076238 0.537533
0.22674467 0.065202765 0.37726966 0.054980613 0.12029614 0.049397342 0.029066706 -0.1092457
0.089367025 0.18967685 0.10606129 0.049256008 -0.123384126 -0.16468121 -0.16260344 0.06912556
-0.18418726 -0.23526923 -0.17307013 -0.08666587 -0.008962174 0.3597957 0.62569505 0.3436703
0.65801895 0.4879472 0.5143832 -0.057387702 0.33656186 0.1254218 0.48424962 0.5564169
0.2019602 0.8226956 0.6597564 0.20831165 0.16538084 0.4554103 0.34708065 0.114750214
0.030004041 0.0603798 0.030075947 -0.06295331 -0.13301939 0.0454155 -0.061749138 -0.04669616
0.027960777 -0.018890794 0.084149145 -0.05305121 0.048198774 0.069162846 -0.08307307 0.04932544
-0.048439868 0.00065292395 0.090173446 0.024880454 0.065279976 0.03818467 0.034785293 0.057827916
0.09930793 0.034989737 -0.017668258 -0.019388186 0.021415561 -0.023225352 -0.07366427 0.019751435
-0.009640636 -0.0150844995 0.00409565 0.025125487 -0.0060136844 0.018657548 0.030994374 0.041713238
0.06900566 -0.0044967704 0.03333673 0.039733 0.05428211 0.027446883 0.07637429 -0.04815091
00000000: 596f 80bd 3dbc 983d a1dc 313e 99c4 b53c
00000010: b8c0 adbb 93c9 e73d adf3 93ba d2c6 89bd
00000020: 286e ec3d 4ded 6a3c 0f60 15bc dd7c 12be
00000030: 3498 983d 6fec 13bd 105f f43d e94e be3d
00000040: 1d9b 293c baa1 4fbe 268e 85bb cf12 863c
00000050: 60d5 d43d 01eb f23c d6b7 78bd 63d2 d6be
00000060: d36e b1bc 1d10 333d 6955 843d e005 2c3d
00000070: 49d0 3e3c cec5 0c3e eddd 483c aaa1 12be
00000080: fd9f cbbe f9c8 c3bd a2cf 03be d832 e0ba
00000090: dce2 c03b 06b9 6abc db35 8b3d 59ab 543c
000000a0: 90f1 2f3d 920d a53c d750 bbbd 4632 30be
000000b0: 4048 e73d 6b13 ec3c 4f92 913d ca61 55be
000000c0: 619c 06bb 280a 893d 973c 3c3e 6736 89bd
000000d0: fb3b 20bd 0776 9ebe 30bd 83bd 0814 9abc
000000e0: 0cdb 8a3d 4479 9bbd 9976 26be 1575 08be
000000f0: d93d 80be 12e4 2bbe 71bb 383d 8db6 8cbd
00000100: 7286 fabd 4e57 b63d c1e8 38bd 23e6 a7be
00000110: cb3f 113c be00 2bbe fe06 c1bd 4385 8bbd
00000120: 188c 793d 71b9 8e3d b005 423d 0130 22be
00000130: faf0 76be 8c32 11be 4f43 abbd 664d 18be
00000140: de9d ee3c 8313 88bd f569 303c bfe5 b3bd
00000150: 9a37 67bc ca2c 32be cf0b a2be 5913 343d
00000160: 5ded d7bd 6609 51bb a370 f5bd 00ba 593e
00000170: 03ce acbc 6020 d8bb 1fa5 eabd a8ed c8be
00000180: 33d9 a6bd bc40 35be f01a c63c 9a21 58bd
00000190: 6b9b fdbd ea23 fcbb 6047 0bbe e51d bcbd
000001a0: fd78 ddbd dea0 2bbd e5c7 d6bd 1989 54bd
000001b0: 1aab 583d 9308 cabd 6096 dc3d e9f4 53be
000001c0: 0f1b 12be 42e6 bcbe aed9 fcbd 63b5 8abe
000001d0: 6340 4b3d 5a25 83bd 3c2d c9bc 94d4 063e
000001e0: dd01 51bd 32b7 513d f699 17be a9a2 04bd
000001f0: 04a3 6cbd 1f0b 783d 3441 0bbd 658c 3cbd
00000200: 6b69 adbd d22f 803d 02b0 b8bc 195c 343e
00000210: 2007 52be 213c b23c ad50 e1bd eeab 50bd
00000220: 9ec7 1cbe 90fb 003e eef6 88b9 c61d 533c
00000230: f290 d6bd c785 e43b de30 df3d b949 613e
00000240: a701 ee3d 5267 d23d 552c 2f3e e6de 053d
00000250: 9105 b0bd e861 11bf 2bc5 c5bb 477a 6ebd
00000260: e41d 493e f289 77bd 1aeb a5bd 3324 a7bd
00000270: d732 71bd 20af 4bbd 5134 11bd 207a c93c
00000280: 9fa2 45bd 86ef 17be 76db 273e 1f60 a7bd
00000290: 0650 983e b0fc eabc 825c cebd c39b 093f
000002a0: c12f 683e 0789 853d 7d29 c13e 5a33 613d
000002b0: d35d f63d de54 4a3d 4d1d ee3c 36bc dfbd
000002c0: 0f06 b73d a63a 423e a936 d93d abc0 493d
000002d0: d1b0 fcbd 31a2 28be 8481 26be b491 8d3d
000002e0: 969b 3cbe 6bea 70be 4c39 31be e07d b1bd
000002f0: 15d6 12bc 2437 b83e 8d2d 203f 8ef5 af3e
00000300: ee73 283f 37d4 f93e 9eae 033f 5e0f 6bbd
00000310: d651 ac3e 936e 003e 91ef f73e 5771 0e3f
00000320: a8ce 4e3e 2e9c 523f cce5 283f a64f 553e
00000330: 9859 293e 8a2b e93e 8eb4 b13e 2902 eb3d
00000340: 09cb f53c cf50 773d d561 f63c aaed 80bd
00000350: 3c36 08be 9a05 3a3d aaec 7cbd 7944 3fbd
00000360: 000e e53c dec0 9abc 6356 ac3d 3a4c 59bd
00000370: 146c 453d 40a5 8d3d 3722 aabd 7909 4a3d
00000380: e268 46bd fc28 2b3a dbac b83d 18d2 cb3c
00000390: 82b1 853d 8767 1c3d 067b 0e3d f7dc 6c3d
000003a0: f561 cb3d 6651 0f3d 06bd 90bc f9d3 9ebc
000003b0: b06f af3c 1843 bebc 4bdd 96bd c3cd a13c
000003c0: c2f3 1dbc fa24 77bc cd34 863b f7d3 cd3c
000003d0: 710e c5bb b7d7 983c eae7 fd3c 80db 2a3d
000003e0: d752 8d3d a559 93bb 188c 083d 12bf 223d
000003f0: eb56 5e3d 49d8 e03c 206a 9c3d e339 45bd

local_map_cnn.0.bias f4 [32]
-0.010049498 -0.042852733 -0.02758488 -0.0936177 0.043300077 0.014796384 0.021261781 -0.047409713
0.0012928038 -0.091735385 0.0064331177 -0.022319112 -0.025532015 -0.04027866 -0.041336738 -0.14208435
-0.032535862 0.037960622 0.026293011 0.03435193 -0.08001893 0.075774804 0.0017769822 -0.057694264
-0.08915149 -0.06886554 -0.05468601 -0.024935408 0.052828755 0.04862025 0.07939111 0.014996187
00000000: a6a6 24bc 5986 2fbd b0f9 e1bc a3ba bfbd
00000010: 6c5b 313d 886c 723c 302d ae3c b030 42bd
00000020: 4c73 a93a c3df bbbd e7cc d23b 92d6 b6bc
00000030: 8428 d1bc 3cfb 24bd b650 29bd 8f7e 11be
00000040: 5344 05bd 997c 1b3d 7164 d73c 9cb4 0c3d
00000050: f7e0 a3bd d22f 9b3d a1e9 e83a d250 6cbd
00000060: 0e95 b6bd 6009 8dbd 70fe 5fbd 5745 ccbc
00000070: f762 583d 0726 473d ce97 a23d 91b2 753c

local_map_cnn.2.weight f4 [32, 32, 3, 3]
0.12658693 -0.056752015 -0.15667996 -0.11975595 -0.18722497 0.06227694 -0.32751146 0.024784658
0.053635698 -0.037452184 -0.08508061 -0.056691628 -0.054521713 -0.058685172 -0.07626648 0.03641502
-0.04449223 -0.083923 0.07661789 -0.088791765 0.047080483 0.17804897 0.13741222 0.16338919
-0.03259814 -0.105248906 0.016589552 -0.018074958 0.14117914 0.15843181 0.08699341 0.24614656
0.14704612 -0.21596792 -0.0774268 0.13844578 0.044547196 -0.110141456 0.042460866 0.04432606
-0.2590108 -0.06912807 0.035320133 -0.13066863 0.0007512821 -0.09894805 -0.08920093 0.024732549
-0.0038316315 -0.16715214 -0.072648086 0.001405112 -0.052423257 0.015609871 -0.041333146 -0.106936924
-0.07670173 0.0011837179 -0.04148407 -0.12890112 -0.031773366 -0.11356408 -0.036620557 0.13183542
0.111913495 0.10533058 0.06614874 0.1347802 0.14141737 0.064233765 0.10678019 0.09519714
0.19471951 0.24354555 -0.10876319 0.15351956 -0.103192866 -0.08179591 0.11714515 -0.09910151
-0.036791775 0.0035273868 0.07283554 -0.0026287336 0.051630374 0.12212215 0.057160277 -0.013851687
0.056631833 -0.019109894 -0.036020607 -0.10582746 0.042480163 0.06747274 -0.12044735 -0.06271869
0.0099134855 -0.10682714 -0.0074230903 0.25464052 0.016026257 0.20005089 0.019229418 0.05450374
0.09456508 0.073835485 -0.020310305 0.069915004 -0.113333926 0.07543075 -0.019690223 0.13521558
0.0010911261 -0.20649655 0.07041744 -0.10447026 0.030519145 0.04961568 0.12513942 0.063031286
0.05053423 -0.033132385 0.0019558682 0.041233595 0.10696507 0.046417408 -0.044189665 -0.12633388
-0.04062992 -0.13296723 -0.010714967 0.008809463 -0.13031495 -0.14677636 -0.019496929 0.031707328
0.0038709487 -0.09007131 -0.018503096 0.12754326 -0.040438626 -0.17140105 -0.08216035 0.008004164
0.070242375 0.15982947 0.041476935 0.1660686 0.26864323 0.025216494 0.005997263 0.052854978
0.15668176 0.026056206 0.02806987 0.04144933 0.009451498 0.08863936 0.045732874 -0.08490626
0.018072907 -0.014272048 0.072038755 -0.026468918 -0.008681872 0.052868955 0.107644945 0.14162005
0.10017239 -0.03869569 0.113021426 0.034143433 -0.1283293 0.010467509 0.12835214 0.14891194
0.12212086 0.05359013 0.020624481 0.21947314 0.0016492611 0.10766612 0.0039088344 0.114754066
0.020232935 0.08303162 -0.124397025 -0.009677083 0.033587497 0.07435402 0.095382415 -0.031383097
-0.014193053 0.036695562 0.03472393 0.06032512 -0.09754735 -0.098773144 0.018643955 0.05549698
0.010769725 0.015528506 0.039817113 0.031599063 0.006525574 -0.057859123 -0.0014903686 0.01173121
-0.06373854 0.035602067 -0.00036854253 -0.08753698 0.06313426 0.13033412 -0.006955925 0.03130776
-0.08112754 0.056318678 -0.08745568 -0.031548142 0.18013999 -0.04285965 -0.14189643 0.016643919
0.09141481 0.14374834 0.061125387 0.0895595 0.080469005 0.17045842 0.09955311 0.115264624
0.053272888 0.12187092 -0.064393 -0.09913344 -0.017739732 -0.24276847 0.057122134 -0.41209298
0.07053702 -0.05997844 0.036506794 0.0923017 -0.32358074 0.051934656 -0.14474699 -0.4539568
-0.09408779 -0.18157049 0.08224392 -0.087565914 0.035536923 0.046708353 0.08594234 0.027495503
00000000: 01a0 013e cd74 68bd b670 20be 9c42 f5bd
00000010: e7b7 3fbe 1b16 7f3d 95af a7be 3209 cb3c
00000020: 1bb1 5b3d 7667 19bd be3e aebd 7b35 68bd
00000030: 2952 5fbd dd5f 70bd 9a31 9cbd ea27 153d
00000040: 7c3d 36bd d2df abbd d7e9 9c3d 75d8 b5bd
00000050: 77d7 403d 7852 363e cab5 0c3e 7f4f 273e
00000060: a185 05bd bd8c d7bd d0e6 873c ef11 94bc
00000070: 4491 103e f33b 223e 9a29 b23d d80d 7c3e
00000080: 4293 163e b226 5dbe f191 9ebd bbc4 0d3e
00000090: 1f77 363d d891 e1bd 72eb 2d3d 3e8f 353d
000000a0: 109d 84be 0493 8dbd d8ab 103d ffcd 05be
000000b0: b0f1 443a 46a5 cabd faae b6bd ea9b ca3c
000000c0: 1c1c 7bbb ee29 2bbe 85c8 94bd bc2b b83a
000000d0: c5b9 56bd 8bc0 7f3c f24c 29bd bf01 dbbd
000000e0: cc15 9dbd fb26 9b3a 33eb 29bd a8fe 03be
000000f0: ca24 02bd 4994 e8bd 70ff 15bd ddff 063e
00000100: e732 e53d 8fb7 d73d fe78 873d d203 0a3e
00000110: b7cf 103e fe8c 833d 92af da3d b8f6 c23d
00000120: 8d64 473e 0164 793e 3cbf debd 3b34 1d3e
00000130: c856 d3bd 9d84 a7bd cce9 ef3d bcf5 cabd
00000140: f9b2 16bd bb2b 673b cd2a 953d d546 2cbb
00000150: 5f7a 533d 2e1b fa3d e520 6a3d 30f2 62bc
00000160: c8f6 673d 5a8c 9cbc 588a 13bd 11bc d8bd
00000170: aeff 2d3d 262f 8a3d 1aad f6bd a872 80bd
00000180: 2c6c 223c 30c8 dabd 653d f3bb 3e60 823e
00000190: 7f49 833c 24da 4c3e 0387 9d3c 503f 5f3d
000001a0: 56ab c13d 0f37 973d cc61 a6bc 992f 8f3d
000001b0: 9e1b e8bd 707b 9a3d 644d a1bc f475 0a3e
000001c0: 1e04 8f3a d573 53be 0537 903d 81f4 d5bd
000001d0: 4903 fa3c d039 4b3d 8c24 003e 8c16 813d
000001e0: fbfc 4e3d d3b5 07bd 062e 003b 8fe4 283d
000001f0: 8110 db3d 2e20 3e3d 3900 35bd ab5d 01be
00000200: 8f6b 26bd 9028 08be d48d 2fbc 9155 103c
00000210: 4871 05be 8b4c 16be 06b8 9fbc 8bdf 013d
00000220: beaf 7d3b 4f77 b8bd ce93 97bc b39a 023e
00000230: f9a2 25bd c283 2fbe b043 a8bd e623 033c
00000240: 3cdb 8f3d 56aa 233e b8e3 293d e30d 2a3e
00000250: 9b8b 893e d292 ce3c b084 c43b 767e 583d
00000260: 2f71 203e d373 d53c c9f2 e53c c6c6 293d
00000270: 75da 1a3c 8e88 b53d 6552 3b3d 55e3 adbd
00000280: a20d 943c 4fd5 69bc 0e89 933d 58d5 d8bc
00000290: 693e 0ebc 1e8d 583d f474 dc3d d904 113e
000002a0: 2f27 cd3d 5f7f 1ebd c777 e73d fcd9 0b3d
000002b0: c268 03be ea7f 2b3c be6e 033e 5f7c 183e
000002c0: 801a fa3d 5381 5b3d acf4 a83c 91bd 603e
000002d0: 052c d83a 0e80 dc3d ae15 803b 2e04 eb3d
000002e0: 8abf a53c 7b0c aa3d dec3 febd a18c 1ebc
000002f0: 0b93 093d ec46 983d db57 c33d 908b 00bd
00000300: fb89 68bc 164e 163d ae3a 0e3d 7917 773d
00000310: e8c6 c7bd 9349 cabd 35bb 983c cd50 633d
00000320: 8073 303c 466b 7e3c 4517 233d 056e 013d
00000330: 7bd4 d53b b0fd 6cbd 7958 c3ba 4334 403c
00000340: 5a89 82bd 79d3 113d f138 c1b9 9746 b3bd
00000350: 894c 813d 4f76 053e 87ee e3bb 913c 003d
00000360: 3226 a6bd 6aae 663d f71b b3bd a038 01bd
00000370: 9e76 383e 9a8d 2fbd 4c4d 11be d458 883c
00000380: b037 bb3d c432 133e 9d5e 7a3d f96a b73d
00000390: efcc a43d a78c 2e3e 80e2 cb3d dc0f ec3d
000003a0: ac34 5a3d 7697 f93d 7ae0 83bd 7906 cbbd
000003b0: ea52 91bc 4c98 78be e6f8 693d dafd d2be
000003c0: b775 903d f4ab 75bd 2688 153d ac08 bd3d
000003d0: 60ac a5be 6fb9 543d 8e38 14be 076d e8be
000003e0: 19b1 c0bd 9ded 39be 806f a83d c255 b3bd
000003f0: 2a8f 113d 4251 3f3d 8a02 b03d 403e e13c

local_map_cnn.2.bias f4 [32]
-0.021584466 0.0243066 -0.017243462 -0.004394269 -0.07187566 -0.1855967 -0.042522475 0.003686236
-0.06284609 -0.086949185 -0.1379675 -0.08033486 -0.20176087 0.041997097 0.037244126 0.10817141
-0.23681474 0.0069741993 -0.0715652 -0.07194054 -0.04050466 -0.051742073 -0.0111332135 -0.10564069
0.037877463 0.088416874 -0.1416186 -0.1607467 0.041784342 -0.13445774 -0.11872302 -0.24828303
00000000: e8d1 b0bc a31e c73c 2942 8dbc cdfd 8fbb
00000010: 8c33 93bd 100d 3ebe 0c2c 2ebd c794 713b
00000020: 73b5 80bd 6a12 b2bd 5a47 0dbe 9a86 a4bd
00000030: 679a 4ebe 2605 2c3d 4c8d 183d f988 dd3d
00000040: 907f 72be d387 e43b c790 92bd 9055 93bd
00000050: 37e8 25bd 7fef 53bd 1568 36bc 255a d8bd
00000060: 6625 1b3d e813 b53d 7704 11be c89a 24be
00000070: 0f26 2b3d 4aaf 09be 0e25 f3bd e83d 7ebe

local_map_cnn.4.weight f4 [32, 32, 3, 3]
-0.03322402 -0.17412688 0.028640853 0.100394495 0.051878855 -0.008678788 -0.19447604 -0.24334784
-0.17416897 0.17561448 -0.085947536 -0.037413158 0.03805986 -0.41067272 -0.24103278 -0.13082501
0.3211525 0.04351769 -0.109262615 -0.11528518 -0.07863447 -0.013298998 -0.072915085 -0.06758455
0.055061895 -0.3557375 0.06316559 -0.0046161287 -0.13197209 0.0034833231 -0.037872024 -0.40277028
0.026524037 -0.043535046 -0.10958766 0.009875984 0.048866473 0.02618829 0.07941336 0.01755002
-0.04900907 -0.079198666 0.086842865 -0.09803309 0.08429772 -0.03638906 0.07109505 0.08561943
-0.11488351 -0.119988956 -0.04709743 -0.010139191 -0.021249762 -0.18835987 0.0045766025 0.11594865
-0.02686235 0.014520836 -0.28473547 -0.010609081 0.0865802 0.14955634 0.18399654 -0.12750462
-0.062086836 -0.044901237 -0.0674716 -0.007886946 0.12666845 -0.07315284 -0.11188923 -0.2859684
-0.020783996 0.107562475 -0.19022165 0.11854723 0.3194607 -0.13085204 0.050942786 -0.41011333
0.0475315 -0.38287959 0.12812659 -0.17276445 0.013544551 0.003945211 -0.16483048 0.0720526
-0.18389954 0.099205084 0.03166949 0.026759341 0.2068363 -0.008582901 -0.09074498 0.10665475
0.10669124 0.054584097 0.1328351 0.17548342 -0.07367234 0.032833707 -0.024601474 -0.10287315
-0.014228365 -0.08813078 0.0012924441 -0.043877516 0.038443048 -0.05132614 0.104115725 0.13703786
-0.122991264 -0.020368528 -0.020892946 -0.14449503 0.17693272 0.2095978 0.05574396 0.07213005
0.049102083 -0.18625008 0.0035525898 -0.038147446 -0.056302443 -0.14213543 0.010507021 -0.12234503
-0.012633429 0.110754155 -0.037986726 -0.1441848 -0.023878949 -0.3496795 -0.11675408 0.10538909
-0.15738212 0.05694595 -0.049150757 -0.36604536 -0.17630744 0.0023792472 -0.41998568 -0.104780905
-0.06843795 -0.023729272 0.21919332 -0.05793428 -0.1694678 0.0037151852 0.006850912 0.104229
0.039420217 0.11148606 -0.07850436 -0.11760227 0.008322025 -0.15152349 -0.09269936 -0.07456842
0.13139445 0.041472755 0.109675005 -0.11438772 -0.049060915 -0.06567697 -0.09347517 -0.2661199
0.10575054 0.045006514 -0.018002886 -0.062252175 0.050919514 0.28791025 0.09245455 -0.33374298
-0.03329942 0.01853474 0.13113703 0.132134 -0.22809616 0.110512786 0.052808322 -0.08600311
0.019501468 -0.05115632 0.052454997 -0.07320224 0.1568207 -0.057337996 -0.059383042 0.12834711
0.11088503 -0.31813282 -0.013906671 0.16777392 -0.050124723 0.17189594 -0.028360989 -0.07107418
-0.1286343 -0.036966998 0.15162162 0.0028929939 0.098930635 0.083195105 -0.1426522 0.18522233
-0.07272375 0.10599241 0.039332613 -0.52055836 -0.0457374 -0.025614388 -0.03246384 -0.07296862
-0.15663166 0.19539194 -0.260518 -0.04771449 -0.09400893 0.11695605 0.116760634 0.06665034
0.026959168 -0.01585012 0.0011250938 -0.09178864 0.1182734 0.12594618 0.03133196 0.08415572
0.14142461 0.14127697 -0.011131459 0.03076448 0.0741005 -0.012362871 -0.13158736 0.017077649
0.051330235 -0.1816916 0.15224536 0.047310982 0.037298903 0.07079926 -0.004596674 -0.03147635
-0.013441033 0.067180865 -0.053772915 0.042720098 -0.061676413 -0.026485724 0.045876004 0.016806673
00000000: e915 08bd 514e 32be 39a0 ea3c a19b cd3d
00000010: ec7e 543d 7a31 0ebc ba24 47be 2d30 79be
00000020: 5a59 32be 48d4 333e 4305 b0bd 8a3e 19bd
00000030: a8e4 1b3d b243 d2be 4cd1 76be fef6 05be
00000040: 1a6e a43e 9b3f 323d 14c5 dfbd a31a ecbd
00000050: 1c0b a1bd 0ae4 59bc 8154 95bd c569 8abd
00000060: 9588 613d 3a23 b6be f65c 813d e542 97bb
00000070: b123 07be 7748 643b b21f 1bbd e837 cebe
00000080: f048 d93c ce51 32bd 7f6f e0bd e1ce 213c
00000090: 3628 483d d388 d63c 79a3 a23d 0fc5 8f3c
000000a0: bcbd 48bd e932 a2bd acda b13d 93c5 c8bd
000000b0: 48a4 ac3d b20c 15bd 489a 913d 3d59 af3d
000000c0: 0c48 ebbd c5bc f5bd 3ce9 40bd d91e 26bc
000000d0: fb13 aebc 69e1 40be 53f7 953b 7c76 ed3d
000000e0: 6e0e dcbc cde8 6d3c d9c8 91be b6d1 2dbc
000000f0: f650 b13d 4c25 193e 9769 3c3e 9290 02be
00000100: c44e 7ebd 5cea 37bd 8d2e 8abd 4038 01bc
00000110: 60b5 013e 28d1 95bd 2e26 e5bd 736a 92be
00000120: 3343 aabc b749 dc3d 77c9 42be e4c8 f23d
00000130: 5a90 a33e 14fe 05be 62a9 503d 60fa d1be
00000140: 64b0 423d cb08 c4be 9e33 033e 2ae9 30be
00000150: f7e9 5d3c d446 813b 52c9 28be 5090 933d
00000160: 2950 3cbe 092c cb3d deb7 013d 6836 db3c
00000170: e5cc 533e 4c9f 0cbc 81d8 b9bd ce6d da3d
00000180: f080 da3d 9393 5f3d ed05 083e edb1 333e
00000190: 86e1 96bd a37c 063d 0889 c9bc 28af d2bd
000001a0: 171e 69bc e97d b4bd 3a67 a93a e9b8 33bd
000001b0: 7576 1d3d 5c3b 52bd a03a d53d a753 0c3e
000001c0: d8e2 fbbd e6db a6bc af27 abbc 81f6 13be
000001d0: da2d 353e cea0 563e c753 643d ebb8 933d
000001e0: 441f 493d 57b8 3ebe 91d2 683b 7f40 1cbd
000001f0: 649d 66bd f38b 11be a425 2c3c 0890 fabd
00000200: 71fc 4ebc 13d3 e23d f897 1bbd 2ea5 13be
00000210: c99d c3bc 3109 b3be c31c efbd 3cd6 d73d
00000220: c728 21be 2840 693d 4e52 49bd 4c6a bbbe
00000230: f089 34be 25ed 1b3b 5d08 d7be 5f97 d6bd
00000240: 3229 8cbd e463 c2bc 3774 603e 7f4c 6dbd
00000250: f888 2dbe 777a 733b 9d7d e03b 0476 d53d
00000260: 1877 213d ce52 e43d e5c6 a0bd 75d9 f0bd
00000270: 1a59 083c f928 1bbe 29d9 bdbd 54b7 98bd
00000280: 448c 063e 56df 293d 4a9d e03d 1c44 eabd
00000290: 19f4 48bd a681 86bd e96f bfbd de40 88be
000002a0: bd93 d83d c058 383d ca7a 93bc 23fc 7ebd
000002b0: fb90 503d f968 933e d058 bd3d 5ce0 aabe
000002c0: f964 08bd 2bd6 973c c948 063e 234e 073e
000002d0: 0a92 69be 8754 e23d 8a4d 583d 6622 b0bd
000002e0: 8bc1 9f3c 4a89 51bd 0ddb 563d 0eeb 95bd
000002f0: 9b95 203e 3fdb 6abd a23b 73bd 6d6d 033e
00000300: b117 e33d 4ee2 a2be ced8 63bc edcc 2b3e
00000310: 954f 4dbd 7d05 303e 4e55 e8bc 578f 91bd
00000320: b6b8 03be b56a 17bd b342 1b3e 6298 3d3b
00000330: 259c ca3d 3262 aa3d 6b13 12be ecaa 3d3e
00000340: 30f0 94bd 8c12 d93d 3c1b 213d 5043 05bf
00000350: 2457 3bbd 44d5 d1bc cef8 04bd 9270 95bd
00000360: 0d64 20be d314 483e 9e62 85be 4570 43bd
00000370: c187 c0bd a786 ef3d 3320 ef3d f97f 883d
00000380: 79d9 dc3c 1cd8 81bc e277 933a affb bbbd
00000390: 5339 f23d 09f8 003e f155 003d d659 ac3d
000003a0: 9dd1 103e e9aa 103e b960 36bc ca05 fc3c
000003b0: 01c2 973d a48d 4abc d6be 06be 6de6 8b3c
000003c0: a73f 523d 5d0d 3abe 35e6 1b3e 29c9 413d
000003d0: bcc6 183d 34ff 903d b29f 96bb 58ed 00bd
000003e0: c737 5cbc 1f96 893d fd40 5cbd 45fb 2e3d
000003f0: 68a0 7cbd 97f8 d8bc 7ae8 3b3d 26ae 893c

local_map_cnn.4.bias f4 [32]
0.02642761 -0.0038246177 -0.16559285 -0.34728304 -0.057666544 -0.05028689 0.0020817667 -0.1442873
0.14970198 0.017633675 0.096610844 -0.11085535 0.0987991 0.14154021 -0.22566475 0.19289796
-0.2352719 0.07775987 0.11624615 -0.15101434 -0.11128741 -0.03977099 0.041080233 -0.100581765
-0.07276147 0.122367434 -0.18366142 -0.023838593 0.019471757 0.031134235 0.0077875527 -0.04412043
00000000: b77e d83c 70a6 7abb 2c91 29be 15cf b1be
00000010: c133 6cbd a0f9 4dbd 406e 083b 0dc0 13be
00000020: 7a4b 193e 7f74 903c e8db c53d 2108 e3bd
00000030: 2f57 ca3d ebef 103e a914 67be 0b87 453e
00000040: 1eeb 70be 9140 9f3d 7612 ee3d 81a3 1abe
00000050: a7ea e3bd e8e6 22bd bf43 283d d0fd cdbd
00000060: f703 95bd c79b fa3d bd11 3cbe 2749 c3bc
00000070: 3c83 9f3c 390d ff3c ba2e ff3b a0b7 34bd

local_map_fc.weight f4 [64, 512]
-0.10201972 -0.10398753 -0.16123417 -0.12874407 0.027469784 -0.20594235 -0.1741446 -0.007488155
-0.088253245 -0.12782785 -0.08316313 0.12900381 0.12942934 -0.072902896 0.054866794 -0.08168948
-0.056989826 -0.062475 -0.050131466 0.024788503 -0.027031073 -0.023607852 -0.03326493 0.036351237
-0.09029204 0.0036224625 0.0037634377 -0.058060803 -0.059703577 0.12111802 0.047746826 0.07442674
-0.08961171 0.019143142 0.031070685 -0.018345319 -0.2994284 -0.08621863 0.032956008 -0.11140699
-0.1264313 -0.2644806 0.0042647924 -0.10828107 0.10771817 0.055888824 0.031211587 0.072593376
0.066109106 -0.11183147 0.01261623 0.09074962 -0.07296183 -0.060399372 0.07657533 -0.117638096
-0.0757148 0.055454962 -0.02453381 -0.032764565 0.02453292 -0.07505117 -0.099624895 -0.06743265
-0.110094905 -0.16707428 0.07329892 -0.0687322 -0.2020436 -0.21104988 0.0017353907 -0.018138614
0.15319659 0.012518472 -0.009371146 -0.23443258 -0.035886306 0.15023047 -0.029152682 0.0961736
-0.02485941 0.025015919 -0.07831106 -0.1177357 -0.06811792 -0.0640399 0.0175967 0.21487464
-0.108922794 0.21402518 -0.18566926 0.12254156 -0.06752562 -0.08574292 -0.15100732 0.05144451
-0.0829344 0.0776027 0.064981826 -0.061796974 -0.0654847 0.07764381 -0.032869693 0.035009798
0.022125918 0.22501369 -0.096387826 -0.22881968 -0.028200293 0.025620246 -0.0160083 0.06872455
-0.0028457036 0.034859 0.01584476 -0.13498029 -0.11252252 -0.13405731 0.057228874 0.1265127
-0.06167484 -0.18595491 -0.12886131 -0.0036705756 -0.064065516 0.026582042 -0.06675611 0.017258583
-0.091003805 -0.2732509 -0.19451603 -0.14239514 -0.16744636 -0.07278196 -0.21535665 0.16758248
-0.050743584 -0.014235744 -0.28265294 -0.055157375 0.045686506 -0.010287096 0.03182011 -0.12738627
-0.18957645 0.052202806 -0.19541861 -0.2072553 0.012785191 -0.024602303 -0.08312141 -0.16450192
-0.06823162 0.033061497 0.10584412 -0.25585577 -0.13866231 -0.13727683 0.10682017 -0.053657673
0.03236019 -0.09507849 0.014514567 -0.109496385 -0.11266149 -0.051751614 -0.01412311 -0.07295822
-0.10587672 -0.119297296 0.07219968 0.0037296233 -0.15663984 -0.20093618 0.13919377 -0.0073321695
0.032617718 -0.067294516 -0.08659328 -0.028057048 -0.08868562 -0.03972237 -0.007171482 -0.0067693614
-0.08576815 -0.21958426 -0.14267308 -0.018192055 0.084147416 0.027104737 -0.014514879 0.062264573
-0.019854004 -0.04518308 -0.16183296 -0.24255492 -0.14848445 -0.046595603 0.11775737 -0.15246934
0.070296414 0.04696227 0.070859306 -0.08685397 0.112099044 0.002547779 -0.06778354 0.05952195
-0.19739427 -0.16069052 -0.10017138 0.1967844 0.01817183 -0.18192291 0.07083862 0.06867025
0.027356368 -0.05242694 0.09803932 0.06477513 -0.0021087937 -0.158961 0.02685978 0.0769715
-0.052636985 0.017090479 -0.048396382 0.12492427 0.12369216 -0.059099514 0.03618554 0.100468695
0.025886638 -0.108186394 0.027235677 -0.025156323 -0.062527426 -0.11539438 0.08270262 -0.056112688
-0.09787296 0.06395352 -0.077053994 0.069910355 -0.14388996 -0.13781612 -0.26160192 0.026040198
-0.12417651 -0.18381952 -0.17228666 -0.06399728 -0.0238037 0.060103428 -0.05234868 -0.022498237
00000000: b7ef d0bd 6af7 d4bd 921a 25be 7cd5 03be
00000010: 5008 e13c 8de2 52be f652 32be 325f f5bb
00000020: 1ebe b4bd 4ee5 02be 6e51 aabd 9319 043e
00000030: 2089 043e 1d4e 95bd 01bc 603d d04c a7bd
00000040: 2a6e 69bd c9e5 7fbd a756 4dbd 4211 cb3c
00000050: 4570 ddbc 4165 c1bc cf40 08bd 09e5 143d
00000060: 08eb b8bd d666 6d3b 02a4 763b 2ad1 6dbd
00000070: bd8b 74bd b90c f83d 2d92 433d 0c6d 983d
00000080: 5886 b7bd 14d2 9c3c f387 fe3c ec48 96bc
00000090: ae4e 99be 6593 b0bd e1fc 063d 5929 e4bd
000000a0: 3577 01be 006a 87be acbf 8b3b 77c2 ddbd
000000b0: 589b dc3d aeeb 643d 71af ff3c d6ab 943d
000000c0: 3664 873d e607 e5bd 4eb4 4e3c f0da b93d
000000d0: 036d 95bd 5565 77bd 87d3 9c3d 3eec f0bd
000000e0: 5c10 9bbd be24 633d 21fb c8bc 2334 06bd
000000f0: 43f9 c83c 6eb4 99bd 2308 ccbd 211a 8abd
00000100: 7079 e1bd 8515 2bbe bf1d 963d 78c3 8cbd
00000110: 84e4 4ebe 761d 58be 0d76 e33a 6e97 94bc
00000120: 91df 1c3e 471a 4d3c 6f89 19bc 180f 70be
00000130: 85fd 12bd 04d6 193e 9bd1 eebc aaf6 c43d
00000140: f6a5 cbbc 2fee cc3c 8d61 a0bd 6a1f f1bd
00000150: 6881 8bbd 5a27 83bd f426 903c 1908 5c3e
00000160: ea12 dfbd 6b29 5b3e 1520 3ebe 12f7 fa3d
00000170: df4a 8abd fc99 afbd aaa1 1abe 7bb7 523d
00000180: 83d9 a9bd 2aee 9e3d 3115 853d d31e 7dbd
00000190: d81c 86bd b803 9f3d 5fa2 06bd 6f66 0f3d
000001a0: 6a41 b53c fd69 663e fb66 c5bd b54f 6abe
000001b0: 4d04 e7bc 8de1 d13c d723 83bc 75bf 8c3d
000001c0: fc7e 3abb 50c8 0e3d dfcc 813c 4638 0abe
000001d0: 3572 e6bd 5246 09be d368 6a3d 8c8c 013e
000001e0: c29e 7cbd f76a 3ebe 38f4 03be 0a8e 70bb
000001f0: c834 83bd 95c2 d93c 6db7 88bd df61 8d3c
00000200: 3460 babd 8be7 8bbe 362f 47be 08d0 11be
00000210: 0f77 2bbe b50e 95bd 7486 5cbe be9a 2b3e
00000220: 81d8 4fbd 0a3d 69bc e3b7 90be b3ec 61bd
00000230: c621 3b3d 358b 28bc ce55 023d 8c71 02be
00000240: 5420 42be 9cd2 553d d11b 48be bc3a 54be
00000250: fa78 513c c58a c9bc 8f3b aabd 3173 28be
00000260: 05bd 8bbd 7e6b 073d cdc4 d83d 87ff 82be
00000270: 7efd 0dbe 4c92 0cbe 89c4 da3d 26c8 5bbd
00000280: 1e8c 043d 83b8 c2bd 82ce 6d3c a43f e0bd
00000290: 11bb e6bd 80f9 53bd 9e64 67bc 1f6b 95bd
000002a0: e5d5 d8bd 2452 f4bd 6ddd 933d b26c 743b
000002b0: 3266 20be 37c2 4dbe d088 0e3e b242 f0bb
000002c0: 289a 053d b5d1 89bd d157 b1bd e5d7 e5bc
000002d0: cea0 b5bd edb3 22bd c0fe eabb 85d1 ddbb
000002e0: 36a7 afbd b2da 60be e418 12be 8107 95bc
000002f0: 7b55 ac3d c10a de3c d1cf 6dbc 2309 7f3d
00000300: dda4 a2bc e511 39bd 8ab7 25be 5160 78be
00000310: 4f0c 18be 08db 3ebd c72a f13d ec20 1cbe
00000320: 91f7 8f3d 825b 403d af1e 913d 7fe0 b1bd
00000330: 2f94 e53d a3f8 263b 19d2 8abd 4acd 733d
00000340: b921 4abe 0e8c 24be a726 cdbd da81 493e
00000350: 17dd 943c 004a 3abe d713 913d fda2 8c3d
00000360: 761a e03c a2bd 56bd d7c8 c83d d3a8 843d
00000370: b033 0abb acc6 22be 0b09 dc3c 3ca3 9d3d
00000380: e199 57bd 5501 8c3c 493b 46bd 4cd8 ff3d
00000390: 5152 fd3d 5512 72bd 4a37 143d 88c2 cd3d
000003a0: 3710 d43c d490 ddbd 5b1d df3c a214 cebc
000003b0: 610e 80bd e453 ecbd fe5f a93d 6bd6 65bd
000003c0: 9e71 c8bd 10fa 823d 7cce 9dbd 292d 8f3d
000003d0: e457 13be ab1f 0dbe b0f0 85be 4152 d53c
000003e0: 4150 febd 2f3b 3cbe ea6b 30be 0211 83bd
000003f0: faff c2bc 032f 763d 926b 56bd 394e b8bc

local_map_fc.bias f4 [64]
-0.07169267 -0.13097759 -0.007892284 -0.041906483 -0.059950024 -0.15109745 -0.08991547 0.07118629
-0.010773574 -0.0666361 -0.06083357 -0.0752868 0.15145893 -0.03499782 -0.03591592 0.08216656
0.05107403 -0.013931606 -0.05201741 -0.0010615551 -0.09684165 -0.120739944 0.054113727 0.056323174
-0.060076676 -0.07098527 0.042547144 -0.09219875 0.05194156 0.07101625 -0.012835382 -0.12446694
0.08378709 -0.009747465 -0.032915812 -0.012425703 -0.06274081 0.102172874 0.16368629 0.038323876
-0.06847317 -0.14922442 0.02358854 0.108251505 0.12349128 0.10729005 -0.10386147 -0.035842523
-0.06936936 -0.01945487 -0.14908397 -0.050223645 0.0468012 -0.1837765 -0.061739877 0.08978856
-0.017755175 -0.18032011 -0.014919385 -0.058174223 -0.063817725 0.03245284 0.02502382 0.091503575
00000000: 9bd3 92bd fd1e 06be a34e 01bc 22a6 2bbd
00000010: 288e 75bd 4ab9 1abe 9a25 b8bd 1eca 913d
00000020: a583 30bc 8278 88bd 9f2c 79bd f72f 9abd
00000030: 0d18 1b3e e059 0fbd 921c 13bd f146 a83d
00000040: 0133 513d 6441 64bc 3510 55bd e123 8bba
00000050: ea54 c6bd 8146 f7bd 5ba6 5d3d 21b3 663d
00000060: f612 76bd ba60 91bd ea45 2e3d b3d2 bcbd
00000070: acc0 543d f870 913d 7e4b 52bc 86e8 febd
00000080: 9198 ab3d d5b3 1fbc bbd2 06bd 2d95 4bbc
00000090: 417e 80bd 0340 d13d 619d 273e 7ff9 1c3d
000000a0: a93b 8cbd 49ce 18be c13c c13c f7b2 dd3d
000000b0: ffe8 fc3d e3ba db3d 53b5 d4bd 9ccf 12bd
000000c0: 8611 8ebd d25f 9fbc 78a9 18be 4fb7 4dbd
000000d0: 9db2 3f3d e82f 3cbe f4e2 7cbd 11e3 b73d
000000e0: 4d73 91bc d6a5 38be 7070 74bc 1848 6ebd
000000f0: deb2 82bd 45ed 043d c1fe cc3c 3a66 bb3d

self_entity_fc1.weight f4 [32, 26]
0.28313792 0.008724065 0.002422192 0.012830394 -0.019028926 0.11074618 0.0061579705 -0.27842945
-0.023470132 -0.08228074 -0.151371 -0.52394974 0.168713 -0.17537995 0.21510471 0.15131162
-0.23269524 -0.13746454 0.051068675 0.051843937 -0.023818916 0.32329583 -0.1381174 0.1846682
-0.0025296868 0.052354816 -0.35449728 -0.09709852 0.009864266 0.17986919 0.17261411 -0.16515583
0.11412131 -0.33884293 -0.08845587 -0.06089075 -0.12046619 0.013368059 0.02406803 0.05224528
0.21162505 0.13811259 0.12566002 0.015654916 -0.07683103 -0.021459365 -0.044153675 0.092419714
-0.04583029 -0.016256167 0.0879735 0.18860671 -0.009168405 -0.08387595 0.070609644 -0.13988616
0.11577702 -0.50018734 -0.2740772 0.09848131 0.11098531 -0.08127912 -0.41111085 -0.04448466
-0.072851 0.05638966 0.064009495 0.21924229 0.06560244 0.08812871 0.031270362 0.13900216
0.07143448 0.106593825 0.17980045 -0.10809524 -0.039984453 -0.13354373 -0.12206323 -0.043446466
0.10602882 -0.07973196 -0.10009929 0.14029065 0.11122668 -0.01779616 0.76477945 0.29317802
0.08674403 -0.067119084 0.017268049 0.25025967 -0.025802553 -0.17068154 0.19098035 0.22698607
-0.14543596 -0.04935119 0.24709074 -0.07828035 -0.15332116 0.03820102 -0.110016264 0.13369043
-0.16026491 0.040443383 -0.026132254 -0.15661363 0.12840383 0.07640956 0.023292987 -0.20901795
0.053928077 0.12642144 0.43113464 0.22398977 0.14540234 0.112614244 -0.19032405 0.048038974
0.22240068 0.3882324 -0.112518296 -0.06063518 0.009068176 -0.09320079 -0.059175998 -0.02327878
-0.11358514 -0.10326105 0.082644254 0.11903375 0.19528411 0.04843117 0.04182323 -0.0708338
0.14706731 -0.41093728 0.22384784 -0.0038319747 0.04234825 0.3236855 0.15047851 0.12894845
0.006255587 -0.22489072 0.092797376 -0.005643604 -0.15404646 -0.19957364 -0.21516396 -0.16391553
-0.12671897 -0.18234152 0.061289426 0.09666513 -0.029995602 -0.12693302 -0.036129136 0.14208868
0.116309 -0.14405222 -0.110122405 -0.28931183 0.037279863 0.06890001 -0.35219908 0.088887654
-0.8544446 0.09236774 0.13682108 0.09541818 -0.24994849 -0.16714513 0.0024387424 0.0152870435
0.0017420483 0.24132621 0.1282283 -0.09197671 0.0074946093 -0.12567064 0.17310353 -0.00523874
-0.025336893 0.032286685 -0.028479284 -0.15120077 0.11030242 -0.028430786 -0.6004164 0.13892232
-0.16227008 0.22493471 0.08320964 0.09976194 0.094583794 0.2465101 0.12565233 0.19667447
-0.07189036 0.092697844 0.02848013 0.18741517 0.0064963554 -0.072329395 0.090831265 -0.14028168
-0.008316024 -0.111577205 -0.0025376792 0.111755334 -0.0143942945 -0.075585306 0.072144836 0.52504855
0.018746316 0.046015903 -0.7679638 -0.109093145 -0.13548551 0.088536754 0.1759814 0.13505755
0.1649937 -0.06543322 -0.052462876 -0.07968517 -0.027716538 0.16037159 0.096485905 -0.058057997
-0.13567328 -0.13360727 -0.19689475 -0.21129715 -0.042275727 0.08767191 -0.06997062 -0.40838876
-0.43239275 0.13807037 -0.16303311 -0.029564388 0.13091072 0.16474698 0.06500423 -0.087569706
0.089133106 0.11914306 -0.072425134 -0.12753882 0.0647553 -0.07738468 0.025589406 0.27717036
00000000: 74f7 903e 61ef 0e3c a3bd 1e3b 9336 523c
00000010: 8de2 9bbc e5ce e23d cdc8 c93b 4e8e 8ebe
00000020: 6f44 c0bc ce82 a8bd 0001 1bbe 9221 06bf
00000030: 1ac3 2c3e cd96 33be 6944 5c3e 6ff1 1a3e
00000040: a947 6ebe 81c3 0cbe 632d 513d 4f5a 543d
00000050: e31f c3bc 0887 a53e a66e 0dbe a919 3d3e
00000060: 1ac9 25bb 0172 563d ab80 b5be 97db c6bd
00000070: bb9d 213c a12f 383e c1c1 303e 9c1e 29be
00000080: 6fb8 e93d d27c adbe 5a28 b5bd 9468 79bd
00000090: fab6 f6bd b405 5b3c 512a c53c 26ff 553d
000000a0: 3db4 583e 636d 0d3e 05ad 003e bd3e 803c
000000b0: 9659 9dbd 8dcb afbc 7cda 34bd 8c46 bd3d
000000c0: 8bb8 3bbd a72b 85bc 732b b43d 1e22 413e
000000d0: 1437 16bc 27c7 abbd ca9b 903d 513e 0fbe
000000e0: 811c ed3d 470c 00bf d953 8cbe 92b0 c93d
000000f0: 444c e33d ab75 a6bd 1f7d d2be 8c35 36bd
00000100: e832 95bd d8f8 663d 6917 833d 0d81 603e
00000110: 925a 863d d37c b43d 5a15 003d 9556 0e3e
00000120: 3e4c 923d dd4d da3d 9c1d 383e 0a61 ddbd
00000130: bdc6 23bd b0bf 08be 49fc f9bd ecf4 31bd
00000140: a325 d93d 834a a3bd db00 cdbd 5aa8 0f3e
00000150: d0ca e33d 41c9 91bc 96c8 433f 6e1b 963e
00000160: dba6 b13d bb75 89bd b975 8d3c 0922 803e
00000170: e05f d3bc 24c7 2ebe 5a90 433e 096f 683e
00000180: 2aed 14be 7924 4abd 5b05 7d3e 7351 a0bd
00000190: 3900 1dbe ac78 1c3d 3550 e1bd 25e6 083e
000001a0: 7c1c 24be f6a7 253d 4f13 d6bc 535f 20be
000001b0: 4b7c 033e 9e7c 9c3d efd0 be3c cd08 56be
000001c0: b0e3 5c3d 9f74 013e aebd dc3e 935d 653e
000001d0: 5ae4 143e 4ca2 e63d 4fe4 42be 84c4 443d
000001e0: 01bd 633e 66c6 c63e fe6f e6bd 985c 78bd
000001f0: b092 143c 0ee0 bebd 8862 72bd 24b3 bebc
00000200: 539f e8bd 887a d3bd 6441 a93d f7c7 f33d
00000210: 8ff8 473e c35f 463d d64e 2b3d 5011 91bd
00000220: d098 163e 5f66 d2be 5e38 653e de21 7bbb
00000230: 5c75 2d3d 1bba a53e 0a17 1a3e 100b 043e
00000240: abfb cc3b c149 66be 8d0c be3d fbed b8bb
00000250: 5bbe 1dbe 085d 4cbe f153 5cbe 79d9 27be
00000260: 9ec2 01be bcb7 3abe 9f0a 7b3d 5ef8 c53d
00000270: 56b9 f5bc bbfa 01be 25fc 13bd b27f 113e
00000280: 6a33 ee3d 6d82 13be db87 e1bd ae20 94be
00000290: c5b2 183d 731b 8d3d 7053 b4be bb0a b63d
000002a0: e2bc 5abf 4c2b bd3d d31a 0c3e 9b6a c33d
000002b0: 7ff2 7fbe 1828 2bbe 4fd3 1f3b 8276 7a3c
000002c0: 7155 e43a 381e 773e 484e 033e 495e bcbd
000002d0: 5795 f53b ceaf 00be 0d42 313e bca9 abbb
000002e0: 518f cfbc 0b3f 043d 634d e9bc 60d4 1abe
000002f0: 3ce6 e13d aee7 e8bc e4b4 19bf a741 0e3e
00000300: 212a 26be 4955 663e d169 aa3d fd4f cc3d
00000310: 26b5 c13d 256d 7c3e 01ab 003e 0865 493e
00000320: 413b 93bd 5ed8 bd3d 294f e93c c3e9 3f3e
00000330: 61df d43b 6f21 94bd be05 ba3d 00a6 0fbe
00000340: ef3f 08bc 9782 e4bd 314f 26bb fbdf e43d
00000350: 0cd6 6bbc 78cc 9abd acc0 933d 9569 063f
00000360: e091 993c 2c7b 3c3d 4799 44bf 3a6c dfbd
00000370: b7bc 0abe c252 b53d 7834 343e 874c 0a3e
00000380: 1cf4 283e da01 86bd 50e3 56bd fa31 a3bd
00000390: cb0d e3bc 7338 243e 679a c53d 39ce 6dbd
000003a0: f0ed 0abe 58d0 08be c79e 49be 485e 58be
000003b0: 5029 2dbd 558d b33d c24c 8fbd 5518 d1be
000003c0: 9562 ddbe 5262 0d3e 27f2 26be 0431 f2bc
000003d0: 760d 063e 6fb3 283e f020 853d bf57 b3bd
000003e0: 6b8b b63d 4701 f43d a153 94bd 8999 02be
000003f0: 6d9e 843d dc7b 9ebd e0a0 d13c 46e9 8d3e

self_entity_fc1.bias f4 [32]
-0.010335674 0.2764701 0.03420881 -0.24361457 -0.07329744 -0.1283679 0.2730267 0.12384119
0.2186353 0.15131827 0.08271587 0.22177237 0.014937193 -0.02793627 -0.11811538 -0.039105035
0.14940064 0.1668449 0.2362577 0.068814605 0.23098476 0.13358639 0.24219951 -0.06307488
0.24330148 0.10584951 -0.22066523 0.052948322 0.38020524 0.51063377 -0.050213687 0.025576778
00000000: f556 29bc 7d8d 8d3e 8a1e 0c3d 1976 79be
00000010: f81c 96bd e072 03be 28ca 8b3e 73a0 fd3d
00000020: efe1 5f3e 2df3 1a3e f066 a93d 4c18 633e
00000030: 21bb 743c 9bda e4bc 7ae6 f1bd 9a2c 20bd
00000040: 7bfc 183e 64d9 2a3e 8aed 713e acee 8c3d
00000050: 4587 6c3e dfca 083e 2603 783e 672d 81bd
00000060: 0624 793e a1c7 d83d 11f6 61be 57e0 583d
00000070: 43aa c23e e5b8 023f deac 4dbd 6486 d13c

self_entity_fc2.weight f4 [32, 32]
-0.1171923 0.13867414 0.3834565 -0.38266128 0.22562724 0.10065481 -0.08711938 0.2319641
-0.21688867 -0.04256223 0.09598971 -0.1941656 -0.01645769 0.196808 -0.3269268 0.09910651
0.076320104 0.08976669 0.1058457 -0.045312673 0.015677188 -0.019941965 -0.05711388 0.23216149
0.03508005 0.10887761 -0.35243493 0.2267451 0.5455709 0.5539852 0.20193417 -0.024991099
0.2770388 0.10259893 -0.07831506 0.078941785 -0.55789137 -0.1483888 0.843426 -0.09935521
0.5288901 -0.050075132 0.2904182 0.55332345 0.051535282 -0.57385314 0.13351932 0.15630536
0.16752781 0.029539268 0.008299915 -0.23716605 0.042114604 0.16566384 -0.14216238 -0.15580398
-0.27204132 0.08045306 -0.14849627 -0.13288988 -0.5692988 -0.60414225 -0.13755979 -0.101218596
-0.039961614 -0.110928744 -0.44162688 -0.26072285 0.2277927 -0.17996159 0.04486242 0.13477357
-0.76745844 -0.067833126 0.08884098 -0.14762126 -0.08503658 -0.7167852 -0.3076885 0.02378738
-0.0022491622 0.1277127 0.24424152 -0.22345114 0.0037501398 -0.018228035 0.090745166 0.21993218
0.110555485 0.16703819 -0.42947662 -0.06824571 -9.57348e-05 -0.10882897 -0.1032177 -0.09230767
0.048911378 -0.11907212 -0.25974756 0.14284301 0.14542417 0.21674787 0.018032055 -0.41140512
-0.2780489 -0.21653257 -0.5747896 0.019103495 0.29681492 -0.47263235 0.32324898 0.16955115
0.090168275 0.18246815 -0.39302737 -0.03551797 -0.14060469 -0.067270786 -0.14270762 0.007218948
-0.008880848 -0.04222521 0.23689519 -0.4829925 0.16174242 0.10869397 -0.1261515 0.2009907
0.4383814 0.2557604 -0.07332051 -0.06273193 -0.38190758 -0.13675116 0.16437054 -0.16899788
0.5308984 -0.0038741129 0.22931403 0.56505525 0.14438549 -0.71997595 -0.027179286 0.22495675
0.19383332 0.011925913 -0.10187589 0.08689424 0.3031102 0.22849855 -0.008668088 0.15019122
-0.40775943 0.097922005 0.033370763 0.041241534 -0.4118441 -0.5172644 0.13008943 -0.01566574
0.19045754 0.32963234 0.2650168 -0.09512019 0.16358507 -0.02441946 0.032931387 0.07590358
0.7127499 -0.20441863 0.31883857 0.24311556 -0.2372335 0.30097562 0.18251337 0.14346343
0.15811515 0.05726426 -0.016515942 0.15710561 0.109626025 -0.050921664 0.09675425 -0.06497115
0.2425436 -0.15746038 -0.2145858 0.0885216 -0.29691586 -0.47357884 -0.090436995 -0.16118065
-0.058211304 0.1309118 0.0662622 -0.3227188 0.09792381 0.05134349 -0.3107794 0.040105674
-1.0303266 0.011504294 0.23074973 -0.08283004 -0.17630965 -0.94049263 -0.032874025 -0.098235056
0.13688691 0.19218826 0.1373076 0.038743153 0.17263003 -0.20394824 0.21727479 0.100898236
0.12528343 0.031153513 -0.4862545 0.2772605 -0.103960164 -0.083608255 -0.14413851 0.009419428
0.53479 0.10825352 0.08517795 -0.10206332 -0.065392174 -0.1961132 -0.5447343 -0.0022767452
0.31693685 0.053848922 0.081561245 0.51439923 -0.046929482 -0.8305933 0.008552817 0.044673495
0.0032603682 -0.040225293 0.016421549 0.082985565 0.18887961 -0.041148048 -0.042686302 0.28439167
-0.3205135 0.096927255 -0.05114555 -0.049552917 -0.41313958 -0.38705736 0.14635435 0.05144017
00000000: 8402 f0bd 9800 0e3e 6954 c43e 2eec c3be
00000010: d40a 673e 1c24 ce3d a56b b2bd ff87 6d3e
00000020: 1018 5ebe bc55 2ebd 4196 c43d 59d3 46be
00000030: 47d2 86bc 0988 493e f362 a7be 5bf8 ca3d
00000040: b74d 9c3d 99d7 b73d a1c5 d83d c899 39bd
00000050: 726d 803c 555d a3bc 3ef0 69bd bebb 6d3e
00000060: 19b0 0f3d 39fb de3d 5a72 b4be de2f 683e
00000070: 89aa 0b3f f9d1 0d3f d5c7 4e3e 22ba ccbc
00000080: 08d8 8d3e 631f d23d a563 a0bd 3bac a13d
00000090: f8d1 0ebf 3cf3 17be c4ea 573f bf7a cbbd
000000a0: 5765 073f 951b 4dbd b2b1 943e 9ba6 0d3f
000000b0: a916 533d 0ae8 12bf 4ab9 083e 830e 203e
000000c0: 698c 2b3e 56fc f13c 5efc 073c a8db 72be
000000d0: 5d80 2c3d c8a3 293e 0493 11be 148b 1fbe
000000e0: 0049 8bbe 93c4 a43d 680f 18be 4914 08be
000000f0: 91bd 11bf 11a9 1abf 79dc 0cbe b24b cfbd
00000100: caae 23bd 9c2e e3bd eb1c e2be 777d 85be
00000110: 7d42 693e da47 38be a8c1 373d 1502 0a3e
00000120: 2878 44bf 18ec 8abd 42f2 b53d 072a 17be
00000130: a927 aebd 3c7f 37bf 5989 9dbe c0dd c23c
00000140: ae66 13bb 1ec7 023e 731a 7a3e 60d0 64be
00000150: e8c4 753b f652 95bc 9ad8 b93d e735 613e
00000160: ea6a e23d 0f0c 2b3e 5ce4 dbbe 68c4 8bbd
00000170: 3bc5 c8b8 b9e1 debd cd63 d3bd ce0b bdbd
00000180: 4c57 483d 15dc f3bd a2fd 84be 7045 123e
00000190: 13ea 143e 27f3 5d3e f6b7 933c b1a3 d2be
000001a0: 6d5c 8ebe b7ba 5dbe 6925 13bf ef7e 9c3c
000001b0: 20f8 973e defc f1be e480 a53e d19e 2d3e
000001c0: 25aa b83d eed8 3a3e e23a c9be 4a7b 11bd
000001d0: adfa 0fbe 44c5 89bd f221 12be ed8c ec3b
000001e0: fa80 11bc 58f4 2cbd a794 723e cb4a f7be
000001f0: ce9f 253e f29a de3d dc2d 01be 82d0 4d3e
00000200: 8773 e03e 07f3 823e 1029 96bd 9979 80bd
00000210: 6489 c3be 7f08 0cbe c050 283e c80d 2dbe
00000220: f5e8 073f d4e4 7dbb 4cd1 6a3e 76a7 103f
00000230: cad9 133e 5850 38bf 18a7 debc 105b 663e
00000240: 3e7c 463e e864 433c 4ea4 d0bd 9bf5 b13d
00000250: 4331 9b3e 86fb 693e 9904 0ebc bacb 193e
00000260: d8c5 d0be 558b c83d c8af 083d e2ec 283d
00000270: 3bdd d2be 716b 04bf 2a36 053e 7055 80bc
00000280: 4d07 433e 92c5 a83e 48b0 873e 60ce c2bd
00000290: d882 273e 520b c8bc 10e3 063d 5673 9b3d
000002a0: c776 363f 1e53 51be cf3e a33e 49f3 783e
000002b0: 57ed 72be 7a19 9a3e c9e4 3a3e 14e8 123e
000002c0: f0e8 213e ee8d 6a3d 714c 87bc 4be0 203e
000002d0: 9c83 e03d 3c93 50bd 1827 c63d 980f 85bd
000002e0: 595d 783e 4b3d 21be 61bc 5bbe d04a b53d
000002f0: 5b05 98be ed78 f2be 0837 b9bd 8a0c 25be
00000300: fa6e 6ebd be0d 063e 7ab4 873d 663b a5be
00000310: 478c c83d 8d4d 523d 7a1e 9fbe d945 243d
00000320: bee1 83bf 827c 3c3c a849 6c3e cca2 a9bd
00000330: 848a 34be 20c4 70bf eaa6 06bd 762f c9bd
00000340: 152c 0c3e 00cd 443e 5d9a 0c3e 24b1 1e3d
00000350: edc5 303e cfd7 50be 487d 5e3e bca3 ce3d
00000360: 4d4a 003e a735 ff3c 5af6 f8be 17f5 8d3e
00000370: 11e9 d4bd ce3a abbd 0c99 13be f253 1a3c
00000380: ffe7 083f 06b4 dd3d c771 ae3d 9306 d1bd
00000390: 55ec 85bd e6d1 48be b573 0bbf 7235 15bb
000003a0: 8c45 a23e b090 5c3d 9509 a73d abaf 033f
000003b0: 2139 40bd c3a1 54bf 1d21 0c3c 8efb 363d
000003c0: e7ab 553b 47c3 24bd 7c86 863c 56f4 a93d
000003d0: a869 413e db8a 28bd d5d7 2ebd c99b 913e
000003e0: 581a a4be cc81 c63d ff7d 51bd 00f8 4abd
000003f0: 0887 d3be 622c c6be eadd 153e edb2 523d

self_entity_fc2.bias f4 [32]
0.11370071 0.08017343 -0.014714586 -0.067353755 0.2130209 -0.021198831 -0.03918311 0.27617326
-0.06855162 -0.12558658 0.10546644 -0.0022088708 -0.15343446 0.10012079 -0.042855196 -0.11821373
-0.10612934 -0.13516168 -0.05156831 -0.11453186 0.13500783 0.1292525 0.045053273 -0.18761142
0.07231558 -0.0315013 -0.062869 -0.160577 0.112061396 -0.083891995 0.12109365 0.19796559
00000000: ebdb e83d f831 a43d 7215 71bc c4f0 89bd
00000010: 2722 5a3e 2ca9 adbc 787e 20bd 9566 8d3e
00000020: cb64 8cbd c599 00be cafe d73d b4c2 10bb
00000030: ec1d 1dbe 210c cd3d ee88 2fbd 0a1a f2bd
00000040: 575a d9bd d367 0abe 4b39 53bd ae8f eabd
00000050: 7e3f 0a3e c45a 043e c889 383d 351d 40be
00000060: 311a 943d 8207 01bd 76c1 80bd 4c6e 24be
00000070: 7280 e53d 91cf abbd f3ff f73d 7eb7 4a3e

other_entity_fc1.weight f4 [32, 26]
0.10366138 -0.18817466 0.11005191 -0.02069272 -0.35077903 -0.13274854 -0.37480724 -0.4796584
0.14371374 -0.18565014 0.14932005 0.009971115 -0.13567363 -0.055532623 0.060758285 0.00043196703
-0.1507262 -0.13204545 -0.15101123 0.04623898 0.027875576 0.065656975 -0.10979539 -0.16363935
-0.12428447 0.5919077 0.08092142 0.22269072 -0.045377247 -0.046099186 -0.16917686 0.20804842
-0.16411896 -1.170187 0.018973723 0.17695649 0.13869621 0.24393064 0.15807515 0.060753874
-0.11167892 -0.13631122 0.1504063 -0.030092822 0.059363708 0.14725582 -0.09671796 0.11142639
-0.30356506 -0.18257038 -0.12983772 -0.45636278 0.14871757 0.025548803 0.051399905 -0.1522069
-0.096606895 -0.28833243 -0.036514133 0.16582565 0.11453122 0.17658763 -0.25565478 -0.37353453
0.042913403 -0.021287935 0.03703395 -0.08242202 0.12974927 -0.15941402 -0.02238253 -0.20290707
-0.14827764 0.05340523 0.2483479 0.10343411 -0.09154116 -0.062058248 0.024875294 -0.048320655
-0.13554537 0.16939934 -0.009478197 0.0018357544 -0.28342742 0.9544882 0.2695189 -0.0980112
-0.1308772 -0.12887555 0.18671133 -0.09346026 -0.2588909 0.08408467 0.08832957 0.038007524
0.025091868 -0.015437067 0.04684295 0.1089506 -0.570781 0.22268775 0.015747784 -0.26308563
0.04831145 -0.07256946 -0.0033409283 -0.5758269 -0.19550441 -0.29324463 0.005969204 0.15151575
-0.61636907 -0.40077838 0.017762389 -0.06547621 0.03558653 0.059255645 0.009045213 0.26113412
-0.018774528 0.16940823 0.16222084 0.27013835 -0.08988246 0.108122095 0.26557413 -0.36640665
0.21094386 -0.088075675 -0.03801929 0.1536639 0.06728076 -0.07436217 0.061096825 0.4016365
-0.07148978 -0.47965175 0.37070295 0.23847082 -0.11046113 -0.18275976 -0.25924057 0.08051559
-0.091652595 0.029302226 0.1358571 0.023161678 -0.016559143 -0.1267886 -0.16042428 -0.24505258
0.20018776 0.036147386 0.14799042 0.13971916 -0.33973354 -0.044054613 0.20326725 -0.064190924
0.07378362 0.18336868 -0.2299865 0.5029613 0.2589128 0.09311993 -0.80536115 -0.034514237
0.026646381 0.08731006 0.08545024 0.1440292 0.10999939 0.023585256 -0.073225714 0.13767743
0.053848118 0.27211326 0.1414827 -0.028501637 -0.014938742 -0.44406986 0.13711861 -0.17318265
-0.035453077 -0.082548834 0.045931514 -0.005082 0.0035461157 -0.03444162 -0.36652914 -0.45713076
0.0035531453 -0.12290285 0.019434558 -0.33607605 -0.02360471 0.10430756 -0.17575772 -0.12600356
-0.04756253 -0.22000107 -0.04986708 -0.1813149 -0.35533896 0.074408956 -0.4323514 0.2994931
-0.15557311 0.03188438 -0.049784478 -0.024044262 -0.01257381 0.09573221 -0.4256906 -0.45487186
-0.2974418 -0.16652411 0.11684036 -0.072256334 0.09259108 -0.20996077 -0.031586464 0.1022912
-0.02977326 0.18658516 0.023768157 0.004436307 -0.035329532 -0.0021150273 -0.283956 -0.17567696
0.40035838 0.124758884 -0.35775384 -0.068855904 0.1602863 0.061904117 -0.09341967 -0.021641212
0.07436673 -0.47233748 -0.19458638 0.08280891 -0.090630256 0.025611103 -0.108427346 0.10452474
0.04686808 0.04979874 0.041019894 0.032735623 0.05505609 -0.061103422 0.041795954 0.08237864
00000000: 6b4c d43d dcb0 40be e562 e13d c783 a9bc
00000010: 4f99 b3be 3cef 07be bce6 bfbe c995 f5be
00000020: b229 133e 121b 3ebe 5be7 183e e35d 233c
00000030: 07ee 0abe 2d76 63bd aedd 783d a279 e239
00000040: f857 1abe ec36 07be b0a2 1abe 1665 3d3d
00000050: 525b e43c 2a77 863d 68dc e0bd 1391 27be
00000060: db88 febd 4387 173f 21ba a53d 0909 643e
00000070: 7edd 39bd 80d2 3cbd b33c 2dbe a50a 553e
00000080: cd0e 28be b0c8 95bf c86e 9b3c 1534 353e
00000090: 6106 0e3e f4c8 793e 74de 213e 0ed9 783d
000000a0: ebb7 e4bd 2b95 0bbe 1c04 1a3e 3985 f6bc
000000b0: 5c27 733d 3bca 163e 1114 c6bd 8533 e43d
000000c0: e16c 9bbe bbf3 3abe 2ef4 04be 62a8 e9be
000000d0: 6b49 183e b94b d13c b588 523d 20dc 1bbe
000000e0: d6d9 c5bd 4fa0 93be d88f 15bd 33ce 293e
000000f0: 588f ea3d 63d3 343e 2fe5 82be eb3f bfbe
00000100: f7c5 2f3d 0964 aebc e9b0 173d e0cc a8bd
00000110: fedc 043e 6e3d 23be 915b b7bc dfc6 4fbe
00000120: 18d6 17be 71bf 5a3d e94e 7e3e 43d5 d33d
00000130: ef79 bbbd ca30 7ebd 46c7 cb3c e1eb 45bd
00000140: 68cc 0abe 0577 2d3e 714a 1bbc b29d f03a
00000150: 661d 91be 5759 743f 62fe 893e 19ba c8bd
00000160: ac04 06be f4f7 03be 4131 3f3e 1868 bfbd
00000170: 598d 84be 9534 ac3d 22e6 b43d c7ad 1b3d
00000180: 768d cd3c c0eb 7cbc 65de 3f3d 7e21 df3d
00000190: b41e 12bf 4208 643e 7f01 813c 29b3 86be
000001a0: 3ae2 453d 4c9f 94bd 7af3 5abb 6469 13bf
000001b0: 4f32 48be 2924 96be 5099 c33b f226 1b3e
000001c0: 5dca 1dbf d332 cdbe 6e82 913c 6418 86bd
000001d0: 2ec3 113d 0cb6 723d 6032 143c 5fb3 853e
000001e0: 0acd 99bc 5a79 2d3e 381d 263e 934f 8a3e
000001f0: 4c14 b8bd 1e6f dd3d 55f9 873e a799 bbbe
00000200: ab01 583e 0561 b4bd 1dba 1bbd 125a 1d3e
00000210: 7fca 893d 324b 98bd aa40 7a3d 4da3 cd3e
00000220: 3c69 92bd ea94 f5be c7cc bd3e b231 743e
00000230: 7239 e2bd 6025 3bbe 2ebb 84be 5ce5 a43d
00000240: 5bb4 bbbd 390b f03c 201e 0b3e 8fbd bd3c
00000250: 0aa7 87bc dfd4 01be 4346 24be 10ef 7abe
00000260: 05fe 4c3e 480f 143d cd8a 173e 8a12 0f3e
00000270: 8ef1 adbe 9c72 34bd 4a25 503e 8876 83bd
00000280: de1b 973d 00c5 3b3e 9581 6bbe 12c2 003f
00000290: 3890 843e a9b5 be3d 262c 4ebf cd5e 0dbd
000002a0: 8349 da3c 9ecf b23d 8900 af3d 647c 133e
000002b0: 5c47 e13d de35 c13c 5df7 95bd 50fb 0c3e
000002c0: d88f 5c3d 6e52 8b3e d7e0 103e 447c e9bc
000002d0: a0c1 74bc 205d e3be d268 0c3e cb56 31be
000002e0: 3f37 11bd 5d0f a9bd af22 3c3d e886 a6bb
000002f0: f365 683b a812 0dbd b5a9 bbbe 0b0d eabe
00000300: e3db 683b 7db4 fbbd 3935 9f3c 2912 acbe
00000310: aa5e c1bc 349f d53d d5f9 33be 1407 01be
00000320: edd0 42bd f647 61be 6c41 4cbd 9daa 39be
00000330: fdee b5be b963 983d 2a5d ddbe 2957 993e
00000340: 8f4e 1fbe 3299 023d cfea 4bbd 79f8 c4bc
00000350: 6202 4ebc 400f c43d 1ef4 d9be f7e4 e8be
00000360: 4b4a 98be 4c85 2abe 004a ef3d 21fb 93bd
00000370: 64a0 bd3d f5ff 56be cf60 01bd 0c7e d13d
00000380: 0de7 f3bc 2e10 3f3e 70b5 c23c 715e 913b
00000390: b3b5 10bd 459c 0abb ae62 91be a9e4 33be
000003a0: c6fb cc3e 9681 ff3d 832b b7be 5304 8dbd
000003b0: 1822 243e 2c8f 7d3d d052 bfbd e948 b1bc
000003c0: 964d 983d 38d6 f1be a741 47be b897 a93d
000003d0: 5b9c b9bd 60ce d13c 280f debd 1111 d63d
000003e0: bef8 3f3d c3f9 4b3d 7a04 283d ca15 063d
000003f0: 7f82 613d 9547 7abd 3c32 2b3d 22b6 a83d

other_entity_fc1.bias f4 [32]
-0.102020204 -0.17057978 -0.08550035 -0.016723646 -0.027160076 -0.28112075 -0.0779708 -0.08744833
-0.037742592 -0.012250367 -0.033970874 -0.01065423 -0.015404844 -0.18775098 -0.011561471 -0.23655428
-0.0074012773 -0.008561569 -0.019585593 -0.1910311 -0.044372305 -0.12545249 -0.02914684 -0.011061922
-0.009397355 0.040930916 -0.04305964 -0.08487704 -0.029479815 -0.027160218 0.02682839 -0.080028735
00000000: f8ef d0bd 77ac 2ebe cf1a afbd 0700 89bc
00000010: cf7e debc 0fef 8fbe 28af 9fbd 1c18 b3bd
00000020: fa97 1abd c3b5 48bc 0b25 0bbd 148f 2ebc
00000030: 9964 7cbc cb41 40be 536c 3dbc 493b 72be
00000040: 6a86 f2bb d345 0cbc f771 a0bc a89d 43be
00000050: bcbf 35bd 9e76 00be 5bc5 eebc 103d 35bc
00000060: 5df7 19bc 2da7 273d 4e5f 30bd 03d4 adbd
00000070: a77f f1bc 1b7f debc 36c7 db3c 1be6 a3bd
