my-submission/checkpoints/model_1696256.pt (torch, 352797 bytes, 23 tensors)

local_map_cnn.0.weight f4 [32, 24, 3, 3]
0	0xbd550015	-0.05200203
1	0x3d56c717	0.05243596
2	0x3e13e132	0.14441374
3	0x3ce63e07	0.028105749
4	0xbd050390	-0.0324741
5	0x3dab4299	0.08362312
6	0xbdc0e0be	-0.09417866
7	0xbdaaf182	-0.08346845
8	0x3dd45c70	0.103691936
9	0x3d716f7c	0.05894421
10	0xbd307318	-0.043078512
11	0xbe249383	-0.16071896
12	0x3dc58e8a	0.09646328
13	0xbcb83716	-0.022487205
14	0x3e0683d6	0.13136229
15	0xbc5148ed	-0.0127737345
16	0xb980fd58	-0.00024602818
17	0xbe38e51a	-0.18056145
18	0xbca37a51	-0.019955786
19	0x3ccab4c2	0.024744395
20	0x3de0cd7c	0.10976693
21	0x3cbc8c09	0.023015993
22	0xbd8c74ca	-0.06858213
23	0xbeb640a0	-0.3559618
24	0xbd36ad7a	-0.044599034
25	0xbd513d4f	-0.05108386
26	0x3d81bd1c	0.06334898
27	0x3be6574e	0.0070294505
28	0x3ca4bff3	0.02011106
29	0x3e113c1d	0.14183088
30	0xbd259fb8	-0.040435523
31	0xbd8d4b7c	-0.06899163
32	0xbeae9d7d	-0.3410453
33	0xbdae9829	-0.08525116
34	0xbd92a800	-0.0716095
35	0x3c69182a	0.014226953
36	0xbcf45352	-0.029824886
37	0xbc2a7ba3	-0.010405454
38	0x3dc73a65	0.09727935
39	0xbd0bdfdd	-0.03414904
40	0x3ceba462	0.028764907
41	0x3d61ba46	0.055109285
42	0xbc38e332	-0.011284636
43	0xbd6ef399	-0.05833778
44	0x3dc35cf6	0.09539215
45	0x3da6e44b	0.08149012
46	0x3d8c4cf1	0.06850613
47	0xbe1f58c9	-0.15561213
48	0x3d59e9e2	0.053201564
49	0x3cd1821a	0.025574733
50	0x3e2ba049	0.16760363
51	0x3cf9d1bf	0.030495523
52	0x3d387547	0.04503372
53	0xbe82680d	-0.2547001
54	0xbd8859e6	-0.06657772
55	0xbd927c61	-0.0715263
56	0xbe2e1dee	-0.17003605
57	0xbd23a326	-0.039950512
58	0xbe4dbcac	-0.20091504
59	0xbe210bbe	-0.15727136
60	0xbd2d53ce	-0.04231625
61	0xbe0a7216	-0.13520083
62	0xbc092d2b	-0.008372585
63	0xbcbf588e	-0.023357656
64	0xbd85d59b	-0.06534883
65	0x3cccf2ed	0.02501818
66	0xbc9472f6	-0.018121224
67	0xbe223b72	-0.15842989
68	0xbdcdcd77	-0.10048955
69	0xbde0f173	-0.10983553
70	0xbdc0b2ae	-0.094090804
71	0xbd4ee1fb	-0.05050848
72	0xbd6f2ecf	-0.05839425
73	0x3c8b6c5d	0.017019445
74	0x3dae4d00	0.0851078
75	0xbdfc0f1d	-0.1230757
76	0xbe93bdf1	-0.2885585
77	0xbdc9136f	-0.0981816
78	0xbdb2a8a7	-0.08723574
79	0xbce41a4d	-0.027844572
80	0x3d180b07	0.03711989
81	0xbd5e9c80	-0.05434847
82	0xbc01e9f2	-0.007929312
83	0xbca96c61	-0.020681562
84	0x3c398f87	0.0113257235
85	0xbd571849	-0.052513395
86	0xbe7cf8c2	-0.24704269
87	0x3d8a2abd	0.06746433
88	0xbdda6b87	-0.106650405
89	0x3ce3b79f	0.027797518
90	0xbdfaf443	-0.122536205
91	0x3e2e784f	0.17038082
92	0x3ba81322	0.005129234
93	0xbc8d7c36	-0.017271142
94	0xbddd9c78	-0.1082086
95	0xbeb06313	-0.34450588
96	0xbd780629	-0.06055275
97	0xbda21c99	-0.07915611
98	0x3d74e6b1	0.059790317
99	0xbd9b613e	-0.07586907
100	0xbd97898a	-0.0739928
101	0x3b946811	0.0045290072
102	0xbdfa1c34	-0.122124106
103	0xbdca22a6	-0.0986989
104	0xbe0408b4	-0.12893945
105	0x3d0b1ef6	0.033965074
106	0xbd3c3d73	-0.04595704
107	0xbd5846d9	-0.05280194
108	0x3bd3ffba	0.006469694
109	0x3bbe309e	0.0058041355
110	0x3dac965f	0.084271185
111	0xbe24359c	-0.16036075
112	0xbdbd0229	-0.09228928
113	0xbe9528b6	-0.29132622
114	0xbdb1c8d3	-0.08680882
115	0xbe20a9a3	-0.15689711
116	0x3cb91a14	0.022595443
117	0x3d228664	0.039678946
118	0xbd89ddd9	-0.06731767
119	0x3dabf65f	0.08396601
120	0xbce53a10	-0.027981788
121	0x3d3650ee	0.044510774
122	0xbe28a608	-0.16469586
123	0xbe072323	-0.13196997
124	0xbd4ec62b	-0.050481956
125	0x3cdb42fd	0.026765341
126	0xbd8859c6	-0.06657748
127	0xbccdf0ca	-0.025139231
128	0xbe141b06	-0.14463434
129	0x3cac90c8	0.02106513
130	0xbd1a7dbf	-0.037717577
131	0x3de507f6	0.11183159
132	0xbd9cf6a6	-0.07664232
133	0x3cac5b5d	0.02103966
134	0xbe25860f	-0.1616442
135	0xbcff07c6	-0.031131636
136	0xbceda72e	-0.029010382
137	0x3e1041c1	0.14087583
138	0x3d42614a	0.047456063
139	0x3a38742b	0.00070363533
140	0xbdbb1207	-0.09134298
141	0xbc2cc673	-0.010545361
142	0x3c7874d9	0.015164577
143	0x3e82839d	0.25491038
144	0x3d935843	0.07194569
145	0x3dd3035f	0.10303377
146	0x3e1a3aa7	0.15061437
147	0x3c2430fd	0.010021445
148	0xbd0b23c3	-0.033969652
149	0xbefb5d40	-0.49094582
150	0x3d07a24b	0.03311376
151	0xbd77ab1f	-0.06046593
152	0x3e402bbe	0.18766686
153	0xbd512358	-0.051059097
154	0xbda05bb6	-0.078299925
155	0xbd97a667	-0.074047856
156	0xbd3ae4dc	-0.045628414
157	0xbd61011f	-0.05493271
158	0xbce8b2a2	-0.028405491
159	0x3cf4978d	0.029857421
160	0xbd3fb3a6	-0.046802185
161	0xbe213d29	-0.15745987
162	0x3e12aad8	0.14322984
163	0xbd5966f0	-0.053076684
164	0x3e970709	0.29497555
165	0xbce1e6dc	-0.027575903
166	0x3c0d2293	0.0086142
167	0x3ef97ae2	0.48726565
168	0x3e72c55e	0.23708102
169	0x3d46440c	0.04840474
170	0x3ec3add3	0.38218555
171	0xbbb75b32	-0.005595588
172	0x3d04fc9e	0.032467477
173	0x3c9a2efd	0.018821234
174	0x3c675331	0.0141189555
175	0xbd8ed089	-0.06973369
176	0x3d72ab7e	0.05924558
177	0x3d6cda4b	0.057825368
178	0x3deb28ec	0.114824146
179	0xbd40319c	-0.04692231
180	0xbe2e1d74	-0.17003423
181	0xbdf0523e	-0.117344365
182	0xbdacf64f	-0.08445417
183	0x3b876efe	0.0041331043
184	0xbe5437a4	-0.2072435
185	0xbe0a14a4	-0.13484436
186	0xbe04d818	-0.12973058
187	0xbde18b1f	-0.11012863
188	0x3c672564	0.014108036
189	0x3ef07141	0.46961406
190	0x3f2583ab	0.64654034
191	0x3ea2f7b3	0.31829605
192	0x3f27b758	0.65514135
193	0x3f1241c3	0.57131594
194	0x3eeb7f61	0.4599562
195	0xbd70bd4c	-0.058774278
196	0x3e9e323a	0.30897695
197	0x3db508b1	0.088395484
198	0x3ede8c20	0.43466282
199	0x3f07af94	0.53002286
200	0x3d8195a5	0.063273706
201	0x3f48f0d5	0.7849248
202	0x3f386cb9	0.720409
203	0x3d2bbc2e	0.04192751
204	0x3e1ddf97	0.15417324
205	0x3ee3d213	0.4449621
206	0x3e9bdf84	0.30443966
207	0x3e0b7a73	0.1362093
208	0x3d5b94cd	0.053608704
209	0x3d9f659f	0.077830546
210	0x3d92c6fa	0.07166858
211	0xbc969f33	-0.018386459
212	0xbdcac1ad	-0.09900222
213	0x3db6a2b0	0.08917749
214	0xbcc398e2	-0.023876611
215	0xbce54d5b	-0.027990988
216	0x3d122bef	0.03568643
217	0xbc9ab0d0	-0.018883139
218	0x3d8c3b40	0.068472385
219	0xbd1f8782	-0.03894759
220	0x3d6d7dea	0.05798141
221	0x3d853230	0.06503713
222	0xbd723f88	-0.05914262
223	0x3d8cb1f0	0.068698764
224	0xbd301b13	-0.04299457
225	0x3bdfcd80	0.0068299174
226	0x3d9269de	0.07149099
227	0x3c287eca	0.010284135
228	0x3d28f902	0.041253097
229	0x3c5b5d75	0.013388981
230	0x3c34c703	0.011033776
231	0x3d3b9017	0.04579171
232	0x3db27204	0.08713153
233	0x3cc880bc	0.024475448
234	0xbc94fa81	-0.018185856
235	0xbbf3ac69	-0.0074363244
236	0x3d0d42b5	0.034487445
237	0xbcd7869f	-0.02630931
238	0xbd72db68	-0.059291273
239	0x3ceaa67b	0.028643837
240	0xbc8ef5b5	-0.017451147
241	0xbc5fe724	-0.013665948
242	0x3bf0a8b3	0.0073443293
243	0x3cef214e	0.029190686
244	0xbb4a56a0	-0.0030874386
245	0x3cb57adb	0.022153309
246	0x3cefc84c	0.029270314
247	0x3d30ce87	0.04316571
248	0x3d96c72c	0.07362208
249	0x3c7d5fe2	0.015464755
250	0x3d6bd848	0.05757931
251	0x3d311282	0.04323054
252	0x3d73a7aa	0.05948607
253	0x3d15fa75	0.036615808
254	0x3d450151	0.04809696
255	0xbd26867d	-0.0406556

local_map_cnn.0.bias f4 [32]
0	0xbbb3f9a0	-0.005492404
1	0xbd2619b0	-0.04055184
2	0xbc57949b	-0.013157989
3	0xbda9b682	-0.08286764
4	0x3d1f7dbf	0.03893828
5	0x3c492afd	0.012278316
6	0x3c968f95	0.018379012
7	0xbd3c6325	-0.04599299
8	0x3c28ef75	0.010310997
9	0xbdc31a13	-0.09526458
10	0x3c26b98b	0.010176073
11	0xbc9e302c	-0.01931008
12	0xbccdadd5	-0.025107304
13	0xbd0dcae5	-0.034617323
14	0xbd239eaa	-0.039946236
15	0xbe0d3e23	-0.13793235
16	0xbd1b7874	-0.03795667
17	0x3d3227ce	0.043494992
18	0x3d1bd5cd	0.038045693
19	0x3d3697af	0.04457825
20	0xbda88e17	-0.082302265
21	0x3d9f2500	0.07770729
22	0x3baa2da9	0.0051934314
23	0xbd5d3c51	-0.0540126
24	0xbd9a5023	-0.07534816
25	0xbd832ebf	-0.064054005
26	0xbd7b6c80	-0.06138277
27	0xbcbf3460	-0.023340404
28	0x3d629a6b	0.055323046
29	0x3d410ab9	0.047129367
30	0x3db1eed2	0.086881295
31	0x3c69c142	0.014267268

local_map_cnn.2.weight f4 [32, 32, 3, 3]
0	0x3e10ead8	0.14152086
1	0xbcef5297	-0.029214187
2	0xbdfb3816	-0.12266557
3	0xbe02afac	-0.12762326
4	0xbdf57a34	-0.11986199
5	0x3d724009	0.0591431
6	0xbeae7ddd	-0.340804
7	0xbcc81942	-0.024426106
8	0xbbe72a0e	-0.007054574
9	0xbd0d83a1	-0.03454936
10	0xbdafea6a	-0.08589633
11	0xbd4ad92f	-0.04952353
12	0xbd31840d	-0.043338824
13	0xbd85027a	-0.06494613
14	0xbd9aabe2	-0.07552315
15	0x3c780c86	0.015139705
16	0xbd68d853	-0.056846928
17	0xbdcd0def	-0.10012423
18	0x3ddda47d	0.10822389
19	0xbda7c936	-0.08192675
20	0x3cdfc7f1	0.02731702
21	0x3e1301c7	0.14356147
22	0x3e0a7483	0.13521008
23	0x3e47ac91	0.19499423
24	0xbd6a7e55	-0.057249386
25	0xbdf9d161	-0.12198139
26	0x3ba22408	0.004948143
27	0x3a436101	0.00074531144
28	0x3e43a2ad	0.19105025
29	0x3e305621	0.17220356
30	0x3d7699b3	0.060205173
31	0x3e807743	0.2509099
32	0x3e54536e	0.20734951
33	0xbe00cb4f	-0.12577556
34	0xbcc671b6	-0.024224143
35	0x3e0d19c5	0.13779362
36	0x3afc8072	0.0019264354
37	0xbd3c7df2	-0.04601855
38	0x3d786bec	0.060649797
39	0x3d28f8df	0.041252967
40	0xbe758184	-0.23975188
41	0xbd9ab5ba	-0.07554193
42	0xbb7c8c2f	-0.0038535704
43	0xbe1bdd46	-0.15221128
44	0xbd0fdf6b	-0.035125177
45	0xbdbb25ec	-0.091380924
46	0xbdee2007	-0.116272025
47	0x3a939a6f	0.0011261235
48	0xbd56f21a	-0.05247698
49	0xbe6fe862	-0.23428491
50	0xbdbf049a	-0.093270496
51	0x3ab84e7e	0.0014061478
52	0xbd4ffbff	-0.05077743
53	0x3d0c79e9	0.03429595
54	0xbc350adf	-0.011049955
55	0xbd16d5c4	-0.036824957
56	0xbd60e05b	-0.054901462
57	0xbd0492f7	-0.03236672
58	0xbd096857	-0.03354677
59	0xbdc2d3c0	-0.09513044
60	0xbcb50131	-0.022095295
61	0xbe1183d1	-0.1421044
62	0xbcbdec6f	-0.02318403
63	0x3dc7ff6a	0.09765513
64	0x3db17b10	0.086660504
65	0x3df0456e	0.11731993
66	0x3da252d1	0.07925952
67	0x3dea1e04	0.11431506
68	0x3e1bc509	0.15211882
69	0x3d203e12	0.039121695
70	0x3ddcb46c	0.107766
71	0x3e11344a	0.14180103
72	0x3dfa46c8	0.12220532
73	0x3e7a0693	0.2441657
74	0xbdcf41a6	-0.10119943
75	0x3dcda633	0.100414656
76	0xbda7472b	-0.08167871
77	0xbd0cc79d	-0.034370054
78	0x3db34b14	0.087545544
79	0xbca8ded7	-0.02061407
80	0xbdd20794	-0.10255352
81	0x3d442be1	0.04789341
82	0x3da81335	0.082067885
83	0x3cd6d38a	0.026223917
84	0x3d54127c	0.05177544
85	0x3dd14862	0.10218884
86	0x3d9cae6d	0.076504566
87	0xbcbecf30	-0.023292154
88	0x3d053e3b	0.03253005
89	0x3d23676b	0.03989355
90	0x3c2ffd35	0.010741522
91	0xbd503511	-0.050831858
92	0x3d807204	0.06271747
93	0x3d2f013e	0.042725794
94	0xbe005ee9	-0.12536205
95	0xbd5e1806	-0.05422213
96	0xbcf56ed0	-0.029960066
97	0xbe3862c1	-0.18006422
98	0x3d434c52	0.047680207
99	0x3e804f6e	0.250606
100	0x3c97dac7	0.018536938
101	0x3e47d439	0.1951455
102	0x3c5c80e5	0.013458465
103	0x3d87787f	0.0661478
104	0x3dc28570	0.094981074
105	0x3ce19b8c	0.02753999
106	0xbd7c9545	-0.061665792
107	0x3dbfffeb	0.09374984
108	0xbd09b043	-0.033615362
109	0x3d136d62	0.035992987
110	0xbca73d8c	-0.02041509
111	0x3e0d97a2	0.13827375
112	0xbd3a3abc	-0.04546617
113	0xbe35a441	-0.17738439
114	0x3ca41b10	0.020032436
115	0xbd04cf3a	-0.03242419
116	0x3c093a37	0.008375696
117	0x3d50ffd2	0.05102522
118	0x3df3e747	0.11909347
119	0x3d40eb97	0.047099676
120	0x3d7dc478	0.061954945
121	0xbccff63a	-0.025385965
122	0x3cf9fcb0	0.030515999
123	0x3cd5d682	0.026103262
124	0x3d7ba5f0	0.061437547
125	0x3ceb456a	0.028719623
126	0xbda13b4d	-0.07872639
127	0xbd859809	-0.06523139
128	0xbd7c9def	-0.061674055
129	0xbe0bc31d	-0.13648649
130	0xbcbc6d39	-0.0230013
131	0xbc3929f1	-0.0113015035
132	0xbde54daa	-0.11196454
133	0xbdf088ad	-0.11744819
134	0x3d0b53ef	0.034015592
135	0x3c7dc98e	0.015489949
136	0x3da09c74	0.07842341
137	0xbc75a292	-0.014992373
138	0xbd9344cc	-0.07190856
139	0x3da8eecd	0.08248673
140	0x3d2f33f6	0.042774163
141	0xbe53858f	-0.20656417
142	0xbbb17284	-0.0054152627
143	0xbbc4e359	-0.0060085473
144	0x3d931b89	0.07182986
145	0x3e2188e8	0.15774882
146	0x3d31a541	0.04337049
147	0x3e153855	0.1457227
148	0x3e70fd74	0.23534185
149	0x3cbfdfd2	0.023422156
150	0x3ce3972c	0.027782045
151	0x3daf1a79	0.08549971
152	0x3e161544	0.1465655
153	0x3d9f3351	0.0777346
154	0x3d8a1a42	0.067432895
155	0x3cf32e8c	0.029685281
156	0x3cb65440	0.02225697
157	0x3dd5fc14	0.10448471
158	0x3d367541	0.044545416
159	0xbd2a0489	-0.04150823
160	0x3da77696	0.08176915
161	0xbc767a57	-0.0150438165
162	0x3db5d1d4	0.08877912
163	0xbd3d2df7	-0.046186414
164	0x3d9b15de	0.0757253
165	0x3b21cf36	0.0024690158
166	0x3d1c0198	0.038087457
167	0x3e22ead2	0.1590989
168	0xbd186def	-0.037214216
169	0xbd51b305	-0.051196117
170	0x3da88cb2	0.082299605
171	0x3d42c338	0.047549456
172	0xbd8122b4	-0.06305447
173	0x3d00633e	0.031344645
174	0x3df1b2fd	0.118017174
175	0x3e3928e9	0.18082012
176	0x3dcfe18a	0.1015044
177	0x3d37e715	0.04489811
178	0x3d4e3bfd	0.050350178
179	0x3e24151e	0.1602368
180	0xbc274ec5	-0.010211651
181	0x3de3ce15	0.111232914
182	0xbc59c720	-0.013292104
183	0x3dbfd1ec	0.09366211
184	0x3c91c334	0.017793275
185	0x3db38e3f	0.08767366
186	0xbe099e8b	-0.13439386
187	0xbbbe4182	-0.005806149
188	0x3d15c885	0.036568183
189	0x3daaad02	0.0833378
190	0x3e234877	0.15945612
191	0xbc54bd1d	-0.012984541
192	0xbb8be242	-0.0042689154
193	0x3ca6b261	0.02034873
194	0x3d4f2f5c	0.050582275
195	0x3cbf8dcc	0.023383044
196	0xbdba6915	-0.09102074
197	0xbe00fd28	-0.12596571
198	0x3d33fa21	0.043939713
199	0x3d51de3a	0.051237322
200	0x3c3e6cb3	0.011622596
201	0x3c130854	0.008974154
202	0x3cfc1631	0.0307723
203	0x3d909f76	0.07061665
204	0x3ccef17f	0.025261639
205	0xbd46520e	-0.048418097
206	0xbc8b530e	-0.017007377
207	0x3c474c11	0.012164132
208	0xbd9848cb	-0.07435759
209	0x3c9d78df	0.019222675
210	0x3d48533c	0.048907503
211	0xbd8b7874	-0.06810084
212	0x3cb1e984	0.021717794
213	0x3dae8e58	0.08523244
214	0xbc52093a	-0.012819583
215	0x3da60f71	0.08108414
216	0xbdc1b630	-0.09458578
217	0x3de9e3a1	0.1142037
218	0xbd45bb44	-0.048274294
219	0xbd4f4a0a	-0.05060772
220	0x3e1ef2fc	0.15522379
221	0x3bdc1033	0.0067157983
222	0xbe2b5881	-0.1673298
223	0x3cd92246	0.0265056
224	0x3dc1f107	0.094698004
225	0x3dee1dd1	0.11626781
226	0x3da37a30	0.0798229
227	0x3de35f28	0.11102134
228	0x3d47ae44	0.048750177
229	0x3e1df585	0.1542569
230	0x3dda8023	0.106689714
231	0x3d6ff481	0.058582786
232	0x3d16cc57	0.036815967
233	0x3e0ea323	0.13929419
234	0x3ba184f9	0.0049291817
235	0xbdf83837	-0.12120097
236	0xbd46f3a1	-0.048572186
237	0xbe7ff3e5	-0.24995382
238	0x3d91c4ff	0.07117652
239	0xbecc97c1	-0.3995953
240	0xbbc4fb24	-0.0060113836
241	0xbd8c74be	-0.06858204
242	0xbd905711	-0.070478566
243	0xbccf0765	-0.02527208
244	0xbe67798e	-0.22604963
245	0x3c99229a	0.018693257
246	0xbe3033ea	-0.17207304
247	0xbeccc5db	-0.39994702
248	0xbd93d514	-0.07218376
249	0xbdf986d0	-0.121839166
250	0xbc5431a6	-0.01295129
251	0xbb645a82	-0.0034843986
252	0x3d718676	0.058966123
253	0x3d72bc8d	0.059261847
254	0x3dbea070	0.09307945
255	0x3d349476	0.044086896

local_map_cnn.2.bias f4 [32]
0	0xbcbf9c87	-0.023390068
1	0x3cb4a3bf	0.022050736
2	0xba6f8817	-0.00091374054
3	0xbc92784d	-0.01787963
4	0xbd75d8bc	-0.060021147
5	0xbe30f1f2	-0.17279795
6	0xbcffe4d3	-0.031237042
7	0x3d116ee1	0.035506133
8	0xbd8a4da4	-0.0675309
9	0xbdad1855	-0.084519066
10	0xbdffa45e	-0.124825224
11	0xbd9ab0b8	-0.07553238
12	0xbe48ea9e	-0.1962075
13	0x3d0d2dfa	0.034467675
14	0x3ce88e7d	0.028388256
15	0x3dbe987f	0.0930643
16	0xbe6a234a	-0.22865024
17	0x3cdae8b3	0.026722288
18	0xbd7c9b92	-0.0616718
19	0xbd615935	-0.055016715
20	0xbd671e4f	-0.05642539
21	0xbce96513	-0.028490579
22	0xbc92416d	-0.017853463
23	0xbdc53c71	-0.09630669
24	0x3c6fe407	0.014641768
25	0x3db2bc1b	0.087272845
26	0xbe12db94	-0.14341575
27	0xbe1f8512	-0.15578106
28	0x3cdbe8c4	0.02684439
29	0xbe00b825	-0.12570246
30	0xbe0fb217	-0.1403278
31	0xbe622ae1	-0.2208667

local_map_cnn.4.weight f4 [32, 32, 3, 3]
0	0xbc849fbf	-0.016189454
1	0xbe41eeba	-0.18938723
2	0xba983980	-0.0011613816
3	0x3dbe5a88	0.09294611
4	0x3b032c9c	0.0020015603
5	0xbc5b0b58	-0.013369404
6	0xbe1a954a	-0.15096012
7	0xbe67745d	-0.22602983
8	0xbe0eb6c8	-0.13936913
9	0x3e27d290	0.16388917
10	0xbcd60852	-0.026127014
11	0x3b53d19f	0.0032320989
12	0x3c925439	0.017862426
13	0xbede4a09	-0.4341586
14	0xbe7a14a9	-0.24421944
15	0xbe03b787	-0.12862979
16	0x3e949c63	0.29025564
17	0x3d2246b6	0.039618216
18	0xbddf2e4f	-0.108975045
19	0xbdf82534	-0.12116471
20	0x3d5b78cd	0.053582
21	0xbce08afa	-0.02741002
22	0xbe1ae103	-0.15124898
23	0xbd83eb7b	-0.06441399
24	0x3d545b39	0.05184481
25	0xbebad5f8	-0.3649137
26	0xbc804167	-0.015656186
27	0xbda9dfc6	-0.082946345
28	0xbdce86e1	-0.1008432
29	0x3d5d09fc	0.0539646
30	0xbd1e474d	-0.038642216
31	0xbed0aa21	-0.40754798
32	0x3d6d7535	0.057973105
33	0xbd9c9e7f	-0.07647418
34	0xbe172e45	-0.14763744
35	0xbd28006f	-0.04101604
36	0x3d0baffb	0.034103375
37	0x3d071c9e	0.032986276
38	0x3d484880	0.048897266
39	0x3d1e65ad	0.038671184
40	0xbd3a972f	-0.045554336
41	0xbd5aaec5	-0.05338933
42	0x3db26a18	0.08711642
43	0xbdbc9fb1	-0.09210146
44	0x3da0d474	0.07853022
45	0xbd07217f	-0.03299093
46	0x3dec4397	0.11536329
47	0x3d8feebb	0.07027956
48	0xbdb9e49a	-0.090768054
49	0xbe05cc59	-0.13066234
50	0x3afe386d	0.0019395478
51	0xbbe382e6	-0.0069430945
52	0xbd86b3f1	-0.0657729
53	0xbe1e8e8d	-0.15484066
54	0x3cfb1110	0.030647784
55	0x3df95345	0.121740855
56	0x3b9c6a37	0.004773404
57	0x3d499acb	0.049219888
58	0xbe749649	-0.23885454
59	0x3c819653	0.01581875
60	0x3de034be	0.1094756
61	0x3dea6fa5	0.11447076
62	0x3e052f51	0.13006331
63	0xbd822802	-0.06355287
64	0xbcfde927	-0.030994965
65	0xbcba950f	-0.022776155
66	0xbdbea2ae	-0.093083724
67	0xb7ba5b28	-2.2215376e-05
68	0x3e237448	0.15962327
69	0xbd287c4c	-0.041134164
70	0xbe05b38f	-0.13056777
71	0xbe7e707b	-0.24847595
72	0xbd822b55	-0.06355921
73	0x3e13169a	0.1436409
74	0xbd957cbd	-0.072991826
75	0x3db52270	0.08844459
76	0x3ea23d22	0.31687266
77	0xbd821fce	-0.063537225
78	0x3c8d9bac	0.017286144
79	0xbedab965	-0.4271957
80	0xbbcf95b1	-0.0063349833
81	0xbebe9b17	-0.372277
82	0x3e03718d	0.12836285
83	0xbd9feb0e	-0.07808505
84	0x3bc531c5	0.006017896
85	0xbd91b31b	-0.0711424
86	0xbe5d0c35	-0.21586688
87	0x3cdb333e	0.026757833
88	0xbe351a6f	-0.17685865
89	0x3d6d588e	0.05794578
90	0x3d460a56	0.0483497
91	0x3d93d880	0.072190285
92	0x3e5d0fe1	0.21588089
93	0xbd953838	-0.072861135
94	0xbe1ee9c3	-0.1551886
95	0xbbf1789a	-0.007369113
96	0x3d767940	0.060174227
97	0xbce35823	-0.027751988
98	0x3d8ae98c	0.06782827
99	0x3e2c3bae	0.16819641
100	0xbd926f69	-0.07150156
101	0x3d0e47ab	0.034736317
102	0xbcf2314c	-0.029564522
103	0xbe0fe99a	-0.14053956
104	0xbcca39e2	-0.024685804
105	0xbdc28bc0	-0.094993114
106	0xbce7b2c7	-0.02828349
107	0xbce34ecb	-0.027747532
108	0x3c349ca9	0.011023679
109	0xbc62926c	-0.013828855
110	0x3d97b70f	0.074079625
111	0x3e0d241f	0.1378331
112	0xbe16694a	-0.14688602
113	0xbcb10d43	-0.021612769
114	0xbd6c418d	-0.0576797
115	0xbe1824fd	-0.1485786
116	0x3e21ddec	0.15807313
117	0x3e0ff1a9	0.1405703
118	0x3db13939	0.086534925
119	0x3d9ef71a	0.07761975
120	0x3da6b801	0.08140565
121	0xbe1b07f3	-0.15139751
122	0xbd42635b	-0.047458034
123	0xbc99b21d	-0.018761689
124	0xbd437076	-0.047714673
125	0xbe02d14c	-0.12775153
126	0xbc1c4df6	-0.009540072
127	0xbe0f49ea	-0.1399304
128	0xbcc0a7c0	-0.02351749
129	0x3de288ae	0.11061226
130	0xbd42147a	-0.04738281
131	0xbdfd0d9c	-0.123561114
132	0x3b009222	0.0019618352
133	0xbe956bbd	-0.2918376
134	0xbe130e07	-0.1436082
135	0x3d7876d9	0.060660217
136	0xbe14daf3	-0.14536647
137	0x3dac667e	0.08417986
138	0xbd115831	-0.035484497
139	0xbeabcc03	-0.33554086
140	0xbe0f625c	-0.14002365
141	0xbd999d07	-0.07500654
142	0xbed784d6	-0.42093533
143	0xbe1dcf43	-0.15411095
144	0xbd80bc03	-0.062858604
145	0x3acb7e18	0.001552525
146	0x3e2ffd6c	0.17186517
147	0xbcbad831	-0.022808166
148	0xbe117d21	-0.14207889
149	0x3d2bed00	0.041974068
150	0x3c3d926d	0.011570555
151	0x3d987a86	0.074452445
152	0x3d16d848	0.036827356
153	0x3dec94e5	0.11551837
154	0xbd727001	-0.059188846
155	0xbdc56298	-0.09637946
156	0xbc054947	-0.008135146
157	0xbe1bc67e	-0.15212438
158	0xbdc4d028	-0.09610015
159	0xbdb31e8c	-0.08746061
160	0x3e10f5f4	0.14156324
161	0x3d77bd6c	0.06048338
162	0x3dcc0713	0.09962287
163	0xbdf0f92f	-0.11766278
164	0xbd24f0a0	-0.04026854
165	0xbd8f2240	-0.069889545
166	0xbda4cc21	-0.08046747
167	0xbe54e215	-0.20789368
168	0x3d138da1	0.03602374
169	0x3d2f7ada	0.04284177
170	0xbc53cee0	-0.012927741
171	0xbd01a9de	-0.03165614
172	0x3d9e46f8	0.0772838
173	0x3e913cdb	0.28366742
174	0x3d23a6ad	0.039953876
175	0xbea66a14	-0.32502806
176	0xbd28120a	-0.04103283
177	0xbcd1e566	-0.025622081
178	0x3dbfc7ab	0.093642555
179	0x3dd512ca	0.10403974
180	0xbe6f6d42	-0.23381522
181	0x3ddff211	0.109348424
182	0x3d26dbd5	0.040736992
183	0xbe0785a0	-0.13234568
184	0x3d8a7836	0.0676121
185	0xbd847dab	-0.06469282
186	0x3c70249d	0.014657167
187	0xbdc161e7	-0.094425015
188	0x3dffa0f6	0.12481873
189	0x3cc2785d	0.023739034
190	0xbd3af33b	-0.04564212
191	0x3e01d6b9	0.12679566
192	0x3db28848	0.087174
193	0xbe8572dc	-0.26064193
194	0xbc83c57f	-0.016085384
195	0x3e224e69	0.15850224
196	0xbd99c98c	-0.07509145
197	0x3e2c18d7	0.1680635
198	0xbd1e43a1	-0.038638715
199	0xbd2bceef	-0.041945394
200	0xbda185c6	-0.078868434
201	0xbcfadd40	-0.030623078
202	0x3e3e24f4	0.18568784
203	0x3c256126	0.010093963
204	0x3dea5611	0.11442197
205	0x3d9f02ea	0.07764228
206	0xbe1ec48b	-0.15504663
207	0x3df88bea	0.121360615
208	0xbd8d9dd0	-0.06914866
209	0x3dfecac1	0.12441016
210	0x3c0737e6	0.008253073
211	0xbef7e3f8	-0.48416114
212	0xbd5f05a1	-0.054448728
213	0xbcb02153	-0.021500265
214	0xbd107fbc	-0.035278067
215	0xbd8b8eb5	-0.068143286
216	0xbdeaabf6	-0.1145858
217	0x3e412f57	0.18865715
218	0xbe5a8b75	-0.21342261
219	0xbd88cc0e	-0.06679545
220	0xbda4ed4b	-0.080530725
221	0x3dec12c4	0.11527017
222	0x3e02bdbf	0.12767695
223	0x3db08311	0.08618749
224	0x3d3342fc	0.043765053
225	0xbd01fa85	-0.031733055
226	0xbc3bb935	-0.011457731
227	0xbdc7c606	-0.09754567
228	0x3e056792	0.1302779
229	0x3e01dce2	0.12681916
230	0x3d1074f1	0.035267774
231	0x3dc68242	0.096928135
232	0x3e0e1cd9	0.13878192
233	0x3e03f862	0.1288772
234	0xbc0ea612	-0.008706586
235	0x3ccd1716	0.025035422
236	0xba80151a	-0.0009771914
237	0xbd32ac45	-0.04362132
238	0xbde6241b	-0.11237355
239	0x3bc8fc97	0.0061336267
240	0x3d47d908	0.04879096
241	0xbe339391	-0.17536761
242	0x3e3238d5	0.17404492
243	0x3d87859a	0.06617279
244	0x3d91a330	0.07111204
245	0x3d89d641	0.06730319
246	0xbcaa7988	-0.020809904
247	0xbd38e89c	-0.04514371
248	0xbc314bd8	-0.010821305
249	0x3d8d198e	0.0688964
250	0xbd91557c	-0.07096383
251	0x3d6aac37	0.057293143
252	0xbd34262a	-0.04398171
253	0xbcde4d45	-0.027136454
254	0x3d1ccba7	0.038280156
255	0xbc869dfb	-0.016432753

local_map_cnn.4.bias f4 [32]
0	0x3d057d8e	0.03259044
1	0xbca297b4	-0.019847728
2	0xbe26238c	-0.16224498
3	0xbea60c81	-0.32431415
4	0x3aa8ad18	0.0012868969
5	0xbd34beba	-0.044127204
6	0x3c6300b3	0.013855147
7	0xbde84844	-0.113419086
8	0x3e05b7b8	0.13058364
9	0x3d244a64	0.040110007
10	0x3dc45a13	0.09587493
11	0xbdd524d8	-0.10407418
12	0x3dd4a0ce	0.103822336
13	0x3e05f5fb	0.13082115
14	0xbe266dc0	-0.16252804
15	0x3e4ff99d	0.20310064
16	0xbe4e5805	-0.20150764
17	0x3da754d1	0.08170474
18	0x3dec16f5	0.11527816
19	0xbe0c5583	-0.13704495
20	0xbe03def4	-0.12878019
21	0xbd16d09d	-0.036820043
22	0x3d17fca0	0.037106156
23	0xbda27947	-0.07933288
24	0xbd8dc302	-0.069219604
25	0x3ddf7912	0.10911764
26	0xbe1284ee	-0.14308521
27	0x3aa81302	0.0012823048
28	0x3cbe052f	0.023195831
29	0x3d7c8c59	0.061657283
30	0x3c28febf	0.010314642
31	0xbc640d06	-0.013919121

local_map_fc.weight f4 [64, 512]
0	0xbd23769a	-0.03990803
1	0xbd598a77	-0.053110566
2	0xbe2ac3f2	-0.1667631
3	0xbdf5e9f7	-0.12007516
4	0x3d449f8f	0.04800373
5	0xbdcfc568	-0.10145074
6	0xbe09899b	-0.13431399
7	0x3c44634e	0.011986567
8	0xbda678b7	-0.08128493
9	0xbd9fc073	-0.07800379
10	0xbde43c58	-0.11144322
11	0x3dab9e02	0.08379747
12	0x3d9efda6	0.07763223
13	0xbd2ad701	-0.04170895
14	0x3da94aab	0.08266195
15	0xbe40f3eb	-0.18843047
16	0xbd8593a3	-0.065223
17	0xbd339db6	-0.043851577
18	0xbd34f0af	-0.044174846
19	0x3d128f4a	0.035781182
20	0xbd443926	-0.047906063
21	0xbd40a8fd	-0.04703616
22	0xbd469938	-0.048485965
23	0xbbc9875a	-0.0061501684
24	0xbd23afb5	-0.03996249
25	0x3d3912e5	0.045184035
26	0xbc01c4ac	-0.007920425
27	0xbd3156b0	-0.043295562
28	0xbd9eaa8b	-0.07747372
29	0x3e0c4b5c	0.13700622
30	0x3d63e392	0.05563695
31	0x3de1e2e4	0.11029604
32	0xbdd2d4fb	-0.10294529
33	0x3be20049	0.0068970066
34	0x3d332383	0.04373504
35	0x3b377f83	0.0027999587
36	0xbea55166	-0.32288665
37	0xbd8018d6	-0.06254737
38	0x3d51dc43	0.05123545
39	0xbe4aedd3	-0.19817285
40	0xbd28ad79	-0.04118106
41	0xbe5eb885	-0.21750076
42	0x3a1086cb	0.000551325
43	0xbda5ffee	-0.08105455
44	0x3dbb455e	0.0914409
45	0x3da2b607	0.07944875
46	0xbcb6b767	-0.02230425
47	0x3dd8650d	0.10566149
48	0x3ac56838	0.0015060967
49	0xbe11b9a3	-0.14230971
50	0x3a861eef	0.0010232608
51	0x3d60e354	0.054904297
52	0xbd229fd3	-0.0397032
53	0xbd92b07e	-0.071625695
54	0x3cf10b27	0.029424263
55	0xbd8c218b	-0.06842335
56	0xbd00c573	-0.031438302
57	0x3daae1d5	0.08343855
58	0x3b42d917	0.0029731446
59	0x3ce1fa46	0.02758516
60	0x3d05cbd6	0.032665096
61	0xbc83ce8a	-0.016089696
62	0xbd1f919a	-0.038957216
63	0xbb617529	-0.0034402108
64	0xbe04e958	-0.12979639
65	0xbdc7c0f4	-0.097536
66	0x3ca7a507	0.020464433
67	0xbe2842a0	-0.16431665
68	0xbcf4fdb0	-0.029906124
69	0xbdcab720	-0.098982096
70	0x3c2fe79f	0.010736375
71	0xbd368f0d	-0.044570018
72	0x3e032418	0.12806737
73	0xbc2a09b2	-0.010378288
74	0xbcaa0d30	-0.020758241
75	0xbe825219	-0.2545326
76	0x3c513afd	0.012770412
77	0x3df684d7	0.12037056
78	0xbdb12d64	-0.08651236
79	0x3dd6eb8c	0.10494146
80	0x3ce9c819	0.028537797
81	0x3d39c996	0.045358263
82	0xbe0b6cf3	-0.1361578
83	0xbde7acfa	-0.113122895
84	0xbd9814b1	-0.074258216
85	0xbdefa4a3	-0.11701324
86	0xbd0c1140	-0.03419614
87	0x3e4bb200	0.1989212
88	0x3bdb0fe7	0.0066852453
89	0x3e85daea	0.2614358
90	0xbdb878a1	-0.09007383
91	0x3da37731	0.07981718
92	0xbd320261	-0.0434593
93	0xbd881fd6	-0.06646697
94	0xbd32a430	-0.043613613
95	0x3d99af7f	0.07504176
96	0xbdc43eaf	-0.095822684
97	0x3d22ed14	0.039776877
98	0xbcb737ff	-0.022365568
99	0xbdbd3e76	-0.09240429
100	0xbde4d8fc	-0.11174199
101	0x3c3a8bad	0.01138584
102	0xbb8ab282	-0.0042327056
103	0x3d4c0694	0.04981096
104	0x3da66698	0.08125037
105	0x3e8266f9	0.25469187
106	0xbdb7c415	-0.089729466
107	0xbe168638	-0.14699638
108	0xbc18a375	-0.009316315
109	0xbc5033f9	-0.012707704
110	0xbd3b0cff	-0.04566669
111	0x3d24d068	0.040237814
112	0x3d91fbcf	0.07128107
113	0x3bb2b79c	0.005454017
114	0x3b10417a	0.0022011683
115	0xbd8f6600	-0.07001877
116	0xbdd77039	-0.10519452
117	0xbe04d54b	-0.1297199
118	0x3d197794	0.037467554
119	0x3dbb2dcf	0.09139597
120	0xbda76d01	-0.08175088
121	0xbe3d03a8	-0.18458426
122	0xbe1d66bf	-0.15371226
123	0xbc3b0c29	-0.011416473
124	0xbd7a47d7	-0.061103668
125	0x3c9dc073	0.019256806
126	0xbd0f9f08	-0.035063773
127	0x3cf5096f	0.029911725
128	0xbdc9775d	-0.0983722
129	0xbe561fff	-0.20910643
130	0xbe1fd4bc	-0.15608495
131	0xbe21a0f0	-0.15784049
132	0xbe08a2f4	-0.13343412
133	0xbdb577ef	-0.08860766
134	0xbe2b6c45	-0.1674052
135	0x3df0d79d	0.11759875
136	0xbd11e32e	-0.035617046
137	0xbcd42321	-0.025895657
138	0xbe3a3bf7	-0.18186937
139	0xbd218e8c	-0.039442584
140	0x3d9d0373	0.076666735
141	0x3d27dcc1	0.04098201
142	0x3d0dcded	0.034620214
143	0xbd360150	-0.044434845
144	0xbe0e9820	-0.13925219
145	0x3d501366	0.05079975
146	0xbe39753d	-0.18111129
147	0xbe88e576	-0.26737565
148	0x3aa50403	0.0012589697
149	0xbd47e440	-0.04880166
150	0xbe39545c	-0.18098587
151	0xbe67e0ae	-0.22644302
152	0xbdad6f1d	-0.08468459
153	0xbd5df3bb	-0.054187518
154	0xbd824433	-0.06360664
155	0xbe3e6322	-0.18592504
156	0xbe50ad7f	-0.20378684
157	0xbdf11649	-0.11771829
158	0x3dcd5881	0.100266464
159	0xbd83d48e	-0.06437026
160	0xbd13ac82	-0.03605319
161	0xbe0f5940	-0.1399889
162	0x3d8d2d65	0.06893424
163	0x3ab7718d	0.0013995633
164	0xbddc2623	-0.107494615
165	0x3b98c1f0	0.004661791
166	0x3c9c0afd	0.019048208
167	0xbdb6e1c7	-0.08929782
168	0xbd4966b1	-0.0491702
169	0xbdb9e7e4	-0.09077433
170	0x3d79af89	0.06095842
171	0xbca62ec7	-0.020285977
172	0xbde7028a	-0.11279781
173	0xbe669590	-0.22517991
174	0x3d96c14e	0.07361089
175	0xbc8a8a36	-0.016911607
176	0xbd2888bf	-0.041146036
177	0xbd9f1fe5	-0.07769755
178	0xbdfa1f86	-0.12213044
179	0xbc30e356	-0.010796389
180	0xbd8d87ac	-0.06910643
181	0xbd979390	-0.07401192
182	0xbd511e23	-0.05105413
183	0xbcbafa1a	-0.022824336
184	0xbdc50794	-0.09620586
185	0xbe4a944c	-0.19783133
186	0xbdde79ae	-0.10863052
187	0xbbda0a3a	-0.006654051
188	0x3d488953	0.048959088
189	0x3da9857f	0.082774155
190	0x3cbb01ac	0.022827946
191	0x3dbef94d	0.09324894
192	0xbdc3e827	-0.09565764
193	0xbdcb7a67	-0.09935456
194	0xbe0863ed	-0.13319369
195	0xbe5ebebc	-0.21752447
196	0xbdbb42e7	-0.0914362
197	0xbdc19722	-0.094526544
198	0xbd4e2c92	-0.050335474
199	0xbe1e008a	-0.15429893
200	0x3cc6887a	0.024234999
201	0x3c078bd0	0.00827308
202	0x3cf74a8f	0.03018692
203	0xbdafe89f	-0.08589291
204	0x3dc71d84	0.097224265
205	0x3db4c8e4	0.08827379
206	0xbd6b23ee	-0.057407312
207	0x3d8c66c0	0.068555355
208	0xbcd13b72	-0.025541041
209	0xbe0ac324	-0.13551003
210	0xbc3433dc	-0.010998692
211	0x3db1cbb0	0.086814284
212	0x3ce51abe	0.027966853
213	0xbe23be9f	-0.15990685
214	0x3d3106a4	0.043219224
215	0x3ce0349f	0.027368842
216	0x3bf7b2e3	0.0075591668
217	0x3c7a04a6	0.015259897
218	0x3d3bf5cc	0.045888707
219	0x3d68550a	0.056721725
220	0xbcf2a40b	-0.029619237
221	0xbde6627a	-0.11249252
222	0x3d317da4	0.04333271
223	0x3caa7ffa	0.020812977
224	0xbd93c7c2	-0.07215835
225	0xbcd9d717	-0.02659182
226	0xbd6b1e58	-0.057401985
227	0x3da02786	0.078200385
228	0x3dd5b30e	0.104345426
229	0xbd1e2dad	-0.03861778
230	0x3dc6b699	0.097027965
231	0x3db02cca	0.08602293
232	0x3d3063f0	0.043064058
233	0xbd40c6de	-0.047064655
234	0x3d9bc069	0.07605059
235	0xbdabd29b	-0.08389779
236	0xbd6e33ad	-0.05815475
237	0xbdc35ba8	-0.095389664
238	0x3dac9c2c	0.08428225
239	0xbd4c7833	-0.04991932
240	0xbd9307a3	-0.07179191
241	0xbbef0322	-0.0072940746
242	0xbdf1a8cc	-0.117997736
243	0x3d141371	0.036151353
244	0xbdd81155	-0.10550181
245	0xbd31608a	-0.043304957
246	0xbe5855fa	-0.21126547
247	0x3cfcbe45	0.030852446
248	0xbddc77ba	-0.107650235
249	0xbdca78ab	-0.09886297
250	0xbd13e029	-0.036102448
251	0xbce9cd97	-0.028540416
252	0x3c851a74	0.016247965
253	0xbca60d5a	-0.020270038
254	0xbd3b1ca1	-0.0456816
255	0xbd6d67f0	-0.05796045

local_map_fc.bias f4 [64]
0	0xbd8937ea	-0.06700118
1	0xbdde7a1e	-0.10863136
2	0xbc014ea3	-0.007892284
3	0xbd8b1f7f	-0.06793117
4	0xbd758e28	-0.059950024
5	0xbdb9eeed	-0.090787746
6	0xbdb8259a	-0.08991547
7	0x3dbbf252	0.09177078
8	0xbbe53b69	-0.0069956076
9	0xbd80adb7	-0.062831335
10	0xbd4f5799	-0.05062065
11	0xbd585ef7	-0.05282494
12	0x3e046a1b	0.12931101
13	0x3bfaed0e	0.0076576537
14	0xbd083bdb	-0.033260208
15	0x3db0450e	0.08606921
16	0x3cc97ee7	0.024596645
17	0xbc5ae451	-0.013360099
18	0xbd9bdae5	-0.0761011
19	0x3c041e3a	0.008063847
20	0xbdc654ea	-0.09684165
21	0xbdf1f6c2	-0.118146434
22	0x3d303a06	0.043024085
23	0x3d8b7d0c	0.0681096
24	0xbd435aa8	-0.04769388
25	0xbd7a6705	-0.061133403
26	0x3d5afc50	0.05346328
27	0xbd9180f3	-0.07104673
28	0x3d493894	0.049126223
29	0x3d4ca29d	0.049959768
30	0xbc6dc110	-0.014511362
31	0xbdec120a	-0.11526878
32	0x3d4a71e6	0.04942503
33	0x3b16c571	0.0023005868
34	0xbcf3e7ec	-0.029773675
35	0xbd078ba5	-0.03309216
36	0xbd5302f4	-0.05151649
37	0x3ddcc53b	0.10779806
38	0x3e11f683	0.14254193
39	0x3d031a1c	0.03200732
40	0xbd904e47	-0.0704618
41	0xbd931e23	-0.071834825
42	0x3cce994e	0.025219586
43	0x3dce2c19	0.10067005
44	0x3dcf7295	0.10129277
45	0x3dd53f6a	0.10412486
46	0xbd8037fa	-0.06260677
47	0xbc387520	-0.0112583935
48	0xbd453a97	-0.04815158
49	0xbc9f5fd2	-0.01945487
50	0xbdd49746	-0.103804156
51	0xbd82f97b	-0.06395241
52	0x3d5b2591	0.053502623
53	0xbe0c1e47	-0.13683425
54	0xbd2dd774	-0.0424418
55	0x3db2044e	0.08692227
56	0xbc889ca3	-0.016676253
57	0xbe4bbc88	-0.19896138
58	0xbbec01db	-0.0072023696
59	0xbd6e4818	-0.058174223
60	0xbd520913	-0.051278185
61	0x3d94690e	0.072466
62	0x3d58c267	0.05291977
63	0x3da43ad0	0.0801903

self_entity_fc1.weight f4 [32, 26]
0	0x3e8b5720	0.2721491
1	0x3c61c8d7	0.013780794
2	0xb9a7a5b6	-0.00031976186
3	0x3c9079b1	0.017636152
4	0xbcea030b	-0.028565904
5	0x3e0a6227	0.13514005
6	0xbc6eb3cc	-0.014569234
7	0xbeb7f9c1	-0.35932735
8	0xbce969af	-0.028492777
9	0xbdc30f1e	-0.09524368
10	0xbe0fcf53	-0.14043932
11	0xbf02a8f2	-0.5103904
12	0x3e2f65f6	0.17128739
13	0xbe34673b	-0.17617504
14	0x3e59c4ad	0.21266432
15	0x3e1871b3	0.14887123
16	0xbe57dc9f	-0.21080254
17	0xbdbf7516	-0.09348504
18	0x3d9a74c8	0.075418055
19	0xbaa71025	-0.00127459
20	0xbd20ee3f	-0.03928971
21	0x3ea4471e	0.32085508
22	0xbe0d6ea6	-0.1381174
23	0x3e3d19a9	0.1846682
24	0xbb25c91a	-0.0025296868
25	0x3d567201	0.052354816
26	0xbeb97a27	-0.36226007
27	0xbddc0422	-0.10742976
28	0x3bee9c13	0.007281789
29	0x3e345850	0.17611814
30	0x3e237e44	0.15966135
31	0xbe02b4a3	-0.1276422
32	0x3da98cd8	0.08278817
33	0xbe9f6b3e	-0.31136507
34	0xbdd3213c	-0.10309073
35	0xbd99e5ba	-0.0751452
36	0xbe0758a5	-0.13217409
37	0x3c6f1363	0.0145920245
38	0x3c8cc767	0.017184926
39	0x3d4766f4	0.048682168
40	0x3e4a589d	0.19760366
41	0x3dfe238e	0.12409125
42	0x3ddde383	0.1083441
43	0x3b73338b	0.003710958
44	0xbd8c7dcb	-0.068599306
45	0xbc400fcd	-0.011722517
46	0xbd8b8699	-0.06812782
47	0x3da08f50	0.07839835
48	0xbd3bb88b	-0.04583029
49	0xbc852ba7	-0.016256167
50	0x3db42b73	0.0879735
51	0x3e41221e	0.18860671
52	0xbb62ec20	-0.0034625605
53	0xbda4dbd4	-0.080497414
54	0x3d99d4d4	0.07511297
55	0xbe126b5f	-0.14298771
56	0x3dee87ee	0.1164702
57	0xbf0679bc	-0.525295
58	0xbe92dd88	-0.2868464
59	0x3de786af	0.11304986
60	0x3dee2f33	0.11630096
61	0xbda1d009	-0.07901008
62	0xbed18053	-0.40918216
63	0xbd318083	-0.04333545
64	0xbd858754	-0.065199524
65	0x3d806700	0.06269646
66	0x3d9139e3	0.07091119
67	0x3e67922c	0.22614354
68	0x3d2b323d	0.041795958
69	0x3daf7852	0.08567871
70	0x3c57f0b3	0.013179946
71	0x3e1fe53c	0.1561479
72	0x3d74f72f	0.059806045
73	0x3de87014	0.11349502
74	0x3e381d9c	0.17980045
75	0xbddd610a	-0.10809524
76	0xbd23c6bd	-0.039984453
77	0xbe08bfb0	-0.13354373
78	0xbdd0f95c	-0.102038115
79	0xbd0552ca	-0.032549657
80	0x3dfa78fe	0.12230109
81	0xbd9ccaea	-0.0765589
82	0xbdb56987	-0.08858018
83	0x3e045779	0.12923993
84	0x3e054331	0.13013913
85	0xbce388f2	-0.027775262
86	0x3f464251	0.7744494
87	0x3e974286	0.2954294
88	0x3dbf4d96	0.0934097
89	0xbd9ab939	-0.0755486
90	0x3ceda2de	0.029008325
91	0x3e854bc2	0.2603436
92	0xbc7d2f31	-0.015453146
93	0xbe242dfa	-0.16033164
94	0x3e4e08fa	0.20120612
95	0x3e6fd43f	0.23420809
96	0xbde3ea3b	-0.1112866
97	0xbd1ac677	-0.037786927
98	0x3e8d2296	0.2756545
99	0xbd8b27f7	-0.06794732
100	0xbe1d0039	-0.15332116
101	0x3d1c78ac	0.03820102
102	0xbde15035	-0.110016264
103	0x3e08e625	0.13369043
104	0xbe2deda0	-0.16985178
105	0x3d0abc5e	0.033871047
106	0xbccc0612	-0.024905238
107	0xbe29ac38	-0.16569602
108	0x3e063c4d	0.1310894
109	0x3d3b9162	0.045792945
110	0x3d02f625	0.031973023
111	0xbe5dbb86	-0.21653566
112	0x3d791053	0.060806584
113	0x3e1b322d	0.1515586
114	0x3ed998c6	0.4249937
115	0x3e6108cc	0.21976012
116	0x3e148547	0.14503966
117	0x3dd64555	0.10462443
118	0xbe413660	-0.18868399
119	0x3d4b7c6a	0.049679197
120	0x3e4ec325	0.20191629
121	0x3ebd9c8f	0.37033507
122	0xbdf5fa95	-0.12010685
123	0xbd2ffe9f	-0.042967435
124	0x3d02edb8	0.031964988
125	0xbdbb8433	-0.091560744
126	0xbd726288	-0.059175998
127	0xbcbeb324	-0.02327878
128	0xbde89f53	-0.11358514
129	0xbdd37a88	-0.10326105
130	0x3d99a1aa	0.07501538
131	0x3df43423	0.11924007
132	0x3e4b71d3	0.19867639
133	0x3d3f28b5	0.04666968
134	0x3d2fbad6	0.04290279
135	0xbdca9f0e	-0.098936185
136	0x3e26171b	0.16219752
137	0xbedf7ffa	-0.43652326
138	0x3e66572c	0.22494191
139	0x3c81daa5	0.015851328
140	0x3d2da637	0.042394843
141	0x3ea57d78	0.32322288
142	0x3e1cfd1d	0.1533093
143	0x3e0181f1	0.12647225
144	0x3c258065	0.010101412
145	0xbe6259b2	-0.22104529
146	0x3d8b97a3	0.06816032
147	0xbc8624ee	-0.016375031
148	0xbe2d4170	-0.16919494
149	0xbe462105	-0.19348533
150	0xbe352cb3	-0.17692833
151	0xbe23e97b	-0.16007034
152	0xbe01c29e	-0.12671897
153	0xbe3ab7bc	-0.18234152
154	0x3d7b0a9f	0.061289426
155	0x3dc5f85e	0.09666513
156	0xbd41f8a8	-0.047356278
157	0xbe022cda	-0.12712422
158	0xbbc2eedc	-0.0059488844
159	0x3e1261b5	0.14295085
160	0x3dd6876b	0.10475048
161	0xbde48800	-0.111587524
162	0xbdd9d6e3	-0.106366895
163	0xbe82deb8	-0.25560546
164	0x3d89c387	0.06726747
165	0xbcf8ec55	-0.03038613
166	0xbeb7530d	-0.3580555
167	0x3d91d421	0.071205385
168	0xbf4f92cb	-0.81083363
169	0x3dbac3ce	0.09119378
170	0x3df1bfb8	0.118041456
171	0x3d9cf4d8	0.07663888
172	0xbe81b6ad	-0.25334683
173	0xbe092e09	-0.13396467
174	0x3cfcda44	0.030865796
175	0xbba1896f	-0.0049297134
176	0x3bb2ffac	0.0054626074
177	0x3e63e346	0.22254667
178	0x3e034e48	0.1282283
179	0xbdbc5e49	-0.09197671
180	0x3bf59557	0.0074946093
181	0xbe00afce	-0.12567064
182	0x3e3bb4e1	0.18330719
183	0x3b0ea1ff	0.0021764038
184	0xbb498361	-0.0030748474
185	0x3d1ff586	0.03905251
186	0xbd12f7a8	-0.035880715
187	0xbe13ff4b	-0.14452855
188	0x3d7f1a83	0.062281143
189	0xbc5aded5	-0.013358791
190	0xbf16ea7e	-0.58951557
191	0x3e0ddbf3	0.13853435
192	0xbe1b98f7	-0.1519507
193	0x3e7743ec	0.24147004
194	0x3dbba3fc	0.09162137
195	0x3de1cd84	0.11025527
196	0x3dce4327	0.10071402
197	0x3e815a21	0.25264075
198	0x3dda0782	0.10645963
199	0x3e50a511	0.20375468
200	0xbd2e53fe	-0.04256057
201	0x3dd127b0	0.10212648
202	0x3d2ccb1f	0.0421859
203	0x3e463107	0.1935464
204	0x3bd4df61	0.0064963554
205	0xbd94216f	-0.072329395
206	0x3dba05be	0.090831265
207	0xbe0fa600	-0.14028168
208	0xbcae17a2	-0.021251503
209	0xbdec306e	-0.11532675
210	0x3a890c96	0.0010456021
211	0x3dacf56a	0.084452465
212	0xbcf1b8aa	-0.029507
213	0xbdd18c7a	-0.10231872
214	0x3d22cf57	0.039748516
215	0x3f0035fc	0.50082374
216	0x3ca13a28	0.019681051
217	0x3d4cbdf3	0.049985837
218	0xbf3dc3ab	-0.7412669
219	0xbddc59d5	-0.107593216
220	0xbdec8100	-0.11548042
221	0x3db86684	0.09003928
222	0x3e2ded04	0.16984946
223	0x3e040528	0.12892592
224	0x3e1e7856	0.15475592
225	0xbdac2ded	-0.08407197
226	0xbd33e937	-0.043923583
227	0xbd43b9fe	-0.047784798
228	0xbd3c306e	-0.045944624
229	0x3e1df10e	0.15423986
230	0x3dc59a67	0.096485905
231	0xbd6dce39	-0.058057997
232	0xbe0aedf0	-0.13567328
233	0xbe08d058	-0.13360727
234	0xbe3c7d3f	-0.18407153
235	0xbe54978c	-0.20760936
236	0xbd1856a8	-0.037192017
237	0x3dbdb60d	0.09263239
238	0xbd8253cf	-0.063636415
239	0xbecde8f4	-0.40216792
240	0xbedfb44c	-0.43692243
241	0x3e0d89c3	0.13822083
242	0xbe23543c	-0.15950102
243	0xbd0afab0	-0.03393048
244	0x3e0e76fe	0.1391258
245	0x3e299b52	0.16563156
246	0x3d938498	0.072030246
247	0xbda29b4e	-0.07939778
248	0x3dbb06ed	0.0913218
249	0x3df87d11	0.121332295
250	0xbd48bf38	-0.049010485
251	0xbdf5668b	-0.11982449
252	0x3d7afeaa	0.061278023
253	0xbd88ed78	-0.066859186
254	0x3c089025	0.008335148
255	0x3e8f0835	0.2793595

self_entity_fc1.bias f4 [32]
0	0xbc516234	-0.012779761
1	0x3e865dd3	0.26243457
2	0x3d28539d	0.041095365
3	0xbe6ee103	-0.23328023
4	0xbd92c2a1	-0.07166029
5	0xbdff04fa	-0.12452121
6	0x3e81fee6	0.25389785
7	0x3e05163f	0.12996767
8	0x3e594df1	0.21221139
9	0x3e1d31c6	0.15351018
10	0x3da2f59a	0.07957001
11	0x3e5eea1b	0.21768992
12	0x3c5daf81	0.013530613
13	0xbc6fac47	-0.014628476
14	0xbdf039ed	-0.117297985
15	0xbd44c163	-0.04803599
16	0x3e1d4473	0.15358143
17	0x3e1e3c7e	0.15452763
18	0x3e724460	0.23658895
19	0x3d80588f	0.06266891
20	0x3e6ed91a	0.23325005
21	0x3ddd0c96	0.10793416
22	0x3e80497e	0.2505607
23	0xbd6e4fc2	-0.05818153
24	0x3e801754	0.25017798
25	0x3de6b8c9	0.11265714
26	0xbe645faa	-0.22302118
27	0x3d52836c	0.051394865
28	0x3ec7dc64	0.39035332
29	0x3f0a38c6	0.5399288
30	0xbd306729	-0.04306713
31	0x3d1354e8	0.035969645

self_entity_fc2.weight f4 [32, 32]
0	0xbdbd9d1a	-0.0925848
1	0x3e36d68f	0.17855285
2	0x3ec9a51b	0.39383778
3	0xbed91213	-0.42396602
4	0x3e543bc8	0.2072593
5	0x3da7a0cb	0.08184966
6	0xbd9c304b	-0.07626399
7	0x3e60ddcf	0.21959613
8	0xbe70a87d	-0.23501773
9	0xbd607f3a	-0.054808833
10	0x3dc388d1	0.0954758
11	0xbe2804a3	-0.16408019
12	0xbd1f432b	-0.038882416
13	0x3e3172ea	0.17328992
14	0xbead3aee	-0.33834022
15	0x3deee5b9	0.1166491
16	0x3cdaa97a	0.02669214
17	0x3d825a4d	0.0636488
18	0x3dc3055d	0.09522507
19	0xbdb2e376	-0.08734791
20	0x3c529441	0.012852729
21	0x3b45b4d0	0.0030167587
22	0xbd8797cf	-0.06620752
23	0x3e663896	0.22482523
24	0x3c8e2fd7	0.017356796
25	0x3ddb08fb	0.10695072
26	0xbebc5acb	-0.3678802
27	0x3e64603b	0.22302334
28	0x3f0d0b22	0.5509511
29	0x3f109343	0.56474704
30	0x3e3a9735	0.18221743
31	0xbd00fec9	-0.031492982
32	0x3e8d0d12	0.27549034
33	0x3dec35d8	0.115337074
34	0xbdd1b916	-0.102403805
35	0x3dce78f6	0.10081665
36	0xbf07bbc0	-0.5302086
37	0xbe102c74	-0.14079458
38	0x3f50e452	0.8159839
39	0xbde0a12c	-0.10968241
40	0x3f09bdaa	0.5380503
41	0xbd331926	-0.043725155
42	0x3e977dcd	0.29588166
43	0x3f0f7e75	0.56052333
44	0x3d67e637	0.056616034
45	0xbf11f300	-0.57011414
46	0x3e03f536	0.1288651
47	0x3e15c41e	0.14625594
48	0x3e41db75	0.18931372
49	0x3c9f56d7	0.019450588
50	0x3cc0c02a	0.023529131
51	0xbe6db246	-0.23212537
52	0x3d805183	0.06265547
53	0x3e0b06b5	0.13576777
54	0xbe0771f4	-0.13227063
55	0xbe2865af	-0.16445039
56	0xbe78a297	-0.24280773
57	0x3da4debf	0.08050298
58	0xbe13be0d	-0.14427967
59	0xbe037743	-0.12838463
60	0xbf11bd91	-0.5692988
61	0xbf1dfbda	-0.6171242
62	0xbde66102	-0.112489715
63	0xbdcdfd56	-0.100580856
64	0xbd711896	-0.058861338
65	0xbdb4cbea	-0.08827956
66	0xbef68754	-0.48150122
67	0xbe802b9b	-0.25033268
68	0x3e601f06	0.21886835
69	0xbe3ca949	-0.18423952
70	0x3db3ee62	0.08785702
71	0x3e08ae1b	0.13347666
72	0xbf4781b8	-0.7793231
73	0xbd9724b8	-0.073800504
74	0x3dcd31e0	0.100192785
75	0xbde1845b	-0.11011573
76	0xbdd41c83	-0.10357001
77	0xbf3bfec9	-0.73435646
78	0xbe8e406d	-0.27783528
79	0x3d8f4782	0.06996061
80	0x3cfbbb43	0.030728942
81	0x3e4c1dbd	0.19933219
82	0x3e7b0215	0.24512513
83	0xbe7e276d	-0.24819727
84	0x3c8dd695	0.017314235
85	0xba95b9c1	-0.0011423157
86	0x3dcb1bf3	0.0991744
87	0x3e3fd787	0.18734561
88	0x3df87ab4	0.12132779
89	0x3e1b38a8	0.15158331
90	0xbeee91a9	-0.46595505
91	0xbd7c92c5	-0.061663408
92	0xb8c8c53b	-9.57348e-05
93	0xbddee1b9	-0.10882897
94	0xbdbf80f6	-0.09350769
95	0xbda25a60	-0.07927394
96	0x3d38213f	0.04495358
97	0xbdf30c8c	-0.118676275
98	0xbe94c90a	-0.2905963
99	0x3e092c63	0.13395838
100	0x3e163788	0.14669621
101	0x3e54cd9a	0.20781556
102	0x3af1efff	0.0018458365
103	0xbed7bb11	-0.42134908
104	0xbebf24a3	-0.3733264
105	0xbe630b0d	-0.22172184
106	0xbf162d37	-0.5866274
107	0x3c0fff95	0.008788963
108	0x3e94fc30	0.29098654
109	0xbee6ea21	-0.451005
110	0x3ea21e46	0.31663722
111	0x3e20c015	0.15698273
112	0x3d67f2c6	0.05662801
113	0x3e2f0407	0.1709138
114	0xbed46395	-0.41482225
115	0xbd86536c	-0.0655888
116	0xbe2326b7	-0.15932737
117	0xbdc5db00	-0.096609116
118	0xbe13aaef	-0.14420675
119	0xbc886f5e	-0.016654667
120	0xbc39eb09	-0.011347541
121	0xbd4eb6ce	-0.050467305
122	0x3e6e1889	0.23251547
123	0xbefd0862	-0.49420458
124	0x3e259fce	0.16174242
125	0x3dde9af2	0.10869397
126	0xbdd5a983	-0.104327224
127	0x3e428b50	0.18998456
128	0x3ed68c88	0.41904092
129	0x3e2f5e71	0.1712587
130	0xbda2a6d0	-0.07941973
131	0xbcde0b52	-0.027105007
132	0xbec259dc	-0.37959182
133	0xbdf2a878	-0.11848539
134	0x3e157d11	0.1459849
135	0xbe17df45	-0.14831264
136	0x3f02ee16	0.5114454
137	0xbce309d4	-0.027714647
138	0x3e6ebe80	0.23314857
139	0x3f0e35d8	0.5555091
140	0x3e15a3da	0.14613286
141	0xbf4b98da	-0.7953011
142	0xbcbc3ea8	-0.022979096
143	0x3e63d74f	0.22250102
144	0x3e734a34	0.23758775
145	0x3ce25461	0.027628126
146	0xbd989043	-0.07449391
147	0x3dd6c67c	0.10487077
148	0x3e9891e4	0.29798806
149	0x3e1dee45	0.15422924
150	0xbc903f46	-0.017608296
151	0x3e270a74	0.16312581
152	0xbec60dfb	-0.3868254
153	0x3db1c981	0.08681012
154	0x3cf57d07	0.029966844
155	0x3d5c85b8	0.05383846
156	0xbedd0579	-0.43168238
157	0xbf0b8f07	-0.5451512
158	0x3dbd76b3	0.09251156
159	0xbc7825bf	-0.015145718
160	0x3e331ef2	0.17492273
161	0x3e926da3	0.2859927
162	0x3e87c703	0.2651902
163	0xbdb96754	-0.090529114
164	0x3e21cf2e	0.15801689
165	0xbcb04dc1	-0.021521451
166	0x3c6455eb	0.0139365
167	0x3da5d50a	0.080972746
168	0x3f3bf94e	0.73427284
169	0xbe4e1329	-0.20124497
170	0x3ea2798d	0.3173336
171	0x3e635cb7	0.22203337
172	0xbe7e3a2a	-0.24826875
173	0x3e7d486c	0.24734658
174	0x3e38e583	0.18056302
175	0x3e025cfa	0.1273078
176	0x3e5ac070	0.21362472
177	0x3d11076c	0.03540747
178	0x3b0b1d6d	0.0021227256
179	0x3e42b92d	0.19015951
180	0x3de44f35	0.1114792
181	0xbd9a6aba	-0.07539888
182	0x3dc79627	0.09745436
183	0xbd35b1c4	-0.044358984
184	0x3e8081c1	0.25098994
185	0xbe22f6fb	-0.15914528
186	0xbe650b8e	-0.22367689
187	0x3db90b83	0.09035399
188	0xbe9dcb66	-0.30819243
189	0xbefbd31b	-0.49184498
190	0xbdc6760a	-0.09690483
191	0xbe344f90	-0.17608476
192	0xbd66fb48	-0.056391984
193	0x3e30792d	0.17233725
194	0x3d9e2148	0.07721192
195	0xbeb01515	-0.34391084
196	0x3dc48687	0.095959716
197	0x3d2db015	0.042404253
198	0xbea5bb45	-0.32369438
199	0x3d15694a	0.036477365
200	0xbf82fad1	-1.0232793
201	0xbafca4b2	-0.0019275157
202	0x3e6fa4b8	0.23402679
203	0xbdaca3fa	-0.084297135
204	0xbe48f179	-0.19623365
205	0xbf611c76	-0.8793405
206	0xbcbaf3a1	-0.02282125
207	0xbd9d27d7	-0.076736145
208	0x3d963692	0.07334627
209	0x3e5ea70d	0.21743412
210	0x3dee501a	0.11636372
211	0xb9ffebc6	-0.00048813055
212	0x3e28b887	0.16476642
213	0xbe2dd64e	-0.16976282
214	0x3e63929f	0.222239
215	0x3dc88aef	0.097921245
216	0x3deca067	0.11554032
217	0x3ce52c67	0.027975274
218	0xbef568be	-0.47931474
219	0x3e8d69cf	0.27619788
220	0xbdd4e911	-0.103960164
221	0xbd97447d	-0.0738611
222	0xbe1fa67e	-0.15590855
223	0x3c53531e	0.012898235
224	0x3f0150f6	0.5051416
225	0x3c2ff4d9	0.010739529
226	0x3dbb05da	0.091319755
227	0xbd9e8259	-0.077397056
228	0xbd9fb73e	-0.077986225
229	0xbe3d86bf	-0.18508433
230	0xbefd208f	-0.49438903
231	0x3cd38032	0.025817964
232	0x3ea4d158	0.32190967
233	0x3d1127f6	0.0354385
234	0x3db4f84c	0.08836421
235	0x3f0331e9	0.5124803
236	0xbd33f9c8	-0.04393938
237	0xbf64d403	-0.89386004
238	0x3c26e21a	0.010185743
239	0x3d561ecb	0.05227546
240	0x3d73909c	0.059464082
241	0xbd3a87f5	-0.045539815
242	0x3d4d1b2d	0.050074745
243	0x3de9a84c	0.11409053
244	0x3e31b4a0	0.17354059
245	0xbda3ab8a	-0.07991703
246	0xbd5aabc1	-0.053386454
247	0x3e976e67	0.29576418
248	0xbe9d006a	-0.30664378
249	0x3da7b517	0.08188837
250	0xbd8ef63d	-0.0698056
251	0xbd177442	-0.036976106
252	0xbed38708	-0.41313958
253	0xbed04853	-0.4068018
254	0x3dccdf54	0.10003534
255	0x3d351071	0.044205133

self_entity_fc2.bias f4 [32]
0	0x3de9bc3f	0.11412858
1	0x3da6b7e0	0.0814054
2	0x39e7a3d3	0.00044181812
3	0xbd9a5261	-0.07535244
4	0x3e4c4c79	0.19951047
5	0xbd062522	-0.032750256
6	0xbd0031a9	-0.03129736
7	0x3e868456	0.2627284
8	0xbd5d7273	-0.054064225
9	0xbe08b659	-0.1335081
10	0x3e141f81	0.14465143
11	0xba04401e	-0.00050449546
12	0xbe210a62	-0.15726617
13	0x3e1da494	0.15394813
14	0xbd62cc72	-0.055370755
15	0xbdf21a0a	-0.11821373
16	0xbdbcb159	-0.09213514
17	0xbe0d7a85	-0.13816269
18	0xbd53394b	-0.05156831
19	0xbdd7f90c	-0.10545549
20	0x3e1c9d95	0.15294488
21	0x3e146377	0.14491068
22	0x3d0e0099	0.03466854
23	0xbe409300	-0.18806076
24	0x3daf351f	0.08555054
25	0xbd31bc4e	-0.043392472
26	0xbd8906f5	-0.0669078
27	0xbe14002d	-0.14453192
28	0x3de6ff5a	0.11279173
29	0xbd87814f	-0.066164605
30	0x3dc5a766	0.09651069
31	0x3e33d144	0.17560297
