my-submission/checkpoints/model_111616.pt (torch, 352733 bytes, 23 tensors)

local_map_cnn.0.weight f4 [32, 24, 3, 3]
00000000: bfcf 2bbd 593c 483d 75e1 693d 5a67 93bc
00000010: 4842 5c3c 3d94 8abc 5e0d 3bbc ed83 83bc
00000020: e10f 183d c923 263c c623 813d 77ee 133b
00000030: 6f0d 1d3d 8189 493d 9617 883d 10d5 cbbc
00000040: 9b20 003d b12a e83b 7242 cabb cb63 1bbd
00000050: 45e2 27bd 9733 6f3d aaee e53c a018 32bd
00000060: b167 c5bc bd4e 44bd cc13 323d 24c9 8cbb
00000070: 04d0 b2bc d443 d0bc cb68 fc3c df34 5ebd
00000080: 6f39 aebc edff 12bd 6efa 67bd f43c 803d
00000090: 3055 e83c b960 ad3c 8acd 92bd 2ab3 103d
000000a0: 8fc8 633d 6053 7cbb 51b1 233d b915 37bd
000000b0: e28b 23bc 9ced f53c 9fd3 0b3d 0397 5b3d
000000c0: 8c6e 6e3c 7da2 213c 1231 3d3c b25e c03d
000000d0: 84aa dd3a 219e bcbc 72b2 23bc 4c45 5bbd
000000e0: 995f a83b 3fb1 893c e415 a6bc bb74 9abb
000000f0: a975 82bc 6c9d 2f3a 2741 1c3c 3ad7 59bc
00000100: 5b92 7d3c 5b60 51bd 7a62 2b3d 11e8 2abd
00000110: db98 50bd 8ea0 30bd fec9 04bd adf0 963c
00000120: ae82 c2bb 600f b33c 6572 8e3d 503e c83c
00000130: 9675 773d a906 38bb 2d6c 713d 5d0d 8d3d
00000140: 1f1f 623d 2b88 0d3d 6053 e2bc a367 53bd
00000150: ffc5 753c 57dd 10bd 4a5c 953c 99a0 af3d
00000160: 7b49 653d 7cbb 7b3d 3c27 a8bc 59af 9dbc
00000170: 2044 ffbb 28c3 313d 9927 53bd c9c0 b23d
00000180: 4023 01bd 9814 70bc 28d5 503d 8ba1 6cbd
00000190: efce adbc 97fd 403d 7a71 56bd 88e7 55bd
000001a0: 5390 70bd 4812 0bbd 7670 c8ba f1f7 22bd
000001b0: ace6 2c3d 7607 603b b2d7 53bd 4a1e 99bd
000001c0: 63ab 9abc 56d1 40bd 610f 38bd cdef 1d3b
000001d0: a291 93bd abdf 9dbb d91e 9e3d d0fa b33c
000001e0: a36f 0bbb 046d dabc b6c9 083c 1541 073d
000001f0: b6f8 4b3d a2f2 09bd de64 19bb 8bf9 8abd
00000200: 248b b03c 16e3 ffbc 9948 92bc a25a 94bd
00000210: 2fc4 673c 61e4 a3bc 1323 783d 5fcf 21bd
00000220: 6149 8d3c 5560 2abb 9926 693d de3d 7f3d
00000230: 2a78 2dbd 3f66 c53b 4b8a 533c b929 0fbd
00000240: 52a3 673d da34 803d 30f8 acbc 6d48 0ebd
00000250: 336d 573d 76f5 90bd 224c 853d df8b f0b9
00000260: 2044 1cbc 342e 6bbc 48a1 8f3a bf1b 9ebc
00000270: b1e9 9b3c b5b6 3bbc 938b 22bd 0aa9 e33c
00000280: a927 babc 3f54 613a 3552 cdbc beb0 1f3b
00000290: 393c 423c ad71 a13c e791 a53d 75e4 49bd
000002a0: 1a54 cabc 4161 463d 392a 86bd dd9c 0f39
000002b0: b394 abbc 6290 7cbd 21fb 1fbd 6ccf c63d
000002c0: 71a5 50bd 15dc 08bd fa53 7b3d 13d7 573c
000002d0: 75b1 613d 280e 3b3d 5cae d63b 9147 7e3d
000002e0: 5f55 9e3d 5786 3d3d ef7b 0d3d 09f8 2dbc
000002f0: 56e7 133c 29fb dd3c e126 783d 7e9b 163d
00000300: caa9 893c b785 c7bc 83da dbbc 986e 623c
00000310: 9248 7c3d 66d6 5b3d e847 9f3d c348 7b3d
00000320: 8c66 843d 9a60 533d b8e2 5a3d 3f1b 273e
00000330: e3a7 053e e2ad da3d 62a6 fe3d bddb 223d
00000340: ab4d b03d f3bf a33d b1b0 3c3b d984 9b3c
00000350: a655 733d dfc7 643d 1c6c ce3c 98a0 17bb
00000360: 79eb fb3b 1a73 203d 5acb d7bc 4abf 6dbd
00000370: 0904 2abc c25d 9fbc e4fd 2fbd b239 e43c
00000380: 0d37 dcbc f9fb b43c 6e95 2e3d af10 e5bc
00000390: ba66 dcbc 5bc5 1c3d e0b7 763d 13f6 edbc
000003a0: 2d13 f33a 3ca1 783c 1db6 f1bb a203 8fbc
000003b0: 2f32 913c 1e61 03bd 71c3 3c3d 5175 073d
000003c0: 689b 133d e4ea e1bc 3073 703c 7d14 b0bc
000003d0: c3e0 263d cdbd 5d3c d09b 5dbd c076 9bbd
000003e0: 4e33 94bd 1e81 c43c 772e 3a3d 7b30 21bd
000003f0: c284 52bd 3dc4 533d 9d5e 1cbd 8703 9c3c
-0.04194617 0.048885677 0.05709978 -0.017993618 0.013443537 -0.016916389 -0.011416761 -0.016054118
0.03712452 0.010140368 0.06305651 0.0022572556 0.03834289 0.0492034 0.06645124 -0.02488187
0.031281095 0.0070851673 -0.0061724717 -0.037936967 -0.04098727 0.05839881 0.028067905 -0.043480515
-0.024097295 -0.047926653 0.04347591 -0.004296439 -0.021827705 -0.025422968 0.030811688 -0.05424964
-0.02126762 -0.0358886 -0.056635313 0.06261626 0.028360933 0.021164285 -0.0716811 0.035327114
0.05561119 -0.0038501844 0.039964024 -0.04469845 -0.009982081 0.030020528 0.034137364 0.053610813
0.014552724 0.0098654 0.011547344 0.09393062 0.001691178 -0.02302462 -0.009991275 -0.053532884
0.0051383493 0.01680815 -0.02027411 -0.0047136224 -0.015925245 0.0006699178 0.009537018 -0.013295943
0.015476788 -0.051117282 0.04184196 -0.041725222 -0.050927024 -0.043121867 -0.032419197 0.01842531
-0.0059359884 0.021857917 0.06955413 0.024443775 0.060414873 -0.0028080142 0.058941055 0.068873145
0.05520546 0.034553688 -0.027627647 -0.051612508 0.015000819 -0.035367336 0.018232483 0.085755534
0.05597828 0.061458096 -0.02052652 -0.019248651 -0.0077901036 0.043399006 -0.051551435 0.08728177
-0.031527758 -0.014653347 0.05098453 -0.057771247 -0.021216838 0.047116842 -0.052354313 -0.05222276
-0.05873139 -0.03395298 -0.0015292305 -0.039787237 0.042212173 0.0034184135 -0.051719375 -0.0747648
-0.018880552 -0.04707464 -0.04493654 0.0024099231 -0.07205512 -0.004817923 0.077207275 0.021970183
-0.0021276257 -0.02666331 0.008348873 0.03302105 0.049797736 -0.03367866 -0.0023406069 -0.06785878
0.021550722 -0.031236213 -0.017856883 -0.07243849 0.014145895 -0.02000636 0.060580324 -0.039504405
0.017246904 -0.002599736 0.056921575 0.06231486 -0.042350926 0.0060241516 0.01291139 -0.0349519
0.05655224 0.06260081 -0.021114439 -0.03473704 0.052594375 -0.07078068 0.06508662 -0.0004588058
-0.009537727 -0.014354277 0.00109581 -0.01930034 0.019032331 -0.011457135 -0.03968389 0.027790565
-0.02272399 0.00085956225 -0.025063613 0.002436682 0.0118551785 0.019707525 0.08084469 -0.04929014
-0.024698306 0.048432592 -0.06551022 0.00013695979 -0.020944929 -0.06166113 -0.039057855 0.09707531
-0.050939027 -0.03341301 0.061359383 0.013173836 0.055100877 0.045667797 0.006551547 0.06207997
0.07731127 0.046270695 0.03454202 -0.010618218 0.009027323 0.027097302 0.060583953 0.036769383
0.016804595 -0.024355752 -0.026837593 0.013820313 0.061592646 0.053671263 0.07777387 0.061348688
0.06464872 0.0516058 0.053438872 0.16318987 0.13052325 0.10677697 0.12434079 0.03976034
0.08608564 0.07995596 0.002879184 0.018984245 0.059407853 0.055854674 0.025198035 -0.0023136493
0.0076879826 0.03917227 -0.026342083 -0.058043756 -0.010376939 -0.019453887 -0.04296674 0.027859543
-0.026881719 0.022092806 0.042622976 -0.027962057 -0.026904453 0.03827415 0.06023395 -0.029048001
0.0018545144 0.01517516 -0.007376446 -0.017457787 0.017724125 -0.03207504 0.046084825 0.033070866
0.03603688 -0.027577825 0.0146759 -0.021494145 0.040741693 0.013534022 -0.054103673 -0.07591009
-0.07236348 0.02398735 0.04545447 -0.039352875 -0.05139614 0.05170082 -0.038176168 0.01904465

local_map_cnn.0.bias f4 [32]
00000000: 6371 963c 19a9 41bc 191d 1c3d 34f9 a43c
00000010: bb25 dbbc 6ec7 ae3d 1885 7bbd 4637 993c
00000020: cdbc aabc 3f5e c8bc 0660 4a3c e19b 1abd
00000030: 8026 ec3a 7706 913d ae7e 233d 9126 5c3d
00000040: 5da9 1dbc 28a9 883d 78a4 603d 25ae 013d
00000050: b9b1 80bc aa9b 8f3d 444d 4fbd 121d c03a
00000060: 8321 6e3d e0b6 50bd 6b5e 813d e602 d13c
00000070: 7169 9d3d 6d98 ecbc 16e8 ec3c bd39 48bd
0.018364614 -0.011820101 0.038113687 0.02013836 -0.02675139 0.08534132 -0.061406225 0.018703114
-0.02084198 -0.024459003 0.012351995 -0.037746314 0.0018016845 0.07081311 0.039915733 0.053747717
-0.009622899 0.06672889 0.05484435 0.031660218 -0.015709745 0.070121124 -0.050610796 0.0014657101
0.058137428 -0.050955653 0.06316837 0.025514077 0.07686127 -0.028881276 0.028919261 -0.04888319

local_map_cnn.2.weight f4 [32, 32, 3, 3]
00000000: b78f 13bd 9c9c 2ebd 2aa5 0c3d b95e 9abc
00000010: c5d7 29bd 1c49 18bd 9bf2 50bd e30e 423d
00000020: 0f84 51bd b673 853d c89c 8bbc d011 19bd
00000030: 51cf 3c3a 2058 4fbc 9694 09bd e705 20bd
00000040: 5375 83bb 2545 663d 4089 453d f7d1 c3bc
00000050: 396c 783d 09e9 3c3d 8962 f23c b0e4 203d
00000060: 4037 1cbc 0256 96bc 114f 1f3d cd9d 123c
00000070: 2ce6 cc3c ab56 153c d5c8 31bd 6b52 823d
00000080: 1bba debb 40e7 fe3c 9938 223d 293a 44bd
00000090: 3ef0 3e3d 44e9 a63c bc69 8e3d b826 f23c
000000a0: ef36 253c 7a80 58bd 138a 2bbd 3f8c ec3c
000000b0: 5342 133c 34eb cf3c a4d6 083d 94f6 5a3c
000000c0: 8740 8f3c 2a00 b93c 119c 813d 06ea 6b3c
000000d0: 85af 173d 741d 553d 39a8 5c3d b3be a6bc
000000e0: bb4c c23d 4bcb 9d3d c1c3 f3bc 66ca 813d
000000f0: 9f38 90bc ad95 9b3d c87c 813d 9d94 d6bc
00000100: 485f e93c 4a27 b53c 4d1c 9cbc 7fbc 08bb
00000110: 6b95 863c 1f96 b63c d804 123d fcc2 783d
00000120: 5320 9c39 fd90 10bd c1f1 31bd ad6b e3bc
00000130: dfcf 8c3d 11fa d8bc 70d4 47bd 86b4 40bc
00000140: 7bab 543d 7b25 343c 4403 243d 915e 3cb9
00000150: fcae dc3c 3448 0e3d 0075 3a3d 8caa a1bc
00000160: c83d 4f3c 49de 2f3b d5f2 1ebd fb5c 7b3d
00000170: 478d b8bc f4fd d1bc cc8a 2fbb a063 5b3d
00000180: cb92 883c b280 d53c 90c5 9cbc 79da 8b3a
00000190: df95 17bc 246a 77bc 5e83 823c 1bb5 0b3d
000001a0: 6836 2dbd 9322 69bd 21dd b9bc 5f00 6d3d
000001b0: 2f4d da3c 9c9c d9bc 5235 813d 5dff 2b3d
000001c0: bd9b 1c3d 3dcf b13c 6e76 d33c 7c9d 8e3c
000001d0: 0264 30bc b899 3b3d 98bb da3c 254f 7c3d
000001e0: 6d01 2ebd d2cb 973c b6f7 73bc 8291 b1bc
000001f0: f697 2d3b e2c7 9a3d 7e86 523d 9ec8 a4bc
00000200: d0be 5c3d 4e75 d7bc 9889 2f3c 4c70 813d
00000210: 0e79 743d f3db 463d a30a 963d 7aa1 35bd
00000220: 480c 2e3c db7b 7c3d 8d71 4a3c 8b0c 48bd
00000230: 2b8c b8bb 96ec 113d 9b05 963c 9df5 d7bc
00000240: cea7 4abc 2b4d 513c dd06 a43b d0ab 0d3d
00000250: 79ac e6bc 6064 8d3d d02b 57bd 5700 2b3b
00000260: 00de 37bd f96c bc3b 635d 693d 90ed 06ba
00000270: 87e8 1f3d e0c8 aabc 4d6a 913d 5c83 81bc
00000280: 2730 c6bc 5eca 303d f8e9 2fbd 6ef4 8c3c
00000290: 9827 823c 7f00 093c 3a5e c9bb b3a5 84bc
000002a0: 40ad dd39 3ff7 72bc 050b 1c3d b4b9 d8bc
000002b0: 021c 913c d597 03bd 04f7 243d 6bfa 1abd
000002c0: b602 e13c 6013 fb3c b6ea 063d 8523 4b3d
000002d0: 1836 e8bc df79 0ebd ea30 713c bb17 d1bb
000002e0: 3576 093d 100d 9ebc 3349 463d 6f8c 0bba
000002f0: ffa0 05bd 5265 623c 6f94 02bd 23ad 583d
00000300: 6ba9 dfbc a8a7 acbc 6bcd 263c a36c 3c3d
00000310: e22e 50bc 1b5a 133d 2e16 efbc f386 6bbd
00000320: acfb 883d 7c11 0abd ef7b 883d 71ff a83d
00000330: 00dc dcbc 7811 1c3d ce8a 993d 6ad3 18bc
00000340: f2fb 973b ebf4 853b 5ef4 bf3d 2aba 2f3b
00000350: f1b2 b03d 7e16 6e3d 7664 bebb 392e 073d
00000360: 0c5f 3bbc 9688 293d 2d66 e73b 7d20 b63c
00000370: 9ae5 50bd 6d4a 893d fe80 77bc 2698 46bd
00000380: 4327 443d 37a4 0fbd 2ada 393d 62ed 803d
00000390: e4be 5f3c f6a4 133d 528c 0a3d 3ed2 ae3c
000003a0: 9b7c 283d 5896 2e3d fefc 563d 7192 3d3c
000003b0: b353 a93c 07d6 b73c b3c2 833d 2b68 18bd
000003c0: 512f 263d 47f0 283c e799 033b 1a59 d53c
000003d0: 434d 293c b934 fbbb 4082 673d e2cd 813d
000003e0: 4e35 01bd 340e 33bd ff13 0ebc 69e3 813d
000003f0: 12da 733d 635c d9bb 2a6d 773d 9c69 803d
-0.03602573 -0.042629823 0.0343372 -0.018843995 -0.04146554 -0.037179098 -0.051012617 0.04737748
-0.05115133 0.06516211 -0.017042533 -0.037370503 0.00072025234 -0.012655288 -0.03358897 -0.03906813
-0.004011789 0.056218285 0.048226595 -0.02390383 0.060650084 0.046120677 0.029588 0.039280593
-0.009534657 -0.018351559 0.038893763 0.008948755 0.025012098 0.009114902 -0.04340442 0.06363376
-0.006797088 0.031116128 0.039604757 -0.04790703 0.04661583 0.020374902 0.06953761 0.029559478
0.010083898 -0.0528569 -0.041879725 0.028875468 0.008987981 0.025380708 0.033407822 0.013364453
0.017486824 0.022583086 0.063285954 0.014399057 0.037032623 0.05203004 0.053871367 -0.020354604
0.094872914 0.07704791 -0.029756429 0.063374326 -0.017605124 0.07596908 0.06322628 -0.026193911
0.028487816 0.022113461 -0.019056464 -0.0020864306 0.01642867 0.02228838 0.03564915 0.060732827
0.00029778722 -0.03529452 -0.043443445 -0.027761305 0.06875586 -0.026486428 -0.04878658 -0.01176179
0.05192135 0.010995264 0.040042177 -0.00017964306 0.026938908 0.034736827 0.045521736 -0.019734643
0.012649007 0.0026835373 -0.0388058 0.06136797 -0.022528304 -0.02563379 -0.002678561 0.053561807
0.016671559 0.026062343 -0.019137174 0.0010669968 -0.009252041 -0.0151009895 0.015931781 0.034108263
-0.042288214 -0.05691774 -0.02268845 0.057861682 0.026648132 -0.026563935 0.06308998 0.04199158
0.03823446 0.021705264 0.025813308 0.017409079 -0.010766031 0.045800894 0.02670078 0.061598916
-0.04248183 0.018529806 -0.014890602 -0.021675829 0.002648828 0.07557656 0.051397793 -0.020115193
0.05389291 -0.026301052 0.010713957 0.06320247 0.05968576 0.048549604 0.073262475 -0.04434345
0.010623045 0.061641555 0.012356174 -0.048840087 -0.0056319437 0.035626017 0.01831322 -0.026362235
-0.012369109 0.012774746 0.005005701 0.03458768 -0.028158413 0.06903911 -0.052532017 0.0026092732
-0.04488945 0.0057502952 0.056973826 -0.0005147094 0.039040115 -0.020847738 0.071003534 -0.015809707
-0.024192883 0.043161742 -0.04294774 0.017206397 0.01588802 0.008361935 -0.006145266 -0.016192293
0.00042281486 -0.014829456 0.038096447 -0.026455738 0.01771355 -0.03212722 0.040274635 -0.037836473
0.027467113 0.030648887 0.03293868 0.04959442 -0.028346106 -0.034784194 0.014721135 -0.0063810027
0.033559997 -0.019293338 0.048409652 -0.00053233554 -0.03262424 0.013818102 -0.03187984 0.05289949
-0.027302464 -0.021076038 0.010180811 0.04600204 -0.01270649 0.035974603 -0.02918538 -0.057501744
0.066886276 -0.03370808 0.066642635 0.082518466 -0.026960373 0.038102597 0.07497178 -0.009327749
0.0046381885 0.0040880344 0.09372781 0.0026813843 0.0862788 0.05812692 -0.0058103157 0.033003066
-0.011436235 0.041390024 0.007061741 0.022232288 -0.051000215 0.06703649 -0.015106438 -0.048484944
0.047889005 -0.035068717 0.045374073 0.06295277 0.013656352 0.03604599 0.033825226 0.021340486
0.041134458 0.042623848 0.052487366 0.011570559 0.020669794 0.022440923 0.0643362 -0.037208717
0.04057247 0.010311193 0.0020080747 0.026043463 0.010333362 -0.007666197 0.0565207 0.06338097
-0.031544976 -0.043714717 -0.00867176 0.06342203 0.05953414 -0.006633328 0.06040684 0.062701434

local_map_cnn.2.bias f4 [32]
00000000: e6ce 713c f7f2 0c3d c293 b1bc 7624 8f3d
00000010: 1a47 21bd e246 9e3c c5fb 4a3d 6222 4abd
00000020: 0f67 5d3d 97f7 efbb f06c 5abc dc61 3abd
00000030: de50 6a3b 3258 1dbd 0d0a 133d 6995 abba
00000040: 83d6 233d 2341 c33c 8aeb 263d 89b6 873d
00000050: a545 2f3c 6f9a 773d 760f cfbc c54d 7c3d
00000060: 6c4e e53c c870 1f3d f246 2bbd 5e57 ddbc
00000070: 1f9e fabb bb3e 613d 384b 58bc f703 50ba
0.014758801 0.034411397 -0.021676902 0.06989376 -0.03937445 0.019320909 0.049556512 -0.049349196
0.054053362 -0.007323216 -0.013331637 -0.045503482 0.0035753767 -0.038414188 0.035898257 -0.0013090792
0.039999496 0.02383477 0.04075197 0.06626613 0.010697757 0.060450014 -0.025275927 0.061597604
0.027991496 0.038925916 -0.041815706 -0.027019199 -0.007648244 0.054991465 -0.013201527 -0.0007935161

local_map_cnn.4.weight f4 [32, 32, 3, 3]
00000000: 43ae 563c 07c4 90bc 4ba4 f5bc 050e 88bc
00000010: 1191 813d 2118 5e3d e449 75bc 42c8 12bb
00000020: b458 2b3d ad8d bd3c 5812 35bd ed9f aa3c
00000030: 2eb6 c13a df1a 423d 9b5b cc3c 553f 2d3d
00000040: 6980 3cbd 99eb 0bbd 5ba5 05bd ef7a a33b
00000050: 7c28 873d f08a d2bc eef8 a53b f203 e1bc
00000060: a3e9 1a3d bcbd 2cbd 781f 2e3d 8b6e 52b9
00000070: 1c9b 773c 2900 0ebd 4467 653c 96c3 3e3d
00000080: 159b 843d f8c3 873d 87da ad3c 3bca c9bc
00000090: 3409 4c3d 990a 0b3d b59b edbb 23d1 163c
000000a0: 6602 673d 5bcb 27bd c087 8a3d ce01 563d
000000b0: 4244 e139 acd2 6e3d 6938 573d ae49 4ebc
000000c0: 6264 0fbd c5bc aa3c 44ce b6bc a604 773d
000000d0: 7156 8b3a 1cbc 943c 2003 793d 4761 6d3d
000000e0: eade c03c 223b ce3c 8f4d b23c 52f6 4d3d
000000f0: 9918 24bd 8be2 febc af33 423d e544 443b
00000100: fdc3 3a3d 5e72 34bc b844 243d bd83 7ebc
00000110: 6fb7 833d 4fad 063d 34f0 10bd 4dee 863d
00000120: 1fa2 85bc 5151 3f3d a877 14bc c579 683c
00000130: 0260 3c3c 9967 27bd 0808 683d 5f04 6c3b
00000140: 2526 f83b 1120 313d 8829 333d 7874 02bd
00000150: 3f00 0abc 772e ecbc 1680 8a3b ffd4 f2b9
00000160: b335 fbbb 05a9 cdbc b271 333d efc2 933c
00000170: 8681 c03c 9392 883d 1e60 723d 39ce 713d
00000180: ebe2 923d 7a46 6c3d 8177 183d 2291 cbbc
00000190: 203f 183d 26e7 44bd 1e01 b3bc a2bd 00bd
000001a0: db79 1d3d a847 033d d304 8aba de2a 23bc
000001b0: bf2f ad3c 8410 5e3d 7098 083d 506e 8b3d
000001c0: fa64 563d bbd5 43bc 4df8 133c d4eb 7b3d
000001d0: 2bd9 3abd 2c9a 9dbc db43 73bd 40af 33bd
000001e0: d288 e43c 1e46 203d 7714 14bc 40d3 e7bc
000001f0: 0e40 2b3d f4bf 09bc d50e 77bc a80c bf3c
00000200: 680e 8e3c 9436 773b a7d4 37bd 77f5 623d
00000210: 3431 d2bc a8e9 aabc 30b1 35bc bb0c 5d3d
00000220: 5d87 8f3c 7870 593d c53f 96bc c450 753d
00000230: 0d41 d0bc 39c8 923c 43f0 2bbc 9abc 2e3d
00000240: cf37 14bd 3df9 febb 4da8 66bd 7ac2 31bd
00000250: a019 023d 6393 c23c d011 ee3c 7a32 48bd
00000260: 473e 023d 22d6 383b 8ef3 433c b71b 923d
00000270: 1b66 0a3d 745b 01bc 91bd cabb 8878 803c
00000280: bdc6 873d 7ecf 3e3d f23a 14bc fefd 8b3d
00000290: 5e4a ff3c 196a ba3c d941 863d 9cd5 673d
000002a0: 8e80 50bc 3ea9 883d 0d39 813d 8cd1 9abc
000002b0: 40df f8bc 6958 943d d6ad a83b f3ae ffbc
000002c0: 5415 4abc bb0d 5b3d 4ea8 2ebd a423 5c3d
000002d0: c32b d93c 87cb 00bd 79ee e83c 02a9 1f3d
000002e0: 3e11 0b3d cbd2 393d 6bbb 0c3c e91b 583d
000002f0: 2e17 473d 5184 743d 581e 873c c1e0 703d
00000300: da28 593d 8569 333d 83fb 8d3d eb2e 553a
00000310: 2c43 b13c f4b2 0dbd 4d32 5cbc 2799 203d
00000320: cbf0 0fbd 93e0 f43c fc50 56bc c52b f3bc
00000330: 7836 37bd 0807 093d 7443 c63c 429f f7bc
00000340: 00b3 cf3c 64e3 c1bc 38ed 82bc 0b8a 823c
00000350: 8089 e13c baf4 b13c 0c45 34bd d764 423d
00000360: 108b 7e3d a75a 1ebd e003 113d 4f21 2dbd
00000370: b02b 663c 9dc6 7c3d d618 37bd ea9d 22bd
00000380: b20b 303d 5e10 8c3d 7d5b cbbb 0f23 0cbd
00000390: 2d20 503a 8054 02bd 12cd 12bd b3d1 2d3d
000003a0: 8624 0c3d 3f10 593c 8b5b 2bbd 344f 2f3d
000003b0: f279 9f3c ddc9 8f3d 197b 5d3d 06c7 3dbd
000003c0: 41ed dbbc 51a9 31bd 7ae1 2c3d dc22 c3bc
000003d0: 587c 9abd 3ae2 18bc 5f01 34bc daa8 5dbd
000003e0: 4a4c 18bd 277c 88bd 6741 06bd c188 053d
000003f0: 3082 673d 8658 fbb9 7c6b 1d3d 4e68 913d
0.013103071 -0.017671598 -0.029985568 -0.016608248 0.06326497 0.05422223 -0.01497123 -0.0022397195
0.04183264 0.023138845 -0.044206947 0.020828212 0.0014779025 0.047388908 0.024946025 0.042296726
-0.0460209 -0.03416023 -0.0326284 0.00498902 0.06599519 -0.025701016 0.005065075 -0.027467702
0.03782047 -0.042173132 0.04251048 -0.00020068341 0.015112665 -0.03466812 0.014001671 0.046573244
0.06474892 0.06629175 0.021222366 -0.024632564 0.049813464 0.033945654 -0.0072512277 0.0092051355
0.05639877 -0.04096542 0.067641735 0.052247815 0.000429662 0.05830638 0.05254403 -0.012590809
-0.035007842 0.020841965 -0.022315152 0.060307167 0.001063062 0.018156104 0.060793996 0.0579541
0.023543794 0.025174681 0.021765498 0.050283737 -0.04006252 -0.031113883 0.04741257 0.002994829
0.045597065 -0.011013595 0.040104598 -0.015534339 0.064314716 0.032880124 -0.035385326 0.06588421
-0.016312657 0.04670841 -0.009061731 0.014189188 0.011497499 -0.040870283 0.056648284 0.0036013348
0.0075729066 0.04324347 0.04374078 -0.031849355 -0.00842291 -0.02883075 0.004226695 -0.0004631653
-0.0076663136 -0.025105009 0.0438096 0.018037288 0.023499262 0.06668582 0.059173696 0.05903456
0.071721874 0.0576844 0.037223343 -0.024849478 0.037169576 -0.048072003 -0.021851119 -0.031430848
0.03844629 0.03205076 -0.0010530002 -0.009958951 0.021140931 0.05421497 0.0333485 0.0680815
0.052342393 -0.011952813 0.0090313675 0.0615042 -0.045617264 -0.019238554 -0.059390884 -0.043868303
0.027897272 0.03912937 -0.009038082 -0.028298974 0.041809134 -0.008407582 -0.01507922 0.023321465
0.017340854 0.003772174 -0.044880535 0.055409875 -0.025658228 -0.02086337 -0.011089608 0.05396722
0.0175206 0.053085774 -0.018340955 0.059891477 -0.025421644 0.01791774 -0.010494295 0.042660333
-0.036186036 -0.0077811764 -0.056312848 -0.043398358 0.03176272 0.02375192 0.029061228 -0.048876263
0.031797674 0.0028203805 0.011959923 0.071341924 0.03378878 -0.007895339 -0.006187149 0.015682474
0.06629703 0.0465846 -0.009047257 0.068355545 0.03116339 0.02275567 0.06555528 0.0566002
-0.012725962 0.066729054 0.0630971 -0.018898748 -0.030379891 0.072434254 0.005147676 -0.031211352
-0.012334187 0.05347989 -0.042640977 0.053744927 0.026510125 -0.0314441 0.028434025 0.038979538
0.03395199 0.045367043 0.008589606 0.052760992 0.04860609 0.0596965 0.016493961 0.058808092
0.053017475 0.043801803 0.06932738 0.00081322965 0.021638475 -0.03459449 -0.013439727 0.039208557
-0.035141747 0.029892242 -0.013080832 -0.029683957 -0.04472968 0.03345397 0.024202086 -0.030227307
0.025353909 -0.023667999 -0.015982255 0.015934965 0.027531385 0.02172314 -0.04401116 0.04745945
0.06214434 -0.03866067 0.035404086 -0.042268094 0.014048502 0.06171285 -0.04470142 -0.03970138
0.042979904 0.06839059 -0.0062059746 -0.034213122 0.0007939365 -0.031818867 -0.0358401 0.042436313
0.03421452 0.013248502 -0.04183535 0.042800143 0.019467328 0.07020924 0.054072473 -0.04633238
-0.02684653 -0.043374363 0.04220722 -0.023820333 -0.07543248 -0.00933128 -0.010986655 -0.054116108
-0.03718213 -0.06664305 -0.032777216 0.03260112 0.05652064 -0.00047940406 0.038432583 0.07099973

local_map_cnn.4.bias f4 [32]
00000000: 1079 523d 52fb 30bc c194 ae3c 6b52 f3bc
00000010: c961 433d 6bdc 5abd 3ba7 793c bab5 59bd
00000020: b0ed 753d 3e91 79bc 4907 37bd 990c 0e3d
00000030: db55 02bc bdec b9bc 6102 54bd 463b 62bd
00000040: 2046 4abd 70b5 21bd 6b8c 17bb 1e29 483c
00000050: 6703 843d c5c6 463c f41e 4ebd 3ed4 08bd
00000060: 802f f83c af47 673d 4fe0 293b d60f 83bb
00000070: 9be7 b8bc 6c05 4e3b 9a27 e2bc 766b 53bd
0.051384985 -0.010802107 0.021311166 -0.029702386 0.047700677 -0.053432863 0.015237625 -0.053151824
0.06004113 -0.015232382 -0.044684682 0.034679983 -0.00795504 -0.022695893 -0.05176008 -0.05523231
-0.049383283 -0.039479673 -0.0023124467 0.012216834 0.064459614 0.012132351 -0.050322488 -0.033405535
0.030296087 0.056464847 0.0025921052 -0.0039996905 -0.022571376 0.0031436337 -0.027606774 -0.051616155

local_map_fc.weight f4 [64, 512]
00000000: d9e7 a53c 4da6 62bc fee6 00bd 9d0a 143d
00000010: c6b3 113d 4aa0 04bc 5463 d3bb de70 053d
00000020: f122 163d 6719 0bbd 5f2f adbc 35ae 4d3c
00000030: b1f6 023c 3ee1 88bc 94d7 0bbd 1714 7ebb
00000040: 724c a23b 1c67 e93c 7217 783c 532d 2e3d
00000050: 5e80 c53c 348f d03c cd6b 26bc 588b 39bc
00000060: e1e6 5bbc 9895 9abc 81a4 3b3c 1407 a3bb
00000070: 0b8c 063c 9c8b 193d 4a06 a23b a09b 1fbd
00000080: 8599 d9bc 8b4e e8bc 1fb8 c5bc 55e9 ecbc
00000090: c829 173c 2295 af3c 94d4 06bd 4857 0e3c
000000a0: 3451 0e3d 8ac5 fe3c d3d7 1b3d 1dba 76bc
000000b0: a694 ae3c 64ed 083d b976 7dbc defd 12bd
000000c0: c763 0dbd dac7 6dbc 9662 133d 4d9a 54bb
000000d0: 7f88 a83b 01a2 11bd 318e 1ebc 85e9 e439
000000e0: f014 be3c 7c42 983c 2bb8 fdbc 7dca 043d
000000f0: 9861 683c 035f 423c 8f3f bcbc 3f6e 7e3c
00000100: d3c9 e8bc 3341 32bd 3258 143d 0f09 aa3c
00000110: fc3f 37bd 5685 443c b284 353b 8d39 c03c
00000120: abfc b43c 2837 85bc 858a 2bbd fe8c f03c
00000130: dc81 7d3b 840a 053d dd3f 29bd 8904 0a3d
00000140: 22f5 18bd 61c5 003d 3de9 f3bc 386c 283d
00000150: a070 abbc d2d6 c0bc f95f 16bd 8046 aebc
00000160: 3d94 b13b 6b6d 73bc 616b f8bb 8448 683c
00000170: 0c80 25bd 43b4 923c 8983 2ebd bbbd 19bd
00000180: 7076 42bb 79c5 973c c418 29bc dd53 dabc
00000190: 81bc 22bd 6a02 11bd 9217 363b 1dee 123d
000001a0: e3c0 ebbc 26e6 d53c d319 edbc 10dc 31bd
000001b0: 63ff f43c 3623 c43c dc3c 8e3b 1b0d e7bc
000001c0: d4c0 193b 08bd a6bc 87bb 59bb 0cc9 633c
000001d0: 3002 b5b9 bb53 203d 794e 323d 4b13 223d
000001e0: c41f 36bd c65f b23b 655a ffbc f796 013d
000001f0: 4621 0c3d 6314 aabc 6ff8 c5ba a45a 983b
00000200: a1cf 3dbc 88a9 003c e924 123d c16f d8bc
00000210: f686 dfba 8553 15bd 16ec d5bc 3721 12bd
00000220: cf99 d4bc f770 4239 8719 7e3c 83ea 673c
00000230: 169f d9bc 4636 1f3d 04b9 0d3c b2e7 c5bc
00000240: 2cb3 d43c 2b10 f2bb 3b97 0fbb 1576 febc
00000250: b83f df3b 4871 d8bc 8607 38bd 5bab 653c
00000260: 6afa bcbc 5e70 993c 70e2 913c d3e0 84bc
00000270: 5324 e0bc 9a43 0c3c 613f ddbc d453 3c3c
00000280: 9be5 273d e040 813c 37db 88bc e363 953b
00000290: 853a d13c c331 213d 59a6 e93c 8354 0dbd
000002a0: e263 293d 183b 21bd 7a98 b4bc 92b7 32bd
000002b0: 47f6 4dbc 5c73 563c 2751 b2bc 0013 a93c
000002c0: 6e5b 163d d6bf 1c3d 5042 c43c 653f f3bc
000002d0: 4f92 b33c 2a11 c63c c24f 36bd eff3 bebc
000002e0: 7fce abbb d7d3 0abc d93b 00bc 74f4 ba3c
000002f0: 77b8 143d bd00 65bc 10c1 423c 9f25 473c
00000300: 3b2e d73c c850 35bc 7fd0 1f3d 72d9 6abc
00000310: b822 6bbc f23d fbbb 6ebb d0bc cf63 b5bc
00000320: 37aa 50bc 561d 35bd 5233 1dbd ba4c 383d
00000330: be83 10bd af54 0d3d 9b69 15bd 3d04 0fbd
00000340: a03e 29bd 7cf9 09bd e2d4 c9bc f3f1 2e3d
00000350: 3174 b8bc f388 da3b 41fd 4a3c d446 52bc
00000360: f27c 12bd 70ab ea3c 8a83 d33c dd88 973c
00000370: dcc5 9e3c ec47 bb3b 7665 093d b52f ae3c
00000380: 107b 0c3d 6ebb bbbc 58d3 f5bc f800 f5bc
00000390: 68bd 273b 4078 d5bc c198 2d3d e9d0 babc
000003a0: 05a0 26bd a850 2d3d bc48 82bb ba4f 0fbd
000003b0: 7c4e 8ebc 71d5 6ebc b395 12bd 31cf 883b
000003c0: 2cbd db39 b558 20bd 4043 05bb 10bb 323d
000003d0: 4e13 bdbc ee74 973c 6e30 5c3c 1446 013c
000003e0: 6d3c 05bd cb02 9cbc d82f 31bd eb2c a33c
000003f0: 39de 9d3c 1ede 2dbd 460c 333c 5ecb 2bbd
0.020252155 -0.0138335945 -0.03147029 0.036142934 0.035571836 -0.0080948565 -0.00645105 0.03257834
0.036654416 -0.033959772 -0.021140752 0.012553741 0.007993386 -0.016708966 -0.03414114 -0.0038769299
0.0049529606 0.02849155 0.015142309 0.042523693 0.024109062 0.02545891 -0.010157538 -0.011324726
-0.013421745 -0.01887016 0.011452795 -0.004975209 0.0082121 0.037486658 0.0049445974 -0.038966775
-0.026562462 -0.028357765 -0.024135647 -0.028919855 0.00922627 0.021433417 -0.032917574 0.008687802
0.03474541 0.031100053 0.038047623 -0.015059021 0.021311115 0.03342952 -0.0154702 -0.035886638
-0.034518983 -0.01451298 0.03598269 -0.0032440603 0.0051432247 -0.03555489 -0.009677456 0.00043661534
0.023203343 0.01858639 -0.030971607 0.03241967 0.014183424 0.011863473 -0.022979526 0.015529214
-0.02841655 -0.04351921 0.036216922 0.020756273 -0.044738755 0.01199468 0.00276975 0.023464942
0.022093138 -0.016261652 -0.04188015 0.029364105 0.0038682139 0.03248073 -0.04132067 0.03369573
-0.037343152 0.031438235 -0.029774303 0.04111883 -0.020927727 -0.023539934 -0.03671262 -0.021273851
0.0054192827 -0.01485763 -0.00758116 0.014177445 -0.04040532 0.017908221 -0.04260591 -0.037534457
-0.0029672645 0.01852678 -0.010320846 -0.026651317 -0.039730553 -0.035402693 0.0027785045 0.035871614
-0.028778499 0.02611072 -0.028942978 -0.04342276 0.029906934 0.023942571 0.004340751 -0.028204491
0.0023460882 -0.020353809 -0.0033223347 0.013902914 -0.0003452464 0.03914235 0.04353187 0.03956918
-0.044463888 0.005443546 -0.031171033 0.031638112 0.03421142 -0.020761674 -0.0015103946 0.004649477
-0.011585147 0.007852919 0.03567973 -0.026420476 -0.0017053771 -0.036456604 -0.026113551 -0.035676207
-0.025952248 0.00018543364 0.015509016 0.014155033 -0.026565116 0.03887012 0.008650068 -0.024158332
0.025964342 -0.0073871813 -0.0021910209 -0.031062165 0.006813016 -0.026421204 -0.04492905 0.014017905
-0.023068625 0.018730339 0.01780817 -0.016220486 -0.02736107 0.008561039 -0.02700776 0.011494596
0.040990453 0.015778005 -0.016706092 0.0045590266 0.0255406 0.039354097 0.028521704 -0.034504425
0.04135502 -0.039362997 -0.022045363 -0.043632098 -0.012570924 0.013089027 -0.021767212 0.020638943
0.036708288 0.038268887 0.023957402 -0.029693315 0.021920351 0.024178106 -0.044509657 -0.023309676
-0.005243122 -0.008473358 -0.007826769 0.022821642 0.036308732 -0.013977227 0.01188685 0.012154966
0.026267162 -0.011066623 0.039017197 -0.01433407 -0.014351539 -0.0076672966 -0.025479998 -0.022142319
-0.012735895 -0.04421743 -0.03837902 0.044995047 -0.03528189 0.03450459 -0.036477666 -0.03491615
-0.04131949 -0.033685192 -0.024637643 0.04271121 -0.022516342 0.0066691577 0.012389482 -0.01283427
-0.03576369 0.0286462 0.025819559 0.018497879 0.019381456 0.005715361 0.033544026 0.021262983
0.03429705 -0.022916522 -0.030008003 -0.029907688 0.0025595073 -0.026058316 0.042382006 -0.022804694
-0.04067995 0.042313248 -0.003975956 -0.034988143 -0.017371409 -0.014577256 -0.035787296 0.0041750898
0.0004191188 -0.039147098 -0.0020334274 0.043635428 -0.023080494 0.018488374 0.013439281 0.007890243
-0.03252833 -0.0190443 -0.043258518 0.01991888 0.019271003 -0.042448156 0.010928219 -0.041941993

local_map_fc.bias f4 [64]
00000000: 04b2 d6bc 3ed8 6cbb 2602 be3c c2a5 123d
00000010: eeba cb3c b619 bdbc cc29 29bd c4d8 c6bb
00000020: 7a72 1abd 0d4a 88bc 5439 59bc 5c1b 2fbd
00000030: 0e21 a83c 8c26 ecbc d743 dc3c b76e 5f3d
00000040: ec85 cfbc d50f e3bc 566a cb3c 483c dc3c
00000050: 9a94 303d 6344 1abd d2ec d03c fc1b 963c
00000060: c5df 223c abb7 cf3b ee54 6bbc 3276 83bc
00000070: d638 1dbd 9ec0 cebc 5e16 c83c dc29 043d
00000080: 1b03 10bd 1bf7 e33b aa80 2f3d 4d85 61bc
00000090: db45 0bbc f6af 9a3c 500f 77bc 4418 ca3c
000000a0: 5394 253d 065a 86bc 05e5 a5bb 1122 fd3c
000000b0: 3fc4 ea3c 6036 073d fb7d 21bd 9a41 68bc
000000c0: 8b28 633a 3271 2ebd f325 f0bc 458a 30bd
000000d0: 04e9 8f3c f6f5 21bd 2836 45bc 4816 853c
000000e0: c8d9 463c cedf 5abc ea43 c3bc 1cb2 963c
000000f0: 298a 003d d329 4b3d 3418 b53c 42b4 abbc
-0.026207931 -0.0036139633 0.023194384 0.03580261 0.024869408 -0.023083549 -0.041299626 -0.006068321
-0.03770683 -0.016636873 -0.013258297 -0.0427507 0.020523574 -0.028826974 0.026887817 0.054548945
-0.025332414 -0.02771751 0.024830978 0.026884213 0.043110467 -0.037662875 0.02550355 0.01832389
0.009941046 0.0063390336 -0.0143635105 -0.01604757 -0.03838428 -0.025238331 0.024424728 0.032266483
-0.03515921 0.0069569475 0.042847313 -0.013764692 -0.008500542 0.018882733 -0.015079334 0.024669774
0.040424656 -0.016400348 -0.0050627016 0.030900033 0.02865803 0.03301084 -0.039426785 -0.014175797
0.0008665404 -0.04258842 -0.02931497 -0.043100614 0.017567165 -0.039541207 -0.012036838 0.016245976
0.012136884 -0.013359023 -0.023836095 0.018395476 0.03138176 0.049600434 0.022106268 -0.020959977

self_entity_fc1.weight f4 [32, 26]
00000000: 9fb5 f1bd 6f87 fe3d 528c 7b3e 44d1 a1bc
00000010: 6e69 343e c6f5 54be 53e4 50be e469 8c3e
00000020: 83ee c4bc dd3e 0fbe 6c41 2fbd 1d61 1cbe
00000030: 7d7e 0dbd b106 d13d bd3f 1c3d 09c0 543e
00000040: e190 ad3c bb48 353e 3faa 5d3e 0aca 7f3d
00000050: 9562 933d f82f 203e 2214 fb3d a647 273d
00000060: ad21 05be db5f debc 3749 11be 6cf6 7abd
00000070: 8bfd 18bd 418e 0c3e 9372 763d 907d 5bbd
00000080: b4ab d9bc 5064 e53d 09ed bf3e 6fd2 3d3e
00000090: f85d b0be 5831 6fbe 0f78 3bbe 1289 48bd
000000a0: b9e5 8dbd 7175 96bd 4261 253e 3bdf 2d3d
000000b0: 971d a1bd 140a 283d c650 9c3d 48e2 663e
000000c0: 4500 083e b1ad 04be dbe3 ea3c bb4e cf3d
000000d0: e526 4f3e 9501 203e cd3a 2bbb 1ded 9d3d
000000e0: 16b4 0c3e 9f39 7fbe a461 bc3c d4ca be3e
000000f0: 1df6 5a3e da06 133e 197f 8fbe 3f65 5abc
00000100: 81dc 363d 3d85 663e 2840 f73d d10a cb3c
00000110: af49 2cbc a8d9 e9bc d55f 6c3e 3d4b d0bd
00000120: 3a38 173e d5e6 03bc d364 da3d a38e 97bb
00000130: 0912 333e 5697 d5bb 63e5 17be b00c 56b9
00000140: 59ae 023e 7c5d 55bd 4a99 f7bc 7b97 183e
00000150: 0f28 3cbe 2e1f 0b3e 0b46 203e 3b27 e1bd
00000160: 96cb b2bd d16a 373e 878b 1ebe 7c7e 3dbc
00000170: 047f 9b3d a0e0 a13d 121c 86bd 9746 003d
00000180: 6c09 d5bd 5ab5 143d 6857 80bd 8f0b 43be
00000190: 5fd4 f13b 97f9 313e 15c5 48be 7875 b33d
000001a0: c513 643e bac2 36be 585a 713d afd8 1abd
000001b0: dfb1 78bd 45b2 2fbd 7cef a8bd 2532 873e
000001c0: 59b6 853c 021b c6bd ca59 07bd 07db 5abe
000001d0: 343b 1b3d 30e3 e9bd d304 743e f6b4 a13b
000001e0: 064f a63d cecc 13be 08bd 46bd 91fc 903d
000001f0: f0d7 ebbd 3686 eb3d b45b 04be e8b7 183e
00000200: cee5 28be d154 b1bd 6f28 893d 0135 793e
00000210: 784f 5e3e bd5f 39be a201 f6bd 6255 39be
00000220: 21ff 133e a675 5a3e 0161 0f3e 7363 96bd
00000230: b620 3e3d d97d cf3d 7819 73bd 36f5 993e
00000240: 8f8e 5a3d 2d55 923d da08 cbbd 4401 97bc
00000250: 8ae1 223e 8ca4 8c3e 2d09 35bd 98c3 0a3e
00000260: 926d 053e 8825 163e 3a12 3d3e 1060 ffbd
00000270: 3305 8c3e 5827 5b3e 62b9 003e 3743 edbc
00000280: a4fd dc3d 3608 66be 4818 1c3d e2d3 8e3e
00000290: 8baf f13d a857 10be 6429 963d 8c43 37be
000002a0: 2a34 3b3e b78c 8c3b 9250 ca3d bdd4 083d
000002b0: 0872 a93c feb2 6f3d 0033 f03d 0abe a9bd
000002c0: 2674 0fbd a2c6 ce3d 7dd6 f53d 3d81 3fbe
000002d0: 26a0 363d 994d 8bbd 4719 a93d 28b8 8dbd
000002e0: 4feb 4c3e ba6d 02be a88a d6bd fd8e 973d
000002f0: ff09 0dbe 8222 433e 70e6 fcb9 b0ef e1bd
00000300: 542d 99be f3ac f23d 463a 553e 6e20 8d3e
00000310: aa0f ef3d 07c0 733e 30a4 febd 1448 3c3e
00000320: 1afe 3b3e dc64 83bd 4052 573e ce41 a33c
00000330: c7b4 023e 76bb 0abe d39f f83d ba2d 44be
00000340: 1c97 1dbd 5324 40bd 3c25 d43d ec5b 2f3e
00000350: 5a2d 703e adb9 8b3e 223d 163b e54e 9ebe
00000360: 62c7 02bd 31d6 083e 9b70 993d 1ee6 d13c
00000370: a6b1 323e b669 4bbd c88a 0b3d 8fd2 e6bc
00000380: 96c7 503e 6562 eebd 969c 5e3d 5cc8 fa3d
00000390: 08b6 f5bd 521c 5f3d b77e 8b3d b23e e93d
000003a0: 640a eb3b f594 f23c 4fd1 c23d f199 44be
000003b0: 7e1c 123e 06d9 4a3d 3691 0abd 0a3a 3bbe
000003c0: 3dd6 1e3e f0f0 393e 6d6f 023e dffc 8d3c
000003d0: 9e20 88bd 8a73 433e a1ad 753e 4d22 98bd
000003e0: 697f a13c 1c64 ba3d d59b 7bbd b928 c13d
000003f0: dbc9 423e 4f8d 363e 7247 0b3e c400 7e3e
-0.118022196 0.12428176 0.24565247 -0.019753106 0.17618343 -0.2079688 -0.20399599 0.27424538
-0.024039513 -0.13988824 -0.042787 -0.15271421 -0.034544457 0.102063544 0.038146723 0.2077638
0.021187248 0.17703526 0.21646975 0.06244854 0.071965374 0.15643299 0.122596994 0.040839814
-0.13001128 -0.027145317 -0.14188085 -0.061270162 -0.037351172 0.1372614 0.06016786 -0.053586543
-0.026571132 0.11200774 0.3748553 0.18537305 -0.34446692 -0.23358667 -0.18307517 -0.048958845
-0.06928582 -0.07346619 0.16150382 0.042449217 -0.07866972 0.041025236 0.07632594 0.22547257
0.13281353 -0.12956883 0.028673103 0.101224385 0.20229681 0.15625603 -0.0026127577 0.077112414
0.13740572 -0.24924324 0.022995777 0.3726412 0.21382947 0.14358082 -0.28026655 -0.013329803
0.044643883 0.22511764 0.12072784 0.024785431 -0.010515614 -0.02854617 0.23083432 -0.101706006
0.14767542 -0.00805064 0.10663762 -0.004625158 0.17487349 -0.006518285 -0.14833598 -0.00020413357
0.12761821 -0.052091107 -0.030224461 0.14901535 -0.18374656 0.13586113 0.1565172 -0.10993811
-0.08730237 0.17911841 -0.15482913 -0.011565801 0.07592586 0.07904172 -0.06548323 0.03131732
-0.10402188 0.036305763 -0.062666714 -0.19047378 0.007380053 0.17380367 -0.19606431 0.0876264
0.22273166 -0.1784772 0.05892405 -0.0378043 -0.060716506 -0.04289462 -0.08248803 0.26405445
0.016322302 -0.0967312 -0.033044614 -0.21372615 0.037898257 -0.11420286 0.23829965 0.0049349023
0.08120541 -0.14433596 -0.048520118 0.07079423 -0.11515796 0.11500208 -0.12925607 0.14913905
-0.16493914 -0.086587556 0.06697165 0.24336626 0.21710002 -0.18102928 -0.1201203 -0.18098977
0.14452793 0.21333942 0.14001848 -0.07343187 0.046417914 0.101314254 -0.05935046 0.30069894
0.05335861 0.07145152 -0.09913798 -0.01843322 0.15906349 0.2746929 -0.044198204 0.13551176
0.13030079 0.14662755 0.18463984 -0.12469494 0.27347717 0.21401727 0.12570718 -0.028962715
0.107905656 -0.2246407 0.038109094 0.2789603 0.1180106 -0.14095938 0.073321134 -0.17896861
0.18281618 0.0042892355 0.09878649 0.033406008 0.020684257 0.05852031 0.117284775 -0.082882
-0.035022877 0.1009648 0.12003801 -0.18701644 0.044586323 -0.0680191 0.082567744 -0.06919891
0.20011638 -0.1273717 -0.10475665 0.0740032 -0.13773344 0.19056132 -0.00048236875 -0.11032045
-0.29917395 0.11849394 0.20823011 0.27563804 0.116729096 0.23803721 -0.1243366 0.1838687
0.18358651 -0.06415722 0.2102747 0.019928839 0.12764274 -0.13548073 0.12139859 -0.19158068
-0.038474187 -0.04690964 0.103586644 0.17124909 0.234548 0.27290097 0.0022924622 -0.30919567
-0.031928428 0.13362958 0.07492181 0.025622424 0.1745058 -0.04966136 0.0340679 -0.028176574
0.20388636 -0.11639861 0.05434855 0.12245247 -0.1199761 0.054470368 0.06811278 0.11388911
0.0071728695 0.029612044 0.09512579 -0.19199349 0.14268681 0.049523376 -0.03382989 -0.18283859
0.15511413 0.18158317 0.12737818 0.017332492 -0.06646846 0.19087043 0.23992015 -0.07428417
0.019714074 0.091011256 -0.06142791 0.09431595 0.19022314 0.17827342 0.13601473 0.2480498

self_entity_fc1.bias f4 [32]
00000000: 850e cf3d 7ac0 6a3e ff2c 5f3e 59e5 edbd
00000010: c2d5 18bc d58d d93d 2729 c03d f68d 463e
00000020: 04f0 e9bc 4710 963c 91d1 f53b 1ff7 eabd
00000030: 9052 423d aa5c 01be cb3a 3e3d 0889 303e
00000040: 7f26 8e3d 7bea 313e ede1 463e 5309 9a3e
00000050: 2e3a 293d fa51 21be fa6c a6bd 5a43 373d
00000060: fed0 883e 8bd8 0e3e ac8a cc3c 1165 dc3d
00000070: 2bb3 37bc 1c6e 883e 7f43 613d a496 963e
0.10110191 0.22924986 0.21794508 -0.1161601 -0.009328308 0.106227554 0.09382849 0.19390091
-0.028556831 0.018318309 0.007501789 -0.11472916 0.04744202 -0.12633005 0.046442788 0.17239773
0.06940936 0.17374603 0.19422121 0.3008524 0.04131525 -0.15753928 -0.081262544 0.044741966
0.26721948 0.13949792 0.024968468 0.107614644 -0.011212151 0.26646507 0.05499601 0.29411805

self_entity_fc2.weight f4 [32, 32]
00000000: 1948 efbd e51a 19be 0076 74bd ec79 e53d
00000010: e446 7c3b 7c3c e23d 30c2 df3c c342 f13d
00000020: 40cc 23bd 9663 4bbd 48cd 89bd 72c7 1cbe
00000030: fe82 d23d 99dc f6bd 4ba4 f23d 1c34 0d3e
00000040: a96b 45bc 6903 23bd 70a6 6f3d 678c 70bd
00000050: a92c 9bbd 3b67 9d3c a2b8 113e eb4f 6dbd
00000060: b840 a5bd db49 f739 8f2c 333d 5c68 473d
00000070: 2088 0ebc 5010 8cbd a8b2 0dbe d2aa b3bc
00000080: 3d34 9cbc 556c ac3e ff97 81bd b38c a2bc
00000090: 0631 4a3e fc62 1f39 d33f 14be 4174 0b3e
000000a0: f3f4 bbbd 1972 0f3e 8396 9e3d 21f5 663d
000000b0: 815a 173d 5d15 fc3d 6acf 173e 0827 8b3d
000000c0: 829b 803e 3618 793e 755b 2f3e c4f4 753e
000000d0: 0042 c43c 1880 14be 282a 6bbe 541c 6ebe
000000e0: 3175 f3bc b38f 833d fa61 d1bd 6653 d63a
000000f0: bb50 b7bd f467 173d b5b0 4d3d 8306 073e
00000100: ec35 86bd 129b 86be d3cf 2c3d b324 263e
00000110: af5e 963d 1766 db3c 2fc8 233e b883 8e3d
00000120: 0f47 1b3c 701f a6bd 03b4 69bd 951f ef3d
00000130: 469e 513e 1add 573e 6132 b3b8 4eef 28be
00000140: a76d 93be 0446 62be d04b 3abe eefd 77be
00000150: 6043 8cbd 7e57 613d 2ba0 7a3e 71cc 8d3e
00000160: 183d f9ba 3850 cebc 49b2 683d 37be 6b3d
00000170: 587d 7e3e 2a2a 2b3e e354 cc3d 9bdf 39bd
00000180: 5322 543e 56cc a93e 84fe 763e dc0d 353d
00000190: 9e56 25bd 70fa 073e 886b 47bd a757 433c
000001a0: 19e0 7b3c a3e4 793e 25ca 8e3d 8094 e03d
000001b0: 7c27 4abe 84f3 253d f665 203e 1945 ab3d
000001c0: 98a7 193c dbe7 0c3d 1fff b83d 55ca 943e
000001d0: 918f 613d 029c 2dbe 9804 1dbe 4700 63be
000001e0: 9155 80bd ecb9 d7bd 8c63 01be ccfa 15bd
000001f0: 8d48 95bd 4988 1b3e 5b91 43bd 6470 9c3e
00000200: 5a17 31bd 87d2 693d f4ca 963d 76b9 2c3d
00000210: 1a0e fdbd b641 55bd f397 0bbd 27bd e93d
00000220: 15a4 55be 1a48 123d d272 483e 12af 0ebe
00000230: 237c b83d 2f1e 6e3d 0a4e 2ebc e9bc 293d
00000240: a7b7 e1bc fb56 653e 6ea1 383e fbdd 293e
00000250: 81d2 eb3d 4ad4 88bd 0376 4ebd 9436 773d
00000260: e6c3 d83c bf77 8fbd c21c 92bd 821a 653e
00000270: cd37 c03d a711 b7bb b83a c5ba 9b8b dc3d
00000280: f8c1 da3d c878 863e 946e 2e3e f3e5 c6bd
00000290: 1432 4a3e a404 3fbe 473a 18bd 30a0 543e
000002a0: e081 00bc 670f ef3d aec1 b83b bfbe 06be
000002b0: aedb fdbc 997b 86be 0794 fe3d 881b 603e
000002c0: 2e9a 873d 08cf 823e e3cf 2e3e 6c9d d13b
000002d0: 4a78 a2be 47c6 89bd f22e abbe 01a5 86be
000002e0: 091f fbbd 444a 8dbd 1639 89bd ddcc 8e3e
000002f0: 8d89 683d 0835 f6bc bd47 cf3d 3311 f23d
00000300: 4daf 7e3e 9ac9 d33d 53cf d93d f636 e4bd
00000310: 6382 4f3b 8e83 1f3e d983 463e e361 613e
00000320: 20be 1a3e 812c 46bd 2e3f 983e c9c4 e33d
00000330: d09f 20be 4ae8 29be 7fca e63c 49f5 2e3d
00000340: 0a08 083c f224 393e 6e03 9b3e 4b72 283e
00000350: 71c9 873d 9d5e 473b 7b4c 6fbe 6d97 ecbd
00000360: ad60 c43c 5ca3 0bbe 273b f23d 216d 013e
00000370: d4a7 ddbd 209a 133e 7fb8 a3bd f16f 9e3e
00000380: b4c9 873d 4bd5 a53e b486 eb3d f4cf 04be
00000390: 51a7 0c3e c125 f93d 0a8f 333e a63d a93e
000003a0: baf1 83bd 5da3 87bd 87b0 6a3d 6277 1e3e
000003b0: 8316 11be 1caa be3c 328a f73d f67b ba3e
000003c0: bcc1 dbbc 81bc 0e3e b01b 933e 1c92 a13e
000003d0: 909f b03d 35bf 93bd 7ec4 4dbe c26b 47bd
000003e0: 37fc 573e 1726 193d 6337 bcbd 6482 923e
000003f0: de21 d4bd 7120 a23c 417b 6f3e 7d2e 333e
-0.116836734 -0.14951666 -0.059682846 0.112048954 0.0038494403 0.11046693 0.027314276 0.11780312
-0.03998971 -0.04965552 -0.067286074 -0.15310457 0.10278891 -0.120537944 0.11847743 0.1378941
-0.012049594 -0.039798174 0.058508337 -0.058727648 -0.075768776 0.019214263 0.14230588 -0.057937544
-0.08068985 0.00047166538 0.043743666 0.04868351 -0.008699447 -0.06839049 -0.13837683 -0.02193204
-0.019067878 0.336764 -0.06327819 -0.019842481 0.19745263 0.00015200296 -0.14477472 0.13618566
-0.0917758 0.14008369 0.077435516 0.056386117 0.036951546 0.12308762 0.14825216 0.06794554
0.25118643 0.24325642 0.17124732 0.24019152 0.023957253 -0.14501989 -0.229653 -0.23252994
-0.029718967 0.06423893 -0.10223766 0.0016351759 -0.08950945 0.03696437 0.05021735 0.13186078
-0.065532535 -0.26290184 0.042190384 0.16224937 0.07342278 0.026782079 0.15994333 0.06958717
0.009477391 -0.08111465 -0.05705644 0.11675946 0.20470533 0.21080437 -8.544769e-05 -0.16497537
-0.28794596 -0.22097021 -0.18192983 -0.2421796 -0.06848788 0.05501508 0.24475162 0.2769504
-0.00190154 -0.025184736 0.05681065 0.05755445 0.24852502 0.16715303 0.09977128 -0.045379262
0.20716219 0.33163708 0.24120528 0.04420267 -0.040365808 0.13279128 -0.048686534 0.011922753
0.015373253 0.24403624 0.0697215 0.10965824 -0.19741625 0.040515438 0.15663895 0.08362789
0.009378336 0.034400802 0.090330355 0.29060617 0.055068556 -0.16954044 -0.15333784 -0.22168075
-0.062663205 -0.10533509 -0.1263563 -0.03661613 -0.072892286 0.15188707 -0.047746044 0.30554497
-0.04323516 0.05708554 0.07362929 0.042169057 -0.12356205 -0.05206462 -0.034080457 0.11413031
-0.20863374 0.035713293 0.1957505 -0.13933972 0.09008052 0.058134254 -0.010638723 0.041439924
-0.027553393 0.22396462 0.1803033 0.16588585 0.1151476 -0.06681116 -0.050405513 0.060354784
0.0264606 -0.07005262 -0.07134391 0.22373393 0.09385643 -0.005586821 -0.0015047407 0.10768815
0.10681528 0.26264024 0.1703437 -0.09711828 0.19745666 -0.18654114 -0.037164953 0.20764232
-0.007843465 0.1167286 0.005638323 -0.13158701 -0.03098854 -0.26266173 0.12430578 0.21885502
0.06621204 0.25548577 0.1707149 0.00639694 -0.31732398 -0.067272715 -0.33434254 -0.26297763
-0.12261779 -0.06898931 -0.067003414 0.27890673 0.056771804 -0.030054584 0.10121105 0.11819687
0.2487156 0.10341187 0.10635247 -0.111432955 0.003166341 0.15577528 0.19386233 0.22009997
0.1511159 -0.048382286 0.29735702 0.11121518 -0.15685964 -0.16592517 0.02817273 0.04271439
0.008302698 0.180805 0.30276054 0.1644985 0.06630219 0.0030421384 -0.23369019 -0.1155232
0.02397188 -0.13636535 0.11827689 0.12639286 -0.10823026 0.14414263 -0.07994174 0.3094478
0.06630269 0.32389292 0.11500302 -0.12969953 0.13735701 0.12165404 0.17535034 0.33054847
-0.0644259 -0.06622956 0.057297256 0.15475228 -0.14168744 0.023274474 0.120869055 0.364227
-0.026825778 0.13939096 0.2873206 0.31556785 0.08624184 -0.07214204 -0.20094487 -0.04868675
0.21092306 0.03738984 -0.09190252 0.28615105 -0.10358022 0.01979086 0.23386861 0.17498203

self_entity_fc2.bias f4 [32]
00000000: 2312 4bbd d511 d93c cc79 8e3d ea75 5e3d
00000010: 4ca4 943d c932 1b3e 2971 8bbd 9faf 7c3b
00000020: 91a0 243e 3a26 2f3d ff14 503e 6905 3d3e
00000030: e698 bcbd f041 843d e35e 12bd 700e 003e
00000040: 719d 12be 5322 8a3d 40dd fabc e86c 593d
00000050: 5d5f d03d 4696 0b3e 0a2e b13d cfde 6fbd
00000060: f394 13be 2ab4 af3d 6da2 19be 702d 26be
00000070: 2f9e d63d 0b39 973d 1120 15bd 1209 26be
-0.049577843 0.02649776 0.06956825 0.05431167 0.072579 0.15156092 -0.06808693 0.0038556827
0.16076876 0.042761065 0.2032051 0.18459095 -0.092088506 0.06457889 -0.035735022 0.12505507
-0.14317872 0.06744828 -0.030623078 0.053082377 0.10174439 0.13631544 0.086513594 -0.058562096
-0.14412288 0.085792854 -0.15003367 -0.1622827 0.1047939 0.07383927 -0.036407534 -0.16214398

other_entity_fc1.weight f4 [32, 26]
00000000: 2dfc 79bd 4d38 8abd 348a d23d 5fc2 ea3d
00000010: cb60 6d3d 3c21 c6bd 4860 ae3b d1e1 373e
00000020: cca8 523e 5bcb 1b3e 5a21 3b3e f07c 4cbd
00000030: aad4 b23d 7c4f 183b e609 4c3e b875 ccbd
00000040: 19e1 b1bd 0c98 41bc 653b 85bd cf77 373e
00000050: 5840 303e fdd5 423d 1959 443e 30af fc3c
00000060: 983c eebd 9646 91bd a9fb cd3d 8246 a93d
00000070: b169 ed3d dc2b 71be 338b 17bd 32cc fc3d
00000080: 3cff c1bc 0e92 183c 830a 8bbd 410d 32bb
00000090: 17b8 223e 63ce 1c3d 74b1 273e e16f 823c
000000a0: c4c2 383c b4f4 aabd 9b04 eebd 2516 a43d
000000b0: a9f0 03be 1a38 f0bd 9af4 ed3a 51a4 e83d
000000c0: 135f 5abb c126 3e3e 9b05 113e 1811 b93d
000000d0: 41cd 403e 642a 32bd 73a2 023c 0c6e 78bd
000000e0: 5224 63be 7f27 b13d e5bf 3fbe fb1d 6c3e
000000f0: 140c b43d 3924 a6bd c783 973d e505 01be
00000100: cf43 4b3d 390c b8bc 90e5 b3bd fe2b 803b
00000110: cf3b b5bd 25af 3e3e 841e 103e 15ee bcbc
00000120: 6979 ee3d 220a 41bd 18bd cd3d b19c f2bd
00000130: b144 7b3d 26d7 473e 3bbc 1bbe 728f 5a3d
00000140: 7827 503e 140f 223e 8999 93bd 1700 233d
00000150: 5bf7 1abe 9bec 0ebd 2b10 cd3b b304 1abe
00000160: ab83 d2bd ac70 8c3d 62ea 063c 47d3 0dbe
00000170: 302c 26be f043 a6bd 3fe3 213e e4b1 8f3d
00000180: c875 1f3e 0618 263e 219c f4bc 5b3d 90bd
00000190: 440f 19be 3ef6 acbd fc1a 41bd 9a26 833e
000001a0: d26c 11bd 1002 0ebd 74f3 a73d 4f7c 023e
000001b0: f22c 46be 1320 2c3e 4cf5 213c 110d 8e3c
000001c0: b649 773d 3616 ce3d 8f66 93bb 0cd7 b1bd
000001d0: c302 75bd 2100 543e 9959 19be c3f7 cdbc
000001e0: 6e30 1c3e 5b52 45be 16c9 dabd 793f 1f3e
000001f0: 92d4 413e f8df 873d e681 f13d 9ade db3d
00000200: bb74 7c3d edfa b1bd e952 2c3d 7c5c 97bd
00000210: cbb3 a43c a610 41be 6942 17bd 0f46 c4bd
00000220: 12e1 13bd eae0 953d 924b 463e f1d6 343e
00000230: 0301 26bd a762 793b 3a20 1f3d 4764 243e
00000240: 10c8 f5bb 62e7 f9bd b8ec 8d3c a837 5f3e
00000250: 2c6a 793e bab9 5b3e b2fc 783e 7afa be3d
00000260: f94c 10bd d5bf d93d c6ef 43be a74c 273e
00000270: 88e4 8f3d f608 aabb 247b da3d 1ff6 4bbe
00000280: 6ca7 4e3d e9da fdbd cc8f 72be 1197 c83d
00000290: 2e73 5d3e 1ee7 823e 35b2 e0bd ebda 703d
000002a0: 97f9 073e 8033 703d a2dc 823e cea1 473e
000002b0: 5e22 da3d f5dd 20bd 1cd1 313c f68f 113d
000002c0: 4ffa 413e f234 b1bd 75a5 ddbd 5899 0abd
000002d0: d0be be3d 055f 52bd cf84 42bd 0b5b 63bd
000002e0: 25fb 50bd 204f 4abe 0218 bfbd d181 3bbe
000002f0: 7ea4 683d 99c5 a73c 785a 473d a815 623e
00000300: 9a7e 883d ebce be3d 59d3 f03d 13e3 6b3e
00000310: dd94 a4bd dc36 91bd 4e98 30bd 53ad 09be
00000320: f6a5 1d3e d24a 7f3e 6557 233d ca02 293d
00000330: fa98 9dbd 4e9d 793d 1642 d23d 1c67 033e
00000340: 445f 133d 46f1 2fbe 6dc8 89bd f1a9 ae3c
00000350: 0f9d bf3d 0343 933c 4a22 d63d cd76 1a3e
00000360: 6417 01bc 6277 973d baa6 053e 6d74 c13d
00000370: 6590 973d 093d 093e cd07 b2bd 2a00 683d
00000380: 461d 80bd 0764 f6bd b6a4 643d 0783 e83c
00000390: e97d 8f3d cbc8 373d 265b 7ebd a211 f53c
000003a0: 5787 a1bc 7f8d 39be 8759 01be 26c2 cc3d
000003b0: d324 c03d 1ac3 233a 2351 013e c30a 29be
000003c0: 9453 33be 3909 983d 28f0 6cbc 76e5 83bc
000003d0: d1fe 433d d396 353e 494f 993d 4d04 21be
000003e0: cd2b a33c c789 053e 7da9 723d d0d7 c6bd
000003f0: a0dd 4abc efce 943d be13 2abe 36ec 903c
-0.06103151 -0.0674902 0.102802664 0.114628546 0.057953637 -0.09674308 0.005321536 0.17957236
0.20572203 0.15214293 0.18274441 -0.049923837 0.08731969 0.0023240736 0.19925651 -0.099833906
-0.08685512 -0.011816036 -0.06505469 0.17916797 0.17212045 0.047567356 0.19174613 0.030845255
-0.11632651 -0.07093541 0.10057766 0.082654014 0.11592425 -0.23551887 -0.036997985 0.12343635
-0.023681276 0.009312166 -0.06789114 -0.0027168544 0.15890537 0.038282763 0.16376287 0.015922489
0.0112769045 -0.08347455 -0.11621972 0.08012036 -0.12884773 -0.117294505 0.0018154562 0.11359466
-0.0033320829 0.18569471 0.14162295 0.090364635 0.18828298 -0.043497458 0.007973301 -0.060651824
-0.22181824 0.086501114 -0.18725546 0.23058312 0.08791366 -0.08112378 0.073981814 -0.12599905
0.049625214 -0.022466766 -0.0878402 0.0039114943 -0.08849298 0.186215 0.14074141 -0.023062745
0.11644251 -0.047128804 0.100458324 -0.11846293 0.061344806 0.19515666 -0.15208523 0.053359456
0.20327556 0.15826064 -0.07207019 0.039795008 -0.15133421 -0.034893613 0.006258031 -0.15040855
-0.1027902 0.06857428 0.008234592 -0.13850127 -0.16227794 -0.08118427 0.15809344 0.07016352
0.15572274 0.16220102 -0.029859604 -0.070429526 -0.1494723 -0.084454045 -0.047144875 0.25615388
-0.03550417 -0.034669936 0.08200732 0.12742732 -0.19353083 0.1680911 0.0098851435 0.017340215
0.06037303 0.1006283 -0.00449831 -0.08683595 -0.059817087 0.20703174 -0.14975585 -0.025142556
0.1525285 -0.19269697 -0.10682885 0.15551557 0.18928745 0.066345155 0.11792354 0.10735817
0.06163476 -0.086904384 0.042071257 -0.07390687 0.020105263 -0.18854007 -0.036928568 -0.09583675
-0.036103316 0.073182896 0.19364765 0.17660119 -0.04052831 0.0038053186 0.038849093 0.16053878
-0.007500656 -0.12202336 0.01732479 0.21798575 0.24356908 0.21457568 0.24315146 0.09325118
-0.035229657 0.10632292 -0.19134435 0.16337834 0.07026011 -0.0051890565 0.106680185 -0.19918106
0.050452635 -0.123952694 -0.23687667 0.09794439 0.21625969 0.25566953 -0.1097149 0.058802526
0.13278805 0.058642864 0.25558954 0.19495317 0.10651086 -0.039274175 0.010853078 0.035537682
0.18943141 -0.08652677 -0.10822574 -0.033837646 0.09313738 -0.05136015 -0.047489937 -0.055506747
-0.05102076 -0.19756746 -0.09330751 -0.1831124 0.056797497 0.020479964 0.048670262 0.22078574
0.06664772 0.0931681 0.11759061 0.2303584 -0.08036206 -0.07090542 -0.043114 -0.13445024
0.1539534 0.24930885 0.039878268 0.041262425 -0.076951936 0.060941033 0.10266511 0.12832302
0.035979524 -0.17181882 -0.06727681 0.021321269 0.093561284 0.01797629 0.10455759 0.15084381
-0.007879112 0.07395817 0.13051882 0.094460346 0.07400588 0.1340219 -0.08692894 0.05664078
-0.062555835 -0.120307975 0.055821143 0.028382791 0.07006437 0.044869225 -0.062098645 0.029915635
-0.019717855 -0.18120383 -0.12631808 0.099979684 0.09382024 0.0006247029 0.12628607 -0.16508012
-0.17512351 0.07423634 -0.014461555 -0.016100626 0.047850434 0.17733316 0.074858256 -0.15724297
0.019918347 0.13040839 0.059243668 -0.09709132 -0.012381941 0.07266032 -0.16609094 0.01769076
