my-submission/checkpoints/model_98048.pt (torch, 352797 bytes, 23 tensors)

local_map_cnn.0.weight f4 [32, 24, 3, 3]
-0.08377453 0.007892409 0.04095943 -0.014415339 -0.079811655 0.008018262 -0.09449659 -0.06862308
0.07439994 0.03903911 -0.050227325 -0.07712624 0.07575574 0.031473625 0.12380571 0.02897603
-0.019991046 -0.22780901 0.008946834 0.050179653 0.07538543 0.026266776 -0.12428447 -0.254272
-0.03293193 -0.0185181 0.03755331 0.022173688 -0.02175215 0.08942368 -0.012052014 -0.05637283
-0.18410002 -0.02914126 -0.050155435 0.03509872 -0.041510165 -0.04779201 0.06586812 0.0084735295
0.014357341 -0.048936225 -0.034993343 0.06476002 0.08324312 0.06350772 0.117506355 -0.120064884
0.06580995 0.04630416 0.127898 0.017110182 -0.004302711 -0.11683163 -0.00937189 0.108525686
0.048005473 -0.032280624 -0.031331666 -0.09008949 -0.16997904 -0.05066701 0.10921663 0.0299871
-0.04416225 0.049574576 -0.02687222 -0.14286758 0.07608852 0.012455064 0.008827338 -0.020945115
-0.03703255 -0.11211648 0.04230835 -0.025040152 -0.17359963 -0.11706743 -0.036298472 -0.12010788
-0.07200225 -0.02457864 -0.036648814 -0.0035829903 -0.02026869 -0.08949487 -0.21948698 0.03467563
-0.11099643 -0.020545347 -0.102249995 0.064032316 -0.02640308 -0.025713148 -0.063458815 -0.13927907
-0.14990528 -0.066278644 0.0147849675 -0.053282496 -0.037610736 -0.0006820088 0.053756677 0.06361816
-0.03364184 0.041422028 -0.005062268 -0.06743195 -0.023394058 0.0112321265 0.10196663 -0.04919778
0.014593444 -0.22154246 -0.088465706 -0.057545252 0.03761244 0.029668195 0.034695983 -0.06538616
-0.046058383 0.005745634 -0.022382015 0.021869618 -0.0041049537 0.05807855 -0.0775685 -0.10547181
0.05304075 -0.07114317 -0.05530186 0.107414424 -0.09780906 -0.016576633 -0.103640586 -0.017488344
-0.056549285 0.01268471 0.014283471 -0.027455501 -0.007543603 0.005332858 -0.028025234 0.22815457
0.063105196 0.0765039 0.06327017 0.056649327 -0.04423517 -0.3503862 -0.0022992783 -0.040538073
0.13804552 -0.06458091 -0.09417426 -0.06661721 -0.055388745 -0.06625856 -0.012368975 0.02694885
-0.061979715 -0.089199305 0.027532147 -0.091999196 0.21408552 -0.023240106 -0.021287192 0.14275151
-0.01645244 -0.108307265 0.26541987 0.18088569 0.024526766 0.096882224 0.12597984 0.0051119686
-0.045253284 0.2142712 0.24700372 0.17985906 -0.23219915 -0.1442129 -0.19651906 -0.09171777
-0.29967916 -0.24532974 0.056385513 -0.09836578 -0.03906376 0.5067773 0.58844054 0.34220317
0.78616446 0.73513436 0.4195157 0.074265175 0.3785818 0.13037203 0.45268348 0.5938628
0.30781013 0.6950139 0.7727956 0.0070367153 -0.040476825 0.4538283 0.3139347 0.108526036
0.046467863 0.062531084 0.065092385 -0.004064427 -0.09410228 0.08160754 -0.021002991 -0.039349157
0.009647547 -0.06863181 0.015710412 -0.047157455 0.024754902 0.029839618 -0.0826193 0.024851482
-0.07057432 0.0162046 0.07061296 0.012464005 0.04682771 0.030081697 0.010433576 0.037254434
0.09960602 0.01689857 -0.007269107 0.0017453118 0.021296661 -0.03361988 -0.07261677 0.029843139
-0.021634672 -0.015420418 0.019352343 0.0158272 0.0013035008 0.032926016 0.03470544 0.05368742
0.08366807 0.026519267 0.055080116 0.027066637 0.028829578 -0.058920905 0.029241433 -0.040824607
00000000: fb91 abbd 2a4f 013c 13c5 273d 502e 6cbc
00000010: 4b74 a3bd 075f 033c 6e87 c1bd 428a 8cbd
00000020: ff5e 983d 79e7 1f3d 2bbb 4dbd 5df4 9dbd
00000030: d325 9b3d 7dea 003d d98d fd3d 245f ed3c
00000040: 43c4 a3bc c446 69be be95 123c 2e89 4d3d
00000050: ad63 9a3d 6c2d d73c db88 febd f12f 82be
00000060: a2e3 06bd 45b3 97bc 80d1 193d 98a5 b53c
00000070: 9131 b2bc c323 b73d cf75 45bc 32e7 66bd
00000080: b784 3cbe a7b9 eebc c96f 4dbd adc3 0f3d
00000090: 9006 2abd 8ec1 43bd dde5 863d 8fd4 0a3c
000000a0: 0e3b 6b3c 5a71 48bd 2e55 0fbd e7a0 843d
000000b0: 5e7b aa3d 5610 823d 2ca7 f03d 94e4 f5bd
000000c0: 5ec7 863d 6ea9 3d3d b1f7 023e a72a 8c3c
000000d0: c2fd 8cbb 6c45 efbd 8e8c 19bc b742 de3d
000000e0: 63a1 443d b038 04bd a255 00bd d780 b8bd
000000f0: fc0e 2ebe 3688 4fbd f8ac df3d 82a7 f53c
00000100: 7ae3 34bd b60e 4b3d 2123 dcbc e14b 12be
00000110: 4cd4 9b3d 5310 4c3c 8aa0 103c 1795 abbc
00000120: 71af 17bd 539d e5bd 854b 2d3d 0121 cdbc
00000130: 1ac4 31be 0cc1 efbd b5ad 14bd 1ffb f5bd
00000140: ea75 93bd 2559 c9bc 111d 16bd 9ad0 6abb
00000150: 860a a6bc 1649 b7bd 32c1 60be 0908 0e3d
00000160: 1952 e3bd b74e a8bc 7268 d1bd 6023 833d
00000170: 464b d8bc 61a4 d2bc b2f6 81bd 2c9f 0ebe
00000180: c580 19be 19bd 87bd a63c 723c bf3e 5abd
00000190: b70d 1abd d6c8 32ba f62f 5c3d 3d4a 823d
000001a0: 07cc 09bd 25aa 293d 62e1 a5bb c319 8abd
000001b0: e5a4 bfbc f406 383c e1d3 d03d 9d83 49bd
000001c0: 5719 6f3c 07dc 62be 822d b5bd 92b4 6bbd
000001d0: 800f 1a3d b70a f33c 601d 0e3d 2ee9 85bd
000001e0: b7a7 3cbd df45 bc3b 7d5a b7bc ea27 b33c
000001f0: d982 86bb c6e3 6d3d 3cdc 9ebd 9b01 d8bd
00000200: 4241 593d 83b3 91bd 3484 62bd 18fc db3d
00000210: 1e50 c8bd b8cb 87bc 8441 d4bd b743 8fbc
00000220: 39a0 67bd 88d3 4f3c 3805 6a3c 5cea e0bc
00000230: 5430 f7bb 41bf ae3b 2d95 e5bc 5aa1 693e
00000240: 4c3d 813d 14ae 9c3d ca93 813d 2009 683d
00000250: f02f 35bd d265 b3be 7daf 16bb 400b 26bd
00000260: ce5b 0d3e ff42 84bd 6fde c0bd 9b6e 88bd
00000270: 4fdf 62bd 91b2 87bd 3ea7 4abc d6c3 dc3c
00000280: 71de 7dbd 20ae b6bd 198b e13c 136a bcbd
00000290: 3c39 5b3e 0962 bebc 7a62 aebc 742d 123e
000002a0: 44c7 86bc 33d0 ddbd 1de5 873e 193a 393e
000002b0: 5bec c83c 306a c63d dc00 013e 4d82 a73b
000002c0: 825b 39bd e969 5b3e 8bee 7c3e f92c 383e
000002d0: 9dc5 6dbe 8cac 13be 4b3c 49be 87d6 bbbd
000002e0: 8c6f 99be b837 7bbe 7ff4 663d 0074 c9bd
000002f0: 5201 20bd 28bc 013f 0aa4 163f 4135 af3e
00000300: 1342 493f c431 3c3f c3ca d63e 5718 983d
00000310: 79d5 c13e 3f80 053e 21c6 e73e 6407 183f
00000320: 4a99 9d3e 6eec 313f efd5 453f 3f94 e63b
00000330: 07cb 25bd 2f5c e83e 0dbc a03e e642 de3d
00000340: 1655 3e3d 4c10 803d 284f 853d e32e 85bb
00000350: b2b8 c0bd db21 a73d 770e acbc 952c 21bd
00000360: bf10 1e3c d68e 8cbd 1fb3 803c 2d28 41bd
00000370: cbca ca3c 3772 f43c 4f34 a9bd 5695 cb3c
00000380: 4589 90bd 82bf 843c 879d 903d d335 4c3c
00000390: 6ace 3f3d e46d f63c 97f1 2a3c 1b98 183d
000003a0: 3efe cb3d df6e 8a3c b031 eebb f2c2 e43a
000003b0: 5676 ae3c 00b5 09bd 1ab8 94bd 9979 f43c
000003c0: 323b b1bc eca5 7cbc ce88 9e3c 0ba8 813c
000003d0: 3bda aa3a 6edd 063d 4b27 0e3d 57e7 5b3d
000003e0: 2a5a ab3d ef3e d93c b09b 613d daba dd3c
000003f0: 022c ec3c 0c57 71bd bb8b ef3c b437 27bd

local_map_cnn.0.bias f4 [32]
-0.010429533 -0.03251985 -0.017077541 -0.05927712 0.0373729 0.004664333 0.023631811 -0.046782628
0.017394647 -0.090331666 0.014941099 -0.013137686 -0.013692647 -0.036947533 -0.03566462 -0.10073304
-0.038449544 0.024914134 0.03351374 0.015837468 -0.08439301 0.05324471 -0.004157416 -0.034200784
-0.04576109 -0.0657687 -0.04884983 -0.015400751 0.06879329 0.04060295 0.07934012 0.010609019
00000000: a2e0 2abc 8933 05bd 33e6 8bbc 91cc 72bd
00000010: 5314 193d 43d7 983b 8097 c13c 249f 3fbd
00000020: 387f 8e3c cfff b8bd 83cb 743c 733f 57bc
00000030: 2057 60bc 4c56 17bd 1115 12bd 204d cebd
00000040: 457d 1dbd ba18 cc3c b445 093d 94bd 813c
00000050: 3ed6 acbd 2017 5a3d ef3a 88bb 1f16 0cbd
00000060: fb6f 3bbd bdb1 86bd c216 48bd 6e53 7cbc
00000070: 7fe3 8c3d 474f 263d 137d a23d 73d1 2d3c

local_map_cnn.2.weight f4 [32, 32, 3, 3]
-0.044099804 0.02794516 -0.061961453 -0.13166371 -0.16687632 -0.028946493 -0.39550316 -0.050580867
-0.037523173 -0.043638986 -0.039593372 -0.048588302 -0.037202273 -0.08196842 -0.08676884 -0.011998878
-0.08414424 -0.1588825 0.12982623 -0.0016864081 0.045078304 0.13064985 0.19611743 0.19444267
0.019738756 -0.087592125 0.011024264 -0.019935776 0.1599269 0.13937467 0.081278354 0.2520747
0.19842015 -0.05317596 0.003366502 0.13524838 0.0009053771 -0.029901367 0.09605805 0.024554545
-0.18144833 -0.094108224 -0.0015170749 -0.07443068 0.015132371 -0.060302097 -0.07090267 -0.002945737
-0.07823938 -0.21993688 -0.10441109 -0.0382214 -0.07634506 -0.02900067 -0.027031204 -0.0048059374
-0.09230471 -0.03212812 -0.060355984 -0.1347454 0.019081287 -0.15060112 -0.033957742 0.120781906
0.11380254 0.09893653 0.104823075 0.0667616 0.13524342 0.04522054 0.11408802 0.090562284
0.07400352 0.1708753 -0.04581871 0.119280525 -0.04082262 -0.018417917 0.0015722845 0.028441424
-0.02459316 0.054905236 0.13195103 0.09197172 0.058835763 0.1313635 0.09286534 0.030491134
0.0576622 0.04791351 -0.00056596304 -0.050707445 0.006237394 0.07659645 -0.082062475 -0.05168347
0.037011277 -0.09447995 0.0375342 0.169811 0.0035011931 0.08721538 0.0016645693 0.10761892
0.095151 0.087496705 -0.025029426 0.071246594 -0.026845174 0.040224962 -0.0940948 0.05401093
-0.05995644 -0.16450004 -0.003236003 -0.09408929 -0.089182064 0.022947038 0.095130265 0.056537934
0.08195398 -0.018247455 0.025717212 0.056844056 0.060882244 0.011092221 -0.0323275 -0.016189542
-0.021429092 -0.050026357 0.053733766 0.0417356 -0.043036453 -0.09123137 -0.005689102 -0.013857062
0.09083261 0.020226631 0.0007799316 0.13152164 0.11618111 -0.12709682 0.08859532 0.030811196
0.07996874 0.10603704 0.07733924 0.17205632 0.22127469 0.027141526 0.08268299 0.06734617
0.10850978 0.11060037 0.05716972 0.048180096 0.014466243 0.08987609 0.028631903 -0.022915835
0.07819349 -0.032872327 0.1578696 0.05197988 0.11180903 0.10361054 0.14572003 0.2427606
0.06993644 0.036054313 0.1287002 0.021649437 -0.003589888 -0.0013588145 0.17470887 0.14780506
0.12329493 0.027988965 0.11677494 0.12538014 0.029852316 0.10311695 -0.025619164 0.032357592
0.001221221 0.059000466 -0.063106276 -0.0015715905 0.026933732 0.017045643 0.1537694 0.032839514
0.039374188 0.025066575 0.07943524 0.044737432 -0.10221086 -0.009455854 0.014128721 0.035576057
-0.0015638763 0.03280341 0.03718411 0.019362522 0.0014564396 -0.06355186 -0.034759037 0.038403418
0.0026324084 0.055904776 0.0681827 0.010814317 0.028899128 0.0630102 -0.030334761 0.07289065
-0.121468745 0.09748776 -0.03248079 -0.023348197 0.1855052 0.1670517 -0.13130163 0.1310019
0.15953958 0.13864148 0.09540036 0.09749201 0.100523 0.14040983 0.1172134 0.13932037
0.08339481 0.12812962 0.045136552 -0.0039140987 0.016264657 -0.2607209 0.0033615357 -0.4134132
0.028191349 0.020425644 -0.05914491 0.012516633 -0.16383754 0.11493276 -0.13071261 -0.36991534
-0.115041904 -0.12268495 -0.14392869 0.0062027783 0.089498594 0.10700364 0.09964815 0.05489455
00000000: ffa1 34bd 40ed e43c 4bcb 7dbd dad2 06be
00000010: a0e1 2abe 3221 edbc 647f cabe e22d 4fbd
00000020: e6b1 19bd cbbe 32bd a92c 22bd 8704 47bd
00000030: 6961 18bd 0fdf a7bd ddb3 b1bd f196 44bc
00000040: d153 acbd 18b2 22be 2bf1 043e 770a ddba
00000050: 07a4 383d 13c9 053e 02d3 483e fb1b 473e
00000060: 2cb3 a13c 8063 b3bd 1d9f 343c 5a50 a3bc
00000070: e1c3 233e 3cb8 0e3e 4475 a63d ef0f 813e
00000080: a72e 4b3e 09cf 59bd 88a0 5c3b 8d7e 0a3e
00000090: d456 6d3a b6f3 f4bc 15ba c43d 9d26 c93c
000000a0: 97cd 39be d0bb c0bd 96d8 c6ba 1d6f 98bd
000000b0: c4ed 773c 55ff 76bd 6b35 91bd 440d 41bb
000000c0: f83b a0bd 2237 61be 7bd5 d5bd 0b8e 1cbd
000000d0: cc5a 9cbd d092 edbc 8b70 ddbc 207b 9dbb
000000e0: 400a bdbd c798 03bd d637 77bd b3fa 09be
000000f0: 5c50 9c3c 2e37 1abe 4617 0bbd 815c f73d
00000100: 4e11 e93d 3c9f ca3d 7bad d63d 4eba 883d
00000110: 407d 0a3e 2c39 393d fba6 e93d b878 b93d
00000120: 288f 973d eff9 2e3e 66ac 3bbd 5949 f43d
00000130: 9f35 27bd 2ce1 96bc 1d15 ce3a fdfd e83c
00000140: 9877 c9bc 50e4 603d 2c1e 073e ab5b bc3d
00000150: c5fd 703d 2784 063e 2f30 be3d 8bc8 f93c
00000160: 332f 6c3d f540 443d 235d 14ba 9cb2 4fbd
00000170: 0e63 cc3b 99de 9c3d 5f10 a8bd 0cb2 53bd
00000180: 2399 173d b47e c1bd 76bd 193d efe2 2d3e
00000190: 4674 653b fa9d b23d ad2d da3a 4f67 dc3d
000001a0: 87de c23d 7931 b33d 830a cdbc bce9 913d
000001b0: 69ea dbbc eec2 243d c6b4 c0bd 913a 5d3d
000001c0: e294 75bd b372 28be 1f13 54bb e3b1 c0bd
000001d0: 16a5 b6bd 6dfb bb3c a8d3 c23d 5294 673d
000001e0: 7dd7 a73d b07b 95bc e7ac d23c 50d5 683d
000001f0: a95f 793d 26bc 353c d769 04bd ee9f 84bc
00000200: 108c afbc 70e8 4cbd f017 5c3d f3f2 2a3d
00000210: fe46 30bd 83d7 babd a66b babb bb08 63bc
00000220: 7306 ba3d 52b2 a53c 5374 4c3a 9cad 063e
00000230: 5df0 ed3d ab25 02be 7771 b53d c367 fc3c
00000240: a7c6 a33d f329 d93d 0964 9e3d 882f 303e
00000250: d595 623e e857 de3c b355 a93d caec 893d
00000260: 603a de3d 7282 e23d cc2a 6a3d 7e58 453d
00000270: d203 6d3c f510 b83d 748d ea3c fdb9 bbbc
00000280: e923 a03d 22a5 06bd 92a8 213e dbe8 543d
00000290: 22fc e43d c331 d43d a237 153e 3c96 783e
000002a0: d63a 8f3d b0ad 133d fcc9 033e 295a b13c
000002b0: 5444 6bbb 401a b2ba e2e6 323e 365a 173e
000002c0: 0d82 fc3d 1d49 e53c b327 ef3d a763 003e
000002d0: d88c f43c fb2e d33d 48df d1bc 6589 043d
000002e0: 6111 a03a 79aa 713d dd3d 81bd d4fd cdba
000002f0: 21a4 dc3c 4ea3 8b3c ba75 1d3e ba82 063d
00000300: d446 213d 6b58 cd3c f1ae a23d 993e 373d
00000310: ed53 d1bd baec 1abc 277c 673c 33b8 113d
00000320: fbfa ccba de5c 063d 5e4e 183d 279e 9e3c
00000330: 01e6 be3a 7a27 82bd 7e5f 0ebd e74c 1d3d
00000340: 7c84 2c3b 68fc 643d 5fa3 8b3d 882e 313c
00000350: ddbd ec3c 7e0b 813d 9b80 f8bc b147 953d
00000360: 9bc4 f8bd aaa7 c73d 940a 05bd b844 bfbc
00000370: 13f5 3d3e 9a0f 2b3e ef73 06be 5d25 063e
00000380: 585e 233e 08f8 0d3e 4461 c33d e4a9 c73d
00000390: 01df cd3d 98c7 0f3e 940d f03d 00aa 0e3e
000003a0: e6ca aa3d 6934 033e 1be1 383d d741 80bb
000003b0: 753d 853c 367d 85be 364d 5c3b e5aa d3be
000003c0: 8bf1 e63c ae53 a73c ef41 72bd 9012 4d3c
000003d0: 07c5 27be de61 eb3d 87d9 05be 8b65 bdbe
000003e0: 179b ebbd 3f42 fbbd 0b62 13be ad40 cb3b
000003f0: 0a4b b73d b924 db3d 5414 cc3d 1cd9 603d

local_map_cnn.2.bias f4 [32]
-0.022601198 0.031467017 -0.024911707 0.017379262 -0.08704444 -0.12191273 -0.04202509 0.047202565
-0.031901244 -0.095462784 -0.0659664 -0.07330851 -0.1262079 0.033321142 0.024559636 0.037791595
-0.13779022 0.011425449 -0.026363086 -0.028882518 -0.08248773 -0.023016071 -0.004555631 -0.045879174
0.053652946 0.08563147 -0.09068483 -0.109412976 0.011270256 -0.08033137 -0.09701633 -0.18196954
00000000: 2626 b9bc 8fe3 003d a313 ccbc f45e 8e3c
00000010: 5b44 b2bd 62ad f9bd 8022 2cbd 7a57 413d
00000020: e1aa 02bd fe81 c3bd 6419 87bd c622 96bd
00000030: a53c 01be c07b 083d 4a31 c93c 5ccb 1a3d
00000040: e118 0dbe ce31 3b3c 66f7 d7bc 089b ecbc
00000050: 54ef a8bd 338c bcbc 6747 95bb cdeb 3bbd
00000060: 31c3 5b3d 8d5f af3d f8b8 b9bd e913 e0bd
00000070: e1a6 383c c684 a4bd 7fb0 c6bd 3956 3abe

local_map_cnn.4.weight f4 [32, 32, 3, 3]
-0.010708286 -0.12611718 -0.0035952087 0.07674467 0.00846732 0.013000651 -0.19190949 -0.21207292
-0.114408255 0.16845284 -0.055284146 0.046524767 -0.0044774925 -0.26142627 -0.09022396 -0.09858613
0.2621853 0.09013644 -0.0057106866 -0.05069127 -0.03246707 -0.04160146 -0.08859197 -0.09401959
0.0018133287 -0.1924145 -0.06409639 -0.034549005 0.031321965 0.08679532 0.02085805 -0.23174255
0.047613934 -0.10400419 -0.07752802 0.034334682 -0.092953674 0.07580165 0.056803852 0.027861906
-0.07622578 -0.078144446 0.06500277 -0.050579365 0.093176454 0.012550768 -0.017711699 0.076231994
-0.10007972 -0.13672385 0.0029052687 -0.05267026 -0.18891065 -0.18810412 0.03070957 0.12814938
0.00083744456 0.07854746 -0.2213046 0.029435577 0.10649279 0.07079209 0.13767229 -0.124301165
0.040381912 -0.069529854 -0.1157113 -0.041679244 0.110543564 -0.09068883 -0.15334566 -0.23184952
-0.1625639 0.14069264 0.008914383 0.011384504 0.20869024 0.0744489 0.09575503 -0.3436155
-0.060383163 -0.23089826 0.17008753 -0.010792775 -0.13632192 -0.056732785 -0.13609783 0.006764427
-0.20472302 0.06942863 0.035276014 -0.054052543 0.03894655 -0.09999241 -0.1477056 0.008200665
0.1440445 -0.102743186 -0.013765787 0.06894879 -0.09990925 0.04737262 -0.047529776 -0.17091382
-0.00818683 -0.13656688 -0.041069284 -0.031211622 -0.08646918 -0.01569132 0.051525023 0.09813034
-0.16090655 -0.034538716 -0.07324343 -0.16006815 0.2060898 0.052862246 0.14059564 0.0856284
-0.004786703 -0.054026704 0.035935305 0.025922962 -0.009269031 -0.09604965 -0.030440409 -0.0965172
-0.008617496 0.0016018442 -0.046501353 -0.024500912 -0.08896996 -0.27984923 -0.111628436 0.038933218
-0.17587066 0.058386527 0.02949556 -0.25976333 0.039837897 -0.06740115 -0.34212226 -0.010187563
-0.01786114 -0.03738201 0.0751274 0.051225983 -0.19027883 -0.027693512 0.06136602 0.05694985
0.027962927 0.120952986 -0.05290372 -0.06853839 -0.025058582 -0.088421434 -0.04188548 -0.051421087
0.16639513 0.12961279 0.09699575 -0.053087093 0.045414023 -0.020811595 -0.13747671 -0.15403818
0.060546946 0.08109973 0.06439094 -0.04502493 0.034584403 0.23393975 0.006681972 -0.29646537
0.019049903 -0.11905516 -0.03462573 0.017007943 -0.26339 0.20228682 0.06963404 -0.05024744
0.07710955 -0.11213191 0.027951099 -0.17625667 0.101035595 0.030475218 -0.036634047 0.08804911
0.08589988 -0.15154907 0.013904711 0.092374146 -0.0484326 0.09947807 -0.06776371 -0.050827477
-0.08911592 0.030678507 0.14830466 -0.0032721562 0.13938351 0.10884315 -0.17204826 0.08961912
0.029323924 0.08854831 -0.075573586 -0.3081374 0.053157385 -0.00264991 0.02761184 -0.042674653
-0.15176488 0.13365294 -0.117238246 0.0042081336 -0.06729369 0.13226376 0.14788516 0.09142156
0.07051667 -0.025858376 -0.006916744 -0.08339979 0.11135825 0.11174284 0.039236795 0.08316541
0.15765524 0.15252708 -0.06319462 0.03831397 -0.03829527 -0.052170362 -0.16366173 0.016739143
-0.058593296 -0.17714237 0.06268272 0.017908014 0.06655379 0.05784413 -0.09305448 -0.1747453
-0.0044409055 0.012888953 -0.055664964 0.07568458 -0.112232514 -0.012094697 0.009451064 0.013674667
00000000: cf71 2fbc dd24 01be 989d 6bbb 4f2c 9d3d
00000010: 84ba 0a3c af00 553c ec83 44be a529 59be
00000020: e04e eabd e77e 2c3e a171 62bd c190 3e3d
00000030: eeb7 92bb aad9 85be 57c7 b8bd 86e7 c9bd
00000040: 273d 863e 7499 b83d b620 bbbb a6a1 4fbd
00000050: 31fc 04bd 4b66 2abd b56f b5bd 588d c0bd
00000060: 37ad ed3a 4f08 45be f844 83bd 4283 0dbd
00000070: 764b 003d bfc1 b13d 80de aa3c eb4d 6dbe
00000080: d406 433d 2600 d5bd 03c7 9ebd 86a2 0c3d
00000090: 7f5e bebd e53d 9b3d 28ab 683d a73e e43c
000000a0: 431c 9cbd 320a a0bd 2c20 853d 4f2c 4fbd
000000b0: 4cd3 be3d bda1 4d3c 2018 91bc 851f 9c3d
000000c0: 99f6 ccbd 5601 0cbe 5266 3e3b c5bc 57bd
000000d0: cb71 41be 5e9e 40be a392 fb3c 9739 033e
000000e0: f487 5b3a 7edd a03d ac9d 62be e122 f13c
000000f0: e418 da3d 71fb 903d f7f9 0c3e 9c91 febd
00000100: 8167 253d ab65 8ebd 0cfa ecbd dbb7 2abd
00000110: aa64 e23d 11bb b9bd a506 1dbe f669 6dbe
00000120: 2777 26be bb11 103e a20d 123c 1286 3a3c
00000130: e5b2 553e aa78 983d 371b c43d 5fee afbe
00000140: 5654 77bd 9870 6cbe 6d2b 2e3e 2ed4 30bc
00000150: f997 0bbe a360 68bd 3b5d 0bbe 20a8 dd3b
00000160: e9a2 51be 9930 8e3d 957d 103d 3366 5dbd
00000170: 6b86 1f3d d2c8 ccbd 2340 17be 155c 063c
00000180: 6780 133e 056b d2bd e589 61bc 0635 8d3d
00000190: 399d ccbd cb09 423d 95ae 42bd 0804 2fbe
000001a0: 0e22 06bc 30d8 0bbe 4438 28bd 84af ffbc
000001b0: c116 b1bd 158b 80bc e70b 533d 8ff8 c83d
000001c0: b0c4 24be 7878 0dbd a700 96bd e8e8 23be
000001d0: 3409 533e 1586 583d 4ef8 0f3e f15d af3d
000001e0: c6d9 9cbb 1b4b 5dbd e630 133d 645c d43c
000001f0: 22dd 17bc aeb5 c4bd 2a5e f9bc cfaa c5bd
00000200: 6630 0dbc f9f4 d13a 3478 3ebd 23b6 c8bc
00000210: e235 b6bd 6648 8fbe 739d e4bd 7078 1f3d
00000220: 7017 34be b626 6f3d aca0 f13c b3ff 84be
00000230: 102d 233d 9d09 8abd a62a afbe bce9 26bc
00000240: 8751 92bc e11d 19bd 65dc 993d 56d2 513d
00000250: 74d8 42be 81dd e2bc f05a 7b3d 3f44 693d
00000260: 8212 e53c 33b6 f73d 92b1 58bd db5d 8cbd
00000270: a847 cdbc 4c16 b5bd 1c90 2bbd eb9e 52bd
00000280: 7c63 2a3e 37b9 043e b5a5 c63d da71 59bd
00000290: 0e04 3a3d 147d aabc b2c6 0cbe 2fbc 1dbe
000002a0: 1300 783d 9e17 a63d 66df 833d 106c 38bd
000002b0: 60a8 0d3d e78d 6f3e 72f4 da3b 4fca 97be
000002c0: 8b0e 9c3c 31d3 f3bd b6d3 0dbd 3e54 8b3c
000002d0: 0edb 86be 4724 4f3e 4b9c 8e3d 42d0 4dbd
000002e0: 9deb 9d3d 6aa5 e5bd b4f9 e43c a17c 34be
000002f0: c0eb ce3d 2aa7 f93c 950d 16bd 1753 b43d
00000300: 47ec af3d ae2f 1bbe 96d0 633c a82e bd3d
00000310: 4361 46bd 29bb cb3d b3c7 8abd 7930 50bd
00000320: 6882 b6bd 7e51 fb3c 2ddd 173e ac71 56bb
00000330: 8dba 0e3e 28e9 de3d 6b2d 30be 3b8a b73d
00000340: ba38 f03c d158 b53d 53c6 9abd 2fc4 9dbe
00000350: 8fbb 593d 1daa 2dbb 3a32 e23c 9ecb 2ebd
00000360: 4168 1bbe 51dc 083e 9b1a f0bd 62e4 893b
00000370: 46d1 89bd 2770 073e 356f 173e 3a3b bb3d
00000380: 0b6b 903d f2d4 d3bc dba5 e2bb 82cd aabd
00000390: cb0f e43d 6ed9 e43d c3b6 203d a052 aa3d
000003a0: 6070 213e 0f30 1c3e 2e6c 81bd 1cef 1c3d
000003b0: 80db 1cbd 97b0 55bd f196 27be 8720 893c
000003c0: 86ff 6fbd cf64 35be cc5f 803d d4b3 923c
000003d0: 5a4d 883d f7ed 6c3d 5993 bebd 6ff0 32be
000003e0: 0485 91bb 302c 533c f200 64bd 8400 9b3d
000003f0: 29da e5bd d628 46bc a3d8 1a3c b60b 603c

local_map_cnn.4.bias f4 [32]
0.06875188 -0.0030414276 -0.118630216 -0.2242888 0.00046302617 -0.007620943 0.005449249 -0.08550427
0.07441356 0.06721399 0.10155688 -0.088588566 0.060357198 0.12685479 -0.13258225 0.16716409
-0.108023845 0.085379176 0.05748689 -0.08103833 -0.08679501 0.009608208 0.007794921 -0.019939983
-0.040251173 0.10184243 -0.102396086 0.018275931 0.01820063 0.03761083 0.031717125 -0.00043980894
00000000: c9cd 8c3d b052 47bb 66f4 f2bd f7ab 65be
00000010: 52c2 f239 1ab9 f9bb 9d8f b23b dd1c afbd
00000020: 2366 983d 7da7 893d 0efd cf3d ec6d b5bd
00000030: 1c39 773d 39e6 013e a4c3 07be 102d 2b3e
00000040: 9b3b ddbd 47db ae3d 6077 6b3d 6df7 a5bd
00000050: 95c1 b1bd bf6b 1d3c 896c ff3b 2d59 a3bc
00000060: 6ade 24bd c492 d03d 0ab5 d1bd 68b7 953c
00000070: 7d19 953c d00d 1a3d d1e9 013d 2896 e6b9

local_map_fc.weight f4 [64, 512]
-0.09137306 -0.1646835 -0.22883542 -0.2973517 -0.038992375 -0.19631928 -0.06580897 -0.07276343
-0.04195541 -0.027015954 -0.05893798 -0.08261902 0.061146546 -0.0063337944 0.053900696 -0.17836328
-0.008497201 0.004526472 0.011000764 0.038571786 -0.027376378 -0.03116733 -0.0018293099 -0.04783929
0.034695625 0.06836007 0.010198946 -0.05564759 0.018115029 0.12031408 0.06604362 0.057023652
-0.14107142 0.089841045 0.034524407 -0.016639624 -0.3143864 -0.04526299 0.044565957 -0.14723743
0.12244146 -0.1629557 0.03712606 -0.10629589 0.1770122 0.04722435 0.04912995 0.13469556
0.092694975 -0.0035841097 -0.012572446 0.018548405 0.0920822 0.044392448 0.06273887 -0.082680024
0.096008584 0.21894978 0.0921549 0.030982062 0.24979833 -0.09573735 -0.0070917625 0.023119293
-0.0603957 -0.16898084 0.036473874 -0.09767206 -0.057733938 -0.11037864 -0.073270105 -0.023624338
0.0977361 -0.039439566 -0.080690764 -0.2564611 -0.07494159 0.004004753 -0.134965 0.09137132
-0.05712266 -0.1343823 -0.17902365 -0.090752594 -0.041119173 -0.1223636 -0.007370047 0.20034857
-0.03426104 0.22537418 -0.063643195 0.06487077 -0.06903416 -0.06611017 -0.041976932 0.02184363
-0.08206278 0.1018889 0.023832487 -0.029110411 -0.08331584 -0.0074244095 -0.06233185 0.0032579186
0.013737186 0.200739 -0.02696921 -0.08471828 0.044560395 -0.045867797 0.009120244 0.004766041
-0.02006979 0.06715764 -0.012903611 -0.083759315 -0.15861359 -0.12441414 -0.099514976 -0.0059365714
0.073105015 -0.15243651 -0.08837117 -0.06596374 0.06008759 0.012286855 0.040608197 0.051614758
-0.11866207 -0.1266136 -0.1285846 -0.13051103 -0.18367316 -0.054887746 -0.23338018 -0.011017248
-0.13526952 -0.061790302 -0.12557957 -0.012600466 0.06369695 -0.037536625 0.013275768 -0.03602611
-0.1898891 0.0026217876 -0.17547365 -0.35794774 -0.0022625653 -0.05525361 -0.16240177 -0.12810707
-0.0057267137 -0.11660252 -0.11060744 -0.1476568 -0.1950031 -0.15402274 0.011414765 -0.063755006
-0.04386757 -0.19632936 0.060343377 -0.13190354 -0.20092712 0.071945034 -0.0231659 -0.09857149
0.014897819 -0.10312534 -0.05798405 -0.062058035 -0.26744872 -0.22379582 -0.011511008 0.071586154
0.043297444 0.0073221736 -0.03591849 0.05631089 0.054242574 -0.037936863 0.0048517156 0.033019412
-0.0724781 -0.12725721 -0.032922845 0.050102763 0.1448371 0.16214962 0.07064248 0.09272426
-0.096399374 -0.21394089 -0.28906903 -0.27447262 0.034308083 -0.09215399 -0.07776583 -0.14008886
0.015765065 0.043932132 -0.018117875 -0.10399776 0.12780885 0.16486254 -0.04099936 0.037630793
-0.13232766 -0.1923255 -0.07698463 0.04763916 -0.10336961 -0.14871767 -0.031042175 -0.018037895
-0.00055233936 -0.033366006 0.039094727 0.104063876 -0.0067000515 -0.066474244 0.061277367 -0.007675553
-0.031991303 0.014833751 -0.018772548 0.07906193 0.08911739 -0.019362891 0.15802392 0.09005221
-0.017899444 -0.022956943 0.030409977 -0.0016983614 0.027568305 -0.031619534 0.04719048 -0.13015066
-0.101241745 0.041669343 -0.1690788 -0.035498515 -0.18744536 -0.118561216 -0.30899203 -0.15696149
-0.23676005 -0.2181808 -0.06985884 -0.03366535 -0.19256824 -0.1862638 -0.062364385 -0.16912866
00000000: cd21 bbbd cba2 28be d553 6abe 7b3e 98be
00000010: 78b6 1fbd ec07 49be dac6 86bd fe04 95bd
00000020: 70d9 2bbd 9050 ddbc f468 71bd 2934 a9bd
00000030: cd74 7a3d b88b cfbb fac6 5c3d dda4 36be
00000040: d837 0bbc cd52 943b 8c3c 343c 73fd 1d3d
00000050: 6d44 e0bc a152 ffbc 74c5 efba 22f3 43bd
00000060: 001d 0e3d 5d00 8c3d 7b19 273c baee 63bd
00000070: f865 943c 3a67 f63d e141 873d a291 693d
00000080: 0775 10be 95fe b73d 7769 0d3d d24f 88bc
00000090: 41f7 a0be af65 39bd cb8a 363d 69c5 16be
000000a0: 97c2 fa3d dcdd 26be 7f11 183d a9b1 d9bd
000000b0: b042 353e 526e 413d 7d3c 493d a2ed 093e
000000c0: ddd6 bd3d 62e3 6abb a9fc 4dbc d3f2 973c
000000d0: 9895 bc3d dbd4 353d 3d7d 803d 2554 a9bd
000000e0: 26a0 c43d 5f34 603e b5bb bc3d 18ce fd3c
000000f0: 22cb 7f3e f211 c4bd 0462 e8bb ac64 bd3c
00000100: 7b61 77bd 5009 2dbe a165 153d 4a08 c8bd
00000110: 6c7a 6cbd 320e e2bd a30e 96bd d487 c1bc
00000120: dd29 c83d 628b 21bd 3341 a5bd df4e 83be
00000130: fa7a 99bd 4e3a 833b 4434 0abe e320 bb3d
00000140: 73f9 69bd 839b 09be fa51 37be 7fdc b9bd
00000150: 946c 28bd c499 fabd 6f80 f1bb 2d28 4d3e
00000160: 4e55 0cbd 7dc8 663e 5d57 82bd f7da 843d
00000170: c861 8dbd c564 87bd 01f0 2bbd 6af1 b23c
00000180: 8810 a8bd 21ab d03d 593c c33c f578 eebc
00000190: 7fa1 aabd 7648 f3bb af4f 7fbd ce82 553b
000001a0: ef11 613c 868e 4d3e 88ee dcbc c780 adbd
000001b0: f684 363d dfdf 3bbd 136d 153c 732c 9c3b
000001c0: 6669 a4bc f289 893d ab69 53bc 018a abbd
000001d0: 9a6b 22be d7cc febd 82ce cbbd 9287 c2bb
000001e0: 15b8 953d 5118 1cbe f2fb b4bd ff17 87bd
000001f0: 681e 763d ce4e 493c c854 263d ff69 533d
00000200: 1905 f3bd ffa6 01be aeab 03be afa4 05be
00000210: d114 3cbe f9d1 60bd 37fb 6ebe b081 34bc
00000220: 1884 0abe d417 7dbd ee97 00be 2f72 4ebc
00000230: 8c73 823d 01c0 19bd 9b82 593c 1d90 13bd
00000240: 4a72 42be 4cd2 2b3b 5daf 33be ed44 b7be
00000250: 8c47 14bb 9c51 62bd a64c 26be 802e 03be
00000260: 28a7 bbbb 4dcd eebd 2786 e2bd 5833 17be
00000270: e5ae 47be 23b8 1dbe ff04 3b3c fc91 82bd
00000280: 7bae 33bd 900a 49be 9e2a 773d b911 07be
00000290: d7bf 4dbe eb57 933d 6ac6 bdbc d9df c9bd
000002a0: fb15 743c 6133 d3bd af80 6dbd 9130 7ebd
000002b0: 0aef 88be bb2a 65be ab98 3cbc c39b 923d
000002c0: a958 313d d8ee ef3b 441f 13bd 3fa6 663d
000002d0: 762d 5e3d af63 1bbd 24fb 9e3b 5d3f 073d
000002e0: 666f 94bd b74f 02be 1bda 06bd 8e38 4d3d
000002f0: 2d50 143e 8d0a 263e 01ad 903d 38e6 bd3d
00000300: 096d c5bd 5213 5bbe db00 94be ad87 8cbe
00000310: a286 0c3d 3bbb bcbd b143 9fbd 7473 0fbe
00000320: bd25 813c 2ef2 333d f06b 94bc c7fc d4bd
00000330: 53e0 023e bad1 283e f2ee 27bd bf22 1a3d
00000340: e780 07be faf0 44be 1eaa 9dbd 4821 433d
00000350: 72b3 d3bd 7249 18be 294c febc 35c4 93bc
00000360: deca 10ba cbaa 08bd cb21 203d 711f d53d
00000370: 1b8c dbbb a623 88bd fafd 7a3d 3583 fbbb
00000380: 5009 03bd 4309 733c e3c8 99bc 39eb a13d
00000390: 2e83 b63d ed9e 9ebc 06d1 213e 4b6d b83d
000003a0: dba1 92bc 3310 bcbc 581e f93c 8d9b deba
000003b0: edd6 e13c 7c83 01bd ce4a 413d 3746 05be
000003c0: d557 cfbd 79ad 2a3d fe22 2dbe e466 11bd
000003d0: adf1 3fbe 39d0 f2bd 3434 9ebe 83ba 20be
000003e0: 3a71 72be ca6a 5fbe 2712 8fbd aee4 09bd
000003f0: 9c30 45be f0bb 3ebe cc71 7fbd 1030 2dbe

local_map_fc.bias f4 [64]
-0.038934767 -0.119744435 0.016479265 -0.06347914 -0.059950024 -0.111165866 -0.07399491 0.06750444
-0.019030692 -0.057631813 -0.05062065 -0.036082193 0.113402724 -0.029515522 -0.031801783 0.10283266
0.03425454 -0.045295224 -0.08351537 0.013142029 -0.11154815 -0.12076341 0.04062155 0.05718561
-0.05221513 -0.05802516 0.0039084693 -0.019538106 0.043407362 0.07809019 0.007402243 -0.09684428
0.045865413 0.006435119 -0.035087816 -0.019007176 -0.05151649 0.09029491 0.13371526 0.04139077
-0.08309935 -0.014712655 0.022375565 0.118867844 0.07934634 0.07468486 -0.053443924 0.0086040115
-0.046348985 -0.01945487 -0.055158563 -0.06192928 -0.011718648 -0.055432305 -0.051274464 0.06589639
0.01046988 -0.19446662 0.00844891 -0.052620888 -0.033345565 0.074206196 0.040909074 0.08165291
00000000: 107a 1fbd 923c f5bd 86ff 863c 5a01 82bd
00000010: 288e 75bd eeaa e3bd a58a 97bd c53f 8a3d
00000020: 41e6 9bbc 560f 6cbd 9957 4fbd ecca 13bd
00000030: b03f e83d 89ca f1bc 9642 02bd ee99 d23d
00000040: 7d4e 0c3d 7c87 39bd 1b0a abbd aa51 573c
00000050: 5b73 e4bd cf52 f7bd c862 263d 753b 6a3d
00000060: 88df 55bd caab 6dbd 9e12 803b 610e a0bc
00000070: ebcb 313d c0ed 9f3d 848e f23b 4b56 c6bd
00000080: 5fdd 3b3d b1dd d23b 3eb8 0fbd f0b4 9bbc
00000090: f402 53bd 8aec b83d a7ec 083e 5e89 293d
000000a0: fe2f aabd 590d 71bc f64c b73c fc70 f33d
000000b0: 5580 a23d 60f4 983d 04e8 5abd d7f7 0c3c
000000c0: 6fd8 3dbd d25f 9fbc f2ed 61bd 8fa9 7dbd
000000d0: 92ff 3fbc fc0c 63bd 2c05 52bd b0f4 863d
000000e0: dc89 2b3c 4222 47be 4c6d 0a3c 0089 57bd
000000f0: 5c95 08bd 6bf9 973d 4690 273d a439 a73d

self_entity_fc1.weight f4 [32, 26]
0.2507344 0.020237865 -0.032231487 0.021550305 -0.049512114 0.20203438 -0.02249763 -0.5511904
-0.031599134 -0.16545717 -0.14380798 -0.43647176 0.1386808 -0.1794657 0.19177333 0.12798093
-0.2619167 -0.06470318 0.03643636 0.0009694931 -0.09538954 0.2999676 -0.1381174 0.1846682
-0.0025296868 0.052354816 -0.35576072 -0.08178434 0.022242697 0.15650634 0.17444468 -0.20087984
0.115107164 -0.30598804 -0.06181427 -0.063687555 -0.11926153 0.034546454 0.037326735 0.07982907
0.200517 0.127005 0.09856767 -0.02513643 -0.05020759 -0.021872377 -0.063551165 0.0813126
-0.04583029 -0.016256167 0.0879735 0.18860671 -0.12273738 -0.06400937 0.0147735635 -0.15075456
0.13876145 -0.47259244 -0.19305256 0.10162848 0.13182925 -0.011591823 -0.44411567 -0.06721946
-0.078751095 0.08681649 0.054826457 0.21005815 0.004374671 0.104217164 0.022940388 0.14091957
0.057109036 0.09741084 0.17980045 -0.10809524 -0.039984453 -0.13354373 -0.10576473 -0.03894235
0.13139325 -0.074524045 -0.0673534 0.11613783 0.099302374 -0.060117975 0.75280577 0.31477985
0.110460386 -0.07386285 0.04028502 0.253651 0.0058906027 -0.13898985 0.19428934 0.2227861
-0.11891993 0.0016921061 0.27610376 -0.046593025 -0.15332116 0.03820102 -0.110016264 0.13369043
-0.18094535 0.0238718 0.0011680296 -0.1438858 0.13679221 0.050633352 0.01801593 -0.30142865
0.03284993 0.17531905 0.41638532 0.20164672 0.15170749 0.09145143 -0.17601272 0.062350374
0.23527062 0.35251412 -0.14643113 -0.015204744 0.049035538 -0.078891024 -0.059175998 -0.02327878
-0.11358514 -0.10326105 0.078305095 0.10635313 0.20090805 0.09429347 0.052690152 -0.025090149
0.1459028 -0.49252814 0.18861394 0.0065099252 0.044152163 0.31038654 0.15757668 0.10625952
0.02046618 -0.21068053 0.097268276 0.0023786707 -0.19858363 -0.1745984 -0.17675072 -0.14970629
-0.12671897 -0.18234152 0.061289426 0.09666513 -0.036260474 -0.12103131 -0.01033598 0.12182052
0.09505304 -0.07171108 -0.06181195 -0.24772567 0.08874484 -0.025401881 -0.2706211 0.038481463
-0.78811216 0.08611469 0.09034723 0.048945174 -0.33305585 -0.09543288 0.045432214 0.021493783
-0.048107054 0.19485301 0.1282283 -0.09197671 0.0074946093 -0.12567064 0.18655187 0.011435989
-0.017829893 0.043256335 -0.03638491 -0.1540785 0.11846688 0.05046039 -0.55446166 0.1817545
-0.15335344 0.23537035 0.10136012 0.12347419 0.08706097 0.23899023 0.11063219 0.20327479
-0.035518058 0.07771724 0.037624218 0.17989774 0.0064963554 -0.072329395 0.090831265 -0.14028168
-0.022800159 -0.120155185 -0.0022532446 0.08020847 -0.007872989 -0.11611507 0.10022116 0.49081543
0.09063491 0.118194975 -0.64713925 -0.085719764 -0.14801165 0.10373987 0.1769667 0.13604367
0.15405986 -0.14569715 -0.07280676 -0.04153847 -0.074742645 0.16135727 0.096485905 -0.058057997
-0.13567328 -0.13360727 -0.19367631 -0.19293699 -0.061321173 0.060095306 -0.0685788 -0.40205744
-0.41384816 0.15363638 -0.11562715 -0.06779999 0.15051162 0.17896329 0.079950154 -0.057335686
0.0834944 0.113504894 -0.058980804 -0.1369029 0.08801579 -0.09463922 0.00454474 0.27153635
00000000: 4260 803e e1c9 a53c 2a05 04bd 448a b03c
00000010: 37cd 4abd 1ae2 4e3e f34c b8bc d01a 0dbf
00000020: 186e 01bd 9b6d 29be 6642 13be 3a79 dfbe
00000030: 5702 0e3e dbc5 37be 3a60 443e 6f0d 033e
00000040: f219 86be 1a83 84bd 4b3e 153d 9525 7e3a
00000050: 975b c3bd 5a95 993e a66e 0dbe a919 3d3e
00000060: 1ac9 25bb 0172 563d 4526 b6be 8c7e a7bd
00000070: 5136 b63c 3343 203e a0a1 323e 72b3 4dbe
00000080: 4ebd eb3d 77aa 9cbe f630 7dbd 9f6e 82bd
00000090: 643f f4bd 9580 0d3d ebe3 183d 6c7d a33d
000000a0: 5454 4d3e 990d 023e d9dd c93d eaea cdbc
000000b0: 79a6 4dbd b32d b3bc 1d27 82bd 3887 a63d
000000c0: 8bb8 3bbd a72b 85bc 732b b43d 1e22 413e
000000d0: bc5d fbbd 5817 83bd d10c 723c 675f 1abe
000000e0: 7b17 0e3e a3f7 f1be 92af 45be 9822 d03d
000000f0: 3ffe 063e a1eb 3dbc 2163 e3be 5baa 89bd
00000100: 4148 a1bd d8cc b13d b591 603d 7c19 573e
00000110: 6659 8f3b cf6f d53d 7bed bb3c 384d 103e
00000120: 2aeb 693d 567f c73d 9c1d 383e 0a61 ddbd
00000130: bdc6 23bd b0bf 08be 2e9b d8bd 0382 1fbd
00000140: f48b 063e 10a0 98bd 94f0 89bd acd9 ed3d
00000150: 0b5f cb3d 443e 76bd e1b7 403f d32a a13e
00000160: 0e39 e23d 6845 97bd e801 253d 8bde 813e
00000170: f505 c13b 5b53 0ebe c9f3 463e 0a22 643e
00000180: 4b8c f3bd a9c9 dd3a 795d 8d3e 54d8 3ebd
00000190: 3900 1dbe ac78 1c3d 3550 e1bd 25e6 083e
000001a0: bd49 39be cb8e c33c 9218 993a cd56 13be
000001b0: 4213 0c3e eb64 4f3d 2596 933c db54 9abe
000001c0: a68d 063d d686 333e 7530 d53e 7a7c 4e3e
000001d0: 3559 1b3e e34a bb3d ae3c 34be 1b63 7f3d
000001e0: c8ea 703e bb7c b43e 0bf2 15be 521d 79bc
000001f0: 7dd9 483d 9e91 a1bd 8862 72bd 24b3 bebc
00000200: 539f e8bd 887a d3bd 6c5e a03d abcf d93d
00000210: d7ba 4d3e ef1c c13d a1d1 573d db89 cdbc
00000220: 8b67 153e a62c fcbe 0324 413e 3651 d53b
00000230: e6d8 343d fcea 9e3e c85b 213e 979e d93d
00000240: b1a8 a73c a3bc 57be 9734 c73d 79e3 1b3b
00000250: 8259 4bbe ecc9 32be 24fe 34be 9b4c 19be
00000260: 9ec2 01be bcb7 3abe 9f0a 7b3d 5ef8 c53d
00000270: dd85 14bd 43df f7bd 3e58 29bc 097d f93d
00000280: 2bab c23d 42dd 92bd 872e 7dbd ccab 7dbe
00000290: dbbf b53d 9b17 d0bc d98e 8abe bd9e 1d3d
000002a0: b8c1 49bf e65c b03d f807 b93d bc7a 483d
000002b0: 4c86 aabe 5072 c3bd 2117 3a3d bb13 b03c
000002c0: e70b 45bd 8c87 473e 484e 033e 495e bcbd
000002d0: 5795 f53b ceaf 00be 7407 3f3e 045e 3b3c
000002e0: ff0f 92bc 8e2d 313d 5808 15bd c1c6 1dbe
000002f0: c39e f23d 8eaf 4e3d 33f1 0dbf da1d 3a3e
00000300: af08 1dbe ed04 713e e595 cf3d 09e0 fc3d
00000310: 064d b23d dbb9 743e 2193 e23d 4427 503e
00000320: 627b 11bd 372a 9f3d da1b 1a3d 1d37 383e
00000330: 61df d43b 6f21 94bd be05 ba3d 00a6 0fbe
00000340: 66c7 babc ec13 f6bd 2cab 13bb 5744 a43d
00000350: b6fd 00bc bdcd edbd c040 cd3d 294c fb3e
00000360: cc9e b93d 3510 f23d ebaa 25bf d88d afbd
00000370: 5e90 17be 9275 d43d c236 353e 084f 0b3e
00000380: dec1 1d3e a231 15be b61b 95bd 3e24 2abd
00000390: ac12 99bd d73a 253e 679a c53d 39ce 6dbd
000003a0: f0ed 0abe 58d0 08be 1553 46be 4691 45be
000003b0: e92b 7bbd 7f26 763d 0b73 8cbd 79da cdbe
000003c0: e8e3 d3be db52 1d3e edcd ecbd b9da 8abd
000003d0: b81f 1a3e 2742 373e e8bc a33d d3d8 6abd
000003e0: 1dff aa3d 4175 e83d db95 71bd 4630 0cbe
000003f0: 9f41 b43d 35d2 c1bd 0bec 943b d006 8b3e

self_entity_fc1.bias f4 [32]
-0.033676278 0.26548705 0.025121072 -0.21192941 -0.058993336 -0.11415574 0.22850855 0.11632822
0.22089133 0.14569944 0.0722903 0.20463762 0.029130612 -0.036903214 -0.11009941 -0.029408103
0.1362918 0.14823428 0.2113697 0.04311723 0.21905667 0.119325906 0.22964561 -0.07058136
0.227994 0.10072143 -0.21797456 0.040563863 0.30528095 0.4269595 -0.08842067 0.056420617
00000000: 23f0 09bd ebed 873e b5ca cd3c 0604 59be
00000010: ffa2 71bd 7cca e9bd 25fe 693e 7d3d ee3d
00000020: 5631 623e 3c32 153e f00c 943d 868c 513e
00000030: 52a3 ee3c d327 17bd cd7b e1bd 43e9 f0bc
00000040: 1490 0b3e baca 173e 4c71 583e b19b 303d
00000050: 6450 603e 2461 f43d 3828 6b3e f68c 90bd
00000060: 4277 693e 0947 ce3d b934 5fbe 4b26 263d
00000070: c94d 9c3e 709a da3e e515 b5bd 4e19 673d

self_entity_fc2.weight f4 [32, 32]
-0.106601655 0.15203509 0.47609848 -0.37659964 0.19911614 0.10950446 -0.22306634 0.1949672
-0.42965007 -0.042096265 0.065942235 -0.16178453 -0.09950036 -0.0013867449 -0.33465078 0.06601455
0.06951511 0.12736031 0.09903179 0.110812 -0.01230767 -0.007210456 -0.07785231 0.25548282
-0.004013212 0.10988418 -0.36647034 0.2188128 0.44630876 0.45131716 0.23067303 -0.038033478
0.26647735 0.06155922 -0.1290973 0.04530057 -0.54250884 -0.09183847 0.64613163 -0.065143235
0.37997958 0.0062864535 0.30524066 0.48070788 0.0049836645 -0.26961726 0.14769928 0.18021224
0.24194822 -0.083087265 0.036518876 -0.1501956 0.056424975 0.13854186 -0.14870715 -0.14080183
-0.21434237 0.05815621 -0.11351968 -0.06883005 -0.43045583 -0.49219236 0.09811813 -0.10576063
-0.13414593 -0.0011987115 -0.386045 -0.2618171 0.23100239 -0.13053596 -0.13882908 0.13036294
-0.98997897 0.0065485844 0.08831184 -0.013171952 -0.06300363 -0.6203604 -0.3332391 0.1030132
0.053502653 0.10971313 0.28205857 -0.15263075 0.04061047 0.083778955 0.09586187 0.23586608
0.09185486 0.20917498 -0.36130694 -0.039239414 0.10314018 -0.05486815 0.0452269 -0.027558902
0.07650466 -0.17956299 -0.5237819 0.09925093 0.15608208 0.21463299 0.012951387 -0.37943703
-0.55763394 -0.22741789 -0.53523797 0.009207211 0.28226128 -0.6661761 0.31445736 0.14199187
0.033130497 0.23131815 -0.40311992 -0.021071916 -0.12681495 -0.2868975 -0.10587375 -0.08982703
0.026316196 -0.04136241 0.22736427 -0.44210476 0.14106627 0.10869397 -0.12538175 0.18679072
0.35976806 0.1068979 -0.18022609 -0.014210778 -0.33955568 -0.08218941 0.1930291 -0.13893093
0.36429954 -0.042483736 0.22989433 0.51093215 0.18872724 -0.41161406 -0.02971617 0.23910792
0.20312458 0.036614552 -0.02047255 -0.08687723 0.28317067 0.032720648 -0.030969707 0.13677216
-0.3471721 0.078556694 0.10024658 0.0425082 -0.31016037 -0.39768025 0.07207856 0.03865704
0.13460015 0.32262796 0.39955112 -0.054698836 0.1667925 -0.032087155 0.14562546 0.08127022
0.83932865 -0.17848654 0.30785364 0.20475625 -0.21323627 0.6331368 0.18509507 0.19479562
0.21160209 0.027046692 0.025987785 0.09564345 0.08536267 -0.072771885 0.09532272 0.013242805
0.24319142 -0.16744852 -0.20121893 0.07367742 -0.18144451 -0.37093997 0.022390306 -0.16589229
-0.07385374 0.1945945 0.19238043 -0.32902217 0.08875567 0.06081069 -0.418677 0.01331624
-1.0554985 0.021396521 0.20882857 -0.14045793 -0.20466253 -0.594415 -0.040016834 -0.1092575
0.121404134 0.16647317 0.12992136 0.10011993 0.16754472 -0.1280586 0.2120552 0.11198706
0.09991183 0.053973448 -0.46655568 0.27169663 0.021587757 -0.06700124 -0.039674416 0.014644633
0.40357247 0.015349608 0.012361577 -0.042465344 -0.050796643 -0.16621101 -0.23150218 0.032901052
0.27719757 0.047462124 0.08582103 0.47525394 0.039822984 -0.44709453 0.026081335 0.09556416
0.033589713 -0.061399568 0.067536496 -0.022761522 0.13239706 -0.08745661 -0.031909265 0.24930899
-0.27917007 0.035200093 -0.008952754 -0.038255762 -0.34798536 -0.29394737 0.09329178 0.07678357
00000000: f851 dabd 16af 1b3e 2ec3 f33e abd1 c0be
00000010: 1ae5 4b3e e043 e03d 816b 64be 7ba5 473e
00000020: 18fb dbbe 226d 2cbd b90c 873d d8aa 25be
00000030: d8c6 cbbd 70c3 b5ba 5957 abbe a332 873d
00000040: f05d 8e3d be6a 023e 2ed1 ca3d 67f1 e23d
00000050: 1ca6 49bc b045 ecbb 0871 9fbd a5ce 823e
00000060: 4381 83bb f50a e13d 00a2 bbbe 7610 603e
00000070: 9582 e43e 0b13 e73e 8d35 6c3e fec8 1bbd
00000080: b86f 883e 8525 7c3d 1532 04be 178d 393d
00000090: dce1 0abf cf15 bcbd e268 253f d169 85bd
000000a0: af8c c23e 98fe cd3b 8148 9c3e 581f f63e
000000b0: 024e a33b 460b 8abe 7b3e 173e 8f89 383e
000000c0: 46c1 773e a829 aabd d194 153d e0cc 19be
000000d0: e01d 673d ebdd 0d3e b046 18be 5b2e 10be
000000e0: 917c 5bbe 3535 6e3d 027d e8bd c5f6 8cbd
000000f0: b564 dcbe a300 fcbe 28f2 c83d 0799 d8bd
00000100: 8d5d 09be 151e 9dba b1a7 c5be e40c 86be
00000110: e48b 6c3e 38ab 05be 3629 0ebe dd7d 053e
00000120: 436f 7dbf 8295 d63b d7dc b43d 2ccf 57bc
00000130: 0c08 81bd f0cf 1ebf 519e aabe 96f8 d23d
00000140: 9925 5b3d 47b1 e03d fb69 903e 3c4b 1cbe
00000150: 2a57 263d 4d94 ab3d 3a53 c43d e186 713e
00000160: 671e bc3d f731 563e 39fd b8be 82b9 20bd
00000170: 293b d33d 6dbd 60bd d83f 393d 35c3 e1bc
00000180: 7aae 9c3d 5cdf 37be 9216 06bf 1244 cb3d
00000190: fbd3 1f3e c0c8 5b3e 0e32 543c 9245 c2be
000001a0: 19c1 0ebf 3ce0 68be 5b05 09bf d8d9 163c
000001b0: 8d84 903e 848a 2abf 8e00 a13e 5166 113e
000001c0: d8b3 073d aade 6c3e bc65 cebe 039f acbc
000001d0: c7db 01be 3be4 92be 56d4 d8bd 3cf7 b7bd
000001e0: 1095 d73c a16b 29bd 2ed2 683e 8e5b e2be
000001f0: ad73 103e f29a de3d 1364 00be 1146 3f3e
00000200: 8533 b83e 49ed da3d 308d 38be 53d4 68bc
00000210: 3eda adbe ec52 a8bd 6ca9 453e e943 0ebe
00000220: 7885 ba3e 6d03 2ebd 6b69 6b3e 73cc 023f
00000230: b741 413e 14bf d2be 536f f3bc b5d8 743e
00000240: e4ff 4f3e 24f9 153d 0db6 a7bc b0ec b1bd
00000250: bffb 903e 1606 063d 2fb4 fdbc 000e 0c3e
00000260: 8bc0 b1be 55e2 a03d 144e cd3d 141d 2e3d
00000270: 57cd 9ebe bf9c cbbe ed9d 933d d856 1e3d
00000280: 9fd4 093e 7e2f a53e f791 cc3e e30b 60bd
00000290: a7cb 2a3e d26d 03bd d71e 153e 0071 a63d
000002a0: 3ede 563f 2dc5 36be fe9e 9d3e 9fab 513e
000002b0: 9c5a 5abe 4115 223f 9089 3d3e 8178 473e
000002c0: 38ae 583e 0691 dd3c 56e4 d43c b7e0 c33d
000002d0: a0d2 ae3d 6d09 95bd 8f38 c33d 5af8 583c
000002e0: 2c07 793e a077 2bbe 560c 4ebe 30e4 963d
000002f0: 97cc 39be d8eb bdbe e06b b73c abdf 29be
00000300: a140 97bd c843 473e 60ff 443e 9875 a8be
00000310: 88c5 b53d a114 793d d55c d6be 5c2c 5a3c
00000320: 931a 87bf c247 af3c 28d7 553e 34d4 0fbe
00000330: 0e93 51be 952b 18bf b1e8 23bd 65c2 dfbd
00000340: bba2 f83d f177 2a3e 1b0a 053e ae0b cd3d
00000350: d890 2b3e cb21 03be 0025 593e 7959 e53d
00000360: 939e cc3d 4313 5d3d 63e0 eebe d21b 8b3e
00000370: cfd8 b03c f237 89bd a481 22bd 0bf0 6f3c
00000380: 0da1 ce3e ec7c 7b3c 3688 4a3c 24f0 2dbd
00000390: 2410 50bd 3833 2abe e80e 6dbe 41c3 063d
000003a0: d7ec 8d3e a567 423d f0c2 af3d 7c54 f33e
000003b0: 6d1d 233d 93e9 e4be 86a8 d53c 24b7 c33d
000003c0: 5e95 093d 1d7e 7bbd 9350 8a3d 5f76 babc
000003d0: 1893 073e 731c b3bd 4ab3 02bd db4a 7f3e
000003e0: 61ef 8ebe f92d 103d 92ae 12bc 13b2 1cbd
000003f0: 232b b2be 4580 96be c30f bf3d b440 9d3d

self_entity_fc2.bias f4 [32]
0.10246466 0.093025655 0.0327764 -0.06501685 0.1848849 -0.035290137 -0.03610901 0.26622242
-0.08178473 -0.1334613 0.14807577 0.0042743594 -0.13186678 0.15304744 -0.00698347 -0.11821373
-0.10178241 -0.13910995 -0.05156831 -0.10646715 0.14202622 0.14039247 0.02722175 -0.19436991
0.097787954 -0.04282487 -0.06961796 -0.09748852 0.08238894 -0.07161212 0.103024505 0.1641271
00000000: fed8 d13d 3c84 be3d 8c40 063d 8e27 85bd
00000010: 7852 3d3e 648c 10bd 0be7 13bd 4e4e 883e
00000020: c17e a7bd 14aa 08be 2da1 173e ed0f 8c3b
00000030: 1608 07be 78b8 1c3e 98d5 e4bb 0a1a f2bd
00000040: 4c73 d0bd d772 0ebe 4b39 53bd 730b dabd
00000050: 526f 113e 0bc3 0f3e 2600 df3c e808 47be
00000060: 0d45 c83d 2269 2fbd dc93 8ebd 10a8 c7bd
00000070: 88bb a83d 60a9 92bd 83fe d23d ef10 283e

other_entity_fc1.weight f4 [32, 26]
0.11695352 -0.21922149 0.04497872 -0.0628106 -0.3703086 -0.19739138 -0.36913773 -0.579154
0.031306874 -0.2533683 0.17937426 0.026853122 -0.14415017 -0.07679077 0.047295716 -0.001191325
-0.19955099 -0.17985469 -0.17689532 0.10452267 0.03623546 0.112470284 -0.054960586 -0.04645952
-0.0053941202 0.5642183 0.10176046 0.22242533 -0.036494624 -0.028251324 -0.16720068 0.22257406
-0.15966497 -0.9757977 -0.03876575 0.21323238 0.09432719 0.19756424 0.14430413 0.014134117
-0.07749535 -0.05920129 0.13402075 -0.025038056 0.023132546 0.19299641 -0.12711944 0.08542064
-0.36921597 -0.007758617 -0.12663367 -0.31319696 0.10598143 0.050425272 0.036381237 -0.11504935
-0.041891627 -0.15808871 0.16766189 0.1119064 0.1314428 0.18779463 -0.14805591 -0.32085472
0.017062485 0.027560936 0.010584109 -0.055756416 0.16395065 -0.10816103 -0.048244912 -0.16722761
-0.18621679 0.13957928 0.2227888 0.08507121 -0.162003 -0.053119756 -0.006005793 -0.05773517
-0.16172723 0.13558319 -0.04245644 0.014607469 -0.25713915 0.8335418 0.1888815 -0.029625766
-0.106176056 -0.057255525 0.1775553 -0.1240094 -0.21363804 0.105239406 0.0732291 0.016041419
-0.0819102 0.034715667 0.059061535 0.09914744 -0.38916326 0.20651887 -0.0066660307 -0.23698072
0.022431321 -0.23309536 -0.19946484 -0.5830083 -0.17154256 -0.23014538 0.13073148 0.017556695
-0.7147918 -0.44121474 -0.026166288 -0.043980207 -0.013152695 -0.116873816 -0.028879842 0.17672113
-0.11127234 0.080025055 0.07813853 0.181696 -0.17802048 0.0690647 0.15558128 -0.2302168
0.2996917 -0.069254585 -0.03310735 0.13560037 0.07930585 -0.072534606 0.051012713 0.29844674
-0.177647 -0.4170723 0.32374486 0.10525661 -0.12271105 -0.2790386 -0.24891655 0.11793028
-0.20782855 0.027748283 0.16548699 0.014939481 -0.039678615 -0.12803149 -0.20201574 -0.22141027
0.2262055 0.013691392 0.02049248 0.26580983 -0.45203593 -0.040307958 0.17785542 -0.11616765
0.07499995 0.13361065 -0.113277085 0.17230147 0.15449165 0.032735046 -0.8249618 0.04437522
0.04138866 0.049280945 0.21884444 -0.028101567 0.02010751 -0.07145576 -0.04586965 0.004122268
-0.033936452 0.15096045 0.07191743 -0.0725211 -0.1593228 -0.21207272 0.11693035 -0.20303215
-0.02691677 -0.07360707 0.13764 5.7999623e-05 0.16282885 0.2924159 -0.42444 -0.46360654
0.031558402 -0.11738279 0.03763118 -0.27514434 -0.1633092 0.08232541 -0.11352153 -0.07415953
0.12899098 -0.049122807 0.05301562 -0.08391532 -0.21060692 0.077673934 -0.34324512 0.24113257
-0.15248585 0.060136665 -0.050164625 -0.045306448 -0.06467058 0.04754619 -0.55747837 -0.16370182
-0.2441137 -0.15595388 0.13635364 -0.045256786 0.12416733 -0.1638942 0.029074997 0.09983793
-0.12585635 0.1530247 0.067478165 0.024132356 -0.022866579 0.083131686 -0.10963125 -0.07399859
0.29425102 0.2702285 -0.3665591 -0.044329543 0.16717346 0.060047224 -0.11185785 -0.053452216
0.0023437096 -0.38265944 -0.14448974 0.07746078 -0.05624329 0.034086753 -0.10904148 0.048724
0.061251942 0.1356479 -0.023193652 -0.011188701 -0.0014495469 -0.04116219 -0.0506685 -0.100940965
00000000: 5485 ef3d 997b 60be 9b3b 383d d8a2 80bd
00000010: 1799 bdbe f720 4abe 9fff bcbe 7043 14bf
00000020: a33b 003d 7db9 81be e3ad 373e 14fb db3c
00000030: 1a9c 13be 7b44 9dbd 27b9 413d 3c26 9cba
00000040: 1857 4cbe d42b 38be 0c24 35be fb0f d63d
00000050: a26b 143d d256 e63d 5a1e 61bd 564c 3ebd
00000060: 29c1 b0bb 9c70 103f ca67 d03d 77c3 633e
00000070: 637b 15bd 526f e7bc a836 2bbe 74ea 633e
00000080: 377f 23be e1cd 79bf d6c8 1ebd 9759 5a3e
00000090: 9d2e c13d 484e 4a3e 76c4 133e c992 673c
000000a0: e2b5 9ebd 0d7d 72bd bc3c 093e 9c1c cdbc
000000b0: 7780 bd3c daa0 453e 992b 02be 04f1 ae3d
000000c0: e009 bdbe ff3b febb 42ac 01be 5a5b a0be
000000d0: cb0c d93d bb8a 4e3d 7e04 153d fe9e ebbd
000000e0: 8e96 2bbd 02e2 21be 8faf 2b3e 2f2f e53d
000000f0: f198 063e 3c4d 403e f89b 17be 1247 a4be
00000100: a0c6 8b3c 79c7 e13c f968 2d3c d760 64bd
00000110: aee2 273e 8883 ddbd 759c 45bd b73d 2bbe
00000120: 9daf 3ebe dfed 0e3e bf22 643e d139 ae3d
00000130: 1de4 25be 1a94 59bd 3ecc c4bb b77b 6cbd
00000140: d39b 25be 52d6 0a3e cee6 2dbd 2a54 6f3c
00000150: bea7 83be ff62 553f 276a 413e bcb1 f2bc
00000160: d572 d9bd c584 6abd 0ed1 353e a4f8 fdbd
00000170: eec3 5abe c287 d73d 23f9 953d 4b69 833c
00000180: 89c0 a7bd 0432 0e3d 82ea 713d d00d cb3d
00000190: 6840 c7be af79 533e b86e dabb 13ab 72be
000001a0: e4c1 b73c 8db0 6ebe 8340 4cbe 0840 15bf
000001b0: daa8 2fbe 3bab 6bbe 79de 053e 0fd3 8f3c
000001c0: 98fc 36bf e6e6 e1be af5a d6bc 9724 34bd
000001d0: 677e 57bc 8a5b efbd 6b95 ecbc 62f6 343e
000001e0: c1e2 e3bd 2de4 a33d 1807 a03d 840e 3a3e
000001f0: 004b 36be cb71 8d3d b350 1f3e f4bd 6bbe
00000200: 3171 993e 59d5 8dbd 939b 07bd d3da 0a3e
00000210: 1b6b a23d 068d 94bd b5f2 503d 03ce 983e
00000220: 18e9 35be 808a d5be e3c1 a53e c790 d73d
00000230: ee4f fbbd 26de 8ebe fbe3 7ebe 6e85 f13d
00000240: 02d1 54be 5e50 e33c 6c75 293e bac4 743c
00000250: 0b86 22bd b01a 03be 37dd 4ebe 60b9 62be
00000260: 6aa2 673e dc51 603c d8df a73c 3a18 883e
00000270: 4171 e7be f519 25bd bb1f 363e 4ee9 edbd
00000280: 9399 993d 3bd1 083e d1fd e7bd cc6f 303e
00000290: 0f33 1e3e 2f15 063d b230 53bf cac2 353d
000002a0: 2887 293d d1da 493d c218 603e 4235 e6bc
000002b0: 81b8 a43c 6657 92bd d0e1 3bbd 1714 873b
000002c0: f300 0bbd 6095 1a3e 7249 933d f185 94bd
000002d0: 8425 23be 9729 59be 2e79 ef3d a9e7 4fbe
000002e0: 8f80 dcbc 4ebf 96bd 80f1 0c3e 9f44 7338
000002f0: 9bbc 263e 89b7 953e 3350 d9be d65d edbe
00000300: 6243 013d 6366 f0bd 2723 1a3d b8df 8cbe
00000310: 873a 27be 399a a83d fa7d e8bd f4e0 97bd
00000320: 3616 043e ff34 49bd e826 593d ccdb abbd
00000330: 57a9 57be 8313 9f3d d3bd afbe 75eb 763e
00000340: 4025 1cbe dd51 763d 6c79 4dbd 4193 39bd
00000350: 0272 84bd cbbf 423d e7b6 0ebf 73a1 27be
00000360: f1f8 79be 60b2 1fbe 4aa0 0b3e 2e5f 39bd
00000370: 714b fe3d e2d3 27be b02e ee3c d477 cc3d
00000380: 7de0 00be 82b2 1c3e fe31 8a3d 38b1 c53c
00000390: b152 bbbc f240 aa3d 5986 e0bd 938c 97bd
000003a0: 12a8 963e 645b 8a3e a2ad bbbe e592 35bd
000003b0: 852f 2b3e 14f4 753d ba15 e5bd b6f0 5abd
000003c0: ec98 193b f0eb c3be 1ef5 13be c2a3 9e3d
000003d0: 5d5f 66bd 8d9e 0b3d 2451 dfbd d192 473d
000003e0: 51e3 7a3d 48e7 0a3e 9d00 bebc d050 37bc
000003f0: b9fe bdba af99 28bd c689 4fbd 23ba cebd

other_entity_fc1.bias f4 [32]
-0.10518466 -0.17307065 -0.106942356 -0.0040991423 -0.07314718 -0.27334917 -0.1149069 -0.06739225
-0.016054405 -0.017377397 0.00018701497 0.02448776 -0.04435758 -0.14308785 0.01196759 -0.26473942
-0.021089425 0.06812356 -0.060837906 -0.1910311 0.0058818865 -0.11704261 -0.06809028 0.014136444
0.032744054 0.07278389 -0.052331466 -0.07600891 -0.031094579 -0.052626792 0.04521538 -0.02142734
00000000: 0e6b d7bd 6f39 31be 9804 dbbd 1952 86bb
00000010: 30ce 95bd 6cf4 8bbe 4f54 ebbd f304 8abd
00000020: 8784 83bc 0b5b 8ebc 7319 4439 8e9a c83c
00000030: 4bb0 35bd 9f85 12be b613 443c ed8b 87be
00000040: bbc3 acbc 5d84 8b3d 2b31 79bd a89d 43be
00000050: d7bc c03b 09b4 efbd eb72 8bbd 8b9c 673c
00000060: a11e 063d b80f 953d 8559 56bd 8faa 9bbd
00000070: 0fba febc 318f 57bd c333 393d 6488 afbc
