my-submission/checkpoints/model_353280.pt (torch, 352797 bytes, 23 tensors)

local_map_cnn.0.weight f4 [32, 24, 3, 3]
-0.026402343 0.11206299 0.19948274 0.040970292 0.016638892 0.12608059 -0.11005539 -0.1375921
0.04659695 0.02816314 -0.030383848 -0.10456777 0.07415246 0.015644694 0.21121854 0.049701136
-0.0077436725 -0.15186298 -0.081536286 0.0116078695 0.08318294 0.04707907 -0.10799543 -0.40767893
-0.0009229181 0.027140804 0.04845427 0.041435625 0.034277435 0.08930714 0.0453862 -0.07516515
-0.48828998 -0.05513361 -0.1031511 0.0012794347 0.04415448 -0.017714513 0.06608806 -0.062550135
0.13092846 -0.049608942 -0.17367493 -0.11630609 0.05378072 0.124774195 0.024871822 -0.1751405
0.01058186 -0.005371006 0.13506167 -0.021862848 0.020892413 -0.36389828 -0.040791895 0.051035944
0.14890032 -0.026150763 -0.20351958 -0.15285309 -0.18872268 -0.14261621 0.10391893 0.015346722
0.072375916 0.07661326 -0.06015846 -0.17717513 0.0066696145 -0.020182345 0.06796957 -0.03126777
-0.03493959 -0.013762419 -0.0013957177 -0.14633639 -0.3580195 -0.09256967 -0.10875674 -0.13476907
0.0028666721 -0.08451254 0.032747038 -0.0014366637 -0.05066713 -0.14272638 -0.3221192 0.06768513
-0.03902181 -0.029348953 -0.02837294 0.25857344 0.03180286 -0.053164743 -0.16874671 -0.18600062
-0.14186996 -0.18875995 0.18116745 0.006346856 -0.047273394 0.011465593 -0.14794783 -0.061332956
-0.13931471 -0.009511842 -0.22328237 0.015126808 0.04157127 -0.047585543 0.15284455 -0.23150374
-0.02950356 -0.54836273 -0.08673086 -0.29404742 0.11191136 -0.16536754 -0.11014089 0.07976214
0.19451408 0.049056925 -0.24571532 -0.10249824 -0.110804014 0.10774106 -0.016986256 0.03961593
-0.2549509 0.036561742 -0.056052845 0.079808615 -0.16401263 0.09147167 -0.13330367 0.11456171
-0.086195275 0.19701886 0.044142414 -0.017159807 -0.06447164 0.05726907 0.1358164 0.25253642
0.09499715 0.14222933 0.15518634 0.04434891 -0.05650105 -0.6702367 0.023554798 -0.055107247
0.19461952 -0.042275563 -0.0668269 -0.07795327 -0.05359508 -0.028591486 -0.02991298 0.048228826
-0.03032967 -0.15469024 0.22375308 0.020964608 0.33331418 0.16639999 -0.06707968 0.60857075
0.18675731 0.15882085 0.4228659 0.0016220555 0.19060157 0.0020330304 0.087744586 -0.09015321
0.15195858 0.24650073 0.0949631 -0.022775402 -0.07537087 -0.07271705 -0.18017109 0.12928373
-0.2782683 -0.15988612 -0.1157547 0.012226291 -0.041812863 0.24728812 0.5455068 0.19478628
0.561018 0.4387318 0.4385353 -0.03270057 0.27848318 0.06485077 0.53865355 0.5676821
0.042817432 0.8540367 0.6360145 0.1702229 0.09687384 0.37198836 0.3138901 0.17988425
0.07616953 0.07001718 0.070015796 -0.044330087 -0.14181726 0.062440805 -0.07039904 -0.07932065
-0.00021699056 -0.055662706 0.09009576 -0.09805525 -0.008963643 0.056595284 -0.14850375 -0.030866662
-0.08376483 0.031782225 0.11272981 0.031379715 0.074217916 0.047270313 0.025436057 0.053880442
0.113496885 0.030601384 -0.0073614796 -0.015775865 0.036256764 -0.015996268 -0.057340775 0.03159469
0.008083656 -0.003339695 0.0051898803 0.0060902876 -0.0022665896 0.028214794 0.007545982 0.030846462
0.041885138 -0.016584007 0.028579893 0.042683665 0.057604816 0.03979541 0.08386955 -0.0212805
00000000: ba49 d8bc 4881 e53d 3445 4c3e 77d0 273d
00000010: 494e 883c 451b 013e b864 e1bd f2e4 0cbe
00000020: 72dc 3e3d 63b6 e63c 8ce7 f8bc a127 d6bd
00000030: 3fdd 973d 4d29 803c ac49 583e 6b93 4b3d
00000040: a2be fdbb f881 1bbe 7ffc a6bd ef2e 3e3c
00000050: d15b aa3d fcd5 403d b52c ddbd 4bbb d0be
00000060: fcef 71ba 6456 de3c fc77 463d 67b8 293d
00000070: 7f66 0c3d a9e6 b63d e1e6 393d 30f0 99bd
00000080: 2501 fabe c8d3 61bd e240 d3bd b4b2 a73a
00000090: 54db 343d 071e 91bc 2d59 873d 491a 80bd
000000a0: 1c12 063e bf32 4bbd d7d7 31be e331 eebd
000000b0: 2c49 5c3d 9d89 ff3d febf cb3c 0858 33be
000000c0: 8a5f 2d3c 44ff afbb 9b4d 0a3e b719 b3bc
000000d0: 9126 ab3c e050 babe 6715 27bd 110b 513d
000000e0: 5379 183e 203a d6bc 7067 50be 8585 1cbe
000000f0: 8540 41be fc09 12be 73d3 d43d d170 7b3c
00000100: d339 943d 6ae7 9c3d b868 76bd 666d 35be
00000110: c88c da3b 7255 a5bc a133 8b3d a212 00bd
00000120: d11c 0fbd c57b 61bc 84f0 b6ba 35d9 15be
00000130: 554e b7be 2b95 bdbd dbbb debd e700 0abe
00000140: c7de 3b3b e914 adbd c221 063d 6f4e bcba
00000150: 5688 4fbd dd26 12be cfec a4be 809e 8a3d
00000160: 55d5 1fbd 376d f0bc 5e6e e8bc bd63 843e
00000170: b743 023d 46c3 59bd f0cb 2cbe f276 3ebe
00000180: 5c46 11be 4a4a 41be f683 393e 49f9 cf3b
00000190: bfa1 41bd 2fda 3b3c a37f 17be 4438 7bbd
000001a0: 84a8 0ebe 8fd7 1bbc 22a4 64be 6ed6 773c
000001b0: a346 2a3d 0fe9 42bd 4883 1c3e 510f 6dbe
000001c0: 73b1 f1bc 8061 0cbf f39f b1bd 628d 96be
000001d0: c831 e53d 1c56 29be 8c91 e1bd 555a a33d
000001e0: b32e 473e eaef 483d cc9c 7bbe 99ea d1bd
000001f0: 37ed e2bd 58a7 dc3d c326 8bbc 5044 223d
00000200: ed88 82be c4c1 153d ab97 65bd b372 a33d
00000210: edf2 27be 8055 bb3d c280 08be 549f ea3d
00000220: 2687 b0bd 50bf 493e adce 343d b992 8cbc
00000230: b509 84bd f992 6a3d 7413 0b3e 744c 813e
00000240: de8d c23d 91a4 113e 2be9 1e3e 34a7 353d
00000250: a56d 67bd a294 2bbf fef5 c03c 23b8 61bd
00000260: 574a 473e 2429 2dbd 8bdc 88bd f7a5 9fbd
00000270: 8486 5bbd b138 eabc 110c f5bc 978b 453d
00000280: ee75 f8bc 1e67 1ebe 871f 653e f8bd ab3c
00000290: 28a8 aa3e c264 2a3e 1261 89bd 4bcb 1b3f
000002a0: 4f3d 3f3e efa1 223e e181 d83e 279b d43a
000002b0: 0f2d 433e 973c 053b 6fb3 b33d 3fa2 b8bd
000002c0: 089b 1b3e b06a 7c3e 047c c23d 7b93 babc
000002d0: 0b5c 9abd adec 94bd c57e 38be f462 043e
000002e0: 2f79 8ebe 30b9 23be cd10 edbd c850 483c
000002f0: f743 2bbd 1939 7d3e 55a6 0b3f 0e76 473e
00000300: e09e 0f3f 74a1 e03e b387 e03e 08f1 05bd
00000310: 5995 8e3e 7bd0 843d 33e5 093f 9d53 113f
00000320: 5561 2f3d 26a2 5a3f d9d1 223f e94e 2e3e
00000330: cb65 c63d 4275 be3e 34b6 a03e 9433 383e
00000340: c5fe 9b3d 2b65 8f3d 7164 8f3d 7793 35bd
00000350: 8b38 11be eec1 7f3d 5f2d 90bd dd72 a2bd
00000360: f687 63b9 94fe 63bd 2084 b83d 31d1 c8bd
00000370: 3edc 12bc 75d0 673d 5e11 18be 15dc fcbc
00000380: e58c abbd 142e 023d e3de e63d 0488 003d
00000390: 90ff 973d 849e 413d 475f d03c bdb1 5c3d
000003a0: 0e71 e83d c1af fa3c 9138 f1bb 633c 81bc
000003b0: f981 143d 9b0a 83bc 29de 6abd 6f69 013d
000003c0: 5071 043c c9de 5abb df0f aa3b 0991 c73b
000003d0: 108b 14bb b622 e73c 4944 f73b b8b1 fc3c
000003e0: c08f 2b3d 2fdb 87bc 6120 ea3c 11d5 2e3d
000003f0: 07f3 6b3d 8300 233d ccc3 ab3d 7154 aebc

local_map_cnn.0.bias f4 [32]
0.008671776 -0.041802227 -0.016116317 -0.10496349 0.035756953 0.017941652 0.013492595 -0.055798493
-0.0024564788 -0.119313076 0.009385735 -0.026157664 -0.040362306 -0.043793473 -0.053505316 -0.15543972
-0.04335475 0.022464434 0.0016726755 0.04353909 -0.094716564 0.086122684 -0.008047673 -0.06594014
-0.092247345 -0.06806711 -0.055735316 -0.022846065 0.048389424 0.03944223 0.08329213 0.010395005
00000000: 1114 0e3c d038 2bbd 5e06 84bc 19f7 d6bd
00000010: e275 123d 5ffa 923c 0c10 5d3c f68c 64bd
00000020: e0fc 20bb 6a5a f4bd a0c6 193c 9948 d6bc
00000030: f252 25bd c960 33bd 6428 5bbd 972b 1fbe
00000040: c094 31bd 5507 b83c ad3d db3a 0b56 323d
00000050: c2fa c1bd 1761 b03d 63da 03bc a00b 87bd
00000060: 2dec bcbd c566 8bbd b74a 64bd ac27 bbbc
00000070: fd33 463d 2d8e 213d 1095 aa3d d04f 2a3c

local_map_cnn.2.weight f4 [32, 32, 3, 3]
0.21621853 0.028199317 -0.24089332 -0.13763176 -0.25645727 -0.00011405715 -0.35687134 -0.067855015
0.107580535 -0.0114520695 -0.0684759 -0.026881287 -0.061347496 -0.06943813 -0.07274552 0.022599636
-0.086940326 -0.08243115 0.16060968 -0.12355892 0.1609771 0.103618145 0.06483347 0.1761214
-0.05193879 -0.13095936 -0.08942497 -0.0992754 0.14594664 0.124930404 -0.018199759 0.21391861
0.19268838 -0.371466 -0.08643557 0.19011314 0.03868508 -0.05237016 0.038245097 -0.010242707
-0.3257727 -0.07980827 0.027253551 -0.1383846 -0.014460642 -0.10196209 -0.045912586 0.070209555
-0.024891146 -0.15039061 -0.023486113 0.050766442 -0.053189535 0.022365034 0.033847712 -0.0706047
-0.07367322 -0.02772899 -0.04653931 -0.1305537 -0.019537067 -0.14732142 -0.07847377 0.15248196
0.09102136 0.09832394 0.025719633 0.06097454 0.15954049 0.025156867 0.08552256 0.13634679
0.25832525 0.15323362 -0.17071 0.16218777 -0.067475945 -0.12958845 0.08883014 -0.08618447
-0.07021928 0.04348163 0.09542071 -0.03679878 0.032658983 0.13600639 0.076432616 -0.015053362
0.0506728 0.02663886 -0.02024696 -0.049317807 0.08515142 0.04722347 -0.14159882 -0.07100021
-0.023937302 -0.15310684 -0.02655395 0.28030586 -0.01927717 0.20381717 0.033656783 0.047541786
0.1038328 0.069418795 -0.054644052 0.021826733 -0.10572582 0.08582114 -0.024600971 0.15767828
0.025583006 -0.21221094 -0.049023643 -0.10442922 0.03515844 0.03252462 0.15913083 0.07671357
0.026341379 -0.0448744 0.014394204 0.010537424 0.089702405 0.009163108 -0.065672345 -0.14044166
-0.14432526 -0.05083389 -0.054734733 0.032431696 -0.056295767 -0.108520485 0.005392657 -0.09944137
-0.046251107 -0.12895243 -0.0753255 0.050780088 0.009572873 -0.25816277 -0.10252368 0.027752735
0.08238781 0.14402029 0.047158238 0.110154316 0.3312632 0.007375603 0.020662047 0.10578635
0.17102644 0.023233844 0.012894256 0.009857825 -0.030276487 0.04825889 0.050631348 -0.09650062
0.05470796 -0.0109423995 -0.0253798 -0.01758425 0.012700392 0.008764935 0.15571257 0.10370806
0.02636848 -0.00046325897 0.18877327 0.089714006 -0.12051521 -0.0013136235 0.061184105 0.11474055
0.077583134 0.025475234 -0.008230551 0.19385934 -0.07963419 0.21646984 -0.035817858 0.029338064
0.014814263 0.05507263 -0.11364867 0.080979265 -0.0010914099 0.061366707 0.015348656 0.053775292
0.025622811 0.06475086 0.07538888 0.079335175 -0.1336238 -0.14075781 -0.014245979 0.05030026
-0.02875272 -0.05378418 -0.042653073 -0.009273359 -0.058083404 -0.09573372 -0.03284045 -0.082986996
-0.08894569 0.05387865 0.060474187 -0.100558326 0.15322796 0.11832161 -0.003717539 0.046268925
-0.21575926 -0.020083856 -0.174558 -0.09060437 0.14734237 -0.114287205 -0.124490984 -0.019237231
0.09960057 0.17396057 0.04182141 0.11225918 0.09525629 0.17654662 0.14296518 0.068088144
0.025093889 0.110474475 -0.12635887 0.011457329 0.09108941 -0.26804584 0.06819219 -0.44989353
-0.013430358 0.07779355 0.03394828 0.086657576 -0.32862994 0.111721955 -0.09712878 -0.4631494
-0.06955146 -0.24041666 -0.0493677 -0.02261231 0.037908673 0.03633614 0.07064052 0.029714134
00000000: 6468 5d3e 4102 e73c bdac 76be 57ef 0cbe
00000010: 5e4e 83be f731 efb8 d7b7 b6be 92f7 8abd
00000020: 2f53 dc3d 76a1 3bbc 183d 8cbd 2536 dcbc
00000030: 8347 7bbd 9435 8ebd 9afb 94bd df22 b93c
00000040: c50d b2bd aad1 a8bd dd76 243e 760c fdbd
00000050: 2ed7 243e c035 d43d 69c7 843d 2b59 343e
00000060: c5bd 54bd 361a 06be 7024 b7bd e750 cbbd
00000070: 0973 153e 83db ff3d a917 95bc 7b0d 5b3e
00000080: 1a50 453e cb30 bebe 2205 b1bd 05ad 423e
00000090: 3f74 1e3d 1882 56bd e4a6 1c3d 07d1 27bc
000000a0: aecb a6be 8572 a3bd d742 df3c b1b4 0dbe
000000b0: 54ec 6cbc 80d1 d0bd d60e 3cbd 07ca 8f3d
000000c0: 84e8 cbbc ffff 19be f365 c0bc 79f0 4f3d
000000d0: 45dd 59bd e036 b73c e6a3 0a3d 3299 90bd
000000e0: fce1 96bd e827 e3bc 01a0 3ebd deaf 05be
000000f0: 330c a0bc 6ddb 16be dbb6 a0bd 3b24 1c3e
00000100: 6869 ba3d 105e c93d fbb1 d23c 70c0 793d
00000110: 955e 233e c615 ce3c 7426 af3d 7e9e 0b3e
00000120: 3543 843e 46e9 1c3e 9ace 2ebe 8d14 263e
00000130: d430 8abd d6b2 04be 94ec b53d 7c81 b0bd
00000140: 20cf 8fbd cb19 323d ef6b c33d 51ba 16bd
00000150: 6dc5 053d 4245 0b3e b488 9c3d 60a2 76bc
00000160: 488e 4f3d bd39 da3c f4dc a5bc 7801 4abd
00000170: de63 ae3d 666d 413d 48ff 10be 8f68 91bd
00000180: 2918 c4bc 0ac8 1cbe ab87 d9bc 4084 8f3e
00000190: 28eb 9dbc 73b5 503e b2db 093d 2dbb 423d
000001a0: 4ba6 d43d 712b 8e3d 71d2 5fbd facd b23c
000001b0: c786 d8bd fec2 af3d fa87 c9bc 6a76 213e
000001c0: 7493 d13c d34d 59be 04cd 48bd fdde d5bd
000001d0: 4c02 103d 8938 053d 31f3 223e 011c 9d3d
000001e0: e0c9 d73c 38ce 37bd abd5 6b3c 29a5 2c3c
000001f0: e5b5 b73d dc20 163c 397f 86bd f0cf 0fbe
00000200: 00ca 13be 3237 50bd 8731 60bd 19d7 043d
00000210: 6496 66bd fd3f debd e3b4 b03b eba7 cbbd
00000220: cd71 3dbd 1b0c 04be 4144 9abd c8fe 4f3d
00000230: 8ad7 1c3c e92d 84be eff7 d1bd b459 e33c
00000240: f1ba a83d 0e7a 133e ff28 413d 9698 e13d
00000250: 559b a93e 0baf f13b 7443 a93c 84a6 d83d
00000260: 8e21 2f3e e754 be3c 6e42 533c b782 213c
00000270: 6506 f8bc 1dab 453d d162 4f3d 1ea2 c5bd
00000280: 7415 603d c047 33bc 4ce9 cfbc d80c 90bc
00000290: 4e15 503c cd9a 0f3c 1e73 1f3e e464 d43d
000002a0: b602 d83c 91e1 f2b9 c84d 413e fabb b73d
000002b0: aed0 f6bd e42d acba 2f9c 7a3d 18fd ea3d
000002c0: e8e3 9e3d 70b1 d03c 6fd9 06bc 1083 463e
000002d0: 4017 a3bd 45aa 5d3e bfb5 12bd 6156 f03c
000002e0: 86b7 723c d793 613d a2c0 e8bd 75d8 a53d
000002f0: a40d 8fba a85b 7b3d ee78 7b3c 7b43 5c3d
00000300: eee6 d13c 199c 843d 7c65 9a3d 7b7a a23d
00000310: add4 08be d122 10be f767 69bc a507 4e3d
00000320: d38a ebbc cd4c 5cbd fdb4 2ebd 49ef 17bc
00000330: dde8 6dbd 0a10 c4bd b583 06bd 16f5 a9bd
00000340: 2829 b6bd dcaf 5c3d c8b3 773d 86f1 cdbd
00000350: cae7 1c3e 9a52 f23d f4a1 73bb 7c84 3d3d
00000360: ffef 5cbe e686 a4bc 55bf 32be c98e b9bd
00000370: ebe0 163e 690f eabd 21f5 febd 6697 9dbc
00000380: 62fb cb3d b822 323e ed4c 2b3d 24e8 e53d
00000390: bb15 c33d a3c8 343e 7765 123e cc71 8b3d
000003a0: b391 cd3c 7140 e23d 3864 01be 85b7 3b3c
000003b0: 168d ba3d 4e3d 89be 59a8 8b3d 7258 e6be
000003c0: 010b 5cbc 3a52 9f3d 5a0d 0b3d 8779 b13d
000003d0: 2f42 a8be 7bce e43d 74eb c6bd eb21 edbe
000003e0: ff70 8ebd c92f 76be c935 4abd 733d b9bc
000003f0: 2046 1b3d 34d5 143d faab 903d 0e6b f33c

local_map_cnn.2.bias f4 [32]
-0.04860973 0.003221731 -0.0046314904 -0.016721668 -0.10690345 -0.1995304 -0.069369406 -0.009101541
-0.084851325 -0.10742545 -0.13575186 -0.10803275 -0.23447257 0.04933125 -0.005605657 0.10164485
-0.29862386 -0.019178709 -0.05796503 -0.06549186 -0.043894358 -0.076958835 -0.028043069 -0.147625
0.018189223 0.088183954 -0.18625912 -0.20634308 0.057104543 -0.13251485 -0.19940937 -0.28507468
00000000: ff1a 47bd ad23 533b c2c3 97bb e1fb 88bc
00000010: 32f0 dabd b251 4cbe 8c11 8ebd a11e 15bc
00000020: 88c6 adbd e001 dcbd 8902 0bbe 4640 ddbd
00000030: 9419 70be 910f 4a3d a9af b7bb 2d2b d03d
00000040: 3ae5 98be ab1c 9dbc bd6c 6dbd 9920 86bd
00000050: 92ca 33bd 989c 9dbd 94ba e5bc 022b 17be
00000060: 9101 953c ca99 b43d b6ba 3ebe 9a4b 53be
00000070: 74e6 693d f9b1 07be f831 4cbe 4ff5 91be

local_map_cnn.4.weight f4 [32, 32, 3, 3]
0.033599414 -0.19433796 0.0037383502 0.09302732 0.054978818 -0.012347798 -0.20812525 -0.23317286
-0.21524057 0.17676933 -0.05861504 0.0076154796 0.06860473 -0.36709645 -0.211865 -0.06906143
0.33720005 0.0007418874 -0.12871057 -0.07180115 0.0066121724 -0.11821902 -0.027249664 -0.057938553
0.090239406 -0.30137098 0.04943298 -0.012669557 0.010757929 -0.016522385 -0.012683667 -0.34515923
0.01621621 -0.10053484 -0.20741703 0.08729153 0.116928466 0.07043971 0.031853095 0.007732867
-0.10228148 -0.09946543 0.043067712 -0.103199214 0.08381268 0.001451082 0.019754972 0.0892462
-0.12087636 -0.11321548 -0.095873795 0.13327716 -0.0111507345 -0.17957395 0.028493091 0.102784425
-0.01781452 0.02695272 -0.28041467 -0.034814563 0.057205338 0.09278635 0.1272447 -0.03086336
-0.02097406 0.016268736 -0.029499022 -0.011616702 0.16685024 -0.0221457 -0.07071862 -0.32236454
-0.07233622 0.08011246 -0.20307352 0.094726264 0.3500259 -0.14617094 0.048351195 -0.4664323
0.061394047 -0.56360257 0.11748179 -0.19127543 0.0025305199 -0.004432157 -0.20225066 0.12644993
-0.09271567 0.12272718 0.03745539 0.17529744 0.2722755 -0.0073289014 -0.02200073 0.094674885
0.1611291 -0.028676087 0.097073466 0.2059827 -0.09309009 -0.04390205 -0.03388952 -0.08333743
-0.0022462758 -0.11248166 0.020086749 -0.05096881 0.06727565 -0.014421018 0.05313219 0.16263948
-0.14399026 0.022478057 -0.04224888 -0.15020931 0.16858326 0.19807485 0.12353584 0.1417568
0.07059792 -0.26910934 -0.020004045 0.024957595 -0.08214897 -0.18252884 0.045773562 -0.1512099
0.030941047 0.091755964 0.039257824 -0.14124009 -0.058277972 -0.28224465 -0.17714925 0.05752778
-0.14398235 0.07371026 -0.12248517 -0.39362052 -0.08420257 -0.035795707 -0.37209135 -0.09986326
-0.05738044 0.072365426 0.19511294 -0.05648121 -0.22110748 0.032733057 -0.029802002 0.08817633
0.018369861 0.09850685 -0.010660917 -0.12823023 0.018401973 -0.12566642 -0.13115233 -0.06744541
0.16451888 0.020264106 0.12918825 -0.07592073 -0.094722435 -0.077323 -0.032336958 -0.23549622
-0.03688581 0.081246436 0.009480732 -0.030447768 0.13593146 0.28473654 -0.0027334895 -0.3655407
-0.12361366 -0.10030028 0.017966947 0.031292472 -0.30090153 0.09994622 0.019701133 -0.03425642
0.11984101 -0.03449724 -0.009555189 -0.17822628 0.20102367 -0.10050903 -0.06333182 0.10337562
0.12623435 -0.3182106 -0.10082179 0.21407494 -0.06515333 0.10822438 -0.0346343 -0.086722575
-0.10071771 -0.011722806 0.11248453 -0.033068612 0.15335758 0.07523793 -0.21788485 0.23257293
0.018975612 0.12987064 0.03327407 -0.521787 -0.13083608 -0.044822186 -0.017856454 -0.11083426
-0.20214172 0.17561907 -0.29896587 -0.018109623 -0.15091622 0.09213277 0.13976018 0.031869568
0.0017151631 0.0099853175 0.011922595 -0.11372414 0.1340197 0.11140321 -0.0016336333 0.09931415
0.1501428 0.11812485 -0.0038333912 -0.026814288 -0.019257624 -0.05511025 -0.059228726 -0.055689286
-0.00065940176 -0.062254366 0.13953598 0.09702692 0.007666658 0.060621887 0.0006625032 0.011040457
-0.08787358 0.053017266 -0.010389597 -0.0066094454 -0.0025568157 0.030954028 0.05690878 0.050650172
00000000: 8a9f 093d 8800 47be 1cff 743b 1c85 be3d
00000010: 7831 613d 6b4e 4abc c91e 55be dec4 6ebe
00000020: 0668 5cbe 0503 353e 5316 70bd 468b f93b
00000030: a380 8c3d 11f4 bbbe 23f3 58be 1470 8dbd
00000040: 7ca5 ac3e 387b 423a b4cc 03be 7b0c 93bd
00000050: ecaa d83b d01c f2bd b03a dfbc fa50 6dbd
00000060: 70cf b83d 4c4d 9abe 3d7a 4a3d f993 4fbc
00000070: 0642 303c f459 87bc 28cf 4fbc b6b8 b0be
00000080: dbd7 843c 36e5 cdbd 2165 54be e7c5 b23d
00000090: 3178 ef3d b242 903d 6478 023d fd63 fd3b
000000a0: f478 d1bd 88b4 cbbd c567 303d 1c5a d3bd
000000b0: fba5 ab3d 3b32 be3a 2ed5 a13c b6c6 b63d
000000c0: 068e f7bd 85dd e7bd 7b59 c4bd cf79 083e
000000d0: 92b1 36bc 3ce2 37be 586a e93c a480 d23d
000000e0: c2ef 91bc f3cb dc3c 8392 8fbe b799 0ebd
000000f0: 2550 6a3d c506 be3d 6f4c 023e 28d5 fcbc
00000100: cbd1 abbc 0346 853c efa7 f1bc fb53 3ebc
00000110: cada 2a3e e66a b5bc edd4 90bd f70c a5be
00000120: 0325 94bd 0012 a43d 81f2 4fbe d8ff c13d
00000130: 9836 b33e d6ad 15be e70b 463d 37d0 eebe
00000140: 5378 7b3d 4248 10bf 4b9a f03d b5dd 43be
00000150: 14d7 253b a13b 91bb cc1a 4fbe 177c 013e
00000160: b7e1 bdbd 6358 fb3d d36a 193d 2c81 333e
00000170: b267 8b3e 4827 f0bb e03a b4bc e8e4 c13d
00000180: 07ff 243e 1dea eabc 74ce c63d 21ed 523e
00000190: 04a6 bebd a3d2 33bd bdcf 0abd d1ac aabd
000001a0: 4136 13bb c95c e6bd f78c a43c acc4 50bd
000001b0: d1c7 893d 2246 6cbc 24a1 593d f78a 263e
000001c0: 2f72 13be e723 b83c 290d 2dbd 78d0 19be
000001d0: 17a1 2c3e 22d4 4a3e 5c00 fd3d b228 113e
000001e0: a495 903d b3c8 89be 86df a3bc df73 cc3c
000001f0: b83d a8bd d7e8 3abe 0f7d 3b3d c5d6 1abe
00000200: 1478 fd3c 8dea bb3d d0cc 203d 3ea1 10be
00000210: e2b4 6ebd 5f82 90be 9d66 35be 40a2 6b3d
00000220: 1c70 13be 68f5 963d 81d9 fabd a188 c9be
00000230: 6672 acbd 859e 12bd c282 bebe 1c85 ccbd
00000240: c107 6bbd 5334 943d b0cb 473e d758 67bd
00000250: 006a 62be 1913 063d 5423 f4bc cb95 b43d
00000260: 647c 963c f6bd c93d 20ab 2ebc c94e 03be
00000270: bcbf 963c b3ae 00be cc4c 06be d220 8abd
00000280: a377 283e e900 a63c ed49 043e 547c 9bbd
00000290: d6fd c1bd 855b 9ebd c273 04bd ec25 71be
000002a0: 9315 17bd 8864 a63d 1255 1b3c 996d f9bc
000002b0: 9e31 0b3e fdc8 913e 5824 33bb 2728 bbbe
000002c0: 2929 fdbd 3c6a cdbd 6b2f 933c 892c 003d
000002d0: c40f 9abe 9bb0 cc3d 4564 a13c 7650 0cbd
000002e0: 346f f53d fa4c 0dbd 5e8d 1cbc f380 36be
000002f0: 26d9 4d3e aed7 cdbd 1db4 81bd 99b6 d33d
00000300: 9443 013e 80ec a2be a87b cebd 7636 5b3e
00000310: 1c6f 85bd bea4 dd3d b2dc 0dbd 9b9b b1bd
00000320: 1645 cebd 0311 40bc 4a5e e63d f472 07bd
00000330: c509 1d3e 5816 9a3d 351d 5fbe 9927 6e3e
00000340: be72 9b3c cffc 043e 644a 083d d593 05bf
00000350: e5f9 05be 7897 37bd b347 92bc 13fd e2bd
00000360: 3dfe 4ebe 7cd5 333e 0e12 99be a25a 94bc
00000370: c889 1abe 1bb0 bc3d 4b1d 0f3e aa89 023d
00000380: 53cf e03a 7599 233c fd56 433c 34e8 e8bd
00000390: 763c 093e 5e27 e43d a31f d6ba 3865 cb3d
000003a0: 09bf 193e 71eb f13d a239 7bbb a3a9 dbbc
000003b0: 2ac2 9dbc 49bb 61bd d299 72bd 731a 64bd
000003c0: b4db 2cba 6ffe 7ebd 85e2 0e3e 0db6 c63d
000003d0: 9738 fb3b a84e 783d d6ab 2d3a 08e3 343c
000003e0: 10f7 b3bd a228 593d 2139 2abc 0c94 d8bb
000003f0: 4090 27bb 4d93 fd3c 2e19 693d 8e76 4f3d

local_map_cnn.4.bias f4 [32]
0.011996498 0.0025194294 -0.16448893 -0.41831607 -0.029802158 -0.0656721 -0.013077554 -0.16559707
0.12951489 0.008042774 0.07434863 -0.1099298 0.10671774 0.15758094 -0.25573042 0.20055062
-0.2704055 0.072732426 0.14276606 -0.18211415 -0.14735425 -0.047316022 -0.016264224 -0.13321882
-0.080791526 0.1526057 -0.21212187 0.0018345838 0.023513941 0.0067226803 -0.0036524388 -0.0469259
00000000: f68c 443c 031d 253b c96f 28be 862d d6be
00000010: a823 f4bc 187f 86bd 3d43 56bc 4792 29be
00000020: 8d9f 043e d7c5 033c 1844 983d e022 e1bd
00000030: d58e da3d e65c 213e 19ef 82be 245d 4d3e
00000040: 9772 8abe bdf4 943d 4431 123e 227c 3abe
00000050: 08e4 16be 72ce 41bd 8d3c 85bc 846a 08be
00000060: 0776 a5bd ab44 1c3e 7a36 59be 6b76 f03a
00000070: 4fa0 c03c ee49 dc3b c15d 6fbb 5f35 40bd

local_map_fc.weight f4 [64, 512]
-0.105152324 -0.10870569 -0.14947522 -0.083758324 0.010819 -0.24698015 -0.17251375 -0.03839221
-0.061940987 -0.2694513 -0.11234152 0.10813373 0.052777812 -0.08031178 -0.00706834 -0.11727873
-0.10369566 -0.09387257 -0.06146269 -0.022093467 -0.065529816 -0.016714217 0.0054368866 -0.015948221
-0.07596415 0.12104262 0.02970523 -0.067936994 -0.010243278 0.23692974 0.0005258328 0.037064154
-0.03342492 0.0035582348 0.011261748 -0.08007693 -0.27488348 -0.030313209 0.067233644 -0.11061674
-0.113118656 -0.18664972 -0.03841607 -0.028788516 0.12975654 0.15657078 0.04619167 0.17400202
0.066109106 -0.11183147 0.01261623 0.09074962 -0.07296183 -0.056162097 0.07657533 -0.117638096
-0.0757148 0.112800784 -0.026945647 -0.04193125 0.02453292 -0.048138794 -0.099624895 -0.067702614
-0.07376044 -0.1096397 0.095514566 -0.060915504 -0.21176195 -0.20667641 0.023446882 -0.08886187
0.16413042 0.08014392 -0.0026804123 -0.16804814 -0.060696952 0.06965011 0.07257733 0.09464106
-0.07084492 -0.032946978 -0.08330618 -0.20006548 -0.09648652 -0.015254648 0.10365593 0.17500152
-0.13998808 0.20123066 -0.19036266 0.05469787 -0.14977482 -0.048622623 -0.10764848 0.10125093
-0.11514584 0.11228876 0.025076928 -0.117317505 -0.059835553 0.10882735 -0.055944815 0.018235283
0.024964115 0.23222859 -0.12880288 -0.2187165 -0.05481456 -0.0492214 -0.017779158 -0.009976539
-0.0078009744 0.0444833 0.002680384 -0.17362243 -0.1550797 -0.13235572 0.09106977 0.11308079
-0.06331244 -0.18213911 -0.06647499 0.064901665 -0.042195827 -0.06485001 -0.08096271 0.050317485
-0.13196531 -0.28717914 -0.18822075 -0.18882562 -0.23700911 -0.09779076 -0.2429709 0.13556619
-0.10449663 -0.02688525 -0.3006289 -0.09226141 0.010739773 -0.020501377 0.057687074 -0.25173706
-0.17375489 -0.049474884 -0.21858361 -0.23323515 -0.03649763 -0.07833725 -0.16610986 -0.26715323
0.0045091147 0.07309652 0.071185976 -0.29094377 -0.13111877 -0.21649663 0.04351171 -0.09227731
0.11879253 -0.06818338 0.024852112 -0.0595283 -0.07308823 -0.07251996 0.0330647 -0.0931145
-0.09042236 -0.0314739 0.16112491 -0.01479105 -0.2439227 -0.19866517 0.14068957 0.002049797
0.032595035 -0.029351734 -0.1268542 -0.0871614 -0.08868562 -0.14703625 -0.09015813 -0.045123372
-0.087938815 -0.23422605 -0.11831216 0.023884755 0.07661208 0.020829126 0.049184117 0.18104444
-0.022296935 -0.063668825 -0.20507915 -0.28196365 -0.15892118 -0.061861914 0.1172622 -0.23277634
-0.012011346 0.0979846 0.03374308 -0.16673754 0.050350722 -0.032642532 -0.053136766 0.12712856
-0.24512187 -0.11348701 -0.13126071 0.16962186 -0.052441157 -0.124972366 0.020431397 0.029520439
-0.00043709818 -0.1241736 0.056100763 0.029281849 0.0041226055 -0.1603339 -0.018513454 0.070563495
-0.052636985 0.017090479 -0.048396382 0.12492427 0.12369216 -0.059099514 0.032953057 0.100468695
0.022994384 -0.108186394 0.036737576 -0.025156323 -0.062527426 -0.11539438 0.076909505 -0.05611086
-0.080645874 0.10387462 -0.10883008 -0.008435989 -0.15461466 -0.1444146 -0.31155196 0.031042542
-0.18784493 -0.2923235 -0.2299969 -0.021811262 0.02614448 0.09885288 -0.03632169 -0.029458333
00000000: 1a5a d7bd 17a1 debd 0810 19be 7c89 abbd
00000010: 2d42 313c 5de8 7cbe 72a7 30be 2641 1dbd
00000020: d5b5 7dbd 85f5 89be 5013 e6bd 3875 dd3d
00000030: 8c2d 583d 817a a4bd 899d e7bb d52f f0bd
00000040: 645e d4bd 4340 c0bd 4dc0 7bbd 5cfd b4bc
00000050: 7f34 86bd 41ec 88bc e927 b23b d8a5 82bc
00000060: 1893 9bbd 31e5 f73d 6258 f33c 8d22 8bbd
00000070: 6cd3 27bc b69d 723e 0bd8 093a 95d0 173d
00000080: 92e8 08bd 4631 693b 3283 383c 60ff a3bd
00000090: 87bd 8cbe 6853 f8bc cbb1 893d 088b e2bd
000000a0: c1aa e7bd 1b21 3fbe 2b5a 1dbd e5d5 ebbc
000000b0: e6de 043e 1754 203e 7a33 3d3d 962d 323e
000000c0: 3664 873d e607 e5bd 4eb4 4e3c f0da b93d
000000d0: 036d 95bd 3a0a 66bd 87d3 9c3d 3eec f0bd
000000e0: 5c10 9bbd 1904 e73d 1ebd dcbc 1ac0 2bbd
000000f0: 43f9 c83c 2f2d 45bd 2308 ccbd aba7 8abd
00000100: b70f 97bd c78a e0bd 249d c33d 8982 79bd
00000110: 20d8 58be fba2 53be ad13 c03c 36fd b5bd
00000120: ce11 283e 7f22 a43d dba9 2fbb d014 2cbe
00000130: 5e9d 78bd b8a4 8e3d 6ca3 943d 2cd3 c13d
00000140: 2417 91bd 69f3 06bd 6e9c aabd f7dd 4cbe
00000150: b99a c5bd a2ee 79bc 8f49 d43d 9933 333e
00000160: 0959 0fbe 690f 4e3e 6eee 42be e00a 603d
00000170: 925e 19be 8428 47bd ce76 dcbd a65c cf3d
00000180: 95d1 ebbd a6f7 e53d 216e cd3c 2944 f0bd
00000190: 2016 75bd e0e0 de3d 6426 65bd 2962 953c
000001a0: 8b81 cc3c 55cd 6d3e e7e4 03be 38f7 5fbe
000001b0: 3b85 60bd 619c 49bd 99a5 91bc a374 23bc
000001c0: 519f ffbb 1f34 363d 62a9 2f3b 14ca 31be
000001d0: 36cd 1ebe 4288 07be ca82 ba3d e796 e73d
000001e0: f4a9 81bd ad82 3abe 0a24 88bd 2aeb 843d
000001f0: 88d5 2cbd 15d0 84bd c7cf a5bd b519 4e3d
00000200: ea21 07be 2509 93be f1bc 40be 815b 41be
00000210: 84b2 72be 8646 c8bd 5dcd 78be ddd1 0a3e
00000220: 5402 d6bd 753e dcbc 08ec 99be 8df3 bcbd
00000230: dff5 2f3c 81f2 a7bc 4849 6c3d aee3 80be
00000240: cdec 31be 2da6 4abd 62d4 5fbe 32d5 6ebe
00000250: 8a7e 15bd 486f a0bd b418 2abe 4fc8 88be
00000260: 32c1 933b a1b3 953d f4c9 913d 95f6 94be
00000270: 0044 06be 4bb1 5dbe 5639 323d e3fb bcbd
00000280: 7f49 f33d baa3 8bbd a896 cb3c f2d3 73bd
00000290: 48af 95bd 5885 94bd da6e 073d d1b2 bebd
000002a0: 5c2f b9bd c7ea 00bd eefd 243e 2956 72bc
000002b0: dfc6 79be e26e 4bbe ed10 103e e355 063b
000002c0: 5f82 053d 0c73 f0bc 11e6 01be ad81 b2bd
000002d0: cea0 b5bd ac90 16be d3a4 b8bd 49d3 38bd
000002e0: 4419 b4bd f4d8 6fbe a54d f2bd f6a9 c33c
000002f0: cbe6 9c3d d8a1 aa3c 4975 493d b763 393e
00000300: 10a8 b6bc cd64 82bd 4500 52be 8a5d 90be
00000310: 3cbc 22be eb62 7dbd 2a27 f03d ec5c 6ebe
00000320: 3dcb 44bc 26ac c83d 2f36 0a3d 3fbd 2abe
00000330: 8f3c 4e3d 2db4 05bd f0a5 59bd fd2d 023e
00000340: 3a01 7bbe e16b e8bd 3569 06be 5ab1 2d3e
00000350: 8acc 56bd 83f1 ffbd bf5f a73c d9d4 f13c
00000360: 532a e5b9 ba4e febd eac9 653d 7de0 ef3c
00000370: ec16 873b 922e 24be 87a9 97bc 9883 903d
00000380: e199 57bd 5501 8c3c 493b 46bd 4cd8 ff3d
00000390: 5152 fd3d 5512 72bd c9f9 063d 88c2 cd3d
000003a0: b85e bc3c d490 ddbd 247a 163d a214 cebc
000003b0: 610e 80bd e453 ecbd bb82 9d3d 80d4 65bd
000003c0: aa29 a5bd 37bc d43d 4ee2 debd 1a37 0abc
000003d0: 4e53 1ebe 6ce1 13be bd83 9fbe ee4c fe3c
000003e0: 6c5a 40be 6dab 95be 4f84 6bbe 88ad b2bc
000003f0: f32c d63c 6173 ca3d 0dc6 14bd 9a52 f1bc

local_map_fc.bias f4 [64]
-0.12118134 -0.15496396 -0.007892284 -0.05294834 -0.059950024 -0.1242813 -0.08991547 0.06942246
-0.024998559 -0.0666361 -0.06083357 -0.07697362 0.16473497 -0.08945682 -0.058835275 0.08748216
0.044366118 0.013019889 -0.016615521 -0.0010615551 -0.09684165 -0.13936082 0.06252628 0.10645236
-0.060076676 -0.07098527 0.04460082 -0.080451295 0.06245331 0.023995569 -0.029041808 -0.17724697
0.09767643 -0.03414378 0.012480673 -0.011790341 -0.06274081 0.07498318 0.20485155 -0.012553672
-0.06595855 -0.1662137 0.034773767 0.11274548 0.12225172 0.15929788 -0.11571569 -0.09973628
-0.10756449 -0.059131578 -0.17719066 -0.09912151 0.070403986 -0.23099111 -0.061739877 0.13212207
-0.04143335 -0.20110619 0.007498456 -0.058174223 -0.05238481 0.071248494 0.056094993 0.15418789
00000000: ec2d f8bd dfae 1ebe a34e 01bc 5ce0 58bd
00000010: 288e 75bd 3287 febd 9a25 b8bd 5d2d 8e3d
00000020: c7c9 ccbc 8278 88bd 9f2c 79bd 58a4 9dbd
00000030: 49b0 283e 2335 b7bd 42fd 70bd d929 b33d
00000040: 3fb9 353d 5f51 553c 461d 88bc e123 8bba
00000050: ea54 c6bd 9ab4 0ebe c70d 803d b203 da3d
00000060: f612 76bd ba60 91bd 59af 363d a6c3 a4bd
00000070: 0bcf 7f3d 5b92 c43c 16e9 edbc 3b80 35be
00000080: 950a c83d 59da 0bbd bd7b 4c3c 462c 41bc
00000090: 417e 80bd c890 993d 9bc4 513e ebad 4dbc
000000a0: 4715 87bd ed33 2abe f06e 0e3d 1ae7 e63d
000000b0: 1c5f fa3d fc1e 233e 59fc ecbd 8942 ccbd
000000c0: c54a dcbd f433 72bd 7871 35be 3800 cbbd
000000d0: f72f 903d ef88 6cbe f4e2 7cbd 024b 073e
000000e0: 04b6 29bd c8ee 4dbe 9cb5 f53b 1848 6ebd
000000f0: 7491 56bd bbea 913d ddc3 653d 6ee3 1d3e

self_entity_fc1.weight f4 [32, 26]
0.29992127 0.010869583 0.014883004 0.022688745 -0.013741916 0.11623895 0.010323527 -0.22297648
-0.023422277 -0.10822443 -0.16241972 -0.5706453 0.17737068 -0.16511634 0.22056046 0.15676737
-0.21149893 -0.16742653 0.060104873 -0.0044780863 -0.086250454 0.32875043 -0.1381174 0.1846682
-0.0025296868 0.052354816 -0.37717506 -0.102404386 0.008827266 0.1834595 0.1672954 -0.10199137
0.12876952 -0.2843139 -0.1027083 -0.08455553 -0.14330703 0.0031695687 0.009262948 0.047434077
0.20400369 0.13049124 0.111023955 0.017239498 -0.062174376 -0.057880465 -0.049696732 0.084797695
-0.04583029 -0.016256167 0.0879735 0.18860671 -0.04705703 -0.12210742 0.05693299 -0.17677638
0.087566234 -0.48242268 -0.27189595 0.07815015 0.07636517 -0.07265852 -0.4524499 -0.081682354
-0.10118801 0.02213892 0.032273766 0.18750644 0.0425386 0.038809218 0.022553809 0.11278432
0.027000701 0.074858084 0.17980045 -0.10809524 -0.039984453 -0.13354373 -0.11729684 -0.040155742
0.09934967 -0.08483028 -0.10084007 0.14054649 0.13721557 -0.042558208 0.77317446 0.30412433
0.09243829 -0.0661904 0.018833524 0.25411382 -0.031607233 -0.17648612 0.18470904 0.21936706
-0.14638968 -0.04723749 0.263665 -0.08408517 -0.15332116 0.03820102 -0.110016264 0.13369043
-0.17017859 0.031109845 -0.025655545 -0.18721 0.11826336 0.044820186 0.03428815 -0.2837839
0.05063202 0.14783502 0.44995067 0.22071451 0.13544172 0.0981652 -0.20556505 0.0327972
0.21590808 0.3890518 -0.11086908 -0.021040317 0.031421456 -0.1084423 -0.059175998 -0.02327878
-0.11358514 -0.10326105 0.0809175 0.11538666 0.18932045 0.033486735 0.03169999 -0.103395924
0.13246676 -0.42967203 0.2279722 0.005692559 0.04641454 0.31847233 0.14629689 0.12502706
-0.0028817863 -0.23402768 0.08508815 -0.017634854 -0.15500154 -0.18853515 -0.19958104 -0.17305231
-0.12671897 -0.18234152 0.061289426 0.09666513 -0.0057199816 -0.0909157 -0.047567196 0.17280243
0.15771025 -0.20339893 -0.1170117 -0.3518533 0.042480357 0.048006266 -0.34275746 0.07759915
-0.90477365 0.13717178 0.19409187 0.1526895 -0.20130572 -0.09354508 0.01539869 0.018639637
0.029129308 0.29859707 0.1282283 -0.09197671 0.0074946093 -0.12567064 0.16705818 -0.004092379
-0.019015217 0.040416755 -0.0182618 -0.15135843 0.12899782 0.002586857 -0.60704017 0.12902135
-0.16548622 0.2279425 0.08156553 0.10041002 0.103237666 0.25516433 0.13328521 0.20794804
-0.06957729 0.09204392 0.013676808 0.19606954 0.0064963554 -0.072329395 0.090831265 -0.14028168
-0.013609943 -0.08855128 0.027344758 0.1131778 -0.008824041 -0.0972207 0.061453223 0.570013
0.012063358 0.03352191 -0.8530809 -0.101767056 -0.12265242 0.11824324 0.18660171 0.14567786
0.19301195 -0.08851115 -0.07563098 -0.08996313 -0.067580804 0.17099197 0.096485905 -0.058057997
-0.13567328 -0.13360727 -0.20267561 -0.2170213 -0.038530685 0.09341063 -0.072387785 -0.39782926
-0.46772572 0.1749246 -0.17532486 -0.027996227 0.12237533 0.16898246 0.059292298 -0.09381143
0.0925755 0.12258567 -0.07703189 -0.12455832 0.06346863 -0.07485915 0.012276705 0.28061384
00000000: 488f 993e 5616 323c d8d7 733c bfdd b93c
00000010: c625 61bc b00e ee3d 0324 293c f253 64be
00000020: 13e0 bfbc c5a4 ddbd 5b51 26be cf15 12bf
00000030: a9a0 353e 4214 29be 9ada 613e a087 203e
00000040: 2d93 58be dc71 2bbe 8730 763d e9bc 92bb
00000050: 14a4 b0bd fa51 a83e a66e 0dbe a919 3d3e
00000060: 1ac9 25bb 0172 563d 171d c1be 64b9 d1bd
00000070: 3da0 103c cfdc 3b3e 7c4f 2b3e dae0 d0bd
00000080: 28dc 033e 9791 91be bb58 d2bd 732b adbd
00000090: 14bf 12be 8ab8 4f3b 9fc3 173c 3c4a 423d
000000a0: 58e6 503e 7f9f 053e 8760 e33d d939 8d3c
000000b0: 8faa 7ebd 1114 6dbd cd8e 4bbd 6aaa ad3d
000000c0: 8bb8 3bbd a72b 85bc 732b b43d 1e22 413e
000000d0: dfbe 40bd 7413 fabd 9132 693d de04 35be
000000e0: ed55 b33d 1b00 f7be f235 8bbe 300d a03d
000000f0: 5865 9c3d fdcd 94bd 83a7 e7be 1449 a7bd
00000100: a93b cfbd ae5c b53c 7f31 043d b001 403e
00000110: f43c 2e3d 6af6 1e3d c4c2 b83c 77fb e63d
00000120: 9330 dd3c 324f 993d 9c1d 383e 0a61 ddbd
00000130: bdc6 23bd b0bf 08be 5339 f0bd 597a 24bd
00000140: d777 cb3d 7fbb adbd 3d85 cebd 6beb 0f3e
00000150: 3d82 0c3e 8451 2ebd c3ee 453f 2fb6 9b3e
00000160: 4950 bd3d d58e 87bd c348 9a3c 351b 823e
00000170: 9676 01bd c7b8 34be 5e24 3d3e c2a1 603e
00000180: 2de7 15be 197c 41bd 19ff 863e d834 acbd
00000190: 3900 1dbe ac78 1c3d 3550 e1bd 25e6 083e
000001a0: 4c43 2ebe 13da fe3c 942b d2bc fab3 3fbe
000001b0: 0f34 f23d 5f95 373d bb71 0c3d 204c 91be
000001c0: 8563 4f3d 1062 173e ef5f e63e fc02 623e
000001d0: 3cb1 0a3e d60a c93d a57f 52be 5b56 063d
000001e0: 0217 5d3e cc31 c73e 540f e3bd be5c acbc
000001f0: c9b3 003d ff16 debd 8862 72bd 24b3 bebc
00000200: 539f e8bd 887a d3bd 13b8 a53d d74f ec3d
00000210: 38dd 413e 6329 093d d9d7 013d 3ec1 d3bd
00000220: 5ea5 073e f9fd dbbe 8b71 693e a588 ba3b
00000230: 2c1d 3e3d ce0e a33e dace 153e 1807 003e
00000240: 5adc 3cbb f4a4 6fbe b242 ae3d f876 90bc
00000250: b9b8 1ebe 5c0f 41be f95e 4cbe a034 31be
00000260: 9ec2 01be bcb7 3abe 9f0a 7b3d 5ef8 c53d
00000270: af6e bbbb 0332 babd d2d5 42bd 1ff3 303e
00000280: cc7e 213e cf47 50be d5a3 efbd 1e26 b4be
00000290: e2ff 2d3d 38a2 443d e87d afbe 4eec 9e3d
000002a0: 3f9f 67bf c276 0c3e 05c0 463e a35a 1c3e
000002b0: 1623 4ebe 9094 bfbd c94a 7c3c 27b2 983c
000002c0: 96a0 ee3c b7e1 983e 484e 033e 495e bcbd
000002d0: 5795 f53b ceaf 00be 4d11 2b3e 5d19 86bb
000002e0: cdc5 9bbc 0a8c 253d c599 95bc b4fd 1abe
000002f0: 0118 043e 4288 293b fc66 1bbf 2c1e 043e
00000300: 3875 29be c269 693e d40b a73d c5a3 cd3d
00000310: 456e d33d e6a4 823e eb7b 083e 55f0 543e
00000320: 8a7e 8ebd 8681 bc3d b114 603c 74c6 483e
00000330: 61df d43b 6f21 94bd be05 ba3d 00a6 0fbe
00000340: 3dfc 5ebc 605a b5bd 1d02 e03c c3c9 e73d
00000350: b692 10bc a51b c7bd 60b6 7b3d 5fec 113f
00000360: 64a5 453c 454e 093d 8363 5abf 3f6b d0bd
00000370: 3131 fbbd 8329 f23d 8514 3f3e 942c 153e
00000380: eda4 453e 5545 b5bd 6ae4 9abd 973e b8bd
00000390: ce67 8abd 8518 2f3e 679a c53d 39ce 6dbd
000003a0: f0ed 0abe 58d0 08be 328a 4fbe d53a 5ebe
000003b0: 5ad2 1dbd 134e bf3d 0c40 94bd 47b0 cbbe
000003c0: bf79 efbe 6f1f 333e 5c88 33be 5858 e5bc
000003d0: eb9f fa3d bd09 2d3e 7bdc 723d 3520 c0bd
000003e0: 3998 bd3d 320e fb3d e5c2 9dbd 6f18 ffbd
000003f0: d7fb 813d c14f 99bd 3c24 493c 9eac 8f3e

self_entity_fc1.bias f4 [32]
-0.004879938 0.26884854 0.0024746018 -0.24941857 -0.088538624 -0.13750693 0.33029786 0.13249454
0.22925265 0.15476027 0.088060185 0.23071977 0.009496081 -0.0381484 -0.1243269 -0.04545887
0.15961851 0.14064378 0.23922367 0.038612552 0.23442037 0.11900413 0.2454968 -0.07679202
0.23681654 0.11565717 -0.2280315 0.05929462 0.36189744 0.51063377 -0.005968432 0.015742501
00000000: e3e7 9fbb 84a6 893e ee2c 223b 9567 7fbe
00000010: bd53 b5bd 9ece 0cbe cd1c a93e a6ac 073e
00000020: 35c1 6a3e 7a79 1e3e e658 b43d ce41 6c3e
00000030: 7395 1b3c 7f41 1cbd 1a9f febd 1433 3abd
00000040: 0973 233e ec04 103e 0df7 743e 3228 1e3d
00000050: e50b 703e 70b8 f33d 8363 7b3e 2245 9dbd
00000060: 0980 723e abdd ec3d 1781 69be eade 723d
00000070: 9f4a b93e e5b8 023f d692 c3bb 6bf6 803c

self_entity_fc2.weight f4 [32, 32]
-0.10125779 0.12446849 0.3483497 -0.42067236 0.21216169 0.079456955 0.15078406 0.22314431
-0.29645574 -0.03856 0.08821303 -0.1873313 -0.013026923 0.14702763 -0.36614498 0.104425244
0.025006102 0.0009219367 0.12364841 -0.15942839 0.0048014144 0.005288955 -0.072530255 0.20676012
0.022663169 0.12924808 -0.3698625 0.2096961 0.53119534 0.5539852 0.11380825 -0.03505372
0.3313054 0.12140367 -0.04563414 0.07961234 -0.6116328 -0.17760266 0.86647224 -0.11860467
0.5895645 -0.09807798 0.29857674 0.55535924 0.013544302 -0.6128732 0.1275459 0.12888533
0.14915676 0.09803964 -0.0145814875 -0.26990673 0.0719047 0.14448895 -0.16446233 -0.13667245
-0.3101309 0.09414455 -0.1811196 -0.1722315 -0.5692988 -0.60414225 -0.14243859 -0.10108163
-0.05114431 -0.09552471 -0.4565471 -0.3267096 0.25831044 -0.19296633 0.13889344 0.14956488
-0.6943653 -0.0916605 0.096776396 -0.24800214 -0.14471477 -0.8443929 -0.29204166 -0.018565817
-0.14488819 0.11880185 0.23861654 -0.27906388 -0.037567478 -0.007707823 0.11209558 0.23857905
0.12905633 0.158629 -0.46363017 -0.07061358 -9.57348e-05 -0.10882897 -0.13772017 -0.157607
0.06459014 -0.096328214 -0.22508931 0.15376228 0.14885397 0.22556758 0.010024176 -0.4050277
-0.24609591 -0.17716198 -0.5718982 0.06799182 0.29951927 -0.48200938 0.33293268 0.17752951
0.097120196 0.19992378 -0.37453252 -0.04854655 -0.1397255 0.011701263 -0.100333706 0.010997588
0.0024824073 -0.011506308 0.25006902 -0.4667121 0.16174242 0.10869397 -0.14935169 0.21381721
0.4572593 0.2800196 -0.08576818 -0.051281843 -0.40172836 -0.14050166 0.23114333 -0.16881631
0.51507574 -0.0016479894 0.24292491 0.56526536 0.109665886 -0.6865974 -0.006372341 0.23632658
0.1877599 0.057549838 -0.13658154 0.15285994 0.32163623 0.27860227 -0.015534595 0.1561894
-0.4384688 0.09857825 0.041365948 0.050687138 -0.39725772 -0.5172644 0.10663512 -0.014642529
0.1759673 0.33035323 0.2572395 -0.07468401 0.161777 -0.015382954 -0.04219705 0.056715995
0.73034453 -0.26359975 0.31535748 0.22771205 -0.22703427 0.38345152 0.20718402 0.15296793
0.17345037 0.0774335 -0.057368297 0.22652669 0.1208872 -0.062314644 0.07851194 -0.09421345
0.23235525 -0.2149139 -0.20271935 0.077497154 -0.28232878 -0.47357884 -0.07754098 -0.15155882
-0.038654428 0.12098096 0.052960794 -0.3235809 0.10989159 0.054085966 -0.21498205 0.03990038
-1.0507118 0.018936682 0.22913189 -0.0833248 -0.17684086 -1.0923909 -0.047005866 -0.09666172
0.11408941 0.14288057 0.164036 -0.05749806 0.16473277 -0.23139937 0.21787074 0.11516057
0.13407741 0.051630966 -0.492117 0.2722009 -0.103960164 -0.083608255 -0.18155201 0.008034669
0.5806401 0.098554894 0.032956902 -0.06522901 -0.057804078 -0.17790264 -0.63308245 -0.0063882545
0.22750992 0.047873486 0.10335454 0.5438896 -0.08046643 -0.81192803 0.05554904 0.0663176
0.0026781103 -0.017181717 -0.0034102676 0.13536496 0.22161315 -0.049191844 -0.049398515 0.32085848
-0.33269918 0.108464055 -0.022057502 -0.03448634 -0.3989256 -0.38705736 0.1102022 0.0724448
00000000: 3f60 cfbd 56e9 fe3d e45a b23e 5e62 d7be
00000010: ea40 593e 54ba a23d 2367 1a3e f17f 643e
00000020: 0cc9 97be 17f1 1dbd 08a9 b43d c7d3 3fbe
00000030: e06e 55bc 698e 163e 5b77 bbbe e7dc d53d
00000040: 99d9 cc3c 20ae 713a 613b fd3d 3241 23be
00000050: 2f55 9d3b f84e ad3b be8a 94bd edb8 533e
00000060: 1ca8 b93c 9c59 043e 9e5e bdbe 93ba 563e
00000070: 6bfc 073f f9d1 0d3f 4d14 e93d 7d94 0fbd
00000080: dda0 a93e 7da2 f83d ddea 3abd cb0b a33d
00000090: f893 1cbf 79dd 35be 20d1 5d3f 01e7 f2bd
000000a0: b3ed 163f 1cdd c8bd 0ddf 983e 062c 0e3f
000000b0: ece8 5d3c 42e5 1cbf 649b 023e 84fa 033e
000000c0: 8dbc 183e 02c9 c83d 31e7 6ebc 3731 8abe
000000d0: c542 933d e9f4 133e d068 28be ddf3 0bbe
000000e0: 7ac9 9ebe dcce c03d 6b77 39be 745d 30be
000000f0: 91bd 11bf 11a9 1abf 6cdb 11be e303 cfbd
00000100: b27c 51bd 76a2 c3bd 8bc0 e9be 7b46 a7be
00000110: 4441 843e f798 45be 153a 0e3e 8927 193e
00000120: edc1 31bf 80b8 bbbd b432 c63d 46f4 7dbe
00000130: 1c30 14be 222a 58bf 7c86 95be 5717 98bc
00000140: 925d 14be 624e f33d e557 743e 76e1 8ebe
00000150: 5be0 19bd e891 fcbb 5e92 e53d 114e 743e
00000160: 5827 043e a46f 223e ef60 edbe da9d 90bd
00000170: 3bc5 c8b8 b9e1 debd 8406 0dbe bb63 21be
00000180: d647 843d ba47 c5bd d07d 66be dc73 1d3e
00000190: 2d6d 183e 30fb 663e 713c 243c ca5f cfbe
000001a0: 9100 7cbe f369 35be ec67 12bf 4c3f 8b3d
000001b0: 975a 993e efc9 f6be 2776 aa3e 4cca 353e
000001c0: f4e6 c63d d2b8 4c3e bac2 bfbe bfd8 46bd
000001d0: 3414 0fbe a7b6 3f3c c27b cdbd 3a2f 343c
000001e0: e2af 223b f484 3cbc 0c09 803e e3f4 eebe
000001f0: ce9f 253e f29a de3d a6ef 18be e6f2 5a3e
00000200: e41d ea3e bb5e 8f3e 3aa7 afbd e90c 52bd
00000210: 57af cdbe abdf 0fbe d6b0 6c3e 2fde 2cbe
00000220: 01dc 033f 5901 d8ba 4fc1 783e 3bb5 103f
00000230: 8298 e03d d9c4 2fbf 12cf d0bb 98ff 713e
00000240: 2244 403e 61b9 6b3d 08dc 0bbe 5187 1c3e
00000250: 81ad a43e f5a4 8e3e d084 7ebc 1df0 1f3e
00000260: fc7e e0be 65e3 c93d 576f 293d 519d 4f3d
00000270: 5d65 cbbe 716b 04bf 8463 da3d 38e7 6fbc
00000280: c630 343e 0f24 a93e e5b4 833e eef3 98bd
00000290: dfa8 253e c908 7cbc d0d6 2cbd 084f 683d
000002a0: dcf7 3a3f 8cf6 86be 8976 a13e 592d 693e
000002b0: ac7b 68be c253 c43e 0c28 543e a0a3 1c3e
000002c0: f99c 313e 7495 9e3d 05fb 6abd 9df6 673e
000002d0: b593 f73d a43d 7fbd deca a03d fbf2 c0bd
000002e0: 89ee 6d3e 6412 5cbe a995 4fbe d4b6 9e3d
000002f0: 668d 90be ed78 f2be cecd 9ebd 3c32 1bbe
00000300: 1b54 1ebd dec4 f73d 6bed 583d 65ac a5be
00000310: d80e e13d 3f89 5d3d 4124 5cbe 956e 233d
00000320: b97d 86bf 1a21 9b3c 8da1 6a3e 31a6 aabd
00000330: c515 35be 77d3 8bbf 3989 40bd 94f6 c5bd
00000340: b5a7 e93d 494f 123e 0ef9 273e 1683 6bbd
00000350: b5af 283e f5f3 6cbe 8219 5f3e 4ed9 eb3d
00000360: 974b 093e fe7a 533d c2f6 fbbe eb5d 8b3e
00000370: 11e9 d4bd ce3a abbd c5e8 39be d8a3 033c
00000380: d4a4 143f 26d7 c93d d1fd 063d ca96 85bd
00000390: f8c3 6cbd 1c2c 36be b111 22bf 9054 d1bb
000003a0: 5cf8 683e fd16 443d 8cab d33d 593c 0b3f
000003b0: 95cb a4bd 84da 4fbf 6487 633d 86d1 873d
000003c0: 3c83 2f3b acc0 8cbc cc7e 5fbb 1d9d 0a3e
000003d0: 8fee 623e 637d 49bd 1956 4abd 9047 a43e
000003e0: 8c57 aabe 6722 de3d efb1 b4bc 8c41 0dbd
000003f0: fa3f ccbe 622c c6be b1b1 e13d f05d 943d

self_entity_fc2.bias f4 [32]
0.09717539 0.08039773 -0.028782314 -0.059879236 0.23533186 -0.012310636 -0.04657514 0.30674747
-0.088327065 -0.12740901 0.10298408 -0.008568549 -0.16685109 0.07898966 -0.054324094 -0.11821373
-0.09712883 -0.1378023 -0.05156831 -0.07480257 0.107906945 0.124383606 0.057902608 -0.18599382
0.06410834 -0.014872536 -0.042200428 -0.16489412 0.1046414 -0.10231554 0.11967451 0.19941273
00000000: e403 c73d 91a7 a43d e3c8 ebbc ee43 75bd
00000010: d6fa 703e 8db2 49bc 93c5 3ebd 010e 9d3e
00000020: d2e4 b4bd 8277 02be 51e9 d23d 1963 0cbc
00000030: 03db 2abe 55c5 a13d f182 5ebd 0a1a f2bd
00000040: 7beb c6bd 0c1c 0dbe 4b39 53bd 1732 99bd
00000050: 51fe dc3d d5bc fe3d 492b 6d3d 2a75 3ebe
00000060: 3c4b 833d f0ab 73bc 5bda 2cbd 01da 28be
00000070: 3b4e d63d cf8a d1bd e917 f53d da32 4c3e

other_entity_fc1.weight f4 [32, 26]
0.11414798 -0.17616417 0.12868144 -0.017685562 -0.35307562 -0.1479677 -0.3888706 -0.35348573
0.17926103 -0.104781665 0.14107321 0.011564675 -0.1318794 -0.08386894 0.044344127 0.10647861
-0.12938139 -0.14370552 -0.13659813 0.12054238 -0.00088545086 0.086025976 -0.17505972 -0.08322983
-0.16763489 0.63091403 0.08565922 0.2280148 -0.035993986 -0.07400395 -0.17841792 0.16260129
-0.1813517 -1.5298228 0.03258176 0.17046323 0.15045066 0.24999534 0.14562197 0.051080227
-0.0902987 -0.14688993 0.15518895 -0.016506355 0.08300619 0.16960157 -0.11222297 0.07836901
-0.31738937 -0.14390709 -0.101849474 -0.5276154 0.14692979 -0.015306032 -0.014665043 -0.20062777
-0.08951505 -0.37452152 -0.07498082 0.27114606 0.060045514 0.10832785 -0.29686773 -0.4269768
0.07052777 -0.07162421 0.02483471 -0.08714625 0.07068221 -0.1908304 -0.009973691 -0.2500651
-0.17958863 0.12158869 0.23578161 0.11234698 -0.09154116 -0.022295646 0.011646776 -0.10381153
-0.1760498 0.18809459 -0.0012065379 0.0155888 -0.28833494 1.1060702 0.26425663 -0.11719197
-0.15072335 -0.13853422 0.20353521 -0.1486166 -0.2524209 0.08770863 0.087378375 0.022953484
0.03379633 -0.025761737 0.07969771 0.08911173 -0.6871633 0.2760698 -0.02775025 -0.26308563
0.052389007 -0.041216183 0.03483788 -0.5872825 -0.25059584 -0.30435067 -0.10279038 0.10170251
-0.592857 -0.49991474 0.00847835 -0.069561005 0.054359652 0.08575827 0.051304713 0.2969916
-0.02023029 0.17646314 0.20560867 0.27544522 -0.065345384 0.15300944 0.2509734 -0.40046552
0.19870812 -0.065056235 -0.06701626 0.12221489 0.030766807 -0.09890148 0.030575698 0.42485675
-0.09701583 -0.47257432 0.34579894 0.25629276 -0.1354199 -0.19448377 -0.2896851 0.045313966
-0.12109349 -0.003842579 0.1137898 0.010518441 -0.04080834 -0.16063727 -0.18973337 -0.24457319
0.17033842 0.036147386 0.13519587 0.14120162 -0.36103773 -0.04339976 0.21718912 -0.093369894
0.05670638 0.16817906 -0.23459245 0.592445 0.22957155 0.079245575 -0.85580087 -0.11073191
0.013231444 0.08091803 0.08802043 0.1450823 0.07520862 -0.024720427 -0.10518233 0.04145243
0.014739781 0.18362951 0.16079418 -0.0006955726 -0.02568295 -0.45506933 0.15197499 -0.19771326
-0.08366828 -0.11870941 0.0850489 -0.1017735 0.07045425 0.0029758315 -0.41100028 -0.5239706
0.047731627 -0.09531666 0.037012316 -0.3439795 -0.07582454 0.16724026 -0.10601675 -0.052113917
0.052097995 -0.18692482 -0.017409313 -0.1752596 -0.34192812 0.12394498 -0.4323514 0.31995308
-0.16395546 0.045381118 -0.04518385 -0.084273145 -0.04567173 -0.026354548 -0.5436305 -0.33586186
-0.34010237 -0.16667654 0.13720618 -0.04004311 0.13011031 -0.22693685 0.041312188 0.11818187
-0.06743693 0.17234792 0.050730553 -0.026154991 -0.052136876 0.0116201565 -0.21707708 -0.18588349
0.42064413 0.24517147 -0.3774359 -0.072200105 0.15914318 0.020923138 -0.08917138 -0.15099695
0.09244085 -0.50769 -0.2967947 0.08574497 -0.10717133 0.026553972 -0.10855781 0.022031646
0.08441382 0.0868004 0.030519456 0.00092214043 0.057301268 -0.022553407 -0.0013762017 0.04171186
00000000: 6bc6 e93d 6164 34be 11c5 033e 50e1 90bc
00000010: 54c6 b4be d884 17be 0c1a c7be 15fc b4be
00000020: 3490 373e c597 d6bd 7f75 103e c379 3d3c
00000030: 650b 07be 7bc3 abbd 30a2 353d 7511 da3d
00000040: 8e7c 04be 8a27 13be 61e0 0bbe ecde f63d
00000050: 9a1d 68ba 632e b03d db42 33be 6774 aabd
00000060: 7ba8 2bbe 9583 213f 1a6e af3d b67c 693e
00000070: 6e6e 13bd 628f 97bd 30b3 36be f480 263e
00000080: 43b4 39be 3cd1 c3bf 7474 053d ea8d 2e3e
00000090: bd0f 1a3e c7fe 7f3e ed1d 153e 8039 513d
000000a0: 86ee b8bd 506a 16be dae9 1e3e 5638 87bc
000000b0: 26ff a93d 09ac 2d3e 28d5 e5bd ee7f a03d
000000c0: dc80 a2be 615c 13be 7596 d0bd ce11 07bf
000000d0: c374 163e 27c6 7abc a645 70bc 5e71 4dbe
000000e0: ab53 b7bd 49c1 bfbe 8b8f 99bd a8d3 8a3e
000000f0: 49f2 753d feda dd3d 0cff 97be b49c dabe
00000100: dd70 903d b7af 92bd 2972 cb3c bc79 b2bd
00000110: d6c1 903d 0b69 43be b168 23bc 8808 80be
00000120: 15e6 37be 7e03 f93d bc70 713e 2c16 e63d
00000130: ef79 bbbd 5ca5 b6bc 1fd2 3e3c 249b d4bd
00000140: 6646 34be de9b 403e b224 9eba 2b68 7f3c
00000150: a3a0 93be b593 8d3f a54c 873e 5802 f0bd
00000160: 3957 1abe eadb 0dbe 896b 503e f32e 18be
00000170: 503d 81be 95a0 b33d 6ff3 b23d f208 bc3c
00000180: 056e 0a3d 470a d3bc 8e38 a33d 3680 b63d
00000190: efe9 2fbf 0559 8d3e 7e54 e3bc 29b3 86be
000001a0: db95 563d 4dd2 28bd 2ab2 0e3d 2558 16bf
000001b0: 194e 80be dad3 9bbe c383 d2bd 6849 d03d
000001c0: 7ac5 17bf d3f4 ffbe c7e8 0a3c 0076 8ebd
000001d0: 3aa8 5e3d 08a2 af3d e424 523d 480f 983e
000001e0: feb9 a5bc c1b2 343e 148b 523e 2807 8d3e
000001f0: cdd3 85bd 82ae 1c3e 967f 803e d109 cdbe
00000200: 247a 4b3e 343c 85bd d23f 89bd cd4b fa3d
00000210: ac0a fc3c dc8c cabd e379 fa3c d386 d93e
00000220: 3cb0 c6bd 43f5 f1be 8f0c b13e ce38 833e
00000230: 84ab 0abe c126 47be 9b51 94be 239b 393d
00000240: ddff f7bd c7d3 7bbb a00a e93d 8a55 2c3c
00000250: a526 27bd 197e 24be 7749 42be 6571 7abe
00000260: 326d 2e3e 480f 143d c970 0a3e 2897 103e
00000270: f0d9 b8be f2c3 31bd d366 5e3e b738 bfbd
00000280: f344 683d 2237 2c3e 0139 70be 7aaa 173f
00000290: ce14 6b3e 814b a23d c415 5bbf 69c7 e2bd
000002a0: b3c8 583c 5ab8 a53d 0e44 b43d 7490 143e
000002b0: fa06 9a3d 7e82 cabc d569 d7bd 06ca 293d
000002c0: 1f7f 713c 6009 3c3e 3ba7 243e 1657 36ba
000002d0: 0d65 d2bc d9fe e8be 559f 1b3e 5875 4abe
000002e0: 465a abbd eb1d f3bd 1e2e ae3d a06e d0bd
000002f0: 514a 903d 2b06 433b a16e d2be f022 06bf
00000300: 3d82 433d 6235 c3bd 3a9a 173d 151e b0be
00000310: e549 9bbd 0841 2b3e 4f1f d9bd 6775 55bd
00000320: b564 553d 3869 3fbe fa9d 8ebc 4177 33be
00000330: 3411 afbe ded6 fd3d 2a5d ddbe e4d0 a33e
00000340: f1e3 27be 8de1 393d b312 39bd 6697 acbd
00000350: 4812 3bbd 7ee5 d7bc 5e2b 0bbf 16f6 abbe
00000360: e621 aebe 41ad 2abe c77f 0c3e 3e04 24bd
00000370: a33b 053e 2262 68be f836 293d 5609 f23d
00000380: 601c 8abd f97b 303e d7ca 4f3d fe42 d6bc
00000390: 7a8d 55bd 7862 3e3c 7449 5ebe 3e58 3ebe
000003a0: ab5e d73e 3b0e 7b3e 473f c1be a6dd 93bd
000003b0: 6ef6 223e 0067 ab3c 7c9f b6bd f29e 1abe
000003c0: a151 bd3d f9f7 01bf 7af5 97be 0f9b af3d
000003d0: a47c dbbd b787 d93c 8f53 debd b67b b43c
000003e0: 27e1 ac3d 68c4 b13d f003 fa3c ccbb 713a
000003f0: bcb4 6a3d ecc1 b8bc ab61 b4ba 0eda 2a3d

other_entity_fc1.bias f4 [32]
-0.09778926 -0.17574291 -0.07018418 -0.009219934 -0.023091473 -0.31082967 -0.099530645 -0.06276725
-0.016771559 -0.0169977 -0.06335073 -0.026930733 -0.04155333 -0.22567584 -0.05068688 -0.24938169
-0.044771258 -0.00799784 -0.013458449 -0.1910311 -0.055491015 -0.10123622 -0.030755669 -0.019977357
-0.03380208 0.028466184 -0.060389 -0.08058689 -0.01811697 -0.032229755 0.028989041 -0.079522304
00000000: bc45 c8bd f3f5 33be b9bc 8fbd 350f 17bc
00000010: 542a bdbc 1125 9fbe b9d6 cbbd 1e8c 80bd
00000020: 8264 89bc c33e 8bbc 07be 81bd d79d dcbc
00000030: d333 2abd 9117 67be 0c9d 4fbd ea5d 7fbe
00000040: 1162 37bd 5f09 03bc d480 5cbc a89d 43be
00000050: 8c4a 63bd ef54 cfbd 50f3 fbbc 8ea7 a3bc
00000060: 0d74 0abd ea31 e93c 755a 77bd bd0a a5bd
00000070: 0a6a 94bc 5903 04bd 6d7a ed3c 97dc a2bd
