my-submission/checkpoints/model_126208.pt (torch, 352797 bytes, 23 tensors)

local_map_cnn.0.weight f4 [32, 24, 3, 3]
-0.06307831 0.021678071 0.12706567 0.04817115 -0.027650684 0.09868042 -0.07665326 -0.1480607
0.070200145 0.08951035 -0.085232675 -0.1629864 0.09974827 0.023358067 0.17824744 -0.007882639
0.018297968 -0.23025945 -0.03480272 0.05543309 0.12707062 -0.011634624 -0.15990683 -0.3971661
-0.014849055 -0.012827492 0.04722594 0.0055443244 -0.06081793 0.06597201 -0.09857334 -0.01578693
-0.270058 -0.20935561 -0.22312279 0.05163751 -0.061644387 -0.028308421 0.11220055 0.010926012
0.06969388 -0.024770988 -0.018092517 -0.13057809 0.17064078 0.086875744 0.011310593 -0.34005544
0.027327375 -0.05277363 0.11921806 0.018399859 0.05467908 -0.36088082 -0.08105684 -0.061909474
-0.1686969 -0.1295083 -0.26058564 -0.1754717 -0.06531808 -0.10492194 0.12165109 -0.046915807
-0.10415979 -0.030712565 0.028031938 -0.2087865 -0.16369651 -0.09868607 -0.16022608 -0.08057719
-0.06669323 -0.035410304 0.05181099 -0.08688821 -0.2514708 -0.122474834 -0.17521441 -0.07713789
-0.03198175 -0.0826087 0.08988376 0.0036199214 -0.030150622 0.013888515 -0.24751982 0.1271399
-0.1021946 0.008495133 -0.10241195 0.16778466 0.008318071 -0.11689489 -0.19161448 -0.4059678
-0.039357666 -0.09581369 0.030790078 -0.2300776 -0.021064512 0.016442107 -0.14209974 -0.1653297
-0.27968007 0.046493616 -0.072669595 -0.0542585 0.011043929 -0.020116605 0.14243945 -0.16913849
-0.17534903 -0.26074854 -0.21434264 -0.21286064 0.030956902 -0.08740801 -0.070766054 0.168176
-0.065344 0.010964455 -0.14582266 -0.27221027 -0.026988126 0.04072858 -0.11265751 0.0058723134
-0.029866047 0.008313773 -0.003969837 0.094746865 -0.0069468073 -0.035281785 -0.12913795 -0.06007281
0.07577886 0.24695921 0.04721477 -0.033787873 -0.15477967 -0.12199669 0.0008113635 0.20828223
0.011495998 0.09956795 0.15393005 -0.03148786 -0.06605654 -0.5317277 0.014133142 -0.08088322
0.22188443 -0.06479513 -0.08891268 -0.098660246 -0.047443047 -0.06399646 -0.042931285 0.046330333
-0.03753369 -0.17298545 0.18461306 -0.003651799 0.3015037 -0.041397117 0.043887585 0.47443554
0.16541345 0.022229664 0.40535575 -0.0523994 -0.050821546 -0.010465466 0.07200184 -0.06714433
0.14762044 0.0068752314 0.043410454 -0.07889348 -0.1711527 -0.17937991 -0.09941064 -0.05368694
-0.18268722 -0.12859008 -0.112847604 -0.11974956 -0.061956324 0.3954103 0.5999658 0.26550588
0.5242716 0.501944 0.3801412 0.0002869653 0.26252005 -0.016137902 0.37688065 0.49734542
0.043469537 0.8506919 0.71272576 -0.02965124 0.09490292 0.5093052 0.34664175 0.14046766
0.06415474 0.08553562 0.10036278 0.0120649645 -0.079230465 0.1145592 0.011410572 0.004429373
0.0618257 -0.006809359 0.068013124 -0.022962503 0.057285927 0.051664345 -0.032521605 0.0765038
-0.047614235 0.009066783 0.06877159 0.0038139 0.07295257 0.038583104 0.0048725414 0.060419522
0.09171569 0.0267507 -0.014024406 -0.017763343 0.03442776 -0.031709448 -0.05664889 0.03454084
-0.004807667 -0.0047887634 0.013746096 0.013993156 0.006810314 0.028657379 0.059984077 0.042103354
0.0863754 0.0009321346 0.04954842 0.037823685 0.04974638 0.04814431 0.050576296 -0.037181217
00000000: 332f 81bd 3696 b13c 811d 023e 1d4f 453d
00000010: b083 e2bc f618 ca3d 62fc 9cbd 399d 17be
00000020: 18c5 8f3d 3451 b73d 788e aebd e8e5 26be
00000030: d248 cc3d 6b59 bf3c 7f86 363e 2f26 01bc
00000040: 9fe5 953c 22c9 6bbe 4c8d 0ebd cf0d 633d
00000050: cd1e 023e 269f 3ebc 9ebe 23be 5b59 cbbe
00000060: 7349 73bc 672a 52bc fd6f 413d 2aad b53b
00000070: 391c 79bd 551c 873d d2e0 c9bd 9853 81bc
00000080: 0b45 8abe 5161 56be 4d7a 64be db81 533d
00000090: d37e 7cbd 10e7 e7bc 67c9 e53d 0403 333c
000000a0: aabb 8e3d 87ec cabc c236 94bc 43b6 05be
000000b0: 75bc 2e3e e9eb b13d 1150 393c bf1b aebe
000000c0: a9dd df3c 2929 58bd 9928 f43d 4dbb 963c
000000d0: 2cf7 5f3d 5fc5 b8be 2101 a6bd ca94 7dbd
000000e0: e1be 2cbe d39d 04be 7b6b 85be daae 33be
000000f0: 7cc5 85bd 50e1 d6bd 3524 f93d ca2a 40bd
00000100: ba51 d5bd eb98 fbbc 3ca3 e53c 21cc 55be
00000110: 0fa0 27be ec1b cabd 4e12 24be a705 a5bd
00000120: 7696 88bd 650a 11bd c337 543d 72f2 b1bd
00000130: c8c0 80be 16d4 fabd 686b 33be 78fa 9dbd
00000140: 4cff 02bd c02e a9bd fa14 b83d 343c 6d3b
00000150: 70fe f6bc a78c 633c d675 7dbe f630 023e
00000160: 674b d1bd 2c2f 0b3c 5bbd d1bd becf 2b3e
00000170: 8548 083c 9766 efbd 9636 44be 03db cfbe
00000180: 8135 21bd f839 c4bd 793b fc3c 7699 6bbe
00000190: 7c8f acbc 99b1 863c 9882 11be 304c 29be
000001a0: 3a32 8fbe 1770 3e3d ccd3 94bd 293e 5ebd
000001b0: 98f1 343c 94cb a4bc a6db 113e a432 2dbe
000001c0: b28e 33be d580 85be a37c 5bbe 24f8 59be
000001d0: 5499 fd3c f902 b3bd cbed 90bd 5436 2c3e
000001e0: 13d3 85bd 42a4 333c 8952 15be 255f 8bbe
000001f0: 3416 ddbc 03d3 263d fbb8 e6bd 896c c03b
00000200: a4a9 f4bc 7e36 083c 6815 82bb a50a c23d
00000210: 0ba2 e3bb a283 10bd bd3c 04be e80e 76bd
00000220: f231 9b3d e0e2 7c3e 4664 413d 2765 0abd
00000230: 907e 1ebe 67d9 f9bd afb1 543a f047 553e
00000240: b659 3c3c 48ea cb3d d79f 1d3e 6af9 00bd
00000250: a748 87bd 4e1f 08bf b28e 673c 1aa6 a5bd
00000260: ac35 633e 4fb3 84bd da17 b6bd 620e cabd
00000270: a453 42bd 9310 83bd b7d8 2fbd e0c4 3d3d
00000280: edbc 19bd 1923 31be 350b 3d3e 0553 6fbb
00000290: b15e 9a3e 0690 29bd 78c3 333d 37e9 f23e
000002a0: 2562 293e fc1a b63c ca8a cf3e c1a0 56bd
000002b0: 412a 50bd 5977 2bbc b375 933d f782 89bd
000002c0: d029 173e 9f49 e13b 29cf 313d e892 a1bd
000002d0: a742 2fbe 5eaf 37be ce97 cbbd d6e6 5bbd
000002e0: 5c12 3bbe 1ead 03be a51c e7bd 423f f5bd
000002f0: eac5 7dbd 3873 ca3e 5c97 193f 63f0 873e
00000300: aa36 063f 677f 003f dea1 c23e d573 9639
00000310: 0769 863e a233 84bc 80f6 c03e 0fa4 fe3e
00000320: 1d0d 323d f2c6 593f 3275 363f 28e7 f2bc
00000330: 765c c23d d361 023f 077b b13e c1d6 0f3e
00000340: 8f63 833d 4d2d af3d 008b cd3d 21ac 453c
00000350: 9543 a2bd 049e ea3d 68f3 3a3c 4624 913b
00000360: f23c 7d3d 0b21 dfbb 774a 8b3d dc1b bcbc
00000370: a6a4 6a3d fe9d 533d 6035 05bd 06ae 9c3d
00000380: 2507 43bd d88c 143c 1fd8 8c3d a0f2 793b
00000390: 2868 953d 5109 1e3d d7a9 9f3b 767a 773d
000003a0: 70d5 bb3d 4924 db3c 9fc6 65bc 6e84 91bc
000003b0: 1f04 0d3d c4e1 01bd ab08 68bd b27a 0d3d
000003c0: a289 9dbb 0feb 9cbb 4e37 613c 8d43 653c
000003d0: 0e29 df3b e1c2 ea3c ddb1 753d 9174 2c3d
000003e0: 96e5 b03d 7e5a 743a 49f3 4a3d 02ed 1a3d
000003f0: dcc2 4b3d f832 453d 1729 4f3d 554b 18bd

local_map_cnn.0.bias f4 [32]
-0.015116886 -0.0398349 -0.022379704 -0.101072945 0.03512231 0.013087148 0.009703862 -0.05271194
0.007559056 -0.10145894 0.0057214624 -0.029729621 -0.015785204 -0.043887384 -0.048418656 -0.13859414
-0.034799386 0.024311308 0.03980616 0.02126983 -0.08571605 0.08963174 -0.013132842 -0.05969821
-0.08586543 -0.06859375 -0.048039302 -0.008639744 0.05467547 0.04671373 0.08516846 0.011660273
00000000: d1ac 77bc ec29 23bd a455 b7bc 55ff cebd
00000010: 69dc 0f3d 7a6b 563c f2fc 1e3c 7ae8 57bd
00000020: f5b1 f73b b4c9 cfbd 1b7b bb3b 898b f3bc
00000030: f94f 81bc 42c3 33bd a452 46bd 9feb 0dbe
00000040: cd89 0ebd 8228 c73c c90b 233d 113e ae3c
00000050: e58b afbd d890 b73d 222b 57bc 1c86 74bd
00000060: 37da afbd e17a 8cbd dcc4 44bd b68d 0dbc
00000070: 63f3 5f3d e556 3f3d cd6c ae3d bb0a 3f3c

local_map_cnn.2.weight f4 [32, 32, 3, 3]
0.22611648 -0.015016774 -0.11186736 -0.018146297 -0.28067195 0.053698648 -0.323726 -0.00789869
0.022101082 -0.027815744 -0.06911237 -0.02490633 -0.029099543 -0.04857752 -0.0789247 0.032758247
-0.0031520235 -0.091571994 0.08778975 -0.123941295 0.008012317 0.17327346 0.13323072 0.23071381
-0.052459896 -0.11552654 -0.03215274 -0.085548714 0.176417 0.16957027 0.07870664 0.22834808
0.25784364 -0.0921274 0.011953481 0.12712616 0.008290301 -0.098927416 0.11953483 -0.00064030243
-0.3528433 -0.059777144 -0.015595121 -0.13263386 -0.016395343 -0.07534905 -0.10046896 -0.01361848
-0.018777553 -0.21991847 -0.0987275 0.053172726 -0.04773346 0.06771127 -0.07636253 -0.11095326
-0.09423266 -0.1190851 -0.042023163 -0.108292855 -0.033598453 -0.1108339 -0.09198671 0.12208849
0.13538428 0.13366564 0.08909153 0.1217177 0.15974884 0.09803053 0.12173477 0.10359741
0.14336835 0.3383665 -0.089741774 0.12861143 -0.063584544 -0.035653118 0.12710951 -0.029691588
-0.11805823 0.05194342 0.06971269 0.04168007 0.08400851 0.109743945 0.073879346 -0.0022352338
0.04019992 0.015708452 -0.019006448 -0.03666365 0.10980438 -0.083356835 -0.16885073 -0.045569304
-0.008683043 -0.23726682 0.073994964 0.32895333 -0.00028897784 0.26994672 0.14052072 0.07846222
0.05789689 0.10669704 -0.12816705 0.06688501 -0.1124663 0.067165405 -0.012232212 0.13538447
0.00023176897 -0.1337756 -0.0034927202 0.020707436 0.048572965 0.06383479 0.11849985 0.048125032
0.051011514 -0.060634132 0.023608526 0.029683257 0.034630477 0.034286384 -0.07947357 -0.05690706
-0.06467856 -0.12921374 -0.009843594 -0.02912402 -0.094701715 -0.10135765 0.04936129 -0.0043262257
0.05873739 -0.04339006 -0.015488297 0.07533352 0.03838203 -0.19736503 -0.023734795 -0.04875295
0.07827701 0.14950082 0.006719859 0.13242696 0.2681114 -0.011738103 0.0025401034 0.018891389
0.1358223 0.06418776 0.05437278 0.0073139095 0.0684175 0.06394345 0.022532737 -0.04354927
0.041812602 -0.042903915 0.10789475 -0.028485807 0.08825929 -0.011921111 0.057416033 0.20738338
-0.08512371 0.008884218 0.10175354 0.060843155 -0.06642922 -0.050429408 0.086366445 0.19725128
0.08728042 0.015837384 0.07985567 0.18234162 0.017891655 0.06512376 -0.009426541 0.15122771
0.0041146125 0.09129497 -0.08176321 0.01373623 0.054089688 0.053549256 0.17672361 -0.0066096424
-0.032550924 -0.010514867 0.040806264 0.06800623 -0.029144766 -0.09271128 0.0107440185 0.004420559
0.005774008 0.021120586 -0.0025907494 0.08534266 0.012664992 -0.075657316 -0.016771298 -0.014496389
-0.07532148 0.011259279 0.002528496 -0.0439587 0.008213933 0.071395844 0.054550312 0.037005145
-0.11635338 0.06081709 -0.067637876 -0.015384805 0.1781352 0.0015189716 -0.1515727 0.056114946
0.10083924 0.11257628 0.08503501 0.12317568 0.05616954 0.14500165 0.07204556 0.09170663
0.031587236 0.10145157 0.055564716 -0.056150883 -0.038750894 -0.31027237 0.103107736 -0.3661414
0.05839195 -0.055269472 0.030752093 -0.01137587 -0.31089666 0.046723418 -0.23115136 -0.46360427
-0.029619774 -0.21801612 0.06524948 0.02127763 0.03745334 0.0839966 0.09836306 -0.003611082
00000000: 148b 673e ea08 76bc b71a e5bd 8ba7 94bc
00000010: 3cb4 8fbe 1df3 5b3d 6abf a5be 8269 01bc
00000020: 540d b53c d8dd e3bc c98a 8dbd 5c08 ccbc
00000030: 2a62 eebc 39f9 46bd 46a3 a1bd 832d 063d
00000040: 2e92 4ebb 198a bbbd 1dcb b33d efd4 fdbd
00000050: 1846 033c 996e 313e a26d 083e 3e40 6c3e
00000060: 30e0 56bd 2e99 ecbd 97b2 03bd 2a34 afbd
00000070: a8a6 343e d4a3 2d3e f230 a13d 14d4 693e
00000080: 1504 843e 4aad bcbd 88d8 433c 5c2d 023e
00000090: 0bd4 073c 759a cabd adce f43d f8d9 27ba
000000a0: e1a7 b4be e1d8 74bd ae82 7fbc 2cd1 07be
000000b0: 874f 86bc 9a50 9abd acc2 cdbd 0c20 5fbc
000000c0: 62d3 99bc 4f32 61be a531 cabd a5cb 593d
000000d0: 2984 43bd 35ac 8a3d f563 9cbd 763b e3bd
000000e0: 0efd c0bd e4e2 f3bd 7b20 2cbd a5c8 ddbd
000000f0: 889e 09bd e2fc e2bd 8763 bcbd 8809 fa3d
00000100: 2da2 0a3e a5df 083e 9f75 b63d 2147 f93d
00000110: 3395 233e 3bc4 c83d 1450 f93d e12a d43d
00000120: 27cf 123e 603e ad3e 89ca b7bd b7b2 033e
00000130: 9d38 82bd 0109 12bd ff28 023e c63b f3bc
00000140: 83c8 f1bd a0c2 543d 87c5 8e3d b9b8 2a3d
00000150: a70c ac3d 6fc1 e03d 0e4e 973d 007d 12bb
00000160: aca8 243d 03af 803c 69b3 9bbc a02c 16bd
00000170: 1ee1 e03d fdb6 aabd 35e7 2cbe e1a6 3abd
00000180: 5243 0ebc 13f6 72be ac8a 973d 926c a83e
00000190: f381 97b9 7536 8a3e aae4 0f3e cdb0 a03d
000001a0: 4a25 6d3d fa83 da3d 393e 03be 02fb 883d
000001b0: bb54 e6bd 048e 893d 9e69 48bc 3aa2 0a3e
000001c0: 0207 7339 79fc 08be 1fe6 64bb a4a2 a93c
000001d0: 72f4 463d d0bb 823d 0db0 f23d c11e 453d
000001e0: 73f1 503d 7f5b 78bd ab66 c13c 4d2a f33c
000001f0: b0d8 0d3d e16f 0c3d 0ac3 a2bd 6117 69bd
00000200: 3176 84bd 9b50 04be 0747 21bc 7f95 eebc
00000210: f9f2 c1bd 9994 cfbd 102f 4a3d 03c3 8dbb
00000220: 9e96 703d c7b9 31bd a0c2 7dbc 7648 9a3d
00000230: 7a36 1d3d 0f1a 4abe 796f c2bc 2cb1 47bd
00000240: b24f a03d be16 193e 4332 dc3b ef9a 073e
00000250: e645 893e 2c51 40bc dd77 263b 1dc2 9a3c
00000260: 0015 0b3e df74 833d feb5 5e3d 85a9 ef3b
00000270: 791e 8c3d c9f4 823d 9396 b83c b860 32bd
00000280: b143 2b3d 04bc 2fbd ecf7 dc3d 115b e9bc
00000290: 49c1 b43d c350 43bc 132d 6b3d 4f5c 543e
000002a0: 5755 aebd 1c8f 113c 2964 d03d ac36 793d
000002b0: 0b0c 88bd 118f 4ebd e4e0 b03d 3dfc 493e
000002c0: 14c0 b23d 67bd 813c 5f8b a33d c3b7 3a3e
000002d0: 8591 923c 9b5f 853d c771 1abc 70db 1a3e
000002e0: dfd3 863b dbf8 ba3d 7873 a7bd ed0d 613c
000002f0: 268d 5d3d 7756 5b3d 09f7 343e b395 d8bb
00000300: 1e54 05bd 8c46 2cbc 7824 273d da46 8b3d
00000310: 01c1 eebc 69df bdbd ae07 303c 56da 903b
00000320: e433 bd3b 1405 ad3c 90c9 29bb 22c8 ae3d
00000330: d480 4f3c 39f2 9abd f663 89bc 4382 6dbc
00000340: 2642 9abd d778 383c 20b5 253b 0a0e 34bd
00000350: bb93 063c fc37 923d 2670 5f3d b592 173d
00000360: ae4a eebd 571b 793d ba85 8abd 8d10 7cbc
00000370: 1369 363e 3b18 c73a e035 1bbe c9d8 653d
00000380: ce84 ce3d 658e e63d d626 ae3d 8843 fc3d
00000390: 0812 663d 507b 143e 9f8c 933d b0d0 bb3d
000003a0: 9e61 013d d7c5 cf3d d497 633d 78fe 65bd
000003b0: 42b9 1ebd 05dc 9ebe 262a d33d e376 bbbe
000003c0: 662c 6f3d 3e62 62bd d0eb fb3c db61 3abc
000003d0: d92d 9fbe 0e61 3f3d f1b2 6cbe 8a5d edbe
000003e0: 2ba5 f2bc 9e3f 5fbe 85a1 853d 6d4e ae3c
000003f0: ac68 193d 6906 ac3d 9272 c93d e7a7 6cbb

local_map_cnn.2.bias f4 [32]
-0.012894813 -0.014069656 -0.0043359157 -0.012649936 -0.061729476 -0.17962933 -0.043662418 0.024348982
-0.062383555 -0.08624903 -0.13867171 -0.08034757 -0.23455016 0.037013784 0.025166446 0.108007535
-0.25199306 0.014581202 -0.06660505 -0.06379789 -0.06786344 -0.050034914 -0.016875118 -0.08849235
-0.00499306 0.08273625 -0.17750147 -0.19138177 0.02211839 -0.13181661 -0.12674709 -0.25441888
00000000: c444 53bc 6a84 66bc 4c14 8ebb ad41 4fbc
00000010: 0cd8 7cbd c0f0 37be 5dd7 32bd 8477 c73c
00000020: e685 7fbd 55a3 b0bd f5ff 0dbe 448d a4bd
00000030: eb2d 70be c49b 173d dd29 ce3c 0e33 dd3d
00000040: 3c05 81be fee5 6e3c 3a68 88bd 78a8 82bd
00000050: fdfb 8abd 69f1 4cbd b03d 8abc 7a3b b5bd
00000060: d39c a3bb 9f71 a93d f2c2 35be 95f9 43be
00000070: a031 b53c effa 06be fdc9 01be 3143 82be

local_map_cnn.4.weight f4 [32, 32, 3, 3]
-0.013867431 -0.21237072 0.023118446 0.08524974 0.011869459 -0.009889326 -0.18784331 -0.26486173
-0.14778233 0.16698454 0.0048283814 -0.013322439 0.014423096 -0.39577672 -0.17710634 -0.1571518
0.28772742 -0.029960379 -0.09430715 -0.14380455 0.06366712 0.018942108 -0.120131135 -0.1024041
0.10329993 -0.35659093 -0.010387429 -0.16748437 -0.115035616 0.057044625 -0.04913685 -0.34482384
0.07610613 -0.09077476 -0.16982533 9.604531e-06 0.055278767 0.057727326 0.085550725 0.029746318
-0.07359186 -0.029498167 0.078618504 -0.09647273 0.07396809 -0.07411473 0.1540044 0.08621654
-0.058247335 -0.0575308 -0.00608852 -0.0038301633 0.01627034 -0.16658951 0.019037299 0.17009118
-0.027290279 0.041164216 -0.21687762 -0.013453138 0.07595496 0.10497417 0.10871679 -0.08004015
-0.09094891 0.08018535 -0.022751309 0.055035397 0.09092913 0.08121221 -0.011610049 -0.25439283
-0.028840689 0.14650778 -0.06536952 0.04353766 0.32141852 -0.14632629 0.014998097 -0.46043822
0.045384813 -0.3631915 0.10457315 -0.054639623 -0.011746509 -0.029733222 -0.18190493 0.028599782
-0.14701529 0.052873235 0.042506065 0.05778274 0.24434264 -0.16358925 -0.24482806 -0.028339313
0.043216664 -0.039198425 0.1647029 0.13396816 -0.06600016 0.05886069 -0.08422986 -0.09973976
-0.030723829 -0.12304222 -0.026088307 -0.01612285 0.013677546 0.03427735 0.092969574 0.17679688
-0.12843974 0.0007715596 -0.05504608 -0.14387828 0.12599957 0.16827804 0.07881076 0.06917342
0.08804964 -0.11925072 -0.0704673 -0.019282369 -0.01166644 -0.11119409 -0.028913287 -0.1910899
0.0051418557 0.16258317 -0.04130217 -0.16338149 0.026552876 -0.21640243 -0.11199313 0.053764112
-0.123709925 0.058601923 -0.03961102 -0.35054982 -0.12301628 -0.076398455 -0.48709926 -0.20907643
-0.03805643 0.093630485 0.13868436 -0.008861143 -0.13078827 0.0461788 -0.048518647 0.06607063
0.03953789 0.1053296 -0.060706105 -0.12534305 -0.010326981 -0.1371918 -0.11412729 -0.10899166
0.14313754 0.060184672 0.09609673 -0.08113806 0.007890691 -0.09893101 -0.060567655 -0.17388573
-0.00853913 0.049843658 -0.0050687715 -0.03304547 0.1410835 0.27409858 -0.012687241 -0.35102072
-0.09568973 -0.07921515 0.057797905 0.084388725 -0.22180094 0.1170702 0.00076969515 -0.09821872
0.06898202 -0.041588183 0.003173765 -0.06824866 0.13060345 0.01737252 -0.0128331045 0.11257859
0.12950103 -0.20992582 -0.025025385 0.13054633 -0.050553616 0.10707471 -0.029754767 -0.06583575
-0.11652525 -0.058330707 0.16423734 -0.018364297 0.12847593 0.09231103 -0.14518435 0.12737565
-0.101061694 0.16000392 0.006703287 -0.47025055 -0.0912925 -0.033579335 0.019889984 -0.07693605
-0.13615839 0.19661623 -0.22618154 -0.075797245 -0.12101472 0.13167815 0.13332497 0.14821823
0.0087065995 -0.03915349 -0.010599483 -0.11373192 0.12292337 0.13772365 0.025221355 0.10076084
0.15132415 0.14509046 -0.035718046 0.011500806 0.07985243 -0.018792907 -0.052528784 0.028593207
0.058368348 -0.1775534 0.17815626 0.040053986 0.067477405 0.045125447 -0.022947526 -0.026701776
-0.04970469 0.06498812 -0.06781478 0.04615134 -0.11363155 -0.014230336 0.06078469 -0.019897461
00000000: 3934 63bc b677 59be e562 bd3c 6a97 ae3d
00000010: 1f78 423c d706 22bc ff59 40be f59b 87be
00000020: 4054 17be fffd 2a3e 6637 9e3b 5c46 5abc
00000030: d94e 6c3c 3fa3 cabe 5d5b 35be 67ec 20be
00000040: 0251 933e 786f f5bc 1b24 c1bd 8041 13be
00000050: e863 823d 7b2c 9b3c 5007 f6bd 3eb9 d1bd
00000060: ea8e d33d 1693 b6be 0930 2abc 0681 2bbe
00000070: cb97 ebbd a0a7 693d b943 49bd c08c b0be
00000080: 88dd 9b3d 1ee8 b9bd b1e6 2dbe 2623 2137
00000090: fd6b 623d 7d73 6c3d 3835 af3d 8dae f33c
000000a0: 54b7 96bd 24a6 f1bc bd02 a13d 7f93 c5bd
000000b0: 957c 973d 77c9 97bd 54b3 1d3e 4c92 b03d
000000c0: c294 6ebd 6ba5 6bbd 3582 c7bb 7a03 7bbb
000000d0: 6049 853c 7196 2abe 1cf4 9b3c 622c 2e3e
000000e0: dd8f dfbc cf9b 283d 2b15 5ebe 8d6a 5cbc
000000f0: 468e 9b3d b3fc d63d e9a6 de3d 17ec a3bd
00000100: 6c43 babd 3738 a43d f460 babc cc6c 613d
00000110: 0d39 ba3d 9652 a63d 1338 3ebc c73f 82be
00000120: 4f43 ecbc 2306 163e 74e0 85bd 8c54 323d
00000130: f890 a43e 8fd6 15be 94ba 753c 8fbe ebbe
00000140: 6de5 393d 3cf4 b9be 732a d63d cccd 5fbd
00000150: 6e74 40bc 1693 f3bc 4945 3abe 174a ea3c
00000160: 2d8b 16be 9b91 583d d71a 2e3d 98ad 6c3d
00000170: f534 7a3e f183 27be 35b4 7abe d927 e8bc
00000180: f503 313d 878e 20bd e1a7 283e f32e 093e
00000190: 182b 87bd e817 713d b480 acbd 5c44 ccbd
000001a0: 8ab0 fbbc 8ffd fbbd 25b7 d5bc 1114 84bc
000001b0: c917 603c 6866 0c3d d566 be3d 3e0a 353e
000001c0: b585 03be 7d42 4a3a 0078 61bd d454 13be
000001d0: 0806 013e 1451 2c3e 8967 a13d cbaa 8d3d
000001e0: 5f53 b43d b939 f4bd 2951 90bd 0ff6 9dbc
000001f0: 9924 3fbc bab9 e3bd 8fdb ecbc 12ad 43be
00000200: 037d a83b 347c 263e 772c 29bd 7a4d 27be
00000210: 6b85 d93c 9998 5dbe a75c e5bd c237 5c3d
00000220: a15b fdbd 9208 703d 2a3f 22bd 447b b3be
00000230: f6ef fbbd cb76 9cbd 1365 f9be 2218 56be
00000240: 0fe1 1bbd 57c1 bf3d 4603 0e3e 542e 11bc
00000250: 5ced 05be fb25 3d3d 7dbb 46bd 0a50 873d
00000260: 7cf2 213d 0cb7 d73d f7a6 78bd ee59 00be
00000270: 7f32 29bc 027c 0cbe 92bb e9bd 0537 dfbd
00000280: a692 123e 3484 763d 5dce c43d b62b a6bd
00000290: f547 013c 579c cabd ca15 78bd 1a0f 32be
000002a0: b5e7 0bbc dd28 4c3d f017 a6bb b05a 07bd
000002b0: 3178 103e a656 8c3e 25de 4fbc fdb8 b3be
000002c0: faf8 c3bd 8d3b a2bd 7fbd 6c3d ffd3 ac3d
000002d0: c91f 63be 80c2 ef3d 5ec5 493a e526 c9bd
000002e0: 7246 8d3d 5f58 2abd f1fe 4f3b f4c5 8bbd
000002f0: e9bc 053e d150 8e3c f141 52bc 9b8f e63d
00000300: eb9b 043e cbf6 56be 0902 cdbc f0ad 053e
00000310: 4f11 4fbd fc49 db3d 45c0 f3bc e5d4 86bd
00000320: caa4 eebd 2eec 6ebd d52d 283e b970 96bc
00000330: 328f 033e 910d bd3d 35ab 14be c36e 023e
00000340: 6ff9 cebd 11d8 233e 3fa7 db3b aec4 f0be
00000350: 90f7 babd 7c8a 09bd 52f0 a23c a690 9dbd
00000360: 1b6d 0bbe c455 493e 229c 67be 963b 9bbd
00000370: 91d6 f7bd a3d6 063e 5786 083e 85c6 173e
00000380: 20a6 0e3c 695f 20bd 74a9 2dbc 48ec e8bd
00000390: 3fbf fb3d 6e07 0d3e 049d ce3c b35b ce3d
000003a0: b8f4 1a3e 9892 143e 164d 12bd e06d 3c3c
000003b0: ac89 a33d 95f3 99bc 6c28 57bd 4d3c ea3c
000003c0: a613 6f3d 8fd0 35be 986e 363e a60f 243d
000003d0: 9831 8a3d 76d5 383d 73fc bbbc afbd dabc
000003e0: 2597 4bbd 7e18 853d 7ae2 8abd 3009 3d3d
000003f0: a8b7 e8bd 5b26 69bc 5ef9 783d 0000 a3bc

local_map_cnn.4.bias f4 [32]
0.02350505 -0.009502846 -0.20087604 -0.36469397 -0.00055045774 -0.04742972 0.0098119145 -0.1468725
0.112362124 0.023933977 0.098945774 -0.10899022 0.11141692 0.13520557 -0.1871088 0.20089969
-0.2834762 0.0632991 0.12239204 -0.15298085 -0.1724327 -0.026355837 0.019564478 -0.07926571
-0.066139564 0.115220465 -0.16025351 0.00090699433 0.0051668617 0.072529085 0.011675425 -0.044222515
00000000: aa8d c03c d3b1 1bbc 73b2 4dbe 2bb9 babe
00000010: 984c 10ba ab45 42bd 27c2 203c bf65 16be
00000020: 1d1e e63d 3011 c43c 15a4 ca3d 4436 dfbd
00000030: 8e2e e43d 5473 0a3e 7399 3fbe a6b8 4d3e
00000040: cb23 91be f5a2 813d aea8 fa3d 03a7 1cbe
00000050: 3392 30be 32e8 d7bc af45 a03c 1056 a2bd
00000060: 2e74 87bd b5f8 eb3d 7f19 24be 5cc3 6d3a
00000070: c74e a93b 218a 943d 484a 3f3c ab22 35bd

local_map_fc.weight f4 [64, 512]
0.017045178 -0.027641276 -0.16607237 -0.11903157 0.055491067 -0.044626098 -0.20655385 0.067950584
-0.1513572 -0.04697729 -0.15861562 0.06310039 -0.003396314 -0.09283396 0.08059423 -0.30387372
-0.11890128 -0.1332717 -0.0820048 -0.0118729435 -0.071707845 0.00046129402 -0.012855964 0.02163787
-0.016844539 0.0844604 0.1011987 -0.12815303 -0.03756238 0.16377342 0.097817235 -0.008665095
-0.10981076 -0.10045489 0.06659172 -0.04400627 -0.38949674 -0.07571065 0.08349569 -0.22105776
-0.03472774 -0.095453344 0.08317116 -0.0151803475 0.18120892 0.09802677 -0.0012792874 0.1275063
-0.0010222963 -0.14546293 0.045261193 0.029347483 0.026208425 -0.016704353 0.0056983433 -0.03188944
-0.0046406654 0.1583544 0.07827606 0.1278698 0.0063836044 -0.031661373 -0.103358686 0.070404716
-0.0057266285 -0.102198705 0.13478336 -0.15378635 0.0035249717 -0.12609671 0.15929095 -0.016366493
0.16574793 0.012459967 -0.03875793 -0.35421604 -0.058343843 0.019761723 -0.08625583 0.07186781
0.14684968 0.06720688 -0.18609506 -0.18532163 -0.08130626 -0.14474593 0.028216027 0.24967764
0.018082468 0.22421676 -0.06486822 0.035980288 -0.03963312 -0.09502752 -0.10311948 0.1918664
-0.023520373 0.06807615 -0.07768844 -0.03673921 0.0030024226 0.063145526 0.12831001 0.09099128
0.15319613 0.25930014 -0.06955005 -0.12144279 -0.048854243 -0.09018566 -0.054602332 0.058932774
0.0898464 -0.028530054 0.010025088 -0.23046604 -0.12318704 -0.16401243 0.07758846 0.0813067
-0.09660626 -0.095272355 -0.14577806 0.03360648 -0.026208537 0.024562845 -0.017916022 -0.016345054
-0.050680052 -0.18985434 -0.31114548 -0.102020875 -0.18282606 -0.11854672 -0.24564295 0.21591537
-0.13091779 -0.0657627 -0.25858536 0.024031654 0.1148166 0.055269003 0.017895121 -0.12385689
-0.10943544 0.09644589 -0.15654355 -0.25632155 -0.019185187 -0.014099042 -0.17493019 -0.2491706
-0.07391796 -0.044838697 -0.08220207 -0.21424213 -0.2423832 -0.13997975 0.08754374 -0.028390864
0.0861744 -0.1357281 0.15974912 0.021814719 -0.026651265 0.025195658 0.15749161 -0.15150753
0.0032944 -0.081907526 0.07474249 -0.050398953 -0.15569682 -0.27464205 0.10164032 -0.0036302665
-0.057070743 -0.110935375 -0.2820269 -0.17381296 -0.03612267 -0.041571423 -0.0009474343 -0.017086308
-0.033327993 -0.1785221 -0.11467402 0.017305223 0.090198226 0.020429224 0.049555667 0.07771125
-0.105447635 -0.013053033 -0.08850787 -0.32445014 -0.08484677 -0.040035907 -0.028635776 -0.14076905
0.07215473 -0.028136896 -0.022377191 -0.11748564 0.22568502 0.09265777 0.008726242 0.12206704
0.024492178 -0.1596399 0.06433467 0.17337972 0.073434375 -0.17509381 0.14932773 -0.05210964
-0.09582288 -0.013304487 0.093724534 -0.010075002 -0.03778739 -0.044537902 0.06852672 -0.07294375
-0.029856252 -0.02659182 -0.06703391 0.068473406 0.14610536 -0.11550115 0.030971125 0.027511552
-0.016101545 -0.045165606 0.07960983 -0.106844954 -0.18965054 -0.23204967 0.094304085 -0.23377283
-0.0064095664 -0.05120819 -0.068859495 0.14282532 -0.10162875 0.06842751 -0.30257502 0.10903779
-0.060231294 -0.1052111 -0.08202169 -0.010070033 0.0012322996 -0.12279563 -0.060104374 -0.03229973
00000000: 54a2 8b3c f56f e2bc e00e 2abe d3c6 f3bd
00000010: 9a4a 633d dbc9 36bd da82 53be ad29 8b3d
00000020: 62fd 1abe 426b 40bd 226c 22be c73a 813d
00000030: b294 5ebb bb1f bebd 960e a53d 5695 9bbe
00000040: 8482 f3bd 6078 08be 22f2 a7bd bc86 42bc
00000050: 90db 92bd d6d9 f139 d2a1 52bc e741 b13c
00000060: 8ffd 89bc 93f9 ac3d 4441 cf3d 8c3a 03be
00000070: 03db 19bd 38b4 273e 6754 c83d 0bf8 0dbc
00000080: 77e4 e0bd 4bbb cdbd 3d61 883d eb3f 34bd
00000090: 1e6c c7be 2f0e 9bbd caff aa3d f75c 62be
000000a0: ad3e 0ebd 0b7d c3bd a455 aa3d feb6 78bc
000000b0: d58e 393e 42c2 c83d c3ad a7ba 0391 023e
000000c0: 92fe 85ba 3cf4 14be cd63 393d 226a f03c
000000d0: 0db3 d63c 91d7 88bc 2bb9 ba3b 809e 02bd
000000e0: b910 98bb a827 223e 334f a03d 4df0 023e
000000f0: 8e2d d13b 5baf 01bd b8ad d3bd 5930 903d
00000100: 71a6 bbbb 8e4d d1bd a604 0a3e 2b7a 1dbe
00000110: 3603 673b 7f1f 01be 2b1d 233e 0613 86bc
00000120: d3b9 293e e424 4c3c a3c0 1ebd ce5b b5be
00000130: f4f9 6ebd 56e3 a13c e6a6 b0bd 6e2f 933d
00000140: c35f 163e c3a3 893d b48f 3ebe f4c4 3dbe
00000150: e583 a6bd 4738 14be 4c25 e73c 7fab 7f3e
00000160: af21 943c 1499 653e a1d9 84bd 1160 133d
00000170: 5756 22bd ca9d c2bd 4e30 d3bd a078 443e
00000180: ccad c0bc 826b 8b3d 1e1b 9fbd db7b 16bd
00000190: 4bc4 443b 7152 813d b363 033e a359 ba3d
000001a0: 72df 1c3e fdc2 843e 4270 8ebd ffb6 f8bd
000001b0: 631b 48bd 42b3 b8bd b2a6 5fbd 7e63 713d
000001c0: 6401 b83d dcb7 e9bc 4440 243c 4aff 6bbe
000001d0: 7d49 fcbd e0f2 27be b3e6 9e3d 2184 a63d
000001e0: 81d9 c5bd 271e c3bd d846 15be f3a6 093d
000001f0: 49b3 d6bc 0538 c93c 9fc4 92bc 10e6 85bc
00000200: e395 4fbd 2d69 42be 764e 9fbe 52f0 d0bd
00000210: c136 3bbe 9fc8 f2bd d389 7bbe eb18 5d3e
00000220: 500f 06be 98ae 86bd 4d65 84be 08de c43c
00000230: f724 eb3d c061 623d ca98 923c aea8 fdbd
00000240: b01f e0bd 6c85 c53d f44c 20be 943c 83be
00000250: 412a 9dbc abff 66bc e620 33be 9426 7fbe
00000260: 4d62 97bd c8a8 37bd 8f59 a8bd 4a62 5bbe
00000270: 4d33 78be da56 0fbe 224a b33d f593 e8bc
00000280: 347c b03d 4ffc 0abe 4695 233e c8b4 b23c
00000290: c153 dabc 2067 ce3c 7b45 213e ca24 1bbe
000002a0: dce6 573b 22bf a7bd 9712 993d 226f 4ebd
000002b0: fd6e 1fbe e29d 8cbe cd28 d03d c4e9 6dbb
000002c0: 03c3 69bd 1632 e3bd d465 90be 06fc 31be
000002d0: 5df5 13bd cc46 2abd 3d5d 78ba 96f8 8bbc
000002e0: ef82 08bd 7fce 36be 36da eabd afc3 8d3c
000002f0: d9b9 b83d 305b a73c e2fa 4a3d 1327 9f3d
00000300: eef4 d7bd 63dc 55bc 9d43 b5bd 541e a6be
00000310: 25c4 adbd b1fc 23bd 9395 eabc c325 10be
00000320: dcc5 933d 597f e6bc 5f50 b7bc 509c f0bd
00000330: f919 673e 5bc3 bd3d 83f8 0e3c 49fe f93d
00000340: d2a3 c83c a478 23be e5c1 833d 748a 313e
00000350: c364 963d cb4b 33be 5ee9 183e eb70 55bd
00000360: c93e c4bd 10fb 59bc a6f2 bf3d 9f11 25bc
00000370: f3c6 1abd 606d 36bd bd57 8c3d 8863 95bd
00000380: 1995 f4bc 17d7 d9bc 1349 89bd c93b 8c3d
00000390: a59c 153e de8b ecbd 28b7 fd3c e85f e13c
000003a0: 63e7 83bc 92ff 38bd 7b0a a33d 87d1 dabd
000003b0: c033 42be 6e9e 6dbe 8022 c13d 2562 6fbe
000003c0: 5707 d2bb aebf 51bd 3506 8dbd cd40 123e
000003d0: bc22 d0bd b923 8c3d 1deb 9abe 344f df3d
000003e0: 17b5 76bd eb78 d7bd fdfa a7bd c8fc 24bc
000003f0: 1d85 a13a 467c fbbd 0130 76bd b94c 04bd

local_map_fc.bias f4 [64]
-0.078242116 -0.12568678 -0.007892284 -0.06793117 -0.058496546 -0.11066293 -0.08991547 0.08367785
-0.019684982 -0.073024 -0.05062065 -0.08070351 0.15902245 -0.026604006 -0.035080682 0.0776273
0.031177545 -0.026120944 -0.08681532 -0.0034533353 -0.09684165 -0.13864952 0.047062688 0.08226713
-0.06250149 -0.09545903 0.04259687 -0.08660162 0.06415134 0.056271784 -0.015237429 -0.14999494
0.09880775 -0.0031179388 -0.019571323 -0.16090992 -0.06182872 0.11208587 0.16506863 -0.010641663
-0.07688231 -0.07722233 0.024596522 0.08458456 0.09686715 0.102394566 -0.07888856 -0.01211657
-0.048343174 -0.01945487 -0.11615035 -0.12408868 0.08668199 -0.19927387 -0.058347505 0.115584426
-0.02849064 -0.21547629 -0.03204333 -0.058174223 -0.061739933 0.0776338 0.027842084 0.10882334
00000000: 673d a0bd 09b4 00be a34e 01bc 7f1f 8bbd
00000010: 139a 6fbd 3fa3 e2bd 9a25 b8bd 4b5f ab3d
00000020: 6642 a1bc 9b8d 95bd 9957 4fbd e247 a5bd
00000030: c8d6 223e a5f0 d9bc c3b0 0fbd 10fb 9e3d
00000040: 0d68 ff3c 97fb d5bc 3bcc b1bd 5a51 62bb
00000050: ea54 c6bd 24fa 0dbe cec4 403d ab7b a83d
00000060: c800 80bd 0680 c3bd 0e7a 2e3d 315c b1bd
00000070: c761 833d 3e7d 663d 69a6 79bc 4698 19be
00000080: b85b ca3d 5556 4cbb 0a54 a0bc 92c5 24be
00000090: 1d40 7dbd 478d e53d c007 293e 5f5a 2ebc
000000a0: 7974 9dbd be26 9ebd a57e c93c ab3a ad3d
000000b0: 4962 c63d 3eb4 d13d 5390 a1bd 9484 46bc
000000c0: 7e03 46bd d25f 9fbc 3ce0 edbd 3522 febd
000000d0: 5486 b13d 730e 4cbe cbfd 6ebd 87b7 ec3d
000000e0: 3465 e9bc d1a5 5cbe de3f 03bd 1848 6ebd
000000f0: 03e3 7cbd 78fe 9e3d 1515 e43c c5de de3d

self_entity_fc1.weight f4 [32, 26]
0.28034276 -0.005863765 0.0010709274 -0.00424119 -0.0285821 0.09102481 -0.011290576 -0.34139404
-0.017774481 -0.05592361 -0.1767276 -0.5531123 0.15649337 -0.1904479 0.21436574 0.15057264
-0.22795615 -0.11156391 0.07157856 -0.011224427 -0.04133844 0.32255727 -0.1381174 0.1846682
-0.0025296868 0.052354816 -0.39702868 -0.1127187 0.009757117 0.18911491 0.16346058 -0.0874445
0.097952746 -0.26068857 -0.10400244 -0.09760844 -0.14186688 0.0031971973 0.0144388 0.03558977
0.19730037 0.12378784 0.10123376 -0.0058403756 -0.040101275 -0.041732 -0.08148801 0.0780954
-0.04583029 -0.016256167 0.0879735 0.18860671 -0.020981278 -0.10386367 0.053153597 -0.13967688
0.102057815 -0.48804507 -0.26818153 0.071795195 0.09066669 -0.13135292 -0.43938226 -0.100263335
-0.076582715 0.04311708 0.052024096 0.207257 0.019279234 0.060451098 -0.014075263 0.12781407
0.014943489 0.09460768 0.17980045 -0.10809524 -0.039984453 -0.13354373 -0.10104688 -0.02667162
0.1232682 -0.078618236 -0.09721227 0.15645285 0.1304841 -0.054585755 0.7692202 0.2897681
0.09428112 -0.065081716 0.022464849 0.26289925 -0.027084848 -0.17196333 0.19663022 0.23113403
-0.11371323 -0.06341148 0.26230925 -0.079588786 -0.15332116 0.03820102 -0.110016264 0.13369043
-0.16725841 0.033231314 -0.021994252 -0.17067549 0.12630695 0.05444815 0.017241545 -0.19450599
0.054787852 0.14813872 0.43672726 0.22569413 0.14459327 0.10566593 -0.1974972 0.040866088
0.20226406 0.38279998 -0.112027906 -0.029490612 0.040504895 -0.10037387 -0.059175998 -0.02327878
-0.11358514 -0.10326105 0.084893085 0.10953896 0.20178325 0.038622156 0.041715853 -0.1023275
0.15506601 -0.4273912 0.22281797 0.017598514 0.047299303 0.33068734 0.14759667 0.11274941
0.002794292 -0.22835249 0.05521733 -0.008012999 -0.16296065 -0.16713336 -0.16524372 -0.16737734
-0.12671897 -0.18234152 0.061289426 0.09666513 -0.050847627 -0.10895878 -0.010603425 0.15344895
0.1391258 -0.15097436 -0.0618019 -0.29574433 0.061480332 -0.0556322 -0.38800466 0.069125324
-0.88159424 0.11100173 0.14274365 0.10134126 -0.23598123 -0.1527597 0.0014148877 8.015206e-06
0.048635427 0.24724929 0.1282283 -0.09197671 0.0074946093 -0.12567064 0.16781782 0.0031876424
-0.008338121 0.028724859 -0.03346554 -0.1592949 0.07825018 -0.014143273 -0.6015038 0.12653573
-0.16479889 0.23863858 0.09054917 0.11330615 0.100736454 0.2526625 0.11737972 0.20131654
-0.044206366 0.09898735 0.03423649 0.19356948 0.0064963554 -0.072329395 0.090831265 -0.14028168
0.014529891 -0.10451774 -0.0008190477 0.10106899 -0.02200762 -0.08894802 0.03474873 0.50962687
0.016991628 0.021101285 -0.7703747 -0.11539543 -0.12269078 0.097396635 0.17749438 0.13657089
0.15900525 -0.11414963 -0.030237222 -0.1052526 -0.046215616 0.16188473 0.096485905 -0.058057997
-0.13567328 -0.13360727 -0.18943521 -0.21261981 -0.03947336 0.09418864 -0.0750221 -0.41210872
-0.45015165 0.11885228 -0.16611485 -0.07718297 0.1303515 0.16443107 0.068933934 -0.08465772
0.09130752 0.12131818 -0.054985594 -0.13314675 0.054176483 -0.08203657 -0.0133623015 0.27934492
00000000: 1689 8f3e d324 c0bb 5c5e 8c3a aef9 8abb
00000010: 0225 eabc 376b ba3d 1cfc 38bc 33cb aebe
00000020: ca9b 91bc 2810 65bd 14f8 34be c598 0dbf
00000030: cc3f 203e c604 43be b182 5b3e b72f 1a3e
00000040: 566d 69be 9f7b e4bd c897 923d a9e6 37bc
00000050: 7f52 29bd 3a26 a53e a66e 0dbe a919 3d3e
00000060: 1ac9 25bb 0172 563d 5847 cbbe 10d9 e6bd
00000070: 51dc 1f3c 57a7 413e 3662 273e 1a16 b3bd
00000080: 739b c83d f978 85be 3bff d4bd efe6 c7bd
00000090: 8d45 11be 1288 513b b790 6c3c 94c6 113d
000000a0: 1c09 4a3e 7b84 fd3d a553 cf3d 9f60 bfbb
000000b0: 3c41 24bd 2cef 2abd 30e3 a6bd 7bf0 9f3d
000000c0: 8bb8 3bbd a72b 85bc 732b b43d 1e22 413e
000000d0: eee0 abbc 7ab6 d4bd 96b7 593d 7507 0fbe
000000e0: b003 d13d 0be1 f9be 174f 89be 5c09 933d
000000f0: 75af b93d 6181 06be b6f6 e0be dd56 cdbd
00000100: 66d7 9cbd 899b 303d 3817 553d 2e3b 543e
00000110: 7cef 9d3c 929b 773d ef9b 66bc b1e1 023e
00000120: 89d5 743c acc1 c13d 9c1d 383e 0a61 ddbd
00000130: bdc6 23bd b0bf 08be abf1 cebd 717e dabc
00000140: 0a74 fc3d 9902 a1bd 3a17 c7bd 2d35 203e
00000150: a09d 053e 5095 5fbd 9deb 443f 7c5c 943e
00000160: 7616 c13d 9049 85bd 3408 b83c bb9a 863e
00000170: 0be1 ddbc 2817 30be 6f59 493e 66ae 6c3e
00000180: 7be2 e8bd e1dd 81bd 664d 863e 72ff a2bd
00000190: 3900 1dbe ac78 1c3d 3550 e1bd 25e6 083e
000001a0: ca45 2bbe 8f1d 083d 4a2d b4bc 8ec5 2ebe
000001b0: 9c56 013e 0605 5f3d 243e 8d3c 942c 47be
000001c0: 3a69 603d adb1 173e b79a df3e 5d1c 673e
000001d0: 4210 143e 6167 d83d b53c 4abe 3363 273d
000001e0: 4f1e 4f3e 5cfe c33e e36e e5bd 4c96 f1bc
000001f0: 76e8 253d d190 cdbd 8862 72bd 24b3 bebc
00000200: 539f e8bd 887a d3bd 6ddc ad3d f655 e03d
00000210: 45a0 4e3e 4432 1e3d 3ede 2a3d 1591 d1bd
00000220: a0c9 1e3e 05d3 dabe 652a 643e c22a 903c
00000230: eabc 413d da4f a93e 9523 173e 2ae9 e63d
00000240: 7120 373b 3cd5 69be 912b 623d f448 03bc
00000250: 28df 26be 0225 2bbe a635 29be f764 2bbe
00000260: 9ec2 01be bcb7 3abe 9f0a 7b3d 5ef8 c53d
00000270: 9a45 50bd c825 dfbd fdb9 2dbc b921 1d3e
00000280: fe76 0e3e 0699 1abe fd23 7dbd cd6b 97be
00000290: cdd2 7b3d 97de 63bd 8ca8 c6be 9491 8d3d
000002a0: 29b0 61bf e054 e33d 642b 123e 028c cf3d
000002b0: 10a5 71be 0a6d 1cbe c173 b93a 0c79 0637
000002c0: f135 473d eb2e 7d3e 484e 033e 495e bcbd
000002d0: 5795 f53b ceaf 00be 6fd8 2b3e c4e7 503b
000002e0: 9d9c 08bc 6550 eb3c 2913 09bd 341e 23be
000002f0: a141 a03d 30b9 67bc 27fc 19bf 9592 013e
00000300: 0ac1 28be ac5d 743e d871 b93d 0e0d e83d
00000310: ea4e ce3d fb5c 813e c764 f03d ec25 4e3e
00000320: bc11 35bd e1b9 ca3d 903b 0c3d 1437 463e
00000330: 61df d43b 6f21 94bd be05 ba3d 00a6 0fbe
00000340: c80e 6e3c 660d d6bd 5cb5 56ba 42fd ce3d
00000350: 5349 b4bc 612a b6bd af54 0e3d e876 023f
00000360: 0732 8b3c 9adc ac3c 4737 45bf 7054 ecbd
00000370: 4e45 fbbd e377 c73d 16c1 353e 3dd9 0b3e
00000380: 46d2 223e 48c7 e9bd 0db4 f7bc ad8e d7bd
00000390: 964c 3dbd 1cc5 253e 679a c53d 39ce 6dbd
000003a0: f0ed 0abe 58d0 08be 4efb 41be 02b9 59be
000003b0: d1ae 21bd f9e5 c03d 30a5 99bd eaff d2be
000003c0: 477a e6be d368 f33d 031a 2abe 1b12 9ebd
000003d0: dd7a 053e 9e60 283e 3c2d 8d3d 0761 adbd
000003e0: 70ff ba3d aa75 f83d 9338 61bd 9f57 08be
000003f0: 29e8 5d3d ca02 a8bd 8eed 5abc 4c06 8f3e

self_entity_fc1.bias f4 [32]
-0.011077152 0.2621459 0.022211673 -0.24492228 -0.080476485 -0.13182788 0.27880493 0.12999193
0.21992491 0.15349638 0.08356469 0.23762803 0.017016532 -0.014382897 -0.12066382 -0.045465298
0.15908651 0.15956147 0.2419358 0.05332883 0.23780547 0.1394124 0.24084772 -0.05635951
0.24289551 0.12575991 -0.22617465 0.050972335 0.38791937 0.53437304 -0.07662578 0.04019175
00000000: f17c 35bc fd37 863e 41f5 b53c e8cc 7abe
00000010: dbd0 a4bd e3fd 06be 85bf 8e3e 9b1c 053e
00000020: ff33 613e 282e 1d3e f723 ab3d c354 733e
00000030: 4166 8b3c 3ea6 6bbc 981e f7bd d239 3abd
00000040: 93e7 223e 1564 233e 05be 773e 556f 5a3d
00000050: 4783 733e 20c2 0e3e c9a0 763e 3bd9 66bd
00000060: 9ab9 783e 35c7 003e 549a 67be 5ec8 503d
00000070: 5e9d c63e accc 083f faed 9cbd 1ba0 243d

self_entity_fc2.weight f4 [32, 32]
-0.069448076 0.16621612 0.3785445 -0.44754136 0.20823386 0.066752754 0.08647161 0.23549719
-0.17689995 -0.022846945 0.10748787 -0.11497054 -0.015185349 0.109652266 -0.3509318 0.1325996
0.008558448 0.09816871 0.11461058 -0.11590048 0.010155829 0.007445859 -0.06542007 0.22638716
0.030151 0.13196705 -0.40050814 0.230827 0.5506425 0.6002875 0.16855338 -0.036886316
0.29340395 0.14058393 -0.09862597 0.10747954 -0.54348713 -0.16116767 0.8606308 -0.12066456
0.49531016 -0.057969965 0.2922604 0.5646727 0.017339759 -0.5743463 0.14830397 0.17143664
0.16961485 0.07158632 -0.0049922187 -0.21854097 0.060464073 0.13205957 -0.16087104 -0.1678381
-0.283653 0.08033888 -0.17616771 -0.15954675 -0.553984 -0.63591444 -0.11299145 -0.09474281
-0.03803784 -0.08351481 -0.48132244 -0.30639794 0.22933185 -0.2116183 0.15108493 0.15027878
-0.76720923 -0.06160963 0.11403541 -0.08717782 -0.1381064 -0.888854 -0.27157116 0.0090935575
-0.038638722 0.2699838 0.24589893 -0.29594767 0.00073812535 -0.007940009 0.117092 0.20100895
0.13596345 0.16321906 -0.546503 -0.053196892 -9.57348e-05 -0.0966512 -0.074920714 -0.12342963
0.055257715 -0.12129224 -0.23583096 0.1457358 0.14606306 0.21750697 0.0045865835 -0.41897634
-0.23847733 -0.1932532 -0.5777325 0.016412565 0.29491717 -0.38633513 0.32813 0.17397055
0.08115797 0.083843365 -0.39792362 -0.012816827 -0.13659067 -0.058440067 -0.14916594 -8.803559e-06
-0.0012867523 -0.026649171 0.24723081 -0.4777653 0.16174242 0.10869397 -0.07729446 0.20363812
0.44714087 0.22312522 -0.08372514 -0.06706018 -0.40007046 -0.13543423 0.13433698 -0.16277182
0.47487795 -0.033744693 0.23921564 0.5751037 0.09768026 -0.7127627 -0.017200777 0.22542416
0.23484576 0.001954501 -0.099181324 0.1257379 0.31505725 0.18638036 -0.0135822715 0.17049904
-0.42382362 0.08775529 0.015890224 0.046630375 -0.42639998 -0.5770876 0.06688797 -0.018934287
0.19476587 0.30046925 0.21810375 -0.05705407 0.16946457 0.0014969347 -0.027257707 0.07046291
0.6903346 -0.2507697 0.32460427 0.2550612 -0.23693824 0.3524147 0.21564819 0.13694608
0.23126762 0.013384212 -0.011982028 0.19112374 0.12505373 -0.08030745 0.10048751 -0.05686486
0.24642712 -0.18887892 -0.21165821 0.08474305 -0.30612168 -0.5268265 -0.123025164 -0.16127293
-0.05611074 0.14396131 0.09654094 -0.38317078 0.08163962 0.018915214 -0.28504533 0.041219734
-0.9934198 0.016736759 0.229376 -0.051507425 -0.20833634 -1.0110705 -0.052450176 -0.09170272
0.059600845 0.25065005 0.12156992 0.016349886 0.15034187 -0.18952954 0.21396168 0.105151504
0.11171866 0.040108167 -0.51241267 0.27355424 -0.103960164 -0.10635877 -0.14387992 -0.011220015
0.53661793 0.04171364 0.07954553 -0.072657675 -0.084498756 -0.19551879 -0.5625956 -0.0028315722
0.26624012 0.030774036 0.080025375 0.5263464 -0.066007294 -0.8022365 0.010152341 0.050998572
0.046100706 -0.06823948 0.030825213 0.09461758 0.1916901 -0.08995311 -0.065992594 0.29890716
-0.33539408 0.0919155 -0.067577355 -0.05284817 -0.41313958 -0.43834132 0.091677465 0.046614166
00000000: cb3a 8ebd 8f34 2a3e 96d0 c13e 2424 e5be
00000010: 423b 553e abb5 883d 0718 b13d 2d26 713e
00000020: 4325 35be 8429 bbbc 9a22 dc3d ad75 ebbd
00000030: f8cb 78bc 5e91 e03d 55ad b3be 31c8 073e
00000040: bc38 0c3c ad0c c93d f4b8 ea3d 3b5d edbd
00000050: a264 263c 64fc f33b f5fa 85bd 09d2 673e
00000060: 3bff f63c 5f22 073e 670f cdbe ea5d 6c3e
00000070: e8f6 0c3f 71ac 193f 4299 2c3e 1b16 17bd
00000080: 0b39 963e 3cf5 0f3e 6afc c9bd 3c1e dc3d
00000090: f921 0bbf 2309 25be 4d52 5c3f fb1e f7bd
000000a0: 4b99 fd3e ea71 6dbd 28a3 953e 648e 103f
000000b0: 1c0c 8e3c 5c08 13bf ffdc 173e 168d 2f3e
000000c0: 84af 2d3e d99b 923d c495 a3bb 34c9 5fbe
000000d0: 2da9 773d a03a 073e 61bb 24be c0dd 2bbe
000000e0: f73a 91be b688 a43d 4f65 34be 3960 23be
000000f0: e5d1 0dbf 4acb 22bf 1068 e7bd 8508 c2bd
00000100: 91cd 1bbd d009 abbd e56f f6be 31e0 9cbe
00000110: f8d5 6a3e 78b2 58be 02b6 1a3e aee2 193e
00000120: d367 44bf 615a 7cbd 668b e93d 498a b2bd
00000130: c46b 0dbe f08b 63bf 600b 8bbe 25fd 143c
00000140: a343 1ebd 513b 8a3e eecc 7b3e 7486 97be
00000150: c17e 413a d016 02bc eecd ef3d 4ad5 4d3e
00000160: 013a 0b3e e622 273e 9fe7 0bbf fce4 59bd
00000170: 3bc5 c8b8 10f1 c5bd 0870 99bd adc8 fcbd
00000180: ea55 623d 1168 f8bd ac7d 71be c43b 153e
00000190: 8e91 153e 26ba 5e3e 0d4b 963b 1184 d6be
000001a0: 6733 74be 2be4 45be 47e6 13bf a573 863c
000001b0: 62ff 963e b8cd c5be a800 a83e 5625 323e
000001c0: 2636 a63d 12b6 ab3d a5bc cbbe abfd 51bc
000001d0: 6dde 0bbe da5e 6fbd f5be 18be ffb2 13b7
000001e0: 3ea8 a8ba 5d4f dabc 132a 7d3e a79d f4be
000001f0: ce9f 253e f29a de3d 8f4c 9ebd 8386 503e
00000200: a6ef e43e f07a 643e 1678 abbd d956 89bd
00000210: 09d6 ccbe 45af 0abe a28f 093e a8ad 26be
00000220: 3423 f33e e037 0abd f2f4 743e ff39 133f
00000230: 970c c83d 9e77 36bf a5e8 8cbc 97d5 663e
00000240: 687b 703e 1617 003b 941f cbbd 70c1 003e
00000250: 2f4f a13e 7eda 3e3e 2d88 5ebc 4d97 2e3e
00000260: 69ff d8be 0cb9 b33d 372c 823c 7eff 3e3d
00000270: 1951 dabe 03bc 13bf 8ffc 883d 141c 9bbc
00000280: b470 473e 1bd7 993e 9756 5f3e 87b1 69bd
00000290: 1f88 2d3e cb34 c43a 8e4b dfbc dc4e 903d
000002a0: c5b9 303f e364 80be 8832 a63e 6297 823e
000002b0: f09f 72be b36f b43e e1d2 5c3e 983b 0c3e
000002c0: 6bd1 6c3e 7449 5b3c 4550 44bc f1b5 433e
000002d0: 160e 003e 3b78 a4bd 65cc cd3d 21eb 68bd
000002e0: 6457 7c3e 7a69 41be eebc 58be c48d ad3d
000002f0: fbbb 9cbe 1ade 06bf 9ef4 fbbd bb24 25be
00000300: 60d4 65bd 986a 133e 42b7 c53d f62e c4be
00000310: ac32 a73d 14f4 9a3c 76f1 91be 06d6 283d
00000320: c350 7ebf 871b 893c 8be1 6a3e 73f9 52bd
00000330: 1f56 55be c26a 81bf ffd5 56bd a3ce bbbd
00000340: 0420 743d 3455 803e a6f9 f83d 32f0 853c
00000350: 38f3 193e 0814 42be c518 5b3e ac59 d73d
00000360: c1cc e43d 7648 243d 7a2d 03bf 4d0f 8c3e
00000370: 11e9 d4bd a0d2 d9bd 4255 13be 27d4 37bc
00000380: cb5f 093f ecdb 2a3d c4e8 a23d 8ccd 94bd
00000390: af0d adbd 1436 48be 4406 10bf e691 39bb
000003a0: a050 883e d519 fc3c 58e4 a33d a3be 063f
000003b0: d52e 87bd 5f5f 4dbf 0156 263c e1e3 503d
000003c0: 18d4 3c3d 24c1 8bbd 2885 fc3c ddc6 c13d
000003d0: 694a 443e 5639 b8bd 2027 87bd 5c0a 993e
000003e0: c6b8 abbe 323e bc3d ff65 8abd 5377 58bd
000003f0: 0887 d3be 466e e0be 65c1 bb3d 7fee 3e3d

self_entity_fc2.bias f4 [32]
0.11892647 0.09554883 -0.0023610857 -0.067163855 0.21363413 -0.017177315 -0.047498506 0.2683148
-0.06530517 -0.14685605 0.113187514 -0.0018546685 -0.15667574 0.10116535 -0.05891169 -0.11821373
-0.10924346 -0.1375407 -0.05156831 -0.08676583 0.11328309 0.13032968 0.032678425 -0.18557939
0.0675844 -0.035668515 -0.066472895 -0.16088006 0.09565073 -0.09651466 0.08655345 0.18407157
00000000: b98f f33d 1baf c33d 72bc 1abb 348d 89bd
00000010: e8c2 5a3e 71b7 8cbc cb8d 42bd 8f60 893e
00000020: b8be 85bd 6f61 16be dbce e73d 5918 f3ba
00000030: 9b6f 20be c72f cf3d 624d 71bd 0a1a f2bd
00000040: 09bb dfbd 78d7 0cbe 4b39 53bd 49b2 b1bd
00000050: f700 e83d 2575 053e d0d9 053d 8608 3ebe
00000060: b169 8a3d 2619 12bd f122 88bd bebd 24be
00000070: 88e4 c33d 7aa9 c5bd ef42 b13d 427d 3c3e

other_entity_fc1.weight f4 [32, 26]
0.08316728 -0.1868981 0.09939106 -0.050498147 -0.3367064 -0.10675306 -0.27844763 -0.5381043
0.12743673 -0.2538379 0.14375557 -0.00230624 -0.15376149 -0.06933758 0.04058799 0.029039284
-0.108438775 -0.051787283 -0.12931511 0.0889297 0.05517479 0.028774854 -0.18852599 -0.21127091
-0.085273705 0.61698824 0.07542654 0.20040156 -0.056138318 -0.09473419 -0.1972541 0.11529173
-0.23849152 -1.2336202 0.017244695 0.19840778 0.13286789 0.22798467 0.15239255 0.031607408
-0.12669021 -0.12483597 0.16353211 0.002959788 0.052062016 0.13948916 -0.06783813 0.12625355
-0.30666098 -0.17194842 -0.14900054 -0.4074808 0.14103024 0.024736226 0.049478944 -0.16241457
-0.064136736 -0.34242585 -0.029438062 0.19820754 0.09605486 0.030402524 -0.24155137 -0.38505006
0.057214897 -0.018266521 0.05799923 -0.04137314 0.07629316 -0.12904562 -0.048001856 -0.15844813
-0.22146659 0.09801386 0.28067854 0.13201796 -0.11471506 -0.11163622 -0.0024681627 -0.068732366
-0.16238354 0.22125567 -0.014035421 0.0939232 -0.27920157 1.2020999 0.24552175 -0.17633799
-0.16835499 -0.08394261 0.19791067 -0.101054914 -0.24564525 0.061183743 0.0717902 0.0088683115
-0.028394993 -0.018086113 0.028304588 0.07971201 -0.46768767 0.27416036 0.0036047332 -0.23185655
0.07594679 -0.08951571 -0.080841474 -0.5748817 -0.1874643 -0.30871373 -0.017204482 0.14745507
-0.60910976 -0.46224675 0.03724473 -0.016537137 0.050920635 0.051151503 0.01616667 0.23063649
0.015113876 0.14116228 0.15024166 0.2810654 -0.07836605 0.15783882 0.22422838 -0.35946888
0.114797205 -0.18678614 -0.006882643 0.13849851 0.03393788 -0.12008393 0.028687546 0.2567998
-0.1384769 -0.6549246 0.36556885 0.19281647 -0.11432678 -0.18421043 -0.2849835 0.1070097
-0.10323249 -0.03316462 0.16320044 0.020995306 -0.04370021 -0.16289082 -0.17903107 -0.0665848
0.19276957 0.047830462 0.16232933 0.17841387 -0.34483275 -0.0007598938 0.23247735 -0.050868604
0.112722084 0.1616642 -0.17151213 0.43176973 0.21218024 -0.0641779 -0.79701823 -0.04966994
0.04244963 0.13730016 0.13696031 0.16463497 0.019557606 -0.028976906 -0.018443365 0.07547462
-0.022400798 0.22113849 0.15321788 -0.046741813 -0.1639685 -0.3324721 0.15018342 -0.16321908
-0.028692173 -0.07490211 0.108699 -0.040248547 0.11853775 -0.04673281 -0.4445304 -0.47602227
0.048029076 -0.0909887 0.03447262 -0.25571185 -0.045383982 0.095312424 -0.22779585 -0.21038781
-0.03167211 -0.2140465 -0.10761565 -0.19548906 -0.2932242 0.16615799 -0.35901782 0.25143805
-0.17724437 0.012241947 -0.068826176 -0.10512553 -0.05828605 0.012986197 -0.49573943 -0.3387861
-0.32662442 -0.19307104 0.10450221 -0.0702771 0.09457226 -0.2703302 -0.032589845 0.12431044
-0.07887965 0.15872613 -0.045792725 0.0035790552 -0.031176355 -0.029581793 -0.348344 -0.23677026
0.4073247 0.11613908 -0.374525 -0.06646395 0.1672493 0.07093203 -0.093673564 0.019342467
0.087024875 -0.4908236 -0.36331597 0.041987084 -0.06838345 0.013696994 -0.1011427 -0.03586031
0.085061446 0.11528699 0.10207079 0.15289924 0.14644974 0.08684087 0.15402377 0.074357145
00000000: 9b53 aa3d 3762 3fbe 8a8d cb3d 25d7 4ebd
00000010: c864 acbe 59a1 dabd b090 8ebe 34c1 09bf
00000020: c67e 023e 0bf7 81be a934 133e 4924 17bb
00000030: a773 1dbe dc00 8ebd 983f 263d cbe3 ed3c
00000040: 2615 debd e71e 54bd 2e6b 04be c620 b63d
00000050: f6fe 613d 3eb9 eb3c f50c 41be 6757 58be
00000060: fba3 aebd f1f2 1d3f 3b79 9a3d 1136 4d3e
00000070: 4bf1 65bd 0004 c2bd fbfc 49be 121e ec3d
00000080: 1f37 74be 44e7 9dbf bf44 8d3c 692b 4b3e
00000090: 850e 083e d074 693e cb0c 1c3e c576 013d
000000a0: 14bb 01be 00aa ffbd f674 273e 01f9 413b
000000b0: fb3e 553d 3fd6 0e3e b8ee 8abd 9c48 013e
000000c0: ab02 9dbe 3f13 30be 9993 18be 53a1 d0be
000000d0: 3b6a 103e a0a3 ca3c 6faa 4a3d 0150 26be
000000e0: 1f5a 83bd 7152 afbe 1728 f1bc ebf6 4a3e
000000f0: 69b8 c43d b70e f93c 3e59 77be 4825 c5be
00000100: 2b5a 6a3d aca3 95bc 9a90 6d3d e276 29bd
00000110: 973f 9c3d 8924 04be 989d 44bd 3a40 22be
00000120: 23c8 62be 7ebb c83d 19b5 8f3e b72f 073e
00000130: bbef eabd 88a1 e4bd e6c0 21bb 8ec3 8cbd
00000140: df47 26be d990 623e d3f4 65bc cf5a c03d
00000150: 82f3 8ebe 69de 993f 0e6a 7b3e f291 34be
00000160: 4065 2cbe 1aea abbd 18a9 4a3e e1f5 cebd
00000170: 6e8a 7bbe ce9b 7a3d be06 933d 654c 113c
00000180: 9e9c e8bc 5429 94bc 06df e73c 0d40 a33d
00000190: c274 efbe bf5e 8c3e 633d 6c3b ce6b 6dbe
000001a0: fe89 9b3d 0354 b7bd 3790 a5bd 722b 13bf
000001b0: a4f6 3fbe ba0f 9ebe 6af0 8cbc 76fe 163e
000001c0: 9eee 1bbf 9bab ecbe ee8d 183d e478 87bc
000001d0: 2892 503d 3d84 513d f76f 843c f92b 6c3e
000001e0: 31a0 773c d88c 103e f3d8 193e cee7 8f3e
000001f0: 617e a0bd 80a0 213e 209c 653e 4e0c b8be
00000200: cc1a eb3d de44 3fbe cb87 e1bb 8ed2 0d3e
00000210: 7202 0b3d 90ee f5bd 2502 eb3c 437b 833e
00000220: e3cc 0dbe 23a9 27bf d72b bb3e ae71 453e
00000230: 2924 eabd a9a1 3cbe 5be9 91be e727 db3d
00000240: 8e6b d3bd a0d7 07bd 041e 273e 59fe ab3c
00000250: fefe 32bd dacc 26be ec53 37be 9d5d 88bd
00000260: 6365 453e e0e9 433d a939 263e 20b2 363e
00000270: eb8d b0be 9c33 47ba 8b0e 6e3e 995b 50bd
00000280: d6da e63d 4d8b 253e e0a0 2fbe ec10 dd3e
00000290: c745 593e b46f 83bd 6309 4cbf b572 4bbd
000002a0: aadf 2d3d 6a98 0c3e 533f 0c3e 1296 283e
000002b0: 4637 a03c fa60 edbc 8a16 97bc 7092 9a3d
000002c0: e181 b7bc 2172 623e 26e5 1c3e 5874 3fbd
000002d0: 5ce7 27be c839 aabe afc9 193e e722 27be
000002e0: d90b ebbc 4766 99bd 959d de3d a9db 24bd
000002f0: ebc3 f23d e76a 3fbd 7d99 e3be 31b9 f3be
00000300: 23ba 443d 4958 babd 2933 0d3d aaec 82be
00000310: 8ee4 39bd 2933 c33d 5143 69be e76f 57be
00000320: 9dba 01bd 012f 5bbe 9865 dcbd 492e 48be
00000330: 7b21 96be 5225 2a3e 2fd1 b7be 7dbc 803e
00000340: 8c7f 35be 7392 483c bdf4 8cbd 0e4c d7bd
00000350: 5abd 6ebd 0fc4 543c 8fd1 fdbe 5f75 adbe
00000360: 513b a7be 6ab4 45be 4105 d63d 71ed 8fbd
00000370: 1aaf c13d b868 8abe ee7c 05bd 7996 fe3d
00000380: a78b a1bd 1a89 223e 2791 3bbd 958e 6a3b
00000390: 8e65 ffbc 8455 f2bc 255a b2be e773 72be
000003a0: dd8c d03e 53da ed3d bec1 bfbe 401e 88bd
000003b0: 6743 2b3e d044 913d edd7 bfbd 1874 9e3c
000003c0: 193a b23d 3b4d fbbe 8d04 babe a6fa 2b3d
000003d0: 9f0c 8cbd 5b69 603c e723 cfbd 43e2 12bd
000003e0: b234 ae3d 961b ec3d 7e0a d13d 9e91 1c3e
000003f0: ecf6 153e a0d9 b13d 68b8 1d3e 8f48 983d

other_entity_fc1.bias f4 [32]
-0.12375559 -0.17817065 -0.07362977 -0.005478624 -0.0012478484 -0.29161453 -0.048437577 -0.07329909
-0.0398529 -0.018690633 -0.039624847 -0.017947266 -0.031698808 -0.18432765 -0.01227375 -0.1941037
-0.02638004 -0.032346644 -0.0438371 -0.1910311 -0.0075519565 -0.12363841 -0.029195879 -0.013111389
-0.030585807 0.03439159 -0.0052998182 -0.053205173 0.001954538 -0.013900397 0.0066430434 -0.054032046
00000000: 9273 fdbd 5e72 36be 34cb 96bd 0786 b3bb
00000010: d88e a3ba 804e 95be 7b66 46bd d51d 96bd
00000020: cb3c 23bd 191d 99bc aa4d 22bd 2506 93bc
00000030: 9cd6 01bd 63c0 3cbe d717 49bc 1fc3 46be
00000040: f41a d8bc ea7d 04bd 888e 33bd a89d 43be
00000050: 6776 f7bb 2236 fdbd 322c efbc 27d1 56bc
00000060: 168f fabc 32de 0c3d 19aa adbb abed 59bd
00000070: b517 003b 7ebe 63bc e3ad d93b b550 5dbd
