my-submission/checkpoints/model_240128.pt (torch, 352797 bytes, 23 tensors)

local_map_cnn.0.weight f4 [32, 24, 3, 3]
000000 bb 57 93 bc 6d c3 88 3d 7c ad 22 3e 8b ea 04 3d
       -0.01798617 0.066778995 0.15886492 0.03245024
000010 f0 81 33 bd 1f de a9 3d dc c4 58 bd ce 99 ee bd
       -0.04382509 0.08294319 -0.052922115 -0.1165043
000020 68 86 a8 3d 45 2e 5b 3d 8b d8 c7 bd d8 52 31 be
       0.08228761 0.053510923 -0.09758099 -0.17316759
000030 68 7f 93 3d 6e f1 82 bb 1e 80 18 3e 33 13 67 bd
       0.07202035 -0.003996066 0.14892623 -0.056414794
000040 f1 20 aa bc de ed 84 be a6 0a d0 bc 3c 74 2f 3d
       -0.02076766 -0.25962728 -0.025395703 0.04283546
000050 0a 82 f7 3d 70 3f e0 3b 8c 04 3c be c9 fa cf be
       0.1208535 0.0068435 -0.1836111 -0.4062102
000060 33 e4 10 3c 06 fe 5f bd 4e a6 b9 3b a5 e5 0b 3d
       0.008843469 -0.054685615 0.005665577 0.034154553
000070 13 2c f8 bd dd 94 8e 3d 9c 3a c9 bd 5a ae 3c bd
       -0.121177815 0.06961987 -0.09825632 -0.046064712
000080 1d 75 97 be 5f 23 0f be 11 34 11 be fb 4d 25 3d
       -0.29581538 -0.13978337 -0.14180018 0.04035757
000090 a1 8c 74 bb c9 92 71 bb ff fc f3 3d 84 ab 8a 3c
       -0.0037315267 -0.0036861172 0.119134896 0.016927488
0000a0 be e9 0a 3e 47 cb 82 bd 09 2b ea bc da 41 da bd
       0.13565728 -0.06386428 -0.028584974 -0.106570914
0000b0 b8 bc 84 3e 3d a7 45 3c 00 46 a8 3b a6 2d c2 be
       0.2592523 0.0120637985 0.005135298 -0.37925452
0000c0 60 1b e3 37 08 2d 50 bd de 63 16 3e a4 bb 90 3c
       2.7073256e-05 -0.050824195 0.14686534 0.017667599
0000d0 3d f6 51 3d 02 be b9 be e5 ff 0c be 0d 80 08 bd
       0.05126022 -0.36277777 -0.13769491 -0.033325244
0000e0 c5 33 40 be fe 9d aa bd 38 52 80 be ea 20 3e be
       -0.18769749 -0.08330916 -0.25062728 -0.18567243
0000f0 57 73 5f be e2 b5 6c be ec ba 84 3d a6 2a 11 be
       -0.21821342 -0.23116258 0.06480965 -0.14176425
000100 a2 fe e9 bd e7 5d 3b bd de d3 8d bd 86 ec 55 be
       -0.114255205 -0.04574385 -0.06925176 -0.20891008
000110 cf 31 0e be a6 34 af bd f6 89 86 bd 1a 33 e7 3c
       -0.13886188 -0.08554964 -0.06569283 0.02822261
000120 05 8e 9b bd c7 29 43 bd 66 41 c0 bc de 11 2e be
       -0.075954475 -0.047647264 -0.023468684 -0.16999003
000130 f6 d3 6f be a6 11 2d be a6 97 63 be 5e b6 a6 bd
       -0.234207 -0.16901264 -0.22225818 -0.081402525
000140 43 c9 c8 3c 79 2e b8 bd f2 92 f5 3d 6b 57 61 3d
       0.024510032 -0.08993239 0.11990918 0.05501501
000150 8e 83 6c bd f3 7a 88 bd 74 d3 89 be 95 6e 23 3d
       -0.057742648 -0.06664076 -0.26919138 0.03990038
000160 9e 5a ec bd 01 a0 62 3c eb 16 1a be d2 34 31 3d
       -0.11540721 0.013832093 -0.15047805 0.043263264
000170 b3 0d c0 bd 40 56 43 be 5f 53 24 be 26 26 e1 be
       -0.09377613 -0.1907587 -0.16047429 -0.43974417
000180 67 ac 0c be 75 7e 57 be 6a da 37 be e1 07 9d be
       -0.13737641 -0.21044333 -0.17954412 -0.30670074
000190 37 1e 04 be b8 3a dd bb 28 59 88 be 72 a0 92 be
       -0.12902151 -0.0067513846 -0.2663052 -0.28638035
0001a0 4b f1 af be 15 c1 04 3d b5 0b 4f bd 70 92 89 bd
       -0.3436378 0.0324107 -0.050548274 -0.06717384
0001b0 2c a1 da 3c 6c 5c 25 bd 5d 20 09 3e 77 b2 c7 bd
       0.02668818 -0.040371343 0.13391252 -0.09750836
0001c0 87 9e 40 be 32 08 98 be 5f 2b 5b be d5 c0 03 be
       -0.18810473 -0.29693753 -0.21403264 -0.12866528
0001d0 b4 ec e0 3d 46 d7 fd bd c8 7f 83 38 c5 29 f7 3d
       0.109826475 -0.12394576 6.270368e-05 0.12068514
0001e0 38 f4 74 bd 79 8a bc 3b ee b5 63 be 2e 08 88 be
       -0.059803218 0.005753812 -0.2223737 -0.2656874
0001f0 83 a2 89 3d ad 88 33 bd b6 29 08 be 59 cd 3f 3d
       0.0672045 -0.043831516 -0.13297161 0.046826694
000200 9e b6 88 bd e1 26 81 bd 1c 46 9b bd 2e 2c 93 3d
       -0.066754565 -0.06306244 -0.07581732 0.07186161
000210 42 00 ee bd ce 25 89 bd 2a 84 c1 bd 70 5e 8a bd
       -0.11621143 -0.06696664 -0.094490364 -0.06756294
000220 08 19 f4 3b e8 53 47 3e e7 95 1d bd a6 99 db bc
       0.007449273 0.19465601 -0.038473036 -0.026806664
000230 66 9f ed bd ff 27 0f be 0d b2 0e bd ad bb 50 3e
       -0.116026685 -0.13980101 -0.03483777 0.20384093
000240 b7 15 9a 3c 0a a4 87 3d f1 f3 16 3e 13 a0 e9 bc
       0.018809183 0.06623085 0.14741494 -0.028518712
000250 e7 80 b5 bd cd bb 19 bf 76 e2 27 3d 1d 98 7a bd
       -0.08862477 -0.60052186 0.040987454 -0.061180223
000260 b8 f5 65 3e 07 f3 bb bd 2f 06 f2 bd d0 46 09 be
       0.22457016 -0.09177213 -0.11817586 -0.13405919
000270 e8 99 92 bd 07 1e ba bd ce 30 7c bd 28 36 19 3d
       -0.071582615 -0.090877585 -0.06156998 0.037405163
000280 0a 3e 3e bd d5 f0 58 be aa 49 47 3e 46 6a db 3c
       -0.046445884 -0.2118562 0.19461694 0.026784074
000290 43 c4 9f 3e 8a 06 85 bd 8d b5 e4 3d 9a 25 bd 3e
       0.31204423 -0.06495388 0.111674406 0.3694275
0002a0 50 19 99 3d f8 21 15 3d d1 ca da 3e b8 6c 1c bd
       0.07475531 0.03640935 0.42732862 -0.03818962
0002b0 bf 3b c3 bb 0b d9 1c bd 9e cd 79 3d 44 cf f9 bd
       -0.00595805 -0.038292926 0.060987107 -0.12197736
0002c0 3f 36 39 3e 4b 2f aa bc 21 b0 8e bd 31 7f f3 bd
       0.180871 -0.020774504 -0.06967188 -0.11889494
0002d0 37 2c c9 bd 81 f0 35 be 1e aa 92 bd 9a 20 ca bd
       -0.098228864 -0.17767526 -0.071613535 -0.098694995
0002e0 83 5c 5d be 49 c9 30 be 8a 05 7f bd d6 3c 99 be
       -0.21617322 -0.17264284 -0.06226114 -0.29929227
0002f0 c2 aa cb bd 0f 71 be 3e 37 0c 22 3f f1 80 9d 3e
       -0.09944679 0.37195632 0.6329989 0.30762437
000300 cb f1 01 3f 32 53 ee 3e e9 ab ba 3e eb 3f 83 3d
       0.5075957 0.46547848 0.36459282 0.06408676
000310 73 41 97 3e 17 8d 1a bd b1 80 b8 3e a6 a1 b2 3e
       0.2954212 -0.03773221 0.36035684 0.34888953
000320 0b 9c 10 3d c8 6b 4d 3f d5 ff 2f 3f 80 bb ac bd
       0.035305064 0.80242586 0.68749744 -0.084342
000330 63 e7 35 3e 18 fe 01 3f f1 4d 92 3e 58 45 0e 3e
       0.17764048 0.5077834 0.2857509 0.1389364
000340 f6 a5 63 3d 48 83 90 3d 93 34 aa 3d e7 64 aa bb
       0.055578195 0.0705629 0.08310809 -0.005200017
000350 48 e7 cf bd 6a af a8 3d 52 1a 99 bc 36 18 d9 bc
       -0.10151535 0.082365826 -0.018689308 -0.026500802
000360 bb bf 8d 3d 4e 86 c8 bb 52 33 ad 3d f7 ea ed bc
       0.06921335 -0.006119526 0.08457054 -0.029042704
000370 74 12 34 3d d5 95 78 3d 33 1a 48 bd f5 b7 5c 3d
       0.04396291 0.060689766 -0.04885311 0.053886373
000380 ed 34 35 bd ae 9a 78 3b d8 0d 6e 3d ff cb c8 bb
       -0.044239927 0.0037933993 0.05811867 -0.006127834
000390 a1 2a 83 3d d5 03 0d 3d 44 3d 57 3c 86 e3 33 3d
       0.06404615 0.034427483 0.013137165 0.043918155
0003a0 a9 66 bf 3d 07 e4 b3 3c c1 88 5c ba dd 4e df bb
       0.09345753 0.021959318 -0.0008412712 -0.006814821
0003b0 78 a4 30 3d f1 73 e1 bc f2 a8 55 bd 47 29 d3 3c
       0.0431256 -0.027521105 -0.052163072 0.025776519
0003c0 ef 48 07 bb 63 70 31 bb 25 a5 91 3c 35 2e 71 bc
       -0.0020642837 -0.0027075044 0.017778942 -0.014720489
0003d0 ed 22 3b bc a8 f0 36 3c e1 ec 29 3d 1a 9a 3a 3d
       -0.011421901 0.011165775 0.04148567 0.04555712
0003e0 05 33 87 3d 95 7c ec 3c 99 c7 0d 3d e7 db d9 3c
       0.06601528 0.028868 0.03461418 0.026594115
0003f0 e7 17 a1 3d f9 0e 3e 3d 0f 48 62 3d 61 99 d5 bc
       0.07865887 0.046400998 0.0552445 -0.026074113

local_map_cnn.0.bias f4 [32]
000000 4b 1d 2e bd 4e f2 24 bd 14 1a 92 bc a4 7b e9 bd
       -0.042508405 -0.040270142 -0.0178347 -0.11400536
000010 e2 76 f2 3c c0 28 91 3c 2a 0c ca 3b 16 10 67 bd
       0.029597703 0.017719626 0.006166001 -0.056411825
000020 89 f2 74 3b 79 1d de bd f2 09 10 bb 63 af 2e bd
       0.0037376008 -0.10845465 -0.0021978584 -0.04264773
000030 8c df dd bc a3 94 32 bd f6 cb 5e bd f7 76 23 be
       -0.027084135 -0.043598782 -0.05439373 -0.1596335
000040 4c 4e 34 bd 96 d5 6f 3c 87 11 25 3d 2c 05 60 3c
       -0.044019982 0.014638325 0.04029992 0.013673108
000050 6c 30 c4 bd ae df a4 3d 1a 6d 58 bc 29 3b 6b bd
       -0.09579548 0.08050476 -0.013209606 -0.057429466
000060 0d cd c0 bd fc d4 8e bd 79 84 59 bd df a8 a8 bc
       -0.0941411 -0.06974217 -0.05310485 -0.020588337
000070 9e 06 62 3d ca 41 01 3d af b9 bd 3d bd 61 ab ba
       0.055182092 0.031556882 0.09263932 -0.0013075393

local_map_cnn.2.weight f4 [32, 32, 3, 3]
000000 58 c7 b5 3e be 0c 25 bc 2a 1e d0 bd 36 5b e0 bc
       0.3550365 -0.010073839 -0.10162003 -0.027387243
000010 55 2c 90 be bc c1 11 bd 5c 0f a1 be 48 01 57 bd
       -0.28158823 -0.03558515 -0.3145703 -0.052491456
000020 84 bd 84 bc 21 84 12 bd 37 4c 7e bd 63 86 05 bd
       -0.01620365 -0.03577054 -0.062084403 -0.032598864
000030 c6 24 1d bd 21 52 5e bd 12 b5 a5 bd 0e 38 ea 3c
       -0.038365148 -0.054277543 -0.08091177 0.028591182
000040 7f f0 dd bc c2 64 bb bd 48 e3 bd bb 50 95 e6 bd
       -0.027092217 -0.091500774 -0.0057949163 -0.11258948
000050 43 8f 2b bd fa af 2c 3e 43 6f 58 3e 26 93 74 3e
       -0.041884672 0.16864005 0.21136193 0.23884258
000060 b3 91 11 bd 13 98 83 bd 1d 43 ce 3b cb 42 3b bd
       -0.03553934 -0.0642549 0.0062946216 -0.045717996
000070 7c 94 47 3e a2 fc b8 3d fb 77 9b 3b d8 a1 44 3e
       0.19490236 0.09032561 0.0047445274 0.19202363
000080 dd 2c 69 3e cf 94 03 be 29 83 b1 3b 05 e0 2c 3e
       0.2277102 -0.12849735 0.005417247 0.16882332
000090 2b f3 ea bc 8e 63 bb bd d8 13 af 3d 2c de a2 3c
       -0.028680405 -0.09149848 0.08548707 0.01988133
0000a0 18 05 c0 be 6b cf 3f bd 02 b1 ed bc 6f 3d 08 be
       -0.37503886 -0.04682867 -0.029015068 -0.13304685
0000b0 89 32 15 bc 81 16 8e bd 3c 26 a4 bd db 44 4b b8
       -0.009106287 -0.06937886 -0.08015105 -4.84631e-05
0000c0 b6 ee 6e bd ac da 51 be b2 5b dc bd e6 a2 8d 3c
       -0.05833312 -0.20493573 -0.10759677 0.01728959
0000d0 76 3b 30 bd d6 f4 2e 3d dc 38 a7 bd 97 01 b3 bd
       -0.043025456 0.042713962 -0.08165142 -0.087405376
0000e0 2e e7 aa bd 14 49 37 be d2 4a 03 bc 4a ac 97 bd
       -0.08344875 -0.17898971 -0.008013444 -0.074059084
0000f0 ea 61 5f bc a3 64 e4 bd c4 4b 06 be d2 4f 14 3e
       -0.013634184 -0.111520074 -0.1311484 0.14483574
000100 51 e9 c4 3d dc 3d fe 3d 0b 78 f5 3d 39 2c c0 3d
       0.09614814 0.124141425 0.11985787 0.09383435
000110 66 e6 1a 3e ca 05 a1 3d e3 69 8a 3d 96 c7 e0 3d
       0.15126953 0.07862432 0.067584775 0.10975568
000120 81 4a 05 3e 70 d4 a5 3e 44 3a e3 bd 0c 0f 11 3e
       0.13016702 0.3238864 -0.11095098 0.14165896
000130 24 f6 85 bd 3a 3d 91 bd 99 41 23 3e 48 cc 23 3d
       -0.06541088 -0.07091756 0.15942992 0.03998974
000140 ee 74 79 bd 31 88 54 3d a3 57 ca 3c 66 35 81 3c
       -0.06090253 0.051887695 0.024699992 0.015772533
000150 05 6f 5e 3d 39 4b 2a 3d 6c 33 c3 3c 5d 94 fa bc
       0.054305095 0.041575644 0.02382823 -0.030588323
000160 d3 b3 cf 3c fb a7 83 3c 1a 1a 08 3d 30 e0 6f 3c
       0.025354302 0.01607131 0.033228017 0.014640853
000170 ac 12 fa 3d 6e 63 07 bd a0 f9 23 be ee eb 2f bd
       0.12210593 -0.033053808 -0.16013193 -0.04294961
000180 8c 63 14 bd a7 46 5c be 25 38 8e 3d fe 52 aa 3e
       -0.036227748 -0.21511327 0.069443025 0.33266443
000190 c1 2f 82 bc a7 d9 64 3e 07 66 a1 3d b8 16 b9 3d
       -0.015891911 0.22348653 0.07880788 0.090375364
0001a0 76 29 8a 3d 9e 0d 10 3e 54 15 c7 bd 7a 22 fe 3d
       0.06746189 0.14067695 -0.09720865 0.1240892
0001b0 94 9f 17 be 83 c4 98 3d 37 63 48 bd 54 37 1d 3e
       -0.14806968 0.07459357 -0.048922744 0.15353137
0001c0 50 4b 22 bc b8 a4 b9 bd 1e d4 fd 3c f8 8b 49 bc
       -0.009905651 -0.09064621 0.030984934 -0.012301438
0001d0 be 32 9f 3d 2f 68 24 3d d2 9a da 3d 06 04 28 3d
       0.0777335 0.04013842 0.10674061 0.041019462
0001e0 67 48 db 3c d4 f9 8a bd c3 c5 84 3c 15 f9 d7 3c
       0.026767923 -0.06785932 0.016207581 0.026363889
0001f0 52 78 a8 3d 2b 91 17 3d eb 62 44 bd 1d 9c 1c be
       0.08226074 0.037003677 -0.047945898 -0.15293927
000200 b9 a8 16 be 4b 3f 2d be ab af d6 bd 0b bf 5e bd
       -0.147128 -0.16918676 -0.10482725 -0.05438141
000210 57 e8 86 bd 80 61 ec bd 80 e1 ca 3c 24 9d fd 3c
       -0.06587284 -0.11542034 0.02476573 0.03095872
000220 8c 82 b1 3c db 28 05 be 93 ec c2 bd 3b 76 3c 3d
       0.021668695 -0.13003866 -0.09517779 0.04601119
000230 67 fc 32 3a 99 e0 38 be 93 ed bf bc ee 0a d8 3b
       0.0006827772 -0.18054427 -0.023428714 0.0065931
000240 c8 72 94 3d b5 85 fd 3d 66 94 16 3c c2 7a 93 3d
       0.07248455 0.12379018 0.009190654 0.072011486
000250 18 29 93 3e 8b 07 7f 3c 87 4b 81 b9 26 f9 28 3c
       0.2874229 0.015565763 -0.0002466107 0.010313308
000260 22 73 22 3e 0f fb cd 3d 54 55 c8 3d bb 4c 4f 3c
       0.15864232 0.10057651 0.097819 0.012652571
000270 f5 35 91 3d 0f 71 b3 3d 94 03 13 3d 72 fc 40 bc
       0.070903696 0.087617986 0.035892084 -0.011778938
000280 27 58 37 3d a4 b7 02 3c bd 41 06 3e 9f 0c ff bd
       0.044761803 0.007978354 0.13111015 -0.12453579
000290 78 d5 d2 3c 52 5e 05 bd 4f e0 9f bc 19 a6 12 3e
       0.025736555 -0.032560654 -0.019516138 0.14321174
0002a0 29 c4 0f be 8e 0a 84 bd 92 70 65 3d 5c 5b e8 3c
       -0.14039673 -0.06447326 0.05601556 0.028363876
0002b0 2a 59 f4 bd 5f b6 50 bd 97 40 4d 3d 19 e8 56 3e
       -0.11931069 -0.050955173 0.050110426 0.20986976
0002c0 f6 a6 6d 3d e1 3d 5f bc fe 6d 77 3d d3 c2 1d 3e
       0.058020554 -0.013625593 0.06040763 0.15406351
0002d0 0e 00 f0 3b c9 c2 da 3d b0 2c 6b bd b6 95 1e 3e
       0.0073242253 0.106816836 -0.057415664 0.15486798
0002e0 4b 20 07 3d 67 54 c4 3d a6 2a d3 bd 79 52 a2 3b
       0.03298978 0.09586411 -0.10310869 0.004953679
0002f0 fd 0e 80 3d e1 17 b3 3c db a7 01 3e 5a 2d 55 bd
       0.06252859 0.021861972 0.12661688 -0.052045204
000300 d2 bf cb bc 1c 65 19 bd df 04 f9 3a 35 4c 3b 3d
       -0.02487174 -0.03744994 0.0018998644 0.045726974
000310 65 97 da bc 01 e9 df bd f8 18 7d bc 2e 0d 69 bc
       -0.026683519 -0.10933114 -0.015447848 -0.014224334
000320 d2 25 47 bd 9f b7 9b bc f0 41 36 bc 11 de d3 3d
       -0.048620053 -0.019008456 -0.011124119 0.1034509
000330 28 7b 64 bc 56 7d a1 bd 32 d4 83 bc 48 01 31 bd
       -0.013945378 -0.07885234 -0.016092394 -0.043214113
000340 61 a2 81 bd a3 b1 06 3d be 56 03 3c 21 f9 a5 bd
       -0.063297994 0.03288425 0.008016286 -0.08104158
000350 41 30 bf 3c 8d 0b 93 3d 5f b9 2d bc e3 59 0b 3e
       0.023338439 0.071799375 -0.010603278 0.13608508
000360 09 ba e4 bd 32 2e 26 3d e3 18 e9 bd 7e 6e b6 bd
       -0.11168296 0.0405714 -0.113817 -0.089077935
000370 98 1c f9 3d 37 7d 8a bd 0d 60 51 be 13 f3 60 3d
       0.12163657 -0.06762164 -0.20446797 0.054919314
000380 f3 cc b6 3d 32 92 22 3e 22 c5 b7 3d d2 df 02 3e
       0.0892581 0.15876082 0.08973147 0.12780693
000390 27 f2 4e 3d fc 42 24 3e ae f9 da 3d ba dc 83 3d
       0.050523903 0.16041178 0.10692154 0.064385846
0003a0 c5 7c 92 3c b0 1d 05 3e d0 78 f8 3c 06 5f 87 bd
       0.01788176 0.12999606 0.030331045 -0.06609921
0003b0 c7 1a d9 bc eb 9d 8b be 42 36 46 3e 4c e0 b6 be
       -0.026502026 -0.2726892 0.19356635 -0.35718
0003c0 92 ce 89 3d 8f a3 90 bd 39 e3 c2 3d 09 34 22 bd
       0.06728853 -0.07062446 0.095159955 -0.039600406
0003d0 ff bd bc be f1 64 2d bc 34 89 a5 be be 63 e3 be
       -0.36863706 -0.010583148 -0.3233124 -0.44412035
0003e0 d9 e7 fe bb e7 0c 3e be 43 df 49 3b 2c c5 5e bd
       -0.0077791032 -0.1855961 0.003080324 -0.054387257
0003f0 8a 15 6d 3d 98 5c d1 3d 80 55 b0 3d c8 e8 d3 3b
       0.05788187 0.10222739 0.08610058 0.0064669587

local_map_cnn.2.bias f4 [32]
000000 f0 ce a8 bc 1b af 1c 3c 61 7c 4a 3b 31 a1 f0 3b
       -0.020606488 0.009563233 0.003089689 0.0073434343
000010 6c d0 b4 bd d9 d4 5f be 50 be 65 bd 7c f4 2c 3d
       -0.08828816 -0.21858539 -0.0560897 0.042225346
000020 19 00 a4 bd 13 93 cd bd 01 54 1e be 5b 73 92 bd
       -0.08007831 -0.10037818 -0.15461732 -0.071509086
000030 ce 47 71 be 5c a3 26 3d 92 4e 74 3c da 5d e9 3d
       -0.23562548 0.040683135 0.014911311 0.11394854
000040 24 e2 81 be 65 51 d8 3b a9 c6 8e bd d5 0e 6d bd
       -0.25367844 0.0066015 -0.06971485 -0.057875473
000050 70 cc 7c bd ae b6 49 bd 74 e2 47 bd 34 70 e7 bd
       -0.061718404 -0.049246483 -0.048799947 -0.11300698
000060 0c 77 51 bd b4 20 a2 3d 22 32 43 be d1 ed 4d be
       -0.051138923 0.07916394 -0.19062093 -0.20110251
000070 04 cf 09 3d 44 cd 15 be 49 eb 19 be 90 3f 8e be
       0.03364469 -0.14629084 -0.1503116 -0.2778287

local_map_cnn.4.weight f4 [32, 32, 3, 3]
000000 0c b2 91 bc 8f 41 52 be e5 d7 c2 bc e9 fa ad 3d
       -0.017785095 -0.20532821 -0.023784587 0.08495123
000010 4d f2 d5 3c ea 32 25 3c 1a 11 2f be 3f 1e 79 be
       0.026116515 0.01008294 -0.17096367 -0.24327944
000020 6b 29 00 be 4a e5 51 3e 75 77 ac 3d 7b 54 6a 3b
       -0.125158 0.20497623 0.08421222 0.003575592
000030 1a a7 25 3d c7 b6 b3 be 0a ba 11 be f9 90 13 be
       0.040442564 -0.35100386 -0.14231125 -0.14410771
000040 cc 5a a7 3e 89 c7 55 bb fa 5e 67 bd e2 fb f7 bd
       0.3268646 -0.0032620153 -0.05648706 -0.1210859
000050 2a ec 5c bb 63 08 64 3c b4 ea 20 be d0 e2 fb bd
       -0.00337101 0.013918015 -0.15714532 -0.122991204
000060 da eb d9 3d dd 0a b2 be 3e b2 9e bd ab c2 3e be
       0.10640688 -0.34773913 -0.07748841 -0.18628947
000070 0e 2f 02 be 55 3f 38 3d 4a 1b 60 3c 9b d5 f4 be
       -0.12713262 0.044982273 0.013678381 -0.47819218
000080 de 9b 78 bb 9b d6 aa bd 6e 8a 0d be fe 1c 8b bc
       -0.00379347 -0.08341714 -0.13822338 -0.016981598
000090 95 28 05 3d 20 65 0d 3d 25 75 b9 3d b7 3b 53 3c
       0.032509405 0.03452027 0.09055547 0.012892655
0000a0 57 7d cf bd 16 e4 1f bd a6 fa c3 3d d5 e2 83 bd
       -0.101313286 -0.03903588 0.09569292 -0.06439749
0000b0 cc 0d 25 3d 19 96 db bd e4 e8 1e 3e 99 0f 8b 3b
       0.04029636 -0.10721988 0.15518528 0.0042438027
0000c0 42 97 01 be ca 5c fa bd 73 16 54 bd 3e 63 29 bd
       -0.12655357 -0.12224729 -0.05177922 -0.04135441
0000d0 a1 7f 81 bc 6b 84 65 be 18 29 99 3c 62 14 67 3e
       -0.015807929 -0.22413795 0.018696353 0.22566369
0000e0 7b 1b 3f 3b 33 bc 54 3d f7 17 70 be d5 30 28 bc
       0.0029160667 0.051937293 -0.23446642 -0.010265549
0000f0 b6 69 89 3d 2f 91 d9 3d 32 54 9b 3d 70 2d 94 bd
       0.06709616 0.10623395 0.07584418 -0.07235229
000100 1b 7c 03 be c7 c8 3f 3d 11 ef 5c bc ac b3 5a 3d
       -0.12840311 0.046822336 -0.013484732 0.053394005
000110 ca 9e 8f 3d 83 92 ba 3c 4d ed d4 bc 2b 7a 81 be
       0.070127085 0.02277494 -0.02599206 -0.2528852
000120 32 86 72 bc f5 2b 43 3e 53 7f cd bd c3 c2 16 3d
       -0.0148025025 0.19059737 -0.10034051 0.036806833
000130 e6 4a cf 3e a0 fd 32 be 65 89 92 3d 44 f9 e9 be
       0.4048683 -0.17479563 0.07155112 -0.45697987
000140 7b 02 4b 3d 74 1c ce be 0e 47 e1 3d ef 3e 84 bd
       0.049562912 -0.40256083 0.10999881 -0.06457316
000150 81 f1 03 bd 85 89 85 bc f1 23 84 be 94 46 f5 3b
       -0.032212738 -0.016300926 -0.2580867 0.00748522
000160 41 42 10 be de 55 5d 3d 7d 6c b9 3d fb fe 06 3e
       -0.14087774 0.054036967 0.090538956 0.13183205
000170 c2 c0 4f 3e 19 94 41 be 72 2c 23 be fe 05 22 3d
       0.20288375 -0.18904151 -0.15934923 0.039556496
000180 af 3f 46 bd 00 64 6f 3d 3b 8c 39 3e e8 3c d6 3d
       -0.048400577 0.058444977 0.181199 0.10460836
000190 2c 6a 8b bd 08 04 0c 3d 5a 2c a8 bd e7 8b af bd
       -0.0680736 0.034183532 -0.082115844 -0.08571606
0001a0 df 2f 42 3b 83 e2 f9 bd 85 76 36 3b 88 ad 8f 3c
       0.0029630584 -0.12201407 0.002784164 0.0175388
0001b0 a5 d3 e5 bc d2 02 a5 3c b5 89 00 3e 13 6f 29 3e
       -0.028055022 0.020142946 0.12552531 0.16546278
0001c0 6d ee 54 be 93 a1 4c bc 52 1a 6b bd ab 37 d1 bd
       -0.20794077 -0.012489694 -0.057398148 -0.10215696
0001d0 9f 8c 0a 3e 65 82 2b 3e 08 05 ce 3d 37 ad 14 3e
       0.13530205 0.1674896 0.100595534 0.14519201
0001e0 ef 2d a8 3d dd b9 38 be 8e dd 31 bd 59 f5 58 bc
       0.08211886 -0.18039651 -0.04342418 -0.013242089
0001f0 ab da 60 bc 07 c2 e3 bd 8c fb 11 bd 51 89 73 be
       -0.0137240095 -0.11120992 -0.035640284 -0.23782851
000200 e0 11 b2 bd 3c 6f 1a 3e 42 4b 1f bd 5f c2 3f be
       -0.08694816 0.15081495 -0.03889013 -0.1872649
000210 57 63 39 3d 6d 9e 32 be d3 af e5 bd a0 1c 05 bc
       0.045260753 -0.17443247 -0.112151764 -0.0081245005
000220 dc 33 b2 bd 78 cb ef 3d f7 1f 78 bb 03 ec 93 be
       -0.08701298 0.117087305 -0.003786085 -0.28891
000230 61 c8 07 bd b8 f7 8f bd ff e0 f4 be 0d ab 7e be
       -0.03315008 -0.070296705 -0.47827908 -0.24869938
000240 3b 23 0e bd 15 77 18 3d 54 82 05 3e 52 1f 2e bd
       -0.034701567 0.03722294 0.13037997 -0.042510338
000250 6c ae 1f be eb 52 5d 3d ae 9a fb bc 5f 44 bd 3d
       -0.1559388 0.054034155 -0.030713405 0.092415564
000260 d3 30 4c 3d 3d 69 c4 3d 55 51 c7 bd 59 d0 10 be
       0.04985125 0.09590385 -0.0973231 -0.14141978
000270 06 f2 76 3b 45 6d 1e be 46 be d1 bd e2 07 cc bd
       0.0037680878 -0.1547137 -0.1024137 -0.09962441
000280 31 64 14 3e 48 77 d8 3c af 74 ca 3d 78 62 ae bd
       0.14491345 0.026424065 0.09885537 -0.08514875
000290 15 a6 af bc dd af b0 bd d9 3f ee bc 30 de 0d be
       -0.021441499 -0.08627293 -0.02908318 -0.13854289
0002a0 8b 41 e7 3c bb 48 5f 3d e3 4d 34 bd bc c2 aa bc
       0.028229496 0.05451272 -0.04401959 -0.02084481
0002b0 09 dc ce 3d 94 ba 8c 3e 64 54 8e 3b ce cf ae be
       0.10100562 0.27486098 0.0043435562 -0.34142917
0002c0 f3 08 d0 bd cc 8b e3 bd 1c 7c 11 3d cf 70 ce 3d
       -0.10157957 -0.111106485 0.03551875 0.1008011
0002d0 7b e5 a0 be 38 8f 11 3e 6f a3 e6 3b 3e 1a c9 bd
       -0.3142508 0.1421479 0.007038526 -0.098194584
0002e0 0d 30 13 3d d0 8b c2 bc b1 25 30 3c 67 b9 7b bd
       0.035934497 -0.023748308 0.010751174 -0.06145611
0002f0 29 0d b0 3d c0 10 42 bd 80 b5 3b bd 6a 00 15 3e
       0.0859626 -0.047379255 -0.04582739 0.14550939
000300 ec b2 dd 3d 93 2d 87 be eb 6c 91 bd b7 e8 16 3e
       0.10825142 -0.26401958 -0.071008526 0.14737211
000310 e6 fb b2 bd f2 ec c0 3d 99 d8 d2 bc a7 03 5e bd
       -0.08739452 0.09420194 -0.025738047 -0.054202702
000320 fc 62 f2 bd bb 08 95 bd f5 17 3a 3e 81 1d 91 bd
       -0.11835286 -0.07277056 0.18173201 -0.070857055
000330 b0 8d eb 3d 22 c3 9f 3d b0 5f 44 be 93 85 11 3e
       0.11501634 0.078008905 -0.19177127 0.14211111
000340 59 34 d0 bd d7 cc 22 3e 45 0c 19 bd e9 9f f1 be
       -0.101662345 0.15898453 -0.037365217 -0.47192314
000350 64 c0 6b bd 18 7d bb bd a6 f1 bc 3d bc 0d 04 bd
       -0.057556525 -0.09154719 0.09225778 -0.03223966
000360 f3 b6 1f be 20 5f 4b 3e d8 69 2e be ad 09 b9 bd
       -0.15597133 0.19860506 -0.17032564 -0.09035049
000370 0c 0b 28 be a9 7e e7 3d 09 a4 fd 3d 15 a9 1d 3e
       -0.16410464 0.113034554 0.12384803 0.15396531
000380 ae e8 43 bc 30 11 27 bd e3 f3 b7 bc da 8f 02 be
       -0.011957331 -0.040787876 -0.022455161 -0.12750188
000390 b4 8d 02 3e bb 83 0c 3e 69 b7 f4 3b 20 94 d8 3d
       0.12749368 0.13722126 0.0074681533 0.105751276
0003a0 04 94 1e 3e 89 f5 09 3e 6a 73 58 bd 39 68 84 bc
       0.15486151 0.1347257 -0.052844442 -0.016162978
0003b0 54 ec 23 3d 0b ac 19 bd c6 46 61 bd 2b ad 33 3d
       0.040020302 -0.03751759 -0.054999135 0.043866318
0003c0 ae 86 a9 3d d2 ee 5c be 84 f1 21 3e a5 82 ca 3c
       0.08277641 -0.21575478 0.15814787 0.0247205
0003d0 54 06 bb b9 5e 50 70 3d 36 ba cd 3b f5 4e 2f 3d
       -0.00035672134 0.058670394 0.0062783016 0.04279991
0003e0 d1 c0 35 bd 84 86 02 3e fa 35 67 bd b9 ec db 3c
       -0.044373337 0.12746626 -0.05644796 0.026846277
0003f0 e3 90 45 bd 95 15 ff 3c a9 4f 11 3e 59 75 2f 3c
       -0.048233878 0.03113822 0.14190544 0.01070913

local_map_cnn.4.bias f4 [32]
000000 bc 9b 50 3c 06 8d 05 bc 4e 92 63 be f8 4a a8 be
       0.0127324425 -0.008151298 -0.2222378 -0.32869697
000010 f9 52 91 bb d9 18 91 bd a4 68 2e bc 21 76 2c be
       -0.00443494 -0.070848174 -0.010645065 -0.16841938
000020 a7 8e f3 3d ca 4e 06 bb e6 3f e3 3d e1 4a e9 bd
       0.11892443 -0.002049374 0.11096172 -0.11391235
000030 72 6d ff 3d 85 25 03 3e 25 76 41 be 0c e3 41 3e
       0.12472047 0.12807281 -0.18892725 0.18934268
000040 4b c8 87 be be 70 4c 3d 29 00 d8 3d d1 04 31 be
       -0.2652 0.049912207 0.105469055 -0.17286994
000050 28 32 48 be 2a 42 a3 bc 0a 60 e9 3c a9 09 e0 bd
       -0.19550383 -0.01992901 0.028488178 -0.109393425
000060 b0 03 a0 bd 79 98 10 3e b6 5c 48 be c7 98 90 bc
       -0.07813203 0.14120664 -0.19566616 -0.017650975
000070 17 0e 0d bc 91 8e 6f 3d 6f ed 8e bb ab 32 a0 bd
       -0.008609316 0.05848557 -0.0043618004 -0.07822164

local_map_fc.weight f4 [64, 512]
000000 93 25 26 3b cf 7b 0e bd 4b c5 2a be f1 02 53 bd
       0.0025351986 -0.03478604 -0.16676824 -0.051516477
000010 19 21 22 3d c6 f5 6f bd 9f ef 77 be a8 c8 a8 3d
       0.039582346 -0.058583997 -0.24212502 0.08241397
000020 3e 5c 27 be 50 81 3f bd 96 b0 d2 bd da 07 0a 3e
       -0.16343781 -0.04675418 -0.10287587 0.13479558
000030 2b a6 00 3c 69 77 00 be 91 15 d7 3d cb 15 a5 be
       0.0078521175 -0.12545551 0.1050216 -0.3224319
000040 d5 5c 48 be 6e c6 3a be f6 16 09 be da 52 e9 bc
       -0.19566663 -0.18239757 -0.13387665 -0.02848189
000050 73 b0 a5 bd 7f ed 83 3c 12 d8 0c bd 89 b8 e1 bc
       -0.08090296 0.016104458 -0.03438575 -0.027553814
000060 b2 3d 00 3b 24 ec 2e 3c 62 b2 84 3d 30 a1 0c be
       0.0019568023 0.0106764175 0.06479336 -0.13733363
000070 b0 28 b1 bd 3a 11 aa 3d b8 a8 65 3d 48 8b f1 3b
       -0.08650339 0.08304067 0.056069106 0.00737134
000080 28 95 d2 bd 20 5e b3 bd b1 30 ec 3d 89 6b 5f bd
       -0.102823555 -0.08758187 0.11532725 -0.054545913
000090 3c 06 be be 35 05 8e bd 88 bf 05 3e de 1f 38 be
       -0.3711413 -0.06934587 0.13061345 -0.17980906
0000a0 21 8e d5 3c 20 db ef bd 54 69 ac 3d 21 44 8b bd
       0.026068749 -0.11711717 0.08418527 -0.06800104
0000b0 57 4c d2 3d f2 22 8b 3c 45 50 79 bd 16 64 4b 3d
       0.10268467 0.016984437 -0.060867567 0.049655996
0000c0 4c af 17 3c c9 fc 35 be 7c 6b 4d bd 48 a4 fd 3c
       0.009258103 -0.17772211 -0.050151333 0.030962124
0000d0 51 a0 f5 bc b9 62 ca bd 69 91 aa bd 36 75 38 bd
       -0.029983671 -0.09882111 -0.08328516 -0.045033656
0000e0 3f 96 82 3d 82 ce 16 3e 14 0d 3d 3c 99 05 01 3e
       0.063763134 0.14727214 0.011538763 0.12599792
0000f0 2f 3f 3b bd 50 21 43 3d 9f 61 30 bd 3f fa 98 3d
       -0.045714553 0.04763919 -0.04306185 0.07469606
000100 23 62 20 bd f7 d5 4d bd c0 88 40 3e 05 7d 2b be
       -0.03915609 -0.05025288 0.18802166 -0.1674691
000110 8e fd 53 3d 35 80 15 be a8 0f 13 3e f5 e5 3b bd
       0.05175548 -0.14599688 0.14361441 -0.0458736
000120 ca 4c 23 3e 06 91 11 bd 98 ec 88 bd 65 c8 ef be
       0.15947261 -0.035538696 -0.06685752 -0.46832576
000130 5e c3 ec bd d7 94 68 3d cd bc b2 bd b5 4a ec 3d
       -0.11560701 0.05678257 -0.08727417 0.11537687
000140 d4 47 22 3e 7e 44 ad 3d 49 50 7d be 33 8e 61 be
       0.15847713 0.084603295 -0.24737658 -0.22026901
000150 a3 6d b2 bd 98 8e 0c be ca b9 36 3d 62 c7 7d 3e
       -0.08712318 -0.1372627 0.044610776 0.2478309
000160 0d 40 5f bd 39 5d 4c 3e c1 14 25 bd a2 68 01 3c
       -0.054504443 0.19957437 -0.040302996 0.007898482
000170 54 af ee 3b 35 f1 9a bd 64 c0 ff bd 07 4e 0d 3e
       0.0072840843 -0.07565538 -0.124878675 0.13799296
000180 07 34 c3 3d 3b a6 8d 3c 6f 5a 29 be 43 d6 84 bd
       0.09531408 0.017291179 -0.16538404 -0.0648618
000190 3b f3 b8 bb f2 97 1e 3d fa a1 95 3d ef bf 4b 3d
       -0.0056442297 0.038719125 0.07306285 0.04974359
0001a0 fd 5f b6 3d 71 30 94 3e f0 86 e4 bd 38 9c 24 be
       0.08905027 0.28943208 -0.1115855 -0.16075218
0001b0 39 08 82 bd 3f 0b e0 bd 06 fe cd bd d0 b0 23 3d
       -0.063492246 -0.10939645 -0.10058217 0.039963543
0001c0 9a e1 e3 3d 0e ad e5 bc 0b 22 fb 3c 24 94 83 be
       0.111270145 -0.02803662 0.030655881 -0.2569896
0001d0 7d d2 52 be 84 e9 47 be 93 80 33 3d b1 91 2b 3d
       -0.20588107 -0.19522673 0.04382379 0.04188699
0001e0 be 16 02 be 7b c5 0e be c7 18 e2 bd d0 3a 9b bc
       -0.12703988 -0.1394252 -0.11039882 -0.018948942
0001f0 b7 f4 ce bc 87 47 d1 bc 2e c9 1c 3d 17 63 b7 bd
       -0.025263174 -0.025546802 0.038277797 -0.08954447
000200 eb 98 aa bd fc 9a 0b be d1 ac ac be 7b 0d 9d bd
       -0.08329948 -0.1363334 -0.33725598 -0.07668587
000210 b2 1a 24 be 5d 70 20 be bc 2b 96 be fe 80 80 3e
       -0.16025808 -0.15667863 -0.29330242 0.25098413
000220 5b 8b 3d be 31 87 a9 bc c8 70 7c be d7 6f 9d 3d
       -0.18510191 -0.020694347 -0.24652398 0.076873474
000230 0d 0d 84 3e b9 36 36 3d 76 b7 4d bd 5e d0 d4 bd
       0.25791207 0.04448578 -0.05022379 -0.103913054
000240 02 bb c0 bd 08 2b 1d 3e f6 d0 19 be c3 5d 71 be
       -0.09410669 0.15348446 -0.15021119 -0.23570924
000250 60 78 75 bd f9 68 17 bc 23 9b 30 be 01 f3 29 be
       -0.05992925 -0.009241336 -0.1724668 -0.16596605
000260 fc 79 8d bd b5 fb 78 b8 02 40 d9 bd 67 92 39 be
       -0.06908032 -5.9362228e-05 -0.10607912 -0.18122254
000270 5b 6a 86 be 81 ae 2b be 10 7e b3 3d d2 7e 7c bd
       -0.26253018 -0.16765787 0.08764279 -0.061644383
000280 1c 00 ea 3d 2a b0 c9 bd 72 d3 72 3e 19 c7 15 bd
       0.11425802 -0.09848054 0.23713472 -0.036566827
000290 4c 16 9c 3d 67 de 8a 39 98 1b 47 3e d5 59 50 be
       0.0762144 0.00026487114 0.1944412 -0.20346768
0002a0 c6 bc ae bd b2 e7 06 be 40 00 8d 3c ab a6 05 3d
       -0.085320994 -0.13174322 0.017212033 0.03262965
0002b0 ce 7d 31 be f6 24 42 be c4 c4 30 3e 54 df e9 bc
       -0.17333147 -0.18959412 0.1726256 -0.028548874
0002c0 29 a7 f9 bc c7 0e 32 be 9e 25 bd be c6 6f 83 be
       -0.030475216 -0.1738845 -0.36942762 -0.25671214
0002d0 1c 5a db bc 26 38 ba bd a7 99 e5 3a 93 e2 75 bc
       -0.026776366 -0.09092741 0.0017517105 -0.015007633
0002e0 86 5b 85 bd 1b 26 32 be 16 f8 99 bd dc 15 56 bd
       -0.06511597 -0.17397349 -0.07518022 -0.05226694
0002f0 ff 47 98 3d f6 8b a1 3b 0d ed 4b 3d 7f 2a a8 3c
       0.07435607 0.0049300147 0.049786616 0.020528076
000300 0c 51 14 bd fa 79 59 bc 1d 54 06 bd 52 fb b8 be
       -0.036210105 -0.01327371 -0.03279506 -0.36129242
000310 4d e9 a6 bd b1 22 43 3c 72 06 b4 bd ec 3e 33 be
       -0.08149967 0.011910127 -0.08790292 -0.17504472
000320 6f a2 e8 3c e1 0a 8c bb 12 a8 99 bd 36 40 fc bd
       0.028397767 -0.004273758 -0.0750276 -0.12316935
000330 bf ae 89 3e 13 1f 2b 3d 27 29 3e bd 4f 04 04 3e
       0.26891133 0.04177768 -0.046425965 0.12892269
000340 52 21 83 3d f9 16 48 be 58 bf 8b 3d c9 ab 8b 3d
       0.0640284 -0.19540013 0.06823605 0.06819875
000350 c5 aa 27 3d cc 5b 5f be 3e 46 6e 3e 19 21 19 be
       0.040934343 -0.21812361 0.23268983 -0.14954032
000360 05 08 04 be a9 96 11 3d b4 12 d7 3d 36 1a 7f bd
       -0.12893684 0.03554407 0.10501614 -0.062280856
000370 d0 59 ea bd 5d cc 8d bd cb 60 a9 3d 62 df b4 bd
       -0.114429116 -0.06923745 0.08270415 -0.088316694
000380 19 95 f4 bc 17 d7 d9 bc 13 49 89 bd 81 13 83 3d
       -0.029856252 -0.02659182 -0.06703391 0.064002044
000390 7f 1b 67 3e 13 7d 25 be 4a 0c b9 3d 39 84 26 3b
       0.22569083 -0.16160993 0.09035547 0.00254084
0003a0 8c 77 09 3d 6d 08 c0 bd ae ac 8f 3d 65 f2 d9 bd
       0.033561274 -0.09376607 0.07015358 -0.10641936
0003b0 a8 95 29 be e7 f7 3c be 2d 3b 8f 3d ed 5d 0c be
       -0.16560996 -0.18453942 0.06993709 -0.13707705
0003c0 85 13 15 3d ea 0c f3 bc f2 54 30 bd 9b 1d 5c 3e
       0.03639557 -0.029669244 -0.04304976 0.21495669
0003d0 c0 66 df bd 0e a3 36 3d 48 4c 8e be c1 53 38 3e
       -0.1090827 0.044589095 -0.27792573 0.180007
0003e0 f9 69 9c bd 62 95 d7 bd 82 46 a3 bd 4a 43 aa bd
       -0.076374 -0.105265394 -0.07972433 -0.083136156
0003f0 5a 28 7e bc 8a 4a 0c be 9f 62 d8 3d 2d f0 2d bd
       -0.01551255 -0.1370031 0.105656855 -0.042465378

local_map_fc.bias f4 [64]
000000 03 cf c9 bd 8a 15 0c be a3 4e 01 bc b4 87 b1 bc
       -0.098539375 -0.13680092 -0.007892284 -0.021671154
000010 d3 93 94 bd 8b 93 08 be 9a 25 b8 bd 0f 49 78 3d
       -0.07254758 -0.13337533 -0.08991547 0.06061655
000020 2e ea 3f bd 9b 8d 95 bd 99 57 4f bd 7b 2c 5c bd
       -0.04685419 -0.073024 -0.05062065 -0.053753357
000030 aa a0 18 3e a8 b9 02 bd 7b 5d e4 3b d8 71 8f 3d
       0.14905038 -0.031915337 0.0069691516 0.07004136
000040 b1 06 32 3d 0b 13 26 bd 07 ee bc bd 5a 51 62 bb
       0.043463413 -0.040545505 -0.092250876 -0.0034533353
000050 ea 54 c6 bd 24 fa 0d be c8 f8 38 3d 2a fc c7 3d
       -0.09684165 -0.13864952 0.04515913 0.09764893
000060 c8 00 80 bd 65 01 02 be e7 9b d7 3c 3d a1 b4 bd
       -0.06250149 -0.12695844 0.026319457 -0.08819816
000070 3c 54 96 3d f5 dc 6c 3d f1 85 6a bc 26 89 3e be
       0.07340285 0.05782791 -0.014314161 -0.18607005
000080 ae e2 04 3e 55 56 4c bb d3 74 8a bc a1 c5 38 be
       0.12977096 -0.0031179388 -0.01690141 -0.1804414
000090 1d 40 7d bd a4 5d 84 3d 02 63 42 3e 5f 5a 2e bc
       -0.06182872 0.06463173 0.18983081 -0.010641663
0000a0 22 72 89 bd 4b 88 ca bd 74 f5 b1 3c 1f 5f a5 3d
       -0.06711222 -0.09889277 0.021723486 0.080747835
0000b0 b8 b7 d4 3d 30 20 0a 3e 53 90 a1 bd e5 26 67 bc
       0.10386604 0.13488841 -0.07888856 -0.014108394
0000c0 12 54 9f bd 69 75 3e bd a1 78 a8 bd 48 53 9d bd
       -0.07779707 -0.04649869 -0.08226133 -0.076819
0000d0 06 a6 e1 3d 53 73 5c be cb fd 6e bd 52 4b 01 3e
       0.110179946 -0.21528368 -0.058347505 0.12626389
0000e0 c8 33 de bc 0a 4d 8c be a0 09 04 bd 18 48 6e bd
       -0.0271243 -0.27402526 -0.03223574 -0.058174223
0000f0 1f b9 88 bd 40 8f 8b 3d 8f 60 19 3d 19 27 c3 3d
       -0.06675934 0.06814432 0.0374456 0.09528942

self_entity_fc1.weight f4 [32, 26]
000000 1d ee 8c 3e 38 f1 59 bc c5 4b 6a ba 04 4b 61 bb
       0.27525416 -0.01330214 -0.0008937682 -0.0034376988
000010 03 92 10 bd 1d d9 d2 3d 37 7c 87 bc 60 f6 94 be
       -0.035295498 0.10295317 -0.016538722 -0.2909422
000020 91 87 fe bc db f0 88 bd 00 c1 39 be 13 58 14 bf
       -0.031070502 -0.066865645 -0.1814003 -0.5794689
000030 03 06 17 3e 15 bd 45 be 78 e4 56 3e 7e 91 15 3e
       0.14748387 -0.1931041 0.20985591 0.14606282
000040 6f e0 83 be e1 be 03 be 12 3b 6e 3d 4c e4 2b bb
       -0.25757167 -0.12865783 0.058161803 -0.0026228605
000050 2b 10 84 bd 2f d7 a2 3e a6 6e 0d be a9 19 3d 3e
       -0.06448396 0.31804797 -0.1381174 0.1846682
000060 1a c9 25 bb 01 72 56 3d 14 3c da be ec b1 f8 bd
       -0.0025296868 0.052354816 -0.4262396 -0.12143311
000070 aa f9 1f 3c ad 13 2e 3e c6 06 16 3e e7 84 f9 bd
       0.009764114 0.16999693 0.14651021 -0.12183552
000080 01 3b 92 3d 75 2d 8a be 18 e4 f6 bd 74 aa 9a bd
       0.0714016 -0.26987806 -0.12055224 -0.075520426
000090 1f 7e 09 be 43 83 91 bc 3b 56 e0 3b 3b 25 ed 3c
       -0.13427018 -0.017762786 0.006846217 0.028948417
0000a0 fc f0 40 3e 50 54 eb 3d 49 7d b1 3d 58 33 aa bc
       0.18841928 0.11490691 0.08666474 -0.020776436
0000b0 f2 8b c6 bc c0 57 9d bc e1 90 be bd 44 c0 8d 3d
       -0.024236653 -0.019206882 -0.09304977 0.069214374
0000c0 8b b8 3b bd a7 2b 85 bc 73 2b b4 3d 1e 22 41 3e
       -0.04583029 -0.016256167 0.0879735 0.18860671
0000d0 46 fc 10 bc 76 4c d0 bd 7e 7c 8c 3d 0c cf 1c be
       -0.008849209 -0.10170834 0.068596825 -0.15313357
0000e0 5b 8a c8 3d ea 94 09 bf e1 3d 96 be cd a6 c6 3d
       0.09792014 -0.5374285 -0.29344085 0.096997835
0000f0 e9 77 c2 3d 6b e0 cf bd c2 cd dd be 49 9a aa bd
       0.09495527 -0.10150226 -0.43321043 -0.08330209
000100 10 0e 6a bd ea de 32 3d 7c a1 69 3d a9 5d 59 3e
       -0.057142317 0.04366962 0.05703877 0.21227135
000110 b4 5d f8 3c e5 bb 46 3d 23 fd 5a bd 37 a5 23 3e
       0.030318119 0.048519034 -0.053464066 0.15980993
000120 65 2c 1e 3d cd 06 cc 3d 9c 1d 38 3e 0a 61 dd bd
       0.038616557 0.09962235 0.17980045 -0.10809524
000130 bd c6 23 bd b0 bf 08 be 63 f7 cd bd db a6 c9 bc
       -0.039984453 -0.13354373 -0.10056951 -0.024615696
000140 9f ff fa 3d 01 c8 a4 bd 80 1d c5 bd be 3c 1b 3e
       0.12255787 -0.0804596 -0.09624767 0.1515989
000150 b6 d3 13 3e bd 6e a8 bd 87 1c 47 3f c6 04 97 3e
       0.1443623 -0.08224247 0.77777904 0.2949583
000160 3b ce c6 3d 09 59 88 bd 87 6c c1 3c c6 c4 87 3e
       0.09707304 -0.06657607 0.02361132 0.26517314
000170 27 79 e7 bc 1b 4a 31 be 93 ae 4c 3e 0d 5b 6c 3e
       -0.028256012 -0.17313425 0.1998847 0.23081608
000180 c5 90 e2 bd 37 f2 79 bd 13 c5 88 3e 7a 65 a5 bd
       -0.11062769 -0.06102201 0.26712856 -0.08075996
000190 39 00 1d be ac 78 1c 3d 35 50 e1 bd 25 e6 08 3e
       -0.15332116 0.03820102 -0.110016264 0.13369043
0001a0 e9 09 29 be 37 8b d9 3c ba 6c ff bc 94 ae 2d be
       -0.16507687 0.02655564 -0.031179775 -0.16961128
0001b0 ad 56 ee 3d c4 cb 9f 3d 95 e9 85 3b 5b f7 76 be
       0.11637626 0.07802537 0.004086683 -0.24117796
0001c0 e4 3c 66 3d 86 8e 22 3e 07 26 e0 3e 98 75 61 3e
       0.056210414 0.15874681 0.43779013 0.22017515
0001d0 86 73 0b 3e 67 7b cb 3d b2 7f 51 be 1e 57 0a 3d
       0.13618287 0.099356465 -0.20458868 0.033774488
0001e0 ff bd 51 3e 92 e4 cb 3e eb 68 da bd a8 30 4c bd
       0.20482634 0.39822823 -0.10664543 -0.04985109
0001f0 d4 d4 34 3d b3 16 dc bd 88 62 72 bd 24 b3 be bc
       0.04414828 -0.10746517 -0.059175998 -0.02327878
000200 53 9f e8 bd 88 7a d3 bd 40 59 ac 3d 72 f3 da 3d
       -0.11358514 -0.10326105 0.084154606 0.10690965
000210 23 c9 4c 3e 05 93 1b 3d 68 bf 1f 3d c9 20 b7 bd
       0.19998603 0.037982006 0.0390009 -0.089418
000220 e0 c0 21 3e dc 0c e8 be 44 36 6b 3e d2 af a5 3c
       0.15796232 -0.4532231 0.2296992 0.02022544
000230 9d 8a 43 3d 22 0b a7 3e 27 db 15 3e 26 88 e1 3d
       0.047739614 0.3262568 0.14634381 0.110122964
000240 fa 3d cb b9 4e 17 6d be 00 31 69 3d d2 2f 0d bc
       -0.00038765353 -0.23153421 0.056931496 -0.008617358
000250 98 59 22 be a7 43 30 be ac 08 24 be 02 a7 2e be
       -0.1585449 -0.17213307 -0.16018933 -0.17055896
000260 9e c2 01 be bc b7 3a be 9f 0a 7b 3d 5e f8 c5 3d
       -0.12671897 -0.18234152 0.061289426 0.09666513
000270 08 ef f9 bc 13 f4 b2 bd 3f 9c b4 ba d3 1b 4a 3e
       -0.030509487 -0.0873796 -0.0013779475 0.19737177
000280 43 05 29 3e ba bc 00 be ff d4 97 bd 66 41 7d be
       0.16505913 -0.12571993 -0.07413673 -0.24731979
000290 a1 c0 6b 3d 69 46 52 bd ae 2e c7 be b5 1e d6 3d
       0.057556752 -0.05133668 -0.389028 0.10455076
0002a0 34 18 56 bf 95 e9 07 3e a5 5d 35 3e 54 f8 0a 3e
       -0.8363068 0.13272698 0.17711504 0.13571292
0002b0 cf b2 4e be c7 d5 1f be c2 dd 03 3c f0 02 a9 3b
       -0.20185398 -0.15608893 0.008048477 0.005157821
0002c0 5a 44 05 3d 69 30 90 3e 48 4e 03 3e 49 5e bc bd
       0.03253589 0.28161934 0.1282283 -0.09197671
0002d0 57 95 f5 3b ce af 00 be 74 b7 29 3e c1 ba db 3a
       0.0074946093 -0.12567064 0.16573888 0.0016764031
0002e0 03 17 2b bc 1a fd e9 3c 06 f4 09 bd 10 30 22 be
       -0.010442498 0.028563071 -0.033679985 -0.15838647
0002f0 fe ba 99 3d 9e 04 71 3b e5 80 1c bf 8d ee f1 3d
       0.07506369 0.0036776434 -0.6113418 0.11813078
000300 7b 60 2c be d6 a8 75 3e 6d c7 b1 3d ce 51 e4 3d
       -0.1683368 0.23990187 0.086806156 0.111484155
000310 1d 53 ce 3d f3 5d 81 3e bb a8 ea 3d 36 b7 4d 3e
       0.10074446 0.2526699 0.11457964 0.2008942
000320 f1 af 4f bd 6f dc c3 3d df 01 de 3c 03 39 46 3e
       -0.0507049 0.09563529 0.027100502 0.19357686
000330 61 df d4 3b 6f 21 94 bd be 05 ba 3d 00 a6 0f be
       0.0064963554 -0.072329395 0.090831265 -0.14028168
000340 90 5e f8 3c 53 28 c7 bd 2d ee 05 ba 09 14 bf 3d
       0.030318528 -0.09724488 -0.00051090383 0.09329993
000350 2b dc 53 bc fa 54 08 be 69 e4 2f 3d e3 22 11 3f
       -0.01293091 -0.13313666 0.04294244 0.5669386
000360 cf bc 94 3c d3 8e ce 3c 16 3c 51 bf 5a 5f ce bd
       0.018156437 0.025214588 -0.8173231 -0.100767806
000370 01 f0 fe bd 45 95 cd 3d 61 1c 3f 3e 88 34 15 3e
       -0.12448121 0.100382365 0.1866317 0.1457082
000380 c4 0e 34 3e b8 af 08 be 38 78 95 bc 46 8b be bd
       0.17583758 -0.13348281 -0.018245801 -0.09303908
000390 eb f6 3f bd 6c 20 2f 3e 67 9a c5 3d 39 ce 6d bd
       -0.04686634 0.17102212 0.096485905 -0.058057997
0003a0 f0 ed 0a be 58 d0 08 be 10 93 41 be b2 c8 59 be
       -0.13567328 -0.13360727 -0.18903756 -0.21267965
0003b0 8e 5e 10 bd 68 90 c2 3d 53 03 9d bd 30 03 d5 be
       -0.035246424 0.095001996 -0.0766665 -0.41603994
0003c0 fb 87 f0 be ce 80 08 3e cd 4d 32 be 23 bd a1 bd
       -0.46978745 0.13330385 -0.17412491 -0.07897403
0003d0 ae 47 02 3e 3a 95 20 3e cd 9f 87 3d 5a b0 ad bd
       0.12722656 0.15681925 0.066222765 -0.08480902
0003e0 bc db bd 3d f9 51 fb 3d 52 96 68 bd af a7 08 be
       0.09270427 0.122714944 -0.05678398 -0.13345216
0003f0 ab 6e 40 3d 87 9f 9c bd 66 48 aa bc 58 bd 8f 3e
       0.04698054 -0.07647615 -0.020786475 0.28074145

self_entity_fc1.bias f4 [32]
000000 15 6e 7f bc a1 ab 81 3e ec 0b df 3c ee ff 7b be
       -0.01559021 0.25326255 0.027227364 -0.24609348
000010 98 57 b3 bd 9d 3f 0a be cb 58 a0 3e 95 1e 05 3e
       -0.087569416 -0.13500829 0.31317744 0.12999947
000020 77 8f 6a 3e ea 9b 1e 3e be 7c ac 3d 72 06 69 3e
       0.2290629 0.15489164 0.0842223 0.22756365
000030 22 43 a0 3c 25 30 bd bc 86 bb fa bd 22 45 40 bd
       0.019563261 -0.023094246 -0.122427985 -0.04694093
000040 6f 13 17 3e ef b4 28 3e 30 8e 77 3e 91 11 47 3d
       0.14753507 0.1647527 0.24175334 0.048600737
000050 01 3d 75 3e 89 e1 13 3e a3 48 78 3e 1b 00 84 bd
       0.23949052 0.14441504 0.24246459 -0.064453326
000060 3d a2 76 3e e0 36 f9 3d 8a b3 67 be 1f b7 5a 3d
       0.24085326 0.1216867 -0.22627082 0.053397294
000070 5e 9d c6 3e d3 ff 07 3f b5 ed a0 bd f6 30 19 3d
       0.38791937 0.5312473 -0.07857839 0.03740021

self_entity_fc2.weight f4 [32, 32]
000000 aa ec 9f bd 64 49 15 3e 39 66 a4 3e f3 c8 f2 be
       -0.07808812 0.14578778 0.3210924 -0.47418937
000010 4c ce 45 3e 8f 2d 2f 3d d1 26 1f 3e 5f df 67 3e
       0.19316977 0.042768057 0.15542151 0.22643803
000020 e6 a9 0a be c2 dc fb bc 7f d1 c9 3d cd 55 dd bd
       -0.13541374 -0.030744914 0.09854411 -0.10807381
000030 69 d1 56 bd 08 b6 d9 3d 20 f1 b9 be 46 1e dc 3d
       -0.052445803 0.10630423 -0.36316776 0.10747962
000040 74 da 92 38 a7 ec a9 3d 3f 6f cf 3d 97 f9 00 be
       7.0025126e-05 0.08297091 0.101286404 -0.12595211
000050 6a 60 e8 ba 7d 2e f3 bc cd 67 b3 bd e2 2b 4c 3e
       -0.0017728929 -0.029685253 -0.08760033 0.19938615
000060 c2 91 bf 3c 69 12 00 3e da a4 e0 be db d6 5b 3e
       0.023384932 0.12507023 -0.43875772 0.2146868
000070 e8 f6 0c 3f a9 cb 19 3f 60 ea 3b 3e b7 fd 54 bd
       0.5506425 0.60076386 0.18351126 -0.051999774
000080 ae 6d a2 3e c2 fd 2e 3e e4 67 b5 bd ec 6c c9 3d
       0.31724304 0.17088988 -0.08857706 0.09835228
000090 7f 5e 14 bf d5 d2 3e be a6 c1 5d 3f 54 dd fc bd
       -0.5795669 -0.18635114 0.8662361 -0.123469025
0000a0 2b fe 09 3f 00 65 99 bd 83 6a 9d 3e 2c 45 0f 3f
       0.53903455 -0.07489967 0.30745324 0.5596492
0000b0 85 44 5c 3b a2 56 18 bf 1f df 0a 3e 0a 55 22 3e
       0.0033610177 -0.5950719 0.13561676 0.15852752
0000c0 7b 1c 2e 3e 0a 7c 1e 3e 2f 46 f9 bb d8 b2 37 be
       0.17003052 0.15477005 -0.0076072435 -0.17939317
0000d0 18 c7 97 3d 39 46 01 3e 8a c4 03 be 98 c1 1d be
       0.07411021 0.12624444 -0.12867942 -0.15405881
0000e0 21 24 93 be 52 0a a9 3d a7 2d 3c be 7f b9 1a be
       -0.28738502 0.082539216 -0.1837679 -0.15109824
0000f0 e5 d1 0d bf 12 ab 22 bf 8a c2 25 be 64 37 e6 bd
       -0.553984 -0.6354228 -0.16187492 -0.11241034
000100 b2 42 9e bd 1e f0 06 be 5a ff fd be f5 71 af be
       -0.07727565 -0.13177535 -0.4960888 -0.3426663
000110 55 a0 72 3e 3a f8 66 be f0 86 24 3e 3a de 1f 3e
       0.23693974 -0.22555628 0.160671 0.15612116
000120 b4 b9 3a bf 0a 58 84 bd f4 a5 d8 3d fc 88 f1 bd
       -0.7293961 -0.064621046 0.10578528 -0.11793706
000130 47 28 31 be 2d 61 69 bf 86 fa 91 be 91 97 12 bd
       -0.17300521 -0.91163903 -0.28511447 -0.035789076
000140 38 3a c2 bd 6a 96 76 3e e4 4f 78 3e bb 3e c3 be
       -0.094837606 0.24080816 0.24249226 -0.38133797
000150 98 5a a0 bc 38 c2 08 bd f6 57 c2 3d 72 52 52 3e
       -0.019574448 -0.033388346 0.094894335 0.20539263
000160 f2 c2 f4 3d c4 d9 32 3e 10 d7 15 bf 7c 5a 8d bd
       0.11951245 0.17465883 -0.58531284 -0.06902024
000170 3b c5 c8 b8 10 f1 c5 bd 1a 08 1d bd ce d1 fe bd
       -9.57348e-05 -0.0966512 -0.038337804 -0.12442361
000180 59 27 98 3d 8e 46 d7 bd a8 87 6b be 98 55 1b 3e
       0.0742938 -0.10511504 -0.23000968 0.1516937
000190 eb 4f 11 3e a2 7a 5d 3e c3 c9 96 3c ef 03 d9 be
       0.14190643 0.21628812 0.018406754 -0.42385814
0001a0 4a 05 86 be 2d a4 34 be fa f7 13 bf b8 ee 18 3d
       -0.2617591 -0.17640753 -0.5780026 0.037337035
0001b0 01 d0 94 3e 1a 73 ad be 13 cf a9 3e fc 9e 33 3e
       0.29064944 -0.33876878 0.33165798 0.17541116
0001c0 dc 3c b1 3d a4 82 c3 3d e4 83 cb be cf 60 fb 3b
       0.08654186 0.09546402 -0.39749062 0.0076714526
0001d0 16 c1 06 be 70 b8 10 bd 8d a2 13 be 95 f7 55 bb
       -0.13159594 -0.035332143 -0.14417477 -0.003264879
0001e0 4f 3b 1e 3b 82 54 ce bc 0b 1c 7e 3e 55 4a f3 be
       0.0024144237 -0.02518678 0.24815385 -0.47517648
0001f0 ce 9f 25 3e f2 9a de 3d 5a e1 49 bd 68 5a 53 3e
       0.16174242 0.10869397 -0.049287178 0.20639956
000200 e6 69 da 3e dc 46 99 3e a3 e5 99 bd 88 35 86 bd
       0.4265892 0.29936874 -0.07514503 -0.06553179
000210 e2 46 ce be 7d 5a 04 be 11 29 21 3e 21 cc 29 be
       -0.40288454 -0.12925144 0.15738322 -0.16581775
000220 b4 62 03 3f 97 3f bf bc 58 d4 72 3e a1 c2 13 3f
       0.51322484 -0.023345752 0.23713815 0.57718855
000230 9d 52 ff 3d 9b e1 29 bf 4f 55 9e bc 52 18 73 3e
       0.12466929 -0.6635987 -0.019327788 0.23739746
000240 97 71 88 3e 33 e5 11 3c f0 37 c8 bd 4d f3 2d 3e
       0.26649162 0.008904743 -0.09776294 0.16987343
000250 52 f5 a8 3e 38 19 69 3e 54 36 2d 3c f7 d5 51 3e
       0.32999665 0.22763526 0.010572035 0.20491777
000260 e2 54 e6 be 58 71 b8 3d 3f 63 41 3d 2a 8d 45 3d
       -0.44986635 0.090059936 0.04721379 0.048230328
000270 19 51 da be bb a6 13 bf a7 5e fa 3d e5 27 90 bc
       -0.42639998 -0.57676286 0.12225085 -0.017597148
000280 34 b4 42 3e 8a 97 a0 3e 42 4d 5c 3e 1b af 79 bd
       0.19014055 0.31365615 0.21513847 -0.06095801
000290 84 b9 2f 3e 1b 6b c1 3b 1d 02 53 bd b3 2a 92 3d
       0.17160612 0.0059026605 -0.051515687 0.071370505
0002a0 e2 99 2e 3f 8d e0 84 be d3 9e a8 3e 05 20 74 3e
       0.68203557 -0.2595257 0.32933673 0.2384034
0002b0 7a d9 61 be c8 25 b2 3e af 1f 5d 3e aa 09 12 3e
       -0.22055617 0.3479445 0.21594118 0.14261499
0002c0 02 1a 60 3e fe 16 c4 3c 54 a9 8f bc d0 82 51 3e
       0.21884921 0.023936745 -0.017536797 0.20460057
0002d0 52 94 0a 3e ee dc 3f bd 00 63 e6 3d 7f 2f 7a bd
       0.13533142 -0.046841554 0.112493515 -0.061080452
0002e0 67 32 79 3e 28 db 41 be bd 87 46 be ae 04 c4 3d
       0.24335633 -0.18931258 -0.19387718 0.09571205
0002f0 fb bb 9c be 8b b6 06 bf 4e dc 00 be 0d 5c 22 be
       -0.30612168 -0.5262229 -0.1258404 -0.15855427
000300 d8 da 56 bd eb a5 fe 3d dc ec fa 3c 11 fb b3 be
       -0.0524548 0.1243399 0.030630521 -0.35152486
000310 c2 8d d6 3d eb ca 04 3d 36 f2 8d be 12 98 53 3d
       0.10476257 0.03242008 -0.27723855 0.051658697
000320 1b fc 71 bf 96 72 57 3c b8 83 75 3e a1 73 25 bd
       -0.9452531 0.013149878 0.23976028 -0.040393475
000330 3a 08 68 be 96 bd 7f bf a0 3a b8 bc 45 e2 d8 bd
       -0.22659388 -0.9989866 -0.022488892 -0.105900325
000340 28 21 a1 3d 89 15 86 3e cc ea 03 3e c2 55 12 bc
       0.07867652 0.26188305 0.12882537 -0.008931579
000350 9b 31 1c 3e 3d e3 6b be 2d 35 59 3e cf 18 eb 3d
       0.15253298 -0.23035903 0.21211691 0.11479341
000360 af e0 03 3e 0a b9 3b 3d 86 69 06 bf d6 6d 8b 3e
       0.12878679 0.045830764 -0.52504766 0.27232236
000370 11 e9 d4 bd a0 d2 d9 bd 33 01 e2 bd 54 a6 10 ba
       -0.103960164 -0.10635877 -0.11035385 -0.0005517949
000380 5e 14 05 3f 09 5a cd 3d 28 ce 91 3d e1 2f 93 bd
       0.519842 0.100269385 0.07119399 -0.071868666
000390 11 20 aa bd 2c 28 49 be 47 f7 10 bf 41 35 e2 bb
       -0.083068974 -0.1964423 -0.56627315 -0.006903321
0003a0 90 ac 95 3e 9b 01 f8 3c 8f eb a9 3d 22 3b 0c 3f
       0.29233217 0.030274203 0.08296882 0.5477773
0003b0 29 aa 4f bd 3d 66 3b bf cb 94 78 3c a3 99 42 3d
       -0.050699387 -0.7320288 0.015172194 0.0475098
0003c0 ce bd 80 3d 7d 40 70 bd f8 7a c6 3c d2 99 01 3e
       0.06286202 -0.05865525 0.024228558 0.12656334
0003d0 45 a9 61 3e fa 15 60 bd 37 50 41 bd 6d bf a5 3e
       0.22037227 -0.05470846 -0.04719564 0.3237261
0003e0 25 ab b3 be c2 0d cf 3d 35 71 21 bd 43 f2 51 bd
       -0.3509151 0.10110046 -0.039414603 -0.05125643
0003f0 08 87 d3 be 76 43 e0 be 2b 53 30 3e ac 3f 4e 3d
       -0.41313958 -0.4380147 0.17219226 0.05035369

self_entity_fc2.bias f4 [32]
000000 c5 b2 d6 3d 95 e2 c0 3d c5 e5 55 bc 4e 53 87 bd
       0.10483316 0.09418217 -0.01305527 -0.06607686
000010 f5 67 65 3e 2a b5 28 bc a8 f4 1e bd 24 0b 8f 3e
       0.22402938 -0.010297099 -0.03880754 0.27938187
000020 ee 3c 9d bd 50 19 f2 bd 7c bc ce 3d 8e 34 1b bb
       -0.07677637 -0.11821234 0.10094544 -0.0023682448
000030 84 f3 23 be 8a 8f c9 3d 02 77 59 bd 0a 1a f2 bd
       -0.16010863 0.09841831 -0.05309201 -0.11821373
000040 74 62 d5 bd 90 cf 05 be 4b 39 53 bd af a9 aa bd
       -0.10419169 -0.1306746 -0.05156831 -0.08333146
000050 27 7f db 3d 58 ef 01 3e 5b 4e 55 3d fa fa 39 be
       0.10717612 0.12688959 0.05207668 -0.18162146
000060 8a 68 9c 3d f9 e3 00 bd 2f 7a 84 bd 35 ec 28 be
       0.07637127 -0.03146741 -0.06468617 -0.16496356
000070 3b cb b8 3d 70 41 e1 bd 5c 56 ad 3d c6 c4 3e 3e
       0.09023138 -0.10998809 0.08463737 0.1862975
