my-submission/checkpoints/model_254976.pt (torch, 352797 bytes, 23 tensors)

local_map_cnn.0.weight f4 [32, 24, 3, 3]
000000 e6 b1 9a bc 27 48 85 3d 1f 93 22 3e df f9 04 3d
       -0.018883657 0.065079026 0.15876435 0.03246486
000010 33 0d 31 bd fc 8f ad 3d d4 c4 58 bd cd 99 ee bd
       -0.04322548 0.084747285 -0.052922085 -0.11650429
000020 31 42 b2 3d 38 39 8a 3d 64 1b d0 bd 30 4a 30 be
       0.08704031 0.06749195 -0.10161474 -0.172158
000030 47 3a a5 3d e4 da 39 3c a0 37 2d 3e 67 ef 4e bd
       0.08067756 0.0113436915 0.1691575 -0.05052128
000040 c3 1e dc bb f5 87 82 be 97 16 f0 bc 33 d9 77 3d
       -0.0067175343 -0.25494352 -0.029307647 0.06050987
000050 c0 3c 02 3e 9e 34 0a 3a 12 66 2c be 3d 46 d0 be
       0.12718487 0.0005272123 -0.16835812 -0.40678588
000060 05 b1 d3 3c f3 ee 74 bd 26 d7 08 3d e5 4e 3d 3c
       0.025841245 -0.059798192 0.033408307 0.011554454
000070 1e 82 ab bd b5 53 d9 3d c6 77 83 bd 0d 92 fa bc
       -0.08374427 0.10611669 -0.06419329 -0.03058722
000080 64 4b 9e be 77 40 e4 bd 76 60 b9 bd e4 0c 4c 3d
       -0.30916893 -0.11145108 -0.090516016 0.04981698
000090 6a 72 cf bc 4e c6 99 bc 11 32 d7 3d c6 ee 30 3d
       -0.025323112 -0.018771317 0.10507596 0.043196462
0000a0 62 6d 0e 3e c6 51 23 bd 23 f1 c3 bb b0 a0 07 be
       0.13908914 -0.039872907 -0.0059796735 -0.13244891
0000b0 42 a3 84 3e f6 a7 8f 3d f9 d2 ed 3c 2e c2 b8 be
       0.25905806 0.07014458 0.029031264 -0.36085647
0000c0 38 61 ba 3c 51 82 20 bc 00 87 36 3e 1e 4c b9 3c
       0.022751436 -0.009796695 0.17824936 0.022619303
0000d0 ee a4 b9 3d 84 42 b6 be 57 07 25 be 12 a3 3f bd
       0.09064661 -0.35597622 -0.16116081 -0.046786375
0000e0 e0 05 48 be 9a 97 ce bd 84 58 81 be f6 aa 46 be
       -0.19533491 -0.100875095 -0.25262845 -0.19401154
0000f0 a4 c6 7f be 1f df 86 be fb 8c 5b 3d 4e 46 2e be
       -0.24978119 -0.26342103 0.053601246 -0.17019007
000100 32 8b e8 bd 77 ab 4b bd d7 ad ab bd b1 a8 68 be
       -0.113546744 -0.04972407 -0.08382767 -0.227206
000110 ff c4 18 be 14 9b ad bd 85 d6 b5 bd 1b 05 22 3b
       -0.14918898 -0.084768444 -0.08878807 0.0024722281
000120 23 2b a1 bd bb 5b 83 bd 73 f4 d4 bc 0b f1 44 be
       -0.07869556 -0.064139806 -0.025995469 -0.19232576
000130 fc 49 82 be f6 02 46 be fb 51 5f be 2c b7 aa bd
       -0.2544707 -0.19337067 -0.21808617 -0.083357185
000140 43 21 ee 3c 8e 90 78 bd fc c2 f9 3d c6 17 bd 3d
       0.029068595 -0.060684733 0.121953934 0.0923305
000150 db af 1c bd 85 22 bd bd d7 a3 88 be a8 48 8a 3d
       -0.038253646 -0.092351 -0.266875 0.06752139
000160 d6 7d b4 bd 3c 4b 2c 3d 7f 8a 03 be 84 26 8b 3d
       -0.08813064 0.042063937 -0.12845801 0.06794456
000170 c2 b8 52 bd 69 0d 59 be 8d 8d 49 be 17 c6 df be
       -0.05144573 -0.21196522 -0.19682904 -0.43705818
000180 62 07 0a be 60 84 6b be 43 3c 60 be 47 11 a6 be
       -0.13479379 -0.22999716 -0.21897988 -0.32435057
000190 66 1c ef bd e9 5c 9c 3b 37 ca 7e be 9b 5e 88 be
       -0.116753384 0.004771818 -0.24881826 -0.26634678
0001a0 8e cc a7 be 47 56 3d bc 97 ea 47 bd 63 e7 83 bd
       -0.3277325 -0.011556215 -0.048807707 -0.06440618
0001b0 43 7a 92 3d 85 f3 9e bc 40 bc 1a 3e ab 9b 98 bd
       0.07152226 -0.019403229 0.15110874 -0.07451566
0001c0 f5 ab 4b be 15 6e 98 be 60 4f 6e be ab 14 eb bd
       -0.19889815 -0.29771486 -0.23272467 -0.114785515
0001d0 ac 8d 11 3e 6c 1e 15 be ae 98 e7 bc ee a6 e9 3d
       0.142142 -0.14562386 -0.028271046 0.114087924
0001e0 66 6b 9b bd ec 52 82 bb 76 08 73 be 76 b2 6b be
       -0.07588844 -0.00397717 -0.23733696 -0.23017296
0001f0 a1 5a b8 3d 8d c7 ba bb 21 8d 97 bd 14 f4 1d 3d
       0.09001661 -0.005700058 -0.07399965 0.03856285
000200 8b 36 52 bd 51 b1 99 bd c4 17 e4 bd 3e de 01 3d
       -0.051321547 -0.075045235 -0.111373454 0.031706087
000210 37 13 f4 bd 11 44 ba bd be 12 bb bd c8 4a 3a bd
       -0.119177274 -0.09095014 -0.09134434 -0.045481473
000220 fb b0 c1 3b 4e 95 58 3e a7 9a 46 bd 68 2e 87 bd
       0.0059109903 0.21150705 -0.04848733 -0.06600648
000230 1d 81 f8 bd 1f 75 05 be 77 49 20 bd be 26 36 3e
       -0.121340014 -0.1303296 -0.03913256 0.17788216
000240 77 0b 21 3c 4a 43 ae 3d 4d 99 2a 3e 6e 77 3e bc
       0.009829394 0.08508928 0.16660042 -0.011625154
000250 c1 71 a2 bd 55 12 19 bf 22 64 84 3d 21 7e 58 bd
       -0.07931853 -0.597936 0.06464411 -0.05285466
000260 60 63 80 3e 6e 4e 87 bd ee c1 c6 bd 2b ce dc bd
       0.25075817 -0.06606756 -0.09704958 -0.10781511
000270 e0 60 43 bd 7c 39 8b bd 4e 7e 1c bd b5 75 66 3d
       -0.04769981 -0.06798074 -0.03820639 0.056264598
000280 09 ba bb bc 79 fa 55 be 4a 4c 4a 3e 82 b8 53 3d
       -0.022915857 -0.20896329 0.19755664 0.051689632
000290 4d 94 a1 3e 4b 4c 82 bd 97 22 bf 3d 19 ac b3 3e
       0.31558457 -0.06362208 0.09332769 0.35092238
0002a0 63 6c c5 3d eb ae 0a 3d c5 52 e9 3e 36 0e 9a bd
       0.09639814 0.03385822 0.4557096 -0.07522242
0002b0 a4 6b 82 3b 82 d7 e3 bc 9e 18 60 3c 0d 45 f8 bd
       0.003980117 -0.027812723 0.013677744 -0.121225454
0002c0 13 c6 49 3e 90 c4 7c bc f7 b8 92 bd 58 f5 c0 bd
       0.19704466 -0.0154277235 -0.071641855 -0.094217956
0002d0 88 bc f4 bd 00 9e 32 be ba 93 80 bd 0b 80 ec bd
       -0.11950022 -0.17443085 -0.062781766 -0.1154786
0002e0 92 3b 44 be da 95 21 be 8f c8 5f bd bd 2a a2 be
       -0.1916335 -0.1577982 -0.054634627 -0.31673232
0002f0 33 59 1f be c7 c4 c1 3e 33 cc 25 3f 3c 59 aa 3e
       -0.1556137 0.37845442 0.6476471 0.33271205
000300 b9 49 ff 3e 30 6c ef 3e 95 58 ce 3e de 54 ef 3d
       0.49860933 0.46762228 0.40301958 0.11686109
000310 28 de 95 3e 8b 6b 85 bc fe 40 b6 3e cc de c1 3e
       0.29271054 -0.016286632 0.3559646 0.37865293
000320 36 4e 4a 3d de ca 53 3f 82 e3 30 3f fd 41 a8 bd
       0.049390994 0.82731426 0.6909715 -0.08215711
000330 f5 e1 45 3e 2f 5b f6 3e 81 50 96 3e c4 d3 0d 3e
       0.19324477 0.48116443 0.29358295 0.13850313
000340 61 8d 68 3d 4e 3c 95 3d 95 e8 95 3d 7a da 4d bc
       0.056775454 0.07286893 0.07319752 -0.012564296
000350 2a 0e da bd 53 06 89 3d 01 e4 01 bd e5 85 1b bd
       -0.10647233 0.066906594 -0.031711582 -0.03796949
000360 69 dc a3 3d b5 09 9a 3b 13 2b aa 3d 98 fd a1 bc
       0.08001024 0.004700864 0.08308997 -0.019774243
000370 4b fa 5b 3d 98 74 69 3d 7b 77 2e bd 54 5b 78 3d
       0.053705495 0.056995958 -0.042594414 0.060633972
000380 1e a6 4f bd e8 98 a5 3b 3c 3b 7d 3d f6 ea 3b 3b
       -0.05069553 0.0050536282 0.06182407 0.0028673983
000390 e4 b0 75 3d a4 19 00 3d b5 37 43 3c c4 2e 2f 3d
       0.05998315 0.031274453 0.011915137 0.04276921
0003a0 3d f9 c3 3d 24 da 0d 3d 8f b2 96 3a 74 cb ce bb
       0.09569023 0.034631863 0.0011497306 -0.0063108746
0003b0 57 45 35 3d 00 22 be bc 80 9f 4c bd 7c 5e ca 3c
       0.04425558 -0.023209572 -0.0499568 0.024703257
0003c0 c7 30 d6 bb 4f a7 c1 bb 52 4c 1b 3c 87 bc 9a bc
       -0.0065365764 -0.0059098373 0.009478645 -0.018888725
0003d0 a2 9f 3b bc 09 3c 46 3b 5a d7 05 3d 03 05 35 3d
       -0.011451634 0.0030248186 0.03267608 0.044194233
0003e0 36 93 90 3d 41 01 09 3d 6a 6e 1d 3d dc 0a 23 3d
       0.07059328 0.03344846 0.038435377 0.03980528
0003f0 5d 4d 98 3d 76 ab 19 3d 87 3a 58 3d ad 7a 24 bd
       0.07436631 0.037517034 0.05279019 -0.040156055

local_map_cnn.0.bias f4 [32]
000000 a4 1a a1 bc f1 9b 20 bd 6a cd 90 bc 6a 04 db bd
       -0.019666024 -0.039211217 -0.017676074 -0.10694201
000010 54 1e d0 3c c7 b3 87 3c 94 66 2f 3b 36 5c 6c bd
       0.025405087 0.016565217 0.0026764022 -0.057705127
000020 f6 91 16 bc d6 5a d7 bd 76 68 b2 bb 52 55 18 bd
       -0.009190073 -0.105153725 -0.0054445816 -0.037190743
000030 55 1d 02 bd 02 ab 37 bd 33 fd 56 bd 9c 73 21 be
       -0.031766254 -0.04484082 -0.052487563 -0.15766758
000040 8d db 20 bd bb 18 79 3c a8 a1 17 3d f9 22 10 3c
       -0.03927188 0.01520365 0.0370194 0.008797401
000050 4d 95 b9 bd a7 43 ad 3d 5c df 3b bc 97 7b 5b bd
       -0.0906168 0.08460169 -0.011466827 -0.05358466
000060 fb ae c0 bd f5 3e 92 bd 2e dd 46 bd 04 6b ab bc
       -0.09408375 -0.07140914 -0.048550777 -0.020925052
000070 fb 4f 5b 3d c2 e5 12 3d b1 9d c4 3d a8 94 e0 3b
       0.053543072 0.035863645 0.0960039 0.0068536587

local_map_cnn.2.weight f4 [32, 32, 3, 3]
000000 10 2f b7 3e 10 ab fc bc e4 e4 0e be a3 bc 65 bd
       0.35778093 -0.030843288 -0.13954502 -0.0560881
000010 43 c3 90 be 25 e7 24 bd af 87 ac be a3 04 88 bd
       -0.28273973 -0.0402595 -0.33697268 -0.066415094
000020 2a 1e 39 bc 3f 5e ef bc e0 0d 8a bd 0e f0 16 bd
       -0.011298696 -0.029219745 -0.06740928 -0.036850028
000030 be cb 14 bd d4 c5 84 bd 1c 75 bc bd 41 f0 2e 3d
       -0.036327116 -0.06483045 -0.09202024 0.042709593
000040 d8 12 90 bc e2 7b a7 bd 6a 87 25 bc 21 5b da bd
       -0.01758711 -0.08177926 -0.010103086 -0.10661913
000050 0a ae d7 bc 15 82 28 3e d9 4e 56 3e 66 32 8c 3e
       -0.026328105 0.16455872 0.20928515 0.273822
000060 0e 41 5f bd 55 ec 3c bd c1 90 dc bb 8c a7 3c bd
       -0.0545054 -0.04612382 -0.006731123 -0.046058223
000070 64 93 44 3e 37 b2 ca 3d f8 0d 45 bc bf 39 2d 3e
       0.1919685 0.09897273 -0.012027256 0.1691656
000080 4b e0 76 3e b8 a8 1f be eb 70 88 3c b2 98 3c 3e
       0.24108998 -0.15591705 0.016655406 0.18417624
000090 04 1a 53 bc 26 47 9e bd 49 03 af 3d 81 64 e2 3c
       -0.012884621 -0.07728414 0.085455485 0.027635815
0000a0 db d9 b7 be bb d9 1d bd f9 99 00 bd 0e af f5 bd
       -0.35908398 -0.038537722 -0.03139684 -0.1199628
0000b0 ac 41 d9 bc 69 ec a3 bd c2 3a a8 bd b0 54 df bb
       -0.026520573 -0.08004076 -0.08214332 -0.0068155155
0000c0 6e 33 17 bd 25 40 5e be 82 9e ee bd 96 e0 ed 3c
       -0.03691428 -0.21704157 -0.11651327 0.029037755
0000d0 28 74 09 bd 85 1f 1b 3d 2f 50 8b bd fd 2e 8e bd
       -0.03355804 0.037871856 -0.06802403 -0.06942556
0000e0 fe 08 9b bd 78 db 1a be 7e 9f 50 bc 97 78 9e bd
       -0.075700745 -0.15122783 -0.012733338 -0.077378444
0000f0 97 79 b0 bc 19 9e 06 be 06 bd 10 be 54 be 1f 3e
       -0.021542354 -0.13146247 -0.14134607 0.15599948
000100 93 17 dd 3d a9 69 fb 3d da 84 fb 3d 30 b8 e1 3d
       0.10795512 0.122760125 0.12281199 0.11021459
000110 0a 10 1e 3e d6 50 cd 3d 07 33 bb 3d 1a dd ef 3d
       0.15435806 0.10025184 0.09140592 0.11712094
000120 f5 9e f6 3d 74 1f 84 3e 33 b6 02 be d7 ef 00 3e
       0.120420374 0.25805247 -0.12764816 0.12591492
000130 93 3d 57 bd 12 f2 e3 bd ce 84 32 3e 7e cc f0 3b
       -0.052548956 -0.111301556 0.17433473 0.007348596
000140 e2 eb b0 bd de 65 0a 3d 6c 21 10 3d c5 c5 54 3c
       -0.08638741 0.033788554 0.035188124 0.012986605
000150 f6 5f 61 3d 10 d6 58 3d 65 b8 83 3d a5 15 ba bc
       0.055023156 0.05293852 0.06431655 -0.022715399
000160 36 9a 64 3d 57 42 af 3c 9b 1f 8f 3d 39 9b fd 3c
       0.05581113 0.021393938 0.0698845 0.030957805
000170 2b 76 04 3e 2c 98 a0 bc a5 8c 0d be 43 e9 aa bc
       0.12935703 -0.019603811 -0.13823183 -0.020863181
000180 09 05 94 bc ae a2 50 be 47 50 8c 3d 4f 22 ad 3e
       -0.018068807 -0.20374557 0.06851249 0.33815238
000190 c3 83 ec bc 1d 3f 60 3e 2e 0f af 3d d8 42 15 3d
       -0.028871423 0.21899076 0.08547817 0.0364407
0001a0 db d9 82 3d ac bb 01 3e 5f 96 72 bd 0f 9d e0 3d
       0.06389209 0.12669247 -0.059225436 0.109674565
0001b0 9f 6e dd bd 69 35 ab 3d 1d 4f 50 bd ff 86 53 3e
       -0.10812115 0.083597966 -0.0508567 0.20656966
0001c0 db ac 9a bc 92 a7 9f bd 28 5a 21 3d f3 14 03 3d
       -0.018881252 -0.077956334 0.03939262 0.0320024
0001d0 36 8d 8f 3d 81 f3 52 3d 8b 4b d6 3d 53 64 2b 3d
       0.07009356 0.051501755 0.104636274 0.041843724
0001e0 0f 60 f8 3c 83 6b 7a bd 2a 5f d6 3c a4 4e c2 3c
       0.030319242 -0.061137687 0.026168425 0.02371914
0001f0 c4 c9 95 3d f3 5d 19 3d 93 bc d1 bc 80 59 11 be
       0.07313874 0.037443113 -0.025602615 -0.14194298
000200 8c f2 25 be dc 3c 38 be 53 bc d7 bd bc e9 0b bd
       -0.16205806 -0.17991966 -0.10533967 -0.034158453
000210 8d 8d b7 bd f8 96 c7 bd d5 80 28 3d f5 e4 57 3d
       -0.089625455 -0.09745592 0.04113849 0.052708585
000220 da 45 86 3c d1 ad fa bd b8 bb ea bd c5 69 e9 3c
       0.01639073 -0.12240184 -0.11461586 0.028492818
000230 f4 8d ef 3c c8 b3 43 be bc 0d 9b bc 98 f5 c2 3b
       0.029242493 -0.1911155 -0.018927447 0.005949687
000240 75 84 9c 3d 1e 2f 01 3e ee 7d 75 3c e5 fc 88 3d
       0.07642452 0.1261563 0.014983637 0.06688861
000250 8c 77 8d 3e 45 b4 e0 3c 54 e9 b3 bb 43 92 89 3b
       0.2763027 0.02742971 -0.0054904614 0.004198344
000260 cf b8 1c 3e db 93 e4 3d 1e 25 d7 3d 77 f9 e9 3c
       0.15304874 0.11161014 0.105051264 0.028561337
000270 f5 75 66 3d 52 1f a2 3d be ae 32 3d 78 57 93 bc
       0.056264836 0.0791613 0.04362368 -0.017986044
000280 dc 54 5e 3d 0c 79 d0 3c d5 ca 34 3e 75 0b ce bd
       0.054280147 0.025448345 0.176555 -0.10060779
000290 2a 32 11 3d 97 70 d5 bb 44 73 b5 bb ee fd 22 3e
       0.03544823 -0.006513666 -0.0055374224 0.15917179
0002a0 38 0b ba bd 6b ca 18 bd c9 9e b1 3d 5f ec c6 3c
       -0.09084171 -0.037302416 0.08672864 0.024282632
0002b0 4b d2 cd bd 1b be 5d bd b6 89 5b 3d 59 5e 43 3e
       -0.10049876 -0.054136377 0.05359813 0.1907896
0002c0 df 05 91 3d 69 6d 76 bb 2e 82 13 3d d3 dc 1e 3e
       0.07081198 -0.0037601835 0.03601282 0.15513925
0002d0 30 45 83 bb c8 4c c2 3d 67 67 58 bd ef c9 12 3e
       -0.0040060505 0.09487301 -0.052832987 0.14334844
0002e0 86 8a e9 3c f5 7a e3 3d 30 f8 db bd 75 8e 87 3c
       0.028508436 0.111074366 -0.107406974 0.016547421
0002f0 68 00 8c 3d 0a 1f 0c 3d f5 e4 0b 3e 7c 12 7a bd
       0.06836015 0.03420929 0.13661559 -0.061052784
000300 cb f2 4f bd b8 be 25 bd 4a b2 92 3c 22 69 4d 3d
       -0.050768655 -0.040465087 0.01790728 0.05014909
000310 a7 5b a3 bc c5 85 ef bd c3 48 70 bb a1 82 e0 3a
       -0.019941164 -0.116954364 -0.0036664463 0.0017128774
000320 0e 04 46 bd 57 a7 b3 bc 15 40 e0 bc b4 9a de 3d
       -0.04834371 -0.02193038 -0.027374307 0.10869351
000330 61 57 08 bd 1f 0c 90 bd b9 03 01 bd 24 55 20 3c
       -0.033286456 -0.07033562 -0.03149769 0.009785924
000340 8c 0a 63 bd c6 15 1e 3d 7d c7 cb 3c b6 10 17 bd
       -0.05542998 0.038594984 0.024875397 -0.03688117
000350 8c 86 35 3c ec a0 bf 3d 3e ce 12 bc 7f 1e 07 3e
       0.011079442 0.09356865 -0.008960305 0.13195227
000360 96 5b c1 bd 4c 11 46 3d c3 f9 fc bd fe a7 ee bd
       -0.09441297 0.04835634 -0.12352326 -0.11653136
000370 27 a9 e0 3d 34 69 17 bc 5d d9 59 be 3f f7 b5 3d
       0.10969763 -0.009241391 -0.21274324 0.08885049
000380 89 08 de 3d 02 e8 29 3e 7e 0f e5 3d fa 78 0a 3e
       0.10841472 0.1659241 0.111845955 0.13522711
000390 db e1 1a 3d 19 9d 33 3e 63 90 f5 3d a7 49 71 3d
       0.03781305 0.17540397 0.1199043 0.05890813
0003a0 9b ce 9a 3c 6d 2a fe 3d 92 13 1d 3d 7e 21 9c bd
       0.018897345 0.12410436 0.03834874 -0.07623576
0003b0 3e 66 ca 3c ba b6 62 be b3 32 59 3e c2 74 b4 be
       0.024706956 -0.22140017 0.21210746 -0.3524533
0003c0 d4 b3 a2 3d b2 14 c5 bd db 06 b8 3d 64 5f bf bd
       0.07944456 -0.09623088 0.089856826 -0.09344366
0003d0 56 26 b4 be 78 a9 92 bc f9 e9 97 be 4c 4d d3 be
       -0.35185498 -0.017903075 -0.29670694 -0.4126991
0003e0 01 1a e7 3c b6 51 1f be c0 0a 73 3c 39 2a 04 bd
       0.028210642 -0.15558514 0.014834106 -0.03226683
0003f0 ff 37 68 3d 82 f6 ea 3d d3 de a6 3d 81 da 12 3c
       0.056694027 0.11472799 0.08147969 0.008963228

local_map_cnn.2.bias f4 [32]
000000 44 8b c0 bc 00 1c a8 3c db 0d 51 3c c0 e3 05 3c
       -0.023503907 0.020521164 0.012759651 0.008171976
000010 81 f0 d2 bd 79 6e 61 be 38 36 56 bd 79 f1 39 3d
       -0.10299779 -0.22014798 -0.0522978 0.045396302
000020 d6 22 bc bd 70 34 de bd 37 96 14 be cd cd a6 bd
       -0.09186332 -0.108498454 -0.14510427 -0.08144722
000030 b6 ad 78 be 1c b7 2d 3d 99 97 03 39 04 79 e5 3d
       -0.24285015 0.042410955 0.00012549608 0.112047225
000040 73 f3 84 be 0c 5c a5 3b 63 68 98 bd b8 26 6b bd
       -0.25966987 0.0050463732 -0.07441785 -0.057409972
000050 ab 3c 61 bd 72 97 3f bd 08 a6 4d bd 0f 16 d5 bd
       -0.054989498 -0.04677529 -0.050207168 -0.10404598
000060 0d de 61 bd 5b 17 a7 3d 53 62 4f be 02 85 54 be
       -0.055143405 0.081587516 -0.20252351 -0.20753863
000070 33 c8 20 3d dd b7 12 be c9 cf 23 be da f2 90 be
       0.039253425 -0.14327951 -0.15997232 -0.2831028

local_map_cnn.4.weight f4 [32, 32, 3, 3]
000000 e6 3b c6 39 27 77 54 be f7 79 27 3c 2d 4e bf 3d
       0.0003781013 -0.20748578 0.01022195 0.09341083
000010 d8 af a0 3c 9e 19 0c 3d bd cd 2f be ec 3d 7d be
       0.019615099 0.034204118 -0.17168327 -0.24730653
000020 b0 55 12 be 78 85 5b 3e 43 57 38 3d 4d 89 65 bd
       -0.142905 0.21437633 0.045005094 -0.056039143
000030 76 d6 6e 3d 32 4a b0 be 6a bd 35 be 7b 1a 26 be
       0.058309995 -0.34431607 -0.17748037 -0.16221039
000040 1d bd ae 3e 15 86 92 bc cf 9c 88 bd 9b 60 f2 bd
       0.34128657 -0.0178862 -0.06670534 -0.11834832
000050 1d 6c 02 bc e5 55 36 3b 65 32 2e be ae d3 f0 bd
       -0.0079603465 0.0027822193 -0.17011411 -0.11759125
000060 34 17 e6 3d 22 4f b3 be 87 29 7f bd ea 3d 53 be
       0.112348944 -0.3502131 -0.062295463 -0.20629087
000070 fd 55 01 be 9b 79 2b 3d 92 46 0f 3c 31 cd de be
       -0.12630458 0.04186402 0.008744853 -0.43515924
000080 7e 58 09 bc 21 7b 9a bd e7 5e f4 bd b6 ce 75 bb
       -0.008382915 -0.07543016 -0.11932164 -0.0037507243
000090 9d 42 2a 3d 74 ec 73 3c 45 b2 d1 3d f7 54 c8 3c
       0.041567434 0.014887918 0.1023908 0.024454577
0000a0 c5 04 bd bd 48 01 43 bd 1b 59 d6 3d f9 9f 8d bd
       -0.09229425 -0.047608644 0.10466214 -0.06915278
0000b0 67 aa 1d 3d 39 39 99 bd 83 66 33 3e 9e df 03 3d
       0.038492586 -0.074816175 0.17519574 0.03219568
0000c0 5a 90 1a be b8 9b ca bd 96 15 9a bd 16 8c 29 bd
       -0.15094128 -0.09892982 -0.075236484 -0.041393362
0000d0 69 63 fa bc ab 74 5b be e5 22 05 3d 3e 5c 73 3e
       -0.03056498 -0.21431224 0.03250398 0.23765656
0000e0 29 fa da 3b 4f 3c 69 3d a5 53 5b be a2 79 0e 3d
       0.0066826534 0.05694228 -0.21418627 0.034783967
0000f0 71 ca 81 3d fa f7 f5 3d 28 f2 b5 3d 3f e1 c0 bd
       0.06337441 0.120101884 0.08884078 -0.09417962
000100 e4 71 a2 bd de 5e c0 3d e2 1b 08 bc 4b ef 2c 3d
       -0.07931879 0.093930945 -0.008307429 0.042220395
000110 0a 2b f5 3d 17 e6 f8 3c 27 4b 5b bd 2b e4 82 be
       0.119711 0.030383153 -0.053538468 -0.25564703
000120 93 a0 9c 3b 74 07 40 3e ac 79 fa bd fa 2a b4 3c
       0.004779884 0.18752843 -0.12230238 0.02199315
000130 5e 20 d1 3e ad 03 45 be 42 ef af 3d b5 b8 db be
       0.40845007 -0.19239683 0.08590557 -0.42914358
000140 2d 66 70 3d 6f de cd be 92 f1 7a 3d 58 9b ca bd
       0.058691192 -0.40208766 0.061265536 -0.09892911
000150 f7 de 5d bd 3e d9 c9 bc 7e b0 6d be ce 50 75 ba
       -0.054167714 -0.024639722 -0.23211858 -0.0009358049
000160 6b 84 0e be 3d 7e 5c 3d f7 28 b4 3d 84 a7 06 3e
       -0.13917701 0.053831328 0.08796876 0.1314984
000170 53 31 3e 3e b9 ea 4b be d1 42 37 be 58 5d 8b 3c
       0.18573503 -0.19913758 -0.17896582 0.017012283
000180 ab c7 55 bd a8 ff 51 3d 8b 24 30 3e 77 23 ee 3d
       -0.05219237 0.051269203 0.1720144 0.11627858
000190 83 e9 8b bd 4f 15 e3 3c 75 ff b6 bd 3b 8d a7 bd
       -0.06831648 0.027720122 -0.08935443 -0.081812344
0001a0 36 e8 d5 3b e5 e5 02 be 07 24 9f bb 77 02 90 3c
       0.006527926 -0.1278301 -0.0048565897 0.0175793
0001b0 d0 76 8f bc 9a ca 96 3c b0 42 10 3e 69 1d 2f 3e
       -0.017512709 0.018407155 0.1408794 0.17101063
0001c0 2f bc 2f be b6 d3 4a 3c 39 8c 3d bd 8a b6 b7 bd
       -0.1716163 0.012379577 -0.046276305 -0.089703634
0001d0 0c 71 10 3e de 29 31 3e 86 ac f6 3d cb 53 2f 3e
       0.14105624 0.17301127 0.12044625 0.17121808
0001e0 83 3e a4 3d 94 72 2e be 6e 7a 83 bb 69 8f ee bc
       0.08019736 -0.17035896 -0.0040123975 -0.029121118
0001f0 b7 63 ad bc 19 e3 a3 bd be 9d 16 bc e1 75 6c be
       -0.021165712 -0.080023 -0.009192882 -0.23091842
000200 c8 81 8d bd a2 7f 16 3e 79 23 86 bd b6 4e 3b be
       -0.069095194 0.14697126 -0.065497346 -0.18291745
000210 c6 55 06 3d a5 08 4b be f2 4c 14 be a5 5e 47 3c
       0.032796644 -0.19827516 -0.14482477 0.012168561
000220 11 45 b9 bd a8 2c 02 3e 82 11 62 bc 58 28 93 be
       -0.090463765 0.12712348 -0.0137981195 -0.28741717
000230 00 f7 a6 bc 33 7b 6c bd 40 ef f3 be 2f ab 80 be
       -0.02038145 -0.05773468 -0.4764347 -0.25130603
000240 31 53 15 bd d7 42 3e 3d fd 95 3d 3e 5e 6c 1f bd
       -0.03645629 0.046450462 0.18514247 -0.038921706
000250 44 26 1e be 69 ce 9a 3d 11 f3 8f bc 4c 87 c9 3d
       -0.15444285 0.07558901 -0.017571958 0.09840259
000260 aa 78 6a 3d 4e 5a c6 3d 81 64 b4 bd 2c 32 12 be
       0.05724398 0.09685193 -0.08808232 -0.14276952
000270 73 84 1a b9 db d3 10 be 78 75 b5 bd d7 42 bc bd
       -0.00014735926 -0.14143316 -0.08860296 -0.09192436
000280 59 06 1a 3e cc af 15 3d 5c 8f d2 3d e2 37 b7 bd
       0.15041484 0.036544606 0.1028125 -0.08946206
000290 73 f7 0d bd c2 8a a6 bd 91 9b 94 bc 02 8c 1e be
       -0.034659814 -0.08131935 -0.018140586 -0.15483096
0002a0 51 70 02 3d 41 fb 37 3d b3 e1 45 bd 80 ed f0 bc
       0.031845395 0.04491735 -0.048310947 -0.029410124
0002b0 a2 96 cf 3d 79 f1 a7 3e fc a4 98 3b 30 11 ae be
       0.10136153 0.32801417 0.0046583395 -0.33997488
0002c0 3b e4 a9 bd cc 8f ae bd bb fb e2 3c b0 3e ec 3d
       -0.08295485 -0.08523521 0.027707925 0.11535394
0002d0 c4 dd a4 be 58 a8 17 3e 59 4a d9 bb 22 e4 ca bd
       -0.32200444 0.14810312 -0.0066311774 -0.09906794
0002e0 f2 3b db 3c f9 1b ef 3c 0f 29 81 3c d1 d5 87 bd
       0.026761983 0.029188143 0.015766649 -0.06632579
0002f0 21 05 92 3d a0 21 39 bd 67 e8 22 ba 5e 60 27 3e
       0.071298845 -0.045198083 -0.000621444 0.16345355
000300 7f e5 f8 3d 6d d7 67 be db ec 41 bd 57 22 2c 3e
       0.12153148 -0.22640772 -0.047345024 0.16809975
000310 6b 51 ad bd 4e ba a5 3d af 77 8c bc 16 f5 1d bd
       -0.08462795 0.080921754 -0.017146913 -0.03856381
000320 2a 63 02 be d4 79 8b bd 8a 14 34 3e 42 c4 6f bd
       -0.1273314 -0.06810346 0.1758596 -0.058536775
000330 b6 3f fe 3d c6 1a ab 3d bb dc 42 be 44 ee 13 3e
       0.12414496 0.08354716 -0.19029514 0.1444636
000340 15 c5 e0 bd bf b4 38 3e 40 3e 50 bd b3 fa fb be
       -0.109750904 0.18037699 -0.050840616 -0.49214706
000350 14 88 83 bc 58 86 b3 bd 05 4c bb 3d 5f 62 a3 bc
       -0.016056098 -0.087658584 0.09145359 -0.019944368
000360 e5 6b 12 be 31 d2 59 3e 9a 13 38 be c8 38 b3 bd
       -0.14298971 0.21271588 -0.17976227 -0.087510645
000370 7c 1b 22 be 42 a1 fd 3d ee 87 ec 3d 78 eb 30 3e
       -0.15830797 0.12384273 0.11549364 0.17277324
000380 ff 5f 4f bb e5 74 ed bc 3f 23 6d bc 99 80 f8 bd
       -0.0031642911 -0.028986404 -0.014473735 -0.12133903
000390 b2 d8 04 3e 6d 52 0e 3e d6 15 4c 3c 2e f3 e8 3d
       0.12973288 0.1389863 0.012456378 0.11374508
0003a0 1f ce 29 3e 04 28 10 3e 6a 3a 39 bb 80 cb e6 3c
       0.16582535 0.14077765 -0.0028263577 0.028173208
0003b0 80 29 a6 3d c8 e4 54 bd d1 6d 26 bd 19 cb 6b 3d
       0.08113384 -0.051975995 -0.040632073 0.057566736
0003c0 f9 2e c4 3d 96 3d 5c be 2e 69 30 3e 20 8a 27 3d
       0.09579272 -0.21507868 0.17227623 0.04090321
0003d0 c3 c7 76 bb 73 4c 83 3d 39 da 79 3c 1b 94 8e 3d
       -0.0037655688 0.06411066 0.015249782 0.069618426
0003e0 0b bf 5c bd 92 f9 fd 3d 5f 56 1a bd 8e bd c1 3c
       -0.05389313 0.124011174 -0.037680026 0.023649957
0003f0 90 4b 4c bd 0a 7e 36 3d 89 e2 1d 3e f4 27 d3 3c
       -0.04987675 0.044553794 0.15418448 0.025775887

local_map_cnn.4.bias f4 [32]
000000 43 d6 72 3c 6b a9 40 bc cd 82 5b be 5d 62 9e be
       0.014821592 -0.011759142 -0.21436615 -0.3093442
000010 4a 33 a9 bb 55 9c ad bd 2a 48 bb bb ce 24 24 be
       -0.005163585 -0.084770836 -0.0057153897 -0.16029665
000020 a3 86 ca 3d 5a d2 0f bc a7 a6 d0 3d 83 1a f4 bd
       0.09888961 -0.008778179 0.101880364 -0.11919119
000030 79 09 ff 3d b1 f2 02 3e 44 2f 4e be b4 35 3e 3e
       0.12452979 0.12787892 -0.20135218 0.18575174
000040 37 f1 92 be 55 ea 69 3d 65 43 d6 3d 18 61 39 be
       -0.28699657 0.057108242 0.10462073 -0.18103445
000050 9e 2e 43 be e3 e3 c9 bc f3 75 c4 3b 20 55 e7 bd
       -0.19060752 -0.024644798 0.005995506 -0.11295533
000060 02 f3 8f bd f3 29 12 3e 10 a7 45 be 24 51 5f 3b
       -0.07028772 0.14273815 -0.1930201 0.0034075463
000070 6d de 7c bc e8 50 52 3d 39 01 2c bc db 65 9f bd
       -0.01543389 0.05134669 -0.010498338 -0.07783099

local_map_fc.weight f4 [64, 512]
000000 1d 54 cc ba d4 49 55 bd b8 f4 4c be fa dd af bd
       -0.0015589033 -0.05207236 -0.20015228 -0.085872605
000010 c2 0e 41 3d 8f 2e 64 bd 7e b3 8f be ef 1e 4b 3d
       0.047133215 -0.055708464 -0.2806663 0.049590047
000020 91 c2 24 be 07 97 81 bd 81 2d bb bd 0d 2f cd 3d
       -0.16089846 -0.06327634 -0.091395386 0.1001874
000030 83 e0 54 bc ae c0 fd bd 44 48 c4 3d de 63 a9 be
       -0.012992981 -0.12390266 0.09584096 -0.33084005
000040 ed b5 50 be ba ee 3d be 35 44 04 be c2 70 ca bc
       -0.20381899 -0.18548098 -0.12916644 -0.02471197
000050 a5 d3 b6 bd f4 8f 0e 3c bb 6e 08 bd ff 2d f8 bc
       -0.08927087 0.008701313 -0.033308726 -0.03029537
000060 26 ec 01 bc 35 3d 6d 3c 22 9c 76 3d 98 be 0d be
       -0.007929837 0.014479925 0.060207494 -0.13842237
000070 26 99 c4 bd 5e 20 ab 3d ce 8a 95 3d 26 40 2c 3d
       -0.09599523 0.08355783 0.073018655 0.042053364
000080 41 79 c9 bd 5e 16 e6 bd 35 c1 cb 3d 43 5e 6d bd
       -0.098375805 -0.11234735 0.09948961 -0.057951223
000090 50 2f c3 be c8 43 c8 bd 35 78 05 3e 0e 2d 49 be
       -0.38122034 -0.09778553 0.13034137 -0.19646093
0000a0 9f fd 35 3a cb 46 f5 bd eb ae 55 3d 6b 9e ad bd
       0.00069423945 -0.11976393 0.052168768 -0.084774815
0000b0 5e 91 84 3d 77 bc 80 3c db 50 ba bd 7e bd 30 3d
       0.06473039 0.015714867 -0.09097453 0.043149464
0000c0 25 af a1 3c ca 86 2c be 66 1a 21 bd 48 a4 fd 3c
       0.019736836 -0.16848293 -0.039331816 0.030962124
0000d0 3b 90 05 bd f7 ce c3 bd 00 cf 96 bd 21 a4 c6 bb
       -0.032608252 -0.0956096 -0.07363701 -0.006062046
0000e0 53 30 b4 3d 68 e4 3b 3e 3b 4d 87 3c c5 67 fe 3d
       0.087982796 0.18348849 0.016516319 0.12422136
0000f0 aa 78 2a bd c6 b4 8d 3d 01 fc a2 bc f2 93 a3 3d
       -0.04161898 0.069192454 -0.019895555 0.07987203
000100 62 35 01 bd 37 ab 81 bd 99 ff 41 3e e8 cc 2f be
       -0.03154505 -0.06331485 0.18945159 -0.1716801
000110 b7 1e 9a 3c 1b 1c 23 be 6d 3e 04 3e 89 75 85 bd
       0.018813474 -0.1592869 0.12914439 -0.06516559
000120 5a fa 0a 3e 80 d6 61 bd e9 f6 b9 bd ea d5 eb be
       0.13572064 -0.055136204 -0.090802975 -0.4606164
000130 5b f2 e4 bd d3 01 ac 3c da 7b be bd cd b9 e3 3d
       -0.11179038 0.020996964 -0.093009666 0.11119423
000140 4f 7e 02 3e e1 c2 22 3d 0f a6 81 be ac c5 6c be
       0.12743495 0.039736632 -0.25322005 -0.23122281
000150 f9 f5 b7 bd 0d c2 0e be d6 c7 50 3d 56 dc 5d 3e
       -0.089824624 -0.13941212 0.05097183 0.21666083
000160 7c 4d b4 bd 81 36 37 3e 3a a8 ce bc e2 b4 c7 3c
       -0.088038415 0.17891885 -0.025226701 0.024378244
000170 6c 42 da bb 1d c1 b1 bd a6 3a 00 be 33 47 09 3e
       -0.00666075 -0.086794116 -0.12522373 0.13406067
000180 f2 9a 7a 3d ac b8 b2 bc 76 4d 36 be 6f 21 5f bd
       0.061182924 -0.021816574 -0.17802987 -0.054475244
000190 08 4e b2 bb 17 b7 3c 3d df bf 73 3d 27 ce 24 3d
       -0.005441431 0.046073046 0.059509154 0.040235665
0001a0 b6 2d cb 3d d8 8c 84 3e 1a d6 e5 bd ac a2 2a be
       0.09920828 0.25888705 -0.11222477 -0.16663617
0001b0 31 1f cc bd 56 8b db bd 32 35 cb bd 6f 68 16 3d
       -0.09966887 -0.107199356 -0.099222556 0.03672069
0001c0 62 1b b8 3d 27 7a 53 bd 3f 84 2a 3d 71 62 7f be
       0.08989598 -0.051630165 0.041630026 -0.24939896
0001d0 08 11 55 be 54 88 6d be 2a 4b 0f 3d 78 b7 c1 3c
       -0.20807278 -0.23196536 0.03498379 0.023647055
0001e0 22 a3 0c be f3 48 12 be f2 6b f2 bd a8 94 32 bd
       -0.13734105 -0.1428564 -0.11836995 -0.0435988
0001f0 1e 0b 26 bd 79 7e 3f bd 7b 37 6f 3c ce b2 df bd
       -0.040537946 -0.046751473 0.01460063 -0.10922776
000200 60 03 bc bd 32 0b 18 be 4f 6f ac be 7d ec 99 bd
       -0.09180331 -0.1484802 -0.33678672 -0.0751581
000210 f6 b8 1a be ac 3c 16 be 3d de 95 be 7e 11 70 3e
       -0.1510962 -0.14671582 -0.29271117 0.23444173
000220 7f 73 44 be 28 5a c3 bc e1 8c 7d be f9 e5 a6 3d
       -0.19184683 -0.0238467 -0.24760772 0.081493326
000230 26 8a 72 3e 3b 4c 16 3d c0 5c 65 bd e1 b2 d6 bd
       0.23685512 0.036693793 -0.055996656 -0.10483337
000240 b7 7d b7 bd bd 08 27 3e 5b 28 1e be 3c 25 73 be
       -0.08959525 0.16311927 -0.15445082 -0.23744673
000250 4d 3c a2 bd f5 23 a3 bc 96 32 4c be 2b 15 20 be
       -0.07921658 -0.019914607 -0.19941172 -0.15633075
000260 f7 5f c5 bd 54 1c 68 bc e1 74 c5 bd bb 72 29 be
       -0.096374445 -0.01416691 -0.096414335 -0.16547672
000270 18 49 89 be 92 0a 2d be c9 ab 9c 3d 7f 25 9f bd
       -0.2681358 -0.16898564 0.07649953 -0.07770824
000280 20 fd 8d 3d dc 43 d2 bd 0a b1 6f 3e 13 5f d9 bd
       0.069330454 -0.102668494 0.23407379 -0.10613837
000290 d5 e6 5c 3d 92 e8 0f bd 7f 71 32 3e da 8d 55 be
       0.053931076 -0.035133906 0.17426108 -0.20854893
0002a0 da ca bb bd 1a 4a 16 be a9 f9 f9 bb ae 81 88 bc
       -0.0916955 -0.14676705 -0.0076286388 -0.016663399
0002b0 32 61 44 be a7 b4 4b be 9f 8c fe 3d 5b ab 59 bd
       -0.19177702 -0.19893132 0.12429165 -0.053141933
0002c0 a3 46 2e bd c5 37 44 be 5a 4a bd be 57 2a 83 be
       -0.042547833 -0.191619 -0.36970788 -0.2561824
0002d0 1c 5a db bc 4c fc 92 bd 75 57 8a ba 64 37 99 bc
       -0.026776366 -0.07177028 -0.0010554629 -0.01870317
0002e0 86 5b 85 bd a3 6b 30 be 13 81 99 bd 5f 9a 57 bd
       -0.06511597 -0.1722856 -0.07495322 -0.052637454
0002f0 ff 47 98 3d f6 8b a1 3b 0d ed 4b 3d 88 1a ba 3c
       0.07435607 0.0049300147 0.049786616 0.02271773
000300 ce 8f 8e bc e3 de 14 bd c1 15 6d bd 12 20 c4 be
       -0.017402556 -0.036345374 -0.057882074 -0.38305718
000310 4d e9 a6 bd 30 6b 6f 3c 34 89 a9 bd 9e db 2d be
       -0.08149967 0.014612958 -0.082781225 -0.16978309
000320 6f a2 e8 3c e1 0a 8c bb d5 82 95 bd 69 16 01 be
       0.028397767 -0.004273758 -0.07300345 -0.12606205
000330 71 ec 87 3e 35 2a 29 3d b5 6d 39 bd c3 37 00 3e
       0.26547578 0.041300017 -0.04527064 0.12521271
000340 ef 44 cc 3c fb 55 4d be 85 48 88 3d 90 ac 8c 3d
       0.024935214 -0.2005233 0.06654457 0.06868851
000350 6c f6 31 3d 84 a9 5d be 6d df 68 3e 2b 0a 19 be
       0.043447897 -0.21646696 0.2274148 -0.14945285
000360 91 59 0b be f1 72 de 3c 38 0e e1 3d ef 22 89 bd
       -0.13608386 0.027154418 0.1098904 -0.06696116
000370 63 e6 f9 bd 19 3b 97 bd d8 48 97 3d f4 bd b4 bd
       -0.12202146 -0.07384319 0.07386941 -0.08825293
000380 19 95 f4 bc 17 d7 d9 bc 13 49 89 bd 81 13 83 3d
       -0.029856252 -0.02659182 -0.06703391 0.064002044
000390 e0 8a 69 3e 13 7d 25 be 09 79 b8 3d 39 84 26 3b
       0.22806883 -0.16160993 0.090074606 0.00254084
0003a0 42 31 0d 3d 6d 08 c0 bd 5e 6d 92 3d 65 f2 d9 bd
       0.034470804 -0.09376607 0.071497664 -0.10641936
0003b0 2e 56 45 be b5 87 51 be 12 98 7e 3d 3d 9c 10 be
       -0.19271156 -0.20461924 0.062156744 -0.141221
0003c0 48 76 0f 3d e1 95 53 bd d7 29 7c bd bc 7a 58 3e
       0.03502491 -0.051656608 -0.06156334 0.2114057
0003d0 a3 d0 c8 bd 51 60 b8 3c 8c 5f 8d be 86 9b 27 3e
       -0.09805419 0.022506865 -0.2761196 0.16367921
0003e0 82 cf c1 bd 58 fc 11 be 25 54 01 be 1b 98 d3 bd
       -0.09463407 -0.14256418 -0.12629755 -0.10331746
0003f0 8e 37 b4 bc 3e f8 38 be f5 20 a9 3d 13 eb b7 bd
       -0.021999147 -0.18063447 0.08258239 -0.08980384

local_map_fc.bias f4 [64]
000000 90 4f fa bd 74 66 19 be a3 4e 01 bc ad 3e 04 bd
       -0.122222066 -0.14980489 -0.007892284 -0.032286335
000010 d3 93 94 bd b2 79 16 be 9a 25 b8 bd 70 cb 74 3d
       -0.07254758 -0.1469486 -0.08991547 0.059764326
000020 cc c7 49 bd 9b 8d 95 bd 99 57 4f bd 39 cc 8e bd
       -0.049262807 -0.073024 -0.05062065 -0.06972546
000030 40 86 11 3e f3 a3 2a bd ff 88 b6 bb 8b 70 aa 3d
       0.14211369 -0.04166026 -0.0055705304 0.08322247
000040 70 93 41 3d 10 d2 40 bd d1 6b c6 bd 5a 51 62 bb
       0.047259748 -0.04707533 -0.09688533 -0.0034533353
000050 ea 54 c6 bd 24 fa 0d be 9f 78 53 3d 76 71 ba 3d
       -0.09684165 -0.13864952 0.051628705 0.09103672
000060 c8 00 80 bd f5 b9 e9 bd 09 e1 b5 3c 47 02 c5 bd
       -0.06250149 -0.114124216 0.022202032 -0.09619575
000070 13 2f 98 3d 40 22 6f 3d 06 11 90 bc 50 e3 3b be
       0.07430854 0.058382273 -0.017586242 -0.18348432
000080 75 df 04 3e 55 56 4c bb 24 6f 22 bc 8d 51 45 be
       0.12975867 -0.0031179388 -0.009914193 -0.1926939
000090 1d 40 7d bd e8 89 82 3d e3 6f 4a 3e 5f 5a 2e bc
       -0.06182872 0.0637396 0.19769244 -0.010641663
0000a0 3e 58 89 bd 28 5f ac bd 32 c9 a9 3c 2c a6 9b 3d
       -0.06706284 -0.08416587 0.02072582 0.07600054
0000b0 2b be ca 3d 11 48 0f 3e 53 90 a1 bd c0 66 5f bb
       0.09899553 0.13992335 -0.07888856 -0.0034088343
0000c0 fe 88 9e bd e9 29 66 bd 0e 0c 9c bd d4 57 e8 bd
       -0.07740973 -0.056192312 -0.07619487 -0.11344877
0000d0 c3 ee e0 3d a3 15 64 be cb fd 6e bd 01 14 01 3e
       0.1098304 -0.22273879 -0.058347505 0.12605287
0000e0 25 db b0 bc 44 05 80 be b9 df 4d bd 18 48 6e bd
       -0.021588871 -0.25004017 -0.050262187 -0.058174223
0000f0 83 21 91 bd 2b 78 97 3d 67 60 18 3d a2 19 c9 3d
       -0.0708647 0.07395967 0.03720131 0.09819342

self_entity_fc1.weight f4 [32, 26]
000000 15 a1 8d 3e 03 1d 05 bc ee 81 17 3c bb 83 11 3b
       0.27661958 -0.008124593 0.009247286 0.0022203762
000010 2e 5f 14 bd 9d c5 eb 3d 94 96 b1 bc 4b 28 91 be
       -0.036223583 0.11512301 -0.021678247 -0.28351054
000020 50 29 c8 bc b1 26 89 bd f8 99 37 be 05 aa 15 bf
       -0.024433762 -0.06696833 -0.17929828 -0.58462554
000030 3b 2b 1f 3e 93 ba 40 be 16 af 57 3e 1c 5c 16 3e
       0.15543835 -0.18821172 0.21062884 0.14683574
000040 07 da 83 be 32 91 04 be 7b 67 4b 3d 16 4f 10 bc
       -0.2575228 -0.12946013 0.049659234 -0.008807918
000050 15 f4 79 bd 7a 3c a3 3e a6 6e 0d be a9 19 3d 3e
       -0.06102379 0.31882077 -0.1381174 0.1846682
000060 1a c9 25 bb 01 72 56 3d 54 9e db be 6a 27 e4 bd
       -0.0025296868 0.052354816 -0.42894232 -0.1114033
000070 a4 c7 94 3c 0c b7 34 3e 32 b4 17 3e c7 94 07 be
       0.018161602 0.17647952 0.14814833 -0.13240348
000080 34 7b 49 3d a9 b6 8c be 80 8a d9 bd cc bd 9b bd
       0.04918976 -0.2748311 -0.1062212 -0.0760456
000090 10 0f fb bd 13 ee 5c bc 2d 7d 9c 3c b5 ad 1e 3d
       -0.12258732 -0.013484496 0.019102657 0.03873988
0000a0 7b 49 4a 3e 6f 05 fe 3d 6e 3d c5 3d ae 0e 8a bb
       0.19754593 0.1240338 0.096308574 -0.0042131757
0000b0 b0 17 41 bc bf ba 9c bb 55 90 bc bd 5b 71 a0 3d
       -0.011785433 -0.004783004 -0.09207217 0.07834121
0000c0 8b b8 3b bd a7 2b 85 bc 73 2b b4 3d 1e 22 41 3e
       -0.04583029 -0.016256167 0.0879735 0.18860671
0000d0 b0 43 90 bc 20 36 db bd 58 9d 7e 3d 6b bf 21 be
       -0.0176104 -0.10703683 0.062161773 -0.15795676
0000e0 fe 71 c8 3d 52 53 08 bf fa d7 8a be c9 08 bf 3d
       0.09787367 -0.53252137 -0.27117902 0.093278475
0000f0 33 eb b8 3d f1 1d c0 bd a7 71 e0 be 8a af af bd
       0.09029236 -0.09380711 -0.4383671 -0.08578403
000100 0b 8f 7b bd ef 25 1d 3d 8d f9 54 3d b9 33 54 3e
       -0.061415713 0.038366254 0.051995803 0.20722856
000110 49 33 ac 3c 21 51 2e 3d d7 94 74 bd dd 19 1c 3e
       0.021020548 0.04255784 -0.059712257 0.15244241
000120 41 65 0e 3d d7 b2 c1 3d 9c 1d 38 3e 0a 61 dd bd
       0.034764532 0.09457939 0.17980045 -0.10809524
000130 bd c6 23 bd b0 bf 08 be 1d b0 cc bd 71 4b dd bc
       -0.039984453 -0.13354373 -0.099945284 -0.027013512
000140 09 2c f3 3d 6d c4 ac bd 51 21 c9 bd 4b 05 11 3e
       0.118736334 -0.08435903 -0.09820808 0.14162175
000150 c8 d7 15 3e ff 10 ad bd 76 a9 46 3f 34 d4 8f 3e
       0.14633095 -0.084505074 0.77602327 0.28091586
000160 63 c9 c1 3d 05 97 8d bd 68 06 a2 3c f0 4e 86 3e
       0.094622396 -0.0691357 0.019778445 0.262321
000170 24 9c fb bc 7c ce 33 be 84 d7 4a 3e 07 4f 69 3e
       -0.030714102 -0.17559236 0.19808775 0.22784053
000180 f2 48 ee bd 36 d5 7e bd 4f 19 84 3e 37 6e aa bd
       -0.11635007 -0.062215053 0.2580056 -0.08321803
000190 39 00 1d be ac 78 1c 3d 35 50 e1 bd 25 e6 08 3e
       -0.15332116 0.03820102 -0.110016264 0.13369043
0001a0 7d 77 25 be e5 65 bb 3c e2 cf 13 bd eb 07 30 be
       -0.16158862 0.022875736 -0.036086924 -0.1719052
0001b0 51 e4 f4 3d 28 c6 91 3d f6 e2 6f 3c 01 d6 7b be
       0.119576104 0.071178734 0.014641514 -0.24593355
0001c0 f6 a9 5b 3d df 4d 16 3e 85 51 e0 3e b2 d6 5e 3e
       0.053628884 0.14678143 0.43812194 0.21761587
0001d0 2e fa 07 3e 97 97 c3 3d 45 73 51 be d0 88 0a 3d
       0.1327903 0.09550398 -0.20454128 0.03382188
0001e0 cd bc 56 3e 77 6f cd 3e 52 34 d0 bd 6e 97 4e bd
       0.2097046 0.40124103 -0.10166229 -0.050437383
0001f0 1f 35 05 3d cf fd db bd 88 62 72 bd 24 b3 be bc
       0.032521363 -0.107417695 -0.059175998 -0.02327878
000200 53 9f e8 bd 88 7a d3 bd bc 03 ab 3d 28 5b d1 3d
       -0.11358514 -0.10326105 0.08350322 0.10222465
000210 5c b6 47 3e 2a 53 05 3d c7 23 0a 3d 51 21 c1 bd
       0.19503158 0.032550015 0.033725526 -0.09430183
000220 c6 d5 1a 3e a0 6f eb be dd ff 67 3e ff 0f c3 3b
       0.1512061 -0.459836 0.22656198 0.0059528346
000230 a7 b3 31 3d 19 c7 a4 3e 6d 45 0f 3e 11 05 d7 3d
       0.04338422 0.3218315 0.13991328 0.10499013
000240 31 c7 a2 bb ec c7 71 be 13 69 5e 3d aa fd 45 bc
       -0.004967593 -0.2361142 0.054299425 -0.012084404
000250 60 e7 28 be 2c c3 31 be 90 ce 2f be a0 57 33 be
       -0.16494513 -0.17359608 -0.17168641 -0.17513895
000260 9e c2 01 be bc b7 3a be 9f 0a 7b 3d 5e f8 c5 3d
       -0.12671897 -0.18234152 0.061289426 0.09666513
000270 74 2b f7 bc 29 f5 af bd 2f d5 11 3c 80 f8 3f 3e
       -0.030172087 -0.085916825 0.008900925 0.18747139
000280 0e 5b 16 3e bb 30 14 be c7 b9 ef bd 7f c9 83 be
       0.14683172 -0.14471714 -0.11705356 -0.25739667
000290 50 3a 80 3d d1 dc 62 bd d7 e2 c5 be 7f d1 f4 3d
       0.06261122 -0.05538637 -0.38649628 0.11954021
0002a0 27 b0 55 bf 3c 82 0b 3e ce 3d 36 3e 7d d8 0b 3e
       -0.8347191 0.13623899 0.17797014 0.13656802
0002b0 cc ce 51 be 8c 5f 1c be 14 17 83 3c fb 14 6d ba
       -0.20489043 -0.15270823 0.016002215 -0.0009043959
0002c0 94 b0 24 3d 7c a0 90 3e 48 4e 03 3e 49 5e bc bd
       0.04020746 0.2824744 0.1282283 -0.09197671
0002d0 57 95 f5 3b ce af 00 be 75 bc 2a 3e 26 1b bc 3b
       0.0074946093 -0.12567064 0.16673453 0.005740541
0002e0 78 f5 c5 bb 01 bd 07 3d f7 77 e9 bc 9e cc 20 be
       -0.006041225 0.033139233 -0.028499587 -0.15703055
0002f0 6c 04 ab 3d 40 9b 05 3c f5 e9 1b bf ba 69 07 3e
       0.08350453 0.00815469 -0.60903865 0.13223925
000300 e4 24 28 be b3 26 7a 3e 7c 07 bd 3d a9 a8 ed 3d
       -0.16420323 0.24428825 0.09229943 0.11604435
000310 90 1a d7 3d cb 8f 83 3e 59 6c f0 3d 75 81 51 3e
       0.10503113 0.25695643 0.11739416 0.2045954
000320 e0 44 33 bd 86 af c6 3d 4c 36 18 3d c3 9c 4a 3e
       -0.043766856 0.09701447 0.037161157 0.19786362
000330 61 df d4 3b 6f 21 94 bd be 05 ba 3d 00 a6 0f be
       0.0064963554 -0.072329395 0.090831265 -0.14028168
000340 d0 47 7a 3c dd 79 c7 bd 8b 64 4d ba 52 3f af 3d
       0.0152759105 -0.097400405 -0.00078351115 0.08556999
000350 d6 d2 5f bc a7 3a 09 be 2a f8 65 3d 3c 1e 0e 3f
       -0.013661107 -0.1340128 0.05614487 0.55514884
000360 64 72 8e 3c 90 a5 0d 3d 1f 66 54 bf dd 6b f0 bd
       0.01738853 0.03458172 -0.82968324 -0.11739323
000370 3c 4c 00 be f0 89 cf 3d a4 94 38 3e cb ac 0e 3e
       -0.12529081 0.10133731 0.18025452 0.13933103
000380 ad bd 2b 3e 26 96 0e be d0 97 e4 bc 43 2c d2 bd
       0.16771574 -0.13924465 -0.027904421 -0.102623485
000390 06 27 41 bd aa 98 28 3e 67 9a c5 3d 39 ce 6d bd
       -0.047156356 0.16464487 0.096485905 -0.058057997
0003a0 f0 ed 0a be 58 d0 08 be d4 80 45 be 76 f1 59 be
       -0.13567328 -0.13360727 -0.19287425 -0.21283516
0003b0 ae 35 0c bd 82 33 c3 3d 94 f9 9e bd 7f ca d2 be
       -0.03423088 0.09531309 -0.07762447 -0.41170117
0003c0 ed c1 f2 be 4e fe 03 3e 1e 35 34 be da 77 88 bd
       -0.4741358 0.12889978 -0.17598388 -0.06663485
0003d0 25 fb 02 3e 86 02 21 3e 67 29 8b 3d 64 35 ad bd
       0.12791117 0.15723619 0.06795006 -0.08457449
0003e0 1b 2f bd 3d 46 a5 fa 3d 96 ef 71 bd 6d f1 08 be
       0.092375 0.12238555 -0.059066378 -0.13373347
0003f0 29 c5 44 3d 77 72 99 bd 67 03 57 bc 22 92 8f 3e
       0.04803959 -0.074925356 -0.01312337 0.28041178

self_entity_fc1.bias f4 [32]
000000 da c3 72 bc e6 57 86 3e a8 bb b5 3c 4c 84 7e be
       -0.014817202 0.26238936 0.022184208 -0.24855155
000010 c9 3e b3 bd 38 f0 0e be d7 c8 a0 3e 50 82 09 3e
       -0.0875221 -0.13958824 0.3140323 0.13428617
000020 c6 07 64 3e 91 45 1e 3e e8 36 b4 3d 44 a1 74 3e
       0.2226859 0.15456225 0.08799535 0.23889643
000030 9a 66 84 3c bd 3b 47 bc 58 91 ff bd b6 f7 52 bd
       0.016162205 -0.012160239 -0.12478894 -0.051505767
000040 ad f1 1a 3e 78 e3 2b 3e 64 96 7a 3e ca 5f 8e 3d
       0.15131254 0.16785991 0.24471432 0.06951864
000050 02 e0 78 3e e0 b9 12 3e e8 04 80 3e fb cf 6b bd
       0.24304202 0.14328718 0.25003743 -0.057571393
000060 1c 6e 7e 3e 72 2b 00 3e 23 a9 6b be 12 8e 68 3d
       0.24846691 0.12516573 -0.2301374 0.056776114
000070 5e 9d c6 3e d3 ff 07 3f 52 95 b4 bd 79 95 05 3d
       0.38791937 0.5312473 -0.08817543 0.03261325

self_entity_fc2.weight f4 [32, 32]
000000 90 ed b4 bd db 86 22 3e 5a f3 9a 3e d7 86 fc be
       -0.08834374 0.15871756 0.30263788 -0.49321625
000010 2e 0b 36 3e 0d a0 a6 3c 78 ba 46 3e e4 83 5c 3e
       0.17777702 0.02033999 0.1940707 0.21534687
000020 d2 5e 1b be 8b 9c 0f bd 10 09 b7 3d 39 93 ff bd
       -0.1517289 -0.0350614 0.089372754 -0.12479252
000030 8d 5a 8e bd 5d 00 9f 3d c2 16 c5 be 23 15 b4 3d
       -0.06950865 0.07763741 -0.38493925 0.08793094
000040 fa ba 06 bc 7a 5b b9 3d 50 70 ba 3d 4c fa 1a be
       -0.00822329 0.09050651 0.09103453 -0.15134543
000050 64 83 85 bc f9 a5 17 bd db 9d c2 bd 57 94 40 3e
       -0.016298003 -0.03702352 -0.09502765 0.18806587
000060 70 11 6d 3c de 2a e9 3d bc 53 f1 be f4 ab 4e 3e
       0.014469489 0.113851294 -0.47134197 0.20182782
000070 e8 f6 0c 3f a9 cb 19 3f 84 2b 41 3e 35 a9 98 bd
       0.5506425 0.60076386 0.18864256 -0.07454149
000080 08 dd 9d 3e 7a d9 2f 3e 18 45 b6 bd 07 38 d9 3d
       0.30832696 0.17172804 -0.08899897 0.106063895
000090 3f e4 15 bf 28 4b 3a be cb 63 5b 3f 66 37 10 be
       -0.585514 -0.18192732 0.85699147 -0.14083633
0000a0 31 78 09 3f 37 2c 8d bd 7a c2 93 3e 2f b5 11 3f
       0.5369902 -0.06893199 0.2885931 0.5691709
0000b0 17 f5 0e 3c 17 3b 18 bf c5 3e 08 3e 6f dc 27 3e
       0.008725426 -0.59465164 0.13305195 0.16392682
0000c0 68 48 32 3e d2 d7 0d 3e 06 33 4f bc 7d 37 3b be
       0.17410433 0.1385186 -0.012646442 -0.18282886
0000d0 b9 af 82 3d b5 aa c8 3d 7f c2 22 be 02 da 1d be
       0.06381173 0.09798185 -0.15894507 -0.15415195
0000e0 8e 69 a1 be 6d 49 a5 3d 9e 92 35 be c2 ae 2f be
       -0.31525844 0.080706455 -0.17731711 -0.17156509
0000f0 e5 d1 0d bf 12 ab 22 bf 54 45 3a be 19 3e df bd
       -0.553984 -0.6354228 -0.18190509 -0.10900516
000100 8d 07 a2 bd ef e2 ac bd 1a 0d fe be 86 b3 be be
       -0.079115964 -0.08441722 -0.4961937 -0.3724634
000110 32 84 77 3e 8e 3d 70 be ac 24 39 3e 4c 19 26 3e
       0.24171522 -0.23460981 0.18080395 0.16220587
000120 b9 66 2e bf 59 fc 71 bd 9f 55 e9 3d f0 f1 cd bd
       -0.6812549 -0.059078548 0.11393284 -0.100559115
000130 61 a1 3a be ca e9 6c bf 5d 87 98 be f8 de 3b bd
       -0.18225624 -0.92544234 -0.29790774 -0.045866936
000140 47 68 d3 bd 1e 2f 7b 3e b9 08 7a 3e b0 9c cb be
       -0.10322624 0.24529693 0.2441739 -0.3976798
000150 aa 6f 8b bc 8f bb 57 bc 98 21 d7 3d b3 ba 5e 3e
       -0.017021019 -0.013167276 0.105044544 0.21750908
000160 8b d8 fd 3d f0 ec 35 3e 87 a6 1a bf 07 c9 84 bd
       0.12394818 0.17766166 -0.6041035 -0.064836554
000170 3b c5 c8 b8 10 f1 c5 bd f2 0a 19 3c 8f 08 12 be
       -9.57348e-05 -0.0966512 0.0093409885 -0.14261077
000180 f7 de a8 3d de 1d f5 bd ee 2d 61 be 77 a0 17 3e
       0.08245652 -0.11968587 -0.21990177 0.14807306
000190 e4 77 0c 3e b3 67 5a 3e 4c 91 7b 3b ef 19 db be
       0.1371761 0.2132862 0.0038386164 -0.42793223
0001a0 03 9f 84 be 72 dd 39 be 86 1f 15 bf e3 03 d9 3c
       -0.25902566 -0.18150881 -0.58251226 0.026491111
0001b0 33 9c 94 3e 1c 5b b0 be 0f b2 a8 3e 03 4b 31 3e
       0.2902542 -0.3444451 0.32948348 0.17313771
0001c0 a1 a4 a8 3d 7c 6b bf 3d 3e 52 cd be c3 33 91 3c
       0.082345255 0.09346673 -0.40101808 0.017724877
0001d0 25 4c 06 be d8 d7 41 bd f4 37 16 be 9e fa 77 bc
       -0.13114984 -0.047324985 -0.14669782 -0.015135435
0001e0 fd a2 aa ba 09 4f dc bc e8 64 7d 3e a7 2a f4 be
       -0.0013018545 -0.026893156 0.24745524 -0.4768879
0001f0 ce 9f 25 3e f2 9a de 3d 57 76 37 bd 95 83 52 3e
       0.16174242 0.10869397 -0.044790592 0.20558007
000200 a2 6d db 3e 2d 90 88 3e c4 fc b0 bd 00 fc 58 bd
       0.4285708 0.26672497 -0.08641961 -0.0529747
000210 b2 5c cd be 9d 17 f4 bd 50 77 16 3e 89 2f 2f be
       -0.40109783 -0.119185664 0.14693952 -0.17107977
000220 b4 74 01 3f 57 af 02 bd f0 53 6d 3e f4 74 15 3f
       0.505687 -0.0319055 0.23176551 0.5838158
000230 d0 24 fc 3d cb 4a 2c bf 88 13 e0 ba 24 d5 7c 3e
       0.12311709 -0.67301625 -0.0017095665 0.24690682
000240 3a 5f 88 3e 26 f1 64 bc 19 b1 d7 bd 49 35 2c 3e
       0.26635152 -0.01397351 -0.105318256 0.16817202
000250 2e bd a7 3e 16 5b 54 3e ec 39 46 bc d0 f8 4f 3e
       0.3276152 0.20737872 -0.012098771 0.20309758
000260 bb 64 eb be 31 52 b5 3d 53 0b 69 3d 58 6a 33 3d
       -0.4597529 0.088535674 0.056895565 0.04380259
000270 19 51 da be bb a6 13 bf a0 2d d7 3d 12 db 0b bc
       -0.42639998 -0.57676286 0.10506749 -0.008536117
000280 74 ce 44 3e 2f 4f 8e 3e 76 18 54 3e 8c 94 67 bd
       0.1921938 0.27794787 0.20712456 -0.05653815
000290 42 45 31 3e af f3 3e 3c 81 68 95 bd 62 b9 8e 3d
       0.17311576 0.011654778 -0.07295323 0.06968953
0002a0 cf 0a 2e 3f 16 b9 88 be 4e cb a6 3e 0b 4e 79 3e
       0.6798524 -0.2670371 0.32576984 0.24346177
0002b0 cd 4a 60 be 05 92 b4 3e e2 07 63 3e 07 f1 1b 3e
       -0.21903534 0.35267654 0.22170976 0.15228663
0002c0 dc ef 56 3e 24 16 16 3b c7 bc a3 bc 32 78 59 3e
       0.20989937 0.002290138 -0.019987477 0.21237257
0002d0 ca 02 05 3e f5 d8 55 bd 37 d9 ca 3d 4f a9 75 bd
       0.12989345 -0.05220886 0.09904712 -0.05997592
0002e0 a0 5c 72 3e a8 d2 41 be 19 93 41 be 6c cb be 3d
       0.23668146 -0.18928015 -0.1890377 0.093161434
0002f0 fb bb 9c be 8b b6 06 bf 9b ba 15 be d9 bb 1c be
       -0.30612168 -0.5262229 -0.14621966 -0.15306033
000300 12 44 71 bd ce 09 28 3e 49 06 16 3c 20 9e a8 be
       -0.058902808 0.1640999 0.009156772 -0.3293314
000310 6e 7b eb 3d a6 b6 1c 3d 51 09 7b be bf d5 67 3d
       0.11498152 0.038260125 -0.24515273 0.05660033
000320 5b 2a 70 bf e7 5c 57 3c 6d 43 7f 3e 78 6c 41 bd
       -0.9381463 0.013144708 0.24928065 -0.047222584
000330 57 9a 59 be e1 1c 81 bf ab fc 28 bc aa 11 e2 bd
       -0.21250282 -1.0086938 -0.010314147 -0.110385254
000340 ce 3c db 3d ef 58 8e 3e 48 04 09 3e 25 40 80 bc
       0.10704957 0.27802226 0.1338054 -0.015655586
000350 b4 b4 24 3e 30 bf 69 be 89 80 69 3e bf 67 f4 3d
       0.16084558 -0.22826838 0.22802939 0.119338505
000360 5f a7 13 3e b1 f2 24 3d 6d 40 06 bf 15 7b 8d 3e
       0.14419316 0.04027051 -0.52442056 0.27632967
000370 11 e9 d4 bd a0 d2 d9 bd 50 6e b5 bd 02 ae 79 ba
       -0.103960164 -0.10635877 -0.08858931 -0.00095245254
000380 89 9f 06 3f 24 25 91 3d 82 70 61 3d 38 01 78 bd
       0.5258718 0.07087162 0.055038936 -0.060548037
000390 6e 91 a0 bd 6e a0 41 be bb 4f 1a bf d9 c7 26 bc
       -0.078402385 -0.18908855 -0.6027791 -0.010179483
0003a0 b3 14 90 3e ad e7 a6 3c c7 af aa 3d 9d 23 0e 3f
       0.28140792 0.020374143 0.08334308 0.5552309
0003b0 28 c8 65 bd cf 8b 3f bf 81 8b 05 3d 45 f4 51 3d
       -0.056099087 -0.74822706 0.032603744 0.051258344
0003c0 97 4b 5a 3d f5 7a 87 bd ca b0 72 3c 50 91 02 3e
       0.053294744 -0.06615249 0.014812658 0.12750745
0003d0 a2 eb 63 3e 45 e7 90 bd d1 07 69 bd 33 23 a4 3e
       0.22257856 -0.07075361 -0.05689222 0.32058105
0003e0 28 93 b3 be 1a 04 cc 3d 1b 4e e0 bc 59 76 47 bd
       -0.3507321 0.0996172 -0.027380994 -0.04869685
0003f0 08 87 d3 be 76 43 e0 be d1 e3 1f 3e 15 60 67 3d
       -0.41313958 -0.4380147 0.15614249 0.056488115

self_entity_fc2.bias f4 [32]
000000 b3 8d b7 3d 09 5d b0 3d 63 52 15 bc 7f ff 8c bd
       0.08962574 0.08611495 -0.009113881 -0.068846695
000010 e9 7d 68 3e 15 58 1a bc 05 6d 02 bd 28 64 91 3e
       0.22704281 -0.009420414 -0.03184225 0.28396726
000020 a9 8e a0 bd 69 c8 11 be c1 be da 3d 23 d7 a1 bb
       -0.0783971 -0.14236607 0.10680915 -0.0049389764
000030 7a bd 2a be c1 6b d2 3d c9 b7 4d bd 0a 1a f2 bd
       -0.16673842 0.10274459 -0.0502241 -0.11821373
000040 34 49 d5 bd 5d bd 06 be 4b 39 53 bd f8 cf bd bd
       -0.10414353 -0.13158174 -0.05156831 -0.092681825
000050 9d 24 e0 3d 6d 21 03 3e ac e8 34 3d 7c e8 3c be
       0.109444834 0.1280572 0.044167206 -0.18448061
000060 79 a5 9e 3d bb e3 f0 bc c4 31 75 bd d0 2f 22 be
       0.07746405 -0.029405465 -0.059861913 -0.15838552
000070 c4 64 c5 3d 3f ee e4 bd 80 6f b9 3d 17 be 44 3e
       0.0963836 -0.11178254 0.0905447 0.19213139
