my-submission/checkpoints/model_149248.pt (torch, 352797 bytes, 23 tensors)

local_map_cnn.0.weight f4 [32, 24, 3, 3]
-0.006250265 0.07441781 0.14494376 0.067367665 -0.006487952 0.09618862 -0.060078543 -0.09930164
0.045991514 0.0660467 -0.01325504 -0.07204619 0.090998374 0.022020083 0.13033663 0.02755125
-0.023093177 -0.21703698 -0.005150725 0.027253125 0.08414593 0.01472073 -0.11669018 -0.22835337
-0.0356733 -0.016954167 0.034921076 0.021290062 0.028340349 0.11142619 0.012505921 -0.015552322
-0.22788282 -0.04623057 -0.016654918 0.07805908 0.0034575537 0.004545543 0.037482817 0.03526795
0.035107482 0.033610832 -0.028108679 -0.013800301 0.08391288 0.072304994 0.08926748 -0.080795705
0.012972844 0.022815658 0.12208641 0.029822968 0.015724441 -0.1278248 -0.049984157 0.021547303
-0.022146314 -0.042431187 -0.058650065 -0.07838104 -0.14144571 -0.07530493 0.101448566 -0.011284206
-0.04039363 0.0004190667 0.048772484 -0.17000203 0.07418772 -0.10457771 -0.0019298462 -0.074010804
-0.020254364 -0.04068269 0.10522886 -0.046730544 -0.11092564 -0.055275675 -0.036365483 -0.06454234
-0.0062192185 -0.01744971 -0.035915583 0.009130346 0.026822196 -0.06927341 -0.10696535 0.035271596
-0.07888417 0.039880298 -0.1370758 0.059395332 0.024575979 -0.025480794 -0.0489493 -0.111724794
-0.087718785 -0.06686657 0.022471517 -0.036638767 -0.031129235 0.020712798 -0.045234535 -0.074703775
-0.06169413 0.07440002 -0.017694727 -0.050420463 -0.064475395 -0.04061489 0.07433523 0.0047889706
-0.018812507 -0.19723985 -0.046094917 -0.044700567 0.02495279 -0.011524632 0.011398069 -0.06011384
0.0035687115 0.01699259 -0.10949766 0.009626393 -0.012952472 0.038754597 0.010624214 -0.07963584
0.0034666352 0.031895537 0.015766004 0.09619371 -0.040344216 -0.07336445 -0.15393944 -0.080133624
-0.018503917 0.037985533 -0.0055679563 -0.036499478 -0.04603241 -0.02351094 0.08768922 0.19607218
0.044410627 0.068060234 0.06304851 0.060464177 -0.03889801 -0.3014433 -0.0070825266 -0.038122546
0.14798799 -0.062067807 -0.09373916 -0.06320181 -0.046346124 -0.0635548 -0.010386243 0.033883438
-0.05345716 -0.08230181 0.040126864 -0.0793463 0.20716572 -0.02365169 0.02480216 0.13858637
0.059947696 -0.06249048 0.2702246 0.13121103 -0.012414554 0.10211029 0.10170697 0.016638173
-0.029787775 0.15746216 0.24897927 0.0649759 -0.3028907 -0.15914802 -0.1843195 -0.07745452
-0.27582377 -0.16134591 -0.049224053 -0.13302639 -0.04589402 0.5375967 0.66339546 0.41222346
0.67620075 0.73188406 0.4416468 0.10254288 0.37532222 0.17864731 0.44521052 0.6164682
0.21308352 0.69911 0.79706943 0.006783508 0.062456064 0.44826198 0.27233803 0.12658705
0.071371056 0.09080465 0.09548797 0.032378674 -0.055925902 0.11471879 0.023978101 0.011203826
0.01931624 -0.051991712 0.036091626 -0.04126254 0.034962058 0.041560166 -0.06100047 0.05209948
-0.054828063 -0.014660812 0.062938236 -0.0014995958 0.039151344 0.015592121 0.017852454 0.033758134
0.09440225 0.026869934 -0.008379665 0.0035421117 0.023918577 -0.03111408 -0.05554331 0.027061488
-0.021897733 -0.012096821 0.009405393 0.013572175 0.010436586 0.05359553 0.024163602 0.051266756
0.08122173 0.029994452 0.063241415 0.036013965 0.033342924 -0.035616923 0.02182591 -0.013763643
00000000: 06cf ccbb 5d68 983d 236c 143e 0ff8 893d
00000010: e398 d4bb 8afe c43d eb14 76bd a95e cbbd
00000020: 9961 3c3d 7e43 873d ab2b 59bc f48c 93bd
00000030: 5b5d ba3d 7663 b43c f776 053e 29b3 e13c
00000040: e72d bdbc f13e 5ebe 6ac7 a8bb f241 df3c
00000050: b454 ac3d 372f 713c 43fb eebd 77d5 69be
00000060: 2b1e 12bd 77e3 8abc 6709 0f3d 7f68 ae3c
00000070: 052a e83c 6a33 e43d a2e5 4c3c 2bcf 7ebc
00000080: 1d5a 69be 445c 3dbd e56f 88bc 70dd 9f3d
00000090: 2098 623b c7f2 943b 9587 193d 2075 103d
000000a0: ddcc 0f3d 83ab 093d 2c44 e6bc a81a 62bc
000000b0: 84da ab3d a414 943d ded1 b63d 3878 a5bd
000000c0: 0d8c 543c e7e7 ba3c 7108 fa3d 4c4f f43c
000000d0: 8bd0 803c 81e4 02be 30bc 4cbd f883 b03c
000000e0: 306c b5bc 53cc 2dbd 0d3b 70bd 3d86 a0bd
000000f0: 25d7 10be 7939 9abd 44c4 cf3d 64e1 38bc
00000100: ca73 25bd 2eb6 db39 a8c5 473d 0315 2ebe
00000110: bbef 973d d72c d6bd e5f2 fcba fa92 97bd
00000120: 7bec a5bc e4a2 26bd 3b82 d73d 8768 3fbd
00000130: fb2c e3bd bf68 62bd f9f3 14bd c62e 84bd
00000140: 96ca cbbb b2f2 8ebc 381c 13bd 7297 153c
00000150: 39ba db3c 38df 8dbd a610 dbbd f378 103d
00000160: 068e a1bd 8659 233d 995d 0cbe 8548 733d
00000170: 9053 c93c 19bd d0bc 107f 48bd f8cf e4bd
00000180: e8a5 b3bd 57f1 88bd 3016 b83c 8812 16bd
00000190: bd02 ffbc e3ad a93c d947 39bd 4bfe 98bd
000001a0: fcb2 7cbd 0a5f 983d 88f4 90bc b085 4ebd
000001b0: ad0b 84bd cd5b 26bd 123d 983d ccec 9c3b
000001c0: b01c 9abc 3ef9 49be 06ce 3cbd f117 37bd
000001d0: cb69 cc3c cfd1 3cbc f7be 3a3c ee39 76bd
000001e0: 0be1 693b 0b34 8b3c 4f40 e0bd 05b8 1d3c
000001f0: 9b36 54bc 24bd 1e3d 2f11 2e3c 1e18 a3bd
00000200: 7d30 633b e5a4 023d b527 813c 3501 c53d
00000210: fa3f 25bd 1a40 96bd 4da2 1dbe 191d a4bd
00000220: 8795 97bc b896 1b3d 6773 b6bb 7a80 15bd
00000230: 7b8c 3cbd 049a c0bc 6896 b33d 25c7 483e
00000240: ebe7 353d 2a63 8b3d 941f 813d 49a9 773d
00000250: 8553 1fbd c756 9abe 8a14 e8bb 6326 1cbd
00000260: 2a8a 173e d03a 7ebd 51fa bfbd f36f 81bd
00000270: 6fd5 3dbd 0529 82bd 102b 2abc 5cc9 0a3d
00000280: e5f5 5abd da8d a8bd 115c 243d 5080 a2bd
00000290: 4023 543e 30c1 c1bc e62d cb3c 96e9 0d3e
000002a0: b78b 753d 04f6 7fbd e15a 8a3e 2f5c 063e
000002b0: 6a66 4bbc 331f d13d be4b d03d c74c 883c
000002c0: 7e05 f4bc c33d 213e 6cf4 7e3e 1612 853d
000002d0: 7d14 9bbe b3f7 22be 40be 3cbe 7aa0 9ebd
000002e0: c638 8dbe dd37 25be 299f 49bd 1238 08be
000002f0: 5efb 3bbd f09f 093f 49d4 293f f40e d33e
00000300: 7e1b 2d3f c15c 3b3f 881f e23e 0002 d23d
00000310: 3c2a c03e 52ef 363e a2f2 e33e dcd0 1d3f
00000320: 9132 5a3e dff8 323f be0c 4c3f 3148 de3b
00000330: eed1 7f3d 9882 e53e e46f 8b3e 09a0 013e
00000340: fd2a 923d caf7 b93d 328f c33d 809f 043d
00000350: 8f12 65bd aff1 ea3d b96d c43c 4190 373c
00000360: 173d 9e3c 43f5 54bd d0d4 133d e902 29bd
00000370: 6034 0f3d fe3a 2a3d a1db 79bd 4466 553d
00000380: 6493 60bd e733 70bc c3e5 803d 168e c4ba
00000390: 295d 203d 1876 7f3c 4f3f 923c f845 0a3d
000003a0: f855 c13d 561e dc3c dd4a 09bc c622 683b
000003b0: e4f0 c33c f5e2 febc 6281 63bd 0eb0 dd3c
000003c0: e062 b3bc bf31 46bc 1419 1a3c d45d 5e3c
000003d0: 37fe 2a3c fd86 5b3d bff2 c53c 17fd 513d
000003e0: 9457 a63d edb6 f53c b784 813d 6183 133d
000003f0: 9792 083d 0de3 11bd 40cc b23c e780 61bc

local_map_cnn.0.bias f4 [32]
-0.0052720425 -0.033761542 -0.015611175 -0.04682469 0.044952348 -0.0020548732 0.031248247 -0.03630568
0.012266955 -0.08946152 0.012776357 0.010246563 -0.020528888 -0.03667376 -0.0297167 -0.093278274
-0.031006042 0.040715035 0.04360705 0.031738758 -0.07002981 0.055079464 0.0031743376 -0.032499287
-0.046540756 -0.062471807 -0.048766375 -0.012309538 0.07085506 0.04183822 0.074638344 0.019428913
00000000: 19c1 acbb 8b49 0abd 04c6 7fbc 3fcb 3fbd
00000010: f41f 383d 0dab 06bb 53fc ff3c 44b5 14bd
00000020: 57fb 483c 9a37 b7bd ed53 513c 33e1 273c
00000030: 332c a8bc 3937 16bd 7070 f3bc ae08 bfbd
00000040: 6200 febc cfc4 263d 4e9d 323d 8000 023d
00000050: ca6b 8fbd 019b 613d 8c08 503b f91d 05bd
00000060: 85a1 3ebd 70e2 7fbd 40bf 47bd f2ad 49bc
00000070: 751c 913d 8e5e 2b3d fddb 983d 6229 9f3c

local_map_cnn.2.weight f4 [32, 32, 3, 3]
0.019248795 -0.023136223 -0.07288613 -0.18493012 -0.16637784 -0.03824651 -0.33965918 -0.023309002
0.025038047 -0.03491945 -0.029692292 -0.054733604 -0.03724653 -0.058609493 -0.08411641 -0.003408216
-0.06595306 -0.13581418 0.13860935 -0.052619923 0.030846346 0.15467079 0.16382557 0.20664497
-0.008863528 -0.112597056 0.001246326 0.028319225 0.18669179 0.15218969 0.11467859 0.2748788
0.18007648 -0.057608925 0.0009381948 0.047914825 0.010219067 -0.0490777 0.090963855 0.027064864
-0.20326103 -0.092427455 0.00686773 -0.09368173 0.022601375 -0.06463947 -0.07957126 0.008912182
-0.10174309 -0.19695213 -0.12156035 -0.054813974 -0.039668802 -0.015861958 -0.029590432 -0.0124823535
-0.08966077 -0.03579248 -0.046047494 -0.1109497 -0.0017849978 -0.14000918 -0.042436864 0.08729247
0.09236024 0.11871834 0.08479201 0.086722106 0.14511743 0.045715638 0.11393964 0.09333393
0.0902223 0.15997128 -0.03746123 0.055509742 -0.050717823 -0.033230435 0.04443355 -0.011868993
-0.06485155 0.05002645 0.1224986 0.076188944 0.059578616 0.1390096 0.09302547 0.03617935
0.06975374 0.064283654 -0.00965955 -0.059149876 0.032092333 0.03636497 -0.08633695 -0.0243225
0.045891173 -0.120387 0.053756867 0.13346028 0.08547437 0.14071068 -0.04284882 0.056452017
0.12967105 0.05105676 -0.055815063 0.10907446 -0.042269256 -0.005229355 -0.08273951 0.04895226
-0.055443168 -0.1518704 0.037505947 -0.08725259 -0.029774576 0.04615681 0.12195976 0.05250186
0.075003184 -0.0055731284 0.04071512 0.053588174 0.06198329 0.010994534 -0.06948719 -0.007126914
-0.025173957 -0.037233833 0.059970684 0.030875275 -0.043638963 -0.069667384 0.01713099 0.019706953
0.13712956 0.03274138 0.015703093 0.16724955 0.105548814 -0.09751844 0.062020905 0.004022351
0.08348957 0.1430781 0.054434232 0.19187486 0.22260721 0.033739533 0.09814384 0.08316245
0.0853304 0.10098605 0.06405196 0.056596056 0.0019534824 0.08154679 0.024943564 -0.018661475
0.08336353 -0.024021884 0.104411796 0.031011514 0.09950009 0.0760245 0.16876346 0.22308257
0.05742479 0.007050868 0.08764344 0.044789467 -0.024599882 0.028330512 0.17047329 0.15562342
0.14280902 0.055828832 0.1040867 0.1458925 0.031897306 0.10256205 -0.021635907 0.06944372
-0.0015032911 0.057729248 -0.07110542 -0.005386032 0.019785767 0.05046933 0.1512038 0.05014088
0.083989665 0.051315457 0.13049766 0.064023815 -0.06505827 -0.05918376 0.01837781 0.03945192
-0.0034560764 0.0075610992 0.056657355 0.044891093 0.04923669 -0.06722929 -0.03928709 0.02014609
-0.005632927 0.050052784 0.03901444 0.02900522 0.0138504645 0.07489271 -0.02748907 0.096058935
-0.06114763 0.13574333 0.013779721 0.021322392 0.20547105 0.12249589 -0.09048945 0.075538814
0.09384483 0.101105615 0.11468992 0.09725541 0.08200895 0.15373415 0.124298014 0.11932389
0.080234624 0.10057917 0.045499418 0.022812469 0.03482863 -0.30579853 0.014029263 -0.39667568
-0.057599522 0.049907465 -0.054182447 0.04278765 -0.120204695 0.10065941 -0.057458755 -0.3844347
-0.09715845 -0.11531353 -0.13079044 0.059951384 0.056878384 0.10030279 0.09748748 0.045597333
00000000: a6af 9d3c 2d88 bdbc 5345 95bd 525e 3dbe
00000010: f45e 2abe 5fa8 1cbd cfe7 adbe 85f2 bebc
00000020: 971c cd3c b207 0fbd 403d f3bc 5830 60bd
00000030: d18f 18bd 8210 70bd 3945 acbd 605c 5fbb
00000040: 6612 87bd df12 0bbe 9cef 0d3e fd87 57bd
00000050: 7ab1 fc3c 0562 1e3e e4c1 273e bd9a 533e
00000060: 5538 11bc 4999 e6bd c35b a33a b8fd e73c
00000070: 222c 3f3e 9dd7 1b3e 9cdc ea3d eabc 8c3e
00000080: f865 383e 56f7 6bbd 30f1 753a 5642 443d
00000090: e06d 273c b305 49bd 424b ba3d 22b7 dd3c
000000a0: a923 50be 9b4a bdbd b20a e13b 35dc bfbd
000000b0: 8526 b93c b361 84bd 42f6 a2bd 6704 123c
000000c0: ae5e d0bd d2ad 49be a2f4 f8bd 9e84 60bd
000000d0: c17b 22bd f0f0 81bc a267 f2bc c982 4cbc
000000e0: 11a0 b7bd 239b 12bd 4c9c 3cbd 9939 e3bd
000000f0: 96f6 e9ba 915e 0fbe 47d2 2dbd 65c6 b23d
00000100: 5e27 bd3d 9a22 f33d 6fa7 ad3d 5c9b b13d
00000110: aa99 143e 5240 3b3d 3059 e93d dc25 bf3d
00000120: 78c6 b83d 83cf 233e f270 19bd 2f5e 633d
00000130: 7ebd 4fbd a31c 08bd f4ff 353d 2a76 42bc
00000140: e4d0 84bd 89e8 4c3d 8ce0 fa3d f308 9c3d
00000150: b508 743d 8858 0e3e 2384 be3d cc30 143d
00000160: 0ddb 8e3d 26a7 833d 1743 1ebc 2447 72bd
00000170: 4073 033d 6ff3 143d 6dd1 b0bd fb3f c7bc
00000180: 62f8 3b3d 768d f6bd 2930 5c3d d0a9 083e
00000190: 300d af3d 7616 103e 3f82 2fbd 3b3a 673d
000001a0: 7dc8 043e e520 513d 569e 64bd 6e62 df3d
000001b0: 8722 2dbd 025b abbb 5573 a9bd 2a82 483d
000001c0: 6018 63bd ea83 1bbe d69f 193d 7cb1 b2bd
000001d0: d0e9 f3bc ec0e 3d3d 0ac6 f93d 310c 573d
000001e0: 459b 993d ca9e b6bb e6c4 263d 467f 5b3d
000001f0: 31e2 7d3d 6b22 343c 4d4f 8ebd e388 e9bb
00000200: 9d39 cebc 8182 18bd d2a3 753d 25ee fc3c
00000210: c5be 32bd c6ad 8ebd 4a56 8c3c 7a70 a13c
00000220: b16b 0c3e d31b 063d c6a3 803c 7743 2b3e
00000230: fa29 d83d bfb7 c7bd a209 7e3d edcd 833b
00000240: 94fc aa3d 1183 123e 6ef6 5e3d d87a 443e
00000250: 25f3 633e 7732 0a3d a3ff c83d 1351 aa3d
00000260: b4c1 ae3d c6d1 ce3d ad2d 833d 44d1 673d
00000270: ff05 003b 0102 a73d 7256 cc3c f3df 98bc
00000280: 80ba aa3d 8bc9 c4bc dad5 d53d dc0b fe3c
00000290: b4c6 cb3d bcb2 9b3d 54d0 2c3e c26f 643e
000002a0: 4236 6b3d f80a e73b 677e b33d 2975 373d
000002b0: b185 c9bc 6415 e83c 8d90 2e3e bf5b 1f3e
000002c0: 873c 123e c6ac 643d 682b d53d d864 153e
000002d0: c0a6 023d 0d0c d23d c93d b1bc 8238 8e3d
000002e0: 140a c5ba 8175 6c3d b89f 91bd 507d b0bb
000002f0: c315 a23c eeb8 4e3d 2bd5 1a3e 8660 4d3d
00000300: c602 ac3d 2830 523d 2ea1 053e eb1e 833d
00000310: 453d 85bd ac6a 72bd 108d 963c 5698 213d
00000320: 577f 62bb 19c3 f73b 8b11 683d b9df 373d
00000330: 69ac 493d 83af 89bd 80eb 20bd 6a09 a53c
00000340: 6b94 b8bb 2604 4d3d 9bcd 1f3d 5b9c ed3c
00000350: 0fed 623c 5961 993d c230 e1bc 8cba c43d
00000360: f075 7abd 4d00 0b3e 57c4 613c 4cac ae3c
00000370: 0167 523e 20df fa3d 8852 b9bd 18b4 9a3d
00000380: b831 c03d 7610 cf3d 8ce2 ea3d d82d c73d
00000390: 4ff4 a73d 7c6c 1d3e f58f fe3d 1560 f43d
000003a0: 0d52 a43d 74fc cd3d 995d 3a3d 37e1 ba3c
000003b0: 77a8 0e3d a091 9cbe feda 653c 1319 cbbe
000003c0: 7aed 6bbd c56b 4c3d 6aee 5dbd 1a42 2f3d
000003d0: e12d f6bd 8526 ce3d df59 6bbd a0d4 c4be
000003e0: 02fb c6bd 8029 ecbd eeed 05be 958f 753d
000003f0: 4ff9 683d 8d6b cd3d 84a7 c73d 45c4 3a3d

local_map_cnn.2.bias f4 [32]
-0.018032843 0.030082455 -0.010948565 0.0026233853 -0.05495157 -0.135352 0.0035973382 0.04734188
-0.024221083 -0.070382684 -0.08521815 -0.07169873 -0.1200985 0.03343314 0.041008417 0.03457798
-0.12848604 0.05522411 -0.017789105 -0.013781168 -0.07001944 -0.006379798 0.0021832576 -0.04144748
0.05779486 0.09062475 -0.064872324 -0.07817157 0.022932794 -0.0877424 -0.09701103 -0.15559982
00000000: 9db9 93bc 7b6f f63c 9c61 33bc 1aed 2b3b
00000010: e614 61bd b799 0abe 52c1 6b3b 8fe9 413d
00000020: 4b6b c6bc cc24 90bd da86 aebd c9d6 92bd
00000030: 34f6 f5bd 30f1 083d 71f8 273d a4a1 0d3d
00000040: d891 03be ad32 623d 75ba 91bc 68ca 61bc
00000050: 5a66 8fbd a00d d1bb fc14 0f3b d5c4 29bd
00000060: 4eba 6c3d 7899 b93d c8db 84bd 6b18 a0bd
00000070: 8edd bb3c 4ab2 b3bd b8ad c6bd 8f55 1fbe

local_map_cnn.4.weight f4 [32, 32, 3, 3]
-0.024613367 -0.13463734 0.059214782 0.088831335 0.0028457271 0.01319347 -0.10901061 -0.171618
-0.091474414 0.19753116 -0.08101302 0.062002007 0.010523868 -0.3062446 -0.15932609 -0.047626153
0.24897955 0.06626388 -0.005791458 -0.07167207 0.06271653 0.012323255 -0.12558535 -0.048393212
0.059660293 -0.18600695 -0.059508458 -0.021167802 -0.035786323 0.067064814 -0.05309033 -0.2718997
0.07011212 -0.045514505 -0.0963103 0.025313433 -0.020922722 0.01788089 0.055855747 0.060916103
-0.04962867 -0.034413636 0.06341537 -0.06182919 0.101578444 -0.04350142 0.036429077 0.06858345
-0.13257617 -0.09262577 0.007178948 -0.023992123 -0.15848237 -0.1479503 0.04721363 0.12392433
-0.01910218 0.05621927 -0.20867947 0.01352083 0.116948076 0.07206796 0.12366731 -0.101434186
0.009810962 -0.05829327 -0.07784749 -0.06137656 0.16109295 -0.026703315 -0.17664756 -0.2368749
-0.13421243 0.20856151 -0.029317638 0.00125705 0.24284351 0.057210047 0.093892984 -0.32694837
-0.07070216 -0.23587333 0.12125491 0.027487325 -0.03720902 -0.12573591 -0.11202484 0.05628187
-0.19833365 0.007657499 0.003011841 -0.035482183 0.12497115 -0.05696912 -0.11562303 0.048783496
0.12630524 -0.05511083 0.029216535 0.07883009 -0.10863391 0.10046322 -0.0063298703 -0.18713959
-0.004851257 -0.082857504 -0.033238918 -0.026821498 -0.024031911 -0.04085941 0.05272086 0.12804498
-0.13119471 -0.0033117859 -0.082955696 -0.15993981 0.18475722 0.07087061 0.10984871 0.068317354
0.019953465 -0.103538 0.045828372 0.049619555 -0.036301874 -0.13183896 -0.051967412 -0.10284897
0.04105802 0.040386416 -0.036087293 -0.03486163 -0.008821622 -0.24910893 -0.11933852 0.061874263
-0.15457594 0.097464174 0.025715418 -0.22689107 -0.018078035 -0.017206395 -0.25031656 -0.0327192
-0.0010724221 0.004484608 0.10777314 -0.0019749785 -0.15134868 0.03302305 0.057531133 0.043080084
0.037329968 0.12449417 -0.05016903 -0.050768174 -0.0073084976 -0.11220821 -0.043890636 -0.042161092
0.16349964 0.11622071 0.115719706 -0.05782935 0.06105732 0.0030959176 -0.07560266 -0.14283931
0.063591756 0.07152812 0.07139986 -0.007962012 0.07591556 0.20371772 0.0019916636 -0.2466878
0.037412718 -0.045925517 -0.01972841 0.04548829 -0.16152081 0.11482515 0.05559069 -0.03398685
0.09676018 -0.07842455 0.073192164 -0.19865671 0.08551085 0.058439635 -0.017709149 0.13084535
0.105248176 -0.13881451 0.048263263 0.14354886 -0.060615562 0.13124603 -0.06300409 -0.0005356271
-0.06327776 0.008797524 0.13166413 -0.0006991616 0.108177684 0.07773424 -0.17515129 0.14043342
-0.022891155 0.12452338 -0.004383449 -0.3457547 0.017640421 0.057697993 0.05212255 -0.048436526
-0.10862937 0.13434549 -0.12204824 0.011400688 -0.06263788 0.12749526 0.13255818 0.06775488
0.053601228 -0.0506311 -0.014194017 -0.07756659 0.12488416 0.109097295 0.02532661 0.072425336
0.14958964 0.15473132 -0.02933844 0.016895367 0.048147265 -0.017240109 -0.11808038 0.05214795
-0.047355313 -0.16467027 0.07416114 0.06104854 0.0422588 0.07559668 -0.029454067 -0.13138673
0.021614086 0.01954916 -0.04908133 0.08465421 -0.056881223 0.0064890767 0.039754998 0.003597911
00000000: f9a1 c9bc 5fde 09be 338b 723d 34ed b53d
00000010: 617f 3a3b 6d29 583c f440 dfbd a1bc 2fbe
00000020: f056 bbbd 9c45 4a3e 27ea a5bd d1f5 7d3d
00000030: 4d6c 2c3c 18cc 9cbe 6126 23be a413 43bd
00000040: 7ff4 7e3e 5bb5 873d 45c6 bdbb cec8 92bd
00000050: 8671 803d 7ae7 493c 7299 00be f637 46bd
00000060: 5a5e 743d 9b78 3ebe 24bf 73bd 1968 adbc
00000070: ae94 12bd 4759 893d 3f75 59bd 7036 8bbe
00000080: f196 8f3d 6b6d 3abd 563e c5bd 1e5e cf3c
00000090: 2166 abbc f27a 923c ffc8 643d 2a83 793d
000000a0: 6f47 4bbd 50f5 0cbd ebdf 813d 9b40 7dbd
000000b0: 5c08 d03d 8c2e 32bd a836 153d 7b75 8c3d
000000c0: 0cc2 07be 94b2 bdbd 613d eb3b 218b c4bc
000000d0: 3449 22be 4980 17be 1463 413d 0acc fd3d
000000e0: 2d7c 9cbc 2d46 663d 12b0 55be 7986 5d3c
000000f0: 7982 ef3d 5e98 933d 4945 fd3d babc cfbd
00000100: 28be 203c edc4 6ebd 816e 9fbd fd65 7bbd
00000110: 8df5 243e e9c0 dabc 19e3 34be 558f 72be
00000120: fc6e 09be 2691 553e 8b2b f0bc 99c3 a43a
00000130: f8ab 783e 1555 6a3d f74a c03d c765 a7be
00000140: 4bcc 90bd c788 71be 7f54 f83d 192d e13c
00000150: 7c68 18bd eac0 00be 486d e5bd d187 663d
00000160: fa17 4bbe c2eb fa3b 4f62 453b c455 11bd
00000170: e0f0 ff3d 7458 69bd c4cb ecbd 34d1 473d
00000180: 2956 013e e5bb 61bd 8457 ef3c ac71 a13d
00000190: 757b debd a9bf cd3d cd6a cfbb 85a1 3fbe
000001a0: 4bf7 9ebb 32b1 a9bd 8825 08bd c2b8 dbbc
000001b0: 92de c4bc 325c 27bd d4f1 573d 391e 033e
000001c0: e857 06be 8c0a 59bb ade4 a9bd 43c7 23be
000001d0: ff30 3d3e 9c24 913d 5cf8 e03d f8e9 8b3d
000001e0: 7375 a33c bb0b d4bd 88b6 3b3d e03d 4b3d
000001f0: 46b1 14bd cb00 07be c8db 54bd 7ba2 d2bd
00000200: 742c 283d 3a6c 253d 45d0 13bd 12cb 0ebd
00000210: 9088 10bc 6916 7fbe c167 f4bd de6f 7d3d
00000220: 2849 1ebe 4c9b c73d 24a9 d23c 2256 68be
00000230: 6318 94bc 6df4 8cbc 7e29 80be 9104 06bd
00000240: 8490 8cba 9ef3 923b 2ab8 dc3d a46e 01bb
00000250: 26fb 1abe 2d43 073d c4a5 6b3d be74 303d
00000260: 4fe7 183d cdf6 fe3d 0a7e 4dbd 4af2 4fbd
00000270: 1f7c efbb 6bcd e5bd abc6 33bd 1cb1 2cbd
00000280: 736c 273e 2005 ee3d 74fe ec3d 78de 6cbd
00000290: 3e17 7a3d e1e4 4a3b 91d5 9abd 7844 12be
000002a0: 653c 823d 567d 923d 173a 923d 1973 02bc
000002b0: 9e79 9b3d 619b 503e 9286 023b ba9b 7cbe
000002c0: 143e 193d 651c 3cbd 799d a1bc ee51 3a3d
000002d0: b665 25be 7329 eb3d 10b3 633d cc35 0bbd
000002e0: 342a c63d 0d9d a0bd c6e5 953d aa6c 4bbe
000002f0: 5020 af3d 665e 6f3d c712 91bc 53fc 053e
00000300: 5b8c d73d 6425 0ebe b3af 453d 79fe 123e
00000310: 0648 78bd 5c65 063e 4a08 81bd 5469 0cba
00000320: c597 81bd 7d23 103c f6d2 063e f147 37ba
00000330: 438c dd3d 2133 9f3d dc5a 33be c7cd 0f3e
00000340: 3b86 bbbc 1d06 ff3d 09a3 8fbb c306 b1be
00000350: a582 903c bb54 6c3d 747e 553d 6165 46bd
00000360: 1379 debd dd91 093e 6df4 f9bd f4c9 3a3c
00000370: 4a48 80bd 1e8e 023e 55bd 073e 12c3 8a3d
00000380: f68c 5b3d 8e62 4fbd 068e 68bc 3bdb 9ebd
00000390: 44c3 ff3d 676e df3d c079 cf3c bc53 943d
000003a0: 072e 193e e371 1e3e 2b57 f0bc 2768 8a3c
000003b0: 1136 453d 213b 8dbc 20d4 f1bd 1799 553d
000003c0: a5f7 41bd 539f 28be cce1 973d 090e 7a3d
000003d0: 9017 2d3d 6fd2 9a3d a849 f1bc 3e8a 06be
000003e0: 0610 b13c 8f25 a03c 8109 49bd 305f ad3d
000003f0: 49fc 68bd 52a2 d43b 23d6 223d eeca 6b3b

local_map_cnn.4.bias f4 [32]
0.066773266 -0.017665869 -0.113580085 -0.20793833 0.0029631553 -0.018438758 0.0009099231 -0.08375195
0.08503305 0.055267915 0.09496596 -0.076051295 0.09281168 0.14470406 -0.104859546 0.18274198
-0.10922008 0.076358594 0.08911191 -0.091963105 -0.09100339 0.003791456 0.030741269 -0.037283022
-0.021191096 0.0772129 -0.09549828 0.0093544265 0.029996416 0.081432626 0.02526996 0.017757652
00000000: 6cc0 883d 03b8 90bc ad9c e8bd c9ed 54be
00000010: 7f31 423b e10c 97bc e887 6e3a 2486 abbd
00000020: cf25 ae3d 9c60 623d 837d c23d c8c0 9bbd
00000030: 0d14 be3d 4d2d 143e 9ac0 d6bd b720 3b3e
00000040: c7ae dfbd e561 9c3d 4e80 b63d 2757 bcbd
00000050: fc5f babd 147a 783b 1dd5 fb3c 15b6 18bd
00000060: f398 adbc cc21 9e3d 9a94 c3bd 4f43 193c
00000070: 0bbb f53c 26c6 a63d f202 cf3c 7f78 913c

local_map_fc.weight f4 [64, 512]
-0.10508415 -0.12119238 -0.19798467 -0.17757913 -0.02240014 -0.0933716 -0.08120799 -0.025521625
-0.005588861 -0.018304374 -0.058286864 0.027865421 0.09465078 0.011114589 0.027600298 -0.14392309
-0.037402727 -0.023064805 -0.022192273 -0.0010814444 -0.057271395 -0.058754403 -0.046724234 -0.046752248
-0.017324202 0.011523036 0.0012531775 -0.04282145 -0.03519635 0.045162186 0.044383954 0.016365191
-0.12079904 0.055920295 -0.020019725 0.024849657 -0.30546874 -0.074493684 0.02167796 -0.118202664
0.038377184 -0.22648725 0.005233636 -0.08056558 0.13400258 0.016329782 0.024424817 0.054512493
0.03709721 -0.032504734 0.0011546772 0.041887727 0.025589729 0.041743252 0.07451705 -0.06704992
0.010710995 0.11075923 0.0065888255 0.035297334 0.07246477 -0.06537122 -0.038903728 0.00521176
-0.114516824 -0.1792107 -0.000588481 -0.11551445 -0.09194283 -0.06822013 0.003790648 0.021933733
0.0890534 -0.04406613 -0.019648204 -0.21141893 0.020667156 0.02759801 -0.06865044 0.07317293
-0.007441978 -0.0040587983 -0.15729757 -0.13005763 -0.042146605 -0.07533889 -0.03066281 0.13973594
-0.042713333 0.19924413 -0.088458546 0.08828406 -0.030644134 -0.027495248 -0.046879865 0.03410367
-0.10617899 0.07135479 -0.027642244 -0.054526333 -0.1152168 0.027336527 -0.059239976 0.017306322
0.002038251 0.1366288 -0.07684957 -0.073252805 0.06365904 0.023029469 0.03453599 0.009092221
-0.023784177 -0.00077922933 0.010103845 -0.041686844 -0.09426689 -0.095103174 -0.06030851 0.031539995
0.0058117565 -0.20408529 -0.15279138 -0.06396878 -0.0034421256 -0.0026888708 0.011591641 0.031574387
-0.086574644 -0.12803705 -0.08646355 -0.12612534 -0.16539678 -0.07846653 -0.19478872 0.036443863
-0.076238304 0.009805152 -0.20593175 -0.017172758 0.074650794 -0.03051842 0.027112326 -0.06988782
-0.1726141 0.01803823 -0.22054598 -0.25576574 0.03753468 -0.023869064 -0.14479654 -0.17568557
0.03311165 -0.008188879 -0.002440868 -0.13502559 -0.15277654 -0.13820484 0.038193095 -0.051302698
-0.10062394 -0.13967629 0.052253515 -0.009892677 -0.17592612 -0.041741163 -0.061799202 -0.07340546
-0.027746867 -0.11336421 0.011972408 -0.05473449 -0.11293377 -0.17281887 -0.021054475 0.017310025
0.015868206 -0.018296978 -0.057548374 0.03289891 -0.028482506 -0.08489833 -0.035465192 -0.002259072
-0.11381807 -0.15894051 -0.08114198 0.008363676 0.048537422 0.038864546 0.028552515 0.07429133
-0.097246096 -0.12563471 -0.22756481 -0.26521823 -0.057194404 -0.06895958 -0.043360867 -0.19858
0.023340957 0.038043194 0.033942208 -0.07136139 0.10491693 0.1120417 -0.033447057 0.017114365
-0.07284173 -0.17999457 -0.029470818 0.014979407 -0.04225713 -0.17566459 -0.017030075 -0.032193452
0.039077993 -0.03786873 -0.020910554 0.05841467 -0.016852707 -0.079467684 0.025094869 -0.030978037
-0.031991303 0.014833751 -0.018772548 0.07208318 0.1133182 -0.015567849 0.07402332 0.043449555
0.0016373404 -0.080880806 0.057419065 0.015160214 0.02014535 -0.063237056 0.049561467 -0.07214799
-0.13095646 -0.031069921 -0.161213 0.008740311 -0.12086952 -0.060447484 -0.19608219 -0.05302841
-0.11982564 -0.1591425 -0.0674262 -0.0066547203 -0.038974874 -0.093176916 -0.023002429 -0.13968806
00000000: 5c36 d7bd b633 f8bd 7ebc 4abe 4ed7 35be
00000010: 8080 b7bc 9c39 bfbd 6050 a6bd ba12 d1bc
00000020: c422 b7bb 0ef3 95bc 35be 6ebd 0646 e43c
00000030: 45d8 c13d f719 363c 051a e23c 9360 13be
00000040: 9a33 19bd 67f2 bcbc 92cc b5bc 41bf 8dba
00000050: 6995 6abd 75a8 70bd e961 3fbd 497f 3fbd
00000060: 7ceb 8dbc 1ecb 3c3c a941 a43a 8b65 2fbd
00000070: 0c2a 10bd fcfb 383d f3cb 353d 4b10 863c
00000080: 7d65 f7bd ae0c 653d 6800 a4bc 8291 cb3c
00000090: 6666 9cbe 2590 98bd fa95 b13c 3d14 f2bd
000000a0: 6531 1d3d 46ec 67be ec7e ab3b 91ff a4bd
000000b0: f937 093e 09c6 853c 8e16 c83c 7e48 5f3d
000000c0: 3ef3 173d af23 05bd 8a58 973a 7792 2b3d
000000d0: 8da1 d13c f9fa 2a3d 659c 983d 7851 89bd
000000e0: 2b7d 2f3c bcd5 e23d 13e7 d73b f093 103d
000000f0: 6968 943d 59e1 85bd 8459 1fbd 69c7 aa3b
00000100: cc87 eabd 0283 37be 4b44 1aba d792 ecbd
00000110: 864c bcbd ffb6 8bbd 856c 783b 5fae b33c
00000120: a161 b63d b07e 34bd 45f5 a0bc 347e 58be
00000130: 2b4e a93c 3915 e23c 9a98 8cbd b0db 953d
00000140: d6db f3bb abff 84bb 9d12 21be d42d 05be
00000150: eba1 2cbd 474b 9abd 9330 fbbc f016 0f3e
00000160: 2df4 2ebd a706 4c3e c129 b5bd 46ce b43d
00000170: 6809 fbbc b73d e1bc 1a05 40bd 4ab0 0b3d
00000180: 5f74 d9bd 7622 923d fd71 e2bc 0157 5fbd
00000190: c9f6 ebbd daf0 df3c 9ea5 72bd fdc5 8d3c
000001a0: 2d94 053b 6ce8 0b3e 4f63 9dbd 9105 96bd
000001b0: ac5f 823d 4ca8 bc3c 9c75 0d3d 8af7 143c
000001c0: 09d7 c2bc 3245 4cba 998a 253c d3bf 2abd
000001d0: 000f c1bd 74c5 c2bd 0e06 77bd 1530 013d
000001e0: 8c70 be3b bcfb 50be 5875 1cbe 1002 83bd
000001f0: 4995 61bb c437 30bb deea 3d3c 2554 013d
00000200: 0c4e b1bd 251c 03be cd13 b1bd 0027 01be
00000210: c65d 29be 0fb3 a0bd b276 47be 2946 153d
00000220: d422 9cbd caa5 203c c6df 52be e2ad 8cbc
00000230: 84e2 983d c401 fabc ab1a de3c 5821 8fbd
00000240: c0c1 30be e9c4 933c ced6 61be baf3 82be
00000250: f7bd 193d 0e89 c3bc 8b45 14be ebe6 33be
00000260: 15a0 073d a62a 06bc f8f6 1fbb 2644 0abe
00000270: 7471 1cbe 9285 0dbe 5d70 1c3d c722 52bd
00000280: ed13 cebd 4d07 0fbe c807 563d e514 22bc
00000290: fa25 34be c8f8 2abd 2921 7dbd 9a55 96bd
000002a0: 664d e3bc 7f2b e8bd eb27 443c 4631 60bd
000002b0: d249 e7bd 6ef7 30be 6f7a acbc c1cd 8d3c
000002c0: 0afe 813c 8be3 95bc d8b7 6bbd 02c1 063d
000002d0: 2554 e9bc 2ddf adbd f343 11bd f00c 14bb
000002e0: 7319 e9bd 4dc1 22be c42d a6bd cd07 093c
000002f0: 2dcf 463d 6e30 1f3d f7e6 e93c 0e26 983d
00000300: f628 c7bd 63a6 00be c006 69be afca 87be
00000310: ae44 6abd ae3a 8dbd 2a9b 31bd 8e58 4bbe
00000320: 8935 bf3c 2ed3 1b3d fc06 0b3d ec25 92bd
00000330: b0de d63d 1e76 e53d c8ff 08bd 6d33 8c3c
00000340: 0c2e 95bd 7f50 38be c96c f1bc 306c 753c
00000350: d015 2dbd 6be1 33be a882 8bbc 48dd 03bd
00000360: 3f10 203d 3e1c 1bbd 9c4c abbc 3944 6f3d
00000370: b00e 8abc f4bf a2bd c193 cd3c a7c5 fdbc
00000380: 5009 03bd 4309 733c e3c8 99bc 59a0 933d
00000390: 5f13 e83d 4b10 7fbc 8a99 973d 29f8 313d
000003a0: 079c d63a d6a4 a5bd 4130 6b3d 8c62 783c
000003b0: dc07 a53c 6e82 81bd f700 4b3d 53c2 93bd
000003c0: 7319 06be 5986 febc 0515 25be 8533 0f3c
000003d0: 708a f7bd c897 77bd c5c9 48be 5134 59bd
000003e0: 2567 f5bd 40f6 22be bf16 8abd d70f dabb
000003f0: 1ea4 1fbd 8ad3 bebd 976f bcbc 630a 0fbe

local_map_fc.bias f4 [64]
-0.061511897 -0.105160564 0.033847317 -0.06347914 -0.059950024 -0.060267985 -0.062623136 0.08855059
-0.019030692 -0.057631813 -0.05062065 -0.032740287 0.106427915 -0.018451663 -0.031801783 0.09544874
0.028053649 0.0030174311 -0.08351537 0.013142029 -0.07651073 -0.12076341 0.0385784 0.062352907
-0.04018005 -0.05802516 0.025671527 -0.017400365 0.036026638 0.06474071 -0.013877104 -0.09684428
0.03250992 0.006435119 -0.024975808 -0.031874932 -0.05151649 0.113023266 0.12989856 0.024087042
-0.06445096 -0.003003642 0.022220207 0.11247478 0.06571249 0.064517386 -0.053443924 0.013080081
-0.041261043 -0.01945487 -0.030016392 -0.055652484 -0.0020226133 -0.046977405 -0.051274464 0.0625696
0.0031120074 -0.16259547 -0.006038849 -0.052620888 -0.033345565 0.07969591 0.07174205 0.09252495
00000000: e6f3 7bbd 6c5e d7bd 7ca3 0a3d 5a01 82bd
00000010: 288e 75bd 90db 76bd 8f40 80bd 035a b53d
00000020: 41e6 9bbc 560f 6cbd 9957 4fbd ae1a 06bd
00000030: e1f6 d93d f127 97bc 9642 02bd a17a c33d
00000040: c4d0 e53c 18c0 453b 1b0a abbd aa51 573c
00000050: a8b1 9cbd cf52 f7bd 6204 1e3d c365 7f3d
00000060: d693 24bd caab 6dbd 184d d23c 368b 8ebc
00000070: ab90 133d c796 843d cb5c 63bc 4b56 c6bd
00000080: 1f29 053d b1dd d23b 119a ccbc 4a8f 02bd
00000090: f402 53bd be78 e73d 2104 053e 3052 c53c
000000a0: ddfe 83bd c0d8 44bb 2707 b63c 2d59 e63d
000000b0: 4594 863d b121 843d 04e8 5abd d64d 563c
000000c0: 5701 29bd d25f 9fbc f0e4 f5bc dcf3 63bd
000000d0: d28d 04bb 616b 40bd 2c05 52bd 7e24 803d
000000e0: d2f2 4b3b 6d7f 26be 89e1 c5bb 0089 57bd
000000f0: 5c95 08bd 9c37 a33d 7fed 923d b97d bd3d

self_entity_fc1.weight f4 [32, 26]
0.23127113 0.037008997 -0.019429313 0.023102358 -0.059485868 0.21101332 -0.0364689 -0.54343456
-0.018555772 -0.10451688 -0.13366033 -0.42532876 0.15325193 -0.16861482 0.18532643 0.12153327
-0.24496807 -0.044982217 0.06813195 0.03344665 -0.09466627 0.29351977 -0.1381174 0.1846682
-0.0025296868 0.052354816 -0.34817654 -0.093660474 0.016284171 0.16701564 0.15725864 -0.14592494
0.08905791 -0.2889983 -0.058741298 -0.05345346 -0.1219413 0.022492906 0.036557723 0.06681904
0.19193454 0.118422575 0.12418656 0.0015445778 -0.06939447 -0.0034702118 -0.061054677 0.07273038
-0.04583029 -0.016256167 0.0879735 0.18860671 -0.023805609 -0.059931375 0.058371503 -0.12736319
0.11417541 -0.4364479 -0.2546675 0.09983338 0.13558388 -0.023865525 -0.4339872 -0.053471368
-0.07706155 0.09090521 0.05686487 0.21209686 0.01321502 0.09234548 0.022251604 0.140796
0.08172628 0.09944892 0.17980045 -0.10809524 -0.039984453 -0.13354373 -0.11662706 -0.0442669
0.12574998 -0.06949323 -0.08486937 0.08644337 0.08385557 -0.046932407 0.73005515 0.297279
0.08756888 -0.07956052 0.029816372 0.2459473 -0.0024301603 -0.14731021 0.19601366 0.23563825
-0.11860245 -0.040728092 0.2673888 -0.05492269 -0.15332116 0.03820102 -0.110016264 0.13369043
-0.16898832 0.03651574 0.0059030578 -0.133546 0.14189656 0.053361814 -0.0015806322 -0.28866637
0.042337842 0.15821457 0.4177529 0.22681588 0.15254743 0.109348334 -0.16320607 0.0751577
0.23611477 0.34453988 -0.11436514 -0.044542626 0.047488224 -0.06608385 -0.059175998 -0.02327878
-0.11358514 -0.10326105 0.072765775 0.11936791 0.21494094 0.077213146 0.06104149 -0.06627486
0.14567767 -0.5213901 0.19022529 -0.004703343 0.045623466 0.32359394 0.15689379 0.123929106
0.02936214 -0.20178515 0.068295196 -0.016463859 -0.16297148 -0.20262028 -0.1844669 -0.14081094
-0.12671897 -0.18234152 0.061289426 0.09666513 -0.04578908 -0.14303517 -0.0003904618 0.12645383
0.096972026 -0.0626551 -0.042346563 -0.24649028 0.08766775 -0.0509447 -0.25152168 0.02977639
-0.73706114 0.060884453 0.08168961 0.040287472 -0.33518535 -0.09127067 0.052111346 0.026495134
-0.045157723 0.18619475 0.1282283 -0.09197671 0.0074946093 -0.12567064 0.19538948 0.007302415
-0.007910279 0.02948407 -0.046450336 -0.12936196 0.0992562 0.043007854 -0.5475237 0.14947382
-0.15169087 0.24165624 0.09674904 0.120628625 0.08353336 0.23546173 0.110473976 0.2004398
-0.049454167 0.10848959 0.050386757 0.17636919 0.0064963554 -0.072329395 0.090831265 -0.14028168
-0.006710696 -0.11858522 -0.00998973 0.0943554 -0.025835652 -0.0813779 0.04590484 0.4676779
0.07695942 0.058094878 -0.62086713 -0.11144187 -0.13390212 0.1037195 0.17396896 0.1330463
0.12180823 -0.17164104 -0.08008388 -0.083623156 -0.0843868 0.15835959 0.096485905 -0.058057997
-0.13567328 -0.13360727 -0.18667826 -0.20132324 -0.049891476 0.076390594 -0.077779494 -0.35960585
-0.4001431 0.1585456 -0.12597756 -0.05860751 0.1476261 0.17129488 0.07727494 -0.06753574
0.07106283 0.101073325 -0.04394241 -0.11053154 0.06048942 -0.07430399 0.00034051304 0.25910428
00000000: 57d2 6c3e bf96 173d 392a 9fbc 2841 bd3c
00000010: 74a7 73bd e013 583e 6a60 15bd 871e 0bbf
00000020: 4602 98bc f20c d6bd 41de 08be b1c4 d9be
00000030: 13ee 1c3e 5da9 2cbe 36c6 3d3e 6fe6 f83d
00000040: e9d8 7abe 463f 38bd c488 8b3d 5bff 083d
00000050: 64e0 c1bd 3948 963e a66e 0dbe a919 3d3e
00000060: 1ac9 25bb 0172 563d 3244 b2be 10d1 bfbd
00000070: 6266 853c 2606 2b3e 6908 213e 596d 15be
00000080: fe63 b63d 96f7 93be b79a 70bd 04f2 5abd
00000090: 5cbc f9bd 0b43 b83c 8dbd 153d 6cd8 883d
000000a0: 7d8a 443e 8987 f23d 8655 fe3d 6e73 ca3a
000000b0: b01e 8ebd 7e6c 63bb 7814 7abd aaf3 943d
000000c0: 8bb8 3bbd a72b 85bc 732b b43d 1e22 413e
000000d0: fb03 c3bc 9a7a 75bd f516 6f3d 7f6b 02be
000000e0: ccd4 e93d 1976 dfbe c763 82be 7175 cc3d
000000f0: 80d6 0a3e a281 c3bc 9233 debe cb04 5bbd
00000100: 72d2 9dbd 832c ba3d 23eb 683d eb2f 593e
00000110: d083 583c a11f bd3d ff48 b63c d42c 103e
00000120: 1c60 a73d e0ab cb3d 9c1d 383e 0a61 ddbd
00000130: bdc6 23bd b0bf 08be 2bda eebd 3551 35bd
00000140: 9ac4 003e 7752 8ebd fecf adbd 3909 b13d
00000150: 78bc ab3d 323c 40bd e5e4 3a3f f434 983e
00000160: 5057 b33d a0f0 a2bd 7741 f43c 9cd9 7b3e
00000170: 5343 1fbb 7dd8 16be ceb7 483e 274b 713e
00000180: d7e5 f2bd 80d2 26bd 2fe7 883e 9df6 60bd
00000190: 3900 1dbe ac78 1c3d 3550 e1bd 25e6 083e
000001a0: 460b 2dbe 8791 153d 706e c13b 48c0 08be
000001b0: 554d 113e eb91 5a3d 372d cfba 14cc 93be
000001c0: 726a 2d3d 0003 223e b5e3 d53e 6c42 683e
000001d0: 6535 1c3e 05f2 df3d 7e1f 27be 48ec 993d
000001e0: 12c8 713e 8867 b03e 4538 eabd 5472 36bd
000001f0: 0383 423d f856 87bd 8862 72bd 24b3 bebc
00000200: 539f e8bd 887a d3bd 3906 953d 2a77 f43d
00000210: 7a19 5c3e ed21 9e3d a406 7a3d 1dbb 87bd
00000220: 872c 153e d279 05bf 6bca 423e 801e 9abb
00000230: acdf 3a3d 1bae a53e c4a8 203e 8bce fd3d
00000240: df88 f03c c4a0 4ebe 5ade 8b3d 37df 86bc
00000250: ffe1 26be b17b 4fbe e4e4 3cbe be30 10be
00000260: 9ec2 01be bcb7 3abe 9f0a 7b3d 5ef8 c53d
00000270: 558d 3bbd d077 12be e5b6 ccb9 1d7d 013e
00000280: 4599 c63d 5151 80bd 9773 2dbd f367 7cbe
00000290: 268b b33d 64ab 50bd 73c7 80be 9eed f33c
000002a0: 0ab0 3cbf fa61 793d e24c a73d 7a04 253d
000002b0: 6a9d abbe 1eec babd b572 553d 530c d93c
000002c0: 4ef7 38bd d6a9 3e3e 484e 033e 495e bcbd
000002d0: 5795 f53b ceaf 00be 2e14 483e 1949 ef3b
000002e0: 1d9a 01bc 9488 f13c b542 3ebd 7677 04be
000002f0: d646 cb3d 0129 303d 832a 0cbf aa0f 193e
00000300: da54 1bbe bc74 773e 5c24 c63d 240c f73d
00000310: 8a13 ab3d e11c 713e 2e40 e23d 1740 4d3e
00000320: 7490 4abd ca2f de3d 5862 4e3d 209a 343e
00000330: 61df d43b 6f21 94bd be05 ba3d 00a6 0fbe
00000340: 66e5 dbbb cfdc f2bd f7ab 23bc 673d c13d
00000350: 4aa5 d3bc 75a9 a6bd b706 3c3d 7a73 ef3e
00000360: e79c 9d3d e5f4 6d3d 26f1 1ebf a33b e4bd
00000370: a31d 09be e46a d43d eb24 323e 4a3d 083e
00000380: 9876 f93d abc2 2fbe 0403 a4bd 9e42 abbd
00000390: fdd2 acbd 0429 223e 679a c53d 39ce 6dbd
000003a0: f0ed 0abe 58d0 08be 9628 3fbe ae27 4ebe
000003b0: 015b 4cbd ac72 9c3d db4a 9fbd 421e b8be
000003c0: 8edf ccbe c759 223e 4300 01be 6e0e 70bd
000003d0: 4c2b 173e ed67 2f3e 5342 9e3d 2e50 8abd
000003e0: 6489 913d 88ff ce3d f5fc 33bd 5c5e e2bd
000003f0: c1c3 773d b12c 98bd e386 b239 51a9 843e

self_entity_fc1.bias f4 [32]
-0.04012132 0.25690418 0.027158646 -0.22025733 -0.04618478 -0.10526021 0.21985145 0.11280251
0.21789418 0.13326746 0.06363743 0.21653469 0.036119662 -0.06452949 -0.101559214 -0.023653155
0.13673903 0.15339833 0.2103451 0.04734075 0.2113808 0.09944068 0.22594246 -0.085214235
0.23008682 0.09938681 -0.20803359 0.028213354 0.318894 0.43638825 -0.062479865 0.06372232
00000000: 4156 24bd f288 833e cf7b de3c 238b 61be
00000010: 402c 3dbd aa92 d7bd bd20 613e 0105 e73d
00000020: a71f 5f3e 4477 083e 5754 823d 45bb 5d3e
00000030: 36f2 133d 0a28 84bd 47fe cfbd 43c4 c1bc
00000040: 5105 0c3e 7414 1d3e b564 573e 60e8 413d
00000050: 3574 583e 8ea7 cb3d 765d 673e cd84 aebd
00000060: e19b 6b3e 508b cb3d c206 55be b11f e73c
00000070: 1346 a33e 486e df3e e3ea 7fbd d980 823d

self_entity_fc2.weight f4 [32, 32]
-0.09459647 0.1233398 0.43360645 -0.4079202 0.18064927 0.08820147 -0.16873056 0.19184545
-0.5406342 -0.047153633 0.063552245 -0.15621102 -0.11032961 0.21638338 -0.3532237 0.042812463
0.04857038 0.15938981 0.07926722 0.069243155 -0.009976282 -0.0033654028 -0.0847038 0.22406034
-0.003600156 0.10282345 -0.39814103 0.21607353 0.4539562 0.45338273 0.23791443 -0.043130662
0.26021773 0.083211645 -0.044601902 0.032336947 -0.52213645 -0.101950176 0.63656336 -0.08663835
0.48574206 0.038496733 0.289454 0.4868686 -0.014454506 -0.3756419 0.12183955 0.14893009
0.22235079 -0.05828695 0.02241945 -0.11850249 0.06030108 0.11334124 -0.13018611 -0.13524221
-0.21779715 0.073925644 -0.07420743 -0.07431697 -0.43954843 -0.4966652 0.04823844 -0.11014349
-0.09772624 -0.023374267 -0.45495602 -0.26770958 0.22088742 -0.13488038 -0.09611784 0.13357028
-1.1759492 0.018843377 0.09143252 0.017651185 -0.059813473 -0.5143651 -0.33158216 0.10083025
0.06221739 0.12746081 0.27745184 -0.20102146 0.05874411 0.08046474 0.09090188 0.2093759
0.095239095 0.21388108 -0.3853619 -0.035450257 0.10314018 -0.05123976 0.064777434 -0.0062042014
0.030260278 -0.14280958 -0.4874377 0.09938452 0.16075537 0.21768352 -0.040737543 -0.3860719
-0.49540284 -0.24662745 -0.5376019 -6.774172e-05 0.28619918 -0.6553766 0.3076306 0.12666953
0.05962358 0.24387425 -0.4164418 0.0015927656 -0.14238602 -0.23387353 -0.08725821 -0.07404261
0.025578931 -0.08738679 0.22010683 -0.4547786 0.14106627 0.10869397 -0.16634168 0.17469734
0.35752234 0.10500383 -0.11179164 -0.018762324 -0.35105675 -0.105931625 0.19700012 -0.1494732
0.3922276 -0.053266842 0.22010788 0.53511715 0.1582432 -0.47444555 -0.041235924 0.21050806
0.20552585 -0.018338861 -0.024317607 -0.045663472 0.27971745 0.01976565 -0.025513463 0.14160496
-0.35457566 0.082002945 0.07421136 0.032893047 -0.31752488 -0.40014276 0.058958367 0.008909326
0.13128546 0.31207764 0.44424286 -0.062490907 0.16362761 -0.037493624 0.14647338 0.082553655
0.90156865 -0.1696412 0.30303517 0.20782505 -0.21946527 0.5453818 0.18145819 0.18864961
0.21137132 -0.014009631 0.036703594 0.11532793 0.08427472 -0.09788447 0.091329776 0.0014218178
0.24899307 -0.14578335 -0.21098278 0.07384083 -0.1886751 -0.37318587 -0.009705995 -0.1733587
-0.059316114 0.1856886 0.124534346 -0.33427763 0.0883835 0.06177322 -0.39118204 0.022151994
-1.1689366 0.015455221 0.2194596 -0.14523694 -0.21257828 -0.42967582 -0.036536645 -0.108071186
0.11573914 0.22707902 0.11940376 0.09318208 0.17161964 -0.10489334 0.21569668 0.11508316
0.10512103 0.041671526 -0.47462097 0.28084874 0.030285327 -0.06323885 -0.021464068 0.018606864
0.40477076 0.0025945066 0.08885987 -0.04234956 -0.052374993 -0.17260166 -0.2477497 0.025851393
0.30474308 0.032852322 0.07582356 0.50739324 0.023573063 -0.48677137 0.029657828 0.08600532
0.030477902 -0.10357854 0.066433564 0.021226868 0.13136269 -0.11728386 -0.039583996 0.24727833
-0.28227428 0.04381174 -0.01902818 -0.049010996 -0.35608348 -0.2945439 0.07651958 0.06809633
00000000: cbbb c1bd 9499 fc3d aa01 de3e ebda d0be
00000010: 1ffc 383e f9a2 b43d b4c7 2cbe 2273 443e
00000020: 0167 0abf 2b24 41bd ae27 823d c8f5 1fbe
00000030: 7ef4 e1bd 9b93 5d3e bdd9 b4be 1f5c 2f3d
00000040: bcf1 463d 1537 233e da56 a23d 5bcf 8d3d
00000050: 8f73 23bc 178e 5cbb 3079 adbd 1370 653e
00000060: 98f0 6bbb 1a95 d23d 24d9 cbbe 6142 5d3e
00000070: f26c e83e c821 e83e d79f 733e c7a9 30bd
00000080: 423b 853e de6a aa3d 7cb0 36bd bf73 043d
00000090: bcaa 05bf 41cb d0bd d1f5 223f 726f b1bd
000000a0: 2fb3 f83e c0ae 1d3d 5133 943e d746 f93e
000000b0: 98d2 6cbc 2354 c0be 0487 f93d 2181 183e
000000c0: edaf 633e 4cbe 6ebd ffa8 b73c 6fb1 f2bd
000000d0: 44fe 763d 741f e83d 824f 05be ef7c 0abe
000000e0: 3706 5fbe 5466 973d 11fa 97bd 7f33 98bd
000000f0: 7e0c e1be e74a febe ac95 453d e992 e1bd
00000100: b224 c8bd 647b bfbc ffef e8be 3b11 89be
00000110: 5030 623e 151e 0abe 6ed9 c4bd a6c6 083e
00000120: 8185 96bf 6d5d 9a3c f940 bb3d 3899 903c
00000130: f9fe 74bd 6ead 03bf 23c5 a9be 1780 ce3d
00000140: a9d7 7e3d 1685 023e 2b0e 8e3e 92d8 4dbe
00000150: aa9d 703d b3ca a43d c42a ba3d a366 563e
00000160: b70c c33d a403 5b3e 284e c5be 4a34 11bd
00000170: 293b d33d c8e0 51bd 08aa 843d 9d4c cbbb
00000180: 67e4 f73c ad3c 12be 6f91 f9be 1c8a cb3d
00000190: 0e9d 243e 6ee8 5e3e 69dc 26bd 37ab c5be
000001a0: 71a5 fdbe e88b 7cbe 47a0 09bf 8f10 8eb8
000001b0: b388 923e c3c6 27bf c281 9d3e a8b5 013e
000001c0: db37 743d 2cba 793e dc37 d5be 58c4 d03a
000001d0: a4cd 11be 8b7c 6fbe 6fb4 b2bd a7a3 97bd
000001e0: e88a d13c d8f7 b2bd af63 613e bed8 e8be
000001f0: ad73 103e f29a de3d 7955 2abe dce3 323e
00000200: 2b0d b73e 3f0c d73d 04f3 e4bd 72b3 99bc
00000210: b6bd b3be aef2 d8bd 66ba 493e 810f 19be
00000220: 0ed2 c83e 552e 5abd f663 613e 70fd 083f
00000230: 810a 223e 87ea f2be 00e7 28bd 6d8f 573e
00000240: 5e75 523e 613b 96bc b835 c7bc 9f09 3bbd
00000250: 2037 8f3e 93eb a13c 9c01 d1bc e400 113e
00000260: f18a b5be 29f1 a73d 20fc 973d dcba 063d
00000270: 9f92 a2be 83df ccbe 547e 713d 6cf8 113c
00000280: b26f 063e a4c8 9f3e cd73 e33e 77f6 7fbd
00000290: ff8d 273e ea92 19bd 1efd 153e e411 a93d
000002a0: 34cd 663f 6cb6 2dbe 6d27 9b3e 17d0 543e
000002b0: 81bb 60be 249e 0b3f 2dd0 393e 5d2d 413e
000002c0: b971 583e a788 65bc 8256 163d 0d31 ec3d
000002d0: 3998 ac3d a777 c8bd 1b0b bb3d 4a5c ba3a
000002e0: 0af8 7e3e 3b48 15be df0b 58be dc39 973d
000002f0: 0c34 41be 3812 bfbe e505 1fbc f184 31be
00000300: 74f5 72bd 2725 3e3e dd0b ff3d 7026 abbe
00000310: 6902 b53d ea05 7d3d 0349 c8be 1978 b53c
00000320: b79f 95bf e537 7d3c 04ba 603e feb8 14be
00000330: 1fae 59be 78fe dbbe 73a7 15bd 6d54 ddbd
00000340: a408 ed3d 6787 683e f589 f43d 3fd6 be3d
00000350: 0fbd 2f3e 52d2 d6bd 97df 5c3e b8b0 eb3d
00000360: b249 d73d c3af 2a3d 8501 f3be 68cb 8f3e
00000370: ef18 f83c 5f83 81bd 6ad5 afbc 6c6d 983c
00000380: 1d3e cf3e 9908 2a3b 2afc b53d bb76 2dbd
00000390: 2987 56bd 7dbe 30be 19b2 7dbe 4dc6 d33c
000003a0: 4907 9c3e 2890 063d 6249 9b3d 86e4 013f
000003b0: 4c1c c13c 193a f9be f9f4 f23c 8f23 b03d
000003c0: cbac f93c fc20 d4bd 520e 883d f8e3 ad3c
000003d0: f183 063e 8532 f0bd d422 22bd 8836 7d3e
000003e0: 4186 90be f073 333d fce0 9bbc c1bf 48bd
000003f0: 9350 b6be 75ce 96be 4cb6 9c3d 1776 8b3d

self_entity_fc2.bias f4 [32]
0.09642837 0.08573111 0.043521047 -0.06514472 0.16721018 -0.041363683 -0.03033448 0.2557681
-0.058751307 -0.1281114 0.19353366 0.008882756 -0.13654923 0.17626047 -0.013325461 -0.11821373
-0.1001555 -0.13721167 -0.05156831 -0.11207072 0.16378231 0.14689332 0.021036258 -0.17363115
0.09684783 -0.05087331 -0.07632581 -0.08827447 0.09718691 -0.053278506 0.10420977 0.16065761
00000000: 3d7c c53d cb93 af3d 2043 323d 986a 85bd
00000010: 2539 2b3e f76c 29bd 0480 f8bc 09f4 823e
00000020: 36a5 70bd a32f 03be b02d 463e fb88 113c
00000030: 90d3 0bbe a07d 343e 0953 5abc 0a1a f2bd
00000040: 541e cdbd 3781 0cbe 4b39 53bd 5585 e5bd
00000050: 8db6 273e 346b 163e 3b54 ac3c 5dcc 31be
00000060: 2858 c63d 8860 50bd b550 9cbd 3fc9 b4bd
00000070: ee09 c73d 903a 5abd ef6b d53d 6e83 243e

other_entity_fc1.weight f4 [32, 26]
0.08937493 -0.22983943 0.0456346 -0.07807907 -0.34127364 -0.17163354 -0.3271583 -0.5239084
0.0030612291 -0.25257048 0.16707607 0.012107998 -0.14900838 -0.02844308 0.019024307 -0.052809644
-0.16784148 -0.1306581 -0.16556478 0.10949883 0.07174974 0.11242753 -0.04892282 -0.14636065
0.0066104797 0.5573503 0.09398362 0.21892776 -0.04715222 -0.04900957 -0.15705985 0.1794298
-0.15209754 -0.85214347 -0.05749763 0.2257419 0.0984958 0.2054352 0.14916517 0.017255355
-0.07663197 -0.06365612 0.112944454 -0.0454782 0.03881863 0.19517697 -0.100998305 0.05760398
-0.29392067 -0.0052360394 -0.1391833 -0.3510341 0.12670974 0.036316656 0.046893284 -0.17326494
-0.067397386 -0.23791051 0.13490404 0.06432535 0.09119744 0.19146244 -0.14874001 -0.2315755
0.030654639 -0.032880325 0.07684287 -0.0029209666 0.077578895 -0.1399715 -0.04746535 -0.19701415
-0.21762183 0.07881249 0.20534705 0.18993522 -0.08881662 -0.057212286 -0.038677804 -0.0510464
-0.17497136 0.14508694 -0.024653232 0.057951186 -0.19799349 0.78632563 0.1894287 -0.10999372
-0.11739647 -0.06768048 0.16618931 -0.12522642 -0.22360605 0.11571374 0.08364327 0.036464494
-0.0692337 0.012546076 0.040968068 0.09952521 -0.4208436 0.18827704 -0.00879018 -0.23270331
0.0554986 -0.19339669 -0.1609396 -0.5814004 -0.13441724 -0.26450098 0.1613675 0.013375015
-0.6842774 -0.3788273 0.0075030345 -0.01983555 0.0143150175 -0.06655046 0.0021882567 0.20559552
-0.06412007 0.10688025 0.114715636 0.21835314 -0.14264277 0.093137495 0.18918367 -0.23133348
0.23487934 -0.069254585 -0.030599495 0.14633426 0.09527473 -0.0972838 0.0443598 0.26455447
-0.16417702 -0.41833436 0.3040035 0.16701217 -0.118198834 -0.21310833 -0.27101597 0.11891725
-0.16508333 0.019553477 0.14011165 0.00023721777 -0.025850235 -0.13756092 -0.15596887 -0.1452901
0.19871879 0.013691392 0.07843569 0.28978106 -0.35002196 -0.01768032 0.20645396 -0.1180456
0.064603746 0.120585866 -0.16690895 0.18739352 0.13605227 0.044883482 -0.76803553 0.061039254
0.051582593 0.09425632 0.13285843 0.053603537 0.051587403 -0.0539823 -0.018188441 0.048695166
0.0029273105 0.15638492 0.0653215 -0.09963414 -0.13985567 -0.21249078 0.110332526 -0.16422488
0.009624907 -0.06275503 0.117150605 0.009665873 0.12267063 0.28418544 -0.45464233 -0.41910604
0.030189248 -0.1040917 0.029339163 -0.27275887 -0.10806457 0.08133523 -0.076830864 -0.031705894
0.1455618 -0.054103363 0.07584078 -0.09753609 -0.19385794 0.0305617 -0.34324512 0.2879877
-0.109793335 0.075057074 -0.015776712 0.017809784 -0.025180122 0.14809024 -0.47640875 -0.2647892
-0.1670713 -0.124961086 0.136479 -0.048513114 0.123564675 -0.128544 0.013998682 0.11067439
-0.13194343 0.13507405 0.0020008483 -0.007843657 -0.02858741 0.024647262 -0.10158014 -0.13457067
0.35460928 0.19580641 -0.33714828 -0.05787941 0.1663062 0.052425798 -0.1262249 -0.050297756
-0.027381433 -0.38059396 -0.12988868 0.09387751 -0.06786864 0.023014573 -0.10818605 0.056358323
0.08273215 0.079308055 0.008633108 -0.0020991853 0.04319041 -0.0512891 -0.0005103076 -0.06267611
00000000: 340a b73d 075b 6bbe 59eb 3a3d ebe7 9fbd
00000010: 6bbb aebe b4c0 2fbe 4b81 a7be dc1e 06bf
00000020: e79e 483b eb50 81be fd15 2b3e a060 463c
00000030: a795 18be 7601 e9bc ddd8 9b3c ed4e 58bd
00000040: a3de 2bbe 3dcb 05be d089 29be ec40 e03d
00000050: 87f1 923d 6840 e63d 4b63 48bd 91df 15be
00000060: b99c d83b 82ae 0e3f 7c7a c03d 992e 603e
00000070: b022 41bd 42be 48bd 4cd4 20be 72bc 373e
00000080: 75bf 1bbe 1326 5abf a382 6bbd e228 673e
00000090: 2ab8 c93d 9b5d 523e c1be 183e 1a5b 8d3c
000000a0: 39f1 9cbd 245e 82bd 6c4f e73d 5947 3abd
000000b0: 4900 1f3d 79dc 473e 33d8 cebd 27f2 6b3d
000000c0: c57c 96be 1593 abbb 1186 0ebe beba b3be
000000d0: 33c0 013e c6c0 143d 2c13 403d 5d6c 31be
000000e0: a407 8abd d09e 73be 4924 0a3e 02bd 833d
000000f0: b9c5 ba3d bb0e 443e 4d4f 18be 2122 6dbe
00000100: 701f fb3c 85ad 06bd cb5f 9d3d b06d 3fbb
00000110: afe1 9e3d b054 0fbe 076b 42bd 14be 49be
00000120: 42d8 5ebe 7168 a13d 7f46 523e 617e 423e
00000130: 7de5 b5bd 6e57 6abd 9e6c 1ebd 0816 51bd
00000140: b12b 33be ac91 143e 93f5 c9bc 395e 6d3d
00000150: cebe 4abe a34c 493f 99f9 413e 6344 e1bd
00000160: 8f6d f0bd 109c 8abd 882d 2a3e 5b3b 00be
00000170: fcf8 64be 53fb ec3d 2a4d ab3d cb5b 153d
00000180: 66ca 8dbd 0f8e 4d3c 22ce 273d e0d3 cb3d
00000190: d078 d7be b2cb 403e b004 10bc c749 6ebe
000001a0: 8052 633d c809 46be 5acd 24be a8d6 14bf
000001b0: aca4 09be ac6c 87be 863d 253e e122 5b3c
000001c0: ce2c 2fbf a7f5 c1be 04dc f53b 2a7e a2bc
000001d0: 8989 6a3c 9c4b 88bd db68 0f3b a287 523e
000001e0: 6251 83bd 08e4 da3d 08f0 ea3d f797 5f3e
000001f0: f210 12be dfbe be3d 5db9 413e afe2 6cbe
00000200: 3684 703e 59d5 8dbd cbab fabc a6d8 153e
00000210: 661f c33d bb3c c7bd 9fb2 353d af73 873e
00000220: 051e 28be ec2f d6be 59a6 9b3e 3d05 2b3e
00000230: 3b12 f2bd 1239 5abe 9bc2 8abe e38a f33d
00000240: 9b0b 29be 9d2e a03c 6e79 0f3e a9bd 7839
00000250: dfc3 d3bc c5dc 0cbe 4eb6 1fbe eec6 14be
00000260: f07c 4b3e dc51 603c e4a2 a03d 2f5e 943e
00000270: 1436 b3be 52d6 90bc ab68 533e e4c1 f1bd
00000280: f84e 843d b9f5 f63d 2eea 2abe 16e4 3f3e
00000290: 4951 0b3e bed7 373d fa9d 44bf 4c04 7a3d
000002a0: 4548 533d 7509 c13d 0a0c 083e 628f 5b3d
000002b0: 504d 533d 8b1c 5dbd edff 94bc 9574 473d
000002c0: 1fd8 3f3b 5e23 203e 47c7 853d fc0c ccbd
000002d0: 5336 0fbe 2f97 59be 05f6 e13d 912a 28be
000002e0: c9b1 1d3c b685 80bd a8ec ef3d 9c5d 1e3c
000002f0: bd3a fb3d c180 913e e1c6 e8be 1195 d6be
00000300: 714f f73c 072e d5bd af58 f03c 0da7 8bbe
00000310: f550 ddbd 1693 a63d 8059 9dbd 0ade 01bd
00000320: 270e 153e 7d9b 5dbd 6952 9b3d 00c1 c7bd
00000330: b282 46be 885c fa3c d3bd afbe 2073 933e
00000340: 54db e0bd 86b7 993d 2a3e 81bc d3e5 913c
00000350: 8b46 cebc f8a4 173e d9eb f3be 7392 87be
00000360: bd14 2bbe 99eb ffbd 27c1 0b3e b0b5 46bd
00000370: 7a0f fd3d 0aa1 03be ba5a 653c 41a9 e23d
00000380: 2e1c 07be da50 0a3e aa20 033b af82 00bc
00000390: 2530 eabc 0ee9 c93c 4009 d0bd e5cc 09be
000003a0: 598f b53e 7a81 483e b39e acbe f612 6dbd
000003b0: 2c4c 2a3e 6fbc 563d 1a41 01be 0505 4ebd
000003c0: 074f e0bc 36dd c2be 8a01 05be da42 c03d
000003d0: b7fe 8abd 0f89 bc3c a690 ddbd fcd7 663d
000003e0: 796f a93d 436c a23d e171 0d3c 7c92 09bb
000003f0: 6de8 303d 8514 52bd 2ac6 05ba 555c 80bd

other_entity_fc1.bias f4 [32]
-0.11632027 -0.163475 -0.10523286 -0.012019638 -0.039041203 -0.2796589 -0.101091966 -0.07293781
-0.009113988 0.01904843 0.028988557 0.044772003 -0.022965172 -0.12148344 0.009346401 -0.1790486
-0.019447833 0.09635782 -0.066174574 -0.1910311 0.0019372768 -0.10603852 -0.024770943 0.0060069486
0.05780828 0.09706291 -0.05331744 -0.07904401 -0.0004332092 -0.029609902 0.06553696 -0.058339342
00000000: 5239 eebd fe65 27be 5384 d7bd 04ee 44bc
00000010: abe9 1fbd 742f 8fbe 4e09 cfbd 6b60 95bd
00000020: d652 15bc 740b 9c3c 6979 ed3c d962 373d
00000030: 7521 bcbc 4fcc f8bd a621 193c 8458 37be
00000040: 1051 9fbc 4057 c53d 8986 87bd a89d 43be
00000050: 39ec fd3a b92a d9bd 6fec cabc f0d5 c43b
00000060: 60c8 6c3d ebc8 c63d 6363 5abd d3e1 a1bd
00000070: 5b20 e3b9 7790 f2bc 3e38 863d 3cf5 6ebd
