my-submission/checkpoints/model_132864.pt (torch, 352797 bytes, 23 tensors)

local_map_cnn.0.weight f4 [32, 24, 3, 3]
000000 bb e3 da bd 42 84 20 3b 31 10 e6 3d 13 9b f4 3b
       -0.106879674 0.0024492894 0.11233557 0.0074647753
000010 ba c5 6f bd 6c c7 7d 3d 40 90 ae bd e4 08 b6 bd
       -0.058538176 0.06195776 -0.08523607 -0.088884145
000020 61 45 b7 3d 12 a5 88 3d 3e 46 cd bc 17 43 16 be
       0.0894878 0.0667211 -0.025057908 -0.1467403
000030 d3 48 cb 3d 9d 02 cd 3b e1 ea 0d 3e 82 61 09 bc
       0.099259995 0.006256415 0.1385913 -0.008385064
000040 f4 30 d0 3a 4e 82 25 be 0b ac 05 bd c0 ef 4f 3c
       0.001588373 -0.16162989 -0.032634776 0.012691438
000050 60 c3 02 3e c2 6c a5 3c 31 cc ac bd 78 9f c5 be
       0.12769842 0.020193461 -0.08437384 -0.38598228
000060 c0 35 db bc 18 9f e8 bc 84 28 63 3d 14 68 6d 3c
       -0.026759028 -0.028396174 0.05545856 0.014490146
000070 00 b7 74 3c a5 5e fa 3d 87 f4 1c bd 0f 43 b6 bd
       0.014936209 0.12225083 -0.038319137 -0.08899509
000080 16 ea ad be df 9d d8 bd 98 a1 ee bd aa aa e3 bb
       -0.33967656 -0.105769865 -0.11651915 -0.006947835
000090 f9 05 0f bd 6c 8e 16 bd e8 bc 8b 3d b7 cc fa 3a
       -0.034917805 -0.036756918 0.068231404 0.0019134496
0000a0 26 96 4c 3c ac f1 b8 3c a1 fe 2d bc 26 9d 7f bd
       0.01248697 0.022576176 -0.01061979 -0.062405728
0000b0 d4 8b af 3d 39 63 8a 3d 16 01 ae 3d d9 2a 24 be
       0.08571592 0.067572065 0.08496301 -0.1603197
0000c0 46 47 ee 3c ca 81 e0 3c 37 14 2d 3e 9d 38 0e 3c
       0.02908672 0.027405638 0.16902243 0.00868049
0000d0 31 a8 cd 3c dc ef 8d be bc 3d 9a bd 84 2b 31 bd
       0.025104614 -0.2772206 -0.07531306 -0.04325439
0000e0 44 1b f4 bd f7 27 5e bd 0a f4 42 be 90 b9 31 be
       -0.11919263 -0.054237332 -0.19038406 -0.17355943
0000f0 07 8c 98 bd 19 fd b7 bd 4c 4e 50 3d d0 dc 0d bd
       -0.07448583 -0.089838214 0.05085592 -0.03463441
000100 ef 66 3b bd 1b cc 90 3c 64 8e 89 bc bc 8c 32 be
       -0.045752462 0.01767545 -0.01679153 -0.17436498
000110 3f dd f0 bd f3 26 a4 bd a2 36 86 bd 64 8c 59 bc
       -0.11760949 -0.080152415 -0.06553389 -0.013278101
000120 e0 ce 57 bd 5a f3 59 3d 60 b8 bd 3d 8d 97 04 be
       -0.052687526 0.053210594 0.09263682 -0.12948437
000130 68 dc 86 be e6 55 dd bd 5c ed b8 bd 13 e7 02 bd
       -0.26340032 -0.108073995 -0.09029648 -0.03195865
000140 c0 f4 62 3d 92 6d d7 bc 59 1e 35 bb 36 0f 95 bc
       0.055409193 -0.026297364 -0.0027636497 -0.01819573
000150 7a 77 ac 3c e3 37 2e bd be 50 8e be 70 54 b6 3d
       0.021053065 -0.042533766 -0.27795976 0.08902824
000160 ae e6 cb bd 24 63 6c 3d 30 af ef bd 08 9c 02 3e
       -0.09956108 0.057711735 -0.11703336 0.12754834
000170 c0 20 10 bb 13 bf 5d bd f0 3c 00 be 33 b5 ad be
       -0.0021992177 -0.0541373 -0.12523246 -0.33927307
000180 ee 32 4d bd a9 87 97 bd 6d 27 ac 3c 07 48 d6 bd
       -0.0500974 -0.07398922 0.021014893 -0.10462957
000190 bf b6 b4 bd c6 90 55 bb 51 78 4d be af 9d 1a be
       -0.088239186 -0.0032587512 -0.20065428 -0.15099214
0001a0 f4 4e 1a be df c8 10 bc 82 1e c8 bd 35 a9 8e bd
       -0.1506918 -0.008836954 -0.09771444 -0.069658674
0001b0 db c7 e0 bc eb 3b d8 bc e5 f3 b4 3d e0 59 45 be
       -0.027439049 -0.026395759 0.08835582 -0.19272566
0001c0 47 2d e3 bd a7 d6 96 be fe 0e bb bd cc 08 2c be
       -0.1109262 -0.29460642 -0.09133719 -0.1680023
0001d0 aa 1a fb 3b 4b a3 f8 3c c0 8b e5 bc 21 52 bd 3d
       0.0076630907 0.030351302 -0.02802074 0.092441805
0001e0 8a 70 17 bd 7e d2 d4 3c 95 f7 3f be 7c 17 1c be
       -0.03697256 0.025979277 -0.18746789 -0.15243334
0001f0 9a 4c 23 bd ff f9 52 3d 48 5f c3 bc 9d 70 0c bd
       -0.039867975 0.051507946 -0.023849145 -0.034287084
000200 3c e2 0b be c1 41 05 3d cc 7c 23 bd 7c 8e 04 3e
       -0.1366052 0.03253341 -0.039913937 0.12944978
000210 c6 11 a0 bd ef f9 6c 3c d3 8b 20 be d6 13 10 bc
       -0.0781589 0.014463886 -0.15678339 -0.008793792
000220 e7 a7 c1 bc db 00 11 3e 83 d2 9e 3d e8 21 8c bb
       -0.023639632 0.14160483 0.07754996 -0.004276503
000230 e9 c1 02 be 39 56 d7 bc a6 62 fb 3c 2f a0 61 3e
       -0.12769283 -0.026286231 0.030686688 0.22033761
000240 84 2a 88 3d f4 0f bf 3d ec b3 1a 3e 66 83 b4 3c
       0.06648734 0.09329215 0.15107697 0.022035312
000250 b8 06 87 bd 56 0d 0a bf 97 a4 18 3d f9 d9 76 bd
       -0.065930784 -0.539266 0.03726634 -0.06026647
000260 40 51 3b 3e 27 49 39 bd a0 76 90 bd a3 7e 90 bd
       0.18292713 -0.04523578 -0.07053876 -0.07055404
000270 45 34 28 bd 5c 59 4a bd c6 7d 96 bc f3 15 11 3d
       -0.041065473 -0.049401626 -0.01837052 0.035421323
000280 66 84 42 bd 20 75 14 be 8e a2 19 3e fc af 6d bd
       -0.047489546 -0.14497805 0.15003416 -0.05802916
000290 89 1f 98 3e 20 88 a8 bb ea 58 48 bc 7f 65 e4 3e
       0.2971156 -0.0051431805 -0.01222823 0.44608685
0002a0 76 d3 59 3e 32 b1 8c 3d 6a 49 b7 3e ce 80 26 bc
       0.21272072 0.06869735 0.35798198 -0.010162545
0002b0 8e fb 03 3d ca e5 1a 3d 20 f5 da 3c 71 e1 9e bd
       0.032222323 0.0378168 0.026728213 -0.07757843
0002c0 29 2b cd 3d 4f 74 50 3c 5a 60 03 3e 42 65 09 3c
       0.10017998 0.012723043 0.12829724 0.008385958
0002d0 a2 87 32 be 0e b0 fc bd d1 8f 6f bd 8d 50 e3 3c
       -0.17434552 -0.12338267 -0.058486763 0.02774837
0002e0 40 4f 62 be 27 25 19 be ff 39 09 be b6 1c e0 bd
       -0.22100544 -0.14955579 -0.1340103 -0.10942976
0002f0 1f 0f b6 3c 1c fc e7 3e 66 a4 20 3f fb ed 9f 3e
       0.022224007 0.45309532 0.6275085 0.31236252
000300 72 f0 2c 3f 19 50 15 3f 79 53 e4 3e ec ed 72 bd
       0.6755439 0.58325344 0.44594935 -0.05930893
000310 c2 d1 85 3e fd 61 b3 3d b3 ab fb 3e ff 2d 07 3f
       0.26136595 0.08758924 0.49154434 0.5280456
000320 4a ee 45 3d fd 07 36 3f 20 79 3f 3f a8 39 47 3d
       0.048322953 0.7110594 0.747942 0.04863897
000330 be b3 03 3e de 6d d1 3e ae 2a ac 3e 1f e6 25 3e
       0.12861535 0.40904135 0.33626312 0.16201065
000340 ec 04 9b 3d 7a cc be 3d 2f 57 c7 3d cb 9d 19 3b
       0.07569298 0.093163446 0.09733426 0.002344
000350 d3 0a b2 bd 95 80 c6 3d 7f 70 a7 bc 50 27 0c bd
       -0.08693471 0.09692494 -0.020439385 -0.03421718
000360 a4 b1 61 3d 46 a4 97 bb a5 22 a2 3d d4 4a 0b bd
       0.055101052 -0.004627737 0.07916764 -0.03400691
000370 e7 96 6b 3d be 14 79 3d ad 80 52 bd e0 ea 8b 3d
       0.05751696 0.060810797 -0.051392246 0.06831908
000380 3f 44 43 bd c5 41 0e 3c 48 70 80 3d 21 a6 70 bb
       -0.047672506 0.008682673 0.06271416 -0.0036720114
000390 ec 8a 5f 3d 62 16 dc 3c 74 97 6d 3c c9 8a 63 3d
       0.054575846 0.026866142 0.014501441 0.055552278
0003a0 90 df cc 3d e5 97 cb 3c 8d d2 43 bc 53 a5 12 3b
       0.10003579 0.024852702 -0.011952055 0.0022376373
0003b0 6e 31 2a 3d ce 54 04 bd 56 76 6e bd 4c d0 ef 3c
       0.041551046 -0.03230744 -0.058218323 0.029274128
0003c0 8d 9a 2f bc f3 db 20 bc d0 ca 41 3c b9 14 03 3d
       -0.010718 -0.009818065 0.011828139 0.032002185
0003d0 f5 ee 87 3a a2 cc f9 3c ad 28 21 3d 53 2b 27 3d
       0.0010370897 0.030493084 0.039345432 0.0408128
0003e0 8a bc aa 3d 31 ad aa 3c 02 34 5e 3d ee 25 21 3d
       0.08336742 0.020834537 0.054248817 0.039342813
0003f0 80 72 81 3d 68 53 fb 3c 28 8b 65 3d ba f3 a7 bc
       0.06320667 0.03067942 0.056040913 -0.02050196

local_map_cnn.0.bias f4 [32]
000000 82 33 2c 39 2b 9c 17 bd c4 21 90 bc d9 62 a8 bd
       0.00016422386 -0.037014168 -0.017594226 -0.08221979
000010 e6 3c 22 3d 59 32 66 3c b1 21 bc 3c 39 cd 35 bd
       0.03960886 0.01405009 0.022965284 -0.04438517
000020 ab 6b 87 3c 99 10 c5 bd 4f b7 d7 3b 1e cc 51 bc
       0.016530832 -0.096223064 0.0065831314 -0.012805013
000030 2e 55 d5 bc 92 a9 15 bd 31 f3 1a bd 89 1d 04 be
       -0.026041593 -0.036538668 -0.03782958 -0.12901892
000040 36 68 01 bd cf 3f 42 3d 15 db fe 3c 9e e4 64 3d
       -0.031593524 0.047424134 0.031110326 0.05588209
000050 7d 48 a8 bd 89 94 97 3d be 5f 8a 3a f1 36 48 bd
       -0.08216951 0.07401378 0.0010557098 -0.04888052
000060 58 14 96 bd b3 bb 84 bd 16 62 55 bd d6 87 79 bc
       -0.07328099 -0.06481113 -0.052095495 -0.01523014
000070 24 99 73 3d 09 75 39 3d f7 f8 ac 3d 74 a1 f4 3b
       0.05947222 0.04527763 0.08445924 0.007465536

local_map_cnn.2.weight f4 [32, 32, 3, 3]
000000 53 29 03 3e 71 9d b6 bc 6e 01 e9 bd 0f 68 f0 bd
       0.12808733 -0.02229187 -0.11377226 -0.117385976
000010 45 fb ee bd 14 36 a3 3d 5b a1 b5 be 38 80 19 bd
       -0.116690196 0.07969299 -0.35474667 -0.037475795
000020 5e 77 29 bc c0 b5 04 bd 1b 3e a6 bd f4 2a 3e bd
       -0.010343401 -0.032399893 -0.081173144 -0.046427682
000030 60 51 39 bd 39 35 87 bd 04 7a 8a bd 91 b3 5a 3c
       -0.04524362 -0.06601948 -0.06761554 0.013348476
000040 83 57 61 bd 56 2a de bd 83 4c be 3d 87 19 d3 bd
       -0.0550151 -0.10847919 0.09291937 -0.10307603
000050 06 d1 62 3c 20 e7 28 3e 6e 34 19 3e aa 14 32 3e
       0.01384378 0.16494417 0.14961407 0.17390695
000060 43 9f 85 bd bd 8d 0b be a2 28 67 bc f0 79 ba 3b
       -0.065245174 -0.13628288 -0.014108809 0.0056908056
000070 82 07 43 3e 5e 70 00 3e 01 6c 8c 3d 53 c8 74 3e
       0.19045833 0.12542865 0.068565376 0.23904543
000080 bf 10 44 3e 60 80 ff bd 9b 27 06 bd 26 da f9 3d
       0.19147013 -0.124756575 -0.032752614 0.12199812
000090 10 dd 52 bc 49 9d 85 bd 3b 6b 44 3d 0b 37 92 3c
       -0.012870088 -0.065241404 0.047953825 0.017848512
0000a0 0f 50 7a be c3 ee 92 bd 67 23 fc ba 83 b0 1f be
       -0.24444602 -0.071744464 -0.0019236625 -0.15594678
0000b0 99 ae e3 bc 73 96 ca bd 83 d7 d7 bd d5 9e c1 3b
       -0.027793216 -0.09891977 -0.105391525 0.005908827
0000c0 5d a2 28 bd 84 13 61 be 90 3b b7 bd c4 3b 66 bc
       -0.041170467 -0.21980101 -0.089469075 -0.014052335
0000d0 b0 f5 23 bd 3b 2f 1d 3d f0 19 f8 bc 4c 75 0e bd
       -0.040029228 0.03837512 -0.030285805 -0.03477983
0000e0 f8 16 5e bd 4b 3c 03 bd 84 c3 dc bc e7 23 bd bd
       -0.054221123 -0.03203992 -0.026948698 -0.092353635
0000f0 f2 10 da bc 59 d5 02 be 15 e9 af bc 09 62 c9 3d
       -0.026619408 -0.12776698 -0.021473447 0.09833152
000100 22 fd b7 3d 0d 6a f3 3d 6f d9 aa 3d dc 34 f6 3d
       0.08983828 0.11885462 0.083422534 0.12021801
000110 7b 80 21 3e 1d b9 20 3d c6 89 de 3d 7e 10 13 3e
       0.15771668 0.039239038 0.10866122 0.1436176
000120 c2 6a 07 3e ac e7 62 3e 4e 0c 9b bd 27 1a f6 3d
       0.13224319 0.22158688 -0.07570706 0.12016707
000130 2d 62 b8 bd ab b3 59 bd d7 03 d0 3d 4d 83 be bc
       -0.090031005 -0.05314986 0.101569824 -0.023255968
000140 4c 16 8d bd d0 20 29 3d 3d 5d c9 3d a1 27 21 3d
       -0.068890184 0.041291058 0.09832237 0.039344434
000150 1d 3f 77 3d 1d 6e c0 3d bb d1 9e 3d 0d b5 f5 bc
       0.060362924 0.093960024 0.07754847 -0.029993558
000160 68 10 21 3d c5 f4 27 3d 31 9b 85 bc db b5 53 bd
       0.039322287 0.041004915 -0.016309353 -0.051687103
000170 fe c5 61 3d 48 4a 30 3d 10 a0 f7 bd 10 70 0d bd
       0.05512046 0.04303959 -0.120910764 -0.0345307
000180 2b dc 25 bd de 0e 1f be ff 75 89 3d 24 b1 75 3e
       -0.04049317 -0.15533015 0.06711959 0.23993355
000190 fb 0e c6 3c 7a 20 51 3e 94 94 cf 3c 68 2f 94 3d
       0.024177065 0.20422545 0.025339402 0.072356045
0001a0 e0 59 f3 3d db c0 4d 3d 9c 5b 3b bd 06 09 d0 3d
       0.11882377 0.05023275 -0.045741662 0.10157971
0001b0 6c c4 99 bd 91 83 6e 3d 45 9e 5b bb 3e 29 1b 3e
       -0.075081676 0.05823094 -0.0033511084 0.15152451
0001c0 1d e9 b3 3c 5d dc 20 be d0 14 03 3d ad bb 63 bd
       0.021961743 -0.15709062 0.03200227 -0.055598903
0001d0 1f 6b ed 3c 3d db 28 3d 60 da 04 3e 85 10 53 3d
       0.028981743 0.041224707 0.12973928 0.051529426
0001e0 4d 00 85 3d 46 83 3a bc cf 6e eb 3c b9 3a 07 3d
       0.06494198 -0.011383837 0.028739361 0.033014987
0001f0 6e 79 91 3d 2c 33 33 3d 91 14 57 bd 63 cc c2 bc
       0.07103239 0.043749973 -0.052509848 -0.0237791
000200 38 53 1a bd e1 00 ff bd 79 dc d3 bc f4 68 07 3c
       -0.03767702 -0.124513395 -0.025861965 0.008264769
000210 66 cd e9 bd e4 6b ba bd 77 6e cd 3c 6e 30 c0 3c
       -0.1141613 -0.0910261 0.025077088 0.023460593
000220 0c 34 9d 3d 2b ba 82 bd 71 ac 6a bd e1 98 5e 3d
       0.07675943 -0.06383165 -0.05729336 0.054345015
000230 06 4f 22 3d a4 c7 62 be e5 44 25 3c cb d2 bf bc
       0.039626144 -0.2214647 0.0100872265 -0.023415944
000240 63 2f 89 3d 3a 72 1b 3e f3 2f 3c 3d ee 36 21 3e
       0.066984914 0.15180293 0.045944165 0.1574361
000250 bf 55 69 3e d0 2e e5 3c 23 d2 b9 3c d6 2e 9f 3d
       0.22786616 0.027976424 0.022683209 0.07772605
000260 ed d1 1b 3e 1d e4 b4 3d 5e 09 7d 3d 59 62 15 3d
       0.15216799 0.08832572 0.06177651 0.036470745
000270 c5 19 2e 3d 5c ef e2 3d 29 26 40 3d 7d 59 d3 bc
       0.042505044 0.110808104 0.046911392 -0.025799507
000280 84 ba c1 3d ca e4 49 39 03 8b 89 3d 6f cb 2d bd
       0.09459403 0.00019254084 0.067159675 -0.042430338
000290 fc 4a 87 3d f6 ff aa 3c 61 a8 85 3d 4e f9 26 3e
       0.06606099 0.020874005 0.06526256 0.1630604
0002a0 56 f4 63 bc 9f d2 97 bd a8 3f ae 3d 88 f9 31 3d
       -0.013913235 -0.0741322 0.08508235 0.043450862
0002b0 f1 17 89 bd 5f 1f 1c 3d 43 14 08 3e f6 0f 40 3e
       -0.066940196 0.038115855 0.13288979 0.18756089
0002c0 cf ee d9 3d 7d 48 ea 3c 58 38 92 3d 9f e4 27 3e
       0.10641252 0.028599018 0.07139653 0.16395806
0002d0 a7 a3 1c bc db b7 b4 3d 5c 91 88 bb 8c c3 d2 3d
       -0.009560502 0.0882413 -0.004167719 0.10291204
0002e0 b7 a8 a9 3b 64 3b b9 3d 06 bb 03 be 6e a8 d5 bc
       0.005177583 0.09044531 -0.12864313 -0.02608129
0002f0 a4 a6 37 3d fb 40 b6 3d 5b 61 27 3e ea 00 a4 3b
       0.044836655 0.08899113 0.16345732 0.005004992
000300 aa a1 6a 3c 76 d7 d1 3c fe d1 6f 3d d7 7f ae 3c
       0.01432077 0.025615435 0.058549874 0.021301193
000310 24 e7 a7 bd 44 f3 da bd 8a e8 6a 3d 95 47 53 3d
       -0.081983835 -0.106909305 0.057350673 0.051581938
000320 6a 5c 73 3c ef ac fc 3c 8f 0a 4c 3d d6 f7 b8 3d
       0.014853576 0.03084418 0.049814757 0.09031646
000330 e0 ec 10 3d eb 8d 36 bd 36 54 a5 bc 80 f1 01 3c
       0.03538215 -0.044568937 -0.020181756 0.007931113
000340 a4 49 24 bd c1 62 e4 3c 02 de af 3c 3e 35 7c bd
       -0.04010929 0.02787912 0.021468166 -0.061574213
000350 bf ad af 3c bf 87 85 3d a8 50 2c 3c 87 fe 76 3d
       0.021445153 0.06520032 0.010517277 0.06030133
000360 dc 35 de bd c5 dc eb 3d 80 59 5f bd ea 29 12 bd
       -0.108501166 0.11516718 -0.054528713 -0.035684504
000370 52 f2 18 3e 77 da 88 3c 89 13 36 be 7c c3 0e 3c
       0.14936188 0.016705735 -0.1778089 0.008713599
000380 8f 1a c1 3d a6 6a ee 3d 83 b9 ae 3d 87 88 e1 3d
       0.09428894 0.11641435 0.08531477 0.11012369
000390 79 72 86 3d 59 ff 23 3e 38 f6 f9 3d 01 66 a8 3d
       0.06564803 0.16015376 0.122051656 0.08222581
0003a0 7d c9 25 3d f5 1b 19 3e ba f2 76 bc 7a 9a c4 bd
       0.040475357 0.14952071 -0.015072519 -0.095997766
0003b0 30 f2 87 bd b5 53 87 be 07 32 2d 3d 07 8b cc be
       -0.066379905 -0.2643105 0.042284038 -0.3994982
0003c0 da e8 44 bd ec 3a 99 bd 9e f9 79 bd 09 12 1c 3c
       -0.048073627 -0.074819416 -0.06102907 0.009525784
0003d0 4c 25 53 be db d5 07 3d d6 75 5c be 60 af d1 be
       -0.20619696 0.033162933 -0.21529326 -0.40954113
0003e0 3a 51 a3 bd 02 a4 03 be 37 bf 3e bd b0 3e a1 bc
       -0.07974477 -0.12855533 -0.046569075 -0.019683212
0003f0 41 d6 46 3d b1 c3 a9 3d cf 6b dc 3d 6c c3 36 3d
       0.048544172 0.08289278 0.1076275 0.044619963

local_map_cnn.2.bias f4 [32]
000000 c7 6d 6b bc b9 8f 01 3d 5f ff 01 bc d9 d2 9f bb
       -0.014369435 0.031631205 -0.00793442 -0.00487743
000010 33 67 73 bd 91 77 2f be e8 44 df bc 4b e0 cf 3c
       -0.05942459 -0.17135455 -0.027254537 0.025375506
000020 a9 66 8a bd 16 54 af bd 77 92 0e be a4 0f ad bd
       -0.06757862 -0.0856096 -0.1392306 -0.08450249
000030 a6 ee 46 be 41 df 32 3d 99 fa 3d 3d b0 c4 bb 3d
       -0.19426975 0.043669943 0.046381567 0.091683745
000040 a5 d9 66 be 2d ea 93 3c 0b c2 75 bd ea cd 60 bd
       -0.22543962 0.018056 -0.059999507 -0.054883875
000050 70 ae 72 bd c4 47 f2 bc f7 04 12 3b 2e a0 b0 bd
       -0.059248388 -0.029575236 0.0022280791 -0.08624302
000060 00 d5 04 3d cc d7 c1 3d f3 fc 09 be 8d 36 18 be
       0.032429695 0.09464988 -0.13475399 -0.1486456
000070 30 e9 e0 3c d5 0e f6 bd e6 30 02 be 6b e9 60 be
       0.027454942 -0.12014548 -0.12713966 -0.21964042

local_map_cnn.4.weight f4 [32, 32, 3, 3]
000000 ad 80 d6 bb 2b aa 1e be 4f 2c be 3c d9 89 d5 3d
       -0.006546101 -0.15494601 0.023214487 0.10426683
000010 99 81 a3 3c 97 b2 43 bc 75 f2 1a be 51 07 74 be
       0.019959258 -0.011944435 -0.15131553 -0.23830916
000020 b3 da 1e be fd ff 17 3e 02 ad 31 bd 01 13 ee bb
       -0.15513115 0.14843746 -0.043377884 -0.007265449
000030 7b f2 c4 3c 1d 3d dc be 58 d4 57 be f6 99 06 be
       0.024041405 -0.43015376 -0.21077096 -0.13144669
000040 f0 0d 98 3e 59 e8 43 3d 8f 40 b2 bd b2 28 00 be
       0.29698133 0.047829006 -0.0870372 -0.12515524
000050 d0 07 37 3d ad 10 2a bd 37 52 0d be dd 91 a2 bd
       0.044685185 -0.04151981 -0.13800894 -0.079379775
000060 09 71 3c 3d 73 d0 bb be 8e 76 25 bc a8 3a 94 bd
       0.046006236 -0.36682472 -0.010099066 -0.0723775
000070 33 82 cd bd 70 5d 66 3d 71 5a 68 bd ad d4 c9 be
       -0.10034599 0.056241453 -0.056726877 -0.3942007
000080 9a d7 82 3d 66 0b c3 bd 73 50 29 be b9 8c 21 bd
       0.06388779 -0.095236585 -0.16534595 -0.039440844
000090 12 85 72 3d 27 90 5c 3d 29 4b 8d 3d 6e f9 62 3d
       0.059208937 0.053848412 0.06899101 0.055413656
0000a0 7b 8a de bc 0e a4 29 bd 0f 7b b7 3d 7e ff b9 bd
       -0.027165642 -0.04141622 0.089590184 -0.090819344
0000b0 89 fd c7 3d db 15 6f bd 63 d7 04 3e 19 c3 93 3d
       0.09765155 -0.058370452 0.12972789 0.07214946
0000c0 7a f2 e4 bd 35 f5 07 be a0 bf 74 bc 9c e8 b5 bc
       -0.11179061 -0.13277133 -0.014938265 -0.022205643
0000d0 7e ee 8d bd 6a d0 16 be 68 a9 c6 3c bc c6 03 3e
       -0.069302544 -0.14727941 0.024250701 0.1286878
0000e0 44 a2 17 bc c8 28 35 3d cc ef 87 be a0 af 35 3d
       -0.009254996 0.044228345 -0.26550138 0.044356942
0000f0 1f 06 ca 3d 74 d0 ca 3d 4b de 1a 3e 28 01 95 bd
       0.09864449 0.099030405 0.1512386 -0.07275611
000100 a8 ba 23 3c 6e 84 8b bc d5 d9 d7 bd 60 62 30 3c
       0.009993233 -0.01703092 -0.10539595 0.010765642
000110 7b 0f 25 3e e6 b0 8e bd 8f 16 1c be 66 36 83 be
       0.16119187 -0.069673344 -0.1524298 -0.2562744
000120 34 9c c1 bc 41 46 33 3e d7 8a 7e bd e2 67 a1 3d
       -0.023634054 0.17507268 -0.062144127 0.07881142
000130 d4 82 a6 3e 28 83 4a bd 37 25 8f 3c 41 62 ca be
       0.3252169 -0.049441487 0.0174738 -0.39528087
000140 52 9d 26 3c fb 63 aa be aa 7e 23 3e eb 12 28 bd
       0.010169344 -0.33279404 0.15966287 -0.041033667
000150 ed db 87 bb 33 7c 81 bd ee 82 54 be a3 21 cd 3c
       -0.0041460902 -0.06322517 -0.2075307 0.025040453
000160 04 43 2d be 43 91 74 3d 61 b8 1e 3d e4 ce a5 3d
       -0.16920096 0.059708845 0.038750056 0.08096102
000170 b0 5e 5d 3e af 37 0d bd 6a 93 be bd ae c2 4f 3c
       0.21618152 -0.034476932 -0.09305461 0.012680693
000180 a8 34 ad 3d 41 2d 51 bc 7e 01 f6 3d ce b1 2b 3e
       0.08457309 -0.012767137 0.12012003 0.16767046
000190 6e b5 42 bd f6 2a 97 3d 69 6e a6 bc 49 53 e7 bd
       -0.047536306 0.07381241 -0.02031632 -0.11295182
0001a0 c1 9a 30 39 f3 4d d8 bd 03 d9 b1 bb 95 e1 01 bd
       0.00016842318 -0.10561743 -0.005427481 -0.031709272
0001b0 31 33 3f 3c 09 fa 47 3b 76 a4 b8 3d 30 23 19 3e
       0.01166992 0.0030514023 0.090157434 0.14954829
0001c0 21 4c 00 be 27 1d d4 bb ef 3e 9d bd c2 92 1f be
       -0.12529041 -0.006473202 -0.07678019 -0.15583327
0001d0 3c 4d 45 3e b7 bc f9 3d 9d b8 b5 3d c2 b8 c3 3d
       0.19267744 0.121941976 0.08873103 0.09556724
0001e0 ca 27 8c 3d 71 68 25 be fd b3 c2 bc 22 78 26 3c
       0.06843527 -0.16153122 -0.023767466 0.010160478
0001f0 f2 7e 5d bd 21 cf fb bd 7b 93 74 bc 5e f2 e0 bd
       -0.054076143 -0.12295366 -0.01492774 -0.10983728
000200 e2 c3 8f bb ab 8e de 3d 54 fc 4d bd 68 71 e3 bd
       -0.0043873647 0.108670555 -0.050289467 -0.11105615
000210 1f f5 b4 bb 17 73 90 be 13 9c 24 be a5 fe 90 3d
       -0.005522385 -0.28212807 -0.16075163 0.070798196
000220 4b 96 21 be 70 93 bc 3d cc d6 ad bc d9 b9 ae be
       -0.15779988 0.09207809 -0.021220587 -0.34126166
000230 d0 c6 20 be 0e e6 91 bd ad c8 cd be 8d 01 3b be
       -0.15700841 -0.071239576 -0.40192166 -0.1826231
000240 fb 50 90 bd f2 64 e7 3c 17 2d 39 3e c3 3f ba bc
       -0.07046696 0.028246377 0.18083607 -0.022735482
000250 1c bf 1c be 01 db 48 3d c4 97 05 3c 7d b7 62 3d
       -0.15307277 0.049036983 0.0081538595 0.05535077
000260 4f 10 1b 3d 90 b8 e1 3d 46 89 00 bd ab cf ac bd
       0.03785735 0.11021531 -0.031380914 -0.08438047
000270 73 a0 ab bb 53 e6 05 be 7c b1 95 bd c6 5f a6 bd
       -0.005237633 -0.13076143 -0.07309243 -0.08123736
000280 4e 98 0c 3e ed 91 7a 3d b7 86 b6 3d e2 db d5 bd
       0.13729975 0.061174322 0.089124136 -0.1044233
000290 d9 53 00 bd 6e 03 89 bd 6d b4 a0 bd a0 f2 3f be
       -0.031329963 -0.06690107 -0.078469135 -0.18744898
0002a0 80 4e c9 3c 5e 04 13 3d 28 20 ac bb e9 b6 a9 bc
       0.024573565 0.035892837 -0.0052528568 -0.020717101
0002b0 64 04 b8 3d 25 53 88 3e 99 44 0c 3d 51 26 b4 be
       0.089852124 0.26625934 0.034245107 -0.35185483
0002c0 07 fc 65 bd d3 b6 ac bc 0f 49 c3 3d 76 69 a5 3d
       -0.056148555 -0.021083271 0.09535419 0.08076756
0002d0 a4 7e 5d be c2 52 d9 3d 47 74 35 3d 9a 41 e4 bd
       -0.21630341 0.10611488 0.044300344 -0.11145325
0002e0 32 a5 1a 3d 98 ba 62 bd 06 f6 d0 3b 4c 34 d5 bd
       0.0377552 -0.05535373 0.0063769845 -0.104103655
0002f0 6e e0 0c 3e 02 c4 81 3c 98 01 34 bd 3a 8c d8 3d
       0.13757488 0.015840534 -0.043946832 0.10573621
000300 46 eb bd 3d 63 27 89 be cc 8a a9 bc bd 1f 0e 3e
       0.092733905 -0.26787862 -0.020696066 0.13879295
000310 ce 8d 86 bd 2e 3e 29 3e 77 3e 1a bd ec 2f 53 bd
       -0.06570016 0.16527626 -0.037657227 -0.051559374
000320 bc 41 bf bd 20 df c1 bc 03 ac 43 3e ef de 94 3c
       -0.0933871 -0.023665965 0.19108586 0.01817271
000330 72 d9 08 3e 55 e8 bb 3d 4d 3b f7 bd af ea dd 3d
       0.13364199 0.09175173 -0.120718576 0.10835778
000340 ee 01 26 bd ac 65 24 3e ea aa c8 bc d8 5c f1 be
       -0.040529184 0.1605441 -0.02449556 -0.47141147
000350 3a 68 5d bd 0e fb a1 bc 6f a8 68 bd 45 a7 df bd
       -0.054054476 -0.019773033 -0.056801256 -0.10920576
000360 07 cc c9 bd d6 14 36 3e b1 cc 43 be 8e 44 86 bd
       -0.09853368 0.17781386 -0.19121052 -0.065560445
000370 04 c6 a5 bd 78 d5 0e 3e be ab e8 3d 27 f1 ca 3d
       -0.08094409 0.1394862 0.11360882 0.099092774
000380 d6 26 5b 3d b7 ac 96 bc 5c c3 3c 3b fb ca 9a bd
       0.053503834 -0.018392904 0.0028802967 -0.07558247
000390 fc 72 0c 3e 03 52 15 3e 0b 0a 45 3d 77 c7 db 3d
       0.13715738 0.14582066 0.04810528 0.10731404
0003a0 9f f2 16 3e 39 72 12 3e fb e0 44 bc 41 d3 26 3d
       0.1474099 0.14301385 -0.01201653 0.04072881
0003b0 c1 a3 9a 3c 45 a5 1c bd f6 86 04 be 5e 9f d6 3c
       0.018876912 -0.03824355 -0.12942109 0.02619904
0003c0 25 8c e5 3c 71 6d 2f be 39 43 1b 3e 86 a1 c4 3d
       0.028020928 -0.17131592 0.15162362 0.09601121
0003d0 56 ab ac 3d 77 f8 9c 3d b2 d2 b3 bc d9 67 16 bd
       0.08431117 0.076645784 -0.021951053 -0.03672013
0003e0 80 3b 93 3c 9f 36 3d 3d b1 8c 80 bd b7 60 70 3d
       0.017972708 0.04619467 -0.06276835 0.058685984
0003f0 a9 58 fc bc c6 fc 87 bc af 7b 18 3d eb 4f 8c bc
       -0.030803995 -0.016600024 0.03722733 -0.017127952

local_map_cnn.4.bias f4 [32]
000000 ca 4d 3a 3d a6 79 85 bc 3e 9b 27 be e5 6b ad be
       0.04548434 -0.016293358 -0.16367814 -0.3387138
000010 d3 bf b0 3c d0 66 c5 bc 8d 37 84 3c f2 7c e3 bd
       0.021575844 -0.024096876 0.01613977 -0.11107816
000020 21 c2 1e 3e 7d f0 1c 3d b1 53 c4 3d 56 e9 d2 bd
       0.15503742 0.038315285 0.09586275 -0.102984115
000030 5b 7e fb 3d 27 dc 11 3e 33 05 0e be d9 0c 60 3e
       0.1227996 0.14244138 -0.13869171 0.21879901
000040 77 1e 53 be ce 56 b4 3d a7 ba 04 3e ab 4b 16 be
       -0.2061709 0.08805619 0.12961827 -0.14677303
000050 c3 05 11 be 9f 1d 23 bd 4b a6 3e 3d 9a f3 a3 bd
       -0.14162354 -0.03982317 0.046545308 -0.08005448
000060 38 ff 8f bd 30 23 ee 3d b8 f4 10 be c0 21 99 3c
       -0.07031101 0.11627805 -0.14155853 0.018692851
000070 12 e4 e6 3c f4 88 96 3d 12 e7 cb 3b 1e ce ba bb
       0.028184924 0.073503405 0.006222614 -0.0057008406

local_map_fc.weight f4 [64, 512]
000000 63 b6 82 bd a5 59 78 bd 4f b4 34 be 6f 50 1e be
       -0.06382444 -0.060632367 -0.17646907 -0.1546037
000010 72 40 1d 3d b5 67 03 be 3e db 1e be 7a ad 6d 3c
       0.038391538 -0.1283253 -0.15513322 0.014506692
000020 2d 31 96 bd 63 bd a1 bd 08 89 e8 bd f1 2b a2 3d
       -0.07333598 -0.07897451 -0.11354262 0.079185374
000030 a2 17 b2 3d 2c b5 9e bd 3a 4d 91 3d a0 c0 27 be
       0.08695914 -0.077493995 0.07094808 -0.16382074
000040 ee ba b8 bd 0c 9d 81 bd e5 4f 8f bd e8 4a d1 3c
       -0.09020029 -0.063287824 -0.069976605 0.025548413
000050 b3 d0 87 bd e3 90 7d bd 68 a4 9f bd 2c c8 a4 bc
       -0.06631603 -0.061905753 -0.0779503 -0.02011498
000060 49 a2 2f bd b0 a5 c9 3c 08 e7 92 bc d1 45 11 bd
       -0.042879377 0.024615139 -0.01793243 -0.035466973
000070 7e 99 90 bd b7 06 dd 3d 94 34 50 3d a1 76 af 3d
       -0.07060526 0.107922964 0.050831392 0.085675485
000080 06 e7 f9 bd 27 79 bf bc a7 36 22 3d 24 75 3f bc
       -0.12202267 -0.0233732 0.0396029 -0.011685643
000090 3a 6b 9e be b6 b4 c0 bd ae ab 6c 3d 86 e6 4b be
       -0.30941182 -0.09409468 0.057780914 -0.19912156
0000a0 af e4 71 bd 44 ff 75 be ad c8 6f bc 53 59 ca bd
       -0.05905598 -0.24023157 -0.014635247 -0.098803185
0000b0 3e bc d0 3d 8b 8f 60 3d f2 23 83 3b 77 1e b8 3d
       0.10192154 0.054824393 0.0040020877 0.08990186
0000c0 45 d0 b5 3c 04 11 0f be 41 45 67 3b 54 e3 60 3d
       0.022194037 -0.13971335 0.0035289081 0.054904297
0000d0 ba cc 83 bc b6 d7 a0 bd 28 8d 5e 3d 4f f4 ac bd
       -0.016088832 -0.078536436 0.054333836 -0.08445036
0000e0 5e 45 d2 bc bc 85 6a 3d 67 ae 5d bb 55 66 0b 3d
       -0.025667842 0.057256445 -0.0033825876 0.03403314
0000f0 8d bc ef 3c 88 e1 bc bc fc 59 23 bd 61 c1 20 bc
       0.029264713 -0.02305676 -0.039880738 -0.00981173
000100 e4 fe 08 be ff fe 02 be 1d 9e 16 3c 52 f7 18 be
       -0.13378483 -0.12792586 0.009192971 -0.14938095
000110 36 bf 4e bd a6 2b db bd 76 b9 c7 bb f6 f4 2a bd
       -0.05047532 -0.10701685 -0.0060951067 -0.04173752
000120 72 a1 e3 3d 3f 8a a9 bc 85 a6 8f bc 28 e2 8c be
       0.111147776 -0.020695804 -0.017535457 -0.27516294
000130 e6 87 80 bc 19 9b fd 3d bb 00 b1 bd 56 fb d4 3d
       -0.015689801 0.12383098 -0.086427175 0.10399501
000140 de 59 28 3b c4 d2 17 3d 61 2a 1d be d2 19 d5 bd
       0.002568833 0.037066236 -0.15348198 -0.104053155
000150 ee e1 ae bd 5a 66 2e be e6 32 e9 bc d6 58 39 3e
       -0.085391864 -0.17031232 -0.028466653 0.18100294
000160 85 41 0c bd 81 45 7c 3e 50 06 f2 bd b7 b9 93 3d
       -0.03424217 0.24635889 -0.1181761 0.07213157
000170 b2 a4 fc bc ea 28 93 bd 1b ce 27 bd a0 b7 8e 3d
       -0.030840252 -0.07185538 -0.040968042 0.069686174
000180 44 64 c4 bd 06 cd e7 3c ae e6 ed 3b ae e1 fe bd
       -0.09589437 0.028296005 0.007260165 -0.12445389
000190 cc c6 be bd 89 33 bf 3b a7 55 44 ba 7e cd ad 3c
       -0.09315261 0.005835001 -0.000748957 0.02121615
0001a0 cb 2a 3b 3d c2 64 79 3e 78 2a d1 bd 1c 1a 14 be
       0.045695107 0.24354842 -0.102131784 -0.14463085
0001b0 a8 c4 2f bc 67 3a 89 bd 01 b8 6a bd 6f 1a c0 3c
       -0.010728039 -0.067005925 -0.057304386 0.023450105
0001c0 c0 de 8a 3d 14 f2 af bb ee ae d2 bb 79 b5 77 bd
       0.067807674 -0.005369434 -0.0064295447 -0.0604758
0001d0 7a d9 10 be 00 07 13 be fb 29 a2 3c 8d fb 96 3d
       -0.1414546 -0.14358139 0.019795408 0.07372198
0001e0 86 58 a7 bd 4f ae 29 be c8 17 30 be 2d f3 89 bb
       -0.081711814 -0.165704 -0.17196572 -0.004209897
0001f0 08 6a 89 bd 89 66 99 ba 96 2b 50 bd 8e 38 c3 3b
       -0.06709677 -0.0011703531 -0.050822817 0.0059576696
000200 23 28 b3 bd 6b d0 51 be 52 a8 23 be c0 fa 37 be
       -0.0874789 -0.20489661 -0.15982178 -0.17966747
000210 96 da f6 bd f8 74 d8 bd c7 8d 30 be 1e 28 cb 3d
       -0.12053411 -0.10569185 -0.17241584 0.09919761
000220 2a 6d 61 bd ca 20 ef bc 5f fb 22 be bd 0c 8b bd
       -0.055035748 -0.02919044 -0.15916203 -0.06789539
000230 3d 02 b2 3d 60 61 2b 3d fc 86 93 3c 0a ca 61 bd
       0.08691833 0.04184091 0.018008702 -0.05512432
000240 f6 4c 33 be 54 cd 4b 3d 14 fc 29 be 1e e3 82 be
       -0.17509827 0.049756363 -0.16600066 -0.25563902
000250 d4 ce dd bc f1 8b 5d bd 53 6a 3d be e3 98 58 be
       -0.027076162 -0.054088537 -0.1849759 -0.21152072
000260 c7 ff 98 bd f9 52 9f bd 6d ec ad bd c8 f3 5a be
       -0.07470661 -0.07779498 -0.0849236 -0.21382058
000270 70 b0 55 be 25 de 02 be c2 b5 bd 3d 8e 64 ad bd
       -0.20868087 -0.12780054 0.09263183 -0.08466445
000280 2a bb c3 3c 01 2c 05 be 9e 93 94 3d 93 cf 75 3c
       0.023892958 -0.13005067 0.07254718 0.015003103
000290 a3 ac c3 bd 48 0b 0f bc ea 4f 56 3c bd e8 cf bd
       -0.09554412 -0.008730717 0.013080576 -0.10151813
0002a0 0a 96 24 bd 8a b2 f3 bd c9 8a 6b 3d e7 cb 0f bd
       -0.04018215 -0.11899288 0.057505403 -0.035106566
0002b0 e3 22 09 be 54 0d 6d be 98 4d 97 3d cc 1b bd bc
       -0.13392214 -0.23149616 0.07387847 -0.023084544
0002c0 61 79 66 bd eb 1e df bd 4e 3b 14 be 98 a5 0e bd
       -0.0562681 -0.10894569 -0.14475748 -0.03482589
0002d0 e7 ca 7e bd 14 99 db bd ae 04 94 bd 99 12 37 bd
       -0.06220522 -0.10722557 -0.07227455 -0.04469547
0002e0 56 9c ce bd 36 75 45 be 74 08 e2 bd 34 11 cf bc
       -0.100884125 -0.19282994 -0.110367686 -0.025276758
0002f0 67 57 fc 3c 9a ba 2e 3d c5 99 17 bc b0 ce 9f 3d
       0.030803395 0.042658426 -0.00925297 0.078030944
000300 99 a9 99 bd b1 a9 fd bd 7d f3 0c be fb e4 75 be
       -0.07503051 -0.12385882 -0.13764758 -0.2401313
000310 db 53 c5 bd 7e 49 b8 bd e1 15 77 bd 30 8b 1d be
       -0.09635135 -0.089983925 -0.0603236 -0.15385127
000320 c1 69 be 3c fa 7c 52 3c 81 49 b1 3c 85 db b9 bd
       0.023243787 0.01284718 0.021641495 -0.09075073
000330 14 e8 fc 3d 42 27 ae 3d f3 d7 77 bd 99 02 20 3d
       0.12348953 0.085035816 -0.06050868 0.039064977
000340 70 ea be bc 32 65 0e be fa 49 be bc be b6 8b 3d
       -0.023305148 -0.1390579 -0.023228634 0.06821965
000350 ba fe de 3c 8a f1 1d be e6 3d 1f 3d d4 02 b5 3c
       0.027221072 -0.15424171 0.03887739 0.022096075
000360 4a 0c 88 bc e6 e4 4a 3c 52 58 50 3d e4 85 3f 3d
       -0.016607422 0.012383675 0.05086548 0.046758547
000370 d1 a7 07 bd b6 78 08 be 5b 57 ab 3c f3 33 b6 3c
       -0.033119027 -0.13327298 0.020915678 0.022241568
000380 52 fe 80 bd 17 d7 d9 bc 87 e2 8a bd 9b c9 c0 3d
       -0.06298508 -0.02659182 -0.06781488 0.09413453
000390 c0 9d cd 3d fc b1 64 bd 52 7d 9e 3d 81 ee 9f 3d
       0.10039854 -0.0558338 0.07738747 0.07809163
0003a0 7d e6 f9 3c 59 4a 56 bd 8f e9 71 3d e1 fe 90 bd
       0.030505413 -0.052316997 0.05906063 -0.07079864
0003b0 68 d0 0a bd 48 cc d6 bd 84 5f 5b 3d d0 2a 98 bd
       -0.033890158 -0.10488182 0.053557888 -0.07430041
0003c0 7e 3f a4 bd 3d 3e c1 bb c8 24 dc bd 65 76 01 3d
       -0.08019923 -0.005897312 -0.10749203 0.03160705
0003d0 b9 e7 f2 bd 2c 20 04 bd 0c 45 40 be 58 f4 25 3d
       -0.11860604 -0.032257244 -0.1877634 0.040516227
0003e0 7c 5f e4 bd ec ff cd bd 4b 00 aa bc b8 68 20 bd
       -0.11151025 -0.10058579 -0.020752093 -0.039162368
0003f0 fe fb ce 3c 73 d5 bb bc e3 2b 04 bd be 90 83 bd
       0.025266644 -0.022928929 -0.032268416 -0.06424092

local_map_fc.bias f4 [64]
000000 9f 2b a9 bd 58 06 da bd a3 4e 01 bc 7f 1f 8b bd
       -0.08260273 -0.10645741 -0.007892284 -0.06793117
000010 28 8e 75 bd b0 49 c8 bd 9a 25 b8 bd bb 26 bb 3d
       -0.059950024 -0.0977968 -0.08991547 0.091382466
000020 4d d5 f7 bb 55 17 44 bd 99 57 4f bd 97 06 f8 bc
       -0.007563269 -0.047873814 -0.05062065 -0.03027658
000030 b6 83 14 3e 32 5b 68 bc db 3b 08 bd e4 5b be 3d
       0.14503369 -0.014181899 -0.033260208 0.092948705
000040 09 b3 15 3d 96 4b 29 bc 10 df a9 bd 3a 1e 04 3c
       0.036547694 -0.0103329625 -0.08294499 0.008063847
000050 ea 54 c6 bd f1 f3 fe bd 2b 44 6e 3d 12 41 90 3d
       -0.09684165 -0.12448872 0.05817048 0.07043661
000060 a8 5a 43 bd 05 67 7a bd f4 f2 66 3d 31 7f 8c bd
       -0.04769388 -0.061133403 0.056384042 -0.06860197
000070 3d 5c 5d 3d 24 87 77 3d 8d d7 10 bc 88 8d ec bd
       0.054043043 0.060431615 -0.008840454 -0.115504324
000080 7f 0d 81 3d 71 c5 16 3b 74 ef e9 bc fe e7 f4 bc
       0.06301402 0.0023005868 -0.028556563 -0.029895779
000090 f4 02 53 bd 93 ce e7 3d 9b 3f 16 3e 45 46 23 3d
       -0.05151649 0.11318698 0.14672701 0.039861936
0000a0 2e 9c 71 bd 9d 88 a3 bd 12 42 cb 3c d6 9e f0 3d
       -0.058986835 -0.07985041 0.024811778 0.117490456
0000b0 1f cc c5 3d e9 01 df 3d fa 37 80 bd bf b6 c6 bb
       0.09658074 0.10889036 -0.06260677 -0.0060642655
0000c0 2d c7 6e bd d2 5f 9f bc 16 35 b8 bd d1 a0 ab bd
       -0.058295418 -0.01945487 -0.089945 -0.08380283
0000d0 91 45 50 3d ff 08 06 be 2c 05 52 bd 61 a2 cd 3d
       0.050847594 -0.13089369 -0.051274464 0.10040737
0000e0 d4 bf a3 3a 5d 7c 4e be 02 41 26 bc 18 48 6e bd
       0.0012493082 -0.20164628 -0.010147335 -0.058174223
0000f0 5c 6c 63 bd 5b cd 99 3d aa 80 80 3d 66 50 b7 3d
       -0.05552326 0.075098716 0.06274541 0.08950882

self_entity_fc1.weight f4 [32, 26]
000000 59 4f 8b 3e 51 10 54 3c 82 56 b5 39 d6 dd 86 3c
       0.27208975 0.012943343 0.00034587464 0.016463201
000010 36 e3 ac bc a7 b2 14 3e 8d 4e 55 3b 5a c2 af be
       -0.021104436 0.14521275 0.003254804 -0.34327966
000020 00 55 aa bc dc 7f bc bd 95 b9 1a be 52 a3 03 bf
       -0.020792484 -0.09204075 -0.15109856 -0.5142108
000030 fd 62 2d 3e 96 93 32 be c7 54 5d 3e cd 01 1c 3e
       0.16932292 -0.17439112 0.21614371 0.15235062
000040 16 f1 61 be f8 c1 c0 bd 23 bc a1 3d bc cb dc 3b
       -0.22064623 -0.094119966 0.07897212 0.006738154
000050 83 77 13 bd 5a 0f a6 3e a6 6e 0d be a9 19 3d 3e
       -0.036002647 0.32433587 -0.1381174 0.1846682
000060 1a c9 25 bb 01 72 56 3d 13 f4 b4 be d3 02 cd bd
       -0.0025296868 0.052354816 -0.35342464 -0.10010304
000070 ea 89 0e 3c 45 39 3b 3e c8 8f 31 3e 86 b0 0b be
       0.008699873 0.18283565 0.17340004 -0.13641557
000080 1e d3 cc 3d 98 b2 9d be 97 77 bf bd 19 0e 79 bd
       0.10001205 -0.3080032 -0.09348982 -0.06080446
000090 ef 34 00 be 87 c5 c2 3c 4c e5 d5 3c 1d f9 68 3d
       -0.12520193 0.023775829 0.026110314 0.056878198
0000a0 d5 80 56 3e fa 39 0b 3e df 4e e4 3d 1c 69 23 3c
       0.20947583 0.13596335 0.11147856 0.0099737905
0000b0 7a 33 6e bd ca 1a 63 3b 76 dd 72 bd be df b8 3d
       -0.05815456 0.0034653419 -0.059293233 0.090270504
0000c0 8b b8 3b bd a7 2b 85 bc 73 2b b4 3d 1e 22 41 3e
       -0.04583029 -0.016256167 0.0879735 0.18860671
0000d0 d7 c2 1c bb 49 a2 a4 bd 15 dd 90 3d 75 3e 10 be
       -0.0023919845 -0.08038766 0.07073418 -0.14086325
0000e0 24 46 ef 3d 57 1f 06 bf ce 3d 98 be 95 4c e4 3d
       0.116833 -0.5239157 -0.29734653 0.11147419
0000f0 23 9b f5 3d 76 52 9d bd 80 86 d0 be 7e 32 40 bd
       0.119924806 -0.07681744 -0.40727615 -0.046923153
000100 46 96 83 bd cb 5f 86 3d ef 8f 95 3d 45 bd 69 3e
       -0.06425147 0.0656124 0.07302844 0.22826107
000110 18 c7 15 3d de 1d c3 3d 4c 63 cb 3b 62 de 26 3e
       0.036566824 0.09527181 0.0062069055 0.1629577
000120 15 03 81 3d 2e c6 ec 3d 9c 1d 38 3e 0a 61 dd bd
       0.06299416 0.11561237 0.17980045 -0.10809524
000130 bd c6 23 bd b0 bf 08 be ee c0 c4 bd 90 55 df bc
       -0.039984453 -0.13354373 -0.09607111 -0.027262479
000140 1e 23 03 3e 09 32 ab bd 68 45 bc bd 8e 67 eb 3d
       0.12806365 -0.08359153 -0.09192926 0.11494361
000150 cc 67 e5 3d b9 38 52 bd 73 54 47 3f 32 f3 9a 3e
       0.11201438 -0.051323626 0.77863234 0.30263668
000160 40 21 c5 3d 89 0a 98 bd 6b cf 05 3d 41 82 87 3e
       0.096254826 -0.074238844 0.032668512 0.26466563
000170 2d db 47 bc d4 d8 20 be a1 c4 4f 3e d1 4f 6c 3e
       -0.012198252 -0.15707713 0.20289852 0.23077323
000180 f9 3d de bd 3e 56 11 bd 60 0e 90 3e 61 7d 84 bd
       -0.10851664 -0.035482638 0.28135967 -0.06469227
000190 39 00 1d be ac 78 1c 3d 35 50 e1 bd 25 e6 08 3e
       -0.15332116 0.03820102 -0.110016264 0.13369043
0001a0 00 3f 2a be 1c 0b 1c 3d 10 25 64 bc 94 30 1e be
       -0.16625595 0.038096532 -0.013924852 -0.15448219
0001b0 c1 15 02 3e e4 90 60 3d c0 e7 55 3c 35 27 6a be
       0.12703611 0.05482568 0.013055742 -0.22866519
0001c0 7f 12 6f 3d 02 d0 1e 3e 36 42 de 3e 1a db 69 3e
       0.05836725 0.15509036 0.4340989 0.22837487
0001d0 2d 3b 19 3e 28 6a db 3d d7 f1 40 be f5 8e 4c 3d
       0.1496398 0.10713607 -0.18842255 0.049941022
0001e0 90 00 62 3e 2c 4a c1 3e 49 c6 e4 bd a6 ec 31 bd
       0.22070527 0.377519 -0.111706324 -0.043438576
0001f0 6b 63 14 3d c8 fa ba bd 88 62 72 bd 24 b3 be bc
       0.036227625 -0.09129864 -0.059175998 -0.02327878
000200 53 9f e8 bd 88 7a d3 bd 89 82 94 3d 92 9c f4 3d
       -0.11358514 -0.10326105 0.0725146 0.11943926
000210 fb 32 4c 3e ce 03 64 3d aa 93 15 3d f0 05 a3 bd
       0.19941323 0.05566769 0.036517777 -0.07960117
000220 c7 50 15 3e cd 96 e3 be f6 66 5f 3e e1 21 f1 3b
       0.14581595 -0.4445099 0.2181662 0.007358775
000230 72 f0 2c 3d b2 a3 a5 3e 17 ae 20 3e 2a 40 00 3e
       0.042221494 0.32351452 0.1569141 0.12524477
000240 4a c2 9c 3b a0 cb 67 be 6e 80 9b 3d 33 ae 96 bc
       0.0047839032 -0.2263627 0.075928554 -0.018393612
000250 b5 0d 2b be 0d e6 54 be de dd 39 be 68 5b 29 be
       -0.16704448 -0.20790882 -0.18151042 -0.16538775
000260 9e c2 01 be bc b7 3a be 9f 0a 7b 3d 5e f8 c5 3d
       -0.12671897 -0.18234152 0.061289426 0.09666513
000270 c1 34 2b bd 79 bb 00 be aa dc f8 3a b9 36 12 3e
       -0.041798357 -0.12571515 0.0018986661 0.14278688
000280 14 18 f6 3d 4c ff eb bd d2 89 87 bd ab a9 84 be
       0.12016311 -0.115233034 -0.06618084 -0.25910696
000290 68 c3 8e 3d 60 13 b5 bc 69 a4 b9 be 8b 07 76 3d
       0.069708645 -0.022103965 -0.36258247 0.060065787
0002a0 8c 88 53 bf 9b 10 be 3d 89 77 f4 3d 98 ac 9f 3d
       -0.8263023 0.09280511 0.11936862 0.077965915
0002b0 12 bc 81 be b1 5b 05 be 76 a1 e1 3c 2f e1 2a 3c
       -0.253388 -0.13023259 0.02754281 0.0104296645
0002c0 5c af ca bb 2d 3f 65 3e 48 4e 03 3e 49 5e bc bd
       -0.0061854552 0.22387381 0.1282283 -0.09197671
0002d0 57 95 f5 3b ce af 00 be d8 48 3b 3e 3a a3 d6 3a
       0.0074946093 -0.12567064 0.18289506 0.001637555
0002e0 e2 a7 11 bc 98 7b 4e 3d 60 1e ee bc a2 50 10 be
       -0.008890124 0.050410837 -0.029067218 -0.14093259
0002f0 aa 30 a9 3d eb 54 25 bb c6 be 16 bf cd 7d 0d 3e
       0.08261235 -0.0025227617 -0.5888485 0.1381752
000300 29 5e 19 be b9 20 7c 3e c6 6d c2 3d 40 6d e2 3d
       -0.14977325 0.24621858 0.09493594 0.11055994
000310 1d ca d0 3d fe fb 81 3e d4 20 e4 3d 2c 3d 55 3e
       0.101948 0.25387567 0.11139074 0.20824116
000320 15 c2 21 bd 4f 54 d7 3d 78 18 1d 3d 4a 74 47 3e
       -0.03949173 0.105141275 0.038353413 0.19477955
000330 61 df d4 3b 6f 21 94 bd be 05 ba 3d 00 a6 0f be
       0.0064963554 -0.072329395 0.090831265 -0.14028168
000340 77 5a 41 bc 5f cc dc bd 3e c8 90 ba f0 14 c1 3d
       -0.011801354 -0.10781168 -0.0011046005 0.09427822
000350 b6 c7 b6 bc d7 cd c1 bd 22 58 69 3d 83 cf 04 3f
       -0.022312026 -0.09463089 0.056968816 0.5187914
000360 de 4b c8 3c 3e fa 61 3d b8 22 40 bf 33 71 ca bd
       0.024450239 0.05517029 -0.75052977 -0.09884872
000370 82 93 e8 bd 7d 7f c4 3d d1 0a 33 3e f5 22 09 3e
       -0.1135626 0.09594629 0.17484595 0.13392241
000380 36 f0 1c 3e 80 ce ad bd 4c 67 39 bd 4a 47 69 bd
       0.15326008 -0.084866524 -0.045264527 -0.056952752
000390 b0 51 02 bd d8 0e 23 3e 67 9a c5 3d 39 ce 6d bd
       -0.031816185 0.15923631 0.096485905 -0.058057997
0003a0 f0 ed 0a be 58 d0 08 be dd 29 38 be 2d 86 50 be
       -0.13567328 -0.13360727 -0.1798472 -0.20363684
0003b0 1a 18 17 bd 7b b8 c6 3d 3b ca 66 bd cb 2b d1 be
       -0.03688822 0.097031556 -0.056345206 -0.40853724
0003c0 b8 19 db be c8 3f 15 3e 3f 0b 1b be 49 71 c5 bc
       -0.4279306 0.14575112 -0.15141009 -0.02410187
0003d0 9f 22 11 3e 34 d5 2a 3e 3f a2 96 3d 61 a8 97 bd
       0.14173363 0.16682893 0.07355165 -0.074051626
0003e0 84 4f c5 3d da 62 01 3e fd 6a 64 bd a3 f0 e7 bd
       0.09634307 0.12635365 -0.055766094 -0.11325195
0003f0 53 bc 7e 3d d6 9d 66 bd ae 9f 73 3c 6a 9a 91 3e
       0.06219132 -0.056302868 0.014869614 0.2843812

self_entity_fc1.bias f4 [32]
000000 59 60 18 bc bc 73 8c 3e 03 11 31 3d e0 8b 6b be
       -0.009300315 0.27432048 0.043229114 -0.23002577
000010 b7 38 92 bd 38 f4 04 be d1 da 82 3e 64 5a 06 3e
       -0.07139724 -0.12983787 0.2555757 0.13120419
000020 7b b7 5e 3e ab 55 22 3e 29 15 b1 3d 84 ba 66 3e
       0.2174968 0.15852992 0.08646614 0.22532088
000030 87 e4 86 3c c6 21 a9 bc b2 78 e9 bd b4 91 2f bd
       0.016466392 -0.020645987 -0.11399974 -0.042863563
000040 0a 16 24 3e 39 33 1a 3e 4f 94 71 3e 59 74 93 3d
       0.16024032 0.15058602 0.23591731 0.07199926
000050 45 b7 6f 3e 62 70 ee 3d d6 d9 7e 3e 05 76 79 bd
       0.23409756 0.11642529 0.24887785 -0.060903568
000060 5c 17 80 3e 31 96 ec 3d a5 f1 65 be 0d db 4c 3d
       0.25017822 0.11552084 -0.22455461 0.05001359
000070 43 aa c2 3e 65 27 07 3f 25 a0 39 bd 63 e1 0e 3d
       0.38020524 0.52794486 -0.04531874 0.034882914

self_entity_fc2.weight f4 [32, 32]
000000 73 60 de bd 82 de 3a 3e af a0 d5 3e d0 f9 d4 be
       -0.1085824 0.18248942 0.41724154 -0.41596842
000010 43 7f 57 3e 0b 2b b9 3d 9e 75 a6 bd ca f5 67 3e
       0.2104464 0.09041413 -0.081279024 0.22652355
000020 bb c9 7b be ed d6 43 bd 75 c3 c0 3d 1f b7 35 be
       -0.24588673 -0.04781239 0.094122805 -0.17745636
000030 73 b7 1e bd 02 6e 20 3e 87 4c ae be 8f 30 d5 3d
       -0.03874917 0.15666965 -0.3404276 0.104096524
000040 fc 74 62 3d f5 29 54 3d f1 e0 de 3d f0 d3 5b bd
       0.055287346 0.051797826 0.10882748 -0.053668916
000050 1c 95 81 3c 9d 39 b8 ba ef 3f 80 bd 8f 1c 73 3e
       0.015818171 -0.0014055256 -0.06262194 0.23741363
000060 b3 58 c0 3c 55 80 dd 3d 4e b3 c0 be d3 32 69 3e
       0.023479795 0.10815493 -0.376368 0.22773294
000070 89 aa 0b 3f 38 2c 0f 3f 2b 9b 68 3e c1 3c f8 bc
       0.5455709 0.5592685 0.22715442 -0.030302407
000080 4b 55 93 3e 6e 78 0a 3e fb 40 a5 bd 3e fd bf 3d
       0.2877601 0.13522503 -0.08069035 0.09374474
000090 01 d1 0a bf 36 ea 12 be e4 3c 51 3f 72 af e2 bd
       -0.54225165 -0.14347157 0.81733537 -0.1106862
0000a0 e1 ff 12 3f fd a5 63 bd 54 ae 99 3e 27 21 17 3f
       0.5742169 -0.05557822 0.30015814 0.5903496
0000b0 d3 89 6d 3d ea 0c 16 bf 16 df fc 3d bd de 1f 3e
       0.057992768 -0.58613455 0.12347238 0.15612312
0000c0 4c 15 48 3e 53 20 13 3d 8e 31 5f 3c f0 1f 6e be
       0.19539374 0.0359195 0.013622655 -0.2325437
0000d0 ef 26 8b 3d e9 8e 18 3e 86 14 05 be 61 85 1d be
       0.06794535 0.14898266 -0.1299611 -0.15382911
0000e0 b2 ac 82 be 0a 40 9f 3d 7c 96 16 be c3 09 04 be
       -0.2552238 0.07775886 -0.14705843 -0.12894349
0000f0 91 bd 11 bf fa 02 1d bf b8 8e bf bd 40 1c d0 bd
       -0.5692988 -0.61332667 -0.09353393 -0.10161638
000100 4c b2 82 bd 38 d3 bf bd 73 13 f3 be 64 1a 5e be
       -0.06381664 -0.09366459 -0.47475776 -0.21689755
000110 83 3b 6d 3e 2c eb 26 be 4e ca b1 3d 7c 3b 14 3e
       0.23167233 -0.16300648 0.08681165 0.14475816
000120 0c fc 47 bf ba 30 70 bd 0a 55 d0 3d 38 13 d7 bd
       -0.7811897 -0.05864022 0.1017247 -0.105017126
000130 a0 80 bf bd b4 90 39 bf 17 80 8e be 6d a7 97 3d
       -0.09350705 -0.72486424 -0.278321 0.07404981
000140 9e 37 64 3d 27 67 1d 3e ac 06 8a 3e 8c 71 7c be
       0.055717103 0.15371381 0.26958215 -0.2465269
000150 4d 8a b1 3c a0 ce 03 bc 60 9a cb 3d 57 1b 55 3e
       0.021672392 -0.008044869 0.09941554 0.2081121
000160 4b 4a 00 3e 0a cf 2b 3e c3 19 eb be 8c a0 67 bd
       0.1252834 0.16778198 -0.45918092 -0.056549594
000170 3b c5 c8 b8 b9 e1 de bd fe dc bc bd cb 4d 73 bd
       -9.57348e-05 -0.10882897 -0.092218384 -0.05940036
000180 75 cd 3e 3d 95 54 f7 bd 6f e0 8c be 38 f9 0e 3e
       0.046582658 -0.120766796 -0.2751498 0.13962257
000190 54 14 19 3e 8b a3 5a 3e 71 0a 1e bb f5 89 d6 be
       0.14949161 0.21351449 -0.002411511 -0.41902128
0001a0 de bd b7 be 62 7d 5e be cf a6 15 bf d2 af 26 3b
       -0.35887045 -0.21727517 -0.58457655 0.0025434387
0001b0 9d af 97 3e 3a 0b dd be fb a1 a3 3e d5 80 27 3e
       0.2962617 -0.43172628 0.3195952 0.1635774
0001c0 fc b3 91 3d 23 ef 23 3e 71 be ce be 1a 99 6b bd
       0.071144074 0.16009192 -0.4037967 -0.057519056
0001d0 7c ca 18 be 79 b6 b5 bd 07 f2 16 be 8a 5d 53 bc
       -0.14920992 -0.088726945 -0.14740764 -0.012900719
0001e0 05 18 e5 bb 93 6d 47 bd 33 6a 71 3e 83 f0 fb be
       -0.0069913887 -0.048688482 0.23575668 -0.49206933
0001f0 ce 9f 25 3e f2 9a de 3d 4f f2 c5 bd ed 6b 48 3e
       0.16174242 0.10869397 -0.09665357 0.1957242
000200 9d da dc 3e d6 db 49 3e 46 e2 80 bd 98 17 12 bd
       0.4313554 0.19712767 -0.06293158 -0.035667032
000210 27 a3 c4 be dd 10 fe bd 09 12 15 3e 67 85 18 be
       -0.38405725 -0.1240556 0.14557661 -0.14894639
000220 e0 1b 0f 3f 44 9a 69 bc f3 80 72 3e 26 cb 17 3f
       0.5590191 -0.014257971 0.23682003 0.59294355
000230 8e 5a 1d 3e 1b e1 4f bf 56 ca f8 bc d0 b5 6e 3e
       0.15366575 -0.8120286 -0.030369919 0.23311543
000240 71 b6 66 3e 21 4a 35 3d 9b 94 a7 bd e9 7a b1 3d
       0.22530533 0.044260148 -0.08182641 0.086660214
000250 11 4a 9d 3e 8a 7e 2a 3e c9 3e 6f bc 22 07 21 3e
       0.3072057 0.16649833 -0.0146023715 0.15725377
000260 39 84 cc be 2b 07 ca 3d 8d 34 1e 3d 6a 97 64 3d
       -0.39944628 0.098646484 0.038624335 0.055808462
000270 3b dd d2 be 03 78 06 bf 9f 9d f2 3d 6c 5a 1c bc
       -0.4118441 -0.52526873 0.1184647 -0.009543043
000280 43 17 36 3e d3 b4 9e 3e f3 2e 83 3e 6a 85 c0 bd
       0.17782311 0.30997333 0.25621757 -0.09400447
000290 ac ab 21 3e 68 01 d5 bc be 45 98 3c 80 f9 99 3d
       0.15788144 -0.026001647 0.018587943 0.075182915
0002a0 2d 59 43 3f 22 12 50 be 2b fc a1 3e 01 a6 81 3e
       0.76307946 -0.20319417 0.316377 0.25321963
0002b0 06 e3 78 be 68 ac 76 3e 32 40 39 3e 6c 50 0d 3e
       -0.24305353 0.24089205 0.18090895 0.1380021
0002c0 56 11 42 3e 9f 10 7d 3d 1c c8 64 bc 45 1c 32 3e
       0.18951926 0.06178343 -0.013963725 0.17393596
0002d0 59 6a d5 3d 08 8c 89 bd 45 9e cf 3d 39 d9 5c bd
       0.10420675 -0.06716162 0.101376094 -0.053918097
0002e0 65 28 7c 3e 2f 87 26 be 66 6d 5b be 41 fd b4 3d
       0.24624784 -0.16262506 -0.21428451 0.08837367
0002f0 5b 05 98 be 0d 05 f6 be 74 26 a5 bd aa 07 37 be
       -0.29691586 -0.48050728 -0.08063975 -0.17874017
000300 55 99 4b bd 4f 61 2e 3e 5f 95 c2 3d 5f c7 ad be
       -0.049706776 0.17029308 0.095011465 -0.3394117
000310 29 c2 c2 3d f8 2c 3b 3d 0c 88 9e be bc 3d 29 3d
       0.09509689 0.045697182 -0.3096317 0.04131864
000320 38 d1 85 bf 21 77 aa bb 7b 1a 73 3e b6 d6 a8 bd
       -1.0454473 -0.0052021896 0.2374057 -0.08244078
000330 7f 90 58 be b3 7a 68 bf 41 f9 a9 bc c4 e8 c5 bd
       -0.21148871 -0.90812224 -0.020748736 -0.09663537
000340 49 ee d5 3d 98 05 47 3e e8 ea fe 3d 32 d8 07 3d
       0.1044584 0.19435728 0.124471486 0.033165164
000350 dd 72 33 3e 4e 16 33 be a9 bb 67 3e a2 17 d5 3d
       0.17524286 -0.17488977 0.2263018 0.10404898
000360 e3 e7 fb 3d d5 56 cd 3c d7 9f fd be 8f c5 8e 3e
       0.12300088 0.025065819 -0.4953601 0.278851
000370 11 e9 d4 bd ce 3a ab bd b0 d0 18 be 96 53 2a 3c
       -0.103960164 -0.083608255 -0.14923358 0.010395905
000380 e5 76 05 3f aa 99 0c 3d 82 9f dc 3d 6f 99 a0 bd
       0.52134544 0.034326233 0.10772611 -0.07841765
000390 54 ac a6 bd e0 77 41 be 2e 98 fc be 37 c4 cb 3c
       -0.08138338 -0.18893385 -0.49334854 0.024873836
0003a0 67 0b be 3e 6b 92 44 3d c6 bf bc 3d d3 07 0e 3f
       0.37118074 0.047991198 0.092162654 0.5548069
0003b0 fe 34 15 bd 3b 4b 69 bf 35 62 00 3c 7d 9b 8a 3d
       -0.03642749 -0.9113042 0.007835914 0.06767938
0003c0 66 22 3a 3d d8 7f eb bc 67 4a 32 3d 2f 8c c3 3d
       0.04544296 -0.028747484 0.043527987 0.09548222
0003d0 98 d7 38 3e 6c 4e 8f bd c6 4a 5c bd 92 71 95 3e
       0.18050992 -0.0699738 -0.053782247 0.2918821
0003e0 cc a7 a3 be 56 46 c1 3d ae 34 77 bd 7d 7d 12 bd
       -0.31963956 0.09437244 -0.060352974 -0.035764206
0003f0 08 87 d3 be b1 70 ca be bf 42 00 3e 5a 65 55 3d
       -0.41313958 -0.39539102 0.12525462 0.05209861

self_entity_fc2.bias f4 [32]
000000 ac bf ea 3d 32 25 b0 3d ae 71 d3 3b bd e1 91 bd
       0.1146234 0.086008444 0.0064527607 -0.07123134
000010 22 2a 55 3e 9f 80 01 bd b4 ac 00 bd 9c 28 8b 3e
       0.20816854 -0.031616803 -0.031414703 0.2717942
000020 d7 57 64 bd 6c 37 03 be e8 58 17 3e 00 b4 be bb
       -0.055747833 -0.1281411 0.14780009 -0.0058197975
000030 b6 75 23 be 1b 38 1f 3e 49 15 07 bd 0a 1a f2 bd
       -0.15962872 0.15548746 -0.032979283 -0.11821373
000040 59 76 d2 bd f1 c0 09 be 4b 39 53 bd 8c d9 db bd
       -0.10276479 -0.13452508 -0.05156831 -0.10734853
000050 e4 3b 2e 3e 80 22 0b 3e 78 8a 16 3d 98 b6 40 be
       0.17015034 0.1358738 0.036753148 -0.18819654
000060 53 2d bb 3d 62 0a 1e bd eb bf 86 bd 8d b3 0f be
       0.09139504 -0.03858412 -0.06579574 -0.14033337
000070 7c df ef 3d ab d7 83 bd 1f ba cf 3d 8d 9f 41 3e
       0.11712548 -0.0643762 0.10142922 0.1890852
